graph torch-jit-export (
  %0[FLOAT, 2x3x224x224]
  %1[FLOAT, 64x3x3x3]
  %2[FLOAT, 64]
  %3[FLOAT, 16x64x1x1]
  %4[FLOAT, 16]
  %5[FLOAT, 64x16x1x1]
  %6[FLOAT, 64]
  %7[FLOAT, 64x16x3x3]
  %8[FLOAT, 64]
  %9[FLOAT, 16x128x1x1]
  %10[FLOAT, 16]
  %11[FLOAT, 64x16x1x1]
  %12[FLOAT, 64]
  %13[FLOAT, 64x16x3x3]
  %14[FLOAT, 64]
  %15[FLOAT, 32x128x1x1]
  %16[FLOAT, 32]
  %17[FLOAT, 128x32x1x1]
  %18[FLOAT, 128]
  %19[FLOAT, 128x32x3x3]
  %20[FLOAT, 128]
  %21[FLOAT, 32x256x1x1]
  %22[FLOAT, 32]
  %23[FLOAT, 128x32x1x1]
  %24[FLOAT, 128]
  %25[FLOAT, 128x32x3x3]
  %26[FLOAT, 128]
  %27[FLOAT, 48x256x1x1]
  %28[FLOAT, 48]
  %29[FLOAT, 192x48x1x1]
  %30[FLOAT, 192]
  %31[FLOAT, 192x48x3x3]
  %32[FLOAT, 192]
  %33[FLOAT, 48x384x1x1]
  %34[FLOAT, 48]
  %35[FLOAT, 192x48x1x1]
  %36[FLOAT, 192]
  %37[FLOAT, 192x48x3x3]
  %38[FLOAT, 192]
  %39[FLOAT, 64x384x1x1]
  %40[FLOAT, 64]
  %41[FLOAT, 256x64x1x1]
  %42[FLOAT, 256]
  %43[FLOAT, 256x64x3x3]
  %44[FLOAT, 256]
  %45[FLOAT, 64x512x1x1]
  %46[FLOAT, 64]
  %47[FLOAT, 256x64x1x1]
  %48[FLOAT, 256]
  %49[FLOAT, 256x64x3x3]
  %50[FLOAT, 256]
  %51[FLOAT, 1000x512x1x1]
  %52[FLOAT, 1000]
) {
  %53 = Conv[dilations = [1, 1], group = 1, kernel_shape = [3, 3], pads = [0, 0, 0, 0], strides = [2, 2]](%0, %1)
  %54 = Add[axis = 1, broadcast = 1](%53, %2)
  %55 = Relu(%54)
  %56 = MaxPool[kernel_shape = [3, 3], pads = [0, 0], strides = [2, 2]](%55)
  %57 = Conv[dilations = [1, 1], group = 1, kernel_shape = [1, 1], pads = [0, 0, 0, 0], strides = [1, 1]](%56, %3)
  %58 = Add[axis = 1, broadcast = 1](%57, %4)
  %59 = Relu(%58)
  %60 = Conv[dilations = [1, 1], group = 1, kernel_shape = [1, 1], pads = [0, 0, 0, 0], strides = [1, 1]](%59, %5)
  %61 = Add[axis = 1, broadcast = 1](%60, %6)
  %62 = Relu(%61)
  %63 = Conv[dilations = [1, 1], group = 1, kernel_shape = [3, 3], pads = [1, 1, 1, 1], strides = [1, 1]](%59, %7)
  %64 = Add[axis = 1, broadcast = 1](%63, %8)
  %65 = Relu(%64)
  %66 = Concat[axis = 1](%62, %65)
  %67 = Conv[dilations = [1, 1], group = 1, kernel_shape = [1, 1], pads = [0, 0, 0, 0], strides = [1, 1]](%66, %9)
  %68 = Add[axis = 1, broadcast = 1](%67, %10)
  %69 = Relu(%68)
  %70 = Conv[dilations = [1, 1], group = 1, kernel_shape = [1, 1], pads = [0, 0, 0, 0], strides = [1, 1]](%69, %11)
  %71 = Add[axis = 1, broadcast = 1](%70, %12)
  %72 = Relu(%71)
  %73 = Conv[dilations = [1, 1], group = 1, kernel_shape = [3, 3], pads = [1, 1, 1, 1], strides = [1, 1]](%69, %13)
  %74 = Add[axis = 1, broadcast = 1](%73, %14)
  %75 = Relu(%74)
  %76 = Concat[axis = 1](%72, %75)
  %77 = MaxPool[kernel_shape = [3, 3], pads = [0, 0], strides = [2, 2]](%76)
  %78 = Conv[dilations = [1, 1], group = 1, kernel_shape = [1, 1], pads = [0, 0, 0, 0], strides = [1, 1]](%77, %15)
  %79 = Add[axis = 1, broadcast = 1](%78, %16)
  %80 = Relu(%79)
  %81 = Conv[dilations = [1, 1], group = 1, kernel_shape = [1, 1], pads = [0, 0, 0, 0], strides = [1, 1]](%80, %17)
  %82 = Add[axis = 1, broadcast = 1](%81, %18)
  %83 = Relu(%82)
  %84 = Conv[dilations = [1, 1], group = 1, kernel_shape = [3, 3], pads = [1, 1, 1, 1], strides = [1, 1]](%80, %19)
  %85 = Add[axis = 1, broadcast = 1](%84, %20)
  %86 = Relu(%85)
  %87 = Concat[axis = 1](%83, %86)
  %88 = Conv[dilations = [1, 1], group = 1, kernel_shape = [1, 1], pads = [0, 0, 0, 0], strides = [1, 1]](%87, %21)
  %89 = Add[axis = 1, broadcast = 1](%88, %22)
  %90 = Relu(%89)
  %91 = Conv[dilations = [1, 1], group = 1, kernel_shape = [1, 1], pads = [0, 0, 0, 0], strides = [1, 1]](%90, %23)
  %92 = Add[axis = 1, broadcast = 1](%91, %24)
  %93 = Relu(%92)
  %94 = Conv[dilations = [1, 1], group = 1, kernel_shape = [3, 3], pads = [1, 1, 1, 1], strides = [1, 1]](%90, %25)
  %95 = Add[axis = 1, broadcast = 1](%94, %26)
  %96 = Relu(%95)
  %97 = Concat[axis = 1](%93, %96)
  %98 = MaxPool[kernel_shape = [3, 3], pads = [0, 0], strides = [2, 2]](%97)
  %99 = Conv[dilations = [1, 1], group = 1, kernel_shape = [1, 1], pads = [0, 0, 0, 0], strides = [1, 1]](%98, %27)
  %100 = Add[axis = 1, broadcast = 1](%99, %28)
  %101 = Relu(%100)
  %102 = Conv[dilations = [1, 1], group = 1, kernel_shape = [1, 1], pads = [0, 0, 0, 0], strides = [1, 1]](%101, %29)
  %103 = Add[axis = 1, broadcast = 1](%102, %30)
  %104 = Relu(%103)
  %105 = Conv[dilations = [1, 1], group = 1, kernel_shape = [3, 3], pads = [1, 1, 1, 1], strides = [1, 1]](%101, %31)
  %106 = Add[axis = 1, broadcast = 1](%105, %32)
  %107 = Relu(%106)
  %108 = Concat[axis = 1](%104, %107)
  %109 = Conv[dilations = [1, 1], group = 1, kernel_shape = [1, 1], pads = [0, 0, 0, 0], strides = [1, 1]](%108, %33)
  %110 = Add[axis = 1, broadcast = 1](%109, %34)
  %111 = Relu(%110)
  %112 = Conv[dilations = [1, 1], group = 1, kernel_shape = [1, 1], pads = [0, 0, 0, 0], strides = [1, 1]](%111, %35)
  %113 = Add[axis = 1, broadcast = 1](%112, %36)
  %114 = Relu(%113)
  %115 = Conv[dilations = [1, 1], group = 1, kernel_shape = [3, 3], pads = [1, 1, 1, 1], strides = [1, 1]](%111, %37)
  %116 = Add[axis = 1, broadcast = 1](%115, %38)
  %117 = Relu(%116)
  %118 = Concat[axis = 1](%114, %117)
  %119 = Conv[dilations = [1, 1], group = 1, kernel_shape = [1, 1], pads = [0, 0, 0, 0], strides = [1, 1]](%118, %39)
  %120 = Add[axis = 1, broadcast = 1](%119, %40)
  %121 = Relu(%120)
  %122 = Conv[dilations = [1, 1], group = 1, kernel_shape = [1, 1], pads = [0, 0, 0, 0], strides = [1, 1]](%121, %41)
  %123 = Add[axis = 1, broadcast = 1](%122, %42)
  %124 = Relu(%123)
  %125 = Conv[dilations = [1, 1], group = 1, kernel_shape = [3, 3], pads = [1, 1, 1, 1], strides = [1, 1]](%121, %43)
  %126 = Add[axis = 1, broadcast = 1](%125, %44)
  %127 = Relu(%126)
  %128 = Concat[axis = 1](%124, %127)
  %129 = Conv[dilations = [1, 1], group = 1, kernel_shape = [1, 1], pads = [0, 0, 0, 0], strides = [1, 1]](%128, %45)
  %130 = Add[axis = 1, broadcast = 1](%129, %46)
  %131 = Relu(%130)
  %132 = Conv[dilations = [1, 1], group = 1, kernel_shape = [1, 1], pads = [0, 0, 0, 0], strides = [1, 1]](%131, %47)
  %133 = Add[axis = 1, broadcast = 1](%132, %48)
  %134 = Relu(%133)
  %135 = Conv[dilations = [1, 1], group = 1, kernel_shape = [3, 3], pads = [1, 1, 1, 1], strides = [1, 1]](%131, %49)
  %136 = Add[axis = 1, broadcast = 1](%135, %50)
  %137 = Relu(%136)
  %138 = Concat[axis = 1](%134, %137)
  %139, %140 = Dropout[is_test = 1, ratio = 0.5](%138)
  %141 = Conv[dilations = [1, 1], group = 1, kernel_shape = [1, 1], pads = [0, 0, 0, 0], strides = [1, 1]](%139, %51)
  %142 = Add[axis = 1, broadcast = 1](%141, %52)
  %143 = Relu(%142)
  %144 = AveragePool[kernel_shape = [13, 13], pads = [0, 0], strides = [13, 13]](%143)
  %145 = Reshape[shape = [2, 1000]](%144)
  return %145
}