ir_version: 1
producer_name: "pytorch"
producer_version: "0.2"
domain: "com.facebook"
graph {
  node {
    input: "3"
    input: "1"
    output: "26"
    op_type: "Gather"
  }
  node {
    input: "26"
    output: "28"
    output: "29"
    op_type: "Dropout"
    attribute {
      name: "ratio"
      f: 0.200000002980232
    }
    attribute {
      name: "is_test"
      i: 1
    }
  }
  node {
    output: "30"
    op_type: "Constant"
    attribute {
      name: "value"
      t {
        dims: 1
        data_type: INT32
        raw_data: "\000\000\000\000"
      }
    }
  }
  node {
    output: "31"
    op_type: "Constant"
    attribute {
      name: "value"
      t {
        dims: 1
        data_type: INT64
        raw_data: "\000\000\000\000\000\000\000\000"
      }
    }
  }
  node {
    output: "32"
    op_type: "Constant"
    attribute {
      name: "value"
      t {
        dims: 1
        data_type: INT64
        raw_data: "\001\000\000\000\000\000\000\000"
      }
    }
  }
  node {
    input: "2"
    input: "30"
    input: "31"
    input: "32"
    output: "33"
    op_type: "Slice"
  }
  node {
    input: "33"
    output: "34"
    op_type: "Squeeze"
    attribute {
      name: "axes"
      ints: 0
    }
  }
  node {
    output: "35"
    op_type: "Constant"
    attribute {
      name: "value"
      t {
        dims: 1
        data_type: INT32
        raw_data: "\000\000\000\000"
      }
    }
  }
  node {
    output: "36"
    op_type: "Constant"
    attribute {
      name: "value"
      t {
        dims: 1
        data_type: INT64
        raw_data: "\000\000\000\000\000\000\000\000"
      }
    }
  }
  node {
    output: "37"
    op_type: "Constant"
    attribute {
      name: "value"
      t {
        dims: 1
        data_type: INT64
        raw_data: "\001\000\000\000\000\000\000\000"
      }
    }
  }
  node {
    input: "28"
    input: "35"
    input: "36"
    input: "37"
    output: "38"
    op_type: "Slice"
  }
  node {
    input: "38"
    output: "39"
    op_type: "Squeeze"
    attribute {
      name: "axes"
      ints: 0
    }
  }
  node {
    input: "4"
    output: "40"
    op_type: "Transpose"
    attribute {
      name: "perm"
      ints: 1
      ints: 0
    }
  }
  node {
    input: "6"
    output: "42"
    op_type: "expand"
    attribute {
      name: "size"
      ints: 5
      ints: 5
    }
  }
  node {
    input: "39"
    input: "40"
    input: "42"
    output: "43"
    op_type: "Gemm"
    attribute {
      name: "alpha"
      f: 1
    }
    attribute {
      name: "beta"
      f: 1
    }
  }
  node {
    input: "5"
    output: "44"
    op_type: "Transpose"
    attribute {
      name: "perm"
      ints: 1
      ints: 0
    }
  }
  node {
    input: "7"
    output: "46"
    op_type: "expand"
    attribute {
      name: "size"
      ints: 5
      ints: 5
    }
  }
  node {
    input: "34"
    input: "44"
    input: "46"
    output: "47"
    op_type: "Gemm"
    attribute {
      name: "alpha"
      f: 1
    }
    attribute {
      name: "beta"
      f: 1
    }
  }
  node {
    input: "43"
    input: "47"
    output: "48"
    op_type: "Add"
  }
  node {
    input: "48"
    output: "49"
    op_type: "Tanh"
  }
  node {
    output: "50"
    op_type: "Constant"
    attribute {
      name: "value"
      t {
        dims: 1
        data_type: INT32
        raw_data: "\000\000\000\000"
      }
    }
  }
  node {
    output: "51"
    op_type: "Constant"
    attribute {
      name: "value"
      t {
        dims: 1
        data_type: INT64
        raw_data: "\001\000\000\000\000\000\000\000"
      }
    }
  }
  node {
    output: "52"
    op_type: "Constant"
    attribute {
      name: "value"
      t {
        dims: 1
        data_type: INT64
        raw_data: "\002\000\000\000\000\000\000\000"
      }
    }
  }
  node {
    input: "28"
    input: "50"
    input: "51"
    input: "52"
    output: "53"
    op_type: "Slice"
  }
  node {
    input: "53"
    output: "54"
    op_type: "Squeeze"
    attribute {
      name: "axes"
      ints: 0
    }
  }
  node {
    input: "4"
    output: "55"
    op_type: "Transpose"
    attribute {
      name: "perm"
      ints: 1
      ints: 0
    }
  }
  node {
    input: "6"
    output: "57"
    op_type: "expand"
    attribute {
      name: "size"
      ints: 5
      ints: 5
    }
  }
  node {
    input: "54"
    input: "55"
    input: "57"
    output: "58"
    op_type: "Gemm"
    attribute {
      name: "alpha"
      f: 1
    }
    attribute {
      name: "beta"
      f: 1
    }
  }
  node {
    input: "5"
    output: "59"
    op_type: "Transpose"
    attribute {
      name: "perm"
      ints: 1
      ints: 0
    }
  }
  node {
    input: "7"
    output: "61"
    op_type: "expand"
    attribute {
      name: "size"
      ints: 5
      ints: 5
    }
  }
  node {
    input: "49"
    input: "59"
    input: "61"
    output: "62"
    op_type: "Gemm"
    attribute {
      name: "alpha"
      f: 1
    }
    attribute {
      name: "beta"
      f: 1
    }
  }
  node {
    input: "58"
    input: "62"
    output: "63"
    op_type: "Add"
  }
  node {
    input: "63"
    output: "64"
    op_type: "Tanh"
  }
  node {
    output: "65"
    op_type: "Constant"
    attribute {
      name: "value"
      t {
        dims: 1
        data_type: INT32
        raw_data: "\000\000\000\000"
      }
    }
  }
  node {
    output: "66"
    op_type: "Constant"
    attribute {
      name: "value"
      t {
        dims: 1
        data_type: INT64
        raw_data: "\002\000\000\000\000\000\000\000"
      }
    }
  }
  node {
    output: "67"
    op_type: "Constant"
    attribute {
      name: "value"
      t {
        dims: 1
        data_type: INT64
        raw_data: "\003\000\000\000\000\000\000\000"
      }
    }
  }
  node {
    input: "28"
    input: "65"
    input: "66"
    input: "67"
    output: "68"
    op_type: "Slice"
  }
  node {
    input: "68"
    output: "69"
    op_type: "Squeeze"
    attribute {
      name: "axes"
      ints: 0
    }
  }
  node {
    input: "4"
    output: "70"
    op_type: "Transpose"
    attribute {
      name: "perm"
      ints: 1
      ints: 0
    }
  }
  node {
    input: "6"
    output: "72"
    op_type: "expand"
    attribute {
      name: "size"
      ints: 5
      ints: 5
    }
  }
  node {
    input: "69"
    input: "70"
    input: "72"
    output: "73"
    op_type: "Gemm"
    attribute {
      name: "alpha"
      f: 1
    }
    attribute {
      name: "beta"
      f: 1
    }
  }
  node {
    input: "5"
    output: "74"
    op_type: "Transpose"
    attribute {
      name: "perm"
      ints: 1
      ints: 0
    }
  }
  node {
    input: "7"
    output: "76"
    op_type: "expand"
    attribute {
      name: "size"
      ints: 5
      ints: 5
    }
  }
  node {
    input: "64"
    input: "74"
    input: "76"
    output: "77"
    op_type: "Gemm"
    attribute {
      name: "alpha"
      f: 1
    }
    attribute {
      name: "beta"
      f: 1
    }
  }
  node {
    input: "73"
    input: "77"
    output: "78"
    op_type: "Add"
  }
  node {
    input: "78"
    output: "79"
    op_type: "Tanh"
  }
  node {
    output: "80"
    op_type: "Constant"
    attribute {
      name: "value"
      t {
        dims: 1
        data_type: INT32
        raw_data: "\000\000\000\000"
      }
    }
  }
  node {
    output: "81"
    op_type: "Constant"
    attribute {
      name: "value"
      t {
        dims: 1
        data_type: INT64
        raw_data: "\003\000\000\000\000\000\000\000"
      }
    }
  }
  node {
    output: "82"
    op_type: "Constant"
    attribute {
      name: "value"
      t {
        dims: 1
        data_type: INT64
        raw_data: "\004\000\000\000\000\000\000\000"
      }
    }
  }
  node {
    input: "28"
    input: "80"
    input: "81"
    input: "82"
    output: "83"
    op_type: "Slice"
  }
  node {
    input: "83"
    output: "84"
    op_type: "Squeeze"
    attribute {
      name: "axes"
      ints: 0
    }
  }
  node {
    input: "4"
    output: "85"
    op_type: "Transpose"
    attribute {
      name: "perm"
      ints: 1
      ints: 0
    }
  }
  node {
    input: "6"
    output: "87"
    op_type: "expand"
    attribute {
      name: "size"
      ints: 5
      ints: 5
    }
  }
  node {
    input: "84"
    input: "85"
    input: "87"
    output: "88"
    op_type: "Gemm"
    attribute {
      name: "alpha"
      f: 1
    }
    attribute {
      name: "beta"
      f: 1
    }
  }
  node {
    input: "5"
    output: "89"
    op_type: "Transpose"
    attribute {
      name: "perm"
      ints: 1
      ints: 0
    }
  }
  node {
    input: "7"
    output: "91"
    op_type: "expand"
    attribute {
      name: "size"
      ints: 5
      ints: 5
    }
  }
  node {
    input: "79"
    input: "89"
    input: "91"
    output: "92"
    op_type: "Gemm"
    attribute {
      name: "alpha"
      f: 1
    }
    attribute {
      name: "beta"
      f: 1
    }
  }
  node {
    input: "88"
    input: "92"
    output: "93"
    op_type: "Add"
  }
  node {
    input: "93"
    output: "94"
    op_type: "Tanh"
  }
  node {
    output: "95"
    op_type: "Constant"
    attribute {
      name: "value"
      t {
        dims: 1
        data_type: INT32
        raw_data: "\000\000\000\000"
      }
    }
  }
  node {
    output: "96"
    op_type: "Constant"
    attribute {
      name: "value"
      t {
        dims: 1
        data_type: INT64
        raw_data: "\004\000\000\000\000\000\000\000"
      }
    }
  }
  node {
    output: "97"
    op_type: "Constant"
    attribute {
      name: "value"
      t {
        dims: 1
        data_type: INT64
        raw_data: "\005\000\000\000\000\000\000\000"
      }
    }
  }
  node {
    input: "28"
    input: "95"
    input: "96"
    input: "97"
    output: "98"
    op_type: "Slice"
  }
  node {
    input: "98"
    output: "99"
    op_type: "Squeeze"
    attribute {
      name: "axes"
      ints: 0
    }
  }
  node {
    input: "4"
    output: "100"
    op_type: "Transpose"
    attribute {
      name: "perm"
      ints: 1
      ints: 0
    }
  }
  node {
    input: "6"
    output: "102"
    op_type: "expand"
    attribute {
      name: "size"
      ints: 5
      ints: 5
    }
  }
  node {
    input: "99"
    input: "100"
    input: "102"
    output: "103"
    op_type: "Gemm"
    attribute {
      name: "alpha"
      f: 1
    }
    attribute {
      name: "beta"
      f: 1
    }
  }
  node {
    input: "5"
    output: "104"
    op_type: "Transpose"
    attribute {
      name: "perm"
      ints: 1
      ints: 0
    }
  }
  node {
    input: "7"
    output: "106"
    op_type: "expand"
    attribute {
      name: "size"
      ints: 5
      ints: 5
    }
  }
  node {
    input: "94"
    input: "104"
    input: "106"
    output: "107"
    op_type: "Gemm"
    attribute {
      name: "alpha"
      f: 1
    }
    attribute {
      name: "beta"
      f: 1
    }
  }
  node {
    input: "103"
    input: "107"
    output: "108"
    op_type: "Add"
  }
  node {
    input: "108"
    output: "109"
    op_type: "Tanh"
  }
  node {
    output: "110"
    op_type: "Constant"
    attribute {
      name: "value"
      t {
        dims: 1
        data_type: INT32
        raw_data: "\000\000\000\000"
      }
    }
  }
  node {
    output: "111"
    op_type: "Constant"
    attribute {
      name: "value"
      t {
        dims: 1
        data_type: INT64
        raw_data: "\005\000\000\000\000\000\000\000"
      }
    }
  }
  node {
    output: "112"
    op_type: "Constant"
    attribute {
      name: "value"
      t {
        dims: 1
        data_type: INT64
        raw_data: "\006\000\000\000\000\000\000\000"
      }
    }
  }
  node {
    input: "28"
    input: "110"
    input: "111"
    input: "112"
    output: "113"
    op_type: "Slice"
  }
  node {
    input: "113"
    output: "114"
    op_type: "Squeeze"
    attribute {
      name: "axes"
      ints: 0
    }
  }
  node {
    input: "4"
    output: "115"
    op_type: "Transpose"
    attribute {
      name: "perm"
      ints: 1
      ints: 0
    }
  }
  node {
    input: "6"
    output: "117"
    op_type: "expand"
    attribute {
      name: "size"
      ints: 5
      ints: 5
    }
  }
  node {
    input: "114"
    input: "115"
    input: "117"
    output: "118"
    op_type: "Gemm"
    attribute {
      name: "alpha"
      f: 1
    }
    attribute {
      name: "beta"
      f: 1
    }
  }
  node {
    input: "5"
    output: "119"
    op_type: "Transpose"
    attribute {
      name: "perm"
      ints: 1
      ints: 0
    }
  }
  node {
    input: "7"
    output: "121"
    op_type: "expand"
    attribute {
      name: "size"
      ints: 5
      ints: 5
    }
  }
  node {
    input: "109"
    input: "119"
    input: "121"
    output: "122"
    op_type: "Gemm"
    attribute {
      name: "alpha"
      f: 1
    }
    attribute {
      name: "beta"
      f: 1
    }
  }
  node {
    input: "118"
    input: "122"
    output: "123"
    op_type: "Add"
  }
  node {
    input: "123"
    output: "124"
    op_type: "Tanh"
  }
  node {
    output: "125"
    op_type: "Constant"
    attribute {
      name: "value"
      t {
        dims: 1
        data_type: INT32
        raw_data: "\000\000\000\000"
      }
    }
  }
  node {
    output: "126"
    op_type: "Constant"
    attribute {
      name: "value"
      t {
        dims: 1
        data_type: INT64
        raw_data: "\006\000\000\000\000\000\000\000"
      }
    }
  }
  node {
    output: "127"
    op_type: "Constant"
    attribute {
      name: "value"
      t {
        dims: 1
        data_type: INT64
        raw_data: "\007\000\000\000\000\000\000\000"
      }
    }
  }
  node {
    input: "28"
    input: "125"
    input: "126"
    input: "127"
    output: "128"
    op_type: "Slice"
  }
  node {
    input: "128"
    output: "129"
    op_type: "Squeeze"
    attribute {
      name: "axes"
      ints: 0
    }
  }
  node {
    input: "4"
    output: "130"
    op_type: "Transpose"
    attribute {
      name: "perm"
      ints: 1
      ints: 0
    }
  }
  node {
    input: "6"
    output: "132"
    op_type: "expand"
    attribute {
      name: "size"
      ints: 5
      ints: 5
    }
  }
  node {
    input: "129"
    input: "130"
    input: "132"
    output: "133"
    op_type: "Gemm"
    attribute {
      name: "alpha"
      f: 1
    }
    attribute {
      name: "beta"
      f: 1
    }
  }
  node {
    input: "5"
    output: "134"
    op_type: "Transpose"
    attribute {
      name: "perm"
      ints: 1
      ints: 0
    }
  }
  node {
    input: "7"
    output: "136"
    op_type: "expand"
    attribute {
      name: "size"
      ints: 5
      ints: 5
    }
  }
  node {
    input: "124"
    input: "134"
    input: "136"
    output: "137"
    op_type: "Gemm"
    attribute {
      name: "alpha"
      f: 1
    }
    attribute {
      name: "beta"
      f: 1
    }
  }
  node {
    input: "133"
    input: "137"
    output: "138"
    op_type: "Add"
  }
  node {
    input: "138"
    output: "139"
    op_type: "Tanh"
  }
  node {
    output: "140"
    op_type: "Constant"
    attribute {
      name: "value"
      t {
        dims: 1
        data_type: INT32
        raw_data: "\000\000\000\000"
      }
    }
  }
  node {
    output: "141"
    op_type: "Constant"
    attribute {
      name: "value"
      t {
        dims: 1
        data_type: INT64
        raw_data: "\007\000\000\000\000\000\000\000"
      }
    }
  }
  node {
    output: "142"
    op_type: "Constant"
    attribute {
      name: "value"
      t {
        dims: 1
        data_type: INT64
        raw_data: "\010\000\000\000\000\000\000\000"
      }
    }
  }
  node {
    input: "28"
    input: "140"
    input: "141"
    input: "142"
    output: "143"
    op_type: "Slice"
  }
  node {
    input: "143"
    output: "144"
    op_type: "Squeeze"
    attribute {
      name: "axes"
      ints: 0
    }
  }
  node {
    input: "4"
    output: "145"
    op_type: "Transpose"
    attribute {
      name: "perm"
      ints: 1
      ints: 0
    }
  }
  node {
    input: "6"
    output: "147"
    op_type: "expand"
    attribute {
      name: "size"
      ints: 5
      ints: 5
    }
  }
  node {
    input: "144"
    input: "145"
    input: "147"
    output: "148"
    op_type: "Gemm"
    attribute {
      name: "alpha"
      f: 1
    }
    attribute {
      name: "beta"
      f: 1
    }
  }
  node {
    input: "5"
    output: "149"
    op_type: "Transpose"
    attribute {
      name: "perm"
      ints: 1
      ints: 0
    }
  }
  node {
    input: "7"
    output: "151"
    op_type: "expand"
    attribute {
      name: "size"
      ints: 5
      ints: 5
    }
  }
  node {
    input: "139"
    input: "149"
    input: "151"
    output: "152"
    op_type: "Gemm"
    attribute {
      name: "alpha"
      f: 1
    }
    attribute {
      name: "beta"
      f: 1
    }
  }
  node {
    input: "148"
    input: "152"
    output: "153"
    op_type: "Add"
  }
  node {
    input: "153"
    output: "154"
    op_type: "Tanh"
  }
  node {
    output: "155"
    op_type: "Constant"
    attribute {
      name: "value"
      t {
        dims: 1
        data_type: INT32
        raw_data: "\000\000\000\000"
      }
    }
  }
  node {
    output: "156"
    op_type: "Constant"
    attribute {
      name: "value"
      t {
        dims: 1
        data_type: INT64
        raw_data: "\010\000\000\000\000\000\000\000"
      }
    }
  }
  node {
    output: "157"
    op_type: "Constant"
    attribute {
      name: "value"
      t {
        dims: 1
        data_type: INT64
        raw_data: "\t\000\000\000\000\000\000\000"
      }
    }
  }
  node {
    input: "28"
    input: "155"
    input: "156"
    input: "157"
    output: "158"
    op_type: "Slice"
  }
  node {
    input: "158"
    output: "159"
    op_type: "Squeeze"
    attribute {
      name: "axes"
      ints: 0
    }
  }
  node {
    input: "4"
    output: "160"
    op_type: "Transpose"
    attribute {
      name: "perm"
      ints: 1
      ints: 0
    }
  }
  node {
    input: "6"
    output: "162"
    op_type: "expand"
    attribute {
      name: "size"
      ints: 5
      ints: 5
    }
  }
  node {
    input: "159"
    input: "160"
    input: "162"
    output: "163"
    op_type: "Gemm"
    attribute {
      name: "alpha"
      f: 1
    }
    attribute {
      name: "beta"
      f: 1
    }
  }
  node {
    input: "5"
    output: "164"
    op_type: "Transpose"
    attribute {
      name: "perm"
      ints: 1
      ints: 0
    }
  }
  node {
    input: "7"
    output: "166"
    op_type: "expand"
    attribute {
      name: "size"
      ints: 5
      ints: 5
    }
  }
  node {
    input: "154"
    input: "164"
    input: "166"
    output: "167"
    op_type: "Gemm"
    attribute {
      name: "alpha"
      f: 1
    }
    attribute {
      name: "beta"
      f: 1
    }
  }
  node {
    input: "163"
    input: "167"
    output: "168"
    op_type: "Add"
  }
  node {
    input: "168"
    output: "169"
    op_type: "Tanh"
  }
  node {
    output: "170"
    op_type: "Constant"
    attribute {
      name: "value"
      t {
        dims: 1
        data_type: INT32
        raw_data: "\000\000\000\000"
      }
    }
  }
  node {
    output: "171"
    op_type: "Constant"
    attribute {
      name: "value"
      t {
        dims: 1
        data_type: INT64
        raw_data: "\t\000\000\000\000\000\000\000"
      }
    }
  }
  node {
    output: "172"
    op_type: "Constant"
    attribute {
      name: "value"
      t {
        dims: 1
        data_type: INT64
        raw_data: "\n\000\000\000\000\000\000\000"
      }
    }
  }
  node {
    input: "28"
    input: "170"
    input: "171"
    input: "172"
    output: "173"
    op_type: "Slice"
  }
  node {
    input: "173"
    output: "174"
    op_type: "Squeeze"
    attribute {
      name: "axes"
      ints: 0
    }
  }
  node {
    input: "4"
    output: "175"
    op_type: "Transpose"
    attribute {
      name: "perm"
      ints: 1
      ints: 0
    }
  }
  node {
    input: "6"
    output: "177"
    op_type: "expand"
    attribute {
      name: "size"
      ints: 5
      ints: 5
    }
  }
  node {
    input: "174"
    input: "175"
    input: "177"
    output: "178"
    op_type: "Gemm"
    attribute {
      name: "alpha"
      f: 1
    }
    attribute {
      name: "beta"
      f: 1
    }
  }
  node {
    input: "5"
    output: "179"
    op_type: "Transpose"
    attribute {
      name: "perm"
      ints: 1
      ints: 0
    }
  }
  node {
    input: "7"
    output: "181"
    op_type: "expand"
    attribute {
      name: "size"
      ints: 5
      ints: 5
    }
  }
  node {
    input: "169"
    input: "179"
    input: "181"
    output: "182"
    op_type: "Gemm"
    attribute {
      name: "alpha"
      f: 1
    }
    attribute {
      name: "beta"
      f: 1
    }
  }
  node {
    input: "178"
    input: "182"
    output: "183"
    op_type: "Add"
  }
  node {
    input: "183"
    output: "184"
    op_type: "Tanh"
  }
  node {
    input: "49"
    input: "64"
    input: "79"
    input: "94"
    input: "109"
    input: "124"
    input: "139"
    input: "154"
    input: "169"
    input: "184"
    output: "186"
    op_type: "cat"
    attribute {
      name: "dim"
      i: 0
    }
  }
  node {
    input: "186"
    output: "187"
    op_type: "Reshape"
    attribute {
      name: "shape"
      ints: 10
      ints: 5
      ints: 5
    }
  }
  node {
    input: "187"
    output: "189"
    op_type: "cat"
    attribute {
      name: "dim"
      i: 2
    }
  }
  node {
    input: "189"
    output: "191"
    output: "192"
    op_type: "Dropout"
    attribute {
      name: "ratio"
      f: 0.200000002980232
    }
    attribute {
      name: "is_test"
      i: 1
    }
  }
  node {
    output: "193"
    op_type: "Constant"
    attribute {
      name: "value"
      t {
        dims: 1
        data_type: INT32
        raw_data: "\000\000\000\000"
      }
    }
  }
  node {
    output: "194"
    op_type: "Constant"
    attribute {
      name: "value"
      t {
        dims: 1
        data_type: INT64
        raw_data: "\001\000\000\000\000\000\000\000"
      }
    }
  }
  node {
    output: "195"
    op_type: "Constant"
    attribute {
      name: "value"
      t {
        dims: 1
        data_type: INT64
        raw_data: "\002\000\000\000\000\000\000\000"
      }
    }
  }
  node {
    input: "2"
    input: "193"
    input: "194"
    input: "195"
    output: "196"
    op_type: "Slice"
  }
  node {
    input: "196"
    output: "197"
    op_type: "Squeeze"
    attribute {
      name: "axes"
      ints: 0
    }
  }
  node {
    output: "198"
    op_type: "Constant"
    attribute {
      name: "value"
      t {
        dims: 1
        data_type: INT32
        raw_data: "\000\000\000\000"
      }
    }
  }
  node {
    output: "199"
    op_type: "Constant"
    attribute {
      name: "value"
      t {
        dims: 1
        data_type: INT64
        raw_data: "\000\000\000\000\000\000\000\000"
      }
    }
  }
  node {
    output: "200"
    op_type: "Constant"
    attribute {
      name: "value"
      t {
        dims: 1
        data_type: INT64
        raw_data: "\001\000\000\000\000\000\000\000"
      }
    }
  }
  node {
    input: "191"
    input: "198"
    input: "199"
    input: "200"
    output: "201"
    op_type: "Slice"
  }
  node {
    input: "201"
    output: "202"
    op_type: "Squeeze"
    attribute {
      name: "axes"
      ints: 0
    }
  }
  node {
    input: "8"
    output: "203"
    op_type: "Transpose"
    attribute {
      name: "perm"
      ints: 1
      ints: 0
    }
  }
  node {
    input: "10"
    output: "205"
    op_type: "expand"
    attribute {
      name: "size"
      ints: 5
      ints: 5
    }
  }
  node {
    input: "202"
    input: "203"
    input: "205"
    output: "206"
    op_type: "Gemm"
    attribute {
      name: "alpha"
      f: 1
    }
    attribute {
      name: "beta"
      f: 1
    }
  }
  node {
    input: "9"
    output: "207"
    op_type: "Transpose"
    attribute {
      name: "perm"
      ints: 1
      ints: 0
    }
  }
  node {
    input: "11"
    output: "209"
    op_type: "expand"
    attribute {
      name: "size"
      ints: 5
      ints: 5
    }
  }
  node {
    input: "197"
    input: "207"
    input: "209"
    output: "210"
    op_type: "Gemm"
    attribute {
      name: "alpha"
      f: 1
    }
    attribute {
      name: "beta"
      f: 1
    }
  }
  node {
    input: "206"
    input: "210"
    output: "211"
    op_type: "Add"
  }
  node {
    input: "211"
    output: "212"
    op_type: "Tanh"
  }
  node {
    output: "213"
    op_type: "Constant"
    attribute {
      name: "value"
      t {
        dims: 1
        data_type: INT32
        raw_data: "\000\000\000\000"
      }
    }
  }
  node {
    output: "214"
    op_type: "Constant"
    attribute {
      name: "value"
      t {
        dims: 1
        data_type: INT64
        raw_data: "\001\000\000\000\000\000\000\000"
      }
    }
  }
  node {
    output: "215"
    op_type: "Constant"
    attribute {
      name: "value"
      t {
        dims: 1
        data_type: INT64
        raw_data: "\002\000\000\000\000\000\000\000"
      }
    }
  }
  node {
    input: "191"
    input: "213"
    input: "214"
    input: "215"
    output: "216"
    op_type: "Slice"
  }
  node {
    input: "216"
    output: "217"
    op_type: "Squeeze"
    attribute {
      name: "axes"
      ints: 0
    }
  }
  node {
    input: "8"
    output: "218"
    op_type: "Transpose"
    attribute {
      name: "perm"
      ints: 1
      ints: 0
    }
  }
  node {
    input: "10"
    output: "220"
    op_type: "expand"
    attribute {
      name: "size"
      ints: 5
      ints: 5
    }
  }
  node {
    input: "217"
    input: "218"
    input: "220"
    output: "221"
    op_type: "Gemm"
    attribute {
      name: "alpha"
      f: 1
    }
    attribute {
      name: "beta"
      f: 1
    }
  }
  node {
    input: "9"
    output: "222"
    op_type: "Transpose"
    attribute {
      name: "perm"
      ints: 1
      ints: 0
    }
  }
  node {
    input: "11"
    output: "224"
    op_type: "expand"
    attribute {
      name: "size"
      ints: 5
      ints: 5
    }
  }
  node {
    input: "212"
    input: "222"
    input: "224"
    output: "225"
    op_type: "Gemm"
    attribute {
      name: "alpha"
      f: 1
    }
    attribute {
      name: "beta"
      f: 1
    }
  }
  node {
    input: "221"
    input: "225"
    output: "226"
    op_type: "Add"
  }
  node {
    input: "226"
    output: "227"
    op_type: "Tanh"
  }
  node {
    output: "228"
    op_type: "Constant"
    attribute {
      name: "value"
      t {
        dims: 1
        data_type: INT32
        raw_data: "\000\000\000\000"
      }
    }
  }
  node {
    output: "229"
    op_type: "Constant"
    attribute {
      name: "value"
      t {
        dims: 1
        data_type: INT64
        raw_data: "\002\000\000\000\000\000\000\000"
      }
    }
  }
  node {
    output: "230"
    op_type: "Constant"
    attribute {
      name: "value"
      t {
        dims: 1
        data_type: INT64
        raw_data: "\003\000\000\000\000\000\000\000"
      }
    }
  }
  node {
    input: "191"
    input: "228"
    input: "229"
    input: "230"
    output: "231"
    op_type: "Slice"
  }
  node {
    input: "231"
    output: "232"
    op_type: "Squeeze"
    attribute {
      name: "axes"
      ints: 0
    }
  }
  node {
    input: "8"
    output: "233"
    op_type: "Transpose"
    attribute {
      name: "perm"
      ints: 1
      ints: 0
    }
  }
  node {
    input: "10"
    output: "235"
    op_type: "expand"
    attribute {
      name: "size"
      ints: 5
      ints: 5
    }
  }
  node {
    input: "232"
    input: "233"
    input: "235"
    output: "236"
    op_type: "Gemm"
    attribute {
      name: "alpha"
      f: 1
    }
    attribute {
      name: "beta"
      f: 1
    }
  }
  node {
    input: "9"
    output: "237"
    op_type: "Transpose"
    attribute {
      name: "perm"
      ints: 1
      ints: 0
    }
  }
  node {
    input: "11"
    output: "239"
    op_type: "expand"
    attribute {
      name: "size"
      ints: 5
      ints: 5
    }
  }
  node {
    input: "227"
    input: "237"
    input: "239"
    output: "240"
    op_type: "Gemm"
    attribute {
      name: "alpha"
      f: 1
    }
    attribute {
      name: "beta"
      f: 1
    }
  }
  node {
    input: "236"
    input: "240"
    output: "241"
    op_type: "Add"
  }
  node {
    input: "241"
    output: "242"
    op_type: "Tanh"
  }
  node {
    output: "243"
    op_type: "Constant"
    attribute {
      name: "value"
      t {
        dims: 1
        data_type: INT32
        raw_data: "\000\000\000\000"
      }
    }
  }
  node {
    output: "244"
    op_type: "Constant"
    attribute {
      name: "value"
      t {
        dims: 1
        data_type: INT64
        raw_data: "\003\000\000\000\000\000\000\000"
      }
    }
  }
  node {
    output: "245"
    op_type: "Constant"
    attribute {
      name: "value"
      t {
        dims: 1
        data_type: INT64
        raw_data: "\004\000\000\000\000\000\000\000"
      }
    }
  }
  node {
    input: "191"
    input: "243"
    input: "244"
    input: "245"
    output: "246"
    op_type: "Slice"
  }
  node {
    input: "246"
    output: "247"
    op_type: "Squeeze"
    attribute {
      name: "axes"
      ints: 0
    }
  }
  node {
    input: "8"
    output: "248"
    op_type: "Transpose"
    attribute {
      name: "perm"
      ints: 1
      ints: 0
    }
  }
  node {
    input: "10"
    output: "250"
    op_type: "expand"
    attribute {
      name: "size"
      ints: 5
      ints: 5
    }
  }
  node {
    input: "247"
    input: "248"
    input: "250"
    output: "251"
    op_type: "Gemm"
    attribute {
      name: "alpha"
      f: 1
    }
    attribute {
      name: "beta"
      f: 1
    }
  }
  node {
    input: "9"
    output: "252"
    op_type: "Transpose"
    attribute {
      name: "perm"
      ints: 1
      ints: 0
    }
  }
  node {
    input: "11"
    output: "254"
    op_type: "expand"
    attribute {
      name: "size"
      ints: 5
      ints: 5
    }
  }
  node {
    input: "242"
    input: "252"
    input: "254"
    output: "255"
    op_type: "Gemm"
    attribute {
      name: "alpha"
      f: 1
    }
    attribute {
      name: "beta"
      f: 1
    }
  }
  node {
    input: "251"
    input: "255"
    output: "256"
    op_type: "Add"
  }
  node {
    input: "256"
    output: "257"
    op_type: "Tanh"
  }
  node {
    output: "258"
    op_type: "Constant"
    attribute {
      name: "value"
      t {
        dims: 1
        data_type: INT32
        raw_data: "\000\000\000\000"
      }
    }
  }
  node {
    output: "259"
    op_type: "Constant"
    attribute {
      name: "value"
      t {
        dims: 1
        data_type: INT64
        raw_data: "\004\000\000\000\000\000\000\000"
      }
    }
  }
  node {
    output: "260"
    op_type: "Constant"
    attribute {
      name: "value"
      t {
        dims: 1
        data_type: INT64
        raw_data: "\005\000\000\000\000\000\000\000"
      }
    }
  }
  node {
    input: "191"
    input: "258"
    input: "259"
    input: "260"
    output: "261"
    op_type: "Slice"
  }
  node {
    input: "261"
    output: "262"
    op_type: "Squeeze"
    attribute {
      name: "axes"
      ints: 0
    }
  }
  node {
    input: "8"
    output: "263"
    op_type: "Transpose"
    attribute {
      name: "perm"
      ints: 1
      ints: 0
    }
  }
  node {
    input: "10"
    output: "265"
    op_type: "expand"
    attribute {
      name: "size"
      ints: 5
      ints: 5
    }
  }
  node {
    input: "262"
    input: "263"
    input: "265"
    output: "266"
    op_type: "Gemm"
    attribute {
      name: "alpha"
      f: 1
    }
    attribute {
      name: "beta"
      f: 1
    }
  }
  node {
    input: "9"
    output: "267"
    op_type: "Transpose"
    attribute {
      name: "perm"
      ints: 1
      ints: 0
    }
  }
  node {
    input: "11"
    output: "269"
    op_type: "expand"
    attribute {
      name: "size"
      ints: 5
      ints: 5
    }
  }
  node {
    input: "257"
    input: "267"
    input: "269"
    output: "270"
    op_type: "Gemm"
    attribute {
      name: "alpha"
      f: 1
    }
    attribute {
      name: "beta"
      f: 1
    }
  }
  node {
    input: "266"
    input: "270"
    output: "271"
    op_type: "Add"
  }
  node {
    input: "271"
    output: "272"
    op_type: "Tanh"
  }
  node {
    output: "273"
    op_type: "Constant"
    attribute {
      name: "value"
      t {
        dims: 1
        data_type: INT32
        raw_data: "\000\000\000\000"
      }
    }
  }
  node {
    output: "274"
    op_type: "Constant"
    attribute {
      name: "value"
      t {
        dims: 1
        data_type: INT64
        raw_data: "\005\000\000\000\000\000\000\000"
      }
    }
  }
  node {
    output: "275"
    op_type: "Constant"
    attribute {
      name: "value"
      t {
        dims: 1
        data_type: INT64
        raw_data: "\006\000\000\000\000\000\000\000"
      }
    }
  }
  node {
    input: "191"
    input: "273"
    input: "274"
    input: "275"
    output: "276"
    op_type: "Slice"
  }
  node {
    input: "276"
    output: "277"
    op_type: "Squeeze"
    attribute {
      name: "axes"
      ints: 0
    }
  }
  node {
    input: "8"
    output: "278"
    op_type: "Transpose"
    attribute {
      name: "perm"
      ints: 1
      ints: 0
    }
  }
  node {
    input: "10"
    output: "280"
    op_type: "expand"
    attribute {
      name: "size"
      ints: 5
      ints: 5
    }
  }
  node {
    input: "277"
    input: "278"
    input: "280"
    output: "281"
    op_type: "Gemm"
    attribute {
      name: "alpha"
      f: 1
    }
    attribute {
      name: "beta"
      f: 1
    }
  }
  node {
    input: "9"
    output: "282"
    op_type: "Transpose"
    attribute {
      name: "perm"
      ints: 1
      ints: 0
    }
  }
  node {
    input: "11"
    output: "284"
    op_type: "expand"
    attribute {
      name: "size"
      ints: 5
      ints: 5
    }
  }
  node {
    input: "272"
    input: "282"
    input: "284"
    output: "285"
    op_type: "Gemm"
    attribute {
      name: "alpha"
      f: 1
    }
    attribute {
      name: "beta"
      f: 1
    }
  }
  node {
    input: "281"
    input: "285"
    output: "286"
    op_type: "Add"
  }
  node {
    input: "286"
    output: "287"
    op_type: "Tanh"
  }
  node {
    output: "288"
    op_type: "Constant"
    attribute {
      name: "value"
      t {
        dims: 1
        data_type: INT32
        raw_data: "\000\000\000\000"
      }
    }
  }
  node {
    output: "289"
    op_type: "Constant"
    attribute {
      name: "value"
      t {
        dims: 1
        data_type: INT64
        raw_data: "\006\000\000\000\000\000\000\000"
      }
    }
  }
  node {
    output: "290"
    op_type: "Constant"
    attribute {
      name: "value"
      t {
        dims: 1
        data_type: INT64
        raw_data: "\007\000\000\000\000\000\000\000"
      }
    }
  }
  node {
    input: "191"
    input: "288"
    input: "289"
    input: "290"
    output: "291"
    op_type: "Slice"
  }
  node {
    input: "291"
    output: "292"
    op_type: "Squeeze"
    attribute {
      name: "axes"
      ints: 0
    }
  }
  node {
    input: "8"
    output: "293"
    op_type: "Transpose"
    attribute {
      name: "perm"
      ints: 1
      ints: 0
    }
  }
  node {
    input: "10"
    output: "295"
    op_type: "expand"
    attribute {
      name: "size"
      ints: 5
      ints: 5
    }
  }
  node {
    input: "292"
    input: "293"
    input: "295"
    output: "296"
    op_type: "Gemm"
    attribute {
      name: "alpha"
      f: 1
    }
    attribute {
      name: "beta"
      f: 1
    }
  }
  node {
    input: "9"
    output: "297"
    op_type: "Transpose"
    attribute {
      name: "perm"
      ints: 1
      ints: 0
    }
  }
  node {
    input: "11"
    output: "299"
    op_type: "expand"
    attribute {
      name: "size"
      ints: 5
      ints: 5
    }
  }
  node {
    input: "287"
    input: "297"
    input: "299"
    output: "300"
    op_type: "Gemm"
    attribute {
      name: "alpha"
      f: 1
    }
    attribute {
      name: "beta"
      f: 1
    }
  }
  node {
    input: "296"
    input: "300"
    output: "301"
    op_type: "Add"
  }
  node {
    input: "301"
    output: "302"
    op_type: "Tanh"
  }
  node {
    output: "303"
    op_type: "Constant"
    attribute {
      name: "value"
      t {
        dims: 1
        data_type: INT32
        raw_data: "\000\000\000\000"
      }
    }
  }
  node {
    output: "304"
    op_type: "Constant"
    attribute {
      name: "value"
      t {
        dims: 1
        data_type: INT64
        raw_data: "\007\000\000\000\000\000\000\000"
      }
    }
  }
  node {
    output: "305"
    op_type: "Constant"
    attribute {
      name: "value"
      t {
        dims: 1
        data_type: INT64
        raw_data: "\010\000\000\000\000\000\000\000"
      }
    }
  }
  node {
    input: "191"
    input: "303"
    input: "304"
    input: "305"
    output: "306"
    op_type: "Slice"
  }
  node {
    input: "306"
    output: "307"
    op_type: "Squeeze"
    attribute {
      name: "axes"
      ints: 0
    }
  }
  node {
    input: "8"
    output: "308"
    op_type: "Transpose"
    attribute {
      name: "perm"
      ints: 1
      ints: 0
    }
  }
  node {
    input: "10"
    output: "310"
    op_type: "expand"
    attribute {
      name: "size"
      ints: 5
      ints: 5
    }
  }
  node {
    input: "307"
    input: "308"
    input: "310"
    output: "311"
    op_type: "Gemm"
    attribute {
      name: "alpha"
      f: 1
    }
    attribute {
      name: "beta"
      f: 1
    }
  }
  node {
    input: "9"
    output: "312"
    op_type: "Transpose"
    attribute {
      name: "perm"
      ints: 1
      ints: 0
    }
  }
  node {
    input: "11"
    output: "314"
    op_type: "expand"
    attribute {
      name: "size"
      ints: 5
      ints: 5
    }
  }
  node {
    input: "302"
    input: "312"
    input: "314"
    output: "315"
    op_type: "Gemm"
    attribute {
      name: "alpha"
      f: 1
    }
    attribute {
      name: "beta"
      f: 1
    }
  }
  node {
    input: "311"
    input: "315"
    output: "316"
    op_type: "Add"
  }
  node {
    input: "316"
    output: "317"
    op_type: "Tanh"
  }
  node {
    output: "318"
    op_type: "Constant"
    attribute {
      name: "value"
      t {
        dims: 1
        data_type: INT32
        raw_data: "\000\000\000\000"
      }
    }
  }
  node {
    output: "319"
    op_type: "Constant"
    attribute {
      name: "value"
      t {
        dims: 1
        data_type: INT64
        raw_data: "\010\000\000\000\000\000\000\000"
      }
    }
  }
  node {
    output: "320"
    op_type: "Constant"
    attribute {
      name: "value"
      t {
        dims: 1
        data_type: INT64
        raw_data: "\t\000\000\000\000\000\000\000"
      }
    }
  }
  node {
    input: "191"
    input: "318"
    input: "319"
    input: "320"
    output: "321"
    op_type: "Slice"
  }
  node {
    input: "321"
    output: "322"
    op_type: "Squeeze"
    attribute {
      name: "axes"
      ints: 0
    }
  }
  node {
    input: "8"
    output: "323"
    op_type: "Transpose"
    attribute {
      name: "perm"
      ints: 1
      ints: 0
    }
  }
  node {
    input: "10"
    output: "325"
    op_type: "expand"
    attribute {
      name: "size"
      ints: 5
      ints: 5
    }
  }
  node {
    input: "322"
    input: "323"
    input: "325"
    output: "326"
    op_type: "Gemm"
    attribute {
      name: "alpha"
      f: 1
    }
    attribute {
      name: "beta"
      f: 1
    }
  }
  node {
    input: "9"
    output: "327"
    op_type: "Transpose"
    attribute {
      name: "perm"
      ints: 1
      ints: 0
    }
  }
  node {
    input: "11"
    output: "329"
    op_type: "expand"
    attribute {
      name: "size"
      ints: 5
      ints: 5
    }
  }
  node {
    input: "317"
    input: "327"
    input: "329"
    output: "330"
    op_type: "Gemm"
    attribute {
      name: "alpha"
      f: 1
    }
    attribute {
      name: "beta"
      f: 1
    }
  }
  node {
    input: "326"
    input: "330"
    output: "331"
    op_type: "Add"
  }
  node {
    input: "331"
    output: "332"
    op_type: "Tanh"
  }
  node {
    output: "333"
    op_type: "Constant"
    attribute {
      name: "value"
      t {
        dims: 1
        data_type: INT32
        raw_data: "\000\000\000\000"
      }
    }
  }
  node {
    output: "334"
    op_type: "Constant"
    attribute {
      name: "value"
      t {
        dims: 1
        data_type: INT64
        raw_data: "\t\000\000\000\000\000\000\000"
      }
    }
  }
  node {
    output: "335"
    op_type: "Constant"
    attribute {
      name: "value"
      t {
        dims: 1
        data_type: INT64
        raw_data: "\n\000\000\000\000\000\000\000"
      }
    }
  }
  node {
    input: "191"
    input: "333"
    input: "334"
    input: "335"
    output: "336"
    op_type: "Slice"
  }
  node {
    input: "336"
    output: "337"
    op_type: "Squeeze"
    attribute {
      name: "axes"
      ints: 0
    }
  }
  node {
    input: "8"
    output: "338"
    op_type: "Transpose"
    attribute {
      name: "perm"
      ints: 1
      ints: 0
    }
  }
  node {
    input: "10"
    output: "340"
    op_type: "expand"
    attribute {
      name: "size"
      ints: 5
      ints: 5
    }
  }
  node {
    input: "337"
    input: "338"
    input: "340"
    output: "341"
    op_type: "Gemm"
    attribute {
      name: "alpha"
      f: 1
    }
    attribute {
      name: "beta"
      f: 1
    }
  }
  node {
    input: "9"
    output: "342"
    op_type: "Transpose"
    attribute {
      name: "perm"
      ints: 1
      ints: 0
    }
  }
  node {
    input: "11"
    output: "344"
    op_type: "expand"
    attribute {
      name: "size"
      ints: 5
      ints: 5
    }
  }
  node {
    input: "332"
    input: "342"
    input: "344"
    output: "345"
    op_type: "Gemm"
    attribute {
      name: "alpha"
      f: 1
    }
    attribute {
      name: "beta"
      f: 1
    }
  }
  node {
    input: "341"
    input: "345"
    output: "346"
    op_type: "Add"
  }
  node {
    input: "346"
    output: "347"
    op_type: "Tanh"
  }
  node {
    input: "212"
    input: "227"
    input: "242"
    input: "257"
    input: "272"
    input: "287"
    input: "302"
    input: "317"
    input: "332"
    input: "347"
    output: "349"
    op_type: "cat"
    attribute {
      name: "dim"
      i: 0
    }
  }
  node {
    input: "349"
    output: "350"
    op_type: "Reshape"
    attribute {
      name: "shape"
      ints: 10
      ints: 5
      ints: 5
    }
  }
  node {
    input: "350"
    output: "352"
    op_type: "cat"
    attribute {
      name: "dim"
      i: 2
    }
  }
  node {
    input: "352"
    output: "354"
    output: "355"
    op_type: "Dropout"
    attribute {
      name: "ratio"
      f: 0.200000002980232
    }
    attribute {
      name: "is_test"
      i: 1
    }
  }
  node {
    output: "356"
    op_type: "Constant"
    attribute {
      name: "value"
      t {
        dims: 1
        data_type: INT32
        raw_data: "\000\000\000\000"
      }
    }
  }
  node {
    output: "357"
    op_type: "Constant"
    attribute {
      name: "value"
      t {
        dims: 1
        data_type: INT64
        raw_data: "\002\000\000\000\000\000\000\000"
      }
    }
  }
  node {
    output: "358"
    op_type: "Constant"
    attribute {
      name: "value"
      t {
        dims: 1
        data_type: INT64
        raw_data: "\003\000\000\000\000\000\000\000"
      }
    }
  }
  node {
    input: "2"
    input: "356"
    input: "357"
    input: "358"
    output: "359"
    op_type: "Slice"
  }
  node {
    input: "359"
    output: "360"
    op_type: "Squeeze"
    attribute {
      name: "axes"
      ints: 0
    }
  }
  node {
    output: "361"
    op_type: "Constant"
    attribute {
      name: "value"
      t {
        dims: 1
        data_type: INT32
        raw_data: "\000\000\000\000"
      }
    }
  }
  node {
    output: "362"
    op_type: "Constant"
    attribute {
      name: "value"
      t {
        dims: 1
        data_type: INT64
        raw_data: "\000\000\000\000\000\000\000\000"
      }
    }
  }
  node {
    output: "363"
    op_type: "Constant"
    attribute {
      name: "value"
      t {
        dims: 1
        data_type: INT64
        raw_data: "\001\000\000\000\000\000\000\000"
      }
    }
  }
  node {
    input: "354"
    input: "361"
    input: "362"
    input: "363"
    output: "364"
    op_type: "Slice"
  }
  node {
    input: "364"
    output: "365"
    op_type: "Squeeze"
    attribute {
      name: "axes"
      ints: 0
    }
  }
  node {
    input: "12"
    output: "366"
    op_type: "Transpose"
    attribute {
      name: "perm"
      ints: 1
      ints: 0
    }
  }
  node {
    input: "14"
    output: "368"
    op_type: "expand"
    attribute {
      name: "size"
      ints: 5
      ints: 5
    }
  }
  node {
    input: "365"
    input: "366"
    input: "368"
    output: "369"
    op_type: "Gemm"
    attribute {
      name: "alpha"
      f: 1
    }
    attribute {
      name: "beta"
      f: 1
    }
  }
  node {
    input: "13"
    output: "370"
    op_type: "Transpose"
    attribute {
      name: "perm"
      ints: 1
      ints: 0
    }
  }
  node {
    input: "15"
    output: "372"
    op_type: "expand"
    attribute {
      name: "size"
      ints: 5
      ints: 5
    }
  }
  node {
    input: "360"
    input: "370"
    input: "372"
    output: "373"
    op_type: "Gemm"
    attribute {
      name: "alpha"
      f: 1
    }
    attribute {
      name: "beta"
      f: 1
    }
  }
  node {
    input: "369"
    input: "373"
    output: "374"
    op_type: "Add"
  }
  node {
    input: "374"
    output: "375"
    op_type: "Tanh"
  }
  node {
    output: "376"
    op_type: "Constant"
    attribute {
      name: "value"
      t {
        dims: 1
        data_type: INT32
        raw_data: "\000\000\000\000"
      }
    }
  }
  node {
    output: "377"
    op_type: "Constant"
    attribute {
      name: "value"
      t {
        dims: 1
        data_type: INT64
        raw_data: "\001\000\000\000\000\000\000\000"
      }
    }
  }
  node {
    output: "378"
    op_type: "Constant"
    attribute {
      name: "value"
      t {
        dims: 1
        data_type: INT64
        raw_data: "\002\000\000\000\000\000\000\000"
      }
    }
  }
  node {
    input: "354"
    input: "376"
    input: "377"
    input: "378"
    output: "379"
    op_type: "Slice"
  }
  node {
    input: "379"
    output: "380"
    op_type: "Squeeze"
    attribute {
      name: "axes"
      ints: 0
    }
  }
  node {
    input: "12"
    output: "381"
    op_type: "Transpose"
    attribute {
      name: "perm"
      ints: 1
      ints: 0
    }
  }
  node {
    input: "14"
    output: "383"
    op_type: "expand"
    attribute {
      name: "size"
      ints: 5
      ints: 5
    }
  }
  node {
    input: "380"
    input: "381"
    input: "383"
    output: "384"
    op_type: "Gemm"
    attribute {
      name: "alpha"
      f: 1
    }
    attribute {
      name: "beta"
      f: 1
    }
  }
  node {
    input: "13"
    output: "385"
    op_type: "Transpose"
    attribute {
      name: "perm"
      ints: 1
      ints: 0
    }
  }
  node {
    input: "15"
    output: "387"
    op_type: "expand"
    attribute {
      name: "size"
      ints: 5
      ints: 5
    }
  }
  node {
    input: "375"
    input: "385"
    input: "387"
    output: "388"
    op_type: "Gemm"
    attribute {
      name: "alpha"
      f: 1
    }
    attribute {
      name: "beta"
      f: 1
    }
  }
  node {
    input: "384"
    input: "388"
    output: "389"
    op_type: "Add"
  }
  node {
    input: "389"
    output: "390"
    op_type: "Tanh"
  }
  node {
    output: "391"
    op_type: "Constant"
    attribute {
      name: "value"
      t {
        dims: 1
        data_type: INT32
        raw_data: "\000\000\000\000"
      }
    }
  }
  node {
    output: "392"
    op_type: "Constant"
    attribute {
      name: "value"
      t {
        dims: 1
        data_type: INT64
        raw_data: "\002\000\000\000\000\000\000\000"
      }
    }
  }
  node {
    output: "393"
    op_type: "Constant"
    attribute {
      name: "value"
      t {
        dims: 1
        data_type: INT64
        raw_data: "\003\000\000\000\000\000\000\000"
      }
    }
  }
  node {
    input: "354"
    input: "391"
    input: "392"
    input: "393"
    output: "394"
    op_type: "Slice"
  }
  node {
    input: "394"
    output: "395"
    op_type: "Squeeze"
    attribute {
      name: "axes"
      ints: 0
    }
  }
  node {
    input: "12"
    output: "396"
    op_type: "Transpose"
    attribute {
      name: "perm"
      ints: 1
      ints: 0
    }
  }
  node {
    input: "14"
    output: "398"
    op_type: "expand"
    attribute {
      name: "size"
      ints: 5
      ints: 5
    }
  }
  node {
    input: "395"
    input: "396"
    input: "398"
    output: "399"
    op_type: "Gemm"
    attribute {
      name: "alpha"
      f: 1
    }
    attribute {
      name: "beta"
      f: 1
    }
  }
  node {
    input: "13"
    output: "400"
    op_type: "Transpose"
    attribute {
      name: "perm"
      ints: 1
      ints: 0
    }
  }
  node {
    input: "15"
    output: "402"
    op_type: "expand"
    attribute {
      name: "size"
      ints: 5
      ints: 5
    }
  }
  node {
    input: "390"
    input: "400"
    input: "402"
    output: "403"
    op_type: "Gemm"
    attribute {
      name: "alpha"
      f: 1
    }
    attribute {
      name: "beta"
      f: 1
    }
  }
  node {
    input: "399"
    input: "403"
    output: "404"
    op_type: "Add"
  }
  node {
    input: "404"
    output: "405"
    op_type: "Tanh"
  }
  node {
    output: "406"
    op_type: "Constant"
    attribute {
      name: "value"
      t {
        dims: 1
        data_type: INT32
        raw_data: "\000\000\000\000"
      }
    }
  }
  node {
    output: "407"
    op_type: "Constant"
    attribute {
      name: "value"
      t {
        dims: 1
        data_type: INT64
        raw_data: "\003\000\000\000\000\000\000\000"
      }
    }
  }
  node {
    output: "408"
    op_type: "Constant"
    attribute {
      name: "value"
      t {
        dims: 1
        data_type: INT64
        raw_data: "\004\000\000\000\000\000\000\000"
      }
    }
  }
  node {
    input: "354"
    input: "406"
    input: "407"
    input: "408"
    output: "409"
    op_type: "Slice"
  }
  node {
    input: "409"
    output: "410"
    op_type: "Squeeze"
    attribute {
      name: "axes"
      ints: 0
    }
  }
  node {
    input: "12"
    output: "411"
    op_type: "Transpose"
    attribute {
      name: "perm"
      ints: 1
      ints: 0
    }
  }
  node {
    input: "14"
    output: "413"
    op_type: "expand"
    attribute {
      name: "size"
      ints: 5
      ints: 5
    }
  }
  node {
    input: "410"
    input: "411"
    input: "413"
    output: "414"
    op_type: "Gemm"
    attribute {
      name: "alpha"
      f: 1
    }
    attribute {
      name: "beta"
      f: 1
    }
  }
  node {
    input: "13"
    output: "415"
    op_type: "Transpose"
    attribute {
      name: "perm"
      ints: 1
      ints: 0
    }
  }
  node {
    input: "15"
    output: "417"
    op_type: "expand"
    attribute {
      name: "size"
      ints: 5
      ints: 5
    }
  }
  node {
    input: "405"
    input: "415"
    input: "417"
    output: "418"
    op_type: "Gemm"
    attribute {
      name: "alpha"
      f: 1
    }
    attribute {
      name: "beta"
      f: 1
    }
  }
  node {
    input: "414"
    input: "418"
    output: "419"
    op_type: "Add"
  }
  node {
    input: "419"
    output: "420"
    op_type: "Tanh"
  }
  node {
    output: "421"
    op_type: "Constant"
    attribute {
      name: "value"
      t {
        dims: 1
        data_type: INT32
        raw_data: "\000\000\000\000"
      }
    }
  }
  node {
    output: "422"
    op_type: "Constant"
    attribute {
      name: "value"
      t {
        dims: 1
        data_type: INT64
        raw_data: "\004\000\000\000\000\000\000\000"
      }
    }
  }
  node {
    output: "423"
    op_type: "Constant"
    attribute {
      name: "value"
      t {
        dims: 1
        data_type: INT64
        raw_data: "\005\000\000\000\000\000\000\000"
      }
    }
  }
  node {
    input: "354"
    input: "421"
    input: "422"
    input: "423"
    output: "424"
    op_type: "Slice"
  }
  node {
    input: "424"
    output: "425"
    op_type: "Squeeze"
    attribute {
      name: "axes"
      ints: 0
    }
  }
  node {
    input: "12"
    output: "426"
    op_type: "Transpose"
    attribute {
      name: "perm"
      ints: 1
      ints: 0
    }
  }
  node {
    input: "14"
    output: "428"
    op_type: "expand"
    attribute {
      name: "size"
      ints: 5
      ints: 5
    }
  }
  node {
    input: "425"
    input: "426"
    input: "428"
    output: "429"
    op_type: "Gemm"
    attribute {
      name: "alpha"
      f: 1
    }
    attribute {
      name: "beta"
      f: 1
    }
  }
  node {
    input: "13"
    output: "430"
    op_type: "Transpose"
    attribute {
      name: "perm"
      ints: 1
      ints: 0
    }
  }
  node {
    input: "15"
    output: "432"
    op_type: "expand"
    attribute {
      name: "size"
      ints: 5
      ints: 5
    }
  }
  node {
    input: "420"
    input: "430"
    input: "432"
    output: "433"
    op_type: "Gemm"
    attribute {
      name: "alpha"
      f: 1
    }
    attribute {
      name: "beta"
      f: 1
    }
  }
  node {
    input: "429"
    input: "433"
    output: "434"
    op_type: "Add"
  }
  node {
    input: "434"
    output: "435"
    op_type: "Tanh"
  }
  node {
    output: "436"
    op_type: "Constant"
    attribute {
      name: "value"
      t {
        dims: 1
        data_type: INT32
        raw_data: "\000\000\000\000"
      }
    }
  }
  node {
    output: "437"
    op_type: "Constant"
    attribute {
      name: "value"
      t {
        dims: 1
        data_type: INT64
        raw_data: "\005\000\000\000\000\000\000\000"
      }
    }
  }
  node {
    output: "438"
    op_type: "Constant"
    attribute {
      name: "value"
      t {
        dims: 1
        data_type: INT64
        raw_data: "\006\000\000\000\000\000\000\000"
      }
    }
  }
  node {
    input: "354"
    input: "436"
    input: "437"
    input: "438"
    output: "439"
    op_type: "Slice"
  }
  node {
    input: "439"
    output: "440"
    op_type: "Squeeze"
    attribute {
      name: "axes"
      ints: 0
    }
  }
  node {
    input: "12"
    output: "441"
    op_type: "Transpose"
    attribute {
      name: "perm"
      ints: 1
      ints: 0
    }
  }
  node {
    input: "14"
    output: "443"
    op_type: "expand"
    attribute {
      name: "size"
      ints: 5
      ints: 5
    }
  }
  node {
    input: "440"
    input: "441"
    input: "443"
    output: "444"
    op_type: "Gemm"
    attribute {
      name: "alpha"
      f: 1
    }
    attribute {
      name: "beta"
      f: 1
    }
  }
  node {
    input: "13"
    output: "445"
    op_type: "Transpose"
    attribute {
      name: "perm"
      ints: 1
      ints: 0
    }
  }
  node {
    input: "15"
    output: "447"
    op_type: "expand"
    attribute {
      name: "size"
      ints: 5
      ints: 5
    }
  }
  node {
    input: "435"
    input: "445"
    input: "447"
    output: "448"
    op_type: "Gemm"
    attribute {
      name: "alpha"
      f: 1
    }
    attribute {
      name: "beta"
      f: 1
    }
  }
  node {
    input: "444"
    input: "448"
    output: "449"
    op_type: "Add"
  }
  node {
    input: "449"
    output: "450"
    op_type: "Tanh"
  }
  node {
    output: "451"
    op_type: "Constant"
    attribute {
      name: "value"
      t {
        dims: 1
        data_type: INT32
        raw_data: "\000\000\000\000"
      }
    }
  }
  node {
    output: "452"
    op_type: "Constant"
    attribute {
      name: "value"
      t {
        dims: 1
        data_type: INT64
        raw_data: "\006\000\000\000\000\000\000\000"
      }
    }
  }
  node {
    output: "453"
    op_type: "Constant"
    attribute {
      name: "value"
      t {
        dims: 1
        data_type: INT64
        raw_data: "\007\000\000\000\000\000\000\000"
      }
    }
  }
  node {
    input: "354"
    input: "451"
    input: "452"
    input: "453"
    output: "454"
    op_type: "Slice"
  }
  node {
    input: "454"
    output: "455"
    op_type: "Squeeze"
    attribute {
      name: "axes"
      ints: 0
    }
  }
  node {
    input: "12"
    output: "456"
    op_type: "Transpose"
    attribute {
      name: "perm"
      ints: 1
      ints: 0
    }
  }
  node {
    input: "14"
    output: "458"
    op_type: "expand"
    attribute {
      name: "size"
      ints: 5
      ints: 5
    }
  }
  node {
    input: "455"
    input: "456"
    input: "458"
    output: "459"
    op_type: "Gemm"
    attribute {
      name: "alpha"
      f: 1
    }
    attribute {
      name: "beta"
      f: 1
    }
  }
  node {
    input: "13"
    output: "460"
    op_type: "Transpose"
    attribute {
      name: "perm"
      ints: 1
      ints: 0
    }
  }
  node {
    input: "15"
    output: "462"
    op_type: "expand"
    attribute {
      name: "size"
      ints: 5
      ints: 5
    }
  }
  node {
    input: "450"
    input: "460"
    input: "462"
    output: "463"
    op_type: "Gemm"
    attribute {
      name: "alpha"
      f: 1
    }
    attribute {
      name: "beta"
      f: 1
    }
  }
  node {
    input: "459"
    input: "463"
    output: "464"
    op_type: "Add"
  }
  node {
    input: "464"
    output: "465"
    op_type: "Tanh"
  }
  node {
    output: "466"
    op_type: "Constant"
    attribute {
      name: "value"
      t {
        dims: 1
        data_type: INT32
        raw_data: "\000\000\000\000"
      }
    }
  }
  node {
    output: "467"
    op_type: "Constant"
    attribute {
      name: "value"
      t {
        dims: 1
        data_type: INT64
        raw_data: "\007\000\000\000\000\000\000\000"
      }
    }
  }
  node {
    output: "468"
    op_type: "Constant"
    attribute {
      name: "value"
      t {
        dims: 1
        data_type: INT64
        raw_data: "\010\000\000\000\000\000\000\000"
      }
    }
  }
  node {
    input: "354"
    input: "466"
    input: "467"
    input: "468"
    output: "469"
    op_type: "Slice"
  }
  node {
    input: "469"
    output: "470"
    op_type: "Squeeze"
    attribute {
      name: "axes"
      ints: 0
    }
  }
  node {
    input: "12"
    output: "471"
    op_type: "Transpose"
    attribute {
      name: "perm"
      ints: 1
      ints: 0
    }
  }
  node {
    input: "14"
    output: "473"
    op_type: "expand"
    attribute {
      name: "size"
      ints: 5
      ints: 5
    }
  }
  node {
    input: "470"
    input: "471"
    input: "473"
    output: "474"
    op_type: "Gemm"
    attribute {
      name: "alpha"
      f: 1
    }
    attribute {
      name: "beta"
      f: 1
    }
  }
  node {
    input: "13"
    output: "475"
    op_type: "Transpose"
    attribute {
      name: "perm"
      ints: 1
      ints: 0
    }
  }
  node {
    input: "15"
    output: "477"
    op_type: "expand"
    attribute {
      name: "size"
      ints: 5
      ints: 5
    }
  }
  node {
    input: "465"
    input: "475"
    input: "477"
    output: "478"
    op_type: "Gemm"
    attribute {
      name: "alpha"
      f: 1
    }
    attribute {
      name: "beta"
      f: 1
    }
  }
  node {
    input: "474"
    input: "478"
    output: "479"
    op_type: "Add"
  }
  node {
    input: "479"
    output: "480"
    op_type: "Tanh"
  }
  node {
    output: "481"
    op_type: "Constant"
    attribute {
      name: "value"
      t {
        dims: 1
        data_type: INT32
        raw_data: "\000\000\000\000"
      }
    }
  }
  node {
    output: "482"
    op_type: "Constant"
    attribute {
      name: "value"
      t {
        dims: 1
        data_type: INT64
        raw_data: "\010\000\000\000\000\000\000\000"
      }
    }
  }
  node {
    output: "483"
    op_type: "Constant"
    attribute {
      name: "value"
      t {
        dims: 1
        data_type: INT64
        raw_data: "\t\000\000\000\000\000\000\000"
      }
    }
  }
  node {
    input: "354"
    input: "481"
    input: "482"
    input: "483"
    output: "484"
    op_type: "Slice"
  }
  node {
    input: "484"
    output: "485"
    op_type: "Squeeze"
    attribute {
      name: "axes"
      ints: 0
    }
  }
  node {
    input: "12"
    output: "486"
    op_type: "Transpose"
    attribute {
      name: "perm"
      ints: 1
      ints: 0
    }
  }
  node {
    input: "14"
    output: "488"
    op_type: "expand"
    attribute {
      name: "size"
      ints: 5
      ints: 5
    }
  }
  node {
    input: "485"
    input: "486"
    input: "488"
    output: "489"
    op_type: "Gemm"
    attribute {
      name: "alpha"
      f: 1
    }
    attribute {
      name: "beta"
      f: 1
    }
  }
  node {
    input: "13"
    output: "490"
    op_type: "Transpose"
    attribute {
      name: "perm"
      ints: 1
      ints: 0
    }
  }
  node {
    input: "15"
    output: "492"
    op_type: "expand"
    attribute {
      name: "size"
      ints: 5
      ints: 5
    }
  }
  node {
    input: "480"
    input: "490"
    input: "492"
    output: "493"
    op_type: "Gemm"
    attribute {
      name: "alpha"
      f: 1
    }
    attribute {
      name: "beta"
      f: 1
    }
  }
  node {
    input: "489"
    input: "493"
    output: "494"
    op_type: "Add"
  }
  node {
    input: "494"
    output: "495"
    op_type: "Tanh"
  }
  node {
    output: "496"
    op_type: "Constant"
    attribute {
      name: "value"
      t {
        dims: 1
        data_type: INT32
        raw_data: "\000\000\000\000"
      }
    }
  }
  node {
    output: "497"
    op_type: "Constant"
    attribute {
      name: "value"
      t {
        dims: 1
        data_type: INT64
        raw_data: "\t\000\000\000\000\000\000\000"
      }
    }
  }
  node {
    output: "498"
    op_type: "Constant"
    attribute {
      name: "value"
      t {
        dims: 1
        data_type: INT64
        raw_data: "\n\000\000\000\000\000\000\000"
      }
    }
  }
  node {
    input: "354"
    input: "496"
    input: "497"
    input: "498"
    output: "499"
    op_type: "Slice"
  }
  node {
    input: "499"
    output: "500"
    op_type: "Squeeze"
    attribute {
      name: "axes"
      ints: 0
    }
  }
  node {
    input: "12"
    output: "501"
    op_type: "Transpose"
    attribute {
      name: "perm"
      ints: 1
      ints: 0
    }
  }
  node {
    input: "14"
    output: "503"
    op_type: "expand"
    attribute {
      name: "size"
      ints: 5
      ints: 5
    }
  }
  node {
    input: "500"
    input: "501"
    input: "503"
    output: "504"
    op_type: "Gemm"
    attribute {
      name: "alpha"
      f: 1
    }
    attribute {
      name: "beta"
      f: 1
    }
  }
  node {
    input: "13"
    output: "505"
    op_type: "Transpose"
    attribute {
      name: "perm"
      ints: 1
      ints: 0
    }
  }
  node {
    input: "15"
    output: "507"
    op_type: "expand"
    attribute {
      name: "size"
      ints: 5
      ints: 5
    }
  }
  node {
    input: "495"
    input: "505"
    input: "507"
    output: "508"
    op_type: "Gemm"
    attribute {
      name: "alpha"
      f: 1
    }
    attribute {
      name: "beta"
      f: 1
    }
  }
  node {
    input: "504"
    input: "508"
    output: "509"
    op_type: "Add"
  }
  node {
    input: "509"
    output: "510"
    op_type: "Tanh"
  }
  node {
    input: "375"
    input: "390"
    input: "405"
    input: "420"
    input: "435"
    input: "450"
    input: "465"
    input: "480"
    input: "495"
    input: "510"
    output: "512"
    op_type: "cat"
    attribute {
      name: "dim"
      i: 0
    }
  }
  node {
    input: "512"
    output: "513"
    op_type: "Reshape"
    attribute {
      name: "shape"
      ints: 10
      ints: 5
      ints: 5
    }
  }
  node {
    input: "513"
    output: "515"
    op_type: "cat"
    attribute {
      name: "dim"
      i: 2
    }
  }
  node {
    input: "515"
    output: "517"
    output: "518"
    op_type: "Dropout"
    attribute {
      name: "ratio"
      f: 0.200000002980232
    }
    attribute {
      name: "is_test"
      i: 1
    }
  }
  node {
    output: "519"
    op_type: "Constant"
    attribute {
      name: "value"
      t {
        dims: 1
        data_type: INT32
        raw_data: "\000\000\000\000"
      }
    }
  }
  node {
    output: "520"
    op_type: "Constant"
    attribute {
      name: "value"
      t {
        dims: 1
        data_type: INT64
        raw_data: "\003\000\000\000\000\000\000\000"
      }
    }
  }
  node {
    output: "521"
    op_type: "Constant"
    attribute {
      name: "value"
      t {
        dims: 1
        data_type: INT64
        raw_data: "\004\000\000\000\000\000\000\000"
      }
    }
  }
  node {
    input: "2"
    input: "519"
    input: "520"
    input: "521"
    output: "522"
    op_type: "Slice"
  }
  node {
    input: "522"
    output: "523"
    op_type: "Squeeze"
    attribute {
      name: "axes"
      ints: 0
    }
  }
  node {
    output: "524"
    op_type: "Constant"
    attribute {
      name: "value"
      t {
        dims: 1
        data_type: INT32
        raw_data: "\000\000\000\000"
      }
    }
  }
  node {
    output: "525"
    op_type: "Constant"
    attribute {
      name: "value"
      t {
        dims: 1
        data_type: INT64
        raw_data: "\000\000\000\000\000\000\000\000"
      }
    }
  }
  node {
    output: "526"
    op_type: "Constant"
    attribute {
      name: "value"
      t {
        dims: 1
        data_type: INT64
        raw_data: "\001\000\000\000\000\000\000\000"
      }
    }
  }
  node {
    input: "517"
    input: "524"
    input: "525"
    input: "526"
    output: "527"
    op_type: "Slice"
  }
  node {
    input: "527"
    output: "528"
    op_type: "Squeeze"
    attribute {
      name: "axes"
      ints: 0
    }
  }
  node {
    input: "16"
    output: "529"
    op_type: "Transpose"
    attribute {
      name: "perm"
      ints: 1
      ints: 0
    }
  }
  node {
    input: "18"
    output: "531"
    op_type: "expand"
    attribute {
      name: "size"
      ints: 5
      ints: 5
    }
  }
  node {
    input: "528"
    input: "529"
    input: "531"
    output: "532"
    op_type: "Gemm"
    attribute {
      name: "alpha"
      f: 1
    }
    attribute {
      name: "beta"
      f: 1
    }
  }
  node {
    input: "17"
    output: "533"
    op_type: "Transpose"
    attribute {
      name: "perm"
      ints: 1
      ints: 0
    }
  }
  node {
    input: "19"
    output: "535"
    op_type: "expand"
    attribute {
      name: "size"
      ints: 5
      ints: 5
    }
  }
  node {
    input: "523"
    input: "533"
    input: "535"
    output: "536"
    op_type: "Gemm"
    attribute {
      name: "alpha"
      f: 1
    }
    attribute {
      name: "beta"
      f: 1
    }
  }
  node {
    input: "532"
    input: "536"
    output: "537"
    op_type: "Add"
  }
  node {
    input: "537"
    output: "538"
    op_type: "Tanh"
  }
  node {
    output: "539"
    op_type: "Constant"
    attribute {
      name: "value"
      t {
        dims: 1
        data_type: INT32
        raw_data: "\000\000\000\000"
      }
    }
  }
  node {
    output: "540"
    op_type: "Constant"
    attribute {
      name: "value"
      t {
        dims: 1
        data_type: INT64
        raw_data: "\001\000\000\000\000\000\000\000"
      }
    }
  }
  node {
    output: "541"
    op_type: "Constant"
    attribute {
      name: "value"
      t {
        dims: 1
        data_type: INT64
        raw_data: "\002\000\000\000\000\000\000\000"
      }
    }
  }
  node {
    input: "517"
    input: "539"
    input: "540"
    input: "541"
    output: "542"
    op_type: "Slice"
  }
  node {
    input: "542"
    output: "543"
    op_type: "Squeeze"
    attribute {
      name: "axes"
      ints: 0
    }
  }
  node {
    input: "16"
    output: "544"
    op_type: "Transpose"
    attribute {
      name: "perm"
      ints: 1
      ints: 0
    }
  }
  node {
    input: "18"
    output: "546"
    op_type: "expand"
    attribute {
      name: "size"
      ints: 5
      ints: 5
    }
  }
  node {
    input: "543"
    input: "544"
    input: "546"
    output: "547"
    op_type: "Gemm"
    attribute {
      name: "alpha"
      f: 1
    }
    attribute {
      name: "beta"
      f: 1
    }
  }
  node {
    input: "17"
    output: "548"
    op_type: "Transpose"
    attribute {
      name: "perm"
      ints: 1
      ints: 0
    }
  }
  node {
    input: "19"
    output: "550"
    op_type: "expand"
    attribute {
      name: "size"
      ints: 5
      ints: 5
    }
  }
  node {
    input: "538"
    input: "548"
    input: "550"
    output: "551"
    op_type: "Gemm"
    attribute {
      name: "alpha"
      f: 1
    }
    attribute {
      name: "beta"
      f: 1
    }
  }
  node {
    input: "547"
    input: "551"
    output: "552"
    op_type: "Add"
  }
  node {
    input: "552"
    output: "553"
    op_type: "Tanh"
  }
  node {
    output: "554"
    op_type: "Constant"
    attribute {
      name: "value"
      t {
        dims: 1
        data_type: INT32
        raw_data: "\000\000\000\000"
      }
    }
  }
  node {
    output: "555"
    op_type: "Constant"
    attribute {
      name: "value"
      t {
        dims: 1
        data_type: INT64
        raw_data: "\002\000\000\000\000\000\000\000"
      }
    }
  }
  node {
    output: "556"
    op_type: "Constant"
    attribute {
      name: "value"
      t {
        dims: 1
        data_type: INT64
        raw_data: "\003\000\000\000\000\000\000\000"
      }
    }
  }
  node {
    input: "517"
    input: "554"
    input: "555"
    input: "556"
    output: "557"
    op_type: "Slice"
  }
  node {
    input: "557"
    output: "558"
    op_type: "Squeeze"
    attribute {
      name: "axes"
      ints: 0
    }
  }
  node {
    input: "16"
    output: "559"
    op_type: "Transpose"
    attribute {
      name: "perm"
      ints: 1
      ints: 0
    }
  }
  node {
    input: "18"
    output: "561"
    op_type: "expand"
    attribute {
      name: "size"
      ints: 5
      ints: 5
    }
  }
  node {
    input: "558"
    input: "559"
    input: "561"
    output: "562"
    op_type: "Gemm"
    attribute {
      name: "alpha"
      f: 1
    }
    attribute {
      name: "beta"
      f: 1
    }
  }
  node {
    input: "17"
    output: "563"
    op_type: "Transpose"
    attribute {
      name: "perm"
      ints: 1
      ints: 0
    }
  }
  node {
    input: "19"
    output: "565"
    op_type: "expand"
    attribute {
      name: "size"
      ints: 5
      ints: 5
    }
  }
  node {
    input: "553"
    input: "563"
    input: "565"
    output: "566"
    op_type: "Gemm"
    attribute {
      name: "alpha"
      f: 1
    }
    attribute {
      name: "beta"
      f: 1
    }
  }
  node {
    input: "562"
    input: "566"
    output: "567"
    op_type: "Add"
  }
  node {
    input: "567"
    output: "568"
    op_type: "Tanh"
  }
  node {
    output: "569"
    op_type: "Constant"
    attribute {
      name: "value"
      t {
        dims: 1
        data_type: INT32
        raw_data: "\000\000\000\000"
      }
    }
  }
  node {
    output: "570"
    op_type: "Constant"
    attribute {
      name: "value"
      t {
        dims: 1
        data_type: INT64
        raw_data: "\003\000\000\000\000\000\000\000"
      }
    }
  }
  node {
    output: "571"
    op_type: "Constant"
    attribute {
      name: "value"
      t {
        dims: 1
        data_type: INT64
        raw_data: "\004\000\000\000\000\000\000\000"
      }
    }
  }
  node {
    input: "517"
    input: "569"
    input: "570"
    input: "571"
    output: "572"
    op_type: "Slice"
  }
  node {
    input: "572"
    output: "573"
    op_type: "Squeeze"
    attribute {
      name: "axes"
      ints: 0
    }
  }
  node {
    input: "16"
    output: "574"
    op_type: "Transpose"
    attribute {
      name: "perm"
      ints: 1
      ints: 0
    }
  }
  node {
    input: "18"
    output: "576"
    op_type: "expand"
    attribute {
      name: "size"
      ints: 5
      ints: 5
    }
  }
  node {
    input: "573"
    input: "574"
    input: "576"
    output: "577"
    op_type: "Gemm"
    attribute {
      name: "alpha"
      f: 1
    }
    attribute {
      name: "beta"
      f: 1
    }
  }
  node {
    input: "17"
    output: "578"
    op_type: "Transpose"
    attribute {
      name: "perm"
      ints: 1
      ints: 0
    }
  }
  node {
    input: "19"
    output: "580"
    op_type: "expand"
    attribute {
      name: "size"
      ints: 5
      ints: 5
    }
  }
  node {
    input: "568"
    input: "578"
    input: "580"
    output: "581"
    op_type: "Gemm"
    attribute {
      name: "alpha"
      f: 1
    }
    attribute {
      name: "beta"
      f: 1
    }
  }
  node {
    input: "577"
    input: "581"
    output: "582"
    op_type: "Add"
  }
  node {
    input: "582"
    output: "583"
    op_type: "Tanh"
  }
  node {
    output: "584"
    op_type: "Constant"
    attribute {
      name: "value"
      t {
        dims: 1
        data_type: INT32
        raw_data: "\000\000\000\000"
      }
    }
  }
  node {
    output: "585"
    op_type: "Constant"
    attribute {
      name: "value"
      t {
        dims: 1
        data_type: INT64
        raw_data: "\004\000\000\000\000\000\000\000"
      }
    }
  }
  node {
    output: "586"
    op_type: "Constant"
    attribute {
      name: "value"
      t {
        dims: 1
        data_type: INT64
        raw_data: "\005\000\000\000\000\000\000\000"
      }
    }
  }
  node {
    input: "517"
    input: "584"
    input: "585"
    input: "586"
    output: "587"
    op_type: "Slice"
  }
  node {
    input: "587"
    output: "588"
    op_type: "Squeeze"
    attribute {
      name: "axes"
      ints: 0
    }
  }
  node {
    input: "16"
    output: "589"
    op_type: "Transpose"
    attribute {
      name: "perm"
      ints: 1
      ints: 0
    }
  }
  node {
    input: "18"
    output: "591"
    op_type: "expand"
    attribute {
      name: "size"
      ints: 5
      ints: 5
    }
  }
  node {
    input: "588"
    input: "589"
    input: "591"
    output: "592"
    op_type: "Gemm"
    attribute {
      name: "alpha"
      f: 1
    }
    attribute {
      name: "beta"
      f: 1
    }
  }
  node {
    input: "17"
    output: "593"
    op_type: "Transpose"
    attribute {
      name: "perm"
      ints: 1
      ints: 0
    }
  }
  node {
    input: "19"
    output: "595"
    op_type: "expand"
    attribute {
      name: "size"
      ints: 5
      ints: 5
    }
  }
  node {
    input: "583"
    input: "593"
    input: "595"
    output: "596"
    op_type: "Gemm"
    attribute {
      name: "alpha"
      f: 1
    }
    attribute {
      name: "beta"
      f: 1
    }
  }
  node {
    input: "592"
    input: "596"
    output: "597"
    op_type: "Add"
  }
  node {
    input: "597"
    output: "598"
    op_type: "Tanh"
  }
  node {
    output: "599"
    op_type: "Constant"
    attribute {
      name: "value"
      t {
        dims: 1
        data_type: INT32
        raw_data: "\000\000\000\000"
      }
    }
  }
  node {
    output: "600"
    op_type: "Constant"
    attribute {
      name: "value"
      t {
        dims: 1
        data_type: INT64
        raw_data: "\005\000\000\000\000\000\000\000"
      }
    }
  }
  node {
    output: "601"
    op_type: "Constant"
    attribute {
      name: "value"
      t {
        dims: 1
        data_type: INT64
        raw_data: "\006\000\000\000\000\000\000\000"
      }
    }
  }
  node {
    input: "517"
    input: "599"
    input: "600"
    input: "601"
    output: "602"
    op_type: "Slice"
  }
  node {
    input: "602"
    output: "603"
    op_type: "Squeeze"
    attribute {
      name: "axes"
      ints: 0
    }
  }
  node {
    input: "16"
    output: "604"
    op_type: "Transpose"
    attribute {
      name: "perm"
      ints: 1
      ints: 0
    }
  }
  node {
    input: "18"
    output: "606"
    op_type: "expand"
    attribute {
      name: "size"
      ints: 5
      ints: 5
    }
  }
  node {
    input: "603"
    input: "604"
    input: "606"
    output: "607"
    op_type: "Gemm"
    attribute {
      name: "alpha"
      f: 1
    }
    attribute {
      name: "beta"
      f: 1
    }
  }
  node {
    input: "17"
    output: "608"
    op_type: "Transpose"
    attribute {
      name: "perm"
      ints: 1
      ints: 0
    }
  }
  node {
    input: "19"
    output: "610"
    op_type: "expand"
    attribute {
      name: "size"
      ints: 5
      ints: 5
    }
  }
  node {
    input: "598"
    input: "608"
    input: "610"
    output: "611"
    op_type: "Gemm"
    attribute {
      name: "alpha"
      f: 1
    }
    attribute {
      name: "beta"
      f: 1
    }
  }
  node {
    input: "607"
    input: "611"
    output: "612"
    op_type: "Add"
  }
  node {
    input: "612"
    output: "613"
    op_type: "Tanh"
  }
  node {
    output: "614"
    op_type: "Constant"
    attribute {
      name: "value"
      t {
        dims: 1
        data_type: INT32
        raw_data: "\000\000\000\000"
      }
    }
  }
  node {
    output: "615"
    op_type: "Constant"
    attribute {
      name: "value"
      t {
        dims: 1
        data_type: INT64
        raw_data: "\006\000\000\000\000\000\000\000"
      }
    }
  }
  node {
    output: "616"
    op_type: "Constant"
    attribute {
      name: "value"
      t {
        dims: 1
        data_type: INT64
        raw_data: "\007\000\000\000\000\000\000\000"
      }
    }
  }
  node {
    input: "517"
    input: "614"
    input: "615"
    input: "616"
    output: "617"
    op_type: "Slice"
  }
  node {
    input: "617"
    output: "618"
    op_type: "Squeeze"
    attribute {
      name: "axes"
      ints: 0
    }
  }
  node {
    input: "16"
    output: "619"
    op_type: "Transpose"
    attribute {
      name: "perm"
      ints: 1
      ints: 0
    }
  }
  node {
    input: "18"
    output: "621"
    op_type: "expand"
    attribute {
      name: "size"
      ints: 5
      ints: 5
    }
  }
  node {
    input: "618"
    input: "619"
    input: "621"
    output: "622"
    op_type: "Gemm"
    attribute {
      name: "alpha"
      f: 1
    }
    attribute {
      name: "beta"
      f: 1
    }
  }
  node {
    input: "17"
    output: "623"
    op_type: "Transpose"
    attribute {
      name: "perm"
      ints: 1
      ints: 0
    }
  }
  node {
    input: "19"
    output: "625"
    op_type: "expand"
    attribute {
      name: "size"
      ints: 5
      ints: 5
    }
  }
  node {
    input: "613"
    input: "623"
    input: "625"
    output: "626"
    op_type: "Gemm"
    attribute {
      name: "alpha"
      f: 1
    }
    attribute {
      name: "beta"
      f: 1
    }
  }
  node {
    input: "622"
    input: "626"
    output: "627"
    op_type: "Add"
  }
  node {
    input: "627"
    output: "628"
    op_type: "Tanh"
  }
  node {
    output: "629"
    op_type: "Constant"
    attribute {
      name: "value"
      t {
        dims: 1
        data_type: INT32
        raw_data: "\000\000\000\000"
      }
    }
  }
  node {
    output: "630"
    op_type: "Constant"
    attribute {
      name: "value"
      t {
        dims: 1
        data_type: INT64
        raw_data: "\007\000\000\000\000\000\000\000"
      }
    }
  }
  node {
    output: "631"
    op_type: "Constant"
    attribute {
      name: "value"
      t {
        dims: 1
        data_type: INT64
        raw_data: "\010\000\000\000\000\000\000\000"
      }
    }
  }
  node {
    input: "517"
    input: "629"
    input: "630"
    input: "631"
    output: "632"
    op_type: "Slice"
  }
  node {
    input: "632"
    output: "633"
    op_type: "Squeeze"
    attribute {
      name: "axes"
      ints: 0
    }
  }
  node {
    input: "16"
    output: "634"
    op_type: "Transpose"
    attribute {
      name: "perm"
      ints: 1
      ints: 0
    }
  }
  node {
    input: "18"
    output: "636"
    op_type: "expand"
    attribute {
      name: "size"
      ints: 5
      ints: 5
    }
  }
  node {
    input: "633"
    input: "634"
    input: "636"
    output: "637"
    op_type: "Gemm"
    attribute {
      name: "alpha"
      f: 1
    }
    attribute {
      name: "beta"
      f: 1
    }
  }
  node {
    input: "17"
    output: "638"
    op_type: "Transpose"
    attribute {
      name: "perm"
      ints: 1
      ints: 0
    }
  }
  node {
    input: "19"
    output: "640"
    op_type: "expand"
    attribute {
      name: "size"
      ints: 5
      ints: 5
    }
  }
  node {
    input: "628"
    input: "638"
    input: "640"
    output: "641"
    op_type: "Gemm"
    attribute {
      name: "alpha"
      f: 1
    }
    attribute {
      name: "beta"
      f: 1
    }
  }
  node {
    input: "637"
    input: "641"
    output: "642"
    op_type: "Add"
  }
  node {
    input: "642"
    output: "643"
    op_type: "Tanh"
  }
  node {
    output: "644"
    op_type: "Constant"
    attribute {
      name: "value"
      t {
        dims: 1
        data_type: INT32
        raw_data: "\000\000\000\000"
      }
    }
  }
  node {
    output: "645"
    op_type: "Constant"
    attribute {
      name: "value"
      t {
        dims: 1
        data_type: INT64
        raw_data: "\010\000\000\000\000\000\000\000"
      }
    }
  }
  node {
    output: "646"
    op_type: "Constant"
    attribute {
      name: "value"
      t {
        dims: 1
        data_type: INT64
        raw_data: "\t\000\000\000\000\000\000\000"
      }
    }
  }
  node {
    input: "517"
    input: "644"
    input: "645"
    input: "646"
    output: "647"
    op_type: "Slice"
  }
  node {
    input: "647"
    output: "648"
    op_type: "Squeeze"
    attribute {
      name: "axes"
      ints: 0
    }
  }
  node {
    input: "16"
    output: "649"
    op_type: "Transpose"
    attribute {
      name: "perm"
      ints: 1
      ints: 0
    }
  }
  node {
    input: "18"
    output: "651"
    op_type: "expand"
    attribute {
      name: "size"
      ints: 5
      ints: 5
    }
  }
  node {
    input: "648"
    input: "649"
    input: "651"
    output: "652"
    op_type: "Gemm"
    attribute {
      name: "alpha"
      f: 1
    }
    attribute {
      name: "beta"
      f: 1
    }
  }
  node {
    input: "17"
    output: "653"
    op_type: "Transpose"
    attribute {
      name: "perm"
      ints: 1
      ints: 0
    }
  }
  node {
    input: "19"
    output: "655"
    op_type: "expand"
    attribute {
      name: "size"
      ints: 5
      ints: 5
    }
  }
  node {
    input: "643"
    input: "653"
    input: "655"
    output: "656"
    op_type: "Gemm"
    attribute {
      name: "alpha"
      f: 1
    }
    attribute {
      name: "beta"
      f: 1
    }
  }
  node {
    input: "652"
    input: "656"
    output: "657"
    op_type: "Add"
  }
  node {
    input: "657"
    output: "658"
    op_type: "Tanh"
  }
  node {
    output: "659"
    op_type: "Constant"
    attribute {
      name: "value"
      t {
        dims: 1
        data_type: INT32
        raw_data: "\000\000\000\000"
      }
    }
  }
  node {
    output: "660"
    op_type: "Constant"
    attribute {
      name: "value"
      t {
        dims: 1
        data_type: INT64
        raw_data: "\t\000\000\000\000\000\000\000"
      }
    }
  }
  node {
    output: "661"
    op_type: "Constant"
    attribute {
      name: "value"
      t {
        dims: 1
        data_type: INT64
        raw_data: "\n\000\000\000\000\000\000\000"
      }
    }
  }
  node {
    input: "517"
    input: "659"
    input: "660"
    input: "661"
    output: "662"
    op_type: "Slice"
  }
  node {
    input: "662"
    output: "663"
    op_type: "Squeeze"
    attribute {
      name: "axes"
      ints: 0
    }
  }
  node {
    input: "16"
    output: "664"
    op_type: "Transpose"
    attribute {
      name: "perm"
      ints: 1
      ints: 0
    }
  }
  node {
    input: "18"
    output: "666"
    op_type: "expand"
    attribute {
      name: "size"
      ints: 5
      ints: 5
    }
  }
  node {
    input: "663"
    input: "664"
    input: "666"
    output: "667"
    op_type: "Gemm"
    attribute {
      name: "alpha"
      f: 1
    }
    attribute {
      name: "beta"
      f: 1
    }
  }
  node {
    input: "17"
    output: "668"
    op_type: "Transpose"
    attribute {
      name: "perm"
      ints: 1
      ints: 0
    }
  }
  node {
    input: "19"
    output: "670"
    op_type: "expand"
    attribute {
      name: "size"
      ints: 5
      ints: 5
    }
  }
  node {
    input: "658"
    input: "668"
    input: "670"
    output: "671"
    op_type: "Gemm"
    attribute {
      name: "alpha"
      f: 1
    }
    attribute {
      name: "beta"
      f: 1
    }
  }
  node {
    input: "667"
    input: "671"
    output: "672"
    op_type: "Add"
  }
  node {
    input: "672"
    output: "673"
    op_type: "Tanh"
  }
  node {
    input: "538"
    input: "553"
    input: "568"
    input: "583"
    input: "598"
    input: "613"
    input: "628"
    input: "643"
    input: "658"
    input: "673"
    output: "675"
    op_type: "cat"
    attribute {
      name: "dim"
      i: 0
    }
  }
  node {
    input: "675"
    output: "676"
    op_type: "Reshape"
    attribute {
      name: "shape"
      ints: 10
      ints: 5
      ints: 5
    }
  }
  node {
    input: "676"
    output: "678"
    op_type: "cat"
    attribute {
      name: "dim"
      i: 2
    }
  }
  node {
    input: "678"
    output: "680"
    output: "681"
    op_type: "Dropout"
    attribute {
      name: "ratio"
      f: 0.200000002980232
    }
    attribute {
      name: "is_test"
      i: 1
    }
  }
  node {
    output: "682"
    op_type: "Constant"
    attribute {
      name: "value"
      t {
        dims: 1
        data_type: INT32
        raw_data: "\000\000\000\000"
      }
    }
  }
  node {
    output: "683"
    op_type: "Constant"
    attribute {
      name: "value"
      t {
        dims: 1
        data_type: INT64
        raw_data: "\004\000\000\000\000\000\000\000"
      }
    }
  }
  node {
    output: "684"
    op_type: "Constant"
    attribute {
      name: "value"
      t {
        dims: 1
        data_type: INT64
        raw_data: "\005\000\000\000\000\000\000\000"
      }
    }
  }
  node {
    input: "2"
    input: "682"
    input: "683"
    input: "684"
    output: "685"
    op_type: "Slice"
  }
  node {
    input: "685"
    output: "686"
    op_type: "Squeeze"
    attribute {
      name: "axes"
      ints: 0
    }
  }
  node {
    output: "687"
    op_type: "Constant"
    attribute {
      name: "value"
      t {
        dims: 1
        data_type: INT32
        raw_data: "\000\000\000\000"
      }
    }
  }
  node {
    output: "688"
    op_type: "Constant"
    attribute {
      name: "value"
      t {
        dims: 1
        data_type: INT64
        raw_data: "\000\000\000\000\000\000\000\000"
      }
    }
  }
  node {
    output: "689"
    op_type: "Constant"
    attribute {
      name: "value"
      t {
        dims: 1
        data_type: INT64
        raw_data: "\001\000\000\000\000\000\000\000"
      }
    }
  }
  node {
    input: "680"
    input: "687"
    input: "688"
    input: "689"
    output: "690"
    op_type: "Slice"
  }
  node {
    input: "690"
    output: "691"
    op_type: "Squeeze"
    attribute {
      name: "axes"
      ints: 0
    }
  }
  node {
    input: "20"
    output: "692"
    op_type: "Transpose"
    attribute {
      name: "perm"
      ints: 1
      ints: 0
    }
  }
  node {
    input: "22"
    output: "694"
    op_type: "expand"
    attribute {
      name: "size"
      ints: 5
      ints: 5
    }
  }
  node {
    input: "691"
    input: "692"
    input: "694"
    output: "695"
    op_type: "Gemm"
    attribute {
      name: "alpha"
      f: 1
    }
    attribute {
      name: "beta"
      f: 1
    }
  }
  node {
    input: "21"
    output: "696"
    op_type: "Transpose"
    attribute {
      name: "perm"
      ints: 1
      ints: 0
    }
  }
  node {
    input: "23"
    output: "698"
    op_type: "expand"
    attribute {
      name: "size"
      ints: 5
      ints: 5
    }
  }
  node {
    input: "686"
    input: "696"
    input: "698"
    output: "699"
    op_type: "Gemm"
    attribute {
      name: "alpha"
      f: 1
    }
    attribute {
      name: "beta"
      f: 1
    }
  }
  node {
    input: "695"
    input: "699"
    output: "700"
    op_type: "Add"
  }
  node {
    input: "700"
    output: "701"
    op_type: "Tanh"
  }
  node {
    output: "702"
    op_type: "Constant"
    attribute {
      name: "value"
      t {
        dims: 1
        data_type: INT32
        raw_data: "\000\000\000\000"
      }
    }
  }
  node {
    output: "703"
    op_type: "Constant"
    attribute {
      name: "value"
      t {
        dims: 1
        data_type: INT64
        raw_data: "\001\000\000\000\000\000\000\000"
      }
    }
  }
  node {
    output: "704"
    op_type: "Constant"
    attribute {
      name: "value"
      t {
        dims: 1
        data_type: INT64
        raw_data: "\002\000\000\000\000\000\000\000"
      }
    }
  }
  node {
    input: "680"
    input: "702"
    input: "703"
    input: "704"
    output: "705"
    op_type: "Slice"
  }
  node {
    input: "705"
    output: "706"
    op_type: "Squeeze"
    attribute {
      name: "axes"
      ints: 0
    }
  }
  node {
    input: "20"
    output: "707"
    op_type: "Transpose"
    attribute {
      name: "perm"
      ints: 1
      ints: 0
    }
  }
  node {
    input: "22"
    output: "709"
    op_type: "expand"
    attribute {
      name: "size"
      ints: 5
      ints: 5
    }
  }
  node {
    input: "706"
    input: "707"
    input: "709"
    output: "710"
    op_type: "Gemm"
    attribute {
      name: "alpha"
      f: 1
    }
    attribute {
      name: "beta"
      f: 1
    }
  }
  node {
    input: "21"
    output: "711"
    op_type: "Transpose"
    attribute {
      name: "perm"
      ints: 1
      ints: 0
    }
  }
  node {
    input: "23"
    output: "713"
    op_type: "expand"
    attribute {
      name: "size"
      ints: 5
      ints: 5
    }
  }
  node {
    input: "701"
    input: "711"
    input: "713"
    output: "714"
    op_type: "Gemm"
    attribute {
      name: "alpha"
      f: 1
    }
    attribute {
      name: "beta"
      f: 1
    }
  }
  node {
    input: "710"
    input: "714"
    output: "715"
    op_type: "Add"
  }
  node {
    input: "715"
    output: "716"
    op_type: "Tanh"
  }
  node {
    output: "717"
    op_type: "Constant"
    attribute {
      name: "value"
      t {
        dims: 1
        data_type: INT32
        raw_data: "\000\000\000\000"
      }
    }
  }
  node {
    output: "718"
    op_type: "Constant"
    attribute {
      name: "value"
      t {
        dims: 1
        data_type: INT64
        raw_data: "\002\000\000\000\000\000\000\000"
      }
    }
  }
  node {
    output: "719"
    op_type: "Constant"
    attribute {
      name: "value"
      t {
        dims: 1
        data_type: INT64
        raw_data: "\003\000\000\000\000\000\000\000"
      }
    }
  }
  node {
    input: "680"
    input: "717"
    input: "718"
    input: "719"
    output: "720"
    op_type: "Slice"
  }
  node {
    input: "720"
    output: "721"
    op_type: "Squeeze"
    attribute {
      name: "axes"
      ints: 0
    }
  }
  node {
    input: "20"
    output: "722"
    op_type: "Transpose"
    attribute {
      name: "perm"
      ints: 1
      ints: 0
    }
  }
  node {
    input: "22"
    output: "724"
    op_type: "expand"
    attribute {
      name: "size"
      ints: 5
      ints: 5
    }
  }
  node {
    input: "721"
    input: "722"
    input: "724"
    output: "725"
    op_type: "Gemm"
    attribute {
      name: "alpha"
      f: 1
    }
    attribute {
      name: "beta"
      f: 1
    }
  }
  node {
    input: "21"
    output: "726"
    op_type: "Transpose"
    attribute {
      name: "perm"
      ints: 1
      ints: 0
    }
  }
  node {
    input: "23"
    output: "728"
    op_type: "expand"
    attribute {
      name: "size"
      ints: 5
      ints: 5
    }
  }
  node {
    input: "716"
    input: "726"
    input: "728"
    output: "729"
    op_type: "Gemm"
    attribute {
      name: "alpha"
      f: 1
    }
    attribute {
      name: "beta"
      f: 1
    }
  }
  node {
    input: "725"
    input: "729"
    output: "730"
    op_type: "Add"
  }
  node {
    input: "730"
    output: "731"
    op_type: "Tanh"
  }
  node {
    output: "732"
    op_type: "Constant"
    attribute {
      name: "value"
      t {
        dims: 1
        data_type: INT32
        raw_data: "\000\000\000\000"
      }
    }
  }
  node {
    output: "733"
    op_type: "Constant"
    attribute {
      name: "value"
      t {
        dims: 1
        data_type: INT64
        raw_data: "\003\000\000\000\000\000\000\000"
      }
    }
  }
  node {
    output: "734"
    op_type: "Constant"
    attribute {
      name: "value"
      t {
        dims: 1
        data_type: INT64
        raw_data: "\004\000\000\000\000\000\000\000"
      }
    }
  }
  node {
    input: "680"
    input: "732"
    input: "733"
    input: "734"
    output: "735"
    op_type: "Slice"
  }
  node {
    input: "735"
    output: "736"
    op_type: "Squeeze"
    attribute {
      name: "axes"
      ints: 0
    }
  }
  node {
    input: "20"
    output: "737"
    op_type: "Transpose"
    attribute {
      name: "perm"
      ints: 1
      ints: 0
    }
  }
  node {
    input: "22"
    output: "739"
    op_type: "expand"
    attribute {
      name: "size"
      ints: 5
      ints: 5
    }
  }
  node {
    input: "736"
    input: "737"
    input: "739"
    output: "740"
    op_type: "Gemm"
    attribute {
      name: "alpha"
      f: 1
    }
    attribute {
      name: "beta"
      f: 1
    }
  }
  node {
    input: "21"
    output: "741"
    op_type: "Transpose"
    attribute {
      name: "perm"
      ints: 1
      ints: 0
    }
  }
  node {
    input: "23"
    output: "743"
    op_type: "expand"
    attribute {
      name: "size"
      ints: 5
      ints: 5
    }
  }
  node {
    input: "731"
    input: "741"
    input: "743"
    output: "744"
    op_type: "Gemm"
    attribute {
      name: "alpha"
      f: 1
    }
    attribute {
      name: "beta"
      f: 1
    }
  }
  node {
    input: "740"
    input: "744"
    output: "745"
    op_type: "Add"
  }
  node {
    input: "745"
    output: "746"
    op_type: "Tanh"
  }
  node {
    output: "747"
    op_type: "Constant"
    attribute {
      name: "value"
      t {
        dims: 1
        data_type: INT32
        raw_data: "\000\000\000\000"
      }
    }
  }
  node {
    output: "748"
    op_type: "Constant"
    attribute {
      name: "value"
      t {
        dims: 1
        data_type: INT64
        raw_data: "\004\000\000\000\000\000\000\000"
      }
    }
  }
  node {
    output: "749"
    op_type: "Constant"
    attribute {
      name: "value"
      t {
        dims: 1
        data_type: INT64
        raw_data: "\005\000\000\000\000\000\000\000"
      }
    }
  }
  node {
    input: "680"
    input: "747"
    input: "748"
    input: "749"
    output: "750"
    op_type: "Slice"
  }
  node {
    input: "750"
    output: "751"
    op_type: "Squeeze"
    attribute {
      name: "axes"
      ints: 0
    }
  }
  node {
    input: "20"
    output: "752"
    op_type: "Transpose"
    attribute {
      name: "perm"
      ints: 1
      ints: 0
    }
  }
  node {
    input: "22"
    output: "754"
    op_type: "expand"
    attribute {
      name: "size"
      ints: 5
      ints: 5
    }
  }
  node {
    input: "751"
    input: "752"
    input: "754"
    output: "755"
    op_type: "Gemm"
    attribute {
      name: "alpha"
      f: 1
    }
    attribute {
      name: "beta"
      f: 1
    }
  }
  node {
    input: "21"
    output: "756"
    op_type: "Transpose"
    attribute {
      name: "perm"
      ints: 1
      ints: 0
    }
  }
  node {
    input: "23"
    output: "758"
    op_type: "expand"
    attribute {
      name: "size"
      ints: 5
      ints: 5
    }
  }
  node {
    input: "746"
    input: "756"
    input: "758"
    output: "759"
    op_type: "Gemm"
    attribute {
      name: "alpha"
      f: 1
    }
    attribute {
      name: "beta"
      f: 1
    }
  }
  node {
    input: "755"
    input: "759"
    output: "760"
    op_type: "Add"
  }
  node {
    input: "760"
    output: "761"
    op_type: "Tanh"
  }
  node {
    output: "762"
    op_type: "Constant"
    attribute {
      name: "value"
      t {
        dims: 1
        data_type: INT32
        raw_data: "\000\000\000\000"
      }
    }
  }
  node {
    output: "763"
    op_type: "Constant"
    attribute {
      name: "value"
      t {
        dims: 1
        data_type: INT64
        raw_data: "\005\000\000\000\000\000\000\000"
      }
    }
  }
  node {
    output: "764"
    op_type: "Constant"
    attribute {
      name: "value"
      t {
        dims: 1
        data_type: INT64
        raw_data: "\006\000\000\000\000\000\000\000"
      }
    }
  }
  node {
    input: "680"
    input: "762"
    input: "763"
    input: "764"
    output: "765"
    op_type: "Slice"
  }
  node {
    input: "765"
    output: "766"
    op_type: "Squeeze"
    attribute {
      name: "axes"
      ints: 0
    }
  }
  node {
    input: "20"
    output: "767"
    op_type: "Transpose"
    attribute {
      name: "perm"
      ints: 1
      ints: 0
    }
  }
  node {
    input: "22"
    output: "769"
    op_type: "expand"
    attribute {
      name: "size"
      ints: 5
      ints: 5
    }
  }
  node {
    input: "766"
    input: "767"
    input: "769"
    output: "770"
    op_type: "Gemm"
    attribute {
      name: "alpha"
      f: 1
    }
    attribute {
      name: "beta"
      f: 1
    }
  }
  node {
    input: "21"
    output: "771"
    op_type: "Transpose"
    attribute {
      name: "perm"
      ints: 1
      ints: 0
    }
  }
  node {
    input: "23"
    output: "773"
    op_type: "expand"
    attribute {
      name: "size"
      ints: 5
      ints: 5
    }
  }
  node {
    input: "761"
    input: "771"
    input: "773"
    output: "774"
    op_type: "Gemm"
    attribute {
      name: "alpha"
      f: 1
    }
    attribute {
      name: "beta"
      f: 1
    }
  }
  node {
    input: "770"
    input: "774"
    output: "775"
    op_type: "Add"
  }
  node {
    input: "775"
    output: "776"
    op_type: "Tanh"
  }
  node {
    output: "777"
    op_type: "Constant"
    attribute {
      name: "value"
      t {
        dims: 1
        data_type: INT32
        raw_data: "\000\000\000\000"
      }
    }
  }
  node {
    output: "778"
    op_type: "Constant"
    attribute {
      name: "value"
      t {
        dims: 1
        data_type: INT64
        raw_data: "\006\000\000\000\000\000\000\000"
      }
    }
  }
  node {
    output: "779"
    op_type: "Constant"
    attribute {
      name: "value"
      t {
        dims: 1
        data_type: INT64
        raw_data: "\007\000\000\000\000\000\000\000"
      }
    }
  }
  node {
    input: "680"
    input: "777"
    input: "778"
    input: "779"
    output: "780"
    op_type: "Slice"
  }
  node {
    input: "780"
    output: "781"
    op_type: "Squeeze"
    attribute {
      name: "axes"
      ints: 0
    }
  }
  node {
    input: "20"
    output: "782"
    op_type: "Transpose"
    attribute {
      name: "perm"
      ints: 1
      ints: 0
    }
  }
  node {
    input: "22"
    output: "784"
    op_type: "expand"
    attribute {
      name: "size"
      ints: 5
      ints: 5
    }
  }
  node {
    input: "781"
    input: "782"
    input: "784"
    output: "785"
    op_type: "Gemm"
    attribute {
      name: "alpha"
      f: 1
    }
    attribute {
      name: "beta"
      f: 1
    }
  }
  node {
    input: "21"
    output: "786"
    op_type: "Transpose"
    attribute {
      name: "perm"
      ints: 1
      ints: 0
    }
  }
  node {
    input: "23"
    output: "788"
    op_type: "expand"
    attribute {
      name: "size"
      ints: 5
      ints: 5
    }
  }
  node {
    input: "776"
    input: "786"
    input: "788"
    output: "789"
    op_type: "Gemm"
    attribute {
      name: "alpha"
      f: 1
    }
    attribute {
      name: "beta"
      f: 1
    }
  }
  node {
    input: "785"
    input: "789"
    output: "790"
    op_type: "Add"
  }
  node {
    input: "790"
    output: "791"
    op_type: "Tanh"
  }
  node {
    output: "792"
    op_type: "Constant"
    attribute {
      name: "value"
      t {
        dims: 1
        data_type: INT32
        raw_data: "\000\000\000\000"
      }
    }
  }
  node {
    output: "793"
    op_type: "Constant"
    attribute {
      name: "value"
      t {
        dims: 1
        data_type: INT64
        raw_data: "\007\000\000\000\000\000\000\000"
      }
    }
  }
  node {
    output: "794"
    op_type: "Constant"
    attribute {
      name: "value"
      t {
        dims: 1
        data_type: INT64
        raw_data: "\010\000\000\000\000\000\000\000"
      }
    }
  }
  node {
    input: "680"
    input: "792"
    input: "793"
    input: "794"
    output: "795"
    op_type: "Slice"
  }
  node {
    input: "795"
    output: "796"
    op_type: "Squeeze"
    attribute {
      name: "axes"
      ints: 0
    }
  }
  node {
    input: "20"
    output: "797"
    op_type: "Transpose"
    attribute {
      name: "perm"
      ints: 1
      ints: 0
    }
  }
  node {
    input: "22"
    output: "799"
    op_type: "expand"
    attribute {
      name: "size"
      ints: 5
      ints: 5
    }
  }
  node {
    input: "796"
    input: "797"
    input: "799"
    output: "800"
    op_type: "Gemm"
    attribute {
      name: "alpha"
      f: 1
    }
    attribute {
      name: "beta"
      f: 1
    }
  }
  node {
    input: "21"
    output: "801"
    op_type: "Transpose"
    attribute {
      name: "perm"
      ints: 1
      ints: 0
    }
  }
  node {
    input: "23"
    output: "803"
    op_type: "expand"
    attribute {
      name: "size"
      ints: 5
      ints: 5
    }
  }
  node {
    input: "791"
    input: "801"
    input: "803"
    output: "804"
    op_type: "Gemm"
    attribute {
      name: "alpha"
      f: 1
    }
    attribute {
      name: "beta"
      f: 1
    }
  }
  node {
    input: "800"
    input: "804"
    output: "805"
    op_type: "Add"
  }
  node {
    input: "805"
    output: "806"
    op_type: "Tanh"
  }
  node {
    output: "807"
    op_type: "Constant"
    attribute {
      name: "value"
      t {
        dims: 1
        data_type: INT32
        raw_data: "\000\000\000\000"
      }
    }
  }
  node {
    output: "808"
    op_type: "Constant"
    attribute {
      name: "value"
      t {
        dims: 1
        data_type: INT64
        raw_data: "\010\000\000\000\000\000\000\000"
      }
    }
  }
  node {
    output: "809"
    op_type: "Constant"
    attribute {
      name: "value"
      t {
        dims: 1
        data_type: INT64
        raw_data: "\t\000\000\000\000\000\000\000"
      }
    }
  }
  node {
    input: "680"
    input: "807"
    input: "808"
    input: "809"
    output: "810"
    op_type: "Slice"
  }
  node {
    input: "810"
    output: "811"
    op_type: "Squeeze"
    attribute {
      name: "axes"
      ints: 0
    }
  }
  node {
    input: "20"
    output: "812"
    op_type: "Transpose"
    attribute {
      name: "perm"
      ints: 1
      ints: 0
    }
  }
  node {
    input: "22"
    output: "814"
    op_type: "expand"
    attribute {
      name: "size"
      ints: 5
      ints: 5
    }
  }
  node {
    input: "811"
    input: "812"
    input: "814"
    output: "815"
    op_type: "Gemm"
    attribute {
      name: "alpha"
      f: 1
    }
    attribute {
      name: "beta"
      f: 1
    }
  }
  node {
    input: "21"
    output: "816"
    op_type: "Transpose"
    attribute {
      name: "perm"
      ints: 1
      ints: 0
    }
  }
  node {
    input: "23"
    output: "818"
    op_type: "expand"
    attribute {
      name: "size"
      ints: 5
      ints: 5
    }
  }
  node {
    input: "806"
    input: "816"
    input: "818"
    output: "819"
    op_type: "Gemm"
    attribute {
      name: "alpha"
      f: 1
    }
    attribute {
      name: "beta"
      f: 1
    }
  }
  node {
    input: "815"
    input: "819"
    output: "820"
    op_type: "Add"
  }
  node {
    input: "820"
    output: "821"
    op_type: "Tanh"
  }
  node {
    output: "822"
    op_type: "Constant"
    attribute {
      name: "value"
      t {
        dims: 1
        data_type: INT32
        raw_data: "\000\000\000\000"
      }
    }
  }
  node {
    output: "823"
    op_type: "Constant"
    attribute {
      name: "value"
      t {
        dims: 1
        data_type: INT64
        raw_data: "\t\000\000\000\000\000\000\000"
      }
    }
  }
  node {
    output: "824"
    op_type: "Constant"
    attribute {
      name: "value"
      t {
        dims: 1
        data_type: INT64
        raw_data: "\n\000\000\000\000\000\000\000"
      }
    }
  }
  node {
    input: "680"
    input: "822"
    input: "823"
    input: "824"
    output: "825"
    op_type: "Slice"
  }
  node {
    input: "825"
    output: "826"
    op_type: "Squeeze"
    attribute {
      name: "axes"
      ints: 0
    }
  }
  node {
    input: "20"
    output: "827"
    op_type: "Transpose"
    attribute {
      name: "perm"
      ints: 1
      ints: 0
    }
  }
  node {
    input: "22"
    output: "829"
    op_type: "expand"
    attribute {
      name: "size"
      ints: 5
      ints: 5
    }
  }
  node {
    input: "826"
    input: "827"
    input: "829"
    output: "830"
    op_type: "Gemm"
    attribute {
      name: "alpha"
      f: 1
    }
    attribute {
      name: "beta"
      f: 1
    }
  }
  node {
    input: "21"
    output: "831"
    op_type: "Transpose"
    attribute {
      name: "perm"
      ints: 1
      ints: 0
    }
  }
  node {
    input: "23"
    output: "833"
    op_type: "expand"
    attribute {
      name: "size"
      ints: 5
      ints: 5
    }
  }
  node {
    input: "821"
    input: "831"
    input: "833"
    output: "834"
    op_type: "Gemm"
    attribute {
      name: "alpha"
      f: 1
    }
    attribute {
      name: "beta"
      f: 1
    }
  }
  node {
    input: "830"
    input: "834"
    output: "835"
    op_type: "Add"
  }
  node {
    input: "835"
    output: "836"
    op_type: "Tanh"
  }
  node {
    input: "701"
    input: "716"
    input: "731"
    input: "746"
    input: "761"
    input: "776"
    input: "791"
    input: "806"
    input: "821"
    input: "836"
    output: "838"
    op_type: "cat"
    attribute {
      name: "dim"
      i: 0
    }
  }
  node {
    input: "838"
    output: "839"
    op_type: "Reshape"
    attribute {
      name: "shape"
      ints: 10
      ints: 5
      ints: 5
    }
  }
  node {
    input: "839"
    output: "841"
    op_type: "cat"
    attribute {
      name: "dim"
      i: 2
    }
  }
  node {
    input: "184"
    input: "347"
    input: "510"
    input: "673"
    input: "836"
    output: "843"
    op_type: "cat"
    attribute {
      name: "dim"
      i: 0
    }
  }
  node {
    input: "843"
    output: "844"
    op_type: "Reshape"
    attribute {
      name: "shape"
      ints: 5
      ints: 5
      ints: 5
    }
  }
  node {
    input: "841"
    output: "846"
    output: "847"
    op_type: "Dropout"
    attribute {
      name: "ratio"
      f: 0.200000002980232
    }
    attribute {
      name: "is_test"
      i: 1
    }
  }
  node {
    input: "846"
    output: "848"
    op_type: "Reshape"
    attribute {
      name: "shape"
      ints: 50
      ints: 5
    }
  }
  node {
    input: "24"
    output: "849"
    op_type: "Transpose"
    attribute {
      name: "perm"
      ints: 1
      ints: 0
    }
  }
  node {
    input: "25"
    output: "851"
    op_type: "expand"
    attribute {
      name: "size"
      ints: 50
      ints: 10
    }
  }
  node {
    input: "848"
    input: "849"
    input: "851"
    output: "852"
    op_type: "Gemm"
    attribute {
      name: "alpha"
      f: 1
    }
    attribute {
      name: "beta"
      f: 1
    }
  }
  node {
    input: "852"
    output: "853"
    op_type: "Reshape"
    attribute {
      name: "shape"
      ints: 10
      ints: 5
      ints: 10
    }
  }
  name: "torch-jit-export"
  input {
    name: "1"
    type {
      tensor_type {
        elem_type: INT64
        shape {
          dim {
            dim_value: 10
          }
          dim {
            dim_value: 5
          }
        }
      }
    }
  }
  input {
    name: "2"
    type {
      tensor_type {
        elem_type: FLOAT
        shape {
          dim {
            dim_value: 5
          }
          dim {
            dim_value: 5
          }
          dim {
            dim_value: 5
          }
        }
      }
    }
  }
  input {
    name: "3"
    type {
      tensor_type {
        elem_type: FLOAT
        shape {
          dim {
            dim_value: 10
          }
          dim {
            dim_value: 5
          }
        }
      }
    }
  }
  input {
    name: "4"
    type {
      tensor_type {
        elem_type: FLOAT
        shape {
          dim {
            dim_value: 5
          }
          dim {
            dim_value: 5
          }
        }
      }
    }
  }
  input {
    name: "5"
    type {
      tensor_type {
        elem_type: FLOAT
        shape {
          dim {
            dim_value: 5
          }
          dim {
            dim_value: 5
          }
        }
      }
    }
  }
  input {
    name: "6"
    type {
      tensor_type {
        elem_type: FLOAT
        shape {
          dim {
            dim_value: 5
          }
        }
      }
    }
  }
  input {
    name: "7"
    type {
      tensor_type {
        elem_type: FLOAT
        shape {
          dim {
            dim_value: 5
          }
        }
      }
    }
  }
  input {
    name: "8"
    type {
      tensor_type {
        elem_type: FLOAT
        shape {
          dim {
            dim_value: 5
          }
          dim {
            dim_value: 5
          }
        }
      }
    }
  }
  input {
    name: "9"
    type {
      tensor_type {
        elem_type: FLOAT
        shape {
          dim {
            dim_value: 5
          }
          dim {
            dim_value: 5
          }
        }
      }
    }
  }
  input {
    name: "10"
    type {
      tensor_type {
        elem_type: FLOAT
        shape {
          dim {
            dim_value: 5
          }
        }
      }
    }
  }
  input {
    name: "11"
    type {
      tensor_type {
        elem_type: FLOAT
        shape {
          dim {
            dim_value: 5
          }
        }
      }
    }
  }
  input {
    name: "12"
    type {
      tensor_type {
        elem_type: FLOAT
        shape {
          dim {
            dim_value: 5
          }
          dim {
            dim_value: 5
          }
        }
      }
    }
  }
  input {
    name: "13"
    type {
      tensor_type {
        elem_type: FLOAT
        shape {
          dim {
            dim_value: 5
          }
          dim {
            dim_value: 5
          }
        }
      }
    }
  }
  input {
    name: "14"
    type {
      tensor_type {
        elem_type: FLOAT
        shape {
          dim {
            dim_value: 5
          }
        }
      }
    }
  }
  input {
    name: "15"
    type {
      tensor_type {
        elem_type: FLOAT
        shape {
          dim {
            dim_value: 5
          }
        }
      }
    }
  }
  input {
    name: "16"
    type {
      tensor_type {
        elem_type: FLOAT
        shape {
          dim {
            dim_value: 5
          }
          dim {
            dim_value: 5
          }
        }
      }
    }
  }
  input {
    name: "17"
    type {
      tensor_type {
        elem_type: FLOAT
        shape {
          dim {
            dim_value: 5
          }
          dim {
            dim_value: 5
          }
        }
      }
    }
  }
  input {
    name: "18"
    type {
      tensor_type {
        elem_type: FLOAT
        shape {
          dim {
            dim_value: 5
          }
        }
      }
    }
  }
  input {
    name: "19"
    type {
      tensor_type {
        elem_type: FLOAT
        shape {
          dim {
            dim_value: 5
          }
        }
      }
    }
  }
  input {
    name: "20"
    type {
      tensor_type {
        elem_type: FLOAT
        shape {
          dim {
            dim_value: 5
          }
          dim {
            dim_value: 5
          }
        }
      }
    }
  }
  input {
    name: "21"
    type {
      tensor_type {
        elem_type: FLOAT
        shape {
          dim {
            dim_value: 5
          }
          dim {
            dim_value: 5
          }
        }
      }
    }
  }
  input {
    name: "22"
    type {
      tensor_type {
        elem_type: FLOAT
        shape {
          dim {
            dim_value: 5
          }
        }
      }
    }
  }
  input {
    name: "23"
    type {
      tensor_type {
        elem_type: FLOAT
        shape {
          dim {
            dim_value: 5
          }
        }
      }
    }
  }
  input {
    name: "24"
    type {
      tensor_type {
        elem_type: FLOAT
        shape {
          dim {
            dim_value: 10
          }
          dim {
            dim_value: 5
          }
        }
      }
    }
  }
  input {
    name: "25"
    type {
      tensor_type {
        elem_type: FLOAT
        shape {
          dim {
            dim_value: 10
          }
        }
      }
    }
  }
  output {
    name: "853"
    type {
      tensor_type {
        elem_type: FLOAT
        shape {
          dim {
            dim_value: 10
          }
          dim {
            dim_value: 5
          }
          dim {
            dim_value: 10
          }
        }
      }
    }
  }
}
