ir_version: 1
producer_name: "pytorch"
producer_version: "0.2"
domain: "com.facebook"
graph {
  node {
    input: "1"
    input: "2"
    output: "487"
    op_type: "Conv"
    attribute {
      name: "kernel_shape"
      ints: 3
      ints: 3
    }
    attribute {
      name: "strides"
      ints: 2
      ints: 2
    }
    attribute {
      name: "pads"
      ints: 0
      ints: 0
      ints: 0
      ints: 0
    }
    attribute {
      name: "dilations"
      ints: 1
      ints: 1
    }
    attribute {
      name: "group"
      i: 1
    }
  }
  node {
    input: "487"
    input: "3"
    input: "4"
    input: "5"
    input: "6"
    output: "489"
    op_type: "SpatialBN"
    attribute {
      name: "is_test"
      i: 1
    }
    attribute {
      name: "epsilon"
      f: 0.00100000004749745
    }
    attribute {
      name: "momentum"
      f: 0.899999976158142
    }
    attribute {
      name: "consumed_inputs"
      ints: 0
      ints: 0
      ints: 0
      ints: 1
      ints: 1
    }
  }
  node {
    input: "489"
    output: "490"
    op_type: "Relu"
  }
  node {
    input: "490"
    input: "7"
    output: "492"
    op_type: "Conv"
    attribute {
      name: "kernel_shape"
      ints: 3
      ints: 3
    }
    attribute {
      name: "strides"
      ints: 1
      ints: 1
    }
    attribute {
      name: "pads"
      ints: 0
      ints: 0
      ints: 0
      ints: 0
    }
    attribute {
      name: "dilations"
      ints: 1
      ints: 1
    }
    attribute {
      name: "group"
      i: 1
    }
  }
  node {
    input: "492"
    input: "8"
    input: "9"
    input: "10"
    input: "11"
    output: "494"
    op_type: "SpatialBN"
    attribute {
      name: "is_test"
      i: 1
    }
    attribute {
      name: "epsilon"
      f: 0.00100000004749745
    }
    attribute {
      name: "momentum"
      f: 0.899999976158142
    }
    attribute {
      name: "consumed_inputs"
      ints: 0
      ints: 0
      ints: 0
      ints: 1
      ints: 1
    }
  }
  node {
    input: "494"
    output: "495"
    op_type: "Relu"
  }
  node {
    input: "495"
    input: "12"
    output: "497"
    op_type: "Conv"
    attribute {
      name: "kernel_shape"
      ints: 3
      ints: 3
    }
    attribute {
      name: "strides"
      ints: 1
      ints: 1
    }
    attribute {
      name: "pads"
      ints: 1
      ints: 1
      ints: 1
      ints: 1
    }
    attribute {
      name: "dilations"
      ints: 1
      ints: 1
    }
    attribute {
      name: "group"
      i: 1
    }
  }
  node {
    input: "497"
    input: "13"
    input: "14"
    input: "15"
    input: "16"
    output: "499"
    op_type: "SpatialBN"
    attribute {
      name: "is_test"
      i: 1
    }
    attribute {
      name: "epsilon"
      f: 0.00100000004749745
    }
    attribute {
      name: "momentum"
      f: 0.899999976158142
    }
    attribute {
      name: "consumed_inputs"
      ints: 0
      ints: 0
      ints: 0
      ints: 1
      ints: 1
    }
  }
  node {
    input: "499"
    output: "500"
    op_type: "Relu"
  }
  node {
    input: "500"
    output: "501"
    op_type: "MaxPool"
    attribute {
      name: "dilations"
      ints: 1
      ints: 1
    }
    attribute {
      name: "kernel_shape"
      ints: 3
      ints: 3
    }
    attribute {
      name: "pads"
      ints: 0
      ints: 0
    }
    attribute {
      name: "strides"
      ints: 2
      ints: 2
    }
  }
  node {
    input: "501"
    input: "17"
    output: "503"
    op_type: "Conv"
    attribute {
      name: "kernel_shape"
      ints: 1
      ints: 1
    }
    attribute {
      name: "strides"
      ints: 1
      ints: 1
    }
    attribute {
      name: "pads"
      ints: 0
      ints: 0
      ints: 0
      ints: 0
    }
    attribute {
      name: "dilations"
      ints: 1
      ints: 1
    }
    attribute {
      name: "group"
      i: 1
    }
  }
  node {
    input: "503"
    input: "18"
    input: "19"
    input: "20"
    input: "21"
    output: "505"
    op_type: "SpatialBN"
    attribute {
      name: "is_test"
      i: 1
    }
    attribute {
      name: "epsilon"
      f: 0.00100000004749745
    }
    attribute {
      name: "momentum"
      f: 0.899999976158142
    }
    attribute {
      name: "consumed_inputs"
      ints: 0
      ints: 0
      ints: 0
      ints: 1
      ints: 1
    }
  }
  node {
    input: "505"
    output: "506"
    op_type: "Relu"
  }
  node {
    input: "506"
    input: "22"
    output: "508"
    op_type: "Conv"
    attribute {
      name: "kernel_shape"
      ints: 3
      ints: 3
    }
    attribute {
      name: "strides"
      ints: 1
      ints: 1
    }
    attribute {
      name: "pads"
      ints: 0
      ints: 0
      ints: 0
      ints: 0
    }
    attribute {
      name: "dilations"
      ints: 1
      ints: 1
    }
    attribute {
      name: "group"
      i: 1
    }
  }
  node {
    input: "508"
    input: "23"
    input: "24"
    input: "25"
    input: "26"
    output: "510"
    op_type: "SpatialBN"
    attribute {
      name: "is_test"
      i: 1
    }
    attribute {
      name: "epsilon"
      f: 0.00100000004749745
    }
    attribute {
      name: "momentum"
      f: 0.899999976158142
    }
    attribute {
      name: "consumed_inputs"
      ints: 0
      ints: 0
      ints: 0
      ints: 1
      ints: 1
    }
  }
  node {
    input: "510"
    output: "511"
    op_type: "Relu"
  }
  node {
    input: "511"
    output: "512"
    op_type: "MaxPool"
    attribute {
      name: "dilations"
      ints: 1
      ints: 1
    }
    attribute {
      name: "kernel_shape"
      ints: 3
      ints: 3
    }
    attribute {
      name: "pads"
      ints: 0
      ints: 0
    }
    attribute {
      name: "strides"
      ints: 2
      ints: 2
    }
  }
  node {
    input: "512"
    input: "27"
    output: "514"
    op_type: "Conv"
    attribute {
      name: "kernel_shape"
      ints: 1
      ints: 1
    }
    attribute {
      name: "strides"
      ints: 1
      ints: 1
    }
    attribute {
      name: "pads"
      ints: 0
      ints: 0
      ints: 0
      ints: 0
    }
    attribute {
      name: "dilations"
      ints: 1
      ints: 1
    }
    attribute {
      name: "group"
      i: 1
    }
  }
  node {
    input: "514"
    input: "28"
    input: "29"
    input: "30"
    input: "31"
    output: "516"
    op_type: "SpatialBN"
    attribute {
      name: "is_test"
      i: 1
    }
    attribute {
      name: "epsilon"
      f: 0.00100000004749745
    }
    attribute {
      name: "momentum"
      f: 0.899999976158142
    }
    attribute {
      name: "consumed_inputs"
      ints: 0
      ints: 0
      ints: 0
      ints: 1
      ints: 1
    }
  }
  node {
    input: "516"
    output: "517"
    op_type: "Relu"
  }
  node {
    input: "512"
    input: "32"
    output: "519"
    op_type: "Conv"
    attribute {
      name: "kernel_shape"
      ints: 1
      ints: 1
    }
    attribute {
      name: "strides"
      ints: 1
      ints: 1
    }
    attribute {
      name: "pads"
      ints: 0
      ints: 0
      ints: 0
      ints: 0
    }
    attribute {
      name: "dilations"
      ints: 1
      ints: 1
    }
    attribute {
      name: "group"
      i: 1
    }
  }
  node {
    input: "519"
    input: "33"
    input: "34"
    input: "35"
    input: "36"
    output: "521"
    op_type: "SpatialBN"
    attribute {
      name: "is_test"
      i: 1
    }
    attribute {
      name: "epsilon"
      f: 0.00100000004749745
    }
    attribute {
      name: "momentum"
      f: 0.899999976158142
    }
    attribute {
      name: "consumed_inputs"
      ints: 0
      ints: 0
      ints: 0
      ints: 1
      ints: 1
    }
  }
  node {
    input: "521"
    output: "522"
    op_type: "Relu"
  }
  node {
    input: "522"
    input: "37"
    output: "524"
    op_type: "Conv"
    attribute {
      name: "kernel_shape"
      ints: 5
      ints: 5
    }
    attribute {
      name: "strides"
      ints: 1
      ints: 1
    }
    attribute {
      name: "pads"
      ints: 2
      ints: 2
      ints: 2
      ints: 2
    }
    attribute {
      name: "dilations"
      ints: 1
      ints: 1
    }
    attribute {
      name: "group"
      i: 1
    }
  }
  node {
    input: "524"
    input: "38"
    input: "39"
    input: "40"
    input: "41"
    output: "526"
    op_type: "SpatialBN"
    attribute {
      name: "is_test"
      i: 1
    }
    attribute {
      name: "epsilon"
      f: 0.00100000004749745
    }
    attribute {
      name: "momentum"
      f: 0.899999976158142
    }
    attribute {
      name: "consumed_inputs"
      ints: 0
      ints: 0
      ints: 0
      ints: 1
      ints: 1
    }
  }
  node {
    input: "526"
    output: "527"
    op_type: "Relu"
  }
  node {
    input: "512"
    input: "42"
    output: "529"
    op_type: "Conv"
    attribute {
      name: "kernel_shape"
      ints: 1
      ints: 1
    }
    attribute {
      name: "strides"
      ints: 1
      ints: 1
    }
    attribute {
      name: "pads"
      ints: 0
      ints: 0
      ints: 0
      ints: 0
    }
    attribute {
      name: "dilations"
      ints: 1
      ints: 1
    }
    attribute {
      name: "group"
      i: 1
    }
  }
  node {
    input: "529"
    input: "43"
    input: "44"
    input: "45"
    input: "46"
    output: "531"
    op_type: "SpatialBN"
    attribute {
      name: "is_test"
      i: 1
    }
    attribute {
      name: "epsilon"
      f: 0.00100000004749745
    }
    attribute {
      name: "momentum"
      f: 0.899999976158142
    }
    attribute {
      name: "consumed_inputs"
      ints: 0
      ints: 0
      ints: 0
      ints: 1
      ints: 1
    }
  }
  node {
    input: "531"
    output: "532"
    op_type: "Relu"
  }
  node {
    input: "532"
    input: "47"
    output: "534"
    op_type: "Conv"
    attribute {
      name: "kernel_shape"
      ints: 3
      ints: 3
    }
    attribute {
      name: "strides"
      ints: 1
      ints: 1
    }
    attribute {
      name: "pads"
      ints: 1
      ints: 1
      ints: 1
      ints: 1
    }
    attribute {
      name: "dilations"
      ints: 1
      ints: 1
    }
    attribute {
      name: "group"
      i: 1
    }
  }
  node {
    input: "534"
    input: "48"
    input: "49"
    input: "50"
    input: "51"
    output: "536"
    op_type: "SpatialBN"
    attribute {
      name: "is_test"
      i: 1
    }
    attribute {
      name: "epsilon"
      f: 0.00100000004749745
    }
    attribute {
      name: "momentum"
      f: 0.899999976158142
    }
    attribute {
      name: "consumed_inputs"
      ints: 0
      ints: 0
      ints: 0
      ints: 1
      ints: 1
    }
  }
  node {
    input: "536"
    output: "537"
    op_type: "Relu"
  }
  node {
    input: "537"
    input: "52"
    output: "539"
    op_type: "Conv"
    attribute {
      name: "kernel_shape"
      ints: 3
      ints: 3
    }
    attribute {
      name: "strides"
      ints: 1
      ints: 1
    }
    attribute {
      name: "pads"
      ints: 1
      ints: 1
      ints: 1
      ints: 1
    }
    attribute {
      name: "dilations"
      ints: 1
      ints: 1
    }
    attribute {
      name: "group"
      i: 1
    }
  }
  node {
    input: "539"
    input: "53"
    input: "54"
    input: "55"
    input: "56"
    output: "541"
    op_type: "SpatialBN"
    attribute {
      name: "is_test"
      i: 1
    }
    attribute {
      name: "epsilon"
      f: 0.00100000004749745
    }
    attribute {
      name: "momentum"
      f: 0.899999976158142
    }
    attribute {
      name: "consumed_inputs"
      ints: 0
      ints: 0
      ints: 0
      ints: 1
      ints: 1
    }
  }
  node {
    input: "541"
    output: "542"
    op_type: "Relu"
  }
  node {
    input: "512"
    output: "543"
    op_type: "AveragePool"
    attribute {
      name: "kernel_shape"
      ints: 3
      ints: 3
    }
    attribute {
      name: "pads"
      ints: 1
      ints: 1
    }
    attribute {
      name: "strides"
      ints: 1
      ints: 1
    }
  }
  node {
    input: "543"
    input: "57"
    output: "545"
    op_type: "Conv"
    attribute {
      name: "kernel_shape"
      ints: 1
      ints: 1
    }
    attribute {
      name: "strides"
      ints: 1
      ints: 1
    }
    attribute {
      name: "pads"
      ints: 0
      ints: 0
      ints: 0
      ints: 0
    }
    attribute {
      name: "dilations"
      ints: 1
      ints: 1
    }
    attribute {
      name: "group"
      i: 1
    }
  }
  node {
    input: "545"
    input: "58"
    input: "59"
    input: "60"
    input: "61"
    output: "547"
    op_type: "SpatialBN"
    attribute {
      name: "is_test"
      i: 1
    }
    attribute {
      name: "epsilon"
      f: 0.00100000004749745
    }
    attribute {
      name: "momentum"
      f: 0.899999976158142
    }
    attribute {
      name: "consumed_inputs"
      ints: 0
      ints: 0
      ints: 0
      ints: 1
      ints: 1
    }
  }
  node {
    input: "547"
    output: "548"
    op_type: "Relu"
  }
  node {
    input: "517"
    input: "527"
    input: "542"
    input: "548"
    output: "550"
    op_type: "cat"
    attribute {
      name: "dim"
      i: 1
    }
  }
  node {
    input: "550"
    input: "62"
    output: "552"
    op_type: "Conv"
    attribute {
      name: "kernel_shape"
      ints: 1
      ints: 1
    }
    attribute {
      name: "strides"
      ints: 1
      ints: 1
    }
    attribute {
      name: "pads"
      ints: 0
      ints: 0
      ints: 0
      ints: 0
    }
    attribute {
      name: "dilations"
      ints: 1
      ints: 1
    }
    attribute {
      name: "group"
      i: 1
    }
  }
  node {
    input: "552"
    input: "63"
    input: "64"
    input: "65"
    input: "66"
    output: "554"
    op_type: "SpatialBN"
    attribute {
      name: "is_test"
      i: 1
    }
    attribute {
      name: "epsilon"
      f: 0.00100000004749745
    }
    attribute {
      name: "momentum"
      f: 0.899999976158142
    }
    attribute {
      name: "consumed_inputs"
      ints: 0
      ints: 0
      ints: 0
      ints: 1
      ints: 1
    }
  }
  node {
    input: "554"
    output: "555"
    op_type: "Relu"
  }
  node {
    input: "550"
    input: "67"
    output: "557"
    op_type: "Conv"
    attribute {
      name: "kernel_shape"
      ints: 1
      ints: 1
    }
    attribute {
      name: "strides"
      ints: 1
      ints: 1
    }
    attribute {
      name: "pads"
      ints: 0
      ints: 0
      ints: 0
      ints: 0
    }
    attribute {
      name: "dilations"
      ints: 1
      ints: 1
    }
    attribute {
      name: "group"
      i: 1
    }
  }
  node {
    input: "557"
    input: "68"
    input: "69"
    input: "70"
    input: "71"
    output: "559"
    op_type: "SpatialBN"
    attribute {
      name: "is_test"
      i: 1
    }
    attribute {
      name: "epsilon"
      f: 0.00100000004749745
    }
    attribute {
      name: "momentum"
      f: 0.899999976158142
    }
    attribute {
      name: "consumed_inputs"
      ints: 0
      ints: 0
      ints: 0
      ints: 1
      ints: 1
    }
  }
  node {
    input: "559"
    output: "560"
    op_type: "Relu"
  }
  node {
    input: "560"
    input: "72"
    output: "562"
    op_type: "Conv"
    attribute {
      name: "kernel_shape"
      ints: 5
      ints: 5
    }
    attribute {
      name: "strides"
      ints: 1
      ints: 1
    }
    attribute {
      name: "pads"
      ints: 2
      ints: 2
      ints: 2
      ints: 2
    }
    attribute {
      name: "dilations"
      ints: 1
      ints: 1
    }
    attribute {
      name: "group"
      i: 1
    }
  }
  node {
    input: "562"
    input: "73"
    input: "74"
    input: "75"
    input: "76"
    output: "564"
    op_type: "SpatialBN"
    attribute {
      name: "is_test"
      i: 1
    }
    attribute {
      name: "epsilon"
      f: 0.00100000004749745
    }
    attribute {
      name: "momentum"
      f: 0.899999976158142
    }
    attribute {
      name: "consumed_inputs"
      ints: 0
      ints: 0
      ints: 0
      ints: 1
      ints: 1
    }
  }
  node {
    input: "564"
    output: "565"
    op_type: "Relu"
  }
  node {
    input: "550"
    input: "77"
    output: "567"
    op_type: "Conv"
    attribute {
      name: "kernel_shape"
      ints: 1
      ints: 1
    }
    attribute {
      name: "strides"
      ints: 1
      ints: 1
    }
    attribute {
      name: "pads"
      ints: 0
      ints: 0
      ints: 0
      ints: 0
    }
    attribute {
      name: "dilations"
      ints: 1
      ints: 1
    }
    attribute {
      name: "group"
      i: 1
    }
  }
  node {
    input: "567"
    input: "78"
    input: "79"
    input: "80"
    input: "81"
    output: "569"
    op_type: "SpatialBN"
    attribute {
      name: "is_test"
      i: 1
    }
    attribute {
      name: "epsilon"
      f: 0.00100000004749745
    }
    attribute {
      name: "momentum"
      f: 0.899999976158142
    }
    attribute {
      name: "consumed_inputs"
      ints: 0
      ints: 0
      ints: 0
      ints: 1
      ints: 1
    }
  }
  node {
    input: "569"
    output: "570"
    op_type: "Relu"
  }
  node {
    input: "570"
    input: "82"
    output: "572"
    op_type: "Conv"
    attribute {
      name: "kernel_shape"
      ints: 3
      ints: 3
    }
    attribute {
      name: "strides"
      ints: 1
      ints: 1
    }
    attribute {
      name: "pads"
      ints: 1
      ints: 1
      ints: 1
      ints: 1
    }
    attribute {
      name: "dilations"
      ints: 1
      ints: 1
    }
    attribute {
      name: "group"
      i: 1
    }
  }
  node {
    input: "572"
    input: "83"
    input: "84"
    input: "85"
    input: "86"
    output: "574"
    op_type: "SpatialBN"
    attribute {
      name: "is_test"
      i: 1
    }
    attribute {
      name: "epsilon"
      f: 0.00100000004749745
    }
    attribute {
      name: "momentum"
      f: 0.899999976158142
    }
    attribute {
      name: "consumed_inputs"
      ints: 0
      ints: 0
      ints: 0
      ints: 1
      ints: 1
    }
  }
  node {
    input: "574"
    output: "575"
    op_type: "Relu"
  }
  node {
    input: "575"
    input: "87"
    output: "577"
    op_type: "Conv"
    attribute {
      name: "kernel_shape"
      ints: 3
      ints: 3
    }
    attribute {
      name: "strides"
      ints: 1
      ints: 1
    }
    attribute {
      name: "pads"
      ints: 1
      ints: 1
      ints: 1
      ints: 1
    }
    attribute {
      name: "dilations"
      ints: 1
      ints: 1
    }
    attribute {
      name: "group"
      i: 1
    }
  }
  node {
    input: "577"
    input: "88"
    input: "89"
    input: "90"
    input: "91"
    output: "579"
    op_type: "SpatialBN"
    attribute {
      name: "is_test"
      i: 1
    }
    attribute {
      name: "epsilon"
      f: 0.00100000004749745
    }
    attribute {
      name: "momentum"
      f: 0.899999976158142
    }
    attribute {
      name: "consumed_inputs"
      ints: 0
      ints: 0
      ints: 0
      ints: 1
      ints: 1
    }
  }
  node {
    input: "579"
    output: "580"
    op_type: "Relu"
  }
  node {
    input: "550"
    output: "581"
    op_type: "AveragePool"
    attribute {
      name: "kernel_shape"
      ints: 3
      ints: 3
    }
    attribute {
      name: "pads"
      ints: 1
      ints: 1
    }
    attribute {
      name: "strides"
      ints: 1
      ints: 1
    }
  }
  node {
    input: "581"
    input: "92"
    output: "583"
    op_type: "Conv"
    attribute {
      name: "kernel_shape"
      ints: 1
      ints: 1
    }
    attribute {
      name: "strides"
      ints: 1
      ints: 1
    }
    attribute {
      name: "pads"
      ints: 0
      ints: 0
      ints: 0
      ints: 0
    }
    attribute {
      name: "dilations"
      ints: 1
      ints: 1
    }
    attribute {
      name: "group"
      i: 1
    }
  }
  node {
    input: "583"
    input: "93"
    input: "94"
    input: "95"
    input: "96"
    output: "585"
    op_type: "SpatialBN"
    attribute {
      name: "is_test"
      i: 1
    }
    attribute {
      name: "epsilon"
      f: 0.00100000004749745
    }
    attribute {
      name: "momentum"
      f: 0.899999976158142
    }
    attribute {
      name: "consumed_inputs"
      ints: 0
      ints: 0
      ints: 0
      ints: 1
      ints: 1
    }
  }
  node {
    input: "585"
    output: "586"
    op_type: "Relu"
  }
  node {
    input: "555"
    input: "565"
    input: "580"
    input: "586"
    output: "588"
    op_type: "cat"
    attribute {
      name: "dim"
      i: 1
    }
  }
  node {
    input: "588"
    input: "97"
    output: "590"
    op_type: "Conv"
    attribute {
      name: "kernel_shape"
      ints: 1
      ints: 1
    }
    attribute {
      name: "strides"
      ints: 1
      ints: 1
    }
    attribute {
      name: "pads"
      ints: 0
      ints: 0
      ints: 0
      ints: 0
    }
    attribute {
      name: "dilations"
      ints: 1
      ints: 1
    }
    attribute {
      name: "group"
      i: 1
    }
  }
  node {
    input: "590"
    input: "98"
    input: "99"
    input: "100"
    input: "101"
    output: "592"
    op_type: "SpatialBN"
    attribute {
      name: "is_test"
      i: 1
    }
    attribute {
      name: "epsilon"
      f: 0.00100000004749745
    }
    attribute {
      name: "momentum"
      f: 0.899999976158142
    }
    attribute {
      name: "consumed_inputs"
      ints: 0
      ints: 0
      ints: 0
      ints: 1
      ints: 1
    }
  }
  node {
    input: "592"
    output: "593"
    op_type: "Relu"
  }
  node {
    input: "588"
    input: "102"
    output: "595"
    op_type: "Conv"
    attribute {
      name: "kernel_shape"
      ints: 1
      ints: 1
    }
    attribute {
      name: "strides"
      ints: 1
      ints: 1
    }
    attribute {
      name: "pads"
      ints: 0
      ints: 0
      ints: 0
      ints: 0
    }
    attribute {
      name: "dilations"
      ints: 1
      ints: 1
    }
    attribute {
      name: "group"
      i: 1
    }
  }
  node {
    input: "595"
    input: "103"
    input: "104"
    input: "105"
    input: "106"
    output: "597"
    op_type: "SpatialBN"
    attribute {
      name: "is_test"
      i: 1
    }
    attribute {
      name: "epsilon"
      f: 0.00100000004749745
    }
    attribute {
      name: "momentum"
      f: 0.899999976158142
    }
    attribute {
      name: "consumed_inputs"
      ints: 0
      ints: 0
      ints: 0
      ints: 1
      ints: 1
    }
  }
  node {
    input: "597"
    output: "598"
    op_type: "Relu"
  }
  node {
    input: "598"
    input: "107"
    output: "600"
    op_type: "Conv"
    attribute {
      name: "kernel_shape"
      ints: 5
      ints: 5
    }
    attribute {
      name: "strides"
      ints: 1
      ints: 1
    }
    attribute {
      name: "pads"
      ints: 2
      ints: 2
      ints: 2
      ints: 2
    }
    attribute {
      name: "dilations"
      ints: 1
      ints: 1
    }
    attribute {
      name: "group"
      i: 1
    }
  }
  node {
    input: "600"
    input: "108"
    input: "109"
    input: "110"
    input: "111"
    output: "602"
    op_type: "SpatialBN"
    attribute {
      name: "is_test"
      i: 1
    }
    attribute {
      name: "epsilon"
      f: 0.00100000004749745
    }
    attribute {
      name: "momentum"
      f: 0.899999976158142
    }
    attribute {
      name: "consumed_inputs"
      ints: 0
      ints: 0
      ints: 0
      ints: 1
      ints: 1
    }
  }
  node {
    input: "602"
    output: "603"
    op_type: "Relu"
  }
  node {
    input: "588"
    input: "112"
    output: "605"
    op_type: "Conv"
    attribute {
      name: "kernel_shape"
      ints: 1
      ints: 1
    }
    attribute {
      name: "strides"
      ints: 1
      ints: 1
    }
    attribute {
      name: "pads"
      ints: 0
      ints: 0
      ints: 0
      ints: 0
    }
    attribute {
      name: "dilations"
      ints: 1
      ints: 1
    }
    attribute {
      name: "group"
      i: 1
    }
  }
  node {
    input: "605"
    input: "113"
    input: "114"
    input: "115"
    input: "116"
    output: "607"
    op_type: "SpatialBN"
    attribute {
      name: "is_test"
      i: 1
    }
    attribute {
      name: "epsilon"
      f: 0.00100000004749745
    }
    attribute {
      name: "momentum"
      f: 0.899999976158142
    }
    attribute {
      name: "consumed_inputs"
      ints: 0
      ints: 0
      ints: 0
      ints: 1
      ints: 1
    }
  }
  node {
    input: "607"
    output: "608"
    op_type: "Relu"
  }
  node {
    input: "608"
    input: "117"
    output: "610"
    op_type: "Conv"
    attribute {
      name: "kernel_shape"
      ints: 3
      ints: 3
    }
    attribute {
      name: "strides"
      ints: 1
      ints: 1
    }
    attribute {
      name: "pads"
      ints: 1
      ints: 1
      ints: 1
      ints: 1
    }
    attribute {
      name: "dilations"
      ints: 1
      ints: 1
    }
    attribute {
      name: "group"
      i: 1
    }
  }
  node {
    input: "610"
    input: "118"
    input: "119"
    input: "120"
    input: "121"
    output: "612"
    op_type: "SpatialBN"
    attribute {
      name: "is_test"
      i: 1
    }
    attribute {
      name: "epsilon"
      f: 0.00100000004749745
    }
    attribute {
      name: "momentum"
      f: 0.899999976158142
    }
    attribute {
      name: "consumed_inputs"
      ints: 0
      ints: 0
      ints: 0
      ints: 1
      ints: 1
    }
  }
  node {
    input: "612"
    output: "613"
    op_type: "Relu"
  }
  node {
    input: "613"
    input: "122"
    output: "615"
    op_type: "Conv"
    attribute {
      name: "kernel_shape"
      ints: 3
      ints: 3
    }
    attribute {
      name: "strides"
      ints: 1
      ints: 1
    }
    attribute {
      name: "pads"
      ints: 1
      ints: 1
      ints: 1
      ints: 1
    }
    attribute {
      name: "dilations"
      ints: 1
      ints: 1
    }
    attribute {
      name: "group"
      i: 1
    }
  }
  node {
    input: "615"
    input: "123"
    input: "124"
    input: "125"
    input: "126"
    output: "617"
    op_type: "SpatialBN"
    attribute {
      name: "is_test"
      i: 1
    }
    attribute {
      name: "epsilon"
      f: 0.00100000004749745
    }
    attribute {
      name: "momentum"
      f: 0.899999976158142
    }
    attribute {
      name: "consumed_inputs"
      ints: 0
      ints: 0
      ints: 0
      ints: 1
      ints: 1
    }
  }
  node {
    input: "617"
    output: "618"
    op_type: "Relu"
  }
  node {
    input: "588"
    output: "619"
    op_type: "AveragePool"
    attribute {
      name: "kernel_shape"
      ints: 3
      ints: 3
    }
    attribute {
      name: "pads"
      ints: 1
      ints: 1
    }
    attribute {
      name: "strides"
      ints: 1
      ints: 1
    }
  }
  node {
    input: "619"
    input: "127"
    output: "621"
    op_type: "Conv"
    attribute {
      name: "kernel_shape"
      ints: 1
      ints: 1
    }
    attribute {
      name: "strides"
      ints: 1
      ints: 1
    }
    attribute {
      name: "pads"
      ints: 0
      ints: 0
      ints: 0
      ints: 0
    }
    attribute {
      name: "dilations"
      ints: 1
      ints: 1
    }
    attribute {
      name: "group"
      i: 1
    }
  }
  node {
    input: "621"
    input: "128"
    input: "129"
    input: "130"
    input: "131"
    output: "623"
    op_type: "SpatialBN"
    attribute {
      name: "is_test"
      i: 1
    }
    attribute {
      name: "epsilon"
      f: 0.00100000004749745
    }
    attribute {
      name: "momentum"
      f: 0.899999976158142
    }
    attribute {
      name: "consumed_inputs"
      ints: 0
      ints: 0
      ints: 0
      ints: 1
      ints: 1
    }
  }
  node {
    input: "623"
    output: "624"
    op_type: "Relu"
  }
  node {
    input: "593"
    input: "603"
    input: "618"
    input: "624"
    output: "626"
    op_type: "cat"
    attribute {
      name: "dim"
      i: 1
    }
  }
  node {
    input: "626"
    input: "132"
    output: "628"
    op_type: "Conv"
    attribute {
      name: "kernel_shape"
      ints: 3
      ints: 3
    }
    attribute {
      name: "strides"
      ints: 2
      ints: 2
    }
    attribute {
      name: "pads"
      ints: 0
      ints: 0
      ints: 0
      ints: 0
    }
    attribute {
      name: "dilations"
      ints: 1
      ints: 1
    }
    attribute {
      name: "group"
      i: 1
    }
  }
  node {
    input: "628"
    input: "133"
    input: "134"
    input: "135"
    input: "136"
    output: "630"
    op_type: "SpatialBN"
    attribute {
      name: "is_test"
      i: 1
    }
    attribute {
      name: "epsilon"
      f: 0.00100000004749745
    }
    attribute {
      name: "momentum"
      f: 0.899999976158142
    }
    attribute {
      name: "consumed_inputs"
      ints: 0
      ints: 0
      ints: 0
      ints: 1
      ints: 1
    }
  }
  node {
    input: "630"
    output: "631"
    op_type: "Relu"
  }
  node {
    input: "626"
    input: "137"
    output: "633"
    op_type: "Conv"
    attribute {
      name: "kernel_shape"
      ints: 1
      ints: 1
    }
    attribute {
      name: "strides"
      ints: 1
      ints: 1
    }
    attribute {
      name: "pads"
      ints: 0
      ints: 0
      ints: 0
      ints: 0
    }
    attribute {
      name: "dilations"
      ints: 1
      ints: 1
    }
    attribute {
      name: "group"
      i: 1
    }
  }
  node {
    input: "633"
    input: "138"
    input: "139"
    input: "140"
    input: "141"
    output: "635"
    op_type: "SpatialBN"
    attribute {
      name: "is_test"
      i: 1
    }
    attribute {
      name: "epsilon"
      f: 0.00100000004749745
    }
    attribute {
      name: "momentum"
      f: 0.899999976158142
    }
    attribute {
      name: "consumed_inputs"
      ints: 0
      ints: 0
      ints: 0
      ints: 1
      ints: 1
    }
  }
  node {
    input: "635"
    output: "636"
    op_type: "Relu"
  }
  node {
    input: "636"
    input: "142"
    output: "638"
    op_type: "Conv"
    attribute {
      name: "kernel_shape"
      ints: 3
      ints: 3
    }
    attribute {
      name: "strides"
      ints: 1
      ints: 1
    }
    attribute {
      name: "pads"
      ints: 1
      ints: 1
      ints: 1
      ints: 1
    }
    attribute {
      name: "dilations"
      ints: 1
      ints: 1
    }
    attribute {
      name: "group"
      i: 1
    }
  }
  node {
    input: "638"
    input: "143"
    input: "144"
    input: "145"
    input: "146"
    output: "640"
    op_type: "SpatialBN"
    attribute {
      name: "is_test"
      i: 1
    }
    attribute {
      name: "epsilon"
      f: 0.00100000004749745
    }
    attribute {
      name: "momentum"
      f: 0.899999976158142
    }
    attribute {
      name: "consumed_inputs"
      ints: 0
      ints: 0
      ints: 0
      ints: 1
      ints: 1
    }
  }
  node {
    input: "640"
    output: "641"
    op_type: "Relu"
  }
  node {
    input: "641"
    input: "147"
    output: "643"
    op_type: "Conv"
    attribute {
      name: "kernel_shape"
      ints: 3
      ints: 3
    }
    attribute {
      name: "strides"
      ints: 2
      ints: 2
    }
    attribute {
      name: "pads"
      ints: 0
      ints: 0
      ints: 0
      ints: 0
    }
    attribute {
      name: "dilations"
      ints: 1
      ints: 1
    }
    attribute {
      name: "group"
      i: 1
    }
  }
  node {
    input: "643"
    input: "148"
    input: "149"
    input: "150"
    input: "151"
    output: "645"
    op_type: "SpatialBN"
    attribute {
      name: "is_test"
      i: 1
    }
    attribute {
      name: "epsilon"
      f: 0.00100000004749745
    }
    attribute {
      name: "momentum"
      f: 0.899999976158142
    }
    attribute {
      name: "consumed_inputs"
      ints: 0
      ints: 0
      ints: 0
      ints: 1
      ints: 1
    }
  }
  node {
    input: "645"
    output: "646"
    op_type: "Relu"
  }
  node {
    input: "626"
    output: "647"
    op_type: "MaxPool"
    attribute {
      name: "dilations"
      ints: 1
      ints: 1
    }
    attribute {
      name: "kernel_shape"
      ints: 3
      ints: 3
    }
    attribute {
      name: "pads"
      ints: 0
      ints: 0
    }
    attribute {
      name: "strides"
      ints: 2
      ints: 2
    }
  }
  node {
    input: "631"
    input: "646"
    input: "647"
    output: "649"
    op_type: "cat"
    attribute {
      name: "dim"
      i: 1
    }
  }
  node {
    input: "649"
    input: "152"
    output: "651"
    op_type: "Conv"
    attribute {
      name: "kernel_shape"
      ints: 1
      ints: 1
    }
    attribute {
      name: "strides"
      ints: 1
      ints: 1
    }
    attribute {
      name: "pads"
      ints: 0
      ints: 0
      ints: 0
      ints: 0
    }
    attribute {
      name: "dilations"
      ints: 1
      ints: 1
    }
    attribute {
      name: "group"
      i: 1
    }
  }
  node {
    input: "651"
    input: "153"
    input: "154"
    input: "155"
    input: "156"
    output: "653"
    op_type: "SpatialBN"
    attribute {
      name: "is_test"
      i: 1
    }
    attribute {
      name: "epsilon"
      f: 0.00100000004749745
    }
    attribute {
      name: "momentum"
      f: 0.899999976158142
    }
    attribute {
      name: "consumed_inputs"
      ints: 0
      ints: 0
      ints: 0
      ints: 1
      ints: 1
    }
  }
  node {
    input: "653"
    output: "654"
    op_type: "Relu"
  }
  node {
    input: "649"
    input: "157"
    output: "656"
    op_type: "Conv"
    attribute {
      name: "kernel_shape"
      ints: 1
      ints: 1
    }
    attribute {
      name: "strides"
      ints: 1
      ints: 1
    }
    attribute {
      name: "pads"
      ints: 0
      ints: 0
      ints: 0
      ints: 0
    }
    attribute {
      name: "dilations"
      ints: 1
      ints: 1
    }
    attribute {
      name: "group"
      i: 1
    }
  }
  node {
    input: "656"
    input: "158"
    input: "159"
    input: "160"
    input: "161"
    output: "658"
    op_type: "SpatialBN"
    attribute {
      name: "is_test"
      i: 1
    }
    attribute {
      name: "epsilon"
      f: 0.00100000004749745
    }
    attribute {
      name: "momentum"
      f: 0.899999976158142
    }
    attribute {
      name: "consumed_inputs"
      ints: 0
      ints: 0
      ints: 0
      ints: 1
      ints: 1
    }
  }
  node {
    input: "658"
    output: "659"
    op_type: "Relu"
  }
  node {
    input: "659"
    input: "162"
    output: "661"
    op_type: "Conv"
    attribute {
      name: "kernel_shape"
      ints: 1
      ints: 7
    }
    attribute {
      name: "strides"
      ints: 1
      ints: 1
    }
    attribute {
      name: "pads"
      ints: 0
      ints: 3
      ints: 0
      ints: 3
    }
    attribute {
      name: "dilations"
      ints: 1
      ints: 1
    }
    attribute {
      name: "group"
      i: 1
    }
  }
  node {
    input: "661"
    input: "163"
    input: "164"
    input: "165"
    input: "166"
    output: "663"
    op_type: "SpatialBN"
    attribute {
      name: "is_test"
      i: 1
    }
    attribute {
      name: "epsilon"
      f: 0.00100000004749745
    }
    attribute {
      name: "momentum"
      f: 0.899999976158142
    }
    attribute {
      name: "consumed_inputs"
      ints: 0
      ints: 0
      ints: 0
      ints: 1
      ints: 1
    }
  }
  node {
    input: "663"
    output: "664"
    op_type: "Relu"
  }
  node {
    input: "664"
    input: "167"
    output: "666"
    op_type: "Conv"
    attribute {
      name: "kernel_shape"
      ints: 7
      ints: 1
    }
    attribute {
      name: "strides"
      ints: 1
      ints: 1
    }
    attribute {
      name: "pads"
      ints: 3
      ints: 0
      ints: 3
      ints: 0
    }
    attribute {
      name: "dilations"
      ints: 1
      ints: 1
    }
    attribute {
      name: "group"
      i: 1
    }
  }
  node {
    input: "666"
    input: "168"
    input: "169"
    input: "170"
    input: "171"
    output: "668"
    op_type: "SpatialBN"
    attribute {
      name: "is_test"
      i: 1
    }
    attribute {
      name: "epsilon"
      f: 0.00100000004749745
    }
    attribute {
      name: "momentum"
      f: 0.899999976158142
    }
    attribute {
      name: "consumed_inputs"
      ints: 0
      ints: 0
      ints: 0
      ints: 1
      ints: 1
    }
  }
  node {
    input: "668"
    output: "669"
    op_type: "Relu"
  }
  node {
    input: "649"
    input: "172"
    output: "671"
    op_type: "Conv"
    attribute {
      name: "kernel_shape"
      ints: 1
      ints: 1
    }
    attribute {
      name: "strides"
      ints: 1
      ints: 1
    }
    attribute {
      name: "pads"
      ints: 0
      ints: 0
      ints: 0
      ints: 0
    }
    attribute {
      name: "dilations"
      ints: 1
      ints: 1
    }
    attribute {
      name: "group"
      i: 1
    }
  }
  node {
    input: "671"
    input: "173"
    input: "174"
    input: "175"
    input: "176"
    output: "673"
    op_type: "SpatialBN"
    attribute {
      name: "is_test"
      i: 1
    }
    attribute {
      name: "epsilon"
      f: 0.00100000004749745
    }
    attribute {
      name: "momentum"
      f: 0.899999976158142
    }
    attribute {
      name: "consumed_inputs"
      ints: 0
      ints: 0
      ints: 0
      ints: 1
      ints: 1
    }
  }
  node {
    input: "673"
    output: "674"
    op_type: "Relu"
  }
  node {
    input: "674"
    input: "177"
    output: "676"
    op_type: "Conv"
    attribute {
      name: "kernel_shape"
      ints: 7
      ints: 1
    }
    attribute {
      name: "strides"
      ints: 1
      ints: 1
    }
    attribute {
      name: "pads"
      ints: 3
      ints: 0
      ints: 3
      ints: 0
    }
    attribute {
      name: "dilations"
      ints: 1
      ints: 1
    }
    attribute {
      name: "group"
      i: 1
    }
  }
  node {
    input: "676"
    input: "178"
    input: "179"
    input: "180"
    input: "181"
    output: "678"
    op_type: "SpatialBN"
    attribute {
      name: "is_test"
      i: 1
    }
    attribute {
      name: "epsilon"
      f: 0.00100000004749745
    }
    attribute {
      name: "momentum"
      f: 0.899999976158142
    }
    attribute {
      name: "consumed_inputs"
      ints: 0
      ints: 0
      ints: 0
      ints: 1
      ints: 1
    }
  }
  node {
    input: "678"
    output: "679"
    op_type: "Relu"
  }
  node {
    input: "679"
    input: "182"
    output: "681"
    op_type: "Conv"
    attribute {
      name: "kernel_shape"
      ints: 1
      ints: 7
    }
    attribute {
      name: "strides"
      ints: 1
      ints: 1
    }
    attribute {
      name: "pads"
      ints: 0
      ints: 3
      ints: 0
      ints: 3
    }
    attribute {
      name: "dilations"
      ints: 1
      ints: 1
    }
    attribute {
      name: "group"
      i: 1
    }
  }
  node {
    input: "681"
    input: "183"
    input: "184"
    input: "185"
    input: "186"
    output: "683"
    op_type: "SpatialBN"
    attribute {
      name: "is_test"
      i: 1
    }
    attribute {
      name: "epsilon"
      f: 0.00100000004749745
    }
    attribute {
      name: "momentum"
      f: 0.899999976158142
    }
    attribute {
      name: "consumed_inputs"
      ints: 0
      ints: 0
      ints: 0
      ints: 1
      ints: 1
    }
  }
  node {
    input: "683"
    output: "684"
    op_type: "Relu"
  }
  node {
    input: "684"
    input: "187"
    output: "686"
    op_type: "Conv"
    attribute {
      name: "kernel_shape"
      ints: 7
      ints: 1
    }
    attribute {
      name: "strides"
      ints: 1
      ints: 1
    }
    attribute {
      name: "pads"
      ints: 3
      ints: 0
      ints: 3
      ints: 0
    }
    attribute {
      name: "dilations"
      ints: 1
      ints: 1
    }
    attribute {
      name: "group"
      i: 1
    }
  }
  node {
    input: "686"
    input: "188"
    input: "189"
    input: "190"
    input: "191"
    output: "688"
    op_type: "SpatialBN"
    attribute {
      name: "is_test"
      i: 1
    }
    attribute {
      name: "epsilon"
      f: 0.00100000004749745
    }
    attribute {
      name: "momentum"
      f: 0.899999976158142
    }
    attribute {
      name: "consumed_inputs"
      ints: 0
      ints: 0
      ints: 0
      ints: 1
      ints: 1
    }
  }
  node {
    input: "688"
    output: "689"
    op_type: "Relu"
  }
  node {
    input: "689"
    input: "192"
    output: "691"
    op_type: "Conv"
    attribute {
      name: "kernel_shape"
      ints: 1
      ints: 7
    }
    attribute {
      name: "strides"
      ints: 1
      ints: 1
    }
    attribute {
      name: "pads"
      ints: 0
      ints: 3
      ints: 0
      ints: 3
    }
    attribute {
      name: "dilations"
      ints: 1
      ints: 1
    }
    attribute {
      name: "group"
      i: 1
    }
  }
  node {
    input: "691"
    input: "193"
    input: "194"
    input: "195"
    input: "196"
    output: "693"
    op_type: "SpatialBN"
    attribute {
      name: "is_test"
      i: 1
    }
    attribute {
      name: "epsilon"
      f: 0.00100000004749745
    }
    attribute {
      name: "momentum"
      f: 0.899999976158142
    }
    attribute {
      name: "consumed_inputs"
      ints: 0
      ints: 0
      ints: 0
      ints: 1
      ints: 1
    }
  }
  node {
    input: "693"
    output: "694"
    op_type: "Relu"
  }
  node {
    input: "649"
    output: "695"
    op_type: "AveragePool"
    attribute {
      name: "kernel_shape"
      ints: 3
      ints: 3
    }
    attribute {
      name: "pads"
      ints: 1
      ints: 1
    }
    attribute {
      name: "strides"
      ints: 1
      ints: 1
    }
  }
  node {
    input: "695"
    input: "197"
    output: "697"
    op_type: "Conv"
    attribute {
      name: "kernel_shape"
      ints: 1
      ints: 1
    }
    attribute {
      name: "strides"
      ints: 1
      ints: 1
    }
    attribute {
      name: "pads"
      ints: 0
      ints: 0
      ints: 0
      ints: 0
    }
    attribute {
      name: "dilations"
      ints: 1
      ints: 1
    }
    attribute {
      name: "group"
      i: 1
    }
  }
  node {
    input: "697"
    input: "198"
    input: "199"
    input: "200"
    input: "201"
    output: "699"
    op_type: "SpatialBN"
    attribute {
      name: "is_test"
      i: 1
    }
    attribute {
      name: "epsilon"
      f: 0.00100000004749745
    }
    attribute {
      name: "momentum"
      f: 0.899999976158142
    }
    attribute {
      name: "consumed_inputs"
      ints: 0
      ints: 0
      ints: 0
      ints: 1
      ints: 1
    }
  }
  node {
    input: "699"
    output: "700"
    op_type: "Relu"
  }
  node {
    input: "654"
    input: "669"
    input: "694"
    input: "700"
    output: "702"
    op_type: "cat"
    attribute {
      name: "dim"
      i: 1
    }
  }
  node {
    input: "702"
    input: "202"
    output: "704"
    op_type: "Conv"
    attribute {
      name: "kernel_shape"
      ints: 1
      ints: 1
    }
    attribute {
      name: "strides"
      ints: 1
      ints: 1
    }
    attribute {
      name: "pads"
      ints: 0
      ints: 0
      ints: 0
      ints: 0
    }
    attribute {
      name: "dilations"
      ints: 1
      ints: 1
    }
    attribute {
      name: "group"
      i: 1
    }
  }
  node {
    input: "704"
    input: "203"
    input: "204"
    input: "205"
    input: "206"
    output: "706"
    op_type: "SpatialBN"
    attribute {
      name: "is_test"
      i: 1
    }
    attribute {
      name: "epsilon"
      f: 0.00100000004749745
    }
    attribute {
      name: "momentum"
      f: 0.899999976158142
    }
    attribute {
      name: "consumed_inputs"
      ints: 0
      ints: 0
      ints: 0
      ints: 1
      ints: 1
    }
  }
  node {
    input: "706"
    output: "707"
    op_type: "Relu"
  }
  node {
    input: "702"
    input: "207"
    output: "709"
    op_type: "Conv"
    attribute {
      name: "kernel_shape"
      ints: 1
      ints: 1
    }
    attribute {
      name: "strides"
      ints: 1
      ints: 1
    }
    attribute {
      name: "pads"
      ints: 0
      ints: 0
      ints: 0
      ints: 0
    }
    attribute {
      name: "dilations"
      ints: 1
      ints: 1
    }
    attribute {
      name: "group"
      i: 1
    }
  }
  node {
    input: "709"
    input: "208"
    input: "209"
    input: "210"
    input: "211"
    output: "711"
    op_type: "SpatialBN"
    attribute {
      name: "is_test"
      i: 1
    }
    attribute {
      name: "epsilon"
      f: 0.00100000004749745
    }
    attribute {
      name: "momentum"
      f: 0.899999976158142
    }
    attribute {
      name: "consumed_inputs"
      ints: 0
      ints: 0
      ints: 0
      ints: 1
      ints: 1
    }
  }
  node {
    input: "711"
    output: "712"
    op_type: "Relu"
  }
  node {
    input: "712"
    input: "212"
    output: "714"
    op_type: "Conv"
    attribute {
      name: "kernel_shape"
      ints: 1
      ints: 7
    }
    attribute {
      name: "strides"
      ints: 1
      ints: 1
    }
    attribute {
      name: "pads"
      ints: 0
      ints: 3
      ints: 0
      ints: 3
    }
    attribute {
      name: "dilations"
      ints: 1
      ints: 1
    }
    attribute {
      name: "group"
      i: 1
    }
  }
  node {
    input: "714"
    input: "213"
    input: "214"
    input: "215"
    input: "216"
    output: "716"
    op_type: "SpatialBN"
    attribute {
      name: "is_test"
      i: 1
    }
    attribute {
      name: "epsilon"
      f: 0.00100000004749745
    }
    attribute {
      name: "momentum"
      f: 0.899999976158142
    }
    attribute {
      name: "consumed_inputs"
      ints: 0
      ints: 0
      ints: 0
      ints: 1
      ints: 1
    }
  }
  node {
    input: "716"
    output: "717"
    op_type: "Relu"
  }
  node {
    input: "717"
    input: "217"
    output: "719"
    op_type: "Conv"
    attribute {
      name: "kernel_shape"
      ints: 7
      ints: 1
    }
    attribute {
      name: "strides"
      ints: 1
      ints: 1
    }
    attribute {
      name: "pads"
      ints: 3
      ints: 0
      ints: 3
      ints: 0
    }
    attribute {
      name: "dilations"
      ints: 1
      ints: 1
    }
    attribute {
      name: "group"
      i: 1
    }
  }
  node {
    input: "719"
    input: "218"
    input: "219"
    input: "220"
    input: "221"
    output: "721"
    op_type: "SpatialBN"
    attribute {
      name: "is_test"
      i: 1
    }
    attribute {
      name: "epsilon"
      f: 0.00100000004749745
    }
    attribute {
      name: "momentum"
      f: 0.899999976158142
    }
    attribute {
      name: "consumed_inputs"
      ints: 0
      ints: 0
      ints: 0
      ints: 1
      ints: 1
    }
  }
  node {
    input: "721"
    output: "722"
    op_type: "Relu"
  }
  node {
    input: "702"
    input: "222"
    output: "724"
    op_type: "Conv"
    attribute {
      name: "kernel_shape"
      ints: 1
      ints: 1
    }
    attribute {
      name: "strides"
      ints: 1
      ints: 1
    }
    attribute {
      name: "pads"
      ints: 0
      ints: 0
      ints: 0
      ints: 0
    }
    attribute {
      name: "dilations"
      ints: 1
      ints: 1
    }
    attribute {
      name: "group"
      i: 1
    }
  }
  node {
    input: "724"
    input: "223"
    input: "224"
    input: "225"
    input: "226"
    output: "726"
    op_type: "SpatialBN"
    attribute {
      name: "is_test"
      i: 1
    }
    attribute {
      name: "epsilon"
      f: 0.00100000004749745
    }
    attribute {
      name: "momentum"
      f: 0.899999976158142
    }
    attribute {
      name: "consumed_inputs"
      ints: 0
      ints: 0
      ints: 0
      ints: 1
      ints: 1
    }
  }
  node {
    input: "726"
    output: "727"
    op_type: "Relu"
  }
  node {
    input: "727"
    input: "227"
    output: "729"
    op_type: "Conv"
    attribute {
      name: "kernel_shape"
      ints: 7
      ints: 1
    }
    attribute {
      name: "strides"
      ints: 1
      ints: 1
    }
    attribute {
      name: "pads"
      ints: 3
      ints: 0
      ints: 3
      ints: 0
    }
    attribute {
      name: "dilations"
      ints: 1
      ints: 1
    }
    attribute {
      name: "group"
      i: 1
    }
  }
  node {
    input: "729"
    input: "228"
    input: "229"
    input: "230"
    input: "231"
    output: "731"
    op_type: "SpatialBN"
    attribute {
      name: "is_test"
      i: 1
    }
    attribute {
      name: "epsilon"
      f: 0.00100000004749745
    }
    attribute {
      name: "momentum"
      f: 0.899999976158142
    }
    attribute {
      name: "consumed_inputs"
      ints: 0
      ints: 0
      ints: 0
      ints: 1
      ints: 1
    }
  }
  node {
    input: "731"
    output: "732"
    op_type: "Relu"
  }
  node {
    input: "732"
    input: "232"
    output: "734"
    op_type: "Conv"
    attribute {
      name: "kernel_shape"
      ints: 1
      ints: 7
    }
    attribute {
      name: "strides"
      ints: 1
      ints: 1
    }
    attribute {
      name: "pads"
      ints: 0
      ints: 3
      ints: 0
      ints: 3
    }
    attribute {
      name: "dilations"
      ints: 1
      ints: 1
    }
    attribute {
      name: "group"
      i: 1
    }
  }
  node {
    input: "734"
    input: "233"
    input: "234"
    input: "235"
    input: "236"
    output: "736"
    op_type: "SpatialBN"
    attribute {
      name: "is_test"
      i: 1
    }
    attribute {
      name: "epsilon"
      f: 0.00100000004749745
    }
    attribute {
      name: "momentum"
      f: 0.899999976158142
    }
    attribute {
      name: "consumed_inputs"
      ints: 0
      ints: 0
      ints: 0
      ints: 1
      ints: 1
    }
  }
  node {
    input: "736"
    output: "737"
    op_type: "Relu"
  }
  node {
    input: "737"
    input: "237"
    output: "739"
    op_type: "Conv"
    attribute {
      name: "kernel_shape"
      ints: 7
      ints: 1
    }
    attribute {
      name: "strides"
      ints: 1
      ints: 1
    }
    attribute {
      name: "pads"
      ints: 3
      ints: 0
      ints: 3
      ints: 0
    }
    attribute {
      name: "dilations"
      ints: 1
      ints: 1
    }
    attribute {
      name: "group"
      i: 1
    }
  }
  node {
    input: "739"
    input: "238"
    input: "239"
    input: "240"
    input: "241"
    output: "741"
    op_type: "SpatialBN"
    attribute {
      name: "is_test"
      i: 1
    }
    attribute {
      name: "epsilon"
      f: 0.00100000004749745
    }
    attribute {
      name: "momentum"
      f: 0.899999976158142
    }
    attribute {
      name: "consumed_inputs"
      ints: 0
      ints: 0
      ints: 0
      ints: 1
      ints: 1
    }
  }
  node {
    input: "741"
    output: "742"
    op_type: "Relu"
  }
  node {
    input: "742"
    input: "242"
    output: "744"
    op_type: "Conv"
    attribute {
      name: "kernel_shape"
      ints: 1
      ints: 7
    }
    attribute {
      name: "strides"
      ints: 1
      ints: 1
    }
    attribute {
      name: "pads"
      ints: 0
      ints: 3
      ints: 0
      ints: 3
    }
    attribute {
      name: "dilations"
      ints: 1
      ints: 1
    }
    attribute {
      name: "group"
      i: 1
    }
  }
  node {
    input: "744"
    input: "243"
    input: "244"
    input: "245"
    input: "246"
    output: "746"
    op_type: "SpatialBN"
    attribute {
      name: "is_test"
      i: 1
    }
    attribute {
      name: "epsilon"
      f: 0.00100000004749745
    }
    attribute {
      name: "momentum"
      f: 0.899999976158142
    }
    attribute {
      name: "consumed_inputs"
      ints: 0
      ints: 0
      ints: 0
      ints: 1
      ints: 1
    }
  }
  node {
    input: "746"
    output: "747"
    op_type: "Relu"
  }
  node {
    input: "702"
    output: "748"
    op_type: "AveragePool"
    attribute {
      name: "kernel_shape"
      ints: 3
      ints: 3
    }
    attribute {
      name: "pads"
      ints: 1
      ints: 1
    }
    attribute {
      name: "strides"
      ints: 1
      ints: 1
    }
  }
  node {
    input: "748"
    input: "247"
    output: "750"
    op_type: "Conv"
    attribute {
      name: "kernel_shape"
      ints: 1
      ints: 1
    }
    attribute {
      name: "strides"
      ints: 1
      ints: 1
    }
    attribute {
      name: "pads"
      ints: 0
      ints: 0
      ints: 0
      ints: 0
    }
    attribute {
      name: "dilations"
      ints: 1
      ints: 1
    }
    attribute {
      name: "group"
      i: 1
    }
  }
  node {
    input: "750"
    input: "248"
    input: "249"
    input: "250"
    input: "251"
    output: "752"
    op_type: "SpatialBN"
    attribute {
      name: "is_test"
      i: 1
    }
    attribute {
      name: "epsilon"
      f: 0.00100000004749745
    }
    attribute {
      name: "momentum"
      f: 0.899999976158142
    }
    attribute {
      name: "consumed_inputs"
      ints: 0
      ints: 0
      ints: 0
      ints: 1
      ints: 1
    }
  }
  node {
    input: "752"
    output: "753"
    op_type: "Relu"
  }
  node {
    input: "707"
    input: "722"
    input: "747"
    input: "753"
    output: "755"
    op_type: "cat"
    attribute {
      name: "dim"
      i: 1
    }
  }
  node {
    input: "755"
    input: "252"
    output: "757"
    op_type: "Conv"
    attribute {
      name: "kernel_shape"
      ints: 1
      ints: 1
    }
    attribute {
      name: "strides"
      ints: 1
      ints: 1
    }
    attribute {
      name: "pads"
      ints: 0
      ints: 0
      ints: 0
      ints: 0
    }
    attribute {
      name: "dilations"
      ints: 1
      ints: 1
    }
    attribute {
      name: "group"
      i: 1
    }
  }
  node {
    input: "757"
    input: "253"
    input: "254"
    input: "255"
    input: "256"
    output: "759"
    op_type: "SpatialBN"
    attribute {
      name: "is_test"
      i: 1
    }
    attribute {
      name: "epsilon"
      f: 0.00100000004749745
    }
    attribute {
      name: "momentum"
      f: 0.899999976158142
    }
    attribute {
      name: "consumed_inputs"
      ints: 0
      ints: 0
      ints: 0
      ints: 1
      ints: 1
    }
  }
  node {
    input: "759"
    output: "760"
    op_type: "Relu"
  }
  node {
    input: "755"
    input: "257"
    output: "762"
    op_type: "Conv"
    attribute {
      name: "kernel_shape"
      ints: 1
      ints: 1
    }
    attribute {
      name: "strides"
      ints: 1
      ints: 1
    }
    attribute {
      name: "pads"
      ints: 0
      ints: 0
      ints: 0
      ints: 0
    }
    attribute {
      name: "dilations"
      ints: 1
      ints: 1
    }
    attribute {
      name: "group"
      i: 1
    }
  }
  node {
    input: "762"
    input: "258"
    input: "259"
    input: "260"
    input: "261"
    output: "764"
    op_type: "SpatialBN"
    attribute {
      name: "is_test"
      i: 1
    }
    attribute {
      name: "epsilon"
      f: 0.00100000004749745
    }
    attribute {
      name: "momentum"
      f: 0.899999976158142
    }
    attribute {
      name: "consumed_inputs"
      ints: 0
      ints: 0
      ints: 0
      ints: 1
      ints: 1
    }
  }
  node {
    input: "764"
    output: "765"
    op_type: "Relu"
  }
  node {
    input: "765"
    input: "262"
    output: "767"
    op_type: "Conv"
    attribute {
      name: "kernel_shape"
      ints: 1
      ints: 7
    }
    attribute {
      name: "strides"
      ints: 1
      ints: 1
    }
    attribute {
      name: "pads"
      ints: 0
      ints: 3
      ints: 0
      ints: 3
    }
    attribute {
      name: "dilations"
      ints: 1
      ints: 1
    }
    attribute {
      name: "group"
      i: 1
    }
  }
  node {
    input: "767"
    input: "263"
    input: "264"
    input: "265"
    input: "266"
    output: "769"
    op_type: "SpatialBN"
    attribute {
      name: "is_test"
      i: 1
    }
    attribute {
      name: "epsilon"
      f: 0.00100000004749745
    }
    attribute {
      name: "momentum"
      f: 0.899999976158142
    }
    attribute {
      name: "consumed_inputs"
      ints: 0
      ints: 0
      ints: 0
      ints: 1
      ints: 1
    }
  }
  node {
    input: "769"
    output: "770"
    op_type: "Relu"
  }
  node {
    input: "770"
    input: "267"
    output: "772"
    op_type: "Conv"
    attribute {
      name: "kernel_shape"
      ints: 7
      ints: 1
    }
    attribute {
      name: "strides"
      ints: 1
      ints: 1
    }
    attribute {
      name: "pads"
      ints: 3
      ints: 0
      ints: 3
      ints: 0
    }
    attribute {
      name: "dilations"
      ints: 1
      ints: 1
    }
    attribute {
      name: "group"
      i: 1
    }
  }
  node {
    input: "772"
    input: "268"
    input: "269"
    input: "270"
    input: "271"
    output: "774"
    op_type: "SpatialBN"
    attribute {
      name: "is_test"
      i: 1
    }
    attribute {
      name: "epsilon"
      f: 0.00100000004749745
    }
    attribute {
      name: "momentum"
      f: 0.899999976158142
    }
    attribute {
      name: "consumed_inputs"
      ints: 0
      ints: 0
      ints: 0
      ints: 1
      ints: 1
    }
  }
  node {
    input: "774"
    output: "775"
    op_type: "Relu"
  }
  node {
    input: "755"
    input: "272"
    output: "777"
    op_type: "Conv"
    attribute {
      name: "kernel_shape"
      ints: 1
      ints: 1
    }
    attribute {
      name: "strides"
      ints: 1
      ints: 1
    }
    attribute {
      name: "pads"
      ints: 0
      ints: 0
      ints: 0
      ints: 0
    }
    attribute {
      name: "dilations"
      ints: 1
      ints: 1
    }
    attribute {
      name: "group"
      i: 1
    }
  }
  node {
    input: "777"
    input: "273"
    input: "274"
    input: "275"
    input: "276"
    output: "779"
    op_type: "SpatialBN"
    attribute {
      name: "is_test"
      i: 1
    }
    attribute {
      name: "epsilon"
      f: 0.00100000004749745
    }
    attribute {
      name: "momentum"
      f: 0.899999976158142
    }
    attribute {
      name: "consumed_inputs"
      ints: 0
      ints: 0
      ints: 0
      ints: 1
      ints: 1
    }
  }
  node {
    input: "779"
    output: "780"
    op_type: "Relu"
  }
  node {
    input: "780"
    input: "277"
    output: "782"
    op_type: "Conv"
    attribute {
      name: "kernel_shape"
      ints: 7
      ints: 1
    }
    attribute {
      name: "strides"
      ints: 1
      ints: 1
    }
    attribute {
      name: "pads"
      ints: 3
      ints: 0
      ints: 3
      ints: 0
    }
    attribute {
      name: "dilations"
      ints: 1
      ints: 1
    }
    attribute {
      name: "group"
      i: 1
    }
  }
  node {
    input: "782"
    input: "278"
    input: "279"
    input: "280"
    input: "281"
    output: "784"
    op_type: "SpatialBN"
    attribute {
      name: "is_test"
      i: 1
    }
    attribute {
      name: "epsilon"
      f: 0.00100000004749745
    }
    attribute {
      name: "momentum"
      f: 0.899999976158142
    }
    attribute {
      name: "consumed_inputs"
      ints: 0
      ints: 0
      ints: 0
      ints: 1
      ints: 1
    }
  }
  node {
    input: "784"
    output: "785"
    op_type: "Relu"
  }
  node {
    input: "785"
    input: "282"
    output: "787"
    op_type: "Conv"
    attribute {
      name: "kernel_shape"
      ints: 1
      ints: 7
    }
    attribute {
      name: "strides"
      ints: 1
      ints: 1
    }
    attribute {
      name: "pads"
      ints: 0
      ints: 3
      ints: 0
      ints: 3
    }
    attribute {
      name: "dilations"
      ints: 1
      ints: 1
    }
    attribute {
      name: "group"
      i: 1
    }
  }
  node {
    input: "787"
    input: "283"
    input: "284"
    input: "285"
    input: "286"
    output: "789"
    op_type: "SpatialBN"
    attribute {
      name: "is_test"
      i: 1
    }
    attribute {
      name: "epsilon"
      f: 0.00100000004749745
    }
    attribute {
      name: "momentum"
      f: 0.899999976158142
    }
    attribute {
      name: "consumed_inputs"
      ints: 0
      ints: 0
      ints: 0
      ints: 1
      ints: 1
    }
  }
  node {
    input: "789"
    output: "790"
    op_type: "Relu"
  }
  node {
    input: "790"
    input: "287"
    output: "792"
    op_type: "Conv"
    attribute {
      name: "kernel_shape"
      ints: 7
      ints: 1
    }
    attribute {
      name: "strides"
      ints: 1
      ints: 1
    }
    attribute {
      name: "pads"
      ints: 3
      ints: 0
      ints: 3
      ints: 0
    }
    attribute {
      name: "dilations"
      ints: 1
      ints: 1
    }
    attribute {
      name: "group"
      i: 1
    }
  }
  node {
    input: "792"
    input: "288"
    input: "289"
    input: "290"
    input: "291"
    output: "794"
    op_type: "SpatialBN"
    attribute {
      name: "is_test"
      i: 1
    }
    attribute {
      name: "epsilon"
      f: 0.00100000004749745
    }
    attribute {
      name: "momentum"
      f: 0.899999976158142
    }
    attribute {
      name: "consumed_inputs"
      ints: 0
      ints: 0
      ints: 0
      ints: 1
      ints: 1
    }
  }
  node {
    input: "794"
    output: "795"
    op_type: "Relu"
  }
  node {
    input: "795"
    input: "292"
    output: "797"
    op_type: "Conv"
    attribute {
      name: "kernel_shape"
      ints: 1
      ints: 7
    }
    attribute {
      name: "strides"
      ints: 1
      ints: 1
    }
    attribute {
      name: "pads"
      ints: 0
      ints: 3
      ints: 0
      ints: 3
    }
    attribute {
      name: "dilations"
      ints: 1
      ints: 1
    }
    attribute {
      name: "group"
      i: 1
    }
  }
  node {
    input: "797"
    input: "293"
    input: "294"
    input: "295"
    input: "296"
    output: "799"
    op_type: "SpatialBN"
    attribute {
      name: "is_test"
      i: 1
    }
    attribute {
      name: "epsilon"
      f: 0.00100000004749745
    }
    attribute {
      name: "momentum"
      f: 0.899999976158142
    }
    attribute {
      name: "consumed_inputs"
      ints: 0
      ints: 0
      ints: 0
      ints: 1
      ints: 1
    }
  }
  node {
    input: "799"
    output: "800"
    op_type: "Relu"
  }
  node {
    input: "755"
    output: "801"
    op_type: "AveragePool"
    attribute {
      name: "kernel_shape"
      ints: 3
      ints: 3
    }
    attribute {
      name: "pads"
      ints: 1
      ints: 1
    }
    attribute {
      name: "strides"
      ints: 1
      ints: 1
    }
  }
  node {
    input: "801"
    input: "297"
    output: "803"
    op_type: "Conv"
    attribute {
      name: "kernel_shape"
      ints: 1
      ints: 1
    }
    attribute {
      name: "strides"
      ints: 1
      ints: 1
    }
    attribute {
      name: "pads"
      ints: 0
      ints: 0
      ints: 0
      ints: 0
    }
    attribute {
      name: "dilations"
      ints: 1
      ints: 1
    }
    attribute {
      name: "group"
      i: 1
    }
  }
  node {
    input: "803"
    input: "298"
    input: "299"
    input: "300"
    input: "301"
    output: "805"
    op_type: "SpatialBN"
    attribute {
      name: "is_test"
      i: 1
    }
    attribute {
      name: "epsilon"
      f: 0.00100000004749745
    }
    attribute {
      name: "momentum"
      f: 0.899999976158142
    }
    attribute {
      name: "consumed_inputs"
      ints: 0
      ints: 0
      ints: 0
      ints: 1
      ints: 1
    }
  }
  node {
    input: "805"
    output: "806"
    op_type: "Relu"
  }
  node {
    input: "760"
    input: "775"
    input: "800"
    input: "806"
    output: "808"
    op_type: "cat"
    attribute {
      name: "dim"
      i: 1
    }
  }
  node {
    input: "808"
    input: "302"
    output: "810"
    op_type: "Conv"
    attribute {
      name: "kernel_shape"
      ints: 1
      ints: 1
    }
    attribute {
      name: "strides"
      ints: 1
      ints: 1
    }
    attribute {
      name: "pads"
      ints: 0
      ints: 0
      ints: 0
      ints: 0
    }
    attribute {
      name: "dilations"
      ints: 1
      ints: 1
    }
    attribute {
      name: "group"
      i: 1
    }
  }
  node {
    input: "810"
    input: "303"
    input: "304"
    input: "305"
    input: "306"
    output: "812"
    op_type: "SpatialBN"
    attribute {
      name: "is_test"
      i: 1
    }
    attribute {
      name: "epsilon"
      f: 0.00100000004749745
    }
    attribute {
      name: "momentum"
      f: 0.899999976158142
    }
    attribute {
      name: "consumed_inputs"
      ints: 0
      ints: 0
      ints: 0
      ints: 1
      ints: 1
    }
  }
  node {
    input: "812"
    output: "813"
    op_type: "Relu"
  }
  node {
    input: "808"
    input: "307"
    output: "815"
    op_type: "Conv"
    attribute {
      name: "kernel_shape"
      ints: 1
      ints: 1
    }
    attribute {
      name: "strides"
      ints: 1
      ints: 1
    }
    attribute {
      name: "pads"
      ints: 0
      ints: 0
      ints: 0
      ints: 0
    }
    attribute {
      name: "dilations"
      ints: 1
      ints: 1
    }
    attribute {
      name: "group"
      i: 1
    }
  }
  node {
    input: "815"
    input: "308"
    input: "309"
    input: "310"
    input: "311"
    output: "817"
    op_type: "SpatialBN"
    attribute {
      name: "is_test"
      i: 1
    }
    attribute {
      name: "epsilon"
      f: 0.00100000004749745
    }
    attribute {
      name: "momentum"
      f: 0.899999976158142
    }
    attribute {
      name: "consumed_inputs"
      ints: 0
      ints: 0
      ints: 0
      ints: 1
      ints: 1
    }
  }
  node {
    input: "817"
    output: "818"
    op_type: "Relu"
  }
  node {
    input: "818"
    input: "312"
    output: "820"
    op_type: "Conv"
    attribute {
      name: "kernel_shape"
      ints: 1
      ints: 7
    }
    attribute {
      name: "strides"
      ints: 1
      ints: 1
    }
    attribute {
      name: "pads"
      ints: 0
      ints: 3
      ints: 0
      ints: 3
    }
    attribute {
      name: "dilations"
      ints: 1
      ints: 1
    }
    attribute {
      name: "group"
      i: 1
    }
  }
  node {
    input: "820"
    input: "313"
    input: "314"
    input: "315"
    input: "316"
    output: "822"
    op_type: "SpatialBN"
    attribute {
      name: "is_test"
      i: 1
    }
    attribute {
      name: "epsilon"
      f: 0.00100000004749745
    }
    attribute {
      name: "momentum"
      f: 0.899999976158142
    }
    attribute {
      name: "consumed_inputs"
      ints: 0
      ints: 0
      ints: 0
      ints: 1
      ints: 1
    }
  }
  node {
    input: "822"
    output: "823"
    op_type: "Relu"
  }
  node {
    input: "823"
    input: "317"
    output: "825"
    op_type: "Conv"
    attribute {
      name: "kernel_shape"
      ints: 7
      ints: 1
    }
    attribute {
      name: "strides"
      ints: 1
      ints: 1
    }
    attribute {
      name: "pads"
      ints: 3
      ints: 0
      ints: 3
      ints: 0
    }
    attribute {
      name: "dilations"
      ints: 1
      ints: 1
    }
    attribute {
      name: "group"
      i: 1
    }
  }
  node {
    input: "825"
    input: "318"
    input: "319"
    input: "320"
    input: "321"
    output: "827"
    op_type: "SpatialBN"
    attribute {
      name: "is_test"
      i: 1
    }
    attribute {
      name: "epsilon"
      f: 0.00100000004749745
    }
    attribute {
      name: "momentum"
      f: 0.899999976158142
    }
    attribute {
      name: "consumed_inputs"
      ints: 0
      ints: 0
      ints: 0
      ints: 1
      ints: 1
    }
  }
  node {
    input: "827"
    output: "828"
    op_type: "Relu"
  }
  node {
    input: "808"
    input: "322"
    output: "830"
    op_type: "Conv"
    attribute {
      name: "kernel_shape"
      ints: 1
      ints: 1
    }
    attribute {
      name: "strides"
      ints: 1
      ints: 1
    }
    attribute {
      name: "pads"
      ints: 0
      ints: 0
      ints: 0
      ints: 0
    }
    attribute {
      name: "dilations"
      ints: 1
      ints: 1
    }
    attribute {
      name: "group"
      i: 1
    }
  }
  node {
    input: "830"
    input: "323"
    input: "324"
    input: "325"
    input: "326"
    output: "832"
    op_type: "SpatialBN"
    attribute {
      name: "is_test"
      i: 1
    }
    attribute {
      name: "epsilon"
      f: 0.00100000004749745
    }
    attribute {
      name: "momentum"
      f: 0.899999976158142
    }
    attribute {
      name: "consumed_inputs"
      ints: 0
      ints: 0
      ints: 0
      ints: 1
      ints: 1
    }
  }
  node {
    input: "832"
    output: "833"
    op_type: "Relu"
  }
  node {
    input: "833"
    input: "327"
    output: "835"
    op_type: "Conv"
    attribute {
      name: "kernel_shape"
      ints: 7
      ints: 1
    }
    attribute {
      name: "strides"
      ints: 1
      ints: 1
    }
    attribute {
      name: "pads"
      ints: 3
      ints: 0
      ints: 3
      ints: 0
    }
    attribute {
      name: "dilations"
      ints: 1
      ints: 1
    }
    attribute {
      name: "group"
      i: 1
    }
  }
  node {
    input: "835"
    input: "328"
    input: "329"
    input: "330"
    input: "331"
    output: "837"
    op_type: "SpatialBN"
    attribute {
      name: "is_test"
      i: 1
    }
    attribute {
      name: "epsilon"
      f: 0.00100000004749745
    }
    attribute {
      name: "momentum"
      f: 0.899999976158142
    }
    attribute {
      name: "consumed_inputs"
      ints: 0
      ints: 0
      ints: 0
      ints: 1
      ints: 1
    }
  }
  node {
    input: "837"
    output: "838"
    op_type: "Relu"
  }
  node {
    input: "838"
    input: "332"
    output: "840"
    op_type: "Conv"
    attribute {
      name: "kernel_shape"
      ints: 1
      ints: 7
    }
    attribute {
      name: "strides"
      ints: 1
      ints: 1
    }
    attribute {
      name: "pads"
      ints: 0
      ints: 3
      ints: 0
      ints: 3
    }
    attribute {
      name: "dilations"
      ints: 1
      ints: 1
    }
    attribute {
      name: "group"
      i: 1
    }
  }
  node {
    input: "840"
    input: "333"
    input: "334"
    input: "335"
    input: "336"
    output: "842"
    op_type: "SpatialBN"
    attribute {
      name: "is_test"
      i: 1
    }
    attribute {
      name: "epsilon"
      f: 0.00100000004749745
    }
    attribute {
      name: "momentum"
      f: 0.899999976158142
    }
    attribute {
      name: "consumed_inputs"
      ints: 0
      ints: 0
      ints: 0
      ints: 1
      ints: 1
    }
  }
  node {
    input: "842"
    output: "843"
    op_type: "Relu"
  }
  node {
    input: "843"
    input: "337"
    output: "845"
    op_type: "Conv"
    attribute {
      name: "kernel_shape"
      ints: 7
      ints: 1
    }
    attribute {
      name: "strides"
      ints: 1
      ints: 1
    }
    attribute {
      name: "pads"
      ints: 3
      ints: 0
      ints: 3
      ints: 0
    }
    attribute {
      name: "dilations"
      ints: 1
      ints: 1
    }
    attribute {
      name: "group"
      i: 1
    }
  }
  node {
    input: "845"
    input: "338"
    input: "339"
    input: "340"
    input: "341"
    output: "847"
    op_type: "SpatialBN"
    attribute {
      name: "is_test"
      i: 1
    }
    attribute {
      name: "epsilon"
      f: 0.00100000004749745
    }
    attribute {
      name: "momentum"
      f: 0.899999976158142
    }
    attribute {
      name: "consumed_inputs"
      ints: 0
      ints: 0
      ints: 0
      ints: 1
      ints: 1
    }
  }
  node {
    input: "847"
    output: "848"
    op_type: "Relu"
  }
  node {
    input: "848"
    input: "342"
    output: "850"
    op_type: "Conv"
    attribute {
      name: "kernel_shape"
      ints: 1
      ints: 7
    }
    attribute {
      name: "strides"
      ints: 1
      ints: 1
    }
    attribute {
      name: "pads"
      ints: 0
      ints: 3
      ints: 0
      ints: 3
    }
    attribute {
      name: "dilations"
      ints: 1
      ints: 1
    }
    attribute {
      name: "group"
      i: 1
    }
  }
  node {
    input: "850"
    input: "343"
    input: "344"
    input: "345"
    input: "346"
    output: "852"
    op_type: "SpatialBN"
    attribute {
      name: "is_test"
      i: 1
    }
    attribute {
      name: "epsilon"
      f: 0.00100000004749745
    }
    attribute {
      name: "momentum"
      f: 0.899999976158142
    }
    attribute {
      name: "consumed_inputs"
      ints: 0
      ints: 0
      ints: 0
      ints: 1
      ints: 1
    }
  }
  node {
    input: "852"
    output: "853"
    op_type: "Relu"
  }
  node {
    input: "808"
    output: "854"
    op_type: "AveragePool"
    attribute {
      name: "kernel_shape"
      ints: 3
      ints: 3
    }
    attribute {
      name: "pads"
      ints: 1
      ints: 1
    }
    attribute {
      name: "strides"
      ints: 1
      ints: 1
    }
  }
  node {
    input: "854"
    input: "347"
    output: "856"
    op_type: "Conv"
    attribute {
      name: "kernel_shape"
      ints: 1
      ints: 1
    }
    attribute {
      name: "strides"
      ints: 1
      ints: 1
    }
    attribute {
      name: "pads"
      ints: 0
      ints: 0
      ints: 0
      ints: 0
    }
    attribute {
      name: "dilations"
      ints: 1
      ints: 1
    }
    attribute {
      name: "group"
      i: 1
    }
  }
  node {
    input: "856"
    input: "348"
    input: "349"
    input: "350"
    input: "351"
    output: "858"
    op_type: "SpatialBN"
    attribute {
      name: "is_test"
      i: 1
    }
    attribute {
      name: "epsilon"
      f: 0.00100000004749745
    }
    attribute {
      name: "momentum"
      f: 0.899999976158142
    }
    attribute {
      name: "consumed_inputs"
      ints: 0
      ints: 0
      ints: 0
      ints: 1
      ints: 1
    }
  }
  node {
    input: "858"
    output: "859"
    op_type: "Relu"
  }
  node {
    input: "813"
    input: "828"
    input: "853"
    input: "859"
    output: "861"
    op_type: "cat"
    attribute {
      name: "dim"
      i: 1
    }
  }
  node {
    input: "861"
    input: "364"
    output: "863"
    op_type: "Conv"
    attribute {
      name: "kernel_shape"
      ints: 1
      ints: 1
    }
    attribute {
      name: "strides"
      ints: 1
      ints: 1
    }
    attribute {
      name: "pads"
      ints: 0
      ints: 0
      ints: 0
      ints: 0
    }
    attribute {
      name: "dilations"
      ints: 1
      ints: 1
    }
    attribute {
      name: "group"
      i: 1
    }
  }
  node {
    input: "863"
    input: "365"
    input: "366"
    input: "367"
    input: "368"
    output: "865"
    op_type: "SpatialBN"
    attribute {
      name: "is_test"
      i: 1
    }
    attribute {
      name: "epsilon"
      f: 0.00100000004749745
    }
    attribute {
      name: "momentum"
      f: 0.899999976158142
    }
    attribute {
      name: "consumed_inputs"
      ints: 0
      ints: 0
      ints: 0
      ints: 1
      ints: 1
    }
  }
  node {
    input: "865"
    output: "866"
    op_type: "Relu"
  }
  node {
    input: "866"
    input: "369"
    output: "868"
    op_type: "Conv"
    attribute {
      name: "kernel_shape"
      ints: 3
      ints: 3
    }
    attribute {
      name: "strides"
      ints: 2
      ints: 2
    }
    attribute {
      name: "pads"
      ints: 0
      ints: 0
      ints: 0
      ints: 0
    }
    attribute {
      name: "dilations"
      ints: 1
      ints: 1
    }
    attribute {
      name: "group"
      i: 1
    }
  }
  node {
    input: "868"
    input: "370"
    input: "371"
    input: "372"
    input: "373"
    output: "870"
    op_type: "SpatialBN"
    attribute {
      name: "is_test"
      i: 1
    }
    attribute {
      name: "epsilon"
      f: 0.00100000004749745
    }
    attribute {
      name: "momentum"
      f: 0.899999976158142
    }
    attribute {
      name: "consumed_inputs"
      ints: 0
      ints: 0
      ints: 0
      ints: 1
      ints: 1
    }
  }
  node {
    input: "870"
    output: "871"
    op_type: "Relu"
  }
  node {
    input: "861"
    input: "374"
    output: "873"
    op_type: "Conv"
    attribute {
      name: "kernel_shape"
      ints: 1
      ints: 1
    }
    attribute {
      name: "strides"
      ints: 1
      ints: 1
    }
    attribute {
      name: "pads"
      ints: 0
      ints: 0
      ints: 0
      ints: 0
    }
    attribute {
      name: "dilations"
      ints: 1
      ints: 1
    }
    attribute {
      name: "group"
      i: 1
    }
  }
  node {
    input: "873"
    input: "375"
    input: "376"
    input: "377"
    input: "378"
    output: "875"
    op_type: "SpatialBN"
    attribute {
      name: "is_test"
      i: 1
    }
    attribute {
      name: "epsilon"
      f: 0.00100000004749745
    }
    attribute {
      name: "momentum"
      f: 0.899999976158142
    }
    attribute {
      name: "consumed_inputs"
      ints: 0
      ints: 0
      ints: 0
      ints: 1
      ints: 1
    }
  }
  node {
    input: "875"
    output: "876"
    op_type: "Relu"
  }
  node {
    input: "876"
    input: "379"
    output: "878"
    op_type: "Conv"
    attribute {
      name: "kernel_shape"
      ints: 1
      ints: 7
    }
    attribute {
      name: "strides"
      ints: 1
      ints: 1
    }
    attribute {
      name: "pads"
      ints: 0
      ints: 3
      ints: 0
      ints: 3
    }
    attribute {
      name: "dilations"
      ints: 1
      ints: 1
    }
    attribute {
      name: "group"
      i: 1
    }
  }
  node {
    input: "878"
    input: "380"
    input: "381"
    input: "382"
    input: "383"
    output: "880"
    op_type: "SpatialBN"
    attribute {
      name: "is_test"
      i: 1
    }
    attribute {
      name: "epsilon"
      f: 0.00100000004749745
    }
    attribute {
      name: "momentum"
      f: 0.899999976158142
    }
    attribute {
      name: "consumed_inputs"
      ints: 0
      ints: 0
      ints: 0
      ints: 1
      ints: 1
    }
  }
  node {
    input: "880"
    output: "881"
    op_type: "Relu"
  }
  node {
    input: "881"
    input: "384"
    output: "883"
    op_type: "Conv"
    attribute {
      name: "kernel_shape"
      ints: 7
      ints: 1
    }
    attribute {
      name: "strides"
      ints: 1
      ints: 1
    }
    attribute {
      name: "pads"
      ints: 3
      ints: 0
      ints: 3
      ints: 0
    }
    attribute {
      name: "dilations"
      ints: 1
      ints: 1
    }
    attribute {
      name: "group"
      i: 1
    }
  }
  node {
    input: "883"
    input: "385"
    input: "386"
    input: "387"
    input: "388"
    output: "885"
    op_type: "SpatialBN"
    attribute {
      name: "is_test"
      i: 1
    }
    attribute {
      name: "epsilon"
      f: 0.00100000004749745
    }
    attribute {
      name: "momentum"
      f: 0.899999976158142
    }
    attribute {
      name: "consumed_inputs"
      ints: 0
      ints: 0
      ints: 0
      ints: 1
      ints: 1
    }
  }
  node {
    input: "885"
    output: "886"
    op_type: "Relu"
  }
  node {
    input: "886"
    input: "389"
    output: "888"
    op_type: "Conv"
    attribute {
      name: "kernel_shape"
      ints: 3
      ints: 3
    }
    attribute {
      name: "strides"
      ints: 2
      ints: 2
    }
    attribute {
      name: "pads"
      ints: 0
      ints: 0
      ints: 0
      ints: 0
    }
    attribute {
      name: "dilations"
      ints: 1
      ints: 1
    }
    attribute {
      name: "group"
      i: 1
    }
  }
  node {
    input: "888"
    input: "390"
    input: "391"
    input: "392"
    input: "393"
    output: "890"
    op_type: "SpatialBN"
    attribute {
      name: "is_test"
      i: 1
    }
    attribute {
      name: "epsilon"
      f: 0.00100000004749745
    }
    attribute {
      name: "momentum"
      f: 0.899999976158142
    }
    attribute {
      name: "consumed_inputs"
      ints: 0
      ints: 0
      ints: 0
      ints: 1
      ints: 1
    }
  }
  node {
    input: "890"
    output: "891"
    op_type: "Relu"
  }
  node {
    input: "861"
    output: "892"
    op_type: "MaxPool"
    attribute {
      name: "dilations"
      ints: 1
      ints: 1
    }
    attribute {
      name: "kernel_shape"
      ints: 3
      ints: 3
    }
    attribute {
      name: "pads"
      ints: 0
      ints: 0
    }
    attribute {
      name: "strides"
      ints: 2
      ints: 2
    }
  }
  node {
    input: "871"
    input: "891"
    input: "892"
    output: "894"
    op_type: "cat"
    attribute {
      name: "dim"
      i: 1
    }
  }
  node {
    input: "894"
    input: "394"
    output: "896"
    op_type: "Conv"
    attribute {
      name: "kernel_shape"
      ints: 1
      ints: 1
    }
    attribute {
      name: "strides"
      ints: 1
      ints: 1
    }
    attribute {
      name: "pads"
      ints: 0
      ints: 0
      ints: 0
      ints: 0
    }
    attribute {
      name: "dilations"
      ints: 1
      ints: 1
    }
    attribute {
      name: "group"
      i: 1
    }
  }
  node {
    input: "896"
    input: "395"
    input: "396"
    input: "397"
    input: "398"
    output: "898"
    op_type: "SpatialBN"
    attribute {
      name: "is_test"
      i: 1
    }
    attribute {
      name: "epsilon"
      f: 0.00100000004749745
    }
    attribute {
      name: "momentum"
      f: 0.899999976158142
    }
    attribute {
      name: "consumed_inputs"
      ints: 0
      ints: 0
      ints: 0
      ints: 1
      ints: 1
    }
  }
  node {
    input: "898"
    output: "899"
    op_type: "Relu"
  }
  node {
    input: "894"
    input: "399"
    output: "901"
    op_type: "Conv"
    attribute {
      name: "kernel_shape"
      ints: 1
      ints: 1
    }
    attribute {
      name: "strides"
      ints: 1
      ints: 1
    }
    attribute {
      name: "pads"
      ints: 0
      ints: 0
      ints: 0
      ints: 0
    }
    attribute {
      name: "dilations"
      ints: 1
      ints: 1
    }
    attribute {
      name: "group"
      i: 1
    }
  }
  node {
    input: "901"
    input: "400"
    input: "401"
    input: "402"
    input: "403"
    output: "903"
    op_type: "SpatialBN"
    attribute {
      name: "is_test"
      i: 1
    }
    attribute {
      name: "epsilon"
      f: 0.00100000004749745
    }
    attribute {
      name: "momentum"
      f: 0.899999976158142
    }
    attribute {
      name: "consumed_inputs"
      ints: 0
      ints: 0
      ints: 0
      ints: 1
      ints: 1
    }
  }
  node {
    input: "903"
    output: "904"
    op_type: "Relu"
  }
  node {
    input: "904"
    input: "404"
    output: "906"
    op_type: "Conv"
    attribute {
      name: "kernel_shape"
      ints: 1
      ints: 3
    }
    attribute {
      name: "strides"
      ints: 1
      ints: 1
    }
    attribute {
      name: "pads"
      ints: 0
      ints: 1
      ints: 0
      ints: 1
    }
    attribute {
      name: "dilations"
      ints: 1
      ints: 1
    }
    attribute {
      name: "group"
      i: 1
    }
  }
  node {
    input: "906"
    input: "405"
    input: "406"
    input: "407"
    input: "408"
    output: "908"
    op_type: "SpatialBN"
    attribute {
      name: "is_test"
      i: 1
    }
    attribute {
      name: "epsilon"
      f: 0.00100000004749745
    }
    attribute {
      name: "momentum"
      f: 0.899999976158142
    }
    attribute {
      name: "consumed_inputs"
      ints: 0
      ints: 0
      ints: 0
      ints: 1
      ints: 1
    }
  }
  node {
    input: "908"
    output: "909"
    op_type: "Relu"
  }
  node {
    input: "904"
    input: "409"
    output: "911"
    op_type: "Conv"
    attribute {
      name: "kernel_shape"
      ints: 3
      ints: 1
    }
    attribute {
      name: "strides"
      ints: 1
      ints: 1
    }
    attribute {
      name: "pads"
      ints: 1
      ints: 0
      ints: 1
      ints: 0
    }
    attribute {
      name: "dilations"
      ints: 1
      ints: 1
    }
    attribute {
      name: "group"
      i: 1
    }
  }
  node {
    input: "911"
    input: "410"
    input: "411"
    input: "412"
    input: "413"
    output: "913"
    op_type: "SpatialBN"
    attribute {
      name: "is_test"
      i: 1
    }
    attribute {
      name: "epsilon"
      f: 0.00100000004749745
    }
    attribute {
      name: "momentum"
      f: 0.899999976158142
    }
    attribute {
      name: "consumed_inputs"
      ints: 0
      ints: 0
      ints: 0
      ints: 1
      ints: 1
    }
  }
  node {
    input: "913"
    output: "914"
    op_type: "Relu"
  }
  node {
    input: "909"
    input: "914"
    output: "916"
    op_type: "cat"
    attribute {
      name: "dim"
      i: 1
    }
  }
  node {
    input: "894"
    input: "414"
    output: "918"
    op_type: "Conv"
    attribute {
      name: "kernel_shape"
      ints: 1
      ints: 1
    }
    attribute {
      name: "strides"
      ints: 1
      ints: 1
    }
    attribute {
      name: "pads"
      ints: 0
      ints: 0
      ints: 0
      ints: 0
    }
    attribute {
      name: "dilations"
      ints: 1
      ints: 1
    }
    attribute {
      name: "group"
      i: 1
    }
  }
  node {
    input: "918"
    input: "415"
    input: "416"
    input: "417"
    input: "418"
    output: "920"
    op_type: "SpatialBN"
    attribute {
      name: "is_test"
      i: 1
    }
    attribute {
      name: "epsilon"
      f: 0.00100000004749745
    }
    attribute {
      name: "momentum"
      f: 0.899999976158142
    }
    attribute {
      name: "consumed_inputs"
      ints: 0
      ints: 0
      ints: 0
      ints: 1
      ints: 1
    }
  }
  node {
    input: "920"
    output: "921"
    op_type: "Relu"
  }
  node {
    input: "921"
    input: "419"
    output: "923"
    op_type: "Conv"
    attribute {
      name: "kernel_shape"
      ints: 3
      ints: 3
    }
    attribute {
      name: "strides"
      ints: 1
      ints: 1
    }
    attribute {
      name: "pads"
      ints: 1
      ints: 1
      ints: 1
      ints: 1
    }
    attribute {
      name: "dilations"
      ints: 1
      ints: 1
    }
    attribute {
      name: "group"
      i: 1
    }
  }
  node {
    input: "923"
    input: "420"
    input: "421"
    input: "422"
    input: "423"
    output: "925"
    op_type: "SpatialBN"
    attribute {
      name: "is_test"
      i: 1
    }
    attribute {
      name: "epsilon"
      f: 0.00100000004749745
    }
    attribute {
      name: "momentum"
      f: 0.899999976158142
    }
    attribute {
      name: "consumed_inputs"
      ints: 0
      ints: 0
      ints: 0
      ints: 1
      ints: 1
    }
  }
  node {
    input: "925"
    output: "926"
    op_type: "Relu"
  }
  node {
    input: "926"
    input: "424"
    output: "928"
    op_type: "Conv"
    attribute {
      name: "kernel_shape"
      ints: 1
      ints: 3
    }
    attribute {
      name: "strides"
      ints: 1
      ints: 1
    }
    attribute {
      name: "pads"
      ints: 0
      ints: 1
      ints: 0
      ints: 1
    }
    attribute {
      name: "dilations"
      ints: 1
      ints: 1
    }
    attribute {
      name: "group"
      i: 1
    }
  }
  node {
    input: "928"
    input: "425"
    input: "426"
    input: "427"
    input: "428"
    output: "930"
    op_type: "SpatialBN"
    attribute {
      name: "is_test"
      i: 1
    }
    attribute {
      name: "epsilon"
      f: 0.00100000004749745
    }
    attribute {
      name: "momentum"
      f: 0.899999976158142
    }
    attribute {
      name: "consumed_inputs"
      ints: 0
      ints: 0
      ints: 0
      ints: 1
      ints: 1
    }
  }
  node {
    input: "930"
    output: "931"
    op_type: "Relu"
  }
  node {
    input: "926"
    input: "429"
    output: "933"
    op_type: "Conv"
    attribute {
      name: "kernel_shape"
      ints: 3
      ints: 1
    }
    attribute {
      name: "strides"
      ints: 1
      ints: 1
    }
    attribute {
      name: "pads"
      ints: 1
      ints: 0
      ints: 1
      ints: 0
    }
    attribute {
      name: "dilations"
      ints: 1
      ints: 1
    }
    attribute {
      name: "group"
      i: 1
    }
  }
  node {
    input: "933"
    input: "430"
    input: "431"
    input: "432"
    input: "433"
    output: "935"
    op_type: "SpatialBN"
    attribute {
      name: "is_test"
      i: 1
    }
    attribute {
      name: "epsilon"
      f: 0.00100000004749745
    }
    attribute {
      name: "momentum"
      f: 0.899999976158142
    }
    attribute {
      name: "consumed_inputs"
      ints: 0
      ints: 0
      ints: 0
      ints: 1
      ints: 1
    }
  }
  node {
    input: "935"
    output: "936"
    op_type: "Relu"
  }
  node {
    input: "931"
    input: "936"
    output: "938"
    op_type: "cat"
    attribute {
      name: "dim"
      i: 1
    }
  }
  node {
    input: "894"
    output: "939"
    op_type: "AveragePool"
    attribute {
      name: "kernel_shape"
      ints: 3
      ints: 3
    }
    attribute {
      name: "pads"
      ints: 1
      ints: 1
    }
    attribute {
      name: "strides"
      ints: 1
      ints: 1
    }
  }
  node {
    input: "939"
    input: "434"
    output: "941"
    op_type: "Conv"
    attribute {
      name: "kernel_shape"
      ints: 1
      ints: 1
    }
    attribute {
      name: "strides"
      ints: 1
      ints: 1
    }
    attribute {
      name: "pads"
      ints: 0
      ints: 0
      ints: 0
      ints: 0
    }
    attribute {
      name: "dilations"
      ints: 1
      ints: 1
    }
    attribute {
      name: "group"
      i: 1
    }
  }
  node {
    input: "941"
    input: "435"
    input: "436"
    input: "437"
    input: "438"
    output: "943"
    op_type: "SpatialBN"
    attribute {
      name: "is_test"
      i: 1
    }
    attribute {
      name: "epsilon"
      f: 0.00100000004749745
    }
    attribute {
      name: "momentum"
      f: 0.899999976158142
    }
    attribute {
      name: "consumed_inputs"
      ints: 0
      ints: 0
      ints: 0
      ints: 1
      ints: 1
    }
  }
  node {
    input: "943"
    output: "944"
    op_type: "Relu"
  }
  node {
    input: "899"
    input: "916"
    input: "938"
    input: "944"
    output: "946"
    op_type: "cat"
    attribute {
      name: "dim"
      i: 1
    }
  }
  node {
    input: "946"
    input: "439"
    output: "948"
    op_type: "Conv"
    attribute {
      name: "kernel_shape"
      ints: 1
      ints: 1
    }
    attribute {
      name: "strides"
      ints: 1
      ints: 1
    }
    attribute {
      name: "pads"
      ints: 0
      ints: 0
      ints: 0
      ints: 0
    }
    attribute {
      name: "dilations"
      ints: 1
      ints: 1
    }
    attribute {
      name: "group"
      i: 1
    }
  }
  node {
    input: "948"
    input: "440"
    input: "441"
    input: "442"
    input: "443"
    output: "950"
    op_type: "SpatialBN"
    attribute {
      name: "is_test"
      i: 1
    }
    attribute {
      name: "epsilon"
      f: 0.00100000004749745
    }
    attribute {
      name: "momentum"
      f: 0.899999976158142
    }
    attribute {
      name: "consumed_inputs"
      ints: 0
      ints: 0
      ints: 0
      ints: 1
      ints: 1
    }
  }
  node {
    input: "950"
    output: "951"
    op_type: "Relu"
  }
  node {
    input: "946"
    input: "444"
    output: "953"
    op_type: "Conv"
    attribute {
      name: "kernel_shape"
      ints: 1
      ints: 1
    }
    attribute {
      name: "strides"
      ints: 1
      ints: 1
    }
    attribute {
      name: "pads"
      ints: 0
      ints: 0
      ints: 0
      ints: 0
    }
    attribute {
      name: "dilations"
      ints: 1
      ints: 1
    }
    attribute {
      name: "group"
      i: 1
    }
  }
  node {
    input: "953"
    input: "445"
    input: "446"
    input: "447"
    input: "448"
    output: "955"
    op_type: "SpatialBN"
    attribute {
      name: "is_test"
      i: 1
    }
    attribute {
      name: "epsilon"
      f: 0.00100000004749745
    }
    attribute {
      name: "momentum"
      f: 0.899999976158142
    }
    attribute {
      name: "consumed_inputs"
      ints: 0
      ints: 0
      ints: 0
      ints: 1
      ints: 1
    }
  }
  node {
    input: "955"
    output: "956"
    op_type: "Relu"
  }
  node {
    input: "956"
    input: "449"
    output: "958"
    op_type: "Conv"
    attribute {
      name: "kernel_shape"
      ints: 1
      ints: 3
    }
    attribute {
      name: "strides"
      ints: 1
      ints: 1
    }
    attribute {
      name: "pads"
      ints: 0
      ints: 1
      ints: 0
      ints: 1
    }
    attribute {
      name: "dilations"
      ints: 1
      ints: 1
    }
    attribute {
      name: "group"
      i: 1
    }
  }
  node {
    input: "958"
    input: "450"
    input: "451"
    input: "452"
    input: "453"
    output: "960"
    op_type: "SpatialBN"
    attribute {
      name: "is_test"
      i: 1
    }
    attribute {
      name: "epsilon"
      f: 0.00100000004749745
    }
    attribute {
      name: "momentum"
      f: 0.899999976158142
    }
    attribute {
      name: "consumed_inputs"
      ints: 0
      ints: 0
      ints: 0
      ints: 1
      ints: 1
    }
  }
  node {
    input: "960"
    output: "961"
    op_type: "Relu"
  }
  node {
    input: "956"
    input: "454"
    output: "963"
    op_type: "Conv"
    attribute {
      name: "kernel_shape"
      ints: 3
      ints: 1
    }
    attribute {
      name: "strides"
      ints: 1
      ints: 1
    }
    attribute {
      name: "pads"
      ints: 1
      ints: 0
      ints: 1
      ints: 0
    }
    attribute {
      name: "dilations"
      ints: 1
      ints: 1
    }
    attribute {
      name: "group"
      i: 1
    }
  }
  node {
    input: "963"
    input: "455"
    input: "456"
    input: "457"
    input: "458"
    output: "965"
    op_type: "SpatialBN"
    attribute {
      name: "is_test"
      i: 1
    }
    attribute {
      name: "epsilon"
      f: 0.00100000004749745
    }
    attribute {
      name: "momentum"
      f: 0.899999976158142
    }
    attribute {
      name: "consumed_inputs"
      ints: 0
      ints: 0
      ints: 0
      ints: 1
      ints: 1
    }
  }
  node {
    input: "965"
    output: "966"
    op_type: "Relu"
  }
  node {
    input: "961"
    input: "966"
    output: "968"
    op_type: "cat"
    attribute {
      name: "dim"
      i: 1
    }
  }
  node {
    input: "946"
    input: "459"
    output: "970"
    op_type: "Conv"
    attribute {
      name: "kernel_shape"
      ints: 1
      ints: 1
    }
    attribute {
      name: "strides"
      ints: 1
      ints: 1
    }
    attribute {
      name: "pads"
      ints: 0
      ints: 0
      ints: 0
      ints: 0
    }
    attribute {
      name: "dilations"
      ints: 1
      ints: 1
    }
    attribute {
      name: "group"
      i: 1
    }
  }
  node {
    input: "970"
    input: "460"
    input: "461"
    input: "462"
    input: "463"
    output: "972"
    op_type: "SpatialBN"
    attribute {
      name: "is_test"
      i: 1
    }
    attribute {
      name: "epsilon"
      f: 0.00100000004749745
    }
    attribute {
      name: "momentum"
      f: 0.899999976158142
    }
    attribute {
      name: "consumed_inputs"
      ints: 0
      ints: 0
      ints: 0
      ints: 1
      ints: 1
    }
  }
  node {
    input: "972"
    output: "973"
    op_type: "Relu"
  }
  node {
    input: "973"
    input: "464"
    output: "975"
    op_type: "Conv"
    attribute {
      name: "kernel_shape"
      ints: 3
      ints: 3
    }
    attribute {
      name: "strides"
      ints: 1
      ints: 1
    }
    attribute {
      name: "pads"
      ints: 1
      ints: 1
      ints: 1
      ints: 1
    }
    attribute {
      name: "dilations"
      ints: 1
      ints: 1
    }
    attribute {
      name: "group"
      i: 1
    }
  }
  node {
    input: "975"
    input: "465"
    input: "466"
    input: "467"
    input: "468"
    output: "977"
    op_type: "SpatialBN"
    attribute {
      name: "is_test"
      i: 1
    }
    attribute {
      name: "epsilon"
      f: 0.00100000004749745
    }
    attribute {
      name: "momentum"
      f: 0.899999976158142
    }
    attribute {
      name: "consumed_inputs"
      ints: 0
      ints: 0
      ints: 0
      ints: 1
      ints: 1
    }
  }
  node {
    input: "977"
    output: "978"
    op_type: "Relu"
  }
  node {
    input: "978"
    input: "469"
    output: "980"
    op_type: "Conv"
    attribute {
      name: "kernel_shape"
      ints: 1
      ints: 3
    }
    attribute {
      name: "strides"
      ints: 1
      ints: 1
    }
    attribute {
      name: "pads"
      ints: 0
      ints: 1
      ints: 0
      ints: 1
    }
    attribute {
      name: "dilations"
      ints: 1
      ints: 1
    }
    attribute {
      name: "group"
      i: 1
    }
  }
  node {
    input: "980"
    input: "470"
    input: "471"
    input: "472"
    input: "473"
    output: "982"
    op_type: "SpatialBN"
    attribute {
      name: "is_test"
      i: 1
    }
    attribute {
      name: "epsilon"
      f: 0.00100000004749745
    }
    attribute {
      name: "momentum"
      f: 0.899999976158142
    }
    attribute {
      name: "consumed_inputs"
      ints: 0
      ints: 0
      ints: 0
      ints: 1
      ints: 1
    }
  }
  node {
    input: "982"
    output: "983"
    op_type: "Relu"
  }
  node {
    input: "978"
    input: "474"
    output: "985"
    op_type: "Conv"
    attribute {
      name: "kernel_shape"
      ints: 3
      ints: 1
    }
    attribute {
      name: "strides"
      ints: 1
      ints: 1
    }
    attribute {
      name: "pads"
      ints: 1
      ints: 0
      ints: 1
      ints: 0
    }
    attribute {
      name: "dilations"
      ints: 1
      ints: 1
    }
    attribute {
      name: "group"
      i: 1
    }
  }
  node {
    input: "985"
    input: "475"
    input: "476"
    input: "477"
    input: "478"
    output: "987"
    op_type: "SpatialBN"
    attribute {
      name: "is_test"
      i: 1
    }
    attribute {
      name: "epsilon"
      f: 0.00100000004749745
    }
    attribute {
      name: "momentum"
      f: 0.899999976158142
    }
    attribute {
      name: "consumed_inputs"
      ints: 0
      ints: 0
      ints: 0
      ints: 1
      ints: 1
    }
  }
  node {
    input: "987"
    output: "988"
    op_type: "Relu"
  }
  node {
    input: "983"
    input: "988"
    output: "990"
    op_type: "cat"
    attribute {
      name: "dim"
      i: 1
    }
  }
  node {
    input: "946"
    output: "991"
    op_type: "AveragePool"
    attribute {
      name: "kernel_shape"
      ints: 3
      ints: 3
    }
    attribute {
      name: "pads"
      ints: 1
      ints: 1
    }
    attribute {
      name: "strides"
      ints: 1
      ints: 1
    }
  }
  node {
    input: "991"
    input: "479"
    output: "993"
    op_type: "Conv"
    attribute {
      name: "kernel_shape"
      ints: 1
      ints: 1
    }
    attribute {
      name: "strides"
      ints: 1
      ints: 1
    }
    attribute {
      name: "pads"
      ints: 0
      ints: 0
      ints: 0
      ints: 0
    }
    attribute {
      name: "dilations"
      ints: 1
      ints: 1
    }
    attribute {
      name: "group"
      i: 1
    }
  }
  node {
    input: "993"
    input: "480"
    input: "481"
    input: "482"
    input: "483"
    output: "995"
    op_type: "SpatialBN"
    attribute {
      name: "is_test"
      i: 1
    }
    attribute {
      name: "epsilon"
      f: 0.00100000004749745
    }
    attribute {
      name: "momentum"
      f: 0.899999976158142
    }
    attribute {
      name: "consumed_inputs"
      ints: 0
      ints: 0
      ints: 0
      ints: 1
      ints: 1
    }
  }
  node {
    input: "995"
    output: "996"
    op_type: "Relu"
  }
  node {
    input: "951"
    input: "968"
    input: "990"
    input: "996"
    output: "998"
    op_type: "cat"
    attribute {
      name: "dim"
      i: 1
    }
  }
  node {
    input: "998"
    output: "999"
    op_type: "AveragePool"
    attribute {
      name: "kernel_shape"
      ints: 8
      ints: 8
    }
    attribute {
      name: "pads"
      ints: 0
      ints: 0
    }
    attribute {
      name: "strides"
      ints: 8
      ints: 8
    }
  }
  node {
    input: "999"
    output: "1001"
    output: "1002"
    op_type: "Dropout"
    attribute {
      name: "ratio"
      f: 0.5
    }
    attribute {
      name: "is_test"
      i: 1
    }
  }
  node {
    input: "1001"
    output: "1003"
    op_type: "Reshape"
    attribute {
      name: "shape"
      ints: 2
      ints: -1
    }
  }
  node {
    input: "484"
    output: "1004"
    op_type: "Transpose"
    attribute {
      name: "perm"
      ints: 1
      ints: 0
    }
  }
  node {
    input: "485"
    output: "1006"
    op_type: "expand"
    attribute {
      name: "size"
      ints: 2
      ints: 1000
    }
  }
  node {
    input: "1003"
    input: "1004"
    input: "1006"
    output: "1007"
    op_type: "Gemm"
    attribute {
      name: "alpha"
      f: 1
    }
    attribute {
      name: "beta"
      f: 1
    }
  }
  name: "torch-jit-export"
  input {
    name: "1"
    type {
      tensor_type {
        elem_type: FLOAT
        shape {
          dim {
            dim_value: 2
          }
          dim {
            dim_value: 3
          }
          dim {
            dim_value: 299
          }
          dim {
            dim_value: 299
          }
        }
      }
    }
  }
  input {
    name: "2"
    type {
      tensor_type {
        elem_type: FLOAT
        shape {
          dim {
            dim_value: 32
          }
          dim {
            dim_value: 3
          }
          dim {
            dim_value: 3
          }
          dim {
            dim_value: 3
          }
        }
      }
    }
  }
  input {
    name: "3"
    type {
      tensor_type {
        elem_type: FLOAT
        shape {
          dim {
            dim_value: 32
          }
        }
      }
    }
  }
  input {
    name: "4"
    type {
      tensor_type {
        elem_type: FLOAT
        shape {
          dim {
            dim_value: 32
          }
        }
      }
    }
  }
  input {
    name: "5"
    type {
      tensor_type {
        elem_type: FLOAT
        shape {
          dim {
            dim_value: 32
          }
        }
      }
    }
  }
  input {
    name: "6"
    type {
      tensor_type {
        elem_type: FLOAT
        shape {
          dim {
            dim_value: 32
          }
        }
      }
    }
  }
  input {
    name: "7"
    type {
      tensor_type {
        elem_type: FLOAT
        shape {
          dim {
            dim_value: 32
          }
          dim {
            dim_value: 32
          }
          dim {
            dim_value: 3
          }
          dim {
            dim_value: 3
          }
        }
      }
    }
  }
  input {
    name: "8"
    type {
      tensor_type {
        elem_type: FLOAT
        shape {
          dim {
            dim_value: 32
          }
        }
      }
    }
  }
  input {
    name: "9"
    type {
      tensor_type {
        elem_type: FLOAT
        shape {
          dim {
            dim_value: 32
          }
        }
      }
    }
  }
  input {
    name: "10"
    type {
      tensor_type {
        elem_type: FLOAT
        shape {
          dim {
            dim_value: 32
          }
        }
      }
    }
  }
  input {
    name: "11"
    type {
      tensor_type {
        elem_type: FLOAT
        shape {
          dim {
            dim_value: 32
          }
        }
      }
    }
  }
  input {
    name: "12"
    type {
      tensor_type {
        elem_type: FLOAT
        shape {
          dim {
            dim_value: 64
          }
          dim {
            dim_value: 32
          }
          dim {
            dim_value: 3
          }
          dim {
            dim_value: 3
          }
        }
      }
    }
  }
  input {
    name: "13"
    type {
      tensor_type {
        elem_type: FLOAT
        shape {
          dim {
            dim_value: 64
          }
        }
      }
    }
  }
  input {
    name: "14"
    type {
      tensor_type {
        elem_type: FLOAT
        shape {
          dim {
            dim_value: 64
          }
        }
      }
    }
  }
  input {
    name: "15"
    type {
      tensor_type {
        elem_type: FLOAT
        shape {
          dim {
            dim_value: 64
          }
        }
      }
    }
  }
  input {
    name: "16"
    type {
      tensor_type {
        elem_type: FLOAT
        shape {
          dim {
            dim_value: 64
          }
        }
      }
    }
  }
  input {
    name: "17"
    type {
      tensor_type {
        elem_type: FLOAT
        shape {
          dim {
            dim_value: 80
          }
          dim {
            dim_value: 64
          }
          dim {
            dim_value: 1
          }
          dim {
            dim_value: 1
          }
        }
      }
    }
  }
  input {
    name: "18"
    type {
      tensor_type {
        elem_type: FLOAT
        shape {
          dim {
            dim_value: 80
          }
        }
      }
    }
  }
  input {
    name: "19"
    type {
      tensor_type {
        elem_type: FLOAT
        shape {
          dim {
            dim_value: 80
          }
        }
      }
    }
  }
  input {
    name: "20"
    type {
      tensor_type {
        elem_type: FLOAT
        shape {
          dim {
            dim_value: 80
          }
        }
      }
    }
  }
  input {
    name: "21"
    type {
      tensor_type {
        elem_type: FLOAT
        shape {
          dim {
            dim_value: 80
          }
        }
      }
    }
  }
  input {
    name: "22"
    type {
      tensor_type {
        elem_type: FLOAT
        shape {
          dim {
            dim_value: 192
          }
          dim {
            dim_value: 80
          }
          dim {
            dim_value: 3
          }
          dim {
            dim_value: 3
          }
        }
      }
    }
  }
  input {
    name: "23"
    type {
      tensor_type {
        elem_type: FLOAT
        shape {
          dim {
            dim_value: 192
          }
        }
      }
    }
  }
  input {
    name: "24"
    type {
      tensor_type {
        elem_type: FLOAT
        shape {
          dim {
            dim_value: 192
          }
        }
      }
    }
  }
  input {
    name: "25"
    type {
      tensor_type {
        elem_type: FLOAT
        shape {
          dim {
            dim_value: 192
          }
        }
      }
    }
  }
  input {
    name: "26"
    type {
      tensor_type {
        elem_type: FLOAT
        shape {
          dim {
            dim_value: 192
          }
        }
      }
    }
  }
  input {
    name: "27"
    type {
      tensor_type {
        elem_type: FLOAT
        shape {
          dim {
            dim_value: 64
          }
          dim {
            dim_value: 192
          }
          dim {
            dim_value: 1
          }
          dim {
            dim_value: 1
          }
        }
      }
    }
  }
  input {
    name: "28"
    type {
      tensor_type {
        elem_type: FLOAT
        shape {
          dim {
            dim_value: 64
          }
        }
      }
    }
  }
  input {
    name: "29"
    type {
      tensor_type {
        elem_type: FLOAT
        shape {
          dim {
            dim_value: 64
          }
        }
      }
    }
  }
  input {
    name: "30"
    type {
      tensor_type {
        elem_type: FLOAT
        shape {
          dim {
            dim_value: 64
          }
        }
      }
    }
  }
  input {
    name: "31"
    type {
      tensor_type {
        elem_type: FLOAT
        shape {
          dim {
            dim_value: 64
          }
        }
      }
    }
  }
  input {
    name: "32"
    type {
      tensor_type {
        elem_type: FLOAT
        shape {
          dim {
            dim_value: 48
          }
          dim {
            dim_value: 192
          }
          dim {
            dim_value: 1
          }
          dim {
            dim_value: 1
          }
        }
      }
    }
  }
  input {
    name: "33"
    type {
      tensor_type {
        elem_type: FLOAT
        shape {
          dim {
            dim_value: 48
          }
        }
      }
    }
  }
  input {
    name: "34"
    type {
      tensor_type {
        elem_type: FLOAT
        shape {
          dim {
            dim_value: 48
          }
        }
      }
    }
  }
  input {
    name: "35"
    type {
      tensor_type {
        elem_type: FLOAT
        shape {
          dim {
            dim_value: 48
          }
        }
      }
    }
  }
  input {
    name: "36"
    type {
      tensor_type {
        elem_type: FLOAT
        shape {
          dim {
            dim_value: 48
          }
        }
      }
    }
  }
  input {
    name: "37"
    type {
      tensor_type {
        elem_type: FLOAT
        shape {
          dim {
            dim_value: 64
          }
          dim {
            dim_value: 48
          }
          dim {
            dim_value: 5
          }
          dim {
            dim_value: 5
          }
        }
      }
    }
  }
  input {
    name: "38"
    type {
      tensor_type {
        elem_type: FLOAT
        shape {
          dim {
            dim_value: 64
          }
        }
      }
    }
  }
  input {
    name: "39"
    type {
      tensor_type {
        elem_type: FLOAT
        shape {
          dim {
            dim_value: 64
          }
        }
      }
    }
  }
  input {
    name: "40"
    type {
      tensor_type {
        elem_type: FLOAT
        shape {
          dim {
            dim_value: 64
          }
        }
      }
    }
  }
  input {
    name: "41"
    type {
      tensor_type {
        elem_type: FLOAT
        shape {
          dim {
            dim_value: 64
          }
        }
      }
    }
  }
  input {
    name: "42"
    type {
      tensor_type {
        elem_type: FLOAT
        shape {
          dim {
            dim_value: 64
          }
          dim {
            dim_value: 192
          }
          dim {
            dim_value: 1
          }
          dim {
            dim_value: 1
          }
        }
      }
    }
  }
  input {
    name: "43"
    type {
      tensor_type {
        elem_type: FLOAT
        shape {
          dim {
            dim_value: 64
          }
        }
      }
    }
  }
  input {
    name: "44"
    type {
      tensor_type {
        elem_type: FLOAT
        shape {
          dim {
            dim_value: 64
          }
        }
      }
    }
  }
  input {
    name: "45"
    type {
      tensor_type {
        elem_type: FLOAT
        shape {
          dim {
            dim_value: 64
          }
        }
      }
    }
  }
  input {
    name: "46"
    type {
      tensor_type {
        elem_type: FLOAT
        shape {
          dim {
            dim_value: 64
          }
        }
      }
    }
  }
  input {
    name: "47"
    type {
      tensor_type {
        elem_type: FLOAT
        shape {
          dim {
            dim_value: 96
          }
          dim {
            dim_value: 64
          }
          dim {
            dim_value: 3
          }
          dim {
            dim_value: 3
          }
        }
      }
    }
  }
  input {
    name: "48"
    type {
      tensor_type {
        elem_type: FLOAT
        shape {
          dim {
            dim_value: 96
          }
        }
      }
    }
  }
  input {
    name: "49"
    type {
      tensor_type {
        elem_type: FLOAT
        shape {
          dim {
            dim_value: 96
          }
        }
      }
    }
  }
  input {
    name: "50"
    type {
      tensor_type {
        elem_type: FLOAT
        shape {
          dim {
            dim_value: 96
          }
        }
      }
    }
  }
  input {
    name: "51"
    type {
      tensor_type {
        elem_type: FLOAT
        shape {
          dim {
            dim_value: 96
          }
        }
      }
    }
  }
  input {
    name: "52"
    type {
      tensor_type {
        elem_type: FLOAT
        shape {
          dim {
            dim_value: 96
          }
          dim {
            dim_value: 96
          }
          dim {
            dim_value: 3
          }
          dim {
            dim_value: 3
          }
        }
      }
    }
  }
  input {
    name: "53"
    type {
      tensor_type {
        elem_type: FLOAT
        shape {
          dim {
            dim_value: 96
          }
        }
      }
    }
  }
  input {
    name: "54"
    type {
      tensor_type {
        elem_type: FLOAT
        shape {
          dim {
            dim_value: 96
          }
        }
      }
    }
  }
  input {
    name: "55"
    type {
      tensor_type {
        elem_type: FLOAT
        shape {
          dim {
            dim_value: 96
          }
        }
      }
    }
  }
  input {
    name: "56"
    type {
      tensor_type {
        elem_type: FLOAT
        shape {
          dim {
            dim_value: 96
          }
        }
      }
    }
  }
  input {
    name: "57"
    type {
      tensor_type {
        elem_type: FLOAT
        shape {
          dim {
            dim_value: 32
          }
          dim {
            dim_value: 192
          }
          dim {
            dim_value: 1
          }
          dim {
            dim_value: 1
          }
        }
      }
    }
  }
  input {
    name: "58"
    type {
      tensor_type {
        elem_type: FLOAT
        shape {
          dim {
            dim_value: 32
          }
        }
      }
    }
  }
  input {
    name: "59"
    type {
      tensor_type {
        elem_type: FLOAT
        shape {
          dim {
            dim_value: 32
          }
        }
      }
    }
  }
  input {
    name: "60"
    type {
      tensor_type {
        elem_type: FLOAT
        shape {
          dim {
            dim_value: 32
          }
        }
      }
    }
  }
  input {
    name: "61"
    type {
      tensor_type {
        elem_type: FLOAT
        shape {
          dim {
            dim_value: 32
          }
        }
      }
    }
  }
  input {
    name: "62"
    type {
      tensor_type {
        elem_type: FLOAT
        shape {
          dim {
            dim_value: 64
          }
          dim {
            dim_value: 256
          }
          dim {
            dim_value: 1
          }
          dim {
            dim_value: 1
          }
        }
      }
    }
  }
  input {
    name: "63"
    type {
      tensor_type {
        elem_type: FLOAT
        shape {
          dim {
            dim_value: 64
          }
        }
      }
    }
  }
  input {
    name: "64"
    type {
      tensor_type {
        elem_type: FLOAT
        shape {
          dim {
            dim_value: 64
          }
        }
      }
    }
  }
  input {
    name: "65"
    type {
      tensor_type {
        elem_type: FLOAT
        shape {
          dim {
            dim_value: 64
          }
        }
      }
    }
  }
  input {
    name: "66"
    type {
      tensor_type {
        elem_type: FLOAT
        shape {
          dim {
            dim_value: 64
          }
        }
      }
    }
  }
  input {
    name: "67"
    type {
      tensor_type {
        elem_type: FLOAT
        shape {
          dim {
            dim_value: 48
          }
          dim {
            dim_value: 256
          }
          dim {
            dim_value: 1
          }
          dim {
            dim_value: 1
          }
        }
      }
    }
  }
  input {
    name: "68"
    type {
      tensor_type {
        elem_type: FLOAT
        shape {
          dim {
            dim_value: 48
          }
        }
      }
    }
  }
  input {
    name: "69"
    type {
      tensor_type {
        elem_type: FLOAT
        shape {
          dim {
            dim_value: 48
          }
        }
      }
    }
  }
  input {
    name: "70"
    type {
      tensor_type {
        elem_type: FLOAT
        shape {
          dim {
            dim_value: 48
          }
        }
      }
    }
  }
  input {
    name: "71"
    type {
      tensor_type {
        elem_type: FLOAT
        shape {
          dim {
            dim_value: 48
          }
        }
      }
    }
  }
  input {
    name: "72"
    type {
      tensor_type {
        elem_type: FLOAT
        shape {
          dim {
            dim_value: 64
          }
          dim {
            dim_value: 48
          }
          dim {
            dim_value: 5
          }
          dim {
            dim_value: 5
          }
        }
      }
    }
  }
  input {
    name: "73"
    type {
      tensor_type {
        elem_type: FLOAT
        shape {
          dim {
            dim_value: 64
          }
        }
      }
    }
  }
  input {
    name: "74"
    type {
      tensor_type {
        elem_type: FLOAT
        shape {
          dim {
            dim_value: 64
          }
        }
      }
    }
  }
  input {
    name: "75"
    type {
      tensor_type {
        elem_type: FLOAT
        shape {
          dim {
            dim_value: 64
          }
        }
      }
    }
  }
  input {
    name: "76"
    type {
      tensor_type {
        elem_type: FLOAT
        shape {
          dim {
            dim_value: 64
          }
        }
      }
    }
  }
  input {
    name: "77"
    type {
      tensor_type {
        elem_type: FLOAT
        shape {
          dim {
            dim_value: 64
          }
          dim {
            dim_value: 256
          }
          dim {
            dim_value: 1
          }
          dim {
            dim_value: 1
          }
        }
      }
    }
  }
  input {
    name: "78"
    type {
      tensor_type {
        elem_type: FLOAT
        shape {
          dim {
            dim_value: 64
          }
        }
      }
    }
  }
  input {
    name: "79"
    type {
      tensor_type {
        elem_type: FLOAT
        shape {
          dim {
            dim_value: 64
          }
        }
      }
    }
  }
  input {
    name: "80"
    type {
      tensor_type {
        elem_type: FLOAT
        shape {
          dim {
            dim_value: 64
          }
        }
      }
    }
  }
  input {
    name: "81"
    type {
      tensor_type {
        elem_type: FLOAT
        shape {
          dim {
            dim_value: 64
          }
        }
      }
    }
  }
  input {
    name: "82"
    type {
      tensor_type {
        elem_type: FLOAT
        shape {
          dim {
            dim_value: 96
          }
          dim {
            dim_value: 64
          }
          dim {
            dim_value: 3
          }
          dim {
            dim_value: 3
          }
        }
      }
    }
  }
  input {
    name: "83"
    type {
      tensor_type {
        elem_type: FLOAT
        shape {
          dim {
            dim_value: 96
          }
        }
      }
    }
  }
  input {
    name: "84"
    type {
      tensor_type {
        elem_type: FLOAT
        shape {
          dim {
            dim_value: 96
          }
        }
      }
    }
  }
  input {
    name: "85"
    type {
      tensor_type {
        elem_type: FLOAT
        shape {
          dim {
            dim_value: 96
          }
        }
      }
    }
  }
  input {
    name: "86"
    type {
      tensor_type {
        elem_type: FLOAT
        shape {
          dim {
            dim_value: 96
          }
        }
      }
    }
  }
  input {
    name: "87"
    type {
      tensor_type {
        elem_type: FLOAT
        shape {
          dim {
            dim_value: 96
          }
          dim {
            dim_value: 96
          }
          dim {
            dim_value: 3
          }
          dim {
            dim_value: 3
          }
        }
      }
    }
  }
  input {
    name: "88"
    type {
      tensor_type {
        elem_type: FLOAT
        shape {
          dim {
            dim_value: 96
          }
        }
      }
    }
  }
  input {
    name: "89"
    type {
      tensor_type {
        elem_type: FLOAT
        shape {
          dim {
            dim_value: 96
          }
        }
      }
    }
  }
  input {
    name: "90"
    type {
      tensor_type {
        elem_type: FLOAT
        shape {
          dim {
            dim_value: 96
          }
        }
      }
    }
  }
  input {
    name: "91"
    type {
      tensor_type {
        elem_type: FLOAT
        shape {
          dim {
            dim_value: 96
          }
        }
      }
    }
  }
  input {
    name: "92"
    type {
      tensor_type {
        elem_type: FLOAT
        shape {
          dim {
            dim_value: 64
          }
          dim {
            dim_value: 256
          }
          dim {
            dim_value: 1
          }
          dim {
            dim_value: 1
          }
        }
      }
    }
  }
  input {
    name: "93"
    type {
      tensor_type {
        elem_type: FLOAT
        shape {
          dim {
            dim_value: 64
          }
        }
      }
    }
  }
  input {
    name: "94"
    type {
      tensor_type {
        elem_type: FLOAT
        shape {
          dim {
            dim_value: 64
          }
        }
      }
    }
  }
  input {
    name: "95"
    type {
      tensor_type {
        elem_type: FLOAT
        shape {
          dim {
            dim_value: 64
          }
        }
      }
    }
  }
  input {
    name: "96"
    type {
      tensor_type {
        elem_type: FLOAT
        shape {
          dim {
            dim_value: 64
          }
        }
      }
    }
  }
  input {
    name: "97"
    type {
      tensor_type {
        elem_type: FLOAT
        shape {
          dim {
            dim_value: 64
          }
          dim {
            dim_value: 288
          }
          dim {
            dim_value: 1
          }
          dim {
            dim_value: 1
          }
        }
      }
    }
  }
  input {
    name: "98"
    type {
      tensor_type {
        elem_type: FLOAT
        shape {
          dim {
            dim_value: 64
          }
        }
      }
    }
  }
  input {
    name: "99"
    type {
      tensor_type {
        elem_type: FLOAT
        shape {
          dim {
            dim_value: 64
          }
        }
      }
    }
  }
  input {
    name: "100"
    type {
      tensor_type {
        elem_type: FLOAT
        shape {
          dim {
            dim_value: 64
          }
        }
      }
    }
  }
  input {
    name: "101"
    type {
      tensor_type {
        elem_type: FLOAT
        shape {
          dim {
            dim_value: 64
          }
        }
      }
    }
  }
  input {
    name: "102"
    type {
      tensor_type {
        elem_type: FLOAT
        shape {
          dim {
            dim_value: 48
          }
          dim {
            dim_value: 288
          }
          dim {
            dim_value: 1
          }
          dim {
            dim_value: 1
          }
        }
      }
    }
  }
  input {
    name: "103"
    type {
      tensor_type {
        elem_type: FLOAT
        shape {
          dim {
            dim_value: 48
          }
        }
      }
    }
  }
  input {
    name: "104"
    type {
      tensor_type {
        elem_type: FLOAT
        shape {
          dim {
            dim_value: 48
          }
        }
      }
    }
  }
  input {
    name: "105"
    type {
      tensor_type {
        elem_type: FLOAT
        shape {
          dim {
            dim_value: 48
          }
        }
      }
    }
  }
  input {
    name: "106"
    type {
      tensor_type {
        elem_type: FLOAT
        shape {
          dim {
            dim_value: 48
          }
        }
      }
    }
  }
  input {
    name: "107"
    type {
      tensor_type {
        elem_type: FLOAT
        shape {
          dim {
            dim_value: 64
          }
          dim {
            dim_value: 48
          }
          dim {
            dim_value: 5
          }
          dim {
            dim_value: 5
          }
        }
      }
    }
  }
  input {
    name: "108"
    type {
      tensor_type {
        elem_type: FLOAT
        shape {
          dim {
            dim_value: 64
          }
        }
      }
    }
  }
  input {
    name: "109"
    type {
      tensor_type {
        elem_type: FLOAT
        shape {
          dim {
            dim_value: 64
          }
        }
      }
    }
  }
  input {
    name: "110"
    type {
      tensor_type {
        elem_type: FLOAT
        shape {
          dim {
            dim_value: 64
          }
        }
      }
    }
  }
  input {
    name: "111"
    type {
      tensor_type {
        elem_type: FLOAT
        shape {
          dim {
            dim_value: 64
          }
        }
      }
    }
  }
  input {
    name: "112"
    type {
      tensor_type {
        elem_type: FLOAT
        shape {
          dim {
            dim_value: 64
          }
          dim {
            dim_value: 288
          }
          dim {
            dim_value: 1
          }
          dim {
            dim_value: 1
          }
        }
      }
    }
  }
  input {
    name: "113"
    type {
      tensor_type {
        elem_type: FLOAT
        shape {
          dim {
            dim_value: 64
          }
        }
      }
    }
  }
  input {
    name: "114"
    type {
      tensor_type {
        elem_type: FLOAT
        shape {
          dim {
            dim_value: 64
          }
        }
      }
    }
  }
  input {
    name: "115"
    type {
      tensor_type {
        elem_type: FLOAT
        shape {
          dim {
            dim_value: 64
          }
        }
      }
    }
  }
  input {
    name: "116"
    type {
      tensor_type {
        elem_type: FLOAT
        shape {
          dim {
            dim_value: 64
          }
        }
      }
    }
  }
  input {
    name: "117"
    type {
      tensor_type {
        elem_type: FLOAT
        shape {
          dim {
            dim_value: 96
          }
          dim {
            dim_value: 64
          }
          dim {
            dim_value: 3
          }
          dim {
            dim_value: 3
          }
        }
      }
    }
  }
  input {
    name: "118"
    type {
      tensor_type {
        elem_type: FLOAT
        shape {
          dim {
            dim_value: 96
          }
        }
      }
    }
  }
  input {
    name: "119"
    type {
      tensor_type {
        elem_type: FLOAT
        shape {
          dim {
            dim_value: 96
          }
        }
      }
    }
  }
  input {
    name: "120"
    type {
      tensor_type {
        elem_type: FLOAT
        shape {
          dim {
            dim_value: 96
          }
        }
      }
    }
  }
  input {
    name: "121"
    type {
      tensor_type {
        elem_type: FLOAT
        shape {
          dim {
            dim_value: 96
          }
        }
      }
    }
  }
  input {
    name: "122"
    type {
      tensor_type {
        elem_type: FLOAT
        shape {
          dim {
            dim_value: 96
          }
          dim {
            dim_value: 96
          }
          dim {
            dim_value: 3
          }
          dim {
            dim_value: 3
          }
        }
      }
    }
  }
  input {
    name: "123"
    type {
      tensor_type {
        elem_type: FLOAT
        shape {
          dim {
            dim_value: 96
          }
        }
      }
    }
  }
  input {
    name: "124"
    type {
      tensor_type {
        elem_type: FLOAT
        shape {
          dim {
            dim_value: 96
          }
        }
      }
    }
  }
  input {
    name: "125"
    type {
      tensor_type {
        elem_type: FLOAT
        shape {
          dim {
            dim_value: 96
          }
        }
      }
    }
  }
  input {
    name: "126"
    type {
      tensor_type {
        elem_type: FLOAT
        shape {
          dim {
            dim_value: 96
          }
        }
      }
    }
  }
  input {
    name: "127"
    type {
      tensor_type {
        elem_type: FLOAT
        shape {
          dim {
            dim_value: 64
          }
          dim {
            dim_value: 288
          }
          dim {
            dim_value: 1
          }
          dim {
            dim_value: 1
          }
        }
      }
    }
  }
  input {
    name: "128"
    type {
      tensor_type {
        elem_type: FLOAT
        shape {
          dim {
            dim_value: 64
          }
        }
      }
    }
  }
  input {
    name: "129"
    type {
      tensor_type {
        elem_type: FLOAT
        shape {
          dim {
            dim_value: 64
          }
        }
      }
    }
  }
  input {
    name: "130"
    type {
      tensor_type {
        elem_type: FLOAT
        shape {
          dim {
            dim_value: 64
          }
        }
      }
    }
  }
  input {
    name: "131"
    type {
      tensor_type {
        elem_type: FLOAT
        shape {
          dim {
            dim_value: 64
          }
        }
      }
    }
  }
  input {
    name: "132"
    type {
      tensor_type {
        elem_type: FLOAT
        shape {
          dim {
            dim_value: 384
          }
          dim {
            dim_value: 288
          }
          dim {
            dim_value: 3
          }
          dim {
            dim_value: 3
          }
        }
      }
    }
  }
  input {
    name: "133"
    type {
      tensor_type {
        elem_type: FLOAT
        shape {
          dim {
            dim_value: 384
          }
        }
      }
    }
  }
  input {
    name: "134"
    type {
      tensor_type {
        elem_type: FLOAT
        shape {
          dim {
            dim_value: 384
          }
        }
      }
    }
  }
  input {
    name: "135"
    type {
      tensor_type {
        elem_type: FLOAT
        shape {
          dim {
            dim_value: 384
          }
        }
      }
    }
  }
  input {
    name: "136"
    type {
      tensor_type {
        elem_type: FLOAT
        shape {
          dim {
            dim_value: 384
          }
        }
      }
    }
  }
  input {
    name: "137"
    type {
      tensor_type {
        elem_type: FLOAT
        shape {
          dim {
            dim_value: 64
          }
          dim {
            dim_value: 288
          }
          dim {
            dim_value: 1
          }
          dim {
            dim_value: 1
          }
        }
      }
    }
  }
  input {
    name: "138"
    type {
      tensor_type {
        elem_type: FLOAT
        shape {
          dim {
            dim_value: 64
          }
        }
      }
    }
  }
  input {
    name: "139"
    type {
      tensor_type {
        elem_type: FLOAT
        shape {
          dim {
            dim_value: 64
          }
        }
      }
    }
  }
  input {
    name: "140"
    type {
      tensor_type {
        elem_type: FLOAT
        shape {
          dim {
            dim_value: 64
          }
        }
      }
    }
  }
  input {
    name: "141"
    type {
      tensor_type {
        elem_type: FLOAT
        shape {
          dim {
            dim_value: 64
          }
        }
      }
    }
  }
  input {
    name: "142"
    type {
      tensor_type {
        elem_type: FLOAT
        shape {
          dim {
            dim_value: 96
          }
          dim {
            dim_value: 64
          }
          dim {
            dim_value: 3
          }
          dim {
            dim_value: 3
          }
        }
      }
    }
  }
  input {
    name: "143"
    type {
      tensor_type {
        elem_type: FLOAT
        shape {
          dim {
            dim_value: 96
          }
        }
      }
    }
  }
  input {
    name: "144"
    type {
      tensor_type {
        elem_type: FLOAT
        shape {
          dim {
            dim_value: 96
          }
        }
      }
    }
  }
  input {
    name: "145"
    type {
      tensor_type {
        elem_type: FLOAT
        shape {
          dim {
            dim_value: 96
          }
        }
      }
    }
  }
  input {
    name: "146"
    type {
      tensor_type {
        elem_type: FLOAT
        shape {
          dim {
            dim_value: 96
          }
        }
      }
    }
  }
  input {
    name: "147"
    type {
      tensor_type {
        elem_type: FLOAT
        shape {
          dim {
            dim_value: 96
          }
          dim {
            dim_value: 96
          }
          dim {
            dim_value: 3
          }
          dim {
            dim_value: 3
          }
        }
      }
    }
  }
  input {
    name: "148"
    type {
      tensor_type {
        elem_type: FLOAT
        shape {
          dim {
            dim_value: 96
          }
        }
      }
    }
  }
  input {
    name: "149"
    type {
      tensor_type {
        elem_type: FLOAT
        shape {
          dim {
            dim_value: 96
          }
        }
      }
    }
  }
  input {
    name: "150"
    type {
      tensor_type {
        elem_type: FLOAT
        shape {
          dim {
            dim_value: 96
          }
        }
      }
    }
  }
  input {
    name: "151"
    type {
      tensor_type {
        elem_type: FLOAT
        shape {
          dim {
            dim_value: 96
          }
        }
      }
    }
  }
  input {
    name: "152"
    type {
      tensor_type {
        elem_type: FLOAT
        shape {
          dim {
            dim_value: 192
          }
          dim {
            dim_value: 768
          }
          dim {
            dim_value: 1
          }
          dim {
            dim_value: 1
          }
        }
      }
    }
  }
  input {
    name: "153"
    type {
      tensor_type {
        elem_type: FLOAT
        shape {
          dim {
            dim_value: 192
          }
        }
      }
    }
  }
  input {
    name: "154"
    type {
      tensor_type {
        elem_type: FLOAT
        shape {
          dim {
            dim_value: 192
          }
        }
      }
    }
  }
  input {
    name: "155"
    type {
      tensor_type {
        elem_type: FLOAT
        shape {
          dim {
            dim_value: 192
          }
        }
      }
    }
  }
  input {
    name: "156"
    type {
      tensor_type {
        elem_type: FLOAT
        shape {
          dim {
            dim_value: 192
          }
        }
      }
    }
  }
  input {
    name: "157"
    type {
      tensor_type {
        elem_type: FLOAT
        shape {
          dim {
            dim_value: 128
          }
          dim {
            dim_value: 768
          }
          dim {
            dim_value: 1
          }
          dim {
            dim_value: 1
          }
        }
      }
    }
  }
  input {
    name: "158"
    type {
      tensor_type {
        elem_type: FLOAT
        shape {
          dim {
            dim_value: 128
          }
        }
      }
    }
  }
  input {
    name: "159"
    type {
      tensor_type {
        elem_type: FLOAT
        shape {
          dim {
            dim_value: 128
          }
        }
      }
    }
  }
  input {
    name: "160"
    type {
      tensor_type {
        elem_type: FLOAT
        shape {
          dim {
            dim_value: 128
          }
        }
      }
    }
  }
  input {
    name: "161"
    type {
      tensor_type {
        elem_type: FLOAT
        shape {
          dim {
            dim_value: 128
          }
        }
      }
    }
  }
  input {
    name: "162"
    type {
      tensor_type {
        elem_type: FLOAT
        shape {
          dim {
            dim_value: 128
          }
          dim {
            dim_value: 128
          }
          dim {
            dim_value: 1
          }
          dim {
            dim_value: 7
          }
        }
      }
    }
  }
  input {
    name: "163"
    type {
      tensor_type {
        elem_type: FLOAT
        shape {
          dim {
            dim_value: 128
          }
        }
      }
    }
  }
  input {
    name: "164"
    type {
      tensor_type {
        elem_type: FLOAT
        shape {
          dim {
            dim_value: 128
          }
        }
      }
    }
  }
  input {
    name: "165"
    type {
      tensor_type {
        elem_type: FLOAT
        shape {
          dim {
            dim_value: 128
          }
        }
      }
    }
  }
  input {
    name: "166"
    type {
      tensor_type {
        elem_type: FLOAT
        shape {
          dim {
            dim_value: 128
          }
        }
      }
    }
  }
  input {
    name: "167"
    type {
      tensor_type {
        elem_type: FLOAT
        shape {
          dim {
            dim_value: 192
          }
          dim {
            dim_value: 128
          }
          dim {
            dim_value: 7
          }
          dim {
            dim_value: 1
          }
        }
      }
    }
  }
  input {
    name: "168"
    type {
      tensor_type {
        elem_type: FLOAT
        shape {
          dim {
            dim_value: 192
          }
        }
      }
    }
  }
  input {
    name: "169"
    type {
      tensor_type {
        elem_type: FLOAT
        shape {
          dim {
            dim_value: 192
          }
        }
      }
    }
  }
  input {
    name: "170"
    type {
      tensor_type {
        elem_type: FLOAT
        shape {
          dim {
            dim_value: 192
          }
        }
      }
    }
  }
  input {
    name: "171"
    type {
      tensor_type {
        elem_type: FLOAT
        shape {
          dim {
            dim_value: 192
          }
        }
      }
    }
  }
  input {
    name: "172"
    type {
      tensor_type {
        elem_type: FLOAT
        shape {
          dim {
            dim_value: 128
          }
          dim {
            dim_value: 768
          }
          dim {
            dim_value: 1
          }
          dim {
            dim_value: 1
          }
        }
      }
    }
  }
  input {
    name: "173"
    type {
      tensor_type {
        elem_type: FLOAT
        shape {
          dim {
            dim_value: 128
          }
        }
      }
    }
  }
  input {
    name: "174"
    type {
      tensor_type {
        elem_type: FLOAT
        shape {
          dim {
            dim_value: 128
          }
        }
      }
    }
  }
  input {
    name: "175"
    type {
      tensor_type {
        elem_type: FLOAT
        shape {
          dim {
            dim_value: 128
          }
        }
      }
    }
  }
  input {
    name: "176"
    type {
      tensor_type {
        elem_type: FLOAT
        shape {
          dim {
            dim_value: 128
          }
        }
      }
    }
  }
  input {
    name: "177"
    type {
      tensor_type {
        elem_type: FLOAT
        shape {
          dim {
            dim_value: 128
          }
          dim {
            dim_value: 128
          }
          dim {
            dim_value: 7
          }
          dim {
            dim_value: 1
          }
        }
      }
    }
  }
  input {
    name: "178"
    type {
      tensor_type {
        elem_type: FLOAT
        shape {
          dim {
            dim_value: 128
          }
        }
      }
    }
  }
  input {
    name: "179"
    type {
      tensor_type {
        elem_type: FLOAT
        shape {
          dim {
            dim_value: 128
          }
        }
      }
    }
  }
  input {
    name: "180"
    type {
      tensor_type {
        elem_type: FLOAT
        shape {
          dim {
            dim_value: 128
          }
        }
      }
    }
  }
  input {
    name: "181"
    type {
      tensor_type {
        elem_type: FLOAT
        shape {
          dim {
            dim_value: 128
          }
        }
      }
    }
  }
  input {
    name: "182"
    type {
      tensor_type {
        elem_type: FLOAT
        shape {
          dim {
            dim_value: 128
          }
          dim {
            dim_value: 128
          }
          dim {
            dim_value: 1
          }
          dim {
            dim_value: 7
          }
        }
      }
    }
  }
  input {
    name: "183"
    type {
      tensor_type {
        elem_type: FLOAT
        shape {
          dim {
            dim_value: 128
          }
        }
      }
    }
  }
  input {
    name: "184"
    type {
      tensor_type {
        elem_type: FLOAT
        shape {
          dim {
            dim_value: 128
          }
        }
      }
    }
  }
  input {
    name: "185"
    type {
      tensor_type {
        elem_type: FLOAT
        shape {
          dim {
            dim_value: 128
          }
        }
      }
    }
  }
  input {
    name: "186"
    type {
      tensor_type {
        elem_type: FLOAT
        shape {
          dim {
            dim_value: 128
          }
        }
      }
    }
  }
  input {
    name: "187"
    type {
      tensor_type {
        elem_type: FLOAT
        shape {
          dim {
            dim_value: 128
          }
          dim {
            dim_value: 128
          }
          dim {
            dim_value: 7
          }
          dim {
            dim_value: 1
          }
        }
      }
    }
  }
  input {
    name: "188"
    type {
      tensor_type {
        elem_type: FLOAT
        shape {
          dim {
            dim_value: 128
          }
        }
      }
    }
  }
  input {
    name: "189"
    type {
      tensor_type {
        elem_type: FLOAT
        shape {
          dim {
            dim_value: 128
          }
        }
      }
    }
  }
  input {
    name: "190"
    type {
      tensor_type {
        elem_type: FLOAT
        shape {
          dim {
            dim_value: 128
          }
        }
      }
    }
  }
  input {
    name: "191"
    type {
      tensor_type {
        elem_type: FLOAT
        shape {
          dim {
            dim_value: 128
          }
        }
      }
    }
  }
  input {
    name: "192"
    type {
      tensor_type {
        elem_type: FLOAT
        shape {
          dim {
            dim_value: 192
          }
          dim {
            dim_value: 128
          }
          dim {
            dim_value: 1
          }
          dim {
            dim_value: 7
          }
        }
      }
    }
  }
  input {
    name: "193"
    type {
      tensor_type {
        elem_type: FLOAT
        shape {
          dim {
            dim_value: 192
          }
        }
      }
    }
  }
  input {
    name: "194"
    type {
      tensor_type {
        elem_type: FLOAT
        shape {
          dim {
            dim_value: 192
          }
        }
      }
    }
  }
  input {
    name: "195"
    type {
      tensor_type {
        elem_type: FLOAT
        shape {
          dim {
            dim_value: 192
          }
        }
      }
    }
  }
  input {
    name: "196"
    type {
      tensor_type {
        elem_type: FLOAT
        shape {
          dim {
            dim_value: 192
          }
        }
      }
    }
  }
  input {
    name: "197"
    type {
      tensor_type {
        elem_type: FLOAT
        shape {
          dim {
            dim_value: 192
          }
          dim {
            dim_value: 768
          }
          dim {
            dim_value: 1
          }
          dim {
            dim_value: 1
          }
        }
      }
    }
  }
  input {
    name: "198"
    type {
      tensor_type {
        elem_type: FLOAT
        shape {
          dim {
            dim_value: 192
          }
        }
      }
    }
  }
  input {
    name: "199"
    type {
      tensor_type {
        elem_type: FLOAT
        shape {
          dim {
            dim_value: 192
          }
        }
      }
    }
  }
  input {
    name: "200"
    type {
      tensor_type {
        elem_type: FLOAT
        shape {
          dim {
            dim_value: 192
          }
        }
      }
    }
  }
  input {
    name: "201"
    type {
      tensor_type {
        elem_type: FLOAT
        shape {
          dim {
            dim_value: 192
          }
        }
      }
    }
  }
  input {
    name: "202"
    type {
      tensor_type {
        elem_type: FLOAT
        shape {
          dim {
            dim_value: 192
          }
          dim {
            dim_value: 768
          }
          dim {
            dim_value: 1
          }
          dim {
            dim_value: 1
          }
        }
      }
    }
  }
  input {
    name: "203"
    type {
      tensor_type {
        elem_type: FLOAT
        shape {
          dim {
            dim_value: 192
          }
        }
      }
    }
  }
  input {
    name: "204"
    type {
      tensor_type {
        elem_type: FLOAT
        shape {
          dim {
            dim_value: 192
          }
        }
      }
    }
  }
  input {
    name: "205"
    type {
      tensor_type {
        elem_type: FLOAT
        shape {
          dim {
            dim_value: 192
          }
        }
      }
    }
  }
  input {
    name: "206"
    type {
      tensor_type {
        elem_type: FLOAT
        shape {
          dim {
            dim_value: 192
          }
        }
      }
    }
  }
  input {
    name: "207"
    type {
      tensor_type {
        elem_type: FLOAT
        shape {
          dim {
            dim_value: 160
          }
          dim {
            dim_value: 768
          }
          dim {
            dim_value: 1
          }
          dim {
            dim_value: 1
          }
        }
      }
    }
  }
  input {
    name: "208"
    type {
      tensor_type {
        elem_type: FLOAT
        shape {
          dim {
            dim_value: 160
          }
        }
      }
    }
  }
  input {
    name: "209"
    type {
      tensor_type {
        elem_type: FLOAT
        shape {
          dim {
            dim_value: 160
          }
        }
      }
    }
  }
  input {
    name: "210"
    type {
      tensor_type {
        elem_type: FLOAT
        shape {
          dim {
            dim_value: 160
          }
        }
      }
    }
  }
  input {
    name: "211"
    type {
      tensor_type {
        elem_type: FLOAT
        shape {
          dim {
            dim_value: 160
          }
        }
      }
    }
  }
  input {
    name: "212"
    type {
      tensor_type {
        elem_type: FLOAT
        shape {
          dim {
            dim_value: 160
          }
          dim {
            dim_value: 160
          }
          dim {
            dim_value: 1
          }
          dim {
            dim_value: 7
          }
        }
      }
    }
  }
  input {
    name: "213"
    type {
      tensor_type {
        elem_type: FLOAT
        shape {
          dim {
            dim_value: 160
          }
        }
      }
    }
  }
  input {
    name: "214"
    type {
      tensor_type {
        elem_type: FLOAT
        shape {
          dim {
            dim_value: 160
          }
        }
      }
    }
  }
  input {
    name: "215"
    type {
      tensor_type {
        elem_type: FLOAT
        shape {
          dim {
            dim_value: 160
          }
        }
      }
    }
  }
  input {
    name: "216"
    type {
      tensor_type {
        elem_type: FLOAT
        shape {
          dim {
            dim_value: 160
          }
        }
      }
    }
  }
  input {
    name: "217"
    type {
      tensor_type {
        elem_type: FLOAT
        shape {
          dim {
            dim_value: 192
          }
          dim {
            dim_value: 160
          }
          dim {
            dim_value: 7
          }
          dim {
            dim_value: 1
          }
        }
      }
    }
  }
  input {
    name: "218"
    type {
      tensor_type {
        elem_type: FLOAT
        shape {
          dim {
            dim_value: 192
          }
        }
      }
    }
  }
  input {
    name: "219"
    type {
      tensor_type {
        elem_type: FLOAT
        shape {
          dim {
            dim_value: 192
          }
        }
      }
    }
  }
  input {
    name: "220"
    type {
      tensor_type {
        elem_type: FLOAT
        shape {
          dim {
            dim_value: 192
          }
        }
      }
    }
  }
  input {
    name: "221"
    type {
      tensor_type {
        elem_type: FLOAT
        shape {
          dim {
            dim_value: 192
          }
        }
      }
    }
  }
  input {
    name: "222"
    type {
      tensor_type {
        elem_type: FLOAT
        shape {
          dim {
            dim_value: 160
          }
          dim {
            dim_value: 768
          }
          dim {
            dim_value: 1
          }
          dim {
            dim_value: 1
          }
        }
      }
    }
  }
  input {
    name: "223"
    type {
      tensor_type {
        elem_type: FLOAT
        shape {
          dim {
            dim_value: 160
          }
        }
      }
    }
  }
  input {
    name: "224"
    type {
      tensor_type {
        elem_type: FLOAT
        shape {
          dim {
            dim_value: 160
          }
        }
      }
    }
  }
  input {
    name: "225"
    type {
      tensor_type {
        elem_type: FLOAT
        shape {
          dim {
            dim_value: 160
          }
        }
      }
    }
  }
  input {
    name: "226"
    type {
      tensor_type {
        elem_type: FLOAT
        shape {
          dim {
            dim_value: 160
          }
        }
      }
    }
  }
  input {
    name: "227"
    type {
      tensor_type {
        elem_type: FLOAT
        shape {
          dim {
            dim_value: 160
          }
          dim {
            dim_value: 160
          }
          dim {
            dim_value: 7
          }
          dim {
            dim_value: 1
          }
        }
      }
    }
  }
  input {
    name: "228"
    type {
      tensor_type {
        elem_type: FLOAT
        shape {
          dim {
            dim_value: 160
          }
        }
      }
    }
  }
  input {
    name: "229"
    type {
      tensor_type {
        elem_type: FLOAT
        shape {
          dim {
            dim_value: 160
          }
        }
      }
    }
  }
  input {
    name: "230"
    type {
      tensor_type {
        elem_type: FLOAT
        shape {
          dim {
            dim_value: 160
          }
        }
      }
    }
  }
  input {
    name: "231"
    type {
      tensor_type {
        elem_type: FLOAT
        shape {
          dim {
            dim_value: 160
          }
        }
      }
    }
  }
  input {
    name: "232"
    type {
      tensor_type {
        elem_type: FLOAT
        shape {
          dim {
            dim_value: 160
          }
          dim {
            dim_value: 160
          }
          dim {
            dim_value: 1
          }
          dim {
            dim_value: 7
          }
…
            dim_value: 192
          }
          dim {
            dim_value: 768
          }
          dim {
            dim_value: 1
          }
          dim {
            dim_value: 1
          }
        }
      }
    }
  }
  input {
    name: "253"
    type {
      tensor_type {
        elem_type: FLOAT
        shape {
          dim {
            dim_value: 192
          }
        }
      }
    }
  }
  input {
    name: "254"
    type {
      tensor_type {
        elem_type: FLOAT
        shape {
          dim {
            dim_value: 192
          }
        }
      }
    }
  }
  input {
    name: "255"
    type {
      tensor_type {
        elem_type: FLOAT
        shape {
          dim {
            dim_value: 192
          }
        }
      }
    }
  }
  input {
    name: "256"
    type {
      tensor_type {
        elem_type: FLOAT
        shape {
          dim {
            dim_value: 192
          }
        }
      }
    }
  }
  input {
    name: "257"
    type {
      tensor_type {
        elem_type: FLOAT
        shape {
          dim {
            dim_value: 160
          }
          dim {
            dim_value: 768
          }
          dim {
            dim_value: 1
          }
          dim {
            dim_value: 1
          }
        }
      }
    }
  }
  input {
    name: "258"
    type {
      tensor_type {
        elem_type: FLOAT
        shape {
          dim {
            dim_value: 160
          }
        }
      }
    }
  }
  input {
    name: "259"
    type {
      tensor_type {
        elem_type: FLOAT
        shape {
          dim {
            dim_value: 160
          }
        }
      }
    }
  }
  input {
    name: "260"
    type {
      tensor_type {
        elem_type: FLOAT
        shape {
          dim {
            dim_value: 160
          }
        }
      }
    }
  }
  input {
    name: "261"
    type {
      tensor_type {
        elem_type: FLOAT
        shape {
          dim {
            dim_value: 160
          }
        }
      }
    }
  }
  input {
    name: "262"
    type {
      tensor_type {
        elem_type: FLOAT
        shape {
          dim {
            dim_value: 160
          }
          dim {
            dim_value: 160
          }
          dim {
            dim_value: 1
          }
          dim {
            dim_value: 7
          }
        }
      }
    }
  }
  input {
    name: "263"
    type {
      tensor_type {
        elem_type: FLOAT
        shape {
          dim {
            dim_value: 160
          }
        }
      }
    }
  }
  input {
    name: "264"
    type {
      tensor_type {
        elem_type: FLOAT
        shape {
          dim {
            dim_value: 160
          }
        }
      }
    }
  }
  input {
    name: "265"
    type {
      tensor_type {
        elem_type: FLOAT
        shape {
          dim {
            dim_value: 160
          }
        }
      }
    }
  }
  input {
    name: "266"
    type {
      tensor_type {
        elem_type: FLOAT
        shape {
          dim {
            dim_value: 160
          }
        }
      }
    }
  }
  input {
    name: "267"
    type {
      tensor_type {
        elem_type: FLOAT
        shape {
          dim {
            dim_value: 192
          }
          dim {
            dim_value: 160
          }
          dim {
            dim_value: 7
          }
          dim {
            dim_value: 1
          }
        }
      }
    }
  }
  input {
    name: "268"
    type {
      tensor_type {
        elem_type: FLOAT
        shape {
          dim {
            dim_value: 192
          }
        }
      }
    }
  }
  input {
    name: "269"
    type {
      tensor_type {
        elem_type: FLOAT
        shape {
          dim {
            dim_value: 192
          }
        }
      }
    }
  }
  input {
    name: "270"
    type {
      tensor_type {
        elem_type: FLOAT
        shape {
          dim {
            dim_value: 192
          }
        }
      }
    }
  }
  input {
    name: "271"
    type {
      tensor_type {
        elem_type: FLOAT
        shape {
          dim {
            dim_value: 192
          }
        }
      }
    }
  }
  input {
    name: "272"
    type {
      tensor_type {
        elem_type: FLOAT
        shape {
          dim {
            dim_value: 160
          }
          dim {
            dim_value: 768
          }
          dim {
            dim_value: 1
          }
          dim {
            dim_value: 1
          }
        }
      }
    }
  }
  input {
    name: "273"
    type {
      tensor_type {
        elem_type: FLOAT
        shape {
          dim {
            dim_value: 160
          }
        }
      }
    }
  }
  input {
    name: "274"
    type {
      tensor_type {
        elem_type: FLOAT
        shape {
          dim {
            dim_value: 160
          }
        }
      }
    }
  }
  input {
    name: "275"
    type {
      tensor_type {
        elem_type: FLOAT
        shape {
          dim {
            dim_value: 160
          }
        }
      }
    }
  }
  input {
    name: "276"
    type {
      tensor_type {
        elem_type: FLOAT
        shape {
          dim {
            dim_value: 160
          }
        }
      }
    }
  }
  input {
    name: "277"
    type {
      tensor_type {
        elem_type: FLOAT
        shape {
          dim {
            dim_value: 160
          }
          dim {
            dim_value: 160
          }
          dim {
            dim_value: 7
          }
          dim {
            dim_value: 1
          }
        }
      }
    }
  }
  input {
    name: "278"
    type {
      tensor_type {
        elem_type: FLOAT
        shape {
          dim {
            dim_value: 160
          }
        }
      }
    }
  }
  input {
    name: "279"
    type {
      tensor_type {
        elem_type: FLOAT
        shape {
          dim {
            dim_value: 160
          }
        }
      }
    }
  }
  input {
    name: "280"
    type {
      tensor_type {
        elem_type: FLOAT
        shape {
          dim {
            dim_value: 160
          }
        }
      }
    }
  }
  input {
    name: "281"
    type {
      tensor_type {
        elem_type: FLOAT
        shape {
          dim {
            dim_value: 160
          }
        }
      }
    }
  }
  input {
    name: "282"
    type {
      tensor_type {
        elem_type: FLOAT
        shape {
          dim {
            dim_value: 160
          }
          dim {
            dim_value: 160
          }
          dim {
            dim_value: 1
          }
          dim {
            dim_value: 7
          }
        }
      }
    }
  }
  input {
    name: "283"
    type {
      tensor_type {
        elem_type: FLOAT
        shape {
          dim {
            dim_value: 160
          }
        }
      }
    }
  }
  input {
    name: "284"
    type {
      tensor_type {
        elem_type: FLOAT
        shape {
          dim {
            dim_value: 160
          }
        }
      }
    }
  }
  input {
    name: "285"
    type {
      tensor_type {
        elem_type: FLOAT
        shape {
          dim {
            dim_value: 160
          }
        }
      }
    }
  }
  input {
    name: "286"
    type {
      tensor_type {
        elem_type: FLOAT
        shape {
          dim {
            dim_value: 160
          }
        }
      }
    }
  }
  input {
    name: "287"
    type {
      tensor_type {
        elem_type: FLOAT
        shape {
          dim {
            dim_value: 160
          }
          dim {
            dim_value: 160
          }
          dim {
            dim_value: 7
          }
          dim {
            dim_value: 1
          }
        }
      }
    }
  }
  input {
    name: "288"
    type {
      tensor_type {
        elem_type: FLOAT
        shape {
          dim {
            dim_value: 160
          }
        }
      }
    }
  }
  input {
    name: "289"
    type {
      tensor_type {
        elem_type: FLOAT
        shape {
          dim {
            dim_value: 160
          }
        }
      }
    }
  }
  input {
    name: "290"
    type {
      tensor_type {
        elem_type: FLOAT
        shape {
          dim {
            dim_value: 160
          }
        }
      }
    }
  }
  input {
    name: "291"
    type {
      tensor_type {
        elem_type: FLOAT
        shape {
          dim {
            dim_value: 160
          }
        }
      }
    }
  }
  input {
    name: "292"
    type {
      tensor_type {
        elem_type: FLOAT
        shape {
          dim {
            dim_value: 192
          }
          dim {
            dim_value: 160
          }
          dim {
            dim_value: 1
          }
          dim {
            dim_value: 7
          }
        }
      }
    }
  }
  input {
    name: "293"
    type {
      tensor_type {
        elem_type: FLOAT
        shape {
          dim {
            dim_value: 192
          }
        }
      }
    }
  }
  input {
    name: "294"
    type {
      tensor_type {
        elem_type: FLOAT
        shape {
          dim {
            dim_value: 192
          }
        }
      }
    }
  }
  input {
    name: "295"
    type {
      tensor_type {
        elem_type: FLOAT
        shape {
          dim {
            dim_value: 192
          }
        }
      }
    }
  }
  input {
    name: "296"
    type {
      tensor_type {
        elem_type: FLOAT
        shape {
          dim {
            dim_value: 192
          }
        }
      }
    }
  }
  input {
    name: "297"
    type {
      tensor_type {
        elem_type: FLOAT
        shape {
          dim {
            dim_value: 192
          }
          dim {
            dim_value: 768
          }
          dim {
            dim_value: 1
          }
          dim {
            dim_value: 1
          }
        }
      }
    }
  }
  input {
    name: "298"
    type {
      tensor_type {
        elem_type: FLOAT
        shape {
          dim {
            dim_value: 192
          }
        }
      }
    }
  }
  input {
    name: "299"
    type {
      tensor_type {
        elem_type: FLOAT
        shape {
          dim {
            dim_value: 192
          }
        }
      }
    }
  }
  input {
    name: "300"
    type {
      tensor_type {
        elem_type: FLOAT
        shape {
          dim {
            dim_value: 192
          }
        }
      }
    }
  }
  input {
    name: "301"
    type {
      tensor_type {
        elem_type: FLOAT
        shape {
          dim {
            dim_value: 192
          }
        }
      }
    }
  }
  input {
    name: "302"
    type {
      tensor_type {
        elem_type: FLOAT
        shape {
          dim {
            dim_value: 192
          }
          dim {
            dim_value: 768
          }
          dim {
            dim_value: 1
          }
          dim {
            dim_value: 1
          }
        }
      }
    }
  }
  input {
    name: "303"
    type {
      tensor_type {
        elem_type: FLOAT
        shape {
          dim {
            dim_value: 192
          }
        }
      }
    }
  }
  input {
    name: "304"
    type {
      tensor_type {
        elem_type: FLOAT
        shape {
          dim {
            dim_value: 192
          }
        }
      }
    }
  }
  input {
    name: "305"
    type {
      tensor_type {
        elem_type: FLOAT
        shape {
          dim {
            dim_value: 192
          }
        }
      }
    }
  }
  input {
    name: "306"
    type {
      tensor_type {
        elem_type: FLOAT
        shape {
          dim {
            dim_value: 192
          }
        }
      }
    }
  }
  input {
    name: "307"
    type {
      tensor_type {
        elem_type: FLOAT
        shape {
          dim {
            dim_value: 192
          }
          dim {
            dim_value: 768
          }
          dim {
            dim_value: 1
          }
          dim {
            dim_value: 1
          }
        }
      }
    }
  }
  input {
    name: "308"
    type {
      tensor_type {
        elem_type: FLOAT
        shape {
          dim {
            dim_value: 192
          }
        }
      }
    }
  }
  input {
    name: "309"
    type {
      tensor_type {
        elem_type: FLOAT
        shape {
          dim {
            dim_value: 192
          }
        }
      }
    }
  }
  input {
    name: "310"
    type {
      tensor_type {
        elem_type: FLOAT
        shape {
          dim {
            dim_value: 192
          }
        }
      }
    }
  }
  input {
    name: "311"
    type {
      tensor_type {
        elem_type: FLOAT
        shape {
          dim {
            dim_value: 192
          }
        }
      }
    }
  }
  input {
    name: "312"
    type {
      tensor_type {
        elem_type: FLOAT
        shape {
          dim {
            dim_value: 192
          }
          dim {
            dim_value: 192
          }
          dim {
            dim_value: 1
          }
          dim {
            dim_value: 7
          }
        }
      }
    }
  }
  input {
    name: "313"
    type {
      tensor_type {
        elem_type: FLOAT
        shape {
          dim {
            dim_value: 192
          }
        }
      }
    }
  }
  input {
    name: "314"
    type {
      tensor_type {
        elem_type: FLOAT
        shape {
          dim {
            dim_value: 192
          }
        }
      }
    }
  }
  input {
    name: "315"
    type {
      tensor_type {
        elem_type: FLOAT
        shape {
          dim {
            dim_value: 192
          }
        }
      }
    }
  }
  input {
    name: "316"
    type {
      tensor_type {
        elem_type: FLOAT
        shape {
          dim {
            dim_value: 192
          }
        }
      }
    }
  }
  input {
    name: "317"
    type {
      tensor_type {
        elem_type: FLOAT
        shape {
          dim {
            dim_value: 192
          }
          dim {
            dim_value: 192
          }
          dim {
            dim_value: 7
          }
          dim {
            dim_value: 1
          }
        }
      }
    }
  }
  input {
    name: "318"
    type {
      tensor_type {
        elem_type: FLOAT
        shape {
          dim {
            dim_value: 192
          }
        }
      }
    }
  }
  input {
    name: "319"
    type {
      tensor_type {
        elem_type: FLOAT
        shape {
          dim {
            dim_value: 192
          }
        }
      }
    }
  }
  input {
    name: "320"
    type {
      tensor_type {
        elem_type: FLOAT
        shape {
          dim {
            dim_value: 192
          }
        }
      }
    }
  }
  input {
    name: "321"
    type {
      tensor_type {
        elem_type: FLOAT
        shape {
          dim {
            dim_value: 192
          }
        }
      }
    }
  }
  input {
    name: "322"
    type {
      tensor_type {
        elem_type: FLOAT
        shape {
          dim {
            dim_value: 192
          }
          dim {
            dim_value: 768
          }
          dim {
            dim_value: 1
          }
          dim {
            dim_value: 1
          }
        }
      }
    }
  }
  input {
    name: "323"
    type {
      tensor_type {
        elem_type: FLOAT
        shape {
          dim {
            dim_value: 192
          }
        }
      }
    }
  }
  input {
    name: "324"
    type {
      tensor_type {
        elem_type: FLOAT
        shape {
          dim {
            dim_value: 192
          }
        }
      }
    }
  }
  input {
    name: "325"
    type {
      tensor_type {
        elem_type: FLOAT
        shape {
          dim {
            dim_value: 192
          }
        }
      }
    }
  }
  input {
    name: "326"
    type {
      tensor_type {
        elem_type: FLOAT
        shape {
          dim {
            dim_value: 192
          }
        }
      }
    }
  }
  input {
    name: "327"
    type {
      tensor_type {
        elem_type: FLOAT
        shape {
          dim {
            dim_value: 192
          }
          dim {
            dim_value: 192
          }
          dim {
            dim_value: 7
          }
          dim {
            dim_value: 1
          }
        }
      }
    }
  }
  input {
    name: "328"
    type {
      tensor_type {
        elem_type: FLOAT
        shape {
          dim {
            dim_value: 192
          }
        }
      }
    }
  }
  input {
    name: "329"
    type {
      tensor_type {
        elem_type: FLOAT
        shape {
          dim {
            dim_value: 192
          }
        }
      }
    }
  }
  input {
    name: "330"
    type {
      tensor_type {
        elem_type: FLOAT
        shape {
          dim {
            dim_value: 192
          }
        }
      }
    }
  }
  input {
    name: "331"
    type {
      tensor_type {
        elem_type: FLOAT
        shape {
          dim {
            dim_value: 192
          }
        }
      }
    }
  }
  input {
    name: "332"
    type {
      tensor_type {
        elem_type: FLOAT
        shape {
          dim {
            dim_value: 192
          }
          dim {
            dim_value: 192
          }
          dim {
            dim_value: 1
          }
          dim {
            dim_value: 7
          }
        }
      }
    }
  }
  input {
    name: "333"
    type {
      tensor_type {
        elem_type: FLOAT
        shape {
          dim {
            dim_value: 192
          }
        }
      }
    }
  }
  input {
    name: "334"
    type {
      tensor_type {
        elem_type: FLOAT
        shape {
          dim {
            dim_value: 192
          }
        }
      }
    }
  }
  input {
    name: "335"
    type {
      tensor_type {
        elem_type: FLOAT
        shape {
          dim {
            dim_value: 192
          }
        }
      }
    }
  }
  input {
    name: "336"
    type {
      tensor_type {
        elem_type: FLOAT
        shape {
          dim {
            dim_value: 192
          }
        }
      }
    }
  }
  input {
    name: "337"
    type {
      tensor_type {
        elem_type: FLOAT
        shape {
          dim {
            dim_value: 192
          }
          dim {
            dim_value: 192
          }
          dim {
            dim_value: 7
          }
          dim {
            dim_value: 1
          }
        }
      }
    }
  }
  input {
    name: "338"
    type {
      tensor_type {
        elem_type: FLOAT
        shape {
          dim {
            dim_value: 192
          }
        }
      }
    }
  }
  input {
    name: "339"
    type {
      tensor_type {
        elem_type: FLOAT
        shape {
          dim {
            dim_value: 192
          }
        }
      }
    }
  }
  input {
    name: "340"
    type {
      tensor_type {
        elem_type: FLOAT
        shape {
          dim {
            dim_value: 192
          }
        }
      }
    }
  }
  input {
    name: "341"
    type {
      tensor_type {
        elem_type: FLOAT
        shape {
          dim {
            dim_value: 192
          }
        }
      }
    }
  }
  input {
    name: "342"
    type {
      tensor_type {
        elem_type: FLOAT
        shape {
          dim {
            dim_value: 192
          }
          dim {
            dim_value: 192
          }
          dim {
            dim_value: 1
          }
          dim {
            dim_value: 7
          }
        }
      }
    }
  }
  input {
    name: "343"
    type {
      tensor_type {
        elem_type: FLOAT
        shape {
          dim {
            dim_value: 192
          }
        }
      }
    }
  }
  input {
    name: "344"
    type {
      tensor_type {
        elem_type: FLOAT
        shape {
          dim {
            dim_value: 192
          }
        }
      }
    }
  }
  input {
    name: "345"
    type {
      tensor_type {
        elem_type: FLOAT
        shape {
          dim {
            dim_value: 192
          }
        }
      }
    }
  }
  input {
    name: "346"
    type {
      tensor_type {
        elem_type: FLOAT
        shape {
          dim {
            dim_value: 192
          }
        }
      }
    }
  }
  input {
    name: "347"
    type {
      tensor_type {
        elem_type: FLOAT
        shape {
          dim {
            dim_value: 192
          }
          dim {
            dim_value: 768
          }
          dim {
            dim_value: 1
          }
          dim {
            dim_value: 1
          }
        }
      }
    }
  }
  input {
    name: "348"
    type {
      tensor_type {
        elem_type: FLOAT
        shape {
          dim {
            dim_value: 192
          }
        }
      }
    }
  }
  input {
    name: "349"
    type {
      tensor_type {
        elem_type: FLOAT
        shape {
          dim {
            dim_value: 192
          }
        }
      }
    }
  }
  input {
    name: "350"
    type {
      tensor_type {
        elem_type: FLOAT
        shape {
          dim {
            dim_value: 192
          }
        }
      }
    }
  }
  input {
    name: "351"
    type {
      tensor_type {
        elem_type: FLOAT
        shape {
          dim {
            dim_value: 192
          }
        }
      }
    }
  }
  input {
    name: "352"
    type {
      tensor_type {
        elem_type: FLOAT
        shape {
          dim {
            dim_value: 128
          }
          dim {
            dim_value: 768
          }
          dim {
            dim_value: 1
          }
          dim {
            dim_value: 1
          }
        }
      }
    }
  }
  input {
    name: "353"
    type {
      tensor_type {
        elem_type: FLOAT
        shape {
          dim {
            dim_value: 128
          }
        }
      }
    }
  }
  input {
    name: "354"
    type {
      tensor_type {
        elem_type: FLOAT
        shape {
          dim {
            dim_value: 128
          }
        }
      }
    }
  }
  input {
    name: "355"
    type {
      tensor_type {
        elem_type: FLOAT
        shape {
          dim {
            dim_value: 128
          }
        }
      }
    }
  }
  input {
    name: "356"
    type {
      tensor_type {
        elem_type: FLOAT
        shape {
          dim {
            dim_value: 128
          }
        }
      }
    }
  }
  input {
    name: "357"
    type {
      tensor_type {
        elem_type: FLOAT
        shape {
          dim {
            dim_value: 768
          }
          dim {
            dim_value: 128
          }
          dim {
            dim_value: 5
          }
          dim {
            dim_value: 5
          }
        }
      }
    }
  }
  input {
    name: "358"
    type {
      tensor_type {
        elem_type: FLOAT
        shape {
          dim {
            dim_value: 768
          }
        }
      }
    }
  }
  input {
    name: "359"
    type {
      tensor_type {
        elem_type: FLOAT
        shape {
          dim {
            dim_value: 768
          }
        }
      }
    }
  }
  input {
    name: "360"
    type {
      tensor_type {
        elem_type: FLOAT
        shape {
          dim {
            dim_value: 768
          }
        }
      }
    }
  }
  input {
    name: "361"
    type {
      tensor_type {
        elem_type: FLOAT
        shape {
          dim {
            dim_value: 768
          }
        }
      }
    }
  }
  input {
    name: "362"
    type {
      tensor_type {
        elem_type: FLOAT
        shape {
          dim {
            dim_value: 1000
          }
          dim {
            dim_value: 768
          }
        }
      }
    }
  }
  input {
    name: "363"
    type {
      tensor_type {
        elem_type: FLOAT
        shape {
          dim {
            dim_value: 1000
          }
        }
      }
    }
  }
  input {
    name: "364"
    type {
      tensor_type {
        elem_type: FLOAT
        shape {
          dim {
            dim_value: 192
          }
          dim {
            dim_value: 768
          }
          dim {
            dim_value: 1
          }
          dim {
            dim_value: 1
          }
        }
      }
    }
  }
  input {
    name: "365"
    type {
      tensor_type {
        elem_type: FLOAT
        shape {
          dim {
            dim_value: 192
          }
        }
      }
    }
  }
  input {
    name: "366"
    type {
      tensor_type {
        elem_type: FLOAT
        shape {
          dim {
            dim_value: 192
          }
        }
      }
    }
  }
  input {
    name: "367"
    type {
      tensor_type {
        elem_type: FLOAT
        shape {
          dim {
            dim_value: 192
          }
        }
      }
    }
  }
  input {
    name: "368"
    type {
      tensor_type {
        elem_type: FLOAT
        shape {
          dim {
            dim_value: 192
          }
        }
      }
    }
  }
  input {
    name: "369"
    type {
      tensor_type {
        elem_type: FLOAT
        shape {
          dim {
            dim_value: 320
          }
          dim {
            dim_value: 192
          }
          dim {
            dim_value: 3
          }
          dim {
            dim_value: 3
          }
        }
      }
    }
  }
  input {
    name: "370"
    type {
      tensor_type {
        elem_type: FLOAT
        shape {
          dim {
            dim_value: 320
          }
        }
      }
    }
  }
  input {
    name: "371"
    type {
      tensor_type {
        elem_type: FLOAT
        shape {
          dim {
            dim_value: 320
          }
        }
      }
    }
  }
  input {
    name: "372"
    type {
      tensor_type {
        elem_type: FLOAT
        shape {
          dim {
            dim_value: 320
          }
        }
      }
    }
  }
  input {
    name: "373"
    type {
      tensor_type {
        elem_type: FLOAT
        shape {
          dim {
            dim_value: 320
          }
        }
      }
    }
  }
  input {
    name: "374"
    type {
      tensor_type {
        elem_type: FLOAT
        shape {
          dim {
            dim_value: 192
          }
          dim {
            dim_value: 768
          }
          dim {
            dim_value: 1
          }
          dim {
            dim_value: 1
          }
        }
      }
    }
  }
  input {
    name: "375"
    type {
      tensor_type {
        elem_type: FLOAT
        shape {
          dim {
            dim_value: 192
          }
        }
      }
    }
  }
  input {
    name: "376"
    type {
      tensor_type {
        elem_type: FLOAT
        shape {
          dim {
            dim_value: 192
          }
        }
      }
    }
  }
  input {
    name: "377"
    type {
      tensor_type {
        elem_type: FLOAT
        shape {
          dim {
            dim_value: 192
          }
        }
      }
    }
  }
  input {
    name: "378"
    type {
      tensor_type {
        elem_type: FLOAT
        shape {
          dim {
            dim_value: 192
          }
        }
      }
    }
  }
  input {
    name: "379"
    type {
      tensor_type {
        elem_type: FLOAT
        shape {
          dim {
            dim_value: 192
          }
          dim {
            dim_value: 192
          }
          dim {
            dim_value: 1
          }
          dim {
            dim_value: 7
          }
        }
      }
    }
  }
  input {
    name: "380"
    type {
      tensor_type {
        elem_type: FLOAT
        shape {
          dim {
            dim_value: 192
          }
        }
      }
    }
  }
  input {
    name: "381"
    type {
      tensor_type {
        elem_type: FLOAT
        shape {
          dim {
            dim_value: 192
          }
        }
      }
    }
  }
  input {
    name: "382"
    type {
      tensor_type {
        elem_type: FLOAT
        shape {
          dim {
            dim_value: 192
          }
        }
      }
    }
  }
  input {
    name: "383"
    type {
      tensor_type {
        elem_type: FLOAT
        shape {
          dim {
            dim_value: 192
          }
        }
      }
    }
  }
  input {
    name: "384"
    type {
      tensor_type {
        elem_type: FLOAT
        shape {
          dim {
            dim_value: 192
          }
          dim {
            dim_value: 192
          }
          dim {
            dim_value: 7
          }
          dim {
            dim_value: 1
          }
        }
      }
    }
  }
  input {
    name: "385"
    type {
      tensor_type {
        elem_type: FLOAT
        shape {
          dim {
            dim_value: 192
          }
        }
      }
    }
  }
  input {
    name: "386"
    type {
      tensor_type {
        elem_type: FLOAT
        shape {
          dim {
            dim_value: 192
          }
        }
      }
    }
  }
  input {
    name: "387"
    type {
      tensor_type {
        elem_type: FLOAT
        shape {
          dim {
            dim_value: 192
          }
        }
      }
    }
  }
  input {
    name: "388"
    type {
      tensor_type {
        elem_type: FLOAT
        shape {
          dim {
            dim_value: 192
          }
        }
      }
    }
  }
  input {
    name: "389"
    type {
      tensor_type {
        elem_type: FLOAT
        shape {
          dim {
            dim_value: 192
          }
          dim {
            dim_value: 192
          }
          dim {
            dim_value: 3
          }
          dim {
            dim_value: 3
          }
        }
      }
    }
  }
  input {
    name: "390"
    type {
      tensor_type {
        elem_type: FLOAT
        shape {
          dim {
            dim_value: 192
          }
        }
      }
    }
  }
  input {
    name: "391"
    type {
      tensor_type {
        elem_type: FLOAT
        shape {
          dim {
            dim_value: 192
          }
        }
      }
    }
  }
  input {
    name: "392"
    type {
      tensor_type {
        elem_type: FLOAT
        shape {
          dim {
            dim_value: 192
          }
        }
      }
    }
  }
  input {
    name: "393"
    type {
      tensor_type {
        elem_type: FLOAT
        shape {
          dim {
            dim_value: 192
          }
        }
      }
    }
  }
  input {
    name: "394"
    type {
      tensor_type {
        elem_type: FLOAT
        shape {
          dim {
            dim_value: 320
          }
          dim {
            dim_value: 1280
          }
          dim {
            dim_value: 1
          }
          dim {
            dim_value: 1
          }
        }
      }
    }
  }
  input {
    name: "395"
    type {
      tensor_type {
        elem_type: FLOAT
        shape {
          dim {
            dim_value: 320
          }
        }
      }
    }
  }
  input {
    name: "396"
    type {
      tensor_type {
        elem_type: FLOAT
        shape {
          dim {
            dim_value: 320
          }
        }
      }
    }
  }
  input {
    name: "397"
    type {
      tensor_type {
        elem_type: FLOAT
        shape {
          dim {
            dim_value: 320
          }
        }
      }
    }
  }
  input {
    name: "398"
    type {
      tensor_type {
        elem_type: FLOAT
        shape {
          dim {
            dim_value: 320
          }
        }
      }
    }
  }
  input {
    name: "399"
    type {
      tensor_type {
        elem_type: FLOAT
        shape {
          dim {
            dim_value: 384
          }
          dim {
            dim_value: 1280
          }
          dim {
            dim_value: 1
          }
          dim {
            dim_value: 1
          }
        }
      }
    }
  }
  input {
    name: "400"
    type {
      tensor_type {
        elem_type: FLOAT
        shape {
          dim {
            dim_value: 384
          }
        }
      }
    }
  }
  input {
    name: "401"
    type {
      tensor_type {
        elem_type: FLOAT
        shape {
          dim {
            dim_value: 384
          }
        }
      }
    }
  }
  input {
    name: "402"
    type {
      tensor_type {
        elem_type: FLOAT
        shape {
          dim {
            dim_value: 384
          }
        }
      }
    }
  }
  input {
    name: "403"
    type {
      tensor_type {
        elem_type: FLOAT
        shape {
          dim {
            dim_value: 384
          }
        }
      }
    }
  }
  input {
    name: "404"
    type {
      tensor_type {
        elem_type: FLOAT
        shape {
          dim {
            dim_value: 384
          }
          dim {
            dim_value: 384
          }
          dim {
            dim_value: 1
          }
          dim {
            dim_value: 3
          }
        }
      }
    }
  }
  input {
    name: "405"
    type {
      tensor_type {
        elem_type: FLOAT
        shape {
          dim {
            dim_value: 384
          }
        }
      }
    }
  }
  input {
    name: "406"
    type {
      tensor_type {
        elem_type: FLOAT
        shape {
          dim {
            dim_value: 384
          }
        }
      }
    }
  }
  input {
    name: "407"
    type {
      tensor_type {
        elem_type: FLOAT
        shape {
          dim {
            dim_value: 384
          }
        }
      }
    }
  }
  input {
    name: "408"
    type {
      tensor_type {
        elem_type: FLOAT
        shape {
          dim {
            dim_value: 384
          }
        }
      }
    }
  }
  input {
    name: "409"
    type {
      tensor_type {
        elem_type: FLOAT
        shape {
          dim {
            dim_value: 384
          }
          dim {
            dim_value: 384
          }
          dim {
            dim_value: 3
          }
          dim {
            dim_value: 1
          }
        }
      }
    }
  }
  input {
    name: "410"
    type {
      tensor_type {
        elem_type: FLOAT
        shape {
          dim {
            dim_value: 384
          }
        }
      }
    }
  }
  input {
    name: "411"
    type {
      tensor_type {
        elem_type: FLOAT
        shape {
          dim {
            dim_value: 384
          }
        }
      }
    }
  }
  input {
    name: "412"
    type {
      tensor_type {
        elem_type: FLOAT
        shape {
          dim {
            dim_value: 384
          }
        }
      }
    }
  }
  input {
    name: "413"
    type {
      tensor_type {
        elem_type: FLOAT
        shape {
          dim {
            dim_value: 384
          }
        }
      }
    }
  }
  input {
    name: "414"
    type {
      tensor_type {
        elem_type: FLOAT
        shape {
          dim {
            dim_value: 448
          }
          dim {
            dim_value: 1280
          }
          dim {
            dim_value: 1
          }
          dim {
            dim_value: 1
          }
        }
      }
    }
  }
  input {
    name: "415"
    type {
      tensor_type {
        elem_type: FLOAT
        shape {
          dim {
            dim_value: 448
          }
        }
      }
    }
  }
  input {
    name: "416"
    type {
      tensor_type {
        elem_type: FLOAT
        shape {
          dim {
            dim_value: 448
          }
        }
      }
    }
  }
  input {
    name: "417"
    type {
      tensor_type {
        elem_type: FLOAT
        shape {
          dim {
            dim_value: 448
          }
        }
      }
    }
  }
  input {
    name: "418"
    type {
      tensor_type {
        elem_type: FLOAT
        shape {
          dim {
            dim_value: 448
          }
        }
      }
    }
  }
  input {
    name: "419"
    type {
      tensor_type {
        elem_type: FLOAT
        shape {
          dim {
            dim_value: 384
          }
          dim {
            dim_value: 448
          }
          dim {
            dim_value: 3
          }
          dim {
            dim_value: 3
          }
        }
      }
    }
  }
  input {
    name: "420"
    type {
      tensor_type {
        elem_type: FLOAT
        shape {
          dim {
            dim_value: 384
          }
        }
      }
    }
  }
  input {
    name: "421"
    type {
      tensor_type {
        elem_type: FLOAT
        shape {
          dim {
            dim_value: 384
          }
        }
      }
    }
  }
  input {
    name: "422"
    type {
      tensor_type {
        elem_type: FLOAT
        shape {
          dim {
            dim_value: 384
          }
        }
      }
    }
  }
  input {
    name: "423"
    type {
      tensor_type {
        elem_type: FLOAT
        shape {
          dim {
            dim_value: 384
          }
        }
      }
    }
  }
  input {
    name: "424"
    type {
      tensor_type {
        elem_type: FLOAT
        shape {
          dim {
            dim_value: 384
          }
          dim {
            dim_value: 384
          }
          dim {
            dim_value: 1
          }
          dim {
            dim_value: 3
          }
        }
      }
    }
  }
  input {
    name: "425"
    type {
      tensor_type {
        elem_type: FLOAT
        shape {
          dim {
            dim_value: 384
          }
        }
      }
    }
  }
  input {
    name: "426"
    type {
      tensor_type {
        elem_type: FLOAT
        shape {
          dim {
            dim_value: 384
          }
        }
      }
    }
  }
  input {
    name: "427"
    type {
      tensor_type {
        elem_type: FLOAT
        shape {
          dim {
            dim_value: 384
          }
        }
      }
    }
  }
  input {
    name: "428"
    type {
      tensor_type {
        elem_type: FLOAT
        shape {
          dim {
            dim_value: 384
          }
        }
      }
    }
  }
  input {
    name: "429"
    type {
      tensor_type {
        elem_type: FLOAT
        shape {
          dim {
            dim_value: 384
          }
          dim {
            dim_value: 384
          }
          dim {
            dim_value: 3
          }
          dim {
            dim_value: 1
          }
        }
      }
    }
  }
  input {
    name: "430"
    type {
      tensor_type {
        elem_type: FLOAT
        shape {
          dim {
            dim_value: 384
          }
        }
      }
    }
  }
  input {
    name: "431"
    type {
      tensor_type {
        elem_type: FLOAT
        shape {
          dim {
            dim_value: 384
          }
        }
      }
    }
  }
  input {
    name: "432"
    type {
      tensor_type {
        elem_type: FLOAT
        shape {
          dim {
            dim_value: 384
          }
        }
      }
    }
  }
  input {
    name: "433"
    type {
      tensor_type {
        elem_type: FLOAT
        shape {
          dim {
            dim_value: 384
          }
        }
      }
    }
  }
  input {
    name: "434"
    type {
      tensor_type {
        elem_type: FLOAT
        shape {
          dim {
            dim_value: 192
          }
          dim {
            dim_value: 1280
          }
          dim {
            dim_value: 1
          }
          dim {
            dim_value: 1
          }
        }
      }
    }
  }
  input {
    name: "435"
    type {
      tensor_type {
        elem_type: FLOAT
        shape {
          dim {
            dim_value: 192
          }
        }
      }
    }
  }
  input {
    name: "436"
    type {
      tensor_type {
        elem_type: FLOAT
        shape {
          dim {
            dim_value: 192
          }
        }
      }
    }
  }
  input {
    name: "437"
    type {
      tensor_type {
        elem_type: FLOAT
        shape {
          dim {
            dim_value: 192
          }
        }
      }
    }
  }
  input {
    name: "438"
    type {
      tensor_type {
        elem_type: FLOAT
        shape {
          dim {
            dim_value: 192
          }
        }
      }
    }
  }
  input {
    name: "439"
    type {
      tensor_type {
        elem_type: FLOAT
        shape {
          dim {
            dim_value: 320
          }
          dim {
            dim_value: 2048
          }
          dim {
            dim_value: 1
          }
          dim {
            dim_value: 1
          }
        }
      }
    }
  }
  input {
    name: "440"
    type {
      tensor_type {
        elem_type: FLOAT
        shape {
          dim {
            dim_value: 320
          }
        }
      }
    }
  }
  input {
    name: "441"
    type {
      tensor_type {
        elem_type: FLOAT
        shape {
          dim {
            dim_value: 320
          }
        }
      }
    }
  }
  input {
    name: "442"
    type {
      tensor_type {
        elem_type: FLOAT
        shape {
          dim {
            dim_value: 320
          }
        }
      }
    }
  }
  input {
    name: "443"
    type {
      tensor_type {
        elem_type: FLOAT
        shape {
          dim {
            dim_value: 320
          }
        }
      }
    }
  }
  input {
    name: "444"
    type {
      tensor_type {
        elem_type: FLOAT
        shape {
          dim {
            dim_value: 384
          }
          dim {
            dim_value: 2048
          }
          dim {
            dim_value: 1
          }
          dim {
            dim_value: 1
          }
        }
      }
    }
  }
  input {
    name: "445"
    type {
      tensor_type {
        elem_type: FLOAT
        shape {
          dim {
            dim_value: 384
          }
        }
      }
    }
  }
  input {
    name: "446"
    type {
      tensor_type {
        elem_type: FLOAT
        shape {
          dim {
            dim_value: 384
          }
        }
      }
    }
  }
  input {
    name: "447"
    type {
      tensor_type {
        elem_type: FLOAT
        shape {
          dim {
            dim_value: 384
          }
        }
      }
    }
  }
  input {
    name: "448"
    type {
      tensor_type {
        elem_type: FLOAT
        shape {
          dim {
            dim_value: 384
          }
        }
      }
    }
  }
  input {
    name: "449"
    type {
      tensor_type {
        elem_type: FLOAT
        shape {
          dim {
            dim_value: 384
          }
          dim {
            dim_value: 384
          }
          dim {
            dim_value: 1
          }
          dim {
            dim_value: 3
          }
        }
      }
    }
  }
  input {
    name: "450"
    type {
      tensor_type {
        elem_type: FLOAT
        shape {
          dim {
            dim_value: 384
          }
        }
      }
    }
  }
  input {
    name: "451"
    type {
      tensor_type {
        elem_type: FLOAT
        shape {
          dim {
            dim_value: 384
          }
        }
      }
    }
  }
  input {
    name: "452"
    type {
      tensor_type {
        elem_type: FLOAT
        shape {
          dim {
            dim_value: 384
          }
        }
      }
    }
  }
  input {
    name: "453"
    type {
      tensor_type {
        elem_type: FLOAT
        shape {
          dim {
            dim_value: 384
          }
        }
      }
    }
  }
  input {
    name: "454"
    type {
      tensor_type {
        elem_type: FLOAT
        shape {
          dim {
            dim_value: 384
          }
          dim {
            dim_value: 384
          }
          dim {
            dim_value: 3
          }
          dim {
            dim_value: 1
          }
        }
      }
    }
  }
  input {
    name: "455"
    type {
      tensor_type {
        elem_type: FLOAT
        shape {
          dim {
            dim_value: 384
          }
        }
      }
    }
  }
  input {
    name: "456"
    type {
      tensor_type {
        elem_type: FLOAT
        shape {
          dim {
            dim_value: 384
          }
        }
      }
    }
  }
  input {
    name: "457"
    type {
      tensor_type {
        elem_type: FLOAT
        shape {
          dim {
            dim_value: 384
          }
        }
      }
    }
  }
  input {
    name: "458"
    type {
      tensor_type {
        elem_type: FLOAT
        shape {
          dim {
            dim_value: 384
          }
        }
      }
    }
  }
  input {
    name: "459"
    type {
      tensor_type {
        elem_type: FLOAT
        shape {
          dim {
            dim_value: 448
          }
          dim {
            dim_value: 2048
          }
          dim {
            dim_value: 1
          }
          dim {
            dim_value: 1
          }
        }
      }
    }
  }
  input {
    name: "460"
    type {
      tensor_type {
        elem_type: FLOAT
        shape {
          dim {
            dim_value: 448
          }
        }
      }
    }
  }
  input {
    name: "461"
    type {
      tensor_type {
        elem_type: FLOAT
        shape {
          dim {
            dim_value: 448
          }
        }
      }
    }
  }
  input {
    name: "462"
    type {
      tensor_type {
        elem_type: FLOAT
        shape {
          dim {
            dim_value: 448
          }
        }
      }
    }
  }
  input {
    name: "463"
    type {
      tensor_type {
        elem_type: FLOAT
        shape {
          dim {
            dim_value: 448
          }
        }
      }
    }
  }
  input {
    name: "464"
    type {
      tensor_type {
        elem_type: FLOAT
        shape {
          dim {
            dim_value: 384
          }
          dim {
            dim_value: 448
          }
          dim {
            dim_value: 3
          }
          dim {
            dim_value: 3
          }
        }
      }
    }
  }
  input {
    name: "465"
    type {
      tensor_type {
        elem_type: FLOAT
        shape {
          dim {
            dim_value: 384
          }
        }
      }
    }
  }
  input {
    name: "466"
    type {
      tensor_type {
        elem_type: FLOAT
        shape {
          dim {
            dim_value: 384
          }
        }
      }
    }
  }
  input {
    name: "467"
    type {
      tensor_type {
        elem_type: FLOAT
        shape {
          dim {
            dim_value: 384
          }
        }
      }
    }
  }
  input {
    name: "468"
    type {
      tensor_type {
        elem_type: FLOAT
        shape {
          dim {
            dim_value: 384
          }
        }
      }
    }
  }
  input {
    name: "469"
    type {
      tensor_type {
        elem_type: FLOAT
        shape {
          dim {
            dim_value: 384
          }
          dim {
            dim_value: 384
          }
          dim {
            dim_value: 1
          }
          dim {
            dim_value: 3
          }
        }
      }
    }
  }
  input {
    name: "470"
    type {
      tensor_type {
        elem_type: FLOAT
        shape {
          dim {
            dim_value: 384
          }
        }
      }
    }
  }
  input {
    name: "471"
    type {
      tensor_type {
        elem_type: FLOAT
        shape {
          dim {
            dim_value: 384
          }
        }
      }
    }
  }
  input {
    name: "472"
    type {
      tensor_type {
        elem_type: FLOAT
        shape {
          dim {
            dim_value: 384
          }
        }
      }
    }
  }
  input {
    name: "473"
    type {
      tensor_type {
        elem_type: FLOAT
        shape {
          dim {
            dim_value: 384
          }
        }
      }
    }
  }
  input {
    name: "474"
    type {
      tensor_type {
        elem_type: FLOAT
        shape {
          dim {
            dim_value: 384
          }
          dim {
            dim_value: 384
          }
          dim {
            dim_value: 3
          }
          dim {
            dim_value: 1
          }
        }
      }
    }
  }
  input {
    name: "475"
    type {
      tensor_type {
        elem_type: FLOAT
        shape {
          dim {
            dim_value: 384
          }
        }
      }
    }
  }
  input {
    name: "476"
    type {
      tensor_type {
        elem_type: FLOAT
        shape {
          dim {
            dim_value: 384
          }
        }
      }
    }
  }
  input {
    name: "477"
    type {
      tensor_type {
        elem_type: FLOAT
        shape {
          dim {
            dim_value: 384
          }
        }
      }
    }
  }
  input {
    name: "478"
    type {
      tensor_type {
        elem_type: FLOAT
        shape {
          dim {
            dim_value: 384
          }
        }
      }
    }
  }
  input {
    name: "479"
    type {
      tensor_type {
        elem_type: FLOAT
        shape {
          dim {
            dim_value: 192
          }
          dim {
            dim_value: 2048
          }
          dim {
            dim_value: 1
          }
          dim {
            dim_value: 1
          }
        }
      }
    }
  }
  input {
    name: "480"
    type {
      tensor_type {
        elem_type: FLOAT
        shape {
          dim {
            dim_value: 192
          }
        }
      }
    }
  }
  input {
    name: "481"
    type {
      tensor_type {
        elem_type: FLOAT
        shape {
          dim {
            dim_value: 192
          }
        }
      }
    }
  }
  input {
    name: "482"
    type {
      tensor_type {
        elem_type: FLOAT
        shape {
          dim {
            dim_value: 192
          }
        }
      }
    }
  }
  input {
    name: "483"
    type {
      tensor_type {
        elem_type: FLOAT
        shape {
          dim {
            dim_value: 192
          }
        }
      }
    }
  }
  input {
    name: "484"
    type {
      tensor_type {
        elem_type: FLOAT
        shape {
          dim {
            dim_value: 1000
          }
          dim {
            dim_value: 2048
          }
        }
      }
    }
  }
  input {
    name: "485"
    type {
      tensor_type {
        elem_type: FLOAT
        shape {
          dim {
            dim_value: 1000
          }
        }
      }
    }
  }
  output {
    name: "1007"
    type {
      tensor_type {
        elem_type: FLOAT
        shape {
          dim {
            dim_value: 2
          }
          dim {
            dim_value: 1000
          }
        }
      }
    }
  }
}
