ir_version: 1
producer_name: "pytorch"
producer_version: "0.2"
domain: "com.facebook"
graph {
  node {
    input: "4"
    input: "1"
    output: "27"
    op_type: "Gather"
  }
  node {
    input: "27"
    output: "29"
    output: "30"
    op_type: "Dropout"
    attribute {
      name: "ratio"
      f: 0.200000002980232
    }
    attribute {
      name: "is_test"
      i: 1
    }
  }
  node {
    output: "31"
    op_type: "Constant"
    attribute {
      name: "value"
      t {
        dims: 1
        data_type: INT32
        raw_data: "\000\000\000\000"
      }
    }
  }
  node {
    output: "32"
    op_type: "Constant"
    attribute {
      name: "value"
      t {
        dims: 1
        data_type: INT64
        raw_data: "\000\000\000\000\000\000\000\000"
      }
    }
  }
  node {
    output: "33"
    op_type: "Constant"
    attribute {
      name: "value"
      t {
        dims: 1
        data_type: INT64
        raw_data: "\001\000\000\000\000\000\000\000"
      }
    }
  }
  node {
    input: "2"
    input: "31"
    input: "32"
    input: "33"
    output: "34"
    op_type: "Slice"
  }
  node {
    input: "34"
    output: "35"
    op_type: "Squeeze"
    attribute {
      name: "axes"
      ints: 0
    }
  }
  node {
    output: "36"
    op_type: "Constant"
    attribute {
      name: "value"
      t {
        dims: 1
        data_type: INT32
        raw_data: "\000\000\000\000"
      }
    }
  }
  node {
    output: "37"
    op_type: "Constant"
    attribute {
      name: "value"
      t {
        dims: 1
        data_type: INT64
        raw_data: "\000\000\000\000\000\000\000\000"
      }
    }
  }
  node {
    output: "38"
    op_type: "Constant"
    attribute {
      name: "value"
      t {
        dims: 1
        data_type: INT64
        raw_data: "\001\000\000\000\000\000\000\000"
      }
    }
  }
  node {
    input: "3"
    input: "36"
    input: "37"
    input: "38"
    output: "39"
    op_type: "Slice"
  }
  node {
    input: "39"
    output: "40"
    op_type: "Squeeze"
    attribute {
      name: "axes"
      ints: 0
    }
  }
  node {
    output: "41"
    op_type: "Constant"
    attribute {
      name: "value"
      t {
        dims: 1
        data_type: INT32
        raw_data: "\000\000\000\000"
      }
    }
  }
  node {
    output: "42"
    op_type: "Constant"
    attribute {
      name: "value"
      t {
        dims: 1
        data_type: INT64
        raw_data: "\001\000\000\000\000\000\000\000"
      }
    }
  }
  node {
    output: "43"
    op_type: "Constant"
    attribute {
      name: "value"
      t {
        dims: 1
        data_type: INT64
        raw_data: "\002\000\000\000\000\000\000\000"
      }
    }
  }
  node {
    input: "2"
    input: "41"
    input: "42"
    input: "43"
    output: "44"
    op_type: "Slice"
  }
  node {
    input: "44"
    output: "45"
    op_type: "Squeeze"
    attribute {
      name: "axes"
      ints: 0
    }
  }
  node {
    output: "46"
    op_type: "Constant"
    attribute {
      name: "value"
      t {
        dims: 1
        data_type: INT32
        raw_data: "\000\000\000\000"
      }
    }
  }
  node {
    output: "47"
    op_type: "Constant"
    attribute {
      name: "value"
      t {
        dims: 1
        data_type: INT64
        raw_data: "\001\000\000\000\000\000\000\000"
      }
    }
  }
  node {
    output: "48"
    op_type: "Constant"
    attribute {
      name: "value"
      t {
        dims: 1
        data_type: INT64
        raw_data: "\002\000\000\000\000\000\000\000"
      }
    }
  }
  node {
    input: "3"
    input: "46"
    input: "47"
    input: "48"
    output: "49"
    op_type: "Slice"
  }
  node {
    input: "49"
    output: "50"
    op_type: "Squeeze"
    attribute {
      name: "axes"
      ints: 0
    }
  }
  node {
    output: "51"
    op_type: "Constant"
    attribute {
      name: "value"
      t {
        dims: 1
        data_type: INT32
        raw_data: "\000\000\000\000"
      }
    }
  }
  node {
    output: "52"
    op_type: "Constant"
    attribute {
      name: "value"
      t {
        dims: 1
        data_type: INT64
        raw_data: "\002\000\000\000\000\000\000\000"
      }
    }
  }
  node {
    output: "53"
    op_type: "Constant"
    attribute {
      name: "value"
      t {
        dims: 1
        data_type: INT64
        raw_data: "\003\000\000\000\000\000\000\000"
      }
    }
  }
  node {
    input: "2"
    input: "51"
    input: "52"
    input: "53"
    output: "54"
    op_type: "Slice"
  }
  node {
    input: "54"
    output: "55"
    op_type: "Squeeze"
    attribute {
      name: "axes"
      ints: 0
    }
  }
  node {
    output: "56"
    op_type: "Constant"
    attribute {
      name: "value"
      t {
        dims: 1
        data_type: INT32
        raw_data: "\000\000\000\000"
      }
    }
  }
  node {
    output: "57"
    op_type: "Constant"
    attribute {
      name: "value"
      t {
        dims: 1
        data_type: INT64
        raw_data: "\002\000\000\000\000\000\000\000"
      }
    }
  }
  node {
    output: "58"
    op_type: "Constant"
    attribute {
      name: "value"
      t {
        dims: 1
        data_type: INT64
        raw_data: "\003\000\000\000\000\000\000\000"
      }
    }
  }
  node {
    input: "3"
    input: "56"
    input: "57"
    input: "58"
    output: "59"
    op_type: "Slice"
  }
  node {
    input: "59"
    output: "60"
    op_type: "Squeeze"
    attribute {
      name: "axes"
      ints: 0
    }
  }
  node {
    output: "61"
    op_type: "Constant"
    attribute {
      name: "value"
      t {
        dims: 1
        data_type: INT32
        raw_data: "\000\000\000\000"
      }
    }
  }
  node {
    output: "62"
    op_type: "Constant"
    attribute {
      name: "value"
      t {
        dims: 1
        data_type: INT64
        raw_data: "\003\000\000\000\000\000\000\000"
      }
    }
  }
  node {
    output: "63"
    op_type: "Constant"
    attribute {
      name: "value"
      t {
        dims: 1
        data_type: INT64
        raw_data: "\004\000\000\000\000\000\000\000"
      }
    }
  }
  node {
    input: "2"
    input: "61"
    input: "62"
    input: "63"
    output: "64"
    op_type: "Slice"
  }
  node {
    input: "64"
    output: "65"
    op_type: "Squeeze"
    attribute {
      name: "axes"
      ints: 0
    }
  }
  node {
    output: "66"
    op_type: "Constant"
    attribute {
      name: "value"
      t {
        dims: 1
        data_type: INT32
        raw_data: "\000\000\000\000"
      }
    }
  }
  node {
    output: "67"
    op_type: "Constant"
    attribute {
      name: "value"
      t {
        dims: 1
        data_type: INT64
        raw_data: "\003\000\000\000\000\000\000\000"
      }
    }
  }
  node {
    output: "68"
    op_type: "Constant"
    attribute {
      name: "value"
      t {
        dims: 1
        data_type: INT64
        raw_data: "\004\000\000\000\000\000\000\000"
      }
    }
  }
  node {
    input: "3"
    input: "66"
    input: "67"
    input: "68"
    output: "69"
    op_type: "Slice"
  }
  node {
    input: "69"
    output: "70"
    op_type: "Squeeze"
    attribute {
      name: "axes"
      ints: 0
    }
  }
  node {
    output: "71"
    op_type: "Constant"
    attribute {
      name: "value"
      t {
        dims: 1
        data_type: INT32
        raw_data: "\000\000\000\000"
      }
    }
  }
  node {
    output: "72"
    op_type: "Constant"
    attribute {
      name: "value"
      t {
        dims: 1
        data_type: INT64
        raw_data: "\004\000\000\000\000\000\000\000"
      }
    }
  }
  node {
    output: "73"
    op_type: "Constant"
    attribute {
      name: "value"
      t {
        dims: 1
        data_type: INT64
        raw_data: "\005\000\000\000\000\000\000\000"
      }
    }
  }
  node {
    input: "2"
    input: "71"
    input: "72"
    input: "73"
    output: "74"
    op_type: "Slice"
  }
  node {
    input: "74"
    output: "75"
    op_type: "Squeeze"
    attribute {
      name: "axes"
      ints: 0
    }
  }
  node {
    output: "76"
    op_type: "Constant"
    attribute {
      name: "value"
      t {
        dims: 1
        data_type: INT32
        raw_data: "\000\000\000\000"
      }
    }
  }
  node {
    output: "77"
    op_type: "Constant"
    attribute {
      name: "value"
      t {
        dims: 1
        data_type: INT64
        raw_data: "\004\000\000\000\000\000\000\000"
      }
    }
  }
  node {
    output: "78"
    op_type: "Constant"
    attribute {
      name: "value"
      t {
        dims: 1
        data_type: INT64
        raw_data: "\005\000\000\000\000\000\000\000"
      }
    }
  }
  node {
    input: "3"
    input: "76"
    input: "77"
    input: "78"
    output: "79"
    op_type: "Slice"
  }
  node {
    input: "79"
    output: "80"
    op_type: "Squeeze"
    attribute {
      name: "axes"
      ints: 0
    }
  }
  node {
    output: "81"
    op_type: "Constant"
    attribute {
      name: "value"
      t {
        dims: 1
        data_type: INT32
        raw_data: "\000\000\000\000"
      }
    }
  }
  node {
    output: "82"
    op_type: "Constant"
    attribute {
      name: "value"
      t {
        dims: 1
        data_type: INT64
        raw_data: "\000\000\000\000\000\000\000\000"
      }
    }
  }
  node {
    output: "83"
    op_type: "Constant"
    attribute {
      name: "value"
      t {
        dims: 1
        data_type: INT64
        raw_data: "\001\000\000\000\000\000\000\000"
      }
    }
  }
  node {
    input: "29"
    input: "81"
    input: "82"
    input: "83"
    output: "84"
    op_type: "Slice"
  }
  node {
    input: "84"
    output: "85"
    op_type: "Squeeze"
    attribute {
      name: "axes"
      ints: 0
    }
  }
  node {
    input: "5"
    output: "86"
    op_type: "Transpose"
    attribute {
      name: "perm"
      ints: 1
      ints: 0
    }
  }
  node {
    input: "85"
    input: "86"
    input: "7"
    output: "87"
    op_type: "Gemm"
    attribute {
      name: "alpha"
      f: 1
    }
    attribute {
      name: "beta"
      f: 1
    }
    attribute {
      name: "broadcast"
      i: 1
    }
  }
  node {
    input: "6"
    output: "88"
    op_type: "Transpose"
    attribute {
      name: "perm"
      ints: 1
      ints: 0
    }
  }
  node {
    input: "35"
    input: "88"
    input: "8"
    output: "89"
    op_type: "Gemm"
    attribute {
      name: "alpha"
      f: 1
    }
    attribute {
      name: "beta"
      f: 1
    }
    attribute {
      name: "broadcast"
      i: 1
    }
  }
  node {
    input: "87"
    input: "89"
    output: "90"
    op_type: "Add"
  }
  node {
    input: "90"
    output: "92"
    output: "93"
    output: "94"
    output: "95"
    op_type: "Split"
    attribute {
      name: "axis"
      i: 1
    }
    attribute {
      name: "split"
      ints: 5
      ints: 5
      ints: 5
      ints: 5
    }
  }
  node {
    input: "92"
    output: "96"
    op_type: "Sigmoid"
  }
  node {
    input: "93"
    output: "97"
    op_type: "Sigmoid"
  }
  node {
    input: "94"
    output: "98"
    op_type: "Tanh"
  }
  node {
    input: "95"
    output: "99"
    op_type: "Sigmoid"
  }
  node {
    input: "97"
    input: "40"
    output: "100"
    op_type: "Mul"
  }
  node {
    input: "96"
    input: "98"
    output: "101"
    op_type: "Mul"
  }
  node {
    input: "100"
    input: "101"
    output: "102"
    op_type: "Add"
  }
  node {
    input: "102"
    output: "103"
    op_type: "Tanh"
  }
  node {
    input: "99"
    input: "103"
    output: "104"
    op_type: "Mul"
  }
  node {
    output: "105"
    op_type: "Constant"
    attribute {
      name: "value"
      t {
        dims: 1
        data_type: INT32
        raw_data: "\000\000\000\000"
      }
    }
  }
  node {
    output: "106"
    op_type: "Constant"
    attribute {
      name: "value"
      t {
        dims: 1
        data_type: INT64
        raw_data: "\001\000\000\000\000\000\000\000"
      }
    }
  }
  node {
    output: "107"
    op_type: "Constant"
    attribute {
      name: "value"
      t {
        dims: 1
        data_type: INT64
        raw_data: "\002\000\000\000\000\000\000\000"
      }
    }
  }
  node {
    input: "29"
    input: "105"
    input: "106"
    input: "107"
    output: "108"
    op_type: "Slice"
  }
  node {
    input: "108"
    output: "109"
    op_type: "Squeeze"
    attribute {
      name: "axes"
      ints: 0
    }
  }
  node {
    input: "5"
    output: "110"
    op_type: "Transpose"
    attribute {
      name: "perm"
      ints: 1
      ints: 0
    }
  }
  node {
    input: "109"
    input: "110"
    input: "7"
    output: "111"
    op_type: "Gemm"
    attribute {
      name: "alpha"
      f: 1
    }
    attribute {
      name: "beta"
      f: 1
    }
    attribute {
      name: "broadcast"
      i: 1
    }
  }
  node {
    input: "6"
    output: "112"
    op_type: "Transpose"
    attribute {
      name: "perm"
      ints: 1
      ints: 0
    }
  }
  node {
    input: "104"
    input: "112"
    input: "8"
    output: "113"
    op_type: "Gemm"
    attribute {
      name: "alpha"
      f: 1
    }
    attribute {
      name: "beta"
      f: 1
    }
    attribute {
      name: "broadcast"
      i: 1
    }
  }
  node {
    input: "111"
    input: "113"
    output: "114"
    op_type: "Add"
  }
  node {
    input: "114"
    output: "116"
    output: "117"
    output: "118"
    output: "119"
    op_type: "Split"
    attribute {
      name: "axis"
      i: 1
    }
    attribute {
      name: "split"
      ints: 5
      ints: 5
      ints: 5
      ints: 5
    }
  }
  node {
    input: "116"
    output: "120"
    op_type: "Sigmoid"
  }
  node {
    input: "117"
    output: "121"
    op_type: "Sigmoid"
  }
  node {
    input: "118"
    output: "122"
    op_type: "Tanh"
  }
  node {
    input: "119"
    output: "123"
    op_type: "Sigmoid"
  }
  node {
    input: "121"
    input: "102"
    output: "124"
    op_type: "Mul"
  }
  node {
    input: "120"
    input: "122"
    output: "125"
    op_type: "Mul"
  }
  node {
    input: "124"
    input: "125"
    output: "126"
    op_type: "Add"
  }
  node {
    input: "126"
    output: "127"
    op_type: "Tanh"
  }
  node {
    input: "123"
    input: "127"
    output: "128"
    op_type: "Mul"
  }
  node {
    output: "129"
    op_type: "Constant"
    attribute {
      name: "value"
      t {
        dims: 1
        data_type: INT32
        raw_data: "\000\000\000\000"
      }
    }
  }
  node {
    output: "130"
    op_type: "Constant"
    attribute {
      name: "value"
      t {
        dims: 1
        data_type: INT64
        raw_data: "\002\000\000\000\000\000\000\000"
      }
    }
  }
  node {
    output: "131"
    op_type: "Constant"
    attribute {
      name: "value"
      t {
        dims: 1
        data_type: INT64
        raw_data: "\003\000\000\000\000\000\000\000"
      }
    }
  }
  node {
    input: "29"
    input: "129"
    input: "130"
    input: "131"
    output: "132"
    op_type: "Slice"
  }
  node {
    input: "132"
    output: "133"
    op_type: "Squeeze"
    attribute {
      name: "axes"
      ints: 0
    }
  }
  node {
    input: "5"
    output: "134"
    op_type: "Transpose"
    attribute {
      name: "perm"
      ints: 1
      ints: 0
    }
  }
  node {
    input: "133"
    input: "134"
    input: "7"
    output: "135"
    op_type: "Gemm"
    attribute {
      name: "alpha"
      f: 1
    }
    attribute {
      name: "beta"
      f: 1
    }
    attribute {
      name: "broadcast"
      i: 1
    }
  }
  node {
    input: "6"
    output: "136"
    op_type: "Transpose"
    attribute {
      name: "perm"
      ints: 1
      ints: 0
    }
  }
  node {
    input: "128"
    input: "136"
    input: "8"
    output: "137"
    op_type: "Gemm"
    attribute {
      name: "alpha"
      f: 1
    }
    attribute {
      name: "beta"
      f: 1
    }
    attribute {
      name: "broadcast"
      i: 1
    }
  }
  node {
    input: "135"
    input: "137"
    output: "138"
    op_type: "Add"
  }
  node {
    input: "138"
    output: "140"
    output: "141"
    output: "142"
    output: "143"
    op_type: "Split"
    attribute {
      name: "axis"
      i: 1
    }
    attribute {
      name: "split"
      ints: 5
      ints: 5
      ints: 5
      ints: 5
    }
  }
  node {
    input: "140"
    output: "144"
    op_type: "Sigmoid"
  }
  node {
    input: "141"
    output: "145"
    op_type: "Sigmoid"
  }
  node {
    input: "142"
    output: "146"
    op_type: "Tanh"
  }
  node {
    input: "143"
    output: "147"
    op_type: "Sigmoid"
  }
  node {
    input: "145"
    input: "126"
    output: "148"
    op_type: "Mul"
  }
  node {
    input: "144"
    input: "146"
    output: "149"
    op_type: "Mul"
  }
  node {
    input: "148"
    input: "149"
    output: "150"
    op_type: "Add"
  }
  node {
    input: "150"
    output: "151"
    op_type: "Tanh"
  }
  node {
    input: "147"
    input: "151"
    output: "152"
    op_type: "Mul"
  }
  node {
    output: "153"
    op_type: "Constant"
    attribute {
      name: "value"
      t {
        dims: 1
        data_type: INT32
        raw_data: "\000\000\000\000"
      }
    }
  }
  node {
    output: "154"
    op_type: "Constant"
    attribute {
      name: "value"
      t {
        dims: 1
        data_type: INT64
        raw_data: "\003\000\000\000\000\000\000\000"
      }
    }
  }
  node {
    output: "155"
    op_type: "Constant"
    attribute {
      name: "value"
      t {
        dims: 1
        data_type: INT64
        raw_data: "\004\000\000\000\000\000\000\000"
      }
    }
  }
  node {
    input: "29"
    input: "153"
    input: "154"
    input: "155"
    output: "156"
    op_type: "Slice"
  }
  node {
    input: "156"
    output: "157"
    op_type: "Squeeze"
    attribute {
      name: "axes"
      ints: 0
    }
  }
  node {
    input: "5"
    output: "158"
    op_type: "Transpose"
    attribute {
      name: "perm"
      ints: 1
      ints: 0
    }
  }
  node {
    input: "157"
    input: "158"
    input: "7"
    output: "159"
    op_type: "Gemm"
    attribute {
      name: "alpha"
      f: 1
    }
    attribute {
      name: "beta"
      f: 1
    }
    attribute {
      name: "broadcast"
      i: 1
    }
  }
  node {
    input: "6"
    output: "160"
    op_type: "Transpose"
    attribute {
      name: "perm"
      ints: 1
      ints: 0
    }
  }
  node {
    input: "152"
    input: "160"
    input: "8"
    output: "161"
    op_type: "Gemm"
    attribute {
      name: "alpha"
      f: 1
    }
    attribute {
      name: "beta"
      f: 1
    }
    attribute {
      name: "broadcast"
      i: 1
    }
  }
  node {
    input: "159"
    input: "161"
    output: "162"
    op_type: "Add"
  }
  node {
    input: "162"
    output: "164"
    output: "165"
    output: "166"
    output: "167"
    op_type: "Split"
    attribute {
      name: "axis"
      i: 1
    }
    attribute {
      name: "split"
      ints: 5
      ints: 5
      ints: 5
      ints: 5
    }
  }
  node {
    input: "164"
    output: "168"
    op_type: "Sigmoid"
  }
  node {
    input: "165"
    output: "169"
    op_type: "Sigmoid"
  }
  node {
    input: "166"
    output: "170"
    op_type: "Tanh"
  }
  node {
    input: "167"
    output: "171"
    op_type: "Sigmoid"
  }
  node {
    input: "169"
    input: "150"
    output: "172"
    op_type: "Mul"
  }
  node {
    input: "168"
    input: "170"
    output: "173"
    op_type: "Mul"
  }
  node {
    input: "172"
    input: "173"
    output: "174"
    op_type: "Add"
  }
  node {
    input: "174"
    output: "175"
    op_type: "Tanh"
  }
  node {
    input: "171"
    input: "175"
    output: "176"
    op_type: "Mul"
  }
  node {
    output: "177"
    op_type: "Constant"
    attribute {
      name: "value"
      t {
        dims: 1
        data_type: INT32
        raw_data: "\000\000\000\000"
      }
    }
  }
  node {
    output: "178"
    op_type: "Constant"
    attribute {
      name: "value"
      t {
        dims: 1
        data_type: INT64
        raw_data: "\004\000\000\000\000\000\000\000"
      }
    }
  }
  node {
    output: "179"
    op_type: "Constant"
    attribute {
      name: "value"
      t {
        dims: 1
        data_type: INT64
        raw_data: "\005\000\000\000\000\000\000\000"
      }
    }
  }
  node {
    input: "29"
    input: "177"
    input: "178"
    input: "179"
    output: "180"
    op_type: "Slice"
  }
  node {
    input: "180"
    output: "181"
    op_type: "Squeeze"
    attribute {
      name: "axes"
      ints: 0
    }
  }
  node {
    input: "5"
    output: "182"
    op_type: "Transpose"
    attribute {
      name: "perm"
      ints: 1
      ints: 0
    }
  }
  node {
    input: "181"
    input: "182"
    input: "7"
    output: "183"
    op_type: "Gemm"
    attribute {
      name: "alpha"
      f: 1
    }
    attribute {
      name: "beta"
      f: 1
    }
    attribute {
      name: "broadcast"
      i: 1
    }
  }
  node {
    input: "6"
    output: "184"
    op_type: "Transpose"
    attribute {
      name: "perm"
      ints: 1
      ints: 0
    }
  }
  node {
    input: "176"
    input: "184"
    input: "8"
    output: "185"
    op_type: "Gemm"
    attribute {
      name: "alpha"
      f: 1
    }
    attribute {
      name: "beta"
      f: 1
    }
    attribute {
      name: "broadcast"
      i: 1
    }
  }
  node {
    input: "183"
    input: "185"
    output: "186"
    op_type: "Add"
  }
  node {
    input: "186"
    output: "188"
    output: "189"
    output: "190"
    output: "191"
    op_type: "Split"
    attribute {
      name: "axis"
      i: 1
    }
    attribute {
      name: "split"
      ints: 5
      ints: 5
      ints: 5
      ints: 5
    }
  }
  node {
    input: "188"
    output: "192"
    op_type: "Sigmoid"
  }
  node {
    input: "189"
    output: "193"
    op_type: "Sigmoid"
  }
  node {
    input: "190"
    output: "194"
    op_type: "Tanh"
  }
  node {
    input: "191"
    output: "195"
    op_type: "Sigmoid"
  }
  node {
    input: "193"
    input: "174"
    output: "196"
    op_type: "Mul"
  }
  node {
    input: "192"
    input: "194"
    output: "197"
    op_type: "Mul"
  }
  node {
    input: "196"
    input: "197"
    output: "198"
    op_type: "Add"
  }
  node {
    input: "198"
    output: "199"
    op_type: "Tanh"
  }
  node {
    input: "195"
    input: "199"
    output: "200"
    op_type: "Mul"
  }
  node {
    output: "201"
    op_type: "Constant"
    attribute {
      name: "value"
      t {
        dims: 1
        data_type: INT32
        raw_data: "\000\000\000\000"
      }
    }
  }
  node {
    output: "202"
    op_type: "Constant"
    attribute {
      name: "value"
      t {
        dims: 1
        data_type: INT64
        raw_data: "\005\000\000\000\000\000\000\000"
      }
    }
  }
  node {
    output: "203"
    op_type: "Constant"
    attribute {
      name: "value"
      t {
        dims: 1
        data_type: INT64
        raw_data: "\006\000\000\000\000\000\000\000"
      }
    }
  }
  node {
    input: "29"
    input: "201"
    input: "202"
    input: "203"
    output: "204"
    op_type: "Slice"
  }
  node {
    input: "204"
    output: "205"
    op_type: "Squeeze"
    attribute {
      name: "axes"
      ints: 0
    }
  }
  node {
    input: "5"
    output: "206"
    op_type: "Transpose"
    attribute {
      name: "perm"
      ints: 1
      ints: 0
    }
  }
  node {
    input: "205"
    input: "206"
    input: "7"
    output: "207"
    op_type: "Gemm"
    attribute {
      name: "alpha"
      f: 1
    }
    attribute {
      name: "beta"
      f: 1
    }
    attribute {
      name: "broadcast"
      i: 1
    }
  }
  node {
    input: "6"
    output: "208"
    op_type: "Transpose"
    attribute {
      name: "perm"
      ints: 1
      ints: 0
    }
  }
  node {
    input: "200"
    input: "208"
    input: "8"
    output: "209"
    op_type: "Gemm"
    attribute {
      name: "alpha"
      f: 1
    }
    attribute {
      name: "beta"
      f: 1
    }
    attribute {
      name: "broadcast"
      i: 1
    }
  }
  node {
    input: "207"
    input: "209"
    output: "210"
    op_type: "Add"
  }
  node {
    input: "210"
    output: "212"
    output: "213"
    output: "214"
    output: "215"
    op_type: "Split"
    attribute {
      name: "axis"
      i: 1
    }
    attribute {
      name: "split"
      ints: 5
      ints: 5
      ints: 5
      ints: 5
    }
  }
  node {
    input: "212"
    output: "216"
    op_type: "Sigmoid"
  }
  node {
    input: "213"
    output: "217"
    op_type: "Sigmoid"
  }
  node {
    input: "214"
    output: "218"
    op_type: "Tanh"
  }
  node {
    input: "215"
    output: "219"
    op_type: "Sigmoid"
  }
  node {
    input: "217"
    input: "198"
    output: "220"
    op_type: "Mul"
  }
  node {
    input: "216"
    input: "218"
    output: "221"
    op_type: "Mul"
  }
  node {
    input: "220"
    input: "221"
    output: "222"
    op_type: "Add"
  }
  node {
    input: "222"
    output: "223"
    op_type: "Tanh"
  }
  node {
    input: "219"
    input: "223"
    output: "224"
    op_type: "Mul"
  }
  node {
    output: "225"
    op_type: "Constant"
    attribute {
      name: "value"
      t {
        dims: 1
        data_type: INT32
        raw_data: "\000\000\000\000"
      }
    }
  }
  node {
    output: "226"
    op_type: "Constant"
    attribute {
      name: "value"
      t {
        dims: 1
        data_type: INT64
        raw_data: "\006\000\000\000\000\000\000\000"
      }
    }
  }
  node {
    output: "227"
    op_type: "Constant"
    attribute {
      name: "value"
      t {
        dims: 1
        data_type: INT64
        raw_data: "\007\000\000\000\000\000\000\000"
      }
    }
  }
  node {
    input: "29"
    input: "225"
    input: "226"
    input: "227"
    output: "228"
    op_type: "Slice"
  }
  node {
    input: "228"
    output: "229"
    op_type: "Squeeze"
    attribute {
      name: "axes"
      ints: 0
    }
  }
  node {
    input: "5"
    output: "230"
    op_type: "Transpose"
    attribute {
      name: "perm"
      ints: 1
      ints: 0
    }
  }
  node {
    input: "229"
    input: "230"
    input: "7"
    output: "231"
    op_type: "Gemm"
    attribute {
      name: "alpha"
      f: 1
    }
    attribute {
      name: "beta"
      f: 1
    }
    attribute {
      name: "broadcast"
      i: 1
    }
  }
  node {
    input: "6"
    output: "232"
    op_type: "Transpose"
    attribute {
      name: "perm"
      ints: 1
      ints: 0
    }
  }
  node {
    input: "224"
    input: "232"
    input: "8"
    output: "233"
    op_type: "Gemm"
    attribute {
      name: "alpha"
      f: 1
    }
    attribute {
      name: "beta"
      f: 1
    }
    attribute {
      name: "broadcast"
      i: 1
    }
  }
  node {
    input: "231"
    input: "233"
    output: "234"
    op_type: "Add"
  }
  node {
    input: "234"
    output: "236"
    output: "237"
    output: "238"
    output: "239"
    op_type: "Split"
    attribute {
      name: "axis"
      i: 1
    }
    attribute {
      name: "split"
      ints: 5
      ints: 5
      ints: 5
      ints: 5
    }
  }
  node {
    input: "236"
    output: "240"
    op_type: "Sigmoid"
  }
  node {
    input: "237"
    output: "241"
    op_type: "Sigmoid"
  }
  node {
    input: "238"
    output: "242"
    op_type: "Tanh"
  }
  node {
    input: "239"
    output: "243"
    op_type: "Sigmoid"
  }
  node {
    input: "241"
    input: "222"
    output: "244"
    op_type: "Mul"
  }
  node {
    input: "240"
    input: "242"
    output: "245"
    op_type: "Mul"
  }
  node {
    input: "244"
    input: "245"
    output: "246"
    op_type: "Add"
  }
  node {
    input: "246"
    output: "247"
    op_type: "Tanh"
  }
  node {
    input: "243"
    input: "247"
    output: "248"
    op_type: "Mul"
  }
  node {
    output: "249"
    op_type: "Constant"
    attribute {
      name: "value"
      t {
        dims: 1
        data_type: INT32
        raw_data: "\000\000\000\000"
      }
    }
  }
  node {
    output: "250"
    op_type: "Constant"
    attribute {
      name: "value"
      t {
        dims: 1
        data_type: INT64
        raw_data: "\007\000\000\000\000\000\000\000"
      }
    }
  }
  node {
    output: "251"
    op_type: "Constant"
    attribute {
      name: "value"
      t {
        dims: 1
        data_type: INT64
        raw_data: "\010\000\000\000\000\000\000\000"
      }
    }
  }
  node {
    input: "29"
    input: "249"
    input: "250"
    input: "251"
    output: "252"
    op_type: "Slice"
  }
  node {
    input: "252"
    output: "253"
    op_type: "Squeeze"
    attribute {
      name: "axes"
      ints: 0
    }
  }
  node {
    input: "5"
    output: "254"
    op_type: "Transpose"
    attribute {
      name: "perm"
      ints: 1
      ints: 0
    }
  }
  node {
    input: "253"
    input: "254"
    input: "7"
    output: "255"
    op_type: "Gemm"
    attribute {
      name: "alpha"
      f: 1
    }
    attribute {
      name: "beta"
      f: 1
    }
    attribute {
      name: "broadcast"
      i: 1
    }
  }
  node {
    input: "6"
    output: "256"
    op_type: "Transpose"
    attribute {
      name: "perm"
      ints: 1
      ints: 0
    }
  }
  node {
    input: "248"
    input: "256"
    input: "8"
    output: "257"
    op_type: "Gemm"
    attribute {
      name: "alpha"
      f: 1
    }
    attribute {
      name: "beta"
      f: 1
    }
    attribute {
      name: "broadcast"
      i: 1
    }
  }
  node {
    input: "255"
    input: "257"
    output: "258"
    op_type: "Add"
  }
  node {
    input: "258"
    output: "260"
    output: "261"
    output: "262"
    output: "263"
    op_type: "Split"
    attribute {
      name: "axis"
      i: 1
    }
    attribute {
      name: "split"
      ints: 5
      ints: 5
      ints: 5
      ints: 5
    }
  }
  node {
    input: "260"
    output: "264"
    op_type: "Sigmoid"
  }
  node {
    input: "261"
    output: "265"
    op_type: "Sigmoid"
  }
  node {
    input: "262"
    output: "266"
    op_type: "Tanh"
  }
  node {
    input: "263"
    output: "267"
    op_type: "Sigmoid"
  }
  node {
    input: "265"
    input: "246"
    output: "268"
    op_type: "Mul"
  }
  node {
    input: "264"
    input: "266"
    output: "269"
    op_type: "Mul"
  }
  node {
    input: "268"
    input: "269"
    output: "270"
    op_type: "Add"
  }
  node {
    input: "270"
    output: "271"
    op_type: "Tanh"
  }
  node {
    input: "267"
    input: "271"
    output: "272"
    op_type: "Mul"
  }
  node {
    output: "273"
    op_type: "Constant"
    attribute {
      name: "value"
      t {
        dims: 1
        data_type: INT32
        raw_data: "\000\000\000\000"
      }
    }
  }
  node {
    output: "274"
    op_type: "Constant"
    attribute {
      name: "value"
      t {
        dims: 1
        data_type: INT64
        raw_data: "\010\000\000\000\000\000\000\000"
      }
    }
  }
  node {
    output: "275"
    op_type: "Constant"
    attribute {
      name: "value"
      t {
        dims: 1
        data_type: INT64
        raw_data: "\t\000\000\000\000\000\000\000"
      }
    }
  }
  node {
    input: "29"
    input: "273"
    input: "274"
    input: "275"
    output: "276"
    op_type: "Slice"
  }
  node {
    input: "276"
    output: "277"
    op_type: "Squeeze"
    attribute {
      name: "axes"
      ints: 0
    }
  }
  node {
    input: "5"
    output: "278"
    op_type: "Transpose"
    attribute {
      name: "perm"
      ints: 1
      ints: 0
    }
  }
  node {
    input: "277"
    input: "278"
    input: "7"
    output: "279"
    op_type: "Gemm"
    attribute {
      name: "alpha"
      f: 1
    }
    attribute {
      name: "beta"
      f: 1
    }
    attribute {
      name: "broadcast"
      i: 1
    }
  }
  node {
    input: "6"
    output: "280"
    op_type: "Transpose"
    attribute {
      name: "perm"
      ints: 1
      ints: 0
    }
  }
  node {
    input: "272"
    input: "280"
    input: "8"
    output: "281"
    op_type: "Gemm"
    attribute {
      name: "alpha"
      f: 1
    }
    attribute {
      name: "beta"
      f: 1
    }
    attribute {
      name: "broadcast"
      i: 1
    }
  }
  node {
    input: "279"
    input: "281"
    output: "282"
    op_type: "Add"
  }
  node {
    input: "282"
    output: "284"
    output: "285"
    output: "286"
    output: "287"
    op_type: "Split"
    attribute {
      name: "axis"
      i: 1
    }
    attribute {
      name: "split"
      ints: 5
      ints: 5
      ints: 5
      ints: 5
    }
  }
  node {
    input: "284"
    output: "288"
    op_type: "Sigmoid"
  }
  node {
    input: "285"
    output: "289"
    op_type: "Sigmoid"
  }
  node {
    input: "286"
    output: "290"
    op_type: "Tanh"
  }
  node {
    input: "287"
    output: "291"
    op_type: "Sigmoid"
  }
  node {
    input: "289"
    input: "270"
    output: "292"
    op_type: "Mul"
  }
  node {
    input: "288"
    input: "290"
    output: "293"
    op_type: "Mul"
  }
  node {
    input: "292"
    input: "293"
    output: "294"
    op_type: "Add"
  }
  node {
    input: "294"
    output: "295"
    op_type: "Tanh"
  }
  node {
    input: "291"
    input: "295"
    output: "296"
    op_type: "Mul"
  }
  node {
    output: "297"
    op_type: "Constant"
    attribute {
      name: "value"
      t {
        dims: 1
        data_type: INT32
        raw_data: "\000\000\000\000"
      }
    }
  }
  node {
    output: "298"
    op_type: "Constant"
    attribute {
      name: "value"
      t {
        dims: 1
        data_type: INT64
        raw_data: "\t\000\000\000\000\000\000\000"
      }
    }
  }
  node {
    output: "299"
    op_type: "Constant"
    attribute {
      name: "value"
      t {
        dims: 1
        data_type: INT64
        raw_data: "\n\000\000\000\000\000\000\000"
      }
    }
  }
  node {
    input: "29"
    input: "297"
    input: "298"
    input: "299"
    output: "300"
    op_type: "Slice"
  }
  node {
    input: "300"
    output: "301"
    op_type: "Squeeze"
    attribute {
      name: "axes"
      ints: 0
    }
  }
  node {
    input: "5"
    output: "302"
    op_type: "Transpose"
    attribute {
      name: "perm"
      ints: 1
      ints: 0
    }
  }
  node {
    input: "301"
    input: "302"
    input: "7"
    output: "303"
    op_type: "Gemm"
    attribute {
      name: "alpha"
      f: 1
    }
    attribute {
      name: "beta"
      f: 1
    }
    attribute {
      name: "broadcast"
      i: 1
    }
  }
  node {
    input: "6"
    output: "304"
    op_type: "Transpose"
    attribute {
      name: "perm"
      ints: 1
      ints: 0
    }
  }
  node {
    input: "296"
    input: "304"
    input: "8"
    output: "305"
    op_type: "Gemm"
    attribute {
      name: "alpha"
      f: 1
    }
    attribute {
      name: "beta"
      f: 1
    }
    attribute {
      name: "broadcast"
      i: 1
    }
  }
  node {
    input: "303"
    input: "305"
    output: "306"
    op_type: "Add"
  }
  node {
    input: "306"
    output: "308"
    output: "309"
    output: "310"
    output: "311"
    op_type: "Split"
    attribute {
      name: "axis"
      i: 1
    }
    attribute {
      name: "split"
      ints: 5
      ints: 5
      ints: 5
      ints: 5
    }
  }
  node {
    input: "308"
    output: "312"
    op_type: "Sigmoid"
  }
  node {
    input: "309"
    output: "313"
    op_type: "Sigmoid"
  }
  node {
    input: "310"
    output: "314"
    op_type: "Tanh"
  }
  node {
    input: "311"
    output: "315"
    op_type: "Sigmoid"
  }
  node {
    input: "313"
    input: "294"
    output: "316"
    op_type: "Mul"
  }
  node {
    input: "312"
    input: "314"
    output: "317"
    op_type: "Mul"
  }
  node {
    input: "316"
    input: "317"
    output: "318"
    op_type: "Add"
  }
  node {
    input: "318"
    output: "319"
    op_type: "Tanh"
  }
  node {
    input: "315"
    input: "319"
    output: "320"
    op_type: "Mul"
  }
  node {
    input: "104"
    input: "128"
    input: "152"
    input: "176"
    input: "200"
    input: "224"
    input: "248"
    input: "272"
    input: "296"
    input: "320"
    output: "321"
    op_type: "Concat"
    attribute {
      name: "axis"
      i: 0
    }
  }
  node {
    input: "321"
    output: "322"
    op_type: "Reshape"
    attribute {
      name: "shape"
      ints: 10
      ints: 5
      ints: 5
    }
  }
  node {
    input: "322"
    output: "323"
    op_type: "Concat"
    attribute {
      name: "axis"
      i: 2
    }
  }
  node {
    input: "323"
    output: "325"
    output: "326"
    op_type: "Dropout"
    attribute {
      name: "ratio"
      f: 0.200000002980232
    }
    attribute {
      name: "is_test"
      i: 1
    }
  }
  node {
    output: "327"
    op_type: "Constant"
    attribute {
      name: "value"
      t {
        dims: 1
        data_type: INT32
        raw_data: "\000\000\000\000"
      }
    }
  }
  node {
    output: "328"
    op_type: "Constant"
    attribute {
      name: "value"
      t {
        dims: 1
        data_type: INT64
        raw_data: "\000\000\000\000\000\000\000\000"
      }
    }
  }
  node {
    output: "329"
    op_type: "Constant"
    attribute {
      name: "value"
      t {
        dims: 1
        data_type: INT64
        raw_data: "\001\000\000\000\000\000\000\000"
      }
    }
  }
  node {
    input: "325"
    input: "327"
    input: "328"
    input: "329"
    output: "330"
    op_type: "Slice"
  }
  node {
    input: "330"
    output: "331"
    op_type: "Squeeze"
    attribute {
      name: "axes"
      ints: 0
    }
  }
  node {
    input: "9"
    output: "332"
    op_type: "Transpose"
    attribute {
      name: "perm"
      ints: 1
      ints: 0
    }
  }
  node {
    input: "331"
    input: "332"
    input: "11"
    output: "333"
    op_type: "Gemm"
    attribute {
      name: "alpha"
      f: 1
    }
    attribute {
      name: "beta"
      f: 1
    }
    attribute {
      name: "broadcast"
      i: 1
    }
  }
  node {
    input: "10"
    output: "334"
    op_type: "Transpose"
    attribute {
      name: "perm"
      ints: 1
      ints: 0
    }
  }
  node {
    input: "45"
    input: "334"
    input: "12"
    output: "335"
    op_type: "Gemm"
    attribute {
      name: "alpha"
      f: 1
    }
    attribute {
      name: "beta"
      f: 1
    }
    attribute {
      name: "broadcast"
      i: 1
    }
  }
  node {
    input: "333"
    input: "335"
    output: "336"
    op_type: "Add"
  }
  node {
    input: "336"
    output: "338"
    output: "339"
    output: "340"
    output: "341"
    op_type: "Split"
    attribute {
      name: "axis"
      i: 1
    }
    attribute {
      name: "split"
      ints: 5
      ints: 5
      ints: 5
      ints: 5
    }
  }
  node {
    input: "338"
    output: "342"
    op_type: "Sigmoid"
  }
  node {
    input: "339"
    output: "343"
    op_type: "Sigmoid"
  }
  node {
    input: "340"
    output: "344"
    op_type: "Tanh"
  }
  node {
    input: "341"
    output: "345"
    op_type: "Sigmoid"
  }
  node {
    input: "343"
    input: "50"
    output: "346"
    op_type: "Mul"
  }
  node {
    input: "342"
    input: "344"
    output: "347"
    op_type: "Mul"
  }
  node {
    input: "346"
    input: "347"
    output: "348"
    op_type: "Add"
  }
  node {
    input: "348"
    output: "349"
    op_type: "Tanh"
  }
  node {
    input: "345"
    input: "349"
    output: "350"
    op_type: "Mul"
  }
  node {
    output: "351"
    op_type: "Constant"
    attribute {
      name: "value"
      t {
        dims: 1
        data_type: INT32
        raw_data: "\000\000\000\000"
      }
    }
  }
  node {
    output: "352"
    op_type: "Constant"
    attribute {
      name: "value"
      t {
        dims: 1
        data_type: INT64
        raw_data: "\001\000\000\000\000\000\000\000"
      }
    }
  }
  node {
    output: "353"
    op_type: "Constant"
    attribute {
      name: "value"
      t {
        dims: 1
        data_type: INT64
        raw_data: "\002\000\000\000\000\000\000\000"
      }
    }
  }
  node {
    input: "325"
    input: "351"
    input: "352"
    input: "353"
    output: "354"
    op_type: "Slice"
  }
  node {
    input: "354"
    output: "355"
    op_type: "Squeeze"
    attribute {
      name: "axes"
      ints: 0
    }
  }
  node {
    input: "9"
    output: "356"
    op_type: "Transpose"
    attribute {
      name: "perm"
      ints: 1
      ints: 0
    }
  }
  node {
    input: "355"
    input: "356"
    input: "11"
    output: "357"
    op_type: "Gemm"
    attribute {
      name: "alpha"
      f: 1
    }
    attribute {
      name: "beta"
      f: 1
    }
    attribute {
      name: "broadcast"
      i: 1
    }
  }
  node {
    input: "10"
    output: "358"
    op_type: "Transpose"
    attribute {
      name: "perm"
      ints: 1
      ints: 0
    }
  }
  node {
    input: "350"
    input: "358"
    input: "12"
    output: "359"
    op_type: "Gemm"
    attribute {
      name: "alpha"
      f: 1
    }
    attribute {
      name: "beta"
      f: 1
    }
    attribute {
      name: "broadcast"
      i: 1
    }
  }
  node {
    input: "357"
    input: "359"
    output: "360"
    op_type: "Add"
  }
  node {
    input: "360"
    output: "362"
    output: "363"
    output: "364"
    output: "365"
    op_type: "Split"
    attribute {
      name: "axis"
      i: 1
    }
    attribute {
      name: "split"
      ints: 5
      ints: 5
      ints: 5
      ints: 5
    }
  }
  node {
    input: "362"
    output: "366"
    op_type: "Sigmoid"
  }
  node {
    input: "363"
    output: "367"
    op_type: "Sigmoid"
  }
  node {
    input: "364"
    output: "368"
    op_type: "Tanh"
  }
  node {
    input: "365"
    output: "369"
    op_type: "Sigmoid"
  }
  node {
    input: "367"
    input: "348"
    output: "370"
    op_type: "Mul"
  }
  node {
    input: "366"
    input: "368"
    output: "371"
    op_type: "Mul"
  }
  node {
    input: "370"
    input: "371"
    output: "372"
    op_type: "Add"
  }
  node {
    input: "372"
    output: "373"
    op_type: "Tanh"
  }
  node {
    input: "369"
    input: "373"
    output: "374"
    op_type: "Mul"
  }
  node {
    output: "375"
    op_type: "Constant"
    attribute {
      name: "value"
      t {
        dims: 1
        data_type: INT32
        raw_data: "\000\000\000\000"
      }
    }
  }
  node {
    output: "376"
    op_type: "Constant"
    attribute {
      name: "value"
      t {
        dims: 1
        data_type: INT64
        raw_data: "\002\000\000\000\000\000\000\000"
      }
    }
  }
  node {
    output: "377"
    op_type: "Constant"
    attribute {
      name: "value"
      t {
        dims: 1
        data_type: INT64
        raw_data: "\003\000\000\000\000\000\000\000"
      }
    }
  }
  node {
    input: "325"
    input: "375"
    input: "376"
    input: "377"
    output: "378"
    op_type: "Slice"
  }
  node {
    input: "378"
    output: "379"
    op_type: "Squeeze"
    attribute {
      name: "axes"
      ints: 0
    }
  }
  node {
    input: "9"
    output: "380"
    op_type: "Transpose"
    attribute {
      name: "perm"
      ints: 1
      ints: 0
    }
  }
  node {
    input: "379"
    input: "380"
    input: "11"
    output: "381"
    op_type: "Gemm"
    attribute {
      name: "alpha"
      f: 1
    }
    attribute {
      name: "beta"
      f: 1
    }
    attribute {
      name: "broadcast"
      i: 1
    }
  }
  node {
    input: "10"
    output: "382"
    op_type: "Transpose"
    attribute {
      name: "perm"
      ints: 1
      ints: 0
    }
  }
  node {
    input: "374"
    input: "382"
    input: "12"
    output: "383"
    op_type: "Gemm"
    attribute {
      name: "alpha"
      f: 1
    }
    attribute {
      name: "beta"
      f: 1
    }
    attribute {
      name: "broadcast"
      i: 1
    }
  }
  node {
    input: "381"
    input: "383"
    output: "384"
    op_type: "Add"
  }
  node {
    input: "384"
    output: "386"
    output: "387"
    output: "388"
    output: "389"
    op_type: "Split"
    attribute {
      name: "axis"
      i: 1
    }
    attribute {
      name: "split"
      ints: 5
      ints: 5
      ints: 5
      ints: 5
    }
  }
  node {
    input: "386"
    output: "390"
    op_type: "Sigmoid"
  }
  node {
    input: "387"
    output: "391"
    op_type: "Sigmoid"
  }
  node {
    input: "388"
    output: "392"
    op_type: "Tanh"
  }
  node {
    input: "389"
    output: "393"
    op_type: "Sigmoid"
  }
  node {
    input: "391"
    input: "372"
    output: "394"
    op_type: "Mul"
  }
  node {
    input: "390"
    input: "392"
    output: "395"
    op_type: "Mul"
  }
  node {
    input: "394"
    input: "395"
    output: "396"
    op_type: "Add"
  }
  node {
    input: "396"
    output: "397"
    op_type: "Tanh"
  }
  node {
    input: "393"
    input: "397"
    output: "398"
    op_type: "Mul"
  }
  node {
    output: "399"
    op_type: "Constant"
    attribute {
      name: "value"
      t {
        dims: 1
        data_type: INT32
        raw_data: "\000\000\000\000"
      }
    }
  }
  node {
    output: "400"
    op_type: "Constant"
    attribute {
      name: "value"
      t {
        dims: 1
        data_type: INT64
        raw_data: "\003\000\000\000\000\000\000\000"
      }
    }
  }
  node {
    output: "401"
    op_type: "Constant"
    attribute {
      name: "value"
      t {
        dims: 1
        data_type: INT64
        raw_data: "\004\000\000\000\000\000\000\000"
      }
    }
  }
  node {
    input: "325"
    input: "399"
    input: "400"
    input: "401"
    output: "402"
    op_type: "Slice"
  }
  node {
    input: "402"
    output: "403"
    op_type: "Squeeze"
    attribute {
      name: "axes"
      ints: 0
    }
  }
  node {
    input: "9"
    output: "404"
    op_type: "Transpose"
    attribute {
      name: "perm"
      ints: 1
      ints: 0
    }
  }
  node {
    input: "403"
    input: "404"
    input: "11"
    output: "405"
    op_type: "Gemm"
    attribute {
      name: "alpha"
      f: 1
    }
    attribute {
      name: "beta"
      f: 1
    }
    attribute {
      name: "broadcast"
      i: 1
    }
  }
  node {
    input: "10"
    output: "406"
    op_type: "Transpose"
    attribute {
      name: "perm"
      ints: 1
      ints: 0
    }
  }
  node {
    input: "398"
    input: "406"
    input: "12"
    output: "407"
    op_type: "Gemm"
    attribute {
      name: "alpha"
      f: 1
    }
    attribute {
      name: "beta"
      f: 1
    }
    attribute {
      name: "broadcast"
      i: 1
    }
  }
  node {
    input: "405"
    input: "407"
    output: "408"
    op_type: "Add"
  }
  node {
    input: "408"
    output: "410"
    output: "411"
    output: "412"
    output: "413"
    op_type: "Split"
    attribute {
      name: "axis"
      i: 1
    }
    attribute {
      name: "split"
      ints: 5
      ints: 5
      ints: 5
      ints: 5
    }
  }
  node {
    input: "410"
    output: "414"
    op_type: "Sigmoid"
  }
  node {
    input: "411"
    output: "415"
    op_type: "Sigmoid"
  }
  node {
    input: "412"
    output: "416"
    op_type: "Tanh"
  }
  node {
    input: "413"
    output: "417"
    op_type: "Sigmoid"
  }
  node {
    input: "415"
    input: "396"
    output: "418"
    op_type: "Mul"
  }
  node {
    input: "414"
    input: "416"
    output: "419"
    op_type: "Mul"
  }
  node {
    input: "418"
    input: "419"
    output: "420"
    op_type: "Add"
  }
  node {
    input: "420"
    output: "421"
    op_type: "Tanh"
  }
  node {
    input: "417"
    input: "421"
    output: "422"
    op_type: "Mul"
  }
  node {
    output: "423"
    op_type: "Constant"
    attribute {
      name: "value"
      t {
        dims: 1
        data_type: INT32
        raw_data: "\000\000\000\000"
      }
    }
  }
  node {
    output: "424"
    op_type: "Constant"
    attribute {
      name: "value"
      t {
        dims: 1
        data_type: INT64
        raw_data: "\004\000\000\000\000\000\000\000"
      }
    }
  }
  node {
    output: "425"
    op_type: "Constant"
    attribute {
      name: "value"
      t {
        dims: 1
        data_type: INT64
        raw_data: "\005\000\000\000\000\000\000\000"
      }
    }
  }
  node {
    input: "325"
    input: "423"
    input: "424"
    input: "425"
    output: "426"
    op_type: "Slice"
  }
  node {
    input: "426"
    output: "427"
    op_type: "Squeeze"
    attribute {
      name: "axes"
      ints: 0
    }
  }
  node {
    input: "9"
    output: "428"
    op_type: "Transpose"
    attribute {
      name: "perm"
      ints: 1
      ints: 0
    }
  }
  node {
    input: "427"
    input: "428"
    input: "11"
    output: "429"
    op_type: "Gemm"
    attribute {
      name: "alpha"
      f: 1
    }
    attribute {
      name: "beta"
      f: 1
    }
    attribute {
      name: "broadcast"
      i: 1
    }
  }
  node {
    input: "10"
    output: "430"
    op_type: "Transpose"
    attribute {
      name: "perm"
      ints: 1
      ints: 0
    }
  }
  node {
    input: "422"
    input: "430"
    input: "12"
    output: "431"
    op_type: "Gemm"
    attribute {
      name: "alpha"
      f: 1
    }
    attribute {
      name: "beta"
      f: 1
    }
    attribute {
      name: "broadcast"
      i: 1
    }
  }
  node {
    input: "429"
    input: "431"
    output: "432"
    op_type: "Add"
  }
  node {
    input: "432"
    output: "434"
    output: "435"
    output: "436"
    output: "437"
    op_type: "Split"
    attribute {
      name: "axis"
      i: 1
    }
    attribute {
      name: "split"
      ints: 5
      ints: 5
      ints: 5
      ints: 5
    }
  }
  node {
    input: "434"
    output: "438"
    op_type: "Sigmoid"
  }
  node {
    input: "435"
    output: "439"
    op_type: "Sigmoid"
  }
  node {
    input: "436"
    output: "440"
    op_type: "Tanh"
  }
  node {
    input: "437"
    output: "441"
    op_type: "Sigmoid"
  }
  node {
    input: "439"
    input: "420"
    output: "442"
    op_type: "Mul"
  }
  node {
    input: "438"
    input: "440"
    output: "443"
    op_type: "Mul"
  }
  node {
    input: "442"
    input: "443"
    output: "444"
    op_type: "Add"
  }
  node {
    input: "444"
    output: "445"
    op_type: "Tanh"
  }
  node {
    input: "441"
    input: "445"
    output: "446"
    op_type: "Mul"
  }
  node {
    output: "447"
    op_type: "Constant"
    attribute {
      name: "value"
      t {
        dims: 1
        data_type: INT32
        raw_data: "\000\000\000\000"
      }
    }
  }
  node {
    output: "448"
    op_type: "Constant"
    attribute {
      name: "value"
      t {
        dims: 1
        data_type: INT64
        raw_data: "\005\000\000\000\000\000\000\000"
      }
    }
  }
  node {
    output: "449"
    op_type: "Constant"
    attribute {
      name: "value"
      t {
        dims: 1
        data_type: INT64
        raw_data: "\006\000\000\000\000\000\000\000"
      }
    }
  }
  node {
    input: "325"
    input: "447"
    input: "448"
    input: "449"
    output: "450"
    op_type: "Slice"
  }
  node {
    input: "450"
    output: "451"
    op_type: "Squeeze"
    attribute {
      name: "axes"
      ints: 0
    }
  }
  node {
    input: "9"
    output: "452"
    op_type: "Transpose"
    attribute {
      name: "perm"
      ints: 1
      ints: 0
    }
  }
  node {
    input: "451"
    input: "452"
    input: "11"
    output: "453"
    op_type: "Gemm"
    attribute {
      name: "alpha"
      f: 1
    }
    attribute {
      name: "beta"
      f: 1
    }
    attribute {
      name: "broadcast"
      i: 1
    }
  }
  node {
    input: "10"
    output: "454"
    op_type: "Transpose"
    attribute {
      name: "perm"
      ints: 1
      ints: 0
    }
  }
  node {
    input: "446"
    input: "454"
    input: "12"
    output: "455"
    op_type: "Gemm"
    attribute {
      name: "alpha"
      f: 1
    }
    attribute {
      name: "beta"
      f: 1
    }
    attribute {
      name: "broadcast"
      i: 1
    }
  }
  node {
    input: "453"
    input: "455"
    output: "456"
    op_type: "Add"
  }
  node {
    input: "456"
    output: "458"
    output: "459"
    output: "460"
    output: "461"
    op_type: "Split"
    attribute {
      name: "axis"
      i: 1
    }
    attribute {
      name: "split"
      ints: 5
      ints: 5
      ints: 5
      ints: 5
    }
  }
  node {
    input: "458"
    output: "462"
    op_type: "Sigmoid"
  }
  node {
    input: "459"
    output: "463"
    op_type: "Sigmoid"
  }
  node {
    input: "460"
    output: "464"
    op_type: "Tanh"
  }
  node {
    input: "461"
    output: "465"
    op_type: "Sigmoid"
  }
  node {
    input: "463"
    input: "444"
    output: "466"
    op_type: "Mul"
  }
  node {
    input: "462"
    input: "464"
    output: "467"
    op_type: "Mul"
  }
  node {
    input: "466"
    input: "467"
    output: "468"
    op_type: "Add"
  }
  node {
    input: "468"
    output: "469"
    op_type: "Tanh"
  }
  node {
    input: "465"
    input: "469"
    output: "470"
    op_type: "Mul"
  }
  node {
    output: "471"
    op_type: "Constant"
    attribute {
      name: "value"
      t {
        dims: 1
        data_type: INT32
        raw_data: "\000\000\000\000"
      }
    }
  }
  node {
    output: "472"
    op_type: "Constant"
    attribute {
      name: "value"
      t {
        dims: 1
        data_type: INT64
        raw_data: "\006\000\000\000\000\000\000\000"
      }
    }
  }
  node {
    output: "473"
    op_type: "Constant"
    attribute {
      name: "value"
      t {
        dims: 1
        data_type: INT64
        raw_data: "\007\000\000\000\000\000\000\000"
      }
    }
  }
  node {
    input: "325"
    input: "471"
    input: "472"
    input: "473"
    output: "474"
    op_type: "Slice"
  }
  node {
    input: "474"
    output: "475"
    op_type: "Squeeze"
    attribute {
      name: "axes"
      ints: 0
    }
  }
  node {
    input: "9"
    output: "476"
    op_type: "Transpose"
    attribute {
      name: "perm"
      ints: 1
      ints: 0
    }
  }
  node {
    input: "475"
    input: "476"
    input: "11"
    output: "477"
    op_type: "Gemm"
    attribute {
      name: "alpha"
      f: 1
    }
    attribute {
      name: "beta"
      f: 1
    }
    attribute {
      name: "broadcast"
      i: 1
    }
  }
  node {
    input: "10"
    output: "478"
    op_type: "Transpose"
    attribute {
      name: "perm"
      ints: 1
      ints: 0
    }
  }
  node {
    input: "470"
    input: "478"
    input: "12"
    output: "479"
    op_type: "Gemm"
    attribute {
      name: "alpha"
      f: 1
    }
    attribute {
      name: "beta"
      f: 1
    }
    attribute {
      name: "broadcast"
      i: 1
    }
  }
  node {
    input: "477"
    input: "479"
    output: "480"
    op_type: "Add"
  }
  node {
    input: "480"
    output: "482"
    output: "483"
    output: "484"
    output: "485"
    op_type: "Split"
    attribute {
      name: "axis"
      i: 1
    }
    attribute {
      name: "split"
      ints: 5
      ints: 5
      ints: 5
      ints: 5
    }
  }
  node {
    input: "482"
    output: "486"
    op_type: "Sigmoid"
  }
  node {
    input: "483"
    output: "487"
    op_type: "Sigmoid"
  }
  node {
    input: "484"
    output: "488"
    op_type: "Tanh"
  }
  node {
    input: "485"
    output: "489"
    op_type: "Sigmoid"
  }
  node {
    input: "487"
    input: "468"
    output: "490"
    op_type: "Mul"
  }
  node {
    input: "486"
    input: "488"
    output: "491"
    op_type: "Mul"
  }
  node {
    input: "490"
    input: "491"
    output: "492"
    op_type: "Add"
  }
  node {
    input: "492"
    output: "493"
    op_type: "Tanh"
  }
  node {
    input: "489"
    input: "493"
    output: "494"
    op_type: "Mul"
  }
  node {
    output: "495"
    op_type: "Constant"
    attribute {
      name: "value"
      t {
        dims: 1
        data_type: INT32
        raw_data: "\000\000\000\000"
      }
    }
  }
  node {
    output: "496"
    op_type: "Constant"
    attribute {
      name: "value"
      t {
        dims: 1
        data_type: INT64
        raw_data: "\007\000\000\000\000\000\000\000"
      }
    }
  }
  node {
    output: "497"
    op_type: "Constant"
    attribute {
      name: "value"
      t {
        dims: 1
        data_type: INT64
        raw_data: "\010\000\000\000\000\000\000\000"
      }
    }
  }
  node {
    input: "325"
    input: "495"
    input: "496"
    input: "497"
    output: "498"
    op_type: "Slice"
  }
  node {
    input: "498"
    output: "499"
    op_type: "Squeeze"
    attribute {
      name: "axes"
      ints: 0
    }
  }
  node {
    input: "9"
    output: "500"
    op_type: "Transpose"
    attribute {
      name: "perm"
      ints: 1
      ints: 0
    }
  }
  node {
    input: "499"
    input: "500"
    input: "11"
    output: "501"
    op_type: "Gemm"
    attribute {
      name: "alpha"
      f: 1
    }
    attribute {
      name: "beta"
      f: 1
    }
    attribute {
      name: "broadcast"
      i: 1
    }
  }
  node {
    input: "10"
    output: "502"
    op_type: "Transpose"
    attribute {
      name: "perm"
      ints: 1
      ints: 0
    }
  }
  node {
    input: "494"
    input: "502"
    input: "12"
    output: "503"
    op_type: "Gemm"
    attribute {
      name: "alpha"
      f: 1
    }
    attribute {
      name: "beta"
      f: 1
    }
    attribute {
      name: "broadcast"
      i: 1
    }
  }
  node {
    input: "501"
    input: "503"
    output: "504"
    op_type: "Add"
  }
  node {
    input: "504"
    output: "506"
    output: "507"
    output: "508"
    output: "509"
    op_type: "Split"
    attribute {
      name: "axis"
      i: 1
    }
    attribute {
      name: "split"
      ints: 5
      ints: 5
      ints: 5
      ints: 5
    }
  }
  node {
    input: "506"
    output: "510"
    op_type: "Sigmoid"
  }
  node {
    input: "507"
    output: "511"
    op_type: "Sigmoid"
  }
  node {
    input: "508"
    output: "512"
    op_type: "Tanh"
  }
  node {
    input: "509"
    output: "513"
    op_type: "Sigmoid"
  }
  node {
    input: "511"
    input: "492"
    output: "514"
    op_type: "Mul"
  }
  node {
    input: "510"
    input: "512"
    output: "515"
    op_type: "Mul"
  }
  node {
    input: "514"
    input: "515"
    output: "516"
    op_type: "Add"
  }
  node {
    input: "516"
    output: "517"
    op_type: "Tanh"
  }
  node {
    input: "513"
    input: "517"
    output: "518"
    op_type: "Mul"
  }
  node {
    output: "519"
    op_type: "Constant"
    attribute {
      name: "value"
      t {
        dims: 1
        data_type: INT32
        raw_data: "\000\000\000\000"
      }
    }
  }
  node {
    output: "520"
    op_type: "Constant"
    attribute {
      name: "value"
      t {
        dims: 1
        data_type: INT64
        raw_data: "\010\000\000\000\000\000\000\000"
      }
    }
  }
  node {
    output: "521"
    op_type: "Constant"
    attribute {
      name: "value"
      t {
        dims: 1
        data_type: INT64
        raw_data: "\t\000\000\000\000\000\000\000"
      }
    }
  }
  node {
    input: "325"
    input: "519"
    input: "520"
    input: "521"
    output: "522"
    op_type: "Slice"
  }
  node {
    input: "522"
    output: "523"
    op_type: "Squeeze"
    attribute {
      name: "axes"
      ints: 0
    }
  }
  node {
    input: "9"
    output: "524"
    op_type: "Transpose"
    attribute {
      name: "perm"
      ints: 1
      ints: 0
    }
  }
  node {
    input: "523"
    input: "524"
    input: "11"
    output: "525"
    op_type: "Gemm"
    attribute {
      name: "alpha"
      f: 1
    }
    attribute {
      name: "beta"
      f: 1
    }
    attribute {
      name: "broadcast"
      i: 1
    }
  }
  node {
    input: "10"
    output: "526"
    op_type: "Transpose"
    attribute {
      name: "perm"
      ints: 1
      ints: 0
    }
  }
  node {
    input: "518"
    input: "526"
    input: "12"
    output: "527"
    op_type: "Gemm"
    attribute {
      name: "alpha"
      f: 1
    }
    attribute {
      name: "beta"
      f: 1
    }
    attribute {
      name: "broadcast"
      i: 1
    }
  }
  node {
    input: "525"
    input: "527"
    output: "528"
    op_type: "Add"
  }
  node {
    input: "528"
    output: "530"
    output: "531"
    output: "532"
    output: "533"
    op_type: "Split"
    attribute {
      name: "axis"
      i: 1
    }
    attribute {
      name: "split"
      ints: 5
      ints: 5
      ints: 5
      ints: 5
    }
  }
  node {
    input: "530"
    output: "534"
    op_type: "Sigmoid"
  }
  node {
    input: "531"
    output: "535"
    op_type: "Sigmoid"
  }
  node {
    input: "532"
    output: "536"
    op_type: "Tanh"
  }
  node {
    input: "533"
    output: "537"
    op_type: "Sigmoid"
  }
  node {
    input: "535"
    input: "516"
    output: "538"
    op_type: "Mul"
  }
  node {
    input: "534"
    input: "536"
    output: "539"
    op_type: "Mul"
  }
  node {
    input: "538"
    input: "539"
    output: "540"
    op_type: "Add"
  }
  node {
    input: "540"
    output: "541"
    op_type: "Tanh"
  }
  node {
    input: "537"
    input: "541"
    output: "542"
    op_type: "Mul"
  }
  node {
    output: "543"
    op_type: "Constant"
    attribute {
      name: "value"
      t {
        dims: 1
        data_type: INT32
        raw_data: "\000\000\000\000"
      }
    }
  }
  node {
    output: "544"
    op_type: "Constant"
    attribute {
      name: "value"
      t {
        dims: 1
        data_type: INT64
        raw_data: "\t\000\000\000\000\000\000\000"
      }
    }
  }
  node {
    output: "545"
    op_type: "Constant"
    attribute {
      name: "value"
      t {
        dims: 1
        data_type: INT64
        raw_data: "\n\000\000\000\000\000\000\000"
      }
    }
  }
  node {
    input: "325"
    input: "543"
    input: "544"
    input: "545"
    output: "546"
    op_type: "Slice"
  }
  node {
    input: "546"
    output: "547"
    op_type: "Squeeze"
    attribute {
      name: "axes"
      ints: 0
    }
  }
  node {
    input: "9"
    output: "548"
    op_type: "Transpose"
    attribute {
      name: "perm"
      ints: 1
      ints: 0
    }
  }
  node {
    input: "547"
    input: "548"
    input: "11"
    output: "549"
    op_type: "Gemm"
    attribute {
      name: "alpha"
      f: 1
    }
    attribute {
      name: "beta"
      f: 1
    }
    attribute {
      name: "broadcast"
      i: 1
    }
  }
  node {
    input: "10"
    output: "550"
    op_type: "Transpose"
    attribute {
      name: "perm"
      ints: 1
      ints: 0
    }
  }
  node {
    input: "542"
    input: "550"
    input: "12"
    output: "551"
    op_type: "Gemm"
    attribute {
      name: "alpha"
      f: 1
    }
    attribute {
      name: "beta"
      f: 1
    }
    attribute {
      name: "broadcast"
      i: 1
    }
  }
  node {
    input: "549"
    input: "551"
    output: "552"
    op_type: "Add"
  }
  node {
    input: "552"
    output: "554"
    output: "555"
    output: "556"
    output: "557"
    op_type: "Split"
    attribute {
      name: "axis"
      i: 1
    }
    attribute {
      name: "split"
      ints: 5
      ints: 5
      ints: 5
      ints: 5
    }
  }
  node {
    input: "554"
    output: "558"
    op_type: "Sigmoid"
  }
  node {
    input: "555"
    output: "559"
    op_type: "Sigmoid"
  }
  node {
    input: "556"
    output: "560"
    op_type: "Tanh"
  }
  node {
    input: "557"
    output: "561"
    op_type: "Sigmoid"
  }
  node {
    input: "559"
    input: "540"
    output: "562"
    op_type: "Mul"
  }
  node {
    input: "558"
    input: "560"
    output: "563"
    op_type: "Mul"
  }
  node {
    input: "562"
    input: "563"
    output: "564"
    op_type: "Add"
  }
  node {
    input: "564"
    output: "565"
    op_type: "Tanh"
  }
  node {
    input: "561"
    input: "565"
    output: "566"
    op_type: "Mul"
  }
  node {
    input: "350"
    input: "374"
    input: "398"
    input: "422"
    input: "446"
    input: "470"
    input: "494"
    input: "518"
    input: "542"
    input: "566"
    output: "567"
    op_type: "Concat"
    attribute {
      name: "axis"
      i: 0
    }
  }
  node {
    input: "567"
    output: "568"
    op_type: "Reshape"
    attribute {
      name: "shape"
      ints: 10
      ints: 5
      ints: 5
    }
  }
  node {
    input: "568"
    output: "569"
    op_type: "Concat"
    attribute {
      name: "axis"
      i: 2
    }
  }
  node {
    input: "569"
    output: "571"
    output: "572"
    op_type: "Dropout"
    attribute {
      name: "ratio"
      f: 0.200000002980232
    }
    attribute {
      name: "is_test"
      i: 1
    }
  }
  node {
    output: "573"
    op_type: "Constant"
    attribute {
      name: "value"
      t {
        dims: 1
        data_type: INT32
        raw_data: "\000\000\000\000"
      }
    }
  }
  node {
    output: "574"
    op_type: "Constant"
    attribute {
      name: "value"
      t {
        dims: 1
        data_type: INT64
        raw_data: "\000\000\000\000\000\000\000\000"
      }
    }
  }
  node {
    output: "575"
    op_type: "Constant"
    attribute {
      name: "value"
      t {
        dims: 1
        data_type: INT64
        raw_data: "\001\000\000\000\000\000\000\000"
      }
    }
  }
  node {
    input: "571"
    input: "573"
    input: "574"
    input: "575"
    output: "576"
    op_type: "Slice"
  }
  node {
    input: "576"
    output: "577"
    op_type: "Squeeze"
    attribute {
      name: "axes"
      ints: 0
    }
  }
  node {
    input: "13"
    output: "578"
    op_type: "Transpose"
    attribute {
      name: "perm"
      ints: 1
      ints: 0
    }
  }
  node {
    input: "577"
    input: "578"
    input: "15"
    output: "579"
    op_type: "Gemm"
    attribute {
      name: "alpha"
      f: 1
    }
    attribute {
      name: "beta"
      f: 1
    }
    attribute {
      name: "broadcast"
      i: 1
    }
  }
  node {
    input: "14"
    output: "580"
    op_type: "Transpose"
    attribute {
      name: "perm"
      ints: 1
      ints: 0
    }
  }
  node {
    input: "55"
    input: "580"
    input: "16"
    output: "581"
    op_type: "Gemm"
    attribute {
      name: "alpha"
      f: 1
    }
    attribute {
      name: "beta"
      f: 1
    }
    attribute {
      name: "broadcast"
      i: 1
    }
  }
  node {
    input: "579"
    input: "581"
    output: "582"
    op_type: "Add"
  }
  node {
    input: "582"
    output: "584"
    output: "585"
    output: "586"
    output: "587"
    op_type: "Split"
    attribute {
      name: "axis"
      i: 1
    }
    attribute {
      name: "split"
      ints: 5
      ints: 5
      ints: 5
      ints: 5
    }
  }
  node {
    input: "584"
    output: "588"
    op_type: "Sigmoid"
  }
  node {
    input: "585"
    output: "589"
    op_type: "Sigmoid"
  }
  node {
    input: "586"
    output: "590"
    op_type: "Tanh"
  }
  node {
    input: "587"
    output: "591"
    op_type: "Sigmoid"
  }
  node {
    input: "589"
    input: "60"
    output: "592"
    op_type: "Mul"
  }
  node {
    input: "588"
    input: "590"
    output: "593"
    op_type: "Mul"
  }
  node {
    input: "592"
    input: "593"
    output: "594"
    op_type: "Add"
  }
  node {
    input: "594"
    output: "595"
    op_type: "Tanh"
  }
  node {
    input: "591"
    input: "595"
    output: "596"
    op_type: "Mul"
  }
  node {
    output: "597"
    op_type: "Constant"
    attribute {
      name: "value"
      t {
        dims: 1
        data_type: INT32
        raw_data: "\000\000\000\000"
      }
    }
  }
  node {
    output: "598"
    op_type: "Constant"
    attribute {
      name: "value"
      t {
        dims: 1
        data_type: INT64
        raw_data: "\001\000\000\000\000\000\000\000"
      }
    }
  }
  node {
    output: "599"
    op_type: "Constant"
    attribute {
      name: "value"
      t {
        dims: 1
        data_type: INT64
        raw_data: "\002\000\000\000\000\000\000\000"
      }
    }
  }
  node {
    input: "571"
    input: "597"
    input: "598"
    input: "599"
    output: "600"
    op_type: "Slice"
  }
  node {
    input: "600"
    output: "601"
    op_type: "Squeeze"
    attribute {
      name: "axes"
      ints: 0
    }
  }
  node {
    input: "13"
    output: "602"
    op_type: "Transpose"
    attribute {
      name: "perm"
      ints: 1
      ints: 0
    }
  }
  node {
    input: "601"
    input: "602"
    input: "15"
    output: "603"
    op_type: "Gemm"
    attribute {
      name: "alpha"
      f: 1
    }
    attribute {
      name: "beta"
      f: 1
    }
    attribute {
      name: "broadcast"
      i: 1
    }
  }
  node {
    input: "14"
    output: "604"
    op_type: "Transpose"
    attribute {
      name: "perm"
      ints: 1
      ints: 0
    }
  }
  node {
    input: "596"
    input: "604"
    input: "16"
    output: "605"
    op_type: "Gemm"
    attribute {
      name: "alpha"
      f: 1
    }
    attribute {
      name: "beta"
      f: 1
    }
    attribute {
      name: "broadcast"
      i: 1
    }
  }
  node {
    input: "603"
    input: "605"
    output: "606"
    op_type: "Add"
  }
  node {
    input: "606"
    output: "608"
    output: "609"
    output: "610"
    output: "611"
    op_type: "Split"
    attribute {
      name: "axis"
      i: 1
    }
    attribute {
      name: "split"
      ints: 5
      ints: 5
      ints: 5
      ints: 5
    }
  }
  node {
    input: "608"
    output: "612"
    op_type: "Sigmoid"
  }
  node {
    input: "609"
    output: "613"
    op_type: "Sigmoid"
  }
  node {
    input: "610"
    output: "614"
    op_type: "Tanh"
  }
  node {
    input: "611"
    output: "615"
    op_type: "Sigmoid"
  }
  node {
    input: "613"
    input: "594"
    output: "616"
    op_type: "Mul"
  }
  node {
    input: "612"
    input: "614"
    output: "617"
    op_type: "Mul"
  }
  node {
    input: "616"
    input: "617"
    output: "618"
    op_type: "Add"
  }
  node {
    input: "618"
    output: "619"
    op_type: "Tanh"
  }
  node {
    input: "615"
    input: "619"
    output: "620"
    op_type: "Mul"
  }
  node {
    output: "621"
    op_type: "Constant"
    attribute {
      name: "value"
      t {
        dims: 1
        data_type: INT32
        raw_data: "\000\000\000\000"
      }
    }
  }
  node {
    output: "622"
    op_type: "Constant"
    attribute {
      name: "value"
      t {
        dims: 1
        data_type: INT64
        raw_data: "\002\000\000\000\000\000\000\000"
      }
    }
  }
  node {
    output: "623"
    op_type: "Constant"
    attribute {
      name: "value"
      t {
        dims: 1
        data_type: INT64
        raw_data: "\003\000\000\000\000\000\000\000"
      }
    }
  }
  node {
    input: "571"
    input: "621"
    input: "622"
    input: "623"
    output: "624"
    op_type: "Slice"
  }
  node {
    input: "624"
    output: "625"
    op_type: "Squeeze"
    attribute {
      name: "axes"
      ints: 0
    }
  }
  node {
    input: "13"
    output: "626"
    op_type: "Transpose"
    attribute {
      name: "perm"
      ints: 1
      ints: 0
    }
  }
  node {
    input: "625"
    input: "626"
    input: "15"
    output: "627"
    op_type: "Gemm"
    attribute {
      name: "alpha"
      f: 1
    }
    attribute {
      name: "beta"
      f: 1
    }
    attribute {
      name: "broadcast"
      i: 1
    }
  }
  node {
    input: "14"
    output: "628"
    op_type: "Transpose"
    attribute {
      name: "perm"
      ints: 1
      ints: 0
    }
  }
  node {
    input: "620"
    input: "628"
    input: "16"
    output: "629"
    op_type: "Gemm"
    attribute {
      name: "alpha"
      f: 1
    }
    attribute {
      name: "beta"
      f: 1
    }
    attribute {
      name: "broadcast"
      i: 1
    }
  }
  node {
    input: "627"
    input: "629"
    output: "630"
    op_type: "Add"
  }
  node {
    input: "630"
    output: "632"
    output: "633"
    output: "634"
    output: "635"
    op_type: "Split"
    attribute {
      name: "axis"
      i: 1
    }
    attribute {
      name: "split"
      ints: 5
      ints: 5
      ints: 5
      ints: 5
    }
  }
  node {
    input: "632"
    output: "636"
    op_type: "Sigmoid"
  }
  node {
    input: "633"
    output: "637"
    op_type: "Sigmoid"
  }
  node {
    input: "634"
    output: "638"
    op_type: "Tanh"
  }
  node {
    input: "635"
    output: "639"
    op_type: "Sigmoid"
  }
  node {
    input: "637"
    input: "618"
    output: "640"
    op_type: "Mul"
  }
  node {
    input: "636"
    input: "638"
    output: "641"
    op_type: "Mul"
  }
  node {
    input: "640"
    input: "641"
    output: "642"
    op_type: "Add"
  }
  node {
    input: "642"
    output: "643"
    op_type: "Tanh"
  }
  node {
    input: "639"
    input: "643"
    output: "644"
    op_type: "Mul"
  }
  node {
    output: "645"
    op_type: "Constant"
    attribute {
      name: "value"
      t {
        dims: 1
        data_type: INT32
        raw_data: "\000\000\000\000"
      }
    }
  }
  node {
    output: "646"
    op_type: "Constant"
    attribute {
      name: "value"
      t {
        dims: 1
        data_type: INT64
        raw_data: "\003\000\000\000\000\000\000\000"
      }
    }
  }
  node {
    output: "647"
    op_type: "Constant"
    attribute {
      name: "value"
      t {
        dims: 1
        data_type: INT64
        raw_data: "\004\000\000\000\000\000\000\000"
      }
    }
  }
  node {
    input: "571"
    input: "645"
    input: "646"
    input: "647"
    output: "648"
    op_type: "Slice"
  }
  node {
    input: "648"
    output: "649"
    op_type: "Squeeze"
    attribute {
      name: "axes"
      ints: 0
    }
  }
  node {
    input: "13"
    output: "650"
    op_type: "Transpose"
    attribute {
      name: "perm"
      ints: 1
      ints: 0
    }
  }
  node {
    input: "649"
    input: "650"
    input: "15"
    output: "651"
    op_type: "Gemm"
    attribute {
      name: "alpha"
      f: 1
    }
    attribute {
      name: "beta"
      f: 1
    }
    attribute {
      name: "broadcast"
      i: 1
    }
  }
  node {
    input: "14"
    output: "652"
    op_type: "Transpose"
    attribute {
      name: "perm"
      ints: 1
      ints: 0
    }
  }
  node {
    input: "644"
    input: "652"
    input: "16"
    output: "653"
    op_type: "Gemm"
    attribute {
      name: "alpha"
      f: 1
    }
    attribute {
      name: "beta"
      f: 1
    }
    attribute {
      name: "broadcast"
      i: 1
    }
  }
  node {
    input: "651"
    input: "653"
    output: "654"
    op_type: "Add"
  }
  node {
    input: "654"
    output: "656"
    output: "657"
    output: "658"
    output: "659"
    op_type: "Split"
    attribute {
      name: "axis"
      i: 1
    }
    attribute {
      name: "split"
      ints: 5
      ints: 5
      ints: 5
      ints: 5
    }
  }
  node {
    input: "656"
    output: "660"
    op_type: "Sigmoid"
  }
  node {
    input: "657"
    output: "661"
    op_type: "Sigmoid"
  }
  node {
    input: "658"
    output: "662"
    op_type: "Tanh"
  }
  node {
    input: "659"
    output: "663"
    op_type: "Sigmoid"
  }
  node {
    input: "661"
    input: "642"
    output: "664"
    op_type: "Mul"
  }
  node {
    input: "660"
    input: "662"
    output: "665"
    op_type: "Mul"
  }
  node {
    input: "664"
    input: "665"
    output: "666"
    op_type: "Add"
  }
  node {
    input: "666"
    output: "667"
    op_type: "Tanh"
  }
  node {
    input: "663"
    input: "667"
    output: "668"
    op_type: "Mul"
  }
  node {
    output: "669"
    op_type: "Constant"
    attribute {
      name: "value"
      t {
        dims: 1
        data_type: INT32
        raw_data: "\000\000\000\000"
      }
    }
  }
  node {
    output: "670"
    op_type: "Constant"
    attribute {
      name: "value"
      t {
        dims: 1
        data_type: INT64
        raw_data: "\004\000\000\000\000\000\000\000"
      }
    }
  }
  node {
    output: "671"
    op_type: "Constant"
    attribute {
      name: "value"
      t {
        dims: 1
        data_type: INT64
        raw_data: "\005\000\000\000\000\000\000\000"
      }
    }
  }
  node {
    input: "571"
    input: "669"
    input: "670"
    input: "671"
    output: "672"
    op_type: "Slice"
  }
  node {
    input: "672"
    output: "673"
    op_type: "Squeeze"
    attribute {
      name: "axes"
      ints: 0
    }
  }
  node {
    input: "13"
    output: "674"
    op_type: "Transpose"
    attribute {
      name: "perm"
      ints: 1
      ints: 0
    }
  }
  node {
    input: "673"
    input: "674"
    input: "15"
    output: "675"
    op_type: "Gemm"
    attribute {
      name: "alpha"
      f: 1
    }
    attribute {
      name: "beta"
      f: 1
    }
    attribute {
      name: "broadcast"
      i: 1
    }
  }
  node {
    input: "14"
    output: "676"
    op_type: "Transpose"
    attribute {
      name: "perm"
      ints: 1
      ints: 0
    }
  }
  node {
    input: "668"
    input: "676"
    input: "16"
    output: "677"
    op_type: "Gemm"
    attribute {
      name: "alpha"
      f: 1
    }
    attribute {
      name: "beta"
      f: 1
    }
    attribute {
      name: "broadcast"
      i: 1
    }
  }
  node {
    input: "675"
    input: "677"
    output: "678"
    op_type: "Add"
  }
  node {
    input: "678"
    output: "680"
    output: "681"
    output: "682"
    output: "683"
    op_type: "Split"
    attribute {
      name: "axis"
      i: 1
    }
    attribute {
      name: "split"
      ints: 5
      ints: 5
      ints: 5
      ints: 5
    }
  }
  node {
    input: "680"
    output: "684"
    op_type: "Sigmoid"
  }
  node {
    input: "681"
    output: "685"
    op_type: "Sigmoid"
  }
  node {
    input: "682"
    output: "686"
    op_type: "Tanh"
  }
  node {
    input: "683"
    output: "687"
    op_type: "Sigmoid"
  }
  node {
    input: "685"
    input: "666"
    output: "688"
    op_type: "Mul"
  }
  node {
    input: "684"
    input: "686"
    output: "689"
    op_type: "Mul"
  }
  node {
    input: "688"
    input: "689"
    output: "690"
    op_type: "Add"
  }
  node {
    input: "690"
    output: "691"
    op_type: "Tanh"
  }
  node {
    input: "687"
    input: "691"
    output: "692"
    op_type: "Mul"
  }
  node {
    output: "693"
    op_type: "Constant"
    attribute {
      name: "value"
      t {
        dims: 1
        data_type: INT32
        raw_data: "\000\000\000\000"
      }
    }
  }
  node {
    output: "694"
    op_type: "Constant"
    attribute {
      name: "value"
      t {
        dims: 1
        data_type: INT64
        raw_data: "\005\000\000\000\000\000\000\000"
      }
    }
  }
  node {
    output: "695"
    op_type: "Constant"
    attribute {
      name: "value"
      t {
        dims: 1
        data_type: INT64
        raw_data: "\006\000\000\000\000\000\000\000"
      }
    }
  }
  node {
    input: "571"
    input: "693"
    input: "694"
    input: "695"
    output: "696"
    op_type: "Slice"
  }
  node {
    input: "696"
    output: "697"
    op_type: "Squeeze"
    attribute {
      name: "axes"
      ints: 0
    }
  }
  node {
    input: "13"
    output: "698"
    op_type: "Transpose"
    attribute {
      name: "perm"
      ints: 1
      ints: 0
    }
  }
  node {
    input: "697"
    input: "698"
    input: "15"
    output: "699"
    op_type: "Gemm"
    attribute {
      name: "alpha"
      f: 1
    }
    attribute {
      name: "beta"
      f: 1
    }
    attribute {
      name: "broadcast"
      i: 1
    }
  }
  node {
    input: "14"
    output: "700"
    op_type: "Transpose"
    attribute {
      name: "perm"
      ints: 1
      ints: 0
    }
  }
  node {
    input: "692"
    input: "700"
    input: "16"
    output: "701"
    op_type: "Gemm"
    attribute {
      name: "alpha"
      f: 1
    }
    attribute {
      name: "beta"
      f: 1
    }
    attribute {
      name: "broadcast"
      i: 1
    }
  }
  node {
    input: "699"
    input: "701"
    output: "702"
    op_type: "Add"
  }
  node {
    input: "702"
    output: "704"
    output: "705"
    output: "706"
    output: "707"
    op_type: "Split"
    attribute {
      name: "axis"
      i: 1
    }
    attribute {
      name: "split"
      ints: 5
      ints: 5
      ints: 5
      ints: 5
    }
  }
  node {
    input: "704"
    output: "708"
    op_type: "Sigmoid"
  }
  node {
    input: "705"
    output: "709"
    op_type: "Sigmoid"
  }
  node {
    input: "706"
    output: "710"
    op_type: "Tanh"
  }
  node {
    input: "707"
    output: "711"
    op_type: "Sigmoid"
  }
  node {
    input: "709"
    input: "690"
    output: "712"
    op_type: "Mul"
  }
  node {
    input: "708"
    input: "710"
    output: "713"
    op_type: "Mul"
  }
  node {
    input: "712"
    input: "713"
    output: "714"
    op_type: "Add"
  }
  node {
    input: "714"
    output: "715"
    op_type: "Tanh"
  }
  node {
    input: "711"
    input: "715"
    output: "716"
    op_type: "Mul"
  }
  node {
    output: "717"
    op_type: "Constant"
    attribute {
      name: "value"
      t {
        dims: 1
        data_type: INT32
        raw_data: "\000\000\000\000"
      }
    }
  }
  node {
    output: "718"
    op_type: "Constant"
    attribute {
      name: "value"
      t {
        dims: 1
        data_type: INT64
        raw_data: "\006\000\000\000\000\000\000\000"
      }
    }
  }
  node {
    output: "719"
    op_type: "Constant"
    attribute {
      name: "value"
      t {
        dims: 1
        data_type: INT64
        raw_data: "\007\000\000\000\000\000\000\000"
      }
    }
  }
  node {
    input: "571"
    input: "717"
    input: "718"
    input: "719"
    output: "720"
    op_type: "Slice"
  }
  node {
    input: "720"
    output: "721"
    op_type: "Squeeze"
    attribute {
      name: "axes"
      ints: 0
    }
  }
  node {
    input: "13"
    output: "722"
    op_type: "Transpose"
    attribute {
      name: "perm"
      ints: 1
      ints: 0
    }
  }
  node {
    input: "721"
    input: "722"
    input: "15"
    output: "723"
    op_type: "Gemm"
    attribute {
      name: "alpha"
      f: 1
    }
    attribute {
      name: "beta"
      f: 1
    }
    attribute {
      name: "broadcast"
      i: 1
    }
  }
  node {
    input: "14"
    output: "724"
    op_type: "Transpose"
    attribute {
      name: "perm"
      ints: 1
      ints: 0
    }
  }
  node {
    input: "716"
    input: "724"
    input: "16"
    output: "725"
    op_type: "Gemm"
    attribute {
      name: "alpha"
      f: 1
    }
    attribute {
      name: "beta"
      f: 1
    }
    attribute {
      name: "broadcast"
      i: 1
    }
  }
  node {
    input: "723"
    input: "725"
    output: "726"
    op_type: "Add"
  }
  node {
    input: "726"
    output: "728"
    output: "729"
    output: "730"
    output: "731"
    op_type: "Split"
    attribute {
      name: "axis"
      i: 1
    }
    attribute {
      name: "split"
      ints: 5
      ints: 5
      ints: 5
      ints: 5
    }
  }
  node {
    input: "728"
    output: "732"
    op_type: "Sigmoid"
  }
  node {
    input: "729"
    output: "733"
    op_type: "Sigmoid"
  }
  node {
    input: "730"
    output: "734"
    op_type: "Tanh"
  }
  node {
    input: "731"
    output: "735"
    op_type: "Sigmoid"
  }
  node {
    input: "733"
    input: "714"
    output: "736"
    op_type: "Mul"
  }
  node {
    input: "732"
    input: "734"
    output: "737"
    op_type: "Mul"
  }
  node {
    input: "736"
    input: "737"
    output: "738"
    op_type: "Add"
  }
  node {
    input: "738"
    output: "739"
    op_type: "Tanh"
  }
  node {
    input: "735"
    input: "739"
    output: "740"
    op_type: "Mul"
  }
  node {
    output: "741"
    op_type: "Constant"
    attribute {
      name: "value"
      t {
        dims: 1
        data_type: INT32
        raw_data: "\000\000\000\000"
      }
    }
  }
  node {
    output: "742"
    op_type: "Constant"
    attribute {
      name: "value"
      t {
        dims: 1
        data_type: INT64
        raw_data: "\007\000\000\000\000\000\000\000"
      }
    }
  }
  node {
    output: "743"
    op_type: "Constant"
    attribute {
      name: "value"
      t {
        dims: 1
        data_type: INT64
        raw_data: "\010\000\000\000\000\000\000\000"
      }
    }
  }
  node {
    input: "571"
    input: "741"
    input: "742"
    input: "743"
    output: "744"
    op_type: "Slice"
  }
  node {
    input: "744"
    output: "745"
    op_type: "Squeeze"
    attribute {
      name: "axes"
      ints: 0
    }
  }
  node {
    input: "13"
    output: "746"
    op_type: "Transpose"
    attribute {
      name: "perm"
      ints: 1
      ints: 0
    }
  }
  node {
    input: "745"
    input: "746"
    input: "15"
    output: "747"
    op_type: "Gemm"
    attribute {
      name: "alpha"
      f: 1
    }
    attribute {
      name: "beta"
      f: 1
    }
    attribute {
      name: "broadcast"
      i: 1
    }
  }
  node {
    input: "14"
    output: "748"
    op_type: "Transpose"
    attribute {
      name: "perm"
      ints: 1
      ints: 0
    }
  }
  node {
    input: "740"
    input: "748"
    input: "16"
    output: "749"
    op_type: "Gemm"
    attribute {
      name: "alpha"
      f: 1
    }
    attribute {
      name: "beta"
      f: 1
    }
    attribute {
      name: "broadcast"
      i: 1
    }
  }
  node {
    input: "747"
    input: "749"
    output: "750"
    op_type: "Add"
  }
  node {
    input: "750"
    output: "752"
    output: "753"
    output: "754"
    output: "755"
    op_type: "Split"
    attribute {
      name: "axis"
      i: 1
    }
    attribute {
      name: "split"
      ints: 5
      ints: 5
      ints: 5
      ints: 5
    }
  }
  node {
    input: "752"
    output: "756"
    op_type: "Sigmoid"
  }
  node {
    input: "753"
    output: "757"
    op_type: "Sigmoid"
  }
  node {
    input: "754"
    output: "758"
    op_type: "Tanh"
  }
  node {
    input: "755"
    output: "759"
    op_type: "Sigmoid"
  }
  node {
    input: "757"
    input: "738"
    output: "760"
    op_type: "Mul"
  }
  node {
    input: "756"
    input: "758"
    output: "761"
    op_type: "Mul"
  }
  node {
    input: "760"
    input: "761"
    output: "762"
    op_type: "Add"
  }
  node {
    input: "762"
    output: "763"
    op_type: "Tanh"
  }
  node {
    input: "759"
    input: "763"
    output: "764"
    op_type: "Mul"
  }
  node {
    output: "765"
    op_type: "Constant"
    attribute {
      name: "value"
      t {
        dims: 1
        data_type: INT32
        raw_data: "\000\000\000\000"
      }
    }
  }
  node {
    output: "766"
    op_type: "Constant"
    attribute {
      name: "value"
      t {
        dims: 1
        data_type: INT64
        raw_data: "\010\000\000\000\000\000\000\000"
      }
    }
  }
  node {
    output: "767"
    op_type: "Constant"
    attribute {
      name: "value"
      t {
        dims: 1
        data_type: INT64
        raw_data: "\t\000\000\000\000\000\000\000"
      }
    }
  }
  node {
    input: "571"
    input: "765"
    input: "766"
    input: "767"
    output: "768"
    op_type: "Slice"
  }
  node {
    input: "768"
    output: "769"
    op_type: "Squeeze"
    attribute {
      name: "axes"
      ints: 0
    }
  }
  node {
    input: "13"
    output: "770"
    op_type: "Transpose"
    attribute {
      name: "perm"
      ints: 1
      ints: 0
    }
  }
  node {
    input: "769"
    input: "770"
    input: "15"
    output: "771"
    op_type: "Gemm"
    attribute {
      name: "alpha"
      f: 1
    }
    attribute {
      name: "beta"
      f: 1
    }
    attribute {
      name: "broadcast"
      i: 1
    }
  }
  node {
    input: "14"
    output: "772"
    op_type: "Transpose"
    attribute {
      name: "perm"
      ints: 1
      ints: 0
    }
  }
  node {
    input: "764"
    input: "772"
    input: "16"
    output: "773"
    op_type: "Gemm"
    attribute {
      name: "alpha"
      f: 1
    }
    attribute {
      name: "beta"
      f: 1
    }
    attribute {
      name: "broadcast"
      i: 1
    }
  }
  node {
    input: "771"
    input: "773"
    output: "774"
    op_type: "Add"
  }
  node {
    input: "774"
    output: "776"
    output: "777"
    output: "778"
    output: "779"
    op_type: "Split"
    attribute {
      name: "axis"
      i: 1
    }
    attribute {
      name: "split"
      ints: 5
      ints: 5
      ints: 5
      ints: 5
    }
  }
  node {
    input: "776"
    output: "780"
    op_type: "Sigmoid"
  }
  node {
    input: "777"
    output: "781"
    op_type: "Sigmoid"
  }
  node {
    input: "778"
    output: "782"
    op_type: "Tanh"
  }
  node {
    input: "779"
    output: "783"
    op_type: "Sigmoid"
  }
  node {
    input: "781"
    input: "762"
    output: "784"
    op_type: "Mul"
  }
  node {
    input: "780"
    input: "782"
    output: "785"
    op_type: "Mul"
  }
  node {
    input: "784"
    input: "785"
    output: "786"
    op_type: "Add"
  }
  node {
    input: "786"
    output: "787"
    op_type: "Tanh"
  }
  node {
    input: "783"
    input: "787"
    output: "788"
    op_type: "Mul"
  }
  node {
    output: "789"
    op_type: "Constant"
    attribute {
      name: "value"
      t {
        dims: 1
        data_type: INT32
        raw_data: "\000\000\000\000"
      }
    }
  }
  node {
    output: "790"
    op_type: "Constant"
    attribute {
      name: "value"
      t {
        dims: 1
        data_type: INT64
        raw_data: "\t\000\000\000\000\000\000\000"
      }
    }
  }
  node {
    output: "791"
    op_type: "Constant"
    attribute {
      name: "value"
      t {
        dims: 1
        data_type: INT64
        raw_data: "\n\000\000\000\000\000\000\000"
      }
    }
  }
  node {
    input: "571"
    input: "789"
    input: "790"
    input: "791"
    output: "792"
    op_type: "Slice"
  }
  node {
    input: "792"
    output: "793"
    op_type: "Squeeze"
    attribute {
      name: "axes"
      ints: 0
    }
  }
  node {
    input: "13"
    output: "794"
    op_type: "Transpose"
    attribute {
      name: "perm"
      ints: 1
      ints: 0
    }
  }
  node {
    input: "793"
    input: "794"
    input: "15"
    output: "795"
    op_type: "Gemm"
    attribute {
      name: "alpha"
      f: 1
    }
    attribute {
      name: "beta"
      f: 1
    }
    attribute {
      name: "broadcast"
      i: 1
    }
  }
  node {
    input: "14"
    output: "796"
    op_type: "Transpose"
    attribute {
      name: "perm"
      ints: 1
      ints: 0
    }
  }
  node {
    input: "788"
    input: "796"
    input: "16"
    output: "797"
    op_type: "Gemm"
    attribute {
      name: "alpha"
      f: 1
    }
    attribute {
      name: "beta"
      f: 1
    }
    attribute {
      name: "broadcast"
      i: 1
    }
  }
  node {
    input: "795"
    input: "797"
    output: "798"
    op_type: "Add"
  }
  node {
    input: "798"
    output: "800"
    output: "801"
    output: "802"
    output: "803"
    op_type: "Split"
    attribute {
      name: "axis"
      i: 1
    }
    attribute {
      name: "split"
      ints: 5
      ints: 5
      ints: 5
      ints: 5
    }
  }
  node {
    input: "800"
    output: "804"
    op_type: "Sigmoid"
  }
  node {
    input: "801"
    output: "805"
    op_type: "Sigmoid"
  }
  node {
    input: "802"
    output: "806"
    op_type: "Tanh"
  }
  node {
    input: "803"
    output: "807"
    op_type: "Sigmoid"
  }
  node {
    input: "805"
    input: "786"
    output: "808"
    op_type: "Mul"
  }
  node {
    input: "804"
    input: "806"
    output: "809"
    op_type: "Mul"
  }
  node {
    input: "808"
    input: "809"
    output: "810"
    op_type: "Add"
  }
  node {
    input: "810"
    output: "811"
    op_type: "Tanh"
  }
  node {
    input: "807"
    input: "811"
    output: "812"
    op_type: "Mul"
  }
  node {
    input: "596"
    input: "620"
    input: "644"
    input: "668"
    input: "692"
    input: "716"
    input: "740"
    input: "764"
    input: "788"
    input: "812"
    output: "813"
    op_type: "Concat"
    attribute {
      name: "axis"
      i: 0
    }
  }
  node {
    input: "813"
    output: "814"
    op_type: "Reshape"
    attribute {
      name: "shape"
      ints: 10
      ints: 5
      ints: 5
    }
  }
  node {
    input: "814"
    output: "815"
    op_type: "Concat"
    attribute {
      name: "axis"
      i: 2
    }
  }
  node {
    input: "815"
    output: "817"
    output: "818"
    op_type: "Dropout"
    attribute {
      name: "ratio"
      f: 0.200000002980232
    }
    attribute {
      name: "is_test"
      i: 1
    }
  }
  node {
    output: "819"
    op_type: "Constant"
    attribute {
      name: "value"
      t {
        dims: 1
        data_type: INT32
        raw_data: "\000\000\000\000"
      }
    }
  }
  node {
    output: "820"
    op_type: "Constant"
    attribute {
      name: "value"
      t {
        dims: 1
        data_type: INT64
        raw_data: "\000\000\000\000\000\000\000\000"
      }
    }
  }
  node {
    output: "821"
    op_type: "Constant"
    attribute {
      name: "value"
      t {
        dims: 1
        data_type: INT64
        raw_data: "\001\000\000\000\000\000\000\000"
      }
    }
  }
  node {
    input: "817"
    input: "819"
    input: "820"
    input: "821"
    output: "822"
    op_type: "Slice"
  }
  node {
    input: "822"
    output: "823"
    op_type: "Squeeze"
    attribute {
      name: "axes"
      ints: 0
    }
  }
  node {
    input: "17"
    output: "824"
    op_type: "Transpose"
    attribute {
      name: "perm"
      ints: 1
      ints: 0
    }
  }
  node {
    input: "823"
    input: "824"
    input: "19"
    output: "825"
    op_type: "Gemm"
    attribute {
      name: "alpha"
      f: 1
    }
    attribute {
      name: "beta"
      f: 1
    }
    attribute {
      name: "broadcast"
      i: 1
    }
  }
  node {
    input: "18"
    output: "826"
    op_type: "Transpose"
    attribute {
      name: "perm"
      ints: 1
      ints: 0
    }
  }
  node {
    input: "65"
    input: "826"
    input: "20"
    output: "827"
    op_type: "Gemm"
    attribute {
      name: "alpha"
      f: 1
    }
    attribute {
      name: "beta"
      f: 1
    }
    attribute {
      name: "broadcast"
      i: 1
    }
  }
  node {
    input: "825"
    input: "827"
    output: "828"
    op_type: "Add"
  }
  node {
    input: "828"
    output: "830"
    output: "831"
    output: "832"
    output: "833"
    op_type: "Split"
    attribute {
      name: "axis"
      i: 1
    }
    attribute {
      name: "split"
      ints: 5
      ints: 5
      ints: 5
      ints: 5
    }
  }
  node {
    input: "830"
    output: "834"
    op_type: "Sigmoid"
  }
  node {
    input: "831"
    output: "835"
    op_type: "Sigmoid"
  }
  node {
    input: "832"
    output: "836"
    op_type: "Tanh"
  }
  node {
    input: "833"
    output: "837"
    op_type: "Sigmoid"
  }
  node {
    input: "835"
    input: "70"
    output: "838"
    op_type: "Mul"
  }
  node {
    input: "834"
    input: "836"
    output: "839"
    op_type: "Mul"
  }
  node {
    input: "838"
    input: "839"
    output: "840"
    op_type: "Add"
  }
  node {
    input: "840"
    output: "841"
    op_type: "Tanh"
  }
  node {
    input: "837"
    input: "841"
    output: "842"
    op_type: "Mul"
  }
  node {
    output: "843"
    op_type: "Constant"
    attribute {
      name: "value"
      t {
        dims: 1
        data_type: INT32
        raw_data: "\000\000\000\000"
      }
    }
  }
  node {
    output: "844"
    op_type: "Constant"
    attribute {
      name: "value"
      t {
        dims: 1
        data_type: INT64
        raw_data: "\001\000\000\000\000\000\000\000"
      }
    }
  }
  node {
    output: "845"
    op_type: "Constant"
    attribute {
      name: "value"
      t {
        dims: 1
        data_type: INT64
        raw_data: "\002\000\000\000\000\000\000\000"
      }
    }
  }
  node {
    input: "817"
    input: "843"
    input: "844"
    input: "845"
    output: "846"
    op_type: "Slice"
  }
  node {
    input: "846"
    output: "847"
    op_type: "Squeeze"
    attribute {
      name: "axes"
      ints: 0
    }
  }
  node {
    input: "17"
    output: "848"
    op_type: "Transpose"
    attribute {
      name: "perm"
      ints: 1
      ints: 0
    }
  }
  node {
    input: "847"
    input: "848"
    input: "19"
    output: "849"
    op_type: "Gemm"
    attribute {
      name: "alpha"
      f: 1
    }
    attribute {
      name: "beta"
      f: 1
    }
    attribute {
      name: "broadcast"
      i: 1
    }
  }
  node {
    input: "18"
    output: "850"
    op_type: "Transpose"
    attribute {
      name: "perm"
      ints: 1
      ints: 0
    }
  }
  node {
    input: "842"
    input: "850"
    input: "20"
    output: "851"
    op_type: "Gemm"
    attribute {
      name: "alpha"
      f: 1
    }
    attribute {
      name: "beta"
      f: 1
    }
    attribute {
      name: "broadcast"
      i: 1
    }
  }
  node {
    input: "849"
    input: "851"
    output: "852"
    op_type: "Add"
  }
  node {
    input: "852"
    output: "854"
    output: "855"
    output: "856"
    output: "857"
    op_type: "Split"
    attribute {
      name: "axis"
      i: 1
    }
    attribute {
      name: "split"
      ints: 5
      ints: 5
      ints: 5
      ints: 5
    }
  }
  node {
    input: "854"
    output: "858"
    op_type: "Sigmoid"
  }
  node {
    input: "855"
    output: "859"
    op_type: "Sigmoid"
  }
  node {
    input: "856"
    output: "860"
    op_type: "Tanh"
  }
  node {
    input: "857"
    output: "861"
    op_type: "Sigmoid"
  }
  node {
    input: "859"
    input: "840"
    output: "862"
    op_type: "Mul"
  }
  node {
    input: "858"
    input: "860"
    output: "863"
    op_type: "Mul"
  }
  node {
    input: "862"
    input: "863"
    output: "864"
    op_type: "Add"
  }
  node {
    input: "864"
    output: "865"
    op_type: "Tanh"
  }
  node {
    input: "861"
    input: "865"
    output: "866"
    op_type: "Mul"
  }
  node {
    output: "867"
    op_type: "Constant"
    attribute {
      name: "value"
      t {
        dims: 1
        data_type: INT32
        raw_data: "\000\000\000\000"
      }
    }
  }
  node {
    output: "868"
    op_type: "Constant"
    attribute {
      name: "value"
      t {
        dims: 1
        data_type: INT64
        raw_data: "\002\000\000\000\000\000\000\000"
      }
    }
  }
  node {
    output: "869"
    op_type: "Constant"
    attribute {
      name: "value"
      t {
        dims: 1
        data_type: INT64
        raw_data: "\003\000\000\000\000\000\000\000"
      }
    }
  }
  node {
    input: "817"
    input: "867"
    input: "868"
    input: "869"
    output: "870"
    op_type: "Slice"
  }
  node {
    input: "870"
    output: "871"
    op_type: "Squeeze"
    attribute {
      name: "axes"
      ints: 0
    }
  }
  node {
    input: "17"
    output: "872"
    op_type: "Transpose"
    attribute {
      name: "perm"
      ints: 1
      ints: 0
    }
  }
  node {
    input: "871"
    input: "872"
    input: "19"
    output: "873"
    op_type: "Gemm"
    attribute {
      name: "alpha"
      f: 1
    }
    attribute {
      name: "beta"
      f: 1
    }
    attribute {
      name: "broadcast"
      i: 1
    }
  }
  node {
    input: "18"
    output: "874"
    op_type: "Transpose"
    attribute {
      name: "perm"
      ints: 1
      ints: 0
    }
  }
  node {
    input: "866"
    input: "874"
    input: "20"
    output: "875"
    op_type: "Gemm"
    attribute {
      name: "alpha"
      f: 1
    }
    attribute {
      name: "beta"
      f: 1
    }
    attribute {
      name: "broadcast"
      i: 1
    }
  }
  node {
    input: "873"
    input: "875"
    output: "876"
    op_type: "Add"
  }
  node {
    input: "876"
    output: "878"
    output: "879"
    output: "880"
    output: "881"
    op_type: "Split"
    attribute {
      name: "axis"
      i: 1
    }
    attribute {
      name: "split"
      ints: 5
      ints: 5
      ints: 5
      ints: 5
    }
  }
  node {
    input: "878"
    output: "882"
    op_type: "Sigmoid"
  }
  node {
    input: "879"
    output: "883"
    op_type: "Sigmoid"
  }
  node {
    input: "880"
    output: "884"
    op_type: "Tanh"
  }
  node {
    input: "881"
    output: "885"
    op_type: "Sigmoid"
  }
  node {
    input: "883"
    input: "864"
    output: "886"
    op_type: "Mul"
  }
  node {
    input: "882"
    input: "884"
    output: "887"
    op_type: "Mul"
  }
  node {
    input: "886"
    input: "887"
    output: "888"
    op_type: "Add"
  }
  node {
    input: "888"
    output: "889"
    op_type: "Tanh"
  }
  node {
    input: "885"
    input: "889"
    output: "890"
    op_type: "Mul"
  }
  node {
    output: "891"
    op_type: "Constant"
    attribute {
      name: "value"
      t {
        dims: 1
        data_type: INT32
        raw_data: "\000\000\000\000"
      }
    }
  }
  node {
    output: "892"
    op_type: "Constant"
    attribute {
      name: "value"
      t {
        dims: 1
        data_type: INT64
        raw_data: "\003\000\000\000\000\000\000\000"
      }
    }
  }
  node {
    output: "893"
    op_type: "Constant"
    attribute {
      name: "value"
      t {
        dims: 1
        data_type: INT64
        raw_data: "\004\000\000\000\000\000\000\000"
      }
    }
  }
  node {
    input: "817"
    input: "891"
    input: "892"
    input: "893"
    output: "894"
    op_type: "Slice"
  }
  node {
    input: "894"
    output: "895"
    op_type: "Squeeze"
    attribute {
      name: "axes"
      ints: 0
    }
  }
  node {
    input: "17"
    output: "896"
    op_type: "Transpose"
    attribute {
      name: "perm"
      ints: 1
      ints: 0
    }
  }
  node {
    input: "895"
    input: "896"
    input: "19"
    output: "897"
    op_type: "Gemm"
    attribute {
      name: "alpha"
      f: 1
    }
    attribute {
      name: "beta"
      f: 1
    }
    attribute {
      name: "broadcast"
      i: 1
    }
  }
  node {
    input: "18"
    output: "898"
    op_type: "Transpose"
    attribute {
      name: "perm"
      ints: 1
      ints: 0
    }
  }
  node {
    input: "890"
    input: "898"
    input: "20"
    output: "899"
    op_type: "Gemm"
    attribute {
      name: "alpha"
      f: 1
    }
    attribute {
      name: "beta"
      f: 1
    }
    attribute {
      name: "broadcast"
      i: 1
    }
  }
  node {
    input: "897"
    input: "899"
    output: "900"
    op_type: "Add"
  }
  node {
    input: "900"
    output: "902"
    output: "903"
    output: "904"
    output: "905"
    op_type: "Split"
    attribute {
      name: "axis"
      i: 1
    }
    attribute {
      name: "split"
      ints: 5
      ints: 5
      ints: 5
      ints: 5
    }
  }
  node {
    input: "902"
    output: "906"
    op_type: "Sigmoid"
  }
  node {
    input: "903"
    output: "907"
    op_type: "Sigmoid"
  }
  node {
    input: "904"
    output: "908"
    op_type: "Tanh"
  }
  node {
    input: "905"
    output: "909"
    op_type: "Sigmoid"
  }
  node {
    input: "907"
    input: "888"
    output: "910"
    op_type: "Mul"
  }
  node {
    input: "906"
    input: "908"
    output: "911"
    op_type: "Mul"
  }
  node {
    input: "910"
    input: "911"
    output: "912"
    op_type: "Add"
  }
  node {
    input: "912"
    output: "913"
    op_type: "Tanh"
  }
  node {
    input: "909"
    input: "913"
    output: "914"
    op_type: "Mul"
  }
  node {
    output: "915"
    op_type: "Constant"
    attribute {
      name: "value"
      t {
        dims: 1
        data_type: INT32
        raw_data: "\000\000\000\000"
      }
    }
  }
  node {
    output: "916"
    op_type: "Constant"
    attribute {
      name: "value"
      t {
        dims: 1
        data_type: INT64
        raw_data: "\004\000\000\000\000\000\000\000"
      }
    }
  }
  node {
    output: "917"
    op_type: "Constant"
    attribute {
      name: "value"
      t {
        dims: 1
        data_type: INT64
        raw_data: "\005\000\000\000\000\000\000\000"
      }
    }
  }
  node {
    input: "817"
    input: "915"
    input: "916"
    input: "917"
    output: "918"
    op_type: "Slice"
  }
  node {
    input: "918"
    output: "919"
    op_type: "Squeeze"
    attribute {
      name: "axes"
      ints: 0
    }
  }
  node {
    input: "17"
    output: "920"
    op_type: "Transpose"
    attribute {
      name: "perm"
      ints: 1
      ints: 0
    }
  }
  node {
    input: "919"
    input: "920"
    input: "19"
    output: "921"
    op_type: "Gemm"
    attribute {
      name: "alpha"
      f: 1
    }
    attribute {
      name: "beta"
      f: 1
    }
    attribute {
      name: "broadcast"
      i: 1
    }
  }
  node {
    input: "18"
    output: "922"
    op_type: "Transpose"
    attribute {
      name: "perm"
      ints: 1
      ints: 0
    }
  }
  node {
    input: "914"
    input: "922"
    input: "20"
    output: "923"
    op_type: "Gemm"
    attribute {
      name: "alpha"
      f: 1
    }
    attribute {
      name: "beta"
      f: 1
    }
    attribute {
      name: "broadcast"
      i: 1
    }
  }
  node {
    input: "921"
    input: "923"
    output: "924"
    op_type: "Add"
  }
  node {
    input: "924"
    output: "926"
    output: "927"
    output: "928"
    output: "929"
    op_type: "Split"
    attribute {
      name: "axis"
      i: 1
    }
    attribute {
      name: "split"
      ints: 5
      ints: 5
      ints: 5
      ints: 5
    }
  }
  node {
    input: "926"
    output: "930"
    op_type: "Sigmoid"
  }
  node {
    input: "927"
    output: "931"
    op_type: "Sigmoid"
  }
  node {
    input: "928"
    output: "932"
    op_type: "Tanh"
  }
  node {
    input: "929"
    output: "933"
    op_type: "Sigmoid"
  }
  node {
    input: "931"
    input: "912"
    output: "934"
    op_type: "Mul"
  }
  node {
    input: "930"
    input: "932"
    output: "935"
    op_type: "Mul"
  }
  node {
    input: "934"
    input: "935"
    output: "936"
    op_type: "Add"
  }
  node {
    input: "936"
    output: "937"
    op_type: "Tanh"
  }
  node {
    input: "933"
    input: "937"
    output: "938"
    op_type: "Mul"
  }
  node {
    output: "939"
    op_type: "Constant"
    attribute {
      name: "value"
      t {
        dims: 1
        data_type: INT32
        raw_data: "\000\000\000\000"
      }
    }
  }
  node {
    output: "940"
    op_type: "Constant"
    attribute {
      name: "value"
      t {
        dims: 1
        data_type: INT64
        raw_data: "\005\000\000\000\000\000\000\000"
      }
    }
  }
  node {
    output: "941"
    op_type: "Constant"
    attribute {
      name: "value"
      t {
        dims: 1
        data_type: INT64
        raw_data: "\006\000\000\000\000\000\000\000"
      }
    }
  }
  node {
    input: "817"
    input: "939"
    input: "940"
    input: "941"
    output: "942"
    op_type: "Slice"
  }
  node {
    input: "942"
    output: "943"
    op_type: "Squeeze"
    attribute {
      name: "axes"
      ints: 0
    }
  }
  node {
    input: "17"
    output: "944"
    op_type: "Transpose"
    attribute {
      name: "perm"
      ints: 1
      ints: 0
    }
  }
  node {
    input: "943"
    input: "944"
    input: "19"
    output: "945"
    op_type: "Gemm"
    attribute {
      name: "alpha"
      f: 1
    }
    attribute {
      name: "beta"
      f: 1
    }
    attribute {
      name: "broadcast"
      i: 1
    }
  }
  node {
    input: "18"
    output: "946"
    op_type: "Transpose"
    attribute {
      name: "perm"
      ints: 1
      ints: 0
    }
  }
  node {
    input: "938"
    input: "946"
    input: "20"
    output: "947"
    op_type: "Gemm"
    attribute {
      name: "alpha"
      f: 1
    }
    attribute {
      name: "beta"
      f: 1
    }
    attribute {
      name: "broadcast"
      i: 1
    }
  }
  node {
    input: "945"
    input: "947"
    output: "948"
    op_type: "Add"
  }
  node {
    input: "948"
    output: "950"
    output: "951"
    output: "952"
    output: "953"
    op_type: "Split"
    attribute {
      name: "axis"
      i: 1
    }
    attribute {
      name: "split"
      ints: 5
      ints: 5
      ints: 5
      ints: 5
    }
  }
  node {
    input: "950"
    output: "954"
    op_type: "Sigmoid"
  }
  node {
    input: "951"
    output: "955"
    op_type: "Sigmoid"
  }
  node {
    input: "952"
    output: "956"
    op_type: "Tanh"
  }
  node {
    input: "953"
    output: "957"
    op_type: "Sigmoid"
  }
  node {
    input: "955"
    input: "936"
    output: "958"
    op_type: "Mul"
  }
  node {
    input: "954"
    input: "956"
    output: "959"
    op_type: "Mul"
  }
  node {
    input: "958"
    input: "959"
    output: "960"
    op_type: "Add"
  }
  node {
    input: "960"
    output: "961"
    op_type: "Tanh"
  }
  node {
    input: "957"
    input: "961"
    output: "962"
    op_type: "Mul"
  }
  node {
    output: "963"
    op_type: "Constant"
    attribute {
      name: "value"
      t {
        dims: 1
        data_type: INT32
        raw_data: "\000\000\000\000"
      }
    }
  }
  node {
    output: "964"
    op_type: "Constant"
    attribute {
      name: "value"
      t {
        dims: 1
        data_type: INT64
        raw_data: "\006\000\000\000\000\000\000\000"
      }
    }
  }
  node {
    output: "965"
    op_type: "Constant"
    attribute {
      name: "value"
      t {
        dims: 1
        data_type: INT64
        raw_data: "\007\000\000\000\000\000\000\000"
      }
    }
  }
  node {
    input: "817"
    input: "963"
    input: "964"
    input: "965"
    output: "966"
    op_type: "Slice"
  }
  node {
    input: "966"
    output: "967"
    op_type: "Squeeze"
    attribute {
      name: "axes"
      ints: 0
    }
  }
  node {
    input: "17"
    output: "968"
    op_type: "Transpose"
    attribute {
      name: "perm"
      ints: 1
      ints: 0
    }
  }
  node {
    input: "967"
    input: "968"
    input: "19"
    output: "969"
    op_type: "Gemm"
    attribute {
      name: "alpha"
      f: 1
    }
    attribute {
      name: "beta"
      f: 1
    }
    attribute {
      name: "broadcast"
      i: 1
    }
  }
  node {
    input: "18"
    output: "970"
    op_type: "Transpose"
    attribute {
      name: "perm"
      ints: 1
      ints: 0
    }
  }
  node {
    input: "962"
    input: "970"
    input: "20"
    output: "971"
    op_type: "Gemm"
    attribute {
      name: "alpha"
      f: 1
    }
    attribute {
      name: "beta"
      f: 1
    }
    attribute {
      name: "broadcast"
      i: 1
    }
  }
  node {
    input: "969"
    input: "971"
    output: "972"
    op_type: "Add"
  }
  node {
    input: "972"
    output: "974"
    output: "975"
    output: "976"
    output: "977"
    op_type: "Split"
    attribute {
      name: "axis"
      i: 1
    }
    attribute {
      name: "split"
      ints: 5
      ints: 5
      ints: 5
      ints: 5
    }
  }
  node {
    input: "974"
    output: "978"
    op_type: "Sigmoid"
  }
  node {
    input: "975"
    output: "979"
    op_type: "Sigmoid"
  }
  node {
    input: "976"
    output: "980"
    op_type: "Tanh"
  }
  node {
    input: "977"
    output: "981"
    op_type: "Sigmoid"
  }
  node {
    input: "979"
    input: "960"
    output: "982"
    op_type: "Mul"
  }
  node {
    input: "978"
    input: "980"
    output: "983"
    op_type: "Mul"
  }
  node {
    input: "982"
    input: "983"
    output: "984"
    op_type: "Add"
  }
  node {
    input: "984"
    output: "985"
    op_type: "Tanh"
  }
  node {
    input: "981"
    input: "985"
    output: "986"
    op_type: "Mul"
  }
  node {
    output: "987"
    op_type: "Constant"
    attribute {
      name: "value"
      t {
        dims: 1
        data_type: INT32
        raw_data: "\000\000\000\000"
      }
    }
  }
  node {
    output: "988"
    op_type: "Constant"
    attribute {
      name: "value"
      t {
        dims: 1
        data_type: INT64
        raw_data: "\007\000\000\000\000\000\000\000"
      }
    }
  }
  node {
    output: "989"
    op_type: "Constant"
    attribute {
      name: "value"
      t {
        dims: 1
        data_type: INT64
        raw_data: "\010\000\000\000\000\000\000\000"
      }
    }
  }
  node {
    input: "817"
    input: "987"
    input: "988"
    input: "989"
    output: "990"
    op_type: "Slice"
  }
  node {
    input: "990"
    output: "991"
    op_type: "Squeeze"
    attribute {
      name: "axes"
      ints: 0
    }
  }
  node {
    input: "17"
    output: "992"
    op_type: "Transpose"
    attribute {
      name: "perm"
      ints: 1
      ints: 0
    }
  }
  node {
    input: "991"
    input: "992"
    input: "19"
    output: "993"
    op_type: "Gemm"
    attribute {
      name: "alpha"
      f: 1
    }
    attribute {
      name: "beta"
      f: 1
    }
    attribute {
      name: "broadcast"
      i: 1
    }
  }
  node {
    input: "18"
    output: "994"
    op_type: "Transpose"
    attribute {
      name: "perm"
      ints: 1
      ints: 0
    }
  }
  node {
    input: "986"
    input: "994"
    input: "20"
    output: "995"
    op_type: "Gemm"
    attribute {
      name: "alpha"
      f: 1
    }
    attribute {
      name: "beta"
      f: 1
    }
    attribute {
      name: "broadcast"
      i: 1
    }
  }
  node {
    input: "993"
    input: "995"
    output: "996"
    op_type: "Add"
  }
  node {
    input: "996"
    output: "998"
    output: "999"
    output: "1000"
    output: "1001"
    op_type: "Split"
    attribute {
      name: "axis"
      i: 1
    }
    attribute {
      name: "split"
      ints: 5
      ints: 5
      ints: 5
      ints: 5
    }
  }
  node {
    input: "998"
    output: "1002"
    op_type: "Sigmoid"
  }
  node {
    input: "999"
    output: "1003"
    op_type: "Sigmoid"
  }
  node {
    input: "1000"
    output: "1004"
    op_type: "Tanh"
  }
  node {
    input: "1001"
    output: "1005"
    op_type: "Sigmoid"
  }
  node {
    input: "1003"
    input: "984"
    output: "1006"
    op_type: "Mul"
  }
  node {
    input: "1002"
    input: "1004"
    output: "1007"
    op_type: "Mul"
  }
  node {
    input: "1006"
    input: "1007"
    output: "1008"
    op_type: "Add"
  }
  node {
    input: "1008"
    output: "1009"
    op_type: "Tanh"
  }
  node {
    input: "1005"
    input: "1009"
    output: "1010"
    op_type: "Mul"
  }
  node {
    output: "1011"
    op_type: "Constant"
    attribute {
      name: "value"
      t {
        dims: 1
        data_type: INT32
        raw_data: "\000\000\000\000"
      }
    }
  }
  node {
    output: "1012"
    op_type: "Constant"
    attribute {
      name: "value"
      t {
        dims: 1
        data_type: INT64
        raw_data: "\010\000\000\000\000\000\000\000"
      }
    }
  }
  node {
    output: "1013"
    op_type: "Constant"
    attribute {
      name: "value"
      t {
        dims: 1
        data_type: INT64
        raw_data: "\t\000\000\000\000\000\000\000"
      }
    }
  }
  node {
    input: "817"
    input: "1011"
    input: "1012"
    input: "1013"
    output: "1014"
    op_type: "Slice"
  }
  node {
    input: "1014"
    output: "1015"
    op_type: "Squeeze"
    attribute {
      name: "axes"
      ints: 0
    }
  }
  node {
    input: "17"
    output: "1016"
    op_type: "Transpose"
    attribute {
      name: "perm"
      ints: 1
      ints: 0
    }
  }
  node {
    input: "1015"
    input: "1016"
    input: "19"
    output: "1017"
    op_type: "Gemm"
    attribute {
      name: "alpha"
      f: 1
    }
    attribute {
      name: "beta"
      f: 1
    }
    attribute {
      name: "broadcast"
      i: 1
    }
  }
  node {
    input: "18"
    output: "1018"
    op_type: "Transpose"
    attribute {
      name: "perm"
      ints: 1
      ints: 0
    }
  }
  node {
    input: "1010"
    input: "1018"
    input: "20"
    output: "1019"
    op_type: "Gemm"
    attribute {
      name: "alpha"
      f: 1
    }
    attribute {
      name: "beta"
      f: 1
    }
    attribute {
      name: "broadcast"
      i: 1
    }
  }
  node {
    input: "1017"
    input: "1019"
    output: "1020"
    op_type: "Add"
  }
  node {
    input: "1020"
    output: "1022"
    output: "1023"
    output: "1024"
    output: "1025"
    op_type: "Split"
    attribute {
      name: "axis"
      i: 1
    }
    attribute {
      name: "split"
      ints: 5
      ints: 5
      ints: 5
      ints: 5
    }
  }
  node {
    input: "1022"
    output: "1026"
    op_type: "Sigmoid"
  }
  node {
    input: "1023"
    output: "1027"
    op_type: "Sigmoid"
  }
  node {
    input: "1024"
    output: "1028"
    op_type: "Tanh"
  }
  node {
    input: "1025"
    output: "1029"
    op_type: "Sigmoid"
  }
  node {
    input: "1027"
    input: "1008"
    output: "1030"
    op_type: "Mul"
  }
  node {
    input: "1026"
    input: "1028"
    output: "1031"
    op_type: "Mul"
  }
  node {
    input: "1030"
    input: "1031"
    output: "1032"
    op_type: "Add"
  }
  node {
    input: "1032"
    output: "1033"
    op_type: "Tanh"
  }
  node {
    input: "1029"
    input: "1033"
    output: "1034"
    op_type: "Mul"
  }
  node {
    output: "1035"
    op_type: "Constant"
    attribute {
      name: "value"
      t {
        dims: 1
        data_type: INT32
        raw_data: "\000\000\000\000"
      }
    }
  }
  node {
    output: "1036"
    op_type: "Constant"
    attribute {
      name: "value"
      t {
        dims: 1
        data_type: INT64
        raw_data: "\t\000\000\000\000\000\000\000"
      }
    }
  }
  node {
    output: "1037"
    op_type: "Constant"
    attribute {
      name: "value"
      t {
        dims: 1
        data_type: INT64
        raw_data: "\n\000\000\000\000\000\000\000"
      }
    }
  }
  node {
    input: "817"
    input: "1035"
    input: "1036"
    input: "1037"
    output: "1038"
    op_type: "Slice"
  }
  node {
    input: "1038"
    output: "1039"
    op_type: "Squeeze"
    attribute {
      name: "axes"
      ints: 0
    }
  }
  node {
    input: "17"
    output: "1040"
    op_type: "Transpose"
    attribute {
      name: "perm"
      ints: 1
      ints: 0
    }
  }
  node {
    input: "1039"
    input: "1040"
    input: "19"
    output: "1041"
    op_type: "Gemm"
    attribute {
      name: "alpha"
      f: 1
    }
    attribute {
      name: "beta"
      f: 1
    }
    attribute {
      name: "broadcast"
      i: 1
    }
  }
  node {
    input: "18"
    output: "1042"
    op_type: "Transpose"
    attribute {
      name: "perm"
      ints: 1
      ints: 0
    }
  }
  node {
    input: "1034"
    input: "1042"
    input: "20"
    output: "1043"
    op_type: "Gemm"
    attribute {
      name: "alpha"
      f: 1
    }
    attribute {
      name: "beta"
      f: 1
    }
    attribute {
      name: "broadcast"
      i: 1
    }
  }
  node {
    input: "1041"
    input: "1043"
    output: "1044"
    op_type: "Add"
  }
  node {
    input: "1044"
    output: "1046"
    output: "1047"
    output: "1048"
    output: "1049"
    op_type: "Split"
    attribute {
      name: "axis"
      i: 1
    }
    attribute {
      name: "split"
      ints: 5
      ints: 5
      ints: 5
      ints: 5
    }
  }
  node {
    input: "1046"
    output: "1050"
    op_type: "Sigmoid"
  }
  node {
    input: "1047"
    output: "1051"
    op_type: "Sigmoid"
  }
  node {
    input: "1048"
    output: "1052"
    op_type: "Tanh"
  }
  node {
    input: "1049"
    output: "1053"
    op_type: "Sigmoid"
  }
  node {
    input: "1051"
    input: "1032"
    output: "1054"
    op_type: "Mul"
  }
  node {
    input: "1050"
    input: "1052"
    output: "1055"
    op_type: "Mul"
  }
  node {
    input: "1054"
    input: "1055"
    output: "1056"
    op_type: "Add"
  }
  node {
    input: "1056"
    output: "1057"
    op_type: "Tanh"
  }
  node {
    input: "1053"
    input: "1057"
    output: "1058"
    op_type: "Mul"
  }
  node {
    input: "842"
    input: "866"
    input: "890"
    input: "914"
    input: "938"
    input: "962"
    input: "986"
    input: "1010"
    input: "1034"
    input: "1058"
    output: "1059"
    op_type: "Concat"
    attribute {
      name: "axis"
      i: 0
    }
  }
  node {
    input: "1059"
    output: "1060"
    op_type: "Reshape"
    attribute {
      name: "shape"
      ints: 10
      ints: 5
      ints: 5
    }
  }
  node {
    input: "1060"
    output: "1061"
    op_type: "Concat"
    attribute {
      name: "axis"
      i: 2
    }
  }
  node {
    input: "1061"
    output: "1063"
    output: "1064"
    op_type: "Dropout"
    attribute {
      name: "ratio"
      f: 0.200000002980232
    }
    attribute {
      name: "is_test"
      i: 1
    }
  }
  node {
    output: "1065"
    op_type: "Constant"
    attribute {
      name: "value"
      t {
        dims: 1
        data_type: INT32
        raw_data: "\000\000\000\000"
      }
    }
  }
  node {
    output: "1066"
    op_type: "Constant"
    attribute {
      name: "value"
      t {
        dims: 1
        data_type: INT64
        raw_data: "\000\000\000\000\000\000\000\000"
      }
    }
  }
  node {
    output: "1067"
    op_type: "Constant"
    attribute {
      name: "value"
      t {
        dims: 1
        data_type: INT64
        raw_data: "\001\000\000\000\000\000\000\000"
      }
    }
  }
  node {
    input: "1063"
    input: "1065"
    input: "1066"
    input: "1067"
    output: "1068"
    op_type: "Slice"
  }
  node {
    input: "1068"
    output: "1069"
    op_type: "Squeeze"
    attribute {
      name: "axes"
      ints: 0
    }
  }
  node {
    input: "21"
    output: "1070"
    op_type: "Transpose"
    attribute {
      name: "perm"
      ints: 1
      ints: 0
    }
  }
  node {
    input: "1069"
    input: "1070"
    input: "23"
    output: "1071"
    op_type: "Gemm"
    attribute {
      name: "alpha"
      f: 1
    }
    attribute {
      name: "beta"
      f: 1
    }
    attribute {
      name: "broadcast"
      i: 1
    }
  }
  node {
    input: "22"
    output: "1072"
    op_type: "Transpose"
    attribute {
      name: "perm"
      ints: 1
      ints: 0
    }
  }
  node {
    input: "75"
    input: "1072"
    input: "24"
    output: "1073"
    op_type: "Gemm"
    attribute {
      name: "alpha"
      f: 1
    }
    attribute {
      name: "beta"
      f: 1
    }
    attribute {
      name: "broadcast"
      i: 1
    }
  }
  node {
    input: "1071"
    input: "1073"
    output: "1074"
    op_type: "Add"
  }
  node {
    input: "1074"
    output: "1076"
    output: "1077"
    output: "1078"
    output: "1079"
    op_type: "Split"
    attribute {
      name: "axis"
      i: 1
    }
    attribute {
      name: "split"
      ints: 5
      ints: 5
      ints: 5
      ints: 5
    }
  }
  node {
    input: "1076"
    output: "1080"
    op_type: "Sigmoid"
  }
  node {
    input: "1077"
    output: "1081"
    op_type: "Sigmoid"
  }
  node {
    input: "1078"
    output: "1082"
    op_type: "Tanh"
  }
  node {
    input: "1079"
    output: "1083"
    op_type: "Sigmoid"
  }
  node {
    input: "1081"
    input: "80"
    output: "1084"
    op_type: "Mul"
  }
  node {
    input: "1080"
    input: "1082"
    output: "1085"
    op_type: "Mul"
  }
  node {
    input: "1084"
    input: "1085"
    output: "1086"
    op_type: "Add"
  }
  node {
    input: "1086"
    output: "1087"
    op_type: "Tanh"
  }
  node {
    input: "1083"
    input: "1087"
    output: "1088"
    op_type: "Mul"
  }
  node {
    output: "1089"
    op_type: "Constant"
    attribute {
      name: "value"
      t {
        dims: 1
        data_type: INT32
        raw_data: "\000\000\000\000"
      }
    }
  }
  node {
    output: "1090"
    op_type: "Constant"
    attribute {
      name: "value"
      t {
        dims: 1
        data_type: INT64
        raw_data: "\001\000\000\000\000\000\000\000"
      }
    }
  }
  node {
    output: "1091"
    op_type: "Constant"
    attribute {
      name: "value"
      t {
        dims: 1
        data_type: INT64
        raw_data: "\002\000\000\000\000\000\000\000"
      }
    }
  }
  node {
    input: "1063"
    input: "1089"
    input: "1090"
    input: "1091"
    output: "1092"
    op_type: "Slice"
  }
  node {
    input: "1092"
    output: "1093"
    op_type: "Squeeze"
    attribute {
      name: "axes"
      ints: 0
    }
  }
  node {
    input: "21"
    output: "1094"
    op_type: "Transpose"
    attribute {
      name: "perm"
      ints: 1
      ints: 0
    }
  }
  node {
    input: "1093"
    input: "1094"
    input: "23"
    output: "1095"
    op_type: "Gemm"
    attribute {
      name: "alpha"
      f: 1
    }
    attribute {
      name: "beta"
      f: 1
    }
    attribute {
      name: "broadcast"
      i: 1
    }
  }
  node {
    input: "22"
    output: "1096"
    op_type: "Transpose"
    attribute {
      name: "perm"
      ints: 1
      ints: 0
    }
  }
  node {
    input: "1088"
    input: "1096"
    input: "24"
    output: "1097"
    op_type: "Gemm"
    attribute {
      name: "alpha"
      f: 1
    }
    attribute {
      name: "beta"
      f: 1
    }
    attribute {
      name: "broadcast"
      i: 1
    }
  }
  node {
    input: "1095"
    input: "1097"
    output: "1098"
    op_type: "Add"
  }
  node {
    input: "1098"
    output: "1100"
    output: "1101"
    output: "1102"
    output: "1103"
    op_type: "Split"
    attribute {
      name: "axis"
      i: 1
    }
    attribute {
      name: "split"
      ints: 5
      ints: 5
      ints: 5
      ints: 5
    }
  }
  node {
    input: "1100"
    output: "1104"
    op_type: "Sigmoid"
  }
  node {
    input: "1101"
    output: "1105"
    op_type: "Sigmoid"
  }
  node {
    input: "1102"
    output: "1106"
    op_type: "Tanh"
  }
  node {
    input: "1103"
    output: "1107"
    op_type: "Sigmoid"
  }
  node {
    input: "1105"
    input: "1086"
    output: "1108"
    op_type: "Mul"
  }
  node {
    input: "1104"
    input: "1106"
    output: "1109"
    op_type: "Mul"
  }
  node {
    input: "1108"
    input: "1109"
    output: "1110"
    op_type: "Add"
  }
  node {
    input: "1110"
    output: "1111"
    op_type: "Tanh"
  }
  node {
    input: "1107"
    input: "1111"
    output: "1112"
    op_type: "Mul"
  }
  node {
    output: "1113"
    op_type: "Constant"
    attribute {
      name: "value"
      t {
        dims: 1
        data_type: INT32
        raw_data: "\000\000\000\000"
      }
    }
  }
  node {
    output: "1114"
    op_type: "Constant"
    attribute {
      name: "value"
      t {
        dims: 1
        data_type: INT64
        raw_data: "\002\000\000\000\000\000\000\000"
      }
    }
  }
  node {
    output: "1115"
    op_type: "Constant"
    attribute {
      name: "value"
      t {
        dims: 1
        data_type: INT64
        raw_data: "\003\000\000\000\000\000\000\000"
      }
    }
  }
  node {
    input: "1063"
    input: "1113"
    input: "1114"
    input: "1115"
    output: "1116"
    op_type: "Slice"
  }
  node {
    input: "1116"
    output: "1117"
    op_type: "Squeeze"
    attribute {
      name: "axes"
      ints: 0
    }
  }
  node {
    input: "21"
    output: "1118"
    op_type: "Transpose"
    attribute {
      name: "perm"
      ints: 1
      ints: 0
    }
  }
  node {
    input: "1117"
    input: "1118"
    input: "23"
    output: "1119"
    op_type: "Gemm"
    attribute {
      name: "alpha"
      f: 1
    }
    attribute {
      name: "beta"
      f: 1
    }
    attribute {
      name: "broadcast"
      i: 1
    }
  }
  node {
    input: "22"
    output: "1120"
    op_type: "Transpose"
    attribute {
      name: "perm"
      ints: 1
      ints: 0
    }
  }
  node {
    input: "1112"
    input: "1120"
    input: "24"
    output: "1121"
    op_type: "Gemm"
    attribute {
      name: "alpha"
      f: 1
    }
    attribute {
      name: "beta"
      f: 1
    }
    attribute {
      name: "broadcast"
      i: 1
    }
  }
  node {
    input: "1119"
    input: "1121"
    output: "1122"
    op_type: "Add"
  }
  node {
    input: "1122"
    output: "1124"
    output: "1125"
    output: "1126"
    output: "1127"
    op_type: "Split"
    attribute {
      name: "axis"
      i: 1
    }
    attribute {
      name: "split"
      ints: 5
      ints: 5
      ints: 5
      ints: 5
    }
  }
  node {
    input: "1124"
    output: "1128"
    op_type: "Sigmoid"
  }
  node {
    input: "1125"
    output: "1129"
    op_type: "Sigmoid"
  }
  node {
    input: "1126"
    output: "1130"
    op_type: "Tanh"
  }
  node {
    input: "1127"
    output: "1131"
    op_type: "Sigmoid"
  }
  node {
    input: "1129"
    input: "1110"
    output: "1132"
    op_type: "Mul"
  }
  node {
    input: "1128"
    input: "1130"
    output: "1133"
    op_type: "Mul"
  }
  node {
    input: "1132"
    input: "1133"
    output: "1134"
    op_type: "Add"
  }
  node {
    input: "1134"
    output: "1135"
    op_type: "Tanh"
  }
  node {
    input: "1131"
    input: "1135"
    output: "1136"
    op_type: "Mul"
  }
  node {
    output: "1137"
    op_type: "Constant"
    attribute {
      name: "value"
      t {
        dims: 1
        data_type: INT32
        raw_data: "\000\000\000\000"
      }
    }
  }
  node {
    output: "1138"
    op_type: "Constant"
    attribute {
      name: "value"
      t {
        dims: 1
        data_type: INT64
        raw_data: "\003\000\000\000\000\000\000\000"
      }
    }
  }
  node {
    output: "1139"
    op_type: "Constant"
    attribute {
      name: "value"
      t {
        dims: 1
        data_type: INT64
        raw_data: "\004\000\000\000\000\000\000\000"
      }
    }
  }
  node {
    input: "1063"
    input: "1137"
    input: "1138"
    input: "1139"
    output: "1140"
    op_type: "Slice"
  }
  node {
    input: "1140"
    output: "1141"
    op_type: "Squeeze"
    attribute {
      name: "axes"
      ints: 0
    }
  }
  node {
    input: "21"
    output: "1142"
    op_type: "Transpose"
    attribute {
      name: "perm"
      ints: 1
      ints: 0
    }
  }
  node {
    input: "1141"
    input: "1142"
    input: "23"
    output: "1143"
    op_type: "Gemm"
    attribute {
      name: "alpha"
      f: 1
    }
    attribute {
      name: "beta"
      f: 1
    }
    attribute {
      name: "broadcast"
      i: 1
    }
  }
  node {
    input: "22"
    output: "1144"
    op_type: "Transpose"
    attribute {
      name: "perm"
      ints: 1
      ints: 0
    }
  }
  node {
    input: "1136"
    input: "1144"
    input: "24"
    output: "1145"
    op_type: "Gemm"
    attribute {
      name: "alpha"
      f: 1
    }
    attribute {
      name: "beta"
      f: 1
    }
    attribute {
      name: "broadcast"
      i: 1
    }
  }
  node {
    input: "1143"
    input: "1145"
    output: "1146"
    op_type: "Add"
  }
  node {
    input: "1146"
    output: "1148"
    output: "1149"
    output: "1150"
    output: "1151"
    op_type: "Split"
    attribute {
      name: "axis"
      i: 1
    }
    attribute {
      name: "split"
      ints: 5
      ints: 5
      ints: 5
      ints: 5
    }
  }
  node {
    input: "1148"
    output: "1152"
    op_type: "Sigmoid"
  }
  node {
    input: "1149"
    output: "1153"
    op_type: "Sigmoid"
  }
  node {
    input: "1150"
    output: "1154"
    op_type: "Tanh"
  }
  node {
    input: "1151"
    output: "1155"
    op_type: "Sigmoid"
  }
  node {
    input: "1153"
    input: "1134"
    output: "1156"
    op_type: "Mul"
  }
  node {
    input: "1152"
    input: "1154"
    output: "1157"
    op_type: "Mul"
  }
  node {
    input: "1156"
    input: "1157"
    output: "1158"
    op_type: "Add"
  }
  node {
    input: "1158"
    output: "1159"
    op_type: "Tanh"
  }
  node {
    input: "1155"
    input: "1159"
    output: "1160"
    op_type: "Mul"
  }
  node {
    output: "1161"
    op_type: "Constant"
    attribute {
      name: "value"
      t {
        dims: 1
        data_type: INT32
        raw_data: "\000\000\000\000"
      }
    }
  }
  node {
    output: "1162"
    op_type: "Constant"
    attribute {
      name: "value"
      t {
        dims: 1
        data_type: INT64
        raw_data: "\004\000\000\000\000\000\000\000"
      }
    }
  }
  node {
    output: "1163"
    op_type: "Constant"
    attribute {
      name: "value"
      t {
        dims: 1
        data_type: INT64
        raw_data: "\005\000\000\000\000\000\000\000"
      }
    }
  }
  node {
    input: "1063"
    input: "1161"
    input: "1162"
    input: "1163"
    output: "1164"
    op_type: "Slice"
  }
  node {
    input: "1164"
    output: "1165"
    op_type: "Squeeze"
    attribute {
      name: "axes"
      ints: 0
    }
  }
  node {
    input: "21"
    output: "1166"
    op_type: "Transpose"
    attribute {
      name: "perm"
      ints: 1
      ints: 0
    }
  }
  node {
    input: "1165"
    input: "1166"
    input: "23"
    output: "1167"
    op_type: "Gemm"
    attribute {
      name: "alpha"
      f: 1
    }
    attribute {
      name: "beta"
      f: 1
    }
    attribute {
      name: "broadcast"
      i: 1
    }
  }
  node {
    input: "22"
    output: "1168"
    op_type: "Transpose"
    attribute {
      name: "perm"
      ints: 1
      ints: 0
    }
  }
  node {
    input: "1160"
    input: "1168"
    input: "24"
    output: "1169"
    op_type: "Gemm"
    attribute {
      name: "alpha"
      f: 1
    }
    attribute {
      name: "beta"
      f: 1
    }
    attribute {
      name: "broadcast"
      i: 1
    }
  }
  node {
    input: "1167"
    input: "1169"
    output: "1170"
    op_type: "Add"
  }
  node {
    input: "1170"
    output: "1172"
    output: "1173"
    output: "1174"
    output: "1175"
    op_type: "Split"
    attribute {
      name: "axis"
      i: 1
    }
    attribute {
      name: "split"
      ints: 5
      ints: 5
      ints: 5
      ints: 5
    }
  }
  node {
    input: "1172"
    output: "1176"
    op_type: "Sigmoid"
  }
  node {
    input: "1173"
    output: "1177"
    op_type: "Sigmoid"
  }
  node {
    input: "1174"
    output: "1178"
    op_type: "Tanh"
  }
  node {
    input: "1175"
    output: "1179"
    op_type: "Sigmoid"
  }
  node {
    input: "1177"
    input: "1158"
    output: "1180"
    op_type: "Mul"
  }
  node {
    input: "1176"
    input: "1178"
    output: "1181"
    op_type: "Mul"
  }
  node {
    input: "1180"
    input: "1181"
    output: "1182"
    op_type: "Add"
  }
  node {
    input: "1182"
    output: "1183"
    op_type: "Tanh"
  }
  node {
    input: "1179"
    input: "1183"
    output: "1184"
    op_type: "Mul"
  }
  node {
    output: "1185"
    op_type: "Constant"
    attribute {
      name: "value"
      t {
        dims: 1
        data_type: INT32
        raw_data: "\000\000\000\000"
      }
    }
  }
  node {
    output: "1186"
    op_type: "Constant"
    attribute {
      name: "value"
      t {
        dims: 1
        data_type: INT64
        raw_data: "\005\000\000\000\000\000\000\000"
      }
    }
  }
  node {
    output: "1187"
    op_type: "Constant"
    attribute {
      name: "value"
      t {
        dims: 1
        data_type: INT64
        raw_data: "\006\000\000\000\000\000\000\000"
      }
    }
  }
  node {
    input: "1063"
    input: "1185"
    input: "1186"
    input: "1187"
    output: "1188"
    op_type: "Slice"
  }
  node {
    input: "1188"
    output: "1189"
    op_type: "Squeeze"
    attribute {
      name: "axes"
      ints: 0
    }
  }
  node {
    input: "21"
    output: "1190"
    op_type: "Transpose"
    attribute {
      name: "perm"
      ints: 1
      ints: 0
    }
  }
  node {
    input: "1189"
    input: "1190"
    input: "23"
    output: "1191"
    op_type: "Gemm"
    attribute {
      name: "alpha"
      f: 1
    }
    attribute {
      name: "beta"
      f: 1
    }
    attribute {
      name: "broadcast"
      i: 1
    }
  }
  node {
    input: "22"
    output: "1192"
    op_type: "Transpose"
    attribute {
      name: "perm"
      ints: 1
      ints: 0
    }
  }
  node {
    input: "1184"
    input: "1192"
    input: "24"
    output: "1193"
    op_type: "Gemm"
    attribute {
      name: "alpha"
      f: 1
    }
    attribute {
      name: "beta"
      f: 1
    }
    attribute {
      name: "broadcast"
      i: 1
    }
  }
  node {
    input: "1191"
    input: "1193"
    output: "1194"
    op_type: "Add"
  }
  node {
    input: "1194"
    output: "1196"
    output: "1197"
    output: "1198"
    output: "1199"
    op_type: "Split"
    attribute {
      name: "axis"
      i: 1
    }
    attribute {
      name: "split"
      ints: 5
      ints: 5
      ints: 5
      ints: 5
    }
  }
  node {
    input: "1196"
    output: "1200"
    op_type: "Sigmoid"
  }
  node {
    input: "1197"
    output: "1201"
    op_type: "Sigmoid"
  }
  node {
    input: "1198"
    output: "1202"
    op_type: "Tanh"
  }
  node {
    input: "1199"
    output: "1203"
    op_type: "Sigmoid"
  }
  node {
    input: "1201"
    input: "1182"
    output: "1204"
    op_type: "Mul"
  }
  node {
    input: "1200"
    input: "1202"
    output: "1205"
    op_type: "Mul"
  }
  node {
    input: "1204"
    input: "1205"
    output: "1206"
    op_type: "Add"
  }
  node {
    input: "1206"
    output: "1207"
    op_type: "Tanh"
  }
  node {
    input: "1203"
    input: "1207"
    output: "1208"
    op_type: "Mul"
  }
  node {
    output: "1209"
    op_type: "Constant"
    attribute {
      name: "value"
      t {
        dims: 1
        data_type: INT32
        raw_data: "\000\000\000\000"
      }
    }
  }
  node {
    output: "1210"
    op_type: "Constant"
    attribute {
      name: "value"
      t {
        dims: 1
        data_type: INT64
        raw_data: "\006\000\000\000\000\000\000\000"
      }
    }
  }
  node {
    output: "1211"
    op_type: "Constant"
    attribute {
      name: "value"
      t {
        dims: 1
        data_type: INT64
        raw_data: "\007\000\000\000\000\000\000\000"
      }
    }
  }
  node {
    input: "1063"
    input: "1209"
    input: "1210"
    input: "1211"
    output: "1212"
    op_type: "Slice"
  }
  node {
    input: "1212"
    output: "1213"
    op_type: "Squeeze"
    attribute {
      name: "axes"
      ints: 0
    }
  }
  node {
    input: "21"
    output: "1214"
    op_type: "Transpose"
    attribute {
      name: "perm"
      ints: 1
      ints: 0
    }
  }
  node {
    input: "1213"
    input: "1214"
    input: "23"
    output: "1215"
    op_type: "Gemm"
    attribute {
      name: "alpha"
      f: 1
    }
    attribute {
      name: "beta"
      f: 1
    }
    attribute {
      name: "broadcast"
      i: 1
    }
  }
  node {
    input: "22"
    output: "1216"
    op_type: "Transpose"
    attribute {
      name: "perm"
      ints: 1
      ints: 0
    }
  }
  node {
    input: "1208"
    input: "1216"
    input: "24"
    output: "1217"
    op_type: "Gemm"
    attribute {
      name: "alpha"
      f: 1
    }
    attribute {
      name: "beta"
      f: 1
    }
    attribute {
      name: "broadcast"
      i: 1
    }
  }
  node {
    input: "1215"
    input: "1217"
    output: "1218"
    op_type: "Add"
  }
  node {
    input: "1218"
    output: "1220"
    output: "1221"
    output: "1222"
    output: "1223"
    op_type: "Split"
    attribute {
      name: "axis"
      i: 1
    }
    attribute {
      name: "split"
      ints: 5
      ints: 5
      ints: 5
      ints: 5
    }
  }
  node {
    input: "1220"
    output: "1224"
    op_type: "Sigmoid"
  }
  node {
    input: "1221"
    output: "1225"
    op_type: "Sigmoid"
  }
  node {
    input: "1222"
    output: "1226"
    op_type: "Tanh"
  }
  node {
    input: "1223"
    output: "1227"
    op_type: "Sigmoid"
  }
  node {
    input: "1225"
    input: "1206"
    output: "1228"
    op_type: "Mul"
  }
  node {
    input: "1224"
    input: "1226"
    output: "1229"
    op_type: "Mul"
  }
  node {
    input: "1228"
    input: "1229"
    output: "1230"
    op_type: "Add"
  }
  node {
    input: "1230"
    output: "1231"
    op_type: "Tanh"
  }
  node {
    input: "1227"
    input: "1231"
    output: "1232"
    op_type: "Mul"
  }
  node {
    output: "1233"
    op_type: "Constant"
    attribute {
      name: "value"
      t {
        dims: 1
        data_type: INT32
        raw_data: "\000\000\000\000"
      }
    }
  }
  node {
    output: "1234"
    op_type: "Constant"
    attribute {
      name: "value"
      t {
        dims: 1
        data_type: INT64
        raw_data: "\007\000\000\000\000\000\000\000"
      }
    }
  }
  node {
    output: "1235"
    op_type: "Constant"
    attribute {
      name: "value"
      t {
        dims: 1
        data_type: INT64
        raw_data: "\010\000\000\000\000\000\000\000"
      }
    }
  }
  node {
    input: "1063"
    input: "1233"
    input: "1234"
    input: "1235"
    output: "1236"
    op_type: "Slice"
  }
  node {
    input: "1236"
    output: "1237"
    op_type: "Squeeze"
    attribute {
      name: "axes"
      ints: 0
    }
  }
  node {
    input: "21"
    output: "1238"
    op_type: "Transpose"
    attribute {
      name: "perm"
      ints: 1
      ints: 0
    }
  }
  node {
    input: "1237"
    input: "1238"
    input: "23"
    output: "1239"
    op_type: "Gemm"
    attribute {
      name: "alpha"
      f: 1
    }
    attribute {
      name: "beta"
      f: 1
    }
    attribute {
      name: "broadcast"
      i: 1
    }
  }
  node {
    input: "22"
    output: "1240"
    op_type: "Transpose"
    attribute {
      name: "perm"
      ints: 1
      ints: 0
    }
  }
  node {
    input: "1232"
    input: "1240"
    input: "24"
    output: "1241"
    op_type: "Gemm"
    attribute {
      name: "alpha"
      f: 1
    }
    attribute {
      name: "beta"
      f: 1
    }
    attribute {
      name: "broadcast"
      i: 1
    }
  }
  node {
    input: "1239"
    input: "1241"
    output: "1242"
    op_type: "Add"
  }
  node {
    input: "1242"
    output: "1244"
    output: "1245"
    output: "1246"
    output: "1247"
    op_type: "Split"
    attribute {
      name: "axis"
      i: 1
    }
    attribute {
      name: "split"
      ints: 5
      ints: 5
      ints: 5
      ints: 5
    }
  }
  node {
    input: "1244"
    output: "1248"
    op_type: "Sigmoid"
  }
  node {
    input: "1245"
    output: "1249"
    op_type: "Sigmoid"
  }
  node {
    input: "1246"
    output: "1250"
    op_type: "Tanh"
  }
  node {
    input: "1247"
    output: "1251"
    op_type: "Sigmoid"
  }
  node {
    input: "1249"
    input: "1230"
    output: "1252"
    op_type: "Mul"
  }
  node {
    input: "1248"
    input: "1250"
    output: "1253"
    op_type: "Mul"
  }
  node {
    input: "1252"
    input: "1253"
    output: "1254"
    op_type: "Add"
  }
  node {
    input: "1254"
    output: "1255"
    op_type: "Tanh"
  }
  node {
    input: "1251"
    input: "1255"
    output: "1256"
    op_type: "Mul"
  }
  node {
    output: "1257"
    op_type: "Constant"
    attribute {
      name: "value"
      t {
        dims: 1
        data_type: INT32
        raw_data: "\000\000\000\000"
      }
    }
  }
  node {
    output: "1258"
    op_type: "Constant"
    attribute {
      name: "value"
      t {
        dims: 1
        data_type: INT64
        raw_data: "\010\000\000\000\000\000\000\000"
      }
    }
  }
  node {
    output: "1259"
    op_type: "Constant"
    attribute {
      name: "value"
      t {
        dims: 1
        data_type: INT64
        raw_data: "\t\000\000\000\000\000\000\000"
      }
    }
  }
  node {
    input: "1063"
    input: "1257"
    input: "1258"
    input: "1259"
    output: "1260"
    op_type: "Slice"
  }
  node {
    input: "1260"
    output: "1261"
    op_type: "Squeeze"
    attribute {
      name: "axes"
      ints: 0
    }
  }
  node {
    input: "21"
    output: "1262"
    op_type: "Transpose"
    attribute {
      name: "perm"
      ints: 1
      ints: 0
    }
  }
  node {
    input: "1261"
    input: "1262"
    input: "23"
    output: "1263"
    op_type: "Gemm"
    attribute {
      name: "alpha"
      f: 1
    }
    attribute {
      name: "beta"
      f: 1
    }
    attribute {
      name: "broadcast"
      i: 1
    }
  }
  node {
    input: "22"
    output: "1264"
    op_type: "Transpose"
    attribute {
      name: "perm"
      ints: 1
      ints: 0
    }
  }
  node {
    input: "1256"
    input: "1264"
    input: "24"
    output: "1265"
    op_type: "Gemm"
    attribute {
      name: "alpha"
      f: 1
    }
    attribute {
      name: "beta"
      f: 1
    }
    attribute {
      name: "broadcast"
      i: 1
    }
  }
  node {
    input: "1263"
    input: "1265"
    output: "1266"
    op_type: "Add"
  }
  node {
    input: "1266"
    output: "1268"
    output: "1269"
    output: "1270"
    output: "1271"
    op_type: "Split"
    attribute {
      name: "axis"
      i: 1
    }
    attribute {
      name: "split"
      ints: 5
      ints: 5
      ints: 5
      ints: 5
    }
  }
  node {
    input: "1268"
    output: "1272"
    op_type: "Sigmoid"
  }
  node {
    input: "1269"
    output: "1273"
    op_type: "Sigmoid"
  }
  node {
    input: "1270"
    output: "1274"
    op_type: "Tanh"
  }
  node {
    input: "1271"
    output: "1275"
    op_type: "Sigmoid"
  }
  node {
    input: "1273"
    input: "1254"
    output: "1276"
    op_type: "Mul"
  }
  node {
    input: "1272"
    input: "1274"
    output: "1277"
    op_type: "Mul"
  }
  node {
    input: "1276"
    input: "1277"
    output: "1278"
    op_type: "Add"
  }
  node {
    input: "1278"
    output: "1279"
    op_type: "Tanh"
  }
  node {
    input: "1275"
    input: "1279"
    output: "1280"
    op_type: "Mul"
  }
  node {
    output: "1281"
    op_type: "Constant"
    attribute {
      name: "value"
      t {
        dims: 1
        data_type: INT32
        raw_data: "\000\000\000\000"
      }
    }
  }
  node {
    output: "1282"
    op_type: "Constant"
    attribute {
      name: "value"
      t {
        dims: 1
        data_type: INT64
        raw_data: "\t\000\000\000\000\000\000\000"
      }
    }
  }
  node {
    output: "1283"
    op_type: "Constant"
    attribute {
      name: "value"
      t {
        dims: 1
        data_type: INT64
        raw_data: "\n\000\000\000\000\000\000\000"
      }
    }
  }
  node {
    input: "1063"
    input: "1281"
    input: "1282"
    input: "1283"
    output: "1284"
    op_type: "Slice"
  }
  node {
    input: "1284"
    output: "1285"
    op_type: "Squeeze"
    attribute {
      name: "axes"
      ints: 0
    }
  }
  node {
    input: "21"
    output: "1286"
    op_type: "Transpose"
    attribute {
      name: "perm"
      ints: 1
      ints: 0
    }
  }
  node {
    input: "1285"
    input: "1286"
    input: "23"
    output: "1287"
    op_type: "Gemm"
    attribute {
      name: "alpha"
      f: 1
    }
    attribute {
      name: "beta"
      f: 1
    }
    attribute {
      name: "broadcast"
      i: 1
    }
  }
  node {
    input: "22"
    output: "1288"
    op_type: "Transpose"
    attribute {
      name: "perm"
      ints: 1
      ints: 0
    }
  }
  node {
    input: "1280"
    input: "1288"
    input: "24"
    output: "1289"
    op_type: "Gemm"
    attribute {
      name: "alpha"
      f: 1
    }
    attribute {
      name: "beta"
      f: 1
    }
    attribute {
      name: "broadcast"
      i: 1
    }
  }
  node {
    input: "1287"
    input: "1289"
    output: "1290"
    op_type: "Add"
  }
  node {
    input: "1290"
    output: "1292"
    output: "1293"
    output: "1294"
    output: "1295"
    op_type: "Split"
    attribute {
      name: "axis"
      i: 1
    }
    attribute {
      name: "split"
      ints: 5
      ints: 5
      ints: 5
      ints: 5
    }
  }
  node {
    input: "1292"
    output: "1296"
    op_type: "Sigmoid"
  }
  node {
    input: "1293"
    output: "1297"
    op_type: "Sigmoid"
  }
  node {
    input: "1294"
    output: "1298"
    op_type: "Tanh"
  }
  node {
    input: "1295"
    output: "1299"
    op_type: "Sigmoid"
  }
  node {
    input: "1297"
    input: "1278"
    output: "1300"
    op_type: "Mul"
  }
  node {
    input: "1296"
    input: "1298"
    output: "1301"
    op_type: "Mul"
  }
  node {
    input: "1300"
    input: "1301"
    output: "1302"
    op_type: "Add"
  }
  node {
    input: "1302"
    output: "1303"
    op_type: "Tanh"
  }
  node {
    input: "1299"
    input: "1303"
    output: "1304"
    op_type: "Mul"
  }
  node {
    input: "1088"
    input: "1112"
    input: "1136"
    input: "1160"
    input: "1184"
    input: "1208"
    input: "1232"
    input: "1256"
    input: "1280"
    input: "1304"
    output: "1305"
    op_type: "Concat"
    attribute {
      name: "axis"
      i: 0
    }
  }
  node {
    input: "1305"
    output: "1306"
    op_type: "Reshape"
    attribute {
      name: "shape"
      ints: 10
      ints: 5
      ints: 5
    }
  }
  node {
    input: "1306"
    output: "1307"
    op_type: "Concat"
    attribute {
      name: "axis"
      i: 2
    }
  }
  node {
    input: "320"
    input: "566"
    input: "812"
    input: "1058"
    input: "1304"
    output: "1308"
    op_type: "Concat"
    attribute {
      name: "axis"
      i: 0
    }
  }
  node {
    input: "1308"
    output: "1309"
    op_type: "Reshape"
    attribute {
      name: "shape"
      ints: 5
      ints: 5
      ints: 5
    }
  }
  node {
    input: "318"
    input: "564"
    input: "810"
    input: "1056"
    input: "1302"
    output: "1310"
    op_type: "Concat"
    attribute {
      name: "axis"
      i: 0
    }
  }
  node {
    input: "1310"
    output: "1311"
    op_type: "Reshape"
    attribute {
      name: "shape"
      ints: 5
      ints: 5
      ints: 5
    }
  }
  node {
    input: "1307"
    output: "1313"
    output: "1314"
    op_type: "Dropout"
    attribute {
      name: "ratio"
      f: 0.200000002980232
    }
    attribute {
      name: "is_test"
      i: 1
    }
  }
  node {
    input: "1313"
    output: "1315"
    op_type: "Reshape"
    attribute {
      name: "shape"
      ints: 50
      ints: 5
    }
  }
  node {
    input: "25"
    output: "1316"
    op_type: "Transpose"
    attribute {
      name: "perm"
      ints: 1
      ints: 0
    }
  }
  node {
    input: "1315"
    input: "1316"
    input: "26"
    output: "1317"
    op_type: "Gemm"
    attribute {
      name: "alpha"
      f: 1
    }
    attribute {
      name: "beta"
      f: 1
    }
    attribute {
      name: "broadcast"
      i: 1
    }
  }
  node {
    input: "1317"
    output: "1318"
    op_type: "Reshape"
    attribute {
      name: "shape"
      ints: 10
      ints: 5
      ints: 10
    }
  }
  name: "torch-jit-export"
  input {
    name: "1"
    type {
      tensor_type {
        elem_type: INT64
        shape {
          dim {
            dim_value: 10
          }
          dim {
            dim_value: 5
          }
        }
      }
    }
  }
  input {
    name: "2"
    type {
      tensor_type {
        elem_type: FLOAT
        shape {
          dim {
            dim_value: 5
          }
          dim {
            dim_value: 5
          }
          dim {
            dim_value: 5
          }
        }
      }
    }
  }
  input {
    name: "3"
    type {
      tensor_type {
        elem_type: FLOAT
        shape {
          dim {
            dim_value: 5
          }
          dim {
            dim_value: 5
          }
          dim {
            dim_value: 5
          }
        }
      }
    }
  }
  input {
    name: "4"
    type {
      tensor_type {
        elem_type: FLOAT
        shape {
          dim {
            dim_value: 10
          }
          dim {
            dim_value: 5
          }
        }
      }
    }
  }
  input {
    name: "5"
    type {
      tensor_type {
        elem_type: FLOAT
        shape {
          dim {
            dim_value: 20
          }
          dim {
            dim_value: 5
          }
        }
      }
    }
  }
  input {
    name: "6"
    type {
      tensor_type {
        elem_type: FLOAT
        shape {
          dim {
            dim_value: 20
          }
          dim {
            dim_value: 5
          }
        }
      }
    }
  }
  input {
    name: "7"
    type {
      tensor_type {
        elem_type: FLOAT
        shape {
          dim {
            dim_value: 20
          }
        }
      }
    }
  }
  input {
    name: "8"
    type {
      tensor_type {
        elem_type: FLOAT
        shape {
          dim {
            dim_value: 20
          }
        }
      }
    }
  }
  input {
    name: "9"
    type {
      tensor_type {
        elem_type: FLOAT
        shape {
          dim {
            dim_value: 20
          }
          dim {
            dim_value: 5
          }
        }
      }
    }
  }
  input {
    name: "10"
    type {
      tensor_type {
        elem_type: FLOAT
        shape {
          dim {
            dim_value: 20
          }
          dim {
            dim_value: 5
          }
        }
      }
    }
  }
  input {
    name: "11"
    type {
      tensor_type {
        elem_type: FLOAT
        shape {
          dim {
            dim_value: 20
          }
        }
      }
    }
  }
  input {
    name: "12"
    type {
      tensor_type {
        elem_type: FLOAT
        shape {
          dim {
            dim_value: 20
          }
        }
      }
    }
  }
  input {
    name: "13"
    type {
      tensor_type {
        elem_type: FLOAT
        shape {
          dim {
            dim_value: 20
          }
          dim {
            dim_value: 5
          }
        }
      }
    }
  }
  input {
    name: "14"
    type {
      tensor_type {
        elem_type: FLOAT
        shape {
          dim {
            dim_value: 20
          }
          dim {
            dim_value: 5
          }
        }
      }
    }
  }
  input {
    name: "15"
    type {
      tensor_type {
        elem_type: FLOAT
        shape {
          dim {
            dim_value: 20
          }
        }
      }
    }
  }
  input {
    name: "16"
    type {
      tensor_type {
        elem_type: FLOAT
        shape {
          dim {
            dim_value: 20
          }
        }
      }
    }
  }
  input {
    name: "17"
    type {
      tensor_type {
        elem_type: FLOAT
        shape {
          dim {
            dim_value: 20
          }
          dim {
            dim_value: 5
          }
        }
      }
    }
  }
  input {
    name: "18"
    type {
      tensor_type {
        elem_type: FLOAT
        shape {
          dim {
            dim_value: 20
          }
          dim {
            dim_value: 5
          }
        }
      }
    }
  }
  input {
    name: "19"
    type {
      tensor_type {
        elem_type: FLOAT
        shape {
          dim {
            dim_value: 20
          }
        }
      }
    }
  }
  input {
    name: "20"
    type {
      tensor_type {
        elem_type: FLOAT
        shape {
          dim {
            dim_value: 20
          }
        }
      }
    }
  }
  input {
    name: "21"
    type {
      tensor_type {
        elem_type: FLOAT
        shape {
          dim {
            dim_value: 20
          }
          dim {
            dim_value: 5
          }
        }
      }
    }
  }
  input {
    name: "22"
    type {
      tensor_type {
        elem_type: FLOAT
        shape {
          dim {
            dim_value: 20
          }
          dim {
            dim_value: 5
          }
        }
      }
    }
  }
  input {
    name: "23"
    type {
      tensor_type {
        elem_type: FLOAT
        shape {
          dim {
            dim_value: 20
          }
        }
      }
    }
  }
  input {
    name: "24"
    type {
      tensor_type {
        elem_type: FLOAT
        shape {
          dim {
            dim_value: 20
          }
        }
      }
    }
  }
  input {
    name: "25"
    type {
      tensor_type {
        elem_type: FLOAT
        shape {
          dim {
            dim_value: 10
          }
          dim {
            dim_value: 5
          }
        }
      }
    }
  }
  input {
    name: "26"
    type {
      tensor_type {
        elem_type: FLOAT
        shape {
          dim {
            dim_value: 10
          }
        }
      }
    }
  }
  output {
    name: "1318"
    type {
      tensor_type {
        elem_type: FLOAT
        shape {
          dim {
            dim_value: 10
          }
          dim {
            dim_value: 5
          }
          dim {
            dim_value: 10
          }
        }
      }
    }
  }
}
