ir_version: 1
producer_name: "pytorch"
producer_version: "0.2"
domain: "com.facebook"
graph {
  node {
    input: "3"
    input: "1"
    output: "26"
    op_type: "Gather"
  }
  node {
    input: "26"
    output: "28"
    output: "29"
    op_type: "Dropout"
    attribute {
      name: "is_test"
      i: 1
    }
    attribute {
      name: "ratio"
      f: 0.200000002980232
    }
  }
  node {
    output: "30"
    op_type: "Constant"
    attribute {
      name: "value"
      t {
        dims: 1
        data_type: INT32
        raw_data: "\000\000\000\000"
      }
    }
  }
  node {
    output: "31"
    op_type: "Constant"
    attribute {
      name: "value"
      t {
        dims: 1
        data_type: INT64
        raw_data: "\000\000\000\000\000\000\000\000"
      }
    }
  }
  node {
    output: "32"
    op_type: "Constant"
    attribute {
      name: "value"
      t {
        dims: 1
        data_type: INT64
        raw_data: "\001\000\000\000\000\000\000\000"
      }
    }
  }
  node {
    input: "2"
    input: "30"
    input: "31"
    input: "32"
    output: "33"
    op_type: "Slice"
  }
  node {
    input: "33"
    output: "34"
    op_type: "Squeeze"
    attribute {
      name: "axes"
      ints: 0
    }
  }
  node {
    output: "35"
    op_type: "Constant"
    attribute {
      name: "value"
      t {
        dims: 1
        data_type: INT32
        raw_data: "\000\000\000\000"
      }
    }
  }
  node {
    output: "36"
    op_type: "Constant"
    attribute {
      name: "value"
      t {
        dims: 1
        data_type: INT64
        raw_data: "\000\000\000\000\000\000\000\000"
      }
    }
  }
  node {
    output: "37"
    op_type: "Constant"
    attribute {
      name: "value"
      t {
        dims: 1
        data_type: INT64
        raw_data: "\001\000\000\000\000\000\000\000"
      }
    }
  }
  node {
    input: "28"
    input: "35"
    input: "36"
    input: "37"
    output: "38"
    op_type: "Slice"
  }
  node {
    input: "38"
    output: "39"
    op_type: "Squeeze"
    attribute {
      name: "axes"
      ints: 0
    }
  }
  node {
    input: "4"
    output: "40"
    op_type: "Transpose"
    attribute {
      name: "perm"
      ints: 1
      ints: 0
    }
  }
  node {
    input: "39"
    input: "40"
    input: "6"
    output: "742"
    op_type: "Gemm"
    attribute {
      name: "alpha"
      f: 1
    }
    attribute {
      name: "beta"
      f: 1
    }
    attribute {
      name: "broadcast"
      i: 1
    }
  }
  node {
    input: "5"
    output: "43"
    op_type: "Transpose"
    attribute {
      name: "perm"
      ints: 1
      ints: 0
    }
  }
  node {
    input: "34"
    input: "43"
    input: "7"
    output: "743"
    op_type: "Gemm"
    attribute {
      name: "alpha"
      f: 1
    }
    attribute {
      name: "beta"
      f: 1
    }
    attribute {
      name: "broadcast"
      i: 1
    }
  }
  node {
    input: "742"
    input: "743"
    output: "46"
    op_type: "Add"
  }
  node {
    input: "46"
    output: "47"
    op_type: "Tanh"
  }
  node {
    output: "48"
    op_type: "Constant"
    attribute {
      name: "value"
      t {
        dims: 1
        data_type: INT32
        raw_data: "\000\000\000\000"
      }
    }
  }
  node {
    output: "49"
    op_type: "Constant"
    attribute {
      name: "value"
      t {
        dims: 1
        data_type: INT64
        raw_data: "\001\000\000\000\000\000\000\000"
      }
    }
  }
  node {
    output: "50"
    op_type: "Constant"
    attribute {
      name: "value"
      t {
        dims: 1
        data_type: INT64
        raw_data: "\002\000\000\000\000\000\000\000"
      }
    }
  }
  node {
    input: "28"
    input: "48"
    input: "49"
    input: "50"
    output: "51"
    op_type: "Slice"
  }
  node {
    input: "51"
    output: "52"
    op_type: "Squeeze"
    attribute {
      name: "axes"
      ints: 0
    }
  }
  node {
    input: "4"
    output: "53"
    op_type: "Transpose"
    attribute {
      name: "perm"
      ints: 1
      ints: 0
    }
  }
  node {
    input: "52"
    input: "53"
    input: "6"
    output: "744"
    op_type: "Gemm"
    attribute {
      name: "alpha"
      f: 1
    }
    attribute {
      name: "beta"
      f: 1
    }
    attribute {
      name: "broadcast"
      i: 1
    }
  }
  node {
    input: "5"
    output: "56"
    op_type: "Transpose"
    attribute {
      name: "perm"
      ints: 1
      ints: 0
    }
  }
  node {
    input: "47"
    input: "56"
    input: "7"
    output: "745"
    op_type: "Gemm"
    attribute {
      name: "alpha"
      f: 1
    }
    attribute {
      name: "beta"
      f: 1
    }
    attribute {
      name: "broadcast"
      i: 1
    }
  }
  node {
    input: "744"
    input: "745"
    output: "59"
    op_type: "Add"
  }
  node {
    input: "59"
    output: "60"
    op_type: "Tanh"
  }
  node {
    output: "61"
    op_type: "Constant"
    attribute {
      name: "value"
      t {
        dims: 1
        data_type: INT32
        raw_data: "\000\000\000\000"
      }
    }
  }
  node {
    output: "62"
    op_type: "Constant"
    attribute {
      name: "value"
      t {
        dims: 1
        data_type: INT64
        raw_data: "\002\000\000\000\000\000\000\000"
      }
    }
  }
  node {
    output: "63"
    op_type: "Constant"
    attribute {
      name: "value"
      t {
        dims: 1
        data_type: INT64
        raw_data: "\003\000\000\000\000\000\000\000"
      }
    }
  }
  node {
    input: "28"
    input: "61"
    input: "62"
    input: "63"
    output: "64"
    op_type: "Slice"
  }
  node {
    input: "64"
    output: "65"
    op_type: "Squeeze"
    attribute {
      name: "axes"
      ints: 0
    }
  }
  node {
    input: "4"
    output: "66"
    op_type: "Transpose"
    attribute {
      name: "perm"
      ints: 1
      ints: 0
    }
  }
  node {
    input: "65"
    input: "66"
    input: "6"
    output: "746"
    op_type: "Gemm"
    attribute {
      name: "alpha"
      f: 1
    }
    attribute {
      name: "beta"
      f: 1
    }
    attribute {
      name: "broadcast"
      i: 1
    }
  }
  node {
    input: "5"
    output: "69"
    op_type: "Transpose"
    attribute {
      name: "perm"
      ints: 1
      ints: 0
    }
  }
  node {
    input: "60"
    input: "69"
    input: "7"
    output: "747"
    op_type: "Gemm"
    attribute {
      name: "alpha"
      f: 1
    }
    attribute {
      name: "beta"
      f: 1
    }
    attribute {
      name: "broadcast"
      i: 1
    }
  }
  node {
    input: "746"
    input: "747"
    output: "72"
    op_type: "Add"
  }
  node {
    input: "72"
    output: "73"
    op_type: "Tanh"
  }
  node {
    output: "74"
    op_type: "Constant"
    attribute {
      name: "value"
      t {
        dims: 1
        data_type: INT32
        raw_data: "\000\000\000\000"
      }
    }
  }
  node {
    output: "75"
    op_type: "Constant"
    attribute {
      name: "value"
      t {
        dims: 1
        data_type: INT64
        raw_data: "\003\000\000\000\000\000\000\000"
      }
    }
  }
  node {
    output: "76"
    op_type: "Constant"
    attribute {
      name: "value"
      t {
        dims: 1
        data_type: INT64
        raw_data: "\004\000\000\000\000\000\000\000"
      }
    }
  }
  node {
    input: "28"
    input: "74"
    input: "75"
    input: "76"
    output: "77"
    op_type: "Slice"
  }
  node {
    input: "77"
    output: "78"
    op_type: "Squeeze"
    attribute {
      name: "axes"
      ints: 0
    }
  }
  node {
    input: "4"
    output: "79"
    op_type: "Transpose"
    attribute {
      name: "perm"
      ints: 1
      ints: 0
    }
  }
  node {
    input: "78"
    input: "79"
    input: "6"
    output: "748"
    op_type: "Gemm"
    attribute {
      name: "alpha"
      f: 1
    }
    attribute {
      name: "beta"
      f: 1
    }
    attribute {
      name: "broadcast"
      i: 1
    }
  }
  node {
    input: "5"
    output: "82"
    op_type: "Transpose"
    attribute {
      name: "perm"
      ints: 1
      ints: 0
    }
  }
  node {
    input: "73"
    input: "82"
    input: "7"
    output: "749"
    op_type: "Gemm"
    attribute {
      name: "alpha"
      f: 1
    }
    attribute {
      name: "beta"
      f: 1
    }
    attribute {
      name: "broadcast"
      i: 1
    }
  }
  node {
    input: "748"
    input: "749"
    output: "85"
    op_type: "Add"
  }
  node {
    input: "85"
    output: "86"
    op_type: "Tanh"
  }
  node {
    output: "87"
    op_type: "Constant"
    attribute {
      name: "value"
      t {
        dims: 1
        data_type: INT32
        raw_data: "\000\000\000\000"
      }
    }
  }
  node {
    output: "88"
    op_type: "Constant"
    attribute {
      name: "value"
      t {
        dims: 1
        data_type: INT64
        raw_data: "\004\000\000\000\000\000\000\000"
      }
    }
  }
  node {
    output: "89"
    op_type: "Constant"
    attribute {
      name: "value"
      t {
        dims: 1
        data_type: INT64
        raw_data: "\005\000\000\000\000\000\000\000"
      }
    }
  }
  node {
    input: "28"
    input: "87"
    input: "88"
    input: "89"
    output: "90"
    op_type: "Slice"
  }
  node {
    input: "90"
    output: "91"
    op_type: "Squeeze"
    attribute {
      name: "axes"
      ints: 0
    }
  }
  node {
    input: "4"
    output: "92"
    op_type: "Transpose"
    attribute {
      name: "perm"
      ints: 1
      ints: 0
    }
  }
  node {
    input: "91"
    input: "92"
    input: "6"
    output: "750"
    op_type: "Gemm"
    attribute {
      name: "alpha"
      f: 1
    }
    attribute {
      name: "beta"
      f: 1
    }
    attribute {
      name: "broadcast"
      i: 1
    }
  }
  node {
    input: "5"
    output: "95"
    op_type: "Transpose"
    attribute {
      name: "perm"
      ints: 1
      ints: 0
    }
  }
  node {
    input: "86"
    input: "95"
    input: "7"
    output: "751"
    op_type: "Gemm"
    attribute {
      name: "alpha"
      f: 1
    }
    attribute {
      name: "beta"
      f: 1
    }
    attribute {
      name: "broadcast"
      i: 1
    }
  }
  node {
    input: "750"
    input: "751"
    output: "98"
    op_type: "Add"
  }
  node {
    input: "98"
    output: "99"
    op_type: "Tanh"
  }
  node {
    output: "100"
    op_type: "Constant"
    attribute {
      name: "value"
      t {
        dims: 1
        data_type: INT32
        raw_data: "\000\000\000\000"
      }
    }
  }
  node {
    output: "101"
    op_type: "Constant"
    attribute {
      name: "value"
      t {
        dims: 1
        data_type: INT64
        raw_data: "\005\000\000\000\000\000\000\000"
      }
    }
  }
  node {
    output: "102"
    op_type: "Constant"
    attribute {
      name: "value"
      t {
        dims: 1
        data_type: INT64
        raw_data: "\006\000\000\000\000\000\000\000"
      }
    }
  }
  node {
    input: "28"
    input: "100"
    input: "101"
    input: "102"
    output: "103"
    op_type: "Slice"
  }
  node {
    input: "103"
    output: "104"
    op_type: "Squeeze"
    attribute {
      name: "axes"
      ints: 0
    }
  }
  node {
    input: "4"
    output: "105"
    op_type: "Transpose"
    attribute {
      name: "perm"
      ints: 1
      ints: 0
    }
  }
  node {
    input: "104"
    input: "105"
    input: "6"
    output: "752"
    op_type: "Gemm"
    attribute {
      name: "alpha"
      f: 1
    }
    attribute {
      name: "beta"
      f: 1
    }
    attribute {
      name: "broadcast"
      i: 1
    }
  }
  node {
    input: "5"
    output: "108"
    op_type: "Transpose"
    attribute {
      name: "perm"
      ints: 1
      ints: 0
    }
  }
  node {
    input: "99"
    input: "108"
    input: "7"
    output: "753"
    op_type: "Gemm"
    attribute {
      name: "alpha"
      f: 1
    }
    attribute {
      name: "beta"
      f: 1
    }
    attribute {
      name: "broadcast"
      i: 1
    }
  }
  node {
    input: "752"
    input: "753"
    output: "111"
    op_type: "Add"
  }
  node {
    input: "111"
    output: "112"
    op_type: "Tanh"
  }
  node {
    output: "113"
    op_type: "Constant"
    attribute {
      name: "value"
      t {
        dims: 1
        data_type: INT32
        raw_data: "\000\000\000\000"
      }
    }
  }
  node {
    output: "114"
    op_type: "Constant"
    attribute {
      name: "value"
      t {
        dims: 1
        data_type: INT64
        raw_data: "\006\000\000\000\000\000\000\000"
      }
    }
  }
  node {
    output: "115"
    op_type: "Constant"
    attribute {
      name: "value"
      t {
        dims: 1
        data_type: INT64
        raw_data: "\007\000\000\000\000\000\000\000"
      }
    }
  }
  node {
    input: "28"
    input: "113"
    input: "114"
    input: "115"
    output: "116"
    op_type: "Slice"
  }
  node {
    input: "116"
    output: "117"
    op_type: "Squeeze"
    attribute {
      name: "axes"
      ints: 0
    }
  }
  node {
    input: "4"
    output: "118"
    op_type: "Transpose"
    attribute {
      name: "perm"
      ints: 1
      ints: 0
    }
  }
  node {
    input: "117"
    input: "118"
    input: "6"
    output: "754"
    op_type: "Gemm"
    attribute {
      name: "alpha"
      f: 1
    }
    attribute {
      name: "beta"
      f: 1
    }
    attribute {
      name: "broadcast"
      i: 1
    }
  }
  node {
    input: "5"
    output: "121"
    op_type: "Transpose"
    attribute {
      name: "perm"
      ints: 1
      ints: 0
    }
  }
  node {
    input: "112"
    input: "121"
    input: "7"
    output: "755"
    op_type: "Gemm"
    attribute {
      name: "alpha"
      f: 1
    }
    attribute {
      name: "beta"
      f: 1
    }
    attribute {
      name: "broadcast"
      i: 1
    }
  }
  node {
    input: "754"
    input: "755"
    output: "124"
    op_type: "Add"
  }
  node {
    input: "124"
    output: "125"
    op_type: "Tanh"
  }
  node {
    output: "126"
    op_type: "Constant"
    attribute {
      name: "value"
      t {
        dims: 1
        data_type: INT32
        raw_data: "\000\000\000\000"
      }
    }
  }
  node {
    output: "127"
    op_type: "Constant"
    attribute {
      name: "value"
      t {
        dims: 1
        data_type: INT64
        raw_data: "\007\000\000\000\000\000\000\000"
      }
    }
  }
  node {
    output: "128"
    op_type: "Constant"
    attribute {
      name: "value"
      t {
        dims: 1
        data_type: INT64
        raw_data: "\010\000\000\000\000\000\000\000"
      }
    }
  }
  node {
    input: "28"
    input: "126"
    input: "127"
    input: "128"
    output: "129"
    op_type: "Slice"
  }
  node {
    input: "129"
    output: "130"
    op_type: "Squeeze"
    attribute {
      name: "axes"
      ints: 0
    }
  }
  node {
    input: "4"
    output: "131"
    op_type: "Transpose"
    attribute {
      name: "perm"
      ints: 1
      ints: 0
    }
  }
  node {
    input: "130"
    input: "131"
    input: "6"
    output: "756"
    op_type: "Gemm"
    attribute {
      name: "alpha"
      f: 1
    }
    attribute {
      name: "beta"
      f: 1
    }
    attribute {
      name: "broadcast"
      i: 1
    }
  }
  node {
    input: "5"
    output: "134"
    op_type: "Transpose"
    attribute {
      name: "perm"
      ints: 1
      ints: 0
    }
  }
  node {
    input: "125"
    input: "134"
    input: "7"
    output: "757"
    op_type: "Gemm"
    attribute {
      name: "alpha"
      f: 1
    }
    attribute {
      name: "beta"
      f: 1
    }
    attribute {
      name: "broadcast"
      i: 1
    }
  }
  node {
    input: "756"
    input: "757"
    output: "137"
    op_type: "Add"
  }
  node {
    input: "137"
    output: "138"
    op_type: "Tanh"
  }
  node {
    output: "139"
    op_type: "Constant"
    attribute {
      name: "value"
      t {
        dims: 1
        data_type: INT32
        raw_data: "\000\000\000\000"
      }
    }
  }
  node {
    output: "140"
    op_type: "Constant"
    attribute {
      name: "value"
      t {
        dims: 1
        data_type: INT64
        raw_data: "\010\000\000\000\000\000\000\000"
      }
    }
  }
  node {
    output: "141"
    op_type: "Constant"
    attribute {
      name: "value"
      t {
        dims: 1
        data_type: INT64
        raw_data: "\t\000\000\000\000\000\000\000"
      }
    }
  }
  node {
    input: "28"
    input: "139"
    input: "140"
    input: "141"
    output: "142"
    op_type: "Slice"
  }
  node {
    input: "142"
    output: "143"
    op_type: "Squeeze"
    attribute {
      name: "axes"
      ints: 0
    }
  }
  node {
    input: "4"
    output: "144"
    op_type: "Transpose"
    attribute {
      name: "perm"
      ints: 1
      ints: 0
    }
  }
  node {
    input: "143"
    input: "144"
    input: "6"
    output: "758"
    op_type: "Gemm"
    attribute {
      name: "alpha"
      f: 1
    }
    attribute {
      name: "beta"
      f: 1
    }
    attribute {
      name: "broadcast"
      i: 1
    }
  }
  node {
    input: "5"
    output: "147"
    op_type: "Transpose"
    attribute {
      name: "perm"
      ints: 1
      ints: 0
    }
  }
  node {
    input: "138"
    input: "147"
    input: "7"
    output: "759"
    op_type: "Gemm"
    attribute {
      name: "alpha"
      f: 1
    }
    attribute {
      name: "beta"
      f: 1
    }
    attribute {
      name: "broadcast"
      i: 1
    }
  }
  node {
    input: "758"
    input: "759"
    output: "150"
    op_type: "Add"
  }
  node {
    input: "150"
    output: "151"
    op_type: "Tanh"
  }
  node {
    output: "152"
    op_type: "Constant"
    attribute {
      name: "value"
      t {
        dims: 1
        data_type: INT32
        raw_data: "\000\000\000\000"
      }
    }
  }
  node {
    output: "153"
    op_type: "Constant"
    attribute {
      name: "value"
      t {
        dims: 1
        data_type: INT64
        raw_data: "\t\000\000\000\000\000\000\000"
      }
    }
  }
  node {
    output: "154"
    op_type: "Constant"
    attribute {
      name: "value"
      t {
        dims: 1
        data_type: INT64
        raw_data: "\n\000\000\000\000\000\000\000"
      }
    }
  }
  node {
    input: "28"
    input: "152"
    input: "153"
    input: "154"
    output: "155"
    op_type: "Slice"
  }
  node {
    input: "155"
    output: "156"
    op_type: "Squeeze"
    attribute {
      name: "axes"
      ints: 0
    }
  }
  node {
    input: "4"
    output: "157"
    op_type: "Transpose"
    attribute {
      name: "perm"
      ints: 1
      ints: 0
    }
  }
  node {
    input: "156"
    input: "157"
    input: "6"
    output: "760"
    op_type: "Gemm"
    attribute {
      name: "alpha"
      f: 1
    }
    attribute {
      name: "beta"
      f: 1
    }
    attribute {
      name: "broadcast"
      i: 1
    }
  }
  node {
    input: "5"
    output: "160"
    op_type: "Transpose"
    attribute {
      name: "perm"
      ints: 1
      ints: 0
    }
  }
  node {
    input: "151"
    input: "160"
    input: "7"
    output: "761"
    op_type: "Gemm"
    attribute {
      name: "alpha"
      f: 1
    }
    attribute {
      name: "beta"
      f: 1
    }
    attribute {
      name: "broadcast"
      i: 1
    }
  }
  node {
    input: "760"
    input: "761"
    output: "163"
    op_type: "Add"
  }
  node {
    input: "163"
    output: "164"
    op_type: "Tanh"
  }
  node {
    input: "47"
    input: "60"
    input: "73"
    input: "86"
    input: "99"
    input: "112"
    input: "125"
    input: "138"
    input: "151"
    input: "164"
    output: "165"
    op_type: "Concat"
    attribute {
      name: "axis"
      i: 0
    }
  }
  node {
    input: "165"
    output: "166"
    op_type: "Reshape"
    attribute {
      name: "shape"
      ints: 10
      ints: 5
      ints: 5
    }
  }
  node {
    input: "166"
    output: "167"
    op_type: "Concat"
    attribute {
      name: "axis"
      i: 2
    }
  }
  node {
    input: "167"
    output: "169"
    output: "170"
    op_type: "Dropout"
    attribute {
      name: "is_test"
      i: 1
    }
    attribute {
      name: "ratio"
      f: 0.200000002980232
    }
  }
  node {
    output: "171"
    op_type: "Constant"
    attribute {
      name: "value"
      t {
        dims: 1
        data_type: INT32
        raw_data: "\000\000\000\000"
      }
    }
  }
  node {
    output: "172"
    op_type: "Constant"
    attribute {
      name: "value"
      t {
        dims: 1
        data_type: INT64
        raw_data: "\001\000\000\000\000\000\000\000"
      }
    }
  }
  node {
    output: "173"
    op_type: "Constant"
    attribute {
      name: "value"
      t {
        dims: 1
        data_type: INT64
        raw_data: "\002\000\000\000\000\000\000\000"
      }
    }
  }
  node {
    input: "2"
    input: "171"
    input: "172"
    input: "173"
    output: "174"
    op_type: "Slice"
  }
  node {
    input: "174"
    output: "175"
    op_type: "Squeeze"
    attribute {
      name: "axes"
      ints: 0
    }
  }
  node {
    output: "176"
    op_type: "Constant"
    attribute {
      name: "value"
      t {
        dims: 1
        data_type: INT32
        raw_data: "\000\000\000\000"
      }
    }
  }
  node {
    output: "177"
    op_type: "Constant"
    attribute {
      name: "value"
      t {
        dims: 1
        data_type: INT64
        raw_data: "\000\000\000\000\000\000\000\000"
      }
    }
  }
  node {
    output: "178"
    op_type: "Constant"
    attribute {
      name: "value"
      t {
        dims: 1
        data_type: INT64
        raw_data: "\001\000\000\000\000\000\000\000"
      }
    }
  }
  node {
    input: "169"
    input: "176"
    input: "177"
    input: "178"
    output: "179"
    op_type: "Slice"
  }
  node {
    input: "179"
    output: "180"
    op_type: "Squeeze"
    attribute {
      name: "axes"
      ints: 0
    }
  }
  node {
    input: "8"
    output: "181"
    op_type: "Transpose"
    attribute {
      name: "perm"
      ints: 1
      ints: 0
    }
  }
  node {
    input: "180"
    input: "181"
    input: "10"
    output: "762"
    op_type: "Gemm"
    attribute {
      name: "alpha"
      f: 1
    }
    attribute {
      name: "beta"
      f: 1
    }
    attribute {
      name: "broadcast"
      i: 1
    }
  }
  node {
    input: "9"
    output: "184"
    op_type: "Transpose"
    attribute {
      name: "perm"
      ints: 1
      ints: 0
    }
  }
  node {
    input: "175"
    input: "184"
    input: "11"
    output: "763"
    op_type: "Gemm"
    attribute {
      name: "alpha"
      f: 1
    }
    attribute {
      name: "beta"
      f: 1
    }
    attribute {
      name: "broadcast"
      i: 1
    }
  }
  node {
    input: "762"
    input: "763"
    output: "187"
    op_type: "Add"
  }
  node {
    input: "187"
    output: "188"
    op_type: "Tanh"
  }
  node {
    output: "189"
    op_type: "Constant"
    attribute {
      name: "value"
      t {
        dims: 1
        data_type: INT32
        raw_data: "\000\000\000\000"
      }
    }
  }
  node {
    output: "190"
    op_type: "Constant"
    attribute {
      name: "value"
      t {
        dims: 1
        data_type: INT64
        raw_data: "\001\000\000\000\000\000\000\000"
      }
    }
  }
  node {
    output: "191"
    op_type: "Constant"
    attribute {
      name: "value"
      t {
        dims: 1
        data_type: INT64
        raw_data: "\002\000\000\000\000\000\000\000"
      }
    }
  }
  node {
    input: "169"
    input: "189"
    input: "190"
    input: "191"
    output: "192"
    op_type: "Slice"
  }
  node {
    input: "192"
    output: "193"
    op_type: "Squeeze"
    attribute {
      name: "axes"
      ints: 0
    }
  }
  node {
    input: "8"
    output: "194"
    op_type: "Transpose"
    attribute {
      name: "perm"
      ints: 1
      ints: 0
    }
  }
  node {
    input: "193"
    input: "194"
    input: "10"
    output: "764"
    op_type: "Gemm"
    attribute {
      name: "alpha"
      f: 1
    }
    attribute {
      name: "beta"
      f: 1
    }
    attribute {
      name: "broadcast"
      i: 1
    }
  }
  node {
    input: "9"
    output: "197"
    op_type: "Transpose"
    attribute {
      name: "perm"
      ints: 1
      ints: 0
    }
  }
  node {
    input: "188"
    input: "197"
    input: "11"
    output: "765"
    op_type: "Gemm"
    attribute {
      name: "alpha"
      f: 1
    }
    attribute {
      name: "beta"
      f: 1
    }
    attribute {
      name: "broadcast"
      i: 1
    }
  }
  node {
    input: "764"
    input: "765"
    output: "200"
    op_type: "Add"
  }
  node {
    input: "200"
    output: "201"
    op_type: "Tanh"
  }
  node {
    output: "202"
    op_type: "Constant"
    attribute {
      name: "value"
      t {
        dims: 1
        data_type: INT32
        raw_data: "\000\000\000\000"
      }
    }
  }
  node {
    output: "203"
    op_type: "Constant"
    attribute {
      name: "value"
      t {
        dims: 1
        data_type: INT64
        raw_data: "\002\000\000\000\000\000\000\000"
      }
    }
  }
  node {
    output: "204"
    op_type: "Constant"
    attribute {
      name: "value"
      t {
        dims: 1
        data_type: INT64
        raw_data: "\003\000\000\000\000\000\000\000"
      }
    }
  }
  node {
    input: "169"
    input: "202"
    input: "203"
    input: "204"
    output: "205"
    op_type: "Slice"
  }
  node {
    input: "205"
    output: "206"
    op_type: "Squeeze"
    attribute {
      name: "axes"
      ints: 0
    }
  }
  node {
    input: "8"
    output: "207"
    op_type: "Transpose"
    attribute {
      name: "perm"
      ints: 1
      ints: 0
    }
  }
  node {
    input: "206"
    input: "207"
    input: "10"
    output: "766"
    op_type: "Gemm"
    attribute {
      name: "alpha"
      f: 1
    }
    attribute {
      name: "beta"
      f: 1
    }
    attribute {
      name: "broadcast"
      i: 1
    }
  }
  node {
    input: "9"
    output: "210"
    op_type: "Transpose"
    attribute {
      name: "perm"
      ints: 1
      ints: 0
    }
  }
  node {
    input: "201"
    input: "210"
    input: "11"
    output: "767"
    op_type: "Gemm"
    attribute {
      name: "alpha"
      f: 1
    }
    attribute {
      name: "beta"
      f: 1
    }
    attribute {
      name: "broadcast"
      i: 1
    }
  }
  node {
    input: "766"
    input: "767"
    output: "213"
    op_type: "Add"
  }
  node {
    input: "213"
    output: "214"
    op_type: "Tanh"
  }
  node {
    output: "215"
    op_type: "Constant"
    attribute {
      name: "value"
      t {
        dims: 1
        data_type: INT32
        raw_data: "\000\000\000\000"
      }
    }
  }
  node {
    output: "216"
    op_type: "Constant"
    attribute {
      name: "value"
      t {
        dims: 1
        data_type: INT64
        raw_data: "\003\000\000\000\000\000\000\000"
      }
    }
  }
  node {
    output: "217"
    op_type: "Constant"
    attribute {
      name: "value"
      t {
        dims: 1
        data_type: INT64
        raw_data: "\004\000\000\000\000\000\000\000"
      }
    }
  }
  node {
    input: "169"
    input: "215"
    input: "216"
    input: "217"
    output: "218"
    op_type: "Slice"
  }
  node {
    input: "218"
    output: "219"
    op_type: "Squeeze"
    attribute {
      name: "axes"
      ints: 0
    }
  }
  node {
    input: "8"
    output: "220"
    op_type: "Transpose"
    attribute {
      name: "perm"
      ints: 1
      ints: 0
    }
  }
  node {
    input: "219"
    input: "220"
    input: "10"
    output: "768"
    op_type: "Gemm"
    attribute {
      name: "alpha"
      f: 1
    }
    attribute {
      name: "beta"
      f: 1
    }
    attribute {
      name: "broadcast"
      i: 1
    }
  }
  node {
    input: "9"
    output: "223"
    op_type: "Transpose"
    attribute {
      name: "perm"
      ints: 1
      ints: 0
    }
  }
  node {
    input: "214"
    input: "223"
    input: "11"
    output: "769"
    op_type: "Gemm"
    attribute {
      name: "alpha"
      f: 1
    }
    attribute {
      name: "beta"
      f: 1
    }
    attribute {
      name: "broadcast"
      i: 1
    }
  }
  node {
    input: "768"
    input: "769"
    output: "226"
    op_type: "Add"
  }
  node {
    input: "226"
    output: "227"
    op_type: "Tanh"
  }
  node {
    output: "228"
    op_type: "Constant"
    attribute {
      name: "value"
      t {
        dims: 1
        data_type: INT32
        raw_data: "\000\000\000\000"
      }
    }
  }
  node {
    output: "229"
    op_type: "Constant"
    attribute {
      name: "value"
      t {
        dims: 1
        data_type: INT64
        raw_data: "\004\000\000\000\000\000\000\000"
      }
    }
  }
  node {
    output: "230"
    op_type: "Constant"
    attribute {
      name: "value"
      t {
        dims: 1
        data_type: INT64
        raw_data: "\005\000\000\000\000\000\000\000"
      }
    }
  }
  node {
    input: "169"
    input: "228"
    input: "229"
    input: "230"
    output: "231"
    op_type: "Slice"
  }
  node {
    input: "231"
    output: "232"
    op_type: "Squeeze"
    attribute {
      name: "axes"
      ints: 0
    }
  }
  node {
    input: "8"
    output: "233"
    op_type: "Transpose"
    attribute {
      name: "perm"
      ints: 1
      ints: 0
    }
  }
  node {
    input: "232"
    input: "233"
    input: "10"
    output: "770"
    op_type: "Gemm"
    attribute {
      name: "alpha"
      f: 1
    }
    attribute {
      name: "beta"
      f: 1
    }
    attribute {
      name: "broadcast"
      i: 1
    }
  }
  node {
    input: "9"
    output: "236"
    op_type: "Transpose"
    attribute {
      name: "perm"
      ints: 1
      ints: 0
    }
  }
  node {
    input: "227"
    input: "236"
    input: "11"
    output: "771"
    op_type: "Gemm"
    attribute {
      name: "alpha"
      f: 1
    }
    attribute {
      name: "beta"
      f: 1
    }
    attribute {
      name: "broadcast"
      i: 1
    }
  }
  node {
    input: "770"
    input: "771"
    output: "239"
    op_type: "Add"
  }
  node {
    input: "239"
    output: "240"
    op_type: "Tanh"
  }
  node {
    output: "241"
    op_type: "Constant"
    attribute {
      name: "value"
      t {
        dims: 1
        data_type: INT32
        raw_data: "\000\000\000\000"
      }
    }
  }
  node {
    output: "242"
    op_type: "Constant"
    attribute {
      name: "value"
      t {
        dims: 1
        data_type: INT64
        raw_data: "\005\000\000\000\000\000\000\000"
      }
    }
  }
  node {
    output: "243"
    op_type: "Constant"
    attribute {
      name: "value"
      t {
        dims: 1
        data_type: INT64
        raw_data: "\006\000\000\000\000\000\000\000"
      }
    }
  }
  node {
    input: "169"
    input: "241"
    input: "242"
    input: "243"
    output: "244"
    op_type: "Slice"
  }
  node {
    input: "244"
    output: "245"
    op_type: "Squeeze"
    attribute {
      name: "axes"
      ints: 0
    }
  }
  node {
    input: "8"
    output: "246"
    op_type: "Transpose"
    attribute {
      name: "perm"
      ints: 1
      ints: 0
    }
  }
  node {
    input: "245"
    input: "246"
    input: "10"
    output: "772"
    op_type: "Gemm"
    attribute {
      name: "alpha"
      f: 1
    }
    attribute {
      name: "beta"
      f: 1
    }
    attribute {
      name: "broadcast"
      i: 1
    }
  }
  node {
    input: "9"
    output: "249"
    op_type: "Transpose"
    attribute {
      name: "perm"
      ints: 1
      ints: 0
    }
  }
  node {
    input: "240"
    input: "249"
    input: "11"
    output: "773"
    op_type: "Gemm"
    attribute {
      name: "alpha"
      f: 1
    }
    attribute {
      name: "beta"
      f: 1
    }
    attribute {
      name: "broadcast"
      i: 1
    }
  }
  node {
    input: "772"
    input: "773"
    output: "252"
    op_type: "Add"
  }
  node {
    input: "252"
    output: "253"
    op_type: "Tanh"
  }
  node {
    output: "254"
    op_type: "Constant"
    attribute {
      name: "value"
      t {
        dims: 1
        data_type: INT32
        raw_data: "\000\000\000\000"
      }
    }
  }
  node {
    output: "255"
    op_type: "Constant"
    attribute {
      name: "value"
      t {
        dims: 1
        data_type: INT64
        raw_data: "\006\000\000\000\000\000\000\000"
      }
    }
  }
  node {
    output: "256"
    op_type: "Constant"
    attribute {
      name: "value"
      t {
        dims: 1
        data_type: INT64
        raw_data: "\007\000\000\000\000\000\000\000"
      }
    }
  }
  node {
    input: "169"
    input: "254"
    input: "255"
    input: "256"
    output: "257"
    op_type: "Slice"
  }
  node {
    input: "257"
    output: "258"
    op_type: "Squeeze"
    attribute {
      name: "axes"
      ints: 0
    }
  }
  node {
    input: "8"
    output: "259"
    op_type: "Transpose"
    attribute {
      name: "perm"
      ints: 1
      ints: 0
    }
  }
  node {
    input: "258"
    input: "259"
    input: "10"
    output: "774"
    op_type: "Gemm"
    attribute {
      name: "alpha"
      f: 1
    }
    attribute {
      name: "beta"
      f: 1
    }
    attribute {
      name: "broadcast"
      i: 1
    }
  }
  node {
    input: "9"
    output: "262"
    op_type: "Transpose"
    attribute {
      name: "perm"
      ints: 1
      ints: 0
    }
  }
  node {
    input: "253"
    input: "262"
    input: "11"
    output: "775"
    op_type: "Gemm"
    attribute {
      name: "alpha"
      f: 1
    }
    attribute {
      name: "beta"
      f: 1
    }
    attribute {
      name: "broadcast"
      i: 1
    }
  }
  node {
    input: "774"
    input: "775"
    output: "265"
    op_type: "Add"
  }
  node {
    input: "265"
    output: "266"
    op_type: "Tanh"
  }
  node {
    output: "267"
    op_type: "Constant"
    attribute {
      name: "value"
      t {
        dims: 1
        data_type: INT32
        raw_data: "\000\000\000\000"
      }
    }
  }
  node {
    output: "268"
    op_type: "Constant"
    attribute {
      name: "value"
      t {
        dims: 1
        data_type: INT64
        raw_data: "\007\000\000\000\000\000\000\000"
      }
    }
  }
  node {
    output: "269"
    op_type: "Constant"
    attribute {
      name: "value"
      t {
        dims: 1
        data_type: INT64
        raw_data: "\010\000\000\000\000\000\000\000"
      }
    }
  }
  node {
    input: "169"
    input: "267"
    input: "268"
    input: "269"
    output: "270"
    op_type: "Slice"
  }
  node {
    input: "270"
    output: "271"
    op_type: "Squeeze"
    attribute {
      name: "axes"
      ints: 0
    }
  }
  node {
    input: "8"
    output: "272"
    op_type: "Transpose"
    attribute {
      name: "perm"
      ints: 1
      ints: 0
    }
  }
  node {
    input: "271"
    input: "272"
    input: "10"
    output: "776"
    op_type: "Gemm"
    attribute {
      name: "alpha"
      f: 1
    }
    attribute {
      name: "beta"
      f: 1
    }
    attribute {
      name: "broadcast"
      i: 1
    }
  }
  node {
    input: "9"
    output: "275"
    op_type: "Transpose"
    attribute {
      name: "perm"
      ints: 1
      ints: 0
    }
  }
  node {
    input: "266"
    input: "275"
    input: "11"
    output: "777"
    op_type: "Gemm"
    attribute {
      name: "alpha"
      f: 1
    }
    attribute {
      name: "beta"
      f: 1
    }
    attribute {
      name: "broadcast"
      i: 1
    }
  }
  node {
    input: "776"
    input: "777"
    output: "278"
    op_type: "Add"
  }
  node {
    input: "278"
    output: "279"
    op_type: "Tanh"
  }
  node {
    output: "280"
    op_type: "Constant"
    attribute {
      name: "value"
      t {
        dims: 1
        data_type: INT32
        raw_data: "\000\000\000\000"
      }
    }
  }
  node {
    output: "281"
    op_type: "Constant"
    attribute {
      name: "value"
      t {
        dims: 1
        data_type: INT64
        raw_data: "\010\000\000\000\000\000\000\000"
      }
    }
  }
  node {
    output: "282"
    op_type: "Constant"
    attribute {
      name: "value"
      t {
        dims: 1
        data_type: INT64
        raw_data: "\t\000\000\000\000\000\000\000"
      }
    }
  }
  node {
    input: "169"
    input: "280"
    input: "281"
    input: "282"
    output: "283"
    op_type: "Slice"
  }
  node {
    input: "283"
    output: "284"
    op_type: "Squeeze"
    attribute {
      name: "axes"
      ints: 0
    }
  }
  node {
    input: "8"
    output: "285"
    op_type: "Transpose"
    attribute {
      name: "perm"
      ints: 1
      ints: 0
    }
  }
  node {
    input: "284"
    input: "285"
    input: "10"
    output: "778"
    op_type: "Gemm"
    attribute {
      name: "alpha"
      f: 1
    }
    attribute {
      name: "beta"
      f: 1
    }
    attribute {
      name: "broadcast"
      i: 1
    }
  }
  node {
    input: "9"
    output: "288"
    op_type: "Transpose"
    attribute {
      name: "perm"
      ints: 1
      ints: 0
    }
  }
  node {
    input: "279"
    input: "288"
    input: "11"
    output: "779"
    op_type: "Gemm"
    attribute {
      name: "alpha"
      f: 1
    }
    attribute {
      name: "beta"
      f: 1
    }
    attribute {
      name: "broadcast"
      i: 1
    }
  }
  node {
    input: "778"
    input: "779"
    output: "291"
    op_type: "Add"
  }
  node {
    input: "291"
    output: "292"
    op_type: "Tanh"
  }
  node {
    output: "293"
    op_type: "Constant"
    attribute {
      name: "value"
      t {
        dims: 1
        data_type: INT32
        raw_data: "\000\000\000\000"
      }
    }
  }
  node {
    output: "294"
    op_type: "Constant"
    attribute {
      name: "value"
      t {
        dims: 1
        data_type: INT64
        raw_data: "\t\000\000\000\000\000\000\000"
      }
    }
  }
  node {
    output: "295"
    op_type: "Constant"
    attribute {
      name: "value"
      t {
        dims: 1
        data_type: INT64
        raw_data: "\n\000\000\000\000\000\000\000"
      }
    }
  }
  node {
    input: "169"
    input: "293"
    input: "294"
    input: "295"
    output: "296"
    op_type: "Slice"
  }
  node {
    input: "296"
    output: "297"
    op_type: "Squeeze"
    attribute {
      name: "axes"
      ints: 0
    }
  }
  node {
    input: "8"
    output: "298"
    op_type: "Transpose"
    attribute {
      name: "perm"
      ints: 1
      ints: 0
    }
  }
  node {
    input: "297"
    input: "298"
    input: "10"
    output: "780"
    op_type: "Gemm"
    attribute {
      name: "alpha"
      f: 1
    }
    attribute {
      name: "beta"
      f: 1
    }
    attribute {
      name: "broadcast"
      i: 1
    }
  }
  node {
    input: "9"
    output: "301"
    op_type: "Transpose"
    attribute {
      name: "perm"
      ints: 1
      ints: 0
    }
  }
  node {
    input: "292"
    input: "301"
    input: "11"
    output: "781"
    op_type: "Gemm"
    attribute {
      name: "alpha"
      f: 1
    }
    attribute {
      name: "beta"
      f: 1
    }
    attribute {
      name: "broadcast"
      i: 1
    }
  }
  node {
    input: "780"
    input: "781"
    output: "304"
    op_type: "Add"
  }
  node {
    input: "304"
    output: "305"
    op_type: "Tanh"
  }
  node {
    input: "188"
    input: "201"
    input: "214"
    input: "227"
    input: "240"
    input: "253"
    input: "266"
    input: "279"
    input: "292"
    input: "305"
    output: "306"
    op_type: "Concat"
    attribute {
      name: "axis"
      i: 0
    }
  }
  node {
    input: "306"
    output: "307"
    op_type: "Reshape"
    attribute {
      name: "shape"
      ints: 10
      ints: 5
      ints: 5
    }
  }
  node {
    input: "307"
    output: "308"
    op_type: "Concat"
    attribute {
      name: "axis"
      i: 2
    }
  }
  node {
    input: "308"
    output: "310"
    output: "311"
    op_type: "Dropout"
    attribute {
      name: "is_test"
      i: 1
    }
    attribute {
      name: "ratio"
      f: 0.200000002980232
    }
  }
  node {
    output: "312"
    op_type: "Constant"
    attribute {
      name: "value"
      t {
        dims: 1
        data_type: INT32
        raw_data: "\000\000\000\000"
      }
    }
  }
  node {
    output: "313"
    op_type: "Constant"
    attribute {
      name: "value"
      t {
        dims: 1
        data_type: INT64
        raw_data: "\002\000\000\000\000\000\000\000"
      }
    }
  }
  node {
    output: "314"
    op_type: "Constant"
    attribute {
      name: "value"
      t {
        dims: 1
        data_type: INT64
        raw_data: "\003\000\000\000\000\000\000\000"
      }
    }
  }
  node {
    input: "2"
    input: "312"
    input: "313"
    input: "314"
    output: "315"
    op_type: "Slice"
  }
  node {
    input: "315"
    output: "316"
    op_type: "Squeeze"
    attribute {
      name: "axes"
      ints: 0
    }
  }
  node {
    output: "317"
    op_type: "Constant"
    attribute {
      name: "value"
      t {
        dims: 1
        data_type: INT32
        raw_data: "\000\000\000\000"
      }
    }
  }
  node {
    output: "318"
    op_type: "Constant"
    attribute {
      name: "value"
      t {
        dims: 1
        data_type: INT64
        raw_data: "\000\000\000\000\000\000\000\000"
      }
    }
  }
  node {
    output: "319"
    op_type: "Constant"
    attribute {
      name: "value"
      t {
        dims: 1
        data_type: INT64
        raw_data: "\001\000\000\000\000\000\000\000"
      }
    }
  }
  node {
    input: "310"
    input: "317"
    input: "318"
    input: "319"
    output: "320"
    op_type: "Slice"
  }
  node {
    input: "320"
    output: "321"
    op_type: "Squeeze"
    attribute {
      name: "axes"
      ints: 0
    }
  }
  node {
    input: "12"
    output: "322"
    op_type: "Transpose"
    attribute {
      name: "perm"
      ints: 1
      ints: 0
    }
  }
  node {
    input: "321"
    input: "322"
    input: "14"
    output: "782"
    op_type: "Gemm"
    attribute {
      name: "alpha"
      f: 1
    }
    attribute {
      name: "beta"
      f: 1
    }
    attribute {
      name: "broadcast"
      i: 1
    }
  }
  node {
    input: "13"
    output: "325"
    op_type: "Transpose"
    attribute {
      name: "perm"
      ints: 1
      ints: 0
    }
  }
  node {
    input: "316"
    input: "325"
    input: "15"
    output: "783"
    op_type: "Gemm"
    attribute {
      name: "alpha"
      f: 1
    }
    attribute {
      name: "beta"
      f: 1
    }
    attribute {
      name: "broadcast"
      i: 1
    }
  }
  node {
    input: "782"
    input: "783"
    output: "328"
    op_type: "Add"
  }
  node {
    input: "328"
    output: "329"
    op_type: "Tanh"
  }
  node {
    output: "330"
    op_type: "Constant"
    attribute {
      name: "value"
      t {
        dims: 1
        data_type: INT32
        raw_data: "\000\000\000\000"
      }
    }
  }
  node {
    output: "331"
    op_type: "Constant"
    attribute {
      name: "value"
      t {
        dims: 1
        data_type: INT64
        raw_data: "\001\000\000\000\000\000\000\000"
      }
    }
  }
  node {
    output: "332"
    op_type: "Constant"
    attribute {
      name: "value"
      t {
        dims: 1
        data_type: INT64
        raw_data: "\002\000\000\000\000\000\000\000"
      }
    }
  }
  node {
    input: "310"
    input: "330"
    input: "331"
    input: "332"
    output: "333"
    op_type: "Slice"
  }
  node {
    input: "333"
    output: "334"
    op_type: "Squeeze"
    attribute {
      name: "axes"
      ints: 0
    }
  }
  node {
    input: "12"
    output: "335"
    op_type: "Transpose"
    attribute {
      name: "perm"
      ints: 1
      ints: 0
    }
  }
  node {
    input: "334"
    input: "335"
    input: "14"
    output: "784"
    op_type: "Gemm"
    attribute {
      name: "alpha"
      f: 1
    }
    attribute {
      name: "beta"
      f: 1
    }
    attribute {
      name: "broadcast"
      i: 1
    }
  }
  node {
    input: "13"
    output: "338"
    op_type: "Transpose"
    attribute {
      name: "perm"
      ints: 1
      ints: 0
    }
  }
  node {
    input: "329"
    input: "338"
    input: "15"
    output: "785"
    op_type: "Gemm"
    attribute {
      name: "alpha"
      f: 1
    }
    attribute {
      name: "beta"
      f: 1
    }
    attribute {
      name: "broadcast"
      i: 1
    }
  }
  node {
    input: "784"
    input: "785"
    output: "341"
    op_type: "Add"
  }
  node {
    input: "341"
    output: "342"
    op_type: "Tanh"
  }
  node {
    output: "343"
    op_type: "Constant"
    attribute {
      name: "value"
      t {
        dims: 1
        data_type: INT32
        raw_data: "\000\000\000\000"
      }
    }
  }
  node {
    output: "344"
    op_type: "Constant"
    attribute {
      name: "value"
      t {
        dims: 1
        data_type: INT64
        raw_data: "\002\000\000\000\000\000\000\000"
      }
    }
  }
  node {
    output: "345"
    op_type: "Constant"
    attribute {
      name: "value"
      t {
        dims: 1
        data_type: INT64
        raw_data: "\003\000\000\000\000\000\000\000"
      }
    }
  }
  node {
    input: "310"
    input: "343"
    input: "344"
    input: "345"
    output: "346"
    op_type: "Slice"
  }
  node {
    input: "346"
    output: "347"
    op_type: "Squeeze"
    attribute {
      name: "axes"
      ints: 0
    }
  }
  node {
    input: "12"
    output: "348"
    op_type: "Transpose"
    attribute {
      name: "perm"
      ints: 1
      ints: 0
    }
  }
  node {
    input: "347"
    input: "348"
    input: "14"
    output: "786"
    op_type: "Gemm"
    attribute {
      name: "alpha"
      f: 1
    }
    attribute {
      name: "beta"
      f: 1
    }
    attribute {
      name: "broadcast"
      i: 1
    }
  }
  node {
    input: "13"
    output: "351"
    op_type: "Transpose"
    attribute {
      name: "perm"
      ints: 1
      ints: 0
    }
  }
  node {
    input: "342"
    input: "351"
    input: "15"
    output: "787"
    op_type: "Gemm"
    attribute {
      name: "alpha"
      f: 1
    }
    attribute {
      name: "beta"
      f: 1
    }
    attribute {
      name: "broadcast"
      i: 1
    }
  }
  node {
    input: "786"
    input: "787"
    output: "354"
    op_type: "Add"
  }
  node {
    input: "354"
    output: "355"
    op_type: "Tanh"
  }
  node {
    output: "356"
    op_type: "Constant"
    attribute {
      name: "value"
      t {
        dims: 1
        data_type: INT32
        raw_data: "\000\000\000\000"
      }
    }
  }
  node {
    output: "357"
    op_type: "Constant"
    attribute {
      name: "value"
      t {
        dims: 1
        data_type: INT64
        raw_data: "\003\000\000\000\000\000\000\000"
      }
    }
  }
  node {
    output: "358"
    op_type: "Constant"
    attribute {
      name: "value"
      t {
        dims: 1
        data_type: INT64
        raw_data: "\004\000\000\000\000\000\000\000"
      }
    }
  }
  node {
    input: "310"
    input: "356"
    input: "357"
    input: "358"
    output: "359"
    op_type: "Slice"
  }
  node {
    input: "359"
    output: "360"
    op_type: "Squeeze"
    attribute {
      name: "axes"
      ints: 0
    }
  }
  node {
    input: "12"
    output: "361"
    op_type: "Transpose"
    attribute {
      name: "perm"
      ints: 1
      ints: 0
    }
  }
  node {
    input: "360"
    input: "361"
    input: "14"
    output: "788"
    op_type: "Gemm"
    attribute {
      name: "alpha"
      f: 1
    }
    attribute {
      name: "beta"
      f: 1
    }
    attribute {
      name: "broadcast"
      i: 1
    }
  }
  node {
    input: "13"
    output: "364"
    op_type: "Transpose"
    attribute {
      name: "perm"
      ints: 1
      ints: 0
    }
  }
  node {
    input: "355"
    input: "364"
    input: "15"
    output: "789"
    op_type: "Gemm"
    attribute {
      name: "alpha"
      f: 1
    }
    attribute {
      name: "beta"
      f: 1
    }
    attribute {
      name: "broadcast"
      i: 1
    }
  }
  node {
    input: "788"
    input: "789"
    output: "367"
    op_type: "Add"
  }
  node {
    input: "367"
    output: "368"
    op_type: "Tanh"
  }
  node {
    output: "369"
    op_type: "Constant"
    attribute {
      name: "value"
      t {
        dims: 1
        data_type: INT32
        raw_data: "\000\000\000\000"
      }
    }
  }
  node {
    output: "370"
    op_type: "Constant"
    attribute {
      name: "value"
      t {
        dims: 1
        data_type: INT64
        raw_data: "\004\000\000\000\000\000\000\000"
      }
    }
  }
  node {
    output: "371"
    op_type: "Constant"
    attribute {
      name: "value"
      t {
        dims: 1
        data_type: INT64
        raw_data: "\005\000\000\000\000\000\000\000"
      }
    }
  }
  node {
    input: "310"
    input: "369"
    input: "370"
    input: "371"
    output: "372"
    op_type: "Slice"
  }
  node {
    input: "372"
    output: "373"
    op_type: "Squeeze"
    attribute {
      name: "axes"
      ints: 0
    }
  }
  node {
    input: "12"
    output: "374"
    op_type: "Transpose"
    attribute {
      name: "perm"
      ints: 1
      ints: 0
    }
  }
  node {
    input: "373"
    input: "374"
    input: "14"
    output: "790"
    op_type: "Gemm"
    attribute {
      name: "alpha"
      f: 1
    }
    attribute {
      name: "beta"
      f: 1
    }
    attribute {
      name: "broadcast"
      i: 1
    }
  }
  node {
    input: "13"
    output: "377"
    op_type: "Transpose"
    attribute {
      name: "perm"
      ints: 1
      ints: 0
    }
  }
  node {
    input: "368"
    input: "377"
    input: "15"
    output: "791"
    op_type: "Gemm"
    attribute {
      name: "alpha"
      f: 1
    }
    attribute {
      name: "beta"
      f: 1
    }
    attribute {
      name: "broadcast"
      i: 1
    }
  }
  node {
    input: "790"
    input: "791"
    output: "380"
    op_type: "Add"
  }
  node {
    input: "380"
    output: "381"
    op_type: "Tanh"
  }
  node {
    output: "382"
    op_type: "Constant"
    attribute {
      name: "value"
      t {
        dims: 1
        data_type: INT32
        raw_data: "\000\000\000\000"
      }
    }
  }
  node {
    output: "383"
    op_type: "Constant"
    attribute {
      name: "value"
      t {
        dims: 1
        data_type: INT64
        raw_data: "\005\000\000\000\000\000\000\000"
      }
    }
  }
  node {
    output: "384"
    op_type: "Constant"
    attribute {
      name: "value"
      t {
        dims: 1
        data_type: INT64
        raw_data: "\006\000\000\000\000\000\000\000"
      }
    }
  }
  node {
    input: "310"
    input: "382"
    input: "383"
    input: "384"
    output: "385"
    op_type: "Slice"
  }
  node {
    input: "385"
    output: "386"
    op_type: "Squeeze"
    attribute {
      name: "axes"
      ints: 0
    }
  }
  node {
    input: "12"
    output: "387"
    op_type: "Transpose"
    attribute {
      name: "perm"
      ints: 1
      ints: 0
    }
  }
  node {
    input: "386"
    input: "387"
    input: "14"
    output: "792"
    op_type: "Gemm"
    attribute {
      name: "alpha"
      f: 1
    }
    attribute {
      name: "beta"
      f: 1
    }
    attribute {
      name: "broadcast"
      i: 1
    }
  }
  node {
    input: "13"
    output: "390"
    op_type: "Transpose"
    attribute {
      name: "perm"
      ints: 1
      ints: 0
    }
  }
  node {
    input: "381"
    input: "390"
    input: "15"
    output: "793"
    op_type: "Gemm"
    attribute {
      name: "alpha"
      f: 1
    }
    attribute {
      name: "beta"
      f: 1
    }
    attribute {
      name: "broadcast"
      i: 1
    }
  }
  node {
    input: "792"
    input: "793"
    output: "393"
    op_type: "Add"
  }
  node {
    input: "393"
    output: "394"
    op_type: "Tanh"
  }
  node {
    output: "395"
    op_type: "Constant"
    attribute {
      name: "value"
      t {
        dims: 1
        data_type: INT32
        raw_data: "\000\000\000\000"
      }
    }
  }
  node {
    output: "396"
    op_type: "Constant"
    attribute {
      name: "value"
      t {
        dims: 1
        data_type: INT64
        raw_data: "\006\000\000\000\000\000\000\000"
      }
    }
  }
  node {
    output: "397"
    op_type: "Constant"
    attribute {
      name: "value"
      t {
        dims: 1
        data_type: INT64
        raw_data: "\007\000\000\000\000\000\000\000"
      }
    }
  }
  node {
    input: "310"
    input: "395"
    input: "396"
    input: "397"
    output: "398"
    op_type: "Slice"
  }
  node {
    input: "398"
    output: "399"
    op_type: "Squeeze"
    attribute {
      name: "axes"
      ints: 0
    }
  }
  node {
    input: "12"
    output: "400"
    op_type: "Transpose"
    attribute {
      name: "perm"
      ints: 1
      ints: 0
    }
  }
  node {
    input: "399"
    input: "400"
    input: "14"
    output: "794"
    op_type: "Gemm"
    attribute {
      name: "alpha"
      f: 1
    }
    attribute {
      name: "beta"
      f: 1
    }
    attribute {
      name: "broadcast"
      i: 1
    }
  }
  node {
    input: "13"
    output: "403"
    op_type: "Transpose"
    attribute {
      name: "perm"
      ints: 1
      ints: 0
    }
  }
  node {
    input: "394"
    input: "403"
    input: "15"
    output: "795"
    op_type: "Gemm"
    attribute {
      name: "alpha"
      f: 1
    }
    attribute {
      name: "beta"
      f: 1
    }
    attribute {
      name: "broadcast"
      i: 1
    }
  }
  node {
    input: "794"
    input: "795"
    output: "406"
    op_type: "Add"
  }
  node {
    input: "406"
    output: "407"
    op_type: "Tanh"
  }
  node {
    output: "408"
    op_type: "Constant"
    attribute {
      name: "value"
      t {
        dims: 1
        data_type: INT32
        raw_data: "\000\000\000\000"
      }
    }
  }
  node {
    output: "409"
    op_type: "Constant"
    attribute {
      name: "value"
      t {
        dims: 1
        data_type: INT64
        raw_data: "\007\000\000\000\000\000\000\000"
      }
    }
  }
  node {
    output: "410"
    op_type: "Constant"
    attribute {
      name: "value"
      t {
        dims: 1
        data_type: INT64
        raw_data: "\010\000\000\000\000\000\000\000"
      }
    }
  }
  node {
    input: "310"
    input: "408"
    input: "409"
    input: "410"
    output: "411"
    op_type: "Slice"
  }
  node {
    input: "411"
    output: "412"
    op_type: "Squeeze"
    attribute {
      name: "axes"
      ints: 0
    }
  }
  node {
    input: "12"
    output: "413"
    op_type: "Transpose"
    attribute {
      name: "perm"
      ints: 1
      ints: 0
    }
  }
  node {
    input: "412"
    input: "413"
    input: "14"
    output: "796"
    op_type: "Gemm"
    attribute {
      name: "alpha"
      f: 1
    }
    attribute {
      name: "beta"
      f: 1
    }
    attribute {
      name: "broadcast"
      i: 1
    }
  }
  node {
    input: "13"
    output: "416"
    op_type: "Transpose"
    attribute {
      name: "perm"
      ints: 1
      ints: 0
    }
  }
  node {
    input: "407"
    input: "416"
    input: "15"
    output: "797"
    op_type: "Gemm"
    attribute {
      name: "alpha"
      f: 1
    }
    attribute {
      name: "beta"
      f: 1
    }
    attribute {
      name: "broadcast"
      i: 1
    }
  }
  node {
    input: "796"
    input: "797"
    output: "419"
    op_type: "Add"
  }
  node {
    input: "419"
    output: "420"
    op_type: "Tanh"
  }
  node {
    output: "421"
    op_type: "Constant"
    attribute {
      name: "value"
      t {
        dims: 1
        data_type: INT32
        raw_data: "\000\000\000\000"
      }
    }
  }
  node {
    output: "422"
    op_type: "Constant"
    attribute {
      name: "value"
      t {
        dims: 1
        data_type: INT64
        raw_data: "\010\000\000\000\000\000\000\000"
      }
    }
  }
  node {
    output: "423"
    op_type: "Constant"
    attribute {
      name: "value"
      t {
        dims: 1
        data_type: INT64
        raw_data: "\t\000\000\000\000\000\000\000"
      }
    }
  }
  node {
    input: "310"
    input: "421"
    input: "422"
    input: "423"
    output: "424"
    op_type: "Slice"
  }
  node {
    input: "424"
    output: "425"
    op_type: "Squeeze"
    attribute {
      name: "axes"
      ints: 0
    }
  }
  node {
    input: "12"
    output: "426"
    op_type: "Transpose"
    attribute {
      name: "perm"
      ints: 1
      ints: 0
    }
  }
  node {
    input: "425"
    input: "426"
    input: "14"
    output: "798"
    op_type: "Gemm"
    attribute {
      name: "alpha"
      f: 1
    }
    attribute {
      name: "beta"
      f: 1
    }
    attribute {
      name: "broadcast"
      i: 1
    }
  }
  node {
    input: "13"
    output: "429"
    op_type: "Transpose"
    attribute {
      name: "perm"
      ints: 1
      ints: 0
    }
  }
  node {
    input: "420"
    input: "429"
    input: "15"
    output: "799"
    op_type: "Gemm"
    attribute {
      name: "alpha"
      f: 1
    }
    attribute {
      name: "beta"
      f: 1
    }
    attribute {
      name: "broadcast"
      i: 1
    }
  }
  node {
    input: "798"
    input: "799"
    output: "432"
    op_type: "Add"
  }
  node {
    input: "432"
    output: "433"
    op_type: "Tanh"
  }
  node {
    output: "434"
    op_type: "Constant"
    attribute {
      name: "value"
      t {
        dims: 1
        data_type: INT32
        raw_data: "\000\000\000\000"
      }
    }
  }
  node {
    output: "435"
    op_type: "Constant"
    attribute {
      name: "value"
      t {
        dims: 1
        data_type: INT64
        raw_data: "\t\000\000\000\000\000\000\000"
      }
    }
  }
  node {
    output: "436"
    op_type: "Constant"
    attribute {
      name: "value"
      t {
        dims: 1
        data_type: INT64
        raw_data: "\n\000\000\000\000\000\000\000"
      }
    }
  }
  node {
    input: "310"
    input: "434"
    input: "435"
    input: "436"
    output: "437"
    op_type: "Slice"
  }
  node {
    input: "437"
    output: "438"
    op_type: "Squeeze"
    attribute {
      name: "axes"
      ints: 0
    }
  }
  node {
    input: "12"
    output: "439"
    op_type: "Transpose"
    attribute {
      name: "perm"
      ints: 1
      ints: 0
    }
  }
  node {
    input: "438"
    input: "439"
    input: "14"
    output: "800"
    op_type: "Gemm"
    attribute {
      name: "alpha"
      f: 1
    }
    attribute {
      name: "beta"
      f: 1
    }
    attribute {
      name: "broadcast"
      i: 1
    }
  }
  node {
    input: "13"
    output: "442"
    op_type: "Transpose"
    attribute {
      name: "perm"
      ints: 1
      ints: 0
    }
  }
  node {
    input: "433"
    input: "442"
    input: "15"
    output: "801"
    op_type: "Gemm"
    attribute {
      name: "alpha"
      f: 1
    }
    attribute {
      name: "beta"
      f: 1
    }
    attribute {
      name: "broadcast"
      i: 1
    }
  }
  node {
    input: "800"
    input: "801"
    output: "445"
    op_type: "Add"
  }
  node {
    input: "445"
    output: "446"
    op_type: "Tanh"
  }
  node {
    input: "329"
    input: "342"
    input: "355"
    input: "368"
    input: "381"
    input: "394"
    input: "407"
    input: "420"
    input: "433"
    input: "446"
    output: "447"
    op_type: "Concat"
    attribute {
      name: "axis"
      i: 0
    }
  }
  node {
    input: "447"
    output: "448"
    op_type: "Reshape"
    attribute {
      name: "shape"
      ints: 10
      ints: 5
      ints: 5
    }
  }
  node {
    input: "448"
    output: "449"
    op_type: "Concat"
    attribute {
      name: "axis"
      i: 2
    }
  }
  node {
    input: "449"
    output: "451"
    output: "452"
    op_type: "Dropout"
    attribute {
      name: "is_test"
      i: 1
    }
    attribute {
      name: "ratio"
      f: 0.200000002980232
    }
  }
  node {
    output: "453"
    op_type: "Constant"
    attribute {
      name: "value"
      t {
        dims: 1
        data_type: INT32
        raw_data: "\000\000\000\000"
      }
    }
  }
  node {
    output: "454"
    op_type: "Constant"
    attribute {
      name: "value"
      t {
        dims: 1
        data_type: INT64
        raw_data: "\003\000\000\000\000\000\000\000"
      }
    }
  }
  node {
    output: "455"
    op_type: "Constant"
    attribute {
      name: "value"
      t {
        dims: 1
        data_type: INT64
        raw_data: "\004\000\000\000\000\000\000\000"
      }
    }
  }
  node {
    input: "2"
    input: "453"
    input: "454"
    input: "455"
    output: "456"
    op_type: "Slice"
  }
  node {
    input: "456"
    output: "457"
    op_type: "Squeeze"
    attribute {
      name: "axes"
      ints: 0
    }
  }
  node {
    output: "458"
    op_type: "Constant"
    attribute {
      name: "value"
      t {
        dims: 1
        data_type: INT32
        raw_data: "\000\000\000\000"
      }
    }
  }
  node {
    output: "459"
    op_type: "Constant"
    attribute {
      name: "value"
      t {
        dims: 1
        data_type: INT64
        raw_data: "\000\000\000\000\000\000\000\000"
      }
    }
  }
  node {
    output: "460"
    op_type: "Constant"
    attribute {
      name: "value"
      t {
        dims: 1
        data_type: INT64
        raw_data: "\001\000\000\000\000\000\000\000"
      }
    }
  }
  node {
    input: "451"
    input: "458"
    input: "459"
    input: "460"
    output: "461"
    op_type: "Slice"
  }
  node {
    input: "461"
    output: "462"
    op_type: "Squeeze"
    attribute {
      name: "axes"
      ints: 0
    }
  }
  node {
    input: "16"
    output: "463"
    op_type: "Transpose"
    attribute {
      name: "perm"
      ints: 1
      ints: 0
    }
  }
  node {
    input: "462"
    input: "463"
    input: "18"
    output: "802"
    op_type: "Gemm"
    attribute {
      name: "alpha"
      f: 1
    }
    attribute {
      name: "beta"
      f: 1
    }
    attribute {
      name: "broadcast"
      i: 1
    }
  }
  node {
    input: "17"
    output: "466"
    op_type: "Transpose"
    attribute {
      name: "perm"
      ints: 1
      ints: 0
    }
  }
  node {
    input: "457"
    input: "466"
    input: "19"
    output: "803"
    op_type: "Gemm"
    attribute {
      name: "alpha"
      f: 1
    }
    attribute {
      name: "beta"
      f: 1
    }
    attribute {
      name: "broadcast"
      i: 1
    }
  }
  node {
    input: "802"
    input: "803"
    output: "469"
    op_type: "Add"
  }
  node {
    input: "469"
    output: "470"
    op_type: "Tanh"
  }
  node {
    output: "471"
    op_type: "Constant"
    attribute {
      name: "value"
      t {
        dims: 1
        data_type: INT32
        raw_data: "\000\000\000\000"
      }
    }
  }
  node {
    output: "472"
    op_type: "Constant"
    attribute {
      name: "value"
      t {
        dims: 1
        data_type: INT64
        raw_data: "\001\000\000\000\000\000\000\000"
      }
    }
  }
  node {
    output: "473"
    op_type: "Constant"
    attribute {
      name: "value"
      t {
        dims: 1
        data_type: INT64
        raw_data: "\002\000\000\000\000\000\000\000"
      }
    }
  }
  node {
    input: "451"
    input: "471"
    input: "472"
    input: "473"
    output: "474"
    op_type: "Slice"
  }
  node {
    input: "474"
    output: "475"
    op_type: "Squeeze"
    attribute {
      name: "axes"
      ints: 0
    }
  }
  node {
    input: "16"
    output: "476"
    op_type: "Transpose"
    attribute {
      name: "perm"
      ints: 1
      ints: 0
    }
  }
  node {
    input: "475"
    input: "476"
    input: "18"
    output: "804"
    op_type: "Gemm"
    attribute {
      name: "alpha"
      f: 1
    }
    attribute {
      name: "beta"
      f: 1
    }
    attribute {
      name: "broadcast"
      i: 1
    }
  }
  node {
    input: "17"
    output: "479"
    op_type: "Transpose"
    attribute {
      name: "perm"
      ints: 1
      ints: 0
    }
  }
  node {
    input: "470"
    input: "479"
    input: "19"
    output: "805"
    op_type: "Gemm"
    attribute {
      name: "alpha"
      f: 1
    }
    attribute {
      name: "beta"
      f: 1
    }
    attribute {
      name: "broadcast"
      i: 1
    }
  }
  node {
    input: "804"
    input: "805"
    output: "482"
    op_type: "Add"
  }
  node {
    input: "482"
    output: "483"
    op_type: "Tanh"
  }
  node {
    output: "484"
    op_type: "Constant"
    attribute {
      name: "value"
      t {
        dims: 1
        data_type: INT32
        raw_data: "\000\000\000\000"
      }
    }
  }
  node {
    output: "485"
    op_type: "Constant"
    attribute {
      name: "value"
      t {
        dims: 1
        data_type: INT64
        raw_data: "\002\000\000\000\000\000\000\000"
      }
    }
  }
  node {
    output: "486"
    op_type: "Constant"
    attribute {
      name: "value"
      t {
        dims: 1
        data_type: INT64
        raw_data: "\003\000\000\000\000\000\000\000"
      }
    }
  }
  node {
    input: "451"
    input: "484"
    input: "485"
    input: "486"
    output: "487"
    op_type: "Slice"
  }
  node {
    input: "487"
    output: "488"
    op_type: "Squeeze"
    attribute {
      name: "axes"
      ints: 0
    }
  }
  node {
    input: "16"
    output: "489"
    op_type: "Transpose"
    attribute {
      name: "perm"
      ints: 1
      ints: 0
    }
  }
  node {
    input: "488"
    input: "489"
    input: "18"
    output: "806"
    op_type: "Gemm"
    attribute {
      name: "alpha"
      f: 1
    }
    attribute {
      name: "beta"
      f: 1
    }
    attribute {
      name: "broadcast"
      i: 1
    }
  }
  node {
    input: "17"
    output: "492"
    op_type: "Transpose"
    attribute {
      name: "perm"
      ints: 1
      ints: 0
    }
  }
  node {
    input: "483"
    input: "492"
    input: "19"
    output: "807"
    op_type: "Gemm"
    attribute {
      name: "alpha"
      f: 1
    }
    attribute {
      name: "beta"
      f: 1
    }
    attribute {
      name: "broadcast"
      i: 1
    }
  }
  node {
    input: "806"
    input: "807"
    output: "495"
    op_type: "Add"
  }
  node {
    input: "495"
    output: "496"
    op_type: "Tanh"
  }
  node {
    output: "497"
    op_type: "Constant"
    attribute {
      name: "value"
      t {
        dims: 1
        data_type: INT32
        raw_data: "\000\000\000\000"
      }
    }
  }
  node {
    output: "498"
    op_type: "Constant"
    attribute {
      name: "value"
      t {
        dims: 1
        data_type: INT64
        raw_data: "\003\000\000\000\000\000\000\000"
      }
    }
  }
  node {
    output: "499"
    op_type: "Constant"
    attribute {
      name: "value"
      t {
        dims: 1
        data_type: INT64
        raw_data: "\004\000\000\000\000\000\000\000"
      }
    }
  }
  node {
    input: "451"
    input: "497"
    input: "498"
    input: "499"
    output: "500"
    op_type: "Slice"
  }
  node {
    input: "500"
    output: "501"
    op_type: "Squeeze"
    attribute {
      name: "axes"
      ints: 0
    }
  }
  node {
    input: "16"
    output: "502"
    op_type: "Transpose"
    attribute {
      name: "perm"
      ints: 1
      ints: 0
    }
  }
  node {
    input: "501"
    input: "502"
    input: "18"
    output: "808"
    op_type: "Gemm"
    attribute {
      name: "alpha"
      f: 1
    }
    attribute {
      name: "beta"
      f: 1
    }
    attribute {
      name: "broadcast"
      i: 1
    }
  }
  node {
    input: "17"
    output: "505"
    op_type: "Transpose"
    attribute {
      name: "perm"
      ints: 1
      ints: 0
    }
  }
  node {
    input: "496"
    input: "505"
    input: "19"
    output: "809"
    op_type: "Gemm"
    attribute {
      name: "alpha"
      f: 1
    }
    attribute {
      name: "beta"
      f: 1
    }
    attribute {
      name: "broadcast"
      i: 1
    }
  }
  node {
    input: "808"
    input: "809"
    output: "508"
    op_type: "Add"
  }
  node {
    input: "508"
    output: "509"
    op_type: "Tanh"
  }
  node {
    output: "510"
    op_type: "Constant"
    attribute {
      name: "value"
      t {
        dims: 1
        data_type: INT32
        raw_data: "\000\000\000\000"
      }
    }
  }
  node {
    output: "511"
    op_type: "Constant"
    attribute {
      name: "value"
      t {
        dims: 1
        data_type: INT64
        raw_data: "\004\000\000\000\000\000\000\000"
      }
    }
  }
  node {
    output: "512"
    op_type: "Constant"
    attribute {
      name: "value"
      t {
        dims: 1
        data_type: INT64
        raw_data: "\005\000\000\000\000\000\000\000"
      }
    }
  }
  node {
    input: "451"
    input: "510"
    input: "511"
    input: "512"
    output: "513"
    op_type: "Slice"
  }
  node {
    input: "513"
    output: "514"
    op_type: "Squeeze"
    attribute {
      name: "axes"
      ints: 0
    }
  }
  node {
    input: "16"
    output: "515"
    op_type: "Transpose"
    attribute {
      name: "perm"
      ints: 1
      ints: 0
    }
  }
  node {
    input: "514"
    input: "515"
    input: "18"
    output: "810"
    op_type: "Gemm"
    attribute {
      name: "alpha"
      f: 1
    }
    attribute {
      name: "beta"
      f: 1
    }
    attribute {
      name: "broadcast"
      i: 1
    }
  }
  node {
    input: "17"
    output: "518"
    op_type: "Transpose"
    attribute {
      name: "perm"
      ints: 1
      ints: 0
    }
  }
  node {
    input: "509"
    input: "518"
    input: "19"
    output: "811"
    op_type: "Gemm"
    attribute {
      name: "alpha"
      f: 1
    }
    attribute {
      name: "beta"
      f: 1
    }
    attribute {
      name: "broadcast"
      i: 1
    }
  }
  node {
    input: "810"
    input: "811"
    output: "521"
    op_type: "Add"
  }
  node {
    input: "521"
    output: "522"
    op_type: "Tanh"
  }
  node {
    output: "523"
    op_type: "Constant"
    attribute {
      name: "value"
      t {
        dims: 1
        data_type: INT32
        raw_data: "\000\000\000\000"
      }
    }
  }
  node {
    output: "524"
    op_type: "Constant"
    attribute {
      name: "value"
      t {
        dims: 1
        data_type: INT64
        raw_data: "\005\000\000\000\000\000\000\000"
      }
    }
  }
  node {
    output: "525"
    op_type: "Constant"
    attribute {
      name: "value"
      t {
        dims: 1
        data_type: INT64
        raw_data: "\006\000\000\000\000\000\000\000"
      }
    }
  }
  node {
    input: "451"
    input: "523"
    input: "524"
    input: "525"
    output: "526"
    op_type: "Slice"
  }
  node {
    input: "526"
    output: "527"
    op_type: "Squeeze"
    attribute {
      name: "axes"
      ints: 0
    }
  }
  node {
    input: "16"
    output: "528"
    op_type: "Transpose"
    attribute {
      name: "perm"
      ints: 1
      ints: 0
    }
  }
  node {
    input: "527"
    input: "528"
    input: "18"
    output: "812"
    op_type: "Gemm"
    attribute {
      name: "alpha"
      f: 1
    }
    attribute {
      name: "beta"
      f: 1
    }
    attribute {
      name: "broadcast"
      i: 1
    }
  }
  node {
    input: "17"
    output: "531"
    op_type: "Transpose"
    attribute {
      name: "perm"
      ints: 1
      ints: 0
    }
  }
  node {
    input: "522"
    input: "531"
    input: "19"
    output: "813"
    op_type: "Gemm"
    attribute {
      name: "alpha"
      f: 1
    }
    attribute {
      name: "beta"
      f: 1
    }
    attribute {
      name: "broadcast"
      i: 1
    }
  }
  node {
    input: "812"
    input: "813"
    output: "534"
    op_type: "Add"
  }
  node {
    input: "534"
    output: "535"
    op_type: "Tanh"
  }
  node {
    output: "536"
    op_type: "Constant"
    attribute {
      name: "value"
      t {
        dims: 1
        data_type: INT32
        raw_data: "\000\000\000\000"
      }
    }
  }
  node {
    output: "537"
    op_type: "Constant"
    attribute {
      name: "value"
      t {
        dims: 1
        data_type: INT64
        raw_data: "\006\000\000\000\000\000\000\000"
      }
    }
  }
  node {
    output: "538"
    op_type: "Constant"
    attribute {
      name: "value"
      t {
        dims: 1
        data_type: INT64
        raw_data: "\007\000\000\000\000\000\000\000"
      }
    }
  }
  node {
    input: "451"
    input: "536"
    input: "537"
    input: "538"
    output: "539"
    op_type: "Slice"
  }
  node {
    input: "539"
    output: "540"
    op_type: "Squeeze"
    attribute {
      name: "axes"
      ints: 0
    }
  }
  node {
    input: "16"
    output: "541"
    op_type: "Transpose"
    attribute {
      name: "perm"
      ints: 1
      ints: 0
    }
  }
  node {
    input: "540"
    input: "541"
    input: "18"
    output: "814"
    op_type: "Gemm"
    attribute {
      name: "alpha"
      f: 1
    }
    attribute {
      name: "beta"
      f: 1
    }
    attribute {
      name: "broadcast"
      i: 1
    }
  }
  node {
    input: "17"
    output: "544"
    op_type: "Transpose"
    attribute {
      name: "perm"
      ints: 1
      ints: 0
    }
  }
  node {
    input: "535"
    input: "544"
    input: "19"
    output: "815"
    op_type: "Gemm"
    attribute {
      name: "alpha"
      f: 1
    }
    attribute {
      name: "beta"
      f: 1
    }
    attribute {
      name: "broadcast"
      i: 1
    }
  }
  node {
    input: "814"
    input: "815"
    output: "547"
    op_type: "Add"
  }
  node {
    input: "547"
    output: "548"
    op_type: "Tanh"
  }
  node {
    output: "549"
    op_type: "Constant"
    attribute {
      name: "value"
      t {
        dims: 1
        data_type: INT32
        raw_data: "\000\000\000\000"
      }
    }
  }
  node {
    output: "550"
    op_type: "Constant"
    attribute {
      name: "value"
      t {
        dims: 1
        data_type: INT64
        raw_data: "\007\000\000\000\000\000\000\000"
      }
    }
  }
  node {
    output: "551"
    op_type: "Constant"
    attribute {
      name: "value"
      t {
        dims: 1
        data_type: INT64
        raw_data: "\010\000\000\000\000\000\000\000"
      }
    }
  }
  node {
    input: "451"
    input: "549"
    input: "550"
    input: "551"
    output: "552"
    op_type: "Slice"
  }
  node {
    input: "552"
    output: "553"
    op_type: "Squeeze"
    attribute {
      name: "axes"
      ints: 0
    }
  }
  node {
    input: "16"
    output: "554"
    op_type: "Transpose"
    attribute {
      name: "perm"
      ints: 1
      ints: 0
    }
  }
  node {
    input: "553"
    input: "554"
    input: "18"
    output: "816"
    op_type: "Gemm"
    attribute {
      name: "alpha"
      f: 1
    }
    attribute {
      name: "beta"
      f: 1
    }
    attribute {
      name: "broadcast"
      i: 1
    }
  }
  node {
    input: "17"
    output: "557"
    op_type: "Transpose"
    attribute {
      name: "perm"
      ints: 1
      ints: 0
    }
  }
  node {
    input: "548"
    input: "557"
    input: "19"
    output: "817"
    op_type: "Gemm"
    attribute {
      name: "alpha"
      f: 1
    }
    attribute {
      name: "beta"
      f: 1
    }
    attribute {
      name: "broadcast"
      i: 1
    }
  }
  node {
    input: "816"
    input: "817"
    output: "560"
    op_type: "Add"
  }
  node {
    input: "560"
    output: "561"
    op_type: "Tanh"
  }
  node {
    output: "562"
    op_type: "Constant"
    attribute {
      name: "value"
      t {
        dims: 1
        data_type: INT32
        raw_data: "\000\000\000\000"
      }
    }
  }
  node {
    output: "563"
    op_type: "Constant"
    attribute {
      name: "value"
      t {
        dims: 1
        data_type: INT64
        raw_data: "\010\000\000\000\000\000\000\000"
      }
    }
  }
  node {
    output: "564"
    op_type: "Constant"
    attribute {
      name: "value"
      t {
        dims: 1
        data_type: INT64
        raw_data: "\t\000\000\000\000\000\000\000"
      }
    }
  }
  node {
    input: "451"
    input: "562"
    input: "563"
    input: "564"
    output: "565"
    op_type: "Slice"
  }
  node {
    input: "565"
    output: "566"
    op_type: "Squeeze"
    attribute {
      name: "axes"
      ints: 0
    }
  }
  node {
    input: "16"
    output: "567"
    op_type: "Transpose"
    attribute {
      name: "perm"
      ints: 1
      ints: 0
    }
  }
  node {
    input: "566"
    input: "567"
    input: "18"
    output: "818"
    op_type: "Gemm"
    attribute {
      name: "alpha"
      f: 1
    }
    attribute {
      name: "beta"
      f: 1
    }
    attribute {
      name: "broadcast"
      i: 1
    }
  }
  node {
    input: "17"
    output: "570"
    op_type: "Transpose"
    attribute {
      name: "perm"
      ints: 1
      ints: 0
    }
  }
  node {
    input: "561"
    input: "570"
    input: "19"
    output: "819"
    op_type: "Gemm"
    attribute {
      name: "alpha"
      f: 1
    }
    attribute {
      name: "beta"
      f: 1
    }
    attribute {
      name: "broadcast"
      i: 1
    }
  }
  node {
    input: "818"
    input: "819"
    output: "573"
    op_type: "Add"
  }
  node {
    input: "573"
    output: "574"
    op_type: "Tanh"
  }
  node {
    output: "575"
    op_type: "Constant"
    attribute {
      name: "value"
      t {
        dims: 1
        data_type: INT32
        raw_data: "\000\000\000\000"
      }
    }
  }
  node {
    output: "576"
    op_type: "Constant"
    attribute {
      name: "value"
      t {
        dims: 1
        data_type: INT64
        raw_data: "\t\000\000\000\000\000\000\000"
      }
    }
  }
  node {
    output: "577"
    op_type: "Constant"
    attribute {
      name: "value"
      t {
        dims: 1
        data_type: INT64
        raw_data: "\n\000\000\000\000\000\000\000"
      }
    }
  }
  node {
    input: "451"
    input: "575"
    input: "576"
    input: "577"
    output: "578"
    op_type: "Slice"
  }
  node {
    input: "578"
    output: "579"
    op_type: "Squeeze"
    attribute {
      name: "axes"
      ints: 0
    }
  }
  node {
    input: "16"
    output: "580"
    op_type: "Transpose"
    attribute {
      name: "perm"
      ints: 1
      ints: 0
    }
  }
  node {
    input: "579"
    input: "580"
    input: "18"
    output: "820"
    op_type: "Gemm"
    attribute {
      name: "alpha"
      f: 1
    }
    attribute {
      name: "beta"
      f: 1
    }
    attribute {
      name: "broadcast"
      i: 1
    }
  }
  node {
    input: "17"
    output: "583"
    op_type: "Transpose"
    attribute {
      name: "perm"
      ints: 1
      ints: 0
    }
  }
  node {
    input: "574"
    input: "583"
    input: "19"
    output: "821"
    op_type: "Gemm"
    attribute {
      name: "alpha"
      f: 1
    }
    attribute {
      name: "beta"
      f: 1
    }
    attribute {
      name: "broadcast"
      i: 1
    }
  }
  node {
    input: "820"
    input: "821"
    output: "586"
    op_type: "Add"
  }
  node {
    input: "586"
    output: "587"
    op_type: "Tanh"
  }
  node {
    input: "470"
    input: "483"
    input: "496"
    input: "509"
    input: "522"
    input: "535"
    input: "548"
    input: "561"
    input: "574"
    input: "587"
    output: "588"
    op_type: "Concat"
    attribute {
      name: "axis"
      i: 0
    }
  }
  node {
    input: "588"
    output: "589"
    op_type: "Reshape"
    attribute {
      name: "shape"
      ints: 10
      ints: 5
      ints: 5
    }
  }
  node {
    input: "589"
    output: "590"
    op_type: "Concat"
    attribute {
      name: "axis"
      i: 2
    }
  }
  node {
    input: "590"
    output: "592"
    output: "593"
    op_type: "Dropout"
    attribute {
      name: "is_test"
      i: 1
    }
    attribute {
      name: "ratio"
      f: 0.200000002980232
    }
  }
  node {
    output: "594"
    op_type: "Constant"
    attribute {
      name: "value"
      t {
        dims: 1
        data_type: INT32
        raw_data: "\000\000\000\000"
      }
    }
  }
  node {
    output: "595"
    op_type: "Constant"
    attribute {
      name: "value"
      t {
        dims: 1
        data_type: INT64
        raw_data: "\004\000\000\000\000\000\000\000"
      }
    }
  }
  node {
    output: "596"
    op_type: "Constant"
    attribute {
      name: "value"
      t {
        dims: 1
        data_type: INT64
        raw_data: "\005\000\000\000\000\000\000\000"
      }
    }
  }
  node {
    input: "2"
    input: "594"
    input: "595"
    input: "596"
    output: "597"
    op_type: "Slice"
  }
  node {
    input: "597"
    output: "598"
    op_type: "Squeeze"
    attribute {
      name: "axes"
      ints: 0
    }
  }
  node {
    output: "599"
    op_type: "Constant"
    attribute {
      name: "value"
      t {
        dims: 1
        data_type: INT32
        raw_data: "\000\000\000\000"
      }
    }
  }
  node {
    output: "600"
    op_type: "Constant"
    attribute {
      name: "value"
      t {
        dims: 1
        data_type: INT64
        raw_data: "\000\000\000\000\000\000\000\000"
      }
    }
  }
  node {
    output: "601"
    op_type: "Constant"
    attribute {
      name: "value"
      t {
        dims: 1
        data_type: INT64
        raw_data: "\001\000\000\000\000\000\000\000"
      }
    }
  }
  node {
    input: "592"
    input: "599"
    input: "600"
    input: "601"
    output: "602"
    op_type: "Slice"
  }
  node {
    input: "602"
    output: "603"
    op_type: "Squeeze"
    attribute {
      name: "axes"
      ints: 0
    }
  }
  node {
    input: "20"
    output: "604"
    op_type: "Transpose"
    attribute {
      name: "perm"
      ints: 1
      ints: 0
    }
  }
  node {
    input: "603"
    input: "604"
    input: "22"
    output: "822"
    op_type: "Gemm"
    attribute {
      name: "alpha"
      f: 1
    }
    attribute {
      name: "beta"
      f: 1
    }
    attribute {
      name: "broadcast"
      i: 1
    }
  }
  node {
    input: "21"
    output: "607"
    op_type: "Transpose"
    attribute {
      name: "perm"
      ints: 1
      ints: 0
    }
  }
  node {
    input: "598"
    input: "607"
    input: "23"
    output: "823"
    op_type: "Gemm"
    attribute {
      name: "alpha"
      f: 1
    }
    attribute {
      name: "beta"
      f: 1
    }
    attribute {
      name: "broadcast"
      i: 1
    }
  }
  node {
    input: "822"
    input: "823"
    output: "610"
    op_type: "Add"
  }
  node {
    input: "610"
    output: "611"
    op_type: "Tanh"
  }
  node {
    output: "612"
    op_type: "Constant"
    attribute {
      name: "value"
      t {
        dims: 1
        data_type: INT32
        raw_data: "\000\000\000\000"
      }
    }
  }
  node {
    output: "613"
    op_type: "Constant"
    attribute {
      name: "value"
      t {
        dims: 1
        data_type: INT64
        raw_data: "\001\000\000\000\000\000\000\000"
      }
    }
  }
  node {
    output: "614"
    op_type: "Constant"
    attribute {
      name: "value"
      t {
        dims: 1
        data_type: INT64
        raw_data: "\002\000\000\000\000\000\000\000"
      }
    }
  }
  node {
    input: "592"
    input: "612"
    input: "613"
    input: "614"
    output: "615"
    op_type: "Slice"
  }
  node {
    input: "615"
    output: "616"
    op_type: "Squeeze"
    attribute {
      name: "axes"
      ints: 0
    }
  }
  node {
    input: "20"
    output: "617"
    op_type: "Transpose"
    attribute {
      name: "perm"
      ints: 1
      ints: 0
    }
  }
  node {
    input: "616"
    input: "617"
    input: "22"
    output: "824"
    op_type: "Gemm"
    attribute {
      name: "alpha"
      f: 1
    }
    attribute {
      name: "beta"
      f: 1
    }
    attribute {
      name: "broadcast"
      i: 1
    }
  }
  node {
    input: "21"
    output: "620"
    op_type: "Transpose"
    attribute {
      name: "perm"
      ints: 1
      ints: 0
    }
  }
  node {
    input: "611"
    input: "620"
    input: "23"
    output: "825"
    op_type: "Gemm"
    attribute {
      name: "alpha"
      f: 1
    }
    attribute {
      name: "beta"
      f: 1
    }
    attribute {
      name: "broadcast"
      i: 1
    }
  }
  node {
    input: "824"
    input: "825"
    output: "623"
    op_type: "Add"
  }
  node {
    input: "623"
    output: "624"
    op_type: "Tanh"
  }
  node {
    output: "625"
    op_type: "Constant"
    attribute {
      name: "value"
      t {
        dims: 1
        data_type: INT32
        raw_data: "\000\000\000\000"
      }
    }
  }
  node {
    output: "626"
    op_type: "Constant"
    attribute {
      name: "value"
      t {
        dims: 1
        data_type: INT64
        raw_data: "\002\000\000\000\000\000\000\000"
      }
    }
  }
  node {
    output: "627"
    op_type: "Constant"
    attribute {
      name: "value"
      t {
        dims: 1
        data_type: INT64
        raw_data: "\003\000\000\000\000\000\000\000"
      }
    }
  }
  node {
    input: "592"
    input: "625"
    input: "626"
    input: "627"
    output: "628"
    op_type: "Slice"
  }
  node {
    input: "628"
    output: "629"
    op_type: "Squeeze"
    attribute {
      name: "axes"
      ints: 0
    }
  }
  node {
    input: "20"
    output: "630"
    op_type: "Transpose"
    attribute {
      name: "perm"
      ints: 1
      ints: 0
    }
  }
  node {
    input: "629"
    input: "630"
    input: "22"
    output: "826"
    op_type: "Gemm"
    attribute {
      name: "alpha"
      f: 1
    }
    attribute {
      name: "beta"
      f: 1
    }
    attribute {
      name: "broadcast"
      i: 1
    }
  }
  node {
    input: "21"
    output: "633"
    op_type: "Transpose"
    attribute {
      name: "perm"
      ints: 1
      ints: 0
    }
  }
  node {
    input: "624"
    input: "633"
    input: "23"
    output: "827"
    op_type: "Gemm"
    attribute {
      name: "alpha"
      f: 1
    }
    attribute {
      name: "beta"
      f: 1
    }
    attribute {
      name: "broadcast"
      i: 1
    }
  }
  node {
    input: "826"
    input: "827"
    output: "636"
    op_type: "Add"
  }
  node {
    input: "636"
    output: "637"
    op_type: "Tanh"
  }
  node {
    output: "638"
    op_type: "Constant"
    attribute {
      name: "value"
      t {
        dims: 1
        data_type: INT32
        raw_data: "\000\000\000\000"
      }
    }
  }
  node {
    output: "639"
    op_type: "Constant"
    attribute {
      name: "value"
      t {
        dims: 1
        data_type: INT64
        raw_data: "\003\000\000\000\000\000\000\000"
      }
    }
  }
  node {
    output: "640"
    op_type: "Constant"
    attribute {
      name: "value"
      t {
        dims: 1
        data_type: INT64
        raw_data: "\004\000\000\000\000\000\000\000"
      }
    }
  }
  node {
    input: "592"
    input: "638"
    input: "639"
    input: "640"
    output: "641"
    op_type: "Slice"
  }
  node {
    input: "641"
    output: "642"
    op_type: "Squeeze"
    attribute {
      name: "axes"
      ints: 0
    }
  }
  node {
    input: "20"
    output: "643"
    op_type: "Transpose"
    attribute {
      name: "perm"
      ints: 1
      ints: 0
    }
  }
  node {
    input: "642"
    input: "643"
    input: "22"
    output: "828"
    op_type: "Gemm"
    attribute {
      name: "alpha"
      f: 1
    }
    attribute {
      name: "beta"
      f: 1
    }
    attribute {
      name: "broadcast"
      i: 1
    }
  }
  node {
    input: "21"
    output: "646"
    op_type: "Transpose"
    attribute {
      name: "perm"
      ints: 1
      ints: 0
    }
  }
  node {
    input: "637"
    input: "646"
    input: "23"
    output: "829"
    op_type: "Gemm"
    attribute {
      name: "alpha"
      f: 1
    }
    attribute {
      name: "beta"
      f: 1
    }
    attribute {
      name: "broadcast"
      i: 1
    }
  }
  node {
    input: "828"
    input: "829"
    output: "649"
    op_type: "Add"
  }
  node {
    input: "649"
    output: "650"
    op_type: "Tanh"
  }
  node {
    output: "651"
    op_type: "Constant"
    attribute {
      name: "value"
      t {
        dims: 1
        data_type: INT32
        raw_data: "\000\000\000\000"
      }
    }
  }
  node {
    output: "652"
    op_type: "Constant"
    attribute {
      name: "value"
      t {
        dims: 1
        data_type: INT64
        raw_data: "\004\000\000\000\000\000\000\000"
      }
    }
  }
  node {
    output: "653"
    op_type: "Constant"
    attribute {
      name: "value"
      t {
        dims: 1
        data_type: INT64
        raw_data: "\005\000\000\000\000\000\000\000"
      }
    }
  }
  node {
    input: "592"
    input: "651"
    input: "652"
    input: "653"
    output: "654"
    op_type: "Slice"
  }
  node {
    input: "654"
    output: "655"
    op_type: "Squeeze"
    attribute {
      name: "axes"
      ints: 0
    }
  }
  node {
    input: "20"
    output: "656"
    op_type: "Transpose"
    attribute {
      name: "perm"
      ints: 1
      ints: 0
    }
  }
  node {
    input: "655"
    input: "656"
    input: "22"
    output: "830"
    op_type: "Gemm"
    attribute {
      name: "alpha"
      f: 1
    }
    attribute {
      name: "beta"
      f: 1
    }
    attribute {
      name: "broadcast"
      i: 1
    }
  }
  node {
    input: "21"
    output: "659"
    op_type: "Transpose"
    attribute {
      name: "perm"
      ints: 1
      ints: 0
    }
  }
  node {
    input: "650"
    input: "659"
    input: "23"
    output: "831"
    op_type: "Gemm"
    attribute {
      name: "alpha"
      f: 1
    }
    attribute {
      name: "beta"
      f: 1
    }
    attribute {
      name: "broadcast"
      i: 1
    }
  }
  node {
    input: "830"
    input: "831"
    output: "662"
    op_type: "Add"
  }
  node {
    input: "662"
    output: "663"
    op_type: "Tanh"
  }
  node {
    output: "664"
    op_type: "Constant"
    attribute {
      name: "value"
      t {
        dims: 1
        data_type: INT32
        raw_data: "\000\000\000\000"
      }
    }
  }
  node {
    output: "665"
    op_type: "Constant"
    attribute {
      name: "value"
      t {
        dims: 1
        data_type: INT64
        raw_data: "\005\000\000\000\000\000\000\000"
      }
    }
  }
  node {
    output: "666"
    op_type: "Constant"
    attribute {
      name: "value"
      t {
        dims: 1
        data_type: INT64
        raw_data: "\006\000\000\000\000\000\000\000"
      }
    }
  }
  node {
    input: "592"
    input: "664"
    input: "665"
    input: "666"
    output: "667"
    op_type: "Slice"
  }
  node {
    input: "667"
    output: "668"
    op_type: "Squeeze"
    attribute {
      name: "axes"
      ints: 0
    }
  }
  node {
    input: "20"
    output: "669"
    op_type: "Transpose"
    attribute {
      name: "perm"
      ints: 1
      ints: 0
    }
  }
  node {
    input: "668"
    input: "669"
    input: "22"
    output: "832"
    op_type: "Gemm"
    attribute {
      name: "alpha"
      f: 1
    }
    attribute {
      name: "beta"
      f: 1
    }
    attribute {
      name: "broadcast"
      i: 1
    }
  }
  node {
    input: "21"
    output: "672"
    op_type: "Transpose"
    attribute {
      name: "perm"
      ints: 1
      ints: 0
    }
  }
  node {
    input: "663"
    input: "672"
    input: "23"
    output: "833"
    op_type: "Gemm"
    attribute {
      name: "alpha"
      f: 1
    }
    attribute {
      name: "beta"
      f: 1
    }
    attribute {
      name: "broadcast"
      i: 1
    }
  }
  node {
    input: "832"
    input: "833"
    output: "675"
    op_type: "Add"
  }
  node {
    input: "675"
    output: "676"
    op_type: "Tanh"
  }
  node {
    output: "677"
    op_type: "Constant"
    attribute {
      name: "value"
      t {
        dims: 1
        data_type: INT32
        raw_data: "\000\000\000\000"
      }
    }
  }
  node {
    output: "678"
    op_type: "Constant"
    attribute {
      name: "value"
      t {
        dims: 1
        data_type: INT64
        raw_data: "\006\000\000\000\000\000\000\000"
      }
    }
  }
  node {
    output: "679"
    op_type: "Constant"
    attribute {
      name: "value"
      t {
        dims: 1
        data_type: INT64
        raw_data: "\007\000\000\000\000\000\000\000"
      }
    }
  }
  node {
    input: "592"
    input: "677"
    input: "678"
    input: "679"
    output: "680"
    op_type: "Slice"
  }
  node {
    input: "680"
    output: "681"
    op_type: "Squeeze"
    attribute {
      name: "axes"
      ints: 0
    }
  }
  node {
    input: "20"
    output: "682"
    op_type: "Transpose"
    attribute {
      name: "perm"
      ints: 1
      ints: 0
    }
  }
  node {
    input: "681"
    input: "682"
    input: "22"
    output: "834"
    op_type: "Gemm"
    attribute {
      name: "alpha"
      f: 1
    }
    attribute {
      name: "beta"
      f: 1
    }
    attribute {
      name: "broadcast"
      i: 1
    }
  }
  node {
    input: "21"
    output: "685"
    op_type: "Transpose"
    attribute {
      name: "perm"
      ints: 1
      ints: 0
    }
  }
  node {
    input: "676"
    input: "685"
    input: "23"
    output: "835"
    op_type: "Gemm"
    attribute {
      name: "alpha"
      f: 1
    }
    attribute {
      name: "beta"
      f: 1
    }
    attribute {
      name: "broadcast"
      i: 1
    }
  }
  node {
    input: "834"
    input: "835"
    output: "688"
    op_type: "Add"
  }
  node {
    input: "688"
    output: "689"
    op_type: "Tanh"
  }
  node {
    output: "690"
    op_type: "Constant"
    attribute {
      name: "value"
      t {
        dims: 1
        data_type: INT32
        raw_data: "\000\000\000\000"
      }
    }
  }
  node {
    output: "691"
    op_type: "Constant"
    attribute {
      name: "value"
      t {
        dims: 1
        data_type: INT64
        raw_data: "\007\000\000\000\000\000\000\000"
      }
    }
  }
  node {
    output: "692"
    op_type: "Constant"
    attribute {
      name: "value"
      t {
        dims: 1
        data_type: INT64
        raw_data: "\010\000\000\000\000\000\000\000"
      }
    }
  }
  node {
    input: "592"
    input: "690"
    input: "691"
    input: "692"
    output: "693"
    op_type: "Slice"
  }
  node {
    input: "693"
    output: "694"
    op_type: "Squeeze"
    attribute {
      name: "axes"
      ints: 0
    }
  }
  node {
    input: "20"
    output: "695"
    op_type: "Transpose"
    attribute {
      name: "perm"
      ints: 1
      ints: 0
    }
  }
  node {
    input: "694"
    input: "695"
    input: "22"
    output: "836"
    op_type: "Gemm"
    attribute {
      name: "alpha"
      f: 1
    }
    attribute {
      name: "beta"
      f: 1
    }
    attribute {
      name: "broadcast"
      i: 1
    }
  }
  node {
    input: "21"
    output: "698"
    op_type: "Transpose"
    attribute {
      name: "perm"
      ints: 1
      ints: 0
    }
  }
  node {
    input: "689"
    input: "698"
    input: "23"
    output: "837"
    op_type: "Gemm"
    attribute {
      name: "alpha"
      f: 1
    }
    attribute {
      name: "beta"
      f: 1
    }
    attribute {
      name: "broadcast"
      i: 1
    }
  }
  node {
    input: "836"
    input: "837"
    output: "701"
    op_type: "Add"
  }
  node {
    input: "701"
    output: "702"
    op_type: "Tanh"
  }
  node {
    output: "703"
    op_type: "Constant"
    attribute {
      name: "value"
      t {
        dims: 1
        data_type: INT32
        raw_data: "\000\000\000\000"
      }
    }
  }
  node {
    output: "704"
    op_type: "Constant"
    attribute {
      name: "value"
      t {
        dims: 1
        data_type: INT64
        raw_data: "\010\000\000\000\000\000\000\000"
      }
    }
  }
  node {
    output: "705"
    op_type: "Constant"
    attribute {
      name: "value"
      t {
        dims: 1
        data_type: INT64
        raw_data: "\t\000\000\000\000\000\000\000"
      }
    }
  }
  node {
    input: "592"
    input: "703"
    input: "704"
    input: "705"
    output: "706"
    op_type: "Slice"
  }
  node {
    input: "706"
    output: "707"
    op_type: "Squeeze"
    attribute {
      name: "axes"
      ints: 0
    }
  }
  node {
    input: "20"
    output: "708"
    op_type: "Transpose"
    attribute {
      name: "perm"
      ints: 1
      ints: 0
    }
  }
  node {
    input: "707"
    input: "708"
    input: "22"
    output: "838"
    op_type: "Gemm"
    attribute {
      name: "alpha"
      f: 1
    }
    attribute {
      name: "beta"
      f: 1
    }
    attribute {
      name: "broadcast"
      i: 1
    }
  }
  node {
    input: "21"
    output: "711"
    op_type: "Transpose"
    attribute {
      name: "perm"
      ints: 1
      ints: 0
    }
  }
  node {
    input: "702"
    input: "711"
    input: "23"
    output: "839"
    op_type: "Gemm"
    attribute {
      name: "alpha"
      f: 1
    }
    attribute {
      name: "beta"
      f: 1
    }
    attribute {
      name: "broadcast"
      i: 1
    }
  }
  node {
    input: "838"
    input: "839"
    output: "714"
    op_type: "Add"
  }
  node {
    input: "714"
    output: "715"
    op_type: "Tanh"
  }
  node {
    output: "716"
    op_type: "Constant"
    attribute {
      name: "value"
      t {
        dims: 1
        data_type: INT32
        raw_data: "\000\000\000\000"
      }
    }
  }
  node {
    output: "717"
    op_type: "Constant"
    attribute {
      name: "value"
      t {
        dims: 1
        data_type: INT64
        raw_data: "\t\000\000\000\000\000\000\000"
      }
    }
  }
  node {
    output: "718"
    op_type: "Constant"
    attribute {
      name: "value"
      t {
        dims: 1
        data_type: INT64
        raw_data: "\n\000\000\000\000\000\000\000"
      }
    }
  }
  node {
    input: "592"
    input: "716"
    input: "717"
    input: "718"
    output: "719"
    op_type: "Slice"
  }
  node {
    input: "719"
    output: "720"
    op_type: "Squeeze"
    attribute {
      name: "axes"
      ints: 0
    }
  }
  node {
    input: "20"
    output: "721"
    op_type: "Transpose"
    attribute {
      name: "perm"
      ints: 1
      ints: 0
    }
  }
  node {
    input: "720"
    input: "721"
    input: "22"
    output: "840"
    op_type: "Gemm"
    attribute {
      name: "alpha"
      f: 1
    }
    attribute {
      name: "beta"
      f: 1
    }
    attribute {
      name: "broadcast"
      i: 1
    }
  }
  node {
    input: "21"
    output: "724"
    op_type: "Transpose"
    attribute {
      name: "perm"
      ints: 1
      ints: 0
    }
  }
  node {
    input: "715"
    input: "724"
    input: "23"
    output: "841"
    op_type: "Gemm"
    attribute {
      name: "alpha"
      f: 1
    }
    attribute {
      name: "beta"
      f: 1
    }
    attribute {
      name: "broadcast"
      i: 1
    }
  }
  node {
    input: "840"
    input: "841"
    output: "727"
    op_type: "Add"
  }
  node {
    input: "727"
    output: "728"
    op_type: "Tanh"
  }
  node {
    input: "611"
    input: "624"
    input: "637"
    input: "650"
    input: "663"
    input: "676"
    input: "689"
    input: "702"
    input: "715"
    input: "728"
    output: "729"
    op_type: "Concat"
    attribute {
      name: "axis"
      i: 0
    }
  }
  node {
    input: "729"
    output: "730"
    op_type: "Reshape"
    attribute {
      name: "shape"
      ints: 10
      ints: 5
      ints: 5
    }
  }
  node {
    input: "730"
    output: "731"
    op_type: "Concat"
    attribute {
      name: "axis"
      i: 2
    }
  }
  node {
    input: "731"
    output: "735"
    output: "736"
    op_type: "Dropout"
    attribute {
      name: "is_test"
      i: 1
    }
    attribute {
      name: "ratio"
      f: 0.200000002980232
    }
  }
  node {
    input: "735"
    output: "737"
    op_type: "Reshape"
    attribute {
      name: "shape"
      ints: 50
      ints: 5
    }
  }
  node {
    input: "24"
    output: "738"
    op_type: "Transpose"
    attribute {
      name: "perm"
      ints: 1
      ints: 0
    }
  }
  node {
    input: "737"
    input: "738"
    input: "25"
    output: "842"
    op_type: "Gemm"
    attribute {
      name: "alpha"
      f: 1
    }
    attribute {
      name: "beta"
      f: 1
    }
    attribute {
      name: "broadcast"
      i: 1
    }
  }
  node {
    input: "842"
    output: "741"
    op_type: "Reshape"
    attribute {
      name: "shape"
      ints: 10
      ints: 5
      ints: 10
    }
  }
  name: "torch-jit-export"
  input {
    name: "1"
    type {
      tensor_type {
        elem_type: INT64
        shape {
          dim {
            dim_value: 10
          }
          dim {
            dim_value: 5
          }
        }
      }
    }
  }
  input {
    name: "2"
    type {
      tensor_type {
        elem_type: FLOAT
        shape {
          dim {
            dim_value: 5
          }
          dim {
            dim_value: 5
          }
          dim {
            dim_value: 5
          }
        }
      }
    }
  }
  input {
    name: "3"
    type {
      tensor_type {
        elem_type: FLOAT
        shape {
          dim {
            dim_value: 10
          }
          dim {
            dim_value: 5
          }
        }
      }
    }
  }
  input {
    name: "4"
    type {
      tensor_type {
        elem_type: FLOAT
        shape {
          dim {
            dim_value: 5
          }
          dim {
            dim_value: 5
          }
        }
      }
    }
  }
  input {
    name: "5"
    type {
      tensor_type {
        elem_type: FLOAT
        shape {
          dim {
            dim_value: 5
          }
          dim {
            dim_value: 5
          }
        }
      }
    }
  }
  input {
    name: "6"
    type {
      tensor_type {
        elem_type: FLOAT
        shape {
          dim {
            dim_value: 5
          }
        }
      }
    }
  }
  input {
    name: "7"
    type {
      tensor_type {
        elem_type: FLOAT
        shape {
          dim {
            dim_value: 5
          }
        }
      }
    }
  }
  input {
    name: "8"
    type {
      tensor_type {
        elem_type: FLOAT
        shape {
          dim {
            dim_value: 5
          }
          dim {
            dim_value: 5
          }
        }
      }
    }
  }
  input {
    name: "9"
    type {
      tensor_type {
        elem_type: FLOAT
        shape {
          dim {
            dim_value: 5
          }
          dim {
            dim_value: 5
          }
        }
      }
    }
  }
  input {
    name: "10"
    type {
      tensor_type {
        elem_type: FLOAT
        shape {
          dim {
            dim_value: 5
          }
        }
      }
    }
  }
  input {
    name: "11"
    type {
      tensor_type {
        elem_type: FLOAT
        shape {
          dim {
            dim_value: 5
          }
        }
      }
    }
  }
  input {
    name: "12"
    type {
      tensor_type {
        elem_type: FLOAT
        shape {
          dim {
            dim_value: 5
          }
          dim {
            dim_value: 5
          }
        }
      }
    }
  }
  input {
    name: "13"
    type {
      tensor_type {
        elem_type: FLOAT
        shape {
          dim {
            dim_value: 5
          }
          dim {
            dim_value: 5
          }
        }
      }
    }
  }
  input {
    name: "14"
    type {
      tensor_type {
        elem_type: FLOAT
        shape {
          dim {
            dim_value: 5
          }
        }
      }
    }
  }
  input {
    name: "15"
    type {
      tensor_type {
        elem_type: FLOAT
        shape {
          dim {
            dim_value: 5
          }
        }
      }
    }
  }
  input {
    name: "16"
    type {
      tensor_type {
        elem_type: FLOAT
        shape {
          dim {
            dim_value: 5
          }
          dim {
            dim_value: 5
          }
        }
      }
    }
  }
  input {
    name: "17"
    type {
      tensor_type {
        elem_type: FLOAT
        shape {
          dim {
            dim_value: 5
          }
          dim {
            dim_value: 5
          }
        }
      }
    }
  }
  input {
    name: "18"
    type {
      tensor_type {
        elem_type: FLOAT
        shape {
          dim {
            dim_value: 5
          }
        }
      }
    }
  }
  input {
    name: "19"
    type {
      tensor_type {
        elem_type: FLOAT
        shape {
          dim {
            dim_value: 5
          }
        }
      }
    }
  }
  input {
    name: "20"
    type {
      tensor_type {
        elem_type: FLOAT
        shape {
          dim {
            dim_value: 5
          }
          dim {
            dim_value: 5
          }
        }
      }
    }
  }
  input {
    name: "21"
    type {
      tensor_type {
        elem_type: FLOAT
        shape {
          dim {
            dim_value: 5
          }
          dim {
            dim_value: 5
          }
        }
      }
    }
  }
  input {
    name: "22"
    type {
      tensor_type {
        elem_type: FLOAT
        shape {
          dim {
            dim_value: 5
          }
        }
      }
    }
  }
  input {
    name: "23"
    type {
      tensor_type {
        elem_type: FLOAT
        shape {
          dim {
            dim_value: 5
          }
        }
      }
    }
  }
  input {
    name: "24"
    type {
      tensor_type {
        elem_type: FLOAT
        shape {
          dim {
            dim_value: 10
          }
          dim {
            dim_value: 5
          }
        }
      }
    }
  }
  input {
    name: "25"
    type {
      tensor_type {
        elem_type: FLOAT
        shape {
          dim {
            dim_value: 10
          }
        }
      }
    }
  }
  output {
    name: "741"
    type {
      tensor_type {
        elem_type: FLOAT
        shape {
          dim {
            dim_value: 10
          }
          dim {
            dim_value: 5
          }
          dim {
            dim_value: 10
          }
        }
      }
    }
  }
}
