ir_version: 1
producer_name: "pytorch"
producer_version: "0.2"
domain: "com.facebook"
graph {
  node {
    input: "0"
    input: "1"
    output: "486"
    op_type: "Conv"
    attribute {
      name: "kernel_shape"
      ints: 3
      ints: 3
      type: INTS
    }
    attribute {
      name: "strides"
      ints: 2
      ints: 2
      type: INTS
    }
    attribute {
      name: "pads"
      ints: 0
      ints: 0
      ints: 0
      ints: 0
      type: INTS
    }
    attribute {
      name: "dilations"
      ints: 1
      ints: 1
      type: INTS
    }
    attribute {
      name: "group"
      i: 1
      type: INT
    }
  }
  node {
    input: "486"
    input: "2"
    input: "3"
    input: "4"
    input: "5"
    output: "487"
    op_type: "BatchNormalization"
    attribute {
      name: "is_test"
      i: 1
      type: INT
    }
    attribute {
      name: "epsilon"
      f: 0.00100000004749745
      type: FLOAT
    }
    attribute {
      name: "momentum"
      f: 0.899999976158142
      type: FLOAT
    }
    attribute {
      name: "consumed_inputs"
      ints: 0
      ints: 0
      ints: 0
      ints: 1
      ints: 1
      type: INTS
    }
  }
  node {
    input: "487"
    output: "488"
    op_type: "Relu"
  }
  node {
    input: "488"
    input: "6"
    output: "490"
    op_type: "Conv"
    attribute {
      name: "kernel_shape"
      ints: 3
      ints: 3
      type: INTS
    }
    attribute {
      name: "strides"
      ints: 1
      ints: 1
      type: INTS
    }
    attribute {
      name: "pads"
      ints: 0
      ints: 0
      ints: 0
      ints: 0
      type: INTS
    }
    attribute {
      name: "dilations"
      ints: 1
      ints: 1
      type: INTS
    }
    attribute {
      name: "group"
      i: 1
      type: INT
    }
  }
  node {
    input: "490"
    input: "7"
    input: "8"
    input: "9"
    input: "10"
    output: "491"
    op_type: "BatchNormalization"
    attribute {
      name: "is_test"
      i: 1
      type: INT
    }
    attribute {
      name: "epsilon"
      f: 0.00100000004749745
      type: FLOAT
    }
    attribute {
      name: "momentum"
      f: 0.899999976158142
      type: FLOAT
    }
    attribute {
      name: "consumed_inputs"
      ints: 0
      ints: 0
      ints: 0
      ints: 1
      ints: 1
      type: INTS
    }
  }
  node {
    input: "491"
    output: "492"
    op_type: "Relu"
  }
  node {
    input: "492"
    input: "11"
    output: "494"
    op_type: "Conv"
    attribute {
      name: "kernel_shape"
      ints: 3
      ints: 3
      type: INTS
    }
    attribute {
      name: "strides"
      ints: 1
      ints: 1
      type: INTS
    }
    attribute {
      name: "pads"
      ints: 1
      ints: 1
      ints: 1
      ints: 1
      type: INTS
    }
    attribute {
      name: "dilations"
      ints: 1
      ints: 1
      type: INTS
    }
    attribute {
      name: "group"
      i: 1
      type: INT
    }
  }
  node {
    input: "494"
    input: "12"
    input: "13"
    input: "14"
    input: "15"
    output: "495"
    op_type: "BatchNormalization"
    attribute {
      name: "is_test"
      i: 1
      type: INT
    }
    attribute {
      name: "epsilon"
      f: 0.00100000004749745
      type: FLOAT
    }
    attribute {
      name: "momentum"
      f: 0.899999976158142
      type: FLOAT
    }
    attribute {
      name: "consumed_inputs"
      ints: 0
      ints: 0
      ints: 0
      ints: 1
      ints: 1
      type: INTS
    }
  }
  node {
    input: "495"
    output: "496"
    op_type: "Relu"
  }
  node {
    input: "496"
    output: "497"
    op_type: "MaxPool"
    attribute {
      name: "kernel_shape"
      ints: 3
      ints: 3
      type: INTS
    }
    attribute {
      name: "pads"
      ints: 0
      ints: 0
      type: INTS
    }
    attribute {
      name: "strides"
      ints: 2
      ints: 2
      type: INTS
    }
  }
  node {
    input: "497"
    input: "16"
    output: "499"
    op_type: "Conv"
    attribute {
      name: "kernel_shape"
      ints: 1
      ints: 1
      type: INTS
    }
    attribute {
      name: "strides"
      ints: 1
      ints: 1
      type: INTS
    }
    attribute {
      name: "pads"
      ints: 0
      ints: 0
      ints: 0
      ints: 0
      type: INTS
    }
    attribute {
      name: "dilations"
      ints: 1
      ints: 1
      type: INTS
    }
    attribute {
      name: "group"
      i: 1
      type: INT
    }
  }
  node {
    input: "499"
    input: "17"
    input: "18"
    input: "19"
    input: "20"
    output: "500"
    op_type: "BatchNormalization"
    attribute {
      name: "is_test"
      i: 1
      type: INT
    }
    attribute {
      name: "epsilon"
      f: 0.00100000004749745
      type: FLOAT
    }
    attribute {
      name: "momentum"
      f: 0.899999976158142
      type: FLOAT
    }
    attribute {
      name: "consumed_inputs"
      ints: 0
      ints: 0
      ints: 0
      ints: 1
      ints: 1
      type: INTS
    }
  }
  node {
    input: "500"
    output: "501"
    op_type: "Relu"
  }
  node {
    input: "501"
    input: "21"
    output: "503"
    op_type: "Conv"
    attribute {
      name: "kernel_shape"
      ints: 3
      ints: 3
      type: INTS
    }
    attribute {
      name: "strides"
      ints: 1
      ints: 1
      type: INTS
    }
    attribute {
      name: "pads"
      ints: 0
      ints: 0
      ints: 0
      ints: 0
      type: INTS
    }
    attribute {
      name: "dilations"
      ints: 1
      ints: 1
      type: INTS
    }
    attribute {
      name: "group"
      i: 1
      type: INT
    }
  }
  node {
    input: "503"
    input: "22"
    input: "23"
    input: "24"
    input: "25"
    output: "504"
    op_type: "BatchNormalization"
    attribute {
      name: "is_test"
      i: 1
      type: INT
    }
    attribute {
      name: "epsilon"
      f: 0.00100000004749745
      type: FLOAT
    }
    attribute {
      name: "momentum"
      f: 0.899999976158142
      type: FLOAT
    }
    attribute {
      name: "consumed_inputs"
      ints: 0
      ints: 0
      ints: 0
      ints: 1
      ints: 1
      type: INTS
    }
  }
  node {
    input: "504"
    output: "505"
    op_type: "Relu"
  }
  node {
    input: "505"
    output: "506"
    op_type: "MaxPool"
    attribute {
      name: "kernel_shape"
      ints: 3
      ints: 3
      type: INTS
    }
    attribute {
      name: "pads"
      ints: 0
      ints: 0
      type: INTS
    }
    attribute {
      name: "strides"
      ints: 2
      ints: 2
      type: INTS
    }
  }
  node {
    input: "506"
    input: "26"
    output: "508"
    op_type: "Conv"
    attribute {
      name: "kernel_shape"
      ints: 1
      ints: 1
      type: INTS
    }
    attribute {
      name: "strides"
      ints: 1
      ints: 1
      type: INTS
    }
    attribute {
      name: "pads"
      ints: 0
      ints: 0
      ints: 0
      ints: 0
      type: INTS
    }
    attribute {
      name: "dilations"
      ints: 1
      ints: 1
      type: INTS
    }
    attribute {
      name: "group"
      i: 1
      type: INT
    }
  }
  node {
    input: "508"
    input: "27"
    input: "28"
    input: "29"
    input: "30"
    output: "509"
    op_type: "BatchNormalization"
    attribute {
      name: "is_test"
      i: 1
      type: INT
    }
    attribute {
      name: "epsilon"
      f: 0.00100000004749745
      type: FLOAT
    }
    attribute {
      name: "momentum"
      f: 0.899999976158142
      type: FLOAT
    }
    attribute {
      name: "consumed_inputs"
      ints: 0
      ints: 0
      ints: 0
      ints: 1
      ints: 1
      type: INTS
    }
  }
  node {
    input: "509"
    output: "510"
    op_type: "Relu"
  }
  node {
    input: "506"
    input: "31"
    output: "512"
    op_type: "Conv"
    attribute {
      name: "kernel_shape"
      ints: 1
      ints: 1
      type: INTS
    }
    attribute {
      name: "strides"
      ints: 1
      ints: 1
      type: INTS
    }
    attribute {
      name: "pads"
      ints: 0
      ints: 0
      ints: 0
      ints: 0
      type: INTS
    }
    attribute {
      name: "dilations"
      ints: 1
      ints: 1
      type: INTS
    }
    attribute {
      name: "group"
      i: 1
      type: INT
    }
  }
  node {
    input: "512"
    input: "32"
    input: "33"
    input: "34"
    input: "35"
    output: "513"
    op_type: "BatchNormalization"
    attribute {
      name: "is_test"
      i: 1
      type: INT
    }
    attribute {
      name: "epsilon"
      f: 0.00100000004749745
      type: FLOAT
    }
    attribute {
      name: "momentum"
      f: 0.899999976158142
      type: FLOAT
    }
    attribute {
      name: "consumed_inputs"
      ints: 0
      ints: 0
      ints: 0
      ints: 1
      ints: 1
      type: INTS
    }
  }
  node {
    input: "513"
    output: "514"
    op_type: "Relu"
  }
  node {
    input: "514"
    input: "36"
    output: "516"
    op_type: "Conv"
    attribute {
      name: "kernel_shape"
      ints: 5
      ints: 5
      type: INTS
    }
    attribute {
      name: "strides"
      ints: 1
      ints: 1
      type: INTS
    }
    attribute {
      name: "pads"
      ints: 2
      ints: 2
      ints: 2
      ints: 2
      type: INTS
    }
    attribute {
      name: "dilations"
      ints: 1
      ints: 1
      type: INTS
    }
    attribute {
      name: "group"
      i: 1
      type: INT
    }
  }
  node {
    input: "516"
    input: "37"
    input: "38"
    input: "39"
    input: "40"
    output: "517"
    op_type: "BatchNormalization"
    attribute {
      name: "is_test"
      i: 1
      type: INT
    }
    attribute {
      name: "epsilon"
      f: 0.00100000004749745
      type: FLOAT
    }
    attribute {
      name: "momentum"
      f: 0.899999976158142
      type: FLOAT
    }
    attribute {
      name: "consumed_inputs"
      ints: 0
      ints: 0
      ints: 0
      ints: 1
      ints: 1
      type: INTS
    }
  }
  node {
    input: "517"
    output: "518"
    op_type: "Relu"
  }
  node {
    input: "506"
    input: "41"
    output: "520"
    op_type: "Conv"
    attribute {
      name: "kernel_shape"
      ints: 1
      ints: 1
      type: INTS
    }
    attribute {
      name: "strides"
      ints: 1
      ints: 1
      type: INTS
    }
    attribute {
      name: "pads"
      ints: 0
      ints: 0
      ints: 0
      ints: 0
      type: INTS
    }
    attribute {
      name: "dilations"
      ints: 1
      ints: 1
      type: INTS
    }
    attribute {
      name: "group"
      i: 1
      type: INT
    }
  }
  node {
    input: "520"
    input: "42"
    input: "43"
    input: "44"
    input: "45"
    output: "521"
    op_type: "BatchNormalization"
    attribute {
      name: "is_test"
      i: 1
      type: INT
    }
    attribute {
      name: "epsilon"
      f: 0.00100000004749745
      type: FLOAT
    }
    attribute {
      name: "momentum"
      f: 0.899999976158142
      type: FLOAT
    }
    attribute {
      name: "consumed_inputs"
      ints: 0
      ints: 0
      ints: 0
      ints: 1
      ints: 1
      type: INTS
    }
  }
  node {
    input: "521"
    output: "522"
    op_type: "Relu"
  }
  node {
    input: "522"
    input: "46"
    output: "524"
    op_type: "Conv"
    attribute {
      name: "kernel_shape"
      ints: 3
      ints: 3
      type: INTS
    }
    attribute {
      name: "strides"
      ints: 1
      ints: 1
      type: INTS
    }
    attribute {
      name: "pads"
      ints: 1
      ints: 1
      ints: 1
      ints: 1
      type: INTS
    }
    attribute {
      name: "dilations"
      ints: 1
      ints: 1
      type: INTS
    }
    attribute {
      name: "group"
      i: 1
      type: INT
    }
  }
  node {
    input: "524"
    input: "47"
    input: "48"
    input: "49"
    input: "50"
    output: "525"
    op_type: "BatchNormalization"
    attribute {
      name: "is_test"
      i: 1
      type: INT
    }
    attribute {
      name: "epsilon"
      f: 0.00100000004749745
      type: FLOAT
    }
    attribute {
      name: "momentum"
      f: 0.899999976158142
      type: FLOAT
    }
    attribute {
      name: "consumed_inputs"
      ints: 0
      ints: 0
      ints: 0
      ints: 1
      ints: 1
      type: INTS
    }
  }
  node {
    input: "525"
    output: "526"
    op_type: "Relu"
  }
  node {
    input: "526"
    input: "51"
    output: "528"
    op_type: "Conv"
    attribute {
      name: "kernel_shape"
      ints: 3
      ints: 3
      type: INTS
    }
    attribute {
      name: "strides"
      ints: 1
      ints: 1
      type: INTS
    }
    attribute {
      name: "pads"
      ints: 1
      ints: 1
      ints: 1
      ints: 1
      type: INTS
    }
    attribute {
      name: "dilations"
      ints: 1
      ints: 1
      type: INTS
    }
    attribute {
      name: "group"
      i: 1
      type: INT
    }
  }
  node {
    input: "528"
    input: "52"
    input: "53"
    input: "54"
    input: "55"
    output: "529"
    op_type: "BatchNormalization"
    attribute {
      name: "is_test"
      i: 1
      type: INT
    }
    attribute {
      name: "epsilon"
      f: 0.00100000004749745
      type: FLOAT
    }
    attribute {
      name: "momentum"
      f: 0.899999976158142
      type: FLOAT
    }
    attribute {
      name: "consumed_inputs"
      ints: 0
      ints: 0
      ints: 0
      ints: 1
      ints: 1
      type: INTS
    }
  }
  node {
    input: "529"
    output: "530"
    op_type: "Relu"
  }
  node {
    input: "506"
    output: "531"
    op_type: "AveragePool"
    attribute {
      name: "kernel_shape"
      ints: 3
      ints: 3
      type: INTS
    }
    attribute {
      name: "pads"
      ints: 1
      ints: 1
      type: INTS
    }
    attribute {
      name: "strides"
      ints: 1
      ints: 1
      type: INTS
    }
  }
  node {
    input: "531"
    input: "56"
    output: "533"
    op_type: "Conv"
    attribute {
      name: "kernel_shape"
      ints: 1
      ints: 1
      type: INTS
    }
    attribute {
      name: "strides"
      ints: 1
      ints: 1
      type: INTS
    }
    attribute {
      name: "pads"
      ints: 0
      ints: 0
      ints: 0
      ints: 0
      type: INTS
    }
    attribute {
      name: "dilations"
      ints: 1
      ints: 1
      type: INTS
    }
    attribute {
      name: "group"
      i: 1
      type: INT
    }
  }
  node {
    input: "533"
    input: "57"
    input: "58"
    input: "59"
    input: "60"
    output: "534"
    op_type: "BatchNormalization"
    attribute {
      name: "is_test"
      i: 1
      type: INT
    }
    attribute {
      name: "epsilon"
      f: 0.00100000004749745
      type: FLOAT
    }
    attribute {
      name: "momentum"
      f: 0.899999976158142
      type: FLOAT
    }
    attribute {
      name: "consumed_inputs"
      ints: 0
      ints: 0
      ints: 0
      ints: 1
      ints: 1
      type: INTS
    }
  }
  node {
    input: "534"
    output: "535"
    op_type: "Relu"
  }
  node {
    input: "510"
    input: "518"
    input: "530"
    input: "535"
    output: "536"
    op_type: "Concat"
    attribute {
      name: "axis"
      i: 1
      type: INT
    }
  }
  node {
    input: "536"
    input: "61"
    output: "538"
    op_type: "Conv"
    attribute {
      name: "kernel_shape"
      ints: 1
      ints: 1
      type: INTS
    }
    attribute {
      name: "strides"
      ints: 1
      ints: 1
      type: INTS
    }
    attribute {
      name: "pads"
      ints: 0
      ints: 0
      ints: 0
      ints: 0
      type: INTS
    }
    attribute {
      name: "dilations"
      ints: 1
      ints: 1
      type: INTS
    }
    attribute {
      name: "group"
      i: 1
      type: INT
    }
  }
  node {
    input: "538"
    input: "62"
    input: "63"
    input: "64"
    input: "65"
    output: "539"
    op_type: "BatchNormalization"
    attribute {
      name: "is_test"
      i: 1
      type: INT
    }
    attribute {
      name: "epsilon"
      f: 0.00100000004749745
      type: FLOAT
    }
    attribute {
      name: "momentum"
      f: 0.899999976158142
      type: FLOAT
    }
    attribute {
      name: "consumed_inputs"
      ints: 0
      ints: 0
      ints: 0
      ints: 1
      ints: 1
      type: INTS
    }
  }
  node {
    input: "539"
    output: "540"
    op_type: "Relu"
  }
  node {
    input: "536"
    input: "66"
    output: "542"
    op_type: "Conv"
    attribute {
      name: "kernel_shape"
      ints: 1
      ints: 1
      type: INTS
    }
    attribute {
      name: "strides"
      ints: 1
      ints: 1
      type: INTS
    }
    attribute {
      name: "pads"
      ints: 0
      ints: 0
      ints: 0
      ints: 0
      type: INTS
    }
    attribute {
      name: "dilations"
      ints: 1
      ints: 1
      type: INTS
    }
    attribute {
      name: "group"
      i: 1
      type: INT
    }
  }
  node {
    input: "542"
    input: "67"
    input: "68"
    input: "69"
    input: "70"
    output: "543"
    op_type: "BatchNormalization"
    attribute {
      name: "is_test"
      i: 1
      type: INT
    }
    attribute {
      name: "epsilon"
      f: 0.00100000004749745
      type: FLOAT
    }
    attribute {
      name: "momentum"
      f: 0.899999976158142
      type: FLOAT
    }
    attribute {
      name: "consumed_inputs"
      ints: 0
      ints: 0
      ints: 0
      ints: 1
      ints: 1
      type: INTS
    }
  }
  node {
    input: "543"
    output: "544"
    op_type: "Relu"
  }
  node {
    input: "544"
    input: "71"
    output: "546"
    op_type: "Conv"
    attribute {
      name: "kernel_shape"
      ints: 5
      ints: 5
      type: INTS
    }
    attribute {
      name: "strides"
      ints: 1
      ints: 1
      type: INTS
    }
    attribute {
      name: "pads"
      ints: 2
      ints: 2
      ints: 2
      ints: 2
      type: INTS
    }
    attribute {
      name: "dilations"
      ints: 1
      ints: 1
      type: INTS
    }
    attribute {
      name: "group"
      i: 1
      type: INT
    }
  }
  node {
    input: "546"
    input: "72"
    input: "73"
    input: "74"
    input: "75"
    output: "547"
    op_type: "BatchNormalization"
    attribute {
      name: "is_test"
      i: 1
      type: INT
    }
    attribute {
      name: "epsilon"
      f: 0.00100000004749745
      type: FLOAT
    }
    attribute {
      name: "momentum"
      f: 0.899999976158142
      type: FLOAT
    }
    attribute {
      name: "consumed_inputs"
      ints: 0
      ints: 0
      ints: 0
      ints: 1
      ints: 1
      type: INTS
    }
  }
  node {
    input: "547"
    output: "548"
    op_type: "Relu"
  }
  node {
    input: "536"
    input: "76"
    output: "550"
    op_type: "Conv"
    attribute {
      name: "kernel_shape"
      ints: 1
      ints: 1
      type: INTS
    }
    attribute {
      name: "strides"
      ints: 1
      ints: 1
      type: INTS
    }
    attribute {
      name: "pads"
      ints: 0
      ints: 0
      ints: 0
      ints: 0
      type: INTS
    }
    attribute {
      name: "dilations"
      ints: 1
      ints: 1
      type: INTS
    }
    attribute {
      name: "group"
      i: 1
      type: INT
    }
  }
  node {
    input: "550"
    input: "77"
    input: "78"
    input: "79"
    input: "80"
    output: "551"
    op_type: "BatchNormalization"
    attribute {
      name: "is_test"
      i: 1
      type: INT
    }
    attribute {
      name: "epsilon"
      f: 0.00100000004749745
      type: FLOAT
    }
    attribute {
      name: "momentum"
      f: 0.899999976158142
      type: FLOAT
    }
    attribute {
      name: "consumed_inputs"
      ints: 0
      ints: 0
      ints: 0
      ints: 1
      ints: 1
      type: INTS
    }
  }
  node {
    input: "551"
    output: "552"
    op_type: "Relu"
  }
  node {
    input: "552"
    input: "81"
    output: "554"
    op_type: "Conv"
    attribute {
      name: "kernel_shape"
      ints: 3
      ints: 3
      type: INTS
    }
    attribute {
      name: "strides"
      ints: 1
      ints: 1
      type: INTS
    }
    attribute {
      name: "pads"
      ints: 1
      ints: 1
      ints: 1
      ints: 1
      type: INTS
    }
    attribute {
      name: "dilations"
      ints: 1
      ints: 1
      type: INTS
    }
    attribute {
      name: "group"
      i: 1
      type: INT
    }
  }
  node {
    input: "554"
    input: "82"
    input: "83"
    input: "84"
    input: "85"
    output: "555"
    op_type: "BatchNormalization"
    attribute {
      name: "is_test"
      i: 1
      type: INT
    }
    attribute {
      name: "epsilon"
      f: 0.00100000004749745
      type: FLOAT
    }
    attribute {
      name: "momentum"
      f: 0.899999976158142
      type: FLOAT
    }
    attribute {
      name: "consumed_inputs"
      ints: 0
      ints: 0
      ints: 0
      ints: 1
      ints: 1
      type: INTS
    }
  }
  node {
    input: "555"
    output: "556"
    op_type: "Relu"
  }
  node {
    input: "556"
    input: "86"
    output: "558"
    op_type: "Conv"
    attribute {
      name: "kernel_shape"
      ints: 3
      ints: 3
      type: INTS
    }
    attribute {
      name: "strides"
      ints: 1
      ints: 1
      type: INTS
    }
    attribute {
      name: "pads"
      ints: 1
      ints: 1
      ints: 1
      ints: 1
      type: INTS
    }
    attribute {
      name: "dilations"
      ints: 1
      ints: 1
      type: INTS
    }
    attribute {
      name: "group"
      i: 1
      type: INT
    }
  }
  node {
    input: "558"
    input: "87"
    input: "88"
    input: "89"
    input: "90"
    output: "559"
    op_type: "BatchNormalization"
    attribute {
      name: "is_test"
      i: 1
      type: INT
    }
    attribute {
      name: "epsilon"
      f: 0.00100000004749745
      type: FLOAT
    }
    attribute {
      name: "momentum"
      f: 0.899999976158142
      type: FLOAT
    }
    attribute {
      name: "consumed_inputs"
      ints: 0
      ints: 0
      ints: 0
      ints: 1
      ints: 1
      type: INTS
    }
  }
  node {
    input: "559"
    output: "560"
    op_type: "Relu"
  }
  node {
    input: "536"
    output: "561"
    op_type: "AveragePool"
    attribute {
      name: "kernel_shape"
      ints: 3
      ints: 3
      type: INTS
    }
    attribute {
      name: "pads"
      ints: 1
      ints: 1
      type: INTS
    }
    attribute {
      name: "strides"
      ints: 1
      ints: 1
      type: INTS
    }
  }
  node {
    input: "561"
    input: "91"
    output: "563"
    op_type: "Conv"
    attribute {
      name: "kernel_shape"
      ints: 1
      ints: 1
      type: INTS
    }
    attribute {
      name: "strides"
      ints: 1
      ints: 1
      type: INTS
    }
    attribute {
      name: "pads"
      ints: 0
      ints: 0
      ints: 0
      ints: 0
      type: INTS
    }
    attribute {
      name: "dilations"
      ints: 1
      ints: 1
      type: INTS
    }
    attribute {
      name: "group"
      i: 1
      type: INT
    }
  }
  node {
    input: "563"
    input: "92"
    input: "93"
    input: "94"
    input: "95"
    output: "564"
    op_type: "BatchNormalization"
    attribute {
      name: "is_test"
      i: 1
      type: INT
    }
    attribute {
      name: "epsilon"
      f: 0.00100000004749745
      type: FLOAT
    }
    attribute {
      name: "momentum"
      f: 0.899999976158142
      type: FLOAT
    }
    attribute {
      name: "consumed_inputs"
      ints: 0
      ints: 0
      ints: 0
      ints: 1
      ints: 1
      type: INTS
    }
  }
  node {
    input: "564"
    output: "565"
    op_type: "Relu"
  }
  node {
    input: "540"
    input: "548"
    input: "560"
    input: "565"
    output: "566"
    op_type: "Concat"
    attribute {
      name: "axis"
      i: 1
      type: INT
    }
  }
  node {
    input: "566"
    input: "96"
    output: "568"
    op_type: "Conv"
    attribute {
      name: "kernel_shape"
      ints: 1
      ints: 1
      type: INTS
    }
    attribute {
      name: "strides"
      ints: 1
      ints: 1
      type: INTS
    }
    attribute {
      name: "pads"
      ints: 0
      ints: 0
      ints: 0
      ints: 0
      type: INTS
    }
    attribute {
      name: "dilations"
      ints: 1
      ints: 1
      type: INTS
    }
    attribute {
      name: "group"
      i: 1
      type: INT
    }
  }
  node {
    input: "568"
    input: "97"
    input: "98"
    input: "99"
    input: "100"
    output: "569"
    op_type: "BatchNormalization"
    attribute {
      name: "is_test"
      i: 1
      type: INT
    }
    attribute {
      name: "epsilon"
      f: 0.00100000004749745
      type: FLOAT
    }
    attribute {
      name: "momentum"
      f: 0.899999976158142
      type: FLOAT
    }
    attribute {
      name: "consumed_inputs"
      ints: 0
      ints: 0
      ints: 0
      ints: 1
      ints: 1
      type: INTS
    }
  }
  node {
    input: "569"
    output: "570"
    op_type: "Relu"
  }
  node {
    input: "566"
    input: "101"
    output: "572"
    op_type: "Conv"
    attribute {
      name: "kernel_shape"
      ints: 1
      ints: 1
      type: INTS
    }
    attribute {
      name: "strides"
      ints: 1
      ints: 1
      type: INTS
    }
    attribute {
      name: "pads"
      ints: 0
      ints: 0
      ints: 0
      ints: 0
      type: INTS
    }
    attribute {
      name: "dilations"
      ints: 1
      ints: 1
      type: INTS
    }
    attribute {
      name: "group"
      i: 1
      type: INT
    }
  }
  node {
    input: "572"
    input: "102"
    input: "103"
    input: "104"
    input: "105"
    output: "573"
    op_type: "BatchNormalization"
    attribute {
      name: "is_test"
      i: 1
      type: INT
    }
    attribute {
      name: "epsilon"
      f: 0.00100000004749745
      type: FLOAT
    }
    attribute {
      name: "momentum"
      f: 0.899999976158142
      type: FLOAT
    }
    attribute {
      name: "consumed_inputs"
      ints: 0
      ints: 0
      ints: 0
      ints: 1
      ints: 1
      type: INTS
    }
  }
  node {
    input: "573"
    output: "574"
    op_type: "Relu"
  }
  node {
    input: "574"
    input: "106"
    output: "576"
    op_type: "Conv"
    attribute {
      name: "kernel_shape"
      ints: 5
      ints: 5
      type: INTS
    }
    attribute {
      name: "strides"
      ints: 1
      ints: 1
      type: INTS
    }
    attribute {
      name: "pads"
      ints: 2
      ints: 2
      ints: 2
      ints: 2
      type: INTS
    }
    attribute {
      name: "dilations"
      ints: 1
      ints: 1
      type: INTS
    }
    attribute {
      name: "group"
      i: 1
      type: INT
    }
  }
  node {
    input: "576"
    input: "107"
    input: "108"
    input: "109"
    input: "110"
    output: "577"
    op_type: "BatchNormalization"
    attribute {
      name: "is_test"
      i: 1
      type: INT
    }
    attribute {
      name: "epsilon"
      f: 0.00100000004749745
      type: FLOAT
    }
    attribute {
      name: "momentum"
      f: 0.899999976158142
      type: FLOAT
    }
    attribute {
      name: "consumed_inputs"
      ints: 0
      ints: 0
      ints: 0
      ints: 1
      ints: 1
      type: INTS
    }
  }
  node {
    input: "577"
    output: "578"
    op_type: "Relu"
  }
  node {
    input: "566"
    input: "111"
    output: "580"
    op_type: "Conv"
    attribute {
      name: "kernel_shape"
      ints: 1
      ints: 1
      type: INTS
    }
    attribute {
      name: "strides"
      ints: 1
      ints: 1
      type: INTS
    }
    attribute {
      name: "pads"
      ints: 0
      ints: 0
      ints: 0
      ints: 0
      type: INTS
    }
    attribute {
      name: "dilations"
      ints: 1
      ints: 1
      type: INTS
    }
    attribute {
      name: "group"
      i: 1
      type: INT
    }
  }
  node {
    input: "580"
    input: "112"
    input: "113"
    input: "114"
    input: "115"
    output: "581"
    op_type: "BatchNormalization"
    attribute {
      name: "is_test"
      i: 1
      type: INT
    }
    attribute {
      name: "epsilon"
      f: 0.00100000004749745
      type: FLOAT
    }
    attribute {
      name: "momentum"
      f: 0.899999976158142
      type: FLOAT
    }
    attribute {
      name: "consumed_inputs"
      ints: 0
      ints: 0
      ints: 0
      ints: 1
      ints: 1
      type: INTS
    }
  }
  node {
    input: "581"
    output: "582"
    op_type: "Relu"
  }
  node {
    input: "582"
    input: "116"
    output: "584"
    op_type: "Conv"
    attribute {
      name: "kernel_shape"
      ints: 3
      ints: 3
      type: INTS
    }
    attribute {
      name: "strides"
      ints: 1
      ints: 1
      type: INTS
    }
    attribute {
      name: "pads"
      ints: 1
      ints: 1
      ints: 1
      ints: 1
      type: INTS
    }
    attribute {
      name: "dilations"
      ints: 1
      ints: 1
      type: INTS
    }
    attribute {
      name: "group"
      i: 1
      type: INT
    }
  }
  node {
    input: "584"
    input: "117"
    input: "118"
    input: "119"
    input: "120"
    output: "585"
    op_type: "BatchNormalization"
    attribute {
      name: "is_test"
      i: 1
      type: INT
    }
    attribute {
      name: "epsilon"
      f: 0.00100000004749745
      type: FLOAT
    }
    attribute {
      name: "momentum"
      f: 0.899999976158142
      type: FLOAT
    }
    attribute {
      name: "consumed_inputs"
      ints: 0
      ints: 0
      ints: 0
      ints: 1
      ints: 1
      type: INTS
    }
  }
  node {
    input: "585"
    output: "586"
    op_type: "Relu"
  }
  node {
    input: "586"
    input: "121"
    output: "588"
    op_type: "Conv"
    attribute {
      name: "kernel_shape"
      ints: 3
      ints: 3
      type: INTS
    }
    attribute {
      name: "strides"
      ints: 1
      ints: 1
      type: INTS
    }
    attribute {
      name: "pads"
      ints: 1
      ints: 1
      ints: 1
      ints: 1
      type: INTS
    }
    attribute {
      name: "dilations"
      ints: 1
      ints: 1
      type: INTS
    }
    attribute {
      name: "group"
      i: 1
      type: INT
    }
  }
  node {
    input: "588"
    input: "122"
    input: "123"
    input: "124"
    input: "125"
    output: "589"
    op_type: "BatchNormalization"
    attribute {
      name: "is_test"
      i: 1
      type: INT
    }
    attribute {
      name: "epsilon"
      f: 0.00100000004749745
      type: FLOAT
    }
    attribute {
      name: "momentum"
      f: 0.899999976158142
      type: FLOAT
    }
    attribute {
      name: "consumed_inputs"
      ints: 0
      ints: 0
      ints: 0
      ints: 1
      ints: 1
      type: INTS
    }
  }
  node {
    input: "589"
    output: "590"
    op_type: "Relu"
  }
  node {
    input: "566"
    output: "591"
    op_type: "AveragePool"
    attribute {
      name: "kernel_shape"
      ints: 3
      ints: 3
      type: INTS
    }
    attribute {
      name: "pads"
      ints: 1
      ints: 1
      type: INTS
    }
    attribute {
      name: "strides"
      ints: 1
      ints: 1
      type: INTS
    }
  }
  node {
    input: "591"
    input: "126"
    output: "593"
    op_type: "Conv"
    attribute {
      name: "kernel_shape"
      ints: 1
      ints: 1
      type: INTS
    }
    attribute {
      name: "strides"
      ints: 1
      ints: 1
      type: INTS
    }
    attribute {
      name: "pads"
      ints: 0
      ints: 0
      ints: 0
      ints: 0
      type: INTS
    }
    attribute {
      name: "dilations"
      ints: 1
      ints: 1
      type: INTS
    }
    attribute {
      name: "group"
      i: 1
      type: INT
    }
  }
  node {
    input: "593"
    input: "127"
    input: "128"
    input: "129"
    input: "130"
    output: "594"
    op_type: "BatchNormalization"
    attribute {
      name: "is_test"
      i: 1
      type: INT
    }
    attribute {
      name: "epsilon"
      f: 0.00100000004749745
      type: FLOAT
    }
    attribute {
      name: "momentum"
      f: 0.899999976158142
      type: FLOAT
    }
    attribute {
      name: "consumed_inputs"
      ints: 0
      ints: 0
      ints: 0
      ints: 1
      ints: 1
      type: INTS
    }
  }
  node {
    input: "594"
    output: "595"
    op_type: "Relu"
  }
  node {
    input: "570"
    input: "578"
    input: "590"
    input: "595"
    output: "596"
    op_type: "Concat"
    attribute {
      name: "axis"
      i: 1
      type: INT
    }
  }
  node {
    input: "596"
    input: "131"
    output: "598"
    op_type: "Conv"
    attribute {
      name: "kernel_shape"
      ints: 3
      ints: 3
      type: INTS
    }
    attribute {
      name: "strides"
      ints: 2
      ints: 2
      type: INTS
    }
    attribute {
      name: "pads"
      ints: 0
      ints: 0
      ints: 0
      ints: 0
      type: INTS
    }
    attribute {
      name: "dilations"
      ints: 1
      ints: 1
      type: INTS
    }
    attribute {
      name: "group"
      i: 1
      type: INT
    }
  }
  node {
    input: "598"
    input: "132"
    input: "133"
    input: "134"
    input: "135"
    output: "599"
    op_type: "BatchNormalization"
    attribute {
      name: "is_test"
      i: 1
      type: INT
    }
    attribute {
      name: "epsilon"
      f: 0.00100000004749745
      type: FLOAT
    }
    attribute {
      name: "momentum"
      f: 0.899999976158142
      type: FLOAT
    }
    attribute {
      name: "consumed_inputs"
      ints: 0
      ints: 0
      ints: 0
      ints: 1
      ints: 1
      type: INTS
    }
  }
  node {
    input: "599"
    output: "600"
    op_type: "Relu"
  }
  node {
    input: "596"
    input: "136"
    output: "602"
    op_type: "Conv"
    attribute {
      name: "kernel_shape"
      ints: 1
      ints: 1
      type: INTS
    }
    attribute {
      name: "strides"
      ints: 1
      ints: 1
      type: INTS
    }
    attribute {
      name: "pads"
      ints: 0
      ints: 0
      ints: 0
      ints: 0
      type: INTS
    }
    attribute {
      name: "dilations"
      ints: 1
      ints: 1
      type: INTS
    }
    attribute {
      name: "group"
      i: 1
      type: INT
    }
  }
  node {
    input: "602"
    input: "137"
    input: "138"
    input: "139"
    input: "140"
    output: "603"
    op_type: "BatchNormalization"
    attribute {
      name: "is_test"
      i: 1
      type: INT
    }
    attribute {
      name: "epsilon"
      f: 0.00100000004749745
      type: FLOAT
    }
    attribute {
      name: "momentum"
      f: 0.899999976158142
      type: FLOAT
    }
    attribute {
      name: "consumed_inputs"
      ints: 0
      ints: 0
      ints: 0
      ints: 1
      ints: 1
      type: INTS
    }
  }
  node {
    input: "603"
    output: "604"
    op_type: "Relu"
  }
  node {
    input: "604"
    input: "141"
    output: "606"
    op_type: "Conv"
    attribute {
      name: "kernel_shape"
      ints: 3
      ints: 3
      type: INTS
    }
    attribute {
      name: "strides"
      ints: 1
      ints: 1
      type: INTS
    }
    attribute {
      name: "pads"
      ints: 1
      ints: 1
      ints: 1
      ints: 1
      type: INTS
    }
    attribute {
      name: "dilations"
      ints: 1
      ints: 1
      type: INTS
    }
    attribute {
      name: "group"
      i: 1
      type: INT
    }
  }
  node {
    input: "606"
    input: "142"
    input: "143"
    input: "144"
    input: "145"
    output: "607"
    op_type: "BatchNormalization"
    attribute {
      name: "is_test"
      i: 1
      type: INT
    }
    attribute {
      name: "epsilon"
      f: 0.00100000004749745
      type: FLOAT
    }
    attribute {
      name: "momentum"
      f: 0.899999976158142
      type: FLOAT
    }
    attribute {
      name: "consumed_inputs"
      ints: 0
      ints: 0
      ints: 0
      ints: 1
      ints: 1
      type: INTS
    }
  }
  node {
    input: "607"
    output: "608"
    op_type: "Relu"
  }
  node {
    input: "608"
    input: "146"
    output: "610"
    op_type: "Conv"
    attribute {
      name: "kernel_shape"
      ints: 3
      ints: 3
      type: INTS
    }
    attribute {
      name: "strides"
      ints: 2
      ints: 2
      type: INTS
    }
    attribute {
      name: "pads"
      ints: 0
      ints: 0
      ints: 0
      ints: 0
      type: INTS
    }
    attribute {
      name: "dilations"
      ints: 1
      ints: 1
      type: INTS
    }
    attribute {
      name: "group"
      i: 1
      type: INT
    }
  }
  node {
    input: "610"
    input: "147"
    input: "148"
    input: "149"
    input: "150"
    output: "611"
    op_type: "BatchNormalization"
    attribute {
      name: "is_test"
      i: 1
      type: INT
    }
    attribute {
      name: "epsilon"
      f: 0.00100000004749745
      type: FLOAT
    }
    attribute {
      name: "momentum"
      f: 0.899999976158142
      type: FLOAT
    }
    attribute {
      name: "consumed_inputs"
      ints: 0
      ints: 0
      ints: 0
      ints: 1
      ints: 1
      type: INTS
    }
  }
  node {
    input: "611"
    output: "612"
    op_type: "Relu"
  }
  node {
    input: "596"
    output: "613"
    op_type: "MaxPool"
    attribute {
      name: "kernel_shape"
      ints: 3
      ints: 3
      type: INTS
    }
    attribute {
      name: "pads"
      ints: 0
      ints: 0
      type: INTS
    }
    attribute {
      name: "strides"
      ints: 2
      ints: 2
      type: INTS
    }
  }
  node {
    input: "600"
    input: "612"
    input: "613"
    output: "614"
    op_type: "Concat"
    attribute {
      name: "axis"
      i: 1
      type: INT
    }
  }
  node {
    input: "614"
    input: "151"
    output: "616"
    op_type: "Conv"
    attribute {
      name: "kernel_shape"
      ints: 1
      ints: 1
      type: INTS
    }
    attribute {
      name: "strides"
      ints: 1
      ints: 1
      type: INTS
    }
    attribute {
      name: "pads"
      ints: 0
      ints: 0
      ints: 0
      ints: 0
      type: INTS
    }
    attribute {
      name: "dilations"
      ints: 1
      ints: 1
      type: INTS
    }
    attribute {
      name: "group"
      i: 1
      type: INT
    }
  }
  node {
    input: "616"
    input: "152"
    input: "153"
    input: "154"
    input: "155"
    output: "617"
    op_type: "BatchNormalization"
    attribute {
      name: "is_test"
      i: 1
      type: INT
    }
    attribute {
      name: "epsilon"
      f: 0.00100000004749745
      type: FLOAT
    }
    attribute {
      name: "momentum"
      f: 0.899999976158142
      type: FLOAT
    }
    attribute {
      name: "consumed_inputs"
      ints: 0
      ints: 0
      ints: 0
      ints: 1
      ints: 1
      type: INTS
    }
  }
  node {
    input: "617"
    output: "618"
    op_type: "Relu"
  }
  node {
    input: "614"
    input: "156"
    output: "620"
    op_type: "Conv"
    attribute {
      name: "kernel_shape"
      ints: 1
      ints: 1
      type: INTS
    }
    attribute {
      name: "strides"
      ints: 1
      ints: 1
      type: INTS
    }
    attribute {
      name: "pads"
      ints: 0
      ints: 0
      ints: 0
      ints: 0
      type: INTS
    }
    attribute {
      name: "dilations"
      ints: 1
      ints: 1
      type: INTS
    }
    attribute {
      name: "group"
      i: 1
      type: INT
    }
  }
  node {
    input: "620"
    input: "157"
    input: "158"
    input: "159"
    input: "160"
    output: "621"
    op_type: "BatchNormalization"
    attribute {
      name: "is_test"
      i: 1
      type: INT
    }
    attribute {
      name: "epsilon"
      f: 0.00100000004749745
      type: FLOAT
    }
    attribute {
      name: "momentum"
      f: 0.899999976158142
      type: FLOAT
    }
    attribute {
      name: "consumed_inputs"
      ints: 0
      ints: 0
      ints: 0
      ints: 1
      ints: 1
      type: INTS
    }
  }
  node {
    input: "621"
    output: "622"
    op_type: "Relu"
  }
  node {
    input: "622"
    input: "161"
    output: "624"
    op_type: "Conv"
    attribute {
      name: "kernel_shape"
      ints: 1
      ints: 7
      type: INTS
    }
    attribute {
      name: "strides"
      ints: 1
      ints: 1
      type: INTS
    }
    attribute {
      name: "pads"
      ints: 0
      ints: 3
      ints: 0
      ints: 3
      type: INTS
    }
    attribute {
      name: "dilations"
      ints: 1
      ints: 1
      type: INTS
    }
    attribute {
      name: "group"
      i: 1
      type: INT
    }
  }
  node {
    input: "624"
    input: "162"
    input: "163"
    input: "164"
    input: "165"
    output: "625"
    op_type: "BatchNormalization"
    attribute {
      name: "is_test"
      i: 1
      type: INT
    }
    attribute {
      name: "epsilon"
      f: 0.00100000004749745
      type: FLOAT
    }
    attribute {
      name: "momentum"
      f: 0.899999976158142
      type: FLOAT
    }
    attribute {
      name: "consumed_inputs"
      ints: 0
      ints: 0
      ints: 0
      ints: 1
      ints: 1
      type: INTS
    }
  }
  node {
    input: "625"
    output: "626"
    op_type: "Relu"
  }
  node {
    input: "626"
    input: "166"
    output: "628"
    op_type: "Conv"
    attribute {
      name: "kernel_shape"
      ints: 7
      ints: 1
      type: INTS
    }
    attribute {
      name: "strides"
      ints: 1
      ints: 1
      type: INTS
    }
    attribute {
      name: "pads"
      ints: 3
      ints: 0
      ints: 3
      ints: 0
      type: INTS
    }
    attribute {
      name: "dilations"
      ints: 1
      ints: 1
      type: INTS
    }
    attribute {
      name: "group"
      i: 1
      type: INT
    }
  }
  node {
    input: "628"
    input: "167"
    input: "168"
    input: "169"
    input: "170"
    output: "629"
    op_type: "BatchNormalization"
    attribute {
      name: "is_test"
      i: 1
      type: INT
    }
    attribute {
      name: "epsilon"
      f: 0.00100000004749745
      type: FLOAT
    }
    attribute {
      name: "momentum"
      f: 0.899999976158142
      type: FLOAT
    }
    attribute {
      name: "consumed_inputs"
      ints: 0
      ints: 0
      ints: 0
      ints: 1
      ints: 1
      type: INTS
    }
  }
  node {
    input: "629"
    output: "630"
    op_type: "Relu"
  }
  node {
    input: "614"
    input: "171"
    output: "632"
    op_type: "Conv"
    attribute {
      name: "kernel_shape"
      ints: 1
      ints: 1
      type: INTS
    }
    attribute {
      name: "strides"
      ints: 1
      ints: 1
      type: INTS
    }
    attribute {
      name: "pads"
      ints: 0
      ints: 0
      ints: 0
      ints: 0
      type: INTS
    }
    attribute {
      name: "dilations"
      ints: 1
      ints: 1
      type: INTS
    }
    attribute {
      name: "group"
      i: 1
      type: INT
    }
  }
  node {
    input: "632"
    input: "172"
    input: "173"
    input: "174"
    input: "175"
    output: "633"
    op_type: "BatchNormalization"
    attribute {
      name: "is_test"
      i: 1
      type: INT
    }
    attribute {
      name: "epsilon"
      f: 0.00100000004749745
      type: FLOAT
    }
    attribute {
      name: "momentum"
      f: 0.899999976158142
      type: FLOAT
    }
    attribute {
      name: "consumed_inputs"
      ints: 0
      ints: 0
      ints: 0
      ints: 1
      ints: 1
      type: INTS
    }
  }
  node {
    input: "633"
    output: "634"
    op_type: "Relu"
  }
  node {
    input: "634"
    input: "176"
    output: "636"
    op_type: "Conv"
    attribute {
      name: "kernel_shape"
      ints: 7
      ints: 1
      type: INTS
    }
    attribute {
      name: "strides"
      ints: 1
      ints: 1
      type: INTS
    }
    attribute {
      name: "pads"
      ints: 3
      ints: 0
      ints: 3
      ints: 0
      type: INTS
    }
    attribute {
      name: "dilations"
      ints: 1
      ints: 1
      type: INTS
    }
    attribute {
      name: "group"
      i: 1
      type: INT
    }
  }
  node {
    input: "636"
    input: "177"
    input: "178"
    input: "179"
    input: "180"
    output: "637"
    op_type: "BatchNormalization"
    attribute {
      name: "is_test"
      i: 1
      type: INT
    }
    attribute {
      name: "epsilon"
      f: 0.00100000004749745
      type: FLOAT
    }
    attribute {
      name: "momentum"
      f: 0.899999976158142
      type: FLOAT
    }
    attribute {
      name: "consumed_inputs"
      ints: 0
      ints: 0
      ints: 0
      ints: 1
      ints: 1
      type: INTS
    }
  }
  node {
    input: "637"
    output: "638"
    op_type: "Relu"
  }
  node {
    input: "638"
    input: "181"
    output: "640"
    op_type: "Conv"
    attribute {
      name: "kernel_shape"
      ints: 1
      ints: 7
      type: INTS
    }
    attribute {
      name: "strides"
      ints: 1
      ints: 1
      type: INTS
    }
    attribute {
      name: "pads"
      ints: 0
      ints: 3
      ints: 0
      ints: 3
      type: INTS
    }
    attribute {
      name: "dilations"
      ints: 1
      ints: 1
      type: INTS
    }
    attribute {
      name: "group"
      i: 1
      type: INT
    }
  }
  node {
    input: "640"
    input: "182"
    input: "183"
    input: "184"
    input: "185"
    output: "641"
    op_type: "BatchNormalization"
    attribute {
      name: "is_test"
      i: 1
      type: INT
    }
    attribute {
      name: "epsilon"
      f: 0.00100000004749745
      type: FLOAT
    }
    attribute {
      name: "momentum"
      f: 0.899999976158142
      type: FLOAT
    }
    attribute {
      name: "consumed_inputs"
      ints: 0
      ints: 0
      ints: 0
      ints: 1
      ints: 1
      type: INTS
    }
  }
  node {
    input: "641"
    output: "642"
    op_type: "Relu"
  }
  node {
    input: "642"
    input: "186"
    output: "644"
    op_type: "Conv"
    attribute {
      name: "kernel_shape"
      ints: 7
      ints: 1
      type: INTS
    }
    attribute {
      name: "strides"
      ints: 1
      ints: 1
      type: INTS
    }
    attribute {
      name: "pads"
      ints: 3
      ints: 0
      ints: 3
      ints: 0
      type: INTS
    }
    attribute {
      name: "dilations"
      ints: 1
      ints: 1
      type: INTS
    }
    attribute {
      name: "group"
      i: 1
      type: INT
    }
  }
  node {
    input: "644"
    input: "187"
    input: "188"
    input: "189"
    input: "190"
    output: "645"
    op_type: "BatchNormalization"
    attribute {
      name: "is_test"
      i: 1
      type: INT
    }
    attribute {
      name: "epsilon"
      f: 0.00100000004749745
      type: FLOAT
    }
    attribute {
      name: "momentum"
      f: 0.899999976158142
      type: FLOAT
    }
    attribute {
      name: "consumed_inputs"
      ints: 0
      ints: 0
      ints: 0
      ints: 1
      ints: 1
      type: INTS
    }
  }
  node {
    input: "645"
    output: "646"
    op_type: "Relu"
  }
  node {
    input: "646"
    input: "191"
    output: "648"
    op_type: "Conv"
    attribute {
      name: "kernel_shape"
      ints: 1
      ints: 7
      type: INTS
    }
    attribute {
      name: "strides"
      ints: 1
      ints: 1
      type: INTS
    }
    attribute {
      name: "pads"
      ints: 0
      ints: 3
      ints: 0
      ints: 3
      type: INTS
    }
    attribute {
      name: "dilations"
      ints: 1
      ints: 1
      type: INTS
    }
    attribute {
      name: "group"
      i: 1
      type: INT
    }
  }
  node {
    input: "648"
    input: "192"
    input: "193"
    input: "194"
    input: "195"
    output: "649"
    op_type: "BatchNormalization"
    attribute {
      name: "is_test"
      i: 1
      type: INT
    }
    attribute {
      name: "epsilon"
      f: 0.00100000004749745
      type: FLOAT
    }
    attribute {
      name: "momentum"
      f: 0.899999976158142
      type: FLOAT
    }
    attribute {
      name: "consumed_inputs"
      ints: 0
      ints: 0
      ints: 0
      ints: 1
      ints: 1
      type: INTS
    }
  }
  node {
    input: "649"
    output: "650"
    op_type: "Relu"
  }
  node {
    input: "614"
    output: "651"
    op_type: "AveragePool"
    attribute {
      name: "kernel_shape"
      ints: 3
      ints: 3
      type: INTS
    }
    attribute {
      name: "pads"
      ints: 1
      ints: 1
      type: INTS
    }
    attribute {
      name: "strides"
      ints: 1
      ints: 1
      type: INTS
    }
  }
  node {
    input: "651"
    input: "196"
    output: "653"
    op_type: "Conv"
    attribute {
      name: "kernel_shape"
      ints: 1
      ints: 1
      type: INTS
    }
    attribute {
      name: "strides"
      ints: 1
      ints: 1
      type: INTS
    }
    attribute {
      name: "pads"
      ints: 0
      ints: 0
      ints: 0
      ints: 0
      type: INTS
    }
    attribute {
      name: "dilations"
      ints: 1
      ints: 1
      type: INTS
    }
    attribute {
      name: "group"
      i: 1
      type: INT
    }
  }
  node {
    input: "653"
    input: "197"
    input: "198"
    input: "199"
    input: "200"
    output: "654"
    op_type: "BatchNormalization"
    attribute {
      name: "is_test"
      i: 1
      type: INT
    }
    attribute {
      name: "epsilon"
      f: 0.00100000004749745
      type: FLOAT
    }
    attribute {
      name: "momentum"
      f: 0.899999976158142
      type: FLOAT
    }
    attribute {
      name: "consumed_inputs"
      ints: 0
      ints: 0
      ints: 0
      ints: 1
      ints: 1
      type: INTS
    }
  }
  node {
    input: "654"
    output: "655"
    op_type: "Relu"
  }
  node {
    input: "618"
    input: "630"
    input: "650"
    input: "655"
    output: "656"
    op_type: "Concat"
    attribute {
      name: "axis"
      i: 1
      type: INT
    }
  }
  node {
    input: "656"
    input: "201"
    output: "658"
    op_type: "Conv"
    attribute {
      name: "kernel_shape"
      ints: 1
      ints: 1
      type: INTS
    }
    attribute {
      name: "strides"
      ints: 1
      ints: 1
      type: INTS
    }
    attribute {
      name: "pads"
      ints: 0
      ints: 0
      ints: 0
      ints: 0
      type: INTS
    }
    attribute {
      name: "dilations"
      ints: 1
      ints: 1
      type: INTS
    }
    attribute {
      name: "group"
      i: 1
      type: INT
    }
  }
  node {
    input: "658"
    input: "202"
    input: "203"
    input: "204"
    input: "205"
    output: "659"
    op_type: "BatchNormalization"
    attribute {
      name: "is_test"
      i: 1
      type: INT
    }
    attribute {
      name: "epsilon"
      f: 0.00100000004749745
      type: FLOAT
    }
    attribute {
      name: "momentum"
      f: 0.899999976158142
      type: FLOAT
    }
    attribute {
      name: "consumed_inputs"
      ints: 0
      ints: 0
      ints: 0
      ints: 1
      ints: 1
      type: INTS
    }
  }
  node {
    input: "659"
    output: "660"
    op_type: "Relu"
  }
  node {
    input: "656"
    input: "206"
    output: "662"
    op_type: "Conv"
    attribute {
      name: "kernel_shape"
      ints: 1
      ints: 1
      type: INTS
    }
    attribute {
      name: "strides"
      ints: 1
      ints: 1
      type: INTS
    }
    attribute {
      name: "pads"
      ints: 0
      ints: 0
      ints: 0
      ints: 0
      type: INTS
    }
    attribute {
      name: "dilations"
      ints: 1
      ints: 1
      type: INTS
    }
    attribute {
      name: "group"
      i: 1
      type: INT
    }
  }
  node {
    input: "662"
    input: "207"
    input: "208"
    input: "209"
    input: "210"
    output: "663"
    op_type: "BatchNormalization"
    attribute {
      name: "is_test"
      i: 1
      type: INT
    }
    attribute {
      name: "epsilon"
      f: 0.00100000004749745
      type: FLOAT
    }
    attribute {
      name: "momentum"
      f: 0.899999976158142
      type: FLOAT
    }
    attribute {
      name: "consumed_inputs"
      ints: 0
      ints: 0
      ints: 0
      ints: 1
      ints: 1
      type: INTS
    }
  }
  node {
    input: "663"
    output: "664"
    op_type: "Relu"
  }
  node {
    input: "664"
    input: "211"
    output: "666"
    op_type: "Conv"
    attribute {
      name: "kernel_shape"
      ints: 1
      ints: 7
      type: INTS
    }
    attribute {
      name: "strides"
      ints: 1
      ints: 1
      type: INTS
    }
    attribute {
      name: "pads"
      ints: 0
      ints: 3
      ints: 0
      ints: 3
      type: INTS
    }
    attribute {
      name: "dilations"
      ints: 1
      ints: 1
      type: INTS
    }
    attribute {
      name: "group"
      i: 1
      type: INT
    }
  }
  node {
    input: "666"
    input: "212"
    input: "213"
    input: "214"
    input: "215"
    output: "667"
    op_type: "BatchNormalization"
    attribute {
      name: "is_test"
      i: 1
      type: INT
    }
    attribute {
      name: "epsilon"
      f: 0.00100000004749745
      type: FLOAT
    }
    attribute {
      name: "momentum"
      f: 0.899999976158142
      type: FLOAT
    }
    attribute {
      name: "consumed_inputs"
      ints: 0
      ints: 0
      ints: 0
      ints: 1
      ints: 1
      type: INTS
    }
  }
  node {
    input: "667"
    output: "668"
    op_type: "Relu"
  }
  node {
    input: "668"
    input: "216"
    output: "670"
    op_type: "Conv"
    attribute {
      name: "kernel_shape"
      ints: 7
      ints: 1
      type: INTS
    }
    attribute {
      name: "strides"
      ints: 1
      ints: 1
      type: INTS
    }
    attribute {
      name: "pads"
      ints: 3
      ints: 0
      ints: 3
      ints: 0
      type: INTS
    }
    attribute {
      name: "dilations"
      ints: 1
      ints: 1
      type: INTS
    }
    attribute {
      name: "group"
      i: 1
      type: INT
    }
  }
  node {
    input: "670"
    input: "217"
    input: "218"
    input: "219"
    input: "220"
    output: "671"
    op_type: "BatchNormalization"
    attribute {
      name: "is_test"
      i: 1
      type: INT
    }
    attribute {
      name: "epsilon"
      f: 0.00100000004749745
      type: FLOAT
    }
    attribute {
      name: "momentum"
      f: 0.899999976158142
      type: FLOAT
    }
    attribute {
      name: "consumed_inputs"
      ints: 0
      ints: 0
      ints: 0
      ints: 1
      ints: 1
      type: INTS
    }
  }
  node {
    input: "671"
    output: "672"
    op_type: "Relu"
  }
  node {
    input: "656"
    input: "221"
    output: "674"
    op_type: "Conv"
    attribute {
      name: "kernel_shape"
      ints: 1
      ints: 1
      type: INTS
    }
    attribute {
      name: "strides"
      ints: 1
      ints: 1
      type: INTS
    }
    attribute {
      name: "pads"
      ints: 0
      ints: 0
      ints: 0
      ints: 0
      type: INTS
    }
    attribute {
      name: "dilations"
      ints: 1
      ints: 1
      type: INTS
    }
    attribute {
      name: "group"
      i: 1
      type: INT
    }
  }
  node {
    input: "674"
    input: "222"
    input: "223"
    input: "224"
    input: "225"
    output: "675"
    op_type: "BatchNormalization"
    attribute {
      name: "is_test"
      i: 1
      type: INT
    }
    attribute {
      name: "epsilon"
      f: 0.00100000004749745
      type: FLOAT
    }
    attribute {
      name: "momentum"
      f: 0.899999976158142
      type: FLOAT
    }
    attribute {
      name: "consumed_inputs"
      ints: 0
      ints: 0
      ints: 0
      ints: 1
      ints: 1
      type: INTS
    }
  }
  node {
    input: "675"
    output: "676"
    op_type: "Relu"
  }
  node {
    input: "676"
    input: "226"
    output: "678"
    op_type: "Conv"
    attribute {
      name: "kernel_shape"
      ints: 7
      ints: 1
      type: INTS
    }
    attribute {
      name: "strides"
      ints: 1
      ints: 1
      type: INTS
    }
    attribute {
      name: "pads"
      ints: 3
      ints: 0
      ints: 3
      ints: 0
      type: INTS
    }
    attribute {
      name: "dilations"
      ints: 1
      ints: 1
      type: INTS
    }
    attribute {
      name: "group"
      i: 1
      type: INT
    }
  }
  node {
    input: "678"
    input: "227"
    input: "228"
    input: "229"
    input: "230"
    output: "679"
    op_type: "BatchNormalization"
    attribute {
      name: "is_test"
      i: 1
      type: INT
    }
    attribute {
      name: "epsilon"
      f: 0.00100000004749745
      type: FLOAT
    }
    attribute {
      name: "momentum"
      f: 0.899999976158142
      type: FLOAT
    }
    attribute {
      name: "consumed_inputs"
      ints: 0
      ints: 0
      ints: 0
      ints: 1
      ints: 1
      type: INTS
    }
  }
  node {
    input: "679"
    output: "680"
    op_type: "Relu"
  }
  node {
    input: "680"
    input: "231"
    output: "682"
    op_type: "Conv"
    attribute {
      name: "kernel_shape"
      ints: 1
      ints: 7
      type: INTS
    }
    attribute {
      name: "strides"
      ints: 1
      ints: 1
      type: INTS
    }
    attribute {
      name: "pads"
      ints: 0
      ints: 3
      ints: 0
      ints: 3
      type: INTS
    }
    attribute {
      name: "dilations"
      ints: 1
      ints: 1
      type: INTS
    }
    attribute {
      name: "group"
      i: 1
      type: INT
    }
  }
  node {
    input: "682"
    input: "232"
    input: "233"
    input: "234"
    input: "235"
    output: "683"
    op_type: "BatchNormalization"
    attribute {
      name: "is_test"
      i: 1
      type: INT
    }
    attribute {
      name: "epsilon"
      f: 0.00100000004749745
      type: FLOAT
    }
    attribute {
      name: "momentum"
      f: 0.899999976158142
      type: FLOAT
    }
    attribute {
      name: "consumed_inputs"
      ints: 0
      ints: 0
      ints: 0
      ints: 1
      ints: 1
      type: INTS
    }
  }
  node {
    input: "683"
    output: "684"
    op_type: "Relu"
  }
  node {
    input: "684"
    input: "236"
    output: "686"
    op_type: "Conv"
    attribute {
      name: "kernel_shape"
      ints: 7
      ints: 1
      type: INTS
    }
    attribute {
      name: "strides"
      ints: 1
      ints: 1
      type: INTS
    }
    attribute {
      name: "pads"
      ints: 3
      ints: 0
      ints: 3
      ints: 0
      type: INTS
    }
    attribute {
      name: "dilations"
      ints: 1
      ints: 1
      type: INTS
    }
    attribute {
      name: "group"
      i: 1
      type: INT
    }
  }
  node {
    input: "686"
    input: "237"
    input: "238"
    input: "239"
    input: "240"
    output: "687"
    op_type: "BatchNormalization"
    attribute {
      name: "is_test"
      i: 1
      type: INT
    }
    attribute {
      name: "epsilon"
      f: 0.00100000004749745
      type: FLOAT
    }
    attribute {
      name: "momentum"
      f: 0.899999976158142
      type: FLOAT
    }
    attribute {
      name: "consumed_inputs"
      ints: 0
      ints: 0
      ints: 0
      ints: 1
      ints: 1
      type: INTS
    }
  }
  node {
    input: "687"
    output: "688"
    op_type: "Relu"
  }
  node {
    input: "688"
    input: "241"
    output: "690"
    op_type: "Conv"
    attribute {
      name: "kernel_shape"
      ints: 1
      ints: 7
      type: INTS
    }
    attribute {
      name: "strides"
      ints: 1
      ints: 1
      type: INTS
    }
    attribute {
      name: "pads"
      ints: 0
      ints: 3
      ints: 0
      ints: 3
      type: INTS
    }
    attribute {
      name: "dilations"
      ints: 1
      ints: 1
      type: INTS
    }
    attribute {
      name: "group"
      i: 1
      type: INT
    }
  }
  node {
    input: "690"
    input: "242"
    input: "243"
    input: "244"
    input: "245"
    output: "691"
    op_type: "BatchNormalization"
    attribute {
      name: "is_test"
      i: 1
      type: INT
    }
    attribute {
      name: "epsilon"
      f: 0.00100000004749745
      type: FLOAT
    }
    attribute {
      name: "momentum"
      f: 0.899999976158142
      type: FLOAT
    }
    attribute {
      name: "consumed_inputs"
      ints: 0
      ints: 0
      ints: 0
      ints: 1
      ints: 1
      type: INTS
    }
  }
  node {
    input: "691"
    output: "692"
    op_type: "Relu"
  }
  node {
    input: "656"
    output: "693"
    op_type: "AveragePool"
    attribute {
      name: "kernel_shape"
      ints: 3
      ints: 3
      type: INTS
    }
    attribute {
      name: "pads"
      ints: 1
      ints: 1
      type: INTS
    }
    attribute {
      name: "strides"
      ints: 1
      ints: 1
      type: INTS
    }
  }
  node {
    input: "693"
    input: "246"
    output: "695"
    op_type: "Conv"
    attribute {
      name: "kernel_shape"
      ints: 1
      ints: 1
      type: INTS
    }
    attribute {
      name: "strides"
      ints: 1
      ints: 1
      type: INTS
    }
    attribute {
      name: "pads"
      ints: 0
      ints: 0
      ints: 0
      ints: 0
      type: INTS
    }
    attribute {
      name: "dilations"
      ints: 1
      ints: 1
      type: INTS
    }
    attribute {
      name: "group"
      i: 1
      type: INT
    }
  }
  node {
    input: "695"
    input: "247"
    input: "248"
    input: "249"
    input: "250"
    output: "696"
    op_type: "BatchNormalization"
    attribute {
      name: "is_test"
      i: 1
      type: INT
    }
    attribute {
      name: "epsilon"
      f: 0.00100000004749745
      type: FLOAT
    }
    attribute {
      name: "momentum"
      f: 0.899999976158142
      type: FLOAT
    }
    attribute {
      name: "consumed_inputs"
      ints: 0
      ints: 0
      ints: 0
      ints: 1
      ints: 1
      type: INTS
    }
  }
  node {
    input: "696"
    output: "697"
    op_type: "Relu"
  }
  node {
    input: "660"
    input: "672"
    input: "692"
    input: "697"
    output: "698"
    op_type: "Concat"
    attribute {
      name: "axis"
      i: 1
      type: INT
    }
  }
  node {
    input: "698"
    input: "251"
    output: "700"
    op_type: "Conv"
    attribute {
      name: "kernel_shape"
      ints: 1
      ints: 1
      type: INTS
    }
    attribute {
      name: "strides"
      ints: 1
      ints: 1
      type: INTS
    }
    attribute {
      name: "pads"
      ints: 0
      ints: 0
      ints: 0
      ints: 0
      type: INTS
    }
    attribute {
      name: "dilations"
      ints: 1
      ints: 1
      type: INTS
    }
    attribute {
      name: "group"
      i: 1
      type: INT
    }
  }
  node {
    input: "700"
    input: "252"
    input: "253"
    input: "254"
    input: "255"
    output: "701"
    op_type: "BatchNormalization"
    attribute {
      name: "is_test"
      i: 1
      type: INT
    }
    attribute {
      name: "epsilon"
      f: 0.00100000004749745
      type: FLOAT
    }
    attribute {
      name: "momentum"
      f: 0.899999976158142
      type: FLOAT
    }
    attribute {
      name: "consumed_inputs"
      ints: 0
      ints: 0
      ints: 0
      ints: 1
      ints: 1
      type: INTS
    }
  }
  node {
    input: "701"
    output: "702"
    op_type: "Relu"
  }
  node {
    input: "698"
    input: "256"
    output: "704"
    op_type: "Conv"
    attribute {
      name: "kernel_shape"
      ints: 1
      ints: 1
      type: INTS
    }
    attribute {
      name: "strides"
      ints: 1
      ints: 1
      type: INTS
    }
    attribute {
      name: "pads"
      ints: 0
      ints: 0
      ints: 0
      ints: 0
      type: INTS
    }
    attribute {
      name: "dilations"
      ints: 1
      ints: 1
      type: INTS
    }
    attribute {
      name: "group"
      i: 1
      type: INT
    }
  }
  node {
    input: "704"
    input: "257"
    input: "258"
    input: "259"
    input: "260"
    output: "705"
    op_type: "BatchNormalization"
    attribute {
      name: "is_test"
      i: 1
      type: INT
    }
    attribute {
      name: "epsilon"
      f: 0.00100000004749745
      type: FLOAT
    }
    attribute {
      name: "momentum"
      f: 0.899999976158142
      type: FLOAT
    }
    attribute {
      name: "consumed_inputs"
      ints: 0
      ints: 0
      ints: 0
      ints: 1
      ints: 1
      type: INTS
    }
  }
  node {
    input: "705"
    output: "706"
    op_type: "Relu"
  }
  node {
    input: "706"
    input: "261"
    output: "708"
    op_type: "Conv"
    attribute {
      name: "kernel_shape"
      ints: 1
      ints: 7
      type: INTS
    }
    attribute {
      name: "strides"
      ints: 1
      ints: 1
      type: INTS
    }
    attribute {
      name: "pads"
      ints: 0
      ints: 3
      ints: 0
      ints: 3
      type: INTS
    }
    attribute {
      name: "dilations"
      ints: 1
      ints: 1
      type: INTS
    }
    attribute {
      name: "group"
      i: 1
      type: INT
    }
  }
  node {
    input: "708"
    input: "262"
    input: "263"
    input: "264"
    input: "265"
    output: "709"
    op_type: "BatchNormalization"
    attribute {
      name: "is_test"
      i: 1
      type: INT
    }
    attribute {
      name: "epsilon"
      f: 0.00100000004749745
      type: FLOAT
    }
    attribute {
      name: "momentum"
      f: 0.899999976158142
      type: FLOAT
    }
    attribute {
      name: "consumed_inputs"
      ints: 0
      ints: 0
      ints: 0
      ints: 1
      ints: 1
      type: INTS
    }
  }
  node {
    input: "709"
    output: "710"
    op_type: "Relu"
  }
  node {
    input: "710"
    input: "266"
    output: "712"
    op_type: "Conv"
    attribute {
      name: "kernel_shape"
      ints: 7
      ints: 1
      type: INTS
    }
    attribute {
      name: "strides"
      ints: 1
      ints: 1
      type: INTS
    }
    attribute {
      name: "pads"
      ints: 3
      ints: 0
      ints: 3
      ints: 0
      type: INTS
    }
    attribute {
      name: "dilations"
      ints: 1
      ints: 1
      type: INTS
    }
    attribute {
      name: "group"
      i: 1
      type: INT
    }
  }
  node {
    input: "712"
    input: "267"
    input: "268"
    input: "269"
    input: "270"
    output: "713"
    op_type: "BatchNormalization"
    attribute {
      name: "is_test"
      i: 1
      type: INT
    }
    attribute {
      name: "epsilon"
      f: 0.00100000004749745
      type: FLOAT
    }
    attribute {
      name: "momentum"
      f: 0.899999976158142
      type: FLOAT
    }
    attribute {
      name: "consumed_inputs"
      ints: 0
      ints: 0
      ints: 0
      ints: 1
      ints: 1
      type: INTS
    }
  }
  node {
    input: "713"
    output: "714"
    op_type: "Relu"
  }
  node {
    input: "698"
    input: "271"
    output: "716"
    op_type: "Conv"
    attribute {
      name: "kernel_shape"
      ints: 1
      ints: 1
      type: INTS
    }
    attribute {
      name: "strides"
      ints: 1
      ints: 1
      type: INTS
    }
    attribute {
      name: "pads"
      ints: 0
      ints: 0
      ints: 0
      ints: 0
      type: INTS
    }
    attribute {
      name: "dilations"
      ints: 1
      ints: 1
      type: INTS
    }
    attribute {
      name: "group"
      i: 1
      type: INT
    }
  }
  node {
    input: "716"
    input: "272"
    input: "273"
    input: "274"
    input: "275"
    output: "717"
    op_type: "BatchNormalization"
    attribute {
      name: "is_test"
      i: 1
      type: INT
    }
    attribute {
      name: "epsilon"
      f: 0.00100000004749745
      type: FLOAT
    }
    attribute {
      name: "momentum"
      f: 0.899999976158142
      type: FLOAT
    }
    attribute {
      name: "consumed_inputs"
      ints: 0
      ints: 0
      ints: 0
      ints: 1
      ints: 1
      type: INTS
    }
  }
  node {
    input: "717"
    output: "718"
    op_type: "Relu"
  }
  node {
    input: "718"
    input: "276"
    output: "720"
    op_type: "Conv"
    attribute {
      name: "kernel_shape"
      ints: 7
      ints: 1
      type: INTS
    }
    attribute {
      name: "strides"
      ints: 1
      ints: 1
      type: INTS
    }
    attribute {
      name: "pads"
      ints: 3
      ints: 0
      ints: 3
      ints: 0
      type: INTS
    }
    attribute {
      name: "dilations"
      ints: 1
      ints: 1
      type: INTS
    }
    attribute {
      name: "group"
      i: 1
      type: INT
    }
  }
  node {
    input: "720"
    input: "277"
    input: "278"
    input: "279"
    input: "280"
    output: "721"
    op_type: "BatchNormalization"
    attribute {
      name: "is_test"
      i: 1
      type: INT
    }
    attribute {
      name: "epsilon"
      f: 0.00100000004749745
      type: FLOAT
    }
    attribute {
      name: "momentum"
      f: 0.899999976158142
      type: FLOAT
    }
    attribute {
      name: "consumed_inputs"
      ints: 0
      ints: 0
      ints: 0
      ints: 1
      ints: 1
      type: INTS
    }
  }
  node {
    input: "721"
    output: "722"
    op_type: "Relu"
  }
  node {
    input: "722"
    input: "281"
    output: "724"
    op_type: "Conv"
    attribute {
      name: "kernel_shape"
      ints: 1
      ints: 7
      type: INTS
    }
    attribute {
      name: "strides"
      ints: 1
      ints: 1
      type: INTS
    }
    attribute {
      name: "pads"
      ints: 0
      ints: 3
      ints: 0
      ints: 3
      type: INTS
    }
    attribute {
      name: "dilations"
      ints: 1
      ints: 1
      type: INTS
    }
    attribute {
      name: "group"
      i: 1
      type: INT
    }
  }
  node {
    input: "724"
    input: "282"
    input: "283"
    input: "284"
    input: "285"
    output: "725"
    op_type: "BatchNormalization"
    attribute {
      name: "is_test"
      i: 1
      type: INT
    }
    attribute {
      name: "epsilon"
      f: 0.00100000004749745
      type: FLOAT
    }
    attribute {
      name: "momentum"
      f: 0.899999976158142
      type: FLOAT
    }
    attribute {
      name: "consumed_inputs"
      ints: 0
      ints: 0
      ints: 0
      ints: 1
      ints: 1
      type: INTS
    }
  }
  node {
    input: "725"
    output: "726"
    op_type: "Relu"
  }
  node {
    input: "726"
    input: "286"
    output: "728"
    op_type: "Conv"
    attribute {
      name: "kernel_shape"
      ints: 7
      ints: 1
      type: INTS
    }
    attribute {
      name: "strides"
      ints: 1
      ints: 1
      type: INTS
    }
    attribute {
      name: "pads"
      ints: 3
      ints: 0
      ints: 3
      ints: 0
      type: INTS
    }
    attribute {
      name: "dilations"
      ints: 1
      ints: 1
      type: INTS
    }
    attribute {
      name: "group"
      i: 1
      type: INT
    }
  }
  node {
    input: "728"
    input: "287"
    input: "288"
    input: "289"
    input: "290"
    output: "729"
    op_type: "BatchNormalization"
    attribute {
      name: "is_test"
      i: 1
      type: INT
    }
    attribute {
      name: "epsilon"
      f: 0.00100000004749745
      type: FLOAT
    }
    attribute {
      name: "momentum"
      f: 0.899999976158142
      type: FLOAT
    }
    attribute {
      name: "consumed_inputs"
      ints: 0
      ints: 0
      ints: 0
      ints: 1
      ints: 1
      type: INTS
    }
  }
  node {
    input: "729"
    output: "730"
    op_type: "Relu"
  }
  node {
    input: "730"
    input: "291"
    output: "732"
    op_type: "Conv"
    attribute {
      name: "kernel_shape"
      ints: 1
      ints: 7
      type: INTS
    }
    attribute {
      name: "strides"
      ints: 1
      ints: 1
      type: INTS
    }
    attribute {
      name: "pads"
      ints: 0
      ints: 3
      ints: 0
      ints: 3
      type: INTS
    }
    attribute {
      name: "dilations"
      ints: 1
      ints: 1
      type: INTS
    }
    attribute {
      name: "group"
      i: 1
      type: INT
    }
  }
  node {
    input: "732"
    input: "292"
    input: "293"
    input: "294"
    input: "295"
    output: "733"
    op_type: "BatchNormalization"
    attribute {
      name: "is_test"
      i: 1
      type: INT
    }
    attribute {
      name: "epsilon"
      f: 0.00100000004749745
      type: FLOAT
    }
    attribute {
      name: "momentum"
      f: 0.899999976158142
      type: FLOAT
    }
    attribute {
      name: "consumed_inputs"
      ints: 0
      ints: 0
      ints: 0
      ints: 1
      ints: 1
      type: INTS
    }
  }
  node {
    input: "733"
    output: "734"
    op_type: "Relu"
  }
  node {
    input: "698"
    output: "735"
    op_type: "AveragePool"
    attribute {
      name: "kernel_shape"
      ints: 3
      ints: 3
      type: INTS
    }
    attribute {
      name: "pads"
      ints: 1
      ints: 1
      type: INTS
    }
    attribute {
      name: "strides"
      ints: 1
      ints: 1
      type: INTS
    }
  }
  node {
    input: "735"
    input: "296"
    output: "737"
    op_type: "Conv"
    attribute {
      name: "kernel_shape"
      ints: 1
      ints: 1
      type: INTS
    }
    attribute {
      name: "strides"
      ints: 1
      ints: 1
      type: INTS
    }
    attribute {
      name: "pads"
      ints: 0
      ints: 0
      ints: 0
      ints: 0
      type: INTS
    }
    attribute {
      name: "dilations"
      ints: 1
      ints: 1
      type: INTS
    }
    attribute {
      name: "group"
      i: 1
      type: INT
    }
  }
  node {
    input: "737"
    input: "297"
    input: "298"
    input: "299"
    input: "300"
    output: "738"
    op_type: "BatchNormalization"
    attribute {
      name: "is_test"
      i: 1
      type: INT
    }
    attribute {
      name: "epsilon"
      f: 0.00100000004749745
      type: FLOAT
    }
    attribute {
      name: "momentum"
      f: 0.899999976158142
      type: FLOAT
    }
    attribute {
      name: "consumed_inputs"
      ints: 0
      ints: 0
      ints: 0
      ints: 1
      ints: 1
      type: INTS
    }
  }
  node {
    input: "738"
    output: "739"
    op_type: "Relu"
  }
  node {
    input: "702"
    input: "714"
    input: "734"
    input: "739"
    output: "740"
    op_type: "Concat"
    attribute {
      name: "axis"
      i: 1
      type: INT
    }
  }
  node {
    input: "740"
    input: "301"
    output: "742"
    op_type: "Conv"
    attribute {
      name: "kernel_shape"
      ints: 1
      ints: 1
      type: INTS
    }
    attribute {
      name: "strides"
      ints: 1
      ints: 1
      type: INTS
    }
    attribute {
      name: "pads"
      ints: 0
      ints: 0
      ints: 0
      ints: 0
      type: INTS
    }
    attribute {
      name: "dilations"
      ints: 1
      ints: 1
      type: INTS
    }
    attribute {
      name: "group"
      i: 1
      type: INT
    }
  }
  node {
    input: "742"
    input: "302"
    input: "303"
    input: "304"
    input: "305"
    output: "743"
    op_type: "BatchNormalization"
    attribute {
      name: "is_test"
      i: 1
      type: INT
    }
    attribute {
      name: "epsilon"
      f: 0.00100000004749745
      type: FLOAT
    }
    attribute {
      name: "momentum"
      f: 0.899999976158142
      type: FLOAT
    }
    attribute {
      name: "consumed_inputs"
      ints: 0
      ints: 0
      ints: 0
      ints: 1
      ints: 1
      type: INTS
    }
  }
  node {
    input: "743"
    output: "744"
    op_type: "Relu"
  }
  node {
    input: "740"
    input: "306"
    output: "746"
    op_type: "Conv"
    attribute {
      name: "kernel_shape"
      ints: 1
      ints: 1
      type: INTS
    }
    attribute {
      name: "strides"
      ints: 1
      ints: 1
      type: INTS
    }
    attribute {
      name: "pads"
      ints: 0
      ints: 0
      ints: 0
      ints: 0
      type: INTS
    }
    attribute {
      name: "dilations"
      ints: 1
      ints: 1
      type: INTS
    }
    attribute {
      name: "group"
      i: 1
      type: INT
    }
  }
  node {
    input: "746"
    input: "307"
    input: "308"
    input: "309"
    input: "310"
    output: "747"
    op_type: "BatchNormalization"
    attribute {
      name: "is_test"
      i: 1
      type: INT
    }
    attribute {
      name: "epsilon"
      f: 0.00100000004749745
      type: FLOAT
    }
    attribute {
      name: "momentum"
      f: 0.899999976158142
      type: FLOAT
    }
    attribute {
      name: "consumed_inputs"
      ints: 0
      ints: 0
      ints: 0
      ints: 1
      ints: 1
      type: INTS
    }
  }
  node {
    input: "747"
    output: "748"
    op_type: "Relu"
  }
  node {
    input: "748"
    input: "311"
    output: "750"
    op_type: "Conv"
    attribute {
      name: "kernel_shape"
      ints: 1
      ints: 7
      type: INTS
    }
    attribute {
      name: "strides"
      ints: 1
      ints: 1
      type: INTS
    }
    attribute {
      name: "pads"
      ints: 0
      ints: 3
      ints: 0
      ints: 3
      type: INTS
    }
    attribute {
      name: "dilations"
      ints: 1
      ints: 1
      type: INTS
    }
    attribute {
      name: "group"
      i: 1
      type: INT
    }
  }
  node {
    input: "750"
    input: "312"
    input: "313"
    input: "314"
    input: "315"
    output: "751"
    op_type: "BatchNormalization"
    attribute {
      name: "is_test"
      i: 1
      type: INT
    }
    attribute {
      name: "epsilon"
      f: 0.00100000004749745
      type: FLOAT
    }
    attribute {
      name: "momentum"
      f: 0.899999976158142
      type: FLOAT
    }
    attribute {
      name: "consumed_inputs"
      ints: 0
      ints: 0
      ints: 0
      ints: 1
      ints: 1
      type: INTS
    }
  }
  node {
    input: "751"
    output: "752"
    op_type: "Relu"
  }
  node {
    input: "752"
    input: "316"
    output: "754"
    op_type: "Conv"
    attribute {
      name: "kernel_shape"
      ints: 7
      ints: 1
      type: INTS
    }
    attribute {
      name: "strides"
      ints: 1
      ints: 1
      type: INTS
    }
    attribute {
      name: "pads"
      ints: 3
      ints: 0
      ints: 3
      ints: 0
      type: INTS
    }
    attribute {
      name: "dilations"
      ints: 1
      ints: 1
      type: INTS
    }
    attribute {
      name: "group"
      i: 1
      type: INT
    }
  }
  node {
    input: "754"
    input: "317"
    input: "318"
    input: "319"
    input: "320"
    output: "755"
    op_type: "BatchNormalization"
    attribute {
      name: "is_test"
      i: 1
      type: INT
    }
    attribute {
      name: "epsilon"
      f: 0.00100000004749745
      type: FLOAT
    }
    attribute {
      name: "momentum"
      f: 0.899999976158142
      type: FLOAT
    }
    attribute {
      name: "consumed_inputs"
      ints: 0
      ints: 0
      ints: 0
      ints: 1
      ints: 1
      type: INTS
    }
  }
  node {
    input: "755"
    output: "756"
    op_type: "Relu"
  }
  node {
    input: "740"
    input: "321"
    output: "758"
    op_type: "Conv"
    attribute {
      name: "kernel_shape"
      ints: 1
      ints: 1
      type: INTS
    }
    attribute {
      name: "strides"
      ints: 1
      ints: 1
      type: INTS
    }
    attribute {
      name: "pads"
      ints: 0
      ints: 0
      ints: 0
      ints: 0
      type: INTS
    }
    attribute {
      name: "dilations"
      ints: 1
      ints: 1
      type: INTS
    }
    attribute {
      name: "group"
      i: 1
      type: INT
    }
  }
  node {
    input: "758"
    input: "322"
    input: "323"
    input: "324"
    input: "325"
    output: "759"
    op_type: "BatchNormalization"
    attribute {
      name: "is_test"
      i: 1
      type: INT
    }
    attribute {
      name: "epsilon"
      f: 0.00100000004749745
      type: FLOAT
    }
    attribute {
      name: "momentum"
      f: 0.899999976158142
      type: FLOAT
    }
    attribute {
      name: "consumed_inputs"
      ints: 0
      ints: 0
      ints: 0
      ints: 1
      ints: 1
      type: INTS
    }
  }
  node {
    input: "759"
    output: "760"
    op_type: "Relu"
  }
  node {
    input: "760"
    input: "326"
    output: "762"
    op_type: "Conv"
    attribute {
      name: "kernel_shape"
      ints: 7
      ints: 1
      type: INTS
    }
    attribute {
      name: "strides"
      ints: 1
      ints: 1
      type: INTS
    }
    attribute {
      name: "pads"
      ints: 3
      ints: 0
      ints: 3
      ints: 0
      type: INTS
    }
    attribute {
      name: "dilations"
      ints: 1
      ints: 1
      type: INTS
    }
    attribute {
      name: "group"
      i: 1
      type: INT
    }
  }
  node {
    input: "762"
    input: "327"
    input: "328"
    input: "329"
    input: "330"
    output: "763"
    op_type: "BatchNormalization"
    attribute {
      name: "is_test"
      i: 1
      type: INT
    }
    attribute {
      name: "epsilon"
      f: 0.00100000004749745
      type: FLOAT
    }
    attribute {
      name: "momentum"
      f: 0.899999976158142
      type: FLOAT
    }
    attribute {
      name: "consumed_inputs"
      ints: 0
      ints: 0
      ints: 0
      ints: 1
      ints: 1
      type: INTS
    }
  }
  node {
    input: "763"
    output: "764"
    op_type: "Relu"
  }
  node {
    input: "764"
    input: "331"
    output: "766"
    op_type: "Conv"
    attribute {
      name: "kernel_shape"
      ints: 1
      ints: 7
      type: INTS
    }
    attribute {
      name: "strides"
      ints: 1
      ints: 1
      type: INTS
    }
    attribute {
      name: "pads"
      ints: 0
      ints: 3
      ints: 0
      ints: 3
      type: INTS
    }
    attribute {
      name: "dilations"
      ints: 1
      ints: 1
      type: INTS
    }
    attribute {
      name: "group"
      i: 1
      type: INT
    }
  }
  node {
    input: "766"
    input: "332"
    input: "333"
    input: "334"
    input: "335"
    output: "767"
    op_type: "BatchNormalization"
    attribute {
      name: "is_test"
      i: 1
      type: INT
    }
    attribute {
      name: "epsilon"
      f: 0.00100000004749745
      type: FLOAT
    }
    attribute {
      name: "momentum"
      f: 0.899999976158142
      type: FLOAT
    }
    attribute {
      name: "consumed_inputs"
      ints: 0
      ints: 0
      ints: 0
      ints: 1
      ints: 1
      type: INTS
    }
  }
  node {
    input: "767"
    output: "768"
    op_type: "Relu"
  }
  node {
    input: "768"
    input: "336"
    output: "770"
    op_type: "Conv"
    attribute {
      name: "kernel_shape"
      ints: 7
      ints: 1
      type: INTS
    }
    attribute {
      name: "strides"
      ints: 1
      ints: 1
      type: INTS
    }
    attribute {
      name: "pads"
      ints: 3
      ints: 0
      ints: 3
      ints: 0
      type: INTS
    }
    attribute {
      name: "dilations"
      ints: 1
      ints: 1
      type: INTS
    }
    attribute {
      name: "group"
      i: 1
      type: INT
    }
  }
  node {
    input: "770"
    input: "337"
    input: "338"
    input: "339"
    input: "340"
    output: "771"
    op_type: "BatchNormalization"
    attribute {
      name: "is_test"
      i: 1
      type: INT
    }
    attribute {
      name: "epsilon"
      f: 0.00100000004749745
      type: FLOAT
    }
    attribute {
      name: "momentum"
      f: 0.899999976158142
      type: FLOAT
    }
    attribute {
      name: "consumed_inputs"
      ints: 0
      ints: 0
      ints: 0
      ints: 1
      ints: 1
      type: INTS
    }
  }
  node {
    input: "771"
    output: "772"
    op_type: "Relu"
  }
  node {
    input: "772"
    input: "341"
    output: "774"
    op_type: "Conv"
    attribute {
      name: "kernel_shape"
      ints: 1
      ints: 7
      type: INTS
    }
    attribute {
      name: "strides"
      ints: 1
      ints: 1
      type: INTS
    }
    attribute {
      name: "pads"
      ints: 0
      ints: 3
      ints: 0
      ints: 3
      type: INTS
    }
    attribute {
      name: "dilations"
      ints: 1
      ints: 1
      type: INTS
    }
    attribute {
      name: "group"
      i: 1
      type: INT
    }
  }
  node {
    input: "774"
    input: "342"
    input: "343"
    input: "344"
    input: "345"
    output: "775"
    op_type: "BatchNormalization"
    attribute {
      name: "is_test"
      i: 1
      type: INT
    }
    attribute {
      name: "epsilon"
      f: 0.00100000004749745
      type: FLOAT
    }
    attribute {
      name: "momentum"
      f: 0.899999976158142
      type: FLOAT
    }
    attribute {
      name: "consumed_inputs"
      ints: 0
      ints: 0
      ints: 0
      ints: 1
      ints: 1
      type: INTS
    }
  }
  node {
    input: "775"
    output: "776"
    op_type: "Relu"
  }
  node {
    input: "740"
    output: "777"
    op_type: "AveragePool"
    attribute {
      name: "kernel_shape"
      ints: 3
      ints: 3
      type: INTS
    }
    attribute {
      name: "pads"
      ints: 1
      ints: 1
      type: INTS
    }
    attribute {
      name: "strides"
      ints: 1
      ints: 1
      type: INTS
    }
  }
  node {
    input: "777"
    input: "346"
    output: "779"
    op_type: "Conv"
    attribute {
      name: "kernel_shape"
      ints: 1
      ints: 1
      type: INTS
    }
    attribute {
      name: "strides"
      ints: 1
      ints: 1
      type: INTS
    }
    attribute {
      name: "pads"
      ints: 0
      ints: 0
      ints: 0
      ints: 0
      type: INTS
    }
    attribute {
      name: "dilations"
      ints: 1
      ints: 1
      type: INTS
    }
    attribute {
      name: "group"
      i: 1
      type: INT
    }
  }
  node {
    input: "779"
    input: "347"
    input: "348"
    input: "349"
    input: "350"
    output: "780"
    op_type: "BatchNormalization"
    attribute {
      name: "is_test"
      i: 1
      type: INT
    }
    attribute {
      name: "epsilon"
      f: 0.00100000004749745
      type: FLOAT
    }
    attribute {
      name: "momentum"
      f: 0.899999976158142
      type: FLOAT
    }
    attribute {
      name: "consumed_inputs"
      ints: 0
      ints: 0
      ints: 0
      ints: 1
      ints: 1
      type: INTS
    }
  }
  node {
    input: "780"
    output: "781"
    op_type: "Relu"
  }
  node {
    input: "744"
    input: "756"
    input: "776"
    input: "781"
    output: "782"
    op_type: "Concat"
    attribute {
      name: "axis"
      i: 1
      type: INT
    }
  }
  node {
    input: "782"
    input: "363"
    output: "784"
    op_type: "Conv"
    attribute {
      name: "kernel_shape"
      ints: 1
      ints: 1
      type: INTS
    }
    attribute {
      name: "strides"
      ints: 1
      ints: 1
      type: INTS
    }
    attribute {
      name: "pads"
      ints: 0
      ints: 0
      ints: 0
      ints: 0
      type: INTS
    }
    attribute {
      name: "dilations"
      ints: 1
      ints: 1
      type: INTS
    }
    attribute {
      name: "group"
      i: 1
      type: INT
    }
  }
  node {
    input: "784"
    input: "364"
    input: "365"
    input: "366"
    input: "367"
    output: "785"
    op_type: "BatchNormalization"
    attribute {
      name: "is_test"
      i: 1
      type: INT
    }
    attribute {
      name: "epsilon"
      f: 0.00100000004749745
      type: FLOAT
    }
    attribute {
      name: "momentum"
      f: 0.899999976158142
      type: FLOAT
    }
    attribute {
      name: "consumed_inputs"
      ints: 0
      ints: 0
      ints: 0
      ints: 1
      ints: 1
      type: INTS
    }
  }
  node {
    input: "785"
    output: "786"
    op_type: "Relu"
  }
  node {
    input: "786"
    input: "368"
    output: "788"
    op_type: "Conv"
    attribute {
      name: "kernel_shape"
      ints: 3
      ints: 3
      type: INTS
    }
    attribute {
      name: "strides"
      ints: 2
      ints: 2
      type: INTS
    }
    attribute {
      name: "pads"
      ints: 0
      ints: 0
      ints: 0
      ints: 0
      type: INTS
    }
    attribute {
      name: "dilations"
      ints: 1
      ints: 1
      type: INTS
    }
    attribute {
      name: "group"
      i: 1
      type: INT
    }
  }
  node {
    input: "788"
    input: "369"
    input: "370"
    input: "371"
    input: "372"
    output: "789"
    op_type: "BatchNormalization"
    attribute {
      name: "is_test"
      i: 1
      type: INT
    }
    attribute {
      name: "epsilon"
      f: 0.00100000004749745
      type: FLOAT
    }
    attribute {
      name: "momentum"
      f: 0.899999976158142
      type: FLOAT
    }
    attribute {
      name: "consumed_inputs"
      ints: 0
      ints: 0
      ints: 0
      ints: 1
      ints: 1
      type: INTS
    }
  }
  node {
    input: "789"
    output: "790"
    op_type: "Relu"
  }
  node {
    input: "782"
    input: "373"
    output: "792"
    op_type: "Conv"
    attribute {
      name: "kernel_shape"
      ints: 1
      ints: 1
      type: INTS
    }
    attribute {
      name: "strides"
      ints: 1
      ints: 1
      type: INTS
    }
    attribute {
      name: "pads"
      ints: 0
      ints: 0
      ints: 0
      ints: 0
      type: INTS
    }
    attribute {
      name: "dilations"
      ints: 1
      ints: 1
      type: INTS
    }
    attribute {
      name: "group"
      i: 1
      type: INT
    }
  }
  node {
    input: "792"
    input: "374"
    input: "375"
    input: "376"
    input: "377"
    output: "793"
    op_type: "BatchNormalization"
    attribute {
      name: "is_test"
      i: 1
      type: INT
    }
    attribute {
      name: "epsilon"
      f: 0.00100000004749745
      type: FLOAT
    }
    attribute {
      name: "momentum"
      f: 0.899999976158142
      type: FLOAT
    }
    attribute {
      name: "consumed_inputs"
      ints: 0
      ints: 0
      ints: 0
      ints: 1
      ints: 1
      type: INTS
    }
  }
  node {
    input: "793"
    output: "794"
    op_type: "Relu"
  }
  node {
    input: "794"
    input: "378"
    output: "796"
    op_type: "Conv"
    attribute {
      name: "kernel_shape"
      ints: 1
      ints: 7
      type: INTS
    }
    attribute {
      name: "strides"
      ints: 1
      ints: 1
      type: INTS
    }
    attribute {
      name: "pads"
      ints: 0
      ints: 3
      ints: 0
      ints: 3
      type: INTS
    }
    attribute {
      name: "dilations"
      ints: 1
      ints: 1
      type: INTS
    }
    attribute {
      name: "group"
      i: 1
      type: INT
    }
  }
  node {
    input: "796"
    input: "379"
    input: "380"
    input: "381"
    input: "382"
    output: "797"
    op_type: "BatchNormalization"
    attribute {
      name: "is_test"
      i: 1
      type: INT
    }
    attribute {
      name: "epsilon"
      f: 0.00100000004749745
      type: FLOAT
    }
    attribute {
      name: "momentum"
      f: 0.899999976158142
      type: FLOAT
    }
    attribute {
      name: "consumed_inputs"
      ints: 0
      ints: 0
      ints: 0
      ints: 1
      ints: 1
      type: INTS
    }
  }
  node {
    input: "797"
    output: "798"
    op_type: "Relu"
  }
  node {
    input: "798"
    input: "383"
    output: "800"
    op_type: "Conv"
    attribute {
      name: "kernel_shape"
      ints: 7
      ints: 1
      type: INTS
    }
    attribute {
      name: "strides"
      ints: 1
      ints: 1
      type: INTS
    }
    attribute {
      name: "pads"
      ints: 3
      ints: 0
      ints: 3
      ints: 0
      type: INTS
    }
    attribute {
      name: "dilations"
      ints: 1
      ints: 1
      type: INTS
    }
    attribute {
      name: "group"
      i: 1
      type: INT
    }
  }
  node {
    input: "800"
    input: "384"
    input: "385"
    input: "386"
    input: "387"
    output: "801"
    op_type: "BatchNormalization"
    attribute {
      name: "is_test"
      i: 1
      type: INT
    }
    attribute {
      name: "epsilon"
      f: 0.00100000004749745
      type: FLOAT
    }
    attribute {
      name: "momentum"
      f: 0.899999976158142
      type: FLOAT
    }
    attribute {
      name: "consumed_inputs"
      ints: 0
      ints: 0
      ints: 0
      ints: 1
      ints: 1
      type: INTS
    }
  }
  node {
    input: "801"
    output: "802"
    op_type: "Relu"
  }
  node {
    input: "802"
    input: "388"
    output: "804"
    op_type: "Conv"
    attribute {
      name: "kernel_shape"
      ints: 3
      ints: 3
      type: INTS
    }
    attribute {
      name: "strides"
      ints: 2
      ints: 2
      type: INTS
    }
    attribute {
      name: "pads"
      ints: 0
      ints: 0
      ints: 0
      ints: 0
      type: INTS
    }
    attribute {
      name: "dilations"
      ints: 1
      ints: 1
      type: INTS
    }
    attribute {
      name: "group"
      i: 1
      type: INT
    }
  }
  node {
    input: "804"
    input: "389"
    input: "390"
    input: "391"
    input: "392"
    output: "805"
    op_type: "BatchNormalization"
    attribute {
      name: "is_test"
      i: 1
      type: INT
    }
    attribute {
      name: "epsilon"
      f: 0.00100000004749745
      type: FLOAT
    }
    attribute {
      name: "momentum"
      f: 0.899999976158142
      type: FLOAT
    }
    attribute {
      name: "consumed_inputs"
      ints: 0
      ints: 0
      ints: 0
      ints: 1
      ints: 1
      type: INTS
    }
  }
  node {
    input: "805"
    output: "806"
    op_type: "Relu"
  }
  node {
    input: "782"
    output: "807"
    op_type: "MaxPool"
    attribute {
      name: "kernel_shape"
      ints: 3
      ints: 3
      type: INTS
    }
    attribute {
      name: "pads"
      ints: 0
      ints: 0
      type: INTS
    }
    attribute {
      name: "strides"
      ints: 2
      ints: 2
      type: INTS
    }
  }
  node {
    input: "790"
    input: "806"
    input: "807"
    output: "808"
    op_type: "Concat"
    attribute {
      name: "axis"
      i: 1
      type: INT
    }
  }
  node {
    input: "808"
    input: "393"
    output: "810"
    op_type: "Conv"
    attribute {
      name: "kernel_shape"
      ints: 1
      ints: 1
      type: INTS
    }
    attribute {
      name: "strides"
      ints: 1
      ints: 1
      type: INTS
    }
    attribute {
      name: "pads"
      ints: 0
      ints: 0
      ints: 0
      ints: 0
      type: INTS
    }
    attribute {
      name: "dilations"
      ints: 1
      ints: 1
      type: INTS
    }
    attribute {
      name: "group"
      i: 1
      type: INT
    }
  }
  node {
    input: "810"
    input: "394"
    input: "395"
    input: "396"
    input: "397"
    output: "811"
    op_type: "BatchNormalization"
    attribute {
      name: "is_test"
      i: 1
      type: INT
    }
    attribute {
      name: "epsilon"
      f: 0.00100000004749745
      type: FLOAT
    }
    attribute {
      name: "momentum"
      f: 0.899999976158142
      type: FLOAT
    }
    attribute {
      name: "consumed_inputs"
      ints: 0
      ints: 0
      ints: 0
      ints: 1
      ints: 1
      type: INTS
    }
  }
  node {
    input: "811"
    output: "812"
    op_type: "Relu"
  }
  node {
    input: "808"
    input: "398"
    output: "814"
    op_type: "Conv"
    attribute {
      name: "kernel_shape"
      ints: 1
      ints: 1
      type: INTS
    }
    attribute {
      name: "strides"
      ints: 1
      ints: 1
      type: INTS
    }
    attribute {
      name: "pads"
      ints: 0
      ints: 0
      ints: 0
      ints: 0
      type: INTS
    }
    attribute {
      name: "dilations"
      ints: 1
      ints: 1
      type: INTS
    }
    attribute {
      name: "group"
      i: 1
      type: INT
    }
  }
  node {
    input: "814"
    input: "399"
    input: "400"
    input: "401"
    input: "402"
    output: "815"
    op_type: "BatchNormalization"
    attribute {
      name: "is_test"
      i: 1
      type: INT
    }
    attribute {
      name: "epsilon"
      f: 0.00100000004749745
      type: FLOAT
    }
    attribute {
      name: "momentum"
      f: 0.899999976158142
      type: FLOAT
    }
    attribute {
      name: "consumed_inputs"
      ints: 0
      ints: 0
      ints: 0
      ints: 1
      ints: 1
      type: INTS
    }
  }
  node {
    input: "815"
    output: "816"
    op_type: "Relu"
  }
  node {
    input: "816"
    input: "403"
    output: "818"
    op_type: "Conv"
    attribute {
      name: "kernel_shape"
      ints: 1
      ints: 3
      type: INTS
    }
    attribute {
      name: "strides"
      ints: 1
      ints: 1
      type: INTS
    }
    attribute {
      name: "pads"
      ints: 0
      ints: 1
      ints: 0
      ints: 1
      type: INTS
    }
    attribute {
      name: "dilations"
      ints: 1
      ints: 1
      type: INTS
    }
    attribute {
      name: "group"
      i: 1
      type: INT
    }
  }
  node {
    input: "818"
    input: "404"
    input: "405"
    input: "406"
    input: "407"
    output: "819"
    op_type: "BatchNormalization"
    attribute {
      name: "is_test"
      i: 1
      type: INT
    }
    attribute {
      name: "epsilon"
      f: 0.00100000004749745
      type: FLOAT
    }
    attribute {
      name: "momentum"
      f: 0.899999976158142
      type: FLOAT
    }
    attribute {
      name: "consumed_inputs"
      ints: 0
      ints: 0
      ints: 0
      ints: 1
      ints: 1
      type: INTS
    }
  }
  node {
    input: "819"
    output: "820"
    op_type: "Relu"
  }
  node {
    input: "816"
    input: "408"
    output: "822"
    op_type: "Conv"
    attribute {
      name: "kernel_shape"
      ints: 3
      ints: 1
      type: INTS
    }
    attribute {
      name: "strides"
      ints: 1
      ints: 1
      type: INTS
    }
    attribute {
      name: "pads"
      ints: 1
      ints: 0
      ints: 1
      ints: 0
      type: INTS
    }
    attribute {
      name: "dilations"
      ints: 1
      ints: 1
      type: INTS
    }
    attribute {
      name: "group"
      i: 1
      type: INT
    }
  }
  node {
    input: "822"
    input: "409"
    input: "410"
    input: "411"
    input: "412"
    output: "823"
    op_type: "BatchNormalization"
    attribute {
      name: "is_test"
      i: 1
      type: INT
    }
    attribute {
      name: "epsilon"
      f: 0.00100000004749745
      type: FLOAT
    }
    attribute {
      name: "momentum"
      f: 0.899999976158142
      type: FLOAT
    }
    attribute {
      name: "consumed_inputs"
      ints: 0
      ints: 0
      ints: 0
      ints: 1
      ints: 1
      type: INTS
    }
  }
  node {
    input: "823"
    output: "824"
    op_type: "Relu"
  }
  node {
    input: "820"
    input: "824"
    output: "825"
    op_type: "Concat"
    attribute {
      name: "axis"
      i: 1
      type: INT
    }
  }
  node {
    input: "808"
    input: "413"
    output: "827"
    op_type: "Conv"
    attribute {
      name: "kernel_shape"
      ints: 1
      ints: 1
      type: INTS
    }
    attribute {
      name: "strides"
      ints: 1
      ints: 1
      type: INTS
    }
    attribute {
      name: "pads"
      ints: 0
      ints: 0
      ints: 0
      ints: 0
      type: INTS
    }
    attribute {
      name: "dilations"
      ints: 1
      ints: 1
      type: INTS
    }
    attribute {
      name: "group"
      i: 1
      type: INT
    }
  }
  node {
    input: "827"
    input: "414"
    input: "415"
    input: "416"
    input: "417"
    output: "828"
    op_type: "BatchNormalization"
    attribute {
      name: "is_test"
      i: 1
      type: INT
    }
    attribute {
      name: "epsilon"
      f: 0.00100000004749745
      type: FLOAT
    }
    attribute {
      name: "momentum"
      f: 0.899999976158142
      type: FLOAT
    }
    attribute {
      name: "consumed_inputs"
      ints: 0
      ints: 0
      ints: 0
      ints: 1
      ints: 1
      type: INTS
    }
  }
  node {
    input: "828"
    output: "829"
    op_type: "Relu"
  }
  node {
    input: "829"
    input: "418"
    output: "831"
    op_type: "Conv"
    attribute {
      name: "kernel_shape"
      ints: 3
      ints: 3
      type: INTS
    }
    attribute {
      name: "strides"
      ints: 1
      ints: 1
      type: INTS
    }
    attribute {
      name: "pads"
      ints: 1
      ints: 1
      ints: 1
      ints: 1
      type: INTS
    }
    attribute {
      name: "dilations"
      ints: 1
      ints: 1
      type: INTS
    }
    attribute {
      name: "group"
      i: 1
      type: INT
    }
  }
  node {
    input: "831"
    input: "419"
    input: "420"
    input: "421"
    input: "422"
    output: "832"
    op_type: "BatchNormalization"
    attribute {
      name: "is_test"
      i: 1
      type: INT
    }
    attribute {
      name: "epsilon"
      f: 0.00100000004749745
      type: FLOAT
    }
    attribute {
      name: "momentum"
      f: 0.899999976158142
      type: FLOAT
    }
    attribute {
      name: "consumed_inputs"
      ints: 0
      ints: 0
      ints: 0
      ints: 1
      ints: 1
      type: INTS
    }
  }
  node {
    input: "832"
    output: "833"
    op_type: "Relu"
  }
  node {
    input: "833"
    input: "423"
    output: "835"
    op_type: "Conv"
    attribute {
      name: "kernel_shape"
      ints: 1
      ints: 3
      type: INTS
    }
    attribute {
      name: "strides"
      ints: 1
      ints: 1
      type: INTS
    }
    attribute {
      name: "pads"
      ints: 0
      ints: 1
      ints: 0
      ints: 1
      type: INTS
    }
    attribute {
      name: "dilations"
      ints: 1
      ints: 1
      type: INTS
    }
    attribute {
      name: "group"
      i: 1
      type: INT
    }
  }
  node {
    input: "835"
    input: "424"
    input: "425"
    input: "426"
    input: "427"
    output: "836"
    op_type: "BatchNormalization"
    attribute {
      name: "is_test"
      i: 1
      type: INT
    }
    attribute {
      name: "epsilon"
      f: 0.00100000004749745
      type: FLOAT
    }
    attribute {
      name: "momentum"
      f: 0.899999976158142
      type: FLOAT
    }
    attribute {
      name: "consumed_inputs"
      ints: 0
      ints: 0
      ints: 0
      ints: 1
      ints: 1
      type: INTS
    }
  }
  node {
    input: "836"
    output: "837"
    op_type: "Relu"
  }
  node {
    input: "833"
    input: "428"
    output: "839"
    op_type: "Conv"
    attribute {
      name: "kernel_shape"
      ints: 3
      ints: 1
      type: INTS
    }
    attribute {
      name: "strides"
      ints: 1
      ints: 1
      type: INTS
    }
    attribute {
      name: "pads"
      ints: 1
      ints: 0
      ints: 1
      ints: 0
      type: INTS
    }
    attribute {
      name: "dilations"
      ints: 1
      ints: 1
      type: INTS
    }
    attribute {
      name: "group"
      i: 1
      type: INT
    }
  }
  node {
    input: "839"
    input: "429"
    input: "430"
    input: "431"
    input: "432"
    output: "840"
    op_type: "BatchNormalization"
    attribute {
      name: "is_test"
      i: 1
      type: INT
    }
    attribute {
      name: "epsilon"
      f: 0.00100000004749745
      type: FLOAT
    }
    attribute {
      name: "momentum"
      f: 0.899999976158142
      type: FLOAT
    }
    attribute {
      name: "consumed_inputs"
      ints: 0
      ints: 0
      ints: 0
      ints: 1
      ints: 1
      type: INTS
    }
  }
  node {
    input: "840"
    output: "841"
    op_type: "Relu"
  }
  node {
    input: "837"
    input: "841"
    output: "842"
    op_type: "Concat"
    attribute {
      name: "axis"
      i: 1
      type: INT
    }
  }
  node {
    input: "808"
    output: "843"
    op_type: "AveragePool"
    attribute {
      name: "kernel_shape"
      ints: 3
      ints: 3
      type: INTS
    }
    attribute {
      name: "pads"
      ints: 1
      ints: 1
      type: INTS
    }
    attribute {
      name: "strides"
      ints: 1
      ints: 1
      type: INTS
    }
  }
  node {
    input: "843"
    input: "433"
    output: "845"
    op_type: "Conv"
    attribute {
      name: "kernel_shape"
      ints: 1
      ints: 1
      type: INTS
    }
    attribute {
      name: "strides"
      ints: 1
      ints: 1
      type: INTS
    }
    attribute {
      name: "pads"
      ints: 0
      ints: 0
      ints: 0
      ints: 0
      type: INTS
    }
    attribute {
      name: "dilations"
      ints: 1
      ints: 1
      type: INTS
    }
    attribute {
      name: "group"
      i: 1
      type: INT
    }
  }
  node {
    input: "845"
    input: "434"
    input: "435"
    input: "436"
    input: "437"
    output: "846"
    op_type: "BatchNormalization"
    attribute {
      name: "is_test"
      i: 1
      type: INT
    }
    attribute {
      name: "epsilon"
      f: 0.00100000004749745
      type: FLOAT
    }
    attribute {
      name: "momentum"
      f: 0.899999976158142
      type: FLOAT
    }
    attribute {
      name: "consumed_inputs"
      ints: 0
      ints: 0
      ints: 0
      ints: 1
      ints: 1
      type: INTS
    }
  }
  node {
    input: "846"
    output: "847"
    op_type: "Relu"
  }
  node {
    input: "812"
    input: "825"
    input: "842"
    input: "847"
    output: "848"
    op_type: "Concat"
    attribute {
      name: "axis"
      i: 1
      type: INT
    }
  }
  node {
    input: "848"
    input: "438"
    output: "850"
    op_type: "Conv"
    attribute {
      name: "kernel_shape"
      ints: 1
      ints: 1
      type: INTS
    }
    attribute {
      name: "strides"
      ints: 1
      ints: 1
      type: INTS
    }
    attribute {
      name: "pads"
      ints: 0
      ints: 0
      ints: 0
      ints: 0
      type: INTS
    }
    attribute {
      name: "dilations"
      ints: 1
      ints: 1
      type: INTS
    }
    attribute {
      name: "group"
      i: 1
      type: INT
    }
  }
  node {
    input: "850"
    input: "439"
    input: "440"
    input: "441"
    input: "442"
    output: "851"
    op_type: "BatchNormalization"
    attribute {
      name: "is_test"
      i: 1
      type: INT
    }
    attribute {
      name: "epsilon"
      f: 0.00100000004749745
      type: FLOAT
    }
    attribute {
      name: "momentum"
      f: 0.899999976158142
      type: FLOAT
    }
    attribute {
      name: "consumed_inputs"
      ints: 0
      ints: 0
      ints: 0
      ints: 1
      ints: 1
      type: INTS
    }
  }
  node {
    input: "851"
    output: "852"
    op_type: "Relu"
  }
  node {
    input: "848"
    input: "443"
    output: "854"
    op_type: "Conv"
    attribute {
      name: "kernel_shape"
      ints: 1
      ints: 1
      type: INTS
    }
    attribute {
      name: "strides"
      ints: 1
      ints: 1
      type: INTS
    }
    attribute {
      name: "pads"
      ints: 0
      ints: 0
      ints: 0
      ints: 0
      type: INTS
    }
    attribute {
      name: "dilations"
      ints: 1
      ints: 1
      type: INTS
    }
    attribute {
      name: "group"
      i: 1
      type: INT
    }
  }
  node {
    input: "854"
    input: "444"
    input: "445"
    input: "446"
    input: "447"
    output: "855"
    op_type: "BatchNormalization"
    attribute {
      name: "is_test"
      i: 1
      type: INT
    }
    attribute {
      name: "epsilon"
      f: 0.00100000004749745
      type: FLOAT
    }
    attribute {
      name: "momentum"
      f: 0.899999976158142
      type: FLOAT
    }
    attribute {
      name: "consumed_inputs"
      ints: 0
      ints: 0
      ints: 0
      ints: 1
      ints: 1
      type: INTS
    }
  }
  node {
    input: "855"
    output: "856"
    op_type: "Relu"
  }
  node {
    input: "856"
    input: "448"
    output: "858"
    op_type: "Conv"
    attribute {
      name: "kernel_shape"
      ints: 1
      ints: 3
      type: INTS
    }
    attribute {
      name: "strides"
      ints: 1
      ints: 1
      type: INTS
    }
    attribute {
      name: "pads"
      ints: 0
      ints: 1
      ints: 0
      ints: 1
      type: INTS
    }
    attribute {
      name: "dilations"
      ints: 1
      ints: 1
      type: INTS
    }
    attribute {
      name: "group"
      i: 1
      type: INT
    }
  }
  node {
    input: "858"
    input: "449"
    input: "450"
    input: "451"
    input: "452"
    output: "859"
    op_type: "BatchNormalization"
    attribute {
      name: "is_test"
      i: 1
      type: INT
    }
    attribute {
      name: "epsilon"
      f: 0.00100000004749745
      type: FLOAT
    }
    attribute {
      name: "momentum"
      f: 0.899999976158142
      type: FLOAT
    }
    attribute {
      name: "consumed_inputs"
      ints: 0
      ints: 0
      ints: 0
      ints: 1
      ints: 1
      type: INTS
    }
  }
  node {
    input: "859"
    output: "860"
    op_type: "Relu"
  }
  node {
    input: "856"
    input: "453"
    output: "862"
    op_type: "Conv"
    attribute {
      name: "kernel_shape"
      ints: 3
      ints: 1
      type: INTS
    }
    attribute {
      name: "strides"
      ints: 1
      ints: 1
      type: INTS
    }
    attribute {
      name: "pads"
      ints: 1
      ints: 0
      ints: 1
      ints: 0
      type: INTS
    }
    attribute {
      name: "dilations"
      ints: 1
      ints: 1
      type: INTS
    }
    attribute {
      name: "group"
      i: 1
      type: INT
    }
  }
  node {
    input: "862"
    input: "454"
    input: "455"
    input: "456"
    input: "457"
    output: "863"
    op_type: "BatchNormalization"
    attribute {
      name: "is_test"
      i: 1
      type: INT
    }
    attribute {
      name: "epsilon"
      f: 0.00100000004749745
      type: FLOAT
    }
    attribute {
      name: "momentum"
      f: 0.899999976158142
      type: FLOAT
    }
    attribute {
      name: "consumed_inputs"
      ints: 0
      ints: 0
      ints: 0
      ints: 1
      ints: 1
      type: INTS
    }
  }
  node {
    input: "863"
    output: "864"
    op_type: "Relu"
  }
  node {
    input: "860"
    input: "864"
    output: "865"
    op_type: "Concat"
    attribute {
      name: "axis"
      i: 1
      type: INT
    }
  }
  node {
    input: "848"
    input: "458"
    output: "867"
    op_type: "Conv"
    attribute {
      name: "kernel_shape"
      ints: 1
      ints: 1
      type: INTS
    }
    attribute {
      name: "strides"
      ints: 1
      ints: 1
      type: INTS
    }
    attribute {
      name: "pads"
      ints: 0
      ints: 0
      ints: 0
      ints: 0
      type: INTS
    }
    attribute {
      name: "dilations"
      ints: 1
      ints: 1
      type: INTS
    }
    attribute {
      name: "group"
      i: 1
      type: INT
    }
  }
  node {
    input: "867"
    input: "459"
    input: "460"
    input: "461"
    input: "462"
    output: "868"
    op_type: "BatchNormalization"
    attribute {
      name: "is_test"
      i: 1
      type: INT
    }
    attribute {
      name: "epsilon"
      f: 0.00100000004749745
      type: FLOAT
    }
    attribute {
      name: "momentum"
      f: 0.899999976158142
      type: FLOAT
    }
    attribute {
      name: "consumed_inputs"
      ints: 0
      ints: 0
      ints: 0
      ints: 1
      ints: 1
      type: INTS
    }
  }
  node {
    input: "868"
    output: "869"
    op_type: "Relu"
  }
  node {
    input: "869"
    input: "463"
    output: "871"
    op_type: "Conv"
    attribute {
      name: "kernel_shape"
      ints: 3
      ints: 3
      type: INTS
    }
    attribute {
      name: "strides"
      ints: 1
      ints: 1
      type: INTS
    }
    attribute {
      name: "pads"
      ints: 1
      ints: 1
      ints: 1
      ints: 1
      type: INTS
    }
    attribute {
      name: "dilations"
      ints: 1
      ints: 1
      type: INTS
    }
    attribute {
      name: "group"
      i: 1
      type: INT
    }
  }
  node {
    input: "871"
    input: "464"
    input: "465"
    input: "466"
    input: "467"
    output: "872"
    op_type: "BatchNormalization"
    attribute {
      name: "is_test"
      i: 1
      type: INT
    }
    attribute {
      name: "epsilon"
      f: 0.00100000004749745
      type: FLOAT
    }
    attribute {
      name: "momentum"
      f: 0.899999976158142
      type: FLOAT
    }
    attribute {
      name: "consumed_inputs"
      ints: 0
      ints: 0
      ints: 0
      ints: 1
      ints: 1
      type: INTS
    }
  }
  node {
    input: "872"
    output: "873"
    op_type: "Relu"
  }
  node {
    input: "873"
    input: "468"
    output: "875"
    op_type: "Conv"
    attribute {
      name: "kernel_shape"
      ints: 1
      ints: 3
      type: INTS
    }
    attribute {
      name: "strides"
      ints: 1
      ints: 1
      type: INTS
    }
    attribute {
      name: "pads"
      ints: 0
      ints: 1
      ints: 0
      ints: 1
      type: INTS
    }
    attribute {
      name: "dilations"
      ints: 1
      ints: 1
      type: INTS
    }
    attribute {
      name: "group"
      i: 1
      type: INT
    }
  }
  node {
    input: "875"
    input: "469"
    input: "470"
    input: "471"
    input: "472"
    output: "876"
    op_type: "BatchNormalization"
    attribute {
      name: "is_test"
      i: 1
      type: INT
    }
    attribute {
      name: "epsilon"
      f: 0.00100000004749745
      type: FLOAT
    }
    attribute {
      name: "momentum"
      f: 0.899999976158142
      type: FLOAT
    }
    attribute {
      name: "consumed_inputs"
      ints: 0
      ints: 0
      ints: 0
      ints: 1
      ints: 1
      type: INTS
    }
  }
  node {
    input: "876"
    output: "877"
    op_type: "Relu"
  }
  node {
    input: "873"
    input: "473"
    output: "879"
    op_type: "Conv"
    attribute {
      name: "kernel_shape"
      ints: 3
      ints: 1
      type: INTS
    }
    attribute {
      name: "strides"
      ints: 1
      ints: 1
      type: INTS
    }
    attribute {
      name: "pads"
      ints: 1
      ints: 0
      ints: 1
      ints: 0
      type: INTS
    }
    attribute {
      name: "dilations"
      ints: 1
      ints: 1
      type: INTS
    }
    attribute {
      name: "group"
      i: 1
      type: INT
    }
  }
  node {
    input: "879"
    input: "474"
    input: "475"
    input: "476"
    input: "477"
    output: "880"
    op_type: "BatchNormalization"
    attribute {
      name: "is_test"
      i: 1
      type: INT
    }
    attribute {
      name: "epsilon"
      f: 0.00100000004749745
      type: FLOAT
    }
    attribute {
      name: "momentum"
      f: 0.899999976158142
      type: FLOAT
    }
    attribute {
      name: "consumed_inputs"
      ints: 0
      ints: 0
      ints: 0
      ints: 1
      ints: 1
      type: INTS
    }
  }
  node {
    input: "880"
    output: "881"
    op_type: "Relu"
  }
  node {
    input: "877"
    input: "881"
    output: "882"
    op_type: "Concat"
    attribute {
      name: "axis"
      i: 1
      type: INT
    }
  }
  node {
    input: "848"
    output: "883"
    op_type: "AveragePool"
    attribute {
      name: "kernel_shape"
      ints: 3
      ints: 3
      type: INTS
    }
    attribute {
      name: "pads"
      ints: 1
      ints: 1
      type: INTS
    }
    attribute {
      name: "strides"
      ints: 1
      ints: 1
      type: INTS
    }
  }
  node {
    input: "883"
    input: "478"
    output: "885"
    op_type: "Conv"
    attribute {
      name: "kernel_shape"
      ints: 1
      ints: 1
      type: INTS
    }
    attribute {
      name: "strides"
      ints: 1
      ints: 1
      type: INTS
    }
    attribute {
      name: "pads"
      ints: 0
      ints: 0
      ints: 0
      ints: 0
      type: INTS
    }
    attribute {
      name: "dilations"
      ints: 1
      ints: 1
      type: INTS
    }
    attribute {
      name: "group"
      i: 1
      type: INT
    }
  }
  node {
    input: "885"
    input: "479"
    input: "480"
    input: "481"
    input: "482"
    output: "886"
    op_type: "BatchNormalization"
    attribute {
      name: "is_test"
      i: 1
      type: INT
    }
    attribute {
      name: "epsilon"
      f: 0.00100000004749745
      type: FLOAT
    }
    attribute {
      name: "momentum"
      f: 0.899999976158142
      type: FLOAT
    }
    attribute {
      name: "consumed_inputs"
      ints: 0
      ints: 0
      ints: 0
      ints: 1
      ints: 1
      type: INTS
    }
  }
  node {
    input: "886"
    output: "887"
    op_type: "Relu"
  }
  node {
    input: "852"
    input: "865"
    input: "882"
    input: "887"
    output: "888"
    op_type: "Concat"
    attribute {
      name: "axis"
      i: 1
      type: INT
    }
  }
  node {
    input: "888"
    output: "889"
    op_type: "AveragePool"
    attribute {
      name: "kernel_shape"
      ints: 8
      ints: 8
      type: INTS
    }
    attribute {
      name: "pads"
      ints: 0
      ints: 0
      type: INTS
    }
    attribute {
      name: "strides"
      ints: 8
      ints: 8
      type: INTS
    }
  }
  node {
    input: "889"
    output: "890"
    output: "891"
    op_type: "Dropout"
    attribute {
      name: "is_test"
      i: 1
      type: INT
    }
    attribute {
      name: "ratio"
      f: 0.5
      type: FLOAT
    }
  }
  node {
    input: "890"
    output: "892"
    op_type: "Reshape"
    attribute {
      name: "shape"
      ints: 2
      ints: -1
      type: INTS
    }
  }
  node {
    input: "892"
    input: "483"
    input: "484"
    output: "895"
    op_type: "Gemm"
    attribute {
      name: "alpha"
      f: 1
      type: FLOAT
    }
    attribute {
      name: "beta"
      f: 1
      type: FLOAT
    }
    attribute {
      name: "broadcast"
      i: 1
      type: INT
    }
    attribute {
      name: "transB"
      i: 1
      type: INT
    }
  }
  name: "torch-jit-export"
  input {
    name: "0"
    type {
      tensor_type {
        elem_type: FLOAT
        shape {
          dim {
            dim_value: 2
          }
          dim {
            dim_value: 3
          }
          dim {
            dim_value: 299
          }
          dim {
            dim_value: 299
          }
        }
      }
    }
  }
  input {
    name: "1"
    type {
      tensor_type {
        elem_type: FLOAT
        shape {
          dim {
            dim_value: 32
          }
          dim {
            dim_value: 3
          }
          dim {
            dim_value: 3
          }
          dim {
            dim_value: 3
          }
        }
      }
    }
  }
  input {
    name: "2"
    type {
      tensor_type {
        elem_type: FLOAT
        shape {
          dim {
            dim_value: 32
          }
        }
      }
    }
  }
  input {
    name: "3"
    type {
      tensor_type {
        elem_type: FLOAT
        shape {
          dim {
            dim_value: 32
          }
        }
      }
    }
  }
  input {
    name: "4"
    type {
      tensor_type {
        elem_type: FLOAT
        shape {
          dim {
            dim_value: 32
          }
        }
      }
    }
  }
  input {
    name: "5"
    type {
      tensor_type {
        elem_type: FLOAT
        shape {
          dim {
            dim_value: 32
          }
        }
      }
    }
  }
  input {
    name: "6"
    type {
      tensor_type {
        elem_type: FLOAT
        shape {
          dim {
            dim_value: 32
          }
          dim {
            dim_value: 32
          }
          dim {
            dim_value: 3
          }
          dim {
            dim_value: 3
          }
        }
      }
    }
  }
  input {
    name: "7"
    type {
      tensor_type {
        elem_type: FLOAT
        shape {
          dim {
            dim_value: 32
          }
        }
      }
    }
  }
  input {
    name: "8"
    type {
      tensor_type {
        elem_type: FLOAT
        shape {
          dim {
            dim_value: 32
          }
        }
      }
    }
  }
  input {
    name: "9"
    type {
      tensor_type {
        elem_type: FLOAT
        shape {
          dim {
            dim_value: 32
          }
        }
      }
    }
  }
  input {
    name: "10"
    type {
      tensor_type {
        elem_type: FLOAT
        shape {
          dim {
            dim_value: 32
          }
        }
      }
    }
  }
  input {
    name: "11"
    type {
      tensor_type {
        elem_type: FLOAT
        shape {
          dim {
            dim_value: 64
          }
          dim {
            dim_value: 32
          }
          dim {
            dim_value: 3
          }
          dim {
            dim_value: 3
          }
        }
      }
    }
  }
  input {
    name: "12"
    type {
      tensor_type {
        elem_type: FLOAT
        shape {
          dim {
            dim_value: 64
          }
        }
      }
    }
  }
  input {
    name: "13"
    type {
      tensor_type {
        elem_type: FLOAT
        shape {
          dim {
            dim_value: 64
          }
        }
      }
    }
  }
  input {
    name: "14"
    type {
      tensor_type {
        elem_type: FLOAT
        shape {
          dim {
            dim_value: 64
          }
        }
      }
    }
  }
  input {
    name: "15"
    type {
      tensor_type {
        elem_type: FLOAT
        shape {
          dim {
            dim_value: 64
          }
        }
      }
    }
  }
  input {
    name: "16"
    type {
      tensor_type {
        elem_type: FLOAT
        shape {
          dim {
            dim_value: 80
          }
          dim {
            dim_value: 64
          }
          dim {
            dim_value: 1
          }
          dim {
            dim_value: 1
          }
        }
      }
    }
  }
  input {
    name: "17"
    type {
      tensor_type {
        elem_type: FLOAT
        shape {
          dim {
            dim_value: 80
          }
        }
      }
    }
  }
  input {
    name: "18"
    type {
      tensor_type {
        elem_type: FLOAT
        shape {
          dim {
            dim_value: 80
          }
        }
      }
    }
  }
  input {
    name: "19"
    type {
      tensor_type {
        elem_type: FLOAT
        shape {
          dim {
            dim_value: 80
          }
        }
      }
    }
  }
  input {
    name: "20"
    type {
      tensor_type {
        elem_type: FLOAT
        shape {
          dim {
            dim_value: 80
          }
        }
      }
    }
  }
  input {
    name: "21"
    type {
      tensor_type {
        elem_type: FLOAT
        shape {
          dim {
            dim_value: 192
          }
          dim {
            dim_value: 80
          }
          dim {
            dim_value: 3
          }
          dim {
            dim_value: 3
          }
        }
      }
    }
  }
  input {
    name: "22"
    type {
      tensor_type {
        elem_type: FLOAT
        shape {
          dim {
            dim_value: 192
          }
        }
      }
    }
  }
  input {
    name: "23"
    type {
      tensor_type {
        elem_type: FLOAT
        shape {
          dim {
            dim_value: 192
          }
        }
      }
    }
  }
  input {
    name: "24"
    type {
      tensor_type {
        elem_type: FLOAT
        shape {
          dim {
            dim_value: 192
          }
        }
      }
    }
  }
  input {
    name: "25"
    type {
      tensor_type {
        elem_type: FLOAT
        shape {
          dim {
            dim_value: 192
          }
        }
      }
    }
  }
  input {
    name: "26"
    type {
      tensor_type {
        elem_type: FLOAT
        shape {
          dim {
            dim_value: 64
          }
          dim {
            dim_value: 192
          }
          dim {
            dim_value: 1
          }
          dim {
            dim_value: 1
          }
        }
      }
    }
  }
  input {
    name: "27"
    type {
      tensor_type {
        elem_type: FLOAT
        shape {
          dim {
            dim_value: 64
          }
        }
      }
    }
  }
  input {
    name: "28"
    type {
      tensor_type {
        elem_type: FLOAT
        shape {
          dim {
            dim_value: 64
          }
        }
      }
    }
  }
  input {
    name: "29"
    type {
      tensor_type {
        elem_type: FLOAT
        shape {
          dim {
            dim_value: 64
          }
        }
      }
    }
  }
  input {
    name: "30"
    type {
      tensor_type {
        elem_type: FLOAT
        shape {
          dim {
            dim_value: 64
          }
        }
      }
    }
  }
  input {
    name: "31"
    type {
      tensor_type {
        elem_type: FLOAT
        shape {
          dim {
            dim_value: 48
          }
          dim {
            dim_value: 192
          }
          dim {
            dim_value: 1
          }
          dim {
            dim_value: 1
          }
        }
      }
    }
  }
  input {
    name: "32"
    type {
      tensor_type {
        elem_type: FLOAT
        shape {
          dim {
            dim_value: 48
          }
        }
      }
    }
  }
  input {
    name: "33"
    type {
      tensor_type {
        elem_type: FLOAT
        shape {
          dim {
            dim_value: 48
          }
        }
      }
    }
  }
  input {
    name: "34"
    type {
      tensor_type {
        elem_type: FLOAT
        shape {
          dim {
            dim_value: 48
          }
        }
      }
    }
  }
  input {
    name: "35"
    type {
      tensor_type {
        elem_type: FLOAT
        shape {
          dim {
            dim_value: 48
          }
        }
      }
    }
  }
  input {
    name: "36"
    type {
      tensor_type {
        elem_type: FLOAT
        shape {
          dim {
            dim_value: 64
          }
          dim {
            dim_value: 48
          }
          dim {
            dim_value: 5
          }
          dim {
            dim_value: 5
          }
        }
      }
    }
  }
  input {
    name: "37"
    type {
      tensor_type {
        elem_type: FLOAT
        shape {
          dim {
            dim_value: 64
          }
        }
      }
    }
  }
  input {
    name: "38"
    type {
      tensor_type {
        elem_type: FLOAT
        shape {
          dim {
            dim_value: 64
          }
        }
      }
    }
  }
  input {
    name: "39"
    type {
      tensor_type {
        elem_type: FLOAT
        shape {
          dim {
            dim_value: 64
          }
        }
      }
    }
  }
  input {
    name: "40"
    type {
      tensor_type {
        elem_type: FLOAT
        shape {
          dim {
            dim_value: 64
          }
        }
      }
    }
  }
  input {
    name: "41"
    type {
      tensor_type {
        elem_type: FLOAT
        shape {
          dim {
            dim_value: 64
          }
          dim {
            dim_value: 192
          }
          dim {
            dim_value: 1
          }
          dim {
            dim_value: 1
          }
        }
      }
    }
  }
  input {
    name: "42"
    type {
      tensor_type {
        elem_type: FLOAT
        shape {
          dim {
            dim_value: 64
          }
        }
      }
    }
  }
  input {
    name: "43"
    type {
      tensor_type {
        elem_type: FLOAT
        shape {
          dim {
            dim_value: 64
          }
        }
      }
    }
  }
  input {
    name: "44"
    type {
      tensor_type {
        elem_type: FLOAT
        shape {
          dim {
            dim_value: 64
          }
        }
      }
    }
  }
  input {
    name: "45"
    type {
      tensor_type {
        elem_type: FLOAT
        shape {
          dim {
            dim_value: 64
          }
        }
      }
    }
  }
  input {
    name: "46"
    type {
      tensor_type {
        elem_type: FLOAT
        shape {
          dim {
            dim_value: 96
          }
          dim {
            dim_value: 64
          }
          dim {
            dim_value: 3
          }
          dim {
            dim_value: 3
          }
        }
      }
    }
  }
  input {
    name: "47"
    type {
      tensor_type {
        elem_type: FLOAT
        shape {
          dim {
            dim_value: 96
          }
        }
      }
    }
  }
  input {
    name: "48"
    type {
      tensor_type {
        elem_type: FLOAT
        shape {
          dim {
            dim_value: 96
          }
        }
      }
    }
  }
  input {
    name: "49"
    type {
      tensor_type {
        elem_type: FLOAT
        shape {
          dim {
            dim_value: 96
          }
        }
      }
    }
  }
  input {
    name: "50"
    type {
      tensor_type {
        elem_type: FLOAT
        shape {
          dim {
            dim_value: 96
          }
        }
      }
    }
  }
  input {
    name: "51"
    type {
      tensor_type {
        elem_type: FLOAT
        shape {
          dim {
            dim_value: 96
          }
          dim {
            dim_value: 96
          }
          dim {
            dim_value: 3
          }
          dim {
            dim_value: 3
          }
        }
      }
    }
  }
  input {
    name: "52"
    type {
      tensor_type {
        elem_type: FLOAT
        shape {
          dim {
            dim_value: 96
          }
        }
      }
    }
  }
  input {
    name: "53"
    type {
      tensor_type {
        elem_type: FLOAT
        shape {
          dim {
            dim_value: 96
          }
        }
      }
    }
  }
  input {
    name: "54"
    type {
      tensor_type {
        elem_type: FLOAT
        shape {
          dim {
            dim_value: 96
          }
        }
      }
    }
  }
  input {
    name: "55"
    type {
      tensor_type {
        elem_type: FLOAT
        shape {
          dim {
            dim_value: 96
          }
        }
      }
    }
  }
  input {
    name: "56"
    type {
      tensor_type {
        elem_type: FLOAT
        shape {
          dim {
            dim_value: 32
          }
          dim {
            dim_value: 192
          }
          dim {
            dim_value: 1
          }
          dim {
            dim_value: 1
          }
        }
      }
    }
  }
  input {
    name: "57"
    type {
      tensor_type {
        elem_type: FLOAT
        shape {
          dim {
            dim_value: 32
          }
        }
      }
    }
  }
  input {
    name: "58"
    type {
      tensor_type {
        elem_type: FLOAT
        shape {
          dim {
            dim_value: 32
          }
        }
      }
    }
  }
  input {
    name: "59"
    type {
      tensor_type {
        elem_type: FLOAT
        shape {
          dim {
            dim_value: 32
          }
        }
      }
    }
  }
  input {
    name: "60"
    type {
      tensor_type {
        elem_type: FLOAT
        shape {
          dim {
            dim_value: 32
          }
        }
      }
    }
  }
  input {
    name: "61"
    type {
      tensor_type {
        elem_type: FLOAT
        shape {
          dim {
            dim_value: 64
          }
          dim {
            dim_value: 256
          }
          dim {
            dim_value: 1
          }
          dim {
            dim_value: 1
          }
        }
      }
    }
  }
  input {
    name: "62"
    type {
      tensor_type {
        elem_type: FLOAT
        shape {
          dim {
            dim_value: 64
          }
        }
      }
    }
  }
  input {
    name: "63"
    type {
      tensor_type {
        elem_type: FLOAT
        shape {
          dim {
            dim_value: 64
          }
        }
      }
    }
  }
  input {
    name: "64"
    type {
      tensor_type {
        elem_type: FLOAT
        shape {
          dim {
            dim_value: 64
          }
        }
      }
    }
  }
  input {
    name: "65"
    type {
      tensor_type {
        elem_type: FLOAT
        shape {
          dim {
            dim_value: 64
          }
        }
      }
    }
  }
  input {
    name: "66"
    type {
      tensor_type {
        elem_type: FLOAT
        shape {
          dim {
            dim_value: 48
          }
          dim {
            dim_value: 256
          }
          dim {
            dim_value: 1
          }
          dim {
            dim_value: 1
          }
        }
      }
    }
  }
  input {
    name: "67"
    type {
      tensor_type {
        elem_type: FLOAT
        shape {
          dim {
            dim_value: 48
          }
        }
      }
    }
  }
  input {
    name: "68"
    type {
      tensor_type {
        elem_type: FLOAT
        shape {
          dim {
            dim_value: 48
          }
        }
      }
    }
  }
  input {
    name: "69"
    type {
      tensor_type {
        elem_type: FLOAT
        shape {
          dim {
            dim_value: 48
          }
        }
      }
    }
  }
  input {
    name: "70"
    type {
      tensor_type {
        elem_type: FLOAT
        shape {
          dim {
            dim_value: 48
          }
        }
      }
    }
  }
  input {
    name: "71"
    type {
      tensor_type {
        elem_type: FLOAT
        shape {
          dim {
            dim_value: 64
          }
          dim {
            dim_value: 48
          }
          dim {
            dim_value: 5
          }
          dim {
            dim_value: 5
          }
        }
      }
    }
  }
  input {
    name: "72"
    type {
      tensor_type {
        elem_type: FLOAT
        shape {
          dim {
            dim_value: 64
          }
        }
      }
    }
  }
  input {
    name: "73"
    type {
      tensor_type {
        elem_type: FLOAT
        shape {
          dim {
            dim_value: 64
          }
        }
      }
    }
  }
  input {
    name: "74"
    type {
      tensor_type {
        elem_type: FLOAT
        shape {
          dim {
            dim_value: 64
          }
        }
      }
    }
  }
  input {
    name: "75"
    type {
      tensor_type {
        elem_type: FLOAT
        shape {
          dim {
            dim_value: 64
          }
        }
      }
    }
  }
  input {
    name: "76"
    type {
      tensor_type {
        elem_type: FLOAT
        shape {
          dim {
            dim_value: 64
          }
          dim {
            dim_value: 256
          }
          dim {
            dim_value: 1
          }
          dim {
            dim_value: 1
          }
        }
      }
    }
  }
  input {
    name: "77"
    type {
      tensor_type {
        elem_type: FLOAT
        shape {
          dim {
            dim_value: 64
          }
        }
      }
    }
  }
  input {
    name: "78"
    type {
      tensor_type {
        elem_type: FLOAT
        shape {
          dim {
            dim_value: 64
          }
        }
      }
    }
  }
  input {
    name: "79"
    type {
      tensor_type {
        elem_type: FLOAT
        shape {
          dim {
            dim_value: 64
          }
        }
      }
    }
  }
  input {
    name: "80"
    type {
      tensor_type {
        elem_type: FLOAT
        shape {
          dim {
            dim_value: 64
          }
        }
      }
    }
  }
  input {
    name: "81"
    type {
      tensor_type {
        elem_type: FLOAT
        shape {
          dim {
            dim_value: 96
          }
          dim {
            dim_value: 64
          }
          dim {
            dim_value: 3
          }
          dim {
            dim_value: 3
          }
        }
      }
    }
  }
  input {
    name: "82"
    type {
      tensor_type {
        elem_type: FLOAT
        shape {
          dim {
            dim_value: 96
          }
        }
      }
    }
  }
  input {
    name: "83"
    type {
      tensor_type {
        elem_type: FLOAT
        shape {
          dim {
            dim_value: 96
          }
        }
      }
    }
  }
  input {
    name: "84"
    type {
      tensor_type {
        elem_type: FLOAT
        shape {
          dim {
            dim_value: 96
          }
        }
      }
    }
  }
  input {
    name: "85"
    type {
      tensor_type {
        elem_type: FLOAT
        shape {
          dim {
            dim_value: 96
          }
        }
      }
    }
  }
  input {
    name: "86"
    type {
      tensor_type {
        elem_type: FLOAT
        shape {
          dim {
            dim_value: 96
          }
          dim {
            dim_value: 96
          }
          dim {
            dim_value: 3
          }
          dim {
            dim_value: 3
          }
        }
      }
    }
  }
  input {
    name: "87"
    type {
      tensor_type {
        elem_type: FLOAT
        shape {
          dim {
            dim_value: 96
          }
        }
      }
    }
  }
  input {
    name: "88"
    type {
      tensor_type {
        elem_type: FLOAT
        shape {
          dim {
            dim_value: 96
          }
        }
      }
    }
  }
  input {
    name: "89"
    type {
      tensor_type {
        elem_type: FLOAT
        shape {
          dim {
            dim_value: 96
          }
        }
      }
    }
  }
  input {
    name: "90"
    type {
      tensor_type {
        elem_type: FLOAT
        shape {
          dim {
            dim_value: 96
          }
        }
      }
    }
  }
  input {
    name: "91"
    type {
      tensor_type {
        elem_type: FLOAT
        shape {
          dim {
            dim_value: 64
          }
          dim {
            dim_value: 256
          }
          dim {
            dim_value: 1
          }
          dim {
            dim_value: 1
          }
        }
      }
    }
  }
  input {
    name: "92"
    type {
      tensor_type {
        elem_type: FLOAT
        shape {
          dim {
            dim_value: 64
          }
        }
      }
    }
  }
  input {
    name: "93"
    type {
      tensor_type {
        elem_type: FLOAT
        shape {
          dim {
            dim_value: 64
          }
        }
      }
    }
  }
  input {
    name: "94"
    type {
      tensor_type {
        elem_type: FLOAT
        shape {
          dim {
            dim_value: 64
          }
        }
      }
    }
  }
  input {
    name: "95"
    type {
      tensor_type {
        elem_type: FLOAT
        shape {
          dim {
            dim_value: 64
          }
        }
      }
    }
  }
  input {
    name: "96"
    type {
      tensor_type {
        elem_type: FLOAT
        shape {
          dim {
            dim_value: 64
          }
          dim {
            dim_value: 288
          }
          dim {
            dim_value: 1
          }
          dim {
            dim_value: 1
          }
        }
      }
    }
  }
  input {
    name: "97"
    type {
      tensor_type {
        elem_type: FLOAT
        shape {
          dim {
            dim_value: 64
          }
        }
      }
    }
  }
  input {
    name: "98"
    type {
      tensor_type {
        elem_type: FLOAT
        shape {
          dim {
            dim_value: 64
          }
        }
      }
    }
  }
  input {
    name: "99"
    type {
      tensor_type {
        elem_type: FLOAT
        shape {
          dim {
            dim_value: 64
          }
        }
      }
    }
  }
  input {
    name: "100"
    type {
      tensor_type {
        elem_type: FLOAT
        shape {
          dim {
            dim_value: 64
          }
        }
      }
    }
  }
  input {
    name: "101"
    type {
      tensor_type {
        elem_type: FLOAT
        shape {
          dim {
            dim_value: 48
          }
          dim {
            dim_value: 288
          }
          dim {
            dim_value: 1
          }
          dim {
            dim_value: 1
          }
        }
      }
    }
  }
  input {
    name: "102"
    type {
      tensor_type {
        elem_type: FLOAT
        shape {
          dim {
            dim_value: 48
          }
        }
      }
    }
  }
  input {
    name: "103"
    type {
      tensor_type {
        elem_type: FLOAT
        shape {
          dim {
            dim_value: 48
          }
        }
      }
    }
  }
  input {
    name: "104"
    type {
      tensor_type {
        elem_type: FLOAT
        shape {
          dim {
            dim_value: 48
          }
        }
      }
    }
  }
  input {
    name: "105"
    type {
      tensor_type {
        elem_type: FLOAT
        shape {
          dim {
            dim_value: 48
          }
        }
      }
    }
  }
  input {
    name: "106"
    type {
      tensor_type {
        elem_type: FLOAT
        shape {
          dim {
            dim_value: 64
          }
          dim {
            dim_value: 48
          }
          dim {
            dim_value: 5
          }
          dim {
            dim_value: 5
          }
        }
      }
    }
  }
  input {
    name: "107"
    type {
      tensor_type {
        elem_type: FLOAT
        shape {
          dim {
            dim_value: 64
          }
        }
      }
    }
  }
  input {
    name: "108"
    type {
      tensor_type {
        elem_type: FLOAT
        shape {
          dim {
            dim_value: 64
          }
        }
      }
    }
  }
  input {
    name: "109"
    type {
      tensor_type {
        elem_type: FLOAT
        shape {
          dim {
            dim_value: 64
          }
        }
      }
    }
  }
  input {
    name: "110"
    type {
      tensor_type {
        elem_type: FLOAT
        shape {
          dim {
            dim_value: 64
          }
        }
      }
    }
  }
  input {
    name: "111"
    type {
      tensor_type {
        elem_type: FLOAT
        shape {
          dim {
            dim_value: 64
          }
          dim {
            dim_value: 288
          }
          dim {
            dim_value: 1
          }
          dim {
            dim_value: 1
          }
        }
      }
    }
  }
  input {
    name: "112"
    type {
      tensor_type {
        elem_type: FLOAT
        shape {
          dim {
            dim_value: 64
          }
        }
      }
    }
  }
  input {
    name: "113"
    type {
      tensor_type {
        elem_type: FLOAT
        shape {
          dim {
            dim_value: 64
          }
        }
      }
    }
  }
  input {
    name: "114"
    type {
      tensor_type {
        elem_type: FLOAT
        shape {
          dim {
            dim_value: 64
          }
        }
      }
    }
  }
  input {
    name: "115"
    type {
      tensor_type {
        elem_type: FLOAT
        shape {
          dim {
            dim_value: 64
          }
        }
      }
    }
  }
  input {
    name: "116"
    type {
      tensor_type {
        elem_type: FLOAT
        shape {
          dim {
            dim_value: 96
          }
          dim {
            dim_value: 64
          }
          dim {
            dim_value: 3
          }
          dim {
            dim_value: 3
          }
        }
      }
    }
  }
  input {
    name: "117"
    type {
      tensor_type {
        elem_type: FLOAT
        shape {
          dim {
            dim_value: 96
          }
        }
      }
    }
  }
  input {
    name: "118"
    type {
      tensor_type {
        elem_type: FLOAT
        shape {
          dim {
            dim_value: 96
          }
        }
      }
    }
  }
  input {
    name: "119"
    type {
      tensor_type {
        elem_type: FLOAT
        shape {
          dim {
            dim_value: 96
          }
        }
      }
    }
  }
  input {
    name: "120"
    type {
      tensor_type {
        elem_type: FLOAT
        shape {
          dim {
            dim_value: 96
          }
        }
      }
    }
  }
  input {
    name: "121"
    type {
      tensor_type {
        elem_type: FLOAT
        shape {
          dim {
            dim_value: 96
          }
          dim {
            dim_value: 96
          }
          dim {
            dim_value: 3
          }
          dim {
            dim_value: 3
          }
        }
      }
    }
  }
  input {
    name: "122"
    type {
      tensor_type {
        elem_type: FLOAT
        shape {
          dim {
            dim_value: 96
          }
        }
      }
    }
  }
  input {
    name: "123"
    type {
      tensor_type {
        elem_type: FLOAT
        shape {
          dim {
            dim_value: 96
          }
        }
      }
    }
  }
  input {
    name: "124"
    type {
      tensor_type {
        elem_type: FLOAT
        shape {
          dim {
            dim_value: 96
          }
        }
      }
    }
  }
  input {
    name: "125"
    type {
      tensor_type {
        elem_type: FLOAT
        shape {
          dim {
            dim_value: 96
          }
        }
      }
    }
  }
  input {
    name: "126"
    type {
      tensor_type {
        elem_type: FLOAT
        shape {
          dim {
            dim_value: 64
          }
          dim {
            dim_value: 288
          }
          dim {
            dim_value: 1
          }
          dim {
            dim_value: 1
          }
        }
      }
    }
  }
  input {
    name: "127"
    type {
      tensor_type {
        elem_type: FLOAT
        shape {
          dim {
            dim_value: 64
          }
        }
      }
    }
  }
  input {
    name: "128"
    type {
      tensor_type {
        elem_type: FLOAT
        shape {
          dim {
            dim_value: 64
          }
        }
      }
    }
  }
  input {
    name: "129"
    type {
      tensor_type {
        elem_type: FLOAT
        shape {
          dim {
            dim_value: 64
          }
        }
      }
    }
  }
  input {
    name: "130"
    type {
      tensor_type {
        elem_type: FLOAT
        shape {
          dim {
            dim_value: 64
          }
        }
      }
    }
  }
  input {
    name: "131"
    type {
      tensor_type {
        elem_type: FLOAT
        shape {
          dim {
            dim_value: 384
          }
          dim {
            dim_value: 288
          }
          dim {
            dim_value: 3
          }
          dim {
            dim_value: 3
          }
        }
      }
    }
  }
  input {
    name: "132"
    type {
      tensor_type {
        elem_type: FLOAT
        shape {
          dim {
            dim_value: 384
          }
        }
      }
    }
  }
  input {
    name: "133"
    type {
      tensor_type {
        elem_type: FLOAT
        shape {
          dim {
            dim_value: 384
          }
        }
      }
    }
  }
  input {
    name: "134"
    type {
      tensor_type {
        elem_type: FLOAT
        shape {
          dim {
            dim_value: 384
          }
        }
      }
    }
  }
  input {
    name: "135"
    type {
      tensor_type {
        elem_type: FLOAT
        shape {
          dim {
            dim_value: 384
          }
        }
      }
    }
  }
  input {
    name: "136"
    type {
      tensor_type {
        elem_type: FLOAT
        shape {
          dim {
            dim_value: 64
          }
          dim {
            dim_value: 288
          }
          dim {
            dim_value: 1
          }
          dim {
            dim_value: 1
          }
        }
      }
    }
  }
  input {
    name: "137"
    type {
      tensor_type {
        elem_type: FLOAT
        shape {
          dim {
            dim_value: 64
          }
        }
      }
    }
  }
  input {
    name: "138"
    type {
      tensor_type {
        elem_type: FLOAT
        shape {
          dim {
            dim_value: 64
          }
        }
      }
    }
  }
  input {
    name: "139"
    type {
      tensor_type {
        elem_type: FLOAT
        shape {
          dim {
            dim_value: 64
          }
        }
      }
    }
  }
  input {
    name: "140"
    type {
      tensor_type {
        elem_type: FLOAT
        shape {
          dim {
            dim_value: 64
          }
        }
      }
    }
  }
  input {
    name: "141"
    type {
      tensor_type {
        elem_type: FLOAT
        shape {
          dim {
            dim_value: 96
          }
          dim {
            dim_value: 64
          }
          dim {
            dim_value: 3
          }
          dim {
            dim_value: 3
          }
        }
      }
    }
  }
  input {
    name: "142"
    type {
      tensor_type {
        elem_type: FLOAT
        shape {
          dim {
            dim_value: 96
          }
        }
      }
    }
  }
  input {
    name: "143"
    type {
      tensor_type {
        elem_type: FLOAT
        shape {
          dim {
            dim_value: 96
          }
        }
      }
    }
  }
  input {
    name: "144"
    type {
      tensor_type {
        elem_type: FLOAT
        shape {
          dim {
            dim_value: 96
          }
        }
      }
    }
  }
  input {
    name: "145"
    type {
      tensor_type {
        elem_type: FLOAT
        shape {
          dim {
            dim_value: 96
          }
        }
      }
    }
  }
  input {
    name: "146"
    type {
      tensor_type {
        elem_type: FLOAT
        shape {
          dim {
            dim_value: 96
          }
          dim {
            dim_value: 96
          }
          dim {
            dim_value: 3
          }
          dim {
            dim_value: 3
          }
        }
      }
    }
  }
  input {
    name: "147"
    type {
      tensor_type {
        elem_type: FLOAT
        shape {
          dim {
            dim_value: 96
          }
        }
      }
    }
  }
  input {
    name: "148"
    type {
      tensor_type {
        elem_type: FLOAT
        shape {
          dim {
            dim_value: 96
          }
        }
      }
    }
  }
  input {
    name: "149"
    type {
      tensor_type {
        elem_type: FLOAT
        shape {
          dim {
            dim_value: 96
          }
        }
      }
    }
  }
  input {
    name: "150"
    type {
      tensor_type {
        elem_type: FLOAT
        shape {
          dim {
            dim_value: 96
          }
        }
      }
    }
  }
  input {
    name: "151"
    type {
      tensor_type {
        elem_type: FLOAT
        shape {
          dim {
            dim_value: 192
          }
          dim {
            dim_value: 768
          }
          dim {
            dim_value: 1
          }
          dim {
            dim_value: 1
          }
        }
      }
    }
  }
  input {
    name: "152"
    type {
      tensor_type {
        elem_type: FLOAT
        shape {
          dim {
            dim_value: 192
          }
        }
      }
    }
  }
  input {
    name: "153"
    type {
      tensor_type {
        elem_type: FLOAT
        shape {
          dim {
            dim_value: 192
          }
        }
      }
    }
  }
  input {
    name: "154"
    type {
      tensor_type {
        elem_type: FLOAT
        shape {
          dim {
            dim_value: 192
          }
        }
      }
    }
  }
  input {
    name: "155"
    type {
      tensor_type {
        elem_type: FLOAT
        shape {
          dim {
            dim_value: 192
          }
        }
      }
    }
  }
  input {
    name: "156"
    type {
      tensor_type {
        elem_type: FLOAT
        shape {
          dim {
            dim_value: 128
          }
          dim {
            dim_value: 768
          }
          dim {
            dim_value: 1
          }
          dim {
            dim_value: 1
          }
        }
      }
    }
  }
  input {
    name: "157"
    type {
      tensor_type {
        elem_type: FLOAT
…
            dim_value: 192
          }
          dim {
            dim_value: 768
          }
          dim {
            dim_value: 1
          }
          dim {
            dim_value: 1
          }
        }
      }
    }
  }
  input {
    name: "252"
    type {
      tensor_type {
        elem_type: FLOAT
        shape {
          dim {
            dim_value: 192
          }
        }
      }
    }
  }
  input {
    name: "253"
    type {
      tensor_type {
        elem_type: FLOAT
        shape {
          dim {
            dim_value: 192
          }
        }
      }
    }
  }
  input {
    name: "254"
    type {
      tensor_type {
        elem_type: FLOAT
        shape {
          dim {
            dim_value: 192
          }
        }
      }
    }
  }
  input {
    name: "255"
    type {
      tensor_type {
        elem_type: FLOAT
        shape {
          dim {
            dim_value: 192
          }
        }
      }
    }
  }
  input {
    name: "256"
    type {
      tensor_type {
        elem_type: FLOAT
        shape {
          dim {
            dim_value: 160
          }
          dim {
            dim_value: 768
          }
          dim {
            dim_value: 1
          }
          dim {
            dim_value: 1
          }
        }
      }
    }
  }
  input {
    name: "257"
    type {
      tensor_type {
        elem_type: FLOAT
        shape {
          dim {
            dim_value: 160
          }
        }
      }
    }
  }
  input {
    name: "258"
    type {
      tensor_type {
        elem_type: FLOAT
        shape {
          dim {
            dim_value: 160
          }
        }
      }
    }
  }
  input {
    name: "259"
    type {
      tensor_type {
        elem_type: FLOAT
        shape {
          dim {
            dim_value: 160
          }
        }
      }
    }
  }
  input {
    name: "260"
    type {
      tensor_type {
        elem_type: FLOAT
        shape {
          dim {
            dim_value: 160
          }
        }
      }
    }
  }
  input {
    name: "261"
    type {
      tensor_type {
        elem_type: FLOAT
        shape {
          dim {
            dim_value: 160
          }
          dim {
            dim_value: 160
          }
          dim {
            dim_value: 1
          }
          dim {
            dim_value: 7
          }
        }
      }
    }
  }
  input {
    name: "262"
    type {
      tensor_type {
        elem_type: FLOAT
        shape {
          dim {
            dim_value: 160
          }
        }
      }
    }
  }
  input {
    name: "263"
    type {
      tensor_type {
        elem_type: FLOAT
        shape {
          dim {
            dim_value: 160
          }
        }
      }
    }
  }
  input {
    name: "264"
    type {
      tensor_type {
        elem_type: FLOAT
        shape {
          dim {
            dim_value: 160
          }
        }
      }
    }
  }
  input {
    name: "265"
    type {
      tensor_type {
        elem_type: FLOAT
        shape {
          dim {
            dim_value: 160
          }
        }
      }
    }
  }
  input {
    name: "266"
    type {
      tensor_type {
        elem_type: FLOAT
        shape {
          dim {
            dim_value: 192
          }
          dim {
            dim_value: 160
          }
          dim {
            dim_value: 7
          }
          dim {
            dim_value: 1
          }
        }
      }
    }
  }
  input {
    name: "267"
    type {
      tensor_type {
        elem_type: FLOAT
        shape {
          dim {
            dim_value: 192
          }
        }
      }
    }
  }
  input {
    name: "268"
    type {
      tensor_type {
        elem_type: FLOAT
        shape {
          dim {
            dim_value: 192
          }
        }
      }
    }
  }
  input {
    name: "269"
    type {
      tensor_type {
        elem_type: FLOAT
        shape {
          dim {
            dim_value: 192
          }
        }
      }
    }
  }
  input {
    name: "270"
    type {
      tensor_type {
        elem_type: FLOAT
        shape {
          dim {
            dim_value: 192
          }
        }
      }
    }
  }
  input {
    name: "271"
    type {
      tensor_type {
        elem_type: FLOAT
        shape {
          dim {
            dim_value: 160
          }
          dim {
            dim_value: 768
          }
          dim {
            dim_value: 1
          }
          dim {
            dim_value: 1
          }
        }
      }
    }
  }
  input {
    name: "272"
    type {
      tensor_type {
        elem_type: FLOAT
        shape {
          dim {
            dim_value: 160
          }
        }
      }
    }
  }
  input {
    name: "273"
    type {
      tensor_type {
        elem_type: FLOAT
        shape {
          dim {
            dim_value: 160
          }
        }
      }
    }
  }
  input {
    name: "274"
    type {
      tensor_type {
        elem_type: FLOAT
        shape {
          dim {
            dim_value: 160
          }
        }
      }
    }
  }
  input {
    name: "275"
    type {
      tensor_type {
        elem_type: FLOAT
        shape {
          dim {
            dim_value: 160
          }
        }
      }
    }
  }
  input {
    name: "276"
    type {
      tensor_type {
        elem_type: FLOAT
        shape {
          dim {
            dim_value: 160
          }
          dim {
            dim_value: 160
          }
          dim {
            dim_value: 7
          }
          dim {
            dim_value: 1
          }
        }
      }
    }
  }
  input {
    name: "277"
    type {
      tensor_type {
        elem_type: FLOAT
        shape {
          dim {
            dim_value: 160
          }
        }
      }
    }
  }
  input {
    name: "278"
    type {
      tensor_type {
        elem_type: FLOAT
        shape {
          dim {
            dim_value: 160
          }
        }
      }
    }
  }
  input {
    name: "279"
    type {
      tensor_type {
        elem_type: FLOAT
        shape {
          dim {
            dim_value: 160
          }
        }
      }
    }
  }
  input {
    name: "280"
    type {
      tensor_type {
        elem_type: FLOAT
        shape {
          dim {
            dim_value: 160
          }
        }
      }
    }
  }
  input {
    name: "281"
    type {
      tensor_type {
        elem_type: FLOAT
        shape {
          dim {
            dim_value: 160
          }
          dim {
            dim_value: 160
          }
          dim {
            dim_value: 1
          }
          dim {
            dim_value: 7
          }
        }
      }
    }
  }
  input {
    name: "282"
    type {
      tensor_type {
        elem_type: FLOAT
        shape {
          dim {
            dim_value: 160
          }
        }
      }
    }
  }
  input {
    name: "283"
    type {
      tensor_type {
        elem_type: FLOAT
        shape {
          dim {
            dim_value: 160
          }
        }
      }
    }
  }
  input {
    name: "284"
    type {
      tensor_type {
        elem_type: FLOAT
        shape {
          dim {
            dim_value: 160
          }
        }
      }
    }
  }
  input {
    name: "285"
    type {
      tensor_type {
        elem_type: FLOAT
        shape {
          dim {
            dim_value: 160
          }
        }
      }
    }
  }
  input {
    name: "286"
    type {
      tensor_type {
        elem_type: FLOAT
        shape {
          dim {
            dim_value: 160
          }
          dim {
            dim_value: 160
          }
          dim {
            dim_value: 7
          }
          dim {
            dim_value: 1
          }
        }
      }
    }
  }
  input {
    name: "287"
    type {
      tensor_type {
        elem_type: FLOAT
        shape {
          dim {
            dim_value: 160
          }
        }
      }
    }
  }
  input {
    name: "288"
    type {
      tensor_type {
        elem_type: FLOAT
        shape {
          dim {
            dim_value: 160
          }
        }
      }
    }
  }
  input {
    name: "289"
    type {
      tensor_type {
        elem_type: FLOAT
        shape {
          dim {
            dim_value: 160
          }
        }
      }
    }
  }
  input {
    name: "290"
    type {
      tensor_type {
        elem_type: FLOAT
        shape {
          dim {
            dim_value: 160
          }
        }
      }
    }
  }
  input {
    name: "291"
    type {
      tensor_type {
        elem_type: FLOAT
        shape {
          dim {
            dim_value: 192
          }
          dim {
            dim_value: 160
          }
          dim {
            dim_value: 1
          }
          dim {
            dim_value: 7
          }
        }
      }
    }
  }
  input {
    name: "292"
    type {
      tensor_type {
        elem_type: FLOAT
        shape {
          dim {
            dim_value: 192
          }
        }
      }
    }
  }
  input {
    name: "293"
    type {
      tensor_type {
        elem_type: FLOAT
        shape {
          dim {
            dim_value: 192
          }
        }
      }
    }
  }
  input {
    name: "294"
    type {
      tensor_type {
        elem_type: FLOAT
        shape {
          dim {
            dim_value: 192
          }
        }
      }
    }
  }
  input {
    name: "295"
    type {
      tensor_type {
        elem_type: FLOAT
        shape {
          dim {
            dim_value: 192
          }
        }
      }
    }
  }
  input {
    name: "296"
    type {
      tensor_type {
        elem_type: FLOAT
        shape {
          dim {
            dim_value: 192
          }
          dim {
            dim_value: 768
          }
          dim {
            dim_value: 1
          }
          dim {
            dim_value: 1
          }
        }
      }
    }
  }
  input {
    name: "297"
    type {
      tensor_type {
        elem_type: FLOAT
        shape {
          dim {
            dim_value: 192
          }
        }
      }
    }
  }
  input {
    name: "298"
    type {
      tensor_type {
        elem_type: FLOAT
        shape {
          dim {
            dim_value: 192
          }
        }
      }
    }
  }
  input {
    name: "299"
    type {
      tensor_type {
        elem_type: FLOAT
        shape {
          dim {
            dim_value: 192
          }
        }
      }
    }
  }
  input {
    name: "300"
    type {
      tensor_type {
        elem_type: FLOAT
        shape {
          dim {
            dim_value: 192
          }
        }
      }
    }
  }
  input {
    name: "301"
    type {
      tensor_type {
        elem_type: FLOAT
        shape {
          dim {
            dim_value: 192
          }
          dim {
            dim_value: 768
          }
          dim {
            dim_value: 1
          }
          dim {
            dim_value: 1
          }
        }
      }
    }
  }
  input {
    name: "302"
    type {
      tensor_type {
        elem_type: FLOAT
        shape {
          dim {
            dim_value: 192
          }
        }
      }
    }
  }
  input {
    name: "303"
    type {
      tensor_type {
        elem_type: FLOAT
        shape {
          dim {
            dim_value: 192
          }
        }
      }
    }
  }
  input {
    name: "304"
    type {
      tensor_type {
        elem_type: FLOAT
        shape {
          dim {
            dim_value: 192
          }
        }
      }
    }
  }
  input {
    name: "305"
    type {
      tensor_type {
        elem_type: FLOAT
        shape {
          dim {
            dim_value: 192
          }
        }
      }
    }
  }
  input {
    name: "306"
    type {
      tensor_type {
        elem_type: FLOAT
        shape {
          dim {
            dim_value: 192
          }
          dim {
            dim_value: 768
          }
          dim {
            dim_value: 1
          }
          dim {
            dim_value: 1
          }
        }
      }
    }
  }
  input {
    name: "307"
    type {
      tensor_type {
        elem_type: FLOAT
        shape {
          dim {
            dim_value: 192
          }
        }
      }
    }
  }
  input {
    name: "308"
    type {
      tensor_type {
        elem_type: FLOAT
        shape {
          dim {
            dim_value: 192
          }
        }
      }
    }
  }
  input {
    name: "309"
    type {
      tensor_type {
        elem_type: FLOAT
        shape {
          dim {
            dim_value: 192
          }
        }
      }
    }
  }
  input {
    name: "310"
    type {
      tensor_type {
        elem_type: FLOAT
        shape {
          dim {
            dim_value: 192
          }
        }
      }
    }
  }
  input {
    name: "311"
    type {
      tensor_type {
        elem_type: FLOAT
        shape {
          dim {
            dim_value: 192
          }
          dim {
            dim_value: 192
          }
          dim {
            dim_value: 1
          }
          dim {
            dim_value: 7
          }
        }
      }
    }
  }
  input {
    name: "312"
    type {
      tensor_type {
        elem_type: FLOAT
        shape {
          dim {
            dim_value: 192
          }
        }
      }
    }
  }
  input {
    name: "313"
    type {
      tensor_type {
        elem_type: FLOAT
        shape {
          dim {
            dim_value: 192
          }
        }
      }
    }
  }
  input {
    name: "314"
    type {
      tensor_type {
        elem_type: FLOAT
        shape {
          dim {
            dim_value: 192
          }
        }
      }
    }
  }
  input {
    name: "315"
    type {
      tensor_type {
        elem_type: FLOAT
        shape {
          dim {
            dim_value: 192
          }
        }
      }
    }
  }
  input {
    name: "316"
    type {
      tensor_type {
        elem_type: FLOAT
        shape {
          dim {
            dim_value: 192
          }
          dim {
            dim_value: 192
          }
          dim {
            dim_value: 7
          }
          dim {
            dim_value: 1
          }
        }
      }
    }
  }
  input {
    name: "317"
    type {
      tensor_type {
        elem_type: FLOAT
        shape {
          dim {
            dim_value: 192
          }
        }
      }
    }
  }
  input {
    name: "318"
    type {
      tensor_type {
        elem_type: FLOAT
        shape {
          dim {
            dim_value: 192
          }
        }
      }
    }
  }
  input {
    name: "319"
    type {
      tensor_type {
        elem_type: FLOAT
        shape {
          dim {
            dim_value: 192
          }
        }
      }
    }
  }
  input {
    name: "320"
    type {
      tensor_type {
        elem_type: FLOAT
        shape {
          dim {
            dim_value: 192
          }
        }
      }
    }
  }
  input {
    name: "321"
    type {
      tensor_type {
        elem_type: FLOAT
        shape {
          dim {
            dim_value: 192
          }
          dim {
            dim_value: 768
          }
          dim {
            dim_value: 1
          }
          dim {
            dim_value: 1
          }
        }
      }
    }
  }
  input {
    name: "322"
    type {
      tensor_type {
        elem_type: FLOAT
        shape {
          dim {
            dim_value: 192
          }
        }
      }
    }
  }
  input {
    name: "323"
    type {
      tensor_type {
        elem_type: FLOAT
        shape {
          dim {
            dim_value: 192
          }
        }
      }
    }
  }
  input {
    name: "324"
    type {
      tensor_type {
        elem_type: FLOAT
        shape {
          dim {
            dim_value: 192
          }
        }
      }
    }
  }
  input {
    name: "325"
    type {
      tensor_type {
        elem_type: FLOAT
        shape {
          dim {
            dim_value: 192
          }
        }
      }
    }
  }
  input {
    name: "326"
    type {
      tensor_type {
        elem_type: FLOAT
        shape {
          dim {
            dim_value: 192
          }
          dim {
            dim_value: 192
          }
          dim {
            dim_value: 7
          }
          dim {
            dim_value: 1
          }
        }
      }
    }
  }
  input {
    name: "327"
    type {
      tensor_type {
        elem_type: FLOAT
        shape {
          dim {
            dim_value: 192
          }
        }
      }
    }
  }
  input {
    name: "328"
    type {
      tensor_type {
        elem_type: FLOAT
        shape {
          dim {
            dim_value: 192
          }
        }
      }
    }
  }
  input {
    name: "329"
    type {
      tensor_type {
        elem_type: FLOAT
        shape {
          dim {
            dim_value: 192
          }
        }
      }
    }
  }
  input {
    name: "330"
    type {
      tensor_type {
        elem_type: FLOAT
        shape {
          dim {
            dim_value: 192
          }
        }
      }
    }
  }
  input {
    name: "331"
    type {
      tensor_type {
        elem_type: FLOAT
        shape {
          dim {
            dim_value: 192
          }
          dim {
            dim_value: 192
          }
          dim {
            dim_value: 1
          }
          dim {
            dim_value: 7
          }
        }
      }
    }
  }
  input {
    name: "332"
    type {
      tensor_type {
        elem_type: FLOAT
        shape {
          dim {
            dim_value: 192
          }
        }
      }
    }
  }
  input {
    name: "333"
    type {
      tensor_type {
        elem_type: FLOAT
        shape {
          dim {
            dim_value: 192
          }
        }
      }
    }
  }
  input {
    name: "334"
    type {
      tensor_type {
        elem_type: FLOAT
        shape {
          dim {
            dim_value: 192
          }
        }
      }
    }
  }
  input {
    name: "335"
    type {
      tensor_type {
        elem_type: FLOAT
        shape {
          dim {
            dim_value: 192
          }
        }
      }
    }
  }
  input {
    name: "336"
    type {
      tensor_type {
        elem_type: FLOAT
        shape {
          dim {
            dim_value: 192
          }
          dim {
            dim_value: 192
          }
          dim {
            dim_value: 7
          }
          dim {
            dim_value: 1
          }
        }
      }
    }
  }
  input {
    name: "337"
    type {
      tensor_type {
        elem_type: FLOAT
        shape {
          dim {
            dim_value: 192
          }
        }
      }
    }
  }
  input {
    name: "338"
    type {
      tensor_type {
        elem_type: FLOAT
        shape {
          dim {
            dim_value: 192
          }
        }
      }
    }
  }
  input {
    name: "339"
    type {
      tensor_type {
        elem_type: FLOAT
        shape {
          dim {
            dim_value: 192
          }
        }
      }
    }
  }
  input {
    name: "340"
    type {
      tensor_type {
        elem_type: FLOAT
        shape {
          dim {
            dim_value: 192
          }
        }
      }
    }
  }
  input {
    name: "341"
    type {
      tensor_type {
        elem_type: FLOAT
        shape {
          dim {
            dim_value: 192
          }
          dim {
            dim_value: 192
          }
          dim {
            dim_value: 1
          }
          dim {
            dim_value: 7
          }
        }
      }
    }
  }
  input {
    name: "342"
    type {
      tensor_type {
        elem_type: FLOAT
        shape {
          dim {
            dim_value: 192
          }
        }
      }
    }
  }
  input {
    name: "343"
    type {
      tensor_type {
        elem_type: FLOAT
        shape {
          dim {
            dim_value: 192
          }
        }
      }
    }
  }
  input {
    name: "344"
    type {
      tensor_type {
        elem_type: FLOAT
        shape {
          dim {
            dim_value: 192
          }
        }
      }
    }
  }
  input {
    name: "345"
    type {
      tensor_type {
        elem_type: FLOAT
        shape {
          dim {
            dim_value: 192
          }
        }
      }
    }
  }
  input {
    name: "346"
    type {
      tensor_type {
        elem_type: FLOAT
        shape {
          dim {
            dim_value: 192
          }
          dim {
            dim_value: 768
          }
          dim {
            dim_value: 1
          }
          dim {
            dim_value: 1
          }
        }
      }
    }
  }
  input {
    name: "347"
    type {
      tensor_type {
        elem_type: FLOAT
        shape {
          dim {
            dim_value: 192
          }
        }
      }
    }
  }
  input {
    name: "348"
    type {
      tensor_type {
        elem_type: FLOAT
        shape {
          dim {
            dim_value: 192
          }
        }
      }
    }
  }
  input {
    name: "349"
    type {
      tensor_type {
        elem_type: FLOAT
        shape {
          dim {
            dim_value: 192
          }
        }
      }
    }
  }
  input {
    name: "350"
    type {
      tensor_type {
        elem_type: FLOAT
        shape {
          dim {
            dim_value: 192
          }
        }
      }
    }
  }
  input {
    name: "351"
    type {
      tensor_type {
        elem_type: FLOAT
        shape {
          dim {
            dim_value: 128
          }
          dim {
            dim_value: 768
          }
          dim {
            dim_value: 1
          }
          dim {
            dim_value: 1
          }
        }
      }
    }
  }
  input {
    name: "352"
    type {
      tensor_type {
        elem_type: FLOAT
        shape {
          dim {
            dim_value: 128
          }
        }
      }
    }
  }
  input {
    name: "353"
    type {
      tensor_type {
        elem_type: FLOAT
        shape {
          dim {
            dim_value: 128
          }
        }
      }
    }
  }
  input {
    name: "354"
    type {
      tensor_type {
        elem_type: FLOAT
        shape {
          dim {
            dim_value: 128
          }
        }
      }
    }
  }
  input {
    name: "355"
    type {
      tensor_type {
        elem_type: FLOAT
        shape {
          dim {
            dim_value: 128
          }
        }
      }
    }
  }
  input {
    name: "356"
    type {
      tensor_type {
        elem_type: FLOAT
        shape {
          dim {
            dim_value: 768
          }
          dim {
            dim_value: 128
          }
          dim {
            dim_value: 5
          }
          dim {
            dim_value: 5
          }
        }
      }
    }
  }
  input {
    name: "357"
    type {
      tensor_type {
        elem_type: FLOAT
        shape {
          dim {
            dim_value: 768
          }
        }
      }
    }
  }
  input {
    name: "358"
    type {
      tensor_type {
        elem_type: FLOAT
        shape {
          dim {
            dim_value: 768
          }
        }
      }
    }
  }
  input {
    name: "359"
    type {
      tensor_type {
        elem_type: FLOAT
        shape {
          dim {
            dim_value: 768
          }
        }
      }
    }
  }
  input {
    name: "360"
    type {
      tensor_type {
        elem_type: FLOAT
        shape {
          dim {
            dim_value: 768
          }
        }
      }
    }
  }
  input {
    name: "361"
    type {
      tensor_type {
        elem_type: FLOAT
        shape {
          dim {
            dim_value: 1000
          }
          dim {
            dim_value: 768
          }
        }
      }
    }
  }
  input {
    name: "362"
    type {
      tensor_type {
        elem_type: FLOAT
        shape {
          dim {
            dim_value: 1000
          }
        }
      }
    }
  }
  input {
    name: "363"
    type {
      tensor_type {
        elem_type: FLOAT
        shape {
          dim {
            dim_value: 192
          }
          dim {
            dim_value: 768
          }
          dim {
            dim_value: 1
          }
          dim {
            dim_value: 1
          }
        }
      }
    }
  }
  input {
    name: "364"
    type {
      tensor_type {
        elem_type: FLOAT
        shape {
          dim {
            dim_value: 192
          }
        }
      }
    }
  }
  input {
    name: "365"
    type {
      tensor_type {
        elem_type: FLOAT
        shape {
          dim {
            dim_value: 192
          }
        }
      }
    }
  }
  input {
    name: "366"
    type {
      tensor_type {
        elem_type: FLOAT
        shape {
          dim {
            dim_value: 192
          }
        }
      }
    }
  }
  input {
    name: "367"
    type {
      tensor_type {
        elem_type: FLOAT
        shape {
          dim {
            dim_value: 192
          }
        }
      }
    }
  }
  input {
    name: "368"
    type {
      tensor_type {
        elem_type: FLOAT
        shape {
          dim {
            dim_value: 320
          }
          dim {
            dim_value: 192
          }
          dim {
            dim_value: 3
          }
          dim {
            dim_value: 3
          }
        }
      }
    }
  }
  input {
    name: "369"
    type {
      tensor_type {
        elem_type: FLOAT
        shape {
          dim {
            dim_value: 320
          }
        }
      }
    }
  }
  input {
    name: "370"
    type {
      tensor_type {
        elem_type: FLOAT
        shape {
          dim {
            dim_value: 320
          }
        }
      }
    }
  }
  input {
    name: "371"
    type {
      tensor_type {
        elem_type: FLOAT
        shape {
          dim {
            dim_value: 320
          }
        }
      }
    }
  }
  input {
    name: "372"
    type {
      tensor_type {
        elem_type: FLOAT
        shape {
          dim {
            dim_value: 320
          }
        }
      }
    }
  }
  input {
    name: "373"
    type {
      tensor_type {
        elem_type: FLOAT
        shape {
          dim {
            dim_value: 192
          }
          dim {
            dim_value: 768
          }
          dim {
            dim_value: 1
          }
          dim {
            dim_value: 1
          }
        }
      }
    }
  }
  input {
    name: "374"
    type {
      tensor_type {
        elem_type: FLOAT
        shape {
          dim {
            dim_value: 192
          }
        }
      }
    }
  }
  input {
    name: "375"
    type {
      tensor_type {
        elem_type: FLOAT
        shape {
          dim {
            dim_value: 192
          }
        }
      }
    }
  }
  input {
    name: "376"
    type {
      tensor_type {
        elem_type: FLOAT
        shape {
          dim {
            dim_value: 192
          }
        }
      }
    }
  }
  input {
    name: "377"
    type {
      tensor_type {
        elem_type: FLOAT
        shape {
          dim {
            dim_value: 192
          }
        }
      }
    }
  }
  input {
    name: "378"
    type {
      tensor_type {
        elem_type: FLOAT
        shape {
          dim {
            dim_value: 192
          }
          dim {
            dim_value: 192
          }
          dim {
            dim_value: 1
          }
          dim {
            dim_value: 7
          }
        }
      }
    }
  }
  input {
    name: "379"
    type {
      tensor_type {
        elem_type: FLOAT
        shape {
          dim {
            dim_value: 192
          }
        }
      }
    }
  }
  input {
    name: "380"
    type {
      tensor_type {
        elem_type: FLOAT
        shape {
          dim {
            dim_value: 192
          }
        }
      }
    }
  }
  input {
    name: "381"
    type {
      tensor_type {
        elem_type: FLOAT
        shape {
          dim {
            dim_value: 192
          }
        }
      }
    }
  }
  input {
    name: "382"
    type {
      tensor_type {
        elem_type: FLOAT
        shape {
          dim {
            dim_value: 192
          }
        }
      }
    }
  }
  input {
    name: "383"
    type {
      tensor_type {
        elem_type: FLOAT
        shape {
          dim {
            dim_value: 192
          }
          dim {
            dim_value: 192
          }
          dim {
            dim_value: 7
          }
          dim {
            dim_value: 1
          }
        }
      }
    }
  }
  input {
    name: "384"
    type {
      tensor_type {
        elem_type: FLOAT
        shape {
          dim {
            dim_value: 192
          }
        }
      }
    }
  }
  input {
    name: "385"
    type {
      tensor_type {
        elem_type: FLOAT
        shape {
          dim {
            dim_value: 192
          }
        }
      }
    }
  }
  input {
    name: "386"
    type {
      tensor_type {
        elem_type: FLOAT
        shape {
          dim {
            dim_value: 192
          }
        }
      }
    }
  }
  input {
    name: "387"
    type {
      tensor_type {
        elem_type: FLOAT
        shape {
          dim {
            dim_value: 192
          }
        }
      }
    }
  }
  input {
    name: "388"
    type {
      tensor_type {
        elem_type: FLOAT
        shape {
          dim {
            dim_value: 192
          }
          dim {
            dim_value: 192
          }
          dim {
            dim_value: 3
          }
          dim {
            dim_value: 3
          }
        }
      }
    }
  }
  input {
    name: "389"
    type {
      tensor_type {
        elem_type: FLOAT
        shape {
          dim {
            dim_value: 192
          }
        }
      }
    }
  }
  input {
    name: "390"
    type {
      tensor_type {
        elem_type: FLOAT
        shape {
          dim {
            dim_value: 192
          }
        }
      }
    }
  }
  input {
    name: "391"
    type {
      tensor_type {
        elem_type: FLOAT
        shape {
          dim {
            dim_value: 192
          }
        }
      }
    }
  }
  input {
    name: "392"
    type {
      tensor_type {
        elem_type: FLOAT
        shape {
          dim {
            dim_value: 192
          }
        }
      }
    }
  }
  input {
    name: "393"
    type {
      tensor_type {
        elem_type: FLOAT
        shape {
          dim {
            dim_value: 320
          }
          dim {
            dim_value: 1280
          }
          dim {
            dim_value: 1
          }
          dim {
            dim_value: 1
          }
        }
      }
    }
  }
  input {
    name: "394"
    type {
      tensor_type {
        elem_type: FLOAT
        shape {
          dim {
            dim_value: 320
          }
        }
      }
    }
  }
  input {
    name: "395"
    type {
      tensor_type {
        elem_type: FLOAT
        shape {
          dim {
            dim_value: 320
          }
        }
      }
    }
  }
  input {
    name: "396"
    type {
      tensor_type {
        elem_type: FLOAT
        shape {
          dim {
            dim_value: 320
          }
        }
      }
    }
  }
  input {
    name: "397"
    type {
      tensor_type {
        elem_type: FLOAT
        shape {
          dim {
            dim_value: 320
          }
        }
      }
    }
  }
  input {
    name: "398"
    type {
      tensor_type {
        elem_type: FLOAT
        shape {
          dim {
            dim_value: 384
          }
          dim {
            dim_value: 1280
          }
          dim {
            dim_value: 1
          }
          dim {
            dim_value: 1
          }
        }
      }
    }
  }
  input {
    name: "399"
    type {
      tensor_type {
        elem_type: FLOAT
        shape {
          dim {
            dim_value: 384
          }
        }
      }
    }
  }
  input {
    name: "400"
    type {
      tensor_type {
        elem_type: FLOAT
        shape {
          dim {
            dim_value: 384
          }
        }
      }
    }
  }
  input {
    name: "401"
    type {
      tensor_type {
        elem_type: FLOAT
        shape {
          dim {
            dim_value: 384
          }
        }
      }
    }
  }
  input {
    name: "402"
    type {
      tensor_type {
        elem_type: FLOAT
        shape {
          dim {
            dim_value: 384
          }
        }
      }
    }
  }
  input {
    name: "403"
    type {
      tensor_type {
        elem_type: FLOAT
        shape {
          dim {
            dim_value: 384
          }
          dim {
            dim_value: 384
          }
          dim {
            dim_value: 1
          }
          dim {
            dim_value: 3
          }
        }
      }
    }
  }
  input {
    name: "404"
    type {
      tensor_type {
        elem_type: FLOAT
        shape {
          dim {
            dim_value: 384
          }
        }
      }
    }
  }
  input {
    name: "405"
    type {
      tensor_type {
        elem_type: FLOAT
        shape {
          dim {
            dim_value: 384
          }
        }
      }
    }
  }
  input {
    name: "406"
    type {
      tensor_type {
        elem_type: FLOAT
        shape {
          dim {
            dim_value: 384
          }
        }
      }
    }
  }
  input {
    name: "407"
    type {
      tensor_type {
        elem_type: FLOAT
        shape {
          dim {
            dim_value: 384
          }
        }
      }
    }
  }
  input {
    name: "408"
    type {
      tensor_type {
        elem_type: FLOAT
        shape {
          dim {
            dim_value: 384
          }
          dim {
            dim_value: 384
          }
          dim {
            dim_value: 3
          }
          dim {
            dim_value: 1
          }
        }
      }
    }
  }
  input {
    name: "409"
    type {
      tensor_type {
        elem_type: FLOAT
        shape {
          dim {
            dim_value: 384
          }
        }
      }
    }
  }
  input {
    name: "410"
    type {
      tensor_type {
        elem_type: FLOAT
        shape {
          dim {
            dim_value: 384
          }
        }
      }
    }
  }
  input {
    name: "411"
    type {
      tensor_type {
        elem_type: FLOAT
        shape {
          dim {
            dim_value: 384
          }
        }
      }
    }
  }
  input {
    name: "412"
    type {
      tensor_type {
        elem_type: FLOAT
        shape {
          dim {
            dim_value: 384
          }
        }
      }
    }
  }
  input {
    name: "413"
    type {
      tensor_type {
        elem_type: FLOAT
        shape {
          dim {
            dim_value: 448
          }
          dim {
            dim_value: 1280
          }
          dim {
            dim_value: 1
          }
          dim {
            dim_value: 1
          }
        }
      }
    }
  }
  input {
    name: "414"
    type {
      tensor_type {
        elem_type: FLOAT
        shape {
          dim {
            dim_value: 448
          }
        }
      }
    }
  }
  input {
    name: "415"
    type {
      tensor_type {
        elem_type: FLOAT
        shape {
          dim {
            dim_value: 448
          }
        }
      }
    }
  }
  input {
    name: "416"
    type {
      tensor_type {
        elem_type: FLOAT
        shape {
          dim {
            dim_value: 448
          }
        }
      }
    }
  }
  input {
    name: "417"
    type {
      tensor_type {
        elem_type: FLOAT
        shape {
          dim {
            dim_value: 448
          }
        }
      }
    }
  }
  input {
    name: "418"
    type {
      tensor_type {
        elem_type: FLOAT
        shape {
          dim {
            dim_value: 384
          }
          dim {
            dim_value: 448
          }
          dim {
            dim_value: 3
          }
          dim {
            dim_value: 3
          }
        }
      }
    }
  }
  input {
    name: "419"
    type {
      tensor_type {
        elem_type: FLOAT
        shape {
          dim {
            dim_value: 384
          }
        }
      }
    }
  }
  input {
    name: "420"
    type {
      tensor_type {
        elem_type: FLOAT
        shape {
          dim {
            dim_value: 384
          }
        }
      }
    }
  }
  input {
    name: "421"
    type {
      tensor_type {
        elem_type: FLOAT
        shape {
          dim {
            dim_value: 384
          }
        }
      }
    }
  }
  input {
    name: "422"
    type {
      tensor_type {
        elem_type: FLOAT
        shape {
          dim {
            dim_value: 384
          }
        }
      }
    }
  }
  input {
    name: "423"
    type {
      tensor_type {
        elem_type: FLOAT
        shape {
          dim {
            dim_value: 384
          }
          dim {
            dim_value: 384
          }
          dim {
            dim_value: 1
          }
          dim {
            dim_value: 3
          }
        }
      }
    }
  }
  input {
    name: "424"
    type {
      tensor_type {
        elem_type: FLOAT
        shape {
          dim {
            dim_value: 384
          }
        }
      }
    }
  }
  input {
    name: "425"
    type {
      tensor_type {
        elem_type: FLOAT
        shape {
          dim {
            dim_value: 384
          }
        }
      }
    }
  }
  input {
    name: "426"
    type {
      tensor_type {
        elem_type: FLOAT
        shape {
          dim {
            dim_value: 384
          }
        }
      }
    }
  }
  input {
    name: "427"
    type {
      tensor_type {
        elem_type: FLOAT
        shape {
          dim {
            dim_value: 384
          }
        }
      }
    }
  }
  input {
    name: "428"
    type {
      tensor_type {
        elem_type: FLOAT
        shape {
          dim {
            dim_value: 384
          }
          dim {
            dim_value: 384
          }
          dim {
            dim_value: 3
          }
          dim {
            dim_value: 1
          }
        }
      }
    }
  }
  input {
    name: "429"
    type {
      tensor_type {
        elem_type: FLOAT
        shape {
          dim {
            dim_value: 384
          }
        }
      }
    }
  }
  input {
    name: "430"
    type {
      tensor_type {
        elem_type: FLOAT
        shape {
          dim {
            dim_value: 384
          }
        }
      }
    }
  }
  input {
    name: "431"
    type {
      tensor_type {
        elem_type: FLOAT
        shape {
          dim {
            dim_value: 384
          }
        }
      }
    }
  }
  input {
    name: "432"
    type {
      tensor_type {
        elem_type: FLOAT
        shape {
          dim {
            dim_value: 384
          }
        }
      }
    }
  }
  input {
    name: "433"
    type {
      tensor_type {
        elem_type: FLOAT
        shape {
          dim {
            dim_value: 192
          }
          dim {
            dim_value: 1280
          }
          dim {
            dim_value: 1
          }
          dim {
            dim_value: 1
          }
        }
      }
    }
  }
  input {
    name: "434"
    type {
      tensor_type {
        elem_type: FLOAT
        shape {
          dim {
            dim_value: 192
          }
        }
      }
    }
  }
  input {
    name: "435"
    type {
      tensor_type {
        elem_type: FLOAT
        shape {
          dim {
            dim_value: 192
          }
        }
      }
    }
  }
  input {
    name: "436"
    type {
      tensor_type {
        elem_type: FLOAT
        shape {
          dim {
            dim_value: 192
          }
        }
      }
    }
  }
  input {
    name: "437"
    type {
      tensor_type {
        elem_type: FLOAT
        shape {
          dim {
            dim_value: 192
          }
        }
      }
    }
  }
  input {
    name: "438"
    type {
      tensor_type {
        elem_type: FLOAT
        shape {
          dim {
            dim_value: 320
          }
          dim {
            dim_value: 2048
          }
          dim {
            dim_value: 1
          }
          dim {
            dim_value: 1
          }
        }
      }
    }
  }
  input {
    name: "439"
    type {
      tensor_type {
        elem_type: FLOAT
        shape {
          dim {
            dim_value: 320
          }
        }
      }
    }
  }
  input {
    name: "440"
    type {
      tensor_type {
        elem_type: FLOAT
        shape {
          dim {
            dim_value: 320
          }
        }
      }
    }
  }
  input {
    name: "441"
    type {
      tensor_type {
        elem_type: FLOAT
        shape {
          dim {
            dim_value: 320
          }
        }
      }
    }
  }
  input {
    name: "442"
    type {
      tensor_type {
        elem_type: FLOAT
        shape {
          dim {
            dim_value: 320
          }
        }
      }
    }
  }
  input {
    name: "443"
    type {
      tensor_type {
        elem_type: FLOAT
        shape {
          dim {
            dim_value: 384
          }
          dim {
            dim_value: 2048
          }
          dim {
            dim_value: 1
          }
          dim {
            dim_value: 1
          }
        }
      }
    }
  }
  input {
    name: "444"
    type {
      tensor_type {
        elem_type: FLOAT
        shape {
          dim {
            dim_value: 384
          }
        }
      }
    }
  }
  input {
    name: "445"
    type {
      tensor_type {
        elem_type: FLOAT
        shape {
          dim {
            dim_value: 384
          }
        }
      }
    }
  }
  input {
    name: "446"
    type {
      tensor_type {
        elem_type: FLOAT
        shape {
          dim {
            dim_value: 384
          }
        }
      }
    }
  }
  input {
    name: "447"
    type {
      tensor_type {
        elem_type: FLOAT
        shape {
          dim {
            dim_value: 384
          }
        }
      }
    }
  }
  input {
    name: "448"
    type {
      tensor_type {
        elem_type: FLOAT
        shape {
          dim {
            dim_value: 384
          }
          dim {
            dim_value: 384
          }
          dim {
            dim_value: 1
          }
          dim {
            dim_value: 3
          }
        }
      }
    }
  }
  input {
    name: "449"
    type {
      tensor_type {
        elem_type: FLOAT
        shape {
          dim {
            dim_value: 384
          }
        }
      }
    }
  }
  input {
    name: "450"
    type {
      tensor_type {
        elem_type: FLOAT
        shape {
          dim {
            dim_value: 384
          }
        }
      }
    }
  }
  input {
    name: "451"
    type {
      tensor_type {
        elem_type: FLOAT
        shape {
          dim {
            dim_value: 384
          }
        }
      }
    }
  }
  input {
    name: "452"
    type {
      tensor_type {
        elem_type: FLOAT
        shape {
          dim {
            dim_value: 384
          }
        }
      }
    }
  }
  input {
    name: "453"
    type {
      tensor_type {
        elem_type: FLOAT
        shape {
          dim {
            dim_value: 384
          }
          dim {
            dim_value: 384
          }
          dim {
            dim_value: 3
          }
          dim {
            dim_value: 1
          }
        }
      }
    }
  }
  input {
    name: "454"
    type {
      tensor_type {
        elem_type: FLOAT
        shape {
          dim {
            dim_value: 384
          }
        }
      }
    }
  }
  input {
    name: "455"
    type {
      tensor_type {
        elem_type: FLOAT
        shape {
          dim {
            dim_value: 384
          }
        }
      }
    }
  }
  input {
    name: "456"
    type {
      tensor_type {
        elem_type: FLOAT
        shape {
          dim {
            dim_value: 384
          }
        }
      }
    }
  }
  input {
    name: "457"
    type {
      tensor_type {
        elem_type: FLOAT
        shape {
          dim {
            dim_value: 384
          }
        }
      }
    }
  }
  input {
    name: "458"
    type {
      tensor_type {
        elem_type: FLOAT
        shape {
          dim {
            dim_value: 448
          }
          dim {
            dim_value: 2048
          }
          dim {
            dim_value: 1
          }
          dim {
            dim_value: 1
          }
        }
      }
    }
  }
  input {
    name: "459"
    type {
      tensor_type {
        elem_type: FLOAT
        shape {
          dim {
            dim_value: 448
          }
        }
      }
    }
  }
  input {
    name: "460"
    type {
      tensor_type {
        elem_type: FLOAT
        shape {
          dim {
            dim_value: 448
          }
        }
      }
    }
  }
  input {
    name: "461"
    type {
      tensor_type {
        elem_type: FLOAT
        shape {
          dim {
            dim_value: 448
          }
        }
      }
    }
  }
  input {
    name: "462"
    type {
      tensor_type {
        elem_type: FLOAT
        shape {
          dim {
            dim_value: 448
          }
        }
      }
    }
  }
  input {
    name: "463"
    type {
      tensor_type {
        elem_type: FLOAT
        shape {
          dim {
            dim_value: 384
          }
          dim {
            dim_value: 448
          }
          dim {
            dim_value: 3
          }
          dim {
            dim_value: 3
          }
        }
      }
    }
  }
  input {
    name: "464"
    type {
      tensor_type {
        elem_type: FLOAT
        shape {
          dim {
            dim_value: 384
          }
        }
      }
    }
  }
  input {
    name: "465"
    type {
      tensor_type {
        elem_type: FLOAT
        shape {
          dim {
            dim_value: 384
          }
        }
      }
    }
  }
  input {
    name: "466"
    type {
      tensor_type {
        elem_type: FLOAT
        shape {
          dim {
            dim_value: 384
          }
        }
      }
    }
  }
  input {
    name: "467"
    type {
      tensor_type {
        elem_type: FLOAT
        shape {
          dim {
            dim_value: 384
          }
        }
      }
    }
  }
  input {
    name: "468"
    type {
      tensor_type {
        elem_type: FLOAT
        shape {
          dim {
            dim_value: 384
          }
          dim {
            dim_value: 384
          }
          dim {
            dim_value: 1
          }
          dim {
            dim_value: 3
          }
        }
      }
    }
  }
  input {
    name: "469"
    type {
      tensor_type {
        elem_type: FLOAT
        shape {
          dim {
            dim_value: 384
          }
        }
      }
    }
  }
  input {
    name: "470"
    type {
      tensor_type {
        elem_type: FLOAT
        shape {
          dim {
            dim_value: 384
          }
        }
      }
    }
  }
  input {
    name: "471"
    type {
      tensor_type {
        elem_type: FLOAT
        shape {
          dim {
            dim_value: 384
          }
        }
      }
    }
  }
  input {
    name: "472"
    type {
      tensor_type {
        elem_type: FLOAT
        shape {
          dim {
            dim_value: 384
          }
        }
      }
    }
  }
  input {
    name: "473"
    type {
      tensor_type {
        elem_type: FLOAT
        shape {
          dim {
            dim_value: 384
          }
          dim {
            dim_value: 384
          }
          dim {
            dim_value: 3
          }
          dim {
            dim_value: 1
          }
        }
      }
    }
  }
  input {
    name: "474"
    type {
      tensor_type {
        elem_type: FLOAT
        shape {
          dim {
            dim_value: 384
          }
        }
      }
    }
  }
  input {
    name: "475"
    type {
      tensor_type {
        elem_type: FLOAT
        shape {
          dim {
            dim_value: 384
          }
        }
      }
    }
  }
  input {
    name: "476"
    type {
      tensor_type {
        elem_type: FLOAT
        shape {
          dim {
            dim_value: 384
          }
        }
      }
    }
  }
  input {
    name: "477"
    type {
      tensor_type {
        elem_type: FLOAT
        shape {
          dim {
            dim_value: 384
          }
        }
      }
    }
  }
  input {
    name: "478"
    type {
      tensor_type {
        elem_type: FLOAT
        shape {
          dim {
            dim_value: 192
          }
          dim {
            dim_value: 2048
          }
          dim {
            dim_value: 1
          }
          dim {
            dim_value: 1
          }
        }
      }
    }
  }
  input {
    name: "479"
    type {
      tensor_type {
        elem_type: FLOAT
        shape {
          dim {
            dim_value: 192
          }
        }
      }
    }
  }
  input {
    name: "480"
    type {
      tensor_type {
        elem_type: FLOAT
        shape {
          dim {
            dim_value: 192
          }
        }
      }
    }
  }
  input {
    name: "481"
    type {
      tensor_type {
        elem_type: FLOAT
        shape {
          dim {
            dim_value: 192
          }
        }
      }
    }
  }
  input {
    name: "482"
    type {
      tensor_type {
        elem_type: FLOAT
        shape {
          dim {
            dim_value: 192
          }
        }
      }
    }
  }
  input {
    name: "483"
    type {
      tensor_type {
        elem_type: FLOAT
        shape {
          dim {
            dim_value: 1000
          }
          dim {
            dim_value: 2048
          }
        }
      }
    }
  }
  input {
    name: "484"
    type {
      tensor_type {
        elem_type: FLOAT
        shape {
          dim {
            dim_value: 1000
          }
        }
      }
    }
  }
  output {
    name: "895"
    type {
      tensor_type {
        elem_type: FLOAT
        shape {
          dim {
            dim_value: 2
          }
          dim {
            dim_value: 1000
          }
        }
      }
    }
  }
}
