ir_version: 1
producer_name: "pytorch"
producer_version: "0.2"
domain: "com.facebook"
graph {
  node {
    input: "0"
    input: "1"
    output: "269"
    op_type: "Conv"
    attribute {
      name: "kernel_shape"
      ints: 7
      ints: 7
      type: INTS
    }
    attribute {
      name: "strides"
      ints: 2
      ints: 2
      type: INTS
    }
    attribute {
      name: "pads"
      ints: 3
      ints: 3
      ints: 3
      ints: 3
      type: INTS
    }
    attribute {
      name: "dilations"
      ints: 1
      ints: 1
      type: INTS
    }
    attribute {
      name: "group"
      i: 1
      type: INT
    }
  }
  node {
    input: "269"
    input: "2"
    input: "3"
    input: "4"
    input: "5"
    output: "270"
    op_type: "BatchNormalization"
    attribute {
      name: "is_test"
      i: 1
      type: INT
    }
    attribute {
      name: "epsilon"
      f: 9.99999974737875e-06
      type: FLOAT
    }
    attribute {
      name: "momentum"
      f: 0.899999976158142
      type: FLOAT
    }
    attribute {
      name: "consumed_inputs"
      ints: 0
      ints: 0
      ints: 0
      ints: 1
      ints: 1
      type: INTS
    }
  }
  node {
    input: "270"
    output: "271"
    op_type: "Relu"
  }
  node {
    input: "271"
    output: "272"
    op_type: "MaxPool"
    attribute {
      name: "kernel_shape"
      ints: 3
      ints: 3
      type: INTS
    }
    attribute {
      name: "pads"
      ints: 1
      ints: 1
      type: INTS
    }
    attribute {
      name: "strides"
      ints: 2
      ints: 2
      type: INTS
    }
  }
  node {
    input: "272"
    input: "6"
    output: "274"
    op_type: "Conv"
    attribute {
      name: "kernel_shape"
      ints: 1
      ints: 1
      type: INTS
    }
    attribute {
      name: "strides"
      ints: 1
      ints: 1
      type: INTS
    }
    attribute {
      name: "pads"
      ints: 0
      ints: 0
      ints: 0
      ints: 0
      type: INTS
    }
    attribute {
      name: "dilations"
      ints: 1
      ints: 1
      type: INTS
    }
    attribute {
      name: "group"
      i: 1
      type: INT
    }
  }
  node {
    input: "274"
    input: "7"
    input: "8"
    input: "9"
    input: "10"
    output: "275"
    op_type: "BatchNormalization"
    attribute {
      name: "is_test"
      i: 1
      type: INT
    }
    attribute {
      name: "epsilon"
      f: 9.99999974737875e-06
      type: FLOAT
    }
    attribute {
      name: "momentum"
      f: 0.899999976158142
      type: FLOAT
    }
    attribute {
      name: "consumed_inputs"
      ints: 0
      ints: 0
      ints: 0
      ints: 1
      ints: 1
      type: INTS
    }
  }
  node {
    input: "275"
    output: "276"
    op_type: "Relu"
  }
  node {
    input: "276"
    input: "11"
    output: "278"
    op_type: "Conv"
    attribute {
      name: "kernel_shape"
      ints: 3
      ints: 3
      type: INTS
    }
    attribute {
      name: "strides"
      ints: 1
      ints: 1
      type: INTS
    }
    attribute {
      name: "pads"
      ints: 1
      ints: 1
      ints: 1
      ints: 1
      type: INTS
    }
    attribute {
      name: "dilations"
      ints: 1
      ints: 1
      type: INTS
    }
    attribute {
      name: "group"
      i: 1
      type: INT
    }
  }
  node {
    input: "278"
    input: "12"
    input: "13"
    input: "14"
    input: "15"
    output: "279"
    op_type: "BatchNormalization"
    attribute {
      name: "is_test"
      i: 1
      type: INT
    }
    attribute {
      name: "epsilon"
      f: 9.99999974737875e-06
      type: FLOAT
    }
    attribute {
      name: "momentum"
      f: 0.899999976158142
      type: FLOAT
    }
    attribute {
      name: "consumed_inputs"
      ints: 0
      ints: 0
      ints: 0
      ints: 1
      ints: 1
      type: INTS
    }
  }
  node {
    input: "279"
    output: "280"
    op_type: "Relu"
  }
  node {
    input: "280"
    input: "16"
    output: "282"
    op_type: "Conv"
    attribute {
      name: "kernel_shape"
      ints: 1
      ints: 1
      type: INTS
    }
    attribute {
      name: "strides"
      ints: 1
      ints: 1
      type: INTS
    }
    attribute {
      name: "pads"
      ints: 0
      ints: 0
      ints: 0
      ints: 0
      type: INTS
    }
    attribute {
      name: "dilations"
      ints: 1
      ints: 1
      type: INTS
    }
    attribute {
      name: "group"
      i: 1
      type: INT
    }
  }
  node {
    input: "282"
    input: "17"
    input: "18"
    input: "19"
    input: "20"
    output: "283"
    op_type: "BatchNormalization"
    attribute {
      name: "is_test"
      i: 1
      type: INT
    }
    attribute {
      name: "epsilon"
      f: 9.99999974737875e-06
      type: FLOAT
    }
    attribute {
      name: "momentum"
      f: 0.899999976158142
      type: FLOAT
    }
    attribute {
      name: "consumed_inputs"
      ints: 0
      ints: 0
      ints: 0
      ints: 1
      ints: 1
      type: INTS
    }
  }
  node {
    input: "272"
    input: "21"
    output: "285"
    op_type: "Conv"
    attribute {
      name: "kernel_shape"
      ints: 1
      ints: 1
      type: INTS
    }
    attribute {
      name: "strides"
      ints: 1
      ints: 1
      type: INTS
    }
    attribute {
      name: "pads"
      ints: 0
      ints: 0
      ints: 0
      ints: 0
      type: INTS
    }
    attribute {
      name: "dilations"
      ints: 1
      ints: 1
      type: INTS
    }
    attribute {
      name: "group"
      i: 1
      type: INT
    }
  }
  node {
    input: "285"
    input: "22"
    input: "23"
    input: "24"
    input: "25"
    output: "286"
    op_type: "BatchNormalization"
    attribute {
      name: "is_test"
      i: 1
      type: INT
    }
    attribute {
      name: "epsilon"
      f: 9.99999974737875e-06
      type: FLOAT
    }
    attribute {
      name: "momentum"
      f: 0.899999976158142
      type: FLOAT
    }
    attribute {
      name: "consumed_inputs"
      ints: 0
      ints: 0
      ints: 0
      ints: 1
      ints: 1
      type: INTS
    }
  }
  node {
    input: "283"
    input: "286"
    output: "287"
    op_type: "Add"
  }
  node {
    input: "287"
    output: "288"
    op_type: "Relu"
  }
  node {
    input: "288"
    input: "26"
    output: "290"
    op_type: "Conv"
    attribute {
      name: "kernel_shape"
      ints: 1
      ints: 1
      type: INTS
    }
    attribute {
      name: "strides"
      ints: 1
      ints: 1
      type: INTS
    }
    attribute {
      name: "pads"
      ints: 0
      ints: 0
      ints: 0
      ints: 0
      type: INTS
    }
    attribute {
      name: "dilations"
      ints: 1
      ints: 1
      type: INTS
    }
    attribute {
      name: "group"
      i: 1
      type: INT
    }
  }
  node {
    input: "290"
    input: "27"
    input: "28"
    input: "29"
    input: "30"
    output: "291"
    op_type: "BatchNormalization"
    attribute {
      name: "is_test"
      i: 1
      type: INT
    }
    attribute {
      name: "epsilon"
      f: 9.99999974737875e-06
      type: FLOAT
    }
    attribute {
      name: "momentum"
      f: 0.899999976158142
      type: FLOAT
    }
    attribute {
      name: "consumed_inputs"
      ints: 0
      ints: 0
      ints: 0
      ints: 1
      ints: 1
      type: INTS
    }
  }
  node {
    input: "291"
    output: "292"
    op_type: "Relu"
  }
  node {
    input: "292"
    input: "31"
    output: "294"
    op_type: "Conv"
    attribute {
      name: "kernel_shape"
      ints: 3
      ints: 3
      type: INTS
    }
    attribute {
      name: "strides"
      ints: 1
      ints: 1
      type: INTS
    }
    attribute {
      name: "pads"
      ints: 1
      ints: 1
      ints: 1
      ints: 1
      type: INTS
    }
    attribute {
      name: "dilations"
      ints: 1
      ints: 1
      type: INTS
    }
    attribute {
      name: "group"
      i: 1
      type: INT
    }
  }
  node {
    input: "294"
    input: "32"
    input: "33"
    input: "34"
    input: "35"
    output: "295"
    op_type: "BatchNormalization"
    attribute {
      name: "is_test"
      i: 1
      type: INT
    }
    attribute {
      name: "epsilon"
      f: 9.99999974737875e-06
      type: FLOAT
    }
    attribute {
      name: "momentum"
      f: 0.899999976158142
      type: FLOAT
    }
    attribute {
      name: "consumed_inputs"
      ints: 0
      ints: 0
      ints: 0
      ints: 1
      ints: 1
      type: INTS
    }
  }
  node {
    input: "295"
    output: "296"
    op_type: "Relu"
  }
  node {
    input: "296"
    input: "36"
    output: "298"
    op_type: "Conv"
    attribute {
      name: "kernel_shape"
      ints: 1
      ints: 1
      type: INTS
    }
    attribute {
      name: "strides"
      ints: 1
      ints: 1
      type: INTS
    }
    attribute {
      name: "pads"
      ints: 0
      ints: 0
      ints: 0
      ints: 0
      type: INTS
    }
    attribute {
      name: "dilations"
      ints: 1
      ints: 1
      type: INTS
    }
    attribute {
      name: "group"
      i: 1
      type: INT
    }
  }
  node {
    input: "298"
    input: "37"
    input: "38"
    input: "39"
    input: "40"
    output: "299"
    op_type: "BatchNormalization"
    attribute {
      name: "is_test"
      i: 1
      type: INT
    }
    attribute {
      name: "epsilon"
      f: 9.99999974737875e-06
      type: FLOAT
    }
    attribute {
      name: "momentum"
      f: 0.899999976158142
      type: FLOAT
    }
    attribute {
      name: "consumed_inputs"
      ints: 0
      ints: 0
      ints: 0
      ints: 1
      ints: 1
      type: INTS
    }
  }
  node {
    input: "299"
    input: "288"
    output: "300"
    op_type: "Add"
  }
  node {
    input: "300"
    output: "301"
    op_type: "Relu"
  }
  node {
    input: "301"
    input: "41"
    output: "303"
    op_type: "Conv"
    attribute {
      name: "kernel_shape"
      ints: 1
      ints: 1
      type: INTS
    }
    attribute {
      name: "strides"
      ints: 1
      ints: 1
      type: INTS
    }
    attribute {
      name: "pads"
      ints: 0
      ints: 0
      ints: 0
      ints: 0
      type: INTS
    }
    attribute {
      name: "dilations"
      ints: 1
      ints: 1
      type: INTS
    }
    attribute {
      name: "group"
      i: 1
      type: INT
    }
  }
  node {
    input: "303"
    input: "42"
    input: "43"
    input: "44"
    input: "45"
    output: "304"
    op_type: "BatchNormalization"
    attribute {
      name: "is_test"
      i: 1
      type: INT
    }
    attribute {
      name: "epsilon"
      f: 9.99999974737875e-06
      type: FLOAT
    }
    attribute {
      name: "momentum"
      f: 0.899999976158142
      type: FLOAT
    }
    attribute {
      name: "consumed_inputs"
      ints: 0
      ints: 0
      ints: 0
      ints: 1
      ints: 1
      type: INTS
    }
  }
  node {
    input: "304"
    output: "305"
    op_type: "Relu"
  }
  node {
    input: "305"
    input: "46"
    output: "307"
    op_type: "Conv"
    attribute {
      name: "kernel_shape"
      ints: 3
      ints: 3
      type: INTS
    }
    attribute {
      name: "strides"
      ints: 1
      ints: 1
      type: INTS
    }
    attribute {
      name: "pads"
      ints: 1
      ints: 1
      ints: 1
      ints: 1
      type: INTS
    }
    attribute {
      name: "dilations"
      ints: 1
      ints: 1
      type: INTS
    }
    attribute {
      name: "group"
      i: 1
      type: INT
    }
  }
  node {
    input: "307"
    input: "47"
    input: "48"
    input: "49"
    input: "50"
    output: "308"
    op_type: "BatchNormalization"
    attribute {
      name: "is_test"
      i: 1
      type: INT
    }
    attribute {
      name: "epsilon"
      f: 9.99999974737875e-06
      type: FLOAT
    }
    attribute {
      name: "momentum"
      f: 0.899999976158142
      type: FLOAT
    }
    attribute {
      name: "consumed_inputs"
      ints: 0
      ints: 0
      ints: 0
      ints: 1
      ints: 1
      type: INTS
    }
  }
  node {
    input: "308"
    output: "309"
    op_type: "Relu"
  }
  node {
    input: "309"
    input: "51"
    output: "311"
    op_type: "Conv"
    attribute {
      name: "kernel_shape"
      ints: 1
      ints: 1
      type: INTS
    }
    attribute {
      name: "strides"
      ints: 1
      ints: 1
      type: INTS
    }
    attribute {
      name: "pads"
      ints: 0
      ints: 0
      ints: 0
      ints: 0
      type: INTS
    }
    attribute {
      name: "dilations"
      ints: 1
      ints: 1
      type: INTS
    }
    attribute {
      name: "group"
      i: 1
      type: INT
    }
  }
  node {
    input: "311"
    input: "52"
    input: "53"
    input: "54"
    input: "55"
    output: "312"
    op_type: "BatchNormalization"
    attribute {
      name: "is_test"
      i: 1
      type: INT
    }
    attribute {
      name: "epsilon"
      f: 9.99999974737875e-06
      type: FLOAT
    }
    attribute {
      name: "momentum"
      f: 0.899999976158142
      type: FLOAT
    }
    attribute {
      name: "consumed_inputs"
      ints: 0
      ints: 0
      ints: 0
      ints: 1
      ints: 1
      type: INTS
    }
  }
  node {
    input: "312"
    input: "301"
    output: "313"
    op_type: "Add"
  }
  node {
    input: "313"
    output: "314"
    op_type: "Relu"
  }
  node {
    input: "314"
    input: "56"
    output: "316"
    op_type: "Conv"
    attribute {
      name: "kernel_shape"
      ints: 1
      ints: 1
      type: INTS
    }
    attribute {
      name: "strides"
      ints: 1
      ints: 1
      type: INTS
    }
    attribute {
      name: "pads"
      ints: 0
      ints: 0
      ints: 0
      ints: 0
      type: INTS
    }
    attribute {
      name: "dilations"
      ints: 1
      ints: 1
      type: INTS
    }
    attribute {
      name: "group"
      i: 1
      type: INT
    }
  }
  node {
    input: "316"
    input: "57"
    input: "58"
    input: "59"
    input: "60"
    output: "317"
    op_type: "BatchNormalization"
    attribute {
      name: "is_test"
      i: 1
      type: INT
    }
    attribute {
      name: "epsilon"
      f: 9.99999974737875e-06
      type: FLOAT
    }
    attribute {
      name: "momentum"
      f: 0.899999976158142
      type: FLOAT
    }
    attribute {
      name: "consumed_inputs"
      ints: 0
      ints: 0
      ints: 0
      ints: 1
      ints: 1
      type: INTS
    }
  }
  node {
    input: "317"
    output: "318"
    op_type: "Relu"
  }
  node {
    input: "318"
    input: "61"
    output: "320"
    op_type: "Conv"
    attribute {
      name: "kernel_shape"
      ints: 3
      ints: 3
      type: INTS
    }
    attribute {
      name: "strides"
      ints: 2
      ints: 2
      type: INTS
    }
    attribute {
      name: "pads"
      ints: 1
      ints: 1
      ints: 1
      ints: 1
      type: INTS
    }
    attribute {
      name: "dilations"
      ints: 1
      ints: 1
      type: INTS
    }
    attribute {
      name: "group"
      i: 1
      type: INT
    }
  }
  node {
    input: "320"
    input: "62"
    input: "63"
    input: "64"
    input: "65"
    output: "321"
    op_type: "BatchNormalization"
    attribute {
      name: "is_test"
      i: 1
      type: INT
    }
    attribute {
      name: "epsilon"
      f: 9.99999974737875e-06
      type: FLOAT
    }
    attribute {
      name: "momentum"
      f: 0.899999976158142
      type: FLOAT
    }
    attribute {
      name: "consumed_inputs"
      ints: 0
      ints: 0
      ints: 0
      ints: 1
      ints: 1
      type: INTS
    }
  }
  node {
    input: "321"
    output: "322"
    op_type: "Relu"
  }
  node {
    input: "322"
    input: "66"
    output: "324"
    op_type: "Conv"
    attribute {
      name: "kernel_shape"
      ints: 1
      ints: 1
      type: INTS
    }
    attribute {
      name: "strides"
      ints: 1
      ints: 1
      type: INTS
    }
    attribute {
      name: "pads"
      ints: 0
      ints: 0
      ints: 0
      ints: 0
      type: INTS
    }
    attribute {
      name: "dilations"
      ints: 1
      ints: 1
      type: INTS
    }
    attribute {
      name: "group"
      i: 1
      type: INT
    }
  }
  node {
    input: "324"
    input: "67"
    input: "68"
    input: "69"
    input: "70"
    output: "325"
    op_type: "BatchNormalization"
    attribute {
      name: "is_test"
      i: 1
      type: INT
    }
    attribute {
      name: "epsilon"
      f: 9.99999974737875e-06
      type: FLOAT
    }
    attribute {
      name: "momentum"
      f: 0.899999976158142
      type: FLOAT
    }
    attribute {
      name: "consumed_inputs"
      ints: 0
      ints: 0
      ints: 0
      ints: 1
      ints: 1
      type: INTS
    }
  }
  node {
    input: "314"
    input: "71"
    output: "327"
    op_type: "Conv"
    attribute {
      name: "kernel_shape"
      ints: 1
      ints: 1
      type: INTS
    }
    attribute {
      name: "strides"
      ints: 2
      ints: 2
      type: INTS
    }
    attribute {
      name: "pads"
      ints: 0
      ints: 0
      ints: 0
      ints: 0
      type: INTS
    }
    attribute {
      name: "dilations"
      ints: 1
      ints: 1
      type: INTS
    }
    attribute {
      name: "group"
      i: 1
      type: INT
    }
  }
  node {
    input: "327"
    input: "72"
    input: "73"
    input: "74"
    input: "75"
    output: "328"
    op_type: "BatchNormalization"
    attribute {
      name: "is_test"
      i: 1
      type: INT
    }
    attribute {
      name: "epsilon"
      f: 9.99999974737875e-06
      type: FLOAT
    }
    attribute {
      name: "momentum"
      f: 0.899999976158142
      type: FLOAT
    }
    attribute {
      name: "consumed_inputs"
      ints: 0
      ints: 0
      ints: 0
      ints: 1
      ints: 1
      type: INTS
    }
  }
  node {
    input: "325"
    input: "328"
    output: "329"
    op_type: "Add"
  }
  node {
    input: "329"
    output: "330"
    op_type: "Relu"
  }
  node {
    input: "330"
    input: "76"
    output: "332"
    op_type: "Conv"
    attribute {
      name: "kernel_shape"
      ints: 1
      ints: 1
      type: INTS
    }
    attribute {
      name: "strides"
      ints: 1
      ints: 1
      type: INTS
    }
    attribute {
      name: "pads"
      ints: 0
      ints: 0
      ints: 0
      ints: 0
      type: INTS
    }
    attribute {
      name: "dilations"
      ints: 1
      ints: 1
      type: INTS
    }
    attribute {
      name: "group"
      i: 1
      type: INT
    }
  }
  node {
    input: "332"
    input: "77"
    input: "78"
    input: "79"
    input: "80"
    output: "333"
    op_type: "BatchNormalization"
    attribute {
      name: "is_test"
      i: 1
      type: INT
    }
    attribute {
      name: "epsilon"
      f: 9.99999974737875e-06
      type: FLOAT
    }
    attribute {
      name: "momentum"
      f: 0.899999976158142
      type: FLOAT
    }
    attribute {
      name: "consumed_inputs"
      ints: 0
      ints: 0
      ints: 0
      ints: 1
      ints: 1
      type: INTS
    }
  }
  node {
    input: "333"
    output: "334"
    op_type: "Relu"
  }
  node {
    input: "334"
    input: "81"
    output: "336"
    op_type: "Conv"
    attribute {
      name: "kernel_shape"
      ints: 3
      ints: 3
      type: INTS
    }
    attribute {
      name: "strides"
      ints: 1
      ints: 1
      type: INTS
    }
    attribute {
      name: "pads"
      ints: 1
      ints: 1
      ints: 1
      ints: 1
      type: INTS
    }
    attribute {
      name: "dilations"
      ints: 1
      ints: 1
      type: INTS
    }
    attribute {
      name: "group"
      i: 1
      type: INT
    }
  }
  node {
    input: "336"
    input: "82"
    input: "83"
    input: "84"
    input: "85"
    output: "337"
    op_type: "BatchNormalization"
    attribute {
      name: "is_test"
      i: 1
      type: INT
    }
    attribute {
      name: "epsilon"
      f: 9.99999974737875e-06
      type: FLOAT
    }
    attribute {
      name: "momentum"
      f: 0.899999976158142
      type: FLOAT
    }
    attribute {
      name: "consumed_inputs"
      ints: 0
      ints: 0
      ints: 0
      ints: 1
      ints: 1
      type: INTS
    }
  }
  node {
    input: "337"
    output: "338"
    op_type: "Relu"
  }
  node {
    input: "338"
    input: "86"
    output: "340"
    op_type: "Conv"
    attribute {
      name: "kernel_shape"
      ints: 1
      ints: 1
      type: INTS
    }
    attribute {
      name: "strides"
      ints: 1
      ints: 1
      type: INTS
    }
    attribute {
      name: "pads"
      ints: 0
      ints: 0
      ints: 0
      ints: 0
      type: INTS
    }
    attribute {
      name: "dilations"
      ints: 1
      ints: 1
      type: INTS
    }
    attribute {
      name: "group"
      i: 1
      type: INT
    }
  }
  node {
    input: "340"
    input: "87"
    input: "88"
    input: "89"
    input: "90"
    output: "341"
    op_type: "BatchNormalization"
    attribute {
      name: "is_test"
      i: 1
      type: INT
    }
    attribute {
      name: "epsilon"
      f: 9.99999974737875e-06
      type: FLOAT
    }
    attribute {
      name: "momentum"
      f: 0.899999976158142
      type: FLOAT
    }
    attribute {
      name: "consumed_inputs"
      ints: 0
      ints: 0
      ints: 0
      ints: 1
      ints: 1
      type: INTS
    }
  }
  node {
    input: "341"
    input: "330"
    output: "342"
    op_type: "Add"
  }
  node {
    input: "342"
    output: "343"
    op_type: "Relu"
  }
  node {
    input: "343"
    input: "91"
    output: "345"
    op_type: "Conv"
    attribute {
      name: "kernel_shape"
      ints: 1
      ints: 1
      type: INTS
    }
    attribute {
      name: "strides"
      ints: 1
      ints: 1
      type: INTS
    }
    attribute {
      name: "pads"
      ints: 0
      ints: 0
      ints: 0
      ints: 0
      type: INTS
    }
    attribute {
      name: "dilations"
      ints: 1
      ints: 1
      type: INTS
    }
    attribute {
      name: "group"
      i: 1
      type: INT
    }
  }
  node {
    input: "345"
    input: "92"
    input: "93"
    input: "94"
    input: "95"
    output: "346"
    op_type: "BatchNormalization"
    attribute {
      name: "is_test"
      i: 1
      type: INT
    }
    attribute {
      name: "epsilon"
      f: 9.99999974737875e-06
      type: FLOAT
    }
    attribute {
      name: "momentum"
      f: 0.899999976158142
      type: FLOAT
    }
    attribute {
      name: "consumed_inputs"
      ints: 0
      ints: 0
      ints: 0
      ints: 1
      ints: 1
      type: INTS
    }
  }
  node {
    input: "346"
    output: "347"
    op_type: "Relu"
  }
  node {
    input: "347"
    input: "96"
    output: "349"
    op_type: "Conv"
    attribute {
      name: "kernel_shape"
      ints: 3
      ints: 3
      type: INTS
    }
    attribute {
      name: "strides"
      ints: 1
      ints: 1
      type: INTS
    }
    attribute {
      name: "pads"
      ints: 1
      ints: 1
      ints: 1
      ints: 1
      type: INTS
    }
    attribute {
      name: "dilations"
      ints: 1
      ints: 1
      type: INTS
    }
    attribute {
      name: "group"
      i: 1
      type: INT
    }
  }
  node {
    input: "349"
    input: "97"
    input: "98"
    input: "99"
    input: "100"
    output: "350"
    op_type: "BatchNormalization"
    attribute {
      name: "is_test"
      i: 1
      type: INT
    }
    attribute {
      name: "epsilon"
      f: 9.99999974737875e-06
      type: FLOAT
    }
    attribute {
      name: "momentum"
      f: 0.899999976158142
      type: FLOAT
    }
    attribute {
      name: "consumed_inputs"
      ints: 0
      ints: 0
      ints: 0
      ints: 1
      ints: 1
      type: INTS
    }
  }
  node {
    input: "350"
    output: "351"
    op_type: "Relu"
  }
  node {
    input: "351"
    input: "101"
    output: "353"
    op_type: "Conv"
    attribute {
      name: "kernel_shape"
      ints: 1
      ints: 1
      type: INTS
    }
    attribute {
      name: "strides"
      ints: 1
      ints: 1
      type: INTS
    }
    attribute {
      name: "pads"
      ints: 0
      ints: 0
      ints: 0
      ints: 0
      type: INTS
    }
    attribute {
      name: "dilations"
      ints: 1
      ints: 1
      type: INTS
    }
    attribute {
      name: "group"
      i: 1
      type: INT
    }
  }
  node {
    input: "353"
    input: "102"
    input: "103"
    input: "104"
    input: "105"
    output: "354"
    op_type: "BatchNormalization"
    attribute {
      name: "is_test"
      i: 1
      type: INT
    }
    attribute {
      name: "epsilon"
      f: 9.99999974737875e-06
      type: FLOAT
    }
    attribute {
      name: "momentum"
      f: 0.899999976158142
      type: FLOAT
    }
    attribute {
      name: "consumed_inputs"
      ints: 0
      ints: 0
      ints: 0
      ints: 1
      ints: 1
      type: INTS
    }
  }
  node {
    input: "354"
    input: "343"
    output: "355"
    op_type: "Add"
  }
  node {
    input: "355"
    output: "356"
    op_type: "Relu"
  }
  node {
    input: "356"
    input: "106"
    output: "358"
    op_type: "Conv"
    attribute {
      name: "kernel_shape"
      ints: 1
      ints: 1
      type: INTS
    }
    attribute {
      name: "strides"
      ints: 1
      ints: 1
      type: INTS
    }
    attribute {
      name: "pads"
      ints: 0
      ints: 0
      ints: 0
      ints: 0
      type: INTS
    }
    attribute {
      name: "dilations"
      ints: 1
      ints: 1
      type: INTS
    }
    attribute {
      name: "group"
      i: 1
      type: INT
    }
  }
  node {
    input: "358"
    input: "107"
    input: "108"
    input: "109"
    input: "110"
    output: "359"
    op_type: "BatchNormalization"
    attribute {
      name: "is_test"
      i: 1
      type: INT
    }
    attribute {
      name: "epsilon"
      f: 9.99999974737875e-06
      type: FLOAT
    }
    attribute {
      name: "momentum"
      f: 0.899999976158142
      type: FLOAT
    }
    attribute {
      name: "consumed_inputs"
      ints: 0
      ints: 0
      ints: 0
      ints: 1
      ints: 1
      type: INTS
    }
  }
  node {
    input: "359"
    output: "360"
    op_type: "Relu"
  }
  node {
    input: "360"
    input: "111"
    output: "362"
    op_type: "Conv"
    attribute {
      name: "kernel_shape"
      ints: 3
      ints: 3
      type: INTS
    }
    attribute {
      name: "strides"
      ints: 1
      ints: 1
      type: INTS
    }
    attribute {
      name: "pads"
      ints: 1
      ints: 1
      ints: 1
      ints: 1
      type: INTS
    }
    attribute {
      name: "dilations"
      ints: 1
      ints: 1
      type: INTS
    }
    attribute {
      name: "group"
      i: 1
      type: INT
    }
  }
  node {
    input: "362"
    input: "112"
    input: "113"
    input: "114"
    input: "115"
    output: "363"
    op_type: "BatchNormalization"
    attribute {
      name: "is_test"
      i: 1
      type: INT
    }
    attribute {
      name: "epsilon"
      f: 9.99999974737875e-06
      type: FLOAT
    }
    attribute {
      name: "momentum"
      f: 0.899999976158142
      type: FLOAT
    }
    attribute {
      name: "consumed_inputs"
      ints: 0
      ints: 0
      ints: 0
      ints: 1
      ints: 1
      type: INTS
    }
  }
  node {
    input: "363"
    output: "364"
    op_type: "Relu"
  }
  node {
    input: "364"
    input: "116"
    output: "366"
    op_type: "Conv"
    attribute {
      name: "kernel_shape"
      ints: 1
      ints: 1
      type: INTS
    }
    attribute {
      name: "strides"
      ints: 1
      ints: 1
      type: INTS
    }
    attribute {
      name: "pads"
      ints: 0
      ints: 0
      ints: 0
      ints: 0
      type: INTS
    }
    attribute {
      name: "dilations"
      ints: 1
      ints: 1
      type: INTS
    }
    attribute {
      name: "group"
      i: 1
      type: INT
    }
  }
  node {
    input: "366"
    input: "117"
    input: "118"
    input: "119"
    input: "120"
    output: "367"
    op_type: "BatchNormalization"
    attribute {
      name: "is_test"
      i: 1
      type: INT
    }
    attribute {
      name: "epsilon"
      f: 9.99999974737875e-06
      type: FLOAT
    }
    attribute {
      name: "momentum"
      f: 0.899999976158142
      type: FLOAT
    }
    attribute {
      name: "consumed_inputs"
      ints: 0
      ints: 0
      ints: 0
      ints: 1
      ints: 1
      type: INTS
    }
  }
  node {
    input: "367"
    input: "356"
    output: "368"
    op_type: "Add"
  }
  node {
    input: "368"
    output: "369"
    op_type: "Relu"
  }
  node {
    input: "369"
    input: "121"
    output: "371"
    op_type: "Conv"
    attribute {
      name: "kernel_shape"
      ints: 1
      ints: 1
      type: INTS
    }
    attribute {
      name: "strides"
      ints: 1
      ints: 1
      type: INTS
    }
    attribute {
      name: "pads"
      ints: 0
      ints: 0
      ints: 0
      ints: 0
      type: INTS
    }
    attribute {
      name: "dilations"
      ints: 1
      ints: 1
      type: INTS
    }
    attribute {
      name: "group"
      i: 1
      type: INT
    }
  }
  node {
    input: "371"
    input: "122"
    input: "123"
    input: "124"
    input: "125"
    output: "372"
    op_type: "BatchNormalization"
    attribute {
      name: "is_test"
      i: 1
      type: INT
    }
    attribute {
      name: "epsilon"
      f: 9.99999974737875e-06
      type: FLOAT
    }
    attribute {
      name: "momentum"
      f: 0.899999976158142
      type: FLOAT
    }
    attribute {
      name: "consumed_inputs"
      ints: 0
      ints: 0
      ints: 0
      ints: 1
      ints: 1
      type: INTS
    }
  }
  node {
    input: "372"
    output: "373"
    op_type: "Relu"
  }
  node {
    input: "373"
    input: "126"
    output: "375"
    op_type: "Conv"
    attribute {
      name: "kernel_shape"
      ints: 3
      ints: 3
      type: INTS
    }
    attribute {
      name: "strides"
      ints: 2
      ints: 2
      type: INTS
    }
    attribute {
      name: "pads"
      ints: 1
      ints: 1
      ints: 1
      ints: 1
      type: INTS
    }
    attribute {
      name: "dilations"
      ints: 1
      ints: 1
      type: INTS
    }
    attribute {
      name: "group"
      i: 1
      type: INT
    }
  }
  node {
    input: "375"
    input: "127"
    input: "128"
    input: "129"
    input: "130"
    output: "376"
    op_type: "BatchNormalization"
    attribute {
      name: "is_test"
      i: 1
      type: INT
    }
    attribute {
      name: "epsilon"
      f: 9.99999974737875e-06
      type: FLOAT
    }
    attribute {
      name: "momentum"
      f: 0.899999976158142
      type: FLOAT
    }
    attribute {
      name: "consumed_inputs"
      ints: 0
      ints: 0
      ints: 0
      ints: 1
      ints: 1
      type: INTS
    }
  }
  node {
    input: "376"
    output: "377"
    op_type: "Relu"
  }
  node {
    input: "377"
    input: "131"
    output: "379"
    op_type: "Conv"
    attribute {
      name: "kernel_shape"
      ints: 1
      ints: 1
      type: INTS
    }
    attribute {
      name: "strides"
      ints: 1
      ints: 1
      type: INTS
    }
    attribute {
      name: "pads"
      ints: 0
      ints: 0
      ints: 0
      ints: 0
      type: INTS
    }
    attribute {
      name: "dilations"
      ints: 1
      ints: 1
      type: INTS
    }
    attribute {
      name: "group"
      i: 1
      type: INT
    }
  }
  node {
    input: "379"
    input: "132"
    input: "133"
    input: "134"
    input: "135"
    output: "380"
    op_type: "BatchNormalization"
    attribute {
      name: "is_test"
      i: 1
      type: INT
    }
    attribute {
      name: "epsilon"
      f: 9.99999974737875e-06
      type: FLOAT
    }
    attribute {
      name: "momentum"
      f: 0.899999976158142
      type: FLOAT
    }
    attribute {
      name: "consumed_inputs"
      ints: 0
      ints: 0
      ints: 0
      ints: 1
      ints: 1
      type: INTS
    }
  }
  node {
    input: "369"
    input: "136"
    output: "382"
    op_type: "Conv"
    attribute {
      name: "kernel_shape"
      ints: 1
      ints: 1
      type: INTS
    }
    attribute {
      name: "strides"
      ints: 2
      ints: 2
      type: INTS
    }
    attribute {
      name: "pads"
      ints: 0
      ints: 0
      ints: 0
      ints: 0
      type: INTS
    }
    attribute {
      name: "dilations"
      ints: 1
      ints: 1
      type: INTS
    }
    attribute {
      name: "group"
      i: 1
      type: INT
    }
  }
  node {
    input: "382"
    input: "137"
    input: "138"
    input: "139"
    input: "140"
    output: "383"
    op_type: "BatchNormalization"
    attribute {
      name: "is_test"
      i: 1
      type: INT
    }
    attribute {
      name: "epsilon"
      f: 9.99999974737875e-06
      type: FLOAT
    }
    attribute {
      name: "momentum"
      f: 0.899999976158142
      type: FLOAT
    }
    attribute {
      name: "consumed_inputs"
      ints: 0
      ints: 0
      ints: 0
      ints: 1
      ints: 1
      type: INTS
    }
  }
  node {
    input: "380"
    input: "383"
    output: "384"
    op_type: "Add"
  }
  node {
    input: "384"
    output: "385"
    op_type: "Relu"
  }
  node {
    input: "385"
    input: "141"
    output: "387"
    op_type: "Conv"
    attribute {
      name: "kernel_shape"
      ints: 1
      ints: 1
      type: INTS
    }
    attribute {
      name: "strides"
      ints: 1
      ints: 1
      type: INTS
    }
    attribute {
      name: "pads"
      ints: 0
      ints: 0
      ints: 0
      ints: 0
      type: INTS
    }
    attribute {
      name: "dilations"
      ints: 1
      ints: 1
      type: INTS
    }
    attribute {
      name: "group"
      i: 1
      type: INT
    }
  }
  node {
    input: "387"
    input: "142"
    input: "143"
    input: "144"
    input: "145"
    output: "388"
    op_type: "BatchNormalization"
    attribute {
      name: "is_test"
      i: 1
      type: INT
    }
    attribute {
      name: "epsilon"
      f: 9.99999974737875e-06
      type: FLOAT
    }
    attribute {
      name: "momentum"
      f: 0.899999976158142
      type: FLOAT
    }
    attribute {
      name: "consumed_inputs"
      ints: 0
      ints: 0
      ints: 0
      ints: 1
      ints: 1
      type: INTS
    }
  }
  node {
    input: "388"
    output: "389"
    op_type: "Relu"
  }
  node {
    input: "389"
    input: "146"
    output: "391"
    op_type: "Conv"
    attribute {
      name: "kernel_shape"
      ints: 3
      ints: 3
      type: INTS
    }
    attribute {
      name: "strides"
      ints: 1
      ints: 1
      type: INTS
    }
    attribute {
      name: "pads"
      ints: 1
      ints: 1
      ints: 1
      ints: 1
      type: INTS
    }
    attribute {
      name: "dilations"
      ints: 1
      ints: 1
      type: INTS
    }
    attribute {
      name: "group"
      i: 1
      type: INT
    }
  }
  node {
    input: "391"
    input: "147"
    input: "148"
    input: "149"
    input: "150"
    output: "392"
    op_type: "BatchNormalization"
    attribute {
      name: "is_test"
      i: 1
      type: INT
    }
    attribute {
      name: "epsilon"
      f: 9.99999974737875e-06
      type: FLOAT
    }
    attribute {
      name: "momentum"
      f: 0.899999976158142
      type: FLOAT
    }
    attribute {
      name: "consumed_inputs"
      ints: 0
      ints: 0
      ints: 0
      ints: 1
      ints: 1
      type: INTS
    }
  }
  node {
    input: "392"
    output: "393"
    op_type: "Relu"
  }
  node {
    input: "393"
    input: "151"
    output: "395"
    op_type: "Conv"
    attribute {
      name: "kernel_shape"
      ints: 1
      ints: 1
      type: INTS
    }
    attribute {
      name: "strides"
      ints: 1
      ints: 1
      type: INTS
    }
    attribute {
      name: "pads"
      ints: 0
      ints: 0
      ints: 0
      ints: 0
      type: INTS
    }
    attribute {
      name: "dilations"
      ints: 1
      ints: 1
      type: INTS
    }
    attribute {
      name: "group"
      i: 1
      type: INT
    }
  }
  node {
    input: "395"
    input: "152"
    input: "153"
    input: "154"
    input: "155"
    output: "396"
    op_type: "BatchNormalization"
    attribute {
      name: "is_test"
      i: 1
      type: INT
    }
    attribute {
      name: "epsilon"
      f: 9.99999974737875e-06
      type: FLOAT
    }
    attribute {
      name: "momentum"
      f: 0.899999976158142
      type: FLOAT
    }
    attribute {
      name: "consumed_inputs"
      ints: 0
      ints: 0
      ints: 0
      ints: 1
      ints: 1
      type: INTS
    }
  }
  node {
    input: "396"
    input: "385"
    output: "397"
    op_type: "Add"
  }
  node {
    input: "397"
    output: "398"
    op_type: "Relu"
  }
  node {
    input: "398"
    input: "156"
    output: "400"
    op_type: "Conv"
    attribute {
      name: "kernel_shape"
      ints: 1
      ints: 1
      type: INTS
    }
    attribute {
      name: "strides"
      ints: 1
      ints: 1
      type: INTS
    }
    attribute {
      name: "pads"
      ints: 0
      ints: 0
      ints: 0
      ints: 0
      type: INTS
    }
    attribute {
      name: "dilations"
      ints: 1
      ints: 1
      type: INTS
    }
    attribute {
      name: "group"
      i: 1
      type: INT
    }
  }
  node {
    input: "400"
    input: "157"
    input: "158"
    input: "159"
    input: "160"
    output: "401"
    op_type: "BatchNormalization"
    attribute {
      name: "is_test"
      i: 1
      type: INT
    }
    attribute {
      name: "epsilon"
      f: 9.99999974737875e-06
      type: FLOAT
    }
    attribute {
      name: "momentum"
      f: 0.899999976158142
      type: FLOAT
    }
    attribute {
      name: "consumed_inputs"
      ints: 0
      ints: 0
      ints: 0
      ints: 1
      ints: 1
      type: INTS
    }
  }
  node {
    input: "401"
    output: "402"
    op_type: "Relu"
  }
  node {
    input: "402"
    input: "161"
    output: "404"
    op_type: "Conv"
    attribute {
      name: "kernel_shape"
      ints: 3
      ints: 3
      type: INTS
    }
    attribute {
      name: "strides"
      ints: 1
      ints: 1
      type: INTS
    }
    attribute {
      name: "pads"
      ints: 1
      ints: 1
      ints: 1
      ints: 1
      type: INTS
    }
    attribute {
      name: "dilations"
      ints: 1
      ints: 1
      type: INTS
    }
    attribute {
      name: "group"
      i: 1
      type: INT
    }
  }
  node {
    input: "404"
    input: "162"
    input: "163"
    input: "164"
    input: "165"
    output: "405"
    op_type: "BatchNormalization"
    attribute {
      name: "is_test"
      i: 1
      type: INT
    }
    attribute {
      name: "epsilon"
      f: 9.99999974737875e-06
      type: FLOAT
    }
    attribute {
      name: "momentum"
      f: 0.899999976158142
      type: FLOAT
    }
    attribute {
      name: "consumed_inputs"
      ints: 0
      ints: 0
      ints: 0
      ints: 1
      ints: 1
      type: INTS
    }
  }
  node {
    input: "405"
    output: "406"
    op_type: "Relu"
  }
  node {
    input: "406"
    input: "166"
    output: "408"
    op_type: "Conv"
    attribute {
      name: "kernel_shape"
      ints: 1
      ints: 1
      type: INTS
    }
    attribute {
      name: "strides"
      ints: 1
      ints: 1
      type: INTS
    }
    attribute {
      name: "pads"
      ints: 0
      ints: 0
      ints: 0
      ints: 0
      type: INTS
    }
    attribute {
      name: "dilations"
      ints: 1
      ints: 1
      type: INTS
    }
    attribute {
      name: "group"
      i: 1
      type: INT
    }
  }
  node {
    input: "408"
    input: "167"
    input: "168"
    input: "169"
    input: "170"
    output: "409"
    op_type: "BatchNormalization"
    attribute {
      name: "is_test"
      i: 1
      type: INT
    }
    attribute {
      name: "epsilon"
      f: 9.99999974737875e-06
      type: FLOAT
    }
    attribute {
      name: "momentum"
      f: 0.899999976158142
      type: FLOAT
    }
    attribute {
      name: "consumed_inputs"
      ints: 0
      ints: 0
      ints: 0
      ints: 1
      ints: 1
      type: INTS
    }
  }
  node {
    input: "409"
    input: "398"
    output: "410"
    op_type: "Add"
  }
  node {
    input: "410"
    output: "411"
    op_type: "Relu"
  }
  node {
    input: "411"
    input: "171"
    output: "413"
    op_type: "Conv"
    attribute {
      name: "kernel_shape"
      ints: 1
      ints: 1
      type: INTS
    }
    attribute {
      name: "strides"
      ints: 1
      ints: 1
      type: INTS
    }
    attribute {
      name: "pads"
      ints: 0
      ints: 0
      ints: 0
      ints: 0
      type: INTS
    }
    attribute {
      name: "dilations"
      ints: 1
      ints: 1
      type: INTS
    }
    attribute {
      name: "group"
      i: 1
      type: INT
    }
  }
  node {
    input: "413"
    input: "172"
    input: "173"
    input: "174"
    input: "175"
    output: "414"
    op_type: "BatchNormalization"
    attribute {
      name: "is_test"
      i: 1
      type: INT
    }
    attribute {
      name: "epsilon"
      f: 9.99999974737875e-06
      type: FLOAT
    }
    attribute {
      name: "momentum"
      f: 0.899999976158142
      type: FLOAT
    }
    attribute {
      name: "consumed_inputs"
      ints: 0
      ints: 0
      ints: 0
      ints: 1
      ints: 1
      type: INTS
    }
  }
  node {
    input: "414"
    output: "415"
    op_type: "Relu"
  }
  node {
    input: "415"
    input: "176"
    output: "417"
    op_type: "Conv"
    attribute {
      name: "kernel_shape"
      ints: 3
      ints: 3
      type: INTS
    }
    attribute {
      name: "strides"
      ints: 1
      ints: 1
      type: INTS
    }
    attribute {
      name: "pads"
      ints: 1
      ints: 1
      ints: 1
      ints: 1
      type: INTS
    }
    attribute {
      name: "dilations"
      ints: 1
      ints: 1
      type: INTS
    }
    attribute {
      name: "group"
      i: 1
      type: INT
    }
  }
  node {
    input: "417"
    input: "177"
    input: "178"
    input: "179"
    input: "180"
    output: "418"
    op_type: "BatchNormalization"
    attribute {
      name: "is_test"
      i: 1
      type: INT
    }
    attribute {
      name: "epsilon"
      f: 9.99999974737875e-06
      type: FLOAT
    }
    attribute {
      name: "momentum"
      f: 0.899999976158142
      type: FLOAT
    }
    attribute {
      name: "consumed_inputs"
      ints: 0
      ints: 0
      ints: 0
      ints: 1
      ints: 1
      type: INTS
    }
  }
  node {
    input: "418"
    output: "419"
    op_type: "Relu"
  }
  node {
    input: "419"
    input: "181"
    output: "421"
    op_type: "Conv"
    attribute {
      name: "kernel_shape"
      ints: 1
      ints: 1
      type: INTS
    }
    attribute {
      name: "strides"
      ints: 1
      ints: 1
      type: INTS
    }
    attribute {
      name: "pads"
      ints: 0
      ints: 0
      ints: 0
      ints: 0
      type: INTS
    }
    attribute {
      name: "dilations"
      ints: 1
      ints: 1
      type: INTS
    }
    attribute {
      name: "group"
      i: 1
      type: INT
    }
  }
  node {
    input: "421"
    input: "182"
    input: "183"
    input: "184"
    input: "185"
    output: "422"
    op_type: "BatchNormalization"
    attribute {
      name: "is_test"
      i: 1
      type: INT
    }
    attribute {
      name: "epsilon"
      f: 9.99999974737875e-06
      type: FLOAT
    }
    attribute {
      name: "momentum"
      f: 0.899999976158142
      type: FLOAT
    }
    attribute {
      name: "consumed_inputs"
      ints: 0
      ints: 0
      ints: 0
      ints: 1
      ints: 1
      type: INTS
    }
  }
  node {
    input: "422"
    input: "411"
    output: "423"
    op_type: "Add"
  }
  node {
    input: "423"
    output: "424"
    op_type: "Relu"
  }
  node {
    input: "424"
    input: "186"
    output: "426"
    op_type: "Conv"
    attribute {
      name: "kernel_shape"
      ints: 1
      ints: 1
      type: INTS
    }
    attribute {
      name: "strides"
      ints: 1
      ints: 1
      type: INTS
    }
    attribute {
      name: "pads"
      ints: 0
      ints: 0
      ints: 0
      ints: 0
      type: INTS
    }
    attribute {
      name: "dilations"
      ints: 1
      ints: 1
      type: INTS
    }
    attribute {
      name: "group"
      i: 1
      type: INT
    }
  }
  node {
    input: "426"
    input: "187"
    input: "188"
    input: "189"
    input: "190"
    output: "427"
    op_type: "BatchNormalization"
    attribute {
      name: "is_test"
      i: 1
      type: INT
    }
    attribute {
      name: "epsilon"
      f: 9.99999974737875e-06
      type: FLOAT
    }
    attribute {
      name: "momentum"
      f: 0.899999976158142
      type: FLOAT
    }
    attribute {
      name: "consumed_inputs"
      ints: 0
      ints: 0
      ints: 0
      ints: 1
      ints: 1
      type: INTS
    }
  }
  node {
    input: "427"
    output: "428"
    op_type: "Relu"
  }
  node {
    input: "428"
    input: "191"
    output: "430"
    op_type: "Conv"
    attribute {
      name: "kernel_shape"
      ints: 3
      ints: 3
      type: INTS
    }
    attribute {
      name: "strides"
      ints: 1
      ints: 1
      type: INTS
    }
    attribute {
      name: "pads"
      ints: 1
      ints: 1
      ints: 1
      ints: 1
      type: INTS
    }
    attribute {
      name: "dilations"
      ints: 1
      ints: 1
      type: INTS
    }
    attribute {
      name: "group"
      i: 1
      type: INT
    }
  }
  node {
    input: "430"
    input: "192"
    input: "193"
    input: "194"
    input: "195"
    output: "431"
    op_type: "BatchNormalization"
    attribute {
      name: "is_test"
      i: 1
      type: INT
    }
    attribute {
      name: "epsilon"
      f: 9.99999974737875e-06
      type: FLOAT
    }
    attribute {
      name: "momentum"
      f: 0.899999976158142
      type: FLOAT
    }
    attribute {
      name: "consumed_inputs"
      ints: 0
      ints: 0
      ints: 0
      ints: 1
      ints: 1
      type: INTS
    }
  }
  node {
    input: "431"
    output: "432"
    op_type: "Relu"
  }
  node {
    input: "432"
    input: "196"
    output: "434"
    op_type: "Conv"
    attribute {
      name: "kernel_shape"
      ints: 1
      ints: 1
      type: INTS
    }
    attribute {
      name: "strides"
      ints: 1
      ints: 1
      type: INTS
    }
    attribute {
      name: "pads"
      ints: 0
      ints: 0
      ints: 0
      ints: 0
      type: INTS
    }
    attribute {
      name: "dilations"
      ints: 1
      ints: 1
      type: INTS
    }
    attribute {
      name: "group"
      i: 1
      type: INT
    }
  }
  node {
    input: "434"
    input: "197"
    input: "198"
    input: "199"
    input: "200"
    output: "435"
    op_type: "BatchNormalization"
    attribute {
      name: "is_test"
      i: 1
      type: INT
    }
    attribute {
      name: "epsilon"
      f: 9.99999974737875e-06
      type: FLOAT
    }
    attribute {
      name: "momentum"
      f: 0.899999976158142
      type: FLOAT
    }
    attribute {
      name: "consumed_inputs"
      ints: 0
      ints: 0
      ints: 0
      ints: 1
      ints: 1
      type: INTS
    }
  }
  node {
    input: "435"
    input: "424"
    output: "436"
    op_type: "Add"
  }
  node {
    input: "436"
    output: "437"
    op_type: "Relu"
  }
  node {
    input: "437"
    input: "201"
    output: "439"
    op_type: "Conv"
    attribute {
      name: "kernel_shape"
      ints: 1
      ints: 1
      type: INTS
    }
    attribute {
      name: "strides"
      ints: 1
      ints: 1
      type: INTS
    }
    attribute {
      name: "pads"
      ints: 0
      ints: 0
      ints: 0
      ints: 0
      type: INTS
    }
    attribute {
      name: "dilations"
      ints: 1
      ints: 1
      type: INTS
    }
    attribute {
      name: "group"
      i: 1
      type: INT
    }
  }
  node {
    input: "439"
    input: "202"
    input: "203"
    input: "204"
    input: "205"
    output: "440"
    op_type: "BatchNormalization"
    attribute {
      name: "is_test"
      i: 1
      type: INT
    }
    attribute {
      name: "epsilon"
      f: 9.99999974737875e-06
      type: FLOAT
    }
    attribute {
      name: "momentum"
      f: 0.899999976158142
      type: FLOAT
    }
    attribute {
      name: "consumed_inputs"
      ints: 0
      ints: 0
      ints: 0
      ints: 1
      ints: 1
      type: INTS
    }
  }
  node {
    input: "440"
    output: "441"
    op_type: "Relu"
  }
  node {
    input: "441"
    input: "206"
    output: "443"
    op_type: "Conv"
    attribute {
      name: "kernel_shape"
      ints: 3
      ints: 3
      type: INTS
    }
    attribute {
      name: "strides"
      ints: 1
      ints: 1
      type: INTS
    }
    attribute {
      name: "pads"
      ints: 1
      ints: 1
      ints: 1
      ints: 1
      type: INTS
    }
    attribute {
      name: "dilations"
      ints: 1
      ints: 1
      type: INTS
    }
    attribute {
      name: "group"
      i: 1
      type: INT
    }
  }
  node {
    input: "443"
    input: "207"
    input: "208"
    input: "209"
    input: "210"
    output: "444"
    op_type: "BatchNormalization"
    attribute {
      name: "is_test"
      i: 1
      type: INT
    }
    attribute {
      name: "epsilon"
      f: 9.99999974737875e-06
      type: FLOAT
    }
    attribute {
      name: "momentum"
      f: 0.899999976158142
      type: FLOAT
    }
    attribute {
      name: "consumed_inputs"
      ints: 0
      ints: 0
      ints: 0
      ints: 1
      ints: 1
      type: INTS
    }
  }
  node {
    input: "444"
    output: "445"
    op_type: "Relu"
  }
  node {
    input: "445"
    input: "211"
    output: "447"
    op_type: "Conv"
    attribute {
      name: "kernel_shape"
      ints: 1
      ints: 1
      type: INTS
    }
    attribute {
      name: "strides"
      ints: 1
      ints: 1
      type: INTS
    }
    attribute {
      name: "pads"
      ints: 0
      ints: 0
      ints: 0
      ints: 0
      type: INTS
    }
    attribute {
      name: "dilations"
      ints: 1
      ints: 1
      type: INTS
    }
    attribute {
      name: "group"
      i: 1
      type: INT
    }
  }
  node {
    input: "447"
    input: "212"
    input: "213"
    input: "214"
    input: "215"
    output: "448"
    op_type: "BatchNormalization"
    attribute {
      name: "is_test"
      i: 1
      type: INT
    }
    attribute {
      name: "epsilon"
      f: 9.99999974737875e-06
      type: FLOAT
    }
    attribute {
      name: "momentum"
      f: 0.899999976158142
      type: FLOAT
    }
    attribute {
      name: "consumed_inputs"
      ints: 0
      ints: 0
      ints: 0
      ints: 1
      ints: 1
      type: INTS
    }
  }
  node {
    input: "448"
    input: "437"
    output: "449"
    op_type: "Add"
  }
  node {
    input: "449"
    output: "450"
    op_type: "Relu"
  }
  node {
    input: "450"
    input: "216"
    output: "452"
    op_type: "Conv"
    attribute {
      name: "kernel_shape"
      ints: 1
      ints: 1
      type: INTS
    }
    attribute {
      name: "strides"
      ints: 1
      ints: 1
      type: INTS
    }
    attribute {
      name: "pads"
      ints: 0
      ints: 0
      ints: 0
      ints: 0
      type: INTS
    }
    attribute {
      name: "dilations"
      ints: 1
      ints: 1
      type: INTS
    }
    attribute {
      name: "group"
      i: 1
      type: INT
    }
  }
  node {
    input: "452"
    input: "217"
    input: "218"
    input: "219"
    input: "220"
    output: "453"
    op_type: "BatchNormalization"
    attribute {
      name: "is_test"
      i: 1
      type: INT
    }
    attribute {
      name: "epsilon"
      f: 9.99999974737875e-06
      type: FLOAT
    }
    attribute {
      name: "momentum"
      f: 0.899999976158142
      type: FLOAT
    }
    attribute {
      name: "consumed_inputs"
      ints: 0
      ints: 0
      ints: 0
      ints: 1
      ints: 1
      type: INTS
    }
  }
  node {
    input: "453"
    output: "454"
    op_type: "Relu"
  }
  node {
    input: "454"
    input: "221"
    output: "456"
    op_type: "Conv"
    attribute {
      name: "kernel_shape"
      ints: 3
      ints: 3
      type: INTS
    }
    attribute {
      name: "strides"
      ints: 2
      ints: 2
      type: INTS
    }
    attribute {
      name: "pads"
      ints: 1
      ints: 1
      ints: 1
      ints: 1
      type: INTS
    }
    attribute {
      name: "dilations"
      ints: 1
      ints: 1
      type: INTS
    }
    attribute {
      name: "group"
      i: 1
      type: INT
    }
  }
  node {
    input: "456"
    input: "222"
    input: "223"
    input: "224"
    input: "225"
    output: "457"
    op_type: "BatchNormalization"
    attribute {
      name: "is_test"
      i: 1
      type: INT
    }
    attribute {
      name: "epsilon"
      f: 9.99999974737875e-06
      type: FLOAT
    }
    attribute {
      name: "momentum"
      f: 0.899999976158142
      type: FLOAT
    }
    attribute {
      name: "consumed_inputs"
      ints: 0
      ints: 0
      ints: 0
      ints: 1
      ints: 1
      type: INTS
    }
  }
  node {
    input: "457"
    output: "458"
    op_type: "Relu"
  }
  node {
    input: "458"
    input: "226"
    output: "460"
    op_type: "Conv"
    attribute {
      name: "kernel_shape"
      ints: 1
      ints: 1
      type: INTS
    }
    attribute {
      name: "strides"
      ints: 1
      ints: 1
      type: INTS
    }
    attribute {
      name: "pads"
      ints: 0
      ints: 0
      ints: 0
      ints: 0
      type: INTS
    }
    attribute {
      name: "dilations"
      ints: 1
      ints: 1
      type: INTS
    }
    attribute {
      name: "group"
      i: 1
      type: INT
    }
  }
  node {
    input: "460"
    input: "227"
    input: "228"
    input: "229"
    input: "230"
    output: "461"
    op_type: "BatchNormalization"
    attribute {
      name: "is_test"
      i: 1
      type: INT
    }
    attribute {
      name: "epsilon"
      f: 9.99999974737875e-06
      type: FLOAT
    }
    attribute {
      name: "momentum"
      f: 0.899999976158142
      type: FLOAT
    }
    attribute {
      name: "consumed_inputs"
      ints: 0
      ints: 0
      ints: 0
      ints: 1
      ints: 1
      type: INTS
    }
  }
  node {
    input: "450"
    input: "231"
    output: "463"
    op_type: "Conv"
    attribute {
      name: "kernel_shape"
      ints: 1
      ints: 1
      type: INTS
    }
    attribute {
      name: "strides"
      ints: 2
      ints: 2
      type: INTS
    }
    attribute {
      name: "pads"
      ints: 0
      ints: 0
      ints: 0
      ints: 0
      type: INTS
    }
    attribute {
      name: "dilations"
      ints: 1
      ints: 1
      type: INTS
    }
    attribute {
      name: "group"
      i: 1
      type: INT
    }
  }
  node {
    input: "463"
    input: "232"
    input: "233"
    input: "234"
    input: "235"
    output: "464"
    op_type: "BatchNormalization"
    attribute {
      name: "is_test"
      i: 1
      type: INT
    }
    attribute {
      name: "epsilon"
      f: 9.99999974737875e-06
      type: FLOAT
    }
    attribute {
      name: "momentum"
      f: 0.899999976158142
      type: FLOAT
    }
    attribute {
      name: "consumed_inputs"
      ints: 0
      ints: 0
      ints: 0
      ints: 1
      ints: 1
      type: INTS
    }
  }
  node {
    input: "461"
    input: "464"
    output: "465"
    op_type: "Add"
  }
  node {
    input: "465"
    output: "466"
    op_type: "Relu"
  }
  node {
    input: "466"
    input: "236"
    output: "468"
    op_type: "Conv"
    attribute {
      name: "kernel_shape"
      ints: 1
      ints: 1
      type: INTS
    }
    attribute {
      name: "strides"
      ints: 1
      ints: 1
      type: INTS
    }
    attribute {
      name: "pads"
      ints: 0
      ints: 0
      ints: 0
      ints: 0
      type: INTS
    }
    attribute {
      name: "dilations"
      ints: 1
      ints: 1
      type: INTS
    }
    attribute {
      name: "group"
      i: 1
      type: INT
    }
  }
  node {
    input: "468"
    input: "237"
    input: "238"
    input: "239"
    input: "240"
    output: "469"
    op_type: "BatchNormalization"
    attribute {
      name: "is_test"
      i: 1
      type: INT
    }
    attribute {
      name: "epsilon"
      f: 9.99999974737875e-06
      type: FLOAT
    }
    attribute {
      name: "momentum"
      f: 0.899999976158142
      type: FLOAT
    }
    attribute {
      name: "consumed_inputs"
      ints: 0
      ints: 0
      ints: 0
      ints: 1
      ints: 1
      type: INTS
    }
  }
  node {
    input: "469"
    output: "470"
    op_type: "Relu"
  }
  node {
    input: "470"
    input: "241"
    output: "472"
    op_type: "Conv"
    attribute {
      name: "kernel_shape"
      ints: 3
      ints: 3
      type: INTS
    }
    attribute {
      name: "strides"
      ints: 1
      ints: 1
      type: INTS
    }
    attribute {
      name: "pads"
      ints: 1
      ints: 1
      ints: 1
      ints: 1
      type: INTS
    }
    attribute {
      name: "dilations"
      ints: 1
      ints: 1
      type: INTS
    }
    attribute {
      name: "group"
      i: 1
      type: INT
    }
  }
  node {
    input: "472"
    input: "242"
    input: "243"
    input: "244"
    input: "245"
    output: "473"
    op_type: "BatchNormalization"
    attribute {
      name: "is_test"
      i: 1
      type: INT
    }
    attribute {
      name: "epsilon"
      f: 9.99999974737875e-06
      type: FLOAT
    }
    attribute {
      name: "momentum"
      f: 0.899999976158142
      type: FLOAT
    }
    attribute {
      name: "consumed_inputs"
      ints: 0
      ints: 0
      ints: 0
      ints: 1
      ints: 1
      type: INTS
    }
  }
  node {
    input: "473"
    output: "474"
    op_type: "Relu"
  }
  node {
    input: "474"
    input: "246"
    output: "476"
    op_type: "Conv"
    attribute {
      name: "kernel_shape"
      ints: 1
      ints: 1
      type: INTS
    }
    attribute {
      name: "strides"
      ints: 1
      ints: 1
      type: INTS
    }
    attribute {
      name: "pads"
      ints: 0
      ints: 0
      ints: 0
      ints: 0
      type: INTS
    }
    attribute {
      name: "dilations"
      ints: 1
      ints: 1
      type: INTS
    }
    attribute {
      name: "group"
      i: 1
      type: INT
    }
  }
  node {
    input: "476"
    input: "247"
    input: "248"
    input: "249"
    input: "250"
    output: "477"
    op_type: "BatchNormalization"
    attribute {
      name: "is_test"
      i: 1
      type: INT
    }
    attribute {
      name: "epsilon"
      f: 9.99999974737875e-06
      type: FLOAT
    }
    attribute {
      name: "momentum"
      f: 0.899999976158142
      type: FLOAT
    }
    attribute {
      name: "consumed_inputs"
      ints: 0
      ints: 0
      ints: 0
      ints: 1
      ints: 1
      type: INTS
    }
  }
  node {
    input: "477"
    input: "466"
    output: "478"
    op_type: "Add"
  }
  node {
    input: "478"
    output: "479"
    op_type: "Relu"
  }
  node {
    input: "479"
    input: "251"
    output: "481"
    op_type: "Conv"
    attribute {
      name: "kernel_shape"
      ints: 1
      ints: 1
      type: INTS
    }
    attribute {
      name: "strides"
      ints: 1
      ints: 1
      type: INTS
    }
    attribute {
      name: "pads"
      ints: 0
      ints: 0
      ints: 0
      ints: 0
      type: INTS
    }
    attribute {
      name: "dilations"
      ints: 1
      ints: 1
      type: INTS
    }
    attribute {
      name: "group"
      i: 1
      type: INT
    }
  }
  node {
    input: "481"
    input: "252"
    input: "253"
    input: "254"
    input: "255"
    output: "482"
    op_type: "BatchNormalization"
    attribute {
      name: "is_test"
      i: 1
      type: INT
    }
    attribute {
      name: "epsilon"
      f: 9.99999974737875e-06
      type: FLOAT
    }
    attribute {
      name: "momentum"
      f: 0.899999976158142
      type: FLOAT
    }
    attribute {
      name: "consumed_inputs"
      ints: 0
      ints: 0
      ints: 0
      ints: 1
      ints: 1
      type: INTS
    }
  }
  node {
    input: "482"
    output: "483"
    op_type: "Relu"
  }
  node {
    input: "483"
    input: "256"
    output: "485"
    op_type: "Conv"
    attribute {
      name: "kernel_shape"
      ints: 3
      ints: 3
      type: INTS
    }
    attribute {
      name: "strides"
      ints: 1
      ints: 1
      type: INTS
    }
    attribute {
      name: "pads"
      ints: 1
      ints: 1
      ints: 1
      ints: 1
      type: INTS
    }
    attribute {
      name: "dilations"
      ints: 1
      ints: 1
      type: INTS
    }
    attribute {
      name: "group"
      i: 1
      type: INT
    }
  }
  node {
    input: "485"
    input: "257"
    input: "258"
    input: "259"
    input: "260"
    output: "486"
    op_type: "BatchNormalization"
    attribute {
      name: "is_test"
      i: 1
      type: INT
    }
    attribute {
      name: "epsilon"
      f: 9.99999974737875e-06
      type: FLOAT
    }
    attribute {
      name: "momentum"
      f: 0.899999976158142
      type: FLOAT
    }
    attribute {
      name: "consumed_inputs"
      ints: 0
      ints: 0
      ints: 0
      ints: 1
      ints: 1
      type: INTS
    }
  }
  node {
    input: "486"
    output: "487"
    op_type: "Relu"
  }
  node {
    input: "487"
    input: "261"
    output: "489"
    op_type: "Conv"
    attribute {
      name: "kernel_shape"
      ints: 1
      ints: 1
      type: INTS
    }
    attribute {
      name: "strides"
      ints: 1
      ints: 1
      type: INTS
    }
    attribute {
      name: "pads"
      ints: 0
      ints: 0
      ints: 0
      ints: 0
      type: INTS
    }
    attribute {
      name: "dilations"
      ints: 1
      ints: 1
      type: INTS
    }
    attribute {
      name: "group"
      i: 1
      type: INT
    }
  }
  node {
    input: "489"
    input: "262"
    input: "263"
    input: "264"
    input: "265"
    output: "490"
    op_type: "BatchNormalization"
    attribute {
      name: "is_test"
      i: 1
      type: INT
    }
    attribute {
      name: "epsilon"
      f: 9.99999974737875e-06
      type: FLOAT
    }
    attribute {
      name: "momentum"
      f: 0.899999976158142
      type: FLOAT
    }
    attribute {
      name: "consumed_inputs"
      ints: 0
      ints: 0
      ints: 0
      ints: 1
      ints: 1
      type: INTS
    }
  }
  node {
    input: "490"
    input: "479"
    output: "491"
    op_type: "Add"
  }
  node {
    input: "491"
    output: "492"
    op_type: "Relu"
  }
  node {
    input: "492"
    output: "493"
    op_type: "AveragePool"
    attribute {
      name: "kernel_shape"
      ints: 7
      ints: 7
      type: INTS
    }
    attribute {
      name: "pads"
      ints: 0
      ints: 0
      type: INTS
    }
    attribute {
      name: "strides"
      ints: 7
      ints: 7
      type: INTS
    }
  }
  node {
    input: "493"
    output: "494"
    op_type: "Reshape"
    attribute {
      name: "shape"
      ints: 2
      ints: -1
      type: INTS
    }
  }
  node {
    input: "494"
    input: "266"
    input: "267"
    output: "497"
    op_type: "Gemm"
    attribute {
      name: "alpha"
      f: 1
      type: FLOAT
    }
    attribute {
      name: "beta"
      f: 1
      type: FLOAT
    }
    attribute {
      name: "broadcast"
      i: 1
      type: INT
    }
    attribute {
      name: "transB"
      i: 1
      type: INT
    }
  }
  name: "torch-jit-export"
  input {
    name: "0"
    type {
      tensor_type {
        elem_type: FLOAT
        shape {
          dim {
            dim_value: 2
          }
          dim {
            dim_value: 3
          }
          dim {
            dim_value: 224
          }
          dim {
            dim_value: 224
          }
        }
      }
    }
  }
  input {
    name: "1"
    type {
      tensor_type {
        elem_type: FLOAT
        shape {
          dim {
            dim_value: 64
          }
          dim {
            dim_value: 3
          }
          dim {
            dim_value: 7
          }
          dim {
            dim_value: 7
          }
        }
      }
    }
  }
  input {
    name: "2"
    type {
      tensor_type {
        elem_type: FLOAT
        shape {
          dim {
            dim_value: 64
          }
        }
      }
    }
  }
  input {
    name: "3"
    type {
      tensor_type {
        elem_type: FLOAT
        shape {
          dim {
            dim_value: 64
          }
        }
      }
    }
  }
  input {
    name: "4"
    type {
      tensor_type {
        elem_type: FLOAT
        shape {
          dim {
            dim_value: 64
          }
        }
      }
    }
  }
  input {
    name: "5"
    type {
      tensor_type {
        elem_type: FLOAT
        shape {
          dim {
            dim_value: 64
          }
        }
      }
    }
  }
  input {
    name: "6"
    type {
      tensor_type {
        elem_type: FLOAT
        shape {
          dim {
            dim_value: 64
          }
          dim {
            dim_value: 64
          }
          dim {
            dim_value: 1
          }
          dim {
            dim_value: 1
          }
        }
      }
    }
  }
  input {
    name: "7"
    type {
      tensor_type {
        elem_type: FLOAT
        shape {
          dim {
            dim_value: 64
          }
        }
      }
    }
  }
  input {
    name: "8"
    type {
      tensor_type {
        elem_type: FLOAT
        shape {
          dim {
            dim_value: 64
          }
        }
      }
    }
  }
  input {
    name: "9"
    type {
      tensor_type {
        elem_type: FLOAT
        shape {
          dim {
            dim_value: 64
          }
        }
      }
    }
  }
  input {
    name: "10"
    type {
      tensor_type {
        elem_type: FLOAT
        shape {
          dim {
            dim_value: 64
          }
        }
      }
    }
  }
  input {
    name: "11"
    type {
      tensor_type {
        elem_type: FLOAT
        shape {
          dim {
            dim_value: 64
          }
          dim {
            dim_value: 64
          }
          dim {
            dim_value: 3
          }
          dim {
            dim_value: 3
          }
        }
      }
    }
  }
  input {
    name: "12"
    type {
      tensor_type {
        elem_type: FLOAT
        shape {
          dim {
            dim_value: 64
          }
        }
      }
    }
  }
  input {
    name: "13"
    type {
      tensor_type {
        elem_type: FLOAT
        shape {
          dim {
            dim_value: 64
          }
        }
      }
    }
  }
  input {
    name: "14"
    type {
      tensor_type {
        elem_type: FLOAT
        shape {
          dim {
            dim_value: 64
          }
        }
      }
    }
  }
  input {
    name: "15"
    type {
      tensor_type {
        elem_type: FLOAT
        shape {
          dim {
            dim_value: 64
          }
        }
      }
    }
  }
  input {
    name: "16"
    type {
      tensor_type {
        elem_type: FLOAT
        shape {
          dim {
            dim_value: 256
          }
          dim {
            dim_value: 64
          }
          dim {
            dim_value: 1
          }
          dim {
            dim_value: 1
          }
        }
      }
    }
  }
  input {
    name: "17"
    type {
      tensor_type {
        elem_type: FLOAT
        shape {
          dim {
            dim_value: 256
          }
        }
      }
    }
  }
  input {
    name: "18"
    type {
      tensor_type {
        elem_type: FLOAT
        shape {
          dim {
            dim_value: 256
          }
        }
      }
    }
  }
  input {
    name: "19"
    type {
      tensor_type {
        elem_type: FLOAT
        shape {
          dim {
            dim_value: 256
          }
        }
      }
    }
  }
  input {
    name: "20"
    type {
      tensor_type {
        elem_type: FLOAT
        shape {
          dim {
            dim_value: 256
          }
        }
      }
    }
  }
  input {
    name: "21"
    type {
      tensor_type {
        elem_type: FLOAT
        shape {
          dim {
            dim_value: 256
          }
          dim {
            dim_value: 64
          }
          dim {
            dim_value: 1
          }
          dim {
            dim_value: 1
          }
        }
      }
    }
  }
  input {
    name: "22"
    type {
      tensor_type {
        elem_type: FLOAT
        shape {
          dim {
            dim_value: 256
          }
        }
      }
    }
  }
  input {
    name: "23"
    type {
      tensor_type {
        elem_type: FLOAT
        shape {
          dim {
            dim_value: 256
          }
        }
      }
    }
  }
  input {
    name: "24"
    type {
      tensor_type {
        elem_type: FLOAT
        shape {
          dim {
            dim_value: 256
          }
        }
      }
    }
  }
  input {
    name: "25"
    type {
      tensor_type {
        elem_type: FLOAT
        shape {
          dim {
            dim_value: 256
          }
        }
      }
    }
  }
  input {
    name: "26"
    type {
      tensor_type {
        elem_type: FLOAT
        shape {
          dim {
            dim_value: 64
          }
          dim {
            dim_value: 256
          }
          dim {
            dim_value: 1
          }
          dim {
            dim_value: 1
          }
        }
      }
    }
  }
  input {
    name: "27"
    type {
      tensor_type {
        elem_type: FLOAT
        shape {
          dim {
            dim_value: 64
          }
        }
      }
    }
  }
  input {
    name: "28"
    type {
      tensor_type {
        elem_type: FLOAT
        shape {
          dim {
            dim_value: 64
          }
        }
      }
    }
  }
  input {
    name: "29"
    type {
      tensor_type {
        elem_type: FLOAT
        shape {
          dim {
            dim_value: 64
          }
        }
      }
    }
  }
  input {
    name: "30"
    type {
      tensor_type {
        elem_type: FLOAT
        shape {
          dim {
            dim_value: 64
          }
        }
      }
    }
  }
  input {
    name: "31"
    type {
      tensor_type {
        elem_type: FLOAT
        shape {
          dim {
            dim_value: 64
          }
          dim {
            dim_value: 64
          }
          dim {
            dim_value: 3
          }
          dim {
            dim_value: 3
          }
        }
      }
    }
  }
  input {
    name: "32"
    type {
      tensor_type {
        elem_type: FLOAT
        shape {
          dim {
            dim_value: 64
          }
        }
      }
    }
  }
  input {
    name: "33"
    type {
      tensor_type {
        elem_type: FLOAT
        shape {
          dim {
            dim_value: 64
          }
        }
      }
    }
  }
  input {
    name: "34"
    type {
      tensor_type {
        elem_type: FLOAT
        shape {
          dim {
            dim_value: 64
          }
        }
      }
    }
  }
  input {
    name: "35"
    type {
      tensor_type {
        elem_type: FLOAT
        shape {
          dim {
            dim_value: 64
          }
        }
      }
    }
  }
  input {
    name: "36"
    type {
      tensor_type {
        elem_type: FLOAT
        shape {
          dim {
            dim_value: 256
          }
          dim {
            dim_value: 64
          }
          dim {
            dim_value: 1
          }
          dim {
            dim_value: 1
          }
        }
      }
    }
  }
  input {
    name: "37"
    type {
      tensor_type {
        elem_type: FLOAT
        shape {
          dim {
            dim_value: 256
          }
        }
      }
    }
  }
  input {
    name: "38"
    type {
      tensor_type {
        elem_type: FLOAT
        shape {
          dim {
            dim_value: 256
          }
        }
      }
    }
  }
  input {
    name: "39"
    type {
      tensor_type {
        elem_type: FLOAT
        shape {
          dim {
            dim_value: 256
          }
        }
      }
    }
  }
  input {
    name: "40"
    type {
      tensor_type {
        elem_type: FLOAT
        shape {
          dim {
            dim_value: 256
          }
        }
      }
    }
  }
  input {
    name: "41"
    type {
      tensor_type {
        elem_type: FLOAT
        shape {
          dim {
            dim_value: 64
          }
          dim {
            dim_value: 256
          }
          dim {
            dim_value: 1
          }
          dim {
            dim_value: 1
          }
        }
      }
    }
  }
  input {
    name: "42"
    type {
      tensor_type {
        elem_type: FLOAT
        shape {
          dim {
            dim_value: 64
          }
        }
      }
    }
  }
  input {
    name: "43"
    type {
      tensor_type {
        elem_type: FLOAT
        shape {
          dim {
            dim_value: 64
          }
        }
      }
    }
  }
  input {
    name: "44"
    type {
      tensor_type {
        elem_type: FLOAT
        shape {
          dim {
            dim_value: 64
          }
        }
      }
    }
  }
  input {
    name: "45"
    type {
      tensor_type {
        elem_type: FLOAT
        shape {
          dim {
            dim_value: 64
          }
        }
      }
    }
  }
  input {
    name: "46"
    type {
      tensor_type {
        elem_type: FLOAT
        shape {
          dim {
            dim_value: 64
          }
          dim {
            dim_value: 64
          }
          dim {
            dim_value: 3
          }
          dim {
            dim_value: 3
          }
        }
      }
    }
  }
  input {
    name: "47"
    type {
      tensor_type {
        elem_type: FLOAT
        shape {
          dim {
            dim_value: 64
          }
        }
      }
    }
  }
  input {
    name: "48"
    type {
      tensor_type {
        elem_type: FLOAT
        shape {
          dim {
            dim_value: 64
          }
        }
      }
    }
  }
  input {
    name: "49"
    type {
      tensor_type {
        elem_type: FLOAT
        shape {
          dim {
            dim_value: 64
          }
        }
      }
    }
  }
  input {
    name: "50"
    type {
      tensor_type {
        elem_type: FLOAT
        shape {
          dim {
            dim_value: 64
          }
        }
      }
    }
  }
  input {
    name: "51"
    type {
      tensor_type {
        elem_type: FLOAT
        shape {
          dim {
            dim_value: 256
          }
          dim {
            dim_value: 64
          }
          dim {
            dim_value: 1
          }
          dim {
            dim_value: 1
          }
        }
      }
    }
  }
  input {
    name: "52"
    type {
      tensor_type {
        elem_type: FLOAT
        shape {
          dim {
            dim_value: 256
          }
        }
      }
    }
  }
  input {
    name: "53"
    type {
      tensor_type {
        elem_type: FLOAT
        shape {
          dim {
            dim_value: 256
          }
        }
      }
    }
  }
  input {
    name: "54"
    type {
      tensor_type {
        elem_type: FLOAT
        shape {
          dim {
            dim_value: 256
          }
        }
      }
    }
  }
  input {
    name: "55"
    type {
      tensor_type {
        elem_type: FLOAT
        shape {
          dim {
            dim_value: 256
          }
        }
      }
    }
  }
  input {
    name: "56"
    type {
      tensor_type {
        elem_type: FLOAT
        shape {
          dim {
            dim_value: 128
          }
          dim {
            dim_value: 256
          }
          dim {
            dim_value: 1
          }
          dim {
            dim_value: 1
          }
        }
      }
    }
  }
  input {
    name: "57"
    type {
      tensor_type {
        elem_type: FLOAT
        shape {
          dim {
            dim_value: 128
          }
        }
      }
    }
  }
  input {
    name: "58"
    type {
      tensor_type {
        elem_type: FLOAT
        shape {
          dim {
            dim_value: 128
          }
        }
      }
    }
  }
  input {
    name: "59"
    type {
      tensor_type {
        elem_type: FLOAT
        shape {
          dim {
            dim_value: 128
          }
        }
      }
    }
  }
  input {
    name: "60"
    type {
      tensor_type {
        elem_type: FLOAT
        shape {
          dim {
            dim_value: 128
          }
        }
      }
    }
  }
  input {
    name: "61"
    type {
      tensor_type {
        elem_type: FLOAT
        shape {
          dim {
            dim_value: 128
          }
          dim {
            dim_value: 128
          }
          dim {
            dim_value: 3
          }
          dim {
            dim_value: 3
          }
        }
      }
    }
  }
  input {
    name: "62"
    type {
      tensor_type {
        elem_type: FLOAT
        shape {
          dim {
            dim_value: 128
          }
        }
      }
    }
  }
  input {
    name: "63"
    type {
      tensor_type {
        elem_type: FLOAT
        shape {
          dim {
            dim_value: 128
          }
        }
      }
    }
  }
  input {
    name: "64"
    type {
      tensor_type {
        elem_type: FLOAT
        shape {
          dim {
            dim_value: 128
          }
        }
      }
    }
  }
  input {
    name: "65"
    type {
      tensor_type {
        elem_type: FLOAT
        shape {
          dim {
            dim_value: 128
          }
        }
      }
    }
  }
  input {
    name: "66"
    type {
      tensor_type {
        elem_type: FLOAT
        shape {
          dim {
            dim_value: 512
          }
          dim {
            dim_value: 128
          }
          dim {
            dim_value: 1
          }
          dim {
            dim_value: 1
          }
        }
      }
    }
  }
  input {
    name: "67"
    type {
      tensor_type {
        elem_type: FLOAT
        shape {
          dim {
            dim_value: 512
          }
        }
      }
    }
  }
  input {
    name: "68"
    type {
      tensor_type {
        elem_type: FLOAT
        shape {
          dim {
            dim_value: 512
          }
        }
      }
    }
  }
  input {
    name: "69"
    type {
      tensor_type {
        elem_type: FLOAT
        shape {
          dim {
            dim_value: 512
          }
        }
      }
    }
  }
  input {
    name: "70"
    type {
      tensor_type {
        elem_type: FLOAT
        shape {
          dim {
            dim_value: 512
          }
        }
      }
    }
  }
  input {
    name: "71"
    type {
      tensor_type {
        elem_type: FLOAT
        shape {
          dim {
            dim_value: 512
          }
          dim {
            dim_value: 256
          }
          dim {
            dim_value: 1
          }
          dim {
            dim_value: 1
          }
        }
      }
    }
  }
  input {
    name: "72"
    type {
      tensor_type {
        elem_type: FLOAT
        shape {
          dim {
            dim_value: 512
          }
        }
      }
    }
  }
  input {
    name: "73"
    type {
      tensor_type {
        elem_type: FLOAT
        shape {
          dim {
            dim_value: 512
          }
        }
      }
    }
  }
  input {
    name: "74"
    type {
      tensor_type {
        elem_type: FLOAT
        shape {
          dim {
            dim_value: 512
          }
        }
      }
    }
  }
  input {
    name: "75"
    type {
      tensor_type {
        elem_type: FLOAT
        shape {
          dim {
            dim_value: 512
          }
        }
      }
    }
  }
  input {
    name: "76"
    type {
      tensor_type {
        elem_type: FLOAT
        shape {
          dim {
            dim_value: 128
          }
          dim {
            dim_value: 512
          }
          dim {
            dim_value: 1
          }
          dim {
            dim_value: 1
          }
        }
      }
    }
  }
  input {
    name: "77"
    type {
      tensor_type {
        elem_type: FLOAT
        shape {
          dim {
            dim_value: 128
          }
        }
      }
    }
  }
  input {
    name: "78"
    type {
      tensor_type {
        elem_type: FLOAT
        shape {
          dim {
            dim_value: 128
          }
        }
      }
    }
  }
  input {
    name: "79"
    type {
      tensor_type {
        elem_type: FLOAT
        shape {
          dim {
            dim_value: 128
          }
        }
      }
    }
  }
  input {
    name: "80"
    type {
      tensor_type {
        elem_type: FLOAT
        shape {
          dim {
            dim_value: 128
          }
        }
      }
    }
  }
  input {
    name: "81"
    type {
      tensor_type {
        elem_type: FLOAT
        shape {
          dim {
            dim_value: 128
          }
          dim {
            dim_value: 128
          }
          dim {
            dim_value: 3
          }
          dim {
            dim_value: 3
          }
        }
      }
    }
  }
  input {
    name: "82"
    type {
      tensor_type {
        elem_type: FLOAT
        shape {
          dim {
            dim_value: 128
          }
        }
      }
    }
  }
  input {
    name: "83"
    type {
      tensor_type {
        elem_type: FLOAT
        shape {
          dim {
            dim_value: 128
          }
        }
      }
    }
  }
  input {
    name: "84"
    type {
      tensor_type {
        elem_type: FLOAT
        shape {
          dim {
            dim_value: 128
          }
        }
      }
    }
  }
  input {
    name: "85"
    type {
      tensor_type {
        elem_type: FLOAT
        shape {
          dim {
            dim_value: 128
          }
        }
      }
    }
  }
  input {
    name: "86"
    type {
      tensor_type {
        elem_type: FLOAT
        shape {
          dim {
            dim_value: 512
          }
          dim {
            dim_value: 128
          }
          dim {
            dim_value: 1
          }
          dim {
            dim_value: 1
          }
        }
      }
    }
  }
  input {
    name: "87"
    type {
      tensor_type {
        elem_type: FLOAT
        shape {
          dim {
            dim_value: 512
          }
        }
      }
    }
  }
  input {
    name: "88"
    type {
      tensor_type {
        elem_type: FLOAT
        shape {
          dim {
            dim_value: 512
          }
        }
      }
    }
  }
  input {
    name: "89"
    type {
      tensor_type {
        elem_type: FLOAT
        shape {
          dim {
            dim_value: 512
          }
        }
      }
    }
  }
  input {
    name: "90"
    type {
      tensor_type {
        elem_type: FLOAT
        shape {
          dim {
            dim_value: 512
          }
        }
      }
    }
  }
  input {
    name: "91"
    type {
      tensor_type {
        elem_type: FLOAT
        shape {
          dim {
            dim_value: 128
          }
          dim {
            dim_value: 512
          }
          dim {
            dim_value: 1
          }
          dim {
            dim_value: 1
          }
        }
      }
    }
  }
  input {
    name: "92"
    type {
      tensor_type {
        elem_type: FLOAT
        shape {
          dim {
            dim_value: 128
          }
        }
      }
    }
  }
  input {
    name: "93"
    type {
      tensor_type {
        elem_type: FLOAT
        shape {
          dim {
            dim_value: 128
          }
        }
      }
    }
  }
  input {
    name: "94"
    type {
      tensor_type {
        elem_type: FLOAT
        shape {
          dim {
            dim_value: 128
          }
        }
      }
    }
  }
  input {
    name: "95"
    type {
      tensor_type {
        elem_type: FLOAT
        shape {
          dim {
            dim_value: 128
          }
        }
      }
    }
  }
  input {
    name: "96"
    type {
      tensor_type {
        elem_type: FLOAT
        shape {
          dim {
            dim_value: 128
          }
          dim {
            dim_value: 128
          }
          dim {
            dim_value: 3
          }
          dim {
            dim_value: 3
          }
        }
      }
    }
  }
  input {
    name: "97"
    type {
      tensor_type {
        elem_type: FLOAT
        shape {
          dim {
            dim_value: 128
          }
        }
      }
    }
  }
  input {
    name: "98"
    type {
      tensor_type {
        elem_type: FLOAT
        shape {
          dim {
            dim_value: 128
          }
        }
      }
    }
  }
  input {
    name: "99"
    type {
      tensor_type {
        elem_type: FLOAT
        shape {
          dim {
            dim_value: 128
          }
        }
      }
    }
  }
  input {
    name: "100"
    type {
      tensor_type {
        elem_type: FLOAT
        shape {
          dim {
            dim_value: 128
          }
        }
      }
    }
  }
  input {
    name: "101"
    type {
      tensor_type {
        elem_type: FLOAT
        shape {
          dim {
            dim_value: 512
          }
          dim {
            dim_value: 128
          }
          dim {
            dim_value: 1
          }
          dim {
            dim_value: 1
          }
        }
      }
    }
  }
  input {
    name: "102"
    type {
      tensor_type {
        elem_type: FLOAT
        shape {
          dim {
            dim_value: 512
          }
        }
      }
    }
  }
  input {
    name: "103"
    type {
      tensor_type {
        elem_type: FLOAT
        shape {
          dim {
            dim_value: 512
          }
        }
      }
    }
  }
  input {
    name: "104"
    type {
      tensor_type {
        elem_type: FLOAT
        shape {
          dim {
            dim_value: 512
          }
        }
      }
    }
  }
  input {
    name: "105"
    type {
      tensor_type {
        elem_type: FLOAT
        shape {
          dim {
            dim_value: 512
          }
        }
      }
    }
  }
  input {
    name: "106"
    type {
      tensor_type {
        elem_type: FLOAT
        shape {
          dim {
            dim_value: 128
          }
          dim {
            dim_value: 512
          }
          dim {
            dim_value: 1
          }
          dim {
            dim_value: 1
          }
        }
      }
    }
  }
  input {
    name: "107"
    type {
      tensor_type {
        elem_type: FLOAT
        shape {
          dim {
            dim_value: 128
          }
        }
      }
    }
  }
  input {
    name: "108"
    type {
      tensor_type {
        elem_type: FLOAT
        shape {
          dim {
            dim_value: 128
          }
        }
      }
    }
  }
  input {
    name: "109"
    type {
      tensor_type {
        elem_type: FLOAT
        shape {
          dim {
            dim_value: 128
          }
        }
      }
    }
  }
  input {
    name: "110"
    type {
      tensor_type {
        elem_type: FLOAT
        shape {
          dim {
            dim_value: 128
          }
        }
      }
    }
  }
  input {
    name: "111"
    type {
      tensor_type {
        elem_type: FLOAT
        shape {
          dim {
            dim_value: 128
          }
          dim {
            dim_value: 128
          }
          dim {
            dim_value: 3
          }
          dim {
            dim_value: 3
          }
        }
      }
    }
  }
  input {
    name: "112"
    type {
      tensor_type {
        elem_type: FLOAT
        shape {
          dim {
            dim_value: 128
          }
        }
      }
    }
  }
  input {
    name: "113"
    type {
      tensor_type {
        elem_type: FLOAT
        shape {
          dim {
            dim_value: 128
          }
        }
      }
    }
  }
  input {
    name: "114"
    type {
      tensor_type {
        elem_type: FLOAT
        shape {
          dim {
            dim_value: 128
          }
        }
      }
    }
  }
  input {
    name: "115"
    type {
      tensor_type {
        elem_type: FLOAT
        shape {
          dim {
            dim_value: 128
          }
        }
      }
    }
  }
  input {
    name: "116"
    type {
      tensor_type {
        elem_type: FLOAT
        shape {
          dim {
            dim_value: 512
          }
          dim {
            dim_value: 128
          }
          dim {
            dim_value: 1
          }
          dim {
            dim_value: 1
          }
        }
      }
    }
  }
  input {
    name: "117"
    type {
      tensor_type {
        elem_type: FLOAT
        shape {
          dim {
            dim_value: 512
          }
        }
      }
    }
  }
  input {
    name: "118"
    type {
      tensor_type {
        elem_type: FLOAT
        shape {
          dim {
            dim_value: 512
          }
        }
      }
    }
  }
  input {
    name: "119"
    type {
      tensor_type {
        elem_type: FLOAT
        shape {
          dim {
            dim_value: 512
          }
        }
      }
    }
  }
  input {
    name: "120"
    type {
      tensor_type {
        elem_type: FLOAT
        shape {
          dim {
            dim_value: 512
          }
        }
      }
    }
  }
  input {
    name: "121"
    type {
      tensor_type {
        elem_type: FLOAT
        shape {
          dim {
            dim_value: 256
          }
          dim {
            dim_value: 512
          }
          dim {
            dim_value: 1
          }
          dim {
            dim_value: 1
          }
        }
      }
    }
  }
  input {
    name: "122"
    type {
      tensor_type {
        elem_type: FLOAT
        shape {
          dim {
            dim_value: 256
          }
        }
      }
    }
  }
  input {
    name: "123"
    type {
      tensor_type {
        elem_type: FLOAT
        shape {
          dim {
            dim_value: 256
          }
        }
      }
    }
  }
  input {
    name: "124"
    type {
      tensor_type {
        elem_type: FLOAT
        shape {
          dim {
            dim_value: 256
          }
        }
      }
    }
  }
  input {
    name: "125"
    type {
      tensor_type {
        elem_type: FLOAT
        shape {
          dim {
            dim_value: 256
          }
        }
      }
    }
  }
  input {
    name: "126"
    type {
      tensor_type {
        elem_type: FLOAT
        shape {
          dim {
            dim_value: 256
          }
          dim {
            dim_value: 256
          }
          dim {
            dim_value: 3
          }
          dim {
            dim_value: 3
          }
        }
      }
    }
  }
  input {
    name: "127"
    type {
      tensor_type {
        elem_type: FLOAT
        shape {
          dim {
            dim_value: 256
          }
        }
      }
    }
  }
  input {
    name: "128"
    type {
      tensor_type {
        elem_type: FLOAT
        shape {
          dim {
            dim_value: 256
          }
        }
      }
    }
  }
  input {
    name: "129"
    type {
      tensor_type {
        elem_type: FLOAT
        shape {
          dim {
            dim_value: 256
          }
        }
      }
    }
  }
  input {
    name: "130"
    type {
      tensor_type {
        elem_type: FLOAT
        shape {
          dim {
            dim_value: 256
          }
        }
      }
    }
  }
  input {
    name: "131"
    type {
      tensor_type {
        elem_type: FLOAT
        shape {
          dim {
            dim_value: 1024
          }
          dim {
            dim_value: 256
          }
          dim {
            dim_value: 1
          }
          dim {
            dim_value: 1
          }
        }
      }
    }
  }
  input {
    name: "132"
    type {
      tensor_type {
        elem_type: FLOAT
        shape {
          dim {
            dim_value: 1024
          }
        }
      }
    }
  }
  input {
    name: "133"
    type {
      tensor_type {
        elem_type: FLOAT
        shape {
          dim {
            dim_value: 1024
          }
        }
      }
    }
  }
  input {
    name: "134"
    type {
      tensor_type {
        elem_type: FLOAT
        shape {
          dim {
            dim_value: 1024
          }
        }
      }
    }
  }
  input {
    name: "135"
    type {
      tensor_type {
        elem_type: FLOAT
        shape {
          dim {
            dim_value: 1024
          }
        }
      }
    }
  }
  input {
    name: "136"
    type {
      tensor_type {
        elem_type: FLOAT
        shape {
          dim {
            dim_value: 1024
          }
          dim {
            dim_value: 512
          }
          dim {
            dim_value: 1
          }
          dim {
            dim_value: 1
          }
        }
      }
    }
  }
  input {
    name: "137"
    type {
      tensor_type {
        elem_type: FLOAT
        shape {
          dim {
            dim_value: 1024
          }
        }
      }
    }
  }
  input {
    name: "138"
    type {
      tensor_type {
        elem_type: FLOAT
        shape {
          dim {
            dim_value: 1024
          }
        }
      }
    }
  }
  input {
    name: "139"
    type {
      tensor_type {
        elem_type: FLOAT
        shape {
          dim {
            dim_value: 1024
          }
        }
      }
    }
  }
  input {
    name: "140"
    type {
      tensor_type {
        elem_type: FLOAT
        shape {
          dim {
            dim_value: 1024
          }
        }
      }
    }
  }
  input {
    name: "141"
    type {
      tensor_type {
        elem_type: FLOAT
        shape {
          dim {
            dim_value: 256
          }
          dim {
            dim_value: 1024
          }
          dim {
            dim_value: 1
          }
          dim {
            dim_value: 1
          }
        }
      }
    }
  }
  input {
    name: "142"
    type {
      tensor_type {
        elem_type: FLOAT
        shape {
          dim {
            dim_value: 256
          }
        }
      }
    }
  }
  input {
    name: "143"
    type {
      tensor_type {
        elem_type: FLOAT
        shape {
          dim {
            dim_value: 256
          }
        }
      }
    }
  }
  input {
    name: "144"
    type {
      tensor_type {
        elem_type: FLOAT
        shape {
          dim {
            dim_value: 256
          }
        }
      }
    }
  }
  input {
    name: "145"
    type {
      tensor_type {
        elem_type: FLOAT
        shape {
          dim {
            dim_value: 256
          }
        }
      }
    }
  }
  input {
    name: "146"
    type {
      tensor_type {
        elem_type: FLOAT
        shape {
          dim {
            dim_value: 256
          }
          dim {
            dim_value: 256
          }
          dim {
            dim_value: 3
          }
          dim {
            dim_value: 3
          }
        }
      }
    }
  }
  input {
    name: "147"
    type {
      tensor_type {
        elem_type: FLOAT
        shape {
          dim {
            dim_value: 256
          }
        }
      }
    }
  }
  input {
    name: "148"
    type {
      tensor_type {
        elem_type: FLOAT
        shape {
          dim {
            dim_value: 256
          }
        }
      }
    }
  }
  input {
    name: "149"
    type {
      tensor_type {
        elem_type: FLOAT
        shape {
          dim {
            dim_value: 256
          }
        }
      }
    }
  }
  input {
    name: "150"
    type {
      tensor_type {
        elem_type: FLOAT
        shape {
          dim {
            dim_value: 256
          }
        }
      }
    }
  }
  input {
    name: "151"
    type {
      tensor_type {
        elem_type: FLOAT
        shape {
          dim {
            dim_value: 1024
          }
          dim {
            dim_value: 256
          }
          dim {
            dim_value: 1
          }
          dim {
            dim_value: 1
          }
        }
      }
    }
  }
  input {
    name: "152"
    type {
      tensor_type {
        elem_type: FLOAT
        shape {
          dim {
            dim_value: 1024
          }
        }
      }
    }
  }
  input {
    name: "153"
    type {
      tensor_type {
        elem_type: FLOAT
        shape {
          dim {
            dim_value: 1024
          }
        }
      }
    }
  }
  input {
    name: "154"
    type {
      tensor_type {
        elem_type: FLOAT
        shape {
          dim {
            dim_value: 1024
          }
        }
      }
    }
  }
  input {
    name: "155"
    type {
      tensor_type {
        elem_type: FLOAT
        shape {
          dim {
            dim_value: 1024
          }
        }
      }
    }
  }
  input {
    name: "156"
    type {
      tensor_type {
        elem_type: FLOAT
        shape {
          dim {
            dim_value: 256
          }
          dim {
            dim_value: 1024
          }
          dim {
            dim_value: 1
          }
          dim {
            dim_value: 1
          }
        }
      }
    }
  }
  input {
    name: "157"
    type {
      tensor_type {
        elem_type: FLOAT
        shape {
          dim {
            dim_value: 256
          }
        }
      }
    }
  }
  input {
    name: "158"
    type {
      tensor_type {
        elem_type: FLOAT
        shape {
          dim {
            dim_value: 256
          }
        }
      }
    }
  }
  input {
    name: "159"
    type {
      tensor_type {
        elem_type: FLOAT
        shape {
          dim {
            dim_value: 256
          }
        }
      }
    }
  }
  input {
    name: "160"
    type {
      tensor_type {
        elem_type: FLOAT
        shape {
          dim {
            dim_value: 256
          }
        }
      }
    }
  }
  input {
    name: "161"
    type {
      tensor_type {
        elem_type: FLOAT
        shape {
          dim {
            dim_value: 256
          }
          dim {
            dim_value: 256
          }
          dim {
            dim_value: 3
          }
          dim {
            dim_value: 3
          }
        }
      }
    }
  }
  input {
    name: "162"
    type {
      tensor_type {
        elem_type: FLOAT
        shape {
          dim {
            dim_value: 256
          }
        }
      }
    }
  }
  input {
    name: "163"
    type {
      tensor_type {
        elem_type: FLOAT
        shape {
          dim {
            dim_value: 256
          }
        }
      }
    }
  }
  input {
    name: "164"
    type {
      tensor_type {
        elem_type: FLOAT
        shape {
          dim {
            dim_value: 256
          }
        }
      }
    }
  }
  input {
    name: "165"
    type {
      tensor_type {
        elem_type: FLOAT
        shape {
          dim {
            dim_value: 256
          }
        }
      }
    }
  }
  input {
    name: "166"
    type {
      tensor_type {
        elem_type: FLOAT
        shape {
          dim {
            dim_value: 1024
          }
          dim {
            dim_value: 256
          }
          dim {
            dim_value: 1
          }
          dim {
            dim_value: 1
          }
        }
      }
    }
  }
  input {
    name: "167"
    type {
      tensor_type {
        elem_type: FLOAT
        shape {
          dim {
            dim_value: 1024
          }
        }
      }
    }
  }
  input {
    name: "168"
    type {
      tensor_type {
        elem_type: FLOAT
        shape {
          dim {
            dim_value: 1024
          }
        }
      }
    }
  }
  input {
    name: "169"
    type {
      tensor_type {
        elem_type: FLOAT
        shape {
          dim {
            dim_value: 1024
          }
        }
      }
    }
  }
  input {
    name: "170"
    type {
      tensor_type {
        elem_type: FLOAT
        shape {
          dim {
            dim_value: 1024
          }
        }
      }
    }
  }
  input {
    name: "171"
    type {
      tensor_type {
        elem_type: FLOAT
        shape {
          dim {
            dim_value: 256
          }
          dim {
            dim_value: 1024
          }
          dim {
            dim_value: 1
          }
          dim {
            dim_value: 1
          }
        }
      }
    }
  }
  input {
    name: "172"
    type {
      tensor_type {
        elem_type: FLOAT
        shape {
          dim {
            dim_value: 256
          }
        }
      }
    }
  }
  input {
    name: "173"
    type {
      tensor_type {
        elem_type: FLOAT
        shape {
          dim {
            dim_value: 256
          }
        }
      }
    }
  }
  input {
    name: "174"
    type {
      tensor_type {
        elem_type: FLOAT
        shape {
          dim {
            dim_value: 256
          }
        }
      }
    }
  }
  input {
    name: "175"
    type {
      tensor_type {
        elem_type: FLOAT
        shape {
          dim {
            dim_value: 256
          }
        }
      }
    }
  }
  input {
    name: "176"
    type {
      tensor_type {
        elem_type: FLOAT
        shape {
          dim {
            dim_value: 256
          }
          dim {
            dim_value: 256
          }
          dim {
            dim_value: 3
          }
          dim {
            dim_value: 3
          }
        }
      }
    }
  }
  input {
    name: "177"
    type {
      tensor_type {
        elem_type: FLOAT
        shape {
          dim {
            dim_value: 256
          }
        }
      }
    }
  }
  input {
    name: "178"
    type {
      tensor_type {
        elem_type: FLOAT
        shape {
          dim {
            dim_value: 256
          }
        }
      }
    }
  }
  input {
    name: "179"
    type {
      tensor_type {
        elem_type: FLOAT
        shape {
          dim {
            dim_value: 256
          }
        }
      }
    }
  }
  input {
    name: "180"
    type {
      tensor_type {
        elem_type: FLOAT
        shape {
          dim {
            dim_value: 256
          }
        }
      }
    }
  }
  input {
    name: "181"
    type {
      tensor_type {
        elem_type: FLOAT
        shape {
          dim {
            dim_value: 1024
          }
          dim {
            dim_value: 256
          }
          dim {
            dim_value: 1
          }
          dim {
            dim_value: 1
          }
        }
      }
    }
  }
  input {
    name: "182"
    type {
      tensor_type {
        elem_type: FLOAT
        shape {
          dim {
            dim_value: 1024
          }
        }
      }
    }
  }
  input {
    name: "183"
    type {
      tensor_type {
        elem_type: FLOAT
        shape {
          dim {
            dim_value: 1024
          }
        }
      }
    }
  }
  input {
    name: "184"
    type {
      tensor_type {
        elem_type: FLOAT
        shape {
          dim {
            dim_value: 1024
          }
        }
      }
    }
  }
  input {
    name: "185"
    type {
      tensor_type {
        elem_type: FLOAT
        shape {
          dim {
            dim_value: 1024
          }
        }
      }
    }
  }
  input {
    name: "186"
    type {
      tensor_type {
        elem_type: FLOAT
        shape {
          dim {
            dim_value: 256
          }
          dim {
            dim_value: 1024
          }
          dim {
            dim_value: 1
          }
          dim {
            dim_value: 1
          }
        }
      }
    }
  }
  input {
    name: "187"
    type {
      tensor_type {
        elem_type: FLOAT
        shape {
          dim {
            dim_value: 256
          }
        }
      }
    }
  }
  input {
    name: "188"
    type {
      tensor_type {
        elem_type: FLOAT
        shape {
          dim {
            dim_value: 256
          }
        }
      }
    }
  }
  input {
    name: "189"
    type {
      tensor_type {
        elem_type: FLOAT
        shape {
          dim {
            dim_value: 256
          }
        }
      }
    }
  }
  input {
    name: "190"
    type {
      tensor_type {
        elem_type: FLOAT
        shape {
          dim {
            dim_value: 256
          }
        }
      }
    }
  }
  input {
    name: "191"
    type {
      tensor_type {
        elem_type: FLOAT
        shape {
          dim {
            dim_value: 256
          }
          dim {
            dim_value: 256
          }
          dim {
            dim_value: 3
          }
          dim {
            dim_value: 3
          }
        }
      }
    }
  }
  input {
    name: "192"
    type {
      tensor_type {
        elem_type: FLOAT
        shape {
          dim {
            dim_value: 256
          }
        }
      }
    }
  }
  input {
    name: "193"
    type {
      tensor_type {
        elem_type: FLOAT
        shape {
          dim {
            dim_value: 256
          }
        }
      }
    }
  }
  input {
    name: "194"
    type {
      tensor_type {
        elem_type: FLOAT
        shape {
          dim {
            dim_value: 256
          }
        }
      }
    }
  }
  input {
    name: "195"
    type {
      tensor_type {
        elem_type: FLOAT
        shape {
          dim {
            dim_value: 256
          }
        }
      }
    }
  }
  input {
    name: "196"
    type {
      tensor_type {
        elem_type: FLOAT
        shape {
          dim {
            dim_value: 1024
          }
          dim {
            dim_value: 256
          }
          dim {
            dim_value: 1
          }
          dim {
            dim_value: 1
          }
        }
      }
    }
  }
  input {
    name: "197"
    type {
      tensor_type {
        elem_type: FLOAT
        shape {
          dim {
            dim_value: 1024
          }
        }
      }
    }
  }
  input {
    name: "198"
    type {
      tensor_type {
        elem_type: FLOAT
        shape {
          dim {
            dim_value: 1024
          }
        }
      }
    }
  }
  input {
    name: "199"
    type {
      tensor_type {
        elem_type: FLOAT
        shape {
          dim {
            dim_value: 1024
          }
        }
      }
    }
  }
  input {
    name: "200"
    type {
      tensor_type {
        elem_type: FLOAT
        shape {
          dim {
            dim_value: 1024
          }
        }
      }
    }
  }
  input {
    name: "201"
    type {
      tensor_type {
        elem_type: FLOAT
        shape {
          dim {
            dim_value: 256
          }
          dim {
            dim_value: 1024
          }
          dim {
            dim_value: 1
          }
          dim {
            dim_value: 1
          }
        }
      }
    }
  }
  input {
    name: "202"
    type {
      tensor_type {
        elem_type: FLOAT
        shape {
          dim {
            dim_value: 256
          }
        }
      }
    }
  }
  input {
    name: "203"
    type {
      tensor_type {
        elem_type: FLOAT
        shape {
          dim {
            dim_value: 256
          }
        }
      }
    }
  }
  input {
    name: "204"
    type {
      tensor_type {
        elem_type: FLOAT
        shape {
          dim {
            dim_value: 256
          }
        }
      }
    }
  }
  input {
    name: "205"
    type {
      tensor_type {
        elem_type: FLOAT
        shape {
          dim {
            dim_value: 256
          }
        }
      }
    }
  }
  input {
    name: "206"
    type {
      tensor_type {
        elem_type: FLOAT
        shape {
          dim {
            dim_value: 256
          }
          dim {
            dim_value: 256
          }
          dim {
            dim_value: 3
          }
          dim {
            dim_value: 3
          }
        }
      }
    }
  }
  input {
    name: "207"
    type {
      tensor_type {
        elem_type: FLOAT
        shape {
          dim {
            dim_value: 256
          }
        }
      }
    }
  }
  input {
    name: "208"
    type {
      tensor_type {
        elem_type: FLOAT
        shape {
          dim {
            dim_value: 256
          }
        }
      }
    }
  }
  input {
    name: "209"
    type {
      tensor_type {
        elem_type: FLOAT
        shape {
          dim {
            dim_value: 256
          }
        }
      }
    }
  }
  input {
    name: "210"
    type {
      tensor_type {
        elem_type: FLOAT
        shape {
          dim {
            dim_value: 256
          }
        }
      }
    }
  }
  input {
    name: "211"
    type {
      tensor_type {
        elem_type: FLOAT
        shape {
          dim {
            dim_value: 1024
          }
          dim {
            dim_value: 256
          }
          dim {
            dim_value: 1
          }
          dim {
            dim_value: 1
          }
        }
      }
    }
  }
  input {
    name: "212"
    type {
      tensor_type {
        elem_type: FLOAT
        shape {
          dim {
            dim_value: 1024
          }
        }
      }
    }
  }
  input {
    name: "213"
    type {
      tensor_type {
        elem_type: FLOAT
        shape {
          dim {
            dim_value: 1024
          }
        }
      }
    }
  }
  input {
    name: "214"
    type {
      tensor_type {
        elem_type: FLOAT
        shape {
          dim {
            dim_value: 1024
          }
        }
      }
    }
  }
  input {
    name: "215"
    type {
      tensor_type {
        elem_type: FLOAT
        shape {
          dim {
            dim_value: 1024
          }
        }
      }
    }
  }
  input {
    name: "216"
    type {
      tensor_type {
        elem_type: FLOAT
        shape {
          dim {
            dim_value: 512
          }
          dim {
            dim_value: 1024
          }
          dim {
            dim_value: 1
          }
          dim {
            dim_value: 1
          }
        }
      }
    }
  }
  input {
    name: "217"
    type {
      tensor_type {
        elem_type: FLOAT
        shape {
          dim {
            dim_value: 512
          }
        }
      }
    }
  }
  input {
    name: "218"
    type {
      tensor_type {
        elem_type: FLOAT
        shape {
          dim {
            dim_value: 512
          }
        }
      }
    }
  }
  input {
    name: "219"
    type {
      tensor_type {
        elem_type: FLOAT
        shape {
          dim {
            dim_value: 512
          }
        }
      }
    }
  }
  input {
    name: "220"
    type {
      tensor_type {
        elem_type: FLOAT
        shape {
          dim {
            dim_value: 512
          }
        }
      }
    }
  }
  input {
    name: "221"
    type {
      tensor_type {
        elem_type: FLOAT
        shape {
          dim {
            dim_value: 512
          }
          dim {
            dim_value: 512
          }
          dim {
            dim_value: 3
          }
          dim {
            dim_value: 3
          }
        }
      }
    }
  }
  input {
    name: "222"
    type {
      tensor_type {
        elem_type: FLOAT
        shape {
          dim {
            dim_value: 512
          }
        }
      }
    }
  }
  input {
    name: "223"
    type {
      tensor_type {
        elem_type: FLOAT
        shape {
          dim {
            dim_value: 512
          }
        }
      }
    }
  }
  input {
    name: "224"
    type {
      tensor_type {
        elem_type: FLOAT
        shape {
          dim {
            dim_value: 512
          }
        }
      }
    }
  }
  input {
    name: "225"
    type {
      tensor_type {
        elem_type: FLOAT
        shape {
          dim {
            dim_value: 512
          }
        }
      }
    }
  }
  input {
    name: "226"
    type {
      tensor_type {
        elem_type: FLOAT
        shape {
          dim {
            dim_value: 2048
          }
          dim {
            dim_value: 512
          }
          dim {
            dim_value: 1
          }
          dim {
            dim_value: 1
          }
        }
      }
    }
  }
  input {
    name: "227"
    type {
      tensor_type {
        elem_type: FLOAT
        shape {
          dim {
            dim_value: 2048
          }
        }
      }
    }
  }
  input {
    name: "228"
    type {
      tensor_type {
        elem_type: FLOAT
        shape {
          dim {
            dim_value: 2048
          }
        }
      }
    }
  }
  input {
    name: "229"
    type {
      tensor_type {
        elem_type: FLOAT
        shape {
          dim {
            dim_value: 2048
          }
        }
      }
    }
  }
  input {
    name: "230"
    type {
      tensor_type {
        elem_type: FLOAT
        shape {
          dim {
            dim_value: 2048
          }
        }
      }
    }
  }
  input {
    name: "231"
    type {
      tensor_type {
        elem_type: FLOAT
        shape {
          dim {
            dim_value: 2048
          }
          dim {
            dim_value: 1024
          }
          dim {
            dim_value: 1
          }
          dim {
            dim_value: 1
          }
        }
      }
    }
  }
  input {
    name: "232"
    type {
      tensor_type {
        elem_type: FLOAT
        shape {
          dim {
            dim_value: 2048
          }
        }
      }
    }
  }
  input {
    name: "233"
    type {
      tensor_type {
        elem_type: FLOAT
        shape {
          dim {
            dim_value: 2048
          }
        }
      }
    }
  }
  input {
    name: "234"
    type {
      tensor_type {
        elem_type: FLOAT
        shape {
          dim {
            dim_value: 2048
          }
        }
      }
    }
  }
  input {
    name: "235"
    type {
      tensor_type {
        elem_type: FLOAT
        shape {
          dim {
            dim_value: 2048
          }
        }
      }
    }
  }
  input {
    name: "236"
    type {
      tensor_type {
        elem_type: FLOAT
        shape {
          dim {
            dim_value: 512
          }
          dim {
            dim_value: 2048
          }
          dim {
            dim_value: 1
          }
          dim {
            dim_value: 1
          }
        }
      }
    }
  }
  input {
    name: "237"
    type {
      tensor_type {
        elem_type: FLOAT
        shape {
          dim {
            dim_value: 512
          }
        }
      }
    }
  }
  input {
    name: "238"
    type {
      tensor_type {
        elem_type: FLOAT
        shape {
          dim {
            dim_value: 512
          }
        }
      }
    }
  }
  input {
    name: "239"
    type {
      tensor_type {
        elem_type: FLOAT
        shape {
          dim {
            dim_value: 512
          }
        }
      }
    }
  }
  input {
    name: "240"
    type {
      tensor_type {
        elem_type: FLOAT
        shape {
          dim {
            dim_value: 512
          }
        }
      }
    }
  }
  input {
    name: "241"
    type {
      tensor_type {
        elem_type: FLOAT
        shape {
          dim {
            dim_value: 512
          }
          dim {
            dim_value: 512
          }
          dim {
            dim_value: 3
          }
          dim {
            dim_value: 3
          }
        }
      }
    }
  }
  input {
    name: "242"
    type {
      tensor_type {
        elem_type: FLOAT
        shape {
          dim {
            dim_value: 512
          }
        }
      }
    }
  }
  input {
    name: "243"
    type {
      tensor_type {
        elem_type: FLOAT
        shape {
          dim {
            dim_value: 512
          }
        }
      }
    }
  }
  input {
    name: "244"
    type {
      tensor_type {
        elem_type: FLOAT
        shape {
          dim {
            dim_value: 512
          }
        }
      }
    }
  }
  input {
    name: "245"
    type {
      tensor_type {
        elem_type: FLOAT
        shape {
          dim {
            dim_value: 512
          }
        }
      }
    }
  }
  input {
    name: "246"
    type {
      tensor_type {
        elem_type: FLOAT
        shape {
          dim {
            dim_value: 2048
          }
          dim {
            dim_value: 512
          }
          dim {
            dim_value: 1
          }
          dim {
            dim_value: 1
          }
        }
      }
    }
  }
  input {
    name: "247"
    type {
      tensor_type {
        elem_type: FLOAT
        shape {
          dim {
            dim_value: 2048
          }
        }
      }
    }
  }
  input {
    name: "248"
    type {
      tensor_type {
        elem_type: FLOAT
        shape {
          dim {
            dim_value: 2048
          }
        }
      }
    }
  }
  input {
    name: "249"
    type {
      tensor_type {
        elem_type: FLOAT
        shape {
          dim {
            dim_value: 2048
          }
        }
      }
    }
  }
  input {
    name: "250"
    type {
      tensor_type {
        elem_type: FLOAT
        shape {
          dim {
            dim_value: 2048
          }
        }
      }
    }
  }
  input {
    name: "251"
    type {
      tensor_type {
        elem_type: FLOAT
        shape {
          dim {
            dim_value: 512
          }
          dim {
            dim_value: 2048
          }
          dim {
            dim_value: 1
          }
          dim {
            dim_value: 1
          }
        }
      }
    }
  }
  input {
    name: "252"
    type {
      tensor_type {
        elem_type: FLOAT
        shape {
          dim {
            dim_value: 512
          }
        }
      }
    }
  }
  input {
    name: "253"
    type {
      tensor_type {
        elem_type: FLOAT
        shape {
          dim {
            dim_value: 512
          }
        }
      }
    }
  }
  input {
    name: "254"
    type {
      tensor_type {
        elem_type: FLOAT
        shape {
          dim {
            dim_value: 512
          }
        }
      }
    }
  }
  input {
    name: "255"
    type {
      tensor_type {
        elem_type: FLOAT
        shape {
          dim {
            dim_value: 512
          }
        }
      }
    }
  }
  input {
    name: "256"
    type {
      tensor_type {
        elem_type: FLOAT
        shape {
          dim {
            dim_value: 512
          }
          dim {
            dim_value: 512
          }
          dim {
            dim_value: 3
          }
          dim {
            dim_value: 3
          }
        }
      }
    }
  }
  input {
    name: "257"
    type {
      tensor_type {
        elem_type: FLOAT
        shape {
          dim {
            dim_value: 512
          }
        }
      }
    }
  }
  input {
    name: "258"
    type {
      tensor_type {
        elem_type: FLOAT
        shape {
          dim {
            dim_value: 512
          }
        }
      }
    }
  }
  input {
    name: "259"
    type {
      tensor_type {
        elem_type: FLOAT
        shape {
          dim {
            dim_value: 512
          }
        }
      }
    }
  }
  input {
    name: "260"
    type {
      tensor_type {
        elem_type: FLOAT
        shape {
          dim {
            dim_value: 512
          }
        }
      }
    }
  }
  input {
    name: "261"
    type {
      tensor_type {
        elem_type: FLOAT
        shape {
          dim {
            dim_value: 2048
          }
          dim {
            dim_value: 512
          }
          dim {
            dim_value: 1
          }
          dim {
            dim_value: 1
          }
        }
      }
    }
  }
  input {
    name: "262"
    type {
      tensor_type {
        elem_type: FLOAT
        shape {
          dim {
            dim_value: 2048
          }
        }
      }
    }
  }
  input {
    name: "263"
    type {
      tensor_type {
        elem_type: FLOAT
        shape {
          dim {
            dim_value: 2048
          }
        }
      }
    }
  }
  input {
    name: "264"
    type {
      tensor_type {
        elem_type: FLOAT
        shape {
          dim {
            dim_value: 2048
          }
        }
      }
    }
  }
  input {
    name: "265"
    type {
      tensor_type {
        elem_type: FLOAT
        shape {
          dim {
            dim_value: 2048
          }
        }
      }
    }
  }
  input {
    name: "266"
    type {
      tensor_type {
        elem_type: FLOAT
        shape {
          dim {
            dim_value: 1000
          }
          dim {
            dim_value: 2048
          }
        }
      }
    }
  }
  input {
    name: "267"
    type {
      tensor_type {
        elem_type: FLOAT
        shape {
          dim {
            dim_value: 1000
          }
        }
      }
    }
  }
  output {
    name: "497"
    type {
      tensor_type {
        elem_type: FLOAT
        shape {
          dim {
            dim_value: 2
          }
          dim {
            dim_value: 1000
          }
        }
      }
    }
  }
}
