When I exported your model with different inputs, the result was different.
(To get more information, run torch.onnx.verify(..., verbose=True))
----------------------------------------------------------------------
ERROR: Strings are not equal:

  ir_version: 1
  producer_name: "pytorch"
  producer_version: "0.2"
  domain: "com.facebook"
  graph {
    node {
      output: "2"
      op_type: "Constant"
      attribute {
        name: "value"
        t {
          dims: 1
          data_type: INT32
          raw_data: "\000\000\000\000"
        }
      }
    }
    node {
      output: "3"
      op_type: "Constant"
      attribute {
        name: "value"
        t {
          dims: 1
          data_type: INT64
-         raw_data: "\000\000\000\000\000\000\000\000"
?                       ^
+         raw_data: "\001\000\000\000\000\000\000\000"
?                       ^
        }
      }
    }
    node {
      output: "4"
      op_type: "Constant"
      attribute {
        name: "value"
        t {
          dims: 1
          data_type: INT64
-         raw_data: "\001\000\000\000\000\000\000\000"
?                       ^
+         raw_data: "\002\000\000\000\000\000\000\000"
?                       ^
        }
      }
    }
    node {
      input: "1"
      input: "2"
      input: "3"
      input: "4"
      output: "5"
      op_type: "Slice"
    }
    node {
      input: "5"
      output: "6"
      op_type: "Squeeze"
      attribute {
        name: "axes"
        ints: 0
      }
    }
    name: "torch-jit-export"
    input {
      name: "1"
      type {
        tensor_type {
          elem_type: FLOAT
          shape {
            dim {
              dim_value: 2
            }
            dim {
              dim_value: 2
            }
          }
        }
      }
    }
    output {
      name: "6"
      type {
        tensor_type {
          elem_type: FLOAT
          shape {
            dim {
              dim_value: 2
            }
          }
        }
      }
    }
  }


  * A difference in model structure usually means that
    your model has dynamic control flow.  These models are not
    currently supported by the exporter.