ir_version: 1
producer_name: "pytorch"
producer_version: "0.2"
domain: "com.facebook"
graph {
  node {
    input: "3"
    input: "1"
    output: "26"
    op_type: "Gather"
  }
  node {
    input: "26"
    output: "28"
    output: "29"
    op_type: "Dropout"
    attribute {
      name: "ratio"
      f: 0.200000002980232
    }
    attribute {
      name: "is_test"
      i: 1
    }
  }
  node {
    output: "1331"
    op_type: "Constant"
    attribute {
      name: "value"
      t {
        dims: 3
        data_type: INT32
        raw_data: "\000\000\000\000\000\000\000\000\000\000\000\000"
      }
    }
  }
  node {
    output: "1332"
    op_type: "Constant"
    attribute {
      name: "value"
      t {
        dims: 3
        data_type: INT32
        raw_data: "\001\000\000\000\005\000\000\000\005\000\000\000"
      }
    }
  }
  node {
    input: "2"
    input: "1331"
    input: "1332"
    output: "1333"
    op_type: "Slice"
  }
  node {
    input: "1333"
    output: "1334"
    op_type: "Squeeze"
    attribute {
      name: "axes"
      ints: 0
    }
  }
  node {
    output: "1335"
    op_type: "Constant"
    attribute {
      name: "value"
      t {
        dims: 3
        data_type: INT32
        raw_data: "\000\000\000\000\000\000\000\000\000\000\000\000"
      }
    }
  }
  node {
    output: "1336"
    op_type: "Constant"
    attribute {
      name: "value"
      t {
        dims: 3
        data_type: INT32
        raw_data: "\001\000\000\000\005\000\000\000\005\000\000\000"
      }
    }
  }
  node {
    input: "28"
    input: "1335"
    input: "1336"
    output: "1337"
    op_type: "Slice"
  }
  node {
    input: "1337"
    output: "1338"
    op_type: "Squeeze"
    attribute {
      name: "axes"
      ints: 0
    }
  }
  node {
    input: "4"
    output: "36"
    op_type: "Transpose"
    attribute {
      name: "perm"
      ints: 1
      ints: 0
    }
  }
  node {
    input: "1338"
    input: "36"
    input: "6"
    output: "37"
    op_type: "Gemm"
    attribute {
      name: "alpha"
      f: 1
    }
    attribute {
      name: "beta"
      f: 1
    }
    attribute {
      name: "broadcast"
      i: 1
    }
  }
  node {
    input: "5"
    output: "38"
    op_type: "Transpose"
    attribute {
      name: "perm"
      ints: 1
      ints: 0
    }
  }
  node {
    input: "1334"
    input: "38"
    input: "7"
    output: "39"
    op_type: "Gemm"
    attribute {
      name: "alpha"
      f: 1
    }
    attribute {
      name: "beta"
      f: 1
    }
    attribute {
      name: "broadcast"
      i: 1
    }
  }
  node {
    input: "37"
    output: "41"
    output: "42"
    output: "43"
    op_type: "Split"
    attribute {
      name: "split"
      ints: 5
      ints: 5
      ints: 5
    }
    attribute {
      name: "axis"
      i: 1
    }
  }
  node {
    input: "39"
    output: "45"
    output: "46"
    output: "47"
    op_type: "Split"
    attribute {
      name: "split"
      ints: 5
      ints: 5
      ints: 5
    }
    attribute {
      name: "axis"
      i: 1
    }
  }
  node {
    input: "41"
    input: "45"
    output: "48"
    op_type: "Add"
  }
  node {
    input: "48"
    output: "49"
    op_type: "Sigmoid"
  }
  node {
    input: "42"
    input: "46"
    output: "50"
    op_type: "Add"
  }
  node {
    input: "50"
    output: "51"
    op_type: "Sigmoid"
  }
  node {
    input: "49"
    input: "47"
    output: "52"
    op_type: "Mul"
  }
  node {
    input: "43"
    input: "52"
    output: "53"
    op_type: "Add"
  }
  node {
    input: "53"
    output: "54"
    op_type: "Tanh"
  }
  node {
    input: "1334"
    input: "54"
    output: "55"
    op_type: "Sub"
  }
  node {
    input: "51"
    input: "55"
    output: "56"
    op_type: "Mul"
  }
  node {
    input: "54"
    input: "56"
    output: "57"
    op_type: "Add"
  }
  node {
    output: "1339"
    op_type: "Constant"
    attribute {
      name: "value"
      t {
        dims: 3
        data_type: INT32
        raw_data: "\001\000\000\000\000\000\000\000\000\000\000\000"
      }
    }
  }
  node {
    output: "1340"
    op_type: "Constant"
    attribute {
      name: "value"
      t {
        dims: 3
        data_type: INT32
        raw_data: "\002\000\000\000\005\000\000\000\005\000\000\000"
      }
    }
  }
  node {
    input: "28"
    input: "1339"
    input: "1340"
    output: "1341"
    op_type: "Slice"
  }
  node {
    input: "1341"
    output: "1342"
    op_type: "Squeeze"
    attribute {
      name: "axes"
      ints: 0
    }
  }
  node {
    input: "4"
    output: "61"
    op_type: "Transpose"
    attribute {
      name: "perm"
      ints: 1
      ints: 0
    }
  }
  node {
    input: "1342"
    input: "61"
    input: "6"
    output: "62"
    op_type: "Gemm"
    attribute {
      name: "alpha"
      f: 1
    }
    attribute {
      name: "beta"
      f: 1
    }
    attribute {
      name: "broadcast"
      i: 1
    }
  }
  node {
    input: "5"
    output: "63"
    op_type: "Transpose"
    attribute {
      name: "perm"
      ints: 1
      ints: 0
    }
  }
  node {
    input: "57"
    input: "63"
    input: "7"
    output: "64"
    op_type: "Gemm"
    attribute {
      name: "alpha"
      f: 1
    }
    attribute {
      name: "beta"
      f: 1
    }
    attribute {
      name: "broadcast"
      i: 1
    }
  }
  node {
    input: "62"
    output: "66"
    output: "67"
    output: "68"
    op_type: "Split"
    attribute {
      name: "split"
      ints: 5
      ints: 5
      ints: 5
    }
    attribute {
      name: "axis"
      i: 1
    }
  }
  node {
    input: "64"
    output: "70"
    output: "71"
    output: "72"
    op_type: "Split"
    attribute {
      name: "split"
      ints: 5
      ints: 5
      ints: 5
    }
    attribute {
      name: "axis"
      i: 1
    }
  }
  node {
    input: "66"
    input: "70"
    output: "73"
    op_type: "Add"
  }
  node {
    input: "73"
    output: "74"
    op_type: "Sigmoid"
  }
  node {
    input: "67"
    input: "71"
    output: "75"
    op_type: "Add"
  }
  node {
    input: "75"
    output: "76"
    op_type: "Sigmoid"
  }
  node {
    input: "74"
    input: "72"
    output: "77"
    op_type: "Mul"
  }
  node {
    input: "68"
    input: "77"
    output: "78"
    op_type: "Add"
  }
  node {
    input: "78"
    output: "79"
    op_type: "Tanh"
  }
  node {
    input: "57"
    input: "79"
    output: "80"
    op_type: "Sub"
  }
  node {
    input: "76"
    input: "80"
    output: "81"
    op_type: "Mul"
  }
  node {
    input: "79"
    input: "81"
    output: "82"
    op_type: "Add"
  }
  node {
    output: "1343"
    op_type: "Constant"
    attribute {
      name: "value"
      t {
        dims: 3
        data_type: INT32
        raw_data: "\002\000\000\000\000\000\000\000\000\000\000\000"
      }
    }
  }
  node {
    output: "1344"
    op_type: "Constant"
    attribute {
      name: "value"
      t {
        dims: 3
        data_type: INT32
        raw_data: "\003\000\000\000\005\000\000\000\005\000\000\000"
      }
    }
  }
  node {
    input: "28"
    input: "1343"
    input: "1344"
    output: "1345"
    op_type: "Slice"
  }
  node {
    input: "1345"
    output: "1346"
    op_type: "Squeeze"
    attribute {
      name: "axes"
      ints: 0
    }
  }
  node {
    input: "4"
    output: "86"
    op_type: "Transpose"
    attribute {
      name: "perm"
      ints: 1
      ints: 0
    }
  }
  node {
    input: "1346"
    input: "86"
    input: "6"
    output: "87"
    op_type: "Gemm"
    attribute {
      name: "alpha"
      f: 1
    }
    attribute {
      name: "beta"
      f: 1
    }
    attribute {
      name: "broadcast"
      i: 1
    }
  }
  node {
    input: "5"
    output: "88"
    op_type: "Transpose"
    attribute {
      name: "perm"
      ints: 1
      ints: 0
    }
  }
  node {
    input: "82"
    input: "88"
    input: "7"
    output: "89"
    op_type: "Gemm"
    attribute {
      name: "alpha"
      f: 1
    }
    attribute {
      name: "beta"
      f: 1
    }
    attribute {
      name: "broadcast"
      i: 1
    }
  }
  node {
    input: "87"
    output: "91"
    output: "92"
    output: "93"
    op_type: "Split"
    attribute {
      name: "split"
      ints: 5
      ints: 5
      ints: 5
    }
    attribute {
      name: "axis"
      i: 1
    }
  }
  node {
    input: "89"
    output: "95"
    output: "96"
    output: "97"
    op_type: "Split"
    attribute {
      name: "split"
      ints: 5
      ints: 5
      ints: 5
    }
    attribute {
      name: "axis"
      i: 1
    }
  }
  node {
    input: "91"
    input: "95"
    output: "98"
    op_type: "Add"
  }
  node {
    input: "98"
    output: "99"
    op_type: "Sigmoid"
  }
  node {
    input: "92"
    input: "96"
    output: "100"
    op_type: "Add"
  }
  node {
    input: "100"
    output: "101"
    op_type: "Sigmoid"
  }
  node {
    input: "99"
    input: "97"
    output: "102"
    op_type: "Mul"
  }
  node {
    input: "93"
    input: "102"
    output: "103"
    op_type: "Add"
  }
  node {
    input: "103"
    output: "104"
    op_type: "Tanh"
  }
  node {
    input: "82"
    input: "104"
    output: "105"
    op_type: "Sub"
  }
  node {
    input: "101"
    input: "105"
    output: "106"
    op_type: "Mul"
  }
  node {
    input: "104"
    input: "106"
    output: "107"
    op_type: "Add"
  }
  node {
    output: "1347"
    op_type: "Constant"
    attribute {
      name: "value"
      t {
        dims: 3
        data_type: INT32
        raw_data: "\003\000\000\000\000\000\000\000\000\000\000\000"
      }
    }
  }
  node {
    output: "1348"
    op_type: "Constant"
    attribute {
      name: "value"
      t {
        dims: 3
        data_type: INT32
        raw_data: "\004\000\000\000\005\000\000\000\005\000\000\000"
      }
    }
  }
  node {
    input: "28"
    input: "1347"
    input: "1348"
    output: "1349"
    op_type: "Slice"
  }
  node {
    input: "1349"
    output: "1350"
    op_type: "Squeeze"
    attribute {
      name: "axes"
      ints: 0
    }
  }
  node {
    input: "4"
    output: "111"
    op_type: "Transpose"
    attribute {
      name: "perm"
      ints: 1
      ints: 0
    }
  }
  node {
    input: "1350"
    input: "111"
    input: "6"
    output: "112"
    op_type: "Gemm"
    attribute {
      name: "alpha"
      f: 1
    }
    attribute {
      name: "beta"
      f: 1
    }
    attribute {
      name: "broadcast"
      i: 1
    }
  }
  node {
    input: "5"
    output: "113"
    op_type: "Transpose"
    attribute {
      name: "perm"
      ints: 1
      ints: 0
    }
  }
  node {
    input: "107"
    input: "113"
    input: "7"
    output: "114"
    op_type: "Gemm"
    attribute {
      name: "alpha"
      f: 1
    }
    attribute {
      name: "beta"
      f: 1
    }
    attribute {
      name: "broadcast"
      i: 1
    }
  }
  node {
    input: "112"
    output: "116"
    output: "117"
    output: "118"
    op_type: "Split"
    attribute {
      name: "split"
      ints: 5
      ints: 5
      ints: 5
    }
    attribute {
      name: "axis"
      i: 1
    }
  }
  node {
    input: "114"
    output: "120"
    output: "121"
    output: "122"
    op_type: "Split"
    attribute {
      name: "split"
      ints: 5
      ints: 5
      ints: 5
    }
    attribute {
      name: "axis"
      i: 1
    }
  }
  node {
    input: "116"
    input: "120"
    output: "123"
    op_type: "Add"
  }
  node {
    input: "123"
    output: "124"
    op_type: "Sigmoid"
  }
  node {
    input: "117"
    input: "121"
    output: "125"
    op_type: "Add"
  }
  node {
    input: "125"
    output: "126"
    op_type: "Sigmoid"
  }
  node {
    input: "124"
    input: "122"
    output: "127"
    op_type: "Mul"
  }
  node {
    input: "118"
    input: "127"
    output: "128"
    op_type: "Add"
  }
  node {
    input: "128"
    output: "129"
    op_type: "Tanh"
  }
  node {
    input: "107"
    input: "129"
    output: "130"
    op_type: "Sub"
  }
  node {
    input: "126"
    input: "130"
    output: "131"
    op_type: "Mul"
  }
  node {
    input: "129"
    input: "131"
    output: "132"
    op_type: "Add"
  }
  node {
    output: "1351"
    op_type: "Constant"
    attribute {
      name: "value"
      t {
        dims: 3
        data_type: INT32
        raw_data: "\004\000\000\000\000\000\000\000\000\000\000\000"
      }
    }
  }
  node {
    output: "1352"
    op_type: "Constant"
    attribute {
      name: "value"
      t {
        dims: 3
        data_type: INT32
        raw_data: "\005\000\000\000\005\000\000\000\005\000\000\000"
      }
    }
  }
  node {
    input: "28"
    input: "1351"
    input: "1352"
    output: "1353"
    op_type: "Slice"
  }
  node {
    input: "1353"
    output: "1354"
    op_type: "Squeeze"
    attribute {
      name: "axes"
      ints: 0
    }
  }
  node {
    input: "4"
    output: "136"
    op_type: "Transpose"
    attribute {
      name: "perm"
      ints: 1
      ints: 0
    }
  }
  node {
    input: "1354"
    input: "136"
    input: "6"
    output: "137"
    op_type: "Gemm"
    attribute {
      name: "alpha"
      f: 1
    }
    attribute {
      name: "beta"
      f: 1
    }
    attribute {
      name: "broadcast"
      i: 1
    }
  }
  node {
    input: "5"
    output: "138"
    op_type: "Transpose"
    attribute {
      name: "perm"
      ints: 1
      ints: 0
    }
  }
  node {
    input: "132"
    input: "138"
    input: "7"
    output: "139"
    op_type: "Gemm"
    attribute {
      name: "alpha"
      f: 1
    }
    attribute {
      name: "beta"
      f: 1
    }
    attribute {
      name: "broadcast"
      i: 1
    }
  }
  node {
    input: "137"
    output: "141"
    output: "142"
    output: "143"
    op_type: "Split"
    attribute {
      name: "split"
      ints: 5
      ints: 5
      ints: 5
    }
    attribute {
      name: "axis"
      i: 1
    }
  }
  node {
    input: "139"
    output: "145"
    output: "146"
    output: "147"
    op_type: "Split"
    attribute {
      name: "split"
      ints: 5
      ints: 5
      ints: 5
    }
    attribute {
      name: "axis"
      i: 1
    }
  }
  node {
    input: "141"
    input: "145"
    output: "148"
    op_type: "Add"
  }
  node {
    input: "148"
    output: "149"
    op_type: "Sigmoid"
  }
  node {
    input: "142"
    input: "146"
    output: "150"
    op_type: "Add"
  }
  node {
    input: "150"
    output: "151"
    op_type: "Sigmoid"
  }
  node {
    input: "149"
    input: "147"
    output: "152"
    op_type: "Mul"
  }
  node {
    input: "143"
    input: "152"
    output: "153"
    op_type: "Add"
  }
  node {
    input: "153"
    output: "154"
    op_type: "Tanh"
  }
  node {
    input: "132"
    input: "154"
    output: "155"
    op_type: "Sub"
  }
  node {
    input: "151"
    input: "155"
    output: "156"
    op_type: "Mul"
  }
  node {
    input: "154"
    input: "156"
    output: "157"
    op_type: "Add"
  }
  node {
    output: "1355"
    op_type: "Constant"
    attribute {
      name: "value"
      t {
        dims: 3
        data_type: INT32
        raw_data: "\005\000\000\000\000\000\000\000\000\000\000\000"
      }
    }
  }
  node {
    output: "1356"
    op_type: "Constant"
    attribute {
      name: "value"
      t {
        dims: 3
        data_type: INT32
        raw_data: "\006\000\000\000\005\000\000\000\005\000\000\000"
      }
    }
  }
  node {
    input: "28"
    input: "1355"
    input: "1356"
    output: "1357"
    op_type: "Slice"
  }
  node {
    input: "1357"
    output: "1358"
    op_type: "Squeeze"
    attribute {
      name: "axes"
      ints: 0
    }
  }
  node {
    input: "4"
    output: "161"
    op_type: "Transpose"
    attribute {
      name: "perm"
      ints: 1
      ints: 0
    }
  }
  node {
    input: "1358"
    input: "161"
    input: "6"
    output: "162"
    op_type: "Gemm"
    attribute {
      name: "alpha"
      f: 1
    }
    attribute {
      name: "beta"
      f: 1
    }
    attribute {
      name: "broadcast"
      i: 1
    }
  }
  node {
    input: "5"
    output: "163"
    op_type: "Transpose"
    attribute {
      name: "perm"
      ints: 1
      ints: 0
    }
  }
  node {
    input: "157"
    input: "163"
    input: "7"
    output: "164"
    op_type: "Gemm"
    attribute {
      name: "alpha"
      f: 1
    }
    attribute {
      name: "beta"
      f: 1
    }
    attribute {
      name: "broadcast"
      i: 1
    }
  }
  node {
    input: "162"
    output: "166"
    output: "167"
    output: "168"
    op_type: "Split"
    attribute {
      name: "split"
      ints: 5
      ints: 5
      ints: 5
    }
    attribute {
      name: "axis"
      i: 1
    }
  }
  node {
    input: "164"
    output: "170"
    output: "171"
    output: "172"
    op_type: "Split"
    attribute {
      name: "split"
      ints: 5
      ints: 5
      ints: 5
    }
    attribute {
      name: "axis"
      i: 1
    }
  }
  node {
    input: "166"
    input: "170"
    output: "173"
    op_type: "Add"
  }
  node {
    input: "173"
    output: "174"
    op_type: "Sigmoid"
  }
  node {
    input: "167"
    input: "171"
    output: "175"
    op_type: "Add"
  }
  node {
    input: "175"
    output: "176"
    op_type: "Sigmoid"
  }
  node {
    input: "174"
    input: "172"
    output: "177"
    op_type: "Mul"
  }
  node {
    input: "168"
    input: "177"
    output: "178"
    op_type: "Add"
  }
  node {
    input: "178"
    output: "179"
    op_type: "Tanh"
  }
  node {
    input: "157"
    input: "179"
    output: "180"
    op_type: "Sub"
  }
  node {
    input: "176"
    input: "180"
    output: "181"
    op_type: "Mul"
  }
  node {
    input: "179"
    input: "181"
    output: "182"
    op_type: "Add"
  }
  node {
    output: "1359"
    op_type: "Constant"
    attribute {
      name: "value"
      t {
        dims: 3
        data_type: INT32
        raw_data: "\006\000\000\000\000\000\000\000\000\000\000\000"
      }
    }
  }
  node {
    output: "1360"
    op_type: "Constant"
    attribute {
      name: "value"
      t {
        dims: 3
        data_type: INT32
        raw_data: "\007\000\000\000\005\000\000\000\005\000\000\000"
      }
    }
  }
  node {
    input: "28"
    input: "1359"
    input: "1360"
    output: "1361"
    op_type: "Slice"
  }
  node {
    input: "1361"
    output: "1362"
    op_type: "Squeeze"
    attribute {
      name: "axes"
      ints: 0
    }
  }
  node {
    input: "4"
    output: "186"
    op_type: "Transpose"
    attribute {
      name: "perm"
      ints: 1
      ints: 0
    }
  }
  node {
    input: "1362"
    input: "186"
    input: "6"
    output: "187"
    op_type: "Gemm"
    attribute {
      name: "alpha"
      f: 1
    }
    attribute {
      name: "beta"
      f: 1
    }
    attribute {
      name: "broadcast"
      i: 1
    }
  }
  node {
    input: "5"
    output: "188"
    op_type: "Transpose"
    attribute {
      name: "perm"
      ints: 1
      ints: 0
    }
  }
  node {
    input: "182"
    input: "188"
    input: "7"
    output: "189"
    op_type: "Gemm"
    attribute {
      name: "alpha"
      f: 1
    }
    attribute {
      name: "beta"
      f: 1
    }
    attribute {
      name: "broadcast"
      i: 1
    }
  }
  node {
    input: "187"
    output: "191"
    output: "192"
    output: "193"
    op_type: "Split"
    attribute {
      name: "split"
      ints: 5
      ints: 5
      ints: 5
    }
    attribute {
      name: "axis"
      i: 1
    }
  }
  node {
    input: "189"
    output: "195"
    output: "196"
    output: "197"
    op_type: "Split"
    attribute {
      name: "split"
      ints: 5
      ints: 5
      ints: 5
    }
    attribute {
      name: "axis"
      i: 1
    }
  }
  node {
    input: "191"
    input: "195"
    output: "198"
    op_type: "Add"
  }
  node {
    input: "198"
    output: "199"
    op_type: "Sigmoid"
  }
  node {
    input: "192"
    input: "196"
    output: "200"
    op_type: "Add"
  }
  node {
    input: "200"
    output: "201"
    op_type: "Sigmoid"
  }
  node {
    input: "199"
    input: "197"
    output: "202"
    op_type: "Mul"
  }
  node {
    input: "193"
    input: "202"
    output: "203"
    op_type: "Add"
  }
  node {
    input: "203"
    output: "204"
    op_type: "Tanh"
  }
  node {
    input: "182"
    input: "204"
    output: "205"
    op_type: "Sub"
  }
  node {
    input: "201"
    input: "205"
    output: "206"
    op_type: "Mul"
  }
  node {
    input: "204"
    input: "206"
    output: "207"
    op_type: "Add"
  }
  node {
    output: "1363"
    op_type: "Constant"
    attribute {
      name: "value"
      t {
        dims: 3
        data_type: INT32
        raw_data: "\007\000\000\000\000\000\000\000\000\000\000\000"
      }
    }
  }
  node {
    output: "1364"
    op_type: "Constant"
    attribute {
      name: "value"
      t {
        dims: 3
        data_type: INT32
        raw_data: "\010\000\000\000\005\000\000\000\005\000\000\000"
      }
    }
  }
  node {
    input: "28"
    input: "1363"
    input: "1364"
    output: "1365"
    op_type: "Slice"
  }
  node {
    input: "1365"
    output: "1366"
    op_type: "Squeeze"
    attribute {
      name: "axes"
      ints: 0
    }
  }
  node {
    input: "4"
    output: "211"
    op_type: "Transpose"
    attribute {
      name: "perm"
      ints: 1
      ints: 0
    }
  }
  node {
    input: "1366"
    input: "211"
    input: "6"
    output: "212"
    op_type: "Gemm"
    attribute {
      name: "alpha"
      f: 1
    }
    attribute {
      name: "beta"
      f: 1
    }
    attribute {
      name: "broadcast"
      i: 1
    }
  }
  node {
    input: "5"
    output: "213"
    op_type: "Transpose"
    attribute {
      name: "perm"
      ints: 1
      ints: 0
    }
  }
  node {
    input: "207"
    input: "213"
    input: "7"
    output: "214"
    op_type: "Gemm"
    attribute {
      name: "alpha"
      f: 1
    }
    attribute {
      name: "beta"
      f: 1
    }
    attribute {
      name: "broadcast"
      i: 1
    }
  }
  node {
    input: "212"
    output: "216"
    output: "217"
    output: "218"
    op_type: "Split"
    attribute {
      name: "split"
      ints: 5
      ints: 5
      ints: 5
    }
    attribute {
      name: "axis"
      i: 1
    }
  }
  node {
    input: "214"
    output: "220"
    output: "221"
    output: "222"
    op_type: "Split"
    attribute {
      name: "split"
      ints: 5
      ints: 5
      ints: 5
    }
    attribute {
      name: "axis"
      i: 1
    }
  }
  node {
    input: "216"
    input: "220"
    output: "223"
    op_type: "Add"
  }
  node {
    input: "223"
    output: "224"
    op_type: "Sigmoid"
  }
  node {
    input: "217"
    input: "221"
    output: "225"
    op_type: "Add"
  }
  node {
    input: "225"
    output: "226"
    op_type: "Sigmoid"
  }
  node {
    input: "224"
    input: "222"
    output: "227"
    op_type: "Mul"
  }
  node {
    input: "218"
    input: "227"
    output: "228"
    op_type: "Add"
  }
  node {
    input: "228"
    output: "229"
    op_type: "Tanh"
  }
  node {
    input: "207"
    input: "229"
    output: "230"
    op_type: "Sub"
  }
  node {
    input: "226"
    input: "230"
    output: "231"
    op_type: "Mul"
  }
  node {
    input: "229"
    input: "231"
    output: "232"
    op_type: "Add"
  }
  node {
    output: "1367"
    op_type: "Constant"
    attribute {
      name: "value"
      t {
        dims: 3
        data_type: INT32
        raw_data: "\010\000\000\000\000\000\000\000\000\000\000\000"
      }
    }
  }
  node {
    output: "1368"
    op_type: "Constant"
    attribute {
      name: "value"
      t {
        dims: 3
        data_type: INT32
        raw_data: "\t\000\000\000\005\000\000\000\005\000\000\000"
      }
    }
  }
  node {
    input: "28"
    input: "1367"
    input: "1368"
    output: "1369"
    op_type: "Slice"
  }
  node {
    input: "1369"
    output: "1370"
    op_type: "Squeeze"
    attribute {
      name: "axes"
      ints: 0
    }
  }
  node {
    input: "4"
    output: "236"
    op_type: "Transpose"
    attribute {
      name: "perm"
      ints: 1
      ints: 0
    }
  }
  node {
    input: "1370"
    input: "236"
    input: "6"
    output: "237"
    op_type: "Gemm"
    attribute {
      name: "alpha"
      f: 1
    }
    attribute {
      name: "beta"
      f: 1
    }
    attribute {
      name: "broadcast"
      i: 1
    }
  }
  node {
    input: "5"
    output: "238"
    op_type: "Transpose"
    attribute {
      name: "perm"
      ints: 1
      ints: 0
    }
  }
  node {
    input: "232"
    input: "238"
    input: "7"
    output: "239"
    op_type: "Gemm"
    attribute {
      name: "alpha"
      f: 1
    }
    attribute {
      name: "beta"
      f: 1
    }
    attribute {
      name: "broadcast"
      i: 1
    }
  }
  node {
    input: "237"
    output: "241"
    output: "242"
    output: "243"
    op_type: "Split"
    attribute {
      name: "split"
      ints: 5
      ints: 5
      ints: 5
    }
    attribute {
      name: "axis"
      i: 1
    }
  }
  node {
    input: "239"
    output: "245"
    output: "246"
    output: "247"
    op_type: "Split"
    attribute {
      name: "split"
      ints: 5
      ints: 5
      ints: 5
    }
    attribute {
      name: "axis"
      i: 1
    }
  }
  node {
    input: "241"
    input: "245"
    output: "248"
    op_type: "Add"
  }
  node {
    input: "248"
    output: "249"
    op_type: "Sigmoid"
  }
  node {
    input: "242"
    input: "246"
    output: "250"
    op_type: "Add"
  }
  node {
    input: "250"
    output: "251"
    op_type: "Sigmoid"
  }
  node {
    input: "249"
    input: "247"
    output: "252"
    op_type: "Mul"
  }
  node {
    input: "243"
    input: "252"
    output: "253"
    op_type: "Add"
  }
  node {
    input: "253"
    output: "254"
    op_type: "Tanh"
  }
  node {
    input: "232"
    input: "254"
    output: "255"
    op_type: "Sub"
  }
  node {
    input: "251"
    input: "255"
    output: "256"
    op_type: "Mul"
  }
  node {
    input: "254"
    input: "256"
    output: "257"
    op_type: "Add"
  }
  node {
    output: "1371"
    op_type: "Constant"
    attribute {
      name: "value"
      t {
        dims: 3
        data_type: INT32
        raw_data: "\t\000\000\000\000\000\000\000\000\000\000\000"
      }
    }
  }
  node {
    output: "1372"
    op_type: "Constant"
    attribute {
      name: "value"
      t {
        dims: 3
        data_type: INT32
        raw_data: "\n\000\000\000\005\000\000\000\005\000\000\000"
      }
    }
  }
  node {
    input: "28"
    input: "1371"
    input: "1372"
    output: "1373"
    op_type: "Slice"
  }
  node {
    input: "1373"
    output: "1374"
    op_type: "Squeeze"
    attribute {
      name: "axes"
      ints: 0
    }
  }
  node {
    input: "4"
    output: "261"
    op_type: "Transpose"
    attribute {
      name: "perm"
      ints: 1
      ints: 0
    }
  }
  node {
    input: "1374"
    input: "261"
    input: "6"
    output: "262"
    op_type: "Gemm"
    attribute {
      name: "alpha"
      f: 1
    }
    attribute {
      name: "beta"
      f: 1
    }
    attribute {
      name: "broadcast"
      i: 1
    }
  }
  node {
    input: "5"
    output: "263"
    op_type: "Transpose"
    attribute {
      name: "perm"
      ints: 1
      ints: 0
    }
  }
  node {
    input: "257"
    input: "263"
    input: "7"
    output: "264"
    op_type: "Gemm"
    attribute {
      name: "alpha"
      f: 1
    }
    attribute {
      name: "beta"
      f: 1
    }
    attribute {
      name: "broadcast"
      i: 1
    }
  }
  node {
    input: "262"
    output: "266"
    output: "267"
    output: "268"
    op_type: "Split"
    attribute {
      name: "split"
      ints: 5
      ints: 5
      ints: 5
    }
    attribute {
      name: "axis"
      i: 1
    }
  }
  node {
    input: "264"
    output: "270"
    output: "271"
    output: "272"
    op_type: "Split"
    attribute {
      name: "split"
      ints: 5
      ints: 5
      ints: 5
    }
    attribute {
      name: "axis"
      i: 1
    }
  }
  node {
    input: "266"
    input: "270"
    output: "273"
    op_type: "Add"
  }
  node {
    input: "273"
    output: "274"
    op_type: "Sigmoid"
  }
  node {
    input: "267"
    input: "271"
    output: "275"
    op_type: "Add"
  }
  node {
    input: "275"
    output: "276"
    op_type: "Sigmoid"
  }
  node {
    input: "274"
    input: "272"
    output: "277"
    op_type: "Mul"
  }
  node {
    input: "268"
    input: "277"
    output: "278"
    op_type: "Add"
  }
  node {
    input: "278"
    output: "279"
    op_type: "Tanh"
  }
  node {
    input: "257"
    input: "279"
    output: "280"
    op_type: "Sub"
  }
  node {
    input: "276"
    input: "280"
    output: "281"
    op_type: "Mul"
  }
  node {
    input: "279"
    input: "281"
    output: "282"
    op_type: "Add"
  }
  node {
    input: "57"
    input: "82"
    input: "107"
    input: "132"
    input: "157"
    input: "182"
    input: "207"
    input: "232"
    input: "257"
    input: "282"
    output: "283"
    op_type: "Concat"
    attribute {
      name: "axis"
      i: 0
    }
  }
  node {
    input: "283"
    output: "284"
    op_type: "Reshape"
    attribute {
      name: "shape"
      ints: 10
      ints: 5
      ints: 5
    }
  }
  node {
    input: "284"
    output: "285"
    op_type: "Concat"
    attribute {
      name: "axis"
      i: 2
    }
  }
  node {
    input: "285"
    output: "287"
    output: "288"
    op_type: "Dropout"
    attribute {
      name: "ratio"
      f: 0.200000002980232
    }
    attribute {
      name: "is_test"
      i: 1
    }
  }
  node {
    output: "1375"
    op_type: "Constant"
    attribute {
      name: "value"
      t {
        dims: 3
        data_type: INT32
        raw_data: "\001\000\000\000\000\000\000\000\000\000\000\000"
      }
    }
  }
  node {
    output: "1376"
    op_type: "Constant"
    attribute {
      name: "value"
      t {
        dims: 3
        data_type: INT32
        raw_data: "\002\000\000\000\005\000\000\000\005\000\000\000"
      }
    }
  }
  node {
    input: "2"
    input: "1375"
    input: "1376"
    output: "1377"
    op_type: "Slice"
  }
  node {
    input: "1377"
    output: "1378"
    op_type: "Squeeze"
    attribute {
      name: "axes"
      ints: 0
    }
  }
  node {
    output: "1379"
    op_type: "Constant"
    attribute {
      name: "value"
      t {
        dims: 3
        data_type: INT32
        raw_data: "\000\000\000\000\000\000\000\000\000\000\000\000"
      }
    }
  }
  node {
    output: "1380"
    op_type: "Constant"
    attribute {
      name: "value"
      t {
        dims: 3
        data_type: INT32
        raw_data: "\001\000\000\000\005\000\000\000\005\000\000\000"
      }
    }
  }
  node {
    input: "287"
    input: "1379"
    input: "1380"
    output: "1381"
    op_type: "Slice"
  }
  node {
    input: "1381"
    output: "1382"
    op_type: "Squeeze"
    attribute {
      name: "axes"
      ints: 0
    }
  }
  node {
    input: "8"
    output: "295"
    op_type: "Transpose"
    attribute {
      name: "perm"
      ints: 1
      ints: 0
    }
  }
  node {
    input: "1382"
    input: "295"
    input: "10"
    output: "296"
    op_type: "Gemm"
    attribute {
      name: "alpha"
      f: 1
    }
    attribute {
      name: "beta"
      f: 1
    }
    attribute {
      name: "broadcast"
      i: 1
    }
  }
  node {
    input: "9"
    output: "297"
    op_type: "Transpose"
    attribute {
      name: "perm"
      ints: 1
      ints: 0
    }
  }
  node {
    input: "1378"
    input: "297"
    input: "11"
    output: "298"
    op_type: "Gemm"
    attribute {
      name: "alpha"
      f: 1
    }
    attribute {
      name: "beta"
      f: 1
    }
    attribute {
      name: "broadcast"
      i: 1
    }
  }
  node {
    input: "296"
    output: "300"
    output: "301"
    output: "302"
    op_type: "Split"
    attribute {
      name: "split"
      ints: 5
      ints: 5
      ints: 5
    }
    attribute {
      name: "axis"
      i: 1
    }
  }
  node {
    input: "298"
    output: "304"
    output: "305"
    output: "306"
    op_type: "Split"
    attribute {
      name: "split"
      ints: 5
      ints: 5
      ints: 5
    }
    attribute {
      name: "axis"
      i: 1
    }
  }
  node {
    input: "300"
    input: "304"
    output: "307"
    op_type: "Add"
  }
  node {
    input: "307"
    output: "308"
    op_type: "Sigmoid"
  }
  node {
    input: "301"
    input: "305"
    output: "309"
    op_type: "Add"
  }
  node {
    input: "309"
    output: "310"
    op_type: "Sigmoid"
  }
  node {
    input: "308"
    input: "306"
    output: "311"
    op_type: "Mul"
  }
  node {
    input: "302"
    input: "311"
    output: "312"
    op_type: "Add"
  }
  node {
    input: "312"
    output: "313"
    op_type: "Tanh"
  }
  node {
    input: "1378"
    input: "313"
    output: "314"
    op_type: "Sub"
  }
  node {
    input: "310"
    input: "314"
    output: "315"
    op_type: "Mul"
  }
  node {
    input: "313"
    input: "315"
    output: "316"
    op_type: "Add"
  }
  node {
    output: "1383"
    op_type: "Constant"
    attribute {
      name: "value"
      t {
        dims: 3
        data_type: INT32
        raw_data: "\001\000\000\000\000\000\000\000\000\000\000\000"
      }
    }
  }
  node {
    output: "1384"
    op_type: "Constant"
    attribute {
      name: "value"
      t {
        dims: 3
        data_type: INT32
        raw_data: "\002\000\000\000\005\000\000\000\005\000\000\000"
      }
    }
  }
  node {
    input: "287"
    input: "1383"
    input: "1384"
    output: "1385"
    op_type: "Slice"
  }
  node {
    input: "1385"
    output: "1386"
    op_type: "Squeeze"
    attribute {
      name: "axes"
      ints: 0
    }
  }
  node {
    input: "8"
    output: "320"
    op_type: "Transpose"
    attribute {
      name: "perm"
      ints: 1
      ints: 0
    }
  }
  node {
    input: "1386"
    input: "320"
    input: "10"
    output: "321"
    op_type: "Gemm"
    attribute {
      name: "alpha"
      f: 1
    }
    attribute {
      name: "beta"
      f: 1
    }
    attribute {
      name: "broadcast"
      i: 1
    }
  }
  node {
    input: "9"
    output: "322"
    op_type: "Transpose"
    attribute {
      name: "perm"
      ints: 1
      ints: 0
    }
  }
  node {
    input: "316"
    input: "322"
    input: "11"
    output: "323"
    op_type: "Gemm"
    attribute {
      name: "alpha"
      f: 1
    }
    attribute {
      name: "beta"
      f: 1
    }
    attribute {
      name: "broadcast"
      i: 1
    }
  }
  node {
    input: "321"
    output: "325"
    output: "326"
    output: "327"
    op_type: "Split"
    attribute {
      name: "split"
      ints: 5
      ints: 5
      ints: 5
    }
    attribute {
      name: "axis"
      i: 1
    }
  }
  node {
    input: "323"
    output: "329"
    output: "330"
    output: "331"
    op_type: "Split"
    attribute {
      name: "split"
      ints: 5
      ints: 5
      ints: 5
    }
    attribute {
      name: "axis"
      i: 1
    }
  }
  node {
    input: "325"
    input: "329"
    output: "332"
    op_type: "Add"
  }
  node {
    input: "332"
    output: "333"
    op_type: "Sigmoid"
  }
  node {
    input: "326"
    input: "330"
    output: "334"
    op_type: "Add"
  }
  node {
    input: "334"
    output: "335"
    op_type: "Sigmoid"
  }
  node {
    input: "333"
    input: "331"
    output: "336"
    op_type: "Mul"
  }
  node {
    input: "327"
    input: "336"
    output: "337"
    op_type: "Add"
  }
  node {
    input: "337"
    output: "338"
    op_type: "Tanh"
  }
  node {
    input: "316"
    input: "338"
    output: "339"
    op_type: "Sub"
  }
  node {
    input: "335"
    input: "339"
    output: "340"
    op_type: "Mul"
  }
  node {
    input: "338"
    input: "340"
    output: "341"
    op_type: "Add"
  }
  node {
    output: "1387"
    op_type: "Constant"
    attribute {
      name: "value"
      t {
        dims: 3
        data_type: INT32
        raw_data: "\002\000\000\000\000\000\000\000\000\000\000\000"
      }
    }
  }
  node {
    output: "1388"
    op_type: "Constant"
    attribute {
      name: "value"
      t {
        dims: 3
        data_type: INT32
        raw_data: "\003\000\000\000\005\000\000\000\005\000\000\000"
      }
    }
  }
  node {
    input: "287"
    input: "1387"
    input: "1388"
    output: "1389"
    op_type: "Slice"
  }
  node {
    input: "1389"
    output: "1390"
    op_type: "Squeeze"
    attribute {
      name: "axes"
      ints: 0
    }
  }
  node {
    input: "8"
    output: "345"
    op_type: "Transpose"
    attribute {
      name: "perm"
      ints: 1
      ints: 0
    }
  }
  node {
    input: "1390"
    input: "345"
    input: "10"
    output: "346"
    op_type: "Gemm"
    attribute {
      name: "alpha"
      f: 1
    }
    attribute {
      name: "beta"
      f: 1
    }
    attribute {
      name: "broadcast"
      i: 1
    }
  }
  node {
    input: "9"
    output: "347"
    op_type: "Transpose"
    attribute {
      name: "perm"
      ints: 1
      ints: 0
    }
  }
  node {
    input: "341"
    input: "347"
    input: "11"
    output: "348"
    op_type: "Gemm"
    attribute {
      name: "alpha"
      f: 1
    }
    attribute {
      name: "beta"
      f: 1
    }
    attribute {
      name: "broadcast"
      i: 1
    }
  }
  node {
    input: "346"
    output: "350"
    output: "351"
    output: "352"
    op_type: "Split"
    attribute {
      name: "split"
      ints: 5
      ints: 5
      ints: 5
    }
    attribute {
      name: "axis"
      i: 1
    }
  }
  node {
    input: "348"
    output: "354"
    output: "355"
    output: "356"
    op_type: "Split"
    attribute {
      name: "split"
      ints: 5
      ints: 5
      ints: 5
    }
    attribute {
      name: "axis"
      i: 1
    }
  }
  node {
    input: "350"
    input: "354"
    output: "357"
    op_type: "Add"
  }
  node {
    input: "357"
    output: "358"
    op_type: "Sigmoid"
  }
  node {
    input: "351"
    input: "355"
    output: "359"
    op_type: "Add"
  }
  node {
    input: "359"
    output: "360"
    op_type: "Sigmoid"
  }
  node {
    input: "358"
    input: "356"
    output: "361"
    op_type: "Mul"
  }
  node {
    input: "352"
    input: "361"
    output: "362"
    op_type: "Add"
  }
  node {
    input: "362"
    output: "363"
    op_type: "Tanh"
  }
  node {
    input: "341"
    input: "363"
    output: "364"
    op_type: "Sub"
  }
  node {
    input: "360"
    input: "364"
    output: "365"
    op_type: "Mul"
  }
  node {
    input: "363"
    input: "365"
    output: "366"
    op_type: "Add"
  }
  node {
    output: "1391"
    op_type: "Constant"
    attribute {
      name: "value"
      t {
        dims: 3
        data_type: INT32
        raw_data: "\003\000\000\000\000\000\000\000\000\000\000\000"
      }
    }
  }
  node {
    output: "1392"
    op_type: "Constant"
    attribute {
      name: "value"
      t {
        dims: 3
        data_type: INT32
        raw_data: "\004\000\000\000\005\000\000\000\005\000\000\000"
      }
    }
  }
  node {
    input: "287"
    input: "1391"
    input: "1392"
    output: "1393"
    op_type: "Slice"
  }
  node {
    input: "1393"
    output: "1394"
    op_type: "Squeeze"
    attribute {
      name: "axes"
      ints: 0
    }
  }
  node {
    input: "8"
    output: "370"
    op_type: "Transpose"
    attribute {
      name: "perm"
      ints: 1
      ints: 0
    }
  }
  node {
    input: "1394"
    input: "370"
    input: "10"
    output: "371"
    op_type: "Gemm"
    attribute {
      name: "alpha"
      f: 1
    }
    attribute {
      name: "beta"
      f: 1
    }
    attribute {
      name: "broadcast"
      i: 1
    }
  }
  node {
    input: "9"
    output: "372"
    op_type: "Transpose"
    attribute {
      name: "perm"
      ints: 1
      ints: 0
    }
  }
  node {
    input: "366"
    input: "372"
    input: "11"
    output: "373"
    op_type: "Gemm"
    attribute {
      name: "alpha"
      f: 1
    }
    attribute {
      name: "beta"
      f: 1
    }
    attribute {
      name: "broadcast"
      i: 1
    }
  }
  node {
    input: "371"
    output: "375"
    output: "376"
    output: "377"
    op_type: "Split"
    attribute {
      name: "split"
      ints: 5
      ints: 5
      ints: 5
    }
    attribute {
      name: "axis"
      i: 1
    }
  }
  node {
    input: "373"
    output: "379"
    output: "380"
    output: "381"
    op_type: "Split"
    attribute {
      name: "split"
      ints: 5
      ints: 5
      ints: 5
    }
    attribute {
      name: "axis"
      i: 1
    }
  }
  node {
    input: "375"
    input: "379"
    output: "382"
    op_type: "Add"
  }
  node {
    input: "382"
    output: "383"
    op_type: "Sigmoid"
  }
  node {
    input: "376"
    input: "380"
    output: "384"
    op_type: "Add"
  }
  node {
    input: "384"
    output: "385"
    op_type: "Sigmoid"
  }
  node {
    input: "383"
    input: "381"
    output: "386"
    op_type: "Mul"
  }
  node {
    input: "377"
    input: "386"
    output: "387"
    op_type: "Add"
  }
  node {
    input: "387"
    output: "388"
    op_type: "Tanh"
  }
  node {
    input: "366"
    input: "388"
    output: "389"
    op_type: "Sub"
  }
  node {
    input: "385"
    input: "389"
    output: "390"
    op_type: "Mul"
  }
  node {
    input: "388"
    input: "390"
    output: "391"
    op_type: "Add"
  }
  node {
    output: "1395"
    op_type: "Constant"
    attribute {
      name: "value"
      t {
        dims: 3
        data_type: INT32
        raw_data: "\004\000\000\000\000\000\000\000\000\000\000\000"
      }
    }
  }
  node {
    output: "1396"
    op_type: "Constant"
    attribute {
      name: "value"
      t {
        dims: 3
        data_type: INT32
        raw_data: "\005\000\000\000\005\000\000\000\005\000\000\000"
      }
    }
  }
  node {
    input: "287"
    input: "1395"
    input: "1396"
    output: "1397"
    op_type: "Slice"
  }
  node {
    input: "1397"
    output: "1398"
    op_type: "Squeeze"
    attribute {
      name: "axes"
      ints: 0
    }
  }
  node {
    input: "8"
    output: "395"
    op_type: "Transpose"
    attribute {
      name: "perm"
      ints: 1
      ints: 0
    }
  }
  node {
    input: "1398"
    input: "395"
    input: "10"
    output: "396"
    op_type: "Gemm"
    attribute {
      name: "alpha"
      f: 1
    }
    attribute {
      name: "beta"
      f: 1
    }
    attribute {
      name: "broadcast"
      i: 1
    }
  }
  node {
    input: "9"
    output: "397"
    op_type: "Transpose"
    attribute {
      name: "perm"
      ints: 1
      ints: 0
    }
  }
  node {
    input: "391"
    input: "397"
    input: "11"
    output: "398"
    op_type: "Gemm"
    attribute {
      name: "alpha"
      f: 1
    }
    attribute {
      name: "beta"
      f: 1
    }
    attribute {
      name: "broadcast"
      i: 1
    }
  }
  node {
    input: "396"
    output: "400"
    output: "401"
    output: "402"
    op_type: "Split"
    attribute {
      name: "split"
      ints: 5
      ints: 5
      ints: 5
    }
    attribute {
      name: "axis"
      i: 1
    }
  }
  node {
    input: "398"
    output: "404"
    output: "405"
    output: "406"
    op_type: "Split"
    attribute {
      name: "split"
      ints: 5
      ints: 5
      ints: 5
    }
    attribute {
      name: "axis"
      i: 1
    }
  }
  node {
    input: "400"
    input: "404"
    output: "407"
    op_type: "Add"
  }
  node {
    input: "407"
    output: "408"
    op_type: "Sigmoid"
  }
  node {
    input: "401"
    input: "405"
    output: "409"
    op_type: "Add"
  }
  node {
    input: "409"
    output: "410"
    op_type: "Sigmoid"
  }
  node {
    input: "408"
    input: "406"
    output: "411"
    op_type: "Mul"
  }
  node {
    input: "402"
    input: "411"
    output: "412"
    op_type: "Add"
  }
  node {
    input: "412"
    output: "413"
    op_type: "Tanh"
  }
  node {
    input: "391"
    input: "413"
    output: "414"
    op_type: "Sub"
  }
  node {
    input: "410"
    input: "414"
    output: "415"
    op_type: "Mul"
  }
  node {
    input: "413"
    input: "415"
    output: "416"
    op_type: "Add"
  }
  node {
    output: "1399"
    op_type: "Constant"
    attribute {
      name: "value"
      t {
        dims: 3
        data_type: INT32
        raw_data: "\005\000\000\000\000\000\000\000\000\000\000\000"
      }
    }
  }
  node {
    output: "1400"
    op_type: "Constant"
    attribute {
      name: "value"
      t {
        dims: 3
        data_type: INT32
        raw_data: "\006\000\000\000\005\000\000\000\005\000\000\000"
      }
    }
  }
  node {
    input: "287"
    input: "1399"
    input: "1400"
    output: "1401"
    op_type: "Slice"
  }
  node {
    input: "1401"
    output: "1402"
    op_type: "Squeeze"
    attribute {
      name: "axes"
      ints: 0
    }
  }
  node {
    input: "8"
    output: "420"
    op_type: "Transpose"
    attribute {
      name: "perm"
      ints: 1
      ints: 0
    }
  }
  node {
    input: "1402"
    input: "420"
    input: "10"
    output: "421"
    op_type: "Gemm"
    attribute {
      name: "alpha"
      f: 1
    }
    attribute {
      name: "beta"
      f: 1
    }
    attribute {
      name: "broadcast"
      i: 1
    }
  }
  node {
    input: "9"
    output: "422"
    op_type: "Transpose"
    attribute {
      name: "perm"
      ints: 1
      ints: 0
    }
  }
  node {
    input: "416"
    input: "422"
    input: "11"
    output: "423"
    op_type: "Gemm"
    attribute {
      name: "alpha"
      f: 1
    }
    attribute {
      name: "beta"
      f: 1
    }
    attribute {
      name: "broadcast"
      i: 1
    }
  }
  node {
    input: "421"
    output: "425"
    output: "426"
    output: "427"
    op_type: "Split"
    attribute {
      name: "split"
      ints: 5
      ints: 5
      ints: 5
    }
    attribute {
      name: "axis"
      i: 1
    }
  }
  node {
    input: "423"
    output: "429"
    output: "430"
    output: "431"
    op_type: "Split"
    attribute {
      name: "split"
      ints: 5
      ints: 5
      ints: 5
    }
    attribute {
      name: "axis"
      i: 1
    }
  }
  node {
    input: "425"
    input: "429"
    output: "432"
    op_type: "Add"
  }
  node {
    input: "432"
    output: "433"
    op_type: "Sigmoid"
  }
  node {
    input: "426"
    input: "430"
    output: "434"
    op_type: "Add"
  }
  node {
    input: "434"
    output: "435"
    op_type: "Sigmoid"
  }
  node {
    input: "433"
    input: "431"
    output: "436"
    op_type: "Mul"
  }
  node {
    input: "427"
    input: "436"
    output: "437"
    op_type: "Add"
  }
  node {
    input: "437"
    output: "438"
    op_type: "Tanh"
  }
  node {
    input: "416"
    input: "438"
    output: "439"
    op_type: "Sub"
  }
  node {
    input: "435"
    input: "439"
    output: "440"
    op_type: "Mul"
  }
  node {
    input: "438"
    input: "440"
    output: "441"
    op_type: "Add"
  }
  node {
    output: "1403"
    op_type: "Constant"
    attribute {
      name: "value"
      t {
        dims: 3
        data_type: INT32
        raw_data: "\006\000\000\000\000\000\000\000\000\000\000\000"
      }
    }
  }
  node {
    output: "1404"
    op_type: "Constant"
    attribute {
      name: "value"
      t {
        dims: 3
        data_type: INT32
        raw_data: "\007\000\000\000\005\000\000\000\005\000\000\000"
      }
    }
  }
  node {
    input: "287"
    input: "1403"
    input: "1404"
    output: "1405"
    op_type: "Slice"
  }
  node {
    input: "1405"
    output: "1406"
    op_type: "Squeeze"
    attribute {
      name: "axes"
      ints: 0
    }
  }
  node {
    input: "8"
    output: "445"
    op_type: "Transpose"
    attribute {
      name: "perm"
      ints: 1
      ints: 0
    }
  }
  node {
    input: "1406"
    input: "445"
    input: "10"
    output: "446"
    op_type: "Gemm"
    attribute {
      name: "alpha"
      f: 1
    }
    attribute {
      name: "beta"
      f: 1
    }
    attribute {
      name: "broadcast"
      i: 1
    }
  }
  node {
    input: "9"
    output: "447"
    op_type: "Transpose"
    attribute {
      name: "perm"
      ints: 1
      ints: 0
    }
  }
  node {
    input: "441"
    input: "447"
    input: "11"
    output: "448"
    op_type: "Gemm"
    attribute {
      name: "alpha"
      f: 1
    }
    attribute {
      name: "beta"
      f: 1
    }
    attribute {
      name: "broadcast"
      i: 1
    }
  }
  node {
    input: "446"
    output: "450"
    output: "451"
    output: "452"
    op_type: "Split"
    attribute {
      name: "split"
      ints: 5
      ints: 5
      ints: 5
    }
    attribute {
      name: "axis"
      i: 1
    }
  }
  node {
    input: "448"
    output: "454"
    output: "455"
    output: "456"
    op_type: "Split"
    attribute {
      name: "split"
      ints: 5
      ints: 5
      ints: 5
    }
    attribute {
      name: "axis"
      i: 1
    }
  }
  node {
    input: "450"
    input: "454"
    output: "457"
    op_type: "Add"
  }
  node {
    input: "457"
    output: "458"
    op_type: "Sigmoid"
  }
  node {
    input: "451"
    input: "455"
    output: "459"
    op_type: "Add"
  }
  node {
    input: "459"
    output: "460"
    op_type: "Sigmoid"
  }
  node {
    input: "458"
    input: "456"
    output: "461"
    op_type: "Mul"
  }
  node {
    input: "452"
    input: "461"
    output: "462"
    op_type: "Add"
  }
  node {
    input: "462"
    output: "463"
    op_type: "Tanh"
  }
  node {
    input: "441"
    input: "463"
    output: "464"
    op_type: "Sub"
  }
  node {
    input: "460"
    input: "464"
    output: "465"
    op_type: "Mul"
  }
  node {
    input: "463"
    input: "465"
    output: "466"
    op_type: "Add"
  }
  node {
    output: "1407"
    op_type: "Constant"
    attribute {
      name: "value"
      t {
        dims: 3
        data_type: INT32
        raw_data: "\007\000\000\000\000\000\000\000\000\000\000\000"
      }
    }
  }
  node {
    output: "1408"
    op_type: "Constant"
    attribute {
      name: "value"
      t {
        dims: 3
        data_type: INT32
        raw_data: "\010\000\000\000\005\000\000\000\005\000\000\000"
      }
    }
  }
  node {
    input: "287"
    input: "1407"
    input: "1408"
    output: "1409"
    op_type: "Slice"
  }
  node {
    input: "1409"
    output: "1410"
    op_type: "Squeeze"
    attribute {
      name: "axes"
      ints: 0
    }
  }
  node {
    input: "8"
    output: "470"
    op_type: "Transpose"
    attribute {
      name: "perm"
      ints: 1
      ints: 0
    }
  }
  node {
    input: "1410"
    input: "470"
    input: "10"
    output: "471"
    op_type: "Gemm"
    attribute {
      name: "alpha"
      f: 1
    }
    attribute {
      name: "beta"
      f: 1
    }
    attribute {
      name: "broadcast"
      i: 1
    }
  }
  node {
    input: "9"
    output: "472"
    op_type: "Transpose"
    attribute {
      name: "perm"
      ints: 1
      ints: 0
    }
  }
  node {
    input: "466"
    input: "472"
    input: "11"
    output: "473"
    op_type: "Gemm"
    attribute {
      name: "alpha"
      f: 1
    }
    attribute {
      name: "beta"
      f: 1
    }
    attribute {
      name: "broadcast"
      i: 1
    }
  }
  node {
    input: "471"
    output: "475"
    output: "476"
    output: "477"
    op_type: "Split"
    attribute {
      name: "split"
      ints: 5
      ints: 5
      ints: 5
    }
    attribute {
      name: "axis"
      i: 1
    }
  }
  node {
    input: "473"
    output: "479"
    output: "480"
    output: "481"
    op_type: "Split"
    attribute {
      name: "split"
      ints: 5
      ints: 5
      ints: 5
    }
    attribute {
      name: "axis"
      i: 1
    }
  }
  node {
    input: "475"
    input: "479"
    output: "482"
    op_type: "Add"
  }
  node {
    input: "482"
    output: "483"
    op_type: "Sigmoid"
  }
  node {
    input: "476"
    input: "480"
    output: "484"
    op_type: "Add"
  }
  node {
    input: "484"
    output: "485"
    op_type: "Sigmoid"
  }
  node {
    input: "483"
    input: "481"
    output: "486"
    op_type: "Mul"
  }
  node {
    input: "477"
    input: "486"
    output: "487"
    op_type: "Add"
  }
  node {
    input: "487"
    output: "488"
    op_type: "Tanh"
  }
  node {
    input: "466"
    input: "488"
    output: "489"
    op_type: "Sub"
  }
  node {
    input: "485"
    input: "489"
    output: "490"
    op_type: "Mul"
  }
  node {
    input: "488"
    input: "490"
    output: "491"
    op_type: "Add"
  }
  node {
    output: "1411"
    op_type: "Constant"
    attribute {
      name: "value"
      t {
        dims: 3
        data_type: INT32
        raw_data: "\010\000\000\000\000\000\000\000\000\000\000\000"
      }
    }
  }
  node {
    output: "1412"
    op_type: "Constant"
    attribute {
      name: "value"
      t {
        dims: 3
        data_type: INT32
        raw_data: "\t\000\000\000\005\000\000\000\005\000\000\000"
      }
    }
  }
  node {
    input: "287"
    input: "1411"
    input: "1412"
    output: "1413"
    op_type: "Slice"
  }
  node {
    input: "1413"
    output: "1414"
    op_type: "Squeeze"
    attribute {
      name: "axes"
      ints: 0
    }
  }
  node {
    input: "8"
    output: "495"
    op_type: "Transpose"
    attribute {
      name: "perm"
      ints: 1
      ints: 0
    }
  }
  node {
    input: "1414"
    input: "495"
    input: "10"
    output: "496"
    op_type: "Gemm"
    attribute {
      name: "alpha"
      f: 1
    }
    attribute {
      name: "beta"
      f: 1
    }
    attribute {
      name: "broadcast"
      i: 1
    }
  }
  node {
    input: "9"
    output: "497"
    op_type: "Transpose"
    attribute {
      name: "perm"
      ints: 1
      ints: 0
    }
  }
  node {
    input: "491"
    input: "497"
    input: "11"
    output: "498"
    op_type: "Gemm"
    attribute {
      name: "alpha"
      f: 1
    }
    attribute {
      name: "beta"
      f: 1
    }
    attribute {
      name: "broadcast"
      i: 1
    }
  }
  node {
    input: "496"
    output: "500"
    output: "501"
    output: "502"
    op_type: "Split"
    attribute {
      name: "split"
      ints: 5
      ints: 5
      ints: 5
    }
    attribute {
      name: "axis"
      i: 1
    }
  }
  node {
    input: "498"
    output: "504"
    output: "505"
    output: "506"
    op_type: "Split"
    attribute {
      name: "split"
      ints: 5
      ints: 5
      ints: 5
    }
    attribute {
      name: "axis"
      i: 1
    }
  }
  node {
    input: "500"
    input: "504"
    output: "507"
    op_type: "Add"
  }
  node {
    input: "507"
    output: "508"
    op_type: "Sigmoid"
  }
  node {
    input: "501"
    input: "505"
    output: "509"
    op_type: "Add"
  }
  node {
    input: "509"
    output: "510"
    op_type: "Sigmoid"
  }
  node {
    input: "508"
    input: "506"
    output: "511"
    op_type: "Mul"
  }
  node {
    input: "502"
    input: "511"
    output: "512"
    op_type: "Add"
  }
  node {
    input: "512"
    output: "513"
    op_type: "Tanh"
  }
  node {
    input: "491"
    input: "513"
    output: "514"
    op_type: "Sub"
  }
  node {
    input: "510"
    input: "514"
    output: "515"
    op_type: "Mul"
  }
  node {
    input: "513"
    input: "515"
    output: "516"
    op_type: "Add"
  }
  node {
    output: "1415"
    op_type: "Constant"
    attribute {
      name: "value"
      t {
        dims: 3
        data_type: INT32
        raw_data: "\t\000\000\000\000\000\000\000\000\000\000\000"
      }
    }
  }
  node {
    output: "1416"
    op_type: "Constant"
    attribute {
      name: "value"
      t {
        dims: 3
        data_type: INT32
        raw_data: "\n\000\000\000\005\000\000\000\005\000\000\000"
      }
    }
  }
  node {
    input: "287"
    input: "1415"
    input: "1416"
    output: "1417"
    op_type: "Slice"
  }
  node {
    input: "1417"
    output: "1418"
    op_type: "Squeeze"
    attribute {
      name: "axes"
      ints: 0
    }
  }
  node {
    input: "8"
    output: "520"
    op_type: "Transpose"
    attribute {
      name: "perm"
      ints: 1
      ints: 0
    }
  }
  node {
    input: "1418"
    input: "520"
    input: "10"
    output: "521"
    op_type: "Gemm"
    attribute {
      name: "alpha"
      f: 1
    }
    attribute {
      name: "beta"
      f: 1
    }
    attribute {
      name: "broadcast"
      i: 1
    }
  }
  node {
    input: "9"
    output: "522"
    op_type: "Transpose"
    attribute {
      name: "perm"
      ints: 1
      ints: 0
    }
  }
  node {
    input: "516"
    input: "522"
    input: "11"
    output: "523"
    op_type: "Gemm"
    attribute {
      name: "alpha"
      f: 1
    }
    attribute {
      name: "beta"
      f: 1
    }
    attribute {
      name: "broadcast"
      i: 1
    }
  }
  node {
    input: "521"
    output: "525"
    output: "526"
    output: "527"
    op_type: "Split"
    attribute {
      name: "split"
      ints: 5
      ints: 5
      ints: 5
    }
    attribute {
      name: "axis"
      i: 1
    }
  }
  node {
    input: "523"
    output: "529"
    output: "530"
    output: "531"
    op_type: "Split"
    attribute {
      name: "split"
      ints: 5
      ints: 5
      ints: 5
    }
    attribute {
      name: "axis"
      i: 1
    }
  }
  node {
    input: "525"
    input: "529"
    output: "532"
    op_type: "Add"
  }
  node {
    input: "532"
    output: "533"
    op_type: "Sigmoid"
  }
  node {
    input: "526"
    input: "530"
    output: "534"
    op_type: "Add"
  }
  node {
    input: "534"
    output: "535"
    op_type: "Sigmoid"
  }
  node {
    input: "533"
    input: "531"
    output: "536"
    op_type: "Mul"
  }
  node {
    input: "527"
    input: "536"
    output: "537"
    op_type: "Add"
  }
  node {
    input: "537"
    output: "538"
    op_type: "Tanh"
  }
  node {
    input: "516"
    input: "538"
    output: "539"
    op_type: "Sub"
  }
  node {
    input: "535"
    input: "539"
    output: "540"
    op_type: "Mul"
  }
  node {
    input: "538"
    input: "540"
    output: "541"
    op_type: "Add"
  }
  node {
    input: "316"
    input: "341"
    input: "366"
    input: "391"
    input: "416"
    input: "441"
    input: "466"
    input: "491"
    input: "516"
    input: "541"
    output: "542"
    op_type: "Concat"
    attribute {
      name: "axis"
      i: 0
    }
  }
  node {
    input: "542"
    output: "543"
    op_type: "Reshape"
    attribute {
      name: "shape"
      ints: 10
      ints: 5
      ints: 5
    }
  }
  node {
    input: "543"
    output: "544"
    op_type: "Concat"
    attribute {
      name: "axis"
      i: 2
    }
  }
  node {
    input: "544"
    output: "546"
    output: "547"
    op_type: "Dropout"
    attribute {
      name: "ratio"
      f: 0.200000002980232
    }
    attribute {
      name: "is_test"
      i: 1
    }
  }
  node {
    output: "1419"
    op_type: "Constant"
    attribute {
      name: "value"
      t {
        dims: 3
        data_type: INT32
        raw_data: "\002\000\000\000\000\000\000\000\000\000\000\000"
      }
    }
  }
  node {
    output: "1420"
    op_type: "Constant"
    attribute {
      name: "value"
      t {
        dims: 3
        data_type: INT32
        raw_data: "\003\000\000\000\005\000\000\000\005\000\000\000"
      }
    }
  }
  node {
    input: "2"
    input: "1419"
    input: "1420"
    output: "1421"
    op_type: "Slice"
  }
  node {
    input: "1421"
    output: "1422"
    op_type: "Squeeze"
    attribute {
      name: "axes"
      ints: 0
    }
  }
  node {
    output: "1423"
    op_type: "Constant"
    attribute {
      name: "value"
      t {
        dims: 3
        data_type: INT32
        raw_data: "\000\000\000\000\000\000\000\000\000\000\000\000"
      }
    }
  }
  node {
    output: "1424"
    op_type: "Constant"
    attribute {
      name: "value"
      t {
        dims: 3
        data_type: INT32
        raw_data: "\001\000\000\000\005\000\000\000\005\000\000\000"
      }
    }
  }
  node {
    input: "546"
    input: "1423"
    input: "1424"
    output: "1425"
    op_type: "Slice"
  }
  node {
    input: "1425"
    output: "1426"
    op_type: "Squeeze"
    attribute {
      name: "axes"
      ints: 0
    }
  }
  node {
    input: "12"
    output: "554"
    op_type: "Transpose"
    attribute {
      name: "perm"
      ints: 1
      ints: 0
    }
  }
  node {
    input: "1426"
    input: "554"
    input: "14"
    output: "555"
    op_type: "Gemm"
    attribute {
      name: "alpha"
      f: 1
    }
    attribute {
      name: "beta"
      f: 1
    }
    attribute {
      name: "broadcast"
      i: 1
    }
  }
  node {
    input: "13"
    output: "556"
    op_type: "Transpose"
    attribute {
      name: "perm"
      ints: 1
      ints: 0
    }
  }
  node {
    input: "1422"
    input: "556"
    input: "15"
    output: "557"
    op_type: "Gemm"
    attribute {
      name: "alpha"
      f: 1
    }
    attribute {
      name: "beta"
      f: 1
    }
    attribute {
      name: "broadcast"
      i: 1
    }
  }
  node {
    input: "555"
    output: "559"
    output: "560"
    output: "561"
    op_type: "Split"
    attribute {
      name: "split"
      ints: 5
      ints: 5
      ints: 5
    }
    attribute {
      name: "axis"
      i: 1
    }
  }
  node {
    input: "557"
    output: "563"
    output: "564"
    output: "565"
    op_type: "Split"
    attribute {
      name: "split"
      ints: 5
      ints: 5
      ints: 5
    }
    attribute {
      name: "axis"
      i: 1
    }
  }
  node {
    input: "559"
    input: "563"
    output: "566"
    op_type: "Add"
  }
  node {
    input: "566"
    output: "567"
    op_type: "Sigmoid"
  }
  node {
    input: "560"
    input: "564"
    output: "568"
    op_type: "Add"
  }
  node {
    input: "568"
    output: "569"
    op_type: "Sigmoid"
  }
  node {
    input: "567"
    input: "565"
    output: "570"
    op_type: "Mul"
  }
  node {
    input: "561"
    input: "570"
    output: "571"
    op_type: "Add"
  }
  node {
    input: "571"
    output: "572"
    op_type: "Tanh"
  }
  node {
    input: "1422"
    input: "572"
    output: "573"
    op_type: "Sub"
  }
  node {
    input: "569"
    input: "573"
    output: "574"
    op_type: "Mul"
  }
  node {
    input: "572"
    input: "574"
    output: "575"
    op_type: "Add"
  }
  node {
    output: "1427"
    op_type: "Constant"
    attribute {
      name: "value"
      t {
        dims: 3
        data_type: INT32
        raw_data: "\001\000\000\000\000\000\000\000\000\000\000\000"
      }
    }
  }
  node {
    output: "1428"
    op_type: "Constant"
    attribute {
      name: "value"
      t {
        dims: 3
        data_type: INT32
        raw_data: "\002\000\000\000\005\000\000\000\005\000\000\000"
      }
    }
  }
  node {
    input: "546"
    input: "1427"
    input: "1428"
    output: "1429"
    op_type: "Slice"
  }
  node {
    input: "1429"
    output: "1430"
    op_type: "Squeeze"
    attribute {
      name: "axes"
      ints: 0
    }
  }
  node {
    input: "12"
    output: "579"
    op_type: "Transpose"
    attribute {
      name: "perm"
      ints: 1
      ints: 0
    }
  }
  node {
    input: "1430"
    input: "579"
    input: "14"
    output: "580"
    op_type: "Gemm"
    attribute {
      name: "alpha"
      f: 1
    }
    attribute {
      name: "beta"
      f: 1
    }
    attribute {
      name: "broadcast"
      i: 1
    }
  }
  node {
    input: "13"
    output: "581"
    op_type: "Transpose"
    attribute {
      name: "perm"
      ints: 1
      ints: 0
    }
  }
  node {
    input: "575"
    input: "581"
    input: "15"
    output: "582"
    op_type: "Gemm"
    attribute {
      name: "alpha"
      f: 1
    }
    attribute {
      name: "beta"
      f: 1
    }
    attribute {
      name: "broadcast"
      i: 1
    }
  }
  node {
    input: "580"
    output: "584"
    output: "585"
    output: "586"
    op_type: "Split"
    attribute {
      name: "split"
      ints: 5
      ints: 5
      ints: 5
    }
    attribute {
      name: "axis"
      i: 1
    }
  }
  node {
    input: "582"
    output: "588"
    output: "589"
    output: "590"
    op_type: "Split"
    attribute {
      name: "split"
      ints: 5
      ints: 5
      ints: 5
    }
    attribute {
      name: "axis"
      i: 1
    }
  }
  node {
    input: "584"
    input: "588"
    output: "591"
    op_type: "Add"
  }
  node {
    input: "591"
    output: "592"
    op_type: "Sigmoid"
  }
  node {
    input: "585"
    input: "589"
    output: "593"
    op_type: "Add"
  }
  node {
    input: "593"
    output: "594"
    op_type: "Sigmoid"
  }
  node {
    input: "592"
    input: "590"
    output: "595"
    op_type: "Mul"
  }
  node {
    input: "586"
    input: "595"
    output: "596"
    op_type: "Add"
  }
  node {
    input: "596"
    output: "597"
    op_type: "Tanh"
  }
  node {
    input: "575"
    input: "597"
    output: "598"
    op_type: "Sub"
  }
  node {
    input: "594"
    input: "598"
    output: "599"
    op_type: "Mul"
  }
  node {
    input: "597"
    input: "599"
    output: "600"
    op_type: "Add"
  }
  node {
    output: "1431"
    op_type: "Constant"
    attribute {
      name: "value"
      t {
        dims: 3
        data_type: INT32
        raw_data: "\002\000\000\000\000\000\000\000\000\000\000\000"
      }
    }
  }
  node {
    output: "1432"
    op_type: "Constant"
    attribute {
      name: "value"
      t {
        dims: 3
        data_type: INT32
        raw_data: "\003\000\000\000\005\000\000\000\005\000\000\000"
      }
    }
  }
  node {
    input: "546"
    input: "1431"
    input: "1432"
    output: "1433"
    op_type: "Slice"
  }
  node {
    input: "1433"
    output: "1434"
    op_type: "Squeeze"
    attribute {
      name: "axes"
      ints: 0
    }
  }
  node {
    input: "12"
    output: "604"
    op_type: "Transpose"
    attribute {
      name: "perm"
      ints: 1
      ints: 0
    }
  }
  node {
    input: "1434"
    input: "604"
    input: "14"
    output: "605"
    op_type: "Gemm"
    attribute {
      name: "alpha"
      f: 1
    }
    attribute {
      name: "beta"
      f: 1
    }
    attribute {
      name: "broadcast"
      i: 1
    }
  }
  node {
    input: "13"
    output: "606"
    op_type: "Transpose"
    attribute {
      name: "perm"
      ints: 1
      ints: 0
    }
  }
  node {
    input: "600"
    input: "606"
    input: "15"
    output: "607"
    op_type: "Gemm"
    attribute {
      name: "alpha"
      f: 1
    }
    attribute {
      name: "beta"
      f: 1
    }
    attribute {
      name: "broadcast"
      i: 1
    }
  }
  node {
    input: "605"
    output: "609"
    output: "610"
    output: "611"
    op_type: "Split"
    attribute {
      name: "split"
      ints: 5
      ints: 5
      ints: 5
    }
    attribute {
      name: "axis"
      i: 1
    }
  }
  node {
    input: "607"
    output: "613"
    output: "614"
    output: "615"
    op_type: "Split"
    attribute {
      name: "split"
      ints: 5
      ints: 5
      ints: 5
    }
    attribute {
      name: "axis"
      i: 1
    }
  }
  node {
    input: "609"
    input: "613"
    output: "616"
    op_type: "Add"
  }
  node {
    input: "616"
    output: "617"
    op_type: "Sigmoid"
  }
  node {
    input: "610"
    input: "614"
    output: "618"
    op_type: "Add"
  }
  node {
    input: "618"
    output: "619"
    op_type: "Sigmoid"
  }
  node {
    input: "617"
    input: "615"
    output: "620"
    op_type: "Mul"
  }
  node {
    input: "611"
    input: "620"
    output: "621"
    op_type: "Add"
  }
  node {
    input: "621"
    output: "622"
    op_type: "Tanh"
  }
  node {
    input: "600"
    input: "622"
    output: "623"
    op_type: "Sub"
  }
  node {
    input: "619"
    input: "623"
    output: "624"
    op_type: "Mul"
  }
  node {
    input: "622"
    input: "624"
    output: "625"
    op_type: "Add"
  }
  node {
    output: "1435"
    op_type: "Constant"
    attribute {
      name: "value"
      t {
        dims: 3
        data_type: INT32
        raw_data: "\003\000\000\000\000\000\000\000\000\000\000\000"
      }
    }
  }
  node {
    output: "1436"
    op_type: "Constant"
    attribute {
      name: "value"
      t {
        dims: 3
        data_type: INT32
        raw_data: "\004\000\000\000\005\000\000\000\005\000\000\000"
      }
    }
  }
  node {
    input: "546"
    input: "1435"
    input: "1436"
    output: "1437"
    op_type: "Slice"
  }
  node {
    input: "1437"
    output: "1438"
    op_type: "Squeeze"
    attribute {
      name: "axes"
      ints: 0
    }
  }
  node {
    input: "12"
    output: "629"
    op_type: "Transpose"
    attribute {
      name: "perm"
      ints: 1
      ints: 0
    }
  }
  node {
    input: "1438"
    input: "629"
    input: "14"
    output: "630"
    op_type: "Gemm"
    attribute {
      name: "alpha"
      f: 1
    }
    attribute {
      name: "beta"
      f: 1
    }
    attribute {
      name: "broadcast"
      i: 1
    }
  }
  node {
    input: "13"
    output: "631"
    op_type: "Transpose"
    attribute {
      name: "perm"
      ints: 1
      ints: 0
    }
  }
  node {
    input: "625"
    input: "631"
    input: "15"
    output: "632"
    op_type: "Gemm"
    attribute {
      name: "alpha"
      f: 1
    }
    attribute {
      name: "beta"
      f: 1
    }
    attribute {
      name: "broadcast"
      i: 1
    }
  }
  node {
    input: "630"
    output: "634"
    output: "635"
    output: "636"
    op_type: "Split"
    attribute {
      name: "split"
      ints: 5
      ints: 5
      ints: 5
    }
    attribute {
      name: "axis"
      i: 1
    }
  }
  node {
    input: "632"
    output: "638"
    output: "639"
    output: "640"
    op_type: "Split"
    attribute {
      name: "split"
      ints: 5
      ints: 5
      ints: 5
    }
    attribute {
      name: "axis"
      i: 1
    }
  }
  node {
    input: "634"
    input: "638"
    output: "641"
    op_type: "Add"
  }
  node {
    input: "641"
    output: "642"
    op_type: "Sigmoid"
  }
  node {
    input: "635"
    input: "639"
    output: "643"
    op_type: "Add"
  }
  node {
    input: "643"
    output: "644"
    op_type: "Sigmoid"
  }
  node {
    input: "642"
    input: "640"
    output: "645"
    op_type: "Mul"
  }
  node {
    input: "636"
    input: "645"
    output: "646"
    op_type: "Add"
  }
  node {
    input: "646"
    output: "647"
    op_type: "Tanh"
  }
  node {
    input: "625"
    input: "647"
    output: "648"
    op_type: "Sub"
  }
  node {
    input: "644"
    input: "648"
    output: "649"
    op_type: "Mul"
  }
  node {
    input: "647"
    input: "649"
    output: "650"
    op_type: "Add"
  }
  node {
    output: "1439"
    op_type: "Constant"
    attribute {
      name: "value"
      t {
        dims: 3
        data_type: INT32
        raw_data: "\004\000\000\000\000\000\000\000\000\000\000\000"
      }
    }
  }
  node {
    output: "1440"
    op_type: "Constant"
    attribute {
      name: "value"
      t {
        dims: 3
        data_type: INT32
        raw_data: "\005\000\000\000\005\000\000\000\005\000\000\000"
      }
    }
  }
  node {
    input: "546"
    input: "1439"
    input: "1440"
    output: "1441"
    op_type: "Slice"
  }
  node {
    input: "1441"
    output: "1442"
    op_type: "Squeeze"
    attribute {
      name: "axes"
      ints: 0
    }
  }
  node {
    input: "12"
    output: "654"
    op_type: "Transpose"
    attribute {
      name: "perm"
      ints: 1
      ints: 0
    }
  }
  node {
    input: "1442"
    input: "654"
    input: "14"
    output: "655"
    op_type: "Gemm"
    attribute {
      name: "alpha"
      f: 1
    }
    attribute {
      name: "beta"
      f: 1
    }
    attribute {
      name: "broadcast"
      i: 1
    }
  }
  node {
    input: "13"
    output: "656"
    op_type: "Transpose"
    attribute {
      name: "perm"
      ints: 1
      ints: 0
    }
  }
  node {
    input: "650"
    input: "656"
    input: "15"
    output: "657"
    op_type: "Gemm"
    attribute {
      name: "alpha"
      f: 1
    }
    attribute {
      name: "beta"
      f: 1
    }
    attribute {
      name: "broadcast"
      i: 1
    }
  }
  node {
    input: "655"
    output: "659"
    output: "660"
    output: "661"
    op_type: "Split"
    attribute {
      name: "split"
      ints: 5
      ints: 5
      ints: 5
    }
    attribute {
      name: "axis"
      i: 1
    }
  }
  node {
    input: "657"
    output: "663"
    output: "664"
    output: "665"
    op_type: "Split"
    attribute {
      name: "split"
      ints: 5
      ints: 5
      ints: 5
    }
    attribute {
      name: "axis"
      i: 1
    }
  }
  node {
    input: "659"
    input: "663"
    output: "666"
    op_type: "Add"
  }
  node {
    input: "666"
    output: "667"
    op_type: "Sigmoid"
  }
  node {
    input: "660"
    input: "664"
    output: "668"
    op_type: "Add"
  }
  node {
    input: "668"
    output: "669"
    op_type: "Sigmoid"
  }
  node {
    input: "667"
    input: "665"
    output: "670"
    op_type: "Mul"
  }
  node {
    input: "661"
    input: "670"
    output: "671"
    op_type: "Add"
  }
  node {
    input: "671"
    output: "672"
    op_type: "Tanh"
  }
  node {
    input: "650"
    input: "672"
    output: "673"
    op_type: "Sub"
  }
  node {
    input: "669"
    input: "673"
    output: "674"
    op_type: "Mul"
  }
  node {
    input: "672"
    input: "674"
    output: "675"
    op_type: "Add"
  }
  node {
    output: "1443"
    op_type: "Constant"
    attribute {
      name: "value"
      t {
        dims: 3
        data_type: INT32
        raw_data: "\005\000\000\000\000\000\000\000\000\000\000\000"
      }
    }
  }
  node {
    output: "1444"
    op_type: "Constant"
    attribute {
      name: "value"
      t {
        dims: 3
        data_type: INT32
        raw_data: "\006\000\000\000\005\000\000\000\005\000\000\000"
      }
    }
  }
  node {
    input: "546"
    input: "1443"
    input: "1444"
    output: "1445"
    op_type: "Slice"
  }
  node {
    input: "1445"
    output: "1446"
    op_type: "Squeeze"
    attribute {
      name: "axes"
      ints: 0
    }
  }
  node {
    input: "12"
    output: "679"
    op_type: "Transpose"
    attribute {
      name: "perm"
      ints: 1
      ints: 0
    }
  }
  node {
    input: "1446"
    input: "679"
    input: "14"
    output: "680"
    op_type: "Gemm"
    attribute {
      name: "alpha"
      f: 1
    }
    attribute {
      name: "beta"
      f: 1
    }
    attribute {
      name: "broadcast"
      i: 1
    }
  }
  node {
    input: "13"
    output: "681"
    op_type: "Transpose"
    attribute {
      name: "perm"
      ints: 1
      ints: 0
    }
  }
  node {
    input: "675"
    input: "681"
    input: "15"
    output: "682"
    op_type: "Gemm"
    attribute {
      name: "alpha"
      f: 1
    }
    attribute {
      name: "beta"
      f: 1
    }
    attribute {
      name: "broadcast"
      i: 1
    }
  }
  node {
    input: "680"
    output: "684"
    output: "685"
    output: "686"
    op_type: "Split"
    attribute {
      name: "split"
      ints: 5
      ints: 5
      ints: 5
    }
    attribute {
      name: "axis"
      i: 1
    }
  }
  node {
    input: "682"
    output: "688"
    output: "689"
    output: "690"
    op_type: "Split"
    attribute {
      name: "split"
      ints: 5
      ints: 5
      ints: 5
    }
    attribute {
      name: "axis"
      i: 1
    }
  }
  node {
    input: "684"
    input: "688"
    output: "691"
    op_type: "Add"
  }
  node {
    input: "691"
    output: "692"
    op_type: "Sigmoid"
  }
  node {
    input: "685"
    input: "689"
    output: "693"
    op_type: "Add"
  }
  node {
    input: "693"
    output: "694"
    op_type: "Sigmoid"
  }
  node {
    input: "692"
    input: "690"
    output: "695"
    op_type: "Mul"
  }
  node {
    input: "686"
    input: "695"
    output: "696"
    op_type: "Add"
  }
  node {
    input: "696"
    output: "697"
    op_type: "Tanh"
  }
  node {
    input: "675"
    input: "697"
    output: "698"
    op_type: "Sub"
  }
  node {
    input: "694"
    input: "698"
    output: "699"
    op_type: "Mul"
  }
  node {
    input: "697"
    input: "699"
    output: "700"
    op_type: "Add"
  }
  node {
    output: "1447"
    op_type: "Constant"
    attribute {
      name: "value"
      t {
        dims: 3
        data_type: INT32
        raw_data: "\006\000\000\000\000\000\000\000\000\000\000\000"
      }
    }
  }
  node {
    output: "1448"
    op_type: "Constant"
    attribute {
      name: "value"
      t {
        dims: 3
        data_type: INT32
        raw_data: "\007\000\000\000\005\000\000\000\005\000\000\000"
      }
    }
  }
  node {
    input: "546"
    input: "1447"
    input: "1448"
    output: "1449"
    op_type: "Slice"
  }
  node {
    input: "1449"
    output: "1450"
    op_type: "Squeeze"
    attribute {
      name: "axes"
      ints: 0
    }
  }
  node {
    input: "12"
    output: "704"
    op_type: "Transpose"
    attribute {
      name: "perm"
      ints: 1
      ints: 0
    }
  }
  node {
    input: "1450"
    input: "704"
    input: "14"
    output: "705"
    op_type: "Gemm"
    attribute {
      name: "alpha"
      f: 1
    }
    attribute {
      name: "beta"
      f: 1
    }
    attribute {
      name: "broadcast"
      i: 1
    }
  }
  node {
    input: "13"
    output: "706"
    op_type: "Transpose"
    attribute {
      name: "perm"
      ints: 1
      ints: 0
    }
  }
  node {
    input: "700"
    input: "706"
    input: "15"
    output: "707"
    op_type: "Gemm"
    attribute {
      name: "alpha"
      f: 1
    }
    attribute {
      name: "beta"
      f: 1
    }
    attribute {
      name: "broadcast"
      i: 1
    }
  }
  node {
    input: "705"
    output: "709"
    output: "710"
    output: "711"
    op_type: "Split"
    attribute {
      name: "split"
      ints: 5
      ints: 5
      ints: 5
    }
    attribute {
      name: "axis"
      i: 1
    }
  }
  node {
    input: "707"
    output: "713"
    output: "714"
    output: "715"
    op_type: "Split"
    attribute {
      name: "split"
      ints: 5
      ints: 5
      ints: 5
    }
    attribute {
      name: "axis"
      i: 1
    }
  }
  node {
    input: "709"
    input: "713"
    output: "716"
    op_type: "Add"
  }
  node {
    input: "716"
    output: "717"
    op_type: "Sigmoid"
  }
  node {
    input: "710"
    input: "714"
    output: "718"
    op_type: "Add"
  }
  node {
    input: "718"
    output: "719"
    op_type: "Sigmoid"
  }
  node {
    input: "717"
    input: "715"
    output: "720"
    op_type: "Mul"
  }
  node {
    input: "711"
    input: "720"
    output: "721"
    op_type: "Add"
  }
  node {
    input: "721"
    output: "722"
    op_type: "Tanh"
  }
  node {
    input: "700"
    input: "722"
    output: "723"
    op_type: "Sub"
  }
  node {
    input: "719"
    input: "723"
    output: "724"
    op_type: "Mul"
  }
  node {
    input: "722"
    input: "724"
    output: "725"
    op_type: "Add"
  }
  node {
    output: "1451"
    op_type: "Constant"
    attribute {
      name: "value"
      t {
        dims: 3
        data_type: INT32
        raw_data: "\007\000\000\000\000\000\000\000\000\000\000\000"
      }
    }
  }
  node {
    output: "1452"
    op_type: "Constant"
    attribute {
      name: "value"
      t {
        dims: 3
        data_type: INT32
        raw_data: "\010\000\000\000\005\000\000\000\005\000\000\000"
      }
    }
  }
  node {
    input: "546"
    input: "1451"
    input: "1452"
    output: "1453"
    op_type: "Slice"
  }
  node {
    input: "1453"
    output: "1454"
    op_type: "Squeeze"
    attribute {
      name: "axes"
      ints: 0
    }
  }
  node {
    input: "12"
    output: "729"
    op_type: "Transpose"
    attribute {
      name: "perm"
      ints: 1
      ints: 0
    }
  }
  node {
    input: "1454"
    input: "729"
    input: "14"
    output: "730"
    op_type: "Gemm"
    attribute {
      name: "alpha"
      f: 1
    }
    attribute {
      name: "beta"
      f: 1
    }
    attribute {
      name: "broadcast"
      i: 1
    }
  }
  node {
    input: "13"
    output: "731"
    op_type: "Transpose"
    attribute {
      name: "perm"
      ints: 1
      ints: 0
    }
  }
  node {
    input: "725"
    input: "731"
    input: "15"
    output: "732"
    op_type: "Gemm"
    attribute {
      name: "alpha"
      f: 1
    }
    attribute {
      name: "beta"
      f: 1
    }
    attribute {
      name: "broadcast"
      i: 1
    }
  }
  node {
    input: "730"
    output: "734"
    output: "735"
    output: "736"
    op_type: "Split"
    attribute {
      name: "split"
      ints: 5
      ints: 5
      ints: 5
    }
    attribute {
      name: "axis"
      i: 1
    }
  }
  node {
    input: "732"
    output: "738"
    output: "739"
    output: "740"
    op_type: "Split"
    attribute {
      name: "split"
      ints: 5
      ints: 5
      ints: 5
    }
    attribute {
      name: "axis"
      i: 1
    }
  }
  node {
    input: "734"
    input: "738"
    output: "741"
    op_type: "Add"
  }
  node {
    input: "741"
    output: "742"
    op_type: "Sigmoid"
  }
  node {
    input: "735"
    input: "739"
    output: "743"
    op_type: "Add"
  }
  node {
    input: "743"
    output: "744"
    op_type: "Sigmoid"
  }
  node {
    input: "742"
    input: "740"
    output: "745"
    op_type: "Mul"
  }
  node {
    input: "736"
    input: "745"
    output: "746"
    op_type: "Add"
  }
  node {
    input: "746"
    output: "747"
    op_type: "Tanh"
  }
  node {
    input: "725"
    input: "747"
    output: "748"
    op_type: "Sub"
  }
  node {
    input: "744"
    input: "748"
    output: "749"
    op_type: "Mul"
  }
  node {
    input: "747"
    input: "749"
    output: "750"
    op_type: "Add"
  }
  node {
    output: "1455"
    op_type: "Constant"
    attribute {
      name: "value"
      t {
        dims: 3
        data_type: INT32
        raw_data: "\010\000\000\000\000\000\000\000\000\000\000\000"
      }
    }
  }
  node {
    output: "1456"
    op_type: "Constant"
    attribute {
      name: "value"
      t {
        dims: 3
        data_type: INT32
        raw_data: "\t\000\000\000\005\000\000\000\005\000\000\000"
      }
    }
  }
  node {
    input: "546"
    input: "1455"
    input: "1456"
    output: "1457"
    op_type: "Slice"
  }
  node {
    input: "1457"
    output: "1458"
    op_type: "Squeeze"
    attribute {
      name: "axes"
      ints: 0
    }
  }
  node {
    input: "12"
    output: "754"
    op_type: "Transpose"
    attribute {
      name: "perm"
      ints: 1
      ints: 0
    }
  }
  node {
    input: "1458"
    input: "754"
    input: "14"
    output: "755"
    op_type: "Gemm"
    attribute {
      name: "alpha"
      f: 1
    }
    attribute {
      name: "beta"
      f: 1
    }
    attribute {
      name: "broadcast"
      i: 1
    }
  }
  node {
    input: "13"
    output: "756"
    op_type: "Transpose"
    attribute {
      name: "perm"
      ints: 1
      ints: 0
    }
  }
  node {
    input: "750"
    input: "756"
    input: "15"
    output: "757"
    op_type: "Gemm"
    attribute {
      name: "alpha"
      f: 1
    }
    attribute {
      name: "beta"
      f: 1
    }
    attribute {
      name: "broadcast"
      i: 1
    }
  }
  node {
    input: "755"
    output: "759"
    output: "760"
    output: "761"
    op_type: "Split"
    attribute {
      name: "split"
      ints: 5
      ints: 5
      ints: 5
    }
    attribute {
      name: "axis"
      i: 1
    }
  }
  node {
    input: "757"
    output: "763"
    output: "764"
    output: "765"
    op_type: "Split"
    attribute {
      name: "split"
      ints: 5
      ints: 5
      ints: 5
    }
    attribute {
      name: "axis"
      i: 1
    }
  }
  node {
    input: "759"
    input: "763"
    output: "766"
    op_type: "Add"
  }
  node {
    input: "766"
    output: "767"
    op_type: "Sigmoid"
  }
  node {
    input: "760"
    input: "764"
    output: "768"
    op_type: "Add"
  }
  node {
    input: "768"
    output: "769"
    op_type: "Sigmoid"
  }
  node {
    input: "767"
    input: "765"
    output: "770"
    op_type: "Mul"
  }
  node {
    input: "761"
    input: "770"
    output: "771"
    op_type: "Add"
  }
  node {
    input: "771"
    output: "772"
    op_type: "Tanh"
  }
  node {
    input: "750"
    input: "772"
    output: "773"
    op_type: "Sub"
  }
  node {
    input: "769"
    input: "773"
    output: "774"
    op_type: "Mul"
  }
  node {
    input: "772"
    input: "774"
    output: "775"
    op_type: "Add"
  }
  node {
    output: "1459"
    op_type: "Constant"
    attribute {
      name: "value"
      t {
        dims: 3
        data_type: INT32
        raw_data: "\t\000\000\000\000\000\000\000\000\000\000\000"
      }
    }
  }
  node {
    output: "1460"
    op_type: "Constant"
    attribute {
      name: "value"
      t {
        dims: 3
        data_type: INT32
        raw_data: "\n\000\000\000\005\000\000\000\005\000\000\000"
      }
    }
  }
  node {
    input: "546"
    input: "1459"
    input: "1460"
    output: "1461"
    op_type: "Slice"
  }
  node {
    input: "1461"
    output: "1462"
    op_type: "Squeeze"
    attribute {
      name: "axes"
      ints: 0
    }
  }
  node {
    input: "12"
    output: "779"
    op_type: "Transpose"
    attribute {
      name: "perm"
      ints: 1
      ints: 0
    }
  }
  node {
    input: "1462"
    input: "779"
    input: "14"
    output: "780"
    op_type: "Gemm"
    attribute {
      name: "alpha"
      f: 1
    }
    attribute {
      name: "beta"
      f: 1
    }
    attribute {
      name: "broadcast"
      i: 1
    }
  }
  node {
    input: "13"
    output: "781"
    op_type: "Transpose"
    attribute {
      name: "perm"
      ints: 1
      ints: 0
    }
  }
  node {
    input: "775"
    input: "781"
    input: "15"
    output: "782"
    op_type: "Gemm"
    attribute {
      name: "alpha"
      f: 1
    }
    attribute {
      name: "beta"
      f: 1
    }
    attribute {
      name: "broadcast"
      i: 1
    }
  }
  node {
    input: "780"
    output: "784"
    output: "785"
    output: "786"
    op_type: "Split"
    attribute {
      name: "split"
      ints: 5
      ints: 5
      ints: 5
    }
    attribute {
      name: "axis"
      i: 1
    }
  }
  node {
    input: "782"
    output: "788"
    output: "789"
    output: "790"
    op_type: "Split"
    attribute {
      name: "split"
      ints: 5
      ints: 5
      ints: 5
    }
    attribute {
      name: "axis"
      i: 1
    }
  }
  node {
    input: "784"
    input: "788"
    output: "791"
    op_type: "Add"
  }
  node {
    input: "791"
    output: "792"
    op_type: "Sigmoid"
  }
  node {
    input: "785"
    input: "789"
    output: "793"
    op_type: "Add"
  }
  node {
    input: "793"
    output: "794"
    op_type: "Sigmoid"
  }
  node {
    input: "792"
    input: "790"
    output: "795"
    op_type: "Mul"
  }
  node {
    input: "786"
    input: "795"
    output: "796"
    op_type: "Add"
  }
  node {
    input: "796"
    output: "797"
    op_type: "Tanh"
  }
  node {
    input: "775"
    input: "797"
    output: "798"
    op_type: "Sub"
  }
  node {
    input: "794"
    input: "798"
    output: "799"
    op_type: "Mul"
  }
  node {
    input: "797"
    input: "799"
    output: "800"
    op_type: "Add"
  }
  node {
    input: "575"
    input: "600"
    input: "625"
    input: "650"
    input: "675"
    input: "700"
    input: "725"
    input: "750"
    input: "775"
    input: "800"
    output: "801"
    op_type: "Concat"
    attribute {
      name: "axis"
      i: 0
    }
  }
  node {
    input: "801"
    output: "802"
    op_type: "Reshape"
    attribute {
      name: "shape"
      ints: 10
      ints: 5
      ints: 5
    }
  }
  node {
    input: "802"
    output: "803"
    op_type: "Concat"
    attribute {
      name: "axis"
      i: 2
    }
  }
  node {
    input: "803"
    output: "805"
    output: "806"
    op_type: "Dropout"
    attribute {
      name: "ratio"
      f: 0.200000002980232
    }
    attribute {
      name: "is_test"
      i: 1
    }
  }
  node {
    output: "1463"
    op_type: "Constant"
    attribute {
      name: "value"
      t {
        dims: 3
        data_type: INT32
        raw_data: "\003\000\000\000\000\000\000\000\000\000\000\000"
      }
    }
  }
  node {
    output: "1464"
    op_type: "Constant"
    attribute {
      name: "value"
      t {
        dims: 3
        data_type: INT32
        raw_data: "\004\000\000\000\005\000\000\000\005\000\000\000"
      }
    }
  }
  node {
    input: "2"
    input: "1463"
    input: "1464"
    output: "1465"
    op_type: "Slice"
  }
  node {
    input: "1465"
    output: "1466"
    op_type: "Squeeze"
    attribute {
      name: "axes"
      ints: 0
    }
  }
  node {
    output: "1467"
    op_type: "Constant"
    attribute {
      name: "value"
      t {
        dims: 3
        data_type: INT32
        raw_data: "\000\000\000\000\000\000\000\000\000\000\000\000"
      }
    }
  }
  node {
    output: "1468"
    op_type: "Constant"
    attribute {
      name: "value"
      t {
        dims: 3
        data_type: INT32
        raw_data: "\001\000\000\000\005\000\000\000\005\000\000\000"
      }
    }
  }
  node {
    input: "805"
    input: "1467"
    input: "1468"
    output: "1469"
    op_type: "Slice"
  }
  node {
    input: "1469"
    output: "1470"
    op_type: "Squeeze"
    attribute {
      name: "axes"
      ints: 0
    }
  }
  node {
    input: "16"
    output: "813"
    op_type: "Transpose"
    attribute {
      name: "perm"
      ints: 1
      ints: 0
    }
  }
  node {
    input: "1470"
    input: "813"
    input: "18"
    output: "814"
    op_type: "Gemm"
    attribute {
      name: "alpha"
      f: 1
    }
    attribute {
      name: "beta"
      f: 1
    }
    attribute {
      name: "broadcast"
      i: 1
    }
  }
  node {
    input: "17"
    output: "815"
    op_type: "Transpose"
    attribute {
      name: "perm"
      ints: 1
      ints: 0
    }
  }
  node {
    input: "1466"
    input: "815"
    input: "19"
    output: "816"
    op_type: "Gemm"
    attribute {
      name: "alpha"
      f: 1
    }
    attribute {
      name: "beta"
      f: 1
    }
    attribute {
      name: "broadcast"
      i: 1
    }
  }
  node {
    input: "814"
    output: "818"
    output: "819"
    output: "820"
    op_type: "Split"
    attribute {
      name: "split"
      ints: 5
      ints: 5
      ints: 5
    }
    attribute {
      name: "axis"
      i: 1
    }
  }
  node {
    input: "816"
    output: "822"
    output: "823"
    output: "824"
    op_type: "Split"
    attribute {
      name: "split"
      ints: 5
      ints: 5
      ints: 5
    }
    attribute {
      name: "axis"
      i: 1
    }
  }
  node {
    input: "818"
    input: "822"
    output: "825"
    op_type: "Add"
  }
  node {
    input: "825"
    output: "826"
    op_type: "Sigmoid"
  }
  node {
    input: "819"
    input: "823"
    output: "827"
    op_type: "Add"
  }
  node {
    input: "827"
    output: "828"
    op_type: "Sigmoid"
  }
  node {
    input: "826"
    input: "824"
    output: "829"
    op_type: "Mul"
  }
  node {
    input: "820"
    input: "829"
    output: "830"
    op_type: "Add"
  }
  node {
    input: "830"
    output: "831"
    op_type: "Tanh"
  }
  node {
    input: "1466"
    input: "831"
    output: "832"
    op_type: "Sub"
  }
  node {
    input: "828"
    input: "832"
    output: "833"
    op_type: "Mul"
  }
  node {
    input: "831"
    input: "833"
    output: "834"
    op_type: "Add"
  }
  node {
    output: "1471"
    op_type: "Constant"
    attribute {
      name: "value"
      t {
        dims: 3
        data_type: INT32
        raw_data: "\001\000\000\000\000\000\000\000\000\000\000\000"
      }
    }
  }
  node {
    output: "1472"
    op_type: "Constant"
    attribute {
      name: "value"
      t {
        dims: 3
        data_type: INT32
        raw_data: "\002\000\000\000\005\000\000\000\005\000\000\000"
      }
    }
  }
  node {
    input: "805"
    input: "1471"
    input: "1472"
    output: "1473"
    op_type: "Slice"
  }
  node {
    input: "1473"
    output: "1474"
    op_type: "Squeeze"
    attribute {
      name: "axes"
      ints: 0
    }
  }
  node {
    input: "16"
    output: "838"
    op_type: "Transpose"
    attribute {
      name: "perm"
      ints: 1
      ints: 0
    }
  }
  node {
    input: "1474"
    input: "838"
    input: "18"
    output: "839"
    op_type: "Gemm"
    attribute {
      name: "alpha"
      f: 1
    }
    attribute {
      name: "beta"
      f: 1
    }
    attribute {
      name: "broadcast"
      i: 1
    }
  }
  node {
    input: "17"
    output: "840"
    op_type: "Transpose"
    attribute {
      name: "perm"
      ints: 1
      ints: 0
    }
  }
  node {
    input: "834"
    input: "840"
    input: "19"
    output: "841"
    op_type: "Gemm"
    attribute {
      name: "alpha"
      f: 1
    }
    attribute {
      name: "beta"
      f: 1
    }
    attribute {
      name: "broadcast"
      i: 1
    }
  }
  node {
    input: "839"
    output: "843"
    output: "844"
    output: "845"
    op_type: "Split"
    attribute {
      name: "split"
      ints: 5
      ints: 5
      ints: 5
    }
    attribute {
      name: "axis"
      i: 1
    }
  }
  node {
    input: "841"
    output: "847"
    output: "848"
    output: "849"
    op_type: "Split"
    attribute {
      name: "split"
      ints: 5
      ints: 5
      ints: 5
    }
    attribute {
      name: "axis"
      i: 1
    }
  }
  node {
    input: "843"
    input: "847"
    output: "850"
    op_type: "Add"
  }
  node {
    input: "850"
    output: "851"
    op_type: "Sigmoid"
  }
  node {
    input: "844"
    input: "848"
    output: "852"
    op_type: "Add"
  }
  node {
    input: "852"
    output: "853"
    op_type: "Sigmoid"
  }
  node {
    input: "851"
    input: "849"
    output: "854"
    op_type: "Mul"
  }
  node {
    input: "845"
    input: "854"
    output: "855"
    op_type: "Add"
  }
  node {
    input: "855"
    output: "856"
    op_type: "Tanh"
  }
  node {
    input: "834"
    input: "856"
    output: "857"
    op_type: "Sub"
  }
  node {
    input: "853"
    input: "857"
    output: "858"
    op_type: "Mul"
  }
  node {
    input: "856"
    input: "858"
    output: "859"
    op_type: "Add"
  }
  node {
    output: "1475"
    op_type: "Constant"
    attribute {
      name: "value"
      t {
        dims: 3
        data_type: INT32
        raw_data: "\002\000\000\000\000\000\000\000\000\000\000\000"
      }
    }
  }
  node {
    output: "1476"
    op_type: "Constant"
    attribute {
      name: "value"
      t {
        dims: 3
        data_type: INT32
        raw_data: "\003\000\000\000\005\000\000\000\005\000\000\000"
      }
    }
  }
  node {
    input: "805"
    input: "1475"
    input: "1476"
    output: "1477"
    op_type: "Slice"
  }
  node {
    input: "1477"
    output: "1478"
    op_type: "Squeeze"
    attribute {
      name: "axes"
      ints: 0
    }
  }
  node {
    input: "16"
    output: "863"
    op_type: "Transpose"
    attribute {
      name: "perm"
      ints: 1
      ints: 0
    }
  }
  node {
    input: "1478"
    input: "863"
    input: "18"
    output: "864"
    op_type: "Gemm"
    attribute {
      name: "alpha"
      f: 1
    }
    attribute {
      name: "beta"
      f: 1
    }
    attribute {
      name: "broadcast"
      i: 1
    }
  }
  node {
    input: "17"
    output: "865"
    op_type: "Transpose"
    attribute {
      name: "perm"
      ints: 1
      ints: 0
    }
  }
  node {
    input: "859"
    input: "865"
    input: "19"
    output: "866"
    op_type: "Gemm"
    attribute {
      name: "alpha"
      f: 1
    }
    attribute {
      name: "beta"
      f: 1
    }
    attribute {
      name: "broadcast"
      i: 1
    }
  }
  node {
    input: "864"
    output: "868"
    output: "869"
    output: "870"
    op_type: "Split"
    attribute {
      name: "split"
      ints: 5
      ints: 5
      ints: 5
    }
    attribute {
      name: "axis"
      i: 1
    }
  }
  node {
    input: "866"
    output: "872"
    output: "873"
    output: "874"
    op_type: "Split"
    attribute {
      name: "split"
      ints: 5
      ints: 5
      ints: 5
    }
    attribute {
      name: "axis"
      i: 1
    }
  }
  node {
    input: "868"
    input: "872"
    output: "875"
    op_type: "Add"
  }
  node {
    input: "875"
    output: "876"
    op_type: "Sigmoid"
  }
  node {
    input: "869"
    input: "873"
    output: "877"
    op_type: "Add"
  }
  node {
    input: "877"
    output: "878"
    op_type: "Sigmoid"
  }
  node {
    input: "876"
    input: "874"
    output: "879"
    op_type: "Mul"
  }
  node {
    input: "870"
    input: "879"
    output: "880"
    op_type: "Add"
  }
  node {
    input: "880"
    output: "881"
    op_type: "Tanh"
  }
  node {
    input: "859"
    input: "881"
    output: "882"
    op_type: "Sub"
  }
  node {
    input: "878"
    input: "882"
    output: "883"
    op_type: "Mul"
  }
  node {
    input: "881"
    input: "883"
    output: "884"
    op_type: "Add"
  }
  node {
    output: "1479"
    op_type: "Constant"
    attribute {
      name: "value"
      t {
        dims: 3
        data_type: INT32
        raw_data: "\003\000\000\000\000\000\000\000\000\000\000\000"
      }
    }
  }
  node {
    output: "1480"
    op_type: "Constant"
    attribute {
      name: "value"
      t {
        dims: 3
        data_type: INT32
        raw_data: "\004\000\000\000\005\000\000\000\005\000\000\000"
      }
    }
  }
  node {
    input: "805"
    input: "1479"
    input: "1480"
    output: "1481"
    op_type: "Slice"
  }
  node {
    input: "1481"
    output: "1482"
    op_type: "Squeeze"
    attribute {
      name: "axes"
      ints: 0
    }
  }
  node {
    input: "16"
    output: "888"
    op_type: "Transpose"
    attribute {
      name: "perm"
      ints: 1
      ints: 0
    }
  }
  node {
    input: "1482"
    input: "888"
    input: "18"
    output: "889"
    op_type: "Gemm"
    attribute {
      name: "alpha"
      f: 1
    }
    attribute {
      name: "beta"
      f: 1
    }
    attribute {
      name: "broadcast"
      i: 1
    }
  }
  node {
    input: "17"
    output: "890"
    op_type: "Transpose"
    attribute {
      name: "perm"
      ints: 1
      ints: 0
    }
  }
  node {
    input: "884"
    input: "890"
    input: "19"
    output: "891"
    op_type: "Gemm"
    attribute {
      name: "alpha"
      f: 1
    }
    attribute {
      name: "beta"
      f: 1
    }
    attribute {
      name: "broadcast"
      i: 1
    }
  }
  node {
    input: "889"
    output: "893"
    output: "894"
    output: "895"
    op_type: "Split"
    attribute {
      name: "split"
      ints: 5
      ints: 5
      ints: 5
    }
    attribute {
      name: "axis"
      i: 1
    }
  }
  node {
    input: "891"
    output: "897"
    output: "898"
    output: "899"
    op_type: "Split"
    attribute {
      name: "split"
      ints: 5
      ints: 5
      ints: 5
    }
    attribute {
      name: "axis"
      i: 1
    }
  }
  node {
    input: "893"
    input: "897"
    output: "900"
    op_type: "Add"
  }
  node {
    input: "900"
    output: "901"
    op_type: "Sigmoid"
  }
  node {
    input: "894"
    input: "898"
    output: "902"
    op_type: "Add"
  }
  node {
    input: "902"
    output: "903"
    op_type: "Sigmoid"
  }
  node {
    input: "901"
    input: "899"
    output: "904"
    op_type: "Mul"
  }
  node {
    input: "895"
    input: "904"
    output: "905"
    op_type: "Add"
  }
  node {
    input: "905"
    output: "906"
    op_type: "Tanh"
  }
  node {
    input: "884"
    input: "906"
    output: "907"
    op_type: "Sub"
  }
  node {
    input: "903"
    input: "907"
    output: "908"
    op_type: "Mul"
  }
  node {
    input: "906"
    input: "908"
    output: "909"
    op_type: "Add"
  }
  node {
    output: "1483"
    op_type: "Constant"
    attribute {
      name: "value"
      t {
        dims: 3
        data_type: INT32
        raw_data: "\004\000\000\000\000\000\000\000\000\000\000\000"
      }
    }
  }
  node {
    output: "1484"
    op_type: "Constant"
    attribute {
      name: "value"
      t {
        dims: 3
        data_type: INT32
        raw_data: "\005\000\000\000\005\000\000\000\005\000\000\000"
      }
    }
  }
  node {
    input: "805"
    input: "1483"
    input: "1484"
    output: "1485"
    op_type: "Slice"
  }
  node {
    input: "1485"
    output: "1486"
    op_type: "Squeeze"
    attribute {
      name: "axes"
      ints: 0
    }
  }
  node {
    input: "16"
    output: "913"
    op_type: "Transpose"
    attribute {
      name: "perm"
      ints: 1
      ints: 0
    }
  }
  node {
    input: "1486"
    input: "913"
    input: "18"
    output: "914"
    op_type: "Gemm"
    attribute {
      name: "alpha"
      f: 1
    }
    attribute {
      name: "beta"
      f: 1
    }
    attribute {
      name: "broadcast"
      i: 1
    }
  }
  node {
    input: "17"
    output: "915"
    op_type: "Transpose"
    attribute {
      name: "perm"
      ints: 1
      ints: 0
    }
  }
  node {
    input: "909"
    input: "915"
    input: "19"
    output: "916"
    op_type: "Gemm"
    attribute {
      name: "alpha"
      f: 1
    }
    attribute {
      name: "beta"
      f: 1
    }
    attribute {
      name: "broadcast"
      i: 1
    }
  }
  node {
    input: "914"
    output: "918"
    output: "919"
    output: "920"
    op_type: "Split"
    attribute {
      name: "split"
      ints: 5
      ints: 5
      ints: 5
    }
    attribute {
      name: "axis"
      i: 1
    }
  }
  node {
    input: "916"
    output: "922"
    output: "923"
    output: "924"
    op_type: "Split"
    attribute {
      name: "split"
      ints: 5
      ints: 5
      ints: 5
    }
    attribute {
      name: "axis"
      i: 1
    }
  }
  node {
    input: "918"
    input: "922"
    output: "925"
    op_type: "Add"
  }
  node {
    input: "925"
    output: "926"
    op_type: "Sigmoid"
  }
  node {
    input: "919"
    input: "923"
    output: "927"
    op_type: "Add"
  }
  node {
    input: "927"
    output: "928"
    op_type: "Sigmoid"
  }
  node {
    input: "926"
    input: "924"
    output: "929"
    op_type: "Mul"
  }
  node {
    input: "920"
    input: "929"
    output: "930"
    op_type: "Add"
  }
  node {
    input: "930"
    output: "931"
    op_type: "Tanh"
  }
  node {
    input: "909"
    input: "931"
    output: "932"
    op_type: "Sub"
  }
  node {
    input: "928"
    input: "932"
    output: "933"
    op_type: "Mul"
  }
  node {
    input: "931"
    input: "933"
    output: "934"
    op_type: "Add"
  }
  node {
    output: "1487"
    op_type: "Constant"
    attribute {
      name: "value"
      t {
        dims: 3
        data_type: INT32
        raw_data: "\005\000\000\000\000\000\000\000\000\000\000\000"
      }
    }
  }
  node {
    output: "1488"
    op_type: "Constant"
    attribute {
      name: "value"
      t {
        dims: 3
        data_type: INT32
        raw_data: "\006\000\000\000\005\000\000\000\005\000\000\000"
      }
    }
  }
  node {
    input: "805"
    input: "1487"
    input: "1488"
    output: "1489"
    op_type: "Slice"
  }
  node {
    input: "1489"
    output: "1490"
    op_type: "Squeeze"
    attribute {
      name: "axes"
      ints: 0
    }
  }
  node {
    input: "16"
    output: "938"
    op_type: "Transpose"
    attribute {
      name: "perm"
      ints: 1
      ints: 0
    }
  }
  node {
    input: "1490"
    input: "938"
    input: "18"
    output: "939"
    op_type: "Gemm"
    attribute {
      name: "alpha"
      f: 1
    }
    attribute {
      name: "beta"
      f: 1
    }
    attribute {
      name: "broadcast"
      i: 1
    }
  }
  node {
    input: "17"
    output: "940"
    op_type: "Transpose"
    attribute {
      name: "perm"
      ints: 1
      ints: 0
    }
  }
  node {
    input: "934"
    input: "940"
    input: "19"
    output: "941"
    op_type: "Gemm"
    attribute {
      name: "alpha"
      f: 1
    }
    attribute {
      name: "beta"
      f: 1
    }
    attribute {
      name: "broadcast"
      i: 1
    }
  }
  node {
    input: "939"
    output: "943"
    output: "944"
    output: "945"
    op_type: "Split"
    attribute {
      name: "split"
      ints: 5
      ints: 5
      ints: 5
    }
    attribute {
      name: "axis"
      i: 1
    }
  }
  node {
    input: "941"
    output: "947"
    output: "948"
    output: "949"
    op_type: "Split"
    attribute {
      name: "split"
      ints: 5
      ints: 5
      ints: 5
    }
    attribute {
      name: "axis"
      i: 1
    }
  }
  node {
    input: "943"
    input: "947"
    output: "950"
    op_type: "Add"
  }
  node {
    input: "950"
    output: "951"
    op_type: "Sigmoid"
  }
  node {
    input: "944"
    input: "948"
    output: "952"
    op_type: "Add"
  }
  node {
    input: "952"
    output: "953"
    op_type: "Sigmoid"
  }
  node {
    input: "951"
    input: "949"
    output: "954"
    op_type: "Mul"
  }
  node {
    input: "945"
    input: "954"
    output: "955"
    op_type: "Add"
  }
  node {
    input: "955"
    output: "956"
    op_type: "Tanh"
  }
  node {
    input: "934"
    input: "956"
    output: "957"
    op_type: "Sub"
  }
  node {
    input: "953"
    input: "957"
    output: "958"
    op_type: "Mul"
  }
  node {
    input: "956"
    input: "958"
    output: "959"
    op_type: "Add"
  }
  node {
    output: "1491"
    op_type: "Constant"
    attribute {
      name: "value"
      t {
        dims: 3
        data_type: INT32
        raw_data: "\006\000\000\000\000\000\000\000\000\000\000\000"
      }
    }
  }
  node {
    output: "1492"
    op_type: "Constant"
    attribute {
      name: "value"
      t {
        dims: 3
        data_type: INT32
        raw_data: "\007\000\000\000\005\000\000\000\005\000\000\000"
      }
    }
  }
  node {
    input: "805"
    input: "1491"
    input: "1492"
    output: "1493"
    op_type: "Slice"
  }
  node {
    input: "1493"
    output: "1494"
    op_type: "Squeeze"
    attribute {
      name: "axes"
      ints: 0
    }
  }
  node {
    input: "16"
    output: "963"
    op_type: "Transpose"
    attribute {
      name: "perm"
      ints: 1
      ints: 0
    }
  }
  node {
    input: "1494"
    input: "963"
    input: "18"
    output: "964"
    op_type: "Gemm"
    attribute {
      name: "alpha"
      f: 1
    }
    attribute {
      name: "beta"
      f: 1
    }
    attribute {
      name: "broadcast"
      i: 1
    }
  }
  node {
    input: "17"
    output: "965"
    op_type: "Transpose"
    attribute {
      name: "perm"
      ints: 1
      ints: 0
    }
  }
  node {
    input: "959"
    input: "965"
    input: "19"
    output: "966"
    op_type: "Gemm"
    attribute {
      name: "alpha"
      f: 1
    }
    attribute {
      name: "beta"
      f: 1
    }
    attribute {
      name: "broadcast"
      i: 1
    }
  }
  node {
    input: "964"
    output: "968"
    output: "969"
    output: "970"
    op_type: "Split"
    attribute {
      name: "split"
      ints: 5
      ints: 5
      ints: 5
    }
    attribute {
      name: "axis"
      i: 1
    }
  }
  node {
    input: "966"
    output: "972"
    output: "973"
    output: "974"
    op_type: "Split"
    attribute {
      name: "split"
      ints: 5
      ints: 5
      ints: 5
    }
    attribute {
      name: "axis"
      i: 1
    }
  }
  node {
    input: "968"
    input: "972"
    output: "975"
    op_type: "Add"
  }
  node {
    input: "975"
    output: "976"
    op_type: "Sigmoid"
  }
  node {
    input: "969"
    input: "973"
    output: "977"
    op_type: "Add"
  }
  node {
    input: "977"
    output: "978"
    op_type: "Sigmoid"
  }
  node {
    input: "976"
    input: "974"
    output: "979"
    op_type: "Mul"
  }
  node {
    input: "970"
    input: "979"
    output: "980"
    op_type: "Add"
  }
  node {
    input: "980"
    output: "981"
    op_type: "Tanh"
  }
  node {
    input: "959"
    input: "981"
    output: "982"
    op_type: "Sub"
  }
  node {
    input: "978"
    input: "982"
    output: "983"
    op_type: "Mul"
  }
  node {
    input: "981"
    input: "983"
    output: "984"
    op_type: "Add"
  }
  node {
    output: "1495"
    op_type: "Constant"
    attribute {
      name: "value"
      t {
        dims: 3
        data_type: INT32
        raw_data: "\007\000\000\000\000\000\000\000\000\000\000\000"
      }
    }
  }
  node {
    output: "1496"
    op_type: "Constant"
    attribute {
      name: "value"
      t {
        dims: 3
        data_type: INT32
        raw_data: "\010\000\000\000\005\000\000\000\005\000\000\000"
      }
    }
  }
  node {
    input: "805"
    input: "1495"
    input: "1496"
    output: "1497"
    op_type: "Slice"
  }
  node {
    input: "1497"
    output: "1498"
    op_type: "Squeeze"
    attribute {
      name: "axes"
      ints: 0
    }
  }
  node {
    input: "16"
    output: "988"
    op_type: "Transpose"
    attribute {
      name: "perm"
      ints: 1
      ints: 0
    }
  }
  node {
    input: "1498"
    input: "988"
    input: "18"
    output: "989"
    op_type: "Gemm"
    attribute {
      name: "alpha"
      f: 1
    }
    attribute {
      name: "beta"
      f: 1
    }
    attribute {
      name: "broadcast"
      i: 1
    }
  }
  node {
    input: "17"
    output: "990"
    op_type: "Transpose"
    attribute {
      name: "perm"
      ints: 1
      ints: 0
    }
  }
  node {
    input: "984"
    input: "990"
    input: "19"
    output: "991"
    op_type: "Gemm"
    attribute {
      name: "alpha"
      f: 1
    }
    attribute {
      name: "beta"
      f: 1
    }
    attribute {
      name: "broadcast"
      i: 1
    }
  }
  node {
    input: "989"
    output: "993"
    output: "994"
    output: "995"
    op_type: "Split"
    attribute {
      name: "split"
      ints: 5
      ints: 5
      ints: 5
    }
    attribute {
      name: "axis"
      i: 1
    }
  }
  node {
    input: "991"
    output: "997"
    output: "998"
    output: "999"
    op_type: "Split"
    attribute {
      name: "split"
      ints: 5
      ints: 5
      ints: 5
    }
    attribute {
      name: "axis"
      i: 1
    }
  }
  node {
    input: "993"
    input: "997"
    output: "1000"
    op_type: "Add"
  }
  node {
    input: "1000"
    output: "1001"
    op_type: "Sigmoid"
  }
  node {
    input: "994"
    input: "998"
    output: "1002"
    op_type: "Add"
  }
  node {
    input: "1002"
    output: "1003"
    op_type: "Sigmoid"
  }
  node {
    input: "1001"
    input: "999"
    output: "1004"
    op_type: "Mul"
  }
  node {
    input: "995"
    input: "1004"
    output: "1005"
    op_type: "Add"
  }
  node {
    input: "1005"
    output: "1006"
    op_type: "Tanh"
  }
  node {
    input: "984"
    input: "1006"
    output: "1007"
    op_type: "Sub"
  }
  node {
    input: "1003"
    input: "1007"
    output: "1008"
    op_type: "Mul"
  }
  node {
    input: "1006"
    input: "1008"
    output: "1009"
    op_type: "Add"
  }
  node {
    output: "1499"
    op_type: "Constant"
    attribute {
      name: "value"
      t {
        dims: 3
        data_type: INT32
        raw_data: "\010\000\000\000\000\000\000\000\000\000\000\000"
      }
    }
  }
  node {
    output: "1500"
    op_type: "Constant"
    attribute {
      name: "value"
      t {
        dims: 3
        data_type: INT32
        raw_data: "\t\000\000\000\005\000\000\000\005\000\000\000"
      }
    }
  }
  node {
    input: "805"
    input: "1499"
    input: "1500"
    output: "1501"
    op_type: "Slice"
  }
  node {
    input: "1501"
    output: "1502"
    op_type: "Squeeze"
    attribute {
      name: "axes"
      ints: 0
    }
  }
  node {
    input: "16"
    output: "1013"
    op_type: "Transpose"
    attribute {
      name: "perm"
      ints: 1
      ints: 0
    }
  }
  node {
    input: "1502"
    input: "1013"
    input: "18"
    output: "1014"
    op_type: "Gemm"
    attribute {
      name: "alpha"
      f: 1
    }
    attribute {
      name: "beta"
      f: 1
    }
    attribute {
      name: "broadcast"
      i: 1
    }
  }
  node {
    input: "17"
    output: "1015"
    op_type: "Transpose"
    attribute {
      name: "perm"
      ints: 1
      ints: 0
    }
  }
  node {
    input: "1009"
    input: "1015"
    input: "19"
    output: "1016"
    op_type: "Gemm"
    attribute {
      name: "alpha"
      f: 1
    }
    attribute {
      name: "beta"
      f: 1
    }
    attribute {
      name: "broadcast"
      i: 1
    }
  }
  node {
    input: "1014"
    output: "1018"
    output: "1019"
    output: "1020"
    op_type: "Split"
    attribute {
      name: "split"
      ints: 5
      ints: 5
      ints: 5
    }
    attribute {
      name: "axis"
      i: 1
    }
  }
  node {
    input: "1016"
    output: "1022"
    output: "1023"
    output: "1024"
    op_type: "Split"
    attribute {
      name: "split"
      ints: 5
      ints: 5
      ints: 5
    }
    attribute {
      name: "axis"
      i: 1
    }
  }
  node {
    input: "1018"
    input: "1022"
    output: "1025"
    op_type: "Add"
  }
  node {
    input: "1025"
    output: "1026"
    op_type: "Sigmoid"
  }
  node {
    input: "1019"
    input: "1023"
    output: "1027"
    op_type: "Add"
  }
  node {
    input: "1027"
    output: "1028"
    op_type: "Sigmoid"
  }
  node {
    input: "1026"
    input: "1024"
    output: "1029"
    op_type: "Mul"
  }
  node {
    input: "1020"
    input: "1029"
    output: "1030"
    op_type: "Add"
  }
  node {
    input: "1030"
    output: "1031"
    op_type: "Tanh"
  }
  node {
    input: "1009"
    input: "1031"
    output: "1032"
    op_type: "Sub"
  }
  node {
    input: "1028"
    input: "1032"
    output: "1033"
    op_type: "Mul"
  }
  node {
    input: "1031"
    input: "1033"
    output: "1034"
    op_type: "Add"
  }
  node {
    output: "1503"
    op_type: "Constant"
    attribute {
      name: "value"
      t {
        dims: 3
        data_type: INT32
        raw_data: "\t\000\000\000\000\000\000\000\000\000\000\000"
      }
    }
  }
  node {
    output: "1504"
    op_type: "Constant"
    attribute {
      name: "value"
      t {
        dims: 3
        data_type: INT32
        raw_data: "\n\000\000\000\005\000\000\000\005\000\000\000"
      }
    }
  }
  node {
    input: "805"
    input: "1503"
    input: "1504"
    output: "1505"
    op_type: "Slice"
  }
  node {
    input: "1505"
    output: "1506"
    op_type: "Squeeze"
    attribute {
      name: "axes"
      ints: 0
    }
  }
  node {
    input: "16"
    output: "1038"
    op_type: "Transpose"
    attribute {
      name: "perm"
      ints: 1
      ints: 0
    }
  }
  node {
    input: "1506"
    input: "1038"
    input: "18"
    output: "1039"
    op_type: "Gemm"
    attribute {
      name: "alpha"
      f: 1
    }
    attribute {
      name: "beta"
      f: 1
    }
    attribute {
      name: "broadcast"
      i: 1
    }
  }
  node {
    input: "17"
    output: "1040"
    op_type: "Transpose"
    attribute {
      name: "perm"
      ints: 1
      ints: 0
    }
  }
  node {
    input: "1034"
    input: "1040"
    input: "19"
    output: "1041"
    op_type: "Gemm"
    attribute {
      name: "alpha"
      f: 1
    }
    attribute {
      name: "beta"
      f: 1
    }
    attribute {
      name: "broadcast"
      i: 1
    }
  }
  node {
    input: "1039"
    output: "1043"
    output: "1044"
    output: "1045"
    op_type: "Split"
    attribute {
      name: "split"
      ints: 5
      ints: 5
      ints: 5
    }
    attribute {
      name: "axis"
      i: 1
    }
  }
  node {
    input: "1041"
    output: "1047"
    output: "1048"
    output: "1049"
    op_type: "Split"
    attribute {
      name: "split"
      ints: 5
      ints: 5
      ints: 5
    }
    attribute {
      name: "axis"
      i: 1
    }
  }
  node {
    input: "1043"
    input: "1047"
    output: "1050"
    op_type: "Add"
  }
  node {
    input: "1050"
    output: "1051"
    op_type: "Sigmoid"
  }
  node {
    input: "1044"
    input: "1048"
    output: "1052"
    op_type: "Add"
  }
  node {
    input: "1052"
    output: "1053"
    op_type: "Sigmoid"
  }
  node {
    input: "1051"
    input: "1049"
    output: "1054"
    op_type: "Mul"
  }
  node {
    input: "1045"
    input: "1054"
    output: "1055"
    op_type: "Add"
  }
  node {
    input: "1055"
    output: "1056"
    op_type: "Tanh"
  }
  node {
    input: "1034"
    input: "1056"
    output: "1057"
    op_type: "Sub"
  }
  node {
    input: "1053"
    input: "1057"
    output: "1058"
    op_type: "Mul"
  }
  node {
    input: "1056"
    input: "1058"
    output: "1059"
    op_type: "Add"
  }
  node {
    input: "834"
    input: "859"
    input: "884"
    input: "909"
    input: "934"
    input: "959"
    input: "984"
    input: "1009"
    input: "1034"
    input: "1059"
    output: "1060"
    op_type: "Concat"
    attribute {
      name: "axis"
      i: 0
    }
  }
  node {
    input: "1060"
    output: "1061"
    op_type: "Reshape"
    attribute {
      name: "shape"
      ints: 10
      ints: 5
      ints: 5
    }
  }
  node {
    input: "1061"
    output: "1062"
    op_type: "Concat"
    attribute {
      name: "axis"
      i: 2
    }
  }
  node {
    input: "1062"
    output: "1064"
    output: "1065"
    op_type: "Dropout"
    attribute {
      name: "ratio"
      f: 0.200000002980232
    }
    attribute {
      name: "is_test"
      i: 1
    }
  }
  node {
    output: "1507"
    op_type: "Constant"
    attribute {
      name: "value"
      t {
        dims: 3
        data_type: INT32
        raw_data: "\004\000\000\000\000\000\000\000\000\000\000\000"
      }
    }
  }
  node {
    output: "1508"
    op_type: "Constant"
    attribute {
      name: "value"
      t {
        dims: 3
        data_type: INT32
        raw_data: "\005\000\000\000\005\000\000\000\005\000\000\000"
      }
    }
  }
  node {
    input: "2"
    input: "1507"
    input: "1508"
    output: "1509"
    op_type: "Slice"
  }
  node {
    input: "1509"
    output: "1510"
    op_type: "Squeeze"
    attribute {
      name: "axes"
      ints: 0
    }
  }
  node {
    output: "1511"
    op_type: "Constant"
    attribute {
      name: "value"
      t {
        dims: 3
        data_type: INT32
        raw_data: "\000\000\000\000\000\000\000\000\000\000\000\000"
      }
    }
  }
  node {
    output: "1512"
    op_type: "Constant"
    attribute {
      name: "value"
      t {
        dims: 3
        data_type: INT32
        raw_data: "\001\000\000\000\005\000\000\000\005\000\000\000"
      }
    }
  }
  node {
    input: "1064"
    input: "1511"
    input: "1512"
    output: "1513"
    op_type: "Slice"
  }
  node {
    input: "1513"
    output: "1514"
    op_type: "Squeeze"
    attribute {
      name: "axes"
      ints: 0
    }
  }
  node {
    input: "20"
    output: "1072"
    op_type: "Transpose"
    attribute {
      name: "perm"
      ints: 1
      ints: 0
    }
  }
  node {
    input: "1514"
    input: "1072"
    input: "22"
    output: "1073"
    op_type: "Gemm"
    attribute {
      name: "alpha"
      f: 1
    }
    attribute {
      name: "beta"
      f: 1
    }
    attribute {
      name: "broadcast"
      i: 1
    }
  }
  node {
    input: "21"
    output: "1074"
    op_type: "Transpose"
    attribute {
      name: "perm"
      ints: 1
      ints: 0
    }
  }
  node {
    input: "1510"
    input: "1074"
    input: "23"
    output: "1075"
    op_type: "Gemm"
    attribute {
      name: "alpha"
      f: 1
    }
    attribute {
      name: "beta"
      f: 1
    }
    attribute {
      name: "broadcast"
      i: 1
    }
  }
  node {
    input: "1073"
    output: "1077"
    output: "1078"
    output: "1079"
    op_type: "Split"
    attribute {
      name: "split"
      ints: 5
      ints: 5
      ints: 5
    }
    attribute {
      name: "axis"
      i: 1
    }
  }
  node {
    input: "1075"
    output: "1081"
    output: "1082"
    output: "1083"
    op_type: "Split"
    attribute {
      name: "split"
      ints: 5
      ints: 5
      ints: 5
    }
    attribute {
      name: "axis"
      i: 1
    }
  }
  node {
    input: "1077"
    input: "1081"
    output: "1084"
    op_type: "Add"
  }
  node {
    input: "1084"
    output: "1085"
    op_type: "Sigmoid"
  }
  node {
    input: "1078"
    input: "1082"
    output: "1086"
    op_type: "Add"
  }
  node {
    input: "1086"
    output: "1087"
    op_type: "Sigmoid"
  }
  node {
    input: "1085"
    input: "1083"
    output: "1088"
    op_type: "Mul"
  }
  node {
    input: "1079"
    input: "1088"
    output: "1089"
    op_type: "Add"
  }
  node {
    input: "1089"
    output: "1090"
    op_type: "Tanh"
  }
  node {
    input: "1510"
    input: "1090"
    output: "1091"
    op_type: "Sub"
  }
  node {
    input: "1087"
    input: "1091"
    output: "1092"
    op_type: "Mul"
  }
  node {
    input: "1090"
    input: "1092"
    output: "1093"
    op_type: "Add"
  }
  node {
    output: "1515"
    op_type: "Constant"
    attribute {
      name: "value"
      t {
        dims: 3
        data_type: INT32
        raw_data: "\001\000\000\000\000\000\000\000\000\000\000\000"
      }
    }
  }
  node {
    output: "1516"
    op_type: "Constant"
    attribute {
      name: "value"
      t {
        dims: 3
        data_type: INT32
        raw_data: "\002\000\000\000\005\000\000\000\005\000\000\000"
      }
    }
  }
  node {
    input: "1064"
    input: "1515"
    input: "1516"
    output: "1517"
    op_type: "Slice"
  }
  node {
    input: "1517"
    output: "1518"
    op_type: "Squeeze"
    attribute {
      name: "axes"
      ints: 0
    }
  }
  node {
    input: "20"
    output: "1097"
    op_type: "Transpose"
    attribute {
      name: "perm"
      ints: 1
      ints: 0
    }
  }
  node {
    input: "1518"
    input: "1097"
    input: "22"
    output: "1098"
    op_type: "Gemm"
    attribute {
      name: "alpha"
      f: 1
    }
    attribute {
      name: "beta"
      f: 1
    }
    attribute {
      name: "broadcast"
      i: 1
    }
  }
  node {
    input: "21"
    output: "1099"
    op_type: "Transpose"
    attribute {
      name: "perm"
      ints: 1
      ints: 0
    }
  }
  node {
    input: "1093"
    input: "1099"
    input: "23"
    output: "1100"
    op_type: "Gemm"
    attribute {
      name: "alpha"
      f: 1
    }
    attribute {
      name: "beta"
      f: 1
    }
    attribute {
      name: "broadcast"
      i: 1
    }
  }
  node {
    input: "1098"
    output: "1102"
    output: "1103"
    output: "1104"
    op_type: "Split"
    attribute {
      name: "split"
      ints: 5
      ints: 5
      ints: 5
    }
    attribute {
      name: "axis"
      i: 1
    }
  }
  node {
    input: "1100"
    output: "1106"
    output: "1107"
    output: "1108"
    op_type: "Split"
    attribute {
      name: "split"
      ints: 5
      ints: 5
      ints: 5
    }
    attribute {
      name: "axis"
      i: 1
    }
  }
  node {
    input: "1102"
    input: "1106"
    output: "1109"
    op_type: "Add"
  }
  node {
    input: "1109"
    output: "1110"
    op_type: "Sigmoid"
  }
  node {
    input: "1103"
    input: "1107"
    output: "1111"
    op_type: "Add"
  }
  node {
    input: "1111"
    output: "1112"
    op_type: "Sigmoid"
  }
  node {
    input: "1110"
    input: "1108"
    output: "1113"
    op_type: "Mul"
  }
  node {
    input: "1104"
    input: "1113"
    output: "1114"
    op_type: "Add"
  }
  node {
    input: "1114"
    output: "1115"
    op_type: "Tanh"
  }
  node {
    input: "1093"
    input: "1115"
    output: "1116"
    op_type: "Sub"
  }
  node {
    input: "1112"
    input: "1116"
    output: "1117"
    op_type: "Mul"
  }
  node {
    input: "1115"
    input: "1117"
    output: "1118"
    op_type: "Add"
  }
  node {
    output: "1519"
    op_type: "Constant"
    attribute {
      name: "value"
      t {
        dims: 3
        data_type: INT32
        raw_data: "\002\000\000\000\000\000\000\000\000\000\000\000"
      }
    }
  }
  node {
    output: "1520"
    op_type: "Constant"
    attribute {
      name: "value"
      t {
        dims: 3
        data_type: INT32
        raw_data: "\003\000\000\000\005\000\000\000\005\000\000\000"
      }
    }
  }
  node {
    input: "1064"
    input: "1519"
    input: "1520"
    output: "1521"
    op_type: "Slice"
  }
  node {
    input: "1521"
    output: "1522"
    op_type: "Squeeze"
    attribute {
      name: "axes"
      ints: 0
    }
  }
  node {
    input: "20"
    output: "1122"
    op_type: "Transpose"
    attribute {
      name: "perm"
      ints: 1
      ints: 0
    }
  }
  node {
    input: "1522"
    input: "1122"
    input: "22"
    output: "1123"
    op_type: "Gemm"
    attribute {
      name: "alpha"
      f: 1
    }
    attribute {
      name: "beta"
      f: 1
    }
    attribute {
      name: "broadcast"
      i: 1
    }
  }
  node {
    input: "21"
    output: "1124"
    op_type: "Transpose"
    attribute {
      name: "perm"
      ints: 1
      ints: 0
    }
  }
  node {
    input: "1118"
    input: "1124"
    input: "23"
    output: "1125"
    op_type: "Gemm"
    attribute {
      name: "alpha"
      f: 1
    }
    attribute {
      name: "beta"
      f: 1
    }
    attribute {
      name: "broadcast"
      i: 1
    }
  }
  node {
    input: "1123"
    output: "1127"
    output: "1128"
    output: "1129"
    op_type: "Split"
    attribute {
      name: "split"
      ints: 5
      ints: 5
      ints: 5
    }
    attribute {
      name: "axis"
      i: 1
    }
  }
  node {
    input: "1125"
    output: "1131"
    output: "1132"
    output: "1133"
    op_type: "Split"
    attribute {
      name: "split"
      ints: 5
      ints: 5
      ints: 5
    }
    attribute {
      name: "axis"
      i: 1
    }
  }
  node {
    input: "1127"
    input: "1131"
    output: "1134"
    op_type: "Add"
  }
  node {
    input: "1134"
    output: "1135"
    op_type: "Sigmoid"
  }
  node {
    input: "1128"
    input: "1132"
    output: "1136"
    op_type: "Add"
  }
  node {
    input: "1136"
    output: "1137"
    op_type: "Sigmoid"
  }
  node {
    input: "1135"
    input: "1133"
    output: "1138"
    op_type: "Mul"
  }
  node {
    input: "1129"
    input: "1138"
    output: "1139"
    op_type: "Add"
  }
  node {
    input: "1139"
    output: "1140"
    op_type: "Tanh"
  }
  node {
    input: "1118"
    input: "1140"
    output: "1141"
    op_type: "Sub"
  }
  node {
    input: "1137"
    input: "1141"
    output: "1142"
    op_type: "Mul"
  }
  node {
    input: "1140"
    input: "1142"
    output: "1143"
    op_type: "Add"
  }
  node {
    output: "1523"
    op_type: "Constant"
    attribute {
      name: "value"
      t {
        dims: 3
        data_type: INT32
        raw_data: "\003\000\000\000\000\000\000\000\000\000\000\000"
      }
    }
  }
  node {
    output: "1524"
    op_type: "Constant"
    attribute {
      name: "value"
      t {
        dims: 3
        data_type: INT32
        raw_data: "\004\000\000\000\005\000\000\000\005\000\000\000"
      }
    }
  }
  node {
    input: "1064"
    input: "1523"
    input: "1524"
    output: "1525"
    op_type: "Slice"
  }
  node {
    input: "1525"
    output: "1526"
    op_type: "Squeeze"
    attribute {
      name: "axes"
      ints: 0
    }
  }
  node {
    input: "20"
    output: "1147"
    op_type: "Transpose"
    attribute {
      name: "perm"
      ints: 1
      ints: 0
    }
  }
  node {
    input: "1526"
    input: "1147"
    input: "22"
    output: "1148"
    op_type: "Gemm"
    attribute {
      name: "alpha"
      f: 1
    }
    attribute {
      name: "beta"
      f: 1
    }
    attribute {
      name: "broadcast"
      i: 1
    }
  }
  node {
    input: "21"
    output: "1149"
    op_type: "Transpose"
    attribute {
      name: "perm"
      ints: 1
      ints: 0
    }
  }
  node {
    input: "1143"
    input: "1149"
    input: "23"
    output: "1150"
    op_type: "Gemm"
    attribute {
      name: "alpha"
      f: 1
    }
    attribute {
      name: "beta"
      f: 1
    }
    attribute {
      name: "broadcast"
      i: 1
    }
  }
  node {
    input: "1148"
    output: "1152"
    output: "1153"
    output: "1154"
    op_type: "Split"
    attribute {
      name: "split"
      ints: 5
      ints: 5
      ints: 5
    }
    attribute {
      name: "axis"
      i: 1
    }
  }
  node {
    input: "1150"
    output: "1156"
    output: "1157"
    output: "1158"
    op_type: "Split"
    attribute {
      name: "split"
      ints: 5
      ints: 5
      ints: 5
    }
    attribute {
      name: "axis"
      i: 1
    }
  }
  node {
    input: "1152"
    input: "1156"
    output: "1159"
    op_type: "Add"
  }
  node {
    input: "1159"
    output: "1160"
    op_type: "Sigmoid"
  }
  node {
    input: "1153"
    input: "1157"
    output: "1161"
    op_type: "Add"
  }
  node {
    input: "1161"
    output: "1162"
    op_type: "Sigmoid"
  }
  node {
    input: "1160"
    input: "1158"
    output: "1163"
    op_type: "Mul"
  }
  node {
    input: "1154"
    input: "1163"
    output: "1164"
    op_type: "Add"
  }
  node {
    input: "1164"
    output: "1165"
    op_type: "Tanh"
  }
  node {
    input: "1143"
    input: "1165"
    output: "1166"
    op_type: "Sub"
  }
  node {
    input: "1162"
    input: "1166"
    output: "1167"
    op_type: "Mul"
  }
  node {
    input: "1165"
    input: "1167"
    output: "1168"
    op_type: "Add"
  }
  node {
    output: "1527"
    op_type: "Constant"
    attribute {
      name: "value"
      t {
        dims: 3
        data_type: INT32
        raw_data: "\004\000\000\000\000\000\000\000\000\000\000\000"
      }
    }
  }
  node {
    output: "1528"
    op_type: "Constant"
    attribute {
      name: "value"
      t {
        dims: 3
        data_type: INT32
        raw_data: "\005\000\000\000\005\000\000\000\005\000\000\000"
      }
    }
  }
  node {
    input: "1064"
    input: "1527"
    input: "1528"
    output: "1529"
    op_type: "Slice"
  }
  node {
    input: "1529"
    output: "1530"
    op_type: "Squeeze"
    attribute {
      name: "axes"
      ints: 0
    }
  }
  node {
    input: "20"
    output: "1172"
    op_type: "Transpose"
    attribute {
      name: "perm"
      ints: 1
      ints: 0
    }
  }
  node {
    input: "1530"
    input: "1172"
    input: "22"
    output: "1173"
    op_type: "Gemm"
    attribute {
      name: "alpha"
      f: 1
    }
    attribute {
      name: "beta"
      f: 1
    }
    attribute {
      name: "broadcast"
      i: 1
    }
  }
  node {
    input: "21"
    output: "1174"
    op_type: "Transpose"
    attribute {
      name: "perm"
      ints: 1
      ints: 0
    }
  }
  node {
    input: "1168"
    input: "1174"
    input: "23"
    output: "1175"
    op_type: "Gemm"
    attribute {
      name: "alpha"
      f: 1
    }
    attribute {
      name: "beta"
      f: 1
    }
    attribute {
      name: "broadcast"
      i: 1
    }
  }
  node {
    input: "1173"
    output: "1177"
    output: "1178"
    output: "1179"
    op_type: "Split"
    attribute {
      name: "split"
      ints: 5
      ints: 5
      ints: 5
    }
    attribute {
      name: "axis"
      i: 1
    }
  }
  node {
    input: "1175"
    output: "1181"
    output: "1182"
    output: "1183"
    op_type: "Split"
    attribute {
      name: "split"
      ints: 5
      ints: 5
      ints: 5
    }
    attribute {
      name: "axis"
      i: 1
    }
  }
  node {
    input: "1177"
    input: "1181"
    output: "1184"
    op_type: "Add"
  }
  node {
    input: "1184"
    output: "1185"
    op_type: "Sigmoid"
  }
  node {
    input: "1178"
    input: "1182"
    output: "1186"
    op_type: "Add"
  }
  node {
    input: "1186"
    output: "1187"
    op_type: "Sigmoid"
  }
  node {
    input: "1185"
    input: "1183"
    output: "1188"
    op_type: "Mul"
  }
  node {
    input: "1179"
    input: "1188"
    output: "1189"
    op_type: "Add"
  }
  node {
    input: "1189"
    output: "1190"
    op_type: "Tanh"
  }
  node {
    input: "1168"
    input: "1190"
    output: "1191"
    op_type: "Sub"
  }
  node {
    input: "1187"
    input: "1191"
    output: "1192"
    op_type: "Mul"
  }
  node {
    input: "1190"
    input: "1192"
    output: "1193"
    op_type: "Add"
  }
  node {
    output: "1531"
    op_type: "Constant"
    attribute {
      name: "value"
      t {
        dims: 3
        data_type: INT32
        raw_data: "\005\000\000\000\000\000\000\000\000\000\000\000"
      }
    }
  }
  node {
    output: "1532"
    op_type: "Constant"
    attribute {
      name: "value"
      t {
        dims: 3
        data_type: INT32
        raw_data: "\006\000\000\000\005\000\000\000\005\000\000\000"
      }
    }
  }
  node {
    input: "1064"
    input: "1531"
    input: "1532"
    output: "1533"
    op_type: "Slice"
  }
  node {
    input: "1533"
    output: "1534"
    op_type: "Squeeze"
    attribute {
      name: "axes"
      ints: 0
    }
  }
  node {
    input: "20"
    output: "1197"
    op_type: "Transpose"
    attribute {
      name: "perm"
      ints: 1
      ints: 0
    }
  }
  node {
    input: "1534"
    input: "1197"
    input: "22"
    output: "1198"
    op_type: "Gemm"
    attribute {
      name: "alpha"
      f: 1
    }
    attribute {
      name: "beta"
      f: 1
    }
    attribute {
      name: "broadcast"
      i: 1
    }
  }
  node {
    input: "21"
    output: "1199"
    op_type: "Transpose"
    attribute {
      name: "perm"
      ints: 1
      ints: 0
    }
  }
  node {
    input: "1193"
    input: "1199"
    input: "23"
    output: "1200"
    op_type: "Gemm"
    attribute {
      name: "alpha"
      f: 1
    }
    attribute {
      name: "beta"
      f: 1
    }
    attribute {
      name: "broadcast"
      i: 1
    }
  }
  node {
    input: "1198"
    output: "1202"
    output: "1203"
    output: "1204"
    op_type: "Split"
    attribute {
      name: "split"
      ints: 5
      ints: 5
      ints: 5
    }
    attribute {
      name: "axis"
      i: 1
    }
  }
  node {
    input: "1200"
    output: "1206"
    output: "1207"
    output: "1208"
    op_type: "Split"
    attribute {
      name: "split"
      ints: 5
      ints: 5
      ints: 5
    }
    attribute {
      name: "axis"
      i: 1
    }
  }
  node {
    input: "1202"
    input: "1206"
    output: "1209"
    op_type: "Add"
  }
  node {
    input: "1209"
    output: "1210"
    op_type: "Sigmoid"
  }
  node {
    input: "1203"
    input: "1207"
    output: "1211"
    op_type: "Add"
  }
  node {
    input: "1211"
    output: "1212"
    op_type: "Sigmoid"
  }
  node {
    input: "1210"
    input: "1208"
    output: "1213"
    op_type: "Mul"
  }
  node {
    input: "1204"
    input: "1213"
    output: "1214"
    op_type: "Add"
  }
  node {
    input: "1214"
    output: "1215"
    op_type: "Tanh"
  }
  node {
    input: "1193"
    input: "1215"
    output: "1216"
    op_type: "Sub"
  }
  node {
    input: "1212"
    input: "1216"
    output: "1217"
    op_type: "Mul"
  }
  node {
    input: "1215"
    input: "1217"
    output: "1218"
    op_type: "Add"
  }
  node {
    output: "1535"
    op_type: "Constant"
    attribute {
      name: "value"
      t {
        dims: 3
        data_type: INT32
        raw_data: "\006\000\000\000\000\000\000\000\000\000\000\000"
      }
    }
  }
  node {
    output: "1536"
    op_type: "Constant"
    attribute {
      name: "value"
      t {
        dims: 3
        data_type: INT32
        raw_data: "\007\000\000\000\005\000\000\000\005\000\000\000"
      }
    }
  }
  node {
    input: "1064"
    input: "1535"
    input: "1536"
    output: "1537"
    op_type: "Slice"
  }
  node {
    input: "1537"
    output: "1538"
    op_type: "Squeeze"
    attribute {
      name: "axes"
      ints: 0
    }
  }
  node {
    input: "20"
    output: "1222"
    op_type: "Transpose"
    attribute {
      name: "perm"
      ints: 1
      ints: 0
    }
  }
  node {
    input: "1538"
    input: "1222"
    input: "22"
    output: "1223"
    op_type: "Gemm"
    attribute {
      name: "alpha"
      f: 1
    }
    attribute {
      name: "beta"
      f: 1
    }
    attribute {
      name: "broadcast"
      i: 1
    }
  }
  node {
    input: "21"
    output: "1224"
    op_type: "Transpose"
    attribute {
      name: "perm"
      ints: 1
      ints: 0
    }
  }
  node {
    input: "1218"
    input: "1224"
    input: "23"
    output: "1225"
    op_type: "Gemm"
    attribute {
      name: "alpha"
      f: 1
    }
    attribute {
      name: "beta"
      f: 1
    }
    attribute {
      name: "broadcast"
      i: 1
    }
  }
  node {
    input: "1223"
    output: "1227"
    output: "1228"
    output: "1229"
    op_type: "Split"
    attribute {
      name: "split"
      ints: 5
      ints: 5
      ints: 5
    }
    attribute {
      name: "axis"
      i: 1
    }
  }
  node {
    input: "1225"
    output: "1231"
    output: "1232"
    output: "1233"
    op_type: "Split"
    attribute {
      name: "split"
      ints: 5
      ints: 5
      ints: 5
    }
    attribute {
      name: "axis"
      i: 1
    }
  }
  node {
    input: "1227"
    input: "1231"
    output: "1234"
    op_type: "Add"
  }
  node {
    input: "1234"
    output: "1235"
    op_type: "Sigmoid"
  }
  node {
    input: "1228"
    input: "1232"
    output: "1236"
    op_type: "Add"
  }
  node {
    input: "1236"
    output: "1237"
    op_type: "Sigmoid"
  }
  node {
    input: "1235"
    input: "1233"
    output: "1238"
    op_type: "Mul"
  }
  node {
    input: "1229"
    input: "1238"
    output: "1239"
    op_type: "Add"
  }
  node {
    input: "1239"
    output: "1240"
    op_type: "Tanh"
  }
  node {
    input: "1218"
    input: "1240"
    output: "1241"
    op_type: "Sub"
  }
  node {
    input: "1237"
    input: "1241"
    output: "1242"
    op_type: "Mul"
  }
  node {
    input: "1240"
    input: "1242"
    output: "1243"
    op_type: "Add"
  }
  node {
    output: "1539"
    op_type: "Constant"
    attribute {
      name: "value"
      t {
        dims: 3
        data_type: INT32
        raw_data: "\007\000\000\000\000\000\000\000\000\000\000\000"
      }
    }
  }
  node {
    output: "1540"
    op_type: "Constant"
    attribute {
      name: "value"
      t {
        dims: 3
        data_type: INT32
        raw_data: "\010\000\000\000\005\000\000\000\005\000\000\000"
      }
    }
  }
  node {
    input: "1064"
    input: "1539"
    input: "1540"
    output: "1541"
    op_type: "Slice"
  }
  node {
    input: "1541"
    output: "1542"
    op_type: "Squeeze"
    attribute {
      name: "axes"
      ints: 0
    }
  }
  node {
    input: "20"
    output: "1247"
    op_type: "Transpose"
    attribute {
      name: "perm"
      ints: 1
      ints: 0
    }
  }
  node {
    input: "1542"
    input: "1247"
    input: "22"
    output: "1248"
    op_type: "Gemm"
    attribute {
      name: "alpha"
      f: 1
    }
    attribute {
      name: "beta"
      f: 1
    }
    attribute {
      name: "broadcast"
      i: 1
    }
  }
  node {
    input: "21"
    output: "1249"
    op_type: "Transpose"
    attribute {
      name: "perm"
      ints: 1
      ints: 0
    }
  }
  node {
    input: "1243"
    input: "1249"
    input: "23"
    output: "1250"
    op_type: "Gemm"
    attribute {
      name: "alpha"
      f: 1
    }
    attribute {
      name: "beta"
      f: 1
    }
    attribute {
      name: "broadcast"
      i: 1
    }
  }
  node {
    input: "1248"
    output: "1252"
    output: "1253"
    output: "1254"
    op_type: "Split"
    attribute {
      name: "split"
      ints: 5
      ints: 5
      ints: 5
    }
    attribute {
      name: "axis"
      i: 1
    }
  }
  node {
    input: "1250"
    output: "1256"
    output: "1257"
    output: "1258"
    op_type: "Split"
    attribute {
      name: "split"
      ints: 5
      ints: 5
      ints: 5
    }
    attribute {
      name: "axis"
      i: 1
    }
  }
  node {
    input: "1252"
    input: "1256"
    output: "1259"
    op_type: "Add"
  }
  node {
    input: "1259"
    output: "1260"
    op_type: "Sigmoid"
  }
  node {
    input: "1253"
    input: "1257"
    output: "1261"
    op_type: "Add"
  }
  node {
    input: "1261"
    output: "1262"
    op_type: "Sigmoid"
  }
  node {
    input: "1260"
    input: "1258"
    output: "1263"
    op_type: "Mul"
  }
  node {
    input: "1254"
    input: "1263"
    output: "1264"
    op_type: "Add"
  }
  node {
    input: "1264"
    output: "1265"
    op_type: "Tanh"
  }
  node {
    input: "1243"
    input: "1265"
    output: "1266"
    op_type: "Sub"
  }
  node {
    input: "1262"
    input: "1266"
    output: "1267"
    op_type: "Mul"
  }
  node {
    input: "1265"
    input: "1267"
    output: "1268"
    op_type: "Add"
  }
  node {
    output: "1543"
    op_type: "Constant"
    attribute {
      name: "value"
      t {
        dims: 3
        data_type: INT32
        raw_data: "\010\000\000\000\000\000\000\000\000\000\000\000"
      }
    }
  }
  node {
    output: "1544"
    op_type: "Constant"
    attribute {
      name: "value"
      t {
        dims: 3
        data_type: INT32
        raw_data: "\t\000\000\000\005\000\000\000\005\000\000\000"
      }
    }
  }
  node {
    input: "1064"
    input: "1543"
    input: "1544"
    output: "1545"
    op_type: "Slice"
  }
  node {
    input: "1545"
    output: "1546"
    op_type: "Squeeze"
    attribute {
      name: "axes"
      ints: 0
    }
  }
  node {
    input: "20"
    output: "1272"
    op_type: "Transpose"
    attribute {
      name: "perm"
      ints: 1
      ints: 0
    }
  }
  node {
    input: "1546"
    input: "1272"
    input: "22"
    output: "1273"
    op_type: "Gemm"
    attribute {
      name: "alpha"
      f: 1
    }
    attribute {
      name: "beta"
      f: 1
    }
    attribute {
      name: "broadcast"
      i: 1
    }
  }
  node {
    input: "21"
    output: "1274"
    op_type: "Transpose"
    attribute {
      name: "perm"
      ints: 1
      ints: 0
    }
  }
  node {
    input: "1268"
    input: "1274"
    input: "23"
    output: "1275"
    op_type: "Gemm"
    attribute {
      name: "alpha"
      f: 1
    }
    attribute {
      name: "beta"
      f: 1
    }
    attribute {
      name: "broadcast"
      i: 1
    }
  }
  node {
    input: "1273"
    output: "1277"
    output: "1278"
    output: "1279"
    op_type: "Split"
    attribute {
      name: "split"
      ints: 5
      ints: 5
      ints: 5
    }
    attribute {
      name: "axis"
      i: 1
    }
  }
  node {
    input: "1275"
    output: "1281"
    output: "1282"
    output: "1283"
    op_type: "Split"
    attribute {
      name: "split"
      ints: 5
      ints: 5
      ints: 5
    }
    attribute {
      name: "axis"
      i: 1
    }
  }
  node {
    input: "1277"
    input: "1281"
    output: "1284"
    op_type: "Add"
  }
  node {
    input: "1284"
    output: "1285"
    op_type: "Sigmoid"
  }
  node {
    input: "1278"
    input: "1282"
    output: "1286"
    op_type: "Add"
  }
  node {
    input: "1286"
    output: "1287"
    op_type: "Sigmoid"
  }
  node {
    input: "1285"
    input: "1283"
    output: "1288"
    op_type: "Mul"
  }
  node {
    input: "1279"
    input: "1288"
    output: "1289"
    op_type: "Add"
  }
  node {
    input: "1289"
    output: "1290"
    op_type: "Tanh"
  }
  node {
    input: "1268"
    input: "1290"
    output: "1291"
    op_type: "Sub"
  }
  node {
    input: "1287"
    input: "1291"
    output: "1292"
    op_type: "Mul"
  }
  node {
    input: "1290"
    input: "1292"
    output: "1293"
    op_type: "Add"
  }
  node {
    output: "1547"
    op_type: "Constant"
    attribute {
      name: "value"
      t {
        dims: 3
        data_type: INT32
        raw_data: "\t\000\000\000\000\000\000\000\000\000\000\000"
      }
    }
  }
  node {
    output: "1548"
    op_type: "Constant"
    attribute {
      name: "value"
      t {
        dims: 3
        data_type: INT32
        raw_data: "\n\000\000\000\005\000\000\000\005\000\000\000"
      }
    }
  }
  node {
    input: "1064"
    input: "1547"
    input: "1548"
    output: "1549"
    op_type: "Slice"
  }
  node {
    input: "1549"
    output: "1550"
    op_type: "Squeeze"
    attribute {
      name: "axes"
      ints: 0
    }
  }
  node {
    input: "20"
    output: "1297"
    op_type: "Transpose"
    attribute {
      name: "perm"
      ints: 1
      ints: 0
    }
  }
  node {
    input: "1550"
    input: "1297"
    input: "22"
    output: "1298"
    op_type: "Gemm"
    attribute {
      name: "alpha"
      f: 1
    }
    attribute {
      name: "beta"
      f: 1
    }
    attribute {
      name: "broadcast"
      i: 1
    }
  }
  node {
    input: "21"
    output: "1299"
    op_type: "Transpose"
    attribute {
      name: "perm"
      ints: 1
      ints: 0
    }
  }
  node {
    input: "1293"
    input: "1299"
    input: "23"
    output: "1300"
    op_type: "Gemm"
    attribute {
      name: "alpha"
      f: 1
    }
    attribute {
      name: "beta"
      f: 1
    }
    attribute {
      name: "broadcast"
      i: 1
    }
  }
  node {
    input: "1298"
    output: "1302"
    output: "1303"
    output: "1304"
    op_type: "Split"
    attribute {
      name: "split"
      ints: 5
      ints: 5
      ints: 5
    }
    attribute {
      name: "axis"
      i: 1
    }
  }
  node {
    input: "1300"
    output: "1306"
    output: "1307"
    output: "1308"
    op_type: "Split"
    attribute {
      name: "split"
      ints: 5
      ints: 5
      ints: 5
    }
    attribute {
      name: "axis"
      i: 1
    }
  }
  node {
    input: "1302"
    input: "1306"
    output: "1309"
    op_type: "Add"
  }
  node {
    input: "1309"
    output: "1310"
    op_type: "Sigmoid"
  }
  node {
    input: "1303"
    input: "1307"
    output: "1311"
    op_type: "Add"
  }
  node {
    input: "1311"
    output: "1312"
    op_type: "Sigmoid"
  }
  node {
    input: "1310"
    input: "1308"
    output: "1313"
    op_type: "Mul"
  }
  node {
    input: "1304"
    input: "1313"
    output: "1314"
    op_type: "Add"
  }
  node {
    input: "1314"
    output: "1315"
    op_type: "Tanh"
  }
  node {
    input: "1293"
    input: "1315"
    output: "1316"
    op_type: "Sub"
  }
  node {
    input: "1312"
    input: "1316"
    output: "1317"
    op_type: "Mul"
  }
  node {
    input: "1315"
    input: "1317"
    output: "1318"
    op_type: "Add"
  }
  node {
    input: "1093"
    input: "1118"
    input: "1143"
    input: "1168"
    input: "1193"
    input: "1218"
    input: "1243"
    input: "1268"
    input: "1293"
    input: "1318"
    output: "1319"
    op_type: "Concat"
    attribute {
      name: "axis"
      i: 0
    }
  }
  node {
    input: "1319"
    output: "1320"
    op_type: "Reshape"
    attribute {
      name: "shape"
      ints: 10
      ints: 5
      ints: 5
    }
  }
  node {
    input: "1320"
    output: "1321"
    op_type: "Concat"
    attribute {
      name: "axis"
      i: 2
    }
  }
  node {
    input: "282"
    input: "541"
    input: "800"
    input: "1059"
    input: "1318"
    output: "1322"
    op_type: "Concat"
    attribute {
      name: "axis"
      i: 0
    }
  }
  node {
    input: "1322"
    output: "1323"
    op_type: "Reshape"
    attribute {
      name: "shape"
      ints: 5
      ints: 5
      ints: 5
    }
  }
  node {
    input: "1321"
    output: "1325"
    output: "1326"
    op_type: "Dropout"
    attribute {
      name: "ratio"
      f: 0.200000002980232
    }
    attribute {
      name: "is_test"
      i: 1
    }
  }
  node {
    input: "1325"
    output: "1327"
    op_type: "Reshape"
    attribute {
      name: "shape"
      ints: 50
      ints: 5
    }
  }
  node {
    input: "24"
    output: "1328"
    op_type: "Transpose"
    attribute {
      name: "perm"
      ints: 1
      ints: 0
    }
  }
  node {
    input: "1327"
    input: "1328"
    input: "25"
    output: "1329"
    op_type: "Gemm"
    attribute {
      name: "alpha"
      f: 1
    }
    attribute {
      name: "beta"
      f: 1
    }
    attribute {
      name: "broadcast"
      i: 1
    }
  }
  node {
    input: "1329"
    output: "1330"
    op_type: "Reshape"
    attribute {
      name: "shape"
      ints: 10
      ints: 5
      ints: 10
    }
  }
  name: "torch-jit-export"
  input {
    name: "1"
    type {
      tensor_type {
        elem_type: INT64
        shape {
          dim {
            dim_value: 10
          }
          dim {
            dim_value: 5
          }
        }
      }
    }
  }
  input {
    name: "2"
    type {
      tensor_type {
        elem_type: FLOAT
        shape {
          dim {
            dim_value: 5
          }
          dim {
            dim_value: 5
          }
          dim {
            dim_value: 5
          }
        }
      }
    }
  }
  input {
    name: "3"
    type {
      tensor_type {
        elem_type: FLOAT
        shape {
          dim {
            dim_value: 10
          }
          dim {
            dim_value: 5
          }
        }
      }
    }
  }
  input {
    name: "4"
    type {
      tensor_type {
        elem_type: FLOAT
        shape {
          dim {
            dim_value: 15
          }
          dim {
            dim_value: 5
          }
        }
      }
    }
  }
  input {
    name: "5"
    type {
      tensor_type {
        elem_type: FLOAT
        shape {
          dim {
            dim_value: 15
          }
          dim {
            dim_value: 5
          }
        }
      }
    }
  }
  input {
    name: "6"
    type {
      tensor_type {
        elem_type: FLOAT
        shape {
          dim {
            dim_value: 15
          }
        }
      }
    }
  }
  input {
    name: "7"
    type {
      tensor_type {
        elem_type: FLOAT
        shape {
          dim {
            dim_value: 15
          }
        }
      }
    }
  }
  input {
    name: "8"
    type {
      tensor_type {
        elem_type: FLOAT
        shape {
          dim {
            dim_value: 15
          }
          dim {
            dim_value: 5
          }
        }
      }
    }
  }
  input {
    name: "9"
    type {
      tensor_type {
        elem_type: FLOAT
        shape {
          dim {
            dim_value: 15
          }
          dim {
            dim_value: 5
          }
        }
      }
    }
  }
  input {
    name: "10"
    type {
      tensor_type {
        elem_type: FLOAT
        shape {
          dim {
            dim_value: 15
          }
        }
      }
    }
  }
  input {
    name: "11"
    type {
      tensor_type {
        elem_type: FLOAT
        shape {
          dim {
            dim_value: 15
          }
        }
      }
    }
  }
  input {
    name: "12"
    type {
      tensor_type {
        elem_type: FLOAT
        shape {
          dim {
            dim_value: 15
          }
          dim {
            dim_value: 5
          }
        }
      }
    }
  }
  input {
    name: "13"
    type {
      tensor_type {
        elem_type: FLOAT
        shape {
          dim {
            dim_value: 15
          }
          dim {
            dim_value: 5
          }
        }
      }
    }
  }
  input {
    name: "14"
    type {
      tensor_type {
        elem_type: FLOAT
        shape {
          dim {
            dim_value: 15
          }
        }
      }
    }
  }
  input {
    name: "15"
    type {
      tensor_type {
        elem_type: FLOAT
        shape {
          dim {
            dim_value: 15
          }
        }
      }
    }
  }
  input {
    name: "16"
    type {
      tensor_type {
        elem_type: FLOAT
        shape {
          dim {
            dim_value: 15
          }
          dim {
            dim_value: 5
          }
        }
      }
    }
  }
  input {
    name: "17"
    type {
      tensor_type {
        elem_type: FLOAT
        shape {
          dim {
            dim_value: 15
          }
          dim {
            dim_value: 5
          }
        }
      }
    }
  }
  input {
    name: "18"
    type {
      tensor_type {
        elem_type: FLOAT
        shape {
          dim {
            dim_value: 15
          }
        }
      }
    }
  }
  input {
    name: "19"
    type {
      tensor_type {
        elem_type: FLOAT
        shape {
          dim {
            dim_value: 15
          }
        }
      }
    }
  }
  input {
    name: "20"
    type {
      tensor_type {
        elem_type: FLOAT
        shape {
          dim {
            dim_value: 15
          }
          dim {
            dim_value: 5
          }
        }
      }
    }
  }
  input {
    name: "21"
    type {
      tensor_type {
        elem_type: FLOAT
        shape {
          dim {
            dim_value: 15
          }
          dim {
            dim_value: 5
          }
        }
      }
    }
  }
  input {
    name: "22"
    type {
      tensor_type {
        elem_type: FLOAT
        shape {
          dim {
            dim_value: 15
          }
        }
      }
    }
  }
  input {
    name: "23"
    type {
      tensor_type {
        elem_type: FLOAT
        shape {
          dim {
            dim_value: 15
          }
        }
      }
    }
  }
  input {
    name: "24"
    type {
      tensor_type {
        elem_type: FLOAT
        shape {
          dim {
            dim_value: 10
          }
          dim {
            dim_value: 5
          }
        }
      }
    }
  }
  input {
    name: "25"
    type {
      tensor_type {
        elem_type: FLOAT
        shape {
          dim {
            dim_value: 10
          }
        }
      }
    }
  }
  output {
    name: "1330"
    type {
      tensor_type {
        elem_type: FLOAT
        shape {
          dim {
            dim_value: 10
          }
          dim {
            dim_value: 5
          }
          dim {
            dim_value: 10
          }
        }
      }
    }
  }
}
