ir_version: 1
producer_name: "pytorch"
producer_version: "0.2"
domain: "com.facebook"
graph {
  node {
    input: "1"
    input: "2"
    output: "609"
    op_type: "Conv"
    attribute {
      name: "kernel_shape"
      ints: 7
      ints: 7
    }
    attribute {
      name: "strides"
      ints: 2
      ints: 2
    }
    attribute {
      name: "pads"
      ints: 3
      ints: 3
      ints: 3
      ints: 3
    }
    attribute {
      name: "dilations"
      ints: 1
      ints: 1
    }
    attribute {
      name: "group"
      i: 1
    }
  }
  node {
    input: "609"
    input: "3"
    input: "4"
    input: "5"
    input: "6"
    output: "611"
    op_type: "SpatialBN"
    attribute {
      name: "is_test"
      i: 1
    }
    attribute {
      name: "epsilon"
      f: 9.99999974737875e-06
    }
    attribute {
      name: "momentum"
      f: 0.899999976158142
    }
    attribute {
      name: "consumed_inputs"
      ints: 0
      ints: 0
      ints: 0
      ints: 1
      ints: 1
    }
  }
  node {
    input: "611"
    output: "612"
    op_type: "Relu"
  }
  node {
    input: "612"
    output: "613"
    op_type: "MaxPool"
    attribute {
      name: "dilations"
      ints: 1
      ints: 1
    }
    attribute {
      name: "kernel_shape"
      ints: 3
      ints: 3
    }
    attribute {
      name: "pads"
      ints: 1
      ints: 1
    }
    attribute {
      name: "strides"
      ints: 2
      ints: 2
    }
  }
  node {
    input: "613"
    input: "7"
    input: "8"
    input: "9"
    input: "10"
    output: "615"
    op_type: "SpatialBN"
    attribute {
      name: "is_test"
      i: 1
    }
    attribute {
      name: "epsilon"
      f: 9.99999974737875e-06
    }
    attribute {
      name: "momentum"
      f: 0.899999976158142
    }
    attribute {
      name: "consumed_inputs"
      ints: 0
      ints: 0
      ints: 0
      ints: 1
      ints: 1
    }
  }
  node {
    input: "615"
    output: "616"
    op_type: "Relu"
  }
  node {
    input: "616"
    input: "11"
    output: "618"
    op_type: "Conv"
    attribute {
      name: "kernel_shape"
      ints: 1
      ints: 1
    }
    attribute {
      name: "strides"
      ints: 1
      ints: 1
    }
    attribute {
      name: "pads"
      ints: 0
      ints: 0
      ints: 0
      ints: 0
    }
    attribute {
      name: "dilations"
      ints: 1
      ints: 1
    }
    attribute {
      name: "group"
      i: 1
    }
  }
  node {
    input: "618"
    input: "12"
    input: "13"
    input: "14"
    input: "15"
    output: "620"
    op_type: "SpatialBN"
    attribute {
      name: "is_test"
      i: 1
    }
    attribute {
      name: "epsilon"
      f: 9.99999974737875e-06
    }
    attribute {
      name: "momentum"
      f: 0.899999976158142
    }
    attribute {
      name: "consumed_inputs"
      ints: 0
      ints: 0
      ints: 0
      ints: 1
      ints: 1
    }
  }
  node {
    input: "620"
    output: "621"
    op_type: "Relu"
  }
  node {
    input: "621"
    input: "16"
    output: "623"
    op_type: "Conv"
    attribute {
      name: "kernel_shape"
      ints: 3
      ints: 3
    }
    attribute {
      name: "strides"
      ints: 1
      ints: 1
    }
    attribute {
      name: "pads"
      ints: 1
      ints: 1
      ints: 1
      ints: 1
    }
    attribute {
      name: "dilations"
      ints: 1
      ints: 1
    }
    attribute {
      name: "group"
      i: 1
    }
  }
  node {
    input: "613"
    input: "623"
    output: "625"
    op_type: "cat"
    attribute {
      name: "dim"
      i: 1
    }
  }
  node {
    input: "625"
    input: "17"
    input: "18"
    input: "19"
    input: "20"
    output: "627"
    op_type: "SpatialBN"
    attribute {
      name: "is_test"
      i: 1
    }
    attribute {
      name: "epsilon"
      f: 9.99999974737875e-06
    }
    attribute {
      name: "momentum"
      f: 0.899999976158142
    }
    attribute {
      name: "consumed_inputs"
      ints: 0
      ints: 0
      ints: 0
      ints: 1
      ints: 1
    }
  }
  node {
    input: "627"
    output: "628"
    op_type: "Relu"
  }
  node {
    input: "628"
    input: "21"
    output: "630"
    op_type: "Conv"
    attribute {
      name: "kernel_shape"
      ints: 1
      ints: 1
    }
    attribute {
      name: "strides"
      ints: 1
      ints: 1
    }
    attribute {
      name: "pads"
      ints: 0
      ints: 0
      ints: 0
      ints: 0
    }
    attribute {
      name: "dilations"
      ints: 1
      ints: 1
    }
    attribute {
      name: "group"
      i: 1
    }
  }
  node {
    input: "630"
    input: "22"
    input: "23"
    input: "24"
    input: "25"
    output: "632"
    op_type: "SpatialBN"
    attribute {
      name: "is_test"
      i: 1
    }
    attribute {
      name: "epsilon"
      f: 9.99999974737875e-06
    }
    attribute {
      name: "momentum"
      f: 0.899999976158142
    }
    attribute {
      name: "consumed_inputs"
      ints: 0
      ints: 0
      ints: 0
      ints: 1
      ints: 1
    }
  }
  node {
    input: "632"
    output: "633"
    op_type: "Relu"
  }
  node {
    input: "633"
    input: "26"
    output: "635"
    op_type: "Conv"
    attribute {
      name: "kernel_shape"
      ints: 3
      ints: 3
    }
    attribute {
      name: "strides"
      ints: 1
      ints: 1
    }
    attribute {
      name: "pads"
      ints: 1
      ints: 1
      ints: 1
      ints: 1
    }
    attribute {
      name: "dilations"
      ints: 1
      ints: 1
    }
    attribute {
      name: "group"
      i: 1
    }
  }
  node {
    input: "625"
    input: "635"
    output: "637"
    op_type: "cat"
    attribute {
      name: "dim"
      i: 1
    }
  }
  node {
    input: "637"
    input: "27"
    input: "28"
    input: "29"
    input: "30"
    output: "639"
    op_type: "SpatialBN"
    attribute {
      name: "is_test"
      i: 1
    }
    attribute {
      name: "epsilon"
      f: 9.99999974737875e-06
    }
    attribute {
      name: "momentum"
      f: 0.899999976158142
    }
    attribute {
      name: "consumed_inputs"
      ints: 0
      ints: 0
      ints: 0
      ints: 1
      ints: 1
    }
  }
  node {
    input: "639"
    output: "640"
    op_type: "Relu"
  }
  node {
    input: "640"
    input: "31"
    output: "642"
    op_type: "Conv"
    attribute {
      name: "kernel_shape"
      ints: 1
      ints: 1
    }
    attribute {
      name: "strides"
      ints: 1
      ints: 1
    }
    attribute {
      name: "pads"
      ints: 0
      ints: 0
      ints: 0
      ints: 0
    }
    attribute {
      name: "dilations"
      ints: 1
      ints: 1
    }
    attribute {
      name: "group"
      i: 1
    }
  }
  node {
    input: "642"
    input: "32"
    input: "33"
    input: "34"
    input: "35"
    output: "644"
    op_type: "SpatialBN"
    attribute {
      name: "is_test"
      i: 1
    }
    attribute {
      name: "epsilon"
      f: 9.99999974737875e-06
    }
    attribute {
      name: "momentum"
      f: 0.899999976158142
    }
    attribute {
      name: "consumed_inputs"
      ints: 0
      ints: 0
      ints: 0
      ints: 1
      ints: 1
    }
  }
  node {
    input: "644"
    output: "645"
    op_type: "Relu"
  }
  node {
    input: "645"
    input: "36"
    output: "647"
    op_type: "Conv"
    attribute {
      name: "kernel_shape"
      ints: 3
      ints: 3
    }
    attribute {
      name: "strides"
      ints: 1
      ints: 1
    }
    attribute {
      name: "pads"
      ints: 1
      ints: 1
      ints: 1
      ints: 1
    }
    attribute {
      name: "dilations"
      ints: 1
      ints: 1
    }
    attribute {
      name: "group"
      i: 1
    }
  }
  node {
    input: "637"
    input: "647"
    output: "649"
    op_type: "cat"
    attribute {
      name: "dim"
      i: 1
    }
  }
  node {
    input: "649"
    input: "37"
    input: "38"
    input: "39"
    input: "40"
    output: "651"
    op_type: "SpatialBN"
    attribute {
      name: "is_test"
      i: 1
    }
    attribute {
      name: "epsilon"
      f: 9.99999974737875e-06
    }
    attribute {
      name: "momentum"
      f: 0.899999976158142
    }
    attribute {
      name: "consumed_inputs"
      ints: 0
      ints: 0
      ints: 0
      ints: 1
      ints: 1
    }
  }
  node {
    input: "651"
    output: "652"
    op_type: "Relu"
  }
  node {
    input: "652"
    input: "41"
    output: "654"
    op_type: "Conv"
    attribute {
      name: "kernel_shape"
      ints: 1
      ints: 1
    }
    attribute {
      name: "strides"
      ints: 1
      ints: 1
    }
    attribute {
      name: "pads"
      ints: 0
      ints: 0
      ints: 0
      ints: 0
    }
    attribute {
      name: "dilations"
      ints: 1
      ints: 1
    }
    attribute {
      name: "group"
      i: 1
    }
  }
  node {
    input: "654"
    input: "42"
    input: "43"
    input: "44"
    input: "45"
    output: "656"
    op_type: "SpatialBN"
    attribute {
      name: "is_test"
      i: 1
    }
    attribute {
      name: "epsilon"
      f: 9.99999974737875e-06
    }
    attribute {
      name: "momentum"
      f: 0.899999976158142
    }
    attribute {
      name: "consumed_inputs"
      ints: 0
      ints: 0
      ints: 0
      ints: 1
      ints: 1
    }
  }
  node {
    input: "656"
    output: "657"
    op_type: "Relu"
  }
  node {
    input: "657"
    input: "46"
    output: "659"
    op_type: "Conv"
    attribute {
      name: "kernel_shape"
      ints: 3
      ints: 3
    }
    attribute {
      name: "strides"
      ints: 1
      ints: 1
    }
    attribute {
      name: "pads"
      ints: 1
      ints: 1
      ints: 1
      ints: 1
    }
    attribute {
      name: "dilations"
      ints: 1
      ints: 1
    }
    attribute {
      name: "group"
      i: 1
    }
  }
  node {
    input: "649"
    input: "659"
    output: "661"
    op_type: "cat"
    attribute {
      name: "dim"
      i: 1
    }
  }
  node {
    input: "661"
    input: "47"
    input: "48"
    input: "49"
    input: "50"
    output: "663"
    op_type: "SpatialBN"
    attribute {
      name: "is_test"
      i: 1
    }
    attribute {
      name: "epsilon"
      f: 9.99999974737875e-06
    }
    attribute {
      name: "momentum"
      f: 0.899999976158142
    }
    attribute {
      name: "consumed_inputs"
      ints: 0
      ints: 0
      ints: 0
      ints: 1
      ints: 1
    }
  }
  node {
    input: "663"
    output: "664"
    op_type: "Relu"
  }
  node {
    input: "664"
    input: "51"
    output: "666"
    op_type: "Conv"
    attribute {
      name: "kernel_shape"
      ints: 1
      ints: 1
    }
    attribute {
      name: "strides"
      ints: 1
      ints: 1
    }
    attribute {
      name: "pads"
      ints: 0
      ints: 0
      ints: 0
      ints: 0
    }
    attribute {
      name: "dilations"
      ints: 1
      ints: 1
    }
    attribute {
      name: "group"
      i: 1
    }
  }
  node {
    input: "666"
    input: "52"
    input: "53"
    input: "54"
    input: "55"
    output: "668"
    op_type: "SpatialBN"
    attribute {
      name: "is_test"
      i: 1
    }
    attribute {
      name: "epsilon"
      f: 9.99999974737875e-06
    }
    attribute {
      name: "momentum"
      f: 0.899999976158142
    }
    attribute {
      name: "consumed_inputs"
      ints: 0
      ints: 0
      ints: 0
      ints: 1
      ints: 1
    }
  }
  node {
    input: "668"
    output: "669"
    op_type: "Relu"
  }
  node {
    input: "669"
    input: "56"
    output: "671"
    op_type: "Conv"
    attribute {
      name: "kernel_shape"
      ints: 3
      ints: 3
    }
    attribute {
      name: "strides"
      ints: 1
      ints: 1
    }
    attribute {
      name: "pads"
      ints: 1
      ints: 1
      ints: 1
      ints: 1
    }
    attribute {
      name: "dilations"
      ints: 1
      ints: 1
    }
    attribute {
      name: "group"
      i: 1
    }
  }
  node {
    input: "661"
    input: "671"
    output: "673"
    op_type: "cat"
    attribute {
      name: "dim"
      i: 1
    }
  }
  node {
    input: "673"
    input: "57"
    input: "58"
    input: "59"
    input: "60"
    output: "675"
    op_type: "SpatialBN"
    attribute {
      name: "is_test"
      i: 1
    }
    attribute {
      name: "epsilon"
      f: 9.99999974737875e-06
    }
    attribute {
      name: "momentum"
      f: 0.899999976158142
    }
    attribute {
      name: "consumed_inputs"
      ints: 0
      ints: 0
      ints: 0
      ints: 1
      ints: 1
    }
  }
  node {
    input: "675"
    output: "676"
    op_type: "Relu"
  }
  node {
    input: "676"
    input: "61"
    output: "678"
    op_type: "Conv"
    attribute {
      name: "kernel_shape"
      ints: 1
      ints: 1
    }
    attribute {
      name: "strides"
      ints: 1
      ints: 1
    }
    attribute {
      name: "pads"
      ints: 0
      ints: 0
      ints: 0
      ints: 0
    }
    attribute {
      name: "dilations"
      ints: 1
      ints: 1
    }
    attribute {
      name: "group"
      i: 1
    }
  }
  node {
    input: "678"
    input: "62"
    input: "63"
    input: "64"
    input: "65"
    output: "680"
    op_type: "SpatialBN"
    attribute {
      name: "is_test"
      i: 1
    }
    attribute {
      name: "epsilon"
      f: 9.99999974737875e-06
    }
    attribute {
      name: "momentum"
      f: 0.899999976158142
    }
    attribute {
      name: "consumed_inputs"
      ints: 0
      ints: 0
      ints: 0
      ints: 1
      ints: 1
    }
  }
  node {
    input: "680"
    output: "681"
    op_type: "Relu"
  }
  node {
    input: "681"
    input: "66"
    output: "683"
    op_type: "Conv"
    attribute {
      name: "kernel_shape"
      ints: 3
      ints: 3
    }
    attribute {
      name: "strides"
      ints: 1
      ints: 1
    }
    attribute {
      name: "pads"
      ints: 1
      ints: 1
      ints: 1
      ints: 1
    }
    attribute {
      name: "dilations"
      ints: 1
      ints: 1
    }
    attribute {
      name: "group"
      i: 1
    }
  }
  node {
    input: "673"
    input: "683"
    output: "685"
    op_type: "cat"
    attribute {
      name: "dim"
      i: 1
    }
  }
  node {
    input: "685"
    input: "67"
    input: "68"
    input: "69"
    input: "70"
    output: "687"
    op_type: "SpatialBN"
    attribute {
      name: "is_test"
      i: 1
    }
    attribute {
      name: "epsilon"
      f: 9.99999974737875e-06
    }
    attribute {
      name: "momentum"
      f: 0.899999976158142
    }
    attribute {
      name: "consumed_inputs"
      ints: 0
      ints: 0
      ints: 0
      ints: 1
      ints: 1
    }
  }
  node {
    input: "687"
    output: "688"
    op_type: "Relu"
  }
  node {
    input: "688"
    input: "71"
    output: "690"
    op_type: "Conv"
    attribute {
      name: "kernel_shape"
      ints: 1
      ints: 1
    }
    attribute {
      name: "strides"
      ints: 1
      ints: 1
    }
    attribute {
      name: "pads"
      ints: 0
      ints: 0
      ints: 0
      ints: 0
    }
    attribute {
      name: "dilations"
      ints: 1
      ints: 1
    }
    attribute {
      name: "group"
      i: 1
    }
  }
  node {
    input: "690"
    output: "691"
    op_type: "AveragePool"
    attribute {
      name: "kernel_shape"
      ints: 2
      ints: 2
    }
    attribute {
      name: "pads"
      ints: 0
      ints: 0
    }
    attribute {
      name: "strides"
      ints: 2
      ints: 2
    }
  }
  node {
    input: "691"
    input: "72"
    input: "73"
    input: "74"
    input: "75"
    output: "693"
    op_type: "SpatialBN"
    attribute {
      name: "is_test"
      i: 1
    }
    attribute {
      name: "epsilon"
      f: 9.99999974737875e-06
    }
    attribute {
      name: "momentum"
      f: 0.899999976158142
    }
    attribute {
      name: "consumed_inputs"
      ints: 0
      ints: 0
      ints: 0
      ints: 1
      ints: 1
    }
  }
  node {
    input: "693"
    output: "694"
    op_type: "Relu"
  }
  node {
    input: "694"
    input: "76"
    output: "696"
    op_type: "Conv"
    attribute {
      name: "kernel_shape"
      ints: 1
      ints: 1
    }
    attribute {
      name: "strides"
      ints: 1
      ints: 1
    }
    attribute {
      name: "pads"
      ints: 0
      ints: 0
      ints: 0
      ints: 0
    }
    attribute {
      name: "dilations"
      ints: 1
      ints: 1
    }
    attribute {
      name: "group"
      i: 1
    }
  }
  node {
    input: "696"
    input: "77"
    input: "78"
    input: "79"
    input: "80"
    output: "698"
    op_type: "SpatialBN"
    attribute {
      name: "is_test"
      i: 1
    }
    attribute {
      name: "epsilon"
      f: 9.99999974737875e-06
    }
    attribute {
      name: "momentum"
      f: 0.899999976158142
    }
    attribute {
      name: "consumed_inputs"
      ints: 0
      ints: 0
      ints: 0
      ints: 1
      ints: 1
    }
  }
  node {
    input: "698"
    output: "699"
    op_type: "Relu"
  }
  node {
    input: "699"
    input: "81"
    output: "701"
    op_type: "Conv"
    attribute {
      name: "kernel_shape"
      ints: 3
      ints: 3
    }
    attribute {
      name: "strides"
      ints: 1
      ints: 1
    }
    attribute {
      name: "pads"
      ints: 1
      ints: 1
      ints: 1
      ints: 1
    }
    attribute {
      name: "dilations"
      ints: 1
      ints: 1
    }
    attribute {
      name: "group"
      i: 1
    }
  }
  node {
    input: "691"
    input: "701"
    output: "703"
    op_type: "cat"
    attribute {
      name: "dim"
      i: 1
    }
  }
  node {
    input: "703"
    input: "82"
    input: "83"
    input: "84"
    input: "85"
    output: "705"
    op_type: "SpatialBN"
    attribute {
      name: "is_test"
      i: 1
    }
    attribute {
      name: "epsilon"
      f: 9.99999974737875e-06
    }
    attribute {
      name: "momentum"
      f: 0.899999976158142
    }
    attribute {
      name: "consumed_inputs"
      ints: 0
      ints: 0
      ints: 0
      ints: 1
      ints: 1
    }
  }
  node {
    input: "705"
    output: "706"
    op_type: "Relu"
  }
  node {
    input: "706"
    input: "86"
    output: "708"
    op_type: "Conv"
    attribute {
      name: "kernel_shape"
      ints: 1
      ints: 1
    }
    attribute {
      name: "strides"
      ints: 1
      ints: 1
    }
    attribute {
      name: "pads"
      ints: 0
      ints: 0
      ints: 0
      ints: 0
    }
    attribute {
      name: "dilations"
      ints: 1
      ints: 1
    }
    attribute {
      name: "group"
      i: 1
    }
  }
  node {
    input: "708"
    input: "87"
    input: "88"
    input: "89"
    input: "90"
    output: "710"
    op_type: "SpatialBN"
    attribute {
      name: "is_test"
      i: 1
    }
    attribute {
      name: "epsilon"
      f: 9.99999974737875e-06
    }
    attribute {
      name: "momentum"
      f: 0.899999976158142
    }
    attribute {
      name: "consumed_inputs"
      ints: 0
      ints: 0
      ints: 0
      ints: 1
      ints: 1
    }
  }
  node {
    input: "710"
    output: "711"
    op_type: "Relu"
  }
  node {
    input: "711"
    input: "91"
    output: "713"
    op_type: "Conv"
    attribute {
      name: "kernel_shape"
      ints: 3
      ints: 3
    }
    attribute {
      name: "strides"
      ints: 1
      ints: 1
    }
    attribute {
      name: "pads"
      ints: 1
      ints: 1
      ints: 1
      ints: 1
    }
    attribute {
      name: "dilations"
      ints: 1
      ints: 1
    }
    attribute {
      name: "group"
      i: 1
    }
  }
  node {
    input: "703"
    input: "713"
    output: "715"
    op_type: "cat"
    attribute {
      name: "dim"
      i: 1
    }
  }
  node {
    input: "715"
    input: "92"
    input: "93"
    input: "94"
    input: "95"
    output: "717"
    op_type: "SpatialBN"
    attribute {
      name: "is_test"
      i: 1
    }
    attribute {
      name: "epsilon"
      f: 9.99999974737875e-06
    }
    attribute {
      name: "momentum"
      f: 0.899999976158142
    }
    attribute {
      name: "consumed_inputs"
      ints: 0
      ints: 0
      ints: 0
      ints: 1
      ints: 1
    }
  }
  node {
    input: "717"
    output: "718"
    op_type: "Relu"
  }
  node {
    input: "718"
    input: "96"
    output: "720"
    op_type: "Conv"
    attribute {
      name: "kernel_shape"
      ints: 1
      ints: 1
    }
    attribute {
      name: "strides"
      ints: 1
      ints: 1
    }
    attribute {
      name: "pads"
      ints: 0
      ints: 0
      ints: 0
      ints: 0
    }
    attribute {
      name: "dilations"
      ints: 1
      ints: 1
    }
    attribute {
      name: "group"
      i: 1
    }
  }
  node {
    input: "720"
    input: "97"
    input: "98"
    input: "99"
    input: "100"
    output: "722"
    op_type: "SpatialBN"
    attribute {
      name: "is_test"
      i: 1
    }
    attribute {
      name: "epsilon"
      f: 9.99999974737875e-06
    }
    attribute {
      name: "momentum"
      f: 0.899999976158142
    }
    attribute {
      name: "consumed_inputs"
      ints: 0
      ints: 0
      ints: 0
      ints: 1
      ints: 1
    }
  }
  node {
    input: "722"
    output: "723"
    op_type: "Relu"
  }
  node {
    input: "723"
    input: "101"
    output: "725"
    op_type: "Conv"
    attribute {
      name: "kernel_shape"
      ints: 3
      ints: 3
    }
    attribute {
      name: "strides"
      ints: 1
      ints: 1
    }
    attribute {
      name: "pads"
      ints: 1
      ints: 1
      ints: 1
      ints: 1
    }
    attribute {
      name: "dilations"
      ints: 1
      ints: 1
    }
    attribute {
      name: "group"
      i: 1
    }
  }
  node {
    input: "715"
    input: "725"
    output: "727"
    op_type: "cat"
    attribute {
      name: "dim"
      i: 1
    }
  }
  node {
    input: "727"
    input: "102"
    input: "103"
    input: "104"
    input: "105"
    output: "729"
    op_type: "SpatialBN"
    attribute {
      name: "is_test"
      i: 1
    }
    attribute {
      name: "epsilon"
      f: 9.99999974737875e-06
    }
    attribute {
      name: "momentum"
      f: 0.899999976158142
    }
    attribute {
      name: "consumed_inputs"
      ints: 0
      ints: 0
      ints: 0
      ints: 1
      ints: 1
    }
  }
  node {
    input: "729"
    output: "730"
    op_type: "Relu"
  }
  node {
    input: "730"
    input: "106"
    output: "732"
    op_type: "Conv"
    attribute {
      name: "kernel_shape"
      ints: 1
      ints: 1
    }
    attribute {
      name: "strides"
      ints: 1
      ints: 1
    }
    attribute {
      name: "pads"
      ints: 0
      ints: 0
      ints: 0
      ints: 0
    }
    attribute {
      name: "dilations"
      ints: 1
      ints: 1
    }
    attribute {
      name: "group"
      i: 1
    }
  }
  node {
    input: "732"
    input: "107"
    input: "108"
    input: "109"
    input: "110"
    output: "734"
    op_type: "SpatialBN"
    attribute {
      name: "is_test"
      i: 1
    }
    attribute {
      name: "epsilon"
      f: 9.99999974737875e-06
    }
    attribute {
      name: "momentum"
      f: 0.899999976158142
    }
    attribute {
      name: "consumed_inputs"
      ints: 0
      ints: 0
      ints: 0
      ints: 1
      ints: 1
    }
  }
  node {
    input: "734"
    output: "735"
    op_type: "Relu"
  }
  node {
    input: "735"
    input: "111"
    output: "737"
    op_type: "Conv"
    attribute {
      name: "kernel_shape"
      ints: 3
      ints: 3
    }
    attribute {
      name: "strides"
      ints: 1
      ints: 1
    }
    attribute {
      name: "pads"
      ints: 1
      ints: 1
      ints: 1
      ints: 1
    }
    attribute {
      name: "dilations"
      ints: 1
      ints: 1
    }
    attribute {
      name: "group"
      i: 1
    }
  }
  node {
    input: "727"
    input: "737"
    output: "739"
    op_type: "cat"
    attribute {
      name: "dim"
      i: 1
    }
  }
  node {
    input: "739"
    input: "112"
    input: "113"
    input: "114"
    input: "115"
    output: "741"
    op_type: "SpatialBN"
    attribute {
      name: "is_test"
      i: 1
    }
    attribute {
      name: "epsilon"
      f: 9.99999974737875e-06
    }
    attribute {
      name: "momentum"
      f: 0.899999976158142
    }
    attribute {
      name: "consumed_inputs"
      ints: 0
      ints: 0
      ints: 0
      ints: 1
      ints: 1
    }
  }
  node {
    input: "741"
    output: "742"
    op_type: "Relu"
  }
  node {
    input: "742"
    input: "116"
    output: "744"
    op_type: "Conv"
    attribute {
      name: "kernel_shape"
      ints: 1
      ints: 1
    }
    attribute {
      name: "strides"
      ints: 1
      ints: 1
    }
    attribute {
      name: "pads"
      ints: 0
      ints: 0
      ints: 0
      ints: 0
    }
    attribute {
      name: "dilations"
      ints: 1
      ints: 1
    }
    attribute {
      name: "group"
      i: 1
    }
  }
  node {
    input: "744"
    input: "117"
    input: "118"
    input: "119"
    input: "120"
    output: "746"
    op_type: "SpatialBN"
    attribute {
      name: "is_test"
      i: 1
    }
    attribute {
      name: "epsilon"
      f: 9.99999974737875e-06
    }
    attribute {
      name: "momentum"
      f: 0.899999976158142
    }
    attribute {
      name: "consumed_inputs"
      ints: 0
      ints: 0
      ints: 0
      ints: 1
      ints: 1
    }
  }
  node {
    input: "746"
    output: "747"
    op_type: "Relu"
  }
  node {
    input: "747"
    input: "121"
    output: "749"
    op_type: "Conv"
    attribute {
      name: "kernel_shape"
      ints: 3
      ints: 3
    }
    attribute {
      name: "strides"
      ints: 1
      ints: 1
    }
    attribute {
      name: "pads"
      ints: 1
      ints: 1
      ints: 1
      ints: 1
    }
    attribute {
      name: "dilations"
      ints: 1
      ints: 1
    }
    attribute {
      name: "group"
      i: 1
    }
  }
  node {
    input: "739"
    input: "749"
    output: "751"
    op_type: "cat"
    attribute {
      name: "dim"
      i: 1
    }
  }
  node {
    input: "751"
    input: "122"
    input: "123"
    input: "124"
    input: "125"
    output: "753"
    op_type: "SpatialBN"
    attribute {
      name: "is_test"
      i: 1
    }
    attribute {
      name: "epsilon"
      f: 9.99999974737875e-06
    }
    attribute {
      name: "momentum"
      f: 0.899999976158142
    }
    attribute {
      name: "consumed_inputs"
      ints: 0
      ints: 0
      ints: 0
      ints: 1
      ints: 1
    }
  }
  node {
    input: "753"
    output: "754"
    op_type: "Relu"
  }
  node {
    input: "754"
    input: "126"
    output: "756"
    op_type: "Conv"
    attribute {
      name: "kernel_shape"
      ints: 1
      ints: 1
    }
    attribute {
      name: "strides"
      ints: 1
      ints: 1
    }
    attribute {
      name: "pads"
      ints: 0
      ints: 0
      ints: 0
      ints: 0
    }
    attribute {
      name: "dilations"
      ints: 1
      ints: 1
    }
    attribute {
      name: "group"
      i: 1
    }
  }
  node {
    input: "756"
    input: "127"
    input: "128"
    input: "129"
    input: "130"
    output: "758"
    op_type: "SpatialBN"
    attribute {
      name: "is_test"
      i: 1
    }
    attribute {
      name: "epsilon"
      f: 9.99999974737875e-06
    }
    attribute {
      name: "momentum"
      f: 0.899999976158142
    }
    attribute {
      name: "consumed_inputs"
      ints: 0
      ints: 0
      ints: 0
      ints: 1
      ints: 1
    }
  }
  node {
    input: "758"
    output: "759"
    op_type: "Relu"
  }
  node {
    input: "759"
    input: "131"
    output: "761"
    op_type: "Conv"
    attribute {
      name: "kernel_shape"
      ints: 3
      ints: 3
    }
    attribute {
      name: "strides"
      ints: 1
      ints: 1
    }
    attribute {
      name: "pads"
      ints: 1
      ints: 1
      ints: 1
      ints: 1
    }
    attribute {
      name: "dilations"
      ints: 1
      ints: 1
    }
    attribute {
      name: "group"
      i: 1
    }
  }
  node {
    input: "751"
    input: "761"
    output: "763"
    op_type: "cat"
    attribute {
      name: "dim"
      i: 1
    }
  }
  node {
    input: "763"
    input: "132"
    input: "133"
    input: "134"
    input: "135"
    output: "765"
    op_type: "SpatialBN"
    attribute {
      name: "is_test"
      i: 1
    }
    attribute {
      name: "epsilon"
      f: 9.99999974737875e-06
    }
    attribute {
      name: "momentum"
      f: 0.899999976158142
    }
    attribute {
      name: "consumed_inputs"
      ints: 0
      ints: 0
      ints: 0
      ints: 1
      ints: 1
    }
  }
  node {
    input: "765"
    output: "766"
    op_type: "Relu"
  }
  node {
    input: "766"
    input: "136"
    output: "768"
    op_type: "Conv"
    attribute {
      name: "kernel_shape"
      ints: 1
      ints: 1
    }
    attribute {
      name: "strides"
      ints: 1
      ints: 1
    }
    attribute {
      name: "pads"
      ints: 0
      ints: 0
      ints: 0
      ints: 0
    }
    attribute {
      name: "dilations"
      ints: 1
      ints: 1
    }
    attribute {
      name: "group"
      i: 1
    }
  }
  node {
    input: "768"
    input: "137"
    input: "138"
    input: "139"
    input: "140"
    output: "770"
    op_type: "SpatialBN"
    attribute {
      name: "is_test"
      i: 1
    }
    attribute {
      name: "epsilon"
      f: 9.99999974737875e-06
    }
    attribute {
      name: "momentum"
      f: 0.899999976158142
    }
    attribute {
      name: "consumed_inputs"
      ints: 0
      ints: 0
      ints: 0
      ints: 1
      ints: 1
    }
  }
  node {
    input: "770"
    output: "771"
    op_type: "Relu"
  }
  node {
    input: "771"
    input: "141"
    output: "773"
    op_type: "Conv"
    attribute {
      name: "kernel_shape"
      ints: 3
      ints: 3
    }
    attribute {
      name: "strides"
      ints: 1
      ints: 1
    }
    attribute {
      name: "pads"
      ints: 1
      ints: 1
      ints: 1
      ints: 1
    }
    attribute {
      name: "dilations"
      ints: 1
      ints: 1
    }
    attribute {
      name: "group"
      i: 1
    }
  }
  node {
    input: "763"
    input: "773"
    output: "775"
    op_type: "cat"
    attribute {
      name: "dim"
      i: 1
    }
  }
  node {
    input: "775"
    input: "142"
    input: "143"
    input: "144"
    input: "145"
    output: "777"
    op_type: "SpatialBN"
    attribute {
      name: "is_test"
      i: 1
    }
    attribute {
      name: "epsilon"
      f: 9.99999974737875e-06
    }
    attribute {
      name: "momentum"
      f: 0.899999976158142
    }
    attribute {
      name: "consumed_inputs"
      ints: 0
      ints: 0
      ints: 0
      ints: 1
      ints: 1
    }
  }
  node {
    input: "777"
    output: "778"
    op_type: "Relu"
  }
  node {
    input: "778"
    input: "146"
    output: "780"
    op_type: "Conv"
    attribute {
      name: "kernel_shape"
      ints: 1
      ints: 1
    }
    attribute {
      name: "strides"
      ints: 1
      ints: 1
    }
    attribute {
      name: "pads"
      ints: 0
      ints: 0
      ints: 0
      ints: 0
    }
    attribute {
      name: "dilations"
      ints: 1
      ints: 1
    }
    attribute {
      name: "group"
      i: 1
    }
  }
  node {
    input: "780"
    input: "147"
    input: "148"
    input: "149"
    input: "150"
    output: "782"
    op_type: "SpatialBN"
    attribute {
      name: "is_test"
      i: 1
    }
    attribute {
      name: "epsilon"
      f: 9.99999974737875e-06
    }
    attribute {
      name: "momentum"
      f: 0.899999976158142
    }
    attribute {
      name: "consumed_inputs"
      ints: 0
      ints: 0
      ints: 0
      ints: 1
      ints: 1
    }
  }
  node {
    input: "782"
    output: "783"
    op_type: "Relu"
  }
  node {
    input: "783"
    input: "151"
    output: "785"
    op_type: "Conv"
    attribute {
      name: "kernel_shape"
      ints: 3
      ints: 3
    }
    attribute {
      name: "strides"
      ints: 1
      ints: 1
    }
    attribute {
      name: "pads"
      ints: 1
      ints: 1
      ints: 1
      ints: 1
    }
    attribute {
      name: "dilations"
      ints: 1
      ints: 1
    }
    attribute {
      name: "group"
      i: 1
    }
  }
  node {
    input: "775"
    input: "785"
    output: "787"
    op_type: "cat"
    attribute {
      name: "dim"
      i: 1
    }
  }
  node {
    input: "787"
    input: "152"
    input: "153"
    input: "154"
    input: "155"
    output: "789"
    op_type: "SpatialBN"
    attribute {
      name: "is_test"
      i: 1
    }
    attribute {
      name: "epsilon"
      f: 9.99999974737875e-06
    }
    attribute {
      name: "momentum"
      f: 0.899999976158142
    }
    attribute {
      name: "consumed_inputs"
      ints: 0
      ints: 0
      ints: 0
      ints: 1
      ints: 1
    }
  }
  node {
    input: "789"
    output: "790"
    op_type: "Relu"
  }
  node {
    input: "790"
    input: "156"
    output: "792"
    op_type: "Conv"
    attribute {
      name: "kernel_shape"
      ints: 1
      ints: 1
    }
    attribute {
      name: "strides"
      ints: 1
      ints: 1
    }
    attribute {
      name: "pads"
      ints: 0
      ints: 0
      ints: 0
      ints: 0
    }
    attribute {
      name: "dilations"
      ints: 1
      ints: 1
    }
    attribute {
      name: "group"
      i: 1
    }
  }
  node {
    input: "792"
    input: "157"
    input: "158"
    input: "159"
    input: "160"
    output: "794"
    op_type: "SpatialBN"
    attribute {
      name: "is_test"
      i: 1
    }
    attribute {
      name: "epsilon"
      f: 9.99999974737875e-06
    }
    attribute {
      name: "momentum"
      f: 0.899999976158142
    }
    attribute {
      name: "consumed_inputs"
      ints: 0
      ints: 0
      ints: 0
      ints: 1
      ints: 1
    }
  }
  node {
    input: "794"
    output: "795"
    op_type: "Relu"
  }
  node {
    input: "795"
    input: "161"
    output: "797"
    op_type: "Conv"
    attribute {
      name: "kernel_shape"
      ints: 3
      ints: 3
    }
    attribute {
      name: "strides"
      ints: 1
      ints: 1
    }
    attribute {
      name: "pads"
      ints: 1
      ints: 1
      ints: 1
      ints: 1
    }
    attribute {
      name: "dilations"
      ints: 1
      ints: 1
    }
    attribute {
      name: "group"
      i: 1
    }
  }
  node {
    input: "787"
    input: "797"
    output: "799"
    op_type: "cat"
    attribute {
      name: "dim"
      i: 1
    }
  }
  node {
    input: "799"
    input: "162"
    input: "163"
    input: "164"
    input: "165"
    output: "801"
    op_type: "SpatialBN"
    attribute {
      name: "is_test"
      i: 1
    }
    attribute {
      name: "epsilon"
      f: 9.99999974737875e-06
    }
    attribute {
      name: "momentum"
      f: 0.899999976158142
    }
    attribute {
      name: "consumed_inputs"
      ints: 0
      ints: 0
      ints: 0
      ints: 1
      ints: 1
    }
  }
  node {
    input: "801"
    output: "802"
    op_type: "Relu"
  }
  node {
    input: "802"
    input: "166"
    output: "804"
    op_type: "Conv"
    attribute {
      name: "kernel_shape"
      ints: 1
      ints: 1
    }
    attribute {
      name: "strides"
      ints: 1
      ints: 1
    }
    attribute {
      name: "pads"
      ints: 0
      ints: 0
      ints: 0
      ints: 0
    }
    attribute {
      name: "dilations"
      ints: 1
      ints: 1
    }
    attribute {
      name: "group"
      i: 1
    }
  }
  node {
    input: "804"
    input: "167"
    input: "168"
    input: "169"
    input: "170"
    output: "806"
    op_type: "SpatialBN"
    attribute {
      name: "is_test"
      i: 1
    }
    attribute {
      name: "epsilon"
      f: 9.99999974737875e-06
    }
    attribute {
      name: "momentum"
      f: 0.899999976158142
    }
    attribute {
      name: "consumed_inputs"
      ints: 0
      ints: 0
      ints: 0
      ints: 1
      ints: 1
    }
  }
  node {
    input: "806"
    output: "807"
    op_type: "Relu"
  }
  node {
    input: "807"
    input: "171"
    output: "809"
    op_type: "Conv"
    attribute {
      name: "kernel_shape"
      ints: 3
      ints: 3
    }
    attribute {
      name: "strides"
      ints: 1
      ints: 1
    }
    attribute {
      name: "pads"
      ints: 1
      ints: 1
      ints: 1
      ints: 1
    }
    attribute {
      name: "dilations"
      ints: 1
      ints: 1
    }
    attribute {
      name: "group"
      i: 1
    }
  }
  node {
    input: "799"
    input: "809"
    output: "811"
    op_type: "cat"
    attribute {
      name: "dim"
      i: 1
    }
  }
  node {
    input: "811"
    input: "172"
    input: "173"
    input: "174"
    input: "175"
    output: "813"
    op_type: "SpatialBN"
    attribute {
      name: "is_test"
      i: 1
    }
    attribute {
      name: "epsilon"
      f: 9.99999974737875e-06
    }
    attribute {
      name: "momentum"
      f: 0.899999976158142
    }
    attribute {
      name: "consumed_inputs"
      ints: 0
      ints: 0
      ints: 0
      ints: 1
      ints: 1
    }
  }
  node {
    input: "813"
    output: "814"
    op_type: "Relu"
  }
  node {
    input: "814"
    input: "176"
    output: "816"
    op_type: "Conv"
    attribute {
      name: "kernel_shape"
      ints: 1
      ints: 1
    }
    attribute {
      name: "strides"
      ints: 1
      ints: 1
    }
    attribute {
      name: "pads"
      ints: 0
      ints: 0
      ints: 0
      ints: 0
    }
    attribute {
      name: "dilations"
      ints: 1
      ints: 1
    }
    attribute {
      name: "group"
      i: 1
    }
  }
  node {
    input: "816"
    input: "177"
    input: "178"
    input: "179"
    input: "180"
    output: "818"
    op_type: "SpatialBN"
    attribute {
      name: "is_test"
      i: 1
    }
    attribute {
      name: "epsilon"
      f: 9.99999974737875e-06
    }
    attribute {
      name: "momentum"
      f: 0.899999976158142
    }
    attribute {
      name: "consumed_inputs"
      ints: 0
      ints: 0
      ints: 0
      ints: 1
      ints: 1
    }
  }
  node {
    input: "818"
    output: "819"
    op_type: "Relu"
  }
  node {
    input: "819"
    input: "181"
    output: "821"
    op_type: "Conv"
    attribute {
      name: "kernel_shape"
      ints: 3
      ints: 3
    }
    attribute {
      name: "strides"
      ints: 1
      ints: 1
    }
    attribute {
      name: "pads"
      ints: 1
      ints: 1
      ints: 1
      ints: 1
    }
    attribute {
      name: "dilations"
      ints: 1
      ints: 1
    }
    attribute {
      name: "group"
      i: 1
    }
  }
  node {
    input: "811"
    input: "821"
    output: "823"
    op_type: "cat"
    attribute {
      name: "dim"
      i: 1
    }
  }
  node {
    input: "823"
    input: "182"
    input: "183"
    input: "184"
    input: "185"
    output: "825"
    op_type: "SpatialBN"
    attribute {
      name: "is_test"
      i: 1
    }
    attribute {
      name: "epsilon"
      f: 9.99999974737875e-06
    }
    attribute {
      name: "momentum"
      f: 0.899999976158142
    }
    attribute {
      name: "consumed_inputs"
      ints: 0
      ints: 0
      ints: 0
      ints: 1
      ints: 1
    }
  }
  node {
    input: "825"
    output: "826"
    op_type: "Relu"
  }
  node {
    input: "826"
    input: "186"
    output: "828"
    op_type: "Conv"
    attribute {
      name: "kernel_shape"
      ints: 1
      ints: 1
    }
    attribute {
      name: "strides"
      ints: 1
      ints: 1
    }
    attribute {
      name: "pads"
      ints: 0
      ints: 0
      ints: 0
      ints: 0
    }
    attribute {
      name: "dilations"
      ints: 1
      ints: 1
    }
    attribute {
      name: "group"
      i: 1
    }
  }
  node {
    input: "828"
    input: "187"
    input: "188"
    input: "189"
    input: "190"
    output: "830"
    op_type: "SpatialBN"
    attribute {
      name: "is_test"
      i: 1
    }
    attribute {
      name: "epsilon"
      f: 9.99999974737875e-06
    }
    attribute {
      name: "momentum"
      f: 0.899999976158142
    }
    attribute {
      name: "consumed_inputs"
      ints: 0
      ints: 0
      ints: 0
      ints: 1
      ints: 1
    }
  }
  node {
    input: "830"
    output: "831"
    op_type: "Relu"
  }
  node {
    input: "831"
    input: "191"
    output: "833"
    op_type: "Conv"
    attribute {
      name: "kernel_shape"
      ints: 3
      ints: 3
    }
    attribute {
      name: "strides"
      ints: 1
      ints: 1
    }
    attribute {
      name: "pads"
      ints: 1
      ints: 1
      ints: 1
      ints: 1
    }
    attribute {
      name: "dilations"
      ints: 1
      ints: 1
    }
    attribute {
      name: "group"
      i: 1
    }
  }
  node {
    input: "823"
    input: "833"
    output: "835"
    op_type: "cat"
    attribute {
      name: "dim"
      i: 1
    }
  }
  node {
    input: "835"
    input: "192"
    input: "193"
    input: "194"
    input: "195"
    output: "837"
    op_type: "SpatialBN"
    attribute {
      name: "is_test"
      i: 1
    }
    attribute {
      name: "epsilon"
      f: 9.99999974737875e-06
    }
    attribute {
      name: "momentum"
      f: 0.899999976158142
    }
    attribute {
      name: "consumed_inputs"
      ints: 0
      ints: 0
      ints: 0
      ints: 1
      ints: 1
    }
  }
  node {
    input: "837"
    output: "838"
    op_type: "Relu"
  }
  node {
    input: "838"
    input: "196"
    output: "840"
    op_type: "Conv"
    attribute {
      name: "kernel_shape"
      ints: 1
      ints: 1
    }
    attribute {
      name: "strides"
      ints: 1
      ints: 1
    }
    attribute {
      name: "pads"
      ints: 0
      ints: 0
      ints: 0
      ints: 0
    }
    attribute {
      name: "dilations"
      ints: 1
      ints: 1
    }
    attribute {
      name: "group"
      i: 1
    }
  }
  node {
    input: "840"
    output: "841"
    op_type: "AveragePool"
    attribute {
      name: "kernel_shape"
      ints: 2
      ints: 2
    }
    attribute {
      name: "pads"
      ints: 0
      ints: 0
    }
    attribute {
      name: "strides"
      ints: 2
      ints: 2
    }
  }
  node {
    input: "841"
    input: "197"
    input: "198"
    input: "199"
    input: "200"
    output: "843"
    op_type: "SpatialBN"
    attribute {
      name: "is_test"
      i: 1
    }
    attribute {
      name: "epsilon"
      f: 9.99999974737875e-06
    }
    attribute {
      name: "momentum"
      f: 0.899999976158142
    }
    attribute {
      name: "consumed_inputs"
      ints: 0
      ints: 0
      ints: 0
      ints: 1
      ints: 1
    }
  }
  node {
    input: "843"
    output: "844"
    op_type: "Relu"
  }
  node {
    input: "844"
    input: "201"
    output: "846"
    op_type: "Conv"
    attribute {
      name: "kernel_shape"
      ints: 1
      ints: 1
    }
    attribute {
      name: "strides"
      ints: 1
      ints: 1
    }
    attribute {
      name: "pads"
      ints: 0
      ints: 0
      ints: 0
      ints: 0
    }
    attribute {
      name: "dilations"
      ints: 1
      ints: 1
    }
    attribute {
      name: "group"
      i: 1
    }
  }
  node {
    input: "846"
    input: "202"
    input: "203"
    input: "204"
    input: "205"
    output: "848"
    op_type: "SpatialBN"
    attribute {
      name: "is_test"
      i: 1
    }
    attribute {
      name: "epsilon"
      f: 9.99999974737875e-06
    }
    attribute {
      name: "momentum"
      f: 0.899999976158142
    }
    attribute {
      name: "consumed_inputs"
      ints: 0
      ints: 0
      ints: 0
      ints: 1
      ints: 1
    }
  }
  node {
    input: "848"
    output: "849"
    op_type: "Relu"
  }
  node {
    input: "849"
    input: "206"
    output: "851"
    op_type: "Conv"
    attribute {
      name: "kernel_shape"
      ints: 3
      ints: 3
    }
    attribute {
      name: "strides"
      ints: 1
      ints: 1
    }
    attribute {
      name: "pads"
      ints: 1
      ints: 1
      ints: 1
      ints: 1
    }
    attribute {
      name: "dilations"
      ints: 1
      ints: 1
    }
    attribute {
      name: "group"
      i: 1
    }
  }
  node {
    input: "841"
    input: "851"
    output: "853"
    op_type: "cat"
    attribute {
      name: "dim"
      i: 1
    }
  }
  node {
    input: "853"
    input: "207"
    input: "208"
    input: "209"
    input: "210"
    output: "855"
    op_type: "SpatialBN"
    attribute {
      name: "is_test"
      i: 1
    }
    attribute {
      name: "epsilon"
      f: 9.99999974737875e-06
    }
    attribute {
      name: "momentum"
      f: 0.899999976158142
    }
    attribute {
      name: "consumed_inputs"
      ints: 0
      ints: 0
      ints: 0
      ints: 1
      ints: 1
    }
  }
  node {
    input: "855"
    output: "856"
    op_type: "Relu"
  }
  node {
    input: "856"
    input: "211"
    output: "858"
    op_type: "Conv"
    attribute {
      name: "kernel_shape"
      ints: 1
      ints: 1
    }
    attribute {
      name: "strides"
      ints: 1
      ints: 1
    }
    attribute {
      name: "pads"
      ints: 0
      ints: 0
      ints: 0
      ints: 0
    }
    attribute {
      name: "dilations"
      ints: 1
      ints: 1
    }
    attribute {
      name: "group"
      i: 1
    }
  }
  node {
    input: "858"
    input: "212"
    input: "213"
    input: "214"
    input: "215"
    output: "860"
    op_type: "SpatialBN"
    attribute {
      name: "is_test"
      i: 1
    }
    attribute {
      name: "epsilon"
      f: 9.99999974737875e-06
    }
    attribute {
      name: "momentum"
      f: 0.899999976158142
    }
    attribute {
      name: "consumed_inputs"
      ints: 0
      ints: 0
      ints: 0
      ints: 1
      ints: 1
    }
  }
  node {
    input: "860"
    output: "861"
    op_type: "Relu"
  }
  node {
    input: "861"
    input: "216"
    output: "863"
    op_type: "Conv"
    attribute {
      name: "kernel_shape"
      ints: 3
      ints: 3
    }
    attribute {
      name: "strides"
      ints: 1
      ints: 1
    }
    attribute {
      name: "pads"
      ints: 1
      ints: 1
      ints: 1
      ints: 1
    }
    attribute {
      name: "dilations"
      ints: 1
      ints: 1
    }
    attribute {
      name: "group"
      i: 1
    }
  }
  node {
    input: "853"
    input: "863"
    output: "865"
    op_type: "cat"
    attribute {
      name: "dim"
      i: 1
    }
  }
  node {
    input: "865"
    input: "217"
    input: "218"
    input: "219"
    input: "220"
    output: "867"
    op_type: "SpatialBN"
    attribute {
      name: "is_test"
      i: 1
    }
    attribute {
      name: "epsilon"
      f: 9.99999974737875e-06
    }
    attribute {
      name: "momentum"
      f: 0.899999976158142
    }
    attribute {
      name: "consumed_inputs"
      ints: 0
      ints: 0
      ints: 0
      ints: 1
      ints: 1
    }
  }
  node {
    input: "867"
    output: "868"
    op_type: "Relu"
  }
  node {
    input: "868"
    input: "221"
    output: "870"
    op_type: "Conv"
    attribute {
      name: "kernel_shape"
      ints: 1
      ints: 1
    }
    attribute {
      name: "strides"
      ints: 1
      ints: 1
    }
    attribute {
      name: "pads"
      ints: 0
      ints: 0
      ints: 0
      ints: 0
    }
    attribute {
      name: "dilations"
      ints: 1
      ints: 1
    }
    attribute {
      name: "group"
      i: 1
    }
  }
  node {
    input: "870"
    input: "222"
    input: "223"
    input: "224"
    input: "225"
    output: "872"
    op_type: "SpatialBN"
    attribute {
      name: "is_test"
      i: 1
    }
    attribute {
      name: "epsilon"
      f: 9.99999974737875e-06
    }
    attribute {
      name: "momentum"
      f: 0.899999976158142
    }
    attribute {
      name: "consumed_inputs"
      ints: 0
      ints: 0
      ints: 0
      ints: 1
      ints: 1
    }
  }
  node {
    input: "872"
    output: "873"
    op_type: "Relu"
  }
  node {
    input: "873"
    input: "226"
    output: "875"
    op_type: "Conv"
    attribute {
      name: "kernel_shape"
      ints: 3
      ints: 3
    }
    attribute {
      name: "strides"
      ints: 1
      ints: 1
    }
    attribute {
      name: "pads"
      ints: 1
      ints: 1
      ints: 1
      ints: 1
    }
    attribute {
      name: "dilations"
      ints: 1
      ints: 1
    }
    attribute {
      name: "group"
      i: 1
    }
  }
  node {
    input: "865"
    input: "875"
    output: "877"
    op_type: "cat"
    attribute {
      name: "dim"
      i: 1
    }
  }
  node {
    input: "877"
    input: "227"
    input: "228"
    input: "229"
    input: "230"
    output: "879"
    op_type: "SpatialBN"
    attribute {
      name: "is_test"
      i: 1
    }
    attribute {
      name: "epsilon"
      f: 9.99999974737875e-06
    }
    attribute {
      name: "momentum"
      f: 0.899999976158142
    }
    attribute {
      name: "consumed_inputs"
      ints: 0
      ints: 0
      ints: 0
      ints: 1
      ints: 1
    }
  }
  node {
    input: "879"
    output: "880"
    op_type: "Relu"
  }
  node {
    input: "880"
    input: "231"
    output: "882"
    op_type: "Conv"
    attribute {
      name: "kernel_shape"
      ints: 1
      ints: 1
    }
    attribute {
      name: "strides"
      ints: 1
      ints: 1
    }
    attribute {
      name: "pads"
      ints: 0
      ints: 0
      ints: 0
      ints: 0
    }
    attribute {
      name: "dilations"
      ints: 1
      ints: 1
    }
    attribute {
      name: "group"
      i: 1
    }
  }
  node {
    input: "882"
    input: "232"
    input: "233"
    input: "234"
    input: "235"
    output: "884"
    op_type: "SpatialBN"
    attribute {
      name: "is_test"
      i: 1
    }
    attribute {
      name: "epsilon"
      f: 9.99999974737875e-06
    }
    attribute {
      name: "momentum"
      f: 0.899999976158142
    }
    attribute {
      name: "consumed_inputs"
      ints: 0
      ints: 0
      ints: 0
      ints: 1
      ints: 1
    }
  }
  node {
    input: "884"
    output: "885"
    op_type: "Relu"
  }
  node {
    input: "885"
    input: "236"
    output: "887"
    op_type: "Conv"
    attribute {
      name: "kernel_shape"
      ints: 3
      ints: 3
    }
    attribute {
      name: "strides"
      ints: 1
      ints: 1
    }
    attribute {
      name: "pads"
      ints: 1
      ints: 1
      ints: 1
      ints: 1
    }
    attribute {
      name: "dilations"
      ints: 1
      ints: 1
    }
    attribute {
      name: "group"
      i: 1
    }
  }
  node {
    input: "877"
    input: "887"
    output: "889"
    op_type: "cat"
    attribute {
      name: "dim"
      i: 1
    }
  }
  node {
    input: "889"
    input: "237"
    input: "238"
    input: "239"
    input: "240"
    output: "891"
    op_type: "SpatialBN"
    attribute {
      name: "is_test"
      i: 1
    }
    attribute {
      name: "epsilon"
      f: 9.99999974737875e-06
    }
    attribute {
      name: "momentum"
      f: 0.899999976158142
    }
    attribute {
      name: "consumed_inputs"
      ints: 0
      ints: 0
      ints: 0
      ints: 1
      ints: 1
    }
  }
  node {
    input: "891"
    output: "892"
    op_type: "Relu"
  }
  node {
    input: "892"
    input: "241"
    output: "894"
    op_type: "Conv"
    attribute {
      name: "kernel_shape"
      ints: 1
      ints: 1
    }
    attribute {
      name: "strides"
      ints: 1
      ints: 1
    }
    attribute {
      name: "pads"
      ints: 0
      ints: 0
      ints: 0
      ints: 0
    }
    attribute {
      name: "dilations"
      ints: 1
      ints: 1
    }
    attribute {
      name: "group"
      i: 1
    }
  }
  node {
    input: "894"
    input: "242"
    input: "243"
    input: "244"
    input: "245"
    output: "896"
    op_type: "SpatialBN"
    attribute {
      name: "is_test"
      i: 1
    }
    attribute {
      name: "epsilon"
      f: 9.99999974737875e-06
    }
    attribute {
      name: "momentum"
      f: 0.899999976158142
    }
    attribute {
      name: "consumed_inputs"
      ints: 0
      ints: 0
      ints: 0
      ints: 1
      ints: 1
    }
  }
  node {
    input: "896"
    output: "897"
    op_type: "Relu"
  }
  node {
    input: "897"
    input: "246"
    output: "899"
    op_type: "Conv"
    attribute {
      name: "kernel_shape"
      ints: 3
      ints: 3
    }
    attribute {
      name: "strides"
      ints: 1
      ints: 1
    }
    attribute {
      name: "pads"
      ints: 1
      ints: 1
      ints: 1
      ints: 1
    }
    attribute {
      name: "dilations"
      ints: 1
      ints: 1
    }
    attribute {
      name: "group"
      i: 1
    }
  }
  node {
    input: "889"
    input: "899"
    output: "901"
    op_type: "cat"
    attribute {
      name: "dim"
      i: 1
    }
  }
  node {
    input: "901"
    input: "247"
    input: "248"
    input: "249"
    input: "250"
    output: "903"
    op_type: "SpatialBN"
    attribute {
      name: "is_test"
      i: 1
    }
    attribute {
      name: "epsilon"
      f: 9.99999974737875e-06
    }
    attribute {
      name: "momentum"
      f: 0.899999976158142
    }
    attribute {
      name: "consumed_inputs"
      ints: 0
      ints: 0
      ints: 0
      ints: 1
      ints: 1
    }
  }
  node {
    input: "903"
    output: "904"
    op_type: "Relu"
  }
  node {
    input: "904"
    input: "251"
    output: "906"
    op_type: "Conv"
    attribute {
      name: "kernel_shape"
      ints: 1
      ints: 1
    }
    attribute {
      name: "strides"
      ints: 1
      ints: 1
    }
    attribute {
      name: "pads"
      ints: 0
      ints: 0
      ints: 0
      ints: 0
    }
    attribute {
      name: "dilations"
      ints: 1
      ints: 1
    }
    attribute {
      name: "group"
      i: 1
    }
  }
  node {
    input: "906"
    input: "252"
    input: "253"
    input: "254"
    input: "255"
    output: "908"
    op_type: "SpatialBN"
    attribute {
      name: "is_test"
      i: 1
    }
    attribute {
      name: "epsilon"
      f: 9.99999974737875e-06
    }
    attribute {
      name: "momentum"
      f: 0.899999976158142
    }
    attribute {
      name: "consumed_inputs"
      ints: 0
      ints: 0
      ints: 0
      ints: 1
      ints: 1
    }
  }
  node {
    input: "908"
    output: "909"
    op_type: "Relu"
  }
  node {
    input: "909"
    input: "256"
    output: "911"
    op_type: "Conv"
    attribute {
      name: "kernel_shape"
      ints: 3
      ints: 3
    }
    attribute {
      name: "strides"
      ints: 1
      ints: 1
    }
    attribute {
      name: "pads"
      ints: 1
      ints: 1
      ints: 1
      ints: 1
    }
    attribute {
      name: "dilations"
      ints: 1
      ints: 1
    }
    attribute {
      name: "group"
      i: 1
    }
  }
  node {
    input: "901"
    input: "911"
    output: "913"
    op_type: "cat"
    attribute {
      name: "dim"
      i: 1
    }
  }
  node {
    input: "913"
    input: "257"
    input: "258"
    input: "259"
    input: "260"
    output: "915"
    op_type: "SpatialBN"
    attribute {
      name: "is_test"
      i: 1
    }
    attribute {
      name: "epsilon"
      f: 9.99999974737875e-06
    }
    attribute {
      name: "momentum"
      f: 0.899999976158142
    }
    attribute {
      name: "consumed_inputs"
      ints: 0
      ints: 0
      ints: 0
      ints: 1
      ints: 1
    }
  }
  node {
    input: "915"
    output: "916"
    op_type: "Relu"
  }
  node {
    input: "916"
    input: "261"
    output: "918"
    op_type: "Conv"
    attribute {
      name: "kernel_shape"
      ints: 1
      ints: 1
    }
    attribute {
      name: "strides"
      ints: 1
      ints: 1
    }
    attribute {
      name: "pads"
      ints: 0
      ints: 0
      ints: 0
      ints: 0
    }
    attribute {
      name: "dilations"
      ints: 1
      ints: 1
    }
    attribute {
      name: "group"
      i: 1
    }
  }
  node {
    input: "918"
    input: "262"
    input: "263"
    input: "264"
    input: "265"
    output: "920"
    op_type: "SpatialBN"
    attribute {
      name: "is_test"
      i: 1
    }
    attribute {
      name: "epsilon"
      f: 9.99999974737875e-06
    }
    attribute {
      name: "momentum"
      f: 0.899999976158142
    }
    attribute {
      name: "consumed_inputs"
      ints: 0
      ints: 0
      ints: 0
      ints: 1
      ints: 1
    }
  }
  node {
    input: "920"
    output: "921"
    op_type: "Relu"
  }
  node {
    input: "921"
    input: "266"
    output: "923"
    op_type: "Conv"
    attribute {
      name: "kernel_shape"
      ints: 3
      ints: 3
    }
    attribute {
      name: "strides"
      ints: 1
      ints: 1
    }
    attribute {
      name: "pads"
      ints: 1
      ints: 1
      ints: 1
      ints: 1
    }
    attribute {
      name: "dilations"
      ints: 1
      ints: 1
    }
    attribute {
      name: "group"
      i: 1
    }
  }
  node {
    input: "913"
    input: "923"
    output: "925"
    op_type: "cat"
    attribute {
      name: "dim"
      i: 1
    }
  }
  node {
    input: "925"
    input: "267"
    input: "268"
    input: "269"
    input: "270"
    output: "927"
    op_type: "SpatialBN"
    attribute {
      name: "is_test"
      i: 1
    }
    attribute {
      name: "epsilon"
      f: 9.99999974737875e-06
    }
    attribute {
      name: "momentum"
      f: 0.899999976158142
    }
    attribute {
      name: "consumed_inputs"
      ints: 0
      ints: 0
      ints: 0
      ints: 1
      ints: 1
    }
  }
  node {
    input: "927"
    output: "928"
    op_type: "Relu"
  }
  node {
    input: "928"
    input: "271"
    output: "930"
    op_type: "Conv"
    attribute {
      name: "kernel_shape"
      ints: 1
      ints: 1
    }
    attribute {
      name: "strides"
      ints: 1
      ints: 1
    }
    attribute {
      name: "pads"
      ints: 0
      ints: 0
      ints: 0
      ints: 0
    }
    attribute {
      name: "dilations"
      ints: 1
      ints: 1
    }
    attribute {
      name: "group"
      i: 1
    }
  }
  node {
    input: "930"
    input: "272"
    input: "273"
    input: "274"
    input: "275"
    output: "932"
    op_type: "SpatialBN"
    attribute {
      name: "is_test"
      i: 1
    }
    attribute {
      name: "epsilon"
      f: 9.99999974737875e-06
    }
    attribute {
      name: "momentum"
      f: 0.899999976158142
    }
    attribute {
      name: "consumed_inputs"
      ints: 0
      ints: 0
      ints: 0
      ints: 1
      ints: 1
    }
  }
  node {
    input: "932"
    output: "933"
    op_type: "Relu"
  }
  node {
    input: "933"
    input: "276"
    output: "935"
    op_type: "Conv"
    attribute {
      name: "kernel_shape"
      ints: 3
      ints: 3
    }
    attribute {
      name: "strides"
      ints: 1
      ints: 1
    }
    attribute {
      name: "pads"
      ints: 1
      ints: 1
      ints: 1
      ints: 1
    }
    attribute {
      name: "dilations"
      ints: 1
      ints: 1
    }
    attribute {
      name: "group"
      i: 1
    }
  }
  node {
    input: "925"
    input: "935"
    output: "937"
    op_type: "cat"
    attribute {
      name: "dim"
      i: 1
    }
  }
  node {
    input: "937"
    input: "277"
    input: "278"
    input: "279"
    input: "280"
    output: "939"
    op_type: "SpatialBN"
    attribute {
      name: "is_test"
      i: 1
    }
    attribute {
      name: "epsilon"
      f: 9.99999974737875e-06
    }
    attribute {
      name: "momentum"
      f: 0.899999976158142
    }
    attribute {
      name: "consumed_inputs"
      ints: 0
      ints: 0
      ints: 0
      ints: 1
      ints: 1
    }
  }
  node {
    input: "939"
    output: "940"
    op_type: "Relu"
  }
  node {
    input: "940"
    input: "281"
    output: "942"
    op_type: "Conv"
    attribute {
      name: "kernel_shape"
      ints: 1
      ints: 1
    }
    attribute {
      name: "strides"
      ints: 1
      ints: 1
    }
    attribute {
      name: "pads"
      ints: 0
      ints: 0
      ints: 0
      ints: 0
    }
    attribute {
      name: "dilations"
      ints: 1
      ints: 1
    }
    attribute {
      name: "group"
      i: 1
    }
  }
  node {
    input: "942"
    input: "282"
    input: "283"
    input: "284"
    input: "285"
    output: "944"
    op_type: "SpatialBN"
    attribute {
      name: "is_test"
      i: 1
    }
    attribute {
      name: "epsilon"
      f: 9.99999974737875e-06
    }
    attribute {
      name: "momentum"
      f: 0.899999976158142
    }
    attribute {
      name: "consumed_inputs"
      ints: 0
      ints: 0
      ints: 0
      ints: 1
      ints: 1
    }
  }
  node {
    input: "944"
    output: "945"
    op_type: "Relu"
  }
  node {
    input: "945"
    input: "286"
    output: "947"
    op_type: "Conv"
    attribute {
      name: "kernel_shape"
      ints: 3
      ints: 3
    }
    attribute {
      name: "strides"
      ints: 1
      ints: 1
    }
    attribute {
      name: "pads"
      ints: 1
      ints: 1
      ints: 1
      ints: 1
    }
    attribute {
      name: "dilations"
      ints: 1
      ints: 1
    }
    attribute {
      name: "group"
      i: 1
    }
  }
  node {
    input: "937"
    input: "947"
    output: "949"
    op_type: "cat"
    attribute {
      name: "dim"
      i: 1
    }
  }
  node {
    input: "949"
    input: "287"
    input: "288"
    input: "289"
    input: "290"
    output: "951"
    op_type: "SpatialBN"
    attribute {
      name: "is_test"
      i: 1
    }
    attribute {
      name: "epsilon"
      f: 9.99999974737875e-06
    }
    attribute {
      name: "momentum"
      f: 0.899999976158142
    }
    attribute {
      name: "consumed_inputs"
      ints: 0
      ints: 0
      ints: 0
      ints: 1
      ints: 1
    }
  }
  node {
    input: "951"
    output: "952"
    op_type: "Relu"
  }
  node {
    input: "952"
    input: "291"
    output: "954"
    op_type: "Conv"
    attribute {
      name: "kernel_shape"
      ints: 1
      ints: 1
    }
    attribute {
      name: "strides"
      ints: 1
      ints: 1
    }
    attribute {
      name: "pads"
      ints: 0
      ints: 0
      ints: 0
      ints: 0
    }
    attribute {
      name: "dilations"
      ints: 1
      ints: 1
    }
    attribute {
      name: "group"
      i: 1
    }
  }
  node {
    input: "954"
    input: "292"
    input: "293"
    input: "294"
    input: "295"
    output: "956"
    op_type: "SpatialBN"
    attribute {
      name: "is_test"
      i: 1
    }
    attribute {
      name: "epsilon"
      f: 9.99999974737875e-06
    }
    attribute {
      name: "momentum"
      f: 0.899999976158142
    }
    attribute {
      name: "consumed_inputs"
      ints: 0
      ints: 0
      ints: 0
      ints: 1
      ints: 1
    }
  }
  node {
    input: "956"
    output: "957"
    op_type: "Relu"
  }
  node {
    input: "957"
    input: "296"
    output: "959"
    op_type: "Conv"
    attribute {
      name: "kernel_shape"
      ints: 3
      ints: 3
    }
    attribute {
      name: "strides"
      ints: 1
      ints: 1
    }
    attribute {
      name: "pads"
      ints: 1
      ints: 1
      ints: 1
      ints: 1
    }
    attribute {
      name: "dilations"
      ints: 1
      ints: 1
    }
    attribute {
      name: "group"
      i: 1
    }
  }
  node {
    input: "949"
    input: "959"
    output: "961"
    op_type: "cat"
    attribute {
      name: "dim"
      i: 1
    }
  }
  node {
    input: "961"
    input: "297"
    input: "298"
    input: "299"
    input: "300"
    output: "963"
    op_type: "SpatialBN"
    attribute {
      name: "is_test"
      i: 1
    }
    attribute {
      name: "epsilon"
      f: 9.99999974737875e-06
    }
    attribute {
      name: "momentum"
      f: 0.899999976158142
    }
    attribute {
      name: "consumed_inputs"
      ints: 0
      ints: 0
      ints: 0
      ints: 1
      ints: 1
    }
  }
  node {
    input: "963"
    output: "964"
    op_type: "Relu"
  }
  node {
    input: "964"
    input: "301"
    output: "966"
    op_type: "Conv"
    attribute {
      name: "kernel_shape"
      ints: 1
      ints: 1
    }
    attribute {
      name: "strides"
      ints: 1
      ints: 1
    }
    attribute {
      name: "pads"
      ints: 0
      ints: 0
      ints: 0
      ints: 0
    }
    attribute {
      name: "dilations"
      ints: 1
      ints: 1
    }
    attribute {
      name: "group"
      i: 1
    }
  }
  node {
    input: "966"
    input: "302"
    input: "303"
    input: "304"
    input: "305"
    output: "968"
    op_type: "SpatialBN"
    attribute {
      name: "is_test"
      i: 1
    }
    attribute {
      name: "epsilon"
      f: 9.99999974737875e-06
    }
    attribute {
      name: "momentum"
      f: 0.899999976158142
    }
    attribute {
      name: "consumed_inputs"
      ints: 0
      ints: 0
      ints: 0
      ints: 1
      ints: 1
    }
  }
  node {
    input: "968"
    output: "969"
    op_type: "Relu"
  }
  node {
    input: "969"
    input: "306"
    output: "971"
    op_type: "Conv"
    attribute {
      name: "kernel_shape"
      ints: 3
      ints: 3
    }
    attribute {
      name: "strides"
      ints: 1
      ints: 1
    }
    attribute {
      name: "pads"
      ints: 1
      ints: 1
      ints: 1
      ints: 1
    }
    attribute {
      name: "dilations"
      ints: 1
      ints: 1
    }
    attribute {
      name: "group"
      i: 1
    }
  }
  node {
    input: "961"
    input: "971"
    output: "973"
    op_type: "cat"
    attribute {
      name: "dim"
      i: 1
    }
  }
  node {
    input: "973"
    input: "307"
    input: "308"
    input: "309"
    input: "310"
    output: "975"
    op_type: "SpatialBN"
    attribute {
      name: "is_test"
      i: 1
    }
    attribute {
      name: "epsilon"
      f: 9.99999974737875e-06
    }
    attribute {
      name: "momentum"
      f: 0.899999976158142
    }
    attribute {
      name: "consumed_inputs"
      ints: 0
      ints: 0
      ints: 0
      ints: 1
      ints: 1
    }
  }
  node {
    input: "975"
    output: "976"
    op_type: "Relu"
  }
  node {
    input: "976"
    input: "311"
    output: "978"
    op_type: "Conv"
    attribute {
      name: "kernel_shape"
      ints: 1
      ints: 1
    }
    attribute {
      name: "strides"
      ints: 1
      ints: 1
    }
    attribute {
      name: "pads"
      ints: 0
      ints: 0
      ints: 0
      ints: 0
    }
    attribute {
      name: "dilations"
      ints: 1
      ints: 1
    }
    attribute {
      name: "group"
      i: 1
    }
  }
  node {
    input: "978"
    input: "312"
    input: "313"
    input: "314"
    input: "315"
    output: "980"
    op_type: "SpatialBN"
    attribute {
      name: "is_test"
      i: 1
    }
    attribute {
      name: "epsilon"
      f: 9.99999974737875e-06
    }
    attribute {
      name: "momentum"
      f: 0.899999976158142
    }
    attribute {
      name: "consumed_inputs"
      ints: 0
      ints: 0
      ints: 0
      ints: 1
      ints: 1
    }
  }
  node {
    input: "980"
    output: "981"
    op_type: "Relu"
  }
  node {
    input: "981"
    input: "316"
    output: "983"
    op_type: "Conv"
    attribute {
      name: "kernel_shape"
      ints: 3
      ints: 3
    }
    attribute {
      name: "strides"
      ints: 1
      ints: 1
    }
    attribute {
      name: "pads"
      ints: 1
      ints: 1
      ints: 1
      ints: 1
    }
    attribute {
      name: "dilations"
      ints: 1
      ints: 1
    }
    attribute {
      name: "group"
      i: 1
    }
  }
  node {
    input: "973"
    input: "983"
    output: "985"
    op_type: "cat"
    attribute {
      name: "dim"
      i: 1
    }
  }
  node {
    input: "985"
    input: "317"
    input: "318"
    input: "319"
    input: "320"
    output: "987"
    op_type: "SpatialBN"
    attribute {
      name: "is_test"
      i: 1
    }
    attribute {
      name: "epsilon"
      f: 9.99999974737875e-06
    }
    attribute {
      name: "momentum"
      f: 0.899999976158142
    }
    attribute {
      name: "consumed_inputs"
      ints: 0
      ints: 0
      ints: 0
      ints: 1
      ints: 1
    }
  }
  node {
    input: "987"
    output: "988"
    op_type: "Relu"
  }
  node {
    input: "988"
    input: "321"
    output: "990"
    op_type: "Conv"
    attribute {
      name: "kernel_shape"
      ints: 1
      ints: 1
    }
    attribute {
      name: "strides"
      ints: 1
      ints: 1
    }
    attribute {
      name: "pads"
      ints: 0
      ints: 0
      ints: 0
      ints: 0
    }
    attribute {
      name: "dilations"
      ints: 1
      ints: 1
    }
    attribute {
      name: "group"
      i: 1
    }
  }
  node {
    input: "990"
    input: "322"
    input: "323"
    input: "324"
    input: "325"
    output: "992"
    op_type: "SpatialBN"
    attribute {
      name: "is_test"
      i: 1
    }
    attribute {
      name: "epsilon"
      f: 9.99999974737875e-06
    }
    attribute {
      name: "momentum"
      f: 0.899999976158142
    }
    attribute {
      name: "consumed_inputs"
      ints: 0
      ints: 0
      ints: 0
      ints: 1
      ints: 1
    }
  }
  node {
    input: "992"
    output: "993"
    op_type: "Relu"
  }
  node {
    input: "993"
    input: "326"
    output: "995"
    op_type: "Conv"
    attribute {
      name: "kernel_shape"
      ints: 3
      ints: 3
    }
    attribute {
      name: "strides"
      ints: 1
      ints: 1
    }
    attribute {
      name: "pads"
      ints: 1
      ints: 1
      ints: 1
      ints: 1
    }
    attribute {
      name: "dilations"
      ints: 1
      ints: 1
    }
    attribute {
      name: "group"
      i: 1
    }
  }
  node {
    input: "985"
    input: "995"
    output: "997"
    op_type: "cat"
    attribute {
      name: "dim"
      i: 1
    }
  }
  node {
    input: "997"
    input: "327"
    input: "328"
    input: "329"
    input: "330"
    output: "999"
    op_type: "SpatialBN"
    attribute {
      name: "is_test"
      i: 1
    }
    attribute {
      name: "epsilon"
      f: 9.99999974737875e-06
    }
    attribute {
      name: "momentum"
      f: 0.899999976158142
    }
    attribute {
      name: "consumed_inputs"
      ints: 0
      ints: 0
      ints: 0
      ints: 1
      ints: 1
    }
  }
  node {
    input: "999"
    output: "1000"
    op_type: "Relu"
  }
  node {
    input: "1000"
    input: "331"
    output: "1002"
    op_type: "Conv"
    attribute {
      name: "kernel_shape"
      ints: 1
      ints: 1
    }
    attribute {
      name: "strides"
      ints: 1
      ints: 1
    }
    attribute {
      name: "pads"
      ints: 0
      ints: 0
      ints: 0
      ints: 0
    }
    attribute {
      name: "dilations"
      ints: 1
      ints: 1
    }
    attribute {
      name: "group"
      i: 1
    }
  }
  node {
    input: "1002"
    input: "332"
    input: "333"
    input: "334"
    input: "335"
    output: "1004"
    op_type: "SpatialBN"
    attribute {
      name: "is_test"
      i: 1
    }
    attribute {
      name: "epsilon"
      f: 9.99999974737875e-06
    }
    attribute {
      name: "momentum"
      f: 0.899999976158142
    }
    attribute {
      name: "consumed_inputs"
      ints: 0
      ints: 0
      ints: 0
      ints: 1
      ints: 1
    }
  }
  node {
    input: "1004"
    output: "1005"
    op_type: "Relu"
  }
  node {
    input: "1005"
    input: "336"
    output: "1007"
    op_type: "Conv"
    attribute {
      name: "kernel_shape"
      ints: 3
      ints: 3
    }
    attribute {
      name: "strides"
      ints: 1
      ints: 1
    }
    attribute {
      name: "pads"
      ints: 1
      ints: 1
      ints: 1
      ints: 1
    }
    attribute {
      name: "dilations"
      ints: 1
      ints: 1
    }
    attribute {
      name: "group"
      i: 1
    }
  }
  node {
    input: "997"
    input: "1007"
    output: "1009"
    op_type: "cat"
    attribute {
      name: "dim"
      i: 1
    }
  }
  node {
    input: "1009"
    input: "337"
    input: "338"
    input: "339"
    input: "340"
    output: "1011"
    op_type: "SpatialBN"
    attribute {
      name: "is_test"
      i: 1
    }
    attribute {
      name: "epsilon"
      f: 9.99999974737875e-06
    }
    attribute {
      name: "momentum"
      f: 0.899999976158142
    }
    attribute {
      name: "consumed_inputs"
      ints: 0
      ints: 0
      ints: 0
      ints: 1
      ints: 1
    }
  }
  node {
    input: "1011"
    output: "1012"
    op_type: "Relu"
  }
  node {
    input: "1012"
    input: "341"
    output: "1014"
    op_type: "Conv"
    attribute {
      name: "kernel_shape"
      ints: 1
      ints: 1
    }
    attribute {
      name: "strides"
      ints: 1
      ints: 1
    }
    attribute {
      name: "pads"
      ints: 0
      ints: 0
      ints: 0
      ints: 0
    }
    attribute {
      name: "dilations"
      ints: 1
      ints: 1
    }
    attribute {
      name: "group"
      i: 1
    }
  }
  node {
    input: "1014"
    input: "342"
    input: "343"
    input: "344"
    input: "345"
    output: "1016"
    op_type: "SpatialBN"
    attribute {
      name: "is_test"
      i: 1
    }
    attribute {
      name: "epsilon"
      f: 9.99999974737875e-06
    }
    attribute {
      name: "momentum"
      f: 0.899999976158142
    }
    attribute {
      name: "consumed_inputs"
      ints: 0
      ints: 0
      ints: 0
      ints: 1
      ints: 1
    }
  }
  node {
    input: "1016"
    output: "1017"
    op_type: "Relu"
  }
  node {
    input: "1017"
    input: "346"
    output: "1019"
    op_type: "Conv"
    attribute {
      name: "kernel_shape"
      ints: 3
      ints: 3
    }
    attribute {
      name: "strides"
      ints: 1
      ints: 1
    }
    attribute {
      name: "pads"
      ints: 1
      ints: 1
      ints: 1
      ints: 1
    }
    attribute {
      name: "dilations"
      ints: 1
      ints: 1
    }
    attribute {
      name: "group"
      i: 1
    }
  }
  node {
    input: "1009"
    input: "1019"
    output: "1021"
    op_type: "cat"
    attribute {
      name: "dim"
      i: 1
    }
  }
  node {
    input: "1021"
    input: "347"
    input: "348"
    input: "349"
    input: "350"
    output: "1023"
    op_type: "SpatialBN"
    attribute {
      name: "is_test"
      i: 1
    }
    attribute {
      name: "epsilon"
      f: 9.99999974737875e-06
    }
    attribute {
      name: "momentum"
      f: 0.899999976158142
    }
    attribute {
      name: "consumed_inputs"
      ints: 0
      ints: 0
      ints: 0
      ints: 1
      ints: 1
    }
  }
  node {
    input: "1023"
    output: "1024"
    op_type: "Relu"
  }
  node {
    input: "1024"
    input: "351"
    output: "1026"
    op_type: "Conv"
    attribute {
      name: "kernel_shape"
      ints: 1
      ints: 1
    }
    attribute {
      name: "strides"
      ints: 1
      ints: 1
    }
    attribute {
      name: "pads"
      ints: 0
      ints: 0
      ints: 0
      ints: 0
    }
    attribute {
      name: "dilations"
      ints: 1
      ints: 1
    }
    attribute {
      name: "group"
      i: 1
    }
  }
  node {
    input: "1026"
    input: "352"
    input: "353"
    input: "354"
    input: "355"
    output: "1028"
    op_type: "SpatialBN"
    attribute {
      name: "is_test"
      i: 1
    }
    attribute {
      name: "epsilon"
      f: 9.99999974737875e-06
    }
    attribute {
      name: "momentum"
      f: 0.899999976158142
    }
    attribute {
      name: "consumed_inputs"
      ints: 0
      ints: 0
      ints: 0
      ints: 1
      ints: 1
    }
  }
  node {
    input: "1028"
    output: "1029"
    op_type: "Relu"
  }
  node {
    input: "1029"
    input: "356"
    output: "1031"
    op_type: "Conv"
    attribute {
      name: "kernel_shape"
      ints: 3
      ints: 3
    }
    attribute {
      name: "strides"
      ints: 1
      ints: 1
    }
    attribute {
      name: "pads"
      ints: 1
      ints: 1
      ints: 1
      ints: 1
    }
    attribute {
      name: "dilations"
      ints: 1
      ints: 1
    }
    attribute {
      name: "group"
      i: 1
    }
  }
  node {
    input: "1021"
    input: "1031"
    output: "1033"
    op_type: "cat"
    attribute {
      name: "dim"
      i: 1
    }
  }
  node {
    input: "1033"
    input: "357"
    input: "358"
    input: "359"
    input: "360"
    output: "1035"
    op_type: "SpatialBN"
    attribute {
      name: "is_test"
      i: 1
    }
    attribute {
      name: "epsilon"
      f: 9.99999974737875e-06
    }
    attribute {
      name: "momentum"
      f: 0.899999976158142
    }
    attribute {
      name: "consumed_inputs"
      ints: 0
      ints: 0
      ints: 0
      ints: 1
      ints: 1
    }
  }
  node {
    input: "1035"
    output: "1036"
    op_type: "Relu"
  }
  node {
    input: "1036"
    input: "361"
    output: "1038"
    op_type: "Conv"
    attribute {
      name: "kernel_shape"
      ints: 1
      ints: 1
    }
    attribute {
      name: "strides"
      ints: 1
      ints: 1
    }
    attribute {
      name: "pads"
      ints: 0
      ints: 0
      ints: 0
      ints: 0
    }
    attribute {
      name: "dilations"
      ints: 1
      ints: 1
    }
    attribute {
      name: "group"
      i: 1
    }
  }
  node {
    input: "1038"
    input: "362"
    input: "363"
    input: "364"
    input: "365"
    output: "1040"
    op_type: "SpatialBN"
    attribute {
      name: "is_test"
      i: 1
    }
    attribute {
      name: "epsilon"
      f: 9.99999974737875e-06
    }
    attribute {
      name: "momentum"
      f: 0.899999976158142
    }
    attribute {
      name: "consumed_inputs"
      ints: 0
      ints: 0
      ints: 0
      ints: 1
      ints: 1
    }
  }
  node {
    input: "1040"
    output: "1041"
    op_type: "Relu"
  }
  node {
    input: "1041"
    input: "366"
    output: "1043"
    op_type: "Conv"
    attribute {
      name: "kernel_shape"
      ints: 3
      ints: 3
    }
    attribute {
      name: "strides"
      ints: 1
      ints: 1
    }
    attribute {
      name: "pads"
      ints: 1
      ints: 1
      ints: 1
      ints: 1
    }
    attribute {
      name: "dilations"
      ints: 1
      ints: 1
    }
    attribute {
      name: "group"
      i: 1
    }
  }
  node {
    input: "1033"
    input: "1043"
    output: "1045"
    op_type: "cat"
    attribute {
      name: "dim"
      i: 1
    }
  }
  node {
    input: "1045"
    input: "367"
    input: "368"
    input: "369"
    input: "370"
    output: "1047"
    op_type: "SpatialBN"
    attribute {
      name: "is_test"
      i: 1
    }
    attribute {
      name: "epsilon"
      f: 9.99999974737875e-06
    }
    attribute {
      name: "momentum"
      f: 0.899999976158142
    }
    attribute {
      name: "consumed_inputs"
      ints: 0
      ints: 0
      ints: 0
      ints: 1
      ints: 1
    }
  }
  node {
    input: "1047"
    output: "1048"
    op_type: "Relu"
  }
  node {
    input: "1048"
    input: "371"
    output: "1050"
    op_type: "Conv"
    attribute {
      name: "kernel_shape"
      ints: 1
      ints: 1
    }
    attribute {
      name: "strides"
      ints: 1
      ints: 1
    }
    attribute {
      name: "pads"
      ints: 0
      ints: 0
      ints: 0
      ints: 0
    }
    attribute {
      name: "dilations"
      ints: 1
      ints: 1
    }
    attribute {
      name: "group"
      i: 1
    }
  }
  node {
    input: "1050"
    input: "372"
    input: "373"
    input: "374"
    input: "375"
    output: "1052"
    op_type: "SpatialBN"
    attribute {
      name: "is_test"
      i: 1
    }
    attribute {
      name: "epsilon"
      f: 9.99999974737875e-06
    }
    attribute {
      name: "momentum"
      f: 0.899999976158142
    }
    attribute {
      name: "consumed_inputs"
      ints: 0
      ints: 0
      ints: 0
      ints: 1
      ints: 1
    }
  }
  node {
    input: "1052"
    output: "1053"
    op_type: "Relu"
  }
  node {
    input: "1053"
    input: "376"
    output: "1055"
    op_type: "Conv"
    attribute {
      name: "kernel_shape"
      ints: 3
      ints: 3
    }
    attribute {
      name: "strides"
      ints: 1
      ints: 1
    }
    attribute {
      name: "pads"
      ints: 1
      ints: 1
      ints: 1
      ints: 1
    }
    attribute {
      name: "dilations"
      ints: 1
      ints: 1
    }
    attribute {
      name: "group"
      i: 1
    }
  }
  node {
    input: "1045"
    input: "1055"
    output: "1057"
    op_type: "cat"
    attribute {
      name: "dim"
      i: 1
    }
  }
  node {
    input: "1057"
    input: "377"
    input: "378"
    input: "379"
    input: "380"
    output: "1059"
    op_type: "SpatialBN"
    attribute {
      name: "is_test"
      i: 1
    }
    attribute {
      name: "epsilon"
      f: 9.99999974737875e-06
    }
    attribute {
      name: "momentum"
      f: 0.899999976158142
    }
    attribute {
      name: "consumed_inputs"
      ints: 0
      ints: 0
      ints: 0
      ints: 1
      ints: 1
    }
  }
  node {
    input: "1059"
    output: "1060"
    op_type: "Relu"
  }
  node {
    input: "1060"
    input: "381"
    output: "1062"
    op_type: "Conv"
    attribute {
      name: "kernel_shape"
      ints: 1
      ints: 1
    }
    attribute {
      name: "strides"
      ints: 1
      ints: 1
    }
    attribute {
      name: "pads"
      ints: 0
      ints: 0
      ints: 0
      ints: 0
    }
    attribute {
      name: "dilations"
      ints: 1
      ints: 1
    }
    attribute {
      name: "group"
      i: 1
    }
  }
  node {
    input: "1062"
    input: "382"
    input: "383"
    input: "384"
    input: "385"
    output: "1064"
    op_type: "SpatialBN"
    attribute {
      name: "is_test"
      i: 1
    }
    attribute {
      name: "epsilon"
      f: 9.99999974737875e-06
    }
    attribute {
      name: "momentum"
      f: 0.899999976158142
    }
    attribute {
      name: "consumed_inputs"
      ints: 0
      ints: 0
      ints: 0
      ints: 1
      ints: 1
    }
  }
  node {
    input: "1064"
    output: "1065"
    op_type: "Relu"
  }
  node {
    input: "1065"
    input: "386"
    output: "1067"
    op_type: "Conv"
    attribute {
      name: "kernel_shape"
      ints: 3
      ints: 3
    }
    attribute {
      name: "strides"
      ints: 1
      ints: 1
    }
    attribute {
      name: "pads"
      ints: 1
      ints: 1
      ints: 1
      ints: 1
    }
    attribute {
      name: "dilations"
      ints: 1
      ints: 1
    }
    attribute {
      name: "group"
      i: 1
    }
  }
  node {
    input: "1057"
    input: "1067"
    output: "1069"
    op_type: "cat"
    attribute {
      name: "dim"
      i: 1
    }
  }
  node {
    input: "1069"
    input: "387"
    input: "388"
    input: "389"
    input: "390"
    output: "1071"
    op_type: "SpatialBN"
    attribute {
      name: "is_test"
      i: 1
    }
    attribute {
      name: "epsilon"
      f: 9.99999974737875e-06
    }
    attribute {
      name: "momentum"
      f: 0.899999976158142
    }
    attribute {
      name: "consumed_inputs"
      ints: 0
      ints: 0
      ints: 0
      ints: 1
      ints: 1
    }
  }
  node {
    input: "1071"
    output: "1072"
    op_type: "Relu"
  }
  node {
    input: "1072"
    input: "391"
    output: "1074"
    op_type: "Conv"
    attribute {
      name: "kernel_shape"
      ints: 1
      ints: 1
    }
    attribute {
      name: "strides"
      ints: 1
      ints: 1
    }
    attribute {
      name: "pads"
      ints: 0
      ints: 0
      ints: 0
      ints: 0
    }
    attribute {
      name: "dilations"
      ints: 1
      ints: 1
    }
    attribute {
      name: "group"
      i: 1
    }
  }
  node {
    input: "1074"
    input: "392"
    input: "393"
    input: "394"
    input: "395"
    output: "1076"
    op_type: "SpatialBN"
    attribute {
      name: "is_test"
      i: 1
    }
    attribute {
      name: "epsilon"
      f: 9.99999974737875e-06
    }
    attribute {
      name: "momentum"
      f: 0.899999976158142
    }
    attribute {
      name: "consumed_inputs"
      ints: 0
      ints: 0
      ints: 0
      ints: 1
      ints: 1
    }
  }
  node {
    input: "1076"
    output: "1077"
    op_type: "Relu"
  }
  node {
    input: "1077"
    input: "396"
    output: "1079"
    op_type: "Conv"
    attribute {
      name: "kernel_shape"
      ints: 3
      ints: 3
    }
    attribute {
      name: "strides"
      ints: 1
      ints: 1
    }
    attribute {
      name: "pads"
      ints: 1
      ints: 1
      ints: 1
      ints: 1
    }
    attribute {
      name: "dilations"
      ints: 1
      ints: 1
    }
    attribute {
      name: "group"
      i: 1
    }
  }
  node {
    input: "1069"
    input: "1079"
    output: "1081"
    op_type: "cat"
    attribute {
      name: "dim"
      i: 1
    }
  }
  node {
    input: "1081"
    input: "397"
    input: "398"
    input: "399"
    input: "400"
    output: "1083"
    op_type: "SpatialBN"
    attribute {
      name: "is_test"
      i: 1
    }
    attribute {
      name: "epsilon"
      f: 9.99999974737875e-06
    }
    attribute {
      name: "momentum"
      f: 0.899999976158142
    }
    attribute {
      name: "consumed_inputs"
      ints: 0
      ints: 0
      ints: 0
      ints: 1
      ints: 1
    }
  }
  node {
    input: "1083"
    output: "1084"
    op_type: "Relu"
  }
  node {
    input: "1084"
    input: "401"
    output: "1086"
    op_type: "Conv"
    attribute {
      name: "kernel_shape"
      ints: 1
      ints: 1
    }
    attribute {
      name: "strides"
      ints: 1
      ints: 1
    }
    attribute {
      name: "pads"
      ints: 0
      ints: 0
      ints: 0
      ints: 0
    }
    attribute {
      name: "dilations"
      ints: 1
      ints: 1
    }
    attribute {
      name: "group"
      i: 1
    }
  }
  node {
    input: "1086"
    input: "402"
    input: "403"
    input: "404"
    input: "405"
    output: "1088"
    op_type: "SpatialBN"
    attribute {
      name: "is_test"
      i: 1
    }
    attribute {
      name: "epsilon"
      f: 9.99999974737875e-06
    }
    attribute {
      name: "momentum"
      f: 0.899999976158142
    }
    attribute {
      name: "consumed_inputs"
      ints: 0
      ints: 0
      ints: 0
      ints: 1
      ints: 1
    }
  }
  node {
    input: "1088"
    output: "1089"
    op_type: "Relu"
  }
  node {
    input: "1089"
    input: "406"
    output: "1091"
    op_type: "Conv"
    attribute {
      name: "kernel_shape"
      ints: 3
      ints: 3
    }
    attribute {
      name: "strides"
      ints: 1
      ints: 1
    }
    attribute {
      name: "pads"
      ints: 1
      ints: 1
      ints: 1
      ints: 1
    }
    attribute {
      name: "dilations"
      ints: 1
      ints: 1
    }
    attribute {
      name: "group"
      i: 1
    }
  }
  node {
    input: "1081"
    input: "1091"
    output: "1093"
    op_type: "cat"
    attribute {
      name: "dim"
      i: 1
    }
  }
  node {
    input: "1093"
    input: "407"
    input: "408"
    input: "409"
    input: "410"
    output: "1095"
    op_type: "SpatialBN"
    attribute {
      name: "is_test"
      i: 1
    }
    attribute {
      name: "epsilon"
      f: 9.99999974737875e-06
    }
    attribute {
      name: "momentum"
      f: 0.899999976158142
    }
    attribute {
      name: "consumed_inputs"
      ints: 0
      ints: 0
      ints: 0
      ints: 1
      ints: 1
    }
  }
  node {
    input: "1095"
    output: "1096"
    op_type: "Relu"
  }
  node {
    input: "1096"
    input: "411"
    output: "1098"
    op_type: "Conv"
    attribute {
      name: "kernel_shape"
      ints: 1
      ints: 1
    }
    attribute {
      name: "strides"
      ints: 1
      ints: 1
    }
    attribute {
      name: "pads"
      ints: 0
      ints: 0
      ints: 0
      ints: 0
    }
    attribute {
      name: "dilations"
      ints: 1
      ints: 1
    }
    attribute {
      name: "group"
      i: 1
    }
  }
  node {
    input: "1098"
    input: "412"
    input: "413"
    input: "414"
    input: "415"
    output: "1100"
    op_type: "SpatialBN"
    attribute {
      name: "is_test"
      i: 1
    }
    attribute {
      name: "epsilon"
      f: 9.99999974737875e-06
    }
    attribute {
      name: "momentum"
      f: 0.899999976158142
    }
    attribute {
      name: "consumed_inputs"
      ints: 0
      ints: 0
      ints: 0
      ints: 1
      ints: 1
    }
  }
  node {
    input: "1100"
    output: "1101"
    op_type: "Relu"
  }
  node {
    input: "1101"
    input: "416"
    output: "1103"
    op_type: "Conv"
    attribute {
      name: "kernel_shape"
      ints: 3
      ints: 3
    }
    attribute {
      name: "strides"
      ints: 1
      ints: 1
    }
    attribute {
      name: "pads"
      ints: 1
      ints: 1
      ints: 1
      ints: 1
    }
    attribute {
      name: "dilations"
      ints: 1
      ints: 1
    }
    attribute {
      name: "group"
      i: 1
    }
  }
  node {
    input: "1093"
    input: "1103"
    output: "1105"
    op_type: "cat"
    attribute {
      name: "dim"
      i: 1
    }
  }
  node {
    input: "1105"
    input: "417"
    input: "418"
    input: "419"
    input: "420"
    output: "1107"
    op_type: "SpatialBN"
    attribute {
      name: "is_test"
      i: 1
    }
    attribute {
      name: "epsilon"
      f: 9.99999974737875e-06
    }
    attribute {
      name: "momentum"
      f: 0.899999976158142
    }
    attribute {
      name: "consumed_inputs"
      ints: 0
      ints: 0
      ints: 0
      ints: 1
      ints: 1
    }
  }
  node {
    input: "1107"
    output: "1108"
    op_type: "Relu"
  }
  node {
    input: "1108"
    input: "421"
    output: "1110"
    op_type: "Conv"
    attribute {
      name: "kernel_shape"
      ints: 1
      ints: 1
    }
    attribute {
      name: "strides"
      ints: 1
      ints: 1
    }
    attribute {
      name: "pads"
      ints: 0
      ints: 0
      ints: 0
      ints: 0
    }
    attribute {
      name: "dilations"
      ints: 1
      ints: 1
    }
    attribute {
      name: "group"
      i: 1
    }
  }
  node {
    input: "1110"
    input: "422"
    input: "423"
    input: "424"
    input: "425"
    output: "1112"
    op_type: "SpatialBN"
    attribute {
      name: "is_test"
      i: 1
    }
    attribute {
      name: "epsilon"
      f: 9.99999974737875e-06
    }
    attribute {
      name: "momentum"
      f: 0.899999976158142
    }
    attribute {
      name: "consumed_inputs"
      ints: 0
      ints: 0
      ints: 0
      ints: 1
      ints: 1
    }
  }
  node {
    input: "1112"
    output: "1113"
    op_type: "Relu"
  }
  node {
    input: "1113"
    input: "426"
    output: "1115"
    op_type: "Conv"
    attribute {
      name: "kernel_shape"
      ints: 3
      ints: 3
    }
    attribute {
      name: "strides"
      ints: 1
      ints: 1
    }
    attribute {
      name: "pads"
      ints: 1
      ints: 1
      ints: 1
      ints: 1
    }
    attribute {
      name: "dilations"
      ints: 1
      ints: 1
    }
    attribute {
      name: "group"
      i: 1
    }
  }
  node {
    input: "1105"
    input: "1115"
    output: "1117"
    op_type: "cat"
    attribute {
      name: "dim"
      i: 1
    }
  }
  node {
    input: "1117"
    input: "427"
    input: "428"
    input: "429"
    input: "430"
    output: "1119"
    op_type: "SpatialBN"
    attribute {
      name: "is_test"
      i: 1
    }
    attribute {
      name: "epsilon"
      f: 9.99999974737875e-06
    }
    attribute {
      name: "momentum"
      f: 0.899999976158142
    }
    attribute {
      name: "consumed_inputs"
      ints: 0
      ints: 0
      ints: 0
      ints: 1
      ints: 1
    }
  }
  node {
    input: "1119"
    output: "1120"
    op_type: "Relu"
  }
  node {
    input: "1120"
    input: "431"
    output: "1122"
    op_type: "Conv"
    attribute {
      name: "kernel_shape"
      ints: 1
      ints: 1
    }
    attribute {
      name: "strides"
      ints: 1
      ints: 1
    }
    attribute {
      name: "pads"
      ints: 0
      ints: 0
      ints: 0
      ints: 0
    }
    attribute {
      name: "dilations"
      ints: 1
      ints: 1
    }
    attribute {
      name: "group"
      i: 1
    }
  }
  node {
    input: "1122"
    input: "432"
    input: "433"
    input: "434"
    input: "435"
    output: "1124"
    op_type: "SpatialBN"
    attribute {
      name: "is_test"
      i: 1
    }
    attribute {
      name: "epsilon"
      f: 9.99999974737875e-06
    }
    attribute {
      name: "momentum"
      f: 0.899999976158142
    }
    attribute {
      name: "consumed_inputs"
      ints: 0
      ints: 0
      ints: 0
      ints: 1
      ints: 1
    }
  }
  node {
    input: "1124"
    output: "1125"
    op_type: "Relu"
  }
  node {
    input: "1125"
    input: "436"
    output: "1127"
    op_type: "Conv"
    attribute {
      name: "kernel_shape"
      ints: 3
      ints: 3
    }
    attribute {
      name: "strides"
      ints: 1
      ints: 1
    }
    attribute {
      name: "pads"
      ints: 1
      ints: 1
      ints: 1
      ints: 1
    }
    attribute {
      name: "dilations"
      ints: 1
      ints: 1
    }
    attribute {
      name: "group"
      i: 1
    }
  }
  node {
    input: "1117"
    input: "1127"
    output: "1129"
    op_type: "cat"
    attribute {
      name: "dim"
      i: 1
    }
  }
  node {
    input: "1129"
    input: "437"
    input: "438"
    input: "439"
    input: "440"
    output: "1131"
    op_type: "SpatialBN"
    attribute {
      name: "is_test"
      i: 1
    }
    attribute {
      name: "epsilon"
      f: 9.99999974737875e-06
    }
    attribute {
      name: "momentum"
      f: 0.899999976158142
    }
    attribute {
      name: "consumed_inputs"
      ints: 0
      ints: 0
      ints: 0
      ints: 1
      ints: 1
    }
  }
  node {
    input: "1131"
    output: "1132"
    op_type: "Relu"
  }
  node {
    input: "1132"
    input: "441"
    output: "1134"
    op_type: "Conv"
    attribute {
      name: "kernel_shape"
      ints: 1
      ints: 1
    }
    attribute {
      name: "strides"
      ints: 1
      ints: 1
    }
    attribute {
      name: "pads"
      ints: 0
      ints: 0
      ints: 0
      ints: 0
    }
    attribute {
      name: "dilations"
      ints: 1
      ints: 1
    }
    attribute {
      name: "group"
      i: 1
    }
  }
  node {
    input: "1134"
    output: "1135"
    op_type: "AveragePool"
    attribute {
      name: "kernel_shape"
      ints: 2
      ints: 2
    }
    attribute {
      name: "pads"
      ints: 0
      ints: 0
    }
    attribute {
      name: "strides"
      ints: 2
      ints: 2
    }
  }
  node {
    input: "1135"
    input: "442"
    input: "443"
    input: "444"
    input: "445"
    output: "1137"
    op_type: "SpatialBN"
    attribute {
      name: "is_test"
      i: 1
    }
    attribute {
      name: "epsilon"
      f: 9.99999974737875e-06
    }
    attribute {
      name: "momentum"
      f: 0.899999976158142
    }
    attribute {
      name: "consumed_inputs"
      ints: 0
      ints: 0
      ints: 0
      ints: 1
      ints: 1
    }
  }
  node {
    input: "1137"
    output: "1138"
    op_type: "Relu"
  }
  node {
    input: "1138"
    input: "446"
    output: "1140"
    op_type: "Conv"
    attribute {
      name: "kernel_shape"
      ints: 1
      ints: 1
    }
    attribute {
      name: "strides"
      ints: 1
      ints: 1
    }
    attribute {
      name: "pads"
      ints: 0
      ints: 0
      ints: 0
      ints: 0
    }
    attribute {
      name: "dilations"
      ints: 1
      ints: 1
    }
    attribute {
      name: "group"
      i: 1
    }
  }
  node {
    input: "1140"
    input: "447"
    input: "448"
    input: "449"
    input: "450"
    output: "1142"
    op_type: "SpatialBN"
    attribute {
      name: "is_test"
      i: 1
    }
    attribute {
      name: "epsilon"
      f: 9.99999974737875e-06
    }
    attribute {
      name: "momentum"
      f: 0.899999976158142
    }
    attribute {
      name: "consumed_inputs"
      ints: 0
      ints: 0
      ints: 0
      ints: 1
      ints: 1
    }
  }
  node {
    input: "1142"
    output: "1143"
    op_type: "Relu"
  }
  node {
    input: "1143"
    input: "451"
    output: "1145"
    op_type: "Conv"
    attribute {
      name: "kernel_shape"
      ints: 3
      ints: 3
    }
    attribute {
      name: "strides"
      ints: 1
      ints: 1
    }
    attribute {
      name: "pads"
      ints: 1
      ints: 1
      ints: 1
      ints: 1
    }
    attribute {
      name: "dilations"
      ints: 1
      ints: 1
    }
    attribute {
      name: "group"
      i: 1
    }
  }
  node {
    input: "1135"
    input: "1145"
    output: "1147"
    op_type: "cat"
    attribute {
      name: "dim"
      i: 1
    }
  }
  node {
    input: "1147"
    input: "452"
    input: "453"
    input: "454"
    input: "455"
    output: "1149"
    op_type: "SpatialBN"
    attribute {
      name: "is_test"
      i: 1
    }
    attribute {
      name: "epsilon"
      f: 9.99999974737875e-06
    }
    attribute {
      name: "momentum"
      f: 0.899999976158142
    }
    attribute {
      name: "consumed_inputs"
      ints: 0
      ints: 0
      ints: 0
      ints: 1
      ints: 1
    }
  }
  node {
    input: "1149"
    output: "1150"
    op_type: "Relu"
  }
  node {
    input: "1150"
    input: "456"
    output: "1152"
    op_type: "Conv"
    attribute {
      name: "kernel_shape"
      ints: 1
      ints: 1
    }
    attribute {
      name: "strides"
      ints: 1
      ints: 1
    }
    attribute {
      name: "pads"
      ints: 0
      ints: 0
      ints: 0
      ints: 0
    }
    attribute {
      name: "dilations"
      ints: 1
      ints: 1
    }
    attribute {
      name: "group"
      i: 1
    }
  }
  node {
    input: "1152"
    input: "457"
    input: "458"
    input: "459"
    input: "460"
    output: "1154"
    op_type: "SpatialBN"
    attribute {
      name: "is_test"
      i: 1
    }
    attribute {
      name: "epsilon"
      f: 9.99999974737875e-06
    }
    attribute {
      name: "momentum"
      f: 0.899999976158142
    }
    attribute {
      name: "consumed_inputs"
      ints: 0
      ints: 0
      ints: 0
      ints: 1
      ints: 1
    }
  }
  node {
    input: "1154"
    output: "1155"
    op_type: "Relu"
  }
  node {
    input: "1155"
    input: "461"
    output: "1157"
    op_type: "Conv"
    attribute {
      name: "kernel_shape"
      ints: 3
      ints: 3
    }
    attribute {
      name: "strides"
      ints: 1
      ints: 1
    }
    attribute {
      name: "pads"
      ints: 1
      ints: 1
      ints: 1
      ints: 1
    }
    attribute {
      name: "dilations"
      ints: 1
      ints: 1
    }
    attribute {
      name: "group"
      i: 1
    }
  }
  node {
    input: "1147"
    input: "1157"
    output: "1159"
    op_type: "cat"
    attribute {
      name: "dim"
      i: 1
    }
  }
  node {
    input: "1159"
    input: "462"
    input: "463"
    input: "464"
    input: "465"
    output: "1161"
    op_type: "SpatialBN"
    attribute {
      name: "is_test"
      i: 1
    }
    attribute {
      name: "epsilon"
      f: 9.99999974737875e-06
    }
    attribute {
      name: "momentum"
      f: 0.899999976158142
    }
    attribute {
      name: "consumed_inputs"
      ints: 0
      ints: 0
      ints: 0
      ints: 1
      ints: 1
    }
  }
  node {
    input: "1161"
    output: "1162"
    op_type: "Relu"
  }
  node {
    input: "1162"
    input: "466"
    output: "1164"
    op_type: "Conv"
    attribute {
      name: "kernel_shape"
      ints: 1
      ints: 1
    }
    attribute {
      name: "strides"
      ints: 1
      ints: 1
    }
    attribute {
      name: "pads"
      ints: 0
      ints: 0
      ints: 0
      ints: 0
    }
    attribute {
      name: "dilations"
      ints: 1
      ints: 1
    }
    attribute {
      name: "group"
      i: 1
    }
  }
  node {
    input: "1164"
    input: "467"
    input: "468"
    input: "469"
    input: "470"
    output: "1166"
    op_type: "SpatialBN"
    attribute {
      name: "is_test"
      i: 1
    }
    attribute {
      name: "epsilon"
      f: 9.99999974737875e-06
    }
    attribute {
      name: "momentum"
      f: 0.899999976158142
    }
    attribute {
      name: "consumed_inputs"
      ints: 0
      ints: 0
      ints: 0
      ints: 1
      ints: 1
    }
  }
  node {
    input: "1166"
    output: "1167"
    op_type: "Relu"
  }
  node {
    input: "1167"
    input: "471"
    output: "1169"
    op_type: "Conv"
    attribute {
      name: "kernel_shape"
      ints: 3
      ints: 3
    }
    attribute {
      name: "strides"
      ints: 1
      ints: 1
    }
    attribute {
      name: "pads"
      ints: 1
      ints: 1
      ints: 1
      ints: 1
    }
    attribute {
      name: "dilations"
      ints: 1
      ints: 1
    }
    attribute {
      name: "group"
      i: 1
    }
  }
  node {
    input: "1159"
    input: "1169"
    output: "1171"
    op_type: "cat"
    attribute {
      name: "dim"
      i: 1
    }
  }
  node {
    input: "1171"
    input: "472"
    input: "473"
    input: "474"
    input: "475"
    output: "1173"
    op_type: "SpatialBN"
    attribute {
      name: "is_test"
      i: 1
    }
    attribute {
      name: "epsilon"
      f: 9.99999974737875e-06
    }
    attribute {
      name: "momentum"
      f: 0.899999976158142
    }
    attribute {
      name: "consumed_inputs"
      ints: 0
      ints: 0
      ints: 0
      ints: 1
      ints: 1
    }
  }
  node {
    input: "1173"
    output: "1174"
    op_type: "Relu"
  }
  node {
    input: "1174"
    input: "476"
    output: "1176"
    op_type: "Conv"
    attribute {
      name: "kernel_shape"
      ints: 1
      ints: 1
    }
    attribute {
      name: "strides"
      ints: 1
      ints: 1
    }
    attribute {
      name: "pads"
      ints: 0
      ints: 0
      ints: 0
      ints: 0
    }
    attribute {
      name: "dilations"
      ints: 1
      ints: 1
    }
    attribute {
      name: "group"
      i: 1
    }
  }
  node {
    input: "1176"
    input: "477"
    input: "478"
    input: "479"
    input: "480"
    output: "1178"
    op_type: "SpatialBN"
    attribute {
      name: "is_test"
      i: 1
    }
    attribute {
      name: "epsilon"
      f: 9.99999974737875e-06
    }
    attribute {
      name: "momentum"
      f: 0.899999976158142
    }
    attribute {
      name: "consumed_inputs"
      ints: 0
      ints: 0
      ints: 0
      ints: 1
      ints: 1
    }
  }
  node {
    input: "1178"
    output: "1179"
    op_type: "Relu"
  }
  node {
    input: "1179"
    input: "481"
    output: "1181"
    op_type: "Conv"
    attribute {
      name: "kernel_shape"
      ints: 3
      ints: 3
    }
    attribute {
      name: "strides"
      ints: 1
      ints: 1
    }
    attribute {
      name: "pads"
      ints: 1
      ints: 1
      ints: 1
      ints: 1
    }
    attribute {
      name: "dilations"
      ints: 1
      ints: 1
    }
    attribute {
      name: "group"
      i: 1
    }
  }
  node {
    input: "1171"
    input: "1181"
    output: "1183"
    op_type: "cat"
    attribute {
      name: "dim"
      i: 1
    }
  }
  node {
    input: "1183"
    input: "482"
    input: "483"
    input: "484"
    input: "485"
    output: "1185"
    op_type: "SpatialBN"
    attribute {
      name: "is_test"
      i: 1
    }
    attribute {
      name: "epsilon"
      f: 9.99999974737875e-06
    }
    attribute {
      name: "momentum"
      f: 0.899999976158142
    }
    attribute {
      name: "consumed_inputs"
      ints: 0
      ints: 0
      ints: 0
      ints: 1
      ints: 1
    }
  }
  node {
    input: "1185"
    output: "1186"
    op_type: "Relu"
  }
  node {
    input: "1186"
    input: "486"
    output: "1188"
    op_type: "Conv"
    attribute {
      name: "kernel_shape"
      ints: 1
      ints: 1
    }
    attribute {
      name: "strides"
      ints: 1
      ints: 1
    }
    attribute {
      name: "pads"
      ints: 0
      ints: 0
      ints: 0
      ints: 0
    }
    attribute {
      name: "dilations"
      ints: 1
      ints: 1
    }
    attribute {
      name: "group"
      i: 1
    }
  }
  node {
    input: "1188"
    input: "487"
    input: "488"
    input: "489"
    input: "490"
    output: "1190"
    op_type: "SpatialBN"
    attribute {
      name: "is_test"
      i: 1
    }
    attribute {
      name: "epsilon"
      f: 9.99999974737875e-06
    }
    attribute {
      name: "momentum"
      f: 0.899999976158142
    }
    attribute {
      name: "consumed_inputs"
      ints: 0
      ints: 0
      ints: 0
      ints: 1
      ints: 1
    }
  }
  node {
    input: "1190"
    output: "1191"
    op_type: "Relu"
  }
  node {
    input: "1191"
    input: "491"
    output: "1193"
    op_type: "Conv"
    attribute {
      name: "kernel_shape"
      ints: 3
      ints: 3
    }
    attribute {
      name: "strides"
      ints: 1
      ints: 1
    }
    attribute {
      name: "pads"
      ints: 1
      ints: 1
      ints: 1
      ints: 1
    }
    attribute {
      name: "dilations"
      ints: 1
      ints: 1
    }
    attribute {
      name: "group"
      i: 1
    }
  }
  node {
    input: "1183"
    input: "1193"
    output: "1195"
    op_type: "cat"
    attribute {
      name: "dim"
      i: 1
    }
  }
  node {
    input: "1195"
    input: "492"
    input: "493"
    input: "494"
    input: "495"
    output: "1197"
    op_type: "SpatialBN"
    attribute {
      name: "is_test"
      i: 1
    }
    attribute {
      name: "epsilon"
      f: 9.99999974737875e-06
    }
    attribute {
      name: "momentum"
      f: 0.899999976158142
    }
    attribute {
      name: "consumed_inputs"
      ints: 0
      ints: 0
      ints: 0
      ints: 1
      ints: 1
    }
  }
  node {
    input: "1197"
    output: "1198"
    op_type: "Relu"
  }
  node {
    input: "1198"
    input: "496"
    output: "1200"
    op_type: "Conv"
    attribute {
      name: "kernel_shape"
      ints: 1
      ints: 1
    }
    attribute {
      name: "strides"
      ints: 1
      ints: 1
    }
    attribute {
      name: "pads"
      ints: 0
      ints: 0
      ints: 0
      ints: 0
    }
    attribute {
      name: "dilations"
      ints: 1
      ints: 1
    }
    attribute {
      name: "group"
      i: 1
    }
  }
  node {
    input: "1200"
    input: "497"
    input: "498"
    input: "499"
    input: "500"
    output: "1202"
    op_type: "SpatialBN"
    attribute {
      name: "is_test"
      i: 1
    }
    attribute {
      name: "epsilon"
      f: 9.99999974737875e-06
    }
    attribute {
      name: "momentum"
      f: 0.899999976158142
    }
    attribute {
      name: "consumed_inputs"
      ints: 0
      ints: 0
      ints: 0
      ints: 1
      ints: 1
    }
  }
  node {
    input: "1202"
    output: "1203"
    op_type: "Relu"
  }
  node {
    input: "1203"
    input: "501"
    output: "1205"
    op_type: "Conv"
    attribute {
      name: "kernel_shape"
      ints: 3
      ints: 3
    }
    attribute {
      name: "strides"
      ints: 1
      ints: 1
    }
    attribute {
      name: "pads"
      ints: 1
      ints: 1
      ints: 1
      ints: 1
    }
    attribute {
      name: "dilations"
      ints: 1
      ints: 1
    }
    attribute {
      name: "group"
      i: 1
    }
  }
  node {
    input: "1195"
    input: "1205"
    output: "1207"
    op_type: "cat"
    attribute {
      name: "dim"
      i: 1
    }
  }
  node {
    input: "1207"
    input: "502"
    input: "503"
    input: "504"
    input: "505"
    output: "1209"
    op_type: "SpatialBN"
    attribute {
      name: "is_test"
      i: 1
    }
    attribute {
      name: "epsilon"
      f: 9.99999974737875e-06
    }
    attribute {
      name: "momentum"
      f: 0.899999976158142
    }
    attribute {
      name: "consumed_inputs"
      ints: 0
      ints: 0
      ints: 0
      ints: 1
      ints: 1
    }
  }
  node {
    input: "1209"
    output: "1210"
    op_type: "Relu"
  }
  node {
    input: "1210"
    input: "506"
    output: "1212"
    op_type: "Conv"
    attribute {
      name: "kernel_shape"
      ints: 1
      ints: 1
    }
    attribute {
      name: "strides"
      ints: 1
      ints: 1
    }
    attribute {
      name: "pads"
      ints: 0
      ints: 0
      ints: 0
      ints: 0
    }
    attribute {
      name: "dilations"
      ints: 1
      ints: 1
    }
    attribute {
      name: "group"
      i: 1
    }
  }
  node {
    input: "1212"
    input: "507"
    input: "508"
    input: "509"
    input: "510"
    output: "1214"
    op_type: "SpatialBN"
    attribute {
      name: "is_test"
      i: 1
    }
    attribute {
      name: "epsilon"
      f: 9.99999974737875e-06
    }
    attribute {
      name: "momentum"
      f: 0.899999976158142
    }
    attribute {
      name: "consumed_inputs"
      ints: 0
      ints: 0
      ints: 0
      ints: 1
      ints: 1
    }
  }
  node {
    input: "1214"
    output: "1215"
    op_type: "Relu"
  }
  node {
    input: "1215"
    input: "511"
    output: "1217"
    op_type: "Conv"
    attribute {
      name: "kernel_shape"
      ints: 3
      ints: 3
    }
    attribute {
      name: "strides"
      ints: 1
      ints: 1
    }
    attribute {
      name: "pads"
      ints: 1
      ints: 1
      ints: 1
      ints: 1
    }
    attribute {
      name: "dilations"
      ints: 1
      ints: 1
    }
    attribute {
      name: "group"
      i: 1
    }
  }
  node {
    input: "1207"
    input: "1217"
    output: "1219"
    op_type: "cat"
    attribute {
      name: "dim"
      i: 1
    }
  }
  node {
    input: "1219"
    input: "512"
    input: "513"
    input: "514"
    input: "515"
    output: "1221"
    op_type: "SpatialBN"
    attribute {
      name: "is_test"
      i: 1
    }
    attribute {
      name: "epsilon"
      f: 9.99999974737875e-06
    }
    attribute {
      name: "momentum"
      f: 0.899999976158142
    }
    attribute {
      name: "consumed_inputs"
      ints: 0
      ints: 0
      ints: 0
      ints: 1
      ints: 1
    }
  }
  node {
    input: "1221"
    output: "1222"
    op_type: "Relu"
  }
  node {
    input: "1222"
    input: "516"
    output: "1224"
    op_type: "Conv"
    attribute {
      name: "kernel_shape"
      ints: 1
      ints: 1
    }
    attribute {
      name: "strides"
      ints: 1
      ints: 1
    }
    attribute {
      name: "pads"
      ints: 0
      ints: 0
      ints: 0
      ints: 0
    }
    attribute {
      name: "dilations"
      ints: 1
      ints: 1
    }
    attribute {
      name: "group"
      i: 1
    }
  }
  node {
    input: "1224"
    input: "517"
    input: "518"
    input: "519"
    input: "520"
    output: "1226"
    op_type: "SpatialBN"
    attribute {
      name: "is_test"
      i: 1
    }
    attribute {
      name: "epsilon"
      f: 9.99999974737875e-06
    }
    attribute {
      name: "momentum"
      f: 0.899999976158142
    }
    attribute {
      name: "consumed_inputs"
      ints: 0
      ints: 0
      ints: 0
      ints: 1
      ints: 1
    }
  }
  node {
    input: "1226"
    output: "1227"
    op_type: "Relu"
  }
  node {
    input: "1227"
    input: "521"
    output: "1229"
    op_type: "Conv"
    attribute {
      name: "kernel_shape"
      ints: 3
      ints: 3
    }
    attribute {
      name: "strides"
      ints: 1
      ints: 1
    }
    attribute {
      name: "pads"
      ints: 1
      ints: 1
      ints: 1
      ints: 1
    }
    attribute {
      name: "dilations"
      ints: 1
      ints: 1
    }
    attribute {
      name: "group"
      i: 1
    }
  }
  node {
    input: "1219"
    input: "1229"
    output: "1231"
    op_type: "cat"
    attribute {
      name: "dim"
      i: 1
    }
  }
  node {
    input: "1231"
    input: "522"
    input: "523"
    input: "524"
    input: "525"
    output: "1233"
    op_type: "SpatialBN"
    attribute {
      name: "is_test"
      i: 1
    }
    attribute {
      name: "epsilon"
      f: 9.99999974737875e-06
    }
    attribute {
      name: "momentum"
      f: 0.899999976158142
    }
    attribute {
      name: "consumed_inputs"
      ints: 0
      ints: 0
      ints: 0
      ints: 1
      ints: 1
    }
  }
  node {
    input: "1233"
    output: "1234"
    op_type: "Relu"
  }
  node {
    input: "1234"
    input: "526"
    output: "1236"
    op_type: "Conv"
    attribute {
      name: "kernel_shape"
      ints: 1
      ints: 1
    }
    attribute {
      name: "strides"
      ints: 1
      ints: 1
    }
    attribute {
      name: "pads"
      ints: 0
      ints: 0
      ints: 0
      ints: 0
    }
    attribute {
      name: "dilations"
      ints: 1
      ints: 1
    }
    attribute {
      name: "group"
      i: 1
    }
  }
  node {
    input: "1236"
    input: "527"
    input: "528"
    input: "529"
    input: "530"
    output: "1238"
    op_type: "SpatialBN"
    attribute {
      name: "is_test"
      i: 1
    }
    attribute {
      name: "epsilon"
      f: 9.99999974737875e-06
    }
    attribute {
      name: "momentum"
      f: 0.899999976158142
    }
    attribute {
      name: "consumed_inputs"
      ints: 0
      ints: 0
      ints: 0
      ints: 1
      ints: 1
    }
  }
  node {
    input: "1238"
    output: "1239"
    op_type: "Relu"
  }
  node {
    input: "1239"
    input: "531"
    output: "1241"
    op_type: "Conv"
    attribute {
      name: "kernel_shape"
      ints: 3
      ints: 3
    }
    attribute {
      name: "strides"
      ints: 1
      ints: 1
    }
    attribute {
      name: "pads"
      ints: 1
      ints: 1
      ints: 1
      ints: 1
    }
    attribute {
      name: "dilations"
      ints: 1
      ints: 1
    }
    attribute {
      name: "group"
      i: 1
    }
  }
  node {
    input: "1231"
    input: "1241"
    output: "1243"
    op_type: "cat"
    attribute {
      name: "dim"
      i: 1
    }
  }
  node {
    input: "1243"
    input: "532"
    input: "533"
    input: "534"
    input: "535"
    output: "1245"
    op_type: "SpatialBN"
    attribute {
      name: "is_test"
      i: 1
    }
    attribute {
      name: "epsilon"
      f: 9.99999974737875e-06
    }
    attribute {
      name: "momentum"
      f: 0.899999976158142
    }
    attribute {
      name: "consumed_inputs"
      ints: 0
      ints: 0
      ints: 0
      ints: 1
      ints: 1
    }
  }
  node {
    input: "1245"
    output: "1246"
    op_type: "Relu"
  }
  node {
    input: "1246"
    input: "536"
    output: "1248"
    op_type: "Conv"
    attribute {
      name: "kernel_shape"
      ints: 1
      ints: 1
    }
    attribute {
      name: "strides"
      ints: 1
      ints: 1
    }
    attribute {
      name: "pads"
      ints: 0
      ints: 0
      ints: 0
      ints: 0
    }
    attribute {
      name: "dilations"
      ints: 1
      ints: 1
    }
    attribute {
      name: "group"
      i: 1
    }
  }
  node {
    input: "1248"
    input: "537"
    input: "538"
    input: "539"
    input: "540"
    output: "1250"
    op_type: "SpatialBN"
    attribute {
      name: "is_test"
      i: 1
    }
    attribute {
      name: "epsilon"
      f: 9.99999974737875e-06
    }
    attribute {
      name: "momentum"
      f: 0.899999976158142
    }
    attribute {
      name: "consumed_inputs"
      ints: 0
      ints: 0
      ints: 0
      ints: 1
      ints: 1
    }
  }
  node {
    input: "1250"
    output: "1251"
    op_type: "Relu"
  }
  node {
    input: "1251"
    input: "541"
    output: "1253"
    op_type: "Conv"
    attribute {
      name: "kernel_shape"
      ints: 3
      ints: 3
    }
    attribute {
      name: "strides"
      ints: 1
      ints: 1
    }
    attribute {
      name: "pads"
      ints: 1
      ints: 1
      ints: 1
      ints: 1
    }
    attribute {
      name: "dilations"
      ints: 1
      ints: 1
    }
    attribute {
      name: "group"
      i: 1
    }
  }
  node {
    input: "1243"
    input: "1253"
    output: "1255"
    op_type: "cat"
    attribute {
      name: "dim"
      i: 1
    }
  }
  node {
    input: "1255"
    input: "542"
    input: "543"
    input: "544"
    input: "545"
    output: "1257"
    op_type: "SpatialBN"
    attribute {
      name: "is_test"
      i: 1
    }
    attribute {
      name: "epsilon"
      f: 9.99999974737875e-06
    }
    attribute {
      name: "momentum"
      f: 0.899999976158142
    }
    attribute {
      name: "consumed_inputs"
      ints: 0
      ints: 0
      ints: 0
      ints: 1
      ints: 1
    }
  }
  node {
    input: "1257"
    output: "1258"
    op_type: "Relu"
  }
  node {
    input: "1258"
    input: "546"
    output: "1260"
    op_type: "Conv"
    attribute {
      name: "kernel_shape"
      ints: 1
      ints: 1
    }
    attribute {
      name: "strides"
      ints: 1
      ints: 1
    }
    attribute {
      name: "pads"
      ints: 0
      ints: 0
      ints: 0
      ints: 0
    }
    attribute {
      name: "dilations"
      ints: 1
      ints: 1
    }
    attribute {
      name: "group"
      i: 1
    }
  }
  node {
    input: "1260"
    input: "547"
    input: "548"
    input: "549"
    input: "550"
    output: "1262"
    op_type: "SpatialBN"
    attribute {
      name: "is_test"
      i: 1
    }
    attribute {
      name: "epsilon"
      f: 9.99999974737875e-06
    }
    attribute {
      name: "momentum"
      f: 0.899999976158142
    }
    attribute {
      name: "consumed_inputs"
      ints: 0
      ints: 0
      ints: 0
      ints: 1
      ints: 1
    }
  }
  node {
    input: "1262"
    output: "1263"
    op_type: "Relu"
  }
  node {
    input: "1263"
    input: "551"
    output: "1265"
    op_type: "Conv"
    attribute {
      name: "kernel_shape"
      ints: 3
      ints: 3
    }
    attribute {
      name: "strides"
      ints: 1
      ints: 1
    }
    attribute {
      name: "pads"
      ints: 1
      ints: 1
      ints: 1
      ints: 1
    }
    attribute {
      name: "dilations"
      ints: 1
      ints: 1
    }
    attribute {
      name: "group"
      i: 1
    }
  }
  node {
    input: "1255"
    input: "1265"
    output: "1267"
    op_type: "cat"
    attribute {
      name: "dim"
      i: 1
    }
  }
  node {
    input: "1267"
    input: "552"
    input: "553"
    input: "554"
    input: "555"
    output: "1269"
    op_type: "SpatialBN"
    attribute {
      name: "is_test"
      i: 1
    }
    attribute {
      name: "epsilon"
      f: 9.99999974737875e-06
    }
    attribute {
      name: "momentum"
      f: 0.899999976158142
    }
    attribute {
      name: "consumed_inputs"
      ints: 0
      ints: 0
      ints: 0
      ints: 1
      ints: 1
    }
  }
  node {
    input: "1269"
    output: "1270"
    op_type: "Relu"
  }
  node {
    input: "1270"
    input: "556"
    output: "1272"
    op_type: "Conv"
    attribute {
      name: "kernel_shape"
      ints: 1
      ints: 1
    }
    attribute {
      name: "strides"
      ints: 1
      ints: 1
    }
    attribute {
      name: "pads"
      ints: 0
      ints: 0
      ints: 0
      ints: 0
    }
    attribute {
      name: "dilations"
      ints: 1
      ints: 1
    }
    attribute {
      name: "group"
      i: 1
    }
  }
  node {
    input: "1272"
    input: "557"
    input: "558"
    input: "559"
    input: "560"
    output: "1274"
    op_type: "SpatialBN"
    attribute {
      name: "is_test"
      i: 1
    }
    attribute {
      name: "epsilon"
      f: 9.99999974737875e-06
    }
    attribute {
      name: "momentum"
      f: 0.899999976158142
    }
    attribute {
      name: "consumed_inputs"
      ints: 0
      ints: 0
      ints: 0
      ints: 1
      ints: 1
    }
  }
  node {
    input: "1274"
    output: "1275"
    op_type: "Relu"
  }
  node {
    input: "1275"
    input: "561"
    output: "1277"
    op_type: "Conv"
    attribute {
      name: "kernel_shape"
      ints: 3
      ints: 3
    }
    attribute {
      name: "strides"
      ints: 1
      ints: 1
    }
    attribute {
      name: "pads"
      ints: 1
      ints: 1
      ints: 1
      ints: 1
    }
    attribute {
      name: "dilations"
      ints: 1
      ints: 1
    }
    attribute {
      name: "group"
      i: 1
    }
  }
  node {
    input: "1267"
    input: "1277"
    output: "1279"
    op_type: "cat"
    attribute {
      name: "dim"
      i: 1
    }
  }
  node {
    input: "1279"
    input: "562"
    input: "563"
    input: "564"
    input: "565"
    output: "1281"
    op_type: "SpatialBN"
    attribute {
      name: "is_test"
      i: 1
    }
    attribute {
      name: "epsilon"
      f: 9.99999974737875e-06
    }
    attribute {
      name: "momentum"
      f: 0.899999976158142
    }
    attribute {
      name: "consumed_inputs"
      ints: 0
      ints: 0
      ints: 0
      ints: 1
      ints: 1
    }
  }
  node {
    input: "1281"
    output: "1282"
    op_type: "Relu"
  }
  node {
    input: "1282"
    input: "566"
    output: "1284"
    op_type: "Conv"
    attribute {
      name: "kernel_shape"
      ints: 1
      ints: 1
    }
    attribute {
      name: "strides"
      ints: 1
      ints: 1
    }
    attribute {
      name: "pads"
      ints: 0
      ints: 0
      ints: 0
      ints: 0
    }
    attribute {
      name: "dilations"
      ints: 1
      ints: 1
    }
    attribute {
      name: "group"
      i: 1
    }
  }
  node {
    input: "1284"
    input: "567"
    input: "568"
    input: "569"
    input: "570"
    output: "1286"
    op_type: "SpatialBN"
    attribute {
      name: "is_test"
      i: 1
    }
    attribute {
      name: "epsilon"
      f: 9.99999974737875e-06
    }
    attribute {
      name: "momentum"
      f: 0.899999976158142
    }
    attribute {
      name: "consumed_inputs"
      ints: 0
      ints: 0
      ints: 0
      ints: 1
      ints: 1
    }
  }
  node {
    input: "1286"
    output: "1287"
    op_type: "Relu"
  }
  node {
    input: "1287"
    input: "571"
    output: "1289"
    op_type: "Conv"
    attribute {
      name: "kernel_shape"
      ints: 3
      ints: 3
    }
    attribute {
      name: "strides"
      ints: 1
      ints: 1
    }
    attribute {
      name: "pads"
      ints: 1
      ints: 1
      ints: 1
      ints: 1
    }
    attribute {
      name: "dilations"
      ints: 1
      ints: 1
    }
    attribute {
      name: "group"
      i: 1
    }
  }
  node {
    input: "1279"
    input: "1289"
    output: "1291"
    op_type: "cat"
    attribute {
      name: "dim"
      i: 1
    }
  }
  node {
    input: "1291"
    input: "572"
    input: "573"
    input: "574"
    input: "575"
    output: "1293"
    op_type: "SpatialBN"
    attribute {
      name: "is_test"
      i: 1
    }
    attribute {
      name: "epsilon"
      f: 9.99999974737875e-06
    }
    attribute {
      name: "momentum"
      f: 0.899999976158142
    }
    attribute {
      name: "consumed_inputs"
      ints: 0
      ints: 0
      ints: 0
      ints: 1
      ints: 1
    }
  }
  node {
    input: "1293"
    output: "1294"
    op_type: "Relu"
  }
  node {
    input: "1294"
    input: "576"
    output: "1296"
    op_type: "Conv"
    attribute {
      name: "kernel_shape"
      ints: 1
      ints: 1
    }
    attribute {
      name: "strides"
      ints: 1
      ints: 1
    }
    attribute {
      name: "pads"
      ints: 0
      ints: 0
      ints: 0
      ints: 0
    }
    attribute {
      name: "dilations"
      ints: 1
      ints: 1
    }
    attribute {
      name: "group"
      i: 1
    }
  }
  node {
    input: "1296"
    input: "577"
    input: "578"
    input: "579"
    input: "580"
    output: "1298"
    op_type: "SpatialBN"
    attribute {
      name: "is_test"
      i: 1
    }
    attribute {
      name: "epsilon"
      f: 9.99999974737875e-06
    }
    attribute {
      name: "momentum"
      f: 0.899999976158142
    }
    attribute {
      name: "consumed_inputs"
      ints: 0
      ints: 0
      ints: 0
      ints: 1
      ints: 1
    }
  }
  node {
    input: "1298"
    output: "1299"
    op_type: "Relu"
  }
  node {
    input: "1299"
    input: "581"
    output: "1301"
    op_type: "Conv"
    attribute {
      name: "kernel_shape"
      ints: 3
      ints: 3
    }
    attribute {
      name: "strides"
      ints: 1
      ints: 1
    }
    attribute {
      name: "pads"
      ints: 1
      ints: 1
      ints: 1
      ints: 1
    }
    attribute {
      name: "dilations"
      ints: 1
      ints: 1
    }
    attribute {
      name: "group"
      i: 1
    }
  }
  node {
    input: "1291"
    input: "1301"
    output: "1303"
    op_type: "cat"
    attribute {
      name: "dim"
      i: 1
    }
  }
  node {
    input: "1303"
    input: "582"
    input: "583"
    input: "584"
    input: "585"
    output: "1305"
    op_type: "SpatialBN"
    attribute {
      name: "is_test"
      i: 1
    }
    attribute {
      name: "epsilon"
      f: 9.99999974737875e-06
    }
    attribute {
      name: "momentum"
      f: 0.899999976158142
    }
    attribute {
      name: "consumed_inputs"
      ints: 0
      ints: 0
      ints: 0
      ints: 1
      ints: 1
    }
  }
  node {
    input: "1305"
    output: "1306"
    op_type: "Relu"
  }
  node {
    input: "1306"
    input: "586"
    output: "1308"
    op_type: "Conv"
    attribute {
      name: "kernel_shape"
      ints: 1
      ints: 1
    }
    attribute {
      name: "strides"
      ints: 1
      ints: 1
    }
    attribute {
      name: "pads"
      ints: 0
      ints: 0
      ints: 0
      ints: 0
    }
    attribute {
      name: "dilations"
      ints: 1
      ints: 1
    }
    attribute {
      name: "group"
      i: 1
    }
  }
  node {
    input: "1308"
    input: "587"
    input: "588"
    input: "589"
    input: "590"
    output: "1310"
    op_type: "SpatialBN"
    attribute {
      name: "is_test"
      i: 1
    }
    attribute {
      name: "epsilon"
      f: 9.99999974737875e-06
    }
    attribute {
      name: "momentum"
      f: 0.899999976158142
    }
    attribute {
      name: "consumed_inputs"
      ints: 0
      ints: 0
      ints: 0
      ints: 1
      ints: 1
    }
  }
  node {
    input: "1310"
    output: "1311"
    op_type: "Relu"
  }
  node {
    input: "1311"
    input: "591"
    output: "1313"
    op_type: "Conv"
    attribute {
      name: "kernel_shape"
      ints: 3
      ints: 3
    }
    attribute {
      name: "strides"
      ints: 1
      ints: 1
    }
    attribute {
      name: "pads"
      ints: 1
      ints: 1
      ints: 1
      ints: 1
    }
    attribute {
      name: "dilations"
      ints: 1
      ints: 1
    }
    attribute {
      name: "group"
      i: 1
    }
  }
  node {
    input: "1303"
    input: "1313"
    output: "1315"
    op_type: "cat"
    attribute {
      name: "dim"
      i: 1
    }
  }
  node {
    input: "1315"
    input: "592"
    input: "593"
    input: "594"
    input: "595"
    output: "1317"
    op_type: "SpatialBN"
    attribute {
      name: "is_test"
      i: 1
    }
    attribute {
      name: "epsilon"
      f: 9.99999974737875e-06
    }
    attribute {
      name: "momentum"
      f: 0.899999976158142
    }
    attribute {
      name: "consumed_inputs"
      ints: 0
      ints: 0
      ints: 0
      ints: 1
      ints: 1
    }
  }
  node {
    input: "1317"
    output: "1318"
    op_type: "Relu"
  }
  node {
    input: "1318"
    input: "596"
    output: "1320"
    op_type: "Conv"
    attribute {
      name: "kernel_shape"
      ints: 1
      ints: 1
    }
    attribute {
      name: "strides"
      ints: 1
      ints: 1
    }
    attribute {
      name: "pads"
      ints: 0
      ints: 0
      ints: 0
      ints: 0
    }
    attribute {
      name: "dilations"
      ints: 1
      ints: 1
    }
    attribute {
      name: "group"
      i: 1
    }
  }
  node {
    input: "1320"
    input: "597"
    input: "598"
    input: "599"
    input: "600"
    output: "1322"
    op_type: "SpatialBN"
    attribute {
      name: "is_test"
      i: 1
    }
    attribute {
      name: "epsilon"
      f: 9.99999974737875e-06
    }
    attribute {
      name: "momentum"
      f: 0.899999976158142
    }
    attribute {
      name: "consumed_inputs"
      ints: 0
      ints: 0
      ints: 0
      ints: 1
      ints: 1
    }
  }
  node {
    input: "1322"
    output: "1323"
    op_type: "Relu"
  }
  node {
    input: "1323"
    input: "601"
    output: "1325"
    op_type: "Conv"
    attribute {
      name: "kernel_shape"
      ints: 3
      ints: 3
    }
    attribute {
      name: "strides"
      ints: 1
      ints: 1
    }
    attribute {
      name: "pads"
      ints: 1
      ints: 1
      ints: 1
      ints: 1
    }
    attribute {
      name: "dilations"
      ints: 1
      ints: 1
    }
    attribute {
      name: "group"
      i: 1
    }
  }
  node {
    input: "1315"
    input: "1325"
    output: "1327"
    op_type: "cat"
    attribute {
      name: "dim"
      i: 1
    }
  }
  node {
    input: "1327"
    input: "602"
    input: "603"
    input: "604"
    input: "605"
    output: "1329"
    op_type: "SpatialBN"
    attribute {
      name: "is_test"
      i: 1
    }
    attribute {
      name: "epsilon"
      f: 9.99999974737875e-06
    }
    attribute {
      name: "momentum"
      f: 0.899999976158142
    }
    attribute {
      name: "consumed_inputs"
      ints: 0
      ints: 0
      ints: 0
      ints: 1
      ints: 1
    }
  }
  node {
    input: "1329"
    output: "1330"
    op_type: "Relu"
  }
  node {
    input: "1330"
    output: "1331"
    op_type: "AveragePool"
    attribute {
      name: "kernel_shape"
      ints: 7
      ints: 7
    }
    attribute {
      name: "pads"
      ints: 0
      ints: 0
    }
    attribute {
      name: "strides"
      ints: 7
      ints: 7
    }
  }
  node {
    input: "1331"
    output: "1332"
    op_type: "Reshape"
    attribute {
      name: "shape"
      ints: 2
      ints: -1
    }
  }
  node {
    input: "606"
    output: "1333"
    op_type: "Transpose"
    attribute {
      name: "perm"
      ints: 1
      ints: 0
    }
  }
  node {
    input: "607"
    output: "1335"
    op_type: "expand"
    attribute {
      name: "size"
      ints: 2
      ints: 1000
    }
  }
  node {
    input: "1332"
    input: "1333"
    input: "1335"
    output: "1336"
    op_type: "Gemm"
    attribute {
      name: "alpha"
      f: 1
    }
    attribute {
      name: "beta"
      f: 1
    }
  }
  name: "torch-jit-export"
  input {
    name: "1"
    type {
      tensor_type {
        elem_type: FLOAT
        shape {
          dim {
            dim_value: 2
          }
          dim {
            dim_value: 3
          }
          dim {
            dim_value: 224
          }
          dim {
            dim_value: 224
          }
        }
      }
    }
  }
  input {
    name: "2"
    type {
      tensor_type {
        elem_type: FLOAT
        shape {
          dim {
            dim_value: 64
          }
          dim {
            dim_value: 3
          }
          dim {
            dim_value: 7
          }
          dim {
            dim_value: 7
          }
        }
      }
    }
  }
  input {
    name: "3"
    type {
      tensor_type {
        elem_type: FLOAT
        shape {
          dim {
            dim_value: 64
          }
        }
      }
    }
  }
  input {
    name: "4"
    type {
      tensor_type {
        elem_type: FLOAT
        shape {
          dim {
            dim_value: 64
          }
        }
      }
    }
  }
  input {
    name: "5"
    type {
      tensor_type {
        elem_type: FLOAT
        shape {
          dim {
            dim_value: 64
          }
        }
      }
    }
  }
  input {
    name: "6"
    type {
      tensor_type {
        elem_type: FLOAT
        shape {
          dim {
            dim_value: 64
          }
        }
      }
    }
  }
  input {
    name: "7"
    type {
      tensor_type {
        elem_type: FLOAT
        shape {
          dim {
            dim_value: 64
          }
        }
      }
    }
  }
  input {
    name: "8"
    type {
      tensor_type {
        elem_type: FLOAT
        shape {
          dim {
            dim_value: 64
          }
        }
      }
    }
  }
  input {
    name: "9"
    type {
      tensor_type {
        elem_type: FLOAT
        shape {
          dim {
            dim_value: 64
          }
        }
      }
    }
  }
  input {
    name: "10"
    type {
      tensor_type {
        elem_type: FLOAT
        shape {
          dim {
            dim_value: 64
          }
        }
      }
    }
  }
  input {
    name: "11"
    type {
      tensor_type {
        elem_type: FLOAT
        shape {
          dim {
            dim_value: 128
          }
          dim {
            dim_value: 64
          }
          dim {
            dim_value: 1
          }
          dim {
            dim_value: 1
          }
        }
      }
    }
  }
  input {
    name: "12"
    type {
      tensor_type {
        elem_type: FLOAT
        shape {
          dim {
            dim_value: 128
          }
        }
      }
    }
  }
  input {
    name: "13"
    type {
      tensor_type {
        elem_type: FLOAT
        shape {
          dim {
            dim_value: 128
          }
        }
      }
    }
  }
  input {
    name: "14"
    type {
      tensor_type {
        elem_type: FLOAT
        shape {
          dim {
            dim_value: 128
          }
        }
      }
    }
  }
  input {
    name: "15"
    type {
      tensor_type {
        elem_type: FLOAT
        shape {
          dim {
            dim_value: 128
          }
        }
      }
    }
  }
  input {
    name: "16"
    type {
      tensor_type {
        elem_type: FLOAT
        shape {
          dim {
            dim_value: 32
          }
          dim {
            dim_value: 128
          }
          dim {
            dim_value: 3
          }
          dim {
            dim_value: 3
          }
        }
      }
    }
  }
  input {
    name: "17"
    type {
      tensor_type {
        elem_type: FLOAT
        shape {
          dim {
            dim_value: 96
          }
        }
      }
    }
  }
  input {
    name: "18"
    type {
      tensor_type {
        elem_type: FLOAT
        shape {
          dim {
            dim_value: 96
          }
        }
      }
    }
  }
  input {
    name: "19"
    type {
      tensor_type {
        elem_type: FLOAT
        shape {
          dim {
            dim_value: 96
          }
        }
      }
    }
  }
  input {
    name: "20"
    type {
      tensor_type {
        elem_type: FLOAT
        shape {
          dim {
            dim_value: 96
          }
        }
      }
    }
  }
  input {
    name: "21"
    type {
      tensor_type {
        elem_type: FLOAT
        shape {
          dim {
            dim_value: 128
          }
          dim {
            dim_value: 96
          }
          dim {
            dim_value: 1
          }
          dim {
            dim_value: 1
          }
        }
      }
    }
  }
  input {
    name: "22"
    type {
      tensor_type {
        elem_type: FLOAT
        shape {
          dim {
            dim_value: 128
          }
        }
      }
    }
  }
  input {
    name: "23"
    type {
      tensor_type {
        elem_type: FLOAT
        shape {
          dim {
            dim_value: 128
          }
        }
      }
    }
  }
  input {
    name: "24"
    type {
      tensor_type {
        elem_type: FLOAT
        shape {
          dim {
            dim_value: 128
          }
        }
      }
    }
  }
  input {
    name: "25"
    type {
      tensor_type {
        elem_type: FLOAT
        shape {
          dim {
            dim_value: 128
          }
        }
      }
    }
  }
  input {
    name: "26"
    type {
      tensor_type {
        elem_type: FLOAT
        shape {
          dim {
            dim_value: 32
          }
          dim {
            dim_value: 128
          }
          dim {
            dim_value: 3
          }
          dim {
            dim_value: 3
          }
        }
      }
    }
  }
  input {
    name: "27"
    type {
      tensor_type {
        elem_type: FLOAT
        shape {
          dim {
            dim_value: 128
          }
        }
      }
    }
  }
  input {
    name: "28"
    type {
      tensor_type {
        elem_type: FLOAT
        shape {
          dim {
            dim_value: 128
          }
        }
      }
    }
  }
  input {
    name: "29"
    type {
      tensor_type {
        elem_type: FLOAT
        shape {
          dim {
            dim_value: 128
          }
        }
      }
    }
  }
  input {
    name: "30"
    type {
      tensor_type {
        elem_type: FLOAT
        shape {
          dim {
            dim_value: 128
          }
        }
      }
    }
  }
  input {
    name: "31"
    type {
      tensor_type {
        elem_type: FLOAT
        shape {
          dim {
            dim_value: 128
          }
          dim {
            dim_value: 128
          }
          dim {
            dim_value: 1
          }
          dim {
            dim_value: 1
          }
        }
      }
    }
  }
  input {
    name: "32"
    type {
      tensor_type {
        elem_type: FLOAT
        shape {
          dim {
            dim_value: 128
          }
        }
      }
    }
  }
  input {
    name: "33"
    type {
      tensor_type {
        elem_type: FLOAT
        shape {
          dim {
            dim_value: 128
          }
        }
      }
    }
  }
  input {
    name: "34"
    type {
      tensor_type {
        elem_type: FLOAT
        shape {
          dim {
            dim_value: 128
          }
        }
      }
    }
  }
  input {
    name: "35"
    type {
      tensor_type {
        elem_type: FLOAT
        shape {
          dim {
            dim_value: 128
          }
        }
      }
    }
  }
  input {
    name: "36"
    type {
      tensor_type {
        elem_type: FLOAT
        shape {
          dim {
            dim_value: 32
          }
          dim {
            dim_value: 128
          }
          dim {
            dim_value: 3
          }
          dim {
            dim_value: 3
          }
        }
      }
    }
  }
  input {
    name: "37"
    type {
      tensor_type {
        elem_type: FLOAT
        shape {
          dim {
            dim_value: 160
          }
        }
      }
    }
  }
  input {
    name: "38"
    type {
      tensor_type {
        elem_type: FLOAT
        shape {
          dim {
            dim_value: 160
          }
        }
      }
    }
  }
  input {
    name: "39"
    type {
      tensor_type {
        elem_type: FLOAT
        shape {
          dim {
            dim_value: 160
          }
        }
      }
    }
  }
  input {
    name: "40"
    type {
      tensor_type {
        elem_type: FLOAT
        shape {
          dim {
            dim_value: 160
          }
        }
      }
    }
  }
  input {
    name: "41"
    type {
      tensor_type {
        elem_type: FLOAT
        shape {
          dim {
            dim_value: 128
          }
          dim {
            dim_value: 160
          }
          dim {
            dim_value: 1
          }
          dim {
            dim_value: 1
          }
        }
      }
    }
  }
  input {
    name: "42"
    type {
      tensor_type {
        elem_type: FLOAT
        shape {
          dim {
            dim_value: 128
          }
        }
      }
    }
  }
  input {
    name: "43"
    type {
      tensor_type {
        elem_type: FLOAT
        shape {
          dim {
            dim_value: 128
          }
        }
      }
    }
  }
  input {
    name: "44"
    type {
      tensor_type {
        elem_type: FLOAT
        shape {
          dim {
            dim_value: 128
          }
        }
      }
    }
  }
  input {
    name: "45"
    type {
      tensor_type {
        elem_type: FLOAT
        shape {
          dim {
            dim_value: 128
          }
        }
      }
    }
  }
  input {
    name: "46"
    type {
      tensor_type {
        elem_type: FLOAT
        shape {
          dim {
            dim_value: 32
          }
          dim {
            dim_value: 128
          }
          dim {
            dim_value: 3
          }
          dim {
            dim_value: 3
          }
        }
      }
    }
  }
  input {
    name: "47"
    type {
      tensor_type {
        elem_type: FLOAT
        shape {
          dim {
            dim_value: 192
          }
        }
      }
    }
  }
  input {
    name: "48"
    type {
      tensor_type {
        elem_type: FLOAT
        shape {
          dim {
            dim_value: 192
          }
        }
      }
    }
  }
  input {
    name: "49"
    type {
      tensor_type {
        elem_type: FLOAT
        shape {
          dim {
            dim_value: 192
          }
        }
      }
    }
  }
  input {
    name: "50"
    type {
      tensor_type {
        elem_type: FLOAT
        shape {
          dim {
            dim_value: 192
          }
        }
      }
    }
  }
  input {
    name: "51"
    type {
      tensor_type {
        elem_type: FLOAT
        shape {
          dim {
            dim_value: 128
          }
          dim {
            dim_value: 192
          }
          dim {
            dim_value: 1
          }
          dim {
            dim_value: 1
          }
        }
      }
    }
  }
  input {
    name: "52"
    type {
      tensor_type {
        elem_type: FLOAT
        shape {
          dim {
            dim_value: 128
          }
        }
      }
    }
  }
  input {
    name: "53"
    type {
      tensor_type {
        elem_type: FLOAT
        shape {
          dim {
            dim_value: 128
          }
        }
      }
    }
  }
  input {
    name: "54"
    type {
      tensor_type {
        elem_type: FLOAT
        shape {
          dim {
            dim_value: 128
          }
        }
      }
    }
  }
  input {
    name: "55"
    type {
      tensor_type {
        elem_type: FLOAT
        shape {
          dim {
            dim_value: 128
          }
        }
      }
    }
  }
  input {
    name: "56"
    type {
      tensor_type {
        elem_type: FLOAT
        shape {
          dim {
            dim_value: 32
          }
          dim {
            dim_value: 128
          }
          dim {
            dim_value: 3
          }
          dim {
            dim_value: 3
          }
        }
      }
    }
  }
  input {
    name: "57"
    type {
      tensor_type {
        elem_type: FLOAT
        shape {
          dim {
            dim_value: 224
          }
        }
      }
    }
  }
  input {
    name: "58"
    type {
      tensor_type {
        elem_type: FLOAT
        shape {
          dim {
            dim_value: 224
          }
        }
      }
    }
  }
  input {
    name: "59"
    type {
      tensor_type {
        elem_type: FLOAT
        shape {
          dim {
            dim_value: 224
          }
        }
      }
    }
  }
  input {
    name: "60"
    type {
      tensor_type {
        elem_type: FLOAT
        shape {
          dim {
            dim_value: 224
          }
        }
      }
    }
  }
  input {
    name: "61"
    type {
      tensor_type {
        elem_type: FLOAT
        shape {
          dim {
            dim_value: 128
          }
          dim {
            dim_value: 224
          }
          dim {
            dim_value: 1
          }
          dim {
            dim_value: 1
          }
        }
      }
    }
  }
  input {
    name: "62"
    type {
      tensor_type {
        elem_type: FLOAT
        shape {
          dim {
            dim_value: 128
          }
        }
      }
    }
  }
  input {
    name: "63"
    type {
      tensor_type {
        elem_type: FLOAT
        shape {
          dim {
            dim_value: 128
          }
        }
      }
    }
  }
  input {
    name: "64"
    type {
      tensor_type {
        elem_type: FLOAT
        shape {
          dim {
            dim_value: 128
          }
        }
      }
    }
  }
  input {
    name: "65"
    type {
      tensor_type {
        elem_type: FLOAT
        shape {
          dim {
            dim_value: 128
          }
        }
      }
    }
  }
  input {
    name: "66"
    type {
      tensor_type {
        elem_type: FLOAT
        shape {
          dim {
            dim_value: 32
          }
          dim {
            dim_value: 128
          }
          dim {
            dim_value: 3
          }
          dim {
            dim_value: 3
          }
        }
      }
    }
  }
  input {
    name: "67"
    type {
      tensor_type {
        elem_type: FLOAT
        shape {
          dim {
            dim_value: 256
          }
        }
      }
    }
  }
  input {
    name: "68"
    type {
      tensor_type {
        elem_type: FLOAT
        shape {
          dim {
            dim_value: 256
          }
        }
      }
    }
  }
  input {
    name: "69"
    type {
      tensor_type {
        elem_type: FLOAT
        shape {
          dim {
            dim_value: 256
          }
        }
      }
    }
  }
  input {
    name: "70"
    type {
      tensor_type {
        elem_type: FLOAT
        shape {
          dim {
            dim_value: 256
          }
        }
      }
    }
  }
  input {
    name: "71"
    type {
      tensor_type {
        elem_type: FLOAT
        shape {
          dim {
            dim_value: 128
          }
          dim {
            dim_value: 256
          }
          dim {
            dim_value: 1
          }
          dim {
            dim_value: 1
          }
        }
      }
    }
  }
  input {
    name: "72"
    type {
      tensor_type {
        elem_type: FLOAT
        shape {
          dim {
            dim_value: 128
          }
        }
      }
    }
  }
  input {
    name: "73"
    type {
      tensor_type {
        elem_type: FLOAT
        shape {
          dim {
            dim_value: 128
          }
        }
      }
    }
  }
  input {
    name: "74"
    type {
      tensor_type {
        elem_type: FLOAT
        shape {
          dim {
            dim_value: 128
          }
        }
      }
    }
  }
  input {
    name: "75"
    type {
      tensor_type {
        elem_type: FLOAT
        shape {
          dim {
            dim_value: 128
          }
        }
      }
    }
  }
  input {
    name: "76"
    type {
      tensor_type {
        elem_type: FLOAT
        shape {
          dim {
            dim_value: 128
          }
          dim {
            dim_value: 128
          }
          dim {
            dim_value: 1
          }
          dim {
            dim_value: 1
          }
        }
      }
    }
  }
  input {
    name: "77"
    type {
      tensor_type {
        elem_type: FLOAT
        shape {
          dim {
            dim_value: 128
          }
        }
      }
    }
  }
  input {
    name: "78"
    type {
      tensor_type {
        elem_type: FLOAT
        shape {
          dim {
            dim_value: 128
          }
        }
      }
    }
  }
  input {
    name: "79"
    type {
      tensor_type {
        elem_type: FLOAT
        shape {
          dim {
            dim_value: 128
          }
        }
      }
    }
  }
  input {
    name: "80"
    type {
      tensor_type {
        elem_type: FLOAT
        shape {
          dim {
            dim_value: 128
          }
        }
      }
    }
  }
  input {
    name: "81"
    type {
      tensor_type {
        elem_type: FLOAT
        shape {
          dim {
            dim_value: 32
          }
          dim {
            dim_value: 128
          }
          dim {
            dim_value: 3
          }
          dim {
            dim_value: 3
          }
        }
      }
    }
  }
  input {
    name: "82"
    type {
      tensor_type {
        elem_type: FLOAT
        shape {
          dim {
            dim_value: 160
          }
        }
      }
    }
  }
  input {
    name: "83"
    type {
      tensor_type {
        elem_type: FLOAT
        shape {
          dim {
            dim_value: 160
          }
        }
      }
    }
  }
  input {
    name: "84"
    type {
      tensor_type {
        elem_type: FLOAT
        shape {
          dim {
            dim_value: 160
          }
        }
      }
    }
  }
  input {
    name: "85"
    type {
      tensor_type {
        elem_type: FLOAT
        shape {
          dim {
            dim_value: 160
          }
        }
      }
    }
  }
  input {
    name: "86"
    type {
      tensor_type {
        elem_type: FLOAT
        shape {
          dim {
            dim_value: 128
          }
          dim {
            dim_value: 160
          }
          dim {
            dim_value: 1
          }
          dim {
            dim_value: 1
          }
        }
      }
    }
  }
  input {
    name: "87"
    type {
      tensor_type {
        elem_type: FLOAT
        shape {
          dim {
            dim_value: 128
          }
        }
      }
    }
  }
  input {
    name: "88"
    type {
      tensor_type {
        elem_type: FLOAT
        shape {
          dim {
            dim_value: 128
          }
        }
      }
    }
  }
  input {
    name: "89"
    type {
      tensor_type {
        elem_type: FLOAT
        shape {
          dim {
            dim_value: 128
          }
        }
      }
    }
  }
  input {
    name: "90"
    type {
      tensor_type {
        elem_type: FLOAT
        shape {
          dim {
            dim_value: 128
          }
        }
      }
    }
  }
  input {
    name: "91"
    type {
      tensor_type {
        elem_type: FLOAT
        shape {
          dim {
            dim_value: 32
          }
          dim {
            dim_value: 128
          }
          dim {
            dim_value: 3
          }
          dim {
            dim_value: 3
          }
        }
      }
    }
  }
  input {
    name: "92"
    type {
      tensor_type {
        elem_type: FLOAT
        shape {
          dim {
            dim_value: 192
          }
        }
      }
    }
  }
  input {
    name: "93"
    type {
      tensor_type {
        elem_type: FLOAT
        shape {
          dim {
            dim_value: 192
          }
        }
      }
    }
  }
  input {
    name: "94"
    type {
      tensor_type {
        elem_type: FLOAT
        shape {
          dim {
            dim_value: 192
          }
        }
      }
    }
  }
  input {
    name: "95"
    type {
      tensor_type {
        elem_type: FLOAT
        shape {
          dim {
            dim_value: 192
          }
        }
      }
    }
  }
  input {
    name: "96"
    type {
      tensor_type {
        elem_type: FLOAT
        shape {
…
      tensor_type {
        elem_type: FLOAT
        shape {
          dim {
            dim_value: 128
          }
        }
      }
    }
  }
  input {
    name: "375"
    type {
      tensor_type {
        elem_type: FLOAT
        shape {
          dim {
            dim_value: 128
          }
        }
      }
    }
  }
  input {
    name: "376"
    type {
      tensor_type {
        elem_type: FLOAT
        shape {
          dim {
            dim_value: 32
          }
          dim {
            dim_value: 128
          }
          dim {
            dim_value: 3
          }
          dim {
            dim_value: 3
          }
        }
      }
    }
  }
  input {
    name: "377"
    type {
      tensor_type {
        elem_type: FLOAT
        shape {
          dim {
            dim_value: 832
          }
        }
      }
    }
  }
  input {
    name: "378"
    type {
      tensor_type {
        elem_type: FLOAT
        shape {
          dim {
            dim_value: 832
          }
        }
      }
    }
  }
  input {
    name: "379"
    type {
      tensor_type {
        elem_type: FLOAT
        shape {
          dim {
            dim_value: 832
          }
        }
      }
    }
  }
  input {
    name: "380"
    type {
      tensor_type {
        elem_type: FLOAT
        shape {
          dim {
            dim_value: 832
          }
        }
      }
    }
  }
  input {
    name: "381"
    type {
      tensor_type {
        elem_type: FLOAT
        shape {
          dim {
            dim_value: 128
          }
          dim {
            dim_value: 832
          }
          dim {
            dim_value: 1
          }
          dim {
            dim_value: 1
          }
        }
      }
    }
  }
  input {
    name: "382"
    type {
      tensor_type {
        elem_type: FLOAT
        shape {
          dim {
            dim_value: 128
          }
        }
      }
    }
  }
  input {
    name: "383"
    type {
      tensor_type {
        elem_type: FLOAT
        shape {
          dim {
            dim_value: 128
          }
        }
      }
    }
  }
  input {
    name: "384"
    type {
      tensor_type {
        elem_type: FLOAT
        shape {
          dim {
            dim_value: 128
          }
        }
      }
    }
  }
  input {
    name: "385"
    type {
      tensor_type {
        elem_type: FLOAT
        shape {
          dim {
            dim_value: 128
          }
        }
      }
    }
  }
  input {
    name: "386"
    type {
      tensor_type {
        elem_type: FLOAT
        shape {
          dim {
            dim_value: 32
          }
          dim {
            dim_value: 128
          }
          dim {
            dim_value: 3
          }
          dim {
            dim_value: 3
          }
        }
      }
    }
  }
  input {
    name: "387"
    type {
      tensor_type {
        elem_type: FLOAT
        shape {
          dim {
            dim_value: 864
          }
        }
      }
    }
  }
  input {
    name: "388"
    type {
      tensor_type {
        elem_type: FLOAT
        shape {
          dim {
            dim_value: 864
          }
        }
      }
    }
  }
  input {
    name: "389"
    type {
      tensor_type {
        elem_type: FLOAT
        shape {
          dim {
            dim_value: 864
          }
        }
      }
    }
  }
  input {
    name: "390"
    type {
      tensor_type {
        elem_type: FLOAT
        shape {
          dim {
            dim_value: 864
          }
        }
      }
    }
  }
  input {
    name: "391"
    type {
      tensor_type {
        elem_type: FLOAT
        shape {
          dim {
            dim_value: 128
          }
          dim {
            dim_value: 864
          }
          dim {
            dim_value: 1
          }
          dim {
            dim_value: 1
          }
        }
      }
    }
  }
  input {
    name: "392"
    type {
      tensor_type {
        elem_type: FLOAT
        shape {
          dim {
            dim_value: 128
          }
        }
      }
    }
  }
  input {
    name: "393"
    type {
      tensor_type {
        elem_type: FLOAT
        shape {
          dim {
            dim_value: 128
          }
        }
      }
    }
  }
  input {
    name: "394"
    type {
      tensor_type {
        elem_type: FLOAT
        shape {
          dim {
            dim_value: 128
          }
        }
      }
    }
  }
  input {
    name: "395"
    type {
      tensor_type {
        elem_type: FLOAT
        shape {
          dim {
            dim_value: 128
          }
        }
      }
    }
  }
  input {
    name: "396"
    type {
      tensor_type {
        elem_type: FLOAT
        shape {
          dim {
            dim_value: 32
          }
          dim {
            dim_value: 128
          }
          dim {
            dim_value: 3
          }
          dim {
            dim_value: 3
          }
        }
      }
    }
  }
  input {
    name: "397"
    type {
      tensor_type {
        elem_type: FLOAT
        shape {
          dim {
            dim_value: 896
          }
        }
      }
    }
  }
  input {
    name: "398"
    type {
      tensor_type {
        elem_type: FLOAT
        shape {
          dim {
            dim_value: 896
          }
        }
      }
    }
  }
  input {
    name: "399"
    type {
      tensor_type {
        elem_type: FLOAT
        shape {
          dim {
            dim_value: 896
          }
        }
      }
    }
  }
  input {
    name: "400"
    type {
      tensor_type {
        elem_type: FLOAT
        shape {
          dim {
            dim_value: 896
          }
        }
      }
    }
  }
  input {
    name: "401"
    type {
      tensor_type {
        elem_type: FLOAT
        shape {
          dim {
            dim_value: 128
          }
          dim {
            dim_value: 896
          }
          dim {
            dim_value: 1
          }
          dim {
            dim_value: 1
          }
        }
      }
    }
  }
  input {
    name: "402"
    type {
      tensor_type {
        elem_type: FLOAT
        shape {
          dim {
            dim_value: 128
          }
        }
      }
    }
  }
  input {
    name: "403"
    type {
      tensor_type {
        elem_type: FLOAT
        shape {
          dim {
            dim_value: 128
          }
        }
      }
    }
  }
  input {
    name: "404"
    type {
      tensor_type {
        elem_type: FLOAT
        shape {
          dim {
            dim_value: 128
          }
        }
      }
    }
  }
  input {
    name: "405"
    type {
      tensor_type {
        elem_type: FLOAT
        shape {
          dim {
            dim_value: 128
          }
        }
      }
    }
  }
  input {
    name: "406"
    type {
      tensor_type {
        elem_type: FLOAT
        shape {
          dim {
            dim_value: 32
          }
          dim {
            dim_value: 128
          }
          dim {
            dim_value: 3
          }
          dim {
            dim_value: 3
          }
        }
      }
    }
  }
  input {
    name: "407"
    type {
      tensor_type {
        elem_type: FLOAT
        shape {
          dim {
            dim_value: 928
          }
        }
      }
    }
  }
  input {
    name: "408"
    type {
      tensor_type {
        elem_type: FLOAT
        shape {
          dim {
            dim_value: 928
          }
        }
      }
    }
  }
  input {
    name: "409"
    type {
      tensor_type {
        elem_type: FLOAT
        shape {
          dim {
            dim_value: 928
          }
        }
      }
    }
  }
  input {
    name: "410"
    type {
      tensor_type {
        elem_type: FLOAT
        shape {
          dim {
            dim_value: 928
          }
        }
      }
    }
  }
  input {
    name: "411"
    type {
      tensor_type {
        elem_type: FLOAT
        shape {
          dim {
            dim_value: 128
          }
          dim {
            dim_value: 928
          }
          dim {
            dim_value: 1
          }
          dim {
            dim_value: 1
          }
        }
      }
    }
  }
  input {
    name: "412"
    type {
      tensor_type {
        elem_type: FLOAT
        shape {
          dim {
            dim_value: 128
          }
        }
      }
    }
  }
  input {
    name: "413"
    type {
      tensor_type {
        elem_type: FLOAT
        shape {
          dim {
            dim_value: 128
          }
        }
      }
    }
  }
  input {
    name: "414"
    type {
      tensor_type {
        elem_type: FLOAT
        shape {
          dim {
            dim_value: 128
          }
        }
      }
    }
  }
  input {
    name: "415"
    type {
      tensor_type {
        elem_type: FLOAT
        shape {
          dim {
            dim_value: 128
          }
        }
      }
    }
  }
  input {
    name: "416"
    type {
      tensor_type {
        elem_type: FLOAT
        shape {
          dim {
            dim_value: 32
          }
          dim {
            dim_value: 128
          }
          dim {
            dim_value: 3
          }
          dim {
            dim_value: 3
          }
        }
      }
    }
  }
  input {
    name: "417"
    type {
      tensor_type {
        elem_type: FLOAT
        shape {
          dim {
            dim_value: 960
          }
        }
      }
    }
  }
  input {
    name: "418"
    type {
      tensor_type {
        elem_type: FLOAT
        shape {
          dim {
            dim_value: 960
          }
        }
      }
    }
  }
  input {
    name: "419"
    type {
      tensor_type {
        elem_type: FLOAT
        shape {
          dim {
            dim_value: 960
          }
        }
      }
    }
  }
  input {
    name: "420"
    type {
      tensor_type {
        elem_type: FLOAT
        shape {
          dim {
            dim_value: 960
          }
        }
      }
    }
  }
  input {
    name: "421"
    type {
      tensor_type {
        elem_type: FLOAT
        shape {
          dim {
            dim_value: 128
          }
          dim {
            dim_value: 960
          }
          dim {
            dim_value: 1
          }
          dim {
            dim_value: 1
          }
        }
      }
    }
  }
  input {
    name: "422"
    type {
      tensor_type {
        elem_type: FLOAT
        shape {
          dim {
            dim_value: 128
          }
        }
      }
    }
  }
  input {
    name: "423"
    type {
      tensor_type {
        elem_type: FLOAT
        shape {
          dim {
            dim_value: 128
          }
        }
      }
    }
  }
  input {
    name: "424"
    type {
      tensor_type {
        elem_type: FLOAT
        shape {
          dim {
            dim_value: 128
          }
        }
      }
    }
  }
  input {
    name: "425"
    type {
      tensor_type {
        elem_type: FLOAT
        shape {
          dim {
            dim_value: 128
          }
        }
      }
    }
  }
  input {
    name: "426"
    type {
      tensor_type {
        elem_type: FLOAT
        shape {
          dim {
            dim_value: 32
          }
          dim {
            dim_value: 128
          }
          dim {
            dim_value: 3
          }
          dim {
            dim_value: 3
          }
        }
      }
    }
  }
  input {
    name: "427"
    type {
      tensor_type {
        elem_type: FLOAT
        shape {
          dim {
            dim_value: 992
          }
        }
      }
    }
  }
  input {
    name: "428"
    type {
      tensor_type {
        elem_type: FLOAT
        shape {
          dim {
            dim_value: 992
          }
        }
      }
    }
  }
  input {
    name: "429"
    type {
      tensor_type {
        elem_type: FLOAT
        shape {
          dim {
            dim_value: 992
          }
        }
      }
    }
  }
  input {
    name: "430"
    type {
      tensor_type {
        elem_type: FLOAT
        shape {
          dim {
            dim_value: 992
          }
        }
      }
    }
  }
  input {
    name: "431"
    type {
      tensor_type {
        elem_type: FLOAT
        shape {
          dim {
            dim_value: 128
          }
          dim {
            dim_value: 992
          }
          dim {
            dim_value: 1
          }
          dim {
            dim_value: 1
          }
        }
      }
    }
  }
  input {
    name: "432"
    type {
      tensor_type {
        elem_type: FLOAT
        shape {
          dim {
            dim_value: 128
          }
        }
      }
    }
  }
  input {
    name: "433"
    type {
      tensor_type {
        elem_type: FLOAT
        shape {
          dim {
            dim_value: 128
          }
        }
      }
    }
  }
  input {
    name: "434"
    type {
      tensor_type {
        elem_type: FLOAT
        shape {
          dim {
            dim_value: 128
          }
        }
      }
    }
  }
  input {
    name: "435"
    type {
      tensor_type {
        elem_type: FLOAT
        shape {
          dim {
            dim_value: 128
          }
        }
      }
    }
  }
  input {
    name: "436"
    type {
      tensor_type {
        elem_type: FLOAT
        shape {
          dim {
            dim_value: 32
          }
          dim {
            dim_value: 128
          }
          dim {
            dim_value: 3
          }
          dim {
            dim_value: 3
          }
        }
      }
    }
  }
  input {
    name: "437"
    type {
      tensor_type {
        elem_type: FLOAT
        shape {
          dim {
            dim_value: 1024
          }
        }
      }
    }
  }
  input {
    name: "438"
    type {
      tensor_type {
        elem_type: FLOAT
        shape {
          dim {
            dim_value: 1024
          }
        }
      }
    }
  }
  input {
    name: "439"
    type {
      tensor_type {
        elem_type: FLOAT
        shape {
          dim {
            dim_value: 1024
          }
        }
      }
    }
  }
  input {
    name: "440"
    type {
      tensor_type {
        elem_type: FLOAT
        shape {
          dim {
            dim_value: 1024
          }
        }
      }
    }
  }
  input {
    name: "441"
    type {
      tensor_type {
        elem_type: FLOAT
        shape {
          dim {
            dim_value: 512
          }
          dim {
            dim_value: 1024
          }
          dim {
            dim_value: 1
          }
          dim {
            dim_value: 1
          }
        }
      }
    }
  }
  input {
    name: "442"
    type {
      tensor_type {
        elem_type: FLOAT
        shape {
          dim {
            dim_value: 512
          }
        }
      }
    }
  }
  input {
    name: "443"
    type {
      tensor_type {
        elem_type: FLOAT
        shape {
          dim {
            dim_value: 512
          }
        }
      }
    }
  }
  input {
    name: "444"
    type {
      tensor_type {
        elem_type: FLOAT
        shape {
          dim {
            dim_value: 512
          }
        }
      }
    }
  }
  input {
    name: "445"
    type {
      tensor_type {
        elem_type: FLOAT
        shape {
          dim {
            dim_value: 512
          }
        }
      }
    }
  }
  input {
    name: "446"
    type {
      tensor_type {
        elem_type: FLOAT
        shape {
          dim {
            dim_value: 128
          }
          dim {
            dim_value: 512
          }
          dim {
            dim_value: 1
          }
          dim {
            dim_value: 1
          }
        }
      }
    }
  }
  input {
    name: "447"
    type {
      tensor_type {
        elem_type: FLOAT
        shape {
          dim {
            dim_value: 128
          }
        }
      }
    }
  }
  input {
    name: "448"
    type {
      tensor_type {
        elem_type: FLOAT
        shape {
          dim {
            dim_value: 128
          }
        }
      }
    }
  }
  input {
    name: "449"
    type {
      tensor_type {
        elem_type: FLOAT
        shape {
          dim {
            dim_value: 128
          }
        }
      }
    }
  }
  input {
    name: "450"
    type {
      tensor_type {
        elem_type: FLOAT
        shape {
          dim {
            dim_value: 128
          }
        }
      }
    }
  }
  input {
    name: "451"
    type {
      tensor_type {
        elem_type: FLOAT
        shape {
          dim {
            dim_value: 32
          }
          dim {
            dim_value: 128
          }
          dim {
            dim_value: 3
          }
          dim {
            dim_value: 3
          }
        }
      }
    }
  }
  input {
    name: "452"
    type {
      tensor_type {
        elem_type: FLOAT
        shape {
          dim {
            dim_value: 544
          }
        }
      }
    }
  }
  input {
    name: "453"
    type {
      tensor_type {
        elem_type: FLOAT
        shape {
          dim {
            dim_value: 544
          }
        }
      }
    }
  }
  input {
    name: "454"
    type {
      tensor_type {
        elem_type: FLOAT
        shape {
          dim {
            dim_value: 544
          }
        }
      }
    }
  }
  input {
    name: "455"
    type {
      tensor_type {
        elem_type: FLOAT
        shape {
          dim {
            dim_value: 544
          }
        }
      }
    }
  }
  input {
    name: "456"
    type {
      tensor_type {
        elem_type: FLOAT
        shape {
          dim {
            dim_value: 128
          }
          dim {
            dim_value: 544
          }
          dim {
            dim_value: 1
          }
          dim {
            dim_value: 1
          }
        }
      }
    }
  }
  input {
    name: "457"
    type {
      tensor_type {
        elem_type: FLOAT
        shape {
          dim {
            dim_value: 128
          }
        }
      }
    }
  }
  input {
    name: "458"
    type {
      tensor_type {
        elem_type: FLOAT
        shape {
          dim {
            dim_value: 128
          }
        }
      }
    }
  }
  input {
    name: "459"
    type {
      tensor_type {
        elem_type: FLOAT
        shape {
          dim {
            dim_value: 128
          }
        }
      }
    }
  }
  input {
    name: "460"
    type {
      tensor_type {
        elem_type: FLOAT
        shape {
          dim {
            dim_value: 128
          }
        }
      }
    }
  }
  input {
    name: "461"
    type {
      tensor_type {
        elem_type: FLOAT
        shape {
          dim {
            dim_value: 32
          }
          dim {
            dim_value: 128
          }
          dim {
            dim_value: 3
          }
          dim {
            dim_value: 3
          }
        }
      }
    }
  }
  input {
    name: "462"
    type {
      tensor_type {
        elem_type: FLOAT
        shape {
          dim {
            dim_value: 576
          }
        }
      }
    }
  }
  input {
    name: "463"
    type {
      tensor_type {
        elem_type: FLOAT
        shape {
          dim {
            dim_value: 576
          }
        }
      }
    }
  }
  input {
    name: "464"
    type {
      tensor_type {
        elem_type: FLOAT
        shape {
          dim {
            dim_value: 576
          }
        }
      }
    }
  }
  input {
    name: "465"
    type {
      tensor_type {
        elem_type: FLOAT
        shape {
          dim {
            dim_value: 576
          }
        }
      }
    }
  }
  input {
    name: "466"
    type {
      tensor_type {
        elem_type: FLOAT
        shape {
          dim {
            dim_value: 128
          }
          dim {
            dim_value: 576
          }
          dim {
            dim_value: 1
          }
          dim {
            dim_value: 1
          }
        }
      }
    }
  }
  input {
    name: "467"
    type {
      tensor_type {
        elem_type: FLOAT
        shape {
          dim {
            dim_value: 128
          }
        }
      }
    }
  }
  input {
    name: "468"
    type {
      tensor_type {
        elem_type: FLOAT
        shape {
          dim {
            dim_value: 128
          }
        }
      }
    }
  }
  input {
    name: "469"
    type {
      tensor_type {
        elem_type: FLOAT
        shape {
          dim {
            dim_value: 128
          }
        }
      }
    }
  }
  input {
    name: "470"
    type {
      tensor_type {
        elem_type: FLOAT
        shape {
          dim {
            dim_value: 128
          }
        }
      }
    }
  }
  input {
    name: "471"
    type {
      tensor_type {
        elem_type: FLOAT
        shape {
          dim {
            dim_value: 32
          }
          dim {
            dim_value: 128
          }
          dim {
            dim_value: 3
          }
          dim {
            dim_value: 3
          }
        }
      }
    }
  }
  input {
    name: "472"
    type {
      tensor_type {
        elem_type: FLOAT
        shape {
          dim {
            dim_value: 608
          }
        }
      }
    }
  }
  input {
    name: "473"
    type {
      tensor_type {
        elem_type: FLOAT
        shape {
          dim {
            dim_value: 608
          }
        }
      }
    }
  }
  input {
    name: "474"
    type {
      tensor_type {
        elem_type: FLOAT
        shape {
          dim {
            dim_value: 608
          }
        }
      }
    }
  }
  input {
    name: "475"
    type {
      tensor_type {
        elem_type: FLOAT
        shape {
          dim {
            dim_value: 608
          }
        }
      }
    }
  }
  input {
    name: "476"
    type {
      tensor_type {
        elem_type: FLOAT
        shape {
          dim {
            dim_value: 128
          }
          dim {
            dim_value: 608
          }
          dim {
            dim_value: 1
          }
          dim {
            dim_value: 1
          }
        }
      }
    }
  }
  input {
    name: "477"
    type {
      tensor_type {
        elem_type: FLOAT
        shape {
          dim {
            dim_value: 128
          }
        }
      }
    }
  }
  input {
    name: "478"
    type {
      tensor_type {
        elem_type: FLOAT
        shape {
          dim {
            dim_value: 128
          }
        }
      }
    }
  }
  input {
    name: "479"
    type {
      tensor_type {
        elem_type: FLOAT
        shape {
          dim {
            dim_value: 128
          }
        }
      }
    }
  }
  input {
    name: "480"
    type {
      tensor_type {
        elem_type: FLOAT
        shape {
          dim {
            dim_value: 128
          }
        }
      }
    }
  }
  input {
    name: "481"
    type {
      tensor_type {
        elem_type: FLOAT
        shape {
          dim {
            dim_value: 32
          }
          dim {
            dim_value: 128
          }
          dim {
            dim_value: 3
          }
          dim {
            dim_value: 3
          }
        }
      }
    }
  }
  input {
    name: "482"
    type {
      tensor_type {
        elem_type: FLOAT
        shape {
          dim {
            dim_value: 640
          }
        }
      }
    }
  }
  input {
    name: "483"
    type {
      tensor_type {
        elem_type: FLOAT
        shape {
          dim {
            dim_value: 640
          }
        }
      }
    }
  }
  input {
    name: "484"
    type {
      tensor_type {
        elem_type: FLOAT
        shape {
          dim {
            dim_value: 640
          }
        }
      }
    }
  }
  input {
    name: "485"
    type {
      tensor_type {
        elem_type: FLOAT
        shape {
          dim {
            dim_value: 640
          }
        }
      }
    }
  }
  input {
    name: "486"
    type {
      tensor_type {
        elem_type: FLOAT
        shape {
          dim {
            dim_value: 128
          }
          dim {
            dim_value: 640
          }
          dim {
            dim_value: 1
          }
          dim {
            dim_value: 1
          }
        }
      }
    }
  }
  input {
    name: "487"
    type {
      tensor_type {
        elem_type: FLOAT
        shape {
          dim {
            dim_value: 128
          }
        }
      }
    }
  }
  input {
    name: "488"
    type {
      tensor_type {
        elem_type: FLOAT
        shape {
          dim {
            dim_value: 128
          }
        }
      }
    }
  }
  input {
    name: "489"
    type {
      tensor_type {
        elem_type: FLOAT
        shape {
          dim {
            dim_value: 128
          }
        }
      }
    }
  }
  input {
    name: "490"
    type {
      tensor_type {
        elem_type: FLOAT
        shape {
          dim {
            dim_value: 128
          }
        }
      }
    }
  }
  input {
    name: "491"
    type {
      tensor_type {
        elem_type: FLOAT
        shape {
          dim {
            dim_value: 32
          }
          dim {
            dim_value: 128
          }
          dim {
            dim_value: 3
          }
          dim {
            dim_value: 3
          }
        }
      }
    }
  }
  input {
    name: "492"
    type {
      tensor_type {
        elem_type: FLOAT
        shape {
          dim {
            dim_value: 672
          }
        }
      }
    }
  }
  input {
    name: "493"
    type {
      tensor_type {
        elem_type: FLOAT
        shape {
          dim {
            dim_value: 672
          }
        }
      }
    }
  }
  input {
    name: "494"
    type {
      tensor_type {
        elem_type: FLOAT
        shape {
          dim {
            dim_value: 672
          }
        }
      }
    }
  }
  input {
    name: "495"
    type {
      tensor_type {
        elem_type: FLOAT
        shape {
          dim {
            dim_value: 672
          }
        }
      }
    }
  }
  input {
    name: "496"
    type {
      tensor_type {
        elem_type: FLOAT
        shape {
          dim {
            dim_value: 128
          }
          dim {
            dim_value: 672
          }
          dim {
            dim_value: 1
          }
          dim {
            dim_value: 1
          }
        }
      }
    }
  }
  input {
    name: "497"
    type {
      tensor_type {
        elem_type: FLOAT
        shape {
          dim {
            dim_value: 128
          }
        }
      }
    }
  }
  input {
    name: "498"
    type {
      tensor_type {
        elem_type: FLOAT
        shape {
          dim {
            dim_value: 128
          }
        }
      }
    }
  }
  input {
    name: "499"
    type {
      tensor_type {
        elem_type: FLOAT
        shape {
          dim {
            dim_value: 128
          }
        }
      }
    }
  }
  input {
    name: "500"
    type {
      tensor_type {
        elem_type: FLOAT
        shape {
          dim {
            dim_value: 128
          }
        }
      }
    }
  }
  input {
    name: "501"
    type {
      tensor_type {
        elem_type: FLOAT
        shape {
          dim {
            dim_value: 32
          }
          dim {
            dim_value: 128
          }
          dim {
            dim_value: 3
          }
          dim {
            dim_value: 3
          }
        }
      }
    }
  }
  input {
    name: "502"
    type {
      tensor_type {
        elem_type: FLOAT
        shape {
          dim {
            dim_value: 704
          }
        }
      }
    }
  }
  input {
    name: "503"
    type {
      tensor_type {
        elem_type: FLOAT
        shape {
          dim {
            dim_value: 704
          }
        }
      }
    }
  }
  input {
    name: "504"
    type {
      tensor_type {
        elem_type: FLOAT
        shape {
          dim {
            dim_value: 704
          }
        }
      }
    }
  }
  input {
    name: "505"
    type {
      tensor_type {
        elem_type: FLOAT
        shape {
          dim {
            dim_value: 704
          }
        }
      }
    }
  }
  input {
    name: "506"
    type {
      tensor_type {
        elem_type: FLOAT
        shape {
          dim {
            dim_value: 128
          }
          dim {
            dim_value: 704
          }
          dim {
            dim_value: 1
          }
          dim {
            dim_value: 1
          }
        }
      }
    }
  }
  input {
    name: "507"
    type {
      tensor_type {
        elem_type: FLOAT
        shape {
          dim {
            dim_value: 128
          }
        }
      }
    }
  }
  input {
    name: "508"
    type {
      tensor_type {
        elem_type: FLOAT
        shape {
          dim {
            dim_value: 128
          }
        }
      }
    }
  }
  input {
    name: "509"
    type {
      tensor_type {
        elem_type: FLOAT
        shape {
          dim {
            dim_value: 128
          }
        }
      }
    }
  }
  input {
    name: "510"
    type {
      tensor_type {
        elem_type: FLOAT
        shape {
          dim {
            dim_value: 128
          }
        }
      }
    }
  }
  input {
    name: "511"
    type {
      tensor_type {
        elem_type: FLOAT
        shape {
          dim {
            dim_value: 32
          }
          dim {
            dim_value: 128
          }
          dim {
            dim_value: 3
          }
          dim {
            dim_value: 3
          }
        }
      }
    }
  }
  input {
    name: "512"
    type {
      tensor_type {
        elem_type: FLOAT
        shape {
          dim {
            dim_value: 736
          }
        }
      }
    }
  }
  input {
    name: "513"
    type {
      tensor_type {
        elem_type: FLOAT
        shape {
          dim {
            dim_value: 736
          }
        }
      }
    }
  }
  input {
    name: "514"
    type {
      tensor_type {
        elem_type: FLOAT
        shape {
          dim {
            dim_value: 736
          }
        }
      }
    }
  }
  input {
    name: "515"
    type {
      tensor_type {
        elem_type: FLOAT
        shape {
          dim {
            dim_value: 736
          }
        }
      }
    }
  }
  input {
    name: "516"
    type {
      tensor_type {
        elem_type: FLOAT
        shape {
          dim {
            dim_value: 128
          }
          dim {
            dim_value: 736
          }
          dim {
            dim_value: 1
          }
          dim {
            dim_value: 1
          }
        }
      }
    }
  }
  input {
    name: "517"
    type {
      tensor_type {
        elem_type: FLOAT
        shape {
          dim {
            dim_value: 128
          }
        }
      }
    }
  }
  input {
    name: "518"
    type {
      tensor_type {
        elem_type: FLOAT
        shape {
          dim {
            dim_value: 128
          }
        }
      }
    }
  }
  input {
    name: "519"
    type {
      tensor_type {
        elem_type: FLOAT
        shape {
          dim {
            dim_value: 128
          }
        }
      }
    }
  }
  input {
    name: "520"
    type {
      tensor_type {
        elem_type: FLOAT
        shape {
          dim {
            dim_value: 128
          }
        }
      }
    }
  }
  input {
    name: "521"
    type {
      tensor_type {
        elem_type: FLOAT
        shape {
          dim {
            dim_value: 32
          }
          dim {
            dim_value: 128
          }
          dim {
            dim_value: 3
          }
          dim {
            dim_value: 3
          }
        }
      }
    }
  }
  input {
    name: "522"
    type {
      tensor_type {
        elem_type: FLOAT
        shape {
          dim {
            dim_value: 768
          }
        }
      }
    }
  }
  input {
    name: "523"
    type {
      tensor_type {
        elem_type: FLOAT
        shape {
          dim {
            dim_value: 768
          }
        }
      }
    }
  }
  input {
    name: "524"
    type {
      tensor_type {
        elem_type: FLOAT
        shape {
          dim {
            dim_value: 768
          }
        }
      }
    }
  }
  input {
    name: "525"
    type {
      tensor_type {
        elem_type: FLOAT
        shape {
          dim {
            dim_value: 768
          }
        }
      }
    }
  }
  input {
    name: "526"
    type {
      tensor_type {
        elem_type: FLOAT
        shape {
          dim {
            dim_value: 128
          }
          dim {
            dim_value: 768
          }
          dim {
            dim_value: 1
          }
          dim {
            dim_value: 1
          }
        }
      }
    }
  }
  input {
    name: "527"
    type {
      tensor_type {
        elem_type: FLOAT
        shape {
          dim {
            dim_value: 128
          }
        }
      }
    }
  }
  input {
    name: "528"
    type {
      tensor_type {
        elem_type: FLOAT
        shape {
          dim {
            dim_value: 128
          }
        }
      }
    }
  }
  input {
    name: "529"
    type {
      tensor_type {
        elem_type: FLOAT
        shape {
          dim {
            dim_value: 128
          }
        }
      }
    }
  }
  input {
    name: "530"
    type {
      tensor_type {
        elem_type: FLOAT
        shape {
          dim {
            dim_value: 128
          }
        }
      }
    }
  }
  input {
    name: "531"
    type {
      tensor_type {
        elem_type: FLOAT
        shape {
          dim {
            dim_value: 32
          }
          dim {
            dim_value: 128
          }
          dim {
            dim_value: 3
          }
          dim {
            dim_value: 3
          }
        }
      }
    }
  }
  input {
    name: "532"
    type {
      tensor_type {
        elem_type: FLOAT
        shape {
          dim {
            dim_value: 800
          }
        }
      }
    }
  }
  input {
    name: "533"
    type {
      tensor_type {
        elem_type: FLOAT
        shape {
          dim {
            dim_value: 800
          }
        }
      }
    }
  }
  input {
    name: "534"
    type {
      tensor_type {
        elem_type: FLOAT
        shape {
          dim {
            dim_value: 800
          }
        }
      }
    }
  }
  input {
    name: "535"
    type {
      tensor_type {
        elem_type: FLOAT
        shape {
          dim {
            dim_value: 800
          }
        }
      }
    }
  }
  input {
    name: "536"
    type {
      tensor_type {
        elem_type: FLOAT
        shape {
          dim {
            dim_value: 128
          }
          dim {
            dim_value: 800
          }
          dim {
            dim_value: 1
          }
          dim {
            dim_value: 1
          }
        }
      }
    }
  }
  input {
    name: "537"
    type {
      tensor_type {
        elem_type: FLOAT
        shape {
          dim {
            dim_value: 128
          }
        }
      }
    }
  }
  input {
    name: "538"
    type {
      tensor_type {
        elem_type: FLOAT
        shape {
          dim {
            dim_value: 128
          }
        }
      }
    }
  }
  input {
    name: "539"
    type {
      tensor_type {
        elem_type: FLOAT
        shape {
          dim {
            dim_value: 128
          }
        }
      }
    }
  }
  input {
    name: "540"
    type {
      tensor_type {
        elem_type: FLOAT
        shape {
          dim {
            dim_value: 128
          }
        }
      }
    }
  }
  input {
    name: "541"
    type {
      tensor_type {
        elem_type: FLOAT
        shape {
          dim {
            dim_value: 32
          }
          dim {
            dim_value: 128
          }
          dim {
            dim_value: 3
          }
          dim {
            dim_value: 3
          }
        }
      }
    }
  }
  input {
    name: "542"
    type {
      tensor_type {
        elem_type: FLOAT
        shape {
          dim {
            dim_value: 832
          }
        }
      }
    }
  }
  input {
    name: "543"
    type {
      tensor_type {
        elem_type: FLOAT
        shape {
          dim {
            dim_value: 832
          }
        }
      }
    }
  }
  input {
    name: "544"
    type {
      tensor_type {
        elem_type: FLOAT
        shape {
          dim {
            dim_value: 832
          }
        }
      }
    }
  }
  input {
    name: "545"
    type {
      tensor_type {
        elem_type: FLOAT
        shape {
          dim {
            dim_value: 832
          }
        }
      }
    }
  }
  input {
    name: "546"
    type {
      tensor_type {
        elem_type: FLOAT
        shape {
          dim {
            dim_value: 128
          }
          dim {
            dim_value: 832
          }
          dim {
            dim_value: 1
          }
          dim {
            dim_value: 1
          }
        }
      }
    }
  }
  input {
    name: "547"
    type {
      tensor_type {
        elem_type: FLOAT
        shape {
          dim {
            dim_value: 128
          }
        }
      }
    }
  }
  input {
    name: "548"
    type {
      tensor_type {
        elem_type: FLOAT
        shape {
          dim {
            dim_value: 128
          }
        }
      }
    }
  }
  input {
    name: "549"
    type {
      tensor_type {
        elem_type: FLOAT
        shape {
          dim {
            dim_value: 128
          }
        }
      }
    }
  }
  input {
    name: "550"
    type {
      tensor_type {
        elem_type: FLOAT
        shape {
          dim {
            dim_value: 128
          }
        }
      }
    }
  }
  input {
    name: "551"
    type {
      tensor_type {
        elem_type: FLOAT
        shape {
          dim {
            dim_value: 32
          }
          dim {
            dim_value: 128
          }
          dim {
            dim_value: 3
          }
          dim {
            dim_value: 3
          }
        }
      }
    }
  }
  input {
    name: "552"
    type {
      tensor_type {
        elem_type: FLOAT
        shape {
          dim {
            dim_value: 864
          }
        }
      }
    }
  }
  input {
    name: "553"
    type {
      tensor_type {
        elem_type: FLOAT
        shape {
          dim {
            dim_value: 864
          }
        }
      }
    }
  }
  input {
    name: "554"
    type {
      tensor_type {
        elem_type: FLOAT
        shape {
          dim {
            dim_value: 864
          }
        }
      }
    }
  }
  input {
    name: "555"
    type {
      tensor_type {
        elem_type: FLOAT
        shape {
          dim {
            dim_value: 864
          }
        }
      }
    }
  }
  input {
    name: "556"
    type {
      tensor_type {
        elem_type: FLOAT
        shape {
          dim {
            dim_value: 128
          }
          dim {
            dim_value: 864
          }
          dim {
            dim_value: 1
          }
          dim {
            dim_value: 1
          }
        }
      }
    }
  }
  input {
    name: "557"
    type {
      tensor_type {
        elem_type: FLOAT
        shape {
          dim {
            dim_value: 128
          }
        }
      }
    }
  }
  input {
    name: "558"
    type {
      tensor_type {
        elem_type: FLOAT
        shape {
          dim {
            dim_value: 128
          }
        }
      }
    }
  }
  input {
    name: "559"
    type {
      tensor_type {
        elem_type: FLOAT
        shape {
          dim {
            dim_value: 128
          }
        }
      }
    }
  }
  input {
    name: "560"
    type {
      tensor_type {
        elem_type: FLOAT
        shape {
          dim {
            dim_value: 128
          }
        }
      }
    }
  }
  input {
    name: "561"
    type {
      tensor_type {
        elem_type: FLOAT
        shape {
          dim {
            dim_value: 32
          }
          dim {
            dim_value: 128
          }
          dim {
            dim_value: 3
          }
          dim {
            dim_value: 3
          }
        }
      }
    }
  }
  input {
    name: "562"
    type {
      tensor_type {
        elem_type: FLOAT
        shape {
          dim {
            dim_value: 896
          }
        }
      }
    }
  }
  input {
    name: "563"
    type {
      tensor_type {
        elem_type: FLOAT
        shape {
          dim {
            dim_value: 896
          }
        }
      }
    }
  }
  input {
    name: "564"
    type {
      tensor_type {
        elem_type: FLOAT
        shape {
          dim {
            dim_value: 896
          }
        }
      }
    }
  }
  input {
    name: "565"
    type {
      tensor_type {
        elem_type: FLOAT
        shape {
          dim {
            dim_value: 896
          }
        }
      }
    }
  }
  input {
    name: "566"
    type {
      tensor_type {
        elem_type: FLOAT
        shape {
          dim {
            dim_value: 128
          }
          dim {
            dim_value: 896
          }
          dim {
            dim_value: 1
          }
          dim {
            dim_value: 1
          }
        }
      }
    }
  }
  input {
    name: "567"
    type {
      tensor_type {
        elem_type: FLOAT
        shape {
          dim {
            dim_value: 128
          }
        }
      }
    }
  }
  input {
    name: "568"
    type {
      tensor_type {
        elem_type: FLOAT
        shape {
          dim {
            dim_value: 128
          }
        }
      }
    }
  }
  input {
    name: "569"
    type {
      tensor_type {
        elem_type: FLOAT
        shape {
          dim {
            dim_value: 128
          }
        }
      }
    }
  }
  input {
    name: "570"
    type {
      tensor_type {
        elem_type: FLOAT
        shape {
          dim {
            dim_value: 128
          }
        }
      }
    }
  }
  input {
    name: "571"
    type {
      tensor_type {
        elem_type: FLOAT
        shape {
          dim {
            dim_value: 32
          }
          dim {
            dim_value: 128
          }
          dim {
            dim_value: 3
          }
          dim {
            dim_value: 3
          }
        }
      }
    }
  }
  input {
    name: "572"
    type {
      tensor_type {
        elem_type: FLOAT
        shape {
          dim {
            dim_value: 928
          }
        }
      }
    }
  }
  input {
    name: "573"
    type {
      tensor_type {
        elem_type: FLOAT
        shape {
          dim {
            dim_value: 928
          }
        }
      }
    }
  }
  input {
    name: "574"
    type {
      tensor_type {
        elem_type: FLOAT
        shape {
          dim {
            dim_value: 928
          }
        }
      }
    }
  }
  input {
    name: "575"
    type {
      tensor_type {
        elem_type: FLOAT
        shape {
          dim {
            dim_value: 928
          }
        }
      }
    }
  }
  input {
    name: "576"
    type {
      tensor_type {
        elem_type: FLOAT
        shape {
          dim {
            dim_value: 128
          }
          dim {
            dim_value: 928
          }
          dim {
            dim_value: 1
          }
          dim {
            dim_value: 1
          }
        }
      }
    }
  }
  input {
    name: "577"
    type {
      tensor_type {
        elem_type: FLOAT
        shape {
          dim {
            dim_value: 128
          }
        }
      }
    }
  }
  input {
    name: "578"
    type {
      tensor_type {
        elem_type: FLOAT
        shape {
          dim {
            dim_value: 128
          }
        }
      }
    }
  }
  input {
    name: "579"
    type {
      tensor_type {
        elem_type: FLOAT
        shape {
          dim {
            dim_value: 128
          }
        }
      }
    }
  }
  input {
    name: "580"
    type {
      tensor_type {
        elem_type: FLOAT
        shape {
          dim {
            dim_value: 128
          }
        }
      }
    }
  }
  input {
    name: "581"
    type {
      tensor_type {
        elem_type: FLOAT
        shape {
          dim {
            dim_value: 32
          }
          dim {
            dim_value: 128
          }
          dim {
            dim_value: 3
          }
          dim {
            dim_value: 3
          }
        }
      }
    }
  }
  input {
    name: "582"
    type {
      tensor_type {
        elem_type: FLOAT
        shape {
          dim {
            dim_value: 960
          }
        }
      }
    }
  }
  input {
    name: "583"
    type {
      tensor_type {
        elem_type: FLOAT
        shape {
          dim {
            dim_value: 960
          }
        }
      }
    }
  }
  input {
    name: "584"
    type {
      tensor_type {
        elem_type: FLOAT
        shape {
          dim {
            dim_value: 960
          }
        }
      }
    }
  }
  input {
    name: "585"
    type {
      tensor_type {
        elem_type: FLOAT
        shape {
          dim {
            dim_value: 960
          }
        }
      }
    }
  }
  input {
    name: "586"
    type {
      tensor_type {
        elem_type: FLOAT
        shape {
          dim {
            dim_value: 128
          }
          dim {
            dim_value: 960
          }
          dim {
            dim_value: 1
          }
          dim {
            dim_value: 1
          }
        }
      }
    }
  }
  input {
    name: "587"
    type {
      tensor_type {
        elem_type: FLOAT
        shape {
          dim {
            dim_value: 128
          }
        }
      }
    }
  }
  input {
    name: "588"
    type {
      tensor_type {
        elem_type: FLOAT
        shape {
          dim {
            dim_value: 128
          }
        }
      }
    }
  }
  input {
    name: "589"
    type {
      tensor_type {
        elem_type: FLOAT
        shape {
          dim {
            dim_value: 128
          }
        }
      }
    }
  }
  input {
    name: "590"
    type {
      tensor_type {
        elem_type: FLOAT
        shape {
          dim {
            dim_value: 128
          }
        }
      }
    }
  }
  input {
    name: "591"
    type {
      tensor_type {
        elem_type: FLOAT
        shape {
          dim {
            dim_value: 32
          }
          dim {
            dim_value: 128
          }
          dim {
            dim_value: 3
          }
          dim {
            dim_value: 3
          }
        }
      }
    }
  }
  input {
    name: "592"
    type {
      tensor_type {
        elem_type: FLOAT
        shape {
          dim {
            dim_value: 992
          }
        }
      }
    }
  }
  input {
    name: "593"
    type {
      tensor_type {
        elem_type: FLOAT
        shape {
          dim {
            dim_value: 992
          }
        }
      }
    }
  }
  input {
    name: "594"
    type {
      tensor_type {
        elem_type: FLOAT
        shape {
          dim {
            dim_value: 992
          }
        }
      }
    }
  }
  input {
    name: "595"
    type {
      tensor_type {
        elem_type: FLOAT
        shape {
          dim {
            dim_value: 992
          }
        }
      }
    }
  }
  input {
    name: "596"
    type {
      tensor_type {
        elem_type: FLOAT
        shape {
          dim {
            dim_value: 128
          }
          dim {
            dim_value: 992
          }
          dim {
            dim_value: 1
          }
          dim {
            dim_value: 1
          }
        }
      }
    }
  }
  input {
    name: "597"
    type {
      tensor_type {
        elem_type: FLOAT
        shape {
          dim {
            dim_value: 128
          }
        }
      }
    }
  }
  input {
    name: "598"
    type {
      tensor_type {
        elem_type: FLOAT
        shape {
          dim {
            dim_value: 128
          }
        }
      }
    }
  }
  input {
    name: "599"
    type {
      tensor_type {
        elem_type: FLOAT
        shape {
          dim {
            dim_value: 128
          }
        }
      }
    }
  }
  input {
    name: "600"
    type {
      tensor_type {
        elem_type: FLOAT
        shape {
          dim {
            dim_value: 128
          }
        }
      }
    }
  }
  input {
    name: "601"
    type {
      tensor_type {
        elem_type: FLOAT
        shape {
          dim {
            dim_value: 32
          }
          dim {
            dim_value: 128
          }
          dim {
            dim_value: 3
          }
          dim {
            dim_value: 3
          }
        }
      }
    }
  }
  input {
    name: "602"
    type {
      tensor_type {
        elem_type: FLOAT
        shape {
          dim {
            dim_value: 1024
          }
        }
      }
    }
  }
  input {
    name: "603"
    type {
      tensor_type {
        elem_type: FLOAT
        shape {
          dim {
            dim_value: 1024
          }
        }
      }
    }
  }
  input {
    name: "604"
    type {
      tensor_type {
        elem_type: FLOAT
        shape {
          dim {
            dim_value: 1024
          }
        }
      }
    }
  }
  input {
    name: "605"
    type {
      tensor_type {
        elem_type: FLOAT
        shape {
          dim {
            dim_value: 1024
          }
        }
      }
    }
  }
  input {
    name: "606"
    type {
      tensor_type {
        elem_type: FLOAT
        shape {
          dim {
            dim_value: 1000
          }
          dim {
            dim_value: 1024
          }
        }
      }
    }
  }
  input {
    name: "607"
    type {
      tensor_type {
        elem_type: FLOAT
        shape {
          dim {
            dim_value: 1000
          }
        }
      }
    }
  }
  output {
    name: "1336"
    type {
      tensor_type {
        elem_type: FLOAT
        shape {
          dim {
            dim_value: 2
          }
          dim {
            dim_value: 1000
          }
        }
      }
    }
  }
}
