ir_version: 1
producer_name: "pytorch"
producer_version: "0.2"
domain: "com.facebook"
graph {
  node {
    input: "3"
    input: "1"
    output: "26"
    op_type: "Gather"
  }
  node {
    input: "26"
    output: "28"
    output: "29"
    op_type: "Dropout"
    attribute {
      name: "is_test"
      i: 1
    }
    attribute {
      name: "ratio"
      f: 0.200000002980232
    }
  }
  node {
    output: "30"
    op_type: "Constant"
    attribute {
      name: "value"
      t {
        dims: 1
        data_type: INT32
        raw_data: "\000\000\000\000"
      }
    }
  }
  node {
    output: "31"
    op_type: "Constant"
    attribute {
      name: "value"
      t {
        dims: 1
        data_type: INT64
        raw_data: "\000\000\000\000\000\000\000\000"
      }
    }
  }
  node {
    output: "32"
    op_type: "Constant"
    attribute {
      name: "value"
      t {
        dims: 1
        data_type: INT64
        raw_data: "\001\000\000\000\000\000\000\000"
      }
    }
  }
  node {
    input: "2"
    input: "30"
    input: "31"
    input: "32"
    output: "33"
    op_type: "Slice"
  }
  node {
    input: "33"
    output: "34"
    op_type: "Squeeze"
    attribute {
      name: "axes"
      ints: 0
    }
  }
  node {
    output: "35"
    op_type: "Constant"
    attribute {
      name: "value"
      t {
        dims: 1
        data_type: INT32
        raw_data: "\000\000\000\000"
      }
    }
  }
  node {
    output: "36"
    op_type: "Constant"
    attribute {
      name: "value"
      t {
        dims: 1
        data_type: INT64
        raw_data: "\000\000\000\000\000\000\000\000"
      }
    }
  }
  node {
    output: "37"
    op_type: "Constant"
    attribute {
      name: "value"
      t {
        dims: 1
        data_type: INT64
        raw_data: "\001\000\000\000\000\000\000\000"
      }
    }
  }
  node {
    input: "28"
    input: "35"
    input: "36"
    input: "37"
    output: "38"
    op_type: "Slice"
  }
  node {
    input: "38"
    output: "39"
    op_type: "Squeeze"
    attribute {
      name: "axes"
      ints: 0
    }
  }
  node {
    input: "4"
    output: "40"
    op_type: "Transpose"
    attribute {
      name: "perm"
      ints: 1
      ints: 0
    }
  }
  node {
    input: "39"
    input: "40"
    input: "6"
    output: "1542"
    op_type: "Gemm"
    attribute {
      name: "alpha"
      f: 1
    }
    attribute {
      name: "beta"
      f: 1
    }
    attribute {
      name: "broadcast"
      i: 1
    }
  }
  node {
    input: "5"
    output: "43"
    op_type: "Transpose"
    attribute {
      name: "perm"
      ints: 1
      ints: 0
    }
  }
  node {
    input: "34"
    input: "43"
    input: "7"
    output: "1543"
    op_type: "Gemm"
    attribute {
      name: "alpha"
      f: 1
    }
    attribute {
      name: "beta"
      f: 1
    }
    attribute {
      name: "broadcast"
      i: 1
    }
  }
  node {
    input: "1542"
    output: "47"
    output: "48"
    output: "49"
    op_type: "Split"
    attribute {
      name: "axis"
      i: 1
    }
    attribute {
      name: "split"
      ints: 5
      ints: 5
      ints: 5
    }
  }
  node {
    input: "1543"
    output: "51"
    output: "52"
    output: "53"
    op_type: "Split"
    attribute {
      name: "axis"
      i: 1
    }
    attribute {
      name: "split"
      ints: 5
      ints: 5
      ints: 5
    }
  }
  node {
    input: "47"
    input: "51"
    output: "54"
    op_type: "Add"
  }
  node {
    input: "54"
    output: "55"
    op_type: "Sigmoid"
  }
  node {
    input: "48"
    input: "52"
    output: "56"
    op_type: "Add"
  }
  node {
    input: "56"
    output: "57"
    op_type: "Sigmoid"
  }
  node {
    input: "55"
    input: "53"
    output: "58"
    op_type: "Mul"
  }
  node {
    input: "49"
    input: "58"
    output: "59"
    op_type: "Add"
  }
  node {
    input: "59"
    output: "60"
    op_type: "Tanh"
  }
  node {
    input: "34"
    input: "60"
    output: "61"
    op_type: "Sub"
  }
  node {
    input: "57"
    input: "61"
    output: "62"
    op_type: "Mul"
  }
  node {
    input: "60"
    input: "62"
    output: "63"
    op_type: "Add"
  }
  node {
    output: "64"
    op_type: "Constant"
    attribute {
      name: "value"
      t {
        dims: 1
        data_type: INT32
        raw_data: "\000\000\000\000"
      }
    }
  }
  node {
    output: "65"
    op_type: "Constant"
    attribute {
      name: "value"
      t {
        dims: 1
        data_type: INT64
        raw_data: "\001\000\000\000\000\000\000\000"
      }
    }
  }
  node {
    output: "66"
    op_type: "Constant"
    attribute {
      name: "value"
      t {
        dims: 1
        data_type: INT64
        raw_data: "\002\000\000\000\000\000\000\000"
      }
    }
  }
  node {
    input: "28"
    input: "64"
    input: "65"
    input: "66"
    output: "67"
    op_type: "Slice"
  }
  node {
    input: "67"
    output: "68"
    op_type: "Squeeze"
    attribute {
      name: "axes"
      ints: 0
    }
  }
  node {
    input: "4"
    output: "69"
    op_type: "Transpose"
    attribute {
      name: "perm"
      ints: 1
      ints: 0
    }
  }
  node {
    input: "68"
    input: "69"
    input: "6"
    output: "1544"
    op_type: "Gemm"
    attribute {
      name: "alpha"
      f: 1
    }
    attribute {
      name: "beta"
      f: 1
    }
    attribute {
      name: "broadcast"
      i: 1
    }
  }
  node {
    input: "5"
    output: "72"
    op_type: "Transpose"
    attribute {
      name: "perm"
      ints: 1
      ints: 0
    }
  }
  node {
    input: "63"
    input: "72"
    input: "7"
    output: "1545"
    op_type: "Gemm"
    attribute {
      name: "alpha"
      f: 1
    }
    attribute {
      name: "beta"
      f: 1
    }
    attribute {
      name: "broadcast"
      i: 1
    }
  }
  node {
    input: "1544"
    output: "76"
    output: "77"
    output: "78"
    op_type: "Split"
    attribute {
      name: "axis"
      i: 1
    }
    attribute {
      name: "split"
      ints: 5
      ints: 5
      ints: 5
    }
  }
  node {
    input: "1545"
    output: "80"
    output: "81"
    output: "82"
    op_type: "Split"
    attribute {
      name: "axis"
      i: 1
    }
    attribute {
      name: "split"
      ints: 5
      ints: 5
      ints: 5
    }
  }
  node {
    input: "76"
    input: "80"
    output: "83"
    op_type: "Add"
  }
  node {
    input: "83"
    output: "84"
    op_type: "Sigmoid"
  }
  node {
    input: "77"
    input: "81"
    output: "85"
    op_type: "Add"
  }
  node {
    input: "85"
    output: "86"
    op_type: "Sigmoid"
  }
  node {
    input: "84"
    input: "82"
    output: "87"
    op_type: "Mul"
  }
  node {
    input: "78"
    input: "87"
    output: "88"
    op_type: "Add"
  }
  node {
    input: "88"
    output: "89"
    op_type: "Tanh"
  }
  node {
    input: "63"
    input: "89"
    output: "90"
    op_type: "Sub"
  }
  node {
    input: "86"
    input: "90"
    output: "91"
    op_type: "Mul"
  }
  node {
    input: "89"
    input: "91"
    output: "92"
    op_type: "Add"
  }
  node {
    output: "93"
    op_type: "Constant"
    attribute {
      name: "value"
      t {
        dims: 1
        data_type: INT32
        raw_data: "\000\000\000\000"
      }
    }
  }
  node {
    output: "94"
    op_type: "Constant"
    attribute {
      name: "value"
      t {
        dims: 1
        data_type: INT64
        raw_data: "\002\000\000\000\000\000\000\000"
      }
    }
  }
  node {
    output: "95"
    op_type: "Constant"
    attribute {
      name: "value"
      t {
        dims: 1
        data_type: INT64
        raw_data: "\003\000\000\000\000\000\000\000"
      }
    }
  }
  node {
    input: "28"
    input: "93"
    input: "94"
    input: "95"
    output: "96"
    op_type: "Slice"
  }
  node {
    input: "96"
    output: "97"
    op_type: "Squeeze"
    attribute {
      name: "axes"
      ints: 0
    }
  }
  node {
    input: "4"
    output: "98"
    op_type: "Transpose"
    attribute {
      name: "perm"
      ints: 1
      ints: 0
    }
  }
  node {
    input: "97"
    input: "98"
    input: "6"
    output: "1546"
    op_type: "Gemm"
    attribute {
      name: "alpha"
      f: 1
    }
    attribute {
      name: "beta"
      f: 1
    }
    attribute {
      name: "broadcast"
      i: 1
    }
  }
  node {
    input: "5"
    output: "101"
    op_type: "Transpose"
    attribute {
      name: "perm"
      ints: 1
      ints: 0
    }
  }
  node {
    input: "92"
    input: "101"
    input: "7"
    output: "1547"
    op_type: "Gemm"
    attribute {
      name: "alpha"
      f: 1
    }
    attribute {
      name: "beta"
      f: 1
    }
    attribute {
      name: "broadcast"
      i: 1
    }
  }
  node {
    input: "1546"
    output: "105"
    output: "106"
    output: "107"
    op_type: "Split"
    attribute {
      name: "axis"
      i: 1
    }
    attribute {
      name: "split"
      ints: 5
      ints: 5
      ints: 5
    }
  }
  node {
    input: "1547"
    output: "109"
    output: "110"
    output: "111"
    op_type: "Split"
    attribute {
      name: "axis"
      i: 1
    }
    attribute {
      name: "split"
      ints: 5
      ints: 5
      ints: 5
    }
  }
  node {
    input: "105"
    input: "109"
    output: "112"
    op_type: "Add"
  }
  node {
    input: "112"
    output: "113"
    op_type: "Sigmoid"
  }
  node {
    input: "106"
    input: "110"
    output: "114"
    op_type: "Add"
  }
  node {
    input: "114"
    output: "115"
    op_type: "Sigmoid"
  }
  node {
    input: "113"
    input: "111"
    output: "116"
    op_type: "Mul"
  }
  node {
    input: "107"
    input: "116"
    output: "117"
    op_type: "Add"
  }
  node {
    input: "117"
    output: "118"
    op_type: "Tanh"
  }
  node {
    input: "92"
    input: "118"
    output: "119"
    op_type: "Sub"
  }
  node {
    input: "115"
    input: "119"
    output: "120"
    op_type: "Mul"
  }
  node {
    input: "118"
    input: "120"
    output: "121"
    op_type: "Add"
  }
  node {
    output: "122"
    op_type: "Constant"
    attribute {
      name: "value"
      t {
        dims: 1
        data_type: INT32
        raw_data: "\000\000\000\000"
      }
    }
  }
  node {
    output: "123"
    op_type: "Constant"
    attribute {
      name: "value"
      t {
        dims: 1
        data_type: INT64
        raw_data: "\003\000\000\000\000\000\000\000"
      }
    }
  }
  node {
    output: "124"
    op_type: "Constant"
    attribute {
      name: "value"
      t {
        dims: 1
        data_type: INT64
        raw_data: "\004\000\000\000\000\000\000\000"
      }
    }
  }
  node {
    input: "28"
    input: "122"
    input: "123"
    input: "124"
    output: "125"
    op_type: "Slice"
  }
  node {
    input: "125"
    output: "126"
    op_type: "Squeeze"
    attribute {
      name: "axes"
      ints: 0
    }
  }
  node {
    input: "4"
    output: "127"
    op_type: "Transpose"
    attribute {
      name: "perm"
      ints: 1
      ints: 0
    }
  }
  node {
    input: "126"
    input: "127"
    input: "6"
    output: "1548"
    op_type: "Gemm"
    attribute {
      name: "alpha"
      f: 1
    }
    attribute {
      name: "beta"
      f: 1
    }
    attribute {
      name: "broadcast"
      i: 1
    }
  }
  node {
    input: "5"
    output: "130"
    op_type: "Transpose"
    attribute {
      name: "perm"
      ints: 1
      ints: 0
    }
  }
  node {
    input: "121"
    input: "130"
    input: "7"
    output: "1549"
    op_type: "Gemm"
    attribute {
      name: "alpha"
      f: 1
    }
    attribute {
      name: "beta"
      f: 1
    }
    attribute {
      name: "broadcast"
      i: 1
    }
  }
  node {
    input: "1548"
    output: "134"
    output: "135"
    output: "136"
    op_type: "Split"
    attribute {
      name: "axis"
      i: 1
    }
    attribute {
      name: "split"
      ints: 5
      ints: 5
      ints: 5
    }
  }
  node {
    input: "1549"
    output: "138"
    output: "139"
    output: "140"
    op_type: "Split"
    attribute {
      name: "axis"
      i: 1
    }
    attribute {
      name: "split"
      ints: 5
      ints: 5
      ints: 5
    }
  }
  node {
    input: "134"
    input: "138"
    output: "141"
    op_type: "Add"
  }
  node {
    input: "141"
    output: "142"
    op_type: "Sigmoid"
  }
  node {
    input: "135"
    input: "139"
    output: "143"
    op_type: "Add"
  }
  node {
    input: "143"
    output: "144"
    op_type: "Sigmoid"
  }
  node {
    input: "142"
    input: "140"
    output: "145"
    op_type: "Mul"
  }
  node {
    input: "136"
    input: "145"
    output: "146"
    op_type: "Add"
  }
  node {
    input: "146"
    output: "147"
    op_type: "Tanh"
  }
  node {
    input: "121"
    input: "147"
    output: "148"
    op_type: "Sub"
  }
  node {
    input: "144"
    input: "148"
    output: "149"
    op_type: "Mul"
  }
  node {
    input: "147"
    input: "149"
    output: "150"
    op_type: "Add"
  }
  node {
    output: "151"
    op_type: "Constant"
    attribute {
      name: "value"
      t {
        dims: 1
        data_type: INT32
        raw_data: "\000\000\000\000"
      }
    }
  }
  node {
    output: "152"
    op_type: "Constant"
    attribute {
      name: "value"
      t {
        dims: 1
        data_type: INT64
        raw_data: "\004\000\000\000\000\000\000\000"
      }
    }
  }
  node {
    output: "153"
    op_type: "Constant"
    attribute {
      name: "value"
      t {
        dims: 1
        data_type: INT64
        raw_data: "\005\000\000\000\000\000\000\000"
      }
    }
  }
  node {
    input: "28"
    input: "151"
    input: "152"
    input: "153"
    output: "154"
    op_type: "Slice"
  }
  node {
    input: "154"
    output: "155"
    op_type: "Squeeze"
    attribute {
      name: "axes"
      ints: 0
    }
  }
  node {
    input: "4"
    output: "156"
    op_type: "Transpose"
    attribute {
      name: "perm"
      ints: 1
      ints: 0
    }
  }
  node {
    input: "155"
    input: "156"
    input: "6"
    output: "1550"
    op_type: "Gemm"
    attribute {
      name: "alpha"
      f: 1
    }
    attribute {
      name: "beta"
      f: 1
    }
    attribute {
      name: "broadcast"
      i: 1
    }
  }
  node {
    input: "5"
    output: "159"
    op_type: "Transpose"
    attribute {
      name: "perm"
      ints: 1
      ints: 0
    }
  }
  node {
    input: "150"
    input: "159"
    input: "7"
    output: "1551"
    op_type: "Gemm"
    attribute {
      name: "alpha"
      f: 1
    }
    attribute {
      name: "beta"
      f: 1
    }
    attribute {
      name: "broadcast"
      i: 1
    }
  }
  node {
    input: "1550"
    output: "163"
    output: "164"
    output: "165"
    op_type: "Split"
    attribute {
      name: "axis"
      i: 1
    }
    attribute {
      name: "split"
      ints: 5
      ints: 5
      ints: 5
    }
  }
  node {
    input: "1551"
    output: "167"
    output: "168"
    output: "169"
    op_type: "Split"
    attribute {
      name: "axis"
      i: 1
    }
    attribute {
      name: "split"
      ints: 5
      ints: 5
      ints: 5
    }
  }
  node {
    input: "163"
    input: "167"
    output: "170"
    op_type: "Add"
  }
  node {
    input: "170"
    output: "171"
    op_type: "Sigmoid"
  }
  node {
    input: "164"
    input: "168"
    output: "172"
    op_type: "Add"
  }
  node {
    input: "172"
    output: "173"
    op_type: "Sigmoid"
  }
  node {
    input: "171"
    input: "169"
    output: "174"
    op_type: "Mul"
  }
  node {
    input: "165"
    input: "174"
    output: "175"
    op_type: "Add"
  }
  node {
    input: "175"
    output: "176"
    op_type: "Tanh"
  }
  node {
    input: "150"
    input: "176"
    output: "177"
    op_type: "Sub"
  }
  node {
    input: "173"
    input: "177"
    output: "178"
    op_type: "Mul"
  }
  node {
    input: "176"
    input: "178"
    output: "179"
    op_type: "Add"
  }
  node {
    output: "180"
    op_type: "Constant"
    attribute {
      name: "value"
      t {
        dims: 1
        data_type: INT32
        raw_data: "\000\000\000\000"
      }
    }
  }
  node {
    output: "181"
    op_type: "Constant"
    attribute {
      name: "value"
      t {
        dims: 1
        data_type: INT64
        raw_data: "\005\000\000\000\000\000\000\000"
      }
    }
  }
  node {
    output: "182"
    op_type: "Constant"
    attribute {
      name: "value"
      t {
        dims: 1
        data_type: INT64
        raw_data: "\006\000\000\000\000\000\000\000"
      }
    }
  }
  node {
    input: "28"
    input: "180"
    input: "181"
    input: "182"
    output: "183"
    op_type: "Slice"
  }
  node {
    input: "183"
    output: "184"
    op_type: "Squeeze"
    attribute {
      name: "axes"
      ints: 0
    }
  }
  node {
    input: "4"
    output: "185"
    op_type: "Transpose"
    attribute {
      name: "perm"
      ints: 1
      ints: 0
    }
  }
  node {
    input: "184"
    input: "185"
    input: "6"
    output: "1552"
    op_type: "Gemm"
    attribute {
      name: "alpha"
      f: 1
    }
    attribute {
      name: "beta"
      f: 1
    }
    attribute {
      name: "broadcast"
      i: 1
    }
  }
  node {
    input: "5"
    output: "188"
    op_type: "Transpose"
    attribute {
      name: "perm"
      ints: 1
      ints: 0
    }
  }
  node {
    input: "179"
    input: "188"
    input: "7"
    output: "1553"
    op_type: "Gemm"
    attribute {
      name: "alpha"
      f: 1
    }
    attribute {
      name: "beta"
      f: 1
    }
    attribute {
      name: "broadcast"
      i: 1
    }
  }
  node {
    input: "1552"
    output: "192"
    output: "193"
    output: "194"
    op_type: "Split"
    attribute {
      name: "axis"
      i: 1
    }
    attribute {
      name: "split"
      ints: 5
      ints: 5
      ints: 5
    }
  }
  node {
    input: "1553"
    output: "196"
    output: "197"
    output: "198"
    op_type: "Split"
    attribute {
      name: "axis"
      i: 1
    }
    attribute {
      name: "split"
      ints: 5
      ints: 5
      ints: 5
    }
  }
  node {
    input: "192"
    input: "196"
    output: "199"
    op_type: "Add"
  }
  node {
    input: "199"
    output: "200"
    op_type: "Sigmoid"
  }
  node {
    input: "193"
    input: "197"
    output: "201"
    op_type: "Add"
  }
  node {
    input: "201"
    output: "202"
    op_type: "Sigmoid"
  }
  node {
    input: "200"
    input: "198"
    output: "203"
    op_type: "Mul"
  }
  node {
    input: "194"
    input: "203"
    output: "204"
    op_type: "Add"
  }
  node {
    input: "204"
    output: "205"
    op_type: "Tanh"
  }
  node {
    input: "179"
    input: "205"
    output: "206"
    op_type: "Sub"
  }
  node {
    input: "202"
    input: "206"
    output: "207"
    op_type: "Mul"
  }
  node {
    input: "205"
    input: "207"
    output: "208"
    op_type: "Add"
  }
  node {
    output: "209"
    op_type: "Constant"
    attribute {
      name: "value"
      t {
        dims: 1
        data_type: INT32
        raw_data: "\000\000\000\000"
      }
    }
  }
  node {
    output: "210"
    op_type: "Constant"
    attribute {
      name: "value"
      t {
        dims: 1
        data_type: INT64
        raw_data: "\006\000\000\000\000\000\000\000"
      }
    }
  }
  node {
    output: "211"
    op_type: "Constant"
    attribute {
      name: "value"
      t {
        dims: 1
        data_type: INT64
        raw_data: "\007\000\000\000\000\000\000\000"
      }
    }
  }
  node {
    input: "28"
    input: "209"
    input: "210"
    input: "211"
    output: "212"
    op_type: "Slice"
  }
  node {
    input: "212"
    output: "213"
    op_type: "Squeeze"
    attribute {
      name: "axes"
      ints: 0
    }
  }
  node {
    input: "4"
    output: "214"
    op_type: "Transpose"
    attribute {
      name: "perm"
      ints: 1
      ints: 0
    }
  }
  node {
    input: "213"
    input: "214"
    input: "6"
    output: "1554"
    op_type: "Gemm"
    attribute {
      name: "alpha"
      f: 1
    }
    attribute {
      name: "beta"
      f: 1
    }
    attribute {
      name: "broadcast"
      i: 1
    }
  }
  node {
    input: "5"
    output: "217"
    op_type: "Transpose"
    attribute {
      name: "perm"
      ints: 1
      ints: 0
    }
  }
  node {
    input: "208"
    input: "217"
    input: "7"
    output: "1555"
    op_type: "Gemm"
    attribute {
      name: "alpha"
      f: 1
    }
    attribute {
      name: "beta"
      f: 1
    }
    attribute {
      name: "broadcast"
      i: 1
    }
  }
  node {
    input: "1554"
    output: "221"
    output: "222"
    output: "223"
    op_type: "Split"
    attribute {
      name: "axis"
      i: 1
    }
    attribute {
      name: "split"
      ints: 5
      ints: 5
      ints: 5
    }
  }
  node {
    input: "1555"
    output: "225"
    output: "226"
    output: "227"
    op_type: "Split"
    attribute {
      name: "axis"
      i: 1
    }
    attribute {
      name: "split"
      ints: 5
      ints: 5
      ints: 5
    }
  }
  node {
    input: "221"
    input: "225"
    output: "228"
    op_type: "Add"
  }
  node {
    input: "228"
    output: "229"
    op_type: "Sigmoid"
  }
  node {
    input: "222"
    input: "226"
    output: "230"
    op_type: "Add"
  }
  node {
    input: "230"
    output: "231"
    op_type: "Sigmoid"
  }
  node {
    input: "229"
    input: "227"
    output: "232"
    op_type: "Mul"
  }
  node {
    input: "223"
    input: "232"
    output: "233"
    op_type: "Add"
  }
  node {
    input: "233"
    output: "234"
    op_type: "Tanh"
  }
  node {
    input: "208"
    input: "234"
    output: "235"
    op_type: "Sub"
  }
  node {
    input: "231"
    input: "235"
    output: "236"
    op_type: "Mul"
  }
  node {
    input: "234"
    input: "236"
    output: "237"
    op_type: "Add"
  }
  node {
    output: "238"
    op_type: "Constant"
    attribute {
      name: "value"
      t {
        dims: 1
        data_type: INT32
        raw_data: "\000\000\000\000"
      }
    }
  }
  node {
    output: "239"
    op_type: "Constant"
    attribute {
      name: "value"
      t {
        dims: 1
        data_type: INT64
        raw_data: "\007\000\000\000\000\000\000\000"
      }
    }
  }
  node {
    output: "240"
    op_type: "Constant"
    attribute {
      name: "value"
      t {
        dims: 1
        data_type: INT64
        raw_data: "\010\000\000\000\000\000\000\000"
      }
    }
  }
  node {
    input: "28"
    input: "238"
    input: "239"
    input: "240"
    output: "241"
    op_type: "Slice"
  }
  node {
    input: "241"
    output: "242"
    op_type: "Squeeze"
    attribute {
      name: "axes"
      ints: 0
    }
  }
  node {
    input: "4"
    output: "243"
    op_type: "Transpose"
    attribute {
      name: "perm"
      ints: 1
      ints: 0
    }
  }
  node {
    input: "242"
    input: "243"
    input: "6"
    output: "1556"
    op_type: "Gemm"
    attribute {
      name: "alpha"
      f: 1
    }
    attribute {
      name: "beta"
      f: 1
    }
    attribute {
      name: "broadcast"
      i: 1
    }
  }
  node {
    input: "5"
    output: "246"
    op_type: "Transpose"
    attribute {
      name: "perm"
      ints: 1
      ints: 0
    }
  }
  node {
    input: "237"
    input: "246"
    input: "7"
    output: "1557"
    op_type: "Gemm"
    attribute {
      name: "alpha"
      f: 1
    }
    attribute {
      name: "beta"
      f: 1
    }
    attribute {
      name: "broadcast"
      i: 1
    }
  }
  node {
    input: "1556"
    output: "250"
    output: "251"
    output: "252"
    op_type: "Split"
    attribute {
      name: "axis"
      i: 1
    }
    attribute {
      name: "split"
      ints: 5
      ints: 5
      ints: 5
    }
  }
  node {
    input: "1557"
    output: "254"
    output: "255"
    output: "256"
    op_type: "Split"
    attribute {
      name: "axis"
      i: 1
    }
    attribute {
      name: "split"
      ints: 5
      ints: 5
      ints: 5
    }
  }
  node {
    input: "250"
    input: "254"
    output: "257"
    op_type: "Add"
  }
  node {
    input: "257"
    output: "258"
    op_type: "Sigmoid"
  }
  node {
    input: "251"
    input: "255"
    output: "259"
    op_type: "Add"
  }
  node {
    input: "259"
    output: "260"
    op_type: "Sigmoid"
  }
  node {
    input: "258"
    input: "256"
    output: "261"
    op_type: "Mul"
  }
  node {
    input: "252"
    input: "261"
    output: "262"
    op_type: "Add"
  }
  node {
    input: "262"
    output: "263"
    op_type: "Tanh"
  }
  node {
    input: "237"
    input: "263"
    output: "264"
    op_type: "Sub"
  }
  node {
    input: "260"
    input: "264"
    output: "265"
    op_type: "Mul"
  }
  node {
    input: "263"
    input: "265"
    output: "266"
    op_type: "Add"
  }
  node {
    output: "267"
    op_type: "Constant"
    attribute {
      name: "value"
      t {
        dims: 1
        data_type: INT32
        raw_data: "\000\000\000\000"
      }
    }
  }
  node {
    output: "268"
    op_type: "Constant"
    attribute {
      name: "value"
      t {
        dims: 1
        data_type: INT64
        raw_data: "\010\000\000\000\000\000\000\000"
      }
    }
  }
  node {
    output: "269"
    op_type: "Constant"
    attribute {
      name: "value"
      t {
        dims: 1
        data_type: INT64
        raw_data: "\t\000\000\000\000\000\000\000"
      }
    }
  }
  node {
    input: "28"
    input: "267"
    input: "268"
    input: "269"
    output: "270"
    op_type: "Slice"
  }
  node {
    input: "270"
    output: "271"
    op_type: "Squeeze"
    attribute {
      name: "axes"
      ints: 0
    }
  }
  node {
    input: "4"
    output: "272"
    op_type: "Transpose"
    attribute {
      name: "perm"
      ints: 1
      ints: 0
    }
  }
  node {
    input: "271"
    input: "272"
    input: "6"
    output: "1558"
    op_type: "Gemm"
    attribute {
      name: "alpha"
      f: 1
    }
    attribute {
      name: "beta"
      f: 1
    }
    attribute {
      name: "broadcast"
      i: 1
    }
  }
  node {
    input: "5"
    output: "275"
    op_type: "Transpose"
    attribute {
      name: "perm"
      ints: 1
      ints: 0
    }
  }
  node {
    input: "266"
    input: "275"
    input: "7"
    output: "1559"
    op_type: "Gemm"
    attribute {
      name: "alpha"
      f: 1
    }
    attribute {
      name: "beta"
      f: 1
    }
    attribute {
      name: "broadcast"
      i: 1
    }
  }
  node {
    input: "1558"
    output: "279"
    output: "280"
    output: "281"
    op_type: "Split"
    attribute {
      name: "axis"
      i: 1
    }
    attribute {
      name: "split"
      ints: 5
      ints: 5
      ints: 5
    }
  }
  node {
    input: "1559"
    output: "283"
    output: "284"
    output: "285"
    op_type: "Split"
    attribute {
      name: "axis"
      i: 1
    }
    attribute {
      name: "split"
      ints: 5
      ints: 5
      ints: 5
    }
  }
  node {
    input: "279"
    input: "283"
    output: "286"
    op_type: "Add"
  }
  node {
    input: "286"
    output: "287"
    op_type: "Sigmoid"
  }
  node {
    input: "280"
    input: "284"
    output: "288"
    op_type: "Add"
  }
  node {
    input: "288"
    output: "289"
    op_type: "Sigmoid"
  }
  node {
    input: "287"
    input: "285"
    output: "290"
    op_type: "Mul"
  }
  node {
    input: "281"
    input: "290"
    output: "291"
    op_type: "Add"
  }
  node {
    input: "291"
    output: "292"
    op_type: "Tanh"
  }
  node {
    input: "266"
    input: "292"
    output: "293"
    op_type: "Sub"
  }
  node {
    input: "289"
    input: "293"
    output: "294"
    op_type: "Mul"
  }
  node {
    input: "292"
    input: "294"
    output: "295"
    op_type: "Add"
  }
  node {
    output: "296"
    op_type: "Constant"
    attribute {
      name: "value"
      t {
        dims: 1
        data_type: INT32
        raw_data: "\000\000\000\000"
      }
    }
  }
  node {
    output: "297"
    op_type: "Constant"
    attribute {
      name: "value"
      t {
        dims: 1
        data_type: INT64
        raw_data: "\t\000\000\000\000\000\000\000"
      }
    }
  }
  node {
    output: "298"
    op_type: "Constant"
    attribute {
      name: "value"
      t {
        dims: 1
        data_type: INT64
        raw_data: "\n\000\000\000\000\000\000\000"
      }
    }
  }
  node {
    input: "28"
    input: "296"
    input: "297"
    input: "298"
    output: "299"
    op_type: "Slice"
  }
  node {
    input: "299"
    output: "300"
    op_type: "Squeeze"
    attribute {
      name: "axes"
      ints: 0
    }
  }
  node {
    input: "4"
    output: "301"
    op_type: "Transpose"
    attribute {
      name: "perm"
      ints: 1
      ints: 0
    }
  }
  node {
    input: "300"
    input: "301"
    input: "6"
    output: "1560"
    op_type: "Gemm"
    attribute {
      name: "alpha"
      f: 1
    }
    attribute {
      name: "beta"
      f: 1
    }
    attribute {
      name: "broadcast"
      i: 1
    }
  }
  node {
    input: "5"
    output: "304"
    op_type: "Transpose"
    attribute {
      name: "perm"
      ints: 1
      ints: 0
    }
  }
  node {
    input: "295"
    input: "304"
    input: "7"
    output: "1561"
    op_type: "Gemm"
    attribute {
      name: "alpha"
      f: 1
    }
    attribute {
      name: "beta"
      f: 1
    }
    attribute {
      name: "broadcast"
      i: 1
    }
  }
  node {
    input: "1560"
    output: "308"
    output: "309"
    output: "310"
    op_type: "Split"
    attribute {
      name: "axis"
      i: 1
    }
    attribute {
      name: "split"
      ints: 5
      ints: 5
      ints: 5
    }
  }
  node {
    input: "1561"
    output: "312"
    output: "313"
    output: "314"
    op_type: "Split"
    attribute {
      name: "axis"
      i: 1
    }
    attribute {
      name: "split"
      ints: 5
      ints: 5
      ints: 5
    }
  }
  node {
    input: "308"
    input: "312"
    output: "315"
    op_type: "Add"
  }
  node {
    input: "315"
    output: "316"
    op_type: "Sigmoid"
  }
  node {
    input: "309"
    input: "313"
    output: "317"
    op_type: "Add"
  }
  node {
    input: "317"
    output: "318"
    op_type: "Sigmoid"
  }
  node {
    input: "316"
    input: "314"
    output: "319"
    op_type: "Mul"
  }
  node {
    input: "310"
    input: "319"
    output: "320"
    op_type: "Add"
  }
  node {
    input: "320"
    output: "321"
    op_type: "Tanh"
  }
  node {
    input: "295"
    input: "321"
    output: "322"
    op_type: "Sub"
  }
  node {
    input: "318"
    input: "322"
    output: "323"
    op_type: "Mul"
  }
  node {
    input: "321"
    input: "323"
    output: "324"
    op_type: "Add"
  }
  node {
    input: "63"
    input: "92"
    input: "121"
    input: "150"
    input: "179"
    input: "208"
    input: "237"
    input: "266"
    input: "295"
    input: "324"
    output: "325"
    op_type: "Concat"
    attribute {
      name: "axis"
      i: 0
    }
  }
  node {
    input: "325"
    output: "326"
    op_type: "Reshape"
    attribute {
      name: "shape"
      ints: 10
      ints: 5
      ints: 5
    }
  }
  node {
    input: "326"
    output: "327"
    op_type: "Concat"
    attribute {
      name: "axis"
      i: 2
    }
  }
  node {
    input: "327"
    output: "329"
    output: "330"
    op_type: "Dropout"
    attribute {
      name: "is_test"
      i: 1
    }
    attribute {
      name: "ratio"
      f: 0.200000002980232
    }
  }
  node {
    output: "331"
    op_type: "Constant"
    attribute {
      name: "value"
      t {
        dims: 1
        data_type: INT32
        raw_data: "\000\000\000\000"
      }
    }
  }
  node {
    output: "332"
    op_type: "Constant"
    attribute {
      name: "value"
      t {
        dims: 1
        data_type: INT64
        raw_data: "\001\000\000\000\000\000\000\000"
      }
    }
  }
  node {
    output: "333"
    op_type: "Constant"
    attribute {
      name: "value"
      t {
        dims: 1
        data_type: INT64
        raw_data: "\002\000\000\000\000\000\000\000"
      }
    }
  }
  node {
    input: "2"
    input: "331"
    input: "332"
    input: "333"
    output: "334"
    op_type: "Slice"
  }
  node {
    input: "334"
    output: "335"
    op_type: "Squeeze"
    attribute {
      name: "axes"
      ints: 0
    }
  }
  node {
    output: "336"
    op_type: "Constant"
    attribute {
      name: "value"
      t {
        dims: 1
        data_type: INT32
        raw_data: "\000\000\000\000"
      }
    }
  }
  node {
    output: "337"
    op_type: "Constant"
    attribute {
      name: "value"
      t {
        dims: 1
        data_type: INT64
        raw_data: "\000\000\000\000\000\000\000\000"
      }
    }
  }
  node {
    output: "338"
    op_type: "Constant"
    attribute {
      name: "value"
      t {
        dims: 1
        data_type: INT64
        raw_data: "\001\000\000\000\000\000\000\000"
      }
    }
  }
  node {
    input: "329"
    input: "336"
    input: "337"
    input: "338"
    output: "339"
    op_type: "Slice"
  }
  node {
    input: "339"
    output: "340"
    op_type: "Squeeze"
    attribute {
      name: "axes"
      ints: 0
    }
  }
  node {
    input: "8"
    output: "341"
    op_type: "Transpose"
    attribute {
      name: "perm"
      ints: 1
      ints: 0
    }
  }
  node {
    input: "340"
    input: "341"
    input: "10"
    output: "1562"
    op_type: "Gemm"
    attribute {
      name: "alpha"
      f: 1
    }
    attribute {
      name: "beta"
      f: 1
    }
    attribute {
      name: "broadcast"
      i: 1
    }
  }
  node {
    input: "9"
    output: "344"
    op_type: "Transpose"
    attribute {
      name: "perm"
      ints: 1
      ints: 0
    }
  }
  node {
    input: "335"
    input: "344"
    input: "11"
    output: "1563"
    op_type: "Gemm"
    attribute {
      name: "alpha"
      f: 1
    }
    attribute {
      name: "beta"
      f: 1
    }
    attribute {
      name: "broadcast"
      i: 1
    }
  }
  node {
    input: "1562"
    output: "348"
    output: "349"
    output: "350"
    op_type: "Split"
    attribute {
      name: "axis"
      i: 1
    }
    attribute {
      name: "split"
      ints: 5
      ints: 5
      ints: 5
    }
  }
  node {
    input: "1563"
    output: "352"
    output: "353"
    output: "354"
    op_type: "Split"
    attribute {
      name: "axis"
      i: 1
    }
    attribute {
      name: "split"
      ints: 5
      ints: 5
      ints: 5
    }
  }
  node {
    input: "348"
    input: "352"
    output: "355"
    op_type: "Add"
  }
  node {
    input: "355"
    output: "356"
    op_type: "Sigmoid"
  }
  node {
    input: "349"
    input: "353"
    output: "357"
    op_type: "Add"
  }
  node {
    input: "357"
    output: "358"
    op_type: "Sigmoid"
  }
  node {
    input: "356"
    input: "354"
    output: "359"
    op_type: "Mul"
  }
  node {
    input: "350"
    input: "359"
    output: "360"
    op_type: "Add"
  }
  node {
    input: "360"
    output: "361"
    op_type: "Tanh"
  }
  node {
    input: "335"
    input: "361"
    output: "362"
    op_type: "Sub"
  }
  node {
    input: "358"
    input: "362"
    output: "363"
    op_type: "Mul"
  }
  node {
    input: "361"
    input: "363"
    output: "364"
    op_type: "Add"
  }
  node {
    output: "365"
    op_type: "Constant"
    attribute {
      name: "value"
      t {
        dims: 1
        data_type: INT32
        raw_data: "\000\000\000\000"
      }
    }
  }
  node {
    output: "366"
    op_type: "Constant"
    attribute {
      name: "value"
      t {
        dims: 1
        data_type: INT64
        raw_data: "\001\000\000\000\000\000\000\000"
      }
    }
  }
  node {
    output: "367"
    op_type: "Constant"
    attribute {
      name: "value"
      t {
        dims: 1
        data_type: INT64
        raw_data: "\002\000\000\000\000\000\000\000"
      }
    }
  }
  node {
    input: "329"
    input: "365"
    input: "366"
    input: "367"
    output: "368"
    op_type: "Slice"
  }
  node {
    input: "368"
    output: "369"
    op_type: "Squeeze"
    attribute {
      name: "axes"
      ints: 0
    }
  }
  node {
    input: "8"
    output: "370"
    op_type: "Transpose"
    attribute {
      name: "perm"
      ints: 1
      ints: 0
    }
  }
  node {
    input: "369"
    input: "370"
    input: "10"
    output: "1564"
    op_type: "Gemm"
    attribute {
      name: "alpha"
      f: 1
    }
    attribute {
      name: "beta"
      f: 1
    }
    attribute {
      name: "broadcast"
      i: 1
    }
  }
  node {
    input: "9"
    output: "373"
    op_type: "Transpose"
    attribute {
      name: "perm"
      ints: 1
      ints: 0
    }
  }
  node {
    input: "364"
    input: "373"
    input: "11"
    output: "1565"
    op_type: "Gemm"
    attribute {
      name: "alpha"
      f: 1
    }
    attribute {
      name: "beta"
      f: 1
    }
    attribute {
      name: "broadcast"
      i: 1
    }
  }
  node {
    input: "1564"
    output: "377"
    output: "378"
    output: "379"
    op_type: "Split"
    attribute {
      name: "axis"
      i: 1
    }
    attribute {
      name: "split"
      ints: 5
      ints: 5
      ints: 5
    }
  }
  node {
    input: "1565"
    output: "381"
    output: "382"
    output: "383"
    op_type: "Split"
    attribute {
      name: "axis"
      i: 1
    }
    attribute {
      name: "split"
      ints: 5
      ints: 5
      ints: 5
    }
  }
  node {
    input: "377"
    input: "381"
    output: "384"
    op_type: "Add"
  }
  node {
    input: "384"
    output: "385"
    op_type: "Sigmoid"
  }
  node {
    input: "378"
    input: "382"
    output: "386"
    op_type: "Add"
  }
  node {
    input: "386"
    output: "387"
    op_type: "Sigmoid"
  }
  node {
    input: "385"
    input: "383"
    output: "388"
    op_type: "Mul"
  }
  node {
    input: "379"
    input: "388"
    output: "389"
    op_type: "Add"
  }
  node {
    input: "389"
    output: "390"
    op_type: "Tanh"
  }
  node {
    input: "364"
    input: "390"
    output: "391"
    op_type: "Sub"
  }
  node {
    input: "387"
    input: "391"
    output: "392"
    op_type: "Mul"
  }
  node {
    input: "390"
    input: "392"
    output: "393"
    op_type: "Add"
  }
  node {
    output: "394"
    op_type: "Constant"
    attribute {
      name: "value"
      t {
        dims: 1
        data_type: INT32
        raw_data: "\000\000\000\000"
      }
    }
  }
  node {
    output: "395"
    op_type: "Constant"
    attribute {
      name: "value"
      t {
        dims: 1
        data_type: INT64
        raw_data: "\002\000\000\000\000\000\000\000"
      }
    }
  }
  node {
    output: "396"
    op_type: "Constant"
    attribute {
      name: "value"
      t {
        dims: 1
        data_type: INT64
        raw_data: "\003\000\000\000\000\000\000\000"
      }
    }
  }
  node {
    input: "329"
    input: "394"
    input: "395"
    input: "396"
    output: "397"
    op_type: "Slice"
  }
  node {
    input: "397"
    output: "398"
    op_type: "Squeeze"
    attribute {
      name: "axes"
      ints: 0
    }
  }
  node {
    input: "8"
    output: "399"
    op_type: "Transpose"
    attribute {
      name: "perm"
      ints: 1
      ints: 0
    }
  }
  node {
    input: "398"
    input: "399"
    input: "10"
    output: "1566"
    op_type: "Gemm"
    attribute {
      name: "alpha"
      f: 1
    }
    attribute {
      name: "beta"
      f: 1
    }
    attribute {
      name: "broadcast"
      i: 1
    }
  }
  node {
    input: "9"
    output: "402"
    op_type: "Transpose"
    attribute {
      name: "perm"
      ints: 1
      ints: 0
    }
  }
  node {
    input: "393"
    input: "402"
    input: "11"
    output: "1567"
    op_type: "Gemm"
    attribute {
      name: "alpha"
      f: 1
    }
    attribute {
      name: "beta"
      f: 1
    }
    attribute {
      name: "broadcast"
      i: 1
    }
  }
  node {
    input: "1566"
    output: "406"
    output: "407"
    output: "408"
    op_type: "Split"
    attribute {
      name: "axis"
      i: 1
    }
    attribute {
      name: "split"
      ints: 5
      ints: 5
      ints: 5
    }
  }
  node {
    input: "1567"
    output: "410"
    output: "411"
    output: "412"
    op_type: "Split"
    attribute {
      name: "axis"
      i: 1
    }
    attribute {
      name: "split"
      ints: 5
      ints: 5
      ints: 5
    }
  }
  node {
    input: "406"
    input: "410"
    output: "413"
    op_type: "Add"
  }
  node {
    input: "413"
    output: "414"
    op_type: "Sigmoid"
  }
  node {
    input: "407"
    input: "411"
    output: "415"
    op_type: "Add"
  }
  node {
    input: "415"
    output: "416"
    op_type: "Sigmoid"
  }
  node {
    input: "414"
    input: "412"
    output: "417"
    op_type: "Mul"
  }
  node {
    input: "408"
    input: "417"
    output: "418"
    op_type: "Add"
  }
  node {
    input: "418"
    output: "419"
    op_type: "Tanh"
  }
  node {
    input: "393"
    input: "419"
    output: "420"
    op_type: "Sub"
  }
  node {
    input: "416"
    input: "420"
    output: "421"
    op_type: "Mul"
  }
  node {
    input: "419"
    input: "421"
    output: "422"
    op_type: "Add"
  }
  node {
    output: "423"
    op_type: "Constant"
    attribute {
      name: "value"
      t {
        dims: 1
        data_type: INT32
        raw_data: "\000\000\000\000"
      }
    }
  }
  node {
    output: "424"
    op_type: "Constant"
    attribute {
      name: "value"
      t {
        dims: 1
        data_type: INT64
        raw_data: "\003\000\000\000\000\000\000\000"
      }
    }
  }
  node {
    output: "425"
    op_type: "Constant"
    attribute {
      name: "value"
      t {
        dims: 1
        data_type: INT64
        raw_data: "\004\000\000\000\000\000\000\000"
      }
    }
  }
  node {
    input: "329"
    input: "423"
    input: "424"
    input: "425"
    output: "426"
    op_type: "Slice"
  }
  node {
    input: "426"
    output: "427"
    op_type: "Squeeze"
    attribute {
      name: "axes"
      ints: 0
    }
  }
  node {
    input: "8"
    output: "428"
    op_type: "Transpose"
    attribute {
      name: "perm"
      ints: 1
      ints: 0
    }
  }
  node {
    input: "427"
    input: "428"
    input: "10"
    output: "1568"
    op_type: "Gemm"
    attribute {
      name: "alpha"
      f: 1
    }
    attribute {
      name: "beta"
      f: 1
    }
    attribute {
      name: "broadcast"
      i: 1
    }
  }
  node {
    input: "9"
    output: "431"
    op_type: "Transpose"
    attribute {
      name: "perm"
      ints: 1
      ints: 0
    }
  }
  node {
    input: "422"
    input: "431"
    input: "11"
    output: "1569"
    op_type: "Gemm"
    attribute {
      name: "alpha"
      f: 1
    }
    attribute {
      name: "beta"
      f: 1
    }
    attribute {
      name: "broadcast"
      i: 1
    }
  }
  node {
    input: "1568"
    output: "435"
    output: "436"
    output: "437"
    op_type: "Split"
    attribute {
      name: "axis"
      i: 1
    }
    attribute {
      name: "split"
      ints: 5
      ints: 5
      ints: 5
    }
  }
  node {
    input: "1569"
    output: "439"
    output: "440"
    output: "441"
    op_type: "Split"
    attribute {
      name: "axis"
      i: 1
    }
    attribute {
      name: "split"
      ints: 5
      ints: 5
      ints: 5
    }
  }
  node {
    input: "435"
    input: "439"
    output: "442"
    op_type: "Add"
  }
  node {
    input: "442"
    output: "443"
    op_type: "Sigmoid"
  }
  node {
    input: "436"
    input: "440"
    output: "444"
    op_type: "Add"
  }
  node {
    input: "444"
    output: "445"
    op_type: "Sigmoid"
  }
  node {
    input: "443"
    input: "441"
    output: "446"
    op_type: "Mul"
  }
  node {
    input: "437"
    input: "446"
    output: "447"
    op_type: "Add"
  }
  node {
    input: "447"
    output: "448"
    op_type: "Tanh"
  }
  node {
    input: "422"
    input: "448"
    output: "449"
    op_type: "Sub"
  }
  node {
    input: "445"
    input: "449"
    output: "450"
    op_type: "Mul"
  }
  node {
    input: "448"
    input: "450"
    output: "451"
    op_type: "Add"
  }
  node {
    output: "452"
    op_type: "Constant"
    attribute {
      name: "value"
      t {
        dims: 1
        data_type: INT32
        raw_data: "\000\000\000\000"
      }
    }
  }
  node {
    output: "453"
    op_type: "Constant"
    attribute {
      name: "value"
      t {
        dims: 1
        data_type: INT64
        raw_data: "\004\000\000\000\000\000\000\000"
      }
    }
  }
  node {
    output: "454"
    op_type: "Constant"
    attribute {
      name: "value"
      t {
        dims: 1
        data_type: INT64
        raw_data: "\005\000\000\000\000\000\000\000"
      }
    }
  }
  node {
    input: "329"
    input: "452"
    input: "453"
    input: "454"
    output: "455"
    op_type: "Slice"
  }
  node {
    input: "455"
    output: "456"
    op_type: "Squeeze"
    attribute {
      name: "axes"
      ints: 0
    }
  }
  node {
    input: "8"
    output: "457"
    op_type: "Transpose"
    attribute {
      name: "perm"
      ints: 1
      ints: 0
    }
  }
  node {
    input: "456"
    input: "457"
    input: "10"
    output: "1570"
    op_type: "Gemm"
    attribute {
      name: "alpha"
      f: 1
    }
    attribute {
      name: "beta"
      f: 1
    }
    attribute {
      name: "broadcast"
      i: 1
    }
  }
  node {
    input: "9"
    output: "460"
    op_type: "Transpose"
    attribute {
      name: "perm"
      ints: 1
      ints: 0
    }
  }
  node {
    input: "451"
    input: "460"
    input: "11"
    output: "1571"
    op_type: "Gemm"
    attribute {
      name: "alpha"
      f: 1
    }
    attribute {
      name: "beta"
      f: 1
    }
    attribute {
      name: "broadcast"
      i: 1
    }
  }
  node {
    input: "1570"
    output: "464"
    output: "465"
    output: "466"
    op_type: "Split"
    attribute {
      name: "axis"
      i: 1
    }
    attribute {
      name: "split"
      ints: 5
      ints: 5
      ints: 5
    }
  }
  node {
    input: "1571"
    output: "468"
    output: "469"
    output: "470"
    op_type: "Split"
    attribute {
      name: "axis"
      i: 1
    }
    attribute {
      name: "split"
      ints: 5
      ints: 5
      ints: 5
    }
  }
  node {
    input: "464"
    input: "468"
    output: "471"
    op_type: "Add"
  }
  node {
    input: "471"
    output: "472"
    op_type: "Sigmoid"
  }
  node {
    input: "465"
    input: "469"
    output: "473"
    op_type: "Add"
  }
  node {
    input: "473"
    output: "474"
    op_type: "Sigmoid"
  }
  node {
    input: "472"
    input: "470"
    output: "475"
    op_type: "Mul"
  }
  node {
    input: "466"
    input: "475"
    output: "476"
    op_type: "Add"
  }
  node {
    input: "476"
    output: "477"
    op_type: "Tanh"
  }
  node {
    input: "451"
    input: "477"
    output: "478"
    op_type: "Sub"
  }
  node {
    input: "474"
    input: "478"
    output: "479"
    op_type: "Mul"
  }
  node {
    input: "477"
    input: "479"
    output: "480"
    op_type: "Add"
  }
  node {
    output: "481"
    op_type: "Constant"
    attribute {
      name: "value"
      t {
        dims: 1
        data_type: INT32
        raw_data: "\000\000\000\000"
      }
    }
  }
  node {
    output: "482"
    op_type: "Constant"
    attribute {
      name: "value"
      t {
        dims: 1
        data_type: INT64
        raw_data: "\005\000\000\000\000\000\000\000"
      }
    }
  }
  node {
    output: "483"
    op_type: "Constant"
    attribute {
      name: "value"
      t {
        dims: 1
        data_type: INT64
        raw_data: "\006\000\000\000\000\000\000\000"
      }
    }
  }
  node {
    input: "329"
    input: "481"
    input: "482"
    input: "483"
    output: "484"
    op_type: "Slice"
  }
  node {
    input: "484"
    output: "485"
    op_type: "Squeeze"
    attribute {
      name: "axes"
      ints: 0
    }
  }
  node {
    input: "8"
    output: "486"
    op_type: "Transpose"
    attribute {
      name: "perm"
      ints: 1
      ints: 0
    }
  }
  node {
    input: "485"
    input: "486"
    input: "10"
    output: "1572"
    op_type: "Gemm"
    attribute {
      name: "alpha"
      f: 1
    }
    attribute {
      name: "beta"
      f: 1
    }
    attribute {
      name: "broadcast"
      i: 1
    }
  }
  node {
    input: "9"
    output: "489"
    op_type: "Transpose"
    attribute {
      name: "perm"
      ints: 1
      ints: 0
    }
  }
  node {
    input: "480"
    input: "489"
    input: "11"
    output: "1573"
    op_type: "Gemm"
    attribute {
      name: "alpha"
      f: 1
    }
    attribute {
      name: "beta"
      f: 1
    }
    attribute {
      name: "broadcast"
      i: 1
    }
  }
  node {
    input: "1572"
    output: "493"
    output: "494"
    output: "495"
    op_type: "Split"
    attribute {
      name: "axis"
      i: 1
    }
    attribute {
      name: "split"
      ints: 5
      ints: 5
      ints: 5
    }
  }
  node {
    input: "1573"
    output: "497"
    output: "498"
    output: "499"
    op_type: "Split"
    attribute {
      name: "axis"
      i: 1
    }
    attribute {
      name: "split"
      ints: 5
      ints: 5
      ints: 5
    }
  }
  node {
    input: "493"
    input: "497"
    output: "500"
    op_type: "Add"
  }
  node {
    input: "500"
    output: "501"
    op_type: "Sigmoid"
  }
  node {
    input: "494"
    input: "498"
    output: "502"
    op_type: "Add"
  }
  node {
    input: "502"
    output: "503"
    op_type: "Sigmoid"
  }
  node {
    input: "501"
    input: "499"
    output: "504"
    op_type: "Mul"
  }
  node {
    input: "495"
    input: "504"
    output: "505"
    op_type: "Add"
  }
  node {
    input: "505"
    output: "506"
    op_type: "Tanh"
  }
  node {
    input: "480"
    input: "506"
    output: "507"
    op_type: "Sub"
  }
  node {
    input: "503"
    input: "507"
    output: "508"
    op_type: "Mul"
  }
  node {
    input: "506"
    input: "508"
    output: "509"
    op_type: "Add"
  }
  node {
    output: "510"
    op_type: "Constant"
    attribute {
      name: "value"
      t {
        dims: 1
        data_type: INT32
        raw_data: "\000\000\000\000"
      }
    }
  }
  node {
    output: "511"
    op_type: "Constant"
    attribute {
      name: "value"
      t {
        dims: 1
        data_type: INT64
        raw_data: "\006\000\000\000\000\000\000\000"
      }
    }
  }
  node {
    output: "512"
    op_type: "Constant"
    attribute {
      name: "value"
      t {
        dims: 1
        data_type: INT64
        raw_data: "\007\000\000\000\000\000\000\000"
      }
    }
  }
  node {
    input: "329"
    input: "510"
    input: "511"
    input: "512"
    output: "513"
    op_type: "Slice"
  }
  node {
    input: "513"
    output: "514"
    op_type: "Squeeze"
    attribute {
      name: "axes"
      ints: 0
    }
  }
  node {
    input: "8"
    output: "515"
    op_type: "Transpose"
    attribute {
      name: "perm"
      ints: 1
      ints: 0
    }
  }
  node {
    input: "514"
    input: "515"
    input: "10"
    output: "1574"
    op_type: "Gemm"
    attribute {
      name: "alpha"
      f: 1
    }
    attribute {
      name: "beta"
      f: 1
    }
    attribute {
      name: "broadcast"
      i: 1
    }
  }
  node {
    input: "9"
    output: "518"
    op_type: "Transpose"
    attribute {
      name: "perm"
      ints: 1
      ints: 0
    }
  }
  node {
    input: "509"
    input: "518"
    input: "11"
    output: "1575"
    op_type: "Gemm"
    attribute {
      name: "alpha"
      f: 1
    }
    attribute {
      name: "beta"
      f: 1
    }
    attribute {
      name: "broadcast"
      i: 1
    }
  }
  node {
    input: "1574"
    output: "522"
    output: "523"
    output: "524"
    op_type: "Split"
    attribute {
      name: "axis"
      i: 1
    }
    attribute {
      name: "split"
      ints: 5
      ints: 5
      ints: 5
    }
  }
  node {
    input: "1575"
    output: "526"
    output: "527"
    output: "528"
    op_type: "Split"
    attribute {
      name: "axis"
      i: 1
    }
    attribute {
      name: "split"
      ints: 5
      ints: 5
      ints: 5
    }
  }
  node {
    input: "522"
    input: "526"
    output: "529"
    op_type: "Add"
  }
  node {
    input: "529"
    output: "530"
    op_type: "Sigmoid"
  }
  node {
    input: "523"
    input: "527"
    output: "531"
    op_type: "Add"
  }
  node {
    input: "531"
    output: "532"
    op_type: "Sigmoid"
  }
  node {
    input: "530"
    input: "528"
    output: "533"
    op_type: "Mul"
  }
  node {
    input: "524"
    input: "533"
    output: "534"
    op_type: "Add"
  }
  node {
    input: "534"
    output: "535"
    op_type: "Tanh"
  }
  node {
    input: "509"
    input: "535"
    output: "536"
    op_type: "Sub"
  }
  node {
    input: "532"
    input: "536"
    output: "537"
    op_type: "Mul"
  }
  node {
    input: "535"
    input: "537"
    output: "538"
    op_type: "Add"
  }
  node {
    output: "539"
    op_type: "Constant"
    attribute {
      name: "value"
      t {
        dims: 1
        data_type: INT32
        raw_data: "\000\000\000\000"
      }
    }
  }
  node {
    output: "540"
    op_type: "Constant"
    attribute {
      name: "value"
      t {
        dims: 1
        data_type: INT64
        raw_data: "\007\000\000\000\000\000\000\000"
      }
    }
  }
  node {
    output: "541"
    op_type: "Constant"
    attribute {
      name: "value"
      t {
        dims: 1
        data_type: INT64
        raw_data: "\010\000\000\000\000\000\000\000"
      }
    }
  }
  node {
    input: "329"
    input: "539"
    input: "540"
    input: "541"
    output: "542"
    op_type: "Slice"
  }
  node {
    input: "542"
    output: "543"
    op_type: "Squeeze"
    attribute {
      name: "axes"
      ints: 0
    }
  }
  node {
    input: "8"
    output: "544"
    op_type: "Transpose"
    attribute {
      name: "perm"
      ints: 1
      ints: 0
    }
  }
  node {
    input: "543"
    input: "544"
    input: "10"
    output: "1576"
    op_type: "Gemm"
    attribute {
      name: "alpha"
      f: 1
    }
    attribute {
      name: "beta"
      f: 1
    }
    attribute {
      name: "broadcast"
      i: 1
    }
  }
  node {
    input: "9"
    output: "547"
    op_type: "Transpose"
    attribute {
      name: "perm"
      ints: 1
      ints: 0
    }
  }
  node {
    input: "538"
    input: "547"
    input: "11"
    output: "1577"
    op_type: "Gemm"
    attribute {
      name: "alpha"
      f: 1
    }
    attribute {
      name: "beta"
      f: 1
    }
    attribute {
      name: "broadcast"
      i: 1
    }
  }
  node {
    input: "1576"
    output: "551"
    output: "552"
    output: "553"
    op_type: "Split"
    attribute {
      name: "axis"
      i: 1
    }
    attribute {
      name: "split"
      ints: 5
      ints: 5
      ints: 5
    }
  }
  node {
    input: "1577"
    output: "555"
    output: "556"
    output: "557"
    op_type: "Split"
    attribute {
      name: "axis"
      i: 1
    }
    attribute {
      name: "split"
      ints: 5
      ints: 5
      ints: 5
    }
  }
  node {
    input: "551"
    input: "555"
    output: "558"
    op_type: "Add"
  }
  node {
    input: "558"
    output: "559"
    op_type: "Sigmoid"
  }
  node {
    input: "552"
    input: "556"
    output: "560"
    op_type: "Add"
  }
  node {
    input: "560"
    output: "561"
    op_type: "Sigmoid"
  }
  node {
    input: "559"
    input: "557"
    output: "562"
    op_type: "Mul"
  }
  node {
    input: "553"
    input: "562"
    output: "563"
    op_type: "Add"
  }
  node {
    input: "563"
    output: "564"
    op_type: "Tanh"
  }
  node {
    input: "538"
    input: "564"
    output: "565"
    op_type: "Sub"
  }
  node {
    input: "561"
    input: "565"
    output: "566"
    op_type: "Mul"
  }
  node {
    input: "564"
    input: "566"
    output: "567"
    op_type: "Add"
  }
  node {
    output: "568"
    op_type: "Constant"
    attribute {
      name: "value"
      t {
        dims: 1
        data_type: INT32
        raw_data: "\000\000\000\000"
      }
    }
  }
  node {
    output: "569"
    op_type: "Constant"
    attribute {
      name: "value"
      t {
        dims: 1
        data_type: INT64
        raw_data: "\010\000\000\000\000\000\000\000"
      }
    }
  }
  node {
    output: "570"
    op_type: "Constant"
    attribute {
      name: "value"
      t {
        dims: 1
        data_type: INT64
        raw_data: "\t\000\000\000\000\000\000\000"
      }
    }
  }
  node {
    input: "329"
    input: "568"
    input: "569"
    input: "570"
    output: "571"
    op_type: "Slice"
  }
  node {
    input: "571"
    output: "572"
    op_type: "Squeeze"
    attribute {
      name: "axes"
      ints: 0
    }
  }
  node {
    input: "8"
    output: "573"
    op_type: "Transpose"
    attribute {
      name: "perm"
      ints: 1
      ints: 0
    }
  }
  node {
    input: "572"
    input: "573"
    input: "10"
    output: "1578"
    op_type: "Gemm"
    attribute {
      name: "alpha"
      f: 1
    }
    attribute {
      name: "beta"
      f: 1
    }
    attribute {
      name: "broadcast"
      i: 1
    }
  }
  node {
    input: "9"
    output: "576"
    op_type: "Transpose"
    attribute {
      name: "perm"
      ints: 1
      ints: 0
    }
  }
  node {
    input: "567"
    input: "576"
    input: "11"
    output: "1579"
    op_type: "Gemm"
    attribute {
      name: "alpha"
      f: 1
    }
    attribute {
      name: "beta"
      f: 1
    }
    attribute {
      name: "broadcast"
      i: 1
    }
  }
  node {
    input: "1578"
    output: "580"
    output: "581"
    output: "582"
    op_type: "Split"
    attribute {
      name: "axis"
      i: 1
    }
    attribute {
      name: "split"
      ints: 5
      ints: 5
      ints: 5
    }
  }
  node {
    input: "1579"
    output: "584"
    output: "585"
    output: "586"
    op_type: "Split"
    attribute {
      name: "axis"
      i: 1
    }
    attribute {
      name: "split"
      ints: 5
      ints: 5
      ints: 5
    }
  }
  node {
    input: "580"
    input: "584"
    output: "587"
    op_type: "Add"
  }
  node {
    input: "587"
    output: "588"
    op_type: "Sigmoid"
  }
  node {
    input: "581"
    input: "585"
    output: "589"
    op_type: "Add"
  }
  node {
    input: "589"
    output: "590"
    op_type: "Sigmoid"
  }
  node {
    input: "588"
    input: "586"
    output: "591"
    op_type: "Mul"
  }
  node {
    input: "582"
    input: "591"
    output: "592"
    op_type: "Add"
  }
  node {
    input: "592"
    output: "593"
    op_type: "Tanh"
  }
  node {
    input: "567"
    input: "593"
    output: "594"
    op_type: "Sub"
  }
  node {
    input: "590"
    input: "594"
    output: "595"
    op_type: "Mul"
  }
  node {
    input: "593"
    input: "595"
    output: "596"
    op_type: "Add"
  }
  node {
    output: "597"
    op_type: "Constant"
    attribute {
      name: "value"
      t {
        dims: 1
        data_type: INT32
        raw_data: "\000\000\000\000"
      }
    }
  }
  node {
    output: "598"
    op_type: "Constant"
    attribute {
      name: "value"
      t {
        dims: 1
        data_type: INT64
        raw_data: "\t\000\000\000\000\000\000\000"
      }
    }
  }
  node {
    output: "599"
    op_type: "Constant"
    attribute {
      name: "value"
      t {
        dims: 1
        data_type: INT64
        raw_data: "\n\000\000\000\000\000\000\000"
      }
    }
  }
  node {
    input: "329"
    input: "597"
    input: "598"
    input: "599"
    output: "600"
    op_type: "Slice"
  }
  node {
    input: "600"
    output: "601"
    op_type: "Squeeze"
    attribute {
      name: "axes"
      ints: 0
    }
  }
  node {
    input: "8"
    output: "602"
    op_type: "Transpose"
    attribute {
      name: "perm"
      ints: 1
      ints: 0
    }
  }
  node {
    input: "601"
    input: "602"
    input: "10"
    output: "1580"
    op_type: "Gemm"
    attribute {
      name: "alpha"
      f: 1
    }
    attribute {
      name: "beta"
      f: 1
    }
    attribute {
      name: "broadcast"
      i: 1
    }
  }
  node {
    input: "9"
    output: "605"
    op_type: "Transpose"
    attribute {
      name: "perm"
      ints: 1
      ints: 0
    }
  }
  node {
    input: "596"
    input: "605"
    input: "11"
    output: "1581"
    op_type: "Gemm"
    attribute {
      name: "alpha"
      f: 1
    }
    attribute {
      name: "beta"
      f: 1
    }
    attribute {
      name: "broadcast"
      i: 1
    }
  }
  node {
    input: "1580"
    output: "609"
    output: "610"
    output: "611"
    op_type: "Split"
    attribute {
      name: "axis"
      i: 1
    }
    attribute {
      name: "split"
      ints: 5
      ints: 5
      ints: 5
    }
  }
  node {
    input: "1581"
    output: "613"
    output: "614"
    output: "615"
    op_type: "Split"
    attribute {
      name: "axis"
      i: 1
    }
    attribute {
      name: "split"
      ints: 5
      ints: 5
      ints: 5
    }
  }
  node {
    input: "609"
    input: "613"
    output: "616"
    op_type: "Add"
  }
  node {
    input: "616"
    output: "617"
    op_type: "Sigmoid"
  }
  node {
    input: "610"
    input: "614"
    output: "618"
    op_type: "Add"
  }
  node {
    input: "618"
    output: "619"
    op_type: "Sigmoid"
  }
  node {
    input: "617"
    input: "615"
    output: "620"
    op_type: "Mul"
  }
  node {
    input: "611"
    input: "620"
    output: "621"
    op_type: "Add"
  }
  node {
    input: "621"
    output: "622"
    op_type: "Tanh"
  }
  node {
    input: "596"
    input: "622"
    output: "623"
    op_type: "Sub"
  }
  node {
    input: "619"
    input: "623"
    output: "624"
    op_type: "Mul"
  }
  node {
    input: "622"
    input: "624"
    output: "625"
    op_type: "Add"
  }
  node {
    input: "364"
    input: "393"
    input: "422"
    input: "451"
    input: "480"
    input: "509"
    input: "538"
    input: "567"
    input: "596"
    input: "625"
    output: "626"
    op_type: "Concat"
    attribute {
      name: "axis"
      i: 0
    }
  }
  node {
    input: "626"
    output: "627"
    op_type: "Reshape"
    attribute {
      name: "shape"
      ints: 10
      ints: 5
      ints: 5
    }
  }
  node {
    input: "627"
    output: "628"
    op_type: "Concat"
    attribute {
      name: "axis"
      i: 2
    }
  }
  node {
    input: "628"
    output: "630"
    output: "631"
    op_type: "Dropout"
    attribute {
      name: "is_test"
      i: 1
    }
    attribute {
      name: "ratio"
      f: 0.200000002980232
    }
  }
  node {
    output: "632"
    op_type: "Constant"
    attribute {
      name: "value"
      t {
        dims: 1
        data_type: INT32
        raw_data: "\000\000\000\000"
      }
    }
  }
  node {
    output: "633"
    op_type: "Constant"
    attribute {
      name: "value"
      t {
        dims: 1
        data_type: INT64
        raw_data: "\002\000\000\000\000\000\000\000"
      }
    }
  }
  node {
    output: "634"
    op_type: "Constant"
    attribute {
      name: "value"
      t {
        dims: 1
        data_type: INT64
        raw_data: "\003\000\000\000\000\000\000\000"
      }
    }
  }
  node {
    input: "2"
    input: "632"
    input: "633"
    input: "634"
    output: "635"
    op_type: "Slice"
  }
  node {
    input: "635"
    output: "636"
    op_type: "Squeeze"
    attribute {
      name: "axes"
      ints: 0
    }
  }
  node {
    output: "637"
    op_type: "Constant"
    attribute {
      name: "value"
      t {
        dims: 1
        data_type: INT32
        raw_data: "\000\000\000\000"
      }
    }
  }
  node {
    output: "638"
    op_type: "Constant"
    attribute {
      name: "value"
      t {
        dims: 1
        data_type: INT64
        raw_data: "\000\000\000\000\000\000\000\000"
      }
    }
  }
  node {
    output: "639"
    op_type: "Constant"
    attribute {
      name: "value"
      t {
        dims: 1
        data_type: INT64
        raw_data: "\001\000\000\000\000\000\000\000"
      }
    }
  }
  node {
    input: "630"
    input: "637"
    input: "638"
    input: "639"
    output: "640"
    op_type: "Slice"
  }
  node {
    input: "640"
    output: "641"
    op_type: "Squeeze"
    attribute {
      name: "axes"
      ints: 0
    }
  }
  node {
    input: "12"
    output: "642"
    op_type: "Transpose"
    attribute {
      name: "perm"
      ints: 1
      ints: 0
    }
  }
  node {
    input: "641"
    input: "642"
    input: "14"
    output: "1582"
    op_type: "Gemm"
    attribute {
      name: "alpha"
      f: 1
    }
    attribute {
      name: "beta"
      f: 1
    }
    attribute {
      name: "broadcast"
      i: 1
    }
  }
  node {
    input: "13"
    output: "645"
    op_type: "Transpose"
    attribute {
      name: "perm"
      ints: 1
      ints: 0
    }
  }
  node {
    input: "636"
    input: "645"
    input: "15"
    output: "1583"
    op_type: "Gemm"
    attribute {
      name: "alpha"
      f: 1
    }
    attribute {
      name: "beta"
      f: 1
    }
    attribute {
      name: "broadcast"
      i: 1
    }
  }
  node {
    input: "1582"
    output: "649"
    output: "650"
    output: "651"
    op_type: "Split"
    attribute {
      name: "axis"
      i: 1
    }
    attribute {
      name: "split"
      ints: 5
      ints: 5
      ints: 5
    }
  }
  node {
    input: "1583"
    output: "653"
    output: "654"
    output: "655"
    op_type: "Split"
    attribute {
      name: "axis"
      i: 1
    }
    attribute {
      name: "split"
      ints: 5
      ints: 5
      ints: 5
    }
  }
  node {
    input: "649"
    input: "653"
    output: "656"
    op_type: "Add"
  }
  node {
    input: "656"
    output: "657"
    op_type: "Sigmoid"
  }
  node {
    input: "650"
    input: "654"
    output: "658"
    op_type: "Add"
  }
  node {
    input: "658"
    output: "659"
    op_type: "Sigmoid"
  }
  node {
    input: "657"
    input: "655"
    output: "660"
    op_type: "Mul"
  }
  node {
    input: "651"
    input: "660"
    output: "661"
    op_type: "Add"
  }
  node {
    input: "661"
    output: "662"
    op_type: "Tanh"
  }
  node {
    input: "636"
    input: "662"
    output: "663"
    op_type: "Sub"
  }
  node {
    input: "659"
    input: "663"
    output: "664"
    op_type: "Mul"
  }
  node {
    input: "662"
    input: "664"
    output: "665"
    op_type: "Add"
  }
  node {
    output: "666"
    op_type: "Constant"
    attribute {
      name: "value"
      t {
        dims: 1
        data_type: INT32
        raw_data: "\000\000\000\000"
      }
    }
  }
  node {
    output: "667"
    op_type: "Constant"
    attribute {
      name: "value"
      t {
        dims: 1
        data_type: INT64
        raw_data: "\001\000\000\000\000\000\000\000"
      }
    }
  }
  node {
    output: "668"
    op_type: "Constant"
    attribute {
      name: "value"
      t {
        dims: 1
        data_type: INT64
        raw_data: "\002\000\000\000\000\000\000\000"
      }
    }
  }
  node {
    input: "630"
    input: "666"
    input: "667"
    input: "668"
    output: "669"
    op_type: "Slice"
  }
  node {
    input: "669"
    output: "670"
    op_type: "Squeeze"
    attribute {
      name: "axes"
      ints: 0
    }
  }
  node {
    input: "12"
    output: "671"
    op_type: "Transpose"
    attribute {
      name: "perm"
      ints: 1
      ints: 0
    }
  }
  node {
    input: "670"
    input: "671"
    input: "14"
    output: "1584"
    op_type: "Gemm"
    attribute {
      name: "alpha"
      f: 1
    }
    attribute {
      name: "beta"
      f: 1
    }
    attribute {
      name: "broadcast"
      i: 1
    }
  }
  node {
    input: "13"
    output: "674"
    op_type: "Transpose"
    attribute {
      name: "perm"
      ints: 1
      ints: 0
    }
  }
  node {
    input: "665"
    input: "674"
    input: "15"
    output: "1585"
    op_type: "Gemm"
    attribute {
      name: "alpha"
      f: 1
    }
    attribute {
      name: "beta"
      f: 1
    }
    attribute {
      name: "broadcast"
      i: 1
    }
  }
  node {
    input: "1584"
    output: "678"
    output: "679"
    output: "680"
    op_type: "Split"
    attribute {
      name: "axis"
      i: 1
    }
    attribute {
      name: "split"
      ints: 5
      ints: 5
      ints: 5
    }
  }
  node {
    input: "1585"
    output: "682"
    output: "683"
    output: "684"
    op_type: "Split"
    attribute {
      name: "axis"
      i: 1
    }
    attribute {
      name: "split"
      ints: 5
      ints: 5
      ints: 5
    }
  }
  node {
    input: "678"
    input: "682"
    output: "685"
    op_type: "Add"
  }
  node {
    input: "685"
    output: "686"
    op_type: "Sigmoid"
  }
  node {
    input: "679"
    input: "683"
    output: "687"
    op_type: "Add"
  }
  node {
    input: "687"
    output: "688"
    op_type: "Sigmoid"
  }
  node {
    input: "686"
    input: "684"
    output: "689"
    op_type: "Mul"
  }
  node {
    input: "680"
    input: "689"
    output: "690"
    op_type: "Add"
  }
  node {
    input: "690"
    output: "691"
    op_type: "Tanh"
  }
  node {
    input: "665"
    input: "691"
    output: "692"
    op_type: "Sub"
  }
  node {
    input: "688"
    input: "692"
    output: "693"
    op_type: "Mul"
  }
  node {
    input: "691"
    input: "693"
    output: "694"
    op_type: "Add"
  }
  node {
    output: "695"
    op_type: "Constant"
    attribute {
      name: "value"
      t {
        dims: 1
        data_type: INT32
        raw_data: "\000\000\000\000"
      }
    }
  }
  node {
    output: "696"
    op_type: "Constant"
    attribute {
      name: "value"
      t {
        dims: 1
        data_type: INT64
        raw_data: "\002\000\000\000\000\000\000\000"
      }
    }
  }
  node {
    output: "697"
    op_type: "Constant"
    attribute {
      name: "value"
      t {
        dims: 1
        data_type: INT64
        raw_data: "\003\000\000\000\000\000\000\000"
      }
    }
  }
  node {
    input: "630"
    input: "695"
    input: "696"
    input: "697"
    output: "698"
    op_type: "Slice"
  }
  node {
    input: "698"
    output: "699"
    op_type: "Squeeze"
    attribute {
      name: "axes"
      ints: 0
    }
  }
  node {
    input: "12"
    output: "700"
    op_type: "Transpose"
    attribute {
      name: "perm"
      ints: 1
      ints: 0
    }
  }
  node {
    input: "699"
    input: "700"
    input: "14"
    output: "1586"
    op_type: "Gemm"
    attribute {
      name: "alpha"
      f: 1
    }
    attribute {
      name: "beta"
      f: 1
    }
    attribute {
      name: "broadcast"
      i: 1
    }
  }
  node {
    input: "13"
    output: "703"
    op_type: "Transpose"
    attribute {
      name: "perm"
      ints: 1
      ints: 0
    }
  }
  node {
    input: "694"
    input: "703"
    input: "15"
    output: "1587"
    op_type: "Gemm"
    attribute {
      name: "alpha"
      f: 1
    }
    attribute {
      name: "beta"
      f: 1
    }
    attribute {
      name: "broadcast"
      i: 1
    }
  }
  node {
    input: "1586"
    output: "707"
    output: "708"
    output: "709"
    op_type: "Split"
    attribute {
      name: "axis"
      i: 1
    }
    attribute {
      name: "split"
      ints: 5
      ints: 5
      ints: 5
    }
  }
  node {
    input: "1587"
    output: "711"
    output: "712"
    output: "713"
    op_type: "Split"
    attribute {
      name: "axis"
      i: 1
    }
    attribute {
      name: "split"
      ints: 5
      ints: 5
      ints: 5
    }
  }
  node {
    input: "707"
    input: "711"
    output: "714"
    op_type: "Add"
  }
  node {
    input: "714"
    output: "715"
    op_type: "Sigmoid"
  }
  node {
    input: "708"
    input: "712"
    output: "716"
    op_type: "Add"
  }
  node {
    input: "716"
    output: "717"
    op_type: "Sigmoid"
  }
  node {
    input: "715"
    input: "713"
    output: "718"
    op_type: "Mul"
  }
  node {
    input: "709"
    input: "718"
    output: "719"
    op_type: "Add"
  }
  node {
    input: "719"
    output: "720"
    op_type: "Tanh"
  }
  node {
    input: "694"
    input: "720"
    output: "721"
    op_type: "Sub"
  }
  node {
    input: "717"
    input: "721"
    output: "722"
    op_type: "Mul"
  }
  node {
    input: "720"
    input: "722"
    output: "723"
    op_type: "Add"
  }
  node {
    output: "724"
    op_type: "Constant"
    attribute {
      name: "value"
      t {
        dims: 1
        data_type: INT32
        raw_data: "\000\000\000\000"
      }
    }
  }
  node {
    output: "725"
    op_type: "Constant"
    attribute {
      name: "value"
      t {
        dims: 1
        data_type: INT64
        raw_data: "\003\000\000\000\000\000\000\000"
      }
    }
  }
  node {
    output: "726"
    op_type: "Constant"
    attribute {
      name: "value"
      t {
        dims: 1
        data_type: INT64
        raw_data: "\004\000\000\000\000\000\000\000"
      }
    }
  }
  node {
    input: "630"
    input: "724"
    input: "725"
    input: "726"
    output: "727"
    op_type: "Slice"
  }
  node {
    input: "727"
    output: "728"
    op_type: "Squeeze"
    attribute {
      name: "axes"
      ints: 0
    }
  }
  node {
    input: "12"
    output: "729"
    op_type: "Transpose"
    attribute {
      name: "perm"
      ints: 1
      ints: 0
    }
  }
  node {
    input: "728"
    input: "729"
    input: "14"
    output: "1588"
    op_type: "Gemm"
    attribute {
      name: "alpha"
      f: 1
    }
    attribute {
      name: "beta"
      f: 1
    }
    attribute {
      name: "broadcast"
      i: 1
    }
  }
  node {
    input: "13"
    output: "732"
    op_type: "Transpose"
    attribute {
      name: "perm"
      ints: 1
      ints: 0
    }
  }
  node {
    input: "723"
    input: "732"
    input: "15"
    output: "1589"
    op_type: "Gemm"
    attribute {
      name: "alpha"
      f: 1
    }
    attribute {
      name: "beta"
      f: 1
    }
    attribute {
      name: "broadcast"
      i: 1
    }
  }
  node {
    input: "1588"
    output: "736"
    output: "737"
    output: "738"
    op_type: "Split"
    attribute {
      name: "axis"
      i: 1
    }
    attribute {
      name: "split"
      ints: 5
      ints: 5
      ints: 5
    }
  }
  node {
    input: "1589"
    output: "740"
    output: "741"
    output: "742"
    op_type: "Split"
    attribute {
      name: "axis"
      i: 1
    }
    attribute {
      name: "split"
      ints: 5
      ints: 5
      ints: 5
    }
  }
  node {
    input: "736"
    input: "740"
    output: "743"
    op_type: "Add"
  }
  node {
    input: "743"
    output: "744"
    op_type: "Sigmoid"
  }
  node {
    input: "737"
    input: "741"
    output: "745"
    op_type: "Add"
  }
  node {
    input: "745"
    output: "746"
    op_type: "Sigmoid"
  }
  node {
    input: "744"
    input: "742"
    output: "747"
    op_type: "Mul"
  }
  node {
    input: "738"
    input: "747"
    output: "748"
    op_type: "Add"
  }
  node {
    input: "748"
    output: "749"
    op_type: "Tanh"
  }
  node {
    input: "723"
    input: "749"
    output: "750"
    op_type: "Sub"
  }
  node {
    input: "746"
    input: "750"
    output: "751"
    op_type: "Mul"
  }
  node {
    input: "749"
    input: "751"
    output: "752"
    op_type: "Add"
  }
  node {
    output: "753"
    op_type: "Constant"
    attribute {
      name: "value"
      t {
        dims: 1
        data_type: INT32
        raw_data: "\000\000\000\000"
      }
    }
  }
  node {
    output: "754"
    op_type: "Constant"
    attribute {
      name: "value"
      t {
        dims: 1
        data_type: INT64
        raw_data: "\004\000\000\000\000\000\000\000"
      }
    }
  }
  node {
    output: "755"
    op_type: "Constant"
    attribute {
      name: "value"
      t {
        dims: 1
        data_type: INT64
        raw_data: "\005\000\000\000\000\000\000\000"
      }
    }
  }
  node {
    input: "630"
    input: "753"
    input: "754"
    input: "755"
    output: "756"
    op_type: "Slice"
  }
  node {
    input: "756"
    output: "757"
    op_type: "Squeeze"
    attribute {
      name: "axes"
      ints: 0
    }
  }
  node {
    input: "12"
    output: "758"
    op_type: "Transpose"
    attribute {
      name: "perm"
      ints: 1
      ints: 0
    }
  }
  node {
    input: "757"
    input: "758"
    input: "14"
    output: "1590"
    op_type: "Gemm"
    attribute {
      name: "alpha"
      f: 1
    }
    attribute {
      name: "beta"
      f: 1
    }
    attribute {
      name: "broadcast"
      i: 1
    }
  }
  node {
    input: "13"
    output: "761"
    op_type: "Transpose"
    attribute {
      name: "perm"
      ints: 1
      ints: 0
    }
  }
  node {
    input: "752"
    input: "761"
    input: "15"
    output: "1591"
    op_type: "Gemm"
    attribute {
      name: "alpha"
      f: 1
    }
    attribute {
      name: "beta"
      f: 1
    }
    attribute {
      name: "broadcast"
      i: 1
    }
  }
  node {
    input: "1590"
    output: "765"
    output: "766"
    output: "767"
    op_type: "Split"
    attribute {
      name: "axis"
      i: 1
    }
    attribute {
      name: "split"
      ints: 5
      ints: 5
      ints: 5
    }
  }
  node {
    input: "1591"
    output: "769"
    output: "770"
    output: "771"
    op_type: "Split"
    attribute {
      name: "axis"
      i: 1
    }
    attribute {
      name: "split"
      ints: 5
      ints: 5
      ints: 5
    }
  }
  node {
    input: "765"
    input: "769"
    output: "772"
    op_type: "Add"
  }
  node {
    input: "772"
    output: "773"
    op_type: "Sigmoid"
  }
  node {
    input: "766"
    input: "770"
    output: "774"
    op_type: "Add"
  }
  node {
    input: "774"
    output: "775"
    op_type: "Sigmoid"
  }
  node {
    input: "773"
    input: "771"
    output: "776"
    op_type: "Mul"
  }
  node {
    input: "767"
    input: "776"
    output: "777"
    op_type: "Add"
  }
  node {
    input: "777"
    output: "778"
    op_type: "Tanh"
  }
  node {
    input: "752"
    input: "778"
    output: "779"
    op_type: "Sub"
  }
  node {
    input: "775"
    input: "779"
    output: "780"
    op_type: "Mul"
  }
  node {
    input: "778"
    input: "780"
    output: "781"
    op_type: "Add"
  }
  node {
    output: "782"
    op_type: "Constant"
    attribute {
      name: "value"
      t {
        dims: 1
        data_type: INT32
        raw_data: "\000\000\000\000"
      }
    }
  }
  node {
    output: "783"
    op_type: "Constant"
    attribute {
      name: "value"
      t {
        dims: 1
        data_type: INT64
        raw_data: "\005\000\000\000\000\000\000\000"
      }
    }
  }
  node {
    output: "784"
    op_type: "Constant"
    attribute {
      name: "value"
      t {
        dims: 1
        data_type: INT64
        raw_data: "\006\000\000\000\000\000\000\000"
      }
    }
  }
  node {
    input: "630"
    input: "782"
    input: "783"
    input: "784"
    output: "785"
    op_type: "Slice"
  }
  node {
    input: "785"
    output: "786"
    op_type: "Squeeze"
    attribute {
      name: "axes"
      ints: 0
    }
  }
  node {
    input: "12"
    output: "787"
    op_type: "Transpose"
    attribute {
      name: "perm"
      ints: 1
      ints: 0
    }
  }
  node {
    input: "786"
    input: "787"
    input: "14"
    output: "1592"
    op_type: "Gemm"
    attribute {
      name: "alpha"
      f: 1
    }
    attribute {
      name: "beta"
      f: 1
    }
    attribute {
      name: "broadcast"
      i: 1
    }
  }
  node {
    input: "13"
    output: "790"
    op_type: "Transpose"
    attribute {
      name: "perm"
      ints: 1
      ints: 0
    }
  }
  node {
    input: "781"
    input: "790"
    input: "15"
    output: "1593"
    op_type: "Gemm"
    attribute {
      name: "alpha"
      f: 1
    }
    attribute {
      name: "beta"
      f: 1
    }
    attribute {
      name: "broadcast"
      i: 1
    }
  }
  node {
    input: "1592"
    output: "794"
    output: "795"
    output: "796"
    op_type: "Split"
    attribute {
      name: "axis"
      i: 1
    }
    attribute {
      name: "split"
      ints: 5
      ints: 5
      ints: 5
    }
  }
  node {
    input: "1593"
    output: "798"
    output: "799"
    output: "800"
    op_type: "Split"
    attribute {
      name: "axis"
      i: 1
    }
    attribute {
      name: "split"
      ints: 5
      ints: 5
      ints: 5
    }
  }
  node {
    input: "794"
    input: "798"
    output: "801"
    op_type: "Add"
  }
  node {
    input: "801"
    output: "802"
    op_type: "Sigmoid"
  }
  node {
    input: "795"
    input: "799"
    output: "803"
    op_type: "Add"
  }
  node {
    input: "803"
    output: "804"
    op_type: "Sigmoid"
  }
  node {
    input: "802"
    input: "800"
    output: "805"
    op_type: "Mul"
  }
  node {
    input: "796"
    input: "805"
    output: "806"
    op_type: "Add"
  }
  node {
    input: "806"
    output: "807"
    op_type: "Tanh"
  }
  node {
    input: "781"
    input: "807"
    output: "808"
    op_type: "Sub"
  }
  node {
    input: "804"
    input: "808"
    output: "809"
    op_type: "Mul"
  }
  node {
    input: "807"
    input: "809"
    output: "810"
    op_type: "Add"
  }
  node {
    output: "811"
    op_type: "Constant"
    attribute {
      name: "value"
      t {
        dims: 1
        data_type: INT32
        raw_data: "\000\000\000\000"
      }
    }
  }
  node {
    output: "812"
    op_type: "Constant"
    attribute {
      name: "value"
      t {
        dims: 1
        data_type: INT64
        raw_data: "\006\000\000\000\000\000\000\000"
      }
    }
  }
  node {
    output: "813"
    op_type: "Constant"
    attribute {
      name: "value"
      t {
        dims: 1
        data_type: INT64
        raw_data: "\007\000\000\000\000\000\000\000"
      }
    }
  }
  node {
    input: "630"
    input: "811"
    input: "812"
    input: "813"
    output: "814"
    op_type: "Slice"
  }
  node {
    input: "814"
    output: "815"
    op_type: "Squeeze"
    attribute {
      name: "axes"
      ints: 0
    }
  }
  node {
    input: "12"
    output: "816"
    op_type: "Transpose"
    attribute {
      name: "perm"
      ints: 1
      ints: 0
    }
  }
  node {
    input: "815"
    input: "816"
    input: "14"
    output: "1594"
    op_type: "Gemm"
    attribute {
      name: "alpha"
      f: 1
    }
    attribute {
      name: "beta"
      f: 1
    }
    attribute {
      name: "broadcast"
      i: 1
    }
  }
  node {
    input: "13"
    output: "819"
    op_type: "Transpose"
    attribute {
      name: "perm"
      ints: 1
      ints: 0
    }
  }
  node {
    input: "810"
    input: "819"
    input: "15"
    output: "1595"
    op_type: "Gemm"
    attribute {
      name: "alpha"
      f: 1
    }
    attribute {
      name: "beta"
      f: 1
    }
    attribute {
      name: "broadcast"
      i: 1
    }
  }
  node {
    input: "1594"
    output: "823"
    output: "824"
    output: "825"
    op_type: "Split"
    attribute {
      name: "axis"
      i: 1
    }
    attribute {
      name: "split"
      ints: 5
      ints: 5
      ints: 5
    }
  }
  node {
    input: "1595"
    output: "827"
    output: "828"
    output: "829"
    op_type: "Split"
    attribute {
      name: "axis"
      i: 1
    }
    attribute {
      name: "split"
      ints: 5
      ints: 5
      ints: 5
    }
  }
  node {
    input: "823"
    input: "827"
    output: "830"
    op_type: "Add"
  }
  node {
    input: "830"
    output: "831"
    op_type: "Sigmoid"
  }
  node {
    input: "824"
    input: "828"
    output: "832"
    op_type: "Add"
  }
  node {
    input: "832"
    output: "833"
    op_type: "Sigmoid"
  }
  node {
    input: "831"
    input: "829"
    output: "834"
    op_type: "Mul"
  }
  node {
    input: "825"
    input: "834"
    output: "835"
    op_type: "Add"
  }
  node {
    input: "835"
    output: "836"
    op_type: "Tanh"
  }
  node {
    input: "810"
    input: "836"
    output: "837"
    op_type: "Sub"
  }
  node {
    input: "833"
    input: "837"
    output: "838"
    op_type: "Mul"
  }
  node {
    input: "836"
    input: "838"
    output: "839"
    op_type: "Add"
  }
  node {
    output: "840"
    op_type: "Constant"
    attribute {
      name: "value"
      t {
        dims: 1
        data_type: INT32
        raw_data: "\000\000\000\000"
      }
    }
  }
  node {
    output: "841"
    op_type: "Constant"
    attribute {
      name: "value"
      t {
        dims: 1
        data_type: INT64
        raw_data: "\007\000\000\000\000\000\000\000"
      }
    }
  }
  node {
    output: "842"
    op_type: "Constant"
    attribute {
      name: "value"
      t {
        dims: 1
        data_type: INT64
        raw_data: "\010\000\000\000\000\000\000\000"
      }
    }
  }
  node {
    input: "630"
    input: "840"
    input: "841"
    input: "842"
    output: "843"
    op_type: "Slice"
  }
  node {
    input: "843"
    output: "844"
    op_type: "Squeeze"
    attribute {
      name: "axes"
      ints: 0
    }
  }
  node {
    input: "12"
    output: "845"
    op_type: "Transpose"
    attribute {
      name: "perm"
      ints: 1
      ints: 0
    }
  }
  node {
    input: "844"
    input: "845"
    input: "14"
    output: "1596"
    op_type: "Gemm"
    attribute {
      name: "alpha"
      f: 1
    }
    attribute {
      name: "beta"
      f: 1
    }
    attribute {
      name: "broadcast"
      i: 1
    }
  }
  node {
    input: "13"
    output: "848"
    op_type: "Transpose"
    attribute {
      name: "perm"
      ints: 1
      ints: 0
    }
  }
  node {
    input: "839"
    input: "848"
    input: "15"
    output: "1597"
    op_type: "Gemm"
    attribute {
      name: "alpha"
      f: 1
    }
    attribute {
      name: "beta"
      f: 1
    }
    attribute {
      name: "broadcast"
      i: 1
    }
  }
  node {
    input: "1596"
    output: "852"
    output: "853"
    output: "854"
    op_type: "Split"
    attribute {
      name: "axis"
      i: 1
    }
    attribute {
      name: "split"
      ints: 5
      ints: 5
      ints: 5
    }
  }
  node {
    input: "1597"
    output: "856"
    output: "857"
    output: "858"
    op_type: "Split"
    attribute {
      name: "axis"
      i: 1
    }
    attribute {
      name: "split"
      ints: 5
      ints: 5
      ints: 5
    }
  }
  node {
    input: "852"
    input: "856"
    output: "859"
    op_type: "Add"
  }
  node {
    input: "859"
    output: "860"
    op_type: "Sigmoid"
  }
  node {
    input: "853"
    input: "857"
    output: "861"
    op_type: "Add"
  }
  node {
    input: "861"
    output: "862"
    op_type: "Sigmoid"
  }
  node {
    input: "860"
    input: "858"
    output: "863"
    op_type: "Mul"
  }
  node {
    input: "854"
    input: "863"
    output: "864"
    op_type: "Add"
  }
  node {
    input: "864"
    output: "865"
    op_type: "Tanh"
  }
  node {
    input: "839"
    input: "865"
    output: "866"
    op_type: "Sub"
  }
  node {
    input: "862"
    input: "866"
    output: "867"
    op_type: "Mul"
  }
  node {
    input: "865"
    input: "867"
    output: "868"
    op_type: "Add"
  }
  node {
    output: "869"
    op_type: "Constant"
    attribute {
      name: "value"
      t {
        dims: 1
        data_type: INT32
        raw_data: "\000\000\000\000"
      }
    }
  }
  node {
    output: "870"
    op_type: "Constant"
    attribute {
      name: "value"
      t {
        dims: 1
        data_type: INT64
        raw_data: "\010\000\000\000\000\000\000\000"
      }
    }
  }
  node {
    output: "871"
    op_type: "Constant"
    attribute {
      name: "value"
      t {
        dims: 1
        data_type: INT64
        raw_data: "\t\000\000\000\000\000\000\000"
      }
    }
  }
  node {
    input: "630"
    input: "869"
    input: "870"
    input: "871"
    output: "872"
    op_type: "Slice"
  }
  node {
    input: "872"
    output: "873"
    op_type: "Squeeze"
    attribute {
      name: "axes"
      ints: 0
    }
  }
  node {
    input: "12"
    output: "874"
    op_type: "Transpose"
    attribute {
      name: "perm"
      ints: 1
      ints: 0
    }
  }
  node {
    input: "873"
    input: "874"
    input: "14"
    output: "1598"
    op_type: "Gemm"
    attribute {
      name: "alpha"
      f: 1
    }
    attribute {
      name: "beta"
      f: 1
    }
    attribute {
      name: "broadcast"
      i: 1
    }
  }
  node {
    input: "13"
    output: "877"
    op_type: "Transpose"
    attribute {
      name: "perm"
      ints: 1
      ints: 0
    }
  }
  node {
    input: "868"
    input: "877"
    input: "15"
    output: "1599"
    op_type: "Gemm"
    attribute {
      name: "alpha"
      f: 1
    }
    attribute {
      name: "beta"
      f: 1
    }
    attribute {
      name: "broadcast"
      i: 1
    }
  }
  node {
    input: "1598"
    output: "881"
    output: "882"
    output: "883"
    op_type: "Split"
    attribute {
      name: "axis"
      i: 1
    }
    attribute {
      name: "split"
      ints: 5
      ints: 5
      ints: 5
    }
  }
  node {
    input: "1599"
    output: "885"
    output: "886"
    output: "887"
    op_type: "Split"
    attribute {
      name: "axis"
      i: 1
    }
    attribute {
      name: "split"
      ints: 5
      ints: 5
      ints: 5
    }
  }
  node {
    input: "881"
    input: "885"
    output: "888"
    op_type: "Add"
  }
  node {
    input: "888"
    output: "889"
    op_type: "Sigmoid"
  }
  node {
    input: "882"
    input: "886"
    output: "890"
    op_type: "Add"
  }
  node {
    input: "890"
    output: "891"
    op_type: "Sigmoid"
  }
  node {
    input: "889"
    input: "887"
    output: "892"
    op_type: "Mul"
  }
  node {
    input: "883"
    input: "892"
    output: "893"
    op_type: "Add"
  }
  node {
    input: "893"
    output: "894"
    op_type: "Tanh"
  }
  node {
    input: "868"
    input: "894"
    output: "895"
    op_type: "Sub"
  }
  node {
    input: "891"
    input: "895"
    output: "896"
    op_type: "Mul"
  }
  node {
    input: "894"
    input: "896"
    output: "897"
    op_type: "Add"
  }
  node {
    output: "898"
    op_type: "Constant"
    attribute {
      name: "value"
      t {
        dims: 1
        data_type: INT32
        raw_data: "\000\000\000\000"
      }
    }
  }
  node {
    output: "899"
    op_type: "Constant"
    attribute {
      name: "value"
      t {
        dims: 1
        data_type: INT64
        raw_data: "\t\000\000\000\000\000\000\000"
      }
    }
  }
  node {
    output: "900"
    op_type: "Constant"
    attribute {
      name: "value"
      t {
        dims: 1
        data_type: INT64
        raw_data: "\n\000\000\000\000\000\000\000"
      }
    }
  }
  node {
    input: "630"
    input: "898"
    input: "899"
    input: "900"
    output: "901"
    op_type: "Slice"
  }
  node {
    input: "901"
    output: "902"
    op_type: "Squeeze"
    attribute {
      name: "axes"
      ints: 0
    }
  }
  node {
    input: "12"
    output: "903"
    op_type: "Transpose"
    attribute {
      name: "perm"
      ints: 1
      ints: 0
    }
  }
  node {
    input: "902"
    input: "903"
    input: "14"
    output: "1600"
    op_type: "Gemm"
    attribute {
      name: "alpha"
      f: 1
    }
    attribute {
      name: "beta"
      f: 1
    }
    attribute {
      name: "broadcast"
      i: 1
    }
  }
  node {
    input: "13"
    output: "906"
    op_type: "Transpose"
    attribute {
      name: "perm"
      ints: 1
      ints: 0
    }
  }
  node {
    input: "897"
    input: "906"
    input: "15"
    output: "1601"
    op_type: "Gemm"
    attribute {
      name: "alpha"
      f: 1
    }
    attribute {
      name: "beta"
      f: 1
    }
    attribute {
      name: "broadcast"
      i: 1
    }
  }
  node {
    input: "1600"
    output: "910"
    output: "911"
    output: "912"
    op_type: "Split"
    attribute {
      name: "axis"
      i: 1
    }
    attribute {
      name: "split"
      ints: 5
      ints: 5
      ints: 5
    }
  }
  node {
    input: "1601"
    output: "914"
    output: "915"
    output: "916"
    op_type: "Split"
    attribute {
      name: "axis"
      i: 1
    }
    attribute {
      name: "split"
      ints: 5
      ints: 5
      ints: 5
    }
  }
  node {
    input: "910"
    input: "914"
    output: "917"
    op_type: "Add"
  }
  node {
    input: "917"
    output: "918"
    op_type: "Sigmoid"
  }
  node {
    input: "911"
    input: "915"
    output: "919"
    op_type: "Add"
  }
  node {
    input: "919"
    output: "920"
    op_type: "Sigmoid"
  }
  node {
    input: "918"
    input: "916"
    output: "921"
    op_type: "Mul"
  }
  node {
    input: "912"
    input: "921"
    output: "922"
    op_type: "Add"
  }
  node {
    input: "922"
    output: "923"
    op_type: "Tanh"
  }
  node {
    input: "897"
    input: "923"
    output: "924"
    op_type: "Sub"
  }
  node {
    input: "920"
    input: "924"
    output: "925"
    op_type: "Mul"
  }
  node {
    input: "923"
    input: "925"
    output: "926"
    op_type: "Add"
  }
  node {
    input: "665"
    input: "694"
    input: "723"
    input: "752"
    input: "781"
    input: "810"
    input: "839"
    input: "868"
    input: "897"
    input: "926"
    output: "927"
    op_type: "Concat"
    attribute {
      name: "axis"
      i: 0
    }
  }
  node {
    input: "927"
    output: "928"
    op_type: "Reshape"
    attribute {
      name: "shape"
      ints: 10
      ints: 5
      ints: 5
    }
  }
  node {
    input: "928"
    output: "929"
    op_type: "Concat"
    attribute {
      name: "axis"
      i: 2
    }
  }
  node {
    input: "929"
    output: "931"
    output: "932"
    op_type: "Dropout"
    attribute {
      name: "is_test"
      i: 1
    }
    attribute {
      name: "ratio"
      f: 0.200000002980232
    }
  }
  node {
    output: "933"
    op_type: "Constant"
    attribute {
      name: "value"
      t {
        dims: 1
        data_type: INT32
        raw_data: "\000\000\000\000"
      }
    }
  }
  node {
    output: "934"
    op_type: "Constant"
    attribute {
      name: "value"
      t {
        dims: 1
        data_type: INT64
        raw_data: "\003\000\000\000\000\000\000\000"
      }
    }
  }
  node {
    output: "935"
    op_type: "Constant"
    attribute {
      name: "value"
      t {
        dims: 1
        data_type: INT64
        raw_data: "\004\000\000\000\000\000\000\000"
      }
    }
  }
  node {
    input: "2"
    input: "933"
    input: "934"
    input: "935"
    output: "936"
    op_type: "Slice"
  }
  node {
    input: "936"
    output: "937"
    op_type: "Squeeze"
    attribute {
      name: "axes"
      ints: 0
    }
  }
  node {
    output: "938"
    op_type: "Constant"
    attribute {
      name: "value"
      t {
        dims: 1
        data_type: INT32
        raw_data: "\000\000\000\000"
      }
    }
  }
  node {
    output: "939"
    op_type: "Constant"
    attribute {
      name: "value"
      t {
        dims: 1
        data_type: INT64
        raw_data: "\000\000\000\000\000\000\000\000"
      }
    }
  }
  node {
    output: "940"
    op_type: "Constant"
    attribute {
      name: "value"
      t {
        dims: 1
        data_type: INT64
        raw_data: "\001\000\000\000\000\000\000\000"
      }
    }
  }
  node {
    input: "931"
    input: "938"
    input: "939"
    input: "940"
    output: "941"
    op_type: "Slice"
  }
  node {
    input: "941"
    output: "942"
    op_type: "Squeeze"
    attribute {
      name: "axes"
      ints: 0
    }
  }
  node {
    input: "16"
    output: "943"
    op_type: "Transpose"
    attribute {
      name: "perm"
      ints: 1
      ints: 0
    }
  }
  node {
    input: "942"
    input: "943"
    input: "18"
    output: "1602"
    op_type: "Gemm"
    attribute {
      name: "alpha"
      f: 1
    }
    attribute {
      name: "beta"
      f: 1
    }
    attribute {
      name: "broadcast"
      i: 1
    }
  }
  node {
    input: "17"
    output: "946"
    op_type: "Transpose"
    attribute {
      name: "perm"
      ints: 1
      ints: 0
    }
  }
  node {
    input: "937"
    input: "946"
    input: "19"
    output: "1603"
    op_type: "Gemm"
    attribute {
      name: "alpha"
      f: 1
    }
    attribute {
      name: "beta"
      f: 1
    }
    attribute {
      name: "broadcast"
      i: 1
    }
  }
  node {
    input: "1602"
    output: "950"
    output: "951"
    output: "952"
    op_type: "Split"
    attribute {
      name: "axis"
      i: 1
    }
    attribute {
      name: "split"
      ints: 5
      ints: 5
      ints: 5
    }
  }
  node {
    input: "1603"
    output: "954"
    output: "955"
    output: "956"
    op_type: "Split"
    attribute {
      name: "axis"
      i: 1
    }
    attribute {
      name: "split"
      ints: 5
      ints: 5
      ints: 5
    }
  }
  node {
    input: "950"
    input: "954"
    output: "957"
    op_type: "Add"
  }
  node {
    input: "957"
    output: "958"
    op_type: "Sigmoid"
  }
  node {
    input: "951"
    input: "955"
    output: "959"
    op_type: "Add"
  }
  node {
    input: "959"
    output: "960"
    op_type: "Sigmoid"
  }
  node {
    input: "958"
    input: "956"
    output: "961"
    op_type: "Mul"
  }
  node {
    input: "952"
    input: "961"
    output: "962"
    op_type: "Add"
  }
  node {
    input: "962"
    output: "963"
    op_type: "Tanh"
  }
  node {
    input: "937"
    input: "963"
    output: "964"
    op_type: "Sub"
  }
  node {
    input: "960"
    input: "964"
    output: "965"
    op_type: "Mul"
  }
  node {
    input: "963"
    input: "965"
    output: "966"
    op_type: "Add"
  }
  node {
    output: "967"
    op_type: "Constant"
    attribute {
      name: "value"
      t {
        dims: 1
        data_type: INT32
        raw_data: "\000\000\000\000"
      }
    }
  }
  node {
    output: "968"
    op_type: "Constant"
    attribute {
      name: "value"
      t {
        dims: 1
        data_type: INT64
        raw_data: "\001\000\000\000\000\000\000\000"
      }
    }
  }
  node {
    output: "969"
    op_type: "Constant"
    attribute {
      name: "value"
      t {
        dims: 1
        data_type: INT64
        raw_data: "\002\000\000\000\000\000\000\000"
      }
    }
  }
  node {
    input: "931"
    input: "967"
    input: "968"
    input: "969"
    output: "970"
    op_type: "Slice"
  }
  node {
    input: "970"
    output: "971"
    op_type: "Squeeze"
    attribute {
      name: "axes"
      ints: 0
    }
  }
  node {
    input: "16"
    output: "972"
    op_type: "Transpose"
    attribute {
      name: "perm"
      ints: 1
      ints: 0
    }
  }
  node {
    input: "971"
    input: "972"
    input: "18"
    output: "1604"
    op_type: "Gemm"
    attribute {
      name: "alpha"
      f: 1
    }
    attribute {
      name: "beta"
      f: 1
    }
    attribute {
      name: "broadcast"
      i: 1
    }
  }
  node {
    input: "17"
    output: "975"
    op_type: "Transpose"
    attribute {
      name: "perm"
      ints: 1
      ints: 0
    }
  }
  node {
    input: "966"
    input: "975"
    input: "19"
    output: "1605"
    op_type: "Gemm"
    attribute {
      name: "alpha"
      f: 1
    }
    attribute {
      name: "beta"
      f: 1
    }
    attribute {
      name: "broadcast"
      i: 1
    }
  }
  node {
    input: "1604"
    output: "979"
    output: "980"
    output: "981"
    op_type: "Split"
    attribute {
      name: "axis"
      i: 1
    }
    attribute {
      name: "split"
      ints: 5
      ints: 5
      ints: 5
    }
  }
  node {
    input: "1605"
    output: "983"
    output: "984"
    output: "985"
    op_type: "Split"
    attribute {
      name: "axis"
      i: 1
    }
    attribute {
      name: "split"
      ints: 5
      ints: 5
      ints: 5
    }
  }
  node {
    input: "979"
    input: "983"
    output: "986"
    op_type: "Add"
  }
  node {
    input: "986"
    output: "987"
    op_type: "Sigmoid"
  }
  node {
    input: "980"
    input: "984"
    output: "988"
    op_type: "Add"
  }
  node {
    input: "988"
    output: "989"
    op_type: "Sigmoid"
  }
  node {
    input: "987"
    input: "985"
    output: "990"
    op_type: "Mul"
  }
  node {
    input: "981"
    input: "990"
    output: "991"
    op_type: "Add"
  }
  node {
    input: "991"
    output: "992"
    op_type: "Tanh"
  }
  node {
    input: "966"
    input: "992"
    output: "993"
    op_type: "Sub"
  }
  node {
    input: "989"
    input: "993"
    output: "994"
    op_type: "Mul"
  }
  node {
    input: "992"
    input: "994"
    output: "995"
    op_type: "Add"
  }
  node {
    output: "996"
    op_type: "Constant"
    attribute {
      name: "value"
      t {
        dims: 1
        data_type: INT32
        raw_data: "\000\000\000\000"
      }
    }
  }
  node {
    output: "997"
    op_type: "Constant"
    attribute {
      name: "value"
      t {
        dims: 1
        data_type: INT64
        raw_data: "\002\000\000\000\000\000\000\000"
      }
    }
  }
  node {
    output: "998"
    op_type: "Constant"
    attribute {
      name: "value"
      t {
        dims: 1
        data_type: INT64
        raw_data: "\003\000\000\000\000\000\000\000"
      }
    }
  }
  node {
    input: "931"
    input: "996"
    input: "997"
    input: "998"
    output: "999"
    op_type: "Slice"
  }
  node {
    input: "999"
    output: "1000"
    op_type: "Squeeze"
    attribute {
      name: "axes"
      ints: 0
    }
  }
  node {
    input: "16"
    output: "1001"
    op_type: "Transpose"
    attribute {
      name: "perm"
      ints: 1
      ints: 0
    }
  }
  node {
    input: "1000"
    input: "1001"
    input: "18"
    output: "1606"
    op_type: "Gemm"
    attribute {
      name: "alpha"
      f: 1
    }
    attribute {
      name: "beta"
      f: 1
    }
    attribute {
      name: "broadcast"
      i: 1
    }
  }
  node {
    input: "17"
    output: "1004"
    op_type: "Transpose"
    attribute {
      name: "perm"
      ints: 1
      ints: 0
    }
  }
  node {
    input: "995"
    input: "1004"
    input: "19"
    output: "1607"
    op_type: "Gemm"
    attribute {
      name: "alpha"
      f: 1
    }
    attribute {
      name: "beta"
      f: 1
    }
    attribute {
      name: "broadcast"
      i: 1
    }
  }
  node {
    input: "1606"
    output: "1008"
    output: "1009"
    output: "1010"
    op_type: "Split"
    attribute {
      name: "axis"
      i: 1
    }
    attribute {
      name: "split"
      ints: 5
      ints: 5
      ints: 5
    }
  }
  node {
    input: "1607"
    output: "1012"
    output: "1013"
    output: "1014"
    op_type: "Split"
    attribute {
      name: "axis"
      i: 1
    }
    attribute {
      name: "split"
      ints: 5
      ints: 5
      ints: 5
    }
  }
  node {
    input: "1008"
    input: "1012"
    output: "1015"
    op_type: "Add"
  }
  node {
    input: "1015"
    output: "1016"
    op_type: "Sigmoid"
  }
  node {
    input: "1009"
    input: "1013"
    output: "1017"
    op_type: "Add"
  }
  node {
    input: "1017"
    output: "1018"
    op_type: "Sigmoid"
  }
  node {
    input: "1016"
    input: "1014"
    output: "1019"
    op_type: "Mul"
  }
  node {
    input: "1010"
    input: "1019"
    output: "1020"
    op_type: "Add"
  }
  node {
    input: "1020"
    output: "1021"
    op_type: "Tanh"
  }
  node {
    input: "995"
    input: "1021"
    output: "1022"
    op_type: "Sub"
  }
  node {
    input: "1018"
    input: "1022"
    output: "1023"
    op_type: "Mul"
  }
  node {
    input: "1021"
    input: "1023"
    output: "1024"
    op_type: "Add"
  }
  node {
    output: "1025"
    op_type: "Constant"
    attribute {
      name: "value"
      t {
        dims: 1
        data_type: INT32
        raw_data: "\000\000\000\000"
      }
    }
  }
  node {
    output: "1026"
    op_type: "Constant"
    attribute {
      name: "value"
      t {
        dims: 1
        data_type: INT64
        raw_data: "\003\000\000\000\000\000\000\000"
      }
    }
  }
  node {
    output: "1027"
    op_type: "Constant"
    attribute {
      name: "value"
      t {
        dims: 1
        data_type: INT64
        raw_data: "\004\000\000\000\000\000\000\000"
      }
    }
  }
  node {
    input: "931"
    input: "1025"
    input: "1026"
    input: "1027"
    output: "1028"
    op_type: "Slice"
  }
  node {
    input: "1028"
    output: "1029"
    op_type: "Squeeze"
    attribute {
      name: "axes"
      ints: 0
    }
  }
  node {
    input: "16"
    output: "1030"
    op_type: "Transpose"
    attribute {
      name: "perm"
      ints: 1
      ints: 0
    }
  }
  node {
    input: "1029"
    input: "1030"
    input: "18"
    output: "1608"
    op_type: "Gemm"
    attribute {
      name: "alpha"
      f: 1
    }
    attribute {
      name: "beta"
      f: 1
    }
    attribute {
      name: "broadcast"
      i: 1
    }
  }
  node {
    input: "17"
    output: "1033"
    op_type: "Transpose"
    attribute {
      name: "perm"
      ints: 1
      ints: 0
    }
  }
  node {
    input: "1024"
    input: "1033"
    input: "19"
    output: "1609"
    op_type: "Gemm"
    attribute {
      name: "alpha"
      f: 1
    }
    attribute {
      name: "beta"
      f: 1
    }
    attribute {
      name: "broadcast"
      i: 1
    }
  }
  node {
    input: "1608"
    output: "1037"
    output: "1038"
    output: "1039"
    op_type: "Split"
    attribute {
      name: "axis"
      i: 1
    }
    attribute {
      name: "split"
      ints: 5
      ints: 5
      ints: 5
    }
  }
  node {
    input: "1609"
    output: "1041"
    output: "1042"
    output: "1043"
    op_type: "Split"
    attribute {
      name: "axis"
      i: 1
    }
    attribute {
      name: "split"
      ints: 5
      ints: 5
      ints: 5
    }
  }
  node {
    input: "1037"
    input: "1041"
    output: "1044"
    op_type: "Add"
  }
  node {
    input: "1044"
    output: "1045"
    op_type: "Sigmoid"
  }
  node {
    input: "1038"
    input: "1042"
    output: "1046"
    op_type: "Add"
  }
  node {
    input: "1046"
    output: "1047"
    op_type: "Sigmoid"
  }
  node {
    input: "1045"
    input: "1043"
    output: "1048"
    op_type: "Mul"
  }
  node {
    input: "1039"
    input: "1048"
    output: "1049"
    op_type: "Add"
  }
  node {
    input: "1049"
    output: "1050"
    op_type: "Tanh"
  }
  node {
    input: "1024"
    input: "1050"
    output: "1051"
    op_type: "Sub"
  }
  node {
    input: "1047"
    input: "1051"
    output: "1052"
    op_type: "Mul"
  }
  node {
    input: "1050"
    input: "1052"
    output: "1053"
    op_type: "Add"
  }
  node {
    output: "1054"
    op_type: "Constant"
    attribute {
      name: "value"
      t {
        dims: 1
        data_type: INT32
        raw_data: "\000\000\000\000"
      }
    }
  }
  node {
    output: "1055"
    op_type: "Constant"
    attribute {
      name: "value"
      t {
        dims: 1
        data_type: INT64
        raw_data: "\004\000\000\000\000\000\000\000"
      }
    }
  }
  node {
    output: "1056"
    op_type: "Constant"
    attribute {
      name: "value"
      t {
        dims: 1
        data_type: INT64
        raw_data: "\005\000\000\000\000\000\000\000"
      }
    }
  }
  node {
    input: "931"
    input: "1054"
    input: "1055"
    input: "1056"
    output: "1057"
    op_type: "Slice"
  }
  node {
    input: "1057"
    output: "1058"
    op_type: "Squeeze"
    attribute {
      name: "axes"
      ints: 0
    }
  }
  node {
    input: "16"
    output: "1059"
    op_type: "Transpose"
    attribute {
      name: "perm"
      ints: 1
      ints: 0
    }
  }
  node {
    input: "1058"
    input: "1059"
    input: "18"
    output: "1610"
    op_type: "Gemm"
    attribute {
      name: "alpha"
      f: 1
    }
    attribute {
      name: "beta"
      f: 1
    }
    attribute {
      name: "broadcast"
      i: 1
    }
  }
  node {
    input: "17"
    output: "1062"
    op_type: "Transpose"
    attribute {
      name: "perm"
      ints: 1
      ints: 0
    }
  }
  node {
    input: "1053"
    input: "1062"
    input: "19"
    output: "1611"
    op_type: "Gemm"
    attribute {
      name: "alpha"
      f: 1
    }
    attribute {
      name: "beta"
      f: 1
    }
    attribute {
      name: "broadcast"
      i: 1
    }
  }
  node {
    input: "1610"
    output: "1066"
    output: "1067"
    output: "1068"
    op_type: "Split"
    attribute {
      name: "axis"
      i: 1
    }
    attribute {
      name: "split"
      ints: 5
      ints: 5
      ints: 5
    }
  }
  node {
    input: "1611"
    output: "1070"
    output: "1071"
    output: "1072"
    op_type: "Split"
    attribute {
      name: "axis"
      i: 1
    }
    attribute {
      name: "split"
      ints: 5
      ints: 5
      ints: 5
    }
  }
  node {
    input: "1066"
    input: "1070"
    output: "1073"
    op_type: "Add"
  }
  node {
    input: "1073"
    output: "1074"
    op_type: "Sigmoid"
  }
  node {
    input: "1067"
    input: "1071"
    output: "1075"
    op_type: "Add"
  }
  node {
    input: "1075"
    output: "1076"
    op_type: "Sigmoid"
  }
  node {
    input: "1074"
    input: "1072"
    output: "1077"
    op_type: "Mul"
  }
  node {
    input: "1068"
    input: "1077"
    output: "1078"
    op_type: "Add"
  }
  node {
    input: "1078"
    output: "1079"
    op_type: "Tanh"
  }
  node {
    input: "1053"
    input: "1079"
    output: "1080"
    op_type: "Sub"
  }
  node {
    input: "1076"
    input: "1080"
    output: "1081"
    op_type: "Mul"
  }
  node {
    input: "1079"
    input: "1081"
    output: "1082"
    op_type: "Add"
  }
  node {
    output: "1083"
    op_type: "Constant"
    attribute {
      name: "value"
      t {
        dims: 1
        data_type: INT32
        raw_data: "\000\000\000\000"
      }
    }
  }
  node {
    output: "1084"
    op_type: "Constant"
    attribute {
      name: "value"
      t {
        dims: 1
        data_type: INT64
        raw_data: "\005\000\000\000\000\000\000\000"
      }
    }
  }
  node {
    output: "1085"
    op_type: "Constant"
    attribute {
      name: "value"
      t {
        dims: 1
        data_type: INT64
        raw_data: "\006\000\000\000\000\000\000\000"
      }
    }
  }
  node {
    input: "931"
    input: "1083"
    input: "1084"
    input: "1085"
    output: "1086"
    op_type: "Slice"
  }
  node {
    input: "1086"
    output: "1087"
    op_type: "Squeeze"
    attribute {
      name: "axes"
      ints: 0
    }
  }
  node {
    input: "16"
    output: "1088"
    op_type: "Transpose"
    attribute {
      name: "perm"
      ints: 1
      ints: 0
    }
  }
  node {
    input: "1087"
    input: "1088"
    input: "18"
    output: "1612"
    op_type: "Gemm"
    attribute {
      name: "alpha"
      f: 1
    }
    attribute {
      name: "beta"
      f: 1
    }
    attribute {
      name: "broadcast"
      i: 1
    }
  }
  node {
    input: "17"
    output: "1091"
    op_type: "Transpose"
    attribute {
      name: "perm"
      ints: 1
      ints: 0
    }
  }
  node {
    input: "1082"
    input: "1091"
    input: "19"
    output: "1613"
    op_type: "Gemm"
    attribute {
      name: "alpha"
      f: 1
    }
    attribute {
      name: "beta"
      f: 1
    }
    attribute {
      name: "broadcast"
      i: 1
    }
  }
  node {
    input: "1612"
    output: "1095"
    output: "1096"
    output: "1097"
    op_type: "Split"
    attribute {
      name: "axis"
      i: 1
    }
    attribute {
      name: "split"
      ints: 5
      ints: 5
      ints: 5
    }
  }
  node {
    input: "1613"
    output: "1099"
    output: "1100"
    output: "1101"
    op_type: "Split"
    attribute {
      name: "axis"
      i: 1
    }
    attribute {
      name: "split"
      ints: 5
      ints: 5
      ints: 5
    }
  }
  node {
    input: "1095"
    input: "1099"
    output: "1102"
    op_type: "Add"
  }
  node {
    input: "1102"
    output: "1103"
    op_type: "Sigmoid"
  }
  node {
    input: "1096"
    input: "1100"
    output: "1104"
    op_type: "Add"
  }
  node {
    input: "1104"
    output: "1105"
    op_type: "Sigmoid"
  }
  node {
    input: "1103"
    input: "1101"
    output: "1106"
    op_type: "Mul"
  }
  node {
    input: "1097"
    input: "1106"
    output: "1107"
    op_type: "Add"
  }
  node {
    input: "1107"
    output: "1108"
    op_type: "Tanh"
  }
  node {
    input: "1082"
    input: "1108"
    output: "1109"
    op_type: "Sub"
  }
  node {
    input: "1105"
    input: "1109"
    output: "1110"
    op_type: "Mul"
  }
  node {
    input: "1108"
    input: "1110"
    output: "1111"
    op_type: "Add"
  }
  node {
    output: "1112"
    op_type: "Constant"
    attribute {
      name: "value"
      t {
        dims: 1
        data_type: INT32
        raw_data: "\000\000\000\000"
      }
    }
  }
  node {
    output: "1113"
    op_type: "Constant"
    attribute {
      name: "value"
      t {
        dims: 1
        data_type: INT64
        raw_data: "\006\000\000\000\000\000\000\000"
      }
    }
  }
  node {
    output: "1114"
    op_type: "Constant"
    attribute {
      name: "value"
      t {
        dims: 1
        data_type: INT64
        raw_data: "\007\000\000\000\000\000\000\000"
      }
    }
  }
  node {
    input: "931"
    input: "1112"
    input: "1113"
    input: "1114"
    output: "1115"
    op_type: "Slice"
  }
  node {
    input: "1115"
    output: "1116"
    op_type: "Squeeze"
    attribute {
      name: "axes"
      ints: 0
    }
  }
  node {
    input: "16"
    output: "1117"
    op_type: "Transpose"
    attribute {
      name: "perm"
      ints: 1
      ints: 0
    }
  }
  node {
    input: "1116"
    input: "1117"
    input: "18"
    output: "1614"
    op_type: "Gemm"
    attribute {
      name: "alpha"
      f: 1
    }
    attribute {
      name: "beta"
      f: 1
    }
    attribute {
      name: "broadcast"
      i: 1
    }
  }
  node {
    input: "17"
    output: "1120"
    op_type: "Transpose"
    attribute {
      name: "perm"
      ints: 1
      ints: 0
    }
  }
  node {
    input: "1111"
    input: "1120"
    input: "19"
    output: "1615"
    op_type: "Gemm"
    attribute {
      name: "alpha"
      f: 1
    }
    attribute {
      name: "beta"
      f: 1
    }
    attribute {
      name: "broadcast"
      i: 1
    }
  }
  node {
    input: "1614"
    output: "1124"
    output: "1125"
    output: "1126"
    op_type: "Split"
    attribute {
      name: "axis"
      i: 1
    }
    attribute {
      name: "split"
      ints: 5
      ints: 5
      ints: 5
    }
  }
  node {
    input: "1615"
    output: "1128"
    output: "1129"
    output: "1130"
    op_type: "Split"
    attribute {
      name: "axis"
      i: 1
    }
    attribute {
      name: "split"
      ints: 5
      ints: 5
      ints: 5
    }
  }
  node {
    input: "1124"
    input: "1128"
    output: "1131"
    op_type: "Add"
  }
  node {
    input: "1131"
    output: "1132"
    op_type: "Sigmoid"
  }
  node {
    input: "1125"
    input: "1129"
    output: "1133"
    op_type: "Add"
  }
  node {
    input: "1133"
    output: "1134"
    op_type: "Sigmoid"
  }
  node {
    input: "1132"
    input: "1130"
    output: "1135"
    op_type: "Mul"
  }
  node {
    input: "1126"
    input: "1135"
    output: "1136"
    op_type: "Add"
  }
  node {
    input: "1136"
    output: "1137"
    op_type: "Tanh"
  }
  node {
    input: "1111"
    input: "1137"
    output: "1138"
    op_type: "Sub"
  }
  node {
    input: "1134"
    input: "1138"
    output: "1139"
    op_type: "Mul"
  }
  node {
    input: "1137"
    input: "1139"
    output: "1140"
    op_type: "Add"
  }
  node {
    output: "1141"
    op_type: "Constant"
    attribute {
      name: "value"
      t {
        dims: 1
        data_type: INT32
        raw_data: "\000\000\000\000"
      }
    }
  }
  node {
    output: "1142"
    op_type: "Constant"
    attribute {
      name: "value"
      t {
        dims: 1
        data_type: INT64
        raw_data: "\007\000\000\000\000\000\000\000"
      }
    }
  }
  node {
    output: "1143"
    op_type: "Constant"
    attribute {
      name: "value"
      t {
        dims: 1
        data_type: INT64
        raw_data: "\010\000\000\000\000\000\000\000"
      }
    }
  }
  node {
    input: "931"
    input: "1141"
    input: "1142"
    input: "1143"
    output: "1144"
    op_type: "Slice"
  }
  node {
    input: "1144"
    output: "1145"
    op_type: "Squeeze"
    attribute {
      name: "axes"
      ints: 0
    }
  }
  node {
    input: "16"
    output: "1146"
    op_type: "Transpose"
    attribute {
      name: "perm"
      ints: 1
      ints: 0
    }
  }
  node {
    input: "1145"
    input: "1146"
    input: "18"
    output: "1616"
    op_type: "Gemm"
    attribute {
      name: "alpha"
      f: 1
    }
    attribute {
      name: "beta"
      f: 1
    }
    attribute {
      name: "broadcast"
      i: 1
    }
  }
  node {
    input: "17"
    output: "1149"
    op_type: "Transpose"
    attribute {
      name: "perm"
      ints: 1
      ints: 0
    }
  }
  node {
    input: "1140"
    input: "1149"
    input: "19"
    output: "1617"
    op_type: "Gemm"
    attribute {
      name: "alpha"
      f: 1
    }
    attribute {
      name: "beta"
      f: 1
    }
    attribute {
      name: "broadcast"
      i: 1
    }
  }
  node {
    input: "1616"
    output: "1153"
    output: "1154"
    output: "1155"
    op_type: "Split"
    attribute {
      name: "axis"
      i: 1
    }
    attribute {
      name: "split"
      ints: 5
      ints: 5
      ints: 5
    }
  }
  node {
    input: "1617"
    output: "1157"
    output: "1158"
    output: "1159"
    op_type: "Split"
    attribute {
      name: "axis"
      i: 1
    }
    attribute {
      name: "split"
      ints: 5
      ints: 5
      ints: 5
    }
  }
  node {
    input: "1153"
    input: "1157"
    output: "1160"
    op_type: "Add"
  }
  node {
    input: "1160"
    output: "1161"
    op_type: "Sigmoid"
  }
  node {
    input: "1154"
    input: "1158"
    output: "1162"
    op_type: "Add"
  }
  node {
    input: "1162"
    output: "1163"
    op_type: "Sigmoid"
  }
  node {
    input: "1161"
    input: "1159"
    output: "1164"
    op_type: "Mul"
  }
  node {
    input: "1155"
    input: "1164"
    output: "1165"
    op_type: "Add"
  }
  node {
    input: "1165"
    output: "1166"
    op_type: "Tanh"
  }
  node {
    input: "1140"
    input: "1166"
    output: "1167"
    op_type: "Sub"
  }
  node {
    input: "1163"
    input: "1167"
    output: "1168"
    op_type: "Mul"
  }
  node {
    input: "1166"
    input: "1168"
    output: "1169"
    op_type: "Add"
  }
  node {
    output: "1170"
    op_type: "Constant"
    attribute {
      name: "value"
      t {
        dims: 1
        data_type: INT32
        raw_data: "\000\000\000\000"
      }
    }
  }
  node {
    output: "1171"
    op_type: "Constant"
    attribute {
      name: "value"
      t {
        dims: 1
        data_type: INT64
        raw_data: "\010\000\000\000\000\000\000\000"
      }
    }
  }
  node {
    output: "1172"
    op_type: "Constant"
    attribute {
      name: "value"
      t {
        dims: 1
        data_type: INT64
        raw_data: "\t\000\000\000\000\000\000\000"
      }
    }
  }
  node {
    input: "931"
    input: "1170"
    input: "1171"
    input: "1172"
    output: "1173"
    op_type: "Slice"
  }
  node {
    input: "1173"
    output: "1174"
    op_type: "Squeeze"
    attribute {
      name: "axes"
      ints: 0
    }
  }
  node {
    input: "16"
    output: "1175"
    op_type: "Transpose"
    attribute {
      name: "perm"
      ints: 1
      ints: 0
    }
  }
  node {
    input: "1174"
    input: "1175"
    input: "18"
    output: "1618"
    op_type: "Gemm"
    attribute {
      name: "alpha"
      f: 1
    }
    attribute {
      name: "beta"
      f: 1
    }
    attribute {
      name: "broadcast"
      i: 1
    }
  }
  node {
    input: "17"
    output: "1178"
    op_type: "Transpose"
    attribute {
      name: "perm"
      ints: 1
      ints: 0
    }
  }
  node {
    input: "1169"
    input: "1178"
    input: "19"
    output: "1619"
    op_type: "Gemm"
    attribute {
      name: "alpha"
      f: 1
    }
    attribute {
      name: "beta"
      f: 1
    }
    attribute {
      name: "broadcast"
      i: 1
    }
  }
  node {
    input: "1618"
    output: "1182"
    output: "1183"
    output: "1184"
    op_type: "Split"
    attribute {
      name: "axis"
      i: 1
    }
    attribute {
      name: "split"
      ints: 5
      ints: 5
      ints: 5
    }
  }
  node {
    input: "1619"
    output: "1186"
    output: "1187"
    output: "1188"
    op_type: "Split"
    attribute {
      name: "axis"
      i: 1
    }
    attribute {
      name: "split"
      ints: 5
      ints: 5
      ints: 5
    }
  }
  node {
    input: "1182"
    input: "1186"
    output: "1189"
    op_type: "Add"
  }
  node {
    input: "1189"
    output: "1190"
    op_type: "Sigmoid"
  }
  node {
    input: "1183"
    input: "1187"
    output: "1191"
    op_type: "Add"
  }
  node {
    input: "1191"
    output: "1192"
    op_type: "Sigmoid"
  }
  node {
    input: "1190"
    input: "1188"
    output: "1193"
    op_type: "Mul"
  }
  node {
    input: "1184"
    input: "1193"
    output: "1194"
    op_type: "Add"
  }
  node {
    input: "1194"
    output: "1195"
    op_type: "Tanh"
  }
  node {
    input: "1169"
    input: "1195"
    output: "1196"
    op_type: "Sub"
  }
  node {
    input: "1192"
    input: "1196"
    output: "1197"
    op_type: "Mul"
  }
  node {
    input: "1195"
    input: "1197"
    output: "1198"
    op_type: "Add"
  }
  node {
    output: "1199"
    op_type: "Constant"
    attribute {
      name: "value"
      t {
        dims: 1
        data_type: INT32
        raw_data: "\000\000\000\000"
      }
    }
  }
  node {
    output: "1200"
    op_type: "Constant"
    attribute {
      name: "value"
      t {
        dims: 1
        data_type: INT64
        raw_data: "\t\000\000\000\000\000\000\000"
      }
    }
  }
  node {
    output: "1201"
    op_type: "Constant"
    attribute {
      name: "value"
      t {
        dims: 1
        data_type: INT64
        raw_data: "\n\000\000\000\000\000\000\000"
      }
    }
  }
  node {
    input: "931"
    input: "1199"
    input: "1200"
    input: "1201"
    output: "1202"
    op_type: "Slice"
  }
  node {
    input: "1202"
    output: "1203"
    op_type: "Squeeze"
    attribute {
      name: "axes"
      ints: 0
    }
  }
  node {
    input: "16"
    output: "1204"
    op_type: "Transpose"
    attribute {
      name: "perm"
      ints: 1
      ints: 0
    }
  }
  node {
    input: "1203"
    input: "1204"
    input: "18"
    output: "1620"
    op_type: "Gemm"
    attribute {
      name: "alpha"
      f: 1
    }
    attribute {
      name: "beta"
      f: 1
    }
    attribute {
      name: "broadcast"
      i: 1
    }
  }
  node {
    input: "17"
    output: "1207"
    op_type: "Transpose"
    attribute {
      name: "perm"
      ints: 1
      ints: 0
    }
  }
  node {
    input: "1198"
    input: "1207"
    input: "19"
    output: "1621"
    op_type: "Gemm"
    attribute {
      name: "alpha"
      f: 1
    }
    attribute {
      name: "beta"
      f: 1
    }
    attribute {
      name: "broadcast"
      i: 1
    }
  }
  node {
    input: "1620"
    output: "1211"
    output: "1212"
    output: "1213"
    op_type: "Split"
    attribute {
      name: "axis"
      i: 1
    }
    attribute {
      name: "split"
      ints: 5
      ints: 5
      ints: 5
    }
  }
  node {
    input: "1621"
    output: "1215"
    output: "1216"
    output: "1217"
    op_type: "Split"
    attribute {
      name: "axis"
      i: 1
    }
    attribute {
      name: "split"
      ints: 5
      ints: 5
      ints: 5
    }
  }
  node {
    input: "1211"
    input: "1215"
    output: "1218"
    op_type: "Add"
  }
  node {
    input: "1218"
    output: "1219"
    op_type: "Sigmoid"
  }
  node {
    input: "1212"
    input: "1216"
    output: "1220"
    op_type: "Add"
  }
  node {
    input: "1220"
    output: "1221"
    op_type: "Sigmoid"
  }
  node {
    input: "1219"
    input: "1217"
    output: "1222"
    op_type: "Mul"
  }
  node {
    input: "1213"
    input: "1222"
    output: "1223"
    op_type: "Add"
  }
  node {
    input: "1223"
    output: "1224"
    op_type: "Tanh"
  }
  node {
    input: "1198"
    input: "1224"
    output: "1225"
    op_type: "Sub"
  }
  node {
    input: "1221"
    input: "1225"
    output: "1226"
    op_type: "Mul"
  }
  node {
    input: "1224"
    input: "1226"
    output: "1227"
    op_type: "Add"
  }
  node {
    input: "966"
    input: "995"
    input: "1024"
    input: "1053"
    input: "1082"
    input: "1111"
    input: "1140"
    input: "1169"
    input: "1198"
    input: "1227"
    output: "1228"
    op_type: "Concat"
    attribute {
      name: "axis"
      i: 0
    }
  }
  node {
    input: "1228"
    output: "1229"
    op_type: "Reshape"
    attribute {
      name: "shape"
      ints: 10
      ints: 5
      ints: 5
    }
  }
  node {
    input: "1229"
    output: "1230"
    op_type: "Concat"
    attribute {
      name: "axis"
      i: 2
    }
  }
  node {
    input: "1230"
    output: "1232"
    output: "1233"
    op_type: "Dropout"
    attribute {
      name: "is_test"
      i: 1
    }
    attribute {
      name: "ratio"
      f: 0.200000002980232
    }
  }
  node {
    output: "1234"
    op_type: "Constant"
    attribute {
      name: "value"
      t {
        dims: 1
        data_type: INT32
        raw_data: "\000\000\000\000"
      }
    }
  }
  node {
    output: "1235"
    op_type: "Constant"
    attribute {
      name: "value"
      t {
        dims: 1
        data_type: INT64
        raw_data: "\004\000\000\000\000\000\000\000"
      }
    }
  }
  node {
    output: "1236"
    op_type: "Constant"
    attribute {
      name: "value"
      t {
        dims: 1
        data_type: INT64
        raw_data: "\005\000\000\000\000\000\000\000"
      }
    }
  }
  node {
    input: "2"
    input: "1234"
    input: "1235"
    input: "1236"
    output: "1237"
    op_type: "Slice"
  }
  node {
    input: "1237"
    output: "1238"
    op_type: "Squeeze"
    attribute {
      name: "axes"
      ints: 0
    }
  }
  node {
    output: "1239"
    op_type: "Constant"
    attribute {
      name: "value"
      t {
        dims: 1
        data_type: INT32
        raw_data: "\000\000\000\000"
      }
    }
  }
  node {
    output: "1240"
    op_type: "Constant"
    attribute {
      name: "value"
      t {
        dims: 1
        data_type: INT64
        raw_data: "\000\000\000\000\000\000\000\000"
      }
    }
  }
  node {
    output: "1241"
    op_type: "Constant"
    attribute {
      name: "value"
      t {
        dims: 1
        data_type: INT64
        raw_data: "\001\000\000\000\000\000\000\000"
      }
    }
  }
  node {
    input: "1232"
    input: "1239"
    input: "1240"
    input: "1241"
    output: "1242"
    op_type: "Slice"
  }
  node {
    input: "1242"
    output: "1243"
    op_type: "Squeeze"
    attribute {
      name: "axes"
      ints: 0
    }
  }
  node {
    input: "20"
    output: "1244"
    op_type: "Transpose"
    attribute {
      name: "perm"
      ints: 1
      ints: 0
    }
  }
  node {
    input: "1243"
    input: "1244"
    input: "22"
    output: "1622"
    op_type: "Gemm"
    attribute {
      name: "alpha"
      f: 1
    }
    attribute {
      name: "beta"
      f: 1
    }
    attribute {
      name: "broadcast"
      i: 1
    }
  }
  node {
    input: "21"
    output: "1247"
    op_type: "Transpose"
    attribute {
      name: "perm"
      ints: 1
      ints: 0
    }
  }
  node {
    input: "1238"
    input: "1247"
    input: "23"
    output: "1623"
    op_type: "Gemm"
    attribute {
      name: "alpha"
      f: 1
    }
    attribute {
      name: "beta"
      f: 1
    }
    attribute {
      name: "broadcast"
      i: 1
    }
  }
  node {
    input: "1622"
    output: "1251"
    output: "1252"
    output: "1253"
    op_type: "Split"
    attribute {
      name: "axis"
      i: 1
    }
    attribute {
      name: "split"
      ints: 5
      ints: 5
      ints: 5
    }
  }
  node {
    input: "1623"
    output: "1255"
    output: "1256"
    output: "1257"
    op_type: "Split"
    attribute {
      name: "axis"
      i: 1
    }
    attribute {
      name: "split"
      ints: 5
      ints: 5
      ints: 5
    }
  }
  node {
    input: "1251"
    input: "1255"
    output: "1258"
    op_type: "Add"
  }
  node {
    input: "1258"
    output: "1259"
    op_type: "Sigmoid"
  }
  node {
    input: "1252"
    input: "1256"
    output: "1260"
    op_type: "Add"
  }
  node {
    input: "1260"
    output: "1261"
    op_type: "Sigmoid"
  }
  node {
    input: "1259"
    input: "1257"
    output: "1262"
    op_type: "Mul"
  }
  node {
    input: "1253"
    input: "1262"
    output: "1263"
    op_type: "Add"
  }
  node {
    input: "1263"
    output: "1264"
    op_type: "Tanh"
  }
  node {
    input: "1238"
    input: "1264"
    output: "1265"
    op_type: "Sub"
  }
  node {
    input: "1261"
    input: "1265"
    output: "1266"
    op_type: "Mul"
  }
  node {
    input: "1264"
    input: "1266"
    output: "1267"
    op_type: "Add"
  }
  node {
    output: "1268"
    op_type: "Constant"
    attribute {
      name: "value"
      t {
        dims: 1
        data_type: INT32
        raw_data: "\000\000\000\000"
      }
    }
  }
  node {
    output: "1269"
    op_type: "Constant"
    attribute {
      name: "value"
      t {
        dims: 1
        data_type: INT64
        raw_data: "\001\000\000\000\000\000\000\000"
      }
    }
  }
  node {
    output: "1270"
    op_type: "Constant"
    attribute {
      name: "value"
      t {
        dims: 1
        data_type: INT64
        raw_data: "\002\000\000\000\000\000\000\000"
      }
    }
  }
  node {
    input: "1232"
    input: "1268"
    input: "1269"
    input: "1270"
    output: "1271"
    op_type: "Slice"
  }
  node {
    input: "1271"
    output: "1272"
    op_type: "Squeeze"
    attribute {
      name: "axes"
      ints: 0
    }
  }
  node {
    input: "20"
    output: "1273"
    op_type: "Transpose"
    attribute {
      name: "perm"
      ints: 1
      ints: 0
    }
  }
  node {
    input: "1272"
    input: "1273"
    input: "22"
    output: "1624"
    op_type: "Gemm"
    attribute {
      name: "alpha"
      f: 1
    }
    attribute {
      name: "beta"
      f: 1
    }
    attribute {
      name: "broadcast"
      i: 1
    }
  }
  node {
    input: "21"
    output: "1276"
    op_type: "Transpose"
    attribute {
      name: "perm"
      ints: 1
      ints: 0
    }
  }
  node {
    input: "1267"
    input: "1276"
    input: "23"
    output: "1625"
    op_type: "Gemm"
    attribute {
      name: "alpha"
      f: 1
    }
    attribute {
      name: "beta"
      f: 1
    }
    attribute {
      name: "broadcast"
      i: 1
    }
  }
  node {
    input: "1624"
    output: "1280"
    output: "1281"
    output: "1282"
    op_type: "Split"
    attribute {
      name: "axis"
      i: 1
    }
    attribute {
      name: "split"
      ints: 5
      ints: 5
      ints: 5
    }
  }
  node {
    input: "1625"
    output: "1284"
    output: "1285"
    output: "1286"
    op_type: "Split"
    attribute {
      name: "axis"
      i: 1
    }
    attribute {
      name: "split"
      ints: 5
      ints: 5
      ints: 5
    }
  }
  node {
    input: "1280"
    input: "1284"
    output: "1287"
    op_type: "Add"
  }
  node {
    input: "1287"
    output: "1288"
    op_type: "Sigmoid"
  }
  node {
    input: "1281"
    input: "1285"
    output: "1289"
    op_type: "Add"
  }
  node {
    input: "1289"
    output: "1290"
    op_type: "Sigmoid"
  }
  node {
    input: "1288"
    input: "1286"
    output: "1291"
    op_type: "Mul"
  }
  node {
    input: "1282"
    input: "1291"
    output: "1292"
    op_type: "Add"
  }
  node {
    input: "1292"
    output: "1293"
    op_type: "Tanh"
  }
  node {
    input: "1267"
    input: "1293"
    output: "1294"
    op_type: "Sub"
  }
  node {
    input: "1290"
    input: "1294"
    output: "1295"
    op_type: "Mul"
  }
  node {
    input: "1293"
    input: "1295"
    output: "1296"
    op_type: "Add"
  }
  node {
    output: "1297"
    op_type: "Constant"
    attribute {
      name: "value"
      t {
        dims: 1
        data_type: INT32
        raw_data: "\000\000\000\000"
      }
    }
  }
  node {
    output: "1298"
    op_type: "Constant"
    attribute {
      name: "value"
      t {
        dims: 1
        data_type: INT64
        raw_data: "\002\000\000\000\000\000\000\000"
      }
    }
  }
  node {
    output: "1299"
    op_type: "Constant"
    attribute {
      name: "value"
      t {
        dims: 1
        data_type: INT64
        raw_data: "\003\000\000\000\000\000\000\000"
      }
    }
  }
  node {
    input: "1232"
    input: "1297"
    input: "1298"
    input: "1299"
    output: "1300"
    op_type: "Slice"
  }
  node {
    input: "1300"
    output: "1301"
    op_type: "Squeeze"
    attribute {
      name: "axes"
      ints: 0
    }
  }
  node {
    input: "20"
    output: "1302"
    op_type: "Transpose"
    attribute {
      name: "perm"
      ints: 1
      ints: 0
    }
  }
  node {
    input: "1301"
    input: "1302"
    input: "22"
    output: "1626"
    op_type: "Gemm"
    attribute {
      name: "alpha"
      f: 1
    }
    attribute {
      name: "beta"
      f: 1
    }
    attribute {
      name: "broadcast"
      i: 1
    }
  }
  node {
    input: "21"
    output: "1305"
    op_type: "Transpose"
    attribute {
      name: "perm"
      ints: 1
      ints: 0
    }
  }
  node {
    input: "1296"
    input: "1305"
    input: "23"
    output: "1627"
    op_type: "Gemm"
    attribute {
      name: "alpha"
      f: 1
    }
    attribute {
      name: "beta"
      f: 1
    }
    attribute {
      name: "broadcast"
      i: 1
    }
  }
  node {
    input: "1626"
    output: "1309"
    output: "1310"
    output: "1311"
    op_type: "Split"
    attribute {
      name: "axis"
      i: 1
    }
    attribute {
      name: "split"
      ints: 5
      ints: 5
      ints: 5
    }
  }
  node {
    input: "1627"
    output: "1313"
    output: "1314"
    output: "1315"
    op_type: "Split"
    attribute {
      name: "axis"
      i: 1
    }
    attribute {
      name: "split"
      ints: 5
      ints: 5
      ints: 5
    }
  }
  node {
    input: "1309"
    input: "1313"
    output: "1316"
    op_type: "Add"
  }
  node {
    input: "1316"
    output: "1317"
    op_type: "Sigmoid"
  }
  node {
    input: "1310"
    input: "1314"
    output: "1318"
    op_type: "Add"
  }
  node {
    input: "1318"
    output: "1319"
    op_type: "Sigmoid"
  }
  node {
    input: "1317"
    input: "1315"
    output: "1320"
    op_type: "Mul"
  }
  node {
    input: "1311"
    input: "1320"
    output: "1321"
    op_type: "Add"
  }
  node {
    input: "1321"
    output: "1322"
    op_type: "Tanh"
  }
  node {
    input: "1296"
    input: "1322"
    output: "1323"
    op_type: "Sub"
  }
  node {
    input: "1319"
    input: "1323"
    output: "1324"
    op_type: "Mul"
  }
  node {
    input: "1322"
    input: "1324"
    output: "1325"
    op_type: "Add"
  }
  node {
    output: "1326"
    op_type: "Constant"
    attribute {
      name: "value"
      t {
        dims: 1
        data_type: INT32
        raw_data: "\000\000\000\000"
      }
    }
  }
  node {
    output: "1327"
    op_type: "Constant"
    attribute {
      name: "value"
      t {
        dims: 1
        data_type: INT64
        raw_data: "\003\000\000\000\000\000\000\000"
      }
    }
  }
  node {
    output: "1328"
    op_type: "Constant"
    attribute {
      name: "value"
      t {
        dims: 1
        data_type: INT64
        raw_data: "\004\000\000\000\000\000\000\000"
      }
    }
  }
  node {
    input: "1232"
    input: "1326"
    input: "1327"
    input: "1328"
    output: "1329"
    op_type: "Slice"
  }
  node {
    input: "1329"
    output: "1330"
    op_type: "Squeeze"
    attribute {
      name: "axes"
      ints: 0
    }
  }
  node {
    input: "20"
    output: "1331"
    op_type: "Transpose"
    attribute {
      name: "perm"
      ints: 1
      ints: 0
    }
  }
  node {
    input: "1330"
    input: "1331"
    input: "22"
    output: "1628"
    op_type: "Gemm"
    attribute {
      name: "alpha"
      f: 1
    }
    attribute {
      name: "beta"
      f: 1
    }
    attribute {
      name: "broadcast"
      i: 1
    }
  }
  node {
    input: "21"
    output: "1334"
    op_type: "Transpose"
    attribute {
      name: "perm"
      ints: 1
      ints: 0
    }
  }
  node {
    input: "1325"
    input: "1334"
    input: "23"
    output: "1629"
    op_type: "Gemm"
    attribute {
      name: "alpha"
      f: 1
    }
    attribute {
      name: "beta"
      f: 1
    }
    attribute {
      name: "broadcast"
      i: 1
    }
  }
  node {
    input: "1628"
    output: "1338"
    output: "1339"
    output: "1340"
    op_type: "Split"
    attribute {
      name: "axis"
      i: 1
    }
    attribute {
      name: "split"
      ints: 5
      ints: 5
      ints: 5
    }
  }
  node {
    input: "1629"
    output: "1342"
    output: "1343"
    output: "1344"
    op_type: "Split"
    attribute {
      name: "axis"
      i: 1
    }
    attribute {
      name: "split"
      ints: 5
      ints: 5
      ints: 5
    }
  }
  node {
    input: "1338"
    input: "1342"
    output: "1345"
    op_type: "Add"
  }
  node {
    input: "1345"
    output: "1346"
    op_type: "Sigmoid"
  }
  node {
    input: "1339"
    input: "1343"
    output: "1347"
    op_type: "Add"
  }
  node {
    input: "1347"
    output: "1348"
    op_type: "Sigmoid"
  }
  node {
    input: "1346"
    input: "1344"
    output: "1349"
    op_type: "Mul"
  }
  node {
    input: "1340"
    input: "1349"
    output: "1350"
    op_type: "Add"
  }
  node {
    input: "1350"
    output: "1351"
    op_type: "Tanh"
  }
  node {
    input: "1325"
    input: "1351"
    output: "1352"
    op_type: "Sub"
  }
  node {
    input: "1348"
    input: "1352"
    output: "1353"
    op_type: "Mul"
  }
  node {
    input: "1351"
    input: "1353"
    output: "1354"
    op_type: "Add"
  }
  node {
    output: "1355"
    op_type: "Constant"
    attribute {
      name: "value"
      t {
        dims: 1
        data_type: INT32
        raw_data: "\000\000\000\000"
      }
    }
  }
  node {
    output: "1356"
    op_type: "Constant"
    attribute {
      name: "value"
      t {
        dims: 1
        data_type: INT64
        raw_data: "\004\000\000\000\000\000\000\000"
      }
    }
  }
  node {
    output: "1357"
    op_type: "Constant"
    attribute {
      name: "value"
      t {
        dims: 1
        data_type: INT64
        raw_data: "\005\000\000\000\000\000\000\000"
      }
    }
  }
  node {
    input: "1232"
    input: "1355"
    input: "1356"
    input: "1357"
    output: "1358"
    op_type: "Slice"
  }
  node {
    input: "1358"
    output: "1359"
    op_type: "Squeeze"
    attribute {
      name: "axes"
      ints: 0
    }
  }
  node {
    input: "20"
    output: "1360"
    op_type: "Transpose"
    attribute {
      name: "perm"
      ints: 1
      ints: 0
    }
  }
  node {
    input: "1359"
    input: "1360"
    input: "22"
    output: "1630"
    op_type: "Gemm"
    attribute {
      name: "alpha"
      f: 1
    }
    attribute {
      name: "beta"
      f: 1
    }
    attribute {
      name: "broadcast"
      i: 1
    }
  }
  node {
    input: "21"
    output: "1363"
    op_type: "Transpose"
    attribute {
      name: "perm"
      ints: 1
      ints: 0
    }
  }
  node {
    input: "1354"
    input: "1363"
    input: "23"
    output: "1631"
    op_type: "Gemm"
    attribute {
      name: "alpha"
      f: 1
    }
    attribute {
      name: "beta"
      f: 1
    }
    attribute {
      name: "broadcast"
      i: 1
    }
  }
  node {
    input: "1630"
    output: "1367"
    output: "1368"
    output: "1369"
    op_type: "Split"
    attribute {
      name: "axis"
      i: 1
    }
    attribute {
      name: "split"
      ints: 5
      ints: 5
      ints: 5
    }
  }
  node {
    input: "1631"
    output: "1371"
    output: "1372"
    output: "1373"
    op_type: "Split"
    attribute {
      name: "axis"
      i: 1
    }
    attribute {
      name: "split"
      ints: 5
      ints: 5
      ints: 5
    }
  }
  node {
    input: "1367"
    input: "1371"
    output: "1374"
    op_type: "Add"
  }
  node {
    input: "1374"
    output: "1375"
    op_type: "Sigmoid"
  }
  node {
    input: "1368"
    input: "1372"
    output: "1376"
    op_type: "Add"
  }
  node {
    input: "1376"
    output: "1377"
    op_type: "Sigmoid"
  }
  node {
    input: "1375"
    input: "1373"
    output: "1378"
    op_type: "Mul"
  }
  node {
    input: "1369"
    input: "1378"
    output: "1379"
    op_type: "Add"
  }
  node {
    input: "1379"
    output: "1380"
    op_type: "Tanh"
  }
  node {
    input: "1354"
    input: "1380"
    output: "1381"
    op_type: "Sub"
  }
  node {
    input: "1377"
    input: "1381"
    output: "1382"
    op_type: "Mul"
  }
  node {
    input: "1380"
    input: "1382"
    output: "1383"
    op_type: "Add"
  }
  node {
    output: "1384"
    op_type: "Constant"
    attribute {
      name: "value"
      t {
        dims: 1
        data_type: INT32
        raw_data: "\000\000\000\000"
      }
    }
  }
  node {
    output: "1385"
    op_type: "Constant"
    attribute {
      name: "value"
      t {
        dims: 1
        data_type: INT64
        raw_data: "\005\000\000\000\000\000\000\000"
      }
    }
  }
  node {
    output: "1386"
    op_type: "Constant"
    attribute {
      name: "value"
      t {
        dims: 1
        data_type: INT64
        raw_data: "\006\000\000\000\000\000\000\000"
      }
    }
  }
  node {
    input: "1232"
    input: "1384"
    input: "1385"
    input: "1386"
    output: "1387"
    op_type: "Slice"
  }
  node {
    input: "1387"
    output: "1388"
    op_type: "Squeeze"
    attribute {
      name: "axes"
      ints: 0
    }
  }
  node {
    input: "20"
    output: "1389"
    op_type: "Transpose"
    attribute {
      name: "perm"
      ints: 1
      ints: 0
    }
  }
  node {
    input: "1388"
    input: "1389"
    input: "22"
    output: "1632"
    op_type: "Gemm"
    attribute {
      name: "alpha"
      f: 1
    }
    attribute {
      name: "beta"
      f: 1
    }
    attribute {
      name: "broadcast"
      i: 1
    }
  }
  node {
    input: "21"
    output: "1392"
    op_type: "Transpose"
    attribute {
      name: "perm"
      ints: 1
      ints: 0
    }
  }
  node {
    input: "1383"
    input: "1392"
    input: "23"
    output: "1633"
    op_type: "Gemm"
    attribute {
      name: "alpha"
      f: 1
    }
    attribute {
      name: "beta"
      f: 1
    }
    attribute {
      name: "broadcast"
      i: 1
    }
  }
  node {
    input: "1632"
    output: "1396"
    output: "1397"
    output: "1398"
    op_type: "Split"
    attribute {
      name: "axis"
      i: 1
    }
    attribute {
      name: "split"
      ints: 5
      ints: 5
      ints: 5
    }
  }
  node {
    input: "1633"
    output: "1400"
    output: "1401"
    output: "1402"
    op_type: "Split"
    attribute {
      name: "axis"
      i: 1
    }
    attribute {
      name: "split"
      ints: 5
      ints: 5
      ints: 5
    }
  }
  node {
    input: "1396"
    input: "1400"
    output: "1403"
    op_type: "Add"
  }
  node {
    input: "1403"
    output: "1404"
    op_type: "Sigmoid"
  }
  node {
    input: "1397"
    input: "1401"
    output: "1405"
    op_type: "Add"
  }
  node {
    input: "1405"
    output: "1406"
    op_type: "Sigmoid"
  }
  node {
    input: "1404"
    input: "1402"
    output: "1407"
    op_type: "Mul"
  }
  node {
    input: "1398"
    input: "1407"
    output: "1408"
    op_type: "Add"
  }
  node {
    input: "1408"
    output: "1409"
    op_type: "Tanh"
  }
  node {
    input: "1383"
    input: "1409"
    output: "1410"
    op_type: "Sub"
  }
  node {
    input: "1406"
    input: "1410"
    output: "1411"
    op_type: "Mul"
  }
  node {
    input: "1409"
    input: "1411"
    output: "1412"
    op_type: "Add"
  }
  node {
    output: "1413"
    op_type: "Constant"
    attribute {
      name: "value"
      t {
        dims: 1
        data_type: INT32
        raw_data: "\000\000\000\000"
      }
    }
  }
  node {
    output: "1414"
    op_type: "Constant"
    attribute {
      name: "value"
      t {
        dims: 1
        data_type: INT64
        raw_data: "\006\000\000\000\000\000\000\000"
      }
    }
  }
  node {
    output: "1415"
    op_type: "Constant"
    attribute {
      name: "value"
      t {
        dims: 1
        data_type: INT64
        raw_data: "\007\000\000\000\000\000\000\000"
      }
    }
  }
  node {
    input: "1232"
    input: "1413"
    input: "1414"
    input: "1415"
    output: "1416"
    op_type: "Slice"
  }
  node {
    input: "1416"
    output: "1417"
    op_type: "Squeeze"
    attribute {
      name: "axes"
      ints: 0
    }
  }
  node {
    input: "20"
    output: "1418"
    op_type: "Transpose"
    attribute {
      name: "perm"
      ints: 1
      ints: 0
    }
  }
  node {
    input: "1417"
    input: "1418"
    input: "22"
    output: "1634"
    op_type: "Gemm"
    attribute {
      name: "alpha"
      f: 1
    }
    attribute {
      name: "beta"
      f: 1
    }
    attribute {
      name: "broadcast"
      i: 1
    }
  }
  node {
    input: "21"
    output: "1421"
    op_type: "Transpose"
    attribute {
      name: "perm"
      ints: 1
      ints: 0
    }
  }
  node {
    input: "1412"
    input: "1421"
    input: "23"
    output: "1635"
    op_type: "Gemm"
    attribute {
      name: "alpha"
      f: 1
    }
    attribute {
      name: "beta"
      f: 1
    }
    attribute {
      name: "broadcast"
      i: 1
    }
  }
  node {
    input: "1634"
    output: "1425"
    output: "1426"
    output: "1427"
    op_type: "Split"
    attribute {
      name: "axis"
      i: 1
    }
    attribute {
      name: "split"
      ints: 5
      ints: 5
      ints: 5
    }
  }
  node {
    input: "1635"
    output: "1429"
    output: "1430"
    output: "1431"
    op_type: "Split"
    attribute {
      name: "axis"
      i: 1
    }
    attribute {
      name: "split"
      ints: 5
      ints: 5
      ints: 5
    }
  }
  node {
    input: "1425"
    input: "1429"
    output: "1432"
    op_type: "Add"
  }
  node {
    input: "1432"
    output: "1433"
    op_type: "Sigmoid"
  }
  node {
    input: "1426"
    input: "1430"
    output: "1434"
    op_type: "Add"
  }
  node {
    input: "1434"
    output: "1435"
    op_type: "Sigmoid"
  }
  node {
    input: "1433"
    input: "1431"
    output: "1436"
    op_type: "Mul"
  }
  node {
    input: "1427"
    input: "1436"
    output: "1437"
    op_type: "Add"
  }
  node {
    input: "1437"
    output: "1438"
    op_type: "Tanh"
  }
  node {
    input: "1412"
    input: "1438"
    output: "1439"
    op_type: "Sub"
  }
  node {
    input: "1435"
    input: "1439"
    output: "1440"
    op_type: "Mul"
  }
  node {
    input: "1438"
    input: "1440"
    output: "1441"
    op_type: "Add"
  }
  node {
    output: "1442"
    op_type: "Constant"
    attribute {
      name: "value"
      t {
        dims: 1
        data_type: INT32
        raw_data: "\000\000\000\000"
      }
    }
  }
  node {
    output: "1443"
    op_type: "Constant"
    attribute {
      name: "value"
      t {
        dims: 1
        data_type: INT64
        raw_data: "\007\000\000\000\000\000\000\000"
      }
    }
  }
  node {
    output: "1444"
    op_type: "Constant"
    attribute {
      name: "value"
      t {
        dims: 1
        data_type: INT64
        raw_data: "\010\000\000\000\000\000\000\000"
      }
    }
  }
  node {
    input: "1232"
    input: "1442"
    input: "1443"
    input: "1444"
    output: "1445"
    op_type: "Slice"
  }
  node {
    input: "1445"
    output: "1446"
    op_type: "Squeeze"
    attribute {
      name: "axes"
      ints: 0
    }
  }
  node {
    input: "20"
    output: "1447"
    op_type: "Transpose"
    attribute {
      name: "perm"
      ints: 1
      ints: 0
    }
  }
  node {
    input: "1446"
    input: "1447"
    input: "22"
    output: "1636"
    op_type: "Gemm"
    attribute {
      name: "alpha"
      f: 1
    }
    attribute {
      name: "beta"
      f: 1
    }
    attribute {
      name: "broadcast"
      i: 1
    }
  }
  node {
    input: "21"
    output: "1450"
    op_type: "Transpose"
    attribute {
      name: "perm"
      ints: 1
      ints: 0
    }
  }
  node {
    input: "1441"
    input: "1450"
    input: "23"
    output: "1637"
    op_type: "Gemm"
    attribute {
      name: "alpha"
      f: 1
    }
    attribute {
      name: "beta"
      f: 1
    }
    attribute {
      name: "broadcast"
      i: 1
    }
  }
  node {
    input: "1636"
    output: "1454"
    output: "1455"
    output: "1456"
    op_type: "Split"
    attribute {
      name: "axis"
      i: 1
    }
    attribute {
      name: "split"
      ints: 5
      ints: 5
      ints: 5
    }
  }
  node {
    input: "1637"
    output: "1458"
    output: "1459"
    output: "1460"
    op_type: "Split"
    attribute {
      name: "axis"
      i: 1
    }
    attribute {
      name: "split"
      ints: 5
      ints: 5
      ints: 5
    }
  }
  node {
    input: "1454"
    input: "1458"
    output: "1461"
    op_type: "Add"
  }
  node {
    input: "1461"
    output: "1462"
    op_type: "Sigmoid"
  }
  node {
    input: "1455"
    input: "1459"
    output: "1463"
    op_type: "Add"
  }
  node {
    input: "1463"
    output: "1464"
    op_type: "Sigmoid"
  }
  node {
    input: "1462"
    input: "1460"
    output: "1465"
    op_type: "Mul"
  }
  node {
    input: "1456"
    input: "1465"
    output: "1466"
    op_type: "Add"
  }
  node {
    input: "1466"
    output: "1467"
    op_type: "Tanh"
  }
  node {
    input: "1441"
    input: "1467"
    output: "1468"
    op_type: "Sub"
  }
  node {
    input: "1464"
    input: "1468"
    output: "1469"
    op_type: "Mul"
  }
  node {
    input: "1467"
    input: "1469"
    output: "1470"
    op_type: "Add"
  }
  node {
    output: "1471"
    op_type: "Constant"
    attribute {
      name: "value"
      t {
        dims: 1
        data_type: INT32
        raw_data: "\000\000\000\000"
      }
    }
  }
  node {
    output: "1472"
    op_type: "Constant"
    attribute {
      name: "value"
      t {
        dims: 1
        data_type: INT64
        raw_data: "\010\000\000\000\000\000\000\000"
      }
    }
  }
  node {
    output: "1473"
    op_type: "Constant"
    attribute {
      name: "value"
      t {
        dims: 1
        data_type: INT64
        raw_data: "\t\000\000\000\000\000\000\000"
      }
    }
  }
  node {
    input: "1232"
    input: "1471"
    input: "1472"
    input: "1473"
    output: "1474"
    op_type: "Slice"
  }
  node {
    input: "1474"
    output: "1475"
    op_type: "Squeeze"
    attribute {
      name: "axes"
      ints: 0
    }
  }
  node {
    input: "20"
    output: "1476"
    op_type: "Transpose"
    attribute {
      name: "perm"
      ints: 1
      ints: 0
    }
  }
  node {
    input: "1475"
    input: "1476"
    input: "22"
    output: "1638"
    op_type: "Gemm"
    attribute {
      name: "alpha"
      f: 1
    }
    attribute {
      name: "beta"
      f: 1
    }
    attribute {
      name: "broadcast"
      i: 1
    }
  }
  node {
    input: "21"
    output: "1479"
    op_type: "Transpose"
    attribute {
      name: "perm"
      ints: 1
      ints: 0
    }
  }
  node {
    input: "1470"
    input: "1479"
    input: "23"
    output: "1639"
    op_type: "Gemm"
    attribute {
      name: "alpha"
      f: 1
    }
    attribute {
      name: "beta"
      f: 1
    }
    attribute {
      name: "broadcast"
      i: 1
    }
  }
  node {
    input: "1638"
    output: "1483"
    output: "1484"
    output: "1485"
    op_type: "Split"
    attribute {
      name: "axis"
      i: 1
    }
    attribute {
      name: "split"
      ints: 5
      ints: 5
      ints: 5
    }
  }
  node {
    input: "1639"
    output: "1487"
    output: "1488"
    output: "1489"
    op_type: "Split"
    attribute {
      name: "axis"
      i: 1
    }
    attribute {
      name: "split"
      ints: 5
      ints: 5
      ints: 5
    }
  }
  node {
    input: "1483"
    input: "1487"
    output: "1490"
    op_type: "Add"
  }
  node {
    input: "1490"
    output: "1491"
    op_type: "Sigmoid"
  }
  node {
    input: "1484"
    input: "1488"
    output: "1492"
    op_type: "Add"
  }
  node {
    input: "1492"
    output: "1493"
    op_type: "Sigmoid"
  }
  node {
    input: "1491"
    input: "1489"
    output: "1494"
    op_type: "Mul"
  }
  node {
    input: "1485"
    input: "1494"
    output: "1495"
    op_type: "Add"
  }
  node {
    input: "1495"
    output: "1496"
    op_type: "Tanh"
  }
  node {
    input: "1470"
    input: "1496"
    output: "1497"
    op_type: "Sub"
  }
  node {
    input: "1493"
    input: "1497"
    output: "1498"
    op_type: "Mul"
  }
  node {
    input: "1496"
    input: "1498"
    output: "1499"
    op_type: "Add"
  }
  node {
    output: "1500"
    op_type: "Constant"
    attribute {
      name: "value"
      t {
        dims: 1
        data_type: INT32
        raw_data: "\000\000\000\000"
      }
    }
  }
  node {
    output: "1501"
    op_type: "Constant"
    attribute {
      name: "value"
      t {
        dims: 1
        data_type: INT64
        raw_data: "\t\000\000\000\000\000\000\000"
      }
    }
  }
  node {
    output: "1502"
    op_type: "Constant"
    attribute {
      name: "value"
      t {
        dims: 1
        data_type: INT64
        raw_data: "\n\000\000\000\000\000\000\000"
      }
    }
  }
  node {
    input: "1232"
    input: "1500"
    input: "1501"
    input: "1502"
    output: "1503"
    op_type: "Slice"
  }
  node {
    input: "1503"
    output: "1504"
    op_type: "Squeeze"
    attribute {
      name: "axes"
      ints: 0
    }
  }
  node {
    input: "20"
    output: "1505"
    op_type: "Transpose"
    attribute {
      name: "perm"
      ints: 1
      ints: 0
    }
  }
  node {
    input: "1504"
    input: "1505"
    input: "22"
    output: "1640"
    op_type: "Gemm"
    attribute {
      name: "alpha"
      f: 1
    }
    attribute {
      name: "beta"
      f: 1
    }
    attribute {
      name: "broadcast"
      i: 1
    }
  }
  node {
    input: "21"
    output: "1508"
    op_type: "Transpose"
    attribute {
      name: "perm"
      ints: 1
      ints: 0
    }
  }
  node {
    input: "1499"
    input: "1508"
    input: "23"
    output: "1641"
    op_type: "Gemm"
    attribute {
      name: "alpha"
      f: 1
    }
    attribute {
      name: "beta"
      f: 1
    }
    attribute {
      name: "broadcast"
      i: 1
    }
  }
  node {
    input: "1640"
    output: "1512"
    output: "1513"
    output: "1514"
    op_type: "Split"
    attribute {
      name: "axis"
      i: 1
    }
    attribute {
      name: "split"
      ints: 5
      ints: 5
      ints: 5
    }
  }
  node {
    input: "1641"
    output: "1516"
    output: "1517"
    output: "1518"
    op_type: "Split"
    attribute {
      name: "axis"
      i: 1
    }
    attribute {
      name: "split"
      ints: 5
      ints: 5
      ints: 5
    }
  }
  node {
    input: "1512"
    input: "1516"
    output: "1519"
    op_type: "Add"
  }
  node {
    input: "1519"
    output: "1520"
    op_type: "Sigmoid"
  }
  node {
    input: "1513"
    input: "1517"
    output: "1521"
    op_type: "Add"
  }
  node {
    input: "1521"
    output: "1522"
    op_type: "Sigmoid"
  }
  node {
    input: "1520"
    input: "1518"
    output: "1523"
    op_type: "Mul"
  }
  node {
    input: "1514"
    input: "1523"
    output: "1524"
    op_type: "Add"
  }
  node {
    input: "1524"
    output: "1525"
    op_type: "Tanh"
  }
  node {
    input: "1499"
    input: "1525"
    output: "1526"
    op_type: "Sub"
  }
  node {
    input: "1522"
    input: "1526"
    output: "1527"
    op_type: "Mul"
  }
  node {
    input: "1525"
    input: "1527"
    output: "1528"
    op_type: "Add"
  }
  node {
    input: "1267"
    input: "1296"
    input: "1325"
    input: "1354"
    input: "1383"
    input: "1412"
    input: "1441"
    input: "1470"
    input: "1499"
    input: "1528"
    output: "1529"
    op_type: "Concat"
    attribute {
      name: "axis"
      i: 0
    }
  }
  node {
    input: "1529"
    output: "1530"
    op_type: "Reshape"
    attribute {
      name: "shape"
      ints: 10
      ints: 5
      ints: 5
    }
  }
  node {
    input: "1530"
    output: "1531"
    op_type: "Concat"
    attribute {
      name: "axis"
      i: 2
    }
  }
  node {
    input: "1531"
    output: "1535"
    output: "1536"
    op_type: "Dropout"
    attribute {
      name: "is_test"
      i: 1
    }
    attribute {
      name: "ratio"
      f: 0.200000002980232
    }
  }
  node {
    input: "1535"
    output: "1537"
    op_type: "Reshape"
    attribute {
      name: "shape"
      ints: 50
      ints: 5
    }
  }
  node {
    input: "24"
    output: "1538"
    op_type: "Transpose"
    attribute {
      name: "perm"
      ints: 1
      ints: 0
    }
  }
  node {
    input: "1537"
    input: "1538"
    input: "25"
    output: "1642"
    op_type: "Gemm"
    attribute {
      name: "alpha"
      f: 1
    }
    attribute {
      name: "beta"
      f: 1
    }
    attribute {
      name: "broadcast"
      i: 1
    }
  }
  node {
    input: "1642"
    output: "1541"
    op_type: "Reshape"
    attribute {
      name: "shape"
      ints: 10
      ints: 5
      ints: 10
    }
  }
  name: "torch-jit-export"
  input {
    name: "1"
    type {
      tensor_type {
        elem_type: INT64
        shape {
          dim {
            dim_value: 10
          }
          dim {
            dim_value: 5
          }
        }
      }
    }
  }
  input {
    name: "2"
    type {
      tensor_type {
        elem_type: FLOAT
        shape {
          dim {
            dim_value: 5
          }
          dim {
            dim_value: 5
          }
          dim {
            dim_value: 5
          }
        }
      }
    }
  }
  input {
    name: "3"
    type {
      tensor_type {
        elem_type: FLOAT
        shape {
          dim {
            dim_value: 10
          }
          dim {
            dim_value: 5
          }
        }
      }
    }
  }
  input {
    name: "4"
    type {
      tensor_type {
        elem_type: FLOAT
        shape {
          dim {
            dim_value: 15
          }
          dim {
            dim_value: 5
          }
        }
      }
    }
  }
  input {
    name: "5"
    type {
      tensor_type {
        elem_type: FLOAT
        shape {
          dim {
            dim_value: 15
          }
          dim {
            dim_value: 5
          }
        }
      }
    }
  }
  input {
    name: "6"
    type {
      tensor_type {
        elem_type: FLOAT
        shape {
          dim {
            dim_value: 15
          }
        }
      }
    }
  }
  input {
    name: "7"
    type {
      tensor_type {
        elem_type: FLOAT
        shape {
          dim {
            dim_value: 15
          }
        }
      }
    }
  }
  input {
    name: "8"
    type {
      tensor_type {
        elem_type: FLOAT
        shape {
          dim {
            dim_value: 15
          }
          dim {
            dim_value: 5
          }
        }
      }
    }
  }
  input {
    name: "9"
    type {
      tensor_type {
        elem_type: FLOAT
        shape {
          dim {
            dim_value: 15
          }
          dim {
            dim_value: 5
          }
        }
      }
    }
  }
  input {
    name: "10"
    type {
      tensor_type {
        elem_type: FLOAT
        shape {
          dim {
            dim_value: 15
          }
        }
      }
    }
  }
  input {
    name: "11"
    type {
      tensor_type {
        elem_type: FLOAT
        shape {
          dim {
            dim_value: 15
          }
        }
      }
    }
  }
  input {
    name: "12"
    type {
      tensor_type {
        elem_type: FLOAT
        shape {
          dim {
            dim_value: 15
          }
          dim {
            dim_value: 5
          }
        }
      }
    }
  }
  input {
    name: "13"
    type {
      tensor_type {
        elem_type: FLOAT
        shape {
          dim {
            dim_value: 15
          }
          dim {
            dim_value: 5
          }
        }
      }
    }
  }
  input {
    name: "14"
    type {
      tensor_type {
        elem_type: FLOAT
        shape {
          dim {
            dim_value: 15
          }
        }
      }
    }
  }
  input {
    name: "15"
    type {
      tensor_type {
        elem_type: FLOAT
        shape {
          dim {
            dim_value: 15
          }
        }
      }
    }
  }
  input {
    name: "16"
    type {
      tensor_type {
        elem_type: FLOAT
        shape {
          dim {
            dim_value: 15
          }
          dim {
            dim_value: 5
          }
        }
      }
    }
  }
  input {
    name: "17"
    type {
      tensor_type {
        elem_type: FLOAT
        shape {
          dim {
            dim_value: 15
          }
          dim {
            dim_value: 5
          }
        }
      }
    }
  }
  input {
    name: "18"
    type {
      tensor_type {
        elem_type: FLOAT
        shape {
          dim {
            dim_value: 15
          }
        }
      }
    }
  }
  input {
    name: "19"
    type {
      tensor_type {
        elem_type: FLOAT
        shape {
          dim {
            dim_value: 15
          }
        }
      }
    }
  }
  input {
    name: "20"
    type {
      tensor_type {
        elem_type: FLOAT
        shape {
          dim {
            dim_value: 15
          }
          dim {
            dim_value: 5
          }
        }
      }
    }
  }
  input {
    name: "21"
    type {
      tensor_type {
        elem_type: FLOAT
        shape {
          dim {
            dim_value: 15
          }
          dim {
            dim_value: 5
          }
        }
      }
    }
  }
  input {
    name: "22"
    type {
      tensor_type {
        elem_type: FLOAT
        shape {
          dim {
            dim_value: 15
          }
        }
      }
    }
  }
  input {
    name: "23"
    type {
      tensor_type {
        elem_type: FLOAT
        shape {
          dim {
            dim_value: 15
          }
        }
      }
    }
  }
  input {
    name: "24"
    type {
      tensor_type {
        elem_type: FLOAT
        shape {
          dim {
            dim_value: 10
          }
          dim {
            dim_value: 5
          }
        }
      }
    }
  }
  input {
    name: "25"
    type {
      tensor_type {
        elem_type: FLOAT
        shape {
          dim {
            dim_value: 10
          }
        }
      }
    }
  }
  output {
    name: "1541"
    type {
      tensor_type {
        elem_type: FLOAT
        shape {
          dim {
            dim_value: 10
          }
          dim {
            dim_value: 5
          }
          dim {
            dim_value: 10
          }
        }
      }
    }
  }
}
