ir_version: 1
producer_name: "pytorch"
producer_version: "0.2"
domain: "com.facebook"
graph {
  node {
    input: "3"
    input: "1"
    output: "26"
    op_type: "Gather"
  }
  node {
    input: "26"
    output: "28"
    output: "29"
    op_type: "Dropout"
    attribute {
      name: "ratio"
      f: 0.200000002980232
    }
    attribute {
      name: "is_test"
      i: 1
    }
  }
  node {
    output: "531"
    op_type: "Constant"
    attribute {
      name: "value"
      t {
        dims: 3
        data_type: INT32
        raw_data: "\000\000\000\000\000\000\000\000\000\000\000\000"
      }
    }
  }
  node {
    output: "532"
    op_type: "Constant"
    attribute {
      name: "value"
      t {
        dims: 3
        data_type: INT32
        raw_data: "\001\000\000\000\005\000\000\000\005\000\000\000"
      }
    }
  }
  node {
    input: "2"
    input: "531"
    input: "532"
    output: "533"
    op_type: "Slice"
  }
  node {
    input: "533"
    output: "534"
    op_type: "Squeeze"
    attribute {
      name: "axes"
      ints: 0
    }
  }
  node {
    output: "535"
    op_type: "Constant"
    attribute {
      name: "value"
      t {
        dims: 3
        data_type: INT32
        raw_data: "\000\000\000\000\000\000\000\000\000\000\000\000"
      }
    }
  }
  node {
    output: "536"
    op_type: "Constant"
    attribute {
      name: "value"
      t {
        dims: 3
        data_type: INT32
        raw_data: "\001\000\000\000\005\000\000\000\005\000\000\000"
      }
    }
  }
  node {
    input: "28"
    input: "535"
    input: "536"
    output: "537"
    op_type: "Slice"
  }
  node {
    input: "537"
    output: "538"
    op_type: "Squeeze"
    attribute {
      name: "axes"
      ints: 0
    }
  }
  node {
    input: "4"
    output: "36"
    op_type: "Transpose"
    attribute {
      name: "perm"
      ints: 1
      ints: 0
    }
  }
  node {
    input: "538"
    input: "36"
    input: "6"
    output: "37"
    op_type: "Gemm"
    attribute {
      name: "alpha"
      f: 1
    }
    attribute {
      name: "beta"
      f: 1
    }
    attribute {
      name: "broadcast"
      i: 1
    }
  }
  node {
    input: "5"
    output: "38"
    op_type: "Transpose"
    attribute {
      name: "perm"
      ints: 1
      ints: 0
    }
  }
  node {
    input: "534"
    input: "38"
    input: "7"
    output: "39"
    op_type: "Gemm"
    attribute {
      name: "alpha"
      f: 1
    }
    attribute {
      name: "beta"
      f: 1
    }
    attribute {
      name: "broadcast"
      i: 1
    }
  }
  node {
    input: "37"
    input: "39"
    output: "40"
    op_type: "Add"
  }
  node {
    input: "40"
    output: "41"
    op_type: "Relu"
  }
  node {
    output: "539"
    op_type: "Constant"
    attribute {
      name: "value"
      t {
        dims: 3
        data_type: INT32
        raw_data: "\001\000\000\000\000\000\000\000\000\000\000\000"
      }
    }
  }
  node {
    output: "540"
    op_type: "Constant"
    attribute {
      name: "value"
      t {
        dims: 3
        data_type: INT32
        raw_data: "\002\000\000\000\005\000\000\000\005\000\000\000"
      }
    }
  }
  node {
    input: "28"
    input: "539"
    input: "540"
    output: "541"
    op_type: "Slice"
  }
  node {
    input: "541"
    output: "542"
    op_type: "Squeeze"
    attribute {
      name: "axes"
      ints: 0
    }
  }
  node {
    input: "4"
    output: "45"
    op_type: "Transpose"
    attribute {
      name: "perm"
      ints: 1
      ints: 0
    }
  }
  node {
    input: "542"
    input: "45"
    input: "6"
    output: "46"
    op_type: "Gemm"
    attribute {
      name: "alpha"
      f: 1
    }
    attribute {
      name: "beta"
      f: 1
    }
    attribute {
      name: "broadcast"
      i: 1
    }
  }
  node {
    input: "5"
    output: "47"
    op_type: "Transpose"
    attribute {
      name: "perm"
      ints: 1
      ints: 0
    }
  }
  node {
    input: "41"
    input: "47"
    input: "7"
    output: "48"
    op_type: "Gemm"
    attribute {
      name: "alpha"
      f: 1
    }
    attribute {
      name: "beta"
      f: 1
    }
    attribute {
      name: "broadcast"
      i: 1
    }
  }
  node {
    input: "46"
    input: "48"
    output: "49"
    op_type: "Add"
  }
  node {
    input: "49"
    output: "50"
    op_type: "Relu"
  }
  node {
    output: "543"
    op_type: "Constant"
    attribute {
      name: "value"
      t {
        dims: 3
        data_type: INT32
        raw_data: "\002\000\000\000\000\000\000\000\000\000\000\000"
      }
    }
  }
  node {
    output: "544"
    op_type: "Constant"
    attribute {
      name: "value"
      t {
        dims: 3
        data_type: INT32
        raw_data: "\003\000\000\000\005\000\000\000\005\000\000\000"
      }
    }
  }
  node {
    input: "28"
    input: "543"
    input: "544"
    output: "545"
    op_type: "Slice"
  }
  node {
    input: "545"
    output: "546"
    op_type: "Squeeze"
    attribute {
      name: "axes"
      ints: 0
    }
  }
  node {
    input: "4"
    output: "54"
    op_type: "Transpose"
    attribute {
      name: "perm"
      ints: 1
      ints: 0
    }
  }
  node {
    input: "546"
    input: "54"
    input: "6"
    output: "55"
    op_type: "Gemm"
    attribute {
      name: "alpha"
      f: 1
    }
    attribute {
      name: "beta"
      f: 1
    }
    attribute {
      name: "broadcast"
      i: 1
    }
  }
  node {
    input: "5"
    output: "56"
    op_type: "Transpose"
    attribute {
      name: "perm"
      ints: 1
      ints: 0
    }
  }
  node {
    input: "50"
    input: "56"
    input: "7"
    output: "57"
    op_type: "Gemm"
    attribute {
      name: "alpha"
      f: 1
    }
    attribute {
      name: "beta"
      f: 1
    }
    attribute {
      name: "broadcast"
      i: 1
    }
  }
  node {
    input: "55"
    input: "57"
    output: "58"
    op_type: "Add"
  }
  node {
    input: "58"
    output: "59"
    op_type: "Relu"
  }
  node {
    output: "547"
    op_type: "Constant"
    attribute {
      name: "value"
      t {
        dims: 3
        data_type: INT32
        raw_data: "\003\000\000\000\000\000\000\000\000\000\000\000"
      }
    }
  }
  node {
    output: "548"
    op_type: "Constant"
    attribute {
      name: "value"
      t {
        dims: 3
        data_type: INT32
        raw_data: "\004\000\000\000\005\000\000\000\005\000\000\000"
      }
    }
  }
  node {
    input: "28"
    input: "547"
    input: "548"
    output: "549"
    op_type: "Slice"
  }
  node {
    input: "549"
    output: "550"
    op_type: "Squeeze"
    attribute {
      name: "axes"
      ints: 0
    }
  }
  node {
    input: "4"
    output: "63"
    op_type: "Transpose"
    attribute {
      name: "perm"
      ints: 1
      ints: 0
    }
  }
  node {
    input: "550"
    input: "63"
    input: "6"
    output: "64"
    op_type: "Gemm"
    attribute {
      name: "alpha"
      f: 1
    }
    attribute {
      name: "beta"
      f: 1
    }
    attribute {
      name: "broadcast"
      i: 1
    }
  }
  node {
    input: "5"
    output: "65"
    op_type: "Transpose"
    attribute {
      name: "perm"
      ints: 1
      ints: 0
    }
  }
  node {
    input: "59"
    input: "65"
    input: "7"
    output: "66"
    op_type: "Gemm"
    attribute {
      name: "alpha"
      f: 1
    }
    attribute {
      name: "beta"
      f: 1
    }
    attribute {
      name: "broadcast"
      i: 1
    }
  }
  node {
    input: "64"
    input: "66"
    output: "67"
    op_type: "Add"
  }
  node {
    input: "67"
    output: "68"
    op_type: "Relu"
  }
  node {
    output: "551"
    op_type: "Constant"
    attribute {
      name: "value"
      t {
        dims: 3
        data_type: INT32
        raw_data: "\004\000\000\000\000\000\000\000\000\000\000\000"
      }
    }
  }
  node {
    output: "552"
    op_type: "Constant"
    attribute {
      name: "value"
      t {
        dims: 3
        data_type: INT32
        raw_data: "\005\000\000\000\005\000\000\000\005\000\000\000"
      }
    }
  }
  node {
    input: "28"
    input: "551"
    input: "552"
    output: "553"
    op_type: "Slice"
  }
  node {
    input: "553"
    output: "554"
    op_type: "Squeeze"
    attribute {
      name: "axes"
      ints: 0
    }
  }
  node {
    input: "4"
    output: "72"
    op_type: "Transpose"
    attribute {
      name: "perm"
      ints: 1
      ints: 0
    }
  }
  node {
    input: "554"
    input: "72"
    input: "6"
    output: "73"
    op_type: "Gemm"
    attribute {
      name: "alpha"
      f: 1
    }
    attribute {
      name: "beta"
      f: 1
    }
    attribute {
      name: "broadcast"
      i: 1
    }
  }
  node {
    input: "5"
    output: "74"
    op_type: "Transpose"
    attribute {
      name: "perm"
      ints: 1
      ints: 0
    }
  }
  node {
    input: "68"
    input: "74"
    input: "7"
    output: "75"
    op_type: "Gemm"
    attribute {
      name: "alpha"
      f: 1
    }
    attribute {
      name: "beta"
      f: 1
    }
    attribute {
      name: "broadcast"
      i: 1
    }
  }
  node {
    input: "73"
    input: "75"
    output: "76"
    op_type: "Add"
  }
  node {
    input: "76"
    output: "77"
    op_type: "Relu"
  }
  node {
    output: "555"
    op_type: "Constant"
    attribute {
      name: "value"
      t {
        dims: 3
        data_type: INT32
        raw_data: "\005\000\000\000\000\000\000\000\000\000\000\000"
      }
    }
  }
  node {
    output: "556"
    op_type: "Constant"
    attribute {
      name: "value"
      t {
        dims: 3
        data_type: INT32
        raw_data: "\006\000\000\000\005\000\000\000\005\000\000\000"
      }
    }
  }
  node {
    input: "28"
    input: "555"
    input: "556"
    output: "557"
    op_type: "Slice"
  }
  node {
    input: "557"
    output: "558"
    op_type: "Squeeze"
    attribute {
      name: "axes"
      ints: 0
    }
  }
  node {
    input: "4"
    output: "81"
    op_type: "Transpose"
    attribute {
      name: "perm"
      ints: 1
      ints: 0
    }
  }
  node {
    input: "558"
    input: "81"
    input: "6"
    output: "82"
    op_type: "Gemm"
    attribute {
      name: "alpha"
      f: 1
    }
    attribute {
      name: "beta"
      f: 1
    }
    attribute {
      name: "broadcast"
      i: 1
    }
  }
  node {
    input: "5"
    output: "83"
    op_type: "Transpose"
    attribute {
      name: "perm"
      ints: 1
      ints: 0
    }
  }
  node {
    input: "77"
    input: "83"
    input: "7"
    output: "84"
    op_type: "Gemm"
    attribute {
      name: "alpha"
      f: 1
    }
    attribute {
      name: "beta"
      f: 1
    }
    attribute {
      name: "broadcast"
      i: 1
    }
  }
  node {
    input: "82"
    input: "84"
    output: "85"
    op_type: "Add"
  }
  node {
    input: "85"
    output: "86"
    op_type: "Relu"
  }
  node {
    output: "559"
    op_type: "Constant"
    attribute {
      name: "value"
      t {
        dims: 3
        data_type: INT32
        raw_data: "\006\000\000\000\000\000\000\000\000\000\000\000"
      }
    }
  }
  node {
    output: "560"
    op_type: "Constant"
    attribute {
      name: "value"
      t {
        dims: 3
        data_type: INT32
        raw_data: "\007\000\000\000\005\000\000\000\005\000\000\000"
      }
    }
  }
  node {
    input: "28"
    input: "559"
    input: "560"
    output: "561"
    op_type: "Slice"
  }
  node {
    input: "561"
    output: "562"
    op_type: "Squeeze"
    attribute {
      name: "axes"
      ints: 0
    }
  }
  node {
    input: "4"
    output: "90"
    op_type: "Transpose"
    attribute {
      name: "perm"
      ints: 1
      ints: 0
    }
  }
  node {
    input: "562"
    input: "90"
    input: "6"
    output: "91"
    op_type: "Gemm"
    attribute {
      name: "alpha"
      f: 1
    }
    attribute {
      name: "beta"
      f: 1
    }
    attribute {
      name: "broadcast"
      i: 1
    }
  }
  node {
    input: "5"
    output: "92"
    op_type: "Transpose"
    attribute {
      name: "perm"
      ints: 1
      ints: 0
    }
  }
  node {
    input: "86"
    input: "92"
    input: "7"
    output: "93"
    op_type: "Gemm"
    attribute {
      name: "alpha"
      f: 1
    }
    attribute {
      name: "beta"
      f: 1
    }
    attribute {
      name: "broadcast"
      i: 1
    }
  }
  node {
    input: "91"
    input: "93"
    output: "94"
    op_type: "Add"
  }
  node {
    input: "94"
    output: "95"
    op_type: "Relu"
  }
  node {
    output: "563"
    op_type: "Constant"
    attribute {
      name: "value"
      t {
        dims: 3
        data_type: INT32
        raw_data: "\007\000\000\000\000\000\000\000\000\000\000\000"
      }
    }
  }
  node {
    output: "564"
    op_type: "Constant"
    attribute {
      name: "value"
      t {
        dims: 3
        data_type: INT32
        raw_data: "\010\000\000\000\005\000\000\000\005\000\000\000"
      }
    }
  }
  node {
    input: "28"
    input: "563"
    input: "564"
    output: "565"
    op_type: "Slice"
  }
  node {
    input: "565"
    output: "566"
    op_type: "Squeeze"
    attribute {
      name: "axes"
      ints: 0
    }
  }
  node {
    input: "4"
    output: "99"
    op_type: "Transpose"
    attribute {
      name: "perm"
      ints: 1
      ints: 0
    }
  }
  node {
    input: "566"
    input: "99"
    input: "6"
    output: "100"
    op_type: "Gemm"
    attribute {
      name: "alpha"
      f: 1
    }
    attribute {
      name: "beta"
      f: 1
    }
    attribute {
      name: "broadcast"
      i: 1
    }
  }
  node {
    input: "5"
    output: "101"
    op_type: "Transpose"
    attribute {
      name: "perm"
      ints: 1
      ints: 0
    }
  }
  node {
    input: "95"
    input: "101"
    input: "7"
    output: "102"
    op_type: "Gemm"
    attribute {
      name: "alpha"
      f: 1
    }
    attribute {
      name: "beta"
      f: 1
    }
    attribute {
      name: "broadcast"
      i: 1
    }
  }
  node {
    input: "100"
    input: "102"
    output: "103"
    op_type: "Add"
  }
  node {
    input: "103"
    output: "104"
    op_type: "Relu"
  }
  node {
    output: "567"
    op_type: "Constant"
    attribute {
      name: "value"
      t {
        dims: 3
        data_type: INT32
        raw_data: "\010\000\000\000\000\000\000\000\000\000\000\000"
      }
    }
  }
  node {
    output: "568"
    op_type: "Constant"
    attribute {
      name: "value"
      t {
        dims: 3
        data_type: INT32
        raw_data: "\t\000\000\000\005\000\000\000\005\000\000\000"
      }
    }
  }
  node {
    input: "28"
    input: "567"
    input: "568"
    output: "569"
    op_type: "Slice"
  }
  node {
    input: "569"
    output: "570"
    op_type: "Squeeze"
    attribute {
      name: "axes"
      ints: 0
    }
  }
  node {
    input: "4"
    output: "108"
    op_type: "Transpose"
    attribute {
      name: "perm"
      ints: 1
      ints: 0
    }
  }
  node {
    input: "570"
    input: "108"
    input: "6"
    output: "109"
    op_type: "Gemm"
    attribute {
      name: "alpha"
      f: 1
    }
    attribute {
      name: "beta"
      f: 1
    }
    attribute {
      name: "broadcast"
      i: 1
    }
  }
  node {
    input: "5"
    output: "110"
    op_type: "Transpose"
    attribute {
      name: "perm"
      ints: 1
      ints: 0
    }
  }
  node {
    input: "104"
    input: "110"
    input: "7"
    output: "111"
    op_type: "Gemm"
    attribute {
      name: "alpha"
      f: 1
    }
    attribute {
      name: "beta"
      f: 1
    }
    attribute {
      name: "broadcast"
      i: 1
    }
  }
  node {
    input: "109"
    input: "111"
    output: "112"
    op_type: "Add"
  }
  node {
    input: "112"
    output: "113"
    op_type: "Relu"
  }
  node {
    output: "571"
    op_type: "Constant"
    attribute {
      name: "value"
      t {
        dims: 3
        data_type: INT32
        raw_data: "\t\000\000\000\000\000\000\000\000\000\000\000"
      }
    }
  }
  node {
    output: "572"
    op_type: "Constant"
    attribute {
      name: "value"
      t {
        dims: 3
        data_type: INT32
        raw_data: "\n\000\000\000\005\000\000\000\005\000\000\000"
      }
    }
  }
  node {
    input: "28"
    input: "571"
    input: "572"
    output: "573"
    op_type: "Slice"
  }
  node {
    input: "573"
    output: "574"
    op_type: "Squeeze"
    attribute {
      name: "axes"
      ints: 0
    }
  }
  node {
    input: "4"
    output: "117"
    op_type: "Transpose"
    attribute {
      name: "perm"
      ints: 1
      ints: 0
    }
  }
  node {
    input: "574"
    input: "117"
    input: "6"
    output: "118"
    op_type: "Gemm"
    attribute {
      name: "alpha"
      f: 1
    }
    attribute {
      name: "beta"
      f: 1
    }
    attribute {
      name: "broadcast"
      i: 1
    }
  }
  node {
    input: "5"
    output: "119"
    op_type: "Transpose"
    attribute {
      name: "perm"
      ints: 1
      ints: 0
    }
  }
  node {
    input: "113"
    input: "119"
    input: "7"
    output: "120"
    op_type: "Gemm"
    attribute {
      name: "alpha"
      f: 1
    }
    attribute {
      name: "beta"
      f: 1
    }
    attribute {
      name: "broadcast"
      i: 1
    }
  }
  node {
    input: "118"
    input: "120"
    output: "121"
    op_type: "Add"
  }
  node {
    input: "121"
    output: "122"
    op_type: "Relu"
  }
  node {
    input: "41"
    input: "50"
    input: "59"
    input: "68"
    input: "77"
    input: "86"
    input: "95"
    input: "104"
    input: "113"
    input: "122"
    output: "123"
    op_type: "Concat"
    attribute {
      name: "axis"
      i: 0
    }
  }
  node {
    input: "123"
    output: "124"
    op_type: "Reshape"
    attribute {
      name: "shape"
      ints: 10
      ints: 5
      ints: 5
    }
  }
  node {
    input: "124"
    output: "125"
    op_type: "Concat"
    attribute {
      name: "axis"
      i: 2
    }
  }
  node {
    input: "125"
    output: "127"
    output: "128"
    op_type: "Dropout"
    attribute {
      name: "ratio"
      f: 0.200000002980232
    }
    attribute {
      name: "is_test"
      i: 1
    }
  }
  node {
    output: "575"
    op_type: "Constant"
    attribute {
      name: "value"
      t {
        dims: 3
        data_type: INT32
        raw_data: "\001\000\000\000\000\000\000\000\000\000\000\000"
      }
    }
  }
  node {
    output: "576"
    op_type: "Constant"
    attribute {
      name: "value"
      t {
        dims: 3
        data_type: INT32
        raw_data: "\002\000\000\000\005\000\000\000\005\000\000\000"
      }
    }
  }
  node {
    input: "2"
    input: "575"
    input: "576"
    output: "577"
    op_type: "Slice"
  }
  node {
    input: "577"
    output: "578"
    op_type: "Squeeze"
    attribute {
      name: "axes"
      ints: 0
    }
  }
  node {
    output: "579"
    op_type: "Constant"
    attribute {
      name: "value"
      t {
        dims: 3
        data_type: INT32
        raw_data: "\000\000\000\000\000\000\000\000\000\000\000\000"
      }
    }
  }
  node {
    output: "580"
    op_type: "Constant"
    attribute {
      name: "value"
      t {
        dims: 3
        data_type: INT32
        raw_data: "\001\000\000\000\005\000\000\000\005\000\000\000"
      }
    }
  }
  node {
    input: "127"
    input: "579"
    input: "580"
    output: "581"
    op_type: "Slice"
  }
  node {
    input: "581"
    output: "582"
    op_type: "Squeeze"
    attribute {
      name: "axes"
      ints: 0
    }
  }
  node {
    input: "8"
    output: "135"
    op_type: "Transpose"
    attribute {
      name: "perm"
      ints: 1
      ints: 0
    }
  }
  node {
    input: "582"
    input: "135"
    input: "10"
    output: "136"
    op_type: "Gemm"
    attribute {
      name: "alpha"
      f: 1
    }
    attribute {
      name: "beta"
      f: 1
    }
    attribute {
      name: "broadcast"
      i: 1
    }
  }
  node {
    input: "9"
    output: "137"
    op_type: "Transpose"
    attribute {
      name: "perm"
      ints: 1
      ints: 0
    }
  }
  node {
    input: "578"
    input: "137"
    input: "11"
    output: "138"
    op_type: "Gemm"
    attribute {
      name: "alpha"
      f: 1
    }
    attribute {
      name: "beta"
      f: 1
    }
    attribute {
      name: "broadcast"
      i: 1
    }
  }
  node {
    input: "136"
    input: "138"
    output: "139"
    op_type: "Add"
  }
  node {
    input: "139"
    output: "140"
    op_type: "Relu"
  }
  node {
    output: "583"
    op_type: "Constant"
    attribute {
      name: "value"
      t {
        dims: 3
        data_type: INT32
        raw_data: "\001\000\000\000\000\000\000\000\000\000\000\000"
      }
    }
  }
  node {
    output: "584"
    op_type: "Constant"
    attribute {
      name: "value"
      t {
        dims: 3
        data_type: INT32
        raw_data: "\002\000\000\000\005\000\000\000\005\000\000\000"
      }
    }
  }
  node {
    input: "127"
    input: "583"
    input: "584"
    output: "585"
    op_type: "Slice"
  }
  node {
    input: "585"
    output: "586"
    op_type: "Squeeze"
    attribute {
      name: "axes"
      ints: 0
    }
  }
  node {
    input: "8"
    output: "144"
    op_type: "Transpose"
    attribute {
      name: "perm"
      ints: 1
      ints: 0
    }
  }
  node {
    input: "586"
    input: "144"
    input: "10"
    output: "145"
    op_type: "Gemm"
    attribute {
      name: "alpha"
      f: 1
    }
    attribute {
      name: "beta"
      f: 1
    }
    attribute {
      name: "broadcast"
      i: 1
    }
  }
  node {
    input: "9"
    output: "146"
    op_type: "Transpose"
    attribute {
      name: "perm"
      ints: 1
      ints: 0
    }
  }
  node {
    input: "140"
    input: "146"
    input: "11"
    output: "147"
    op_type: "Gemm"
    attribute {
      name: "alpha"
      f: 1
    }
    attribute {
      name: "beta"
      f: 1
    }
    attribute {
      name: "broadcast"
      i: 1
    }
  }
  node {
    input: "145"
    input: "147"
    output: "148"
    op_type: "Add"
  }
  node {
    input: "148"
    output: "149"
    op_type: "Relu"
  }
  node {
    output: "587"
    op_type: "Constant"
    attribute {
      name: "value"
      t {
        dims: 3
        data_type: INT32
        raw_data: "\002\000\000\000\000\000\000\000\000\000\000\000"
      }
    }
  }
  node {
    output: "588"
    op_type: "Constant"
    attribute {
      name: "value"
      t {
        dims: 3
        data_type: INT32
        raw_data: "\003\000\000\000\005\000\000\000\005\000\000\000"
      }
    }
  }
  node {
    input: "127"
    input: "587"
    input: "588"
    output: "589"
    op_type: "Slice"
  }
  node {
    input: "589"
    output: "590"
    op_type: "Squeeze"
    attribute {
      name: "axes"
      ints: 0
    }
  }
  node {
    input: "8"
    output: "153"
    op_type: "Transpose"
    attribute {
      name: "perm"
      ints: 1
      ints: 0
    }
  }
  node {
    input: "590"
    input: "153"
    input: "10"
    output: "154"
    op_type: "Gemm"
    attribute {
      name: "alpha"
      f: 1
    }
    attribute {
      name: "beta"
      f: 1
    }
    attribute {
      name: "broadcast"
      i: 1
    }
  }
  node {
    input: "9"
    output: "155"
    op_type: "Transpose"
    attribute {
      name: "perm"
      ints: 1
      ints: 0
    }
  }
  node {
    input: "149"
    input: "155"
    input: "11"
    output: "156"
    op_type: "Gemm"
    attribute {
      name: "alpha"
      f: 1
    }
    attribute {
      name: "beta"
      f: 1
    }
    attribute {
      name: "broadcast"
      i: 1
    }
  }
  node {
    input: "154"
    input: "156"
    output: "157"
    op_type: "Add"
  }
  node {
    input: "157"
    output: "158"
    op_type: "Relu"
  }
  node {
    output: "591"
    op_type: "Constant"
    attribute {
      name: "value"
      t {
        dims: 3
        data_type: INT32
        raw_data: "\003\000\000\000\000\000\000\000\000\000\000\000"
      }
    }
  }
  node {
    output: "592"
    op_type: "Constant"
    attribute {
      name: "value"
      t {
        dims: 3
        data_type: INT32
        raw_data: "\004\000\000\000\005\000\000\000\005\000\000\000"
      }
    }
  }
  node {
    input: "127"
    input: "591"
    input: "592"
    output: "593"
    op_type: "Slice"
  }
  node {
    input: "593"
    output: "594"
    op_type: "Squeeze"
    attribute {
      name: "axes"
      ints: 0
    }
  }
  node {
    input: "8"
    output: "162"
    op_type: "Transpose"
    attribute {
      name: "perm"
      ints: 1
      ints: 0
    }
  }
  node {
    input: "594"
    input: "162"
    input: "10"
    output: "163"
    op_type: "Gemm"
    attribute {
      name: "alpha"
      f: 1
    }
    attribute {
      name: "beta"
      f: 1
    }
    attribute {
      name: "broadcast"
      i: 1
    }
  }
  node {
    input: "9"
    output: "164"
    op_type: "Transpose"
    attribute {
      name: "perm"
      ints: 1
      ints: 0
    }
  }
  node {
    input: "158"
    input: "164"
    input: "11"
    output: "165"
    op_type: "Gemm"
    attribute {
      name: "alpha"
      f: 1
    }
    attribute {
      name: "beta"
      f: 1
    }
    attribute {
      name: "broadcast"
      i: 1
    }
  }
  node {
    input: "163"
    input: "165"
    output: "166"
    op_type: "Add"
  }
  node {
    input: "166"
    output: "167"
    op_type: "Relu"
  }
  node {
    output: "595"
    op_type: "Constant"
    attribute {
      name: "value"
      t {
        dims: 3
        data_type: INT32
        raw_data: "\004\000\000\000\000\000\000\000\000\000\000\000"
      }
    }
  }
  node {
    output: "596"
    op_type: "Constant"
    attribute {
      name: "value"
      t {
        dims: 3
        data_type: INT32
        raw_data: "\005\000\000\000\005\000\000\000\005\000\000\000"
      }
    }
  }
  node {
    input: "127"
    input: "595"
    input: "596"
    output: "597"
    op_type: "Slice"
  }
  node {
    input: "597"
    output: "598"
    op_type: "Squeeze"
    attribute {
      name: "axes"
      ints: 0
    }
  }
  node {
    input: "8"
    output: "171"
    op_type: "Transpose"
    attribute {
      name: "perm"
      ints: 1
      ints: 0
    }
  }
  node {
    input: "598"
    input: "171"
    input: "10"
    output: "172"
    op_type: "Gemm"
    attribute {
      name: "alpha"
      f: 1
    }
    attribute {
      name: "beta"
      f: 1
    }
    attribute {
      name: "broadcast"
      i: 1
    }
  }
  node {
    input: "9"
    output: "173"
    op_type: "Transpose"
    attribute {
      name: "perm"
      ints: 1
      ints: 0
    }
  }
  node {
    input: "167"
    input: "173"
    input: "11"
    output: "174"
    op_type: "Gemm"
    attribute {
      name: "alpha"
      f: 1
    }
    attribute {
      name: "beta"
      f: 1
    }
    attribute {
      name: "broadcast"
      i: 1
    }
  }
  node {
    input: "172"
    input: "174"
    output: "175"
    op_type: "Add"
  }
  node {
    input: "175"
    output: "176"
    op_type: "Relu"
  }
  node {
    output: "599"
    op_type: "Constant"
    attribute {
      name: "value"
      t {
        dims: 3
        data_type: INT32
        raw_data: "\005\000\000\000\000\000\000\000\000\000\000\000"
      }
    }
  }
  node {
    output: "600"
    op_type: "Constant"
    attribute {
      name: "value"
      t {
        dims: 3
        data_type: INT32
        raw_data: "\006\000\000\000\005\000\000\000\005\000\000\000"
      }
    }
  }
  node {
    input: "127"
    input: "599"
    input: "600"
    output: "601"
    op_type: "Slice"
  }
  node {
    input: "601"
    output: "602"
    op_type: "Squeeze"
    attribute {
      name: "axes"
      ints: 0
    }
  }
  node {
    input: "8"
    output: "180"
    op_type: "Transpose"
    attribute {
      name: "perm"
      ints: 1
      ints: 0
    }
  }
  node {
    input: "602"
    input: "180"
    input: "10"
    output: "181"
    op_type: "Gemm"
    attribute {
      name: "alpha"
      f: 1
    }
    attribute {
      name: "beta"
      f: 1
    }
    attribute {
      name: "broadcast"
      i: 1
    }
  }
  node {
    input: "9"
    output: "182"
    op_type: "Transpose"
    attribute {
      name: "perm"
      ints: 1
      ints: 0
    }
  }
  node {
    input: "176"
    input: "182"
    input: "11"
    output: "183"
    op_type: "Gemm"
    attribute {
      name: "alpha"
      f: 1
    }
    attribute {
      name: "beta"
      f: 1
    }
    attribute {
      name: "broadcast"
      i: 1
    }
  }
  node {
    input: "181"
    input: "183"
    output: "184"
    op_type: "Add"
  }
  node {
    input: "184"
    output: "185"
    op_type: "Relu"
  }
  node {
    output: "603"
    op_type: "Constant"
    attribute {
      name: "value"
      t {
        dims: 3
        data_type: INT32
        raw_data: "\006\000\000\000\000\000\000\000\000\000\000\000"
      }
    }
  }
  node {
    output: "604"
    op_type: "Constant"
    attribute {
      name: "value"
      t {
        dims: 3
        data_type: INT32
        raw_data: "\007\000\000\000\005\000\000\000\005\000\000\000"
      }
    }
  }
  node {
    input: "127"
    input: "603"
    input: "604"
    output: "605"
    op_type: "Slice"
  }
  node {
    input: "605"
    output: "606"
    op_type: "Squeeze"
    attribute {
      name: "axes"
      ints: 0
    }
  }
  node {
    input: "8"
    output: "189"
    op_type: "Transpose"
    attribute {
      name: "perm"
      ints: 1
      ints: 0
    }
  }
  node {
    input: "606"
    input: "189"
    input: "10"
    output: "190"
    op_type: "Gemm"
    attribute {
      name: "alpha"
      f: 1
    }
    attribute {
      name: "beta"
      f: 1
    }
    attribute {
      name: "broadcast"
      i: 1
    }
  }
  node {
    input: "9"
    output: "191"
    op_type: "Transpose"
    attribute {
      name: "perm"
      ints: 1
      ints: 0
    }
  }
  node {
    input: "185"
    input: "191"
    input: "11"
    output: "192"
    op_type: "Gemm"
    attribute {
      name: "alpha"
      f: 1
    }
    attribute {
      name: "beta"
      f: 1
    }
    attribute {
      name: "broadcast"
      i: 1
    }
  }
  node {
    input: "190"
    input: "192"
    output: "193"
    op_type: "Add"
  }
  node {
    input: "193"
    output: "194"
    op_type: "Relu"
  }
  node {
    output: "607"
    op_type: "Constant"
    attribute {
      name: "value"
      t {
        dims: 3
        data_type: INT32
        raw_data: "\007\000\000\000\000\000\000\000\000\000\000\000"
      }
    }
  }
  node {
    output: "608"
    op_type: "Constant"
    attribute {
      name: "value"
      t {
        dims: 3
        data_type: INT32
        raw_data: "\010\000\000\000\005\000\000\000\005\000\000\000"
      }
    }
  }
  node {
    input: "127"
    input: "607"
    input: "608"
    output: "609"
    op_type: "Slice"
  }
  node {
    input: "609"
    output: "610"
    op_type: "Squeeze"
    attribute {
      name: "axes"
      ints: 0
    }
  }
  node {
    input: "8"
    output: "198"
    op_type: "Transpose"
    attribute {
      name: "perm"
      ints: 1
      ints: 0
    }
  }
  node {
    input: "610"
    input: "198"
    input: "10"
    output: "199"
    op_type: "Gemm"
    attribute {
      name: "alpha"
      f: 1
    }
    attribute {
      name: "beta"
      f: 1
    }
    attribute {
      name: "broadcast"
      i: 1
    }
  }
  node {
    input: "9"
    output: "200"
    op_type: "Transpose"
    attribute {
      name: "perm"
      ints: 1
      ints: 0
    }
  }
  node {
    input: "194"
    input: "200"
    input: "11"
    output: "201"
    op_type: "Gemm"
    attribute {
      name: "alpha"
      f: 1
    }
    attribute {
      name: "beta"
      f: 1
    }
    attribute {
      name: "broadcast"
      i: 1
    }
  }
  node {
    input: "199"
    input: "201"
    output: "202"
    op_type: "Add"
  }
  node {
    input: "202"
    output: "203"
    op_type: "Relu"
  }
  node {
    output: "611"
    op_type: "Constant"
    attribute {
      name: "value"
      t {
        dims: 3
        data_type: INT32
        raw_data: "\010\000\000\000\000\000\000\000\000\000\000\000"
      }
    }
  }
  node {
    output: "612"
    op_type: "Constant"
    attribute {
      name: "value"
      t {
        dims: 3
        data_type: INT32
        raw_data: "\t\000\000\000\005\000\000\000\005\000\000\000"
      }
    }
  }
  node {
    input: "127"
    input: "611"
    input: "612"
    output: "613"
    op_type: "Slice"
  }
  node {
    input: "613"
    output: "614"
    op_type: "Squeeze"
    attribute {
      name: "axes"
      ints: 0
    }
  }
  node {
    input: "8"
    output: "207"
    op_type: "Transpose"
    attribute {
      name: "perm"
      ints: 1
      ints: 0
    }
  }
  node {
    input: "614"
    input: "207"
    input: "10"
    output: "208"
    op_type: "Gemm"
    attribute {
      name: "alpha"
      f: 1
    }
    attribute {
      name: "beta"
      f: 1
    }
    attribute {
      name: "broadcast"
      i: 1
    }
  }
  node {
    input: "9"
    output: "209"
    op_type: "Transpose"
    attribute {
      name: "perm"
      ints: 1
      ints: 0
    }
  }
  node {
    input: "203"
    input: "209"
    input: "11"
    output: "210"
    op_type: "Gemm"
    attribute {
      name: "alpha"
      f: 1
    }
    attribute {
      name: "beta"
      f: 1
    }
    attribute {
      name: "broadcast"
      i: 1
    }
  }
  node {
    input: "208"
    input: "210"
    output: "211"
    op_type: "Add"
  }
  node {
    input: "211"
    output: "212"
    op_type: "Relu"
  }
  node {
    output: "615"
    op_type: "Constant"
    attribute {
      name: "value"
      t {
        dims: 3
        data_type: INT32
        raw_data: "\t\000\000\000\000\000\000\000\000\000\000\000"
      }
    }
  }
  node {
    output: "616"
    op_type: "Constant"
    attribute {
      name: "value"
      t {
        dims: 3
        data_type: INT32
        raw_data: "\n\000\000\000\005\000\000\000\005\000\000\000"
      }
    }
  }
  node {
    input: "127"
    input: "615"
    input: "616"
    output: "617"
    op_type: "Slice"
  }
  node {
    input: "617"
    output: "618"
    op_type: "Squeeze"
    attribute {
      name: "axes"
      ints: 0
    }
  }
  node {
    input: "8"
    output: "216"
    op_type: "Transpose"
    attribute {
      name: "perm"
      ints: 1
      ints: 0
    }
  }
  node {
    input: "618"
    input: "216"
    input: "10"
    output: "217"
    op_type: "Gemm"
    attribute {
      name: "alpha"
      f: 1
    }
    attribute {
      name: "beta"
      f: 1
    }
    attribute {
      name: "broadcast"
      i: 1
    }
  }
  node {
    input: "9"
    output: "218"
    op_type: "Transpose"
    attribute {
      name: "perm"
      ints: 1
      ints: 0
    }
  }
  node {
    input: "212"
    input: "218"
    input: "11"
    output: "219"
    op_type: "Gemm"
    attribute {
      name: "alpha"
      f: 1
    }
    attribute {
      name: "beta"
      f: 1
    }
    attribute {
      name: "broadcast"
      i: 1
    }
  }
  node {
    input: "217"
    input: "219"
    output: "220"
    op_type: "Add"
  }
  node {
    input: "220"
    output: "221"
    op_type: "Relu"
  }
  node {
    input: "140"
    input: "149"
    input: "158"
    input: "167"
    input: "176"
    input: "185"
    input: "194"
    input: "203"
    input: "212"
    input: "221"
    output: "222"
    op_type: "Concat"
    attribute {
      name: "axis"
      i: 0
    }
  }
  node {
    input: "222"
    output: "223"
    op_type: "Reshape"
    attribute {
      name: "shape"
      ints: 10
      ints: 5
      ints: 5
    }
  }
  node {
    input: "223"
    output: "224"
    op_type: "Concat"
    attribute {
      name: "axis"
      i: 2
    }
  }
  node {
    input: "224"
    output: "226"
    output: "227"
    op_type: "Dropout"
    attribute {
      name: "ratio"
      f: 0.200000002980232
    }
    attribute {
      name: "is_test"
      i: 1
    }
  }
  node {
    output: "619"
    op_type: "Constant"
    attribute {
      name: "value"
      t {
        dims: 3
        data_type: INT32
        raw_data: "\002\000\000\000\000\000\000\000\000\000\000\000"
      }
    }
  }
  node {
    output: "620"
    op_type: "Constant"
    attribute {
      name: "value"
      t {
        dims: 3
        data_type: INT32
        raw_data: "\003\000\000\000\005\000\000\000\005\000\000\000"
      }
    }
  }
  node {
    input: "2"
    input: "619"
    input: "620"
    output: "621"
    op_type: "Slice"
  }
  node {
    input: "621"
    output: "622"
    op_type: "Squeeze"
    attribute {
      name: "axes"
      ints: 0
    }
  }
  node {
    output: "623"
    op_type: "Constant"
    attribute {
      name: "value"
      t {
        dims: 3
        data_type: INT32
        raw_data: "\000\000\000\000\000\000\000\000\000\000\000\000"
      }
    }
  }
  node {
    output: "624"
    op_type: "Constant"
    attribute {
      name: "value"
      t {
        dims: 3
        data_type: INT32
        raw_data: "\001\000\000\000\005\000\000\000\005\000\000\000"
      }
    }
  }
  node {
    input: "226"
    input: "623"
    input: "624"
    output: "625"
    op_type: "Slice"
  }
  node {
    input: "625"
    output: "626"
    op_type: "Squeeze"
    attribute {
      name: "axes"
      ints: 0
    }
  }
  node {
    input: "12"
    output: "234"
    op_type: "Transpose"
    attribute {
      name: "perm"
      ints: 1
      ints: 0
    }
  }
  node {
    input: "626"
    input: "234"
    input: "14"
    output: "235"
    op_type: "Gemm"
    attribute {
      name: "alpha"
      f: 1
    }
    attribute {
      name: "beta"
      f: 1
    }
    attribute {
      name: "broadcast"
      i: 1
    }
  }
  node {
    input: "13"
    output: "236"
    op_type: "Transpose"
    attribute {
      name: "perm"
      ints: 1
      ints: 0
    }
  }
  node {
    input: "622"
    input: "236"
    input: "15"
    output: "237"
    op_type: "Gemm"
    attribute {
      name: "alpha"
      f: 1
    }
    attribute {
      name: "beta"
      f: 1
    }
    attribute {
      name: "broadcast"
      i: 1
    }
  }
  node {
    input: "235"
    input: "237"
    output: "238"
    op_type: "Add"
  }
  node {
    input: "238"
    output: "239"
    op_type: "Relu"
  }
  node {
    output: "627"
    op_type: "Constant"
    attribute {
      name: "value"
      t {
        dims: 3
        data_type: INT32
        raw_data: "\001\000\000\000\000\000\000\000\000\000\000\000"
      }
    }
  }
  node {
    output: "628"
    op_type: "Constant"
    attribute {
      name: "value"
      t {
        dims: 3
        data_type: INT32
        raw_data: "\002\000\000\000\005\000\000\000\005\000\000\000"
      }
    }
  }
  node {
    input: "226"
    input: "627"
    input: "628"
    output: "629"
    op_type: "Slice"
  }
  node {
    input: "629"
    output: "630"
    op_type: "Squeeze"
    attribute {
      name: "axes"
      ints: 0
    }
  }
  node {
    input: "12"
    output: "243"
    op_type: "Transpose"
    attribute {
      name: "perm"
      ints: 1
      ints: 0
    }
  }
  node {
    input: "630"
    input: "243"
    input: "14"
    output: "244"
    op_type: "Gemm"
    attribute {
      name: "alpha"
      f: 1
    }
    attribute {
      name: "beta"
      f: 1
    }
    attribute {
      name: "broadcast"
      i: 1
    }
  }
  node {
    input: "13"
    output: "245"
    op_type: "Transpose"
    attribute {
      name: "perm"
      ints: 1
      ints: 0
    }
  }
  node {
    input: "239"
    input: "245"
    input: "15"
    output: "246"
    op_type: "Gemm"
    attribute {
      name: "alpha"
      f: 1
    }
    attribute {
      name: "beta"
      f: 1
    }
    attribute {
      name: "broadcast"
      i: 1
    }
  }
  node {
    input: "244"
    input: "246"
    output: "247"
    op_type: "Add"
  }
  node {
    input: "247"
    output: "248"
    op_type: "Relu"
  }
  node {
    output: "631"
    op_type: "Constant"
    attribute {
      name: "value"
      t {
        dims: 3
        data_type: INT32
        raw_data: "\002\000\000\000\000\000\000\000\000\000\000\000"
      }
    }
  }
  node {
    output: "632"
    op_type: "Constant"
    attribute {
      name: "value"
      t {
        dims: 3
        data_type: INT32
        raw_data: "\003\000\000\000\005\000\000\000\005\000\000\000"
      }
    }
  }
  node {
    input: "226"
    input: "631"
    input: "632"
    output: "633"
    op_type: "Slice"
  }
  node {
    input: "633"
    output: "634"
    op_type: "Squeeze"
    attribute {
      name: "axes"
      ints: 0
    }
  }
  node {
    input: "12"
    output: "252"
    op_type: "Transpose"
    attribute {
      name: "perm"
      ints: 1
      ints: 0
    }
  }
  node {
    input: "634"
    input: "252"
    input: "14"
    output: "253"
    op_type: "Gemm"
    attribute {
      name: "alpha"
      f: 1
    }
    attribute {
      name: "beta"
      f: 1
    }
    attribute {
      name: "broadcast"
      i: 1
    }
  }
  node {
    input: "13"
    output: "254"
    op_type: "Transpose"
    attribute {
      name: "perm"
      ints: 1
      ints: 0
    }
  }
  node {
    input: "248"
    input: "254"
    input: "15"
    output: "255"
    op_type: "Gemm"
    attribute {
      name: "alpha"
      f: 1
    }
    attribute {
      name: "beta"
      f: 1
    }
    attribute {
      name: "broadcast"
      i: 1
    }
  }
  node {
    input: "253"
    input: "255"
    output: "256"
    op_type: "Add"
  }
  node {
    input: "256"
    output: "257"
    op_type: "Relu"
  }
  node {
    output: "635"
    op_type: "Constant"
    attribute {
      name: "value"
      t {
        dims: 3
        data_type: INT32
        raw_data: "\003\000\000\000\000\000\000\000\000\000\000\000"
      }
    }
  }
  node {
    output: "636"
    op_type: "Constant"
    attribute {
      name: "value"
      t {
        dims: 3
        data_type: INT32
        raw_data: "\004\000\000\000\005\000\000\000\005\000\000\000"
      }
    }
  }
  node {
    input: "226"
    input: "635"
    input: "636"
    output: "637"
    op_type: "Slice"
  }
  node {
    input: "637"
    output: "638"
    op_type: "Squeeze"
    attribute {
      name: "axes"
      ints: 0
    }
  }
  node {
    input: "12"
    output: "261"
    op_type: "Transpose"
    attribute {
      name: "perm"
      ints: 1
      ints: 0
    }
  }
  node {
    input: "638"
    input: "261"
    input: "14"
    output: "262"
    op_type: "Gemm"
    attribute {
      name: "alpha"
      f: 1
    }
    attribute {
      name: "beta"
      f: 1
    }
    attribute {
      name: "broadcast"
      i: 1
    }
  }
  node {
    input: "13"
    output: "263"
    op_type: "Transpose"
    attribute {
      name: "perm"
      ints: 1
      ints: 0
    }
  }
  node {
    input: "257"
    input: "263"
    input: "15"
    output: "264"
    op_type: "Gemm"
    attribute {
      name: "alpha"
      f: 1
    }
    attribute {
      name: "beta"
      f: 1
    }
    attribute {
      name: "broadcast"
      i: 1
    }
  }
  node {
    input: "262"
    input: "264"
    output: "265"
    op_type: "Add"
  }
  node {
    input: "265"
    output: "266"
    op_type: "Relu"
  }
  node {
    output: "639"
    op_type: "Constant"
    attribute {
      name: "value"
      t {
        dims: 3
        data_type: INT32
        raw_data: "\004\000\000\000\000\000\000\000\000\000\000\000"
      }
    }
  }
  node {
    output: "640"
    op_type: "Constant"
    attribute {
      name: "value"
      t {
        dims: 3
        data_type: INT32
        raw_data: "\005\000\000\000\005\000\000\000\005\000\000\000"
      }
    }
  }
  node {
    input: "226"
    input: "639"
    input: "640"
    output: "641"
    op_type: "Slice"
  }
  node {
    input: "641"
    output: "642"
    op_type: "Squeeze"
    attribute {
      name: "axes"
      ints: 0
    }
  }
  node {
    input: "12"
    output: "270"
    op_type: "Transpose"
    attribute {
      name: "perm"
      ints: 1
      ints: 0
    }
  }
  node {
    input: "642"
    input: "270"
    input: "14"
    output: "271"
    op_type: "Gemm"
    attribute {
      name: "alpha"
      f: 1
    }
    attribute {
      name: "beta"
      f: 1
    }
    attribute {
      name: "broadcast"
      i: 1
    }
  }
  node {
    input: "13"
    output: "272"
    op_type: "Transpose"
    attribute {
      name: "perm"
      ints: 1
      ints: 0
    }
  }
  node {
    input: "266"
    input: "272"
    input: "15"
    output: "273"
    op_type: "Gemm"
    attribute {
      name: "alpha"
      f: 1
    }
    attribute {
      name: "beta"
      f: 1
    }
    attribute {
      name: "broadcast"
      i: 1
    }
  }
  node {
    input: "271"
    input: "273"
    output: "274"
    op_type: "Add"
  }
  node {
    input: "274"
    output: "275"
    op_type: "Relu"
  }
  node {
    output: "643"
    op_type: "Constant"
    attribute {
      name: "value"
      t {
        dims: 3
        data_type: INT32
        raw_data: "\005\000\000\000\000\000\000\000\000\000\000\000"
      }
    }
  }
  node {
    output: "644"
    op_type: "Constant"
    attribute {
      name: "value"
      t {
        dims: 3
        data_type: INT32
        raw_data: "\006\000\000\000\005\000\000\000\005\000\000\000"
      }
    }
  }
  node {
    input: "226"
    input: "643"
    input: "644"
    output: "645"
    op_type: "Slice"
  }
  node {
    input: "645"
    output: "646"
    op_type: "Squeeze"
    attribute {
      name: "axes"
      ints: 0
    }
  }
  node {
    input: "12"
    output: "279"
    op_type: "Transpose"
    attribute {
      name: "perm"
      ints: 1
      ints: 0
    }
  }
  node {
    input: "646"
    input: "279"
    input: "14"
    output: "280"
    op_type: "Gemm"
    attribute {
      name: "alpha"
      f: 1
    }
    attribute {
      name: "beta"
      f: 1
    }
    attribute {
      name: "broadcast"
      i: 1
    }
  }
  node {
    input: "13"
    output: "281"
    op_type: "Transpose"
    attribute {
      name: "perm"
      ints: 1
      ints: 0
    }
  }
  node {
    input: "275"
    input: "281"
    input: "15"
    output: "282"
    op_type: "Gemm"
    attribute {
      name: "alpha"
      f: 1
    }
    attribute {
      name: "beta"
      f: 1
    }
    attribute {
      name: "broadcast"
      i: 1
    }
  }
  node {
    input: "280"
    input: "282"
    output: "283"
    op_type: "Add"
  }
  node {
    input: "283"
    output: "284"
    op_type: "Relu"
  }
  node {
    output: "647"
    op_type: "Constant"
    attribute {
      name: "value"
      t {
        dims: 3
        data_type: INT32
        raw_data: "\006\000\000\000\000\000\000\000\000\000\000\000"
      }
    }
  }
  node {
    output: "648"
    op_type: "Constant"
    attribute {
      name: "value"
      t {
        dims: 3
        data_type: INT32
        raw_data: "\007\000\000\000\005\000\000\000\005\000\000\000"
      }
    }
  }
  node {
    input: "226"
    input: "647"
    input: "648"
    output: "649"
    op_type: "Slice"
  }
  node {
    input: "649"
    output: "650"
    op_type: "Squeeze"
    attribute {
      name: "axes"
      ints: 0
    }
  }
  node {
    input: "12"
    output: "288"
    op_type: "Transpose"
    attribute {
      name: "perm"
      ints: 1
      ints: 0
    }
  }
  node {
    input: "650"
    input: "288"
    input: "14"
    output: "289"
    op_type: "Gemm"
    attribute {
      name: "alpha"
      f: 1
    }
    attribute {
      name: "beta"
      f: 1
    }
    attribute {
      name: "broadcast"
      i: 1
    }
  }
  node {
    input: "13"
    output: "290"
    op_type: "Transpose"
    attribute {
      name: "perm"
      ints: 1
      ints: 0
    }
  }
  node {
    input: "284"
    input: "290"
    input: "15"
    output: "291"
    op_type: "Gemm"
    attribute {
      name: "alpha"
      f: 1
    }
    attribute {
      name: "beta"
      f: 1
    }
    attribute {
      name: "broadcast"
      i: 1
    }
  }
  node {
    input: "289"
    input: "291"
    output: "292"
    op_type: "Add"
  }
  node {
    input: "292"
    output: "293"
    op_type: "Relu"
  }
  node {
    output: "651"
    op_type: "Constant"
    attribute {
      name: "value"
      t {
        dims: 3
        data_type: INT32
        raw_data: "\007\000\000\000\000\000\000\000\000\000\000\000"
      }
    }
  }
  node {
    output: "652"
    op_type: "Constant"
    attribute {
      name: "value"
      t {
        dims: 3
        data_type: INT32
        raw_data: "\010\000\000\000\005\000\000\000\005\000\000\000"
      }
    }
  }
  node {
    input: "226"
    input: "651"
    input: "652"
    output: "653"
    op_type: "Slice"
  }
  node {
    input: "653"
    output: "654"
    op_type: "Squeeze"
    attribute {
      name: "axes"
      ints: 0
    }
  }
  node {
    input: "12"
    output: "297"
    op_type: "Transpose"
    attribute {
      name: "perm"
      ints: 1
      ints: 0
    }
  }
  node {
    input: "654"
    input: "297"
    input: "14"
    output: "298"
    op_type: "Gemm"
    attribute {
      name: "alpha"
      f: 1
    }
    attribute {
      name: "beta"
      f: 1
    }
    attribute {
      name: "broadcast"
      i: 1
    }
  }
  node {
    input: "13"
    output: "299"
    op_type: "Transpose"
    attribute {
      name: "perm"
      ints: 1
      ints: 0
    }
  }
  node {
    input: "293"
    input: "299"
    input: "15"
    output: "300"
    op_type: "Gemm"
    attribute {
      name: "alpha"
      f: 1
    }
    attribute {
      name: "beta"
      f: 1
    }
    attribute {
      name: "broadcast"
      i: 1
    }
  }
  node {
    input: "298"
    input: "300"
    output: "301"
    op_type: "Add"
  }
  node {
    input: "301"
    output: "302"
    op_type: "Relu"
  }
  node {
    output: "655"
    op_type: "Constant"
    attribute {
      name: "value"
      t {
        dims: 3
        data_type: INT32
        raw_data: "\010\000\000\000\000\000\000\000\000\000\000\000"
      }
    }
  }
  node {
    output: "656"
    op_type: "Constant"
    attribute {
      name: "value"
      t {
        dims: 3
        data_type: INT32
        raw_data: "\t\000\000\000\005\000\000\000\005\000\000\000"
      }
    }
  }
  node {
    input: "226"
    input: "655"
    input: "656"
    output: "657"
    op_type: "Slice"
  }
  node {
    input: "657"
    output: "658"
    op_type: "Squeeze"
    attribute {
      name: "axes"
      ints: 0
    }
  }
  node {
    input: "12"
    output: "306"
    op_type: "Transpose"
    attribute {
      name: "perm"
      ints: 1
      ints: 0
    }
  }
  node {
    input: "658"
    input: "306"
    input: "14"
    output: "307"
    op_type: "Gemm"
    attribute {
      name: "alpha"
      f: 1
    }
    attribute {
      name: "beta"
      f: 1
    }
    attribute {
      name: "broadcast"
      i: 1
    }
  }
  node {
    input: "13"
    output: "308"
    op_type: "Transpose"
    attribute {
      name: "perm"
      ints: 1
      ints: 0
    }
  }
  node {
    input: "302"
    input: "308"
    input: "15"
    output: "309"
    op_type: "Gemm"
    attribute {
      name: "alpha"
      f: 1
    }
    attribute {
      name: "beta"
      f: 1
    }
    attribute {
      name: "broadcast"
      i: 1
    }
  }
  node {
    input: "307"
    input: "309"
    output: "310"
    op_type: "Add"
  }
  node {
    input: "310"
    output: "311"
    op_type: "Relu"
  }
  node {
    output: "659"
    op_type: "Constant"
    attribute {
      name: "value"
      t {
        dims: 3
        data_type: INT32
        raw_data: "\t\000\000\000\000\000\000\000\000\000\000\000"
      }
    }
  }
  node {
    output: "660"
    op_type: "Constant"
    attribute {
      name: "value"
      t {
        dims: 3
        data_type: INT32
        raw_data: "\n\000\000\000\005\000\000\000\005\000\000\000"
      }
    }
  }
  node {
    input: "226"
    input: "659"
    input: "660"
    output: "661"
    op_type: "Slice"
  }
  node {
    input: "661"
    output: "662"
    op_type: "Squeeze"
    attribute {
      name: "axes"
      ints: 0
    }
  }
  node {
    input: "12"
    output: "315"
    op_type: "Transpose"
    attribute {
      name: "perm"
      ints: 1
      ints: 0
    }
  }
  node {
    input: "662"
    input: "315"
    input: "14"
    output: "316"
    op_type: "Gemm"
    attribute {
      name: "alpha"
      f: 1
    }
    attribute {
      name: "beta"
      f: 1
    }
    attribute {
      name: "broadcast"
      i: 1
    }
  }
  node {
    input: "13"
    output: "317"
    op_type: "Transpose"
    attribute {
      name: "perm"
      ints: 1
      ints: 0
    }
  }
  node {
    input: "311"
    input: "317"
    input: "15"
    output: "318"
    op_type: "Gemm"
    attribute {
      name: "alpha"
      f: 1
    }
    attribute {
      name: "beta"
      f: 1
    }
    attribute {
      name: "broadcast"
      i: 1
    }
  }
  node {
    input: "316"
    input: "318"
    output: "319"
    op_type: "Add"
  }
  node {
    input: "319"
    output: "320"
    op_type: "Relu"
  }
  node {
    input: "239"
    input: "248"
    input: "257"
    input: "266"
    input: "275"
    input: "284"
    input: "293"
    input: "302"
    input: "311"
    input: "320"
    output: "321"
    op_type: "Concat"
    attribute {
      name: "axis"
      i: 0
    }
  }
  node {
    input: "321"
    output: "322"
    op_type: "Reshape"
    attribute {
      name: "shape"
      ints: 10
      ints: 5
      ints: 5
    }
  }
  node {
    input: "322"
    output: "323"
    op_type: "Concat"
    attribute {
      name: "axis"
      i: 2
    }
  }
  node {
    input: "323"
    output: "325"
    output: "326"
    op_type: "Dropout"
    attribute {
      name: "ratio"
      f: 0.200000002980232
    }
    attribute {
      name: "is_test"
      i: 1
    }
  }
  node {
    output: "663"
    op_type: "Constant"
    attribute {
      name: "value"
      t {
        dims: 3
        data_type: INT32
        raw_data: "\003\000\000\000\000\000\000\000\000\000\000\000"
      }
    }
  }
  node {
    output: "664"
    op_type: "Constant"
    attribute {
      name: "value"
      t {
        dims: 3
        data_type: INT32
        raw_data: "\004\000\000\000\005\000\000\000\005\000\000\000"
      }
    }
  }
  node {
    input: "2"
    input: "663"
    input: "664"
    output: "665"
    op_type: "Slice"
  }
  node {
    input: "665"
    output: "666"
    op_type: "Squeeze"
    attribute {
      name: "axes"
      ints: 0
    }
  }
  node {
    output: "667"
    op_type: "Constant"
    attribute {
      name: "value"
      t {
        dims: 3
        data_type: INT32
        raw_data: "\000\000\000\000\000\000\000\000\000\000\000\000"
      }
    }
  }
  node {
    output: "668"
    op_type: "Constant"
    attribute {
      name: "value"
      t {
        dims: 3
        data_type: INT32
        raw_data: "\001\000\000\000\005\000\000\000\005\000\000\000"
      }
    }
  }
  node {
    input: "325"
    input: "667"
    input: "668"
    output: "669"
    op_type: "Slice"
  }
  node {
    input: "669"
    output: "670"
    op_type: "Squeeze"
    attribute {
      name: "axes"
      ints: 0
    }
  }
  node {
    input: "16"
    output: "333"
    op_type: "Transpose"
    attribute {
      name: "perm"
      ints: 1
      ints: 0
    }
  }
  node {
    input: "670"
    input: "333"
    input: "18"
    output: "334"
    op_type: "Gemm"
    attribute {
      name: "alpha"
      f: 1
    }
    attribute {
      name: "beta"
      f: 1
    }
    attribute {
      name: "broadcast"
      i: 1
    }
  }
  node {
    input: "17"
    output: "335"
    op_type: "Transpose"
    attribute {
      name: "perm"
      ints: 1
      ints: 0
    }
  }
  node {
    input: "666"
    input: "335"
    input: "19"
    output: "336"
    op_type: "Gemm"
    attribute {
      name: "alpha"
      f: 1
    }
    attribute {
      name: "beta"
      f: 1
    }
    attribute {
      name: "broadcast"
      i: 1
    }
  }
  node {
    input: "334"
    input: "336"
    output: "337"
    op_type: "Add"
  }
  node {
    input: "337"
    output: "338"
    op_type: "Relu"
  }
  node {
    output: "671"
    op_type: "Constant"
    attribute {
      name: "value"
      t {
        dims: 3
        data_type: INT32
        raw_data: "\001\000\000\000\000\000\000\000\000\000\000\000"
      }
    }
  }
  node {
    output: "672"
    op_type: "Constant"
    attribute {
      name: "value"
      t {
        dims: 3
        data_type: INT32
        raw_data: "\002\000\000\000\005\000\000\000\005\000\000\000"
      }
    }
  }
  node {
    input: "325"
    input: "671"
    input: "672"
    output: "673"
    op_type: "Slice"
  }
  node {
    input: "673"
    output: "674"
    op_type: "Squeeze"
    attribute {
      name: "axes"
      ints: 0
    }
  }
  node {
    input: "16"
    output: "342"
    op_type: "Transpose"
    attribute {
      name: "perm"
      ints: 1
      ints: 0
    }
  }
  node {
    input: "674"
    input: "342"
    input: "18"
    output: "343"
    op_type: "Gemm"
    attribute {
      name: "alpha"
      f: 1
    }
    attribute {
      name: "beta"
      f: 1
    }
    attribute {
      name: "broadcast"
      i: 1
    }
  }
  node {
    input: "17"
    output: "344"
    op_type: "Transpose"
    attribute {
      name: "perm"
      ints: 1
      ints: 0
    }
  }
  node {
    input: "338"
    input: "344"
    input: "19"
    output: "345"
    op_type: "Gemm"
    attribute {
      name: "alpha"
      f: 1
    }
    attribute {
      name: "beta"
      f: 1
    }
    attribute {
      name: "broadcast"
      i: 1
    }
  }
  node {
    input: "343"
    input: "345"
    output: "346"
    op_type: "Add"
  }
  node {
    input: "346"
    output: "347"
    op_type: "Relu"
  }
  node {
    output: "675"
    op_type: "Constant"
    attribute {
      name: "value"
      t {
        dims: 3
        data_type: INT32
        raw_data: "\002\000\000\000\000\000\000\000\000\000\000\000"
      }
    }
  }
  node {
    output: "676"
    op_type: "Constant"
    attribute {
      name: "value"
      t {
        dims: 3
        data_type: INT32
        raw_data: "\003\000\000\000\005\000\000\000\005\000\000\000"
      }
    }
  }
  node {
    input: "325"
    input: "675"
    input: "676"
    output: "677"
    op_type: "Slice"
  }
  node {
    input: "677"
    output: "678"
    op_type: "Squeeze"
    attribute {
      name: "axes"
      ints: 0
    }
  }
  node {
    input: "16"
    output: "351"
    op_type: "Transpose"
    attribute {
      name: "perm"
      ints: 1
      ints: 0
    }
  }
  node {
    input: "678"
    input: "351"
    input: "18"
    output: "352"
    op_type: "Gemm"
    attribute {
      name: "alpha"
      f: 1
    }
    attribute {
      name: "beta"
      f: 1
    }
    attribute {
      name: "broadcast"
      i: 1
    }
  }
  node {
    input: "17"
    output: "353"
    op_type: "Transpose"
    attribute {
      name: "perm"
      ints: 1
      ints: 0
    }
  }
  node {
    input: "347"
    input: "353"
    input: "19"
    output: "354"
    op_type: "Gemm"
    attribute {
      name: "alpha"
      f: 1
    }
    attribute {
      name: "beta"
      f: 1
    }
    attribute {
      name: "broadcast"
      i: 1
    }
  }
  node {
    input: "352"
    input: "354"
    output: "355"
    op_type: "Add"
  }
  node {
    input: "355"
    output: "356"
    op_type: "Relu"
  }
  node {
    output: "679"
    op_type: "Constant"
    attribute {
      name: "value"
      t {
        dims: 3
        data_type: INT32
        raw_data: "\003\000\000\000\000\000\000\000\000\000\000\000"
      }
    }
  }
  node {
    output: "680"
    op_type: "Constant"
    attribute {
      name: "value"
      t {
        dims: 3
        data_type: INT32
        raw_data: "\004\000\000\000\005\000\000\000\005\000\000\000"
      }
    }
  }
  node {
    input: "325"
    input: "679"
    input: "680"
    output: "681"
    op_type: "Slice"
  }
  node {
    input: "681"
    output: "682"
    op_type: "Squeeze"
    attribute {
      name: "axes"
      ints: 0
    }
  }
  node {
    input: "16"
    output: "360"
    op_type: "Transpose"
    attribute {
      name: "perm"
      ints: 1
      ints: 0
    }
  }
  node {
    input: "682"
    input: "360"
    input: "18"
    output: "361"
    op_type: "Gemm"
    attribute {
      name: "alpha"
      f: 1
    }
    attribute {
      name: "beta"
      f: 1
    }
    attribute {
      name: "broadcast"
      i: 1
    }
  }
  node {
    input: "17"
    output: "362"
    op_type: "Transpose"
    attribute {
      name: "perm"
      ints: 1
      ints: 0
    }
  }
  node {
    input: "356"
    input: "362"
    input: "19"
    output: "363"
    op_type: "Gemm"
    attribute {
      name: "alpha"
      f: 1
    }
    attribute {
      name: "beta"
      f: 1
    }
    attribute {
      name: "broadcast"
      i: 1
    }
  }
  node {
    input: "361"
    input: "363"
    output: "364"
    op_type: "Add"
  }
  node {
    input: "364"
    output: "365"
    op_type: "Relu"
  }
  node {
    output: "683"
    op_type: "Constant"
    attribute {
      name: "value"
      t {
        dims: 3
        data_type: INT32
        raw_data: "\004\000\000\000\000\000\000\000\000\000\000\000"
      }
    }
  }
  node {
    output: "684"
    op_type: "Constant"
    attribute {
      name: "value"
      t {
        dims: 3
        data_type: INT32
        raw_data: "\005\000\000\000\005\000\000\000\005\000\000\000"
      }
    }
  }
  node {
    input: "325"
    input: "683"
    input: "684"
    output: "685"
    op_type: "Slice"
  }
  node {
    input: "685"
    output: "686"
    op_type: "Squeeze"
    attribute {
      name: "axes"
      ints: 0
    }
  }
  node {
    input: "16"
    output: "369"
    op_type: "Transpose"
    attribute {
      name: "perm"
      ints: 1
      ints: 0
    }
  }
  node {
    input: "686"
    input: "369"
    input: "18"
    output: "370"
    op_type: "Gemm"
    attribute {
      name: "alpha"
      f: 1
    }
    attribute {
      name: "beta"
      f: 1
    }
    attribute {
      name: "broadcast"
      i: 1
    }
  }
  node {
    input: "17"
    output: "371"
    op_type: "Transpose"
    attribute {
      name: "perm"
      ints: 1
      ints: 0
    }
  }
  node {
    input: "365"
    input: "371"
    input: "19"
    output: "372"
    op_type: "Gemm"
    attribute {
      name: "alpha"
      f: 1
    }
    attribute {
      name: "beta"
      f: 1
    }
    attribute {
      name: "broadcast"
      i: 1
    }
  }
  node {
    input: "370"
    input: "372"
    output: "373"
    op_type: "Add"
  }
  node {
    input: "373"
    output: "374"
    op_type: "Relu"
  }
  node {
    output: "687"
    op_type: "Constant"
    attribute {
      name: "value"
      t {
        dims: 3
        data_type: INT32
        raw_data: "\005\000\000\000\000\000\000\000\000\000\000\000"
      }
    }
  }
  node {
    output: "688"
    op_type: "Constant"
    attribute {
      name: "value"
      t {
        dims: 3
        data_type: INT32
        raw_data: "\006\000\000\000\005\000\000\000\005\000\000\000"
      }
    }
  }
  node {
    input: "325"
    input: "687"
    input: "688"
    output: "689"
    op_type: "Slice"
  }
  node {
    input: "689"
    output: "690"
    op_type: "Squeeze"
    attribute {
      name: "axes"
      ints: 0
    }
  }
  node {
    input: "16"
    output: "378"
    op_type: "Transpose"
    attribute {
      name: "perm"
      ints: 1
      ints: 0
    }
  }
  node {
    input: "690"
    input: "378"
    input: "18"
    output: "379"
    op_type: "Gemm"
    attribute {
      name: "alpha"
      f: 1
    }
    attribute {
      name: "beta"
      f: 1
    }
    attribute {
      name: "broadcast"
      i: 1
    }
  }
  node {
    input: "17"
    output: "380"
    op_type: "Transpose"
    attribute {
      name: "perm"
      ints: 1
      ints: 0
    }
  }
  node {
    input: "374"
    input: "380"
    input: "19"
    output: "381"
    op_type: "Gemm"
    attribute {
      name: "alpha"
      f: 1
    }
    attribute {
      name: "beta"
      f: 1
    }
    attribute {
      name: "broadcast"
      i: 1
    }
  }
  node {
    input: "379"
    input: "381"
    output: "382"
    op_type: "Add"
  }
  node {
    input: "382"
    output: "383"
    op_type: "Relu"
  }
  node {
    output: "691"
    op_type: "Constant"
    attribute {
      name: "value"
      t {
        dims: 3
        data_type: INT32
        raw_data: "\006\000\000\000\000\000\000\000\000\000\000\000"
      }
    }
  }
  node {
    output: "692"
    op_type: "Constant"
    attribute {
      name: "value"
      t {
        dims: 3
        data_type: INT32
        raw_data: "\007\000\000\000\005\000\000\000\005\000\000\000"
      }
    }
  }
  node {
    input: "325"
    input: "691"
    input: "692"
    output: "693"
    op_type: "Slice"
  }
  node {
    input: "693"
    output: "694"
    op_type: "Squeeze"
    attribute {
      name: "axes"
      ints: 0
    }
  }
  node {
    input: "16"
    output: "387"
    op_type: "Transpose"
    attribute {
      name: "perm"
      ints: 1
      ints: 0
    }
  }
  node {
    input: "694"
    input: "387"
    input: "18"
    output: "388"
    op_type: "Gemm"
    attribute {
      name: "alpha"
      f: 1
    }
    attribute {
      name: "beta"
      f: 1
    }
    attribute {
      name: "broadcast"
      i: 1
    }
  }
  node {
    input: "17"
    output: "389"
    op_type: "Transpose"
    attribute {
      name: "perm"
      ints: 1
      ints: 0
    }
  }
  node {
    input: "383"
    input: "389"
    input: "19"
    output: "390"
    op_type: "Gemm"
    attribute {
      name: "alpha"
      f: 1
    }
    attribute {
      name: "beta"
      f: 1
    }
    attribute {
      name: "broadcast"
      i: 1
    }
  }
  node {
    input: "388"
    input: "390"
    output: "391"
    op_type: "Add"
  }
  node {
    input: "391"
    output: "392"
    op_type: "Relu"
  }
  node {
    output: "695"
    op_type: "Constant"
    attribute {
      name: "value"
      t {
        dims: 3
        data_type: INT32
        raw_data: "\007\000\000\000\000\000\000\000\000\000\000\000"
      }
    }
  }
  node {
    output: "696"
    op_type: "Constant"
    attribute {
      name: "value"
      t {
        dims: 3
        data_type: INT32
        raw_data: "\010\000\000\000\005\000\000\000\005\000\000\000"
      }
    }
  }
  node {
    input: "325"
    input: "695"
    input: "696"
    output: "697"
    op_type: "Slice"
  }
  node {
    input: "697"
    output: "698"
    op_type: "Squeeze"
    attribute {
      name: "axes"
      ints: 0
    }
  }
  node {
    input: "16"
    output: "396"
    op_type: "Transpose"
    attribute {
      name: "perm"
      ints: 1
      ints: 0
    }
  }
  node {
    input: "698"
    input: "396"
    input: "18"
    output: "397"
    op_type: "Gemm"
    attribute {
      name: "alpha"
      f: 1
    }
    attribute {
      name: "beta"
      f: 1
    }
    attribute {
      name: "broadcast"
      i: 1
    }
  }
  node {
    input: "17"
    output: "398"
    op_type: "Transpose"
    attribute {
      name: "perm"
      ints: 1
      ints: 0
    }
  }
  node {
    input: "392"
    input: "398"
    input: "19"
    output: "399"
    op_type: "Gemm"
    attribute {
      name: "alpha"
      f: 1
    }
    attribute {
      name: "beta"
      f: 1
    }
    attribute {
      name: "broadcast"
      i: 1
    }
  }
  node {
    input: "397"
    input: "399"
    output: "400"
    op_type: "Add"
  }
  node {
    input: "400"
    output: "401"
    op_type: "Relu"
  }
  node {
    output: "699"
    op_type: "Constant"
    attribute {
      name: "value"
      t {
        dims: 3
        data_type: INT32
        raw_data: "\010\000\000\000\000\000\000\000\000\000\000\000"
      }
    }
  }
  node {
    output: "700"
    op_type: "Constant"
    attribute {
      name: "value"
      t {
        dims: 3
        data_type: INT32
        raw_data: "\t\000\000\000\005\000\000\000\005\000\000\000"
      }
    }
  }
  node {
    input: "325"
    input: "699"
    input: "700"
    output: "701"
    op_type: "Slice"
  }
  node {
    input: "701"
    output: "702"
    op_type: "Squeeze"
    attribute {
      name: "axes"
      ints: 0
    }
  }
  node {
    input: "16"
    output: "405"
    op_type: "Transpose"
    attribute {
      name: "perm"
      ints: 1
      ints: 0
    }
  }
  node {
    input: "702"
    input: "405"
    input: "18"
    output: "406"
    op_type: "Gemm"
    attribute {
      name: "alpha"
      f: 1
    }
    attribute {
      name: "beta"
      f: 1
    }
    attribute {
      name: "broadcast"
      i: 1
    }
  }
  node {
    input: "17"
    output: "407"
    op_type: "Transpose"
    attribute {
      name: "perm"
      ints: 1
      ints: 0
    }
  }
  node {
    input: "401"
    input: "407"
    input: "19"
    output: "408"
    op_type: "Gemm"
    attribute {
      name: "alpha"
      f: 1
    }
    attribute {
      name: "beta"
      f: 1
    }
    attribute {
      name: "broadcast"
      i: 1
    }
  }
  node {
    input: "406"
    input: "408"
    output: "409"
    op_type: "Add"
  }
  node {
    input: "409"
    output: "410"
    op_type: "Relu"
  }
  node {
    output: "703"
    op_type: "Constant"
    attribute {
      name: "value"
      t {
        dims: 3
        data_type: INT32
        raw_data: "\t\000\000\000\000\000\000\000\000\000\000\000"
      }
    }
  }
  node {
    output: "704"
    op_type: "Constant"
    attribute {
      name: "value"
      t {
        dims: 3
        data_type: INT32
        raw_data: "\n\000\000\000\005\000\000\000\005\000\000\000"
      }
    }
  }
  node {
    input: "325"
    input: "703"
    input: "704"
    output: "705"
    op_type: "Slice"
  }
  node {
    input: "705"
    output: "706"
    op_type: "Squeeze"
    attribute {
      name: "axes"
      ints: 0
    }
  }
  node {
    input: "16"
    output: "414"
    op_type: "Transpose"
    attribute {
      name: "perm"
      ints: 1
      ints: 0
    }
  }
  node {
    input: "706"
    input: "414"
    input: "18"
    output: "415"
    op_type: "Gemm"
    attribute {
      name: "alpha"
      f: 1
    }
    attribute {
      name: "beta"
      f: 1
    }
    attribute {
      name: "broadcast"
      i: 1
    }
  }
  node {
    input: "17"
    output: "416"
    op_type: "Transpose"
    attribute {
      name: "perm"
      ints: 1
      ints: 0
    }
  }
  node {
    input: "410"
    input: "416"
    input: "19"
    output: "417"
    op_type: "Gemm"
    attribute {
      name: "alpha"
      f: 1
    }
    attribute {
      name: "beta"
      f: 1
    }
    attribute {
      name: "broadcast"
      i: 1
    }
  }
  node {
    input: "415"
    input: "417"
    output: "418"
    op_type: "Add"
  }
  node {
    input: "418"
    output: "419"
    op_type: "Relu"
  }
  node {
    input: "338"
    input: "347"
    input: "356"
    input: "365"
    input: "374"
    input: "383"
    input: "392"
    input: "401"
    input: "410"
    input: "419"
    output: "420"
    op_type: "Concat"
    attribute {
      name: "axis"
      i: 0
    }
  }
  node {
    input: "420"
    output: "421"
    op_type: "Reshape"
    attribute {
      name: "shape"
      ints: 10
      ints: 5
      ints: 5
    }
  }
  node {
    input: "421"
    output: "422"
    op_type: "Concat"
    attribute {
      name: "axis"
      i: 2
    }
  }
  node {
    input: "422"
    output: "424"
    output: "425"
    op_type: "Dropout"
    attribute {
      name: "ratio"
      f: 0.200000002980232
    }
    attribute {
      name: "is_test"
      i: 1
    }
  }
  node {
    output: "707"
    op_type: "Constant"
    attribute {
      name: "value"
      t {
        dims: 3
        data_type: INT32
        raw_data: "\004\000\000\000\000\000\000\000\000\000\000\000"
      }
    }
  }
  node {
    output: "708"
    op_type: "Constant"
    attribute {
      name: "value"
      t {
        dims: 3
        data_type: INT32
        raw_data: "\005\000\000\000\005\000\000\000\005\000\000\000"
      }
    }
  }
  node {
    input: "2"
    input: "707"
    input: "708"
    output: "709"
    op_type: "Slice"
  }
  node {
    input: "709"
    output: "710"
    op_type: "Squeeze"
    attribute {
      name: "axes"
      ints: 0
    }
  }
  node {
    output: "711"
    op_type: "Constant"
    attribute {
      name: "value"
      t {
        dims: 3
        data_type: INT32
        raw_data: "\000\000\000\000\000\000\000\000\000\000\000\000"
      }
    }
  }
  node {
    output: "712"
    op_type: "Constant"
    attribute {
      name: "value"
      t {
        dims: 3
        data_type: INT32
        raw_data: "\001\000\000\000\005\000\000\000\005\000\000\000"
      }
    }
  }
  node {
    input: "424"
    input: "711"
    input: "712"
    output: "713"
    op_type: "Slice"
  }
  node {
    input: "713"
    output: "714"
    op_type: "Squeeze"
    attribute {
      name: "axes"
      ints: 0
    }
  }
  node {
    input: "20"
    output: "432"
    op_type: "Transpose"
    attribute {
      name: "perm"
      ints: 1
      ints: 0
    }
  }
  node {
    input: "714"
    input: "432"
    input: "22"
    output: "433"
    op_type: "Gemm"
    attribute {
      name: "alpha"
      f: 1
    }
    attribute {
      name: "beta"
      f: 1
    }
    attribute {
      name: "broadcast"
      i: 1
    }
  }
  node {
    input: "21"
    output: "434"
    op_type: "Transpose"
    attribute {
      name: "perm"
      ints: 1
      ints: 0
    }
  }
  node {
    input: "710"
    input: "434"
    input: "23"
    output: "435"
    op_type: "Gemm"
    attribute {
      name: "alpha"
      f: 1
    }
    attribute {
      name: "beta"
      f: 1
    }
    attribute {
      name: "broadcast"
      i: 1
    }
  }
  node {
    input: "433"
    input: "435"
    output: "436"
    op_type: "Add"
  }
  node {
    input: "436"
    output: "437"
    op_type: "Relu"
  }
  node {
    output: "715"
    op_type: "Constant"
    attribute {
      name: "value"
      t {
        dims: 3
        data_type: INT32
        raw_data: "\001\000\000\000\000\000\000\000\000\000\000\000"
      }
    }
  }
  node {
    output: "716"
    op_type: "Constant"
    attribute {
      name: "value"
      t {
        dims: 3
        data_type: INT32
        raw_data: "\002\000\000\000\005\000\000\000\005\000\000\000"
      }
    }
  }
  node {
    input: "424"
    input: "715"
    input: "716"
    output: "717"
    op_type: "Slice"
  }
  node {
    input: "717"
    output: "718"
    op_type: "Squeeze"
    attribute {
      name: "axes"
      ints: 0
    }
  }
  node {
    input: "20"
    output: "441"
    op_type: "Transpose"
    attribute {
      name: "perm"
      ints: 1
      ints: 0
    }
  }
  node {
    input: "718"
    input: "441"
    input: "22"
    output: "442"
    op_type: "Gemm"
    attribute {
      name: "alpha"
      f: 1
    }
    attribute {
      name: "beta"
      f: 1
    }
    attribute {
      name: "broadcast"
      i: 1
    }
  }
  node {
    input: "21"
    output: "443"
    op_type: "Transpose"
    attribute {
      name: "perm"
      ints: 1
      ints: 0
    }
  }
  node {
    input: "437"
    input: "443"
    input: "23"
    output: "444"
    op_type: "Gemm"
    attribute {
      name: "alpha"
      f: 1
    }
    attribute {
      name: "beta"
      f: 1
    }
    attribute {
      name: "broadcast"
      i: 1
    }
  }
  node {
    input: "442"
    input: "444"
    output: "445"
    op_type: "Add"
  }
  node {
    input: "445"
    output: "446"
    op_type: "Relu"
  }
  node {
    output: "719"
    op_type: "Constant"
    attribute {
      name: "value"
      t {
        dims: 3
        data_type: INT32
        raw_data: "\002\000\000\000\000\000\000\000\000\000\000\000"
      }
    }
  }
  node {
    output: "720"
    op_type: "Constant"
    attribute {
      name: "value"
      t {
        dims: 3
        data_type: INT32
        raw_data: "\003\000\000\000\005\000\000\000\005\000\000\000"
      }
    }
  }
  node {
    input: "424"
    input: "719"
    input: "720"
    output: "721"
    op_type: "Slice"
  }
  node {
    input: "721"
    output: "722"
    op_type: "Squeeze"
    attribute {
      name: "axes"
      ints: 0
    }
  }
  node {
    input: "20"
    output: "450"
    op_type: "Transpose"
    attribute {
      name: "perm"
      ints: 1
      ints: 0
    }
  }
  node {
    input: "722"
    input: "450"
    input: "22"
    output: "451"
    op_type: "Gemm"
    attribute {
      name: "alpha"
      f: 1
    }
    attribute {
      name: "beta"
      f: 1
    }
    attribute {
      name: "broadcast"
      i: 1
    }
  }
  node {
    input: "21"
    output: "452"
    op_type: "Transpose"
    attribute {
      name: "perm"
      ints: 1
      ints: 0
    }
  }
  node {
    input: "446"
    input: "452"
    input: "23"
    output: "453"
    op_type: "Gemm"
    attribute {
      name: "alpha"
      f: 1
    }
    attribute {
      name: "beta"
      f: 1
    }
    attribute {
      name: "broadcast"
      i: 1
    }
  }
  node {
    input: "451"
    input: "453"
    output: "454"
    op_type: "Add"
  }
  node {
    input: "454"
    output: "455"
    op_type: "Relu"
  }
  node {
    output: "723"
    op_type: "Constant"
    attribute {
      name: "value"
      t {
        dims: 3
        data_type: INT32
        raw_data: "\003\000\000\000\000\000\000\000\000\000\000\000"
      }
    }
  }
  node {
    output: "724"
    op_type: "Constant"
    attribute {
      name: "value"
      t {
        dims: 3
        data_type: INT32
        raw_data: "\004\000\000\000\005\000\000\000\005\000\000\000"
      }
    }
  }
  node {
    input: "424"
    input: "723"
    input: "724"
    output: "725"
    op_type: "Slice"
  }
  node {
    input: "725"
    output: "726"
    op_type: "Squeeze"
    attribute {
      name: "axes"
      ints: 0
    }
  }
  node {
    input: "20"
    output: "459"
    op_type: "Transpose"
    attribute {
      name: "perm"
      ints: 1
      ints: 0
    }
  }
  node {
    input: "726"
    input: "459"
    input: "22"
    output: "460"
    op_type: "Gemm"
    attribute {
      name: "alpha"
      f: 1
    }
    attribute {
      name: "beta"
      f: 1
    }
    attribute {
      name: "broadcast"
      i: 1
    }
  }
  node {
    input: "21"
    output: "461"
    op_type: "Transpose"
    attribute {
      name: "perm"
      ints: 1
      ints: 0
    }
  }
  node {
    input: "455"
    input: "461"
    input: "23"
    output: "462"
    op_type: "Gemm"
    attribute {
      name: "alpha"
      f: 1
    }
    attribute {
      name: "beta"
      f: 1
    }
    attribute {
      name: "broadcast"
      i: 1
    }
  }
  node {
    input: "460"
    input: "462"
    output: "463"
    op_type: "Add"
  }
  node {
    input: "463"
    output: "464"
    op_type: "Relu"
  }
  node {
    output: "727"
    op_type: "Constant"
    attribute {
      name: "value"
      t {
        dims: 3
        data_type: INT32
        raw_data: "\004\000\000\000\000\000\000\000\000\000\000\000"
      }
    }
  }
  node {
    output: "728"
    op_type: "Constant"
    attribute {
      name: "value"
      t {
        dims: 3
        data_type: INT32
        raw_data: "\005\000\000\000\005\000\000\000\005\000\000\000"
      }
    }
  }
  node {
    input: "424"
    input: "727"
    input: "728"
    output: "729"
    op_type: "Slice"
  }
  node {
    input: "729"
    output: "730"
    op_type: "Squeeze"
    attribute {
      name: "axes"
      ints: 0
    }
  }
  node {
    input: "20"
    output: "468"
    op_type: "Transpose"
    attribute {
      name: "perm"
      ints: 1
      ints: 0
    }
  }
  node {
    input: "730"
    input: "468"
    input: "22"
    output: "469"
    op_type: "Gemm"
    attribute {
      name: "alpha"
      f: 1
    }
    attribute {
      name: "beta"
      f: 1
    }
    attribute {
      name: "broadcast"
      i: 1
    }
  }
  node {
    input: "21"
    output: "470"
    op_type: "Transpose"
    attribute {
      name: "perm"
      ints: 1
      ints: 0
    }
  }
  node {
    input: "464"
    input: "470"
    input: "23"
    output: "471"
    op_type: "Gemm"
    attribute {
      name: "alpha"
      f: 1
    }
    attribute {
      name: "beta"
      f: 1
    }
    attribute {
      name: "broadcast"
      i: 1
    }
  }
  node {
    input: "469"
    input: "471"
    output: "472"
    op_type: "Add"
  }
  node {
    input: "472"
    output: "473"
    op_type: "Relu"
  }
  node {
    output: "731"
    op_type: "Constant"
    attribute {
      name: "value"
      t {
        dims: 3
        data_type: INT32
        raw_data: "\005\000\000\000\000\000\000\000\000\000\000\000"
      }
    }
  }
  node {
    output: "732"
    op_type: "Constant"
    attribute {
      name: "value"
      t {
        dims: 3
        data_type: INT32
        raw_data: "\006\000\000\000\005\000\000\000\005\000\000\000"
      }
    }
  }
  node {
    input: "424"
    input: "731"
    input: "732"
    output: "733"
    op_type: "Slice"
  }
  node {
    input: "733"
    output: "734"
    op_type: "Squeeze"
    attribute {
      name: "axes"
      ints: 0
    }
  }
  node {
    input: "20"
    output: "477"
    op_type: "Transpose"
    attribute {
      name: "perm"
      ints: 1
      ints: 0
    }
  }
  node {
    input: "734"
    input: "477"
    input: "22"
    output: "478"
    op_type: "Gemm"
    attribute {
      name: "alpha"
      f: 1
    }
    attribute {
      name: "beta"
      f: 1
    }
    attribute {
      name: "broadcast"
      i: 1
    }
  }
  node {
    input: "21"
    output: "479"
    op_type: "Transpose"
    attribute {
      name: "perm"
      ints: 1
      ints: 0
    }
  }
  node {
    input: "473"
    input: "479"
    input: "23"
    output: "480"
    op_type: "Gemm"
    attribute {
      name: "alpha"
      f: 1
    }
    attribute {
      name: "beta"
      f: 1
    }
    attribute {
      name: "broadcast"
      i: 1
    }
  }
  node {
    input: "478"
    input: "480"
    output: "481"
    op_type: "Add"
  }
  node {
    input: "481"
    output: "482"
    op_type: "Relu"
  }
  node {
    output: "735"
    op_type: "Constant"
    attribute {
      name: "value"
      t {
        dims: 3
        data_type: INT32
        raw_data: "\006\000\000\000\000\000\000\000\000\000\000\000"
      }
    }
  }
  node {
    output: "736"
    op_type: "Constant"
    attribute {
      name: "value"
      t {
        dims: 3
        data_type: INT32
        raw_data: "\007\000\000\000\005\000\000\000\005\000\000\000"
      }
    }
  }
  node {
    input: "424"
    input: "735"
    input: "736"
    output: "737"
    op_type: "Slice"
  }
  node {
    input: "737"
    output: "738"
    op_type: "Squeeze"
    attribute {
      name: "axes"
      ints: 0
    }
  }
  node {
    input: "20"
    output: "486"
    op_type: "Transpose"
    attribute {
      name: "perm"
      ints: 1
      ints: 0
    }
  }
  node {
    input: "738"
    input: "486"
    input: "22"
    output: "487"
    op_type: "Gemm"
    attribute {
      name: "alpha"
      f: 1
    }
    attribute {
      name: "beta"
      f: 1
    }
    attribute {
      name: "broadcast"
      i: 1
    }
  }
  node {
    input: "21"
    output: "488"
    op_type: "Transpose"
    attribute {
      name: "perm"
      ints: 1
      ints: 0
    }
  }
  node {
    input: "482"
    input: "488"
    input: "23"
    output: "489"
    op_type: "Gemm"
    attribute {
      name: "alpha"
      f: 1
    }
    attribute {
      name: "beta"
      f: 1
    }
    attribute {
      name: "broadcast"
      i: 1
    }
  }
  node {
    input: "487"
    input: "489"
    output: "490"
    op_type: "Add"
  }
  node {
    input: "490"
    output: "491"
    op_type: "Relu"
  }
  node {
    output: "739"
    op_type: "Constant"
    attribute {
      name: "value"
      t {
        dims: 3
        data_type: INT32
        raw_data: "\007\000\000\000\000\000\000\000\000\000\000\000"
      }
    }
  }
  node {
    output: "740"
    op_type: "Constant"
    attribute {
      name: "value"
      t {
        dims: 3
        data_type: INT32
        raw_data: "\010\000\000\000\005\000\000\000\005\000\000\000"
      }
    }
  }
  node {
    input: "424"
    input: "739"
    input: "740"
    output: "741"
    op_type: "Slice"
  }
  node {
    input: "741"
    output: "742"
    op_type: "Squeeze"
    attribute {
      name: "axes"
      ints: 0
    }
  }
  node {
    input: "20"
    output: "495"
    op_type: "Transpose"
    attribute {
      name: "perm"
      ints: 1
      ints: 0
    }
  }
  node {
    input: "742"
    input: "495"
    input: "22"
    output: "496"
    op_type: "Gemm"
    attribute {
      name: "alpha"
      f: 1
    }
    attribute {
      name: "beta"
      f: 1
    }
    attribute {
      name: "broadcast"
      i: 1
    }
  }
  node {
    input: "21"
    output: "497"
    op_type: "Transpose"
    attribute {
      name: "perm"
      ints: 1
      ints: 0
    }
  }
  node {
    input: "491"
    input: "497"
    input: "23"
    output: "498"
    op_type: "Gemm"
    attribute {
      name: "alpha"
      f: 1
    }
    attribute {
      name: "beta"
      f: 1
    }
    attribute {
      name: "broadcast"
      i: 1
    }
  }
  node {
    input: "496"
    input: "498"
    output: "499"
    op_type: "Add"
  }
  node {
    input: "499"
    output: "500"
    op_type: "Relu"
  }
  node {
    output: "743"
    op_type: "Constant"
    attribute {
      name: "value"
      t {
        dims: 3
        data_type: INT32
        raw_data: "\010\000\000\000\000\000\000\000\000\000\000\000"
      }
    }
  }
  node {
    output: "744"
    op_type: "Constant"
    attribute {
      name: "value"
      t {
        dims: 3
        data_type: INT32
        raw_data: "\t\000\000\000\005\000\000\000\005\000\000\000"
      }
    }
  }
  node {
    input: "424"
    input: "743"
    input: "744"
    output: "745"
    op_type: "Slice"
  }
  node {
    input: "745"
    output: "746"
    op_type: "Squeeze"
    attribute {
      name: "axes"
      ints: 0
    }
  }
  node {
    input: "20"
    output: "504"
    op_type: "Transpose"
    attribute {
      name: "perm"
      ints: 1
      ints: 0
    }
  }
  node {
    input: "746"
    input: "504"
    input: "22"
    output: "505"
    op_type: "Gemm"
    attribute {
      name: "alpha"
      f: 1
    }
    attribute {
      name: "beta"
      f: 1
    }
    attribute {
      name: "broadcast"
      i: 1
    }
  }
  node {
    input: "21"
    output: "506"
    op_type: "Transpose"
    attribute {
      name: "perm"
      ints: 1
      ints: 0
    }
  }
  node {
    input: "500"
    input: "506"
    input: "23"
    output: "507"
    op_type: "Gemm"
    attribute {
      name: "alpha"
      f: 1
    }
    attribute {
      name: "beta"
      f: 1
    }
    attribute {
      name: "broadcast"
      i: 1
    }
  }
  node {
    input: "505"
    input: "507"
    output: "508"
    op_type: "Add"
  }
  node {
    input: "508"
    output: "509"
    op_type: "Relu"
  }
  node {
    output: "747"
    op_type: "Constant"
    attribute {
      name: "value"
      t {
        dims: 3
        data_type: INT32
        raw_data: "\t\000\000\000\000\000\000\000\000\000\000\000"
      }
    }
  }
  node {
    output: "748"
    op_type: "Constant"
    attribute {
      name: "value"
      t {
        dims: 3
        data_type: INT32
        raw_data: "\n\000\000\000\005\000\000\000\005\000\000\000"
      }
    }
  }
  node {
    input: "424"
    input: "747"
    input: "748"
    output: "749"
    op_type: "Slice"
  }
  node {
    input: "749"
    output: "750"
    op_type: "Squeeze"
    attribute {
      name: "axes"
      ints: 0
    }
  }
  node {
    input: "20"
    output: "513"
    op_type: "Transpose"
    attribute {
      name: "perm"
      ints: 1
      ints: 0
    }
  }
  node {
    input: "750"
    input: "513"
    input: "22"
    output: "514"
    op_type: "Gemm"
    attribute {
      name: "alpha"
      f: 1
    }
    attribute {
      name: "beta"
      f: 1
    }
    attribute {
      name: "broadcast"
      i: 1
    }
  }
  node {
    input: "21"
    output: "515"
    op_type: "Transpose"
    attribute {
      name: "perm"
      ints: 1
      ints: 0
    }
  }
  node {
    input: "509"
    input: "515"
    input: "23"
    output: "516"
    op_type: "Gemm"
    attribute {
      name: "alpha"
      f: 1
    }
    attribute {
      name: "beta"
      f: 1
    }
    attribute {
      name: "broadcast"
      i: 1
    }
  }
  node {
    input: "514"
    input: "516"
    output: "517"
    op_type: "Add"
  }
  node {
    input: "517"
    output: "518"
    op_type: "Relu"
  }
  node {
    input: "437"
    input: "446"
    input: "455"
    input: "464"
    input: "473"
    input: "482"
    input: "491"
    input: "500"
    input: "509"
    input: "518"
    output: "519"
    op_type: "Concat"
    attribute {
      name: "axis"
      i: 0
    }
  }
  node {
    input: "519"
    output: "520"
    op_type: "Reshape"
    attribute {
      name: "shape"
      ints: 10
      ints: 5
      ints: 5
    }
  }
  node {
    input: "520"
    output: "521"
    op_type: "Concat"
    attribute {
      name: "axis"
      i: 2
    }
  }
  node {
    input: "122"
    input: "221"
    input: "320"
    input: "419"
    input: "518"
    output: "522"
    op_type: "Concat"
    attribute {
      name: "axis"
      i: 0
    }
  }
  node {
    input: "522"
    output: "523"
    op_type: "Reshape"
    attribute {
      name: "shape"
      ints: 5
      ints: 5
      ints: 5
    }
  }
  node {
    input: "521"
    output: "525"
    output: "526"
    op_type: "Dropout"
    attribute {
      name: "ratio"
      f: 0.200000002980232
    }
    attribute {
      name: "is_test"
      i: 1
    }
  }
  node {
    input: "525"
    output: "527"
    op_type: "Reshape"
    attribute {
      name: "shape"
      ints: 50
      ints: 5
    }
  }
  node {
    input: "24"
    output: "528"
    op_type: "Transpose"
    attribute {
      name: "perm"
      ints: 1
      ints: 0
    }
  }
  node {
    input: "527"
    input: "528"
    input: "25"
    output: "529"
    op_type: "Gemm"
    attribute {
      name: "alpha"
      f: 1
    }
    attribute {
      name: "beta"
      f: 1
    }
    attribute {
      name: "broadcast"
      i: 1
    }
  }
  node {
    input: "529"
    output: "530"
    op_type: "Reshape"
    attribute {
      name: "shape"
      ints: 10
      ints: 5
      ints: 10
    }
  }
  name: "torch-jit-export"
  input {
    name: "1"
    type {
      tensor_type {
        elem_type: INT64
        shape {
          dim {
            dim_value: 10
          }
          dim {
            dim_value: 5
          }
        }
      }
    }
  }
  input {
    name: "2"
    type {
      tensor_type {
        elem_type: FLOAT
        shape {
          dim {
            dim_value: 5
          }
          dim {
            dim_value: 5
          }
          dim {
            dim_value: 5
          }
        }
      }
    }
  }
  input {
    name: "3"
    type {
      tensor_type {
        elem_type: FLOAT
        shape {
          dim {
            dim_value: 10
          }
          dim {
            dim_value: 5
          }
        }
      }
    }
  }
  input {
    name: "4"
    type {
      tensor_type {
        elem_type: FLOAT
        shape {
          dim {
            dim_value: 5
          }
          dim {
            dim_value: 5
          }
        }
      }
    }
  }
  input {
    name: "5"
    type {
      tensor_type {
        elem_type: FLOAT
        shape {
          dim {
            dim_value: 5
          }
          dim {
            dim_value: 5
          }
        }
      }
    }
  }
  input {
    name: "6"
    type {
      tensor_type {
        elem_type: FLOAT
        shape {
          dim {
            dim_value: 5
          }
        }
      }
    }
  }
  input {
    name: "7"
    type {
      tensor_type {
        elem_type: FLOAT
        shape {
          dim {
            dim_value: 5
          }
        }
      }
    }
  }
  input {
    name: "8"
    type {
      tensor_type {
        elem_type: FLOAT
        shape {
          dim {
            dim_value: 5
          }
          dim {
            dim_value: 5
          }
        }
      }
    }
  }
  input {
    name: "9"
    type {
      tensor_type {
        elem_type: FLOAT
        shape {
          dim {
            dim_value: 5
          }
          dim {
            dim_value: 5
          }
        }
      }
    }
  }
  input {
    name: "10"
    type {
      tensor_type {
        elem_type: FLOAT
        shape {
          dim {
            dim_value: 5
          }
        }
      }
    }
  }
  input {
    name: "11"
    type {
      tensor_type {
        elem_type: FLOAT
        shape {
          dim {
            dim_value: 5
          }
        }
      }
    }
  }
  input {
    name: "12"
    type {
      tensor_type {
        elem_type: FLOAT
        shape {
          dim {
            dim_value: 5
          }
          dim {
            dim_value: 5
          }
        }
      }
    }
  }
  input {
    name: "13"
    type {
      tensor_type {
        elem_type: FLOAT
        shape {
          dim {
            dim_value: 5
          }
          dim {
            dim_value: 5
          }
        }
      }
    }
  }
  input {
    name: "14"
    type {
      tensor_type {
        elem_type: FLOAT
        shape {
          dim {
            dim_value: 5
          }
        }
      }
    }
  }
  input {
    name: "15"
    type {
      tensor_type {
        elem_type: FLOAT
        shape {
          dim {
            dim_value: 5
          }
        }
      }
    }
  }
  input {
    name: "16"
    type {
      tensor_type {
        elem_type: FLOAT
        shape {
          dim {
            dim_value: 5
          }
          dim {
            dim_value: 5
          }
        }
      }
    }
  }
  input {
    name: "17"
    type {
      tensor_type {
        elem_type: FLOAT
        shape {
          dim {
            dim_value: 5
          }
          dim {
            dim_value: 5
          }
        }
      }
    }
  }
  input {
    name: "18"
    type {
      tensor_type {
        elem_type: FLOAT
        shape {
          dim {
            dim_value: 5
          }
        }
      }
    }
  }
  input {
    name: "19"
    type {
      tensor_type {
        elem_type: FLOAT
        shape {
          dim {
            dim_value: 5
          }
        }
      }
    }
  }
  input {
    name: "20"
    type {
      tensor_type {
        elem_type: FLOAT
        shape {
          dim {
            dim_value: 5
          }
          dim {
            dim_value: 5
          }
        }
      }
    }
  }
  input {
    name: "21"
    type {
      tensor_type {
        elem_type: FLOAT
        shape {
          dim {
            dim_value: 5
          }
          dim {
            dim_value: 5
          }
        }
      }
    }
  }
  input {
    name: "22"
    type {
      tensor_type {
        elem_type: FLOAT
        shape {
          dim {
            dim_value: 5
          }
        }
      }
    }
  }
  input {
    name: "23"
    type {
      tensor_type {
        elem_type: FLOAT
        shape {
          dim {
            dim_value: 5
          }
        }
      }
    }
  }
  input {
    name: "24"
    type {
      tensor_type {
        elem_type: FLOAT
        shape {
          dim {
            dim_value: 10
          }
          dim {
            dim_value: 5
          }
        }
      }
    }
  }
  input {
    name: "25"
    type {
      tensor_type {
        elem_type: FLOAT
        shape {
          dim {
            dim_value: 10
          }
        }
      }
    }
  }
  output {
    name: "530"
    type {
      tensor_type {
        elem_type: FLOAT
        shape {
          dim {
            dim_value: 10
          }
          dim {
            dim_value: 5
          }
          dim {
            dim_value: 10
          }
        }
      }
    }
  }
}
