ir_version: 1
producer_name: "pytorch"
producer_version: "0.2"
domain: "com.facebook"
graph {
  node {
    input: "4"
    input: "1"
    output: "27"
    op_type: "Gather"
  }
  node {
    input: "27"
    output: "29"
    output: "30"
    op_type: "Dropout"
    attribute {
      name: "is_test"
      i: 1
    }
    attribute {
      name: "ratio"
      f: 0.200000002980232
    }
  }
  node {
    output: "31"
    op_type: "Constant"
    attribute {
      name: "value"
      t {
        dims: 1
        data_type: INT32
        raw_data: "\000\000\000\000"
      }
    }
  }
  node {
    output: "32"
    op_type: "Constant"
    attribute {
      name: "value"
      t {
        dims: 1
        data_type: INT64
        raw_data: "\000\000\000\000\000\000\000\000"
      }
    }
  }
  node {
    output: "33"
    op_type: "Constant"
    attribute {
      name: "value"
      t {
        dims: 1
        data_type: INT64
        raw_data: "\001\000\000\000\000\000\000\000"
      }
    }
  }
  node {
    input: "2"
    input: "31"
    input: "32"
    input: "33"
    output: "34"
    op_type: "Slice"
  }
  node {
    input: "34"
    output: "35"
    op_type: "Squeeze"
    attribute {
      name: "axes"
      ints: 0
    }
  }
  node {
    output: "36"
    op_type: "Constant"
    attribute {
      name: "value"
      t {
        dims: 1
        data_type: INT32
        raw_data: "\000\000\000\000"
      }
    }
  }
  node {
    output: "37"
    op_type: "Constant"
    attribute {
      name: "value"
      t {
        dims: 1
        data_type: INT64
        raw_data: "\000\000\000\000\000\000\000\000"
      }
    }
  }
  node {
    output: "38"
    op_type: "Constant"
    attribute {
      name: "value"
      t {
        dims: 1
        data_type: INT64
        raw_data: "\001\000\000\000\000\000\000\000"
      }
    }
  }
  node {
    input: "3"
    input: "36"
    input: "37"
    input: "38"
    output: "39"
    op_type: "Slice"
  }
  node {
    input: "39"
    output: "40"
    op_type: "Squeeze"
    attribute {
      name: "axes"
      ints: 0
    }
  }
  node {
    output: "41"
    op_type: "Constant"
    attribute {
      name: "value"
      t {
        dims: 1
        data_type: INT32
        raw_data: "\000\000\000\000"
      }
    }
  }
  node {
    output: "42"
    op_type: "Constant"
    attribute {
      name: "value"
      t {
        dims: 1
        data_type: INT64
        raw_data: "\001\000\000\000\000\000\000\000"
      }
    }
  }
  node {
    output: "43"
    op_type: "Constant"
    attribute {
      name: "value"
      t {
        dims: 1
        data_type: INT64
        raw_data: "\002\000\000\000\000\000\000\000"
      }
    }
  }
  node {
    input: "2"
    input: "41"
    input: "42"
    input: "43"
    output: "44"
    op_type: "Slice"
  }
  node {
    input: "44"
    output: "45"
    op_type: "Squeeze"
    attribute {
      name: "axes"
      ints: 0
    }
  }
  node {
    output: "46"
    op_type: "Constant"
    attribute {
      name: "value"
      t {
        dims: 1
        data_type: INT32
        raw_data: "\000\000\000\000"
      }
    }
  }
  node {
    output: "47"
    op_type: "Constant"
    attribute {
      name: "value"
      t {
        dims: 1
        data_type: INT64
        raw_data: "\001\000\000\000\000\000\000\000"
      }
    }
  }
  node {
    output: "48"
    op_type: "Constant"
    attribute {
      name: "value"
      t {
        dims: 1
        data_type: INT64
        raw_data: "\002\000\000\000\000\000\000\000"
      }
    }
  }
  node {
    input: "3"
    input: "46"
    input: "47"
    input: "48"
    output: "49"
    op_type: "Slice"
  }
  node {
    input: "49"
    output: "50"
    op_type: "Squeeze"
    attribute {
      name: "axes"
      ints: 0
    }
  }
  node {
    output: "51"
    op_type: "Constant"
    attribute {
      name: "value"
      t {
        dims: 1
        data_type: INT32
        raw_data: "\000\000\000\000"
      }
    }
  }
  node {
    output: "52"
    op_type: "Constant"
    attribute {
      name: "value"
      t {
        dims: 1
        data_type: INT64
        raw_data: "\002\000\000\000\000\000\000\000"
      }
    }
  }
  node {
    output: "53"
    op_type: "Constant"
    attribute {
      name: "value"
      t {
        dims: 1
        data_type: INT64
        raw_data: "\003\000\000\000\000\000\000\000"
      }
    }
  }
  node {
    input: "2"
    input: "51"
    input: "52"
    input: "53"
    output: "54"
    op_type: "Slice"
  }
  node {
    input: "54"
    output: "55"
    op_type: "Squeeze"
    attribute {
      name: "axes"
      ints: 0
    }
  }
  node {
    output: "56"
    op_type: "Constant"
    attribute {
      name: "value"
      t {
        dims: 1
        data_type: INT32
        raw_data: "\000\000\000\000"
      }
    }
  }
  node {
    output: "57"
    op_type: "Constant"
    attribute {
      name: "value"
      t {
        dims: 1
        data_type: INT64
        raw_data: "\002\000\000\000\000\000\000\000"
      }
    }
  }
  node {
    output: "58"
    op_type: "Constant"
    attribute {
      name: "value"
      t {
        dims: 1
        data_type: INT64
        raw_data: "\003\000\000\000\000\000\000\000"
      }
    }
  }
  node {
    input: "3"
    input: "56"
    input: "57"
    input: "58"
    output: "59"
    op_type: "Slice"
  }
  node {
    input: "59"
    output: "60"
    op_type: "Squeeze"
    attribute {
      name: "axes"
      ints: 0
    }
  }
  node {
    output: "61"
    op_type: "Constant"
    attribute {
      name: "value"
      t {
        dims: 1
        data_type: INT32
        raw_data: "\000\000\000\000"
      }
    }
  }
  node {
    output: "62"
    op_type: "Constant"
    attribute {
      name: "value"
      t {
        dims: 1
        data_type: INT64
        raw_data: "\003\000\000\000\000\000\000\000"
      }
    }
  }
  node {
    output: "63"
    op_type: "Constant"
    attribute {
      name: "value"
      t {
        dims: 1
        data_type: INT64
        raw_data: "\004\000\000\000\000\000\000\000"
      }
    }
  }
  node {
    input: "2"
    input: "61"
    input: "62"
    input: "63"
    output: "64"
    op_type: "Slice"
  }
  node {
    input: "64"
    output: "65"
    op_type: "Squeeze"
    attribute {
      name: "axes"
      ints: 0
    }
  }
  node {
    output: "66"
    op_type: "Constant"
    attribute {
      name: "value"
      t {
        dims: 1
        data_type: INT32
        raw_data: "\000\000\000\000"
      }
    }
  }
  node {
    output: "67"
    op_type: "Constant"
    attribute {
      name: "value"
      t {
        dims: 1
        data_type: INT64
        raw_data: "\003\000\000\000\000\000\000\000"
      }
    }
  }
  node {
    output: "68"
    op_type: "Constant"
    attribute {
      name: "value"
      t {
        dims: 1
        data_type: INT64
        raw_data: "\004\000\000\000\000\000\000\000"
      }
    }
  }
  node {
    input: "3"
    input: "66"
    input: "67"
    input: "68"
    output: "69"
    op_type: "Slice"
  }
  node {
    input: "69"
    output: "70"
    op_type: "Squeeze"
    attribute {
      name: "axes"
      ints: 0
    }
  }
  node {
    output: "71"
    op_type: "Constant"
    attribute {
      name: "value"
      t {
        dims: 1
        data_type: INT32
        raw_data: "\000\000\000\000"
      }
    }
  }
  node {
    output: "72"
    op_type: "Constant"
    attribute {
      name: "value"
      t {
        dims: 1
        data_type: INT64
        raw_data: "\004\000\000\000\000\000\000\000"
      }
    }
  }
  node {
    output: "73"
    op_type: "Constant"
    attribute {
      name: "value"
      t {
        dims: 1
        data_type: INT64
        raw_data: "\005\000\000\000\000\000\000\000"
      }
    }
  }
  node {
    input: "2"
    input: "71"
    input: "72"
    input: "73"
    output: "74"
    op_type: "Slice"
  }
  node {
    input: "74"
    output: "75"
    op_type: "Squeeze"
    attribute {
      name: "axes"
      ints: 0
    }
  }
  node {
    output: "76"
    op_type: "Constant"
    attribute {
      name: "value"
      t {
        dims: 1
        data_type: INT32
        raw_data: "\000\000\000\000"
      }
    }
  }
  node {
    output: "77"
    op_type: "Constant"
    attribute {
      name: "value"
      t {
        dims: 1
        data_type: INT64
        raw_data: "\004\000\000\000\000\000\000\000"
      }
    }
  }
  node {
    output: "78"
    op_type: "Constant"
    attribute {
      name: "value"
      t {
        dims: 1
        data_type: INT64
        raw_data: "\005\000\000\000\000\000\000\000"
      }
    }
  }
  node {
    input: "3"
    input: "76"
    input: "77"
    input: "78"
    output: "79"
    op_type: "Slice"
  }
  node {
    input: "79"
    output: "80"
    op_type: "Squeeze"
    attribute {
      name: "axes"
      ints: 0
    }
  }
  node {
    output: "81"
    op_type: "Constant"
    attribute {
      name: "value"
      t {
        dims: 1
        data_type: INT32
        raw_data: "\000\000\000\000"
      }
    }
  }
  node {
    output: "82"
    op_type: "Constant"
    attribute {
      name: "value"
      t {
        dims: 1
        data_type: INT64
        raw_data: "\000\000\000\000\000\000\000\000"
      }
    }
  }
  node {
    output: "83"
    op_type: "Constant"
    attribute {
      name: "value"
      t {
        dims: 1
        data_type: INT64
        raw_data: "\001\000\000\000\000\000\000\000"
      }
    }
  }
  node {
    input: "29"
    input: "81"
    input: "82"
    input: "83"
    output: "84"
    op_type: "Slice"
  }
  node {
    input: "84"
    output: "85"
    op_type: "Squeeze"
    attribute {
      name: "axes"
      ints: 0
    }
  }
  node {
    input: "5"
    output: "86"
    op_type: "Transpose"
    attribute {
      name: "perm"
      ints: 1
      ints: 0
    }
  }
  node {
    input: "85"
    input: "86"
    input: "7"
    output: "1420"
    op_type: "Gemm"
    attribute {
      name: "alpha"
      f: 1
    }
    attribute {
      name: "beta"
      f: 1
    }
    attribute {
      name: "broadcast"
      i: 1
    }
  }
  node {
    input: "6"
    output: "89"
    op_type: "Transpose"
    attribute {
      name: "perm"
      ints: 1
      ints: 0
    }
  }
  node {
    input: "35"
    input: "89"
    input: "8"
    output: "1421"
    op_type: "Gemm"
    attribute {
      name: "alpha"
      f: 1
    }
    attribute {
      name: "beta"
      f: 1
    }
    attribute {
      name: "broadcast"
      i: 1
    }
  }
  node {
    input: "1420"
    input: "1421"
    output: "92"
    op_type: "Add"
  }
  node {
    input: "92"
    output: "94"
    output: "95"
    output: "96"
    output: "97"
    op_type: "Split"
    attribute {
      name: "axis"
      i: 1
    }
    attribute {
      name: "split"
      ints: 5
      ints: 5
      ints: 5
      ints: 5
    }
  }
  node {
    input: "94"
    output: "98"
    op_type: "Sigmoid"
  }
  node {
    input: "95"
    output: "99"
    op_type: "Sigmoid"
  }
  node {
    input: "96"
    output: "100"
    op_type: "Tanh"
  }
  node {
    input: "97"
    output: "101"
    op_type: "Sigmoid"
  }
  node {
    input: "99"
    input: "40"
    output: "102"
    op_type: "Mul"
  }
  node {
    input: "98"
    input: "100"
    output: "103"
    op_type: "Mul"
  }
  node {
    input: "102"
    input: "103"
    output: "104"
    op_type: "Add"
  }
  node {
    input: "104"
    output: "105"
    op_type: "Tanh"
  }
  node {
    input: "101"
    input: "105"
    output: "106"
    op_type: "Mul"
  }
  node {
    output: "107"
    op_type: "Constant"
    attribute {
      name: "value"
      t {
        dims: 1
        data_type: INT32
        raw_data: "\000\000\000\000"
      }
    }
  }
  node {
    output: "108"
    op_type: "Constant"
    attribute {
      name: "value"
      t {
        dims: 1
        data_type: INT64
        raw_data: "\001\000\000\000\000\000\000\000"
      }
    }
  }
  node {
    output: "109"
    op_type: "Constant"
    attribute {
      name: "value"
      t {
        dims: 1
        data_type: INT64
        raw_data: "\002\000\000\000\000\000\000\000"
      }
    }
  }
  node {
    input: "29"
    input: "107"
    input: "108"
    input: "109"
    output: "110"
    op_type: "Slice"
  }
  node {
    input: "110"
    output: "111"
    op_type: "Squeeze"
    attribute {
      name: "axes"
      ints: 0
    }
  }
  node {
    input: "5"
    output: "112"
    op_type: "Transpose"
    attribute {
      name: "perm"
      ints: 1
      ints: 0
    }
  }
  node {
    input: "111"
    input: "112"
    input: "7"
    output: "1422"
    op_type: "Gemm"
    attribute {
      name: "alpha"
      f: 1
    }
    attribute {
      name: "beta"
      f: 1
    }
    attribute {
      name: "broadcast"
      i: 1
    }
  }
  node {
    input: "6"
    output: "115"
    op_type: "Transpose"
    attribute {
      name: "perm"
      ints: 1
      ints: 0
    }
  }
  node {
    input: "106"
    input: "115"
    input: "8"
    output: "1423"
    op_type: "Gemm"
    attribute {
      name: "alpha"
      f: 1
    }
    attribute {
      name: "beta"
      f: 1
    }
    attribute {
      name: "broadcast"
      i: 1
    }
  }
  node {
    input: "1422"
    input: "1423"
    output: "118"
    op_type: "Add"
  }
  node {
    input: "118"
    output: "120"
    output: "121"
    output: "122"
    output: "123"
    op_type: "Split"
    attribute {
      name: "axis"
      i: 1
    }
    attribute {
      name: "split"
      ints: 5
      ints: 5
      ints: 5
      ints: 5
    }
  }
  node {
    input: "120"
    output: "124"
    op_type: "Sigmoid"
  }
  node {
    input: "121"
    output: "125"
    op_type: "Sigmoid"
  }
  node {
    input: "122"
    output: "126"
    op_type: "Tanh"
  }
  node {
    input: "123"
    output: "127"
    op_type: "Sigmoid"
  }
  node {
    input: "125"
    input: "104"
    output: "128"
    op_type: "Mul"
  }
  node {
    input: "124"
    input: "126"
    output: "129"
    op_type: "Mul"
  }
  node {
    input: "128"
    input: "129"
    output: "130"
    op_type: "Add"
  }
  node {
    input: "130"
    output: "131"
    op_type: "Tanh"
  }
  node {
    input: "127"
    input: "131"
    output: "132"
    op_type: "Mul"
  }
  node {
    output: "133"
    op_type: "Constant"
    attribute {
      name: "value"
      t {
        dims: 1
        data_type: INT32
        raw_data: "\000\000\000\000"
      }
    }
  }
  node {
    output: "134"
    op_type: "Constant"
    attribute {
      name: "value"
      t {
        dims: 1
        data_type: INT64
        raw_data: "\002\000\000\000\000\000\000\000"
      }
    }
  }
  node {
    output: "135"
    op_type: "Constant"
    attribute {
      name: "value"
      t {
        dims: 1
        data_type: INT64
        raw_data: "\003\000\000\000\000\000\000\000"
      }
    }
  }
  node {
    input: "29"
    input: "133"
    input: "134"
    input: "135"
    output: "136"
    op_type: "Slice"
  }
  node {
    input: "136"
    output: "137"
    op_type: "Squeeze"
    attribute {
      name: "axes"
      ints: 0
    }
  }
  node {
    input: "5"
    output: "138"
    op_type: "Transpose"
    attribute {
      name: "perm"
      ints: 1
      ints: 0
    }
  }
  node {
    input: "137"
    input: "138"
    input: "7"
    output: "1424"
    op_type: "Gemm"
    attribute {
      name: "alpha"
      f: 1
    }
    attribute {
      name: "beta"
      f: 1
    }
    attribute {
      name: "broadcast"
      i: 1
    }
  }
  node {
    input: "6"
    output: "141"
    op_type: "Transpose"
    attribute {
      name: "perm"
      ints: 1
      ints: 0
    }
  }
  node {
    input: "132"
    input: "141"
    input: "8"
    output: "1425"
    op_type: "Gemm"
    attribute {
      name: "alpha"
      f: 1
    }
    attribute {
      name: "beta"
      f: 1
    }
    attribute {
      name: "broadcast"
      i: 1
    }
  }
  node {
    input: "1424"
    input: "1425"
    output: "144"
    op_type: "Add"
  }
  node {
    input: "144"
    output: "146"
    output: "147"
    output: "148"
    output: "149"
    op_type: "Split"
    attribute {
      name: "axis"
      i: 1
    }
    attribute {
      name: "split"
      ints: 5
      ints: 5
      ints: 5
      ints: 5
    }
  }
  node {
    input: "146"
    output: "150"
    op_type: "Sigmoid"
  }
  node {
    input: "147"
    output: "151"
    op_type: "Sigmoid"
  }
  node {
    input: "148"
    output: "152"
    op_type: "Tanh"
  }
  node {
    input: "149"
    output: "153"
    op_type: "Sigmoid"
  }
  node {
    input: "151"
    input: "130"
    output: "154"
    op_type: "Mul"
  }
  node {
    input: "150"
    input: "152"
    output: "155"
    op_type: "Mul"
  }
  node {
    input: "154"
    input: "155"
    output: "156"
    op_type: "Add"
  }
  node {
    input: "156"
    output: "157"
    op_type: "Tanh"
  }
  node {
    input: "153"
    input: "157"
    output: "158"
    op_type: "Mul"
  }
  node {
    output: "159"
    op_type: "Constant"
    attribute {
      name: "value"
      t {
        dims: 1
        data_type: INT32
        raw_data: "\000\000\000\000"
      }
    }
  }
  node {
    output: "160"
    op_type: "Constant"
    attribute {
      name: "value"
      t {
        dims: 1
        data_type: INT64
        raw_data: "\003\000\000\000\000\000\000\000"
      }
    }
  }
  node {
    output: "161"
    op_type: "Constant"
    attribute {
      name: "value"
      t {
        dims: 1
        data_type: INT64
        raw_data: "\004\000\000\000\000\000\000\000"
      }
    }
  }
  node {
    input: "29"
    input: "159"
    input: "160"
    input: "161"
    output: "162"
    op_type: "Slice"
  }
  node {
    input: "162"
    output: "163"
    op_type: "Squeeze"
    attribute {
      name: "axes"
      ints: 0
    }
  }
  node {
    input: "5"
    output: "164"
    op_type: "Transpose"
    attribute {
      name: "perm"
      ints: 1
      ints: 0
    }
  }
  node {
    input: "163"
    input: "164"
    input: "7"
    output: "1426"
    op_type: "Gemm"
    attribute {
      name: "alpha"
      f: 1
    }
    attribute {
      name: "beta"
      f: 1
    }
    attribute {
      name: "broadcast"
      i: 1
    }
  }
  node {
    input: "6"
    output: "167"
    op_type: "Transpose"
    attribute {
      name: "perm"
      ints: 1
      ints: 0
    }
  }
  node {
    input: "158"
    input: "167"
    input: "8"
    output: "1427"
    op_type: "Gemm"
    attribute {
      name: "alpha"
      f: 1
    }
    attribute {
      name: "beta"
      f: 1
    }
    attribute {
      name: "broadcast"
      i: 1
    }
  }
  node {
    input: "1426"
    input: "1427"
    output: "170"
    op_type: "Add"
  }
  node {
    input: "170"
    output: "172"
    output: "173"
    output: "174"
    output: "175"
    op_type: "Split"
    attribute {
      name: "axis"
      i: 1
    }
    attribute {
      name: "split"
      ints: 5
      ints: 5
      ints: 5
      ints: 5
    }
  }
  node {
    input: "172"
    output: "176"
    op_type: "Sigmoid"
  }
  node {
    input: "173"
    output: "177"
    op_type: "Sigmoid"
  }
  node {
    input: "174"
    output: "178"
    op_type: "Tanh"
  }
  node {
    input: "175"
    output: "179"
    op_type: "Sigmoid"
  }
  node {
    input: "177"
    input: "156"
    output: "180"
    op_type: "Mul"
  }
  node {
    input: "176"
    input: "178"
    output: "181"
    op_type: "Mul"
  }
  node {
    input: "180"
    input: "181"
    output: "182"
    op_type: "Add"
  }
  node {
    input: "182"
    output: "183"
    op_type: "Tanh"
  }
  node {
    input: "179"
    input: "183"
    output: "184"
    op_type: "Mul"
  }
  node {
    output: "185"
    op_type: "Constant"
    attribute {
      name: "value"
      t {
        dims: 1
        data_type: INT32
        raw_data: "\000\000\000\000"
      }
    }
  }
  node {
    output: "186"
    op_type: "Constant"
    attribute {
      name: "value"
      t {
        dims: 1
        data_type: INT64
        raw_data: "\004\000\000\000\000\000\000\000"
      }
    }
  }
  node {
    output: "187"
    op_type: "Constant"
    attribute {
      name: "value"
      t {
        dims: 1
        data_type: INT64
        raw_data: "\005\000\000\000\000\000\000\000"
      }
    }
  }
  node {
    input: "29"
    input: "185"
    input: "186"
    input: "187"
    output: "188"
    op_type: "Slice"
  }
  node {
    input: "188"
    output: "189"
    op_type: "Squeeze"
    attribute {
      name: "axes"
      ints: 0
    }
  }
  node {
    input: "5"
    output: "190"
    op_type: "Transpose"
    attribute {
      name: "perm"
      ints: 1
      ints: 0
    }
  }
  node {
    input: "189"
    input: "190"
    input: "7"
    output: "1428"
    op_type: "Gemm"
    attribute {
      name: "alpha"
      f: 1
    }
    attribute {
      name: "beta"
      f: 1
    }
    attribute {
      name: "broadcast"
      i: 1
    }
  }
  node {
    input: "6"
    output: "193"
    op_type: "Transpose"
    attribute {
      name: "perm"
      ints: 1
      ints: 0
    }
  }
  node {
    input: "184"
    input: "193"
    input: "8"
    output: "1429"
    op_type: "Gemm"
    attribute {
      name: "alpha"
      f: 1
    }
    attribute {
      name: "beta"
      f: 1
    }
    attribute {
      name: "broadcast"
      i: 1
    }
  }
  node {
    input: "1428"
    input: "1429"
    output: "196"
    op_type: "Add"
  }
  node {
    input: "196"
    output: "198"
    output: "199"
    output: "200"
    output: "201"
    op_type: "Split"
    attribute {
      name: "axis"
      i: 1
    }
    attribute {
      name: "split"
      ints: 5
      ints: 5
      ints: 5
      ints: 5
    }
  }
  node {
    input: "198"
    output: "202"
    op_type: "Sigmoid"
  }
  node {
    input: "199"
    output: "203"
    op_type: "Sigmoid"
  }
  node {
    input: "200"
    output: "204"
    op_type: "Tanh"
  }
  node {
    input: "201"
    output: "205"
    op_type: "Sigmoid"
  }
  node {
    input: "203"
    input: "182"
    output: "206"
    op_type: "Mul"
  }
  node {
    input: "202"
    input: "204"
    output: "207"
    op_type: "Mul"
  }
  node {
    input: "206"
    input: "207"
    output: "208"
    op_type: "Add"
  }
  node {
    input: "208"
    output: "209"
    op_type: "Tanh"
  }
  node {
    input: "205"
    input: "209"
    output: "210"
    op_type: "Mul"
  }
  node {
    output: "211"
    op_type: "Constant"
    attribute {
      name: "value"
      t {
        dims: 1
        data_type: INT32
        raw_data: "\000\000\000\000"
      }
    }
  }
  node {
    output: "212"
    op_type: "Constant"
    attribute {
      name: "value"
      t {
        dims: 1
        data_type: INT64
        raw_data: "\005\000\000\000\000\000\000\000"
      }
    }
  }
  node {
    output: "213"
    op_type: "Constant"
    attribute {
      name: "value"
      t {
        dims: 1
        data_type: INT64
        raw_data: "\006\000\000\000\000\000\000\000"
      }
    }
  }
  node {
    input: "29"
    input: "211"
    input: "212"
    input: "213"
    output: "214"
    op_type: "Slice"
  }
  node {
    input: "214"
    output: "215"
    op_type: "Squeeze"
    attribute {
      name: "axes"
      ints: 0
    }
  }
  node {
    input: "5"
    output: "216"
    op_type: "Transpose"
    attribute {
      name: "perm"
      ints: 1
      ints: 0
    }
  }
  node {
    input: "215"
    input: "216"
    input: "7"
    output: "1430"
    op_type: "Gemm"
    attribute {
      name: "alpha"
      f: 1
    }
    attribute {
      name: "beta"
      f: 1
    }
    attribute {
      name: "broadcast"
      i: 1
    }
  }
  node {
    input: "6"
    output: "219"
    op_type: "Transpose"
    attribute {
      name: "perm"
      ints: 1
      ints: 0
    }
  }
  node {
    input: "210"
    input: "219"
    input: "8"
    output: "1431"
    op_type: "Gemm"
    attribute {
      name: "alpha"
      f: 1
    }
    attribute {
      name: "beta"
      f: 1
    }
    attribute {
      name: "broadcast"
      i: 1
    }
  }
  node {
    input: "1430"
    input: "1431"
    output: "222"
    op_type: "Add"
  }
  node {
    input: "222"
    output: "224"
    output: "225"
    output: "226"
    output: "227"
    op_type: "Split"
    attribute {
      name: "axis"
      i: 1
    }
    attribute {
      name: "split"
      ints: 5
      ints: 5
      ints: 5
      ints: 5
    }
  }
  node {
    input: "224"
    output: "228"
    op_type: "Sigmoid"
  }
  node {
    input: "225"
    output: "229"
    op_type: "Sigmoid"
  }
  node {
    input: "226"
    output: "230"
    op_type: "Tanh"
  }
  node {
    input: "227"
    output: "231"
    op_type: "Sigmoid"
  }
  node {
    input: "229"
    input: "208"
    output: "232"
    op_type: "Mul"
  }
  node {
    input: "228"
    input: "230"
    output: "233"
    op_type: "Mul"
  }
  node {
    input: "232"
    input: "233"
    output: "234"
    op_type: "Add"
  }
  node {
    input: "234"
    output: "235"
    op_type: "Tanh"
  }
  node {
    input: "231"
    input: "235"
    output: "236"
    op_type: "Mul"
  }
  node {
    output: "237"
    op_type: "Constant"
    attribute {
      name: "value"
      t {
        dims: 1
        data_type: INT32
        raw_data: "\000\000\000\000"
      }
    }
  }
  node {
    output: "238"
    op_type: "Constant"
    attribute {
      name: "value"
      t {
        dims: 1
        data_type: INT64
        raw_data: "\006\000\000\000\000\000\000\000"
      }
    }
  }
  node {
    output: "239"
    op_type: "Constant"
    attribute {
      name: "value"
      t {
        dims: 1
        data_type: INT64
        raw_data: "\007\000\000\000\000\000\000\000"
      }
    }
  }
  node {
    input: "29"
    input: "237"
    input: "238"
    input: "239"
    output: "240"
    op_type: "Slice"
  }
  node {
    input: "240"
    output: "241"
    op_type: "Squeeze"
    attribute {
      name: "axes"
      ints: 0
    }
  }
  node {
    input: "5"
    output: "242"
    op_type: "Transpose"
    attribute {
      name: "perm"
      ints: 1
      ints: 0
    }
  }
  node {
    input: "241"
    input: "242"
    input: "7"
    output: "1432"
    op_type: "Gemm"
    attribute {
      name: "alpha"
      f: 1
    }
    attribute {
      name: "beta"
      f: 1
    }
    attribute {
      name: "broadcast"
      i: 1
    }
  }
  node {
    input: "6"
    output: "245"
    op_type: "Transpose"
    attribute {
      name: "perm"
      ints: 1
      ints: 0
    }
  }
  node {
    input: "236"
    input: "245"
    input: "8"
    output: "1433"
    op_type: "Gemm"
    attribute {
      name: "alpha"
      f: 1
    }
    attribute {
      name: "beta"
      f: 1
    }
    attribute {
      name: "broadcast"
      i: 1
    }
  }
  node {
    input: "1432"
    input: "1433"
    output: "248"
    op_type: "Add"
  }
  node {
    input: "248"
    output: "250"
    output: "251"
    output: "252"
    output: "253"
    op_type: "Split"
    attribute {
      name: "axis"
      i: 1
    }
    attribute {
      name: "split"
      ints: 5
      ints: 5
      ints: 5
      ints: 5
    }
  }
  node {
    input: "250"
    output: "254"
    op_type: "Sigmoid"
  }
  node {
    input: "251"
    output: "255"
    op_type: "Sigmoid"
  }
  node {
    input: "252"
    output: "256"
    op_type: "Tanh"
  }
  node {
    input: "253"
    output: "257"
    op_type: "Sigmoid"
  }
  node {
    input: "255"
    input: "234"
    output: "258"
    op_type: "Mul"
  }
  node {
    input: "254"
    input: "256"
    output: "259"
    op_type: "Mul"
  }
  node {
    input: "258"
    input: "259"
    output: "260"
    op_type: "Add"
  }
  node {
    input: "260"
    output: "261"
    op_type: "Tanh"
  }
  node {
    input: "257"
    input: "261"
    output: "262"
    op_type: "Mul"
  }
  node {
    output: "263"
    op_type: "Constant"
    attribute {
      name: "value"
      t {
        dims: 1
        data_type: INT32
        raw_data: "\000\000\000\000"
      }
    }
  }
  node {
    output: "264"
    op_type: "Constant"
    attribute {
      name: "value"
      t {
        dims: 1
        data_type: INT64
        raw_data: "\007\000\000\000\000\000\000\000"
      }
    }
  }
  node {
    output: "265"
    op_type: "Constant"
    attribute {
      name: "value"
      t {
        dims: 1
        data_type: INT64
        raw_data: "\010\000\000\000\000\000\000\000"
      }
    }
  }
  node {
    input: "29"
    input: "263"
    input: "264"
    input: "265"
    output: "266"
    op_type: "Slice"
  }
  node {
    input: "266"
    output: "267"
    op_type: "Squeeze"
    attribute {
      name: "axes"
      ints: 0
    }
  }
  node {
    input: "5"
    output: "268"
    op_type: "Transpose"
    attribute {
      name: "perm"
      ints: 1
      ints: 0
    }
  }
  node {
    input: "267"
    input: "268"
    input: "7"
    output: "1434"
    op_type: "Gemm"
    attribute {
      name: "alpha"
      f: 1
    }
    attribute {
      name: "beta"
      f: 1
    }
    attribute {
      name: "broadcast"
      i: 1
    }
  }
  node {
    input: "6"
    output: "271"
    op_type: "Transpose"
    attribute {
      name: "perm"
      ints: 1
      ints: 0
    }
  }
  node {
    input: "262"
    input: "271"
    input: "8"
    output: "1435"
    op_type: "Gemm"
    attribute {
      name: "alpha"
      f: 1
    }
    attribute {
      name: "beta"
      f: 1
    }
    attribute {
      name: "broadcast"
      i: 1
    }
  }
  node {
    input: "1434"
    input: "1435"
    output: "274"
    op_type: "Add"
  }
  node {
    input: "274"
    output: "276"
    output: "277"
    output: "278"
    output: "279"
    op_type: "Split"
    attribute {
      name: "axis"
      i: 1
    }
    attribute {
      name: "split"
      ints: 5
      ints: 5
      ints: 5
      ints: 5
    }
  }
  node {
    input: "276"
    output: "280"
    op_type: "Sigmoid"
  }
  node {
    input: "277"
    output: "281"
    op_type: "Sigmoid"
  }
  node {
    input: "278"
    output: "282"
    op_type: "Tanh"
  }
  node {
    input: "279"
    output: "283"
    op_type: "Sigmoid"
  }
  node {
    input: "281"
    input: "260"
    output: "284"
    op_type: "Mul"
  }
  node {
    input: "280"
    input: "282"
    output: "285"
    op_type: "Mul"
  }
  node {
    input: "284"
    input: "285"
    output: "286"
    op_type: "Add"
  }
  node {
    input: "286"
    output: "287"
    op_type: "Tanh"
  }
  node {
    input: "283"
    input: "287"
    output: "288"
    op_type: "Mul"
  }
  node {
    output: "289"
    op_type: "Constant"
    attribute {
      name: "value"
      t {
        dims: 1
        data_type: INT32
        raw_data: "\000\000\000\000"
      }
    }
  }
  node {
    output: "290"
    op_type: "Constant"
    attribute {
      name: "value"
      t {
        dims: 1
        data_type: INT64
        raw_data: "\010\000\000\000\000\000\000\000"
      }
    }
  }
  node {
    output: "291"
    op_type: "Constant"
    attribute {
      name: "value"
      t {
        dims: 1
        data_type: INT64
        raw_data: "\t\000\000\000\000\000\000\000"
      }
    }
  }
  node {
    input: "29"
    input: "289"
    input: "290"
    input: "291"
    output: "292"
    op_type: "Slice"
  }
  node {
    input: "292"
    output: "293"
    op_type: "Squeeze"
    attribute {
      name: "axes"
      ints: 0
    }
  }
  node {
    input: "5"
    output: "294"
    op_type: "Transpose"
    attribute {
      name: "perm"
      ints: 1
      ints: 0
    }
  }
  node {
    input: "293"
    input: "294"
    input: "7"
    output: "1436"
    op_type: "Gemm"
    attribute {
      name: "alpha"
      f: 1
    }
    attribute {
      name: "beta"
      f: 1
    }
    attribute {
      name: "broadcast"
      i: 1
    }
  }
  node {
    input: "6"
    output: "297"
    op_type: "Transpose"
    attribute {
      name: "perm"
      ints: 1
      ints: 0
    }
  }
  node {
    input: "288"
    input: "297"
    input: "8"
    output: "1437"
    op_type: "Gemm"
    attribute {
      name: "alpha"
      f: 1
    }
    attribute {
      name: "beta"
      f: 1
    }
    attribute {
      name: "broadcast"
      i: 1
    }
  }
  node {
    input: "1436"
    input: "1437"
    output: "300"
    op_type: "Add"
  }
  node {
    input: "300"
    output: "302"
    output: "303"
    output: "304"
    output: "305"
    op_type: "Split"
    attribute {
      name: "axis"
      i: 1
    }
    attribute {
      name: "split"
      ints: 5
      ints: 5
      ints: 5
      ints: 5
    }
  }
  node {
    input: "302"
    output: "306"
    op_type: "Sigmoid"
  }
  node {
    input: "303"
    output: "307"
    op_type: "Sigmoid"
  }
  node {
    input: "304"
    output: "308"
    op_type: "Tanh"
  }
  node {
    input: "305"
    output: "309"
    op_type: "Sigmoid"
  }
  node {
    input: "307"
    input: "286"
    output: "310"
    op_type: "Mul"
  }
  node {
    input: "306"
    input: "308"
    output: "311"
    op_type: "Mul"
  }
  node {
    input: "310"
    input: "311"
    output: "312"
    op_type: "Add"
  }
  node {
    input: "312"
    output: "313"
    op_type: "Tanh"
  }
  node {
    input: "309"
    input: "313"
    output: "314"
    op_type: "Mul"
  }
  node {
    output: "315"
    op_type: "Constant"
    attribute {
      name: "value"
      t {
        dims: 1
        data_type: INT32
        raw_data: "\000\000\000\000"
      }
    }
  }
  node {
    output: "316"
    op_type: "Constant"
    attribute {
      name: "value"
      t {
        dims: 1
        data_type: INT64
        raw_data: "\t\000\000\000\000\000\000\000"
      }
    }
  }
  node {
    output: "317"
    op_type: "Constant"
    attribute {
      name: "value"
      t {
        dims: 1
        data_type: INT64
        raw_data: "\n\000\000\000\000\000\000\000"
      }
    }
  }
  node {
    input: "29"
    input: "315"
    input: "316"
    input: "317"
    output: "318"
    op_type: "Slice"
  }
  node {
    input: "318"
    output: "319"
    op_type: "Squeeze"
    attribute {
      name: "axes"
      ints: 0
    }
  }
  node {
    input: "5"
    output: "320"
    op_type: "Transpose"
    attribute {
      name: "perm"
      ints: 1
      ints: 0
    }
  }
  node {
    input: "319"
    input: "320"
    input: "7"
    output: "1438"
    op_type: "Gemm"
    attribute {
      name: "alpha"
      f: 1
    }
    attribute {
      name: "beta"
      f: 1
    }
    attribute {
      name: "broadcast"
      i: 1
    }
  }
  node {
    input: "6"
    output: "323"
    op_type: "Transpose"
    attribute {
      name: "perm"
      ints: 1
      ints: 0
    }
  }
  node {
    input: "314"
    input: "323"
    input: "8"
    output: "1439"
    op_type: "Gemm"
    attribute {
      name: "alpha"
      f: 1
    }
    attribute {
      name: "beta"
      f: 1
    }
    attribute {
      name: "broadcast"
      i: 1
    }
  }
  node {
    input: "1438"
    input: "1439"
    output: "326"
    op_type: "Add"
  }
  node {
    input: "326"
    output: "328"
    output: "329"
    output: "330"
    output: "331"
    op_type: "Split"
    attribute {
      name: "axis"
      i: 1
    }
    attribute {
      name: "split"
      ints: 5
      ints: 5
      ints: 5
      ints: 5
    }
  }
  node {
    input: "328"
    output: "332"
    op_type: "Sigmoid"
  }
  node {
    input: "329"
    output: "333"
    op_type: "Sigmoid"
  }
  node {
    input: "330"
    output: "334"
    op_type: "Tanh"
  }
  node {
    input: "331"
    output: "335"
    op_type: "Sigmoid"
  }
  node {
    input: "333"
    input: "312"
    output: "336"
    op_type: "Mul"
  }
  node {
    input: "332"
    input: "334"
    output: "337"
    op_type: "Mul"
  }
  node {
    input: "336"
    input: "337"
    output: "338"
    op_type: "Add"
  }
  node {
    input: "338"
    output: "339"
    op_type: "Tanh"
  }
  node {
    input: "335"
    input: "339"
    output: "340"
    op_type: "Mul"
  }
  node {
    input: "106"
    input: "132"
    input: "158"
    input: "184"
    input: "210"
    input: "236"
    input: "262"
    input: "288"
    input: "314"
    input: "340"
    output: "341"
    op_type: "Concat"
    attribute {
      name: "axis"
      i: 0
    }
  }
  node {
    input: "341"
    output: "342"
    op_type: "Reshape"
    attribute {
      name: "shape"
      ints: 10
      ints: 5
      ints: 5
    }
  }
  node {
    input: "342"
    output: "343"
    op_type: "Concat"
    attribute {
      name: "axis"
      i: 2
    }
  }
  node {
    input: "343"
    output: "345"
    output: "346"
    op_type: "Dropout"
    attribute {
      name: "is_test"
      i: 1
    }
    attribute {
      name: "ratio"
      f: 0.200000002980232
    }
  }
  node {
    output: "347"
    op_type: "Constant"
    attribute {
      name: "value"
      t {
        dims: 1
        data_type: INT32
        raw_data: "\000\000\000\000"
      }
    }
  }
  node {
    output: "348"
    op_type: "Constant"
    attribute {
      name: "value"
      t {
        dims: 1
        data_type: INT64
        raw_data: "\000\000\000\000\000\000\000\000"
      }
    }
  }
  node {
    output: "349"
    op_type: "Constant"
    attribute {
      name: "value"
      t {
        dims: 1
        data_type: INT64
        raw_data: "\001\000\000\000\000\000\000\000"
      }
    }
  }
  node {
    input: "345"
    input: "347"
    input: "348"
    input: "349"
    output: "350"
    op_type: "Slice"
  }
  node {
    input: "350"
    output: "351"
    op_type: "Squeeze"
    attribute {
      name: "axes"
      ints: 0
    }
  }
  node {
    input: "9"
    output: "352"
    op_type: "Transpose"
    attribute {
      name: "perm"
      ints: 1
      ints: 0
    }
  }
  node {
    input: "351"
    input: "352"
    input: "11"
    output: "1440"
    op_type: "Gemm"
    attribute {
      name: "alpha"
      f: 1
    }
    attribute {
      name: "beta"
      f: 1
    }
    attribute {
      name: "broadcast"
      i: 1
    }
  }
  node {
    input: "10"
    output: "355"
    op_type: "Transpose"
    attribute {
      name: "perm"
      ints: 1
      ints: 0
    }
  }
  node {
    input: "45"
    input: "355"
    input: "12"
    output: "1441"
    op_type: "Gemm"
    attribute {
      name: "alpha"
      f: 1
    }
    attribute {
      name: "beta"
      f: 1
    }
    attribute {
      name: "broadcast"
      i: 1
    }
  }
  node {
    input: "1440"
    input: "1441"
    output: "358"
    op_type: "Add"
  }
  node {
    input: "358"
    output: "360"
    output: "361"
    output: "362"
    output: "363"
    op_type: "Split"
    attribute {
      name: "axis"
      i: 1
    }
    attribute {
      name: "split"
      ints: 5
      ints: 5
      ints: 5
      ints: 5
    }
  }
  node {
    input: "360"
    output: "364"
    op_type: "Sigmoid"
  }
  node {
    input: "361"
    output: "365"
    op_type: "Sigmoid"
  }
  node {
    input: "362"
    output: "366"
    op_type: "Tanh"
  }
  node {
    input: "363"
    output: "367"
    op_type: "Sigmoid"
  }
  node {
    input: "365"
    input: "50"
    output: "368"
    op_type: "Mul"
  }
  node {
    input: "364"
    input: "366"
    output: "369"
    op_type: "Mul"
  }
  node {
    input: "368"
    input: "369"
    output: "370"
    op_type: "Add"
  }
  node {
    input: "370"
    output: "371"
    op_type: "Tanh"
  }
  node {
    input: "367"
    input: "371"
    output: "372"
    op_type: "Mul"
  }
  node {
    output: "373"
    op_type: "Constant"
    attribute {
      name: "value"
      t {
        dims: 1
        data_type: INT32
        raw_data: "\000\000\000\000"
      }
    }
  }
  node {
    output: "374"
    op_type: "Constant"
    attribute {
      name: "value"
      t {
        dims: 1
        data_type: INT64
        raw_data: "\001\000\000\000\000\000\000\000"
      }
    }
  }
  node {
    output: "375"
    op_type: "Constant"
    attribute {
      name: "value"
      t {
        dims: 1
        data_type: INT64
        raw_data: "\002\000\000\000\000\000\000\000"
      }
    }
  }
  node {
    input: "345"
    input: "373"
    input: "374"
    input: "375"
    output: "376"
    op_type: "Slice"
  }
  node {
    input: "376"
    output: "377"
    op_type: "Squeeze"
    attribute {
      name: "axes"
      ints: 0
    }
  }
  node {
    input: "9"
    output: "378"
    op_type: "Transpose"
    attribute {
      name: "perm"
      ints: 1
      ints: 0
    }
  }
  node {
    input: "377"
    input: "378"
    input: "11"
    output: "1442"
    op_type: "Gemm"
    attribute {
      name: "alpha"
      f: 1
    }
    attribute {
      name: "beta"
      f: 1
    }
    attribute {
      name: "broadcast"
      i: 1
    }
  }
  node {
    input: "10"
    output: "381"
    op_type: "Transpose"
    attribute {
      name: "perm"
      ints: 1
      ints: 0
    }
  }
  node {
    input: "372"
    input: "381"
    input: "12"
    output: "1443"
    op_type: "Gemm"
    attribute {
      name: "alpha"
      f: 1
    }
    attribute {
      name: "beta"
      f: 1
    }
    attribute {
      name: "broadcast"
      i: 1
    }
  }
  node {
    input: "1442"
    input: "1443"
    output: "384"
    op_type: "Add"
  }
  node {
    input: "384"
    output: "386"
    output: "387"
    output: "388"
    output: "389"
    op_type: "Split"
    attribute {
      name: "axis"
      i: 1
    }
    attribute {
      name: "split"
      ints: 5
      ints: 5
      ints: 5
      ints: 5
    }
  }
  node {
    input: "386"
    output: "390"
    op_type: "Sigmoid"
  }
  node {
    input: "387"
    output: "391"
    op_type: "Sigmoid"
  }
  node {
    input: "388"
    output: "392"
    op_type: "Tanh"
  }
  node {
    input: "389"
    output: "393"
    op_type: "Sigmoid"
  }
  node {
    input: "391"
    input: "370"
    output: "394"
    op_type: "Mul"
  }
  node {
    input: "390"
    input: "392"
    output: "395"
    op_type: "Mul"
  }
  node {
    input: "394"
    input: "395"
    output: "396"
    op_type: "Add"
  }
  node {
    input: "396"
    output: "397"
    op_type: "Tanh"
  }
  node {
    input: "393"
    input: "397"
    output: "398"
    op_type: "Mul"
  }
  node {
    output: "399"
    op_type: "Constant"
    attribute {
      name: "value"
      t {
        dims: 1
        data_type: INT32
        raw_data: "\000\000\000\000"
      }
    }
  }
  node {
    output: "400"
    op_type: "Constant"
    attribute {
      name: "value"
      t {
        dims: 1
        data_type: INT64
        raw_data: "\002\000\000\000\000\000\000\000"
      }
    }
  }
  node {
    output: "401"
    op_type: "Constant"
    attribute {
      name: "value"
      t {
        dims: 1
        data_type: INT64
        raw_data: "\003\000\000\000\000\000\000\000"
      }
    }
  }
  node {
    input: "345"
    input: "399"
    input: "400"
    input: "401"
    output: "402"
    op_type: "Slice"
  }
  node {
    input: "402"
    output: "403"
    op_type: "Squeeze"
    attribute {
      name: "axes"
      ints: 0
    }
  }
  node {
    input: "9"
    output: "404"
    op_type: "Transpose"
    attribute {
      name: "perm"
      ints: 1
      ints: 0
    }
  }
  node {
    input: "403"
    input: "404"
    input: "11"
    output: "1444"
    op_type: "Gemm"
    attribute {
      name: "alpha"
      f: 1
    }
    attribute {
      name: "beta"
      f: 1
    }
    attribute {
      name: "broadcast"
      i: 1
    }
  }
  node {
    input: "10"
    output: "407"
    op_type: "Transpose"
    attribute {
      name: "perm"
      ints: 1
      ints: 0
    }
  }
  node {
    input: "398"
    input: "407"
    input: "12"
    output: "1445"
    op_type: "Gemm"
    attribute {
      name: "alpha"
      f: 1
    }
    attribute {
      name: "beta"
      f: 1
    }
    attribute {
      name: "broadcast"
      i: 1
    }
  }
  node {
    input: "1444"
    input: "1445"
    output: "410"
    op_type: "Add"
  }
  node {
    input: "410"
    output: "412"
    output: "413"
    output: "414"
    output: "415"
    op_type: "Split"
    attribute {
      name: "axis"
      i: 1
    }
    attribute {
      name: "split"
      ints: 5
      ints: 5
      ints: 5
      ints: 5
    }
  }
  node {
    input: "412"
    output: "416"
    op_type: "Sigmoid"
  }
  node {
    input: "413"
    output: "417"
    op_type: "Sigmoid"
  }
  node {
    input: "414"
    output: "418"
    op_type: "Tanh"
  }
  node {
    input: "415"
    output: "419"
    op_type: "Sigmoid"
  }
  node {
    input: "417"
    input: "396"
    output: "420"
    op_type: "Mul"
  }
  node {
    input: "416"
    input: "418"
    output: "421"
    op_type: "Mul"
  }
  node {
    input: "420"
    input: "421"
    output: "422"
    op_type: "Add"
  }
  node {
    input: "422"
    output: "423"
    op_type: "Tanh"
  }
  node {
    input: "419"
    input: "423"
    output: "424"
    op_type: "Mul"
  }
  node {
    output: "425"
    op_type: "Constant"
    attribute {
      name: "value"
      t {
        dims: 1
        data_type: INT32
        raw_data: "\000\000\000\000"
      }
    }
  }
  node {
    output: "426"
    op_type: "Constant"
    attribute {
      name: "value"
      t {
        dims: 1
        data_type: INT64
        raw_data: "\003\000\000\000\000\000\000\000"
      }
    }
  }
  node {
    output: "427"
    op_type: "Constant"
    attribute {
      name: "value"
      t {
        dims: 1
        data_type: INT64
        raw_data: "\004\000\000\000\000\000\000\000"
      }
    }
  }
  node {
    input: "345"
    input: "425"
    input: "426"
    input: "427"
    output: "428"
    op_type: "Slice"
  }
  node {
    input: "428"
    output: "429"
    op_type: "Squeeze"
    attribute {
      name: "axes"
      ints: 0
    }
  }
  node {
    input: "9"
    output: "430"
    op_type: "Transpose"
    attribute {
      name: "perm"
      ints: 1
      ints: 0
    }
  }
  node {
    input: "429"
    input: "430"
    input: "11"
    output: "1446"
    op_type: "Gemm"
    attribute {
      name: "alpha"
      f: 1
    }
    attribute {
      name: "beta"
      f: 1
    }
    attribute {
      name: "broadcast"
      i: 1
    }
  }
  node {
    input: "10"
    output: "433"
    op_type: "Transpose"
    attribute {
      name: "perm"
      ints: 1
      ints: 0
    }
  }
  node {
    input: "424"
    input: "433"
    input: "12"
    output: "1447"
    op_type: "Gemm"
    attribute {
      name: "alpha"
      f: 1
    }
    attribute {
      name: "beta"
      f: 1
    }
    attribute {
      name: "broadcast"
      i: 1
    }
  }
  node {
    input: "1446"
    input: "1447"
    output: "436"
    op_type: "Add"
  }
  node {
    input: "436"
    output: "438"
    output: "439"
    output: "440"
    output: "441"
    op_type: "Split"
    attribute {
      name: "axis"
      i: 1
    }
    attribute {
      name: "split"
      ints: 5
      ints: 5
      ints: 5
      ints: 5
    }
  }
  node {
    input: "438"
    output: "442"
    op_type: "Sigmoid"
  }
  node {
    input: "439"
    output: "443"
    op_type: "Sigmoid"
  }
  node {
    input: "440"
    output: "444"
    op_type: "Tanh"
  }
  node {
    input: "441"
    output: "445"
    op_type: "Sigmoid"
  }
  node {
    input: "443"
    input: "422"
    output: "446"
    op_type: "Mul"
  }
  node {
    input: "442"
    input: "444"
    output: "447"
    op_type: "Mul"
  }
  node {
    input: "446"
    input: "447"
    output: "448"
    op_type: "Add"
  }
  node {
    input: "448"
    output: "449"
    op_type: "Tanh"
  }
  node {
    input: "445"
    input: "449"
    output: "450"
    op_type: "Mul"
  }
  node {
    output: "451"
    op_type: "Constant"
    attribute {
      name: "value"
      t {
        dims: 1
        data_type: INT32
        raw_data: "\000\000\000\000"
      }
    }
  }
  node {
    output: "452"
    op_type: "Constant"
    attribute {
      name: "value"
      t {
        dims: 1
        data_type: INT64
        raw_data: "\004\000\000\000\000\000\000\000"
      }
    }
  }
  node {
    output: "453"
    op_type: "Constant"
    attribute {
      name: "value"
      t {
        dims: 1
        data_type: INT64
        raw_data: "\005\000\000\000\000\000\000\000"
      }
    }
  }
  node {
    input: "345"
    input: "451"
    input: "452"
    input: "453"
    output: "454"
    op_type: "Slice"
  }
  node {
    input: "454"
    output: "455"
    op_type: "Squeeze"
    attribute {
      name: "axes"
      ints: 0
    }
  }
  node {
    input: "9"
    output: "456"
    op_type: "Transpose"
    attribute {
      name: "perm"
      ints: 1
      ints: 0
    }
  }
  node {
    input: "455"
    input: "456"
    input: "11"
    output: "1448"
    op_type: "Gemm"
    attribute {
      name: "alpha"
      f: 1
    }
    attribute {
      name: "beta"
      f: 1
    }
    attribute {
      name: "broadcast"
      i: 1
    }
  }
  node {
    input: "10"
    output: "459"
    op_type: "Transpose"
    attribute {
      name: "perm"
      ints: 1
      ints: 0
    }
  }
  node {
    input: "450"
    input: "459"
    input: "12"
    output: "1449"
    op_type: "Gemm"
    attribute {
      name: "alpha"
      f: 1
    }
    attribute {
      name: "beta"
      f: 1
    }
    attribute {
      name: "broadcast"
      i: 1
    }
  }
  node {
    input: "1448"
    input: "1449"
    output: "462"
    op_type: "Add"
  }
  node {
    input: "462"
    output: "464"
    output: "465"
    output: "466"
    output: "467"
    op_type: "Split"
    attribute {
      name: "axis"
      i: 1
    }
    attribute {
      name: "split"
      ints: 5
      ints: 5
      ints: 5
      ints: 5
    }
  }
  node {
    input: "464"
    output: "468"
    op_type: "Sigmoid"
  }
  node {
    input: "465"
    output: "469"
    op_type: "Sigmoid"
  }
  node {
    input: "466"
    output: "470"
    op_type: "Tanh"
  }
  node {
    input: "467"
    output: "471"
    op_type: "Sigmoid"
  }
  node {
    input: "469"
    input: "448"
    output: "472"
    op_type: "Mul"
  }
  node {
    input: "468"
    input: "470"
    output: "473"
    op_type: "Mul"
  }
  node {
    input: "472"
    input: "473"
    output: "474"
    op_type: "Add"
  }
  node {
    input: "474"
    output: "475"
    op_type: "Tanh"
  }
  node {
    input: "471"
    input: "475"
    output: "476"
    op_type: "Mul"
  }
  node {
    output: "477"
    op_type: "Constant"
    attribute {
      name: "value"
      t {
        dims: 1
        data_type: INT32
        raw_data: "\000\000\000\000"
      }
    }
  }
  node {
    output: "478"
    op_type: "Constant"
    attribute {
      name: "value"
      t {
        dims: 1
        data_type: INT64
        raw_data: "\005\000\000\000\000\000\000\000"
      }
    }
  }
  node {
    output: "479"
    op_type: "Constant"
    attribute {
      name: "value"
      t {
        dims: 1
        data_type: INT64
        raw_data: "\006\000\000\000\000\000\000\000"
      }
    }
  }
  node {
    input: "345"
    input: "477"
    input: "478"
    input: "479"
    output: "480"
    op_type: "Slice"
  }
  node {
    input: "480"
    output: "481"
    op_type: "Squeeze"
    attribute {
      name: "axes"
      ints: 0
    }
  }
  node {
    input: "9"
    output: "482"
    op_type: "Transpose"
    attribute {
      name: "perm"
      ints: 1
      ints: 0
    }
  }
  node {
    input: "481"
    input: "482"
    input: "11"
    output: "1450"
    op_type: "Gemm"
    attribute {
      name: "alpha"
      f: 1
    }
    attribute {
      name: "beta"
      f: 1
    }
    attribute {
      name: "broadcast"
      i: 1
    }
  }
  node {
    input: "10"
    output: "485"
    op_type: "Transpose"
    attribute {
      name: "perm"
      ints: 1
      ints: 0
    }
  }
  node {
    input: "476"
    input: "485"
    input: "12"
    output: "1451"
    op_type: "Gemm"
    attribute {
      name: "alpha"
      f: 1
    }
    attribute {
      name: "beta"
      f: 1
    }
    attribute {
      name: "broadcast"
      i: 1
    }
  }
  node {
    input: "1450"
    input: "1451"
    output: "488"
    op_type: "Add"
  }
  node {
    input: "488"
    output: "490"
    output: "491"
    output: "492"
    output: "493"
    op_type: "Split"
    attribute {
      name: "axis"
      i: 1
    }
    attribute {
      name: "split"
      ints: 5
      ints: 5
      ints: 5
      ints: 5
    }
  }
  node {
    input: "490"
    output: "494"
    op_type: "Sigmoid"
  }
  node {
    input: "491"
    output: "495"
    op_type: "Sigmoid"
  }
  node {
    input: "492"
    output: "496"
    op_type: "Tanh"
  }
  node {
    input: "493"
    output: "497"
    op_type: "Sigmoid"
  }
  node {
    input: "495"
    input: "474"
    output: "498"
    op_type: "Mul"
  }
  node {
    input: "494"
    input: "496"
    output: "499"
    op_type: "Mul"
  }
  node {
    input: "498"
    input: "499"
    output: "500"
    op_type: "Add"
  }
  node {
    input: "500"
    output: "501"
    op_type: "Tanh"
  }
  node {
    input: "497"
    input: "501"
    output: "502"
    op_type: "Mul"
  }
  node {
    output: "503"
    op_type: "Constant"
    attribute {
      name: "value"
      t {
        dims: 1
        data_type: INT32
        raw_data: "\000\000\000\000"
      }
    }
  }
  node {
    output: "504"
    op_type: "Constant"
    attribute {
      name: "value"
      t {
        dims: 1
        data_type: INT64
        raw_data: "\006\000\000\000\000\000\000\000"
      }
    }
  }
  node {
    output: "505"
    op_type: "Constant"
    attribute {
      name: "value"
      t {
        dims: 1
        data_type: INT64
        raw_data: "\007\000\000\000\000\000\000\000"
      }
    }
  }
  node {
    input: "345"
    input: "503"
    input: "504"
    input: "505"
    output: "506"
    op_type: "Slice"
  }
  node {
    input: "506"
    output: "507"
    op_type: "Squeeze"
    attribute {
      name: "axes"
      ints: 0
    }
  }
  node {
    input: "9"
    output: "508"
    op_type: "Transpose"
    attribute {
      name: "perm"
      ints: 1
      ints: 0
    }
  }
  node {
    input: "507"
    input: "508"
    input: "11"
    output: "1452"
    op_type: "Gemm"
    attribute {
      name: "alpha"
      f: 1
    }
    attribute {
      name: "beta"
      f: 1
    }
    attribute {
      name: "broadcast"
      i: 1
    }
  }
  node {
    input: "10"
    output: "511"
    op_type: "Transpose"
    attribute {
      name: "perm"
      ints: 1
      ints: 0
    }
  }
  node {
    input: "502"
    input: "511"
    input: "12"
    output: "1453"
    op_type: "Gemm"
    attribute {
      name: "alpha"
      f: 1
    }
    attribute {
      name: "beta"
      f: 1
    }
    attribute {
      name: "broadcast"
      i: 1
    }
  }
  node {
    input: "1452"
    input: "1453"
    output: "514"
    op_type: "Add"
  }
  node {
    input: "514"
    output: "516"
    output: "517"
    output: "518"
    output: "519"
    op_type: "Split"
    attribute {
      name: "axis"
      i: 1
    }
    attribute {
      name: "split"
      ints: 5
      ints: 5
      ints: 5
      ints: 5
    }
  }
  node {
    input: "516"
    output: "520"
    op_type: "Sigmoid"
  }
  node {
    input: "517"
    output: "521"
    op_type: "Sigmoid"
  }
  node {
    input: "518"
    output: "522"
    op_type: "Tanh"
  }
  node {
    input: "519"
    output: "523"
    op_type: "Sigmoid"
  }
  node {
    input: "521"
    input: "500"
    output: "524"
    op_type: "Mul"
  }
  node {
    input: "520"
    input: "522"
    output: "525"
    op_type: "Mul"
  }
  node {
    input: "524"
    input: "525"
    output: "526"
    op_type: "Add"
  }
  node {
    input: "526"
    output: "527"
    op_type: "Tanh"
  }
  node {
    input: "523"
    input: "527"
    output: "528"
    op_type: "Mul"
  }
  node {
    output: "529"
    op_type: "Constant"
    attribute {
      name: "value"
      t {
        dims: 1
        data_type: INT32
        raw_data: "\000\000\000\000"
      }
    }
  }
  node {
    output: "530"
    op_type: "Constant"
    attribute {
      name: "value"
      t {
        dims: 1
        data_type: INT64
        raw_data: "\007\000\000\000\000\000\000\000"
      }
    }
  }
  node {
    output: "531"
    op_type: "Constant"
    attribute {
      name: "value"
      t {
        dims: 1
        data_type: INT64
        raw_data: "\010\000\000\000\000\000\000\000"
      }
    }
  }
  node {
    input: "345"
    input: "529"
    input: "530"
    input: "531"
    output: "532"
    op_type: "Slice"
  }
  node {
    input: "532"
    output: "533"
    op_type: "Squeeze"
    attribute {
      name: "axes"
      ints: 0
    }
  }
  node {
    input: "9"
    output: "534"
    op_type: "Transpose"
    attribute {
      name: "perm"
      ints: 1
      ints: 0
    }
  }
  node {
    input: "533"
    input: "534"
    input: "11"
    output: "1454"
    op_type: "Gemm"
    attribute {
      name: "alpha"
      f: 1
    }
    attribute {
      name: "beta"
      f: 1
    }
    attribute {
      name: "broadcast"
      i: 1
    }
  }
  node {
    input: "10"
    output: "537"
    op_type: "Transpose"
    attribute {
      name: "perm"
      ints: 1
      ints: 0
    }
  }
  node {
    input: "528"
    input: "537"
    input: "12"
    output: "1455"
    op_type: "Gemm"
    attribute {
      name: "alpha"
      f: 1
    }
    attribute {
      name: "beta"
      f: 1
    }
    attribute {
      name: "broadcast"
      i: 1
    }
  }
  node {
    input: "1454"
    input: "1455"
    output: "540"
    op_type: "Add"
  }
  node {
    input: "540"
    output: "542"
    output: "543"
    output: "544"
    output: "545"
    op_type: "Split"
    attribute {
      name: "axis"
      i: 1
    }
    attribute {
      name: "split"
      ints: 5
      ints: 5
      ints: 5
      ints: 5
    }
  }
  node {
    input: "542"
    output: "546"
    op_type: "Sigmoid"
  }
  node {
    input: "543"
    output: "547"
    op_type: "Sigmoid"
  }
  node {
    input: "544"
    output: "548"
    op_type: "Tanh"
  }
  node {
    input: "545"
    output: "549"
    op_type: "Sigmoid"
  }
  node {
    input: "547"
    input: "526"
    output: "550"
    op_type: "Mul"
  }
  node {
    input: "546"
    input: "548"
    output: "551"
    op_type: "Mul"
  }
  node {
    input: "550"
    input: "551"
    output: "552"
    op_type: "Add"
  }
  node {
    input: "552"
    output: "553"
    op_type: "Tanh"
  }
  node {
    input: "549"
    input: "553"
    output: "554"
    op_type: "Mul"
  }
  node {
    output: "555"
    op_type: "Constant"
    attribute {
      name: "value"
      t {
        dims: 1
        data_type: INT32
        raw_data: "\000\000\000\000"
      }
    }
  }
  node {
    output: "556"
    op_type: "Constant"
    attribute {
      name: "value"
      t {
        dims: 1
        data_type: INT64
        raw_data: "\010\000\000\000\000\000\000\000"
      }
    }
  }
  node {
    output: "557"
    op_type: "Constant"
    attribute {
      name: "value"
      t {
        dims: 1
        data_type: INT64
        raw_data: "\t\000\000\000\000\000\000\000"
      }
    }
  }
  node {
    input: "345"
    input: "555"
    input: "556"
    input: "557"
    output: "558"
    op_type: "Slice"
  }
  node {
    input: "558"
    output: "559"
    op_type: "Squeeze"
    attribute {
      name: "axes"
      ints: 0
    }
  }
  node {
    input: "9"
    output: "560"
    op_type: "Transpose"
    attribute {
      name: "perm"
      ints: 1
      ints: 0
    }
  }
  node {
    input: "559"
    input: "560"
    input: "11"
    output: "1456"
    op_type: "Gemm"
    attribute {
      name: "alpha"
      f: 1
    }
    attribute {
      name: "beta"
      f: 1
    }
    attribute {
      name: "broadcast"
      i: 1
    }
  }
  node {
    input: "10"
    output: "563"
    op_type: "Transpose"
    attribute {
      name: "perm"
      ints: 1
      ints: 0
    }
  }
  node {
    input: "554"
    input: "563"
    input: "12"
    output: "1457"
    op_type: "Gemm"
    attribute {
      name: "alpha"
      f: 1
    }
    attribute {
      name: "beta"
      f: 1
    }
    attribute {
      name: "broadcast"
      i: 1
    }
  }
  node {
    input: "1456"
    input: "1457"
    output: "566"
    op_type: "Add"
  }
  node {
    input: "566"
    output: "568"
    output: "569"
    output: "570"
    output: "571"
    op_type: "Split"
    attribute {
      name: "axis"
      i: 1
    }
    attribute {
      name: "split"
      ints: 5
      ints: 5
      ints: 5
      ints: 5
    }
  }
  node {
    input: "568"
    output: "572"
    op_type: "Sigmoid"
  }
  node {
    input: "569"
    output: "573"
    op_type: "Sigmoid"
  }
  node {
    input: "570"
    output: "574"
    op_type: "Tanh"
  }
  node {
    input: "571"
    output: "575"
    op_type: "Sigmoid"
  }
  node {
    input: "573"
    input: "552"
    output: "576"
    op_type: "Mul"
  }
  node {
    input: "572"
    input: "574"
    output: "577"
    op_type: "Mul"
  }
  node {
    input: "576"
    input: "577"
    output: "578"
    op_type: "Add"
  }
  node {
    input: "578"
    output: "579"
    op_type: "Tanh"
  }
  node {
    input: "575"
    input: "579"
    output: "580"
    op_type: "Mul"
  }
  node {
    output: "581"
    op_type: "Constant"
    attribute {
      name: "value"
      t {
        dims: 1
        data_type: INT32
        raw_data: "\000\000\000\000"
      }
    }
  }
  node {
    output: "582"
    op_type: "Constant"
    attribute {
      name: "value"
      t {
        dims: 1
        data_type: INT64
        raw_data: "\t\000\000\000\000\000\000\000"
      }
    }
  }
  node {
    output: "583"
    op_type: "Constant"
    attribute {
      name: "value"
      t {
        dims: 1
        data_type: INT64
        raw_data: "\n\000\000\000\000\000\000\000"
      }
    }
  }
  node {
    input: "345"
    input: "581"
    input: "582"
    input: "583"
    output: "584"
    op_type: "Slice"
  }
  node {
    input: "584"
    output: "585"
    op_type: "Squeeze"
    attribute {
      name: "axes"
      ints: 0
    }
  }
  node {
    input: "9"
    output: "586"
    op_type: "Transpose"
    attribute {
      name: "perm"
      ints: 1
      ints: 0
    }
  }
  node {
    input: "585"
    input: "586"
    input: "11"
    output: "1458"
    op_type: "Gemm"
    attribute {
      name: "alpha"
      f: 1
    }
    attribute {
      name: "beta"
      f: 1
    }
    attribute {
      name: "broadcast"
      i: 1
    }
  }
  node {
    input: "10"
    output: "589"
    op_type: "Transpose"
    attribute {
      name: "perm"
      ints: 1
      ints: 0
    }
  }
  node {
    input: "580"
    input: "589"
    input: "12"
    output: "1459"
    op_type: "Gemm"
    attribute {
      name: "alpha"
      f: 1
    }
    attribute {
      name: "beta"
      f: 1
    }
    attribute {
      name: "broadcast"
      i: 1
    }
  }
  node {
    input: "1458"
    input: "1459"
    output: "592"
    op_type: "Add"
  }
  node {
    input: "592"
    output: "594"
    output: "595"
    output: "596"
    output: "597"
    op_type: "Split"
    attribute {
      name: "axis"
      i: 1
    }
    attribute {
      name: "split"
      ints: 5
      ints: 5
      ints: 5
      ints: 5
    }
  }
  node {
    input: "594"
    output: "598"
    op_type: "Sigmoid"
  }
  node {
    input: "595"
    output: "599"
    op_type: "Sigmoid"
  }
  node {
    input: "596"
    output: "600"
    op_type: "Tanh"
  }
  node {
    input: "597"
    output: "601"
    op_type: "Sigmoid"
  }
  node {
    input: "599"
    input: "578"
    output: "602"
    op_type: "Mul"
  }
  node {
    input: "598"
    input: "600"
    output: "603"
    op_type: "Mul"
  }
  node {
    input: "602"
    input: "603"
    output: "604"
    op_type: "Add"
  }
  node {
    input: "604"
    output: "605"
    op_type: "Tanh"
  }
  node {
    input: "601"
    input: "605"
    output: "606"
    op_type: "Mul"
  }
  node {
    input: "372"
    input: "398"
    input: "424"
    input: "450"
    input: "476"
    input: "502"
    input: "528"
    input: "554"
    input: "580"
    input: "606"
    output: "607"
    op_type: "Concat"
    attribute {
      name: "axis"
      i: 0
    }
  }
  node {
    input: "607"
    output: "608"
    op_type: "Reshape"
    attribute {
      name: "shape"
      ints: 10
      ints: 5
      ints: 5
    }
  }
  node {
    input: "608"
    output: "609"
    op_type: "Concat"
    attribute {
      name: "axis"
      i: 2
    }
  }
  node {
    input: "609"
    output: "611"
    output: "612"
    op_type: "Dropout"
    attribute {
      name: "is_test"
      i: 1
    }
    attribute {
      name: "ratio"
      f: 0.200000002980232
    }
  }
  node {
    output: "613"
    op_type: "Constant"
    attribute {
      name: "value"
      t {
        dims: 1
        data_type: INT32
        raw_data: "\000\000\000\000"
      }
    }
  }
  node {
    output: "614"
    op_type: "Constant"
    attribute {
      name: "value"
      t {
        dims: 1
        data_type: INT64
        raw_data: "\000\000\000\000\000\000\000\000"
      }
    }
  }
  node {
    output: "615"
    op_type: "Constant"
    attribute {
      name: "value"
      t {
        dims: 1
        data_type: INT64
        raw_data: "\001\000\000\000\000\000\000\000"
      }
    }
  }
  node {
    input: "611"
    input: "613"
    input: "614"
    input: "615"
    output: "616"
    op_type: "Slice"
  }
  node {
    input: "616"
    output: "617"
    op_type: "Squeeze"
    attribute {
      name: "axes"
      ints: 0
    }
  }
  node {
    input: "13"
    output: "618"
    op_type: "Transpose"
    attribute {
      name: "perm"
      ints: 1
      ints: 0
    }
  }
  node {
    input: "617"
    input: "618"
    input: "15"
    output: "1460"
    op_type: "Gemm"
    attribute {
      name: "alpha"
      f: 1
    }
    attribute {
      name: "beta"
      f: 1
    }
    attribute {
      name: "broadcast"
      i: 1
    }
  }
  node {
    input: "14"
    output: "621"
    op_type: "Transpose"
    attribute {
      name: "perm"
      ints: 1
      ints: 0
    }
  }
  node {
    input: "55"
    input: "621"
    input: "16"
    output: "1461"
    op_type: "Gemm"
    attribute {
      name: "alpha"
      f: 1
    }
    attribute {
      name: "beta"
      f: 1
    }
    attribute {
      name: "broadcast"
      i: 1
    }
  }
  node {
    input: "1460"
    input: "1461"
    output: "624"
    op_type: "Add"
  }
  node {
    input: "624"
    output: "626"
    output: "627"
    output: "628"
    output: "629"
    op_type: "Split"
    attribute {
      name: "axis"
      i: 1
    }
    attribute {
      name: "split"
      ints: 5
      ints: 5
      ints: 5
      ints: 5
    }
  }
  node {
    input: "626"
    output: "630"
    op_type: "Sigmoid"
  }
  node {
    input: "627"
    output: "631"
    op_type: "Sigmoid"
  }
  node {
    input: "628"
    output: "632"
    op_type: "Tanh"
  }
  node {
    input: "629"
    output: "633"
    op_type: "Sigmoid"
  }
  node {
    input: "631"
    input: "60"
    output: "634"
    op_type: "Mul"
  }
  node {
    input: "630"
    input: "632"
    output: "635"
    op_type: "Mul"
  }
  node {
    input: "634"
    input: "635"
    output: "636"
    op_type: "Add"
  }
  node {
    input: "636"
    output: "637"
    op_type: "Tanh"
  }
  node {
    input: "633"
    input: "637"
    output: "638"
    op_type: "Mul"
  }
  node {
    output: "639"
    op_type: "Constant"
    attribute {
      name: "value"
      t {
        dims: 1
        data_type: INT32
        raw_data: "\000\000\000\000"
      }
    }
  }
  node {
    output: "640"
    op_type: "Constant"
    attribute {
      name: "value"
      t {
        dims: 1
        data_type: INT64
        raw_data: "\001\000\000\000\000\000\000\000"
      }
    }
  }
  node {
    output: "641"
    op_type: "Constant"
    attribute {
      name: "value"
      t {
        dims: 1
        data_type: INT64
        raw_data: "\002\000\000\000\000\000\000\000"
      }
    }
  }
  node {
    input: "611"
    input: "639"
    input: "640"
    input: "641"
    output: "642"
    op_type: "Slice"
  }
  node {
    input: "642"
    output: "643"
    op_type: "Squeeze"
    attribute {
      name: "axes"
      ints: 0
    }
  }
  node {
    input: "13"
    output: "644"
    op_type: "Transpose"
    attribute {
      name: "perm"
      ints: 1
      ints: 0
    }
  }
  node {
    input: "643"
    input: "644"
    input: "15"
    output: "1462"
    op_type: "Gemm"
    attribute {
      name: "alpha"
      f: 1
    }
    attribute {
      name: "beta"
      f: 1
    }
    attribute {
      name: "broadcast"
      i: 1
    }
  }
  node {
    input: "14"
    output: "647"
    op_type: "Transpose"
    attribute {
      name: "perm"
      ints: 1
      ints: 0
    }
  }
  node {
    input: "638"
    input: "647"
    input: "16"
    output: "1463"
    op_type: "Gemm"
    attribute {
      name: "alpha"
      f: 1
    }
    attribute {
      name: "beta"
      f: 1
    }
    attribute {
      name: "broadcast"
      i: 1
    }
  }
  node {
    input: "1462"
    input: "1463"
    output: "650"
    op_type: "Add"
  }
  node {
    input: "650"
    output: "652"
    output: "653"
    output: "654"
    output: "655"
    op_type: "Split"
    attribute {
      name: "axis"
      i: 1
    }
    attribute {
      name: "split"
      ints: 5
      ints: 5
      ints: 5
      ints: 5
    }
  }
  node {
    input: "652"
    output: "656"
    op_type: "Sigmoid"
  }
  node {
    input: "653"
    output: "657"
    op_type: "Sigmoid"
  }
  node {
    input: "654"
    output: "658"
    op_type: "Tanh"
  }
  node {
    input: "655"
    output: "659"
    op_type: "Sigmoid"
  }
  node {
    input: "657"
    input: "636"
    output: "660"
    op_type: "Mul"
  }
  node {
    input: "656"
    input: "658"
    output: "661"
    op_type: "Mul"
  }
  node {
    input: "660"
    input: "661"
    output: "662"
    op_type: "Add"
  }
  node {
    input: "662"
    output: "663"
    op_type: "Tanh"
  }
  node {
    input: "659"
    input: "663"
    output: "664"
    op_type: "Mul"
  }
  node {
    output: "665"
    op_type: "Constant"
    attribute {
      name: "value"
      t {
        dims: 1
        data_type: INT32
        raw_data: "\000\000\000\000"
      }
    }
  }
  node {
    output: "666"
    op_type: "Constant"
    attribute {
      name: "value"
      t {
        dims: 1
        data_type: INT64
        raw_data: "\002\000\000\000\000\000\000\000"
      }
    }
  }
  node {
    output: "667"
    op_type: "Constant"
    attribute {
      name: "value"
      t {
        dims: 1
        data_type: INT64
        raw_data: "\003\000\000\000\000\000\000\000"
      }
    }
  }
  node {
    input: "611"
    input: "665"
    input: "666"
    input: "667"
    output: "668"
    op_type: "Slice"
  }
  node {
    input: "668"
    output: "669"
    op_type: "Squeeze"
    attribute {
      name: "axes"
      ints: 0
    }
  }
  node {
    input: "13"
    output: "670"
    op_type: "Transpose"
    attribute {
      name: "perm"
      ints: 1
      ints: 0
    }
  }
  node {
    input: "669"
    input: "670"
    input: "15"
    output: "1464"
    op_type: "Gemm"
    attribute {
      name: "alpha"
      f: 1
    }
    attribute {
      name: "beta"
      f: 1
    }
    attribute {
      name: "broadcast"
      i: 1
    }
  }
  node {
    input: "14"
    output: "673"
    op_type: "Transpose"
    attribute {
      name: "perm"
      ints: 1
      ints: 0
    }
  }
  node {
    input: "664"
    input: "673"
    input: "16"
    output: "1465"
    op_type: "Gemm"
    attribute {
      name: "alpha"
      f: 1
    }
    attribute {
      name: "beta"
      f: 1
    }
    attribute {
      name: "broadcast"
      i: 1
    }
  }
  node {
    input: "1464"
    input: "1465"
    output: "676"
    op_type: "Add"
  }
  node {
    input: "676"
    output: "678"
    output: "679"
    output: "680"
    output: "681"
    op_type: "Split"
    attribute {
      name: "axis"
      i: 1
    }
    attribute {
      name: "split"
      ints: 5
      ints: 5
      ints: 5
      ints: 5
    }
  }
  node {
    input: "678"
    output: "682"
    op_type: "Sigmoid"
  }
  node {
    input: "679"
    output: "683"
    op_type: "Sigmoid"
  }
  node {
    input: "680"
    output: "684"
    op_type: "Tanh"
  }
  node {
    input: "681"
    output: "685"
    op_type: "Sigmoid"
  }
  node {
    input: "683"
    input: "662"
    output: "686"
    op_type: "Mul"
  }
  node {
    input: "682"
    input: "684"
    output: "687"
    op_type: "Mul"
  }
  node {
    input: "686"
    input: "687"
    output: "688"
    op_type: "Add"
  }
  node {
    input: "688"
    output: "689"
    op_type: "Tanh"
  }
  node {
    input: "685"
    input: "689"
    output: "690"
    op_type: "Mul"
  }
  node {
    output: "691"
    op_type: "Constant"
    attribute {
      name: "value"
      t {
        dims: 1
        data_type: INT32
        raw_data: "\000\000\000\000"
      }
    }
  }
  node {
    output: "692"
    op_type: "Constant"
    attribute {
      name: "value"
      t {
        dims: 1
        data_type: INT64
        raw_data: "\003\000\000\000\000\000\000\000"
      }
    }
  }
  node {
    output: "693"
    op_type: "Constant"
    attribute {
      name: "value"
      t {
        dims: 1
        data_type: INT64
        raw_data: "\004\000\000\000\000\000\000\000"
      }
    }
  }
  node {
    input: "611"
    input: "691"
    input: "692"
    input: "693"
    output: "694"
    op_type: "Slice"
  }
  node {
    input: "694"
    output: "695"
    op_type: "Squeeze"
    attribute {
      name: "axes"
      ints: 0
    }
  }
  node {
    input: "13"
    output: "696"
    op_type: "Transpose"
    attribute {
      name: "perm"
      ints: 1
      ints: 0
    }
  }
  node {
    input: "695"
    input: "696"
    input: "15"
    output: "1466"
    op_type: "Gemm"
    attribute {
      name: "alpha"
      f: 1
    }
    attribute {
      name: "beta"
      f: 1
    }
    attribute {
      name: "broadcast"
      i: 1
    }
  }
  node {
    input: "14"
    output: "699"
    op_type: "Transpose"
    attribute {
      name: "perm"
      ints: 1
      ints: 0
    }
  }
  node {
    input: "690"
    input: "699"
    input: "16"
    output: "1467"
    op_type: "Gemm"
    attribute {
      name: "alpha"
      f: 1
    }
    attribute {
      name: "beta"
      f: 1
    }
    attribute {
      name: "broadcast"
      i: 1
    }
  }
  node {
    input: "1466"
    input: "1467"
    output: "702"
    op_type: "Add"
  }
  node {
    input: "702"
    output: "704"
    output: "705"
    output: "706"
    output: "707"
    op_type: "Split"
    attribute {
      name: "axis"
      i: 1
    }
    attribute {
      name: "split"
      ints: 5
      ints: 5
      ints: 5
      ints: 5
    }
  }
  node {
    input: "704"
    output: "708"
    op_type: "Sigmoid"
  }
  node {
    input: "705"
    output: "709"
    op_type: "Sigmoid"
  }
  node {
    input: "706"
    output: "710"
    op_type: "Tanh"
  }
  node {
    input: "707"
    output: "711"
    op_type: "Sigmoid"
  }
  node {
    input: "709"
    input: "688"
    output: "712"
    op_type: "Mul"
  }
  node {
    input: "708"
    input: "710"
    output: "713"
    op_type: "Mul"
  }
  node {
    input: "712"
    input: "713"
    output: "714"
    op_type: "Add"
  }
  node {
    input: "714"
    output: "715"
    op_type: "Tanh"
  }
  node {
    input: "711"
    input: "715"
    output: "716"
    op_type: "Mul"
  }
  node {
    output: "717"
    op_type: "Constant"
    attribute {
      name: "value"
      t {
        dims: 1
        data_type: INT32
        raw_data: "\000\000\000\000"
      }
    }
  }
  node {
    output: "718"
    op_type: "Constant"
    attribute {
      name: "value"
      t {
        dims: 1
        data_type: INT64
        raw_data: "\004\000\000\000\000\000\000\000"
      }
    }
  }
  node {
    output: "719"
    op_type: "Constant"
    attribute {
      name: "value"
      t {
        dims: 1
        data_type: INT64
        raw_data: "\005\000\000\000\000\000\000\000"
      }
    }
  }
  node {
    input: "611"
    input: "717"
    input: "718"
    input: "719"
    output: "720"
    op_type: "Slice"
  }
  node {
    input: "720"
    output: "721"
    op_type: "Squeeze"
    attribute {
      name: "axes"
      ints: 0
    }
  }
  node {
    input: "13"
    output: "722"
    op_type: "Transpose"
    attribute {
      name: "perm"
      ints: 1
      ints: 0
    }
  }
  node {
    input: "721"
    input: "722"
    input: "15"
    output: "1468"
    op_type: "Gemm"
    attribute {
      name: "alpha"
      f: 1
    }
    attribute {
      name: "beta"
      f: 1
    }
    attribute {
      name: "broadcast"
      i: 1
    }
  }
  node {
    input: "14"
    output: "725"
    op_type: "Transpose"
    attribute {
      name: "perm"
      ints: 1
      ints: 0
    }
  }
  node {
    input: "716"
    input: "725"
    input: "16"
    output: "1469"
    op_type: "Gemm"
    attribute {
      name: "alpha"
      f: 1
    }
    attribute {
      name: "beta"
      f: 1
    }
    attribute {
      name: "broadcast"
      i: 1
    }
  }
  node {
    input: "1468"
    input: "1469"
    output: "728"
    op_type: "Add"
  }
  node {
    input: "728"
    output: "730"
    output: "731"
    output: "732"
    output: "733"
    op_type: "Split"
    attribute {
      name: "axis"
      i: 1
    }
    attribute {
      name: "split"
      ints: 5
      ints: 5
      ints: 5
      ints: 5
    }
  }
  node {
    input: "730"
    output: "734"
    op_type: "Sigmoid"
  }
  node {
    input: "731"
    output: "735"
    op_type: "Sigmoid"
  }
  node {
    input: "732"
    output: "736"
    op_type: "Tanh"
  }
  node {
    input: "733"
    output: "737"
    op_type: "Sigmoid"
  }
  node {
    input: "735"
    input: "714"
    output: "738"
    op_type: "Mul"
  }
  node {
    input: "734"
    input: "736"
    output: "739"
    op_type: "Mul"
  }
  node {
    input: "738"
    input: "739"
    output: "740"
    op_type: "Add"
  }
  node {
    input: "740"
    output: "741"
    op_type: "Tanh"
  }
  node {
    input: "737"
    input: "741"
    output: "742"
    op_type: "Mul"
  }
  node {
    output: "743"
    op_type: "Constant"
    attribute {
      name: "value"
      t {
        dims: 1
        data_type: INT32
        raw_data: "\000\000\000\000"
      }
    }
  }
  node {
    output: "744"
    op_type: "Constant"
    attribute {
      name: "value"
      t {
        dims: 1
        data_type: INT64
        raw_data: "\005\000\000\000\000\000\000\000"
      }
    }
  }
  node {
    output: "745"
    op_type: "Constant"
    attribute {
      name: "value"
      t {
        dims: 1
        data_type: INT64
        raw_data: "\006\000\000\000\000\000\000\000"
      }
    }
  }
  node {
    input: "611"
    input: "743"
    input: "744"
    input: "745"
    output: "746"
    op_type: "Slice"
  }
  node {
    input: "746"
    output: "747"
    op_type: "Squeeze"
    attribute {
      name: "axes"
      ints: 0
    }
  }
  node {
    input: "13"
    output: "748"
    op_type: "Transpose"
    attribute {
      name: "perm"
      ints: 1
      ints: 0
    }
  }
  node {
    input: "747"
    input: "748"
    input: "15"
    output: "1470"
    op_type: "Gemm"
    attribute {
      name: "alpha"
      f: 1
    }
    attribute {
      name: "beta"
      f: 1
    }
    attribute {
      name: "broadcast"
      i: 1
    }
  }
  node {
    input: "14"
    output: "751"
    op_type: "Transpose"
    attribute {
      name: "perm"
      ints: 1
      ints: 0
    }
  }
  node {
    input: "742"
    input: "751"
    input: "16"
    output: "1471"
    op_type: "Gemm"
    attribute {
      name: "alpha"
      f: 1
    }
    attribute {
      name: "beta"
      f: 1
    }
    attribute {
      name: "broadcast"
      i: 1
    }
  }
  node {
    input: "1470"
    input: "1471"
    output: "754"
    op_type: "Add"
  }
  node {
    input: "754"
    output: "756"
    output: "757"
    output: "758"
    output: "759"
    op_type: "Split"
    attribute {
      name: "axis"
      i: 1
    }
    attribute {
      name: "split"
      ints: 5
      ints: 5
      ints: 5
      ints: 5
    }
  }
  node {
    input: "756"
    output: "760"
    op_type: "Sigmoid"
  }
  node {
    input: "757"
    output: "761"
    op_type: "Sigmoid"
  }
  node {
    input: "758"
    output: "762"
    op_type: "Tanh"
  }
  node {
    input: "759"
    output: "763"
    op_type: "Sigmoid"
  }
  node {
    input: "761"
    input: "740"
    output: "764"
    op_type: "Mul"
  }
  node {
    input: "760"
    input: "762"
    output: "765"
    op_type: "Mul"
  }
  node {
    input: "764"
    input: "765"
    output: "766"
    op_type: "Add"
  }
  node {
    input: "766"
    output: "767"
    op_type: "Tanh"
  }
  node {
    input: "763"
    input: "767"
    output: "768"
    op_type: "Mul"
  }
  node {
    output: "769"
    op_type: "Constant"
    attribute {
      name: "value"
      t {
        dims: 1
        data_type: INT32
        raw_data: "\000\000\000\000"
      }
    }
  }
  node {
    output: "770"
    op_type: "Constant"
    attribute {
      name: "value"
      t {
        dims: 1
        data_type: INT64
        raw_data: "\006\000\000\000\000\000\000\000"
      }
    }
  }
  node {
    output: "771"
    op_type: "Constant"
    attribute {
      name: "value"
      t {
        dims: 1
        data_type: INT64
        raw_data: "\007\000\000\000\000\000\000\000"
      }
    }
  }
  node {
    input: "611"
    input: "769"
    input: "770"
    input: "771"
    output: "772"
    op_type: "Slice"
  }
  node {
    input: "772"
    output: "773"
    op_type: "Squeeze"
    attribute {
      name: "axes"
      ints: 0
    }
  }
  node {
    input: "13"
    output: "774"
    op_type: "Transpose"
    attribute {
      name: "perm"
      ints: 1
      ints: 0
    }
  }
  node {
    input: "773"
    input: "774"
    input: "15"
    output: "1472"
    op_type: "Gemm"
    attribute {
      name: "alpha"
      f: 1
    }
    attribute {
      name: "beta"
      f: 1
    }
    attribute {
      name: "broadcast"
      i: 1
    }
  }
  node {
    input: "14"
    output: "777"
    op_type: "Transpose"
    attribute {
      name: "perm"
      ints: 1
      ints: 0
    }
  }
  node {
    input: "768"
    input: "777"
    input: "16"
    output: "1473"
    op_type: "Gemm"
    attribute {
      name: "alpha"
      f: 1
    }
    attribute {
      name: "beta"
      f: 1
    }
    attribute {
      name: "broadcast"
      i: 1
    }
  }
  node {
    input: "1472"
    input: "1473"
    output: "780"
    op_type: "Add"
  }
  node {
    input: "780"
    output: "782"
    output: "783"
    output: "784"
    output: "785"
    op_type: "Split"
    attribute {
      name: "axis"
      i: 1
    }
    attribute {
      name: "split"
      ints: 5
      ints: 5
      ints: 5
      ints: 5
    }
  }
  node {
    input: "782"
    output: "786"
    op_type: "Sigmoid"
  }
  node {
    input: "783"
    output: "787"
    op_type: "Sigmoid"
  }
  node {
    input: "784"
    output: "788"
    op_type: "Tanh"
  }
  node {
    input: "785"
    output: "789"
    op_type: "Sigmoid"
  }
  node {
    input: "787"
    input: "766"
    output: "790"
    op_type: "Mul"
  }
  node {
    input: "786"
    input: "788"
    output: "791"
    op_type: "Mul"
  }
  node {
    input: "790"
    input: "791"
    output: "792"
    op_type: "Add"
  }
  node {
    input: "792"
    output: "793"
    op_type: "Tanh"
  }
  node {
    input: "789"
    input: "793"
    output: "794"
    op_type: "Mul"
  }
  node {
    output: "795"
    op_type: "Constant"
    attribute {
      name: "value"
      t {
        dims: 1
        data_type: INT32
        raw_data: "\000\000\000\000"
      }
    }
  }
  node {
    output: "796"
    op_type: "Constant"
    attribute {
      name: "value"
      t {
        dims: 1
        data_type: INT64
        raw_data: "\007\000\000\000\000\000\000\000"
      }
    }
  }
  node {
    output: "797"
    op_type: "Constant"
    attribute {
      name: "value"
      t {
        dims: 1
        data_type: INT64
        raw_data: "\010\000\000\000\000\000\000\000"
      }
    }
  }
  node {
    input: "611"
    input: "795"
    input: "796"
    input: "797"
    output: "798"
    op_type: "Slice"
  }
  node {
    input: "798"
    output: "799"
    op_type: "Squeeze"
    attribute {
      name: "axes"
      ints: 0
    }
  }
  node {
    input: "13"
    output: "800"
    op_type: "Transpose"
    attribute {
      name: "perm"
      ints: 1
      ints: 0
    }
  }
  node {
    input: "799"
    input: "800"
    input: "15"
    output: "1474"
    op_type: "Gemm"
    attribute {
      name: "alpha"
      f: 1
    }
    attribute {
      name: "beta"
      f: 1
    }
    attribute {
      name: "broadcast"
      i: 1
    }
  }
  node {
    input: "14"
    output: "803"
    op_type: "Transpose"
    attribute {
      name: "perm"
      ints: 1
      ints: 0
    }
  }
  node {
    input: "794"
    input: "803"
    input: "16"
    output: "1475"
    op_type: "Gemm"
    attribute {
      name: "alpha"
      f: 1
    }
    attribute {
      name: "beta"
      f: 1
    }
    attribute {
      name: "broadcast"
      i: 1
    }
  }
  node {
    input: "1474"
    input: "1475"
    output: "806"
    op_type: "Add"
  }
  node {
    input: "806"
    output: "808"
    output: "809"
    output: "810"
    output: "811"
    op_type: "Split"
    attribute {
      name: "axis"
      i: 1
    }
    attribute {
      name: "split"
      ints: 5
      ints: 5
      ints: 5
      ints: 5
    }
  }
  node {
    input: "808"
    output: "812"
    op_type: "Sigmoid"
  }
  node {
    input: "809"
    output: "813"
    op_type: "Sigmoid"
  }
  node {
    input: "810"
    output: "814"
    op_type: "Tanh"
  }
  node {
    input: "811"
    output: "815"
    op_type: "Sigmoid"
  }
  node {
    input: "813"
    input: "792"
    output: "816"
    op_type: "Mul"
  }
  node {
    input: "812"
    input: "814"
    output: "817"
    op_type: "Mul"
  }
  node {
    input: "816"
    input: "817"
    output: "818"
    op_type: "Add"
  }
  node {
    input: "818"
    output: "819"
    op_type: "Tanh"
  }
  node {
    input: "815"
    input: "819"
    output: "820"
    op_type: "Mul"
  }
  node {
    output: "821"
    op_type: "Constant"
    attribute {
      name: "value"
      t {
        dims: 1
        data_type: INT32
        raw_data: "\000\000\000\000"
      }
    }
  }
  node {
    output: "822"
    op_type: "Constant"
    attribute {
      name: "value"
      t {
        dims: 1
        data_type: INT64
        raw_data: "\010\000\000\000\000\000\000\000"
      }
    }
  }
  node {
    output: "823"
    op_type: "Constant"
    attribute {
      name: "value"
      t {
        dims: 1
        data_type: INT64
        raw_data: "\t\000\000\000\000\000\000\000"
      }
    }
  }
  node {
    input: "611"
    input: "821"
    input: "822"
    input: "823"
    output: "824"
    op_type: "Slice"
  }
  node {
    input: "824"
    output: "825"
    op_type: "Squeeze"
    attribute {
      name: "axes"
      ints: 0
    }
  }
  node {
    input: "13"
    output: "826"
    op_type: "Transpose"
    attribute {
      name: "perm"
      ints: 1
      ints: 0
    }
  }
  node {
    input: "825"
    input: "826"
    input: "15"
    output: "1476"
    op_type: "Gemm"
    attribute {
      name: "alpha"
      f: 1
    }
    attribute {
      name: "beta"
      f: 1
    }
    attribute {
      name: "broadcast"
      i: 1
    }
  }
  node {
    input: "14"
    output: "829"
    op_type: "Transpose"
    attribute {
      name: "perm"
      ints: 1
      ints: 0
    }
  }
  node {
    input: "820"
    input: "829"
    input: "16"
    output: "1477"
    op_type: "Gemm"
    attribute {
      name: "alpha"
      f: 1
    }
    attribute {
      name: "beta"
      f: 1
    }
    attribute {
      name: "broadcast"
      i: 1
    }
  }
  node {
    input: "1476"
    input: "1477"
    output: "832"
    op_type: "Add"
  }
  node {
    input: "832"
    output: "834"
    output: "835"
    output: "836"
    output: "837"
    op_type: "Split"
    attribute {
      name: "axis"
      i: 1
    }
    attribute {
      name: "split"
      ints: 5
      ints: 5
      ints: 5
      ints: 5
    }
  }
  node {
    input: "834"
    output: "838"
    op_type: "Sigmoid"
  }
  node {
    input: "835"
    output: "839"
    op_type: "Sigmoid"
  }
  node {
    input: "836"
    output: "840"
    op_type: "Tanh"
  }
  node {
    input: "837"
    output: "841"
    op_type: "Sigmoid"
  }
  node {
    input: "839"
    input: "818"
    output: "842"
    op_type: "Mul"
  }
  node {
    input: "838"
    input: "840"
    output: "843"
    op_type: "Mul"
  }
  node {
    input: "842"
    input: "843"
    output: "844"
    op_type: "Add"
  }
  node {
    input: "844"
    output: "845"
    op_type: "Tanh"
  }
  node {
    input: "841"
    input: "845"
    output: "846"
    op_type: "Mul"
  }
  node {
    output: "847"
    op_type: "Constant"
    attribute {
      name: "value"
      t {
        dims: 1
        data_type: INT32
        raw_data: "\000\000\000\000"
      }
    }
  }
  node {
    output: "848"
    op_type: "Constant"
    attribute {
      name: "value"
      t {
        dims: 1
        data_type: INT64
        raw_data: "\t\000\000\000\000\000\000\000"
      }
    }
  }
  node {
    output: "849"
    op_type: "Constant"
    attribute {
      name: "value"
      t {
        dims: 1
        data_type: INT64
        raw_data: "\n\000\000\000\000\000\000\000"
      }
    }
  }
  node {
    input: "611"
    input: "847"
    input: "848"
    input: "849"
    output: "850"
    op_type: "Slice"
  }
  node {
    input: "850"
    output: "851"
    op_type: "Squeeze"
    attribute {
      name: "axes"
      ints: 0
    }
  }
  node {
    input: "13"
    output: "852"
    op_type: "Transpose"
    attribute {
      name: "perm"
      ints: 1
      ints: 0
    }
  }
  node {
    input: "851"
    input: "852"
    input: "15"
    output: "1478"
    op_type: "Gemm"
    attribute {
      name: "alpha"
      f: 1
    }
    attribute {
      name: "beta"
      f: 1
    }
    attribute {
      name: "broadcast"
      i: 1
    }
  }
  node {
    input: "14"
    output: "855"
    op_type: "Transpose"
    attribute {
      name: "perm"
      ints: 1
      ints: 0
    }
  }
  node {
    input: "846"
    input: "855"
    input: "16"
    output: "1479"
    op_type: "Gemm"
    attribute {
      name: "alpha"
      f: 1
    }
    attribute {
      name: "beta"
      f: 1
    }
    attribute {
      name: "broadcast"
      i: 1
    }
  }
  node {
    input: "1478"
    input: "1479"
    output: "858"
    op_type: "Add"
  }
  node {
    input: "858"
    output: "860"
    output: "861"
    output: "862"
    output: "863"
    op_type: "Split"
    attribute {
      name: "axis"
      i: 1
    }
    attribute {
      name: "split"
      ints: 5
      ints: 5
      ints: 5
      ints: 5
    }
  }
  node {
    input: "860"
    output: "864"
    op_type: "Sigmoid"
  }
  node {
    input: "861"
    output: "865"
    op_type: "Sigmoid"
  }
  node {
    input: "862"
    output: "866"
    op_type: "Tanh"
  }
  node {
    input: "863"
    output: "867"
    op_type: "Sigmoid"
  }
  node {
    input: "865"
    input: "844"
    output: "868"
    op_type: "Mul"
  }
  node {
    input: "864"
    input: "866"
    output: "869"
    op_type: "Mul"
  }
  node {
    input: "868"
    input: "869"
    output: "870"
    op_type: "Add"
  }
  node {
    input: "870"
    output: "871"
    op_type: "Tanh"
  }
  node {
    input: "867"
    input: "871"
    output: "872"
    op_type: "Mul"
  }
  node {
    input: "638"
    input: "664"
    input: "690"
    input: "716"
    input: "742"
    input: "768"
    input: "794"
    input: "820"
    input: "846"
    input: "872"
    output: "873"
    op_type: "Concat"
    attribute {
      name: "axis"
      i: 0
    }
  }
  node {
    input: "873"
    output: "874"
    op_type: "Reshape"
    attribute {
      name: "shape"
      ints: 10
      ints: 5
      ints: 5
    }
  }
  node {
    input: "874"
    output: "875"
    op_type: "Concat"
    attribute {
      name: "axis"
      i: 2
    }
  }
  node {
    input: "875"
    output: "877"
    output: "878"
    op_type: "Dropout"
    attribute {
      name: "is_test"
      i: 1
    }
    attribute {
      name: "ratio"
      f: 0.200000002980232
    }
  }
  node {
    output: "879"
    op_type: "Constant"
    attribute {
      name: "value"
      t {
        dims: 1
        data_type: INT32
        raw_data: "\000\000\000\000"
      }
    }
  }
  node {
    output: "880"
    op_type: "Constant"
    attribute {
      name: "value"
      t {
        dims: 1
        data_type: INT64
        raw_data: "\000\000\000\000\000\000\000\000"
      }
    }
  }
  node {
    output: "881"
    op_type: "Constant"
    attribute {
      name: "value"
      t {
        dims: 1
        data_type: INT64
        raw_data: "\001\000\000\000\000\000\000\000"
      }
    }
  }
  node {
    input: "877"
    input: "879"
    input: "880"
    input: "881"
    output: "882"
    op_type: "Slice"
  }
  node {
    input: "882"
    output: "883"
    op_type: "Squeeze"
    attribute {
      name: "axes"
      ints: 0
    }
  }
  node {
    input: "17"
    output: "884"
    op_type: "Transpose"
    attribute {
      name: "perm"
      ints: 1
      ints: 0
    }
  }
  node {
    input: "883"
    input: "884"
    input: "19"
    output: "1480"
    op_type: "Gemm"
    attribute {
      name: "alpha"
      f: 1
    }
    attribute {
      name: "beta"
      f: 1
    }
    attribute {
      name: "broadcast"
      i: 1
    }
  }
  node {
    input: "18"
    output: "887"
    op_type: "Transpose"
    attribute {
      name: "perm"
      ints: 1
      ints: 0
    }
  }
  node {
    input: "65"
    input: "887"
    input: "20"
    output: "1481"
    op_type: "Gemm"
    attribute {
      name: "alpha"
      f: 1
    }
    attribute {
      name: "beta"
      f: 1
    }
    attribute {
      name: "broadcast"
      i: 1
    }
  }
  node {
    input: "1480"
    input: "1481"
    output: "890"
    op_type: "Add"
  }
  node {
    input: "890"
    output: "892"
    output: "893"
    output: "894"
    output: "895"
    op_type: "Split"
    attribute {
      name: "axis"
      i: 1
    }
    attribute {
      name: "split"
      ints: 5
      ints: 5
      ints: 5
      ints: 5
    }
  }
  node {
    input: "892"
    output: "896"
    op_type: "Sigmoid"
  }
  node {
    input: "893"
    output: "897"
    op_type: "Sigmoid"
  }
  node {
    input: "894"
    output: "898"
    op_type: "Tanh"
  }
  node {
    input: "895"
    output: "899"
    op_type: "Sigmoid"
  }
  node {
    input: "897"
    input: "70"
    output: "900"
    op_type: "Mul"
  }
  node {
    input: "896"
    input: "898"
    output: "901"
    op_type: "Mul"
  }
  node {
    input: "900"
    input: "901"
    output: "902"
    op_type: "Add"
  }
  node {
    input: "902"
    output: "903"
    op_type: "Tanh"
  }
  node {
    input: "899"
    input: "903"
    output: "904"
    op_type: "Mul"
  }
  node {
    output: "905"
    op_type: "Constant"
    attribute {
      name: "value"
      t {
        dims: 1
        data_type: INT32
        raw_data: "\000\000\000\000"
      }
    }
  }
  node {
    output: "906"
    op_type: "Constant"
    attribute {
      name: "value"
      t {
        dims: 1
        data_type: INT64
        raw_data: "\001\000\000\000\000\000\000\000"
      }
    }
  }
  node {
    output: "907"
    op_type: "Constant"
    attribute {
      name: "value"
      t {
        dims: 1
        data_type: INT64
        raw_data: "\002\000\000\000\000\000\000\000"
      }
    }
  }
  node {
    input: "877"
    input: "905"
    input: "906"
    input: "907"
    output: "908"
    op_type: "Slice"
  }
  node {
    input: "908"
    output: "909"
    op_type: "Squeeze"
    attribute {
      name: "axes"
      ints: 0
    }
  }
  node {
    input: "17"
    output: "910"
    op_type: "Transpose"
    attribute {
      name: "perm"
      ints: 1
      ints: 0
    }
  }
  node {
    input: "909"
    input: "910"
    input: "19"
    output: "1482"
    op_type: "Gemm"
    attribute {
      name: "alpha"
      f: 1
    }
    attribute {
      name: "beta"
      f: 1
    }
    attribute {
      name: "broadcast"
      i: 1
    }
  }
  node {
    input: "18"
    output: "913"
    op_type: "Transpose"
    attribute {
      name: "perm"
      ints: 1
      ints: 0
    }
  }
  node {
    input: "904"
    input: "913"
    input: "20"
    output: "1483"
    op_type: "Gemm"
    attribute {
      name: "alpha"
      f: 1
    }
    attribute {
      name: "beta"
      f: 1
    }
    attribute {
      name: "broadcast"
      i: 1
    }
  }
  node {
    input: "1482"
    input: "1483"
    output: "916"
    op_type: "Add"
  }
  node {
    input: "916"
    output: "918"
    output: "919"
    output: "920"
    output: "921"
    op_type: "Split"
    attribute {
      name: "axis"
      i: 1
    }
    attribute {
      name: "split"
      ints: 5
      ints: 5
      ints: 5
      ints: 5
    }
  }
  node {
    input: "918"
    output: "922"
    op_type: "Sigmoid"
  }
  node {
    input: "919"
    output: "923"
    op_type: "Sigmoid"
  }
  node {
    input: "920"
    output: "924"
    op_type: "Tanh"
  }
  node {
    input: "921"
    output: "925"
    op_type: "Sigmoid"
  }
  node {
    input: "923"
    input: "902"
    output: "926"
    op_type: "Mul"
  }
  node {
    input: "922"
    input: "924"
    output: "927"
    op_type: "Mul"
  }
  node {
    input: "926"
    input: "927"
    output: "928"
    op_type: "Add"
  }
  node {
    input: "928"
    output: "929"
    op_type: "Tanh"
  }
  node {
    input: "925"
    input: "929"
    output: "930"
    op_type: "Mul"
  }
  node {
    output: "931"
    op_type: "Constant"
    attribute {
      name: "value"
      t {
        dims: 1
        data_type: INT32
        raw_data: "\000\000\000\000"
      }
    }
  }
  node {
    output: "932"
    op_type: "Constant"
    attribute {
      name: "value"
      t {
        dims: 1
        data_type: INT64
        raw_data: "\002\000\000\000\000\000\000\000"
      }
    }
  }
  node {
    output: "933"
    op_type: "Constant"
    attribute {
      name: "value"
      t {
        dims: 1
        data_type: INT64
        raw_data: "\003\000\000\000\000\000\000\000"
      }
    }
  }
  node {
    input: "877"
    input: "931"
    input: "932"
    input: "933"
    output: "934"
    op_type: "Slice"
  }
  node {
    input: "934"
    output: "935"
    op_type: "Squeeze"
    attribute {
      name: "axes"
      ints: 0
    }
  }
  node {
    input: "17"
    output: "936"
    op_type: "Transpose"
    attribute {
      name: "perm"
      ints: 1
      ints: 0
    }
  }
  node {
    input: "935"
    input: "936"
    input: "19"
    output: "1484"
    op_type: "Gemm"
    attribute {
      name: "alpha"
      f: 1
    }
    attribute {
      name: "beta"
      f: 1
    }
    attribute {
      name: "broadcast"
      i: 1
    }
  }
  node {
    input: "18"
    output: "939"
    op_type: "Transpose"
    attribute {
      name: "perm"
      ints: 1
      ints: 0
    }
  }
  node {
    input: "930"
    input: "939"
    input: "20"
    output: "1485"
    op_type: "Gemm"
    attribute {
      name: "alpha"
      f: 1
    }
    attribute {
      name: "beta"
      f: 1
    }
    attribute {
      name: "broadcast"
      i: 1
    }
  }
  node {
    input: "1484"
    input: "1485"
    output: "942"
    op_type: "Add"
  }
  node {
    input: "942"
    output: "944"
    output: "945"
    output: "946"
    output: "947"
    op_type: "Split"
    attribute {
      name: "axis"
      i: 1
    }
    attribute {
      name: "split"
      ints: 5
      ints: 5
      ints: 5
      ints: 5
    }
  }
  node {
    input: "944"
    output: "948"
    op_type: "Sigmoid"
  }
  node {
    input: "945"
    output: "949"
    op_type: "Sigmoid"
  }
  node {
    input: "946"
    output: "950"
    op_type: "Tanh"
  }
  node {
    input: "947"
    output: "951"
    op_type: "Sigmoid"
  }
  node {
    input: "949"
    input: "928"
    output: "952"
    op_type: "Mul"
  }
  node {
    input: "948"
    input: "950"
    output: "953"
    op_type: "Mul"
  }
  node {
    input: "952"
    input: "953"
    output: "954"
    op_type: "Add"
  }
  node {
    input: "954"
    output: "955"
    op_type: "Tanh"
  }
  node {
    input: "951"
    input: "955"
    output: "956"
    op_type: "Mul"
  }
  node {
    output: "957"
    op_type: "Constant"
    attribute {
      name: "value"
      t {
        dims: 1
        data_type: INT32
        raw_data: "\000\000\000\000"
      }
    }
  }
  node {
    output: "958"
    op_type: "Constant"
    attribute {
      name: "value"
      t {
        dims: 1
        data_type: INT64
        raw_data: "\003\000\000\000\000\000\000\000"
      }
    }
  }
  node {
    output: "959"
    op_type: "Constant"
    attribute {
      name: "value"
      t {
        dims: 1
        data_type: INT64
        raw_data: "\004\000\000\000\000\000\000\000"
      }
    }
  }
  node {
    input: "877"
    input: "957"
    input: "958"
    input: "959"
    output: "960"
    op_type: "Slice"
  }
  node {
    input: "960"
    output: "961"
    op_type: "Squeeze"
    attribute {
      name: "axes"
      ints: 0
    }
  }
  node {
    input: "17"
    output: "962"
    op_type: "Transpose"
    attribute {
      name: "perm"
      ints: 1
      ints: 0
    }
  }
  node {
    input: "961"
    input: "962"
    input: "19"
    output: "1486"
    op_type: "Gemm"
    attribute {
      name: "alpha"
      f: 1
    }
    attribute {
      name: "beta"
      f: 1
    }
    attribute {
      name: "broadcast"
      i: 1
    }
  }
  node {
    input: "18"
    output: "965"
    op_type: "Transpose"
    attribute {
      name: "perm"
      ints: 1
      ints: 0
    }
  }
  node {
    input: "956"
    input: "965"
    input: "20"
    output: "1487"
    op_type: "Gemm"
    attribute {
      name: "alpha"
      f: 1
    }
    attribute {
      name: "beta"
      f: 1
    }
    attribute {
      name: "broadcast"
      i: 1
    }
  }
  node {
    input: "1486"
    input: "1487"
    output: "968"
    op_type: "Add"
  }
  node {
    input: "968"
    output: "970"
    output: "971"
    output: "972"
    output: "973"
    op_type: "Split"
    attribute {
      name: "axis"
      i: 1
    }
    attribute {
      name: "split"
      ints: 5
      ints: 5
      ints: 5
      ints: 5
    }
  }
  node {
    input: "970"
    output: "974"
    op_type: "Sigmoid"
  }
  node {
    input: "971"
    output: "975"
    op_type: "Sigmoid"
  }
  node {
    input: "972"
    output: "976"
    op_type: "Tanh"
  }
  node {
    input: "973"
    output: "977"
    op_type: "Sigmoid"
  }
  node {
    input: "975"
    input: "954"
    output: "978"
    op_type: "Mul"
  }
  node {
    input: "974"
    input: "976"
    output: "979"
    op_type: "Mul"
  }
  node {
    input: "978"
    input: "979"
    output: "980"
    op_type: "Add"
  }
  node {
    input: "980"
    output: "981"
    op_type: "Tanh"
  }
  node {
    input: "977"
    input: "981"
    output: "982"
    op_type: "Mul"
  }
  node {
    output: "983"
    op_type: "Constant"
    attribute {
      name: "value"
      t {
        dims: 1
        data_type: INT32
        raw_data: "\000\000\000\000"
      }
    }
  }
  node {
    output: "984"
    op_type: "Constant"
    attribute {
      name: "value"
      t {
        dims: 1
        data_type: INT64
        raw_data: "\004\000\000\000\000\000\000\000"
      }
    }
  }
  node {
    output: "985"
    op_type: "Constant"
    attribute {
      name: "value"
      t {
        dims: 1
        data_type: INT64
        raw_data: "\005\000\000\000\000\000\000\000"
      }
    }
  }
  node {
    input: "877"
    input: "983"
    input: "984"
    input: "985"
    output: "986"
    op_type: "Slice"
  }
  node {
    input: "986"
    output: "987"
    op_type: "Squeeze"
    attribute {
      name: "axes"
      ints: 0
    }
  }
  node {
    input: "17"
    output: "988"
    op_type: "Transpose"
    attribute {
      name: "perm"
      ints: 1
      ints: 0
    }
  }
  node {
    input: "987"
    input: "988"
    input: "19"
    output: "1488"
    op_type: "Gemm"
    attribute {
      name: "alpha"
      f: 1
    }
    attribute {
      name: "beta"
      f: 1
    }
    attribute {
      name: "broadcast"
      i: 1
    }
  }
  node {
    input: "18"
    output: "991"
    op_type: "Transpose"
    attribute {
      name: "perm"
      ints: 1
      ints: 0
    }
  }
  node {
    input: "982"
    input: "991"
    input: "20"
    output: "1489"
    op_type: "Gemm"
    attribute {
      name: "alpha"
      f: 1
    }
    attribute {
      name: "beta"
      f: 1
    }
    attribute {
      name: "broadcast"
      i: 1
    }
  }
  node {
    input: "1488"
    input: "1489"
    output: "994"
    op_type: "Add"
  }
  node {
    input: "994"
    output: "996"
    output: "997"
    output: "998"
    output: "999"
    op_type: "Split"
    attribute {
      name: "axis"
      i: 1
    }
    attribute {
      name: "split"
      ints: 5
      ints: 5
      ints: 5
      ints: 5
    }
  }
  node {
    input: "996"
    output: "1000"
    op_type: "Sigmoid"
  }
  node {
    input: "997"
    output: "1001"
    op_type: "Sigmoid"
  }
  node {
    input: "998"
    output: "1002"
    op_type: "Tanh"
  }
  node {
    input: "999"
    output: "1003"
    op_type: "Sigmoid"
  }
  node {
    input: "1001"
    input: "980"
    output: "1004"
    op_type: "Mul"
  }
  node {
    input: "1000"
    input: "1002"
    output: "1005"
    op_type: "Mul"
  }
  node {
    input: "1004"
    input: "1005"
    output: "1006"
    op_type: "Add"
  }
  node {
    input: "1006"
    output: "1007"
    op_type: "Tanh"
  }
  node {
    input: "1003"
    input: "1007"
    output: "1008"
    op_type: "Mul"
  }
  node {
    output: "1009"
    op_type: "Constant"
    attribute {
      name: "value"
      t {
        dims: 1
        data_type: INT32
        raw_data: "\000\000\000\000"
      }
    }
  }
  node {
    output: "1010"
    op_type: "Constant"
    attribute {
      name: "value"
      t {
        dims: 1
        data_type: INT64
        raw_data: "\005\000\000\000\000\000\000\000"
      }
    }
  }
  node {
    output: "1011"
    op_type: "Constant"
    attribute {
      name: "value"
      t {
        dims: 1
        data_type: INT64
        raw_data: "\006\000\000\000\000\000\000\000"
      }
    }
  }
  node {
    input: "877"
    input: "1009"
    input: "1010"
    input: "1011"
    output: "1012"
    op_type: "Slice"
  }
  node {
    input: "1012"
    output: "1013"
    op_type: "Squeeze"
    attribute {
      name: "axes"
      ints: 0
    }
  }
  node {
    input: "17"
    output: "1014"
    op_type: "Transpose"
    attribute {
      name: "perm"
      ints: 1
      ints: 0
    }
  }
  node {
    input: "1013"
    input: "1014"
    input: "19"
    output: "1490"
    op_type: "Gemm"
    attribute {
      name: "alpha"
      f: 1
    }
    attribute {
      name: "beta"
      f: 1
    }
    attribute {
      name: "broadcast"
      i: 1
    }
  }
  node {
    input: "18"
    output: "1017"
    op_type: "Transpose"
    attribute {
      name: "perm"
      ints: 1
      ints: 0
    }
  }
  node {
    input: "1008"
    input: "1017"
    input: "20"
    output: "1491"
    op_type: "Gemm"
    attribute {
      name: "alpha"
      f: 1
    }
    attribute {
      name: "beta"
      f: 1
    }
    attribute {
      name: "broadcast"
      i: 1
    }
  }
  node {
    input: "1490"
    input: "1491"
    output: "1020"
    op_type: "Add"
  }
  node {
    input: "1020"
    output: "1022"
    output: "1023"
    output: "1024"
    output: "1025"
    op_type: "Split"
    attribute {
      name: "axis"
      i: 1
    }
    attribute {
      name: "split"
      ints: 5
      ints: 5
      ints: 5
      ints: 5
    }
  }
  node {
    input: "1022"
    output: "1026"
    op_type: "Sigmoid"
  }
  node {
    input: "1023"
    output: "1027"
    op_type: "Sigmoid"
  }
  node {
    input: "1024"
    output: "1028"
    op_type: "Tanh"
  }
  node {
    input: "1025"
    output: "1029"
    op_type: "Sigmoid"
  }
  node {
    input: "1027"
    input: "1006"
    output: "1030"
    op_type: "Mul"
  }
  node {
    input: "1026"
    input: "1028"
    output: "1031"
    op_type: "Mul"
  }
  node {
    input: "1030"
    input: "1031"
    output: "1032"
    op_type: "Add"
  }
  node {
    input: "1032"
    output: "1033"
    op_type: "Tanh"
  }
  node {
    input: "1029"
    input: "1033"
    output: "1034"
    op_type: "Mul"
  }
  node {
    output: "1035"
    op_type: "Constant"
    attribute {
      name: "value"
      t {
        dims: 1
        data_type: INT32
        raw_data: "\000\000\000\000"
      }
    }
  }
  node {
    output: "1036"
    op_type: "Constant"
    attribute {
      name: "value"
      t {
        dims: 1
        data_type: INT64
        raw_data: "\006\000\000\000\000\000\000\000"
      }
    }
  }
  node {
    output: "1037"
    op_type: "Constant"
    attribute {
      name: "value"
      t {
        dims: 1
        data_type: INT64
        raw_data: "\007\000\000\000\000\000\000\000"
      }
    }
  }
  node {
    input: "877"
    input: "1035"
    input: "1036"
    input: "1037"
    output: "1038"
    op_type: "Slice"
  }
  node {
    input: "1038"
    output: "1039"
    op_type: "Squeeze"
    attribute {
      name: "axes"
      ints: 0
    }
  }
  node {
    input: "17"
    output: "1040"
    op_type: "Transpose"
    attribute {
      name: "perm"
      ints: 1
      ints: 0
    }
  }
  node {
    input: "1039"
    input: "1040"
    input: "19"
    output: "1492"
    op_type: "Gemm"
    attribute {
      name: "alpha"
      f: 1
    }
    attribute {
      name: "beta"
      f: 1
    }
    attribute {
      name: "broadcast"
      i: 1
    }
  }
  node {
    input: "18"
    output: "1043"
    op_type: "Transpose"
    attribute {
      name: "perm"
      ints: 1
      ints: 0
    }
  }
  node {
    input: "1034"
    input: "1043"
    input: "20"
    output: "1493"
    op_type: "Gemm"
    attribute {
      name: "alpha"
      f: 1
    }
    attribute {
      name: "beta"
      f: 1
    }
    attribute {
      name: "broadcast"
      i: 1
    }
  }
  node {
    input: "1492"
    input: "1493"
    output: "1046"
    op_type: "Add"
  }
  node {
    input: "1046"
    output: "1048"
    output: "1049"
    output: "1050"
    output: "1051"
    op_type: "Split"
    attribute {
      name: "axis"
      i: 1
    }
    attribute {
      name: "split"
      ints: 5
      ints: 5
      ints: 5
      ints: 5
    }
  }
  node {
    input: "1048"
    output: "1052"
    op_type: "Sigmoid"
  }
  node {
    input: "1049"
    output: "1053"
    op_type: "Sigmoid"
  }
  node {
    input: "1050"
    output: "1054"
    op_type: "Tanh"
  }
  node {
    input: "1051"
    output: "1055"
    op_type: "Sigmoid"
  }
  node {
    input: "1053"
    input: "1032"
    output: "1056"
    op_type: "Mul"
  }
  node {
    input: "1052"
    input: "1054"
    output: "1057"
    op_type: "Mul"
  }
  node {
    input: "1056"
    input: "1057"
    output: "1058"
    op_type: "Add"
  }
  node {
    input: "1058"
    output: "1059"
    op_type: "Tanh"
  }
  node {
    input: "1055"
    input: "1059"
    output: "1060"
    op_type: "Mul"
  }
  node {
    output: "1061"
    op_type: "Constant"
    attribute {
      name: "value"
      t {
        dims: 1
        data_type: INT32
        raw_data: "\000\000\000\000"
      }
    }
  }
  node {
    output: "1062"
    op_type: "Constant"
    attribute {
      name: "value"
      t {
        dims: 1
        data_type: INT64
        raw_data: "\007\000\000\000\000\000\000\000"
      }
    }
  }
  node {
    output: "1063"
    op_type: "Constant"
    attribute {
      name: "value"
      t {
        dims: 1
        data_type: INT64
        raw_data: "\010\000\000\000\000\000\000\000"
      }
    }
  }
  node {
    input: "877"
    input: "1061"
    input: "1062"
    input: "1063"
    output: "1064"
    op_type: "Slice"
  }
  node {
    input: "1064"
    output: "1065"
    op_type: "Squeeze"
    attribute {
      name: "axes"
      ints: 0
    }
  }
  node {
    input: "17"
    output: "1066"
    op_type: "Transpose"
    attribute {
      name: "perm"
      ints: 1
      ints: 0
    }
  }
  node {
    input: "1065"
    input: "1066"
    input: "19"
    output: "1494"
    op_type: "Gemm"
    attribute {
      name: "alpha"
      f: 1
    }
    attribute {
      name: "beta"
      f: 1
    }
    attribute {
      name: "broadcast"
      i: 1
    }
  }
  node {
    input: "18"
    output: "1069"
    op_type: "Transpose"
    attribute {
      name: "perm"
      ints: 1
      ints: 0
    }
  }
  node {
    input: "1060"
    input: "1069"
    input: "20"
    output: "1495"
    op_type: "Gemm"
    attribute {
      name: "alpha"
      f: 1
    }
    attribute {
      name: "beta"
      f: 1
    }
    attribute {
      name: "broadcast"
      i: 1
    }
  }
  node {
    input: "1494"
    input: "1495"
    output: "1072"
    op_type: "Add"
  }
  node {
    input: "1072"
    output: "1074"
    output: "1075"
    output: "1076"
    output: "1077"
    op_type: "Split"
    attribute {
      name: "axis"
      i: 1
    }
    attribute {
      name: "split"
      ints: 5
      ints: 5
      ints: 5
      ints: 5
    }
  }
  node {
    input: "1074"
    output: "1078"
    op_type: "Sigmoid"
  }
  node {
    input: "1075"
    output: "1079"
    op_type: "Sigmoid"
  }
  node {
    input: "1076"
    output: "1080"
    op_type: "Tanh"
  }
  node {
    input: "1077"
    output: "1081"
    op_type: "Sigmoid"
  }
  node {
    input: "1079"
    input: "1058"
    output: "1082"
    op_type: "Mul"
  }
  node {
    input: "1078"
    input: "1080"
    output: "1083"
    op_type: "Mul"
  }
  node {
    input: "1082"
    input: "1083"
    output: "1084"
    op_type: "Add"
  }
  node {
    input: "1084"
    output: "1085"
    op_type: "Tanh"
  }
  node {
    input: "1081"
    input: "1085"
    output: "1086"
    op_type: "Mul"
  }
  node {
    output: "1087"
    op_type: "Constant"
    attribute {
      name: "value"
      t {
        dims: 1
        data_type: INT32
        raw_data: "\000\000\000\000"
      }
    }
  }
  node {
    output: "1088"
    op_type: "Constant"
    attribute {
      name: "value"
      t {
        dims: 1
        data_type: INT64
        raw_data: "\010\000\000\000\000\000\000\000"
      }
    }
  }
  node {
    output: "1089"
    op_type: "Constant"
    attribute {
      name: "value"
      t {
        dims: 1
        data_type: INT64
        raw_data: "\t\000\000\000\000\000\000\000"
      }
    }
  }
  node {
    input: "877"
    input: "1087"
    input: "1088"
    input: "1089"
    output: "1090"
    op_type: "Slice"
  }
  node {
    input: "1090"
    output: "1091"
    op_type: "Squeeze"
    attribute {
      name: "axes"
      ints: 0
    }
  }
  node {
    input: "17"
    output: "1092"
    op_type: "Transpose"
    attribute {
      name: "perm"
      ints: 1
      ints: 0
    }
  }
  node {
    input: "1091"
    input: "1092"
    input: "19"
    output: "1496"
    op_type: "Gemm"
    attribute {
      name: "alpha"
      f: 1
    }
    attribute {
      name: "beta"
      f: 1
    }
    attribute {
      name: "broadcast"
      i: 1
    }
  }
  node {
    input: "18"
    output: "1095"
    op_type: "Transpose"
    attribute {
      name: "perm"
      ints: 1
      ints: 0
    }
  }
  node {
    input: "1086"
    input: "1095"
    input: "20"
    output: "1497"
    op_type: "Gemm"
    attribute {
      name: "alpha"
      f: 1
    }
    attribute {
      name: "beta"
      f: 1
    }
    attribute {
      name: "broadcast"
      i: 1
    }
  }
  node {
    input: "1496"
    input: "1497"
    output: "1098"
    op_type: "Add"
  }
  node {
    input: "1098"
    output: "1100"
    output: "1101"
    output: "1102"
    output: "1103"
    op_type: "Split"
    attribute {
      name: "axis"
      i: 1
    }
    attribute {
      name: "split"
      ints: 5
      ints: 5
      ints: 5
      ints: 5
    }
  }
  node {
    input: "1100"
    output: "1104"
    op_type: "Sigmoid"
  }
  node {
    input: "1101"
    output: "1105"
    op_type: "Sigmoid"
  }
  node {
    input: "1102"
    output: "1106"
    op_type: "Tanh"
  }
  node {
    input: "1103"
    output: "1107"
    op_type: "Sigmoid"
  }
  node {
    input: "1105"
    input: "1084"
    output: "1108"
    op_type: "Mul"
  }
  node {
    input: "1104"
    input: "1106"
    output: "1109"
    op_type: "Mul"
  }
  node {
    input: "1108"
    input: "1109"
    output: "1110"
    op_type: "Add"
  }
  node {
    input: "1110"
    output: "1111"
    op_type: "Tanh"
  }
  node {
    input: "1107"
    input: "1111"
    output: "1112"
    op_type: "Mul"
  }
  node {
    output: "1113"
    op_type: "Constant"
    attribute {
      name: "value"
      t {
        dims: 1
        data_type: INT32
        raw_data: "\000\000\000\000"
      }
    }
  }
  node {
    output: "1114"
    op_type: "Constant"
    attribute {
      name: "value"
      t {
        dims: 1
        data_type: INT64
        raw_data: "\t\000\000\000\000\000\000\000"
      }
    }
  }
  node {
    output: "1115"
    op_type: "Constant"
    attribute {
      name: "value"
      t {
        dims: 1
        data_type: INT64
        raw_data: "\n\000\000\000\000\000\000\000"
      }
    }
  }
  node {
    input: "877"
    input: "1113"
    input: "1114"
    input: "1115"
    output: "1116"
    op_type: "Slice"
  }
  node {
    input: "1116"
    output: "1117"
    op_type: "Squeeze"
    attribute {
      name: "axes"
      ints: 0
    }
  }
  node {
    input: "17"
    output: "1118"
    op_type: "Transpose"
    attribute {
      name: "perm"
      ints: 1
      ints: 0
    }
  }
  node {
    input: "1117"
    input: "1118"
    input: "19"
    output: "1498"
    op_type: "Gemm"
    attribute {
      name: "alpha"
      f: 1
    }
    attribute {
      name: "beta"
      f: 1
    }
    attribute {
      name: "broadcast"
      i: 1
    }
  }
  node {
    input: "18"
    output: "1121"
    op_type: "Transpose"
    attribute {
      name: "perm"
      ints: 1
      ints: 0
    }
  }
  node {
    input: "1112"
    input: "1121"
    input: "20"
    output: "1499"
    op_type: "Gemm"
    attribute {
      name: "alpha"
      f: 1
    }
    attribute {
      name: "beta"
      f: 1
    }
    attribute {
      name: "broadcast"
      i: 1
    }
  }
  node {
    input: "1498"
    input: "1499"
    output: "1124"
    op_type: "Add"
  }
  node {
    input: "1124"
    output: "1126"
    output: "1127"
    output: "1128"
    output: "1129"
    op_type: "Split"
    attribute {
      name: "axis"
      i: 1
    }
    attribute {
      name: "split"
      ints: 5
      ints: 5
      ints: 5
      ints: 5
    }
  }
  node {
    input: "1126"
    output: "1130"
    op_type: "Sigmoid"
  }
  node {
    input: "1127"
    output: "1131"
    op_type: "Sigmoid"
  }
  node {
    input: "1128"
    output: "1132"
    op_type: "Tanh"
  }
  node {
    input: "1129"
    output: "1133"
    op_type: "Sigmoid"
  }
  node {
    input: "1131"
    input: "1110"
    output: "1134"
    op_type: "Mul"
  }
  node {
    input: "1130"
    input: "1132"
    output: "1135"
    op_type: "Mul"
  }
  node {
    input: "1134"
    input: "1135"
    output: "1136"
    op_type: "Add"
  }
  node {
    input: "1136"
    output: "1137"
    op_type: "Tanh"
  }
  node {
    input: "1133"
    input: "1137"
    output: "1138"
    op_type: "Mul"
  }
  node {
    input: "904"
    input: "930"
    input: "956"
    input: "982"
    input: "1008"
    input: "1034"
    input: "1060"
    input: "1086"
    input: "1112"
    input: "1138"
    output: "1139"
    op_type: "Concat"
    attribute {
      name: "axis"
      i: 0
    }
  }
  node {
    input: "1139"
    output: "1140"
    op_type: "Reshape"
    attribute {
      name: "shape"
      ints: 10
      ints: 5
      ints: 5
    }
  }
  node {
    input: "1140"
    output: "1141"
    op_type: "Concat"
    attribute {
      name: "axis"
      i: 2
    }
  }
  node {
    input: "1141"
    output: "1143"
    output: "1144"
    op_type: "Dropout"
    attribute {
      name: "is_test"
      i: 1
    }
    attribute {
      name: "ratio"
      f: 0.200000002980232
    }
  }
  node {
    output: "1145"
    op_type: "Constant"
    attribute {
      name: "value"
      t {
        dims: 1
        data_type: INT32
        raw_data: "\000\000\000\000"
      }
    }
  }
  node {
    output: "1146"
    op_type: "Constant"
    attribute {
      name: "value"
      t {
        dims: 1
        data_type: INT64
        raw_data: "\000\000\000\000\000\000\000\000"
      }
    }
  }
  node {
    output: "1147"
    op_type: "Constant"
    attribute {
      name: "value"
      t {
        dims: 1
        data_type: INT64
        raw_data: "\001\000\000\000\000\000\000\000"
      }
    }
  }
  node {
    input: "1143"
    input: "1145"
    input: "1146"
    input: "1147"
    output: "1148"
    op_type: "Slice"
  }
  node {
    input: "1148"
    output: "1149"
    op_type: "Squeeze"
    attribute {
      name: "axes"
      ints: 0
    }
  }
  node {
    input: "21"
    output: "1150"
    op_type: "Transpose"
    attribute {
      name: "perm"
      ints: 1
      ints: 0
    }
  }
  node {
    input: "1149"
    input: "1150"
    input: "23"
    output: "1500"
    op_type: "Gemm"
    attribute {
      name: "alpha"
      f: 1
    }
    attribute {
      name: "beta"
      f: 1
    }
    attribute {
      name: "broadcast"
      i: 1
    }
  }
  node {
    input: "22"
    output: "1153"
    op_type: "Transpose"
    attribute {
      name: "perm"
      ints: 1
      ints: 0
    }
  }
  node {
    input: "75"
    input: "1153"
    input: "24"
    output: "1501"
    op_type: "Gemm"
    attribute {
      name: "alpha"
      f: 1
    }
    attribute {
      name: "beta"
      f: 1
    }
    attribute {
      name: "broadcast"
      i: 1
    }
  }
  node {
    input: "1500"
    input: "1501"
    output: "1156"
    op_type: "Add"
  }
  node {
    input: "1156"
    output: "1158"
    output: "1159"
    output: "1160"
    output: "1161"
    op_type: "Split"
    attribute {
      name: "axis"
      i: 1
    }
    attribute {
      name: "split"
      ints: 5
      ints: 5
      ints: 5
      ints: 5
    }
  }
  node {
    input: "1158"
    output: "1162"
    op_type: "Sigmoid"
  }
  node {
    input: "1159"
    output: "1163"
    op_type: "Sigmoid"
  }
  node {
    input: "1160"
    output: "1164"
    op_type: "Tanh"
  }
  node {
    input: "1161"
    output: "1165"
    op_type: "Sigmoid"
  }
  node {
    input: "1163"
    input: "80"
    output: "1166"
    op_type: "Mul"
  }
  node {
    input: "1162"
    input: "1164"
    output: "1167"
    op_type: "Mul"
  }
  node {
    input: "1166"
    input: "1167"
    output: "1168"
    op_type: "Add"
  }
  node {
    input: "1168"
    output: "1169"
    op_type: "Tanh"
  }
  node {
    input: "1165"
    input: "1169"
    output: "1170"
    op_type: "Mul"
  }
  node {
    output: "1171"
    op_type: "Constant"
    attribute {
      name: "value"
      t {
        dims: 1
        data_type: INT32
        raw_data: "\000\000\000\000"
      }
    }
  }
  node {
    output: "1172"
    op_type: "Constant"
    attribute {
      name: "value"
      t {
        dims: 1
        data_type: INT64
        raw_data: "\001\000\000\000\000\000\000\000"
      }
    }
  }
  node {
    output: "1173"
    op_type: "Constant"
    attribute {
      name: "value"
      t {
        dims: 1
        data_type: INT64
        raw_data: "\002\000\000\000\000\000\000\000"
      }
    }
  }
  node {
    input: "1143"
    input: "1171"
    input: "1172"
    input: "1173"
    output: "1174"
    op_type: "Slice"
  }
  node {
    input: "1174"
    output: "1175"
    op_type: "Squeeze"
    attribute {
      name: "axes"
      ints: 0
    }
  }
  node {
    input: "21"
    output: "1176"
    op_type: "Transpose"
    attribute {
      name: "perm"
      ints: 1
      ints: 0
    }
  }
  node {
    input: "1175"
    input: "1176"
    input: "23"
    output: "1502"
    op_type: "Gemm"
    attribute {
      name: "alpha"
      f: 1
    }
    attribute {
      name: "beta"
      f: 1
    }
    attribute {
      name: "broadcast"
      i: 1
    }
  }
  node {
    input: "22"
    output: "1179"
    op_type: "Transpose"
    attribute {
      name: "perm"
      ints: 1
      ints: 0
    }
  }
  node {
    input: "1170"
    input: "1179"
    input: "24"
    output: "1503"
    op_type: "Gemm"
    attribute {
      name: "alpha"
      f: 1
    }
    attribute {
      name: "beta"
      f: 1
    }
    attribute {
      name: "broadcast"
      i: 1
    }
  }
  node {
    input: "1502"
    input: "1503"
    output: "1182"
    op_type: "Add"
  }
  node {
    input: "1182"
    output: "1184"
    output: "1185"
    output: "1186"
    output: "1187"
    op_type: "Split"
    attribute {
      name: "axis"
      i: 1
    }
    attribute {
      name: "split"
      ints: 5
      ints: 5
      ints: 5
      ints: 5
    }
  }
  node {
    input: "1184"
    output: "1188"
    op_type: "Sigmoid"
  }
  node {
    input: "1185"
    output: "1189"
    op_type: "Sigmoid"
  }
  node {
    input: "1186"
    output: "1190"
    op_type: "Tanh"
  }
  node {
    input: "1187"
    output: "1191"
    op_type: "Sigmoid"
  }
  node {
    input: "1189"
    input: "1168"
    output: "1192"
    op_type: "Mul"
  }
  node {
    input: "1188"
    input: "1190"
    output: "1193"
    op_type: "Mul"
  }
  node {
    input: "1192"
    input: "1193"
    output: "1194"
    op_type: "Add"
  }
  node {
    input: "1194"
    output: "1195"
    op_type: "Tanh"
  }
  node {
    input: "1191"
    input: "1195"
    output: "1196"
    op_type: "Mul"
  }
  node {
    output: "1197"
    op_type: "Constant"
    attribute {
      name: "value"
      t {
        dims: 1
        data_type: INT32
        raw_data: "\000\000\000\000"
      }
    }
  }
  node {
    output: "1198"
    op_type: "Constant"
    attribute {
      name: "value"
      t {
        dims: 1
        data_type: INT64
        raw_data: "\002\000\000\000\000\000\000\000"
      }
    }
  }
  node {
    output: "1199"
    op_type: "Constant"
    attribute {
      name: "value"
      t {
        dims: 1
        data_type: INT64
        raw_data: "\003\000\000\000\000\000\000\000"
      }
    }
  }
  node {
    input: "1143"
    input: "1197"
    input: "1198"
    input: "1199"
    output: "1200"
    op_type: "Slice"
  }
  node {
    input: "1200"
    output: "1201"
    op_type: "Squeeze"
    attribute {
      name: "axes"
      ints: 0
    }
  }
  node {
    input: "21"
    output: "1202"
    op_type: "Transpose"
    attribute {
      name: "perm"
      ints: 1
      ints: 0
    }
  }
  node {
    input: "1201"
    input: "1202"
    input: "23"
    output: "1504"
    op_type: "Gemm"
    attribute {
      name: "alpha"
      f: 1
    }
    attribute {
      name: "beta"
      f: 1
    }
    attribute {
      name: "broadcast"
      i: 1
    }
  }
  node {
    input: "22"
    output: "1205"
    op_type: "Transpose"
    attribute {
      name: "perm"
      ints: 1
      ints: 0
    }
  }
  node {
    input: "1196"
    input: "1205"
    input: "24"
    output: "1505"
    op_type: "Gemm"
    attribute {
      name: "alpha"
      f: 1
    }
    attribute {
      name: "beta"
      f: 1
    }
    attribute {
      name: "broadcast"
      i: 1
    }
  }
  node {
    input: "1504"
    input: "1505"
    output: "1208"
    op_type: "Add"
  }
  node {
    input: "1208"
    output: "1210"
    output: "1211"
    output: "1212"
    output: "1213"
    op_type: "Split"
    attribute {
      name: "axis"
      i: 1
    }
    attribute {
      name: "split"
      ints: 5
      ints: 5
      ints: 5
      ints: 5
    }
  }
  node {
    input: "1210"
    output: "1214"
    op_type: "Sigmoid"
  }
  node {
    input: "1211"
    output: "1215"
    op_type: "Sigmoid"
  }
  node {
    input: "1212"
    output: "1216"
    op_type: "Tanh"
  }
  node {
    input: "1213"
    output: "1217"
    op_type: "Sigmoid"
  }
  node {
    input: "1215"
    input: "1194"
    output: "1218"
    op_type: "Mul"
  }
  node {
    input: "1214"
    input: "1216"
    output: "1219"
    op_type: "Mul"
  }
  node {
    input: "1218"
    input: "1219"
    output: "1220"
    op_type: "Add"
  }
  node {
    input: "1220"
    output: "1221"
    op_type: "Tanh"
  }
  node {
    input: "1217"
    input: "1221"
    output: "1222"
    op_type: "Mul"
  }
  node {
    output: "1223"
    op_type: "Constant"
    attribute {
      name: "value"
      t {
        dims: 1
        data_type: INT32
        raw_data: "\000\000\000\000"
      }
    }
  }
  node {
    output: "1224"
    op_type: "Constant"
    attribute {
      name: "value"
      t {
        dims: 1
        data_type: INT64
        raw_data: "\003\000\000\000\000\000\000\000"
      }
    }
  }
  node {
    output: "1225"
    op_type: "Constant"
    attribute {
      name: "value"
      t {
        dims: 1
        data_type: INT64
        raw_data: "\004\000\000\000\000\000\000\000"
      }
    }
  }
  node {
    input: "1143"
    input: "1223"
    input: "1224"
    input: "1225"
    output: "1226"
    op_type: "Slice"
  }
  node {
    input: "1226"
    output: "1227"
    op_type: "Squeeze"
    attribute {
      name: "axes"
      ints: 0
    }
  }
  node {
    input: "21"
    output: "1228"
    op_type: "Transpose"
    attribute {
      name: "perm"
      ints: 1
      ints: 0
    }
  }
  node {
    input: "1227"
    input: "1228"
    input: "23"
    output: "1506"
    op_type: "Gemm"
    attribute {
      name: "alpha"
      f: 1
    }
    attribute {
      name: "beta"
      f: 1
    }
    attribute {
      name: "broadcast"
      i: 1
    }
  }
  node {
    input: "22"
    output: "1231"
    op_type: "Transpose"
    attribute {
      name: "perm"
      ints: 1
      ints: 0
    }
  }
  node {
    input: "1222"
    input: "1231"
    input: "24"
    output: "1507"
    op_type: "Gemm"
    attribute {
      name: "alpha"
      f: 1
    }
    attribute {
      name: "beta"
      f: 1
    }
    attribute {
      name: "broadcast"
      i: 1
    }
  }
  node {
    input: "1506"
    input: "1507"
    output: "1234"
    op_type: "Add"
  }
  node {
    input: "1234"
    output: "1236"
    output: "1237"
    output: "1238"
    output: "1239"
    op_type: "Split"
    attribute {
      name: "axis"
      i: 1
    }
    attribute {
      name: "split"
      ints: 5
      ints: 5
      ints: 5
      ints: 5
    }
  }
  node {
    input: "1236"
    output: "1240"
    op_type: "Sigmoid"
  }
  node {
    input: "1237"
    output: "1241"
    op_type: "Sigmoid"
  }
  node {
    input: "1238"
    output: "1242"
    op_type: "Tanh"
  }
  node {
    input: "1239"
    output: "1243"
    op_type: "Sigmoid"
  }
  node {
    input: "1241"
    input: "1220"
    output: "1244"
    op_type: "Mul"
  }
  node {
    input: "1240"
    input: "1242"
    output: "1245"
    op_type: "Mul"
  }
  node {
    input: "1244"
    input: "1245"
    output: "1246"
    op_type: "Add"
  }
  node {
    input: "1246"
    output: "1247"
    op_type: "Tanh"
  }
  node {
    input: "1243"
    input: "1247"
    output: "1248"
    op_type: "Mul"
  }
  node {
    output: "1249"
    op_type: "Constant"
    attribute {
      name: "value"
      t {
        dims: 1
        data_type: INT32
        raw_data: "\000\000\000\000"
      }
    }
  }
  node {
    output: "1250"
    op_type: "Constant"
    attribute {
      name: "value"
      t {
        dims: 1
        data_type: INT64
        raw_data: "\004\000\000\000\000\000\000\000"
      }
    }
  }
  node {
    output: "1251"
    op_type: "Constant"
    attribute {
      name: "value"
      t {
        dims: 1
        data_type: INT64
        raw_data: "\005\000\000\000\000\000\000\000"
      }
    }
  }
  node {
    input: "1143"
    input: "1249"
    input: "1250"
    input: "1251"
    output: "1252"
    op_type: "Slice"
  }
  node {
    input: "1252"
    output: "1253"
    op_type: "Squeeze"
    attribute {
      name: "axes"
      ints: 0
    }
  }
  node {
    input: "21"
    output: "1254"
    op_type: "Transpose"
    attribute {
      name: "perm"
      ints: 1
      ints: 0
    }
  }
  node {
    input: "1253"
    input: "1254"
    input: "23"
    output: "1508"
    op_type: "Gemm"
    attribute {
      name: "alpha"
      f: 1
    }
    attribute {
      name: "beta"
      f: 1
    }
    attribute {
      name: "broadcast"
      i: 1
    }
  }
  node {
    input: "22"
    output: "1257"
    op_type: "Transpose"
    attribute {
      name: "perm"
      ints: 1
      ints: 0
    }
  }
  node {
    input: "1248"
    input: "1257"
    input: "24"
    output: "1509"
    op_type: "Gemm"
    attribute {
      name: "alpha"
      f: 1
    }
    attribute {
      name: "beta"
      f: 1
    }
    attribute {
      name: "broadcast"
      i: 1
    }
  }
  node {
    input: "1508"
    input: "1509"
    output: "1260"
    op_type: "Add"
  }
  node {
    input: "1260"
    output: "1262"
    output: "1263"
    output: "1264"
    output: "1265"
    op_type: "Split"
    attribute {
      name: "axis"
      i: 1
    }
    attribute {
      name: "split"
      ints: 5
      ints: 5
      ints: 5
      ints: 5
    }
  }
  node {
    input: "1262"
    output: "1266"
    op_type: "Sigmoid"
  }
  node {
    input: "1263"
    output: "1267"
    op_type: "Sigmoid"
  }
  node {
    input: "1264"
    output: "1268"
    op_type: "Tanh"
  }
  node {
    input: "1265"
    output: "1269"
    op_type: "Sigmoid"
  }
  node {
    input: "1267"
    input: "1246"
    output: "1270"
    op_type: "Mul"
  }
  node {
    input: "1266"
    input: "1268"
    output: "1271"
    op_type: "Mul"
  }
  node {
    input: "1270"
    input: "1271"
    output: "1272"
    op_type: "Add"
  }
  node {
    input: "1272"
    output: "1273"
    op_type: "Tanh"
  }
  node {
    input: "1269"
    input: "1273"
    output: "1274"
    op_type: "Mul"
  }
  node {
    output: "1275"
    op_type: "Constant"
    attribute {
      name: "value"
      t {
        dims: 1
        data_type: INT32
        raw_data: "\000\000\000\000"
      }
    }
  }
  node {
    output: "1276"
    op_type: "Constant"
    attribute {
      name: "value"
      t {
        dims: 1
        data_type: INT64
        raw_data: "\005\000\000\000\000\000\000\000"
      }
    }
  }
  node {
    output: "1277"
    op_type: "Constant"
    attribute {
      name: "value"
      t {
        dims: 1
        data_type: INT64
        raw_data: "\006\000\000\000\000\000\000\000"
      }
    }
  }
  node {
    input: "1143"
    input: "1275"
    input: "1276"
    input: "1277"
    output: "1278"
    op_type: "Slice"
  }
  node {
    input: "1278"
    output: "1279"
    op_type: "Squeeze"
    attribute {
      name: "axes"
      ints: 0
    }
  }
  node {
    input: "21"
    output: "1280"
    op_type: "Transpose"
    attribute {
      name: "perm"
      ints: 1
      ints: 0
    }
  }
  node {
    input: "1279"
    input: "1280"
    input: "23"
    output: "1510"
    op_type: "Gemm"
    attribute {
      name: "alpha"
      f: 1
    }
    attribute {
      name: "beta"
      f: 1
    }
    attribute {
      name: "broadcast"
      i: 1
    }
  }
  node {
    input: "22"
    output: "1283"
    op_type: "Transpose"
    attribute {
      name: "perm"
      ints: 1
      ints: 0
    }
  }
  node {
    input: "1274"
    input: "1283"
    input: "24"
    output: "1511"
    op_type: "Gemm"
    attribute {
      name: "alpha"
      f: 1
    }
    attribute {
      name: "beta"
      f: 1
    }
    attribute {
      name: "broadcast"
      i: 1
    }
  }
  node {
    input: "1510"
    input: "1511"
    output: "1286"
    op_type: "Add"
  }
  node {
    input: "1286"
    output: "1288"
    output: "1289"
    output: "1290"
    output: "1291"
    op_type: "Split"
    attribute {
      name: "axis"
      i: 1
    }
    attribute {
      name: "split"
      ints: 5
      ints: 5
      ints: 5
      ints: 5
    }
  }
  node {
    input: "1288"
    output: "1292"
    op_type: "Sigmoid"
  }
  node {
    input: "1289"
    output: "1293"
    op_type: "Sigmoid"
  }
  node {
    input: "1290"
    output: "1294"
    op_type: "Tanh"
  }
  node {
    input: "1291"
    output: "1295"
    op_type: "Sigmoid"
  }
  node {
    input: "1293"
    input: "1272"
    output: "1296"
    op_type: "Mul"
  }
  node {
    input: "1292"
    input: "1294"
    output: "1297"
    op_type: "Mul"
  }
  node {
    input: "1296"
    input: "1297"
    output: "1298"
    op_type: "Add"
  }
  node {
    input: "1298"
    output: "1299"
    op_type: "Tanh"
  }
  node {
    input: "1295"
    input: "1299"
    output: "1300"
    op_type: "Mul"
  }
  node {
    output: "1301"
    op_type: "Constant"
    attribute {
      name: "value"
      t {
        dims: 1
        data_type: INT32
        raw_data: "\000\000\000\000"
      }
    }
  }
  node {
    output: "1302"
    op_type: "Constant"
    attribute {
      name: "value"
      t {
        dims: 1
        data_type: INT64
        raw_data: "\006\000\000\000\000\000\000\000"
      }
    }
  }
  node {
    output: "1303"
    op_type: "Constant"
    attribute {
      name: "value"
      t {
        dims: 1
        data_type: INT64
        raw_data: "\007\000\000\000\000\000\000\000"
      }
    }
  }
  node {
    input: "1143"
    input: "1301"
    input: "1302"
    input: "1303"
    output: "1304"
    op_type: "Slice"
  }
  node {
    input: "1304"
    output: "1305"
    op_type: "Squeeze"
    attribute {
      name: "axes"
      ints: 0
    }
  }
  node {
    input: "21"
    output: "1306"
    op_type: "Transpose"
    attribute {
      name: "perm"
      ints: 1
      ints: 0
    }
  }
  node {
    input: "1305"
    input: "1306"
    input: "23"
    output: "1512"
    op_type: "Gemm"
    attribute {
      name: "alpha"
      f: 1
    }
    attribute {
      name: "beta"
      f: 1
    }
    attribute {
      name: "broadcast"
      i: 1
    }
  }
  node {
    input: "22"
    output: "1309"
    op_type: "Transpose"
    attribute {
      name: "perm"
      ints: 1
      ints: 0
    }
  }
  node {
    input: "1300"
    input: "1309"
    input: "24"
    output: "1513"
    op_type: "Gemm"
    attribute {
      name: "alpha"
      f: 1
    }
    attribute {
      name: "beta"
      f: 1
    }
    attribute {
      name: "broadcast"
      i: 1
    }
  }
  node {
    input: "1512"
    input: "1513"
    output: "1312"
    op_type: "Add"
  }
  node {
    input: "1312"
    output: "1314"
    output: "1315"
    output: "1316"
    output: "1317"
    op_type: "Split"
    attribute {
      name: "axis"
      i: 1
    }
    attribute {
      name: "split"
      ints: 5
      ints: 5
      ints: 5
      ints: 5
    }
  }
  node {
    input: "1314"
    output: "1318"
    op_type: "Sigmoid"
  }
  node {
    input: "1315"
    output: "1319"
    op_type: "Sigmoid"
  }
  node {
    input: "1316"
    output: "1320"
    op_type: "Tanh"
  }
  node {
    input: "1317"
    output: "1321"
    op_type: "Sigmoid"
  }
  node {
    input: "1319"
    input: "1298"
    output: "1322"
    op_type: "Mul"
  }
  node {
    input: "1318"
    input: "1320"
    output: "1323"
    op_type: "Mul"
  }
  node {
    input: "1322"
    input: "1323"
    output: "1324"
    op_type: "Add"
  }
  node {
    input: "1324"
    output: "1325"
    op_type: "Tanh"
  }
  node {
    input: "1321"
    input: "1325"
    output: "1326"
    op_type: "Mul"
  }
  node {
    output: "1327"
    op_type: "Constant"
    attribute {
      name: "value"
      t {
        dims: 1
        data_type: INT32
        raw_data: "\000\000\000\000"
      }
    }
  }
  node {
    output: "1328"
    op_type: "Constant"
    attribute {
      name: "value"
      t {
        dims: 1
        data_type: INT64
        raw_data: "\007\000\000\000\000\000\000\000"
      }
    }
  }
  node {
    output: "1329"
    op_type: "Constant"
    attribute {
      name: "value"
      t {
        dims: 1
        data_type: INT64
        raw_data: "\010\000\000\000\000\000\000\000"
      }
    }
  }
  node {
    input: "1143"
    input: "1327"
    input: "1328"
    input: "1329"
    output: "1330"
    op_type: "Slice"
  }
  node {
    input: "1330"
    output: "1331"
    op_type: "Squeeze"
    attribute {
      name: "axes"
      ints: 0
    }
  }
  node {
    input: "21"
    output: "1332"
    op_type: "Transpose"
    attribute {
      name: "perm"
      ints: 1
      ints: 0
    }
  }
  node {
    input: "1331"
    input: "1332"
    input: "23"
    output: "1514"
    op_type: "Gemm"
    attribute {
      name: "alpha"
      f: 1
    }
    attribute {
      name: "beta"
      f: 1
    }
    attribute {
      name: "broadcast"
      i: 1
    }
  }
  node {
    input: "22"
    output: "1335"
    op_type: "Transpose"
    attribute {
      name: "perm"
      ints: 1
      ints: 0
    }
  }
  node {
    input: "1326"
    input: "1335"
    input: "24"
    output: "1515"
    op_type: "Gemm"
    attribute {
      name: "alpha"
      f: 1
    }
    attribute {
      name: "beta"
      f: 1
    }
    attribute {
      name: "broadcast"
      i: 1
    }
  }
  node {
    input: "1514"
    input: "1515"
    output: "1338"
    op_type: "Add"
  }
  node {
    input: "1338"
    output: "1340"
    output: "1341"
    output: "1342"
    output: "1343"
    op_type: "Split"
    attribute {
      name: "axis"
      i: 1
    }
    attribute {
      name: "split"
      ints: 5
      ints: 5
      ints: 5
      ints: 5
    }
  }
  node {
    input: "1340"
    output: "1344"
    op_type: "Sigmoid"
  }
  node {
    input: "1341"
    output: "1345"
    op_type: "Sigmoid"
  }
  node {
    input: "1342"
    output: "1346"
    op_type: "Tanh"
  }
  node {
    input: "1343"
    output: "1347"
    op_type: "Sigmoid"
  }
  node {
    input: "1345"
    input: "1324"
    output: "1348"
    op_type: "Mul"
  }
  node {
    input: "1344"
    input: "1346"
    output: "1349"
    op_type: "Mul"
  }
  node {
    input: "1348"
    input: "1349"
    output: "1350"
    op_type: "Add"
  }
  node {
    input: "1350"
    output: "1351"
    op_type: "Tanh"
  }
  node {
    input: "1347"
    input: "1351"
    output: "1352"
    op_type: "Mul"
  }
  node {
    output: "1353"
    op_type: "Constant"
    attribute {
      name: "value"
      t {
        dims: 1
        data_type: INT32
        raw_data: "\000\000\000\000"
      }
    }
  }
  node {
    output: "1354"
    op_type: "Constant"
    attribute {
      name: "value"
      t {
        dims: 1
        data_type: INT64
        raw_data: "\010\000\000\000\000\000\000\000"
      }
    }
  }
  node {
    output: "1355"
    op_type: "Constant"
    attribute {
      name: "value"
      t {
        dims: 1
        data_type: INT64
        raw_data: "\t\000\000\000\000\000\000\000"
      }
    }
  }
  node {
    input: "1143"
    input: "1353"
    input: "1354"
    input: "1355"
    output: "1356"
    op_type: "Slice"
  }
  node {
    input: "1356"
    output: "1357"
    op_type: "Squeeze"
    attribute {
      name: "axes"
      ints: 0
    }
  }
  node {
    input: "21"
    output: "1358"
    op_type: "Transpose"
    attribute {
      name: "perm"
      ints: 1
      ints: 0
    }
  }
  node {
    input: "1357"
    input: "1358"
    input: "23"
    output: "1516"
    op_type: "Gemm"
    attribute {
      name: "alpha"
      f: 1
    }
    attribute {
      name: "beta"
      f: 1
    }
    attribute {
      name: "broadcast"
      i: 1
    }
  }
  node {
    input: "22"
    output: "1361"
    op_type: "Transpose"
    attribute {
      name: "perm"
      ints: 1
      ints: 0
    }
  }
  node {
    input: "1352"
    input: "1361"
    input: "24"
    output: "1517"
    op_type: "Gemm"
    attribute {
      name: "alpha"
      f: 1
    }
    attribute {
      name: "beta"
      f: 1
    }
    attribute {
      name: "broadcast"
      i: 1
    }
  }
  node {
    input: "1516"
    input: "1517"
    output: "1364"
    op_type: "Add"
  }
  node {
    input: "1364"
    output: "1366"
    output: "1367"
    output: "1368"
    output: "1369"
    op_type: "Split"
    attribute {
      name: "axis"
      i: 1
    }
    attribute {
      name: "split"
      ints: 5
      ints: 5
      ints: 5
      ints: 5
    }
  }
  node {
    input: "1366"
    output: "1370"
    op_type: "Sigmoid"
  }
  node {
    input: "1367"
    output: "1371"
    op_type: "Sigmoid"
  }
  node {
    input: "1368"
    output: "1372"
    op_type: "Tanh"
  }
  node {
    input: "1369"
    output: "1373"
    op_type: "Sigmoid"
  }
  node {
    input: "1371"
    input: "1350"
    output: "1374"
    op_type: "Mul"
  }
  node {
    input: "1370"
    input: "1372"
    output: "1375"
    op_type: "Mul"
  }
  node {
    input: "1374"
    input: "1375"
    output: "1376"
    op_type: "Add"
  }
  node {
    input: "1376"
    output: "1377"
    op_type: "Tanh"
  }
  node {
    input: "1373"
    input: "1377"
    output: "1378"
    op_type: "Mul"
  }
  node {
    output: "1379"
    op_type: "Constant"
    attribute {
      name: "value"
      t {
        dims: 1
        data_type: INT32
        raw_data: "\000\000\000\000"
      }
    }
  }
  node {
    output: "1380"
    op_type: "Constant"
    attribute {
      name: "value"
      t {
        dims: 1
        data_type: INT64
        raw_data: "\t\000\000\000\000\000\000\000"
      }
    }
  }
  node {
    output: "1381"
    op_type: "Constant"
    attribute {
      name: "value"
      t {
        dims: 1
        data_type: INT64
        raw_data: "\n\000\000\000\000\000\000\000"
      }
    }
  }
  node {
    input: "1143"
    input: "1379"
    input: "1380"
    input: "1381"
    output: "1382"
    op_type: "Slice"
  }
  node {
    input: "1382"
    output: "1383"
    op_type: "Squeeze"
    attribute {
      name: "axes"
      ints: 0
    }
  }
  node {
    input: "21"
    output: "1384"
    op_type: "Transpose"
    attribute {
      name: "perm"
      ints: 1
      ints: 0
    }
  }
  node {
    input: "1383"
    input: "1384"
    input: "23"
    output: "1518"
    op_type: "Gemm"
    attribute {
      name: "alpha"
      f: 1
    }
    attribute {
      name: "beta"
      f: 1
    }
    attribute {
      name: "broadcast"
      i: 1
    }
  }
  node {
    input: "22"
    output: "1387"
    op_type: "Transpose"
    attribute {
      name: "perm"
      ints: 1
      ints: 0
    }
  }
  node {
    input: "1378"
    input: "1387"
    input: "24"
    output: "1519"
    op_type: "Gemm"
    attribute {
      name: "alpha"
      f: 1
    }
    attribute {
      name: "beta"
      f: 1
    }
    attribute {
      name: "broadcast"
      i: 1
    }
  }
  node {
    input: "1518"
    input: "1519"
    output: "1390"
    op_type: "Add"
  }
  node {
    input: "1390"
    output: "1392"
    output: "1393"
    output: "1394"
    output: "1395"
    op_type: "Split"
    attribute {
      name: "axis"
      i: 1
    }
    attribute {
      name: "split"
      ints: 5
      ints: 5
      ints: 5
      ints: 5
    }
  }
  node {
    input: "1392"
    output: "1396"
    op_type: "Sigmoid"
  }
  node {
    input: "1393"
    output: "1397"
    op_type: "Sigmoid"
  }
  node {
    input: "1394"
    output: "1398"
    op_type: "Tanh"
  }
  node {
    input: "1395"
    output: "1399"
    op_type: "Sigmoid"
  }
  node {
    input: "1397"
    input: "1376"
    output: "1400"
    op_type: "Mul"
  }
  node {
    input: "1396"
    input: "1398"
    output: "1401"
    op_type: "Mul"
  }
  node {
    input: "1400"
    input: "1401"
    output: "1402"
    op_type: "Add"
  }
  node {
    input: "1402"
    output: "1403"
    op_type: "Tanh"
  }
  node {
    input: "1399"
    input: "1403"
    output: "1404"
    op_type: "Mul"
  }
  node {
    input: "1170"
    input: "1196"
    input: "1222"
    input: "1248"
    input: "1274"
    input: "1300"
    input: "1326"
    input: "1352"
    input: "1378"
    input: "1404"
    output: "1405"
    op_type: "Concat"
    attribute {
      name: "axis"
      i: 0
    }
  }
  node {
    input: "1405"
    output: "1406"
    op_type: "Reshape"
    attribute {
      name: "shape"
      ints: 10
      ints: 5
      ints: 5
    }
  }
  node {
    input: "1406"
    output: "1407"
    op_type: "Concat"
    attribute {
      name: "axis"
      i: 2
    }
  }
  node {
    input: "1407"
    output: "1413"
    output: "1414"
    op_type: "Dropout"
    attribute {
      name: "is_test"
      i: 1
    }
    attribute {
      name: "ratio"
      f: 0.200000002980232
    }
  }
  node {
    input: "1413"
    output: "1415"
    op_type: "Reshape"
    attribute {
      name: "shape"
      ints: 50
      ints: 5
    }
  }
  node {
    input: "25"
    output: "1416"
    op_type: "Transpose"
    attribute {
      name: "perm"
      ints: 1
      ints: 0
    }
  }
  node {
    input: "1415"
    input: "1416"
    input: "26"
    output: "1520"
    op_type: "Gemm"
    attribute {
      name: "alpha"
      f: 1
    }
    attribute {
      name: "beta"
      f: 1
    }
    attribute {
      name: "broadcast"
      i: 1
    }
  }
  node {
    input: "1520"
    output: "1419"
    op_type: "Reshape"
    attribute {
      name: "shape"
      ints: 10
      ints: 5
      ints: 10
    }
  }
  name: "torch-jit-export"
  input {
    name: "1"
    type {
      tensor_type {
        elem_type: INT64
        shape {
          dim {
            dim_value: 10
          }
          dim {
            dim_value: 5
          }
        }
      }
    }
  }
  input {
    name: "2"
    type {
      tensor_type {
        elem_type: FLOAT
        shape {
          dim {
            dim_value: 5
          }
          dim {
            dim_value: 5
          }
          dim {
            dim_value: 5
          }
        }
      }
    }
  }
  input {
    name: "3"
    type {
      tensor_type {
        elem_type: FLOAT
        shape {
          dim {
            dim_value: 5
          }
          dim {
            dim_value: 5
          }
          dim {
            dim_value: 5
          }
        }
      }
    }
  }
  input {
    name: "4"
    type {
      tensor_type {
        elem_type: FLOAT
        shape {
          dim {
            dim_value: 10
          }
          dim {
            dim_value: 5
          }
        }
      }
    }
  }
  input {
    name: "5"
    type {
      tensor_type {
        elem_type: FLOAT
        shape {
          dim {
            dim_value: 20
          }
          dim {
            dim_value: 5
          }
        }
      }
    }
  }
  input {
    name: "6"
    type {
      tensor_type {
        elem_type: FLOAT
        shape {
          dim {
            dim_value: 20
          }
          dim {
            dim_value: 5
          }
        }
      }
    }
  }
  input {
    name: "7"
    type {
      tensor_type {
        elem_type: FLOAT
        shape {
          dim {
            dim_value: 20
          }
        }
      }
    }
  }
  input {
    name: "8"
    type {
      tensor_type {
        elem_type: FLOAT
        shape {
          dim {
            dim_value: 20
          }
        }
      }
    }
  }
  input {
    name: "9"
    type {
      tensor_type {
        elem_type: FLOAT
        shape {
          dim {
            dim_value: 20
          }
          dim {
            dim_value: 5
          }
        }
      }
    }
  }
  input {
    name: "10"
    type {
      tensor_type {
        elem_type: FLOAT
        shape {
          dim {
            dim_value: 20
          }
          dim {
            dim_value: 5
          }
        }
      }
    }
  }
  input {
    name: "11"
    type {
      tensor_type {
        elem_type: FLOAT
        shape {
          dim {
            dim_value: 20
          }
        }
      }
    }
  }
  input {
    name: "12"
    type {
      tensor_type {
        elem_type: FLOAT
        shape {
          dim {
            dim_value: 20
          }
        }
      }
    }
  }
  input {
    name: "13"
    type {
      tensor_type {
        elem_type: FLOAT
        shape {
          dim {
            dim_value: 20
          }
          dim {
            dim_value: 5
          }
        }
      }
    }
  }
  input {
    name: "14"
    type {
      tensor_type {
        elem_type: FLOAT
        shape {
          dim {
            dim_value: 20
          }
          dim {
            dim_value: 5
          }
        }
      }
    }
  }
  input {
    name: "15"
    type {
      tensor_type {
        elem_type: FLOAT
        shape {
          dim {
            dim_value: 20
          }
        }
      }
    }
  }
  input {
    name: "16"
    type {
      tensor_type {
        elem_type: FLOAT
        shape {
          dim {
            dim_value: 20
          }
        }
      }
    }
  }
  input {
    name: "17"
    type {
      tensor_type {
        elem_type: FLOAT
        shape {
          dim {
            dim_value: 20
          }
          dim {
            dim_value: 5
          }
        }
      }
    }
  }
  input {
    name: "18"
    type {
      tensor_type {
        elem_type: FLOAT
        shape {
          dim {
            dim_value: 20
          }
          dim {
            dim_value: 5
          }
        }
      }
    }
  }
  input {
    name: "19"
    type {
      tensor_type {
        elem_type: FLOAT
        shape {
          dim {
            dim_value: 20
          }
        }
      }
    }
  }
  input {
    name: "20"
    type {
      tensor_type {
        elem_type: FLOAT
        shape {
          dim {
            dim_value: 20
          }
        }
      }
    }
  }
  input {
    name: "21"
    type {
      tensor_type {
        elem_type: FLOAT
        shape {
          dim {
            dim_value: 20
          }
          dim {
            dim_value: 5
          }
        }
      }
    }
  }
  input {
    name: "22"
    type {
      tensor_type {
        elem_type: FLOAT
        shape {
          dim {
            dim_value: 20
          }
          dim {
            dim_value: 5
          }
        }
      }
    }
  }
  input {
    name: "23"
    type {
      tensor_type {
        elem_type: FLOAT
        shape {
          dim {
            dim_value: 20
          }
        }
      }
    }
  }
  input {
    name: "24"
    type {
      tensor_type {
        elem_type: FLOAT
        shape {
          dim {
            dim_value: 20
          }
        }
      }
    }
  }
  input {
    name: "25"
    type {
      tensor_type {
        elem_type: FLOAT
        shape {
          dim {
            dim_value: 10
          }
          dim {
            dim_value: 5
          }
        }
      }
    }
  }
  input {
    name: "26"
    type {
      tensor_type {
        elem_type: FLOAT
        shape {
          dim {
            dim_value: 10
          }
        }
      }
    }
  }
  output {
    name: "1419"
    type {
      tensor_type {
        elem_type: FLOAT
        shape {
          dim {
            dim_value: 10
          }
          dim {
            dim_value: 5
          }
          dim {
            dim_value: 10
          }
        }
      }
    }
  }
}
