ir_version: 1
producer_name: "pytorch"
producer_version: "0.2"
domain: "com.facebook"
graph {
  node {
    input: "0"
    input: "1"
    output: "9"
    op_type: "Conv"
    attribute {
      name: "kernel_shape"
      ints: 5
      ints: 5
      type: INTS
    }
    attribute {
      name: "strides"
      ints: 1
      ints: 1
      type: INTS
    }
    attribute {
      name: "pads"
      ints: 2
      ints: 2
      ints: 2
      ints: 2
      type: INTS
    }
    attribute {
      name: "dilations"
      ints: 1
      ints: 1
      type: INTS
    }
    attribute {
      name: "group"
      i: 1
      type: INT
    }
  }
  node {
    input: "9"
    input: "2"
    output: "10"
    op_type: "Add"
    attribute {
      name: "broadcast"
      i: 1
      type: INT
    }
    attribute {
      name: "axis"
      i: 1
      type: INT
    }
  }
  node {
    input: "10"
    output: "11"
    op_type: "Relu"
  }
  node {
    input: "11"
    input: "3"
    output: "12"
    op_type: "Conv"
    attribute {
      name: "kernel_shape"
      ints: 3
      ints: 3
      type: INTS
    }
    attribute {
      name: "strides"
      ints: 1
      ints: 1
      type: INTS
    }
    attribute {
      name: "pads"
      ints: 1
      ints: 1
      ints: 1
      ints: 1
      type: INTS
    }
    attribute {
      name: "dilations"
      ints: 1
      ints: 1
      type: INTS
    }
    attribute {
      name: "group"
      i: 1
      type: INT
    }
  }
  node {
    input: "12"
    input: "4"
    output: "13"
    op_type: "Add"
    attribute {
      name: "broadcast"
      i: 1
      type: INT
    }
    attribute {
      name: "axis"
      i: 1
      type: INT
    }
  }
  node {
    input: "13"
    output: "14"
    op_type: "Relu"
  }
  node {
    input: "14"
    input: "5"
    output: "15"
    op_type: "Conv"
    attribute {
      name: "kernel_shape"
      ints: 3
      ints: 3
      type: INTS
    }
    attribute {
      name: "strides"
      ints: 1
      ints: 1
      type: INTS
    }
    attribute {
      name: "pads"
      ints: 1
      ints: 1
      ints: 1
      ints: 1
      type: INTS
    }
    attribute {
      name: "dilations"
      ints: 1
      ints: 1
      type: INTS
    }
    attribute {
      name: "group"
      i: 1
      type: INT
    }
  }
  node {
    input: "15"
    input: "6"
    output: "16"
    op_type: "Add"
    attribute {
      name: "broadcast"
      i: 1
      type: INT
    }
    attribute {
      name: "axis"
      i: 1
      type: INT
    }
  }
  node {
    input: "16"
    output: "17"
    op_type: "Relu"
  }
  node {
    input: "17"
    input: "7"
    output: "18"
    op_type: "Conv"
    attribute {
      name: "kernel_shape"
      ints: 3
      ints: 3
      type: INTS
    }
    attribute {
      name: "strides"
      ints: 1
      ints: 1
      type: INTS
    }
    attribute {
      name: "pads"
      ints: 1
      ints: 1
      ints: 1
      ints: 1
      type: INTS
    }
    attribute {
      name: "dilations"
      ints: 1
      ints: 1
      type: INTS
    }
    attribute {
      name: "group"
      i: 1
      type: INT
    }
  }
  node {
    input: "18"
    input: "8"
    output: "19"
    op_type: "Add"
    attribute {
      name: "broadcast"
      i: 1
      type: INT
    }
    attribute {
      name: "axis"
      i: 1
      type: INT
    }
  }
  node {
    input: "19"
    output: "20"
    op_type: "Reshape"
    attribute {
      name: "shape"
      ints: 2
      ints: 1
      ints: 3
      ints: 3
      ints: 224
      ints: 224
      type: INTS
    }
  }
  node {
    input: "20"
    output: "21"
    op_type: "Transpose"
    attribute {
      name: "perm"
      ints: 0
      ints: 1
      ints: 4
      ints: 2
      ints: 5
      ints: 3
      type: INTS
    }
  }
  node {
    input: "21"
    output: "22"
    op_type: "Reshape"
    attribute {
      name: "shape"
      ints: 2
      ints: 1
      ints: 672
      ints: 672
      type: INTS
    }
  }
  name: "torch-jit-export"
  input {
    name: "0"
    type {
      tensor_type {
        elem_type: FLOAT
        shape {
          dim {
            dim_value: 2
          }
          dim {
            dim_value: 1
          }
          dim {
            dim_value: 224
          }
          dim {
            dim_value: 224
          }
        }
      }
    }
  }
  input {
    name: "1"
    type {
      tensor_type {
        elem_type: FLOAT
        shape {
          dim {
            dim_value: 64
          }
          dim {
            dim_value: 1
          }
          dim {
            dim_value: 5
          }
          dim {
            dim_value: 5
          }
        }
      }
    }
  }
  input {
    name: "2"
    type {
      tensor_type {
        elem_type: FLOAT
        shape {
          dim {
            dim_value: 64
          }
        }
      }
    }
  }
  input {
    name: "3"
    type {
      tensor_type {
        elem_type: FLOAT
        shape {
          dim {
            dim_value: 64
          }
          dim {
            dim_value: 64
          }
          dim {
            dim_value: 3
          }
          dim {
            dim_value: 3
          }
        }
      }
    }
  }
  input {
    name: "4"
    type {
      tensor_type {
        elem_type: FLOAT
        shape {
          dim {
            dim_value: 64
          }
        }
      }
    }
  }
  input {
    name: "5"
    type {
      tensor_type {
        elem_type: FLOAT
        shape {
          dim {
            dim_value: 32
          }
          dim {
            dim_value: 64
          }
          dim {
            dim_value: 3
          }
          dim {
            dim_value: 3
          }
        }
      }
    }
  }
  input {
    name: "6"
    type {
      tensor_type {
        elem_type: FLOAT
        shape {
          dim {
            dim_value: 32
          }
        }
      }
    }
  }
  input {
    name: "7"
    type {
      tensor_type {
        elem_type: FLOAT
        shape {
          dim {
            dim_value: 9
          }
          dim {
            dim_value: 32
          }
          dim {
            dim_value: 3
          }
          dim {
            dim_value: 3
          }
        }
      }
    }
  }
  input {
    name: "8"
    type {
      tensor_type {
        elem_type: FLOAT
        shape {
          dim {
            dim_value: 9
          }
        }
      }
    }
  }
  output {
    name: "22"
    type {
      tensor_type {
        elem_type: FLOAT
        shape {
          dim {
            dim_value: 2
          }
          dim {
            dim_value: 1
          }
          dim {
            dim_value: 672
          }
          dim {
            dim_value: 672
          }
        }
      }
    }
  }
}
