ir_version: 1
producer_name: "pytorch"
producer_version: "0.2"
domain: "com.facebook"
graph {
  node {
    input: "4"
    input: "1"
    output: "27"
    op_type: "Gather"
  }
  node {
    input: "27"
    output: "29"
    output: "30"
    op_type: "Dropout"
    attribute {
      name: "ratio"
      f: 0.200000002980232
    }
    attribute {
      name: "is_test"
      i: 1
    }
  }
  node {
    output: "31"
    op_type: "Constant"
    attribute {
      name: "value"
      t {
        dims: 1
        data_type: INT32
        raw_data: "\000\000\000\000"
      }
    }
  }
  node {
    output: "32"
    op_type: "Constant"
    attribute {
      name: "value"
      t {
        dims: 1
        data_type: INT64
        raw_data: "\000\000\000\000\000\000\000\000"
      }
    }
  }
  node {
    output: "33"
    op_type: "Constant"
    attribute {
      name: "value"
      t {
        dims: 1
        data_type: INT64
        raw_data: "\001\000\000\000\000\000\000\000"
      }
    }
  }
  node {
    input: "2"
    input: "31"
    input: "32"
    input: "33"
    output: "34"
    op_type: "Slice"
  }
  node {
    input: "34"
    output: "35"
    op_type: "Squeeze"
    attribute {
      name: "axes"
      ints: 0
    }
  }
  node {
    output: "36"
    op_type: "Constant"
    attribute {
      name: "value"
      t {
        dims: 1
        data_type: INT32
        raw_data: "\000\000\000\000"
      }
    }
  }
  node {
    output: "37"
    op_type: "Constant"
    attribute {
      name: "value"
      t {
        dims: 1
        data_type: INT64
        raw_data: "\000\000\000\000\000\000\000\000"
      }
    }
  }
  node {
    output: "38"
    op_type: "Constant"
    attribute {
      name: "value"
      t {
        dims: 1
        data_type: INT64
        raw_data: "\001\000\000\000\000\000\000\000"
      }
    }
  }
  node {
    input: "3"
    input: "36"
    input: "37"
    input: "38"
    output: "39"
    op_type: "Slice"
  }
  node {
    input: "39"
    output: "40"
    op_type: "Squeeze"
    attribute {
      name: "axes"
      ints: 0
    }
  }
  node {
    output: "41"
    op_type: "Constant"
    attribute {
      name: "value"
      t {
        dims: 1
        data_type: INT32
        raw_data: "\000\000\000\000"
      }
    }
  }
  node {
    output: "42"
    op_type: "Constant"
    attribute {
      name: "value"
      t {
        dims: 1
        data_type: INT64
        raw_data: "\001\000\000\000\000\000\000\000"
      }
    }
  }
  node {
    output: "43"
    op_type: "Constant"
    attribute {
      name: "value"
      t {
        dims: 1
        data_type: INT64
        raw_data: "\002\000\000\000\000\000\000\000"
      }
    }
  }
  node {
    input: "2"
    input: "41"
    input: "42"
    input: "43"
    output: "44"
    op_type: "Slice"
  }
  node {
    input: "44"
    output: "45"
    op_type: "Squeeze"
    attribute {
      name: "axes"
      ints: 0
    }
  }
  node {
    output: "46"
    op_type: "Constant"
    attribute {
      name: "value"
      t {
        dims: 1
        data_type: INT32
        raw_data: "\000\000\000\000"
      }
    }
  }
  node {
    output: "47"
    op_type: "Constant"
    attribute {
      name: "value"
      t {
        dims: 1
        data_type: INT64
        raw_data: "\001\000\000\000\000\000\000\000"
      }
    }
  }
  node {
    output: "48"
    op_type: "Constant"
    attribute {
      name: "value"
      t {
        dims: 1
        data_type: INT64
        raw_data: "\002\000\000\000\000\000\000\000"
      }
    }
  }
  node {
    input: "3"
    input: "46"
    input: "47"
    input: "48"
    output: "49"
    op_type: "Slice"
  }
  node {
    input: "49"
    output: "50"
    op_type: "Squeeze"
    attribute {
      name: "axes"
      ints: 0
    }
  }
  node {
    output: "51"
    op_type: "Constant"
    attribute {
      name: "value"
      t {
        dims: 1
        data_type: INT32
        raw_data: "\000\000\000\000"
      }
    }
  }
  node {
    output: "52"
    op_type: "Constant"
    attribute {
      name: "value"
      t {
        dims: 1
        data_type: INT64
        raw_data: "\002\000\000\000\000\000\000\000"
      }
    }
  }
  node {
    output: "53"
    op_type: "Constant"
    attribute {
      name: "value"
      t {
        dims: 1
        data_type: INT64
        raw_data: "\003\000\000\000\000\000\000\000"
      }
    }
  }
  node {
    input: "2"
    input: "51"
    input: "52"
    input: "53"
    output: "54"
    op_type: "Slice"
  }
  node {
    input: "54"
    output: "55"
    op_type: "Squeeze"
    attribute {
      name: "axes"
      ints: 0
    }
  }
  node {
    output: "56"
    op_type: "Constant"
    attribute {
      name: "value"
      t {
        dims: 1
        data_type: INT32
        raw_data: "\000\000\000\000"
      }
    }
  }
  node {
    output: "57"
    op_type: "Constant"
    attribute {
      name: "value"
      t {
        dims: 1
        data_type: INT64
        raw_data: "\002\000\000\000\000\000\000\000"
      }
    }
  }
  node {
    output: "58"
    op_type: "Constant"
    attribute {
      name: "value"
      t {
        dims: 1
        data_type: INT64
        raw_data: "\003\000\000\000\000\000\000\000"
      }
    }
  }
  node {
    input: "3"
    input: "56"
    input: "57"
    input: "58"
    output: "59"
    op_type: "Slice"
  }
  node {
    input: "59"
    output: "60"
    op_type: "Squeeze"
    attribute {
      name: "axes"
      ints: 0
    }
  }
  node {
    output: "61"
    op_type: "Constant"
    attribute {
      name: "value"
      t {
        dims: 1
        data_type: INT32
        raw_data: "\000\000\000\000"
      }
    }
  }
  node {
    output: "62"
    op_type: "Constant"
    attribute {
      name: "value"
      t {
        dims: 1
        data_type: INT64
        raw_data: "\003\000\000\000\000\000\000\000"
      }
    }
  }
  node {
    output: "63"
    op_type: "Constant"
    attribute {
      name: "value"
      t {
        dims: 1
        data_type: INT64
        raw_data: "\004\000\000\000\000\000\000\000"
      }
    }
  }
  node {
    input: "2"
    input: "61"
    input: "62"
    input: "63"
    output: "64"
    op_type: "Slice"
  }
  node {
    input: "64"
    output: "65"
    op_type: "Squeeze"
    attribute {
      name: "axes"
      ints: 0
    }
  }
  node {
    output: "66"
    op_type: "Constant"
    attribute {
      name: "value"
      t {
        dims: 1
        data_type: INT32
        raw_data: "\000\000\000\000"
      }
    }
  }
  node {
    output: "67"
    op_type: "Constant"
    attribute {
      name: "value"
      t {
        dims: 1
        data_type: INT64
        raw_data: "\003\000\000\000\000\000\000\000"
      }
    }
  }
  node {
    output: "68"
    op_type: "Constant"
    attribute {
      name: "value"
      t {
        dims: 1
        data_type: INT64
        raw_data: "\004\000\000\000\000\000\000\000"
      }
    }
  }
  node {
    input: "3"
    input: "66"
    input: "67"
    input: "68"
    output: "69"
    op_type: "Slice"
  }
  node {
    input: "69"
    output: "70"
    op_type: "Squeeze"
    attribute {
      name: "axes"
      ints: 0
    }
  }
  node {
    output: "71"
    op_type: "Constant"
    attribute {
      name: "value"
      t {
        dims: 1
        data_type: INT32
        raw_data: "\000\000\000\000"
      }
    }
  }
  node {
    output: "72"
    op_type: "Constant"
    attribute {
      name: "value"
      t {
        dims: 1
        data_type: INT64
        raw_data: "\004\000\000\000\000\000\000\000"
      }
    }
  }
  node {
    output: "73"
    op_type: "Constant"
    attribute {
      name: "value"
      t {
        dims: 1
        data_type: INT64
        raw_data: "\005\000\000\000\000\000\000\000"
      }
    }
  }
  node {
    input: "2"
    input: "71"
    input: "72"
    input: "73"
    output: "74"
    op_type: "Slice"
  }
  node {
    input: "74"
    output: "75"
    op_type: "Squeeze"
    attribute {
      name: "axes"
      ints: 0
    }
  }
  node {
    output: "76"
    op_type: "Constant"
    attribute {
      name: "value"
      t {
        dims: 1
        data_type: INT32
        raw_data: "\000\000\000\000"
      }
    }
  }
  node {
    output: "77"
    op_type: "Constant"
    attribute {
      name: "value"
      t {
        dims: 1
        data_type: INT64
        raw_data: "\004\000\000\000\000\000\000\000"
      }
    }
  }
  node {
    output: "78"
    op_type: "Constant"
    attribute {
      name: "value"
      t {
        dims: 1
        data_type: INT64
        raw_data: "\005\000\000\000\000\000\000\000"
      }
    }
  }
  node {
    input: "3"
    input: "76"
    input: "77"
    input: "78"
    output: "79"
    op_type: "Slice"
  }
  node {
    input: "79"
    output: "80"
    op_type: "Squeeze"
    attribute {
      name: "axes"
      ints: 0
    }
  }
  node {
    output: "81"
    op_type: "Constant"
    attribute {
      name: "value"
      t {
        dims: 1
        data_type: INT32
        raw_data: "\000\000\000\000"
      }
    }
  }
  node {
    output: "82"
    op_type: "Constant"
    attribute {
      name: "value"
      t {
        dims: 1
        data_type: INT64
        raw_data: "\000\000\000\000\000\000\000\000"
      }
    }
  }
  node {
    output: "83"
    op_type: "Constant"
    attribute {
      name: "value"
      t {
        dims: 1
        data_type: INT64
        raw_data: "\001\000\000\000\000\000\000\000"
      }
    }
  }
  node {
    input: "29"
    input: "81"
    input: "82"
    input: "83"
    output: "84"
    op_type: "Slice"
  }
  node {
    input: "84"
    output: "85"
    op_type: "Squeeze"
    attribute {
      name: "axes"
      ints: 0
    }
  }
  node {
    input: "5"
    output: "86"
    op_type: "Transpose"
    attribute {
      name: "perm"
      ints: 1
      ints: 0
    }
  }
  node {
    input: "7"
    output: "88"
    op_type: "expand"
    attribute {
      name: "size"
      ints: 5
      ints: 20
    }
  }
  node {
    input: "85"
    input: "86"
    input: "88"
    output: "89"
    op_type: "Gemm"
    attribute {
      name: "alpha"
      f: 1
    }
    attribute {
      name: "beta"
      f: 1
    }
  }
  node {
    input: "6"
    output: "90"
    op_type: "Transpose"
    attribute {
      name: "perm"
      ints: 1
      ints: 0
    }
  }
  node {
    input: "8"
    output: "92"
    op_type: "expand"
    attribute {
      name: "size"
      ints: 5
      ints: 20
    }
  }
  node {
    input: "35"
    input: "90"
    input: "92"
    output: "93"
    op_type: "Gemm"
    attribute {
      name: "alpha"
      f: 1
    }
    attribute {
      name: "beta"
      f: 1
    }
  }
  node {
    input: "89"
    input: "93"
    output: "94"
    op_type: "Add"
  }
  node {
    input: "94"
    output: "96"
    output: "97"
    output: "98"
    output: "99"
    op_type: "Split"
    attribute {
      name: "axis"
      i: 1
    }
    attribute {
      name: "split"
      ints: 5
      ints: 5
      ints: 5
      ints: 5
    }
  }
  node {
    input: "96"
    output: "100"
    op_type: "Sigmoid"
  }
  node {
    input: "97"
    output: "101"
    op_type: "Sigmoid"
  }
  node {
    input: "98"
    output: "102"
    op_type: "Tanh"
  }
  node {
    input: "99"
    output: "103"
    op_type: "Sigmoid"
  }
  node {
    input: "101"
    input: "40"
    output: "104"
    op_type: "Mul"
  }
  node {
    input: "100"
    input: "102"
    output: "105"
    op_type: "Mul"
  }
  node {
    input: "104"
    input: "105"
    output: "106"
    op_type: "Add"
  }
  node {
    input: "106"
    output: "107"
    op_type: "Tanh"
  }
  node {
    input: "103"
    input: "107"
    output: "108"
    op_type: "Mul"
  }
  node {
    output: "109"
    op_type: "Constant"
    attribute {
      name: "value"
      t {
        dims: 1
        data_type: INT32
        raw_data: "\000\000\000\000"
      }
    }
  }
  node {
    output: "110"
    op_type: "Constant"
    attribute {
      name: "value"
      t {
        dims: 1
        data_type: INT64
        raw_data: "\001\000\000\000\000\000\000\000"
      }
    }
  }
  node {
    output: "111"
    op_type: "Constant"
    attribute {
      name: "value"
      t {
        dims: 1
        data_type: INT64
        raw_data: "\002\000\000\000\000\000\000\000"
      }
    }
  }
  node {
    input: "29"
    input: "109"
    input: "110"
    input: "111"
    output: "112"
    op_type: "Slice"
  }
  node {
    input: "112"
    output: "113"
    op_type: "Squeeze"
    attribute {
      name: "axes"
      ints: 0
    }
  }
  node {
    input: "5"
    output: "114"
    op_type: "Transpose"
    attribute {
      name: "perm"
      ints: 1
      ints: 0
    }
  }
  node {
    input: "7"
    output: "116"
    op_type: "expand"
    attribute {
      name: "size"
      ints: 5
      ints: 20
    }
  }
  node {
    input: "113"
    input: "114"
    input: "116"
    output: "117"
    op_type: "Gemm"
    attribute {
      name: "alpha"
      f: 1
    }
    attribute {
      name: "beta"
      f: 1
    }
  }
  node {
    input: "6"
    output: "118"
    op_type: "Transpose"
    attribute {
      name: "perm"
      ints: 1
      ints: 0
    }
  }
  node {
    input: "8"
    output: "120"
    op_type: "expand"
    attribute {
      name: "size"
      ints: 5
      ints: 20
    }
  }
  node {
    input: "108"
    input: "118"
    input: "120"
    output: "121"
    op_type: "Gemm"
    attribute {
      name: "alpha"
      f: 1
    }
    attribute {
      name: "beta"
      f: 1
    }
  }
  node {
    input: "117"
    input: "121"
    output: "122"
    op_type: "Add"
  }
  node {
    input: "122"
    output: "124"
    output: "125"
    output: "126"
    output: "127"
    op_type: "Split"
    attribute {
      name: "axis"
      i: 1
    }
    attribute {
      name: "split"
      ints: 5
      ints: 5
      ints: 5
      ints: 5
    }
  }
  node {
    input: "124"
    output: "128"
    op_type: "Sigmoid"
  }
  node {
    input: "125"
    output: "129"
    op_type: "Sigmoid"
  }
  node {
    input: "126"
    output: "130"
    op_type: "Tanh"
  }
  node {
    input: "127"
    output: "131"
    op_type: "Sigmoid"
  }
  node {
    input: "129"
    input: "106"
    output: "132"
    op_type: "Mul"
  }
  node {
    input: "128"
    input: "130"
    output: "133"
    op_type: "Mul"
  }
  node {
    input: "132"
    input: "133"
    output: "134"
    op_type: "Add"
  }
  node {
    input: "134"
    output: "135"
    op_type: "Tanh"
  }
  node {
    input: "131"
    input: "135"
    output: "136"
    op_type: "Mul"
  }
  node {
    output: "137"
    op_type: "Constant"
    attribute {
      name: "value"
      t {
        dims: 1
        data_type: INT32
        raw_data: "\000\000\000\000"
      }
    }
  }
  node {
    output: "138"
    op_type: "Constant"
    attribute {
      name: "value"
      t {
        dims: 1
        data_type: INT64
        raw_data: "\002\000\000\000\000\000\000\000"
      }
    }
  }
  node {
    output: "139"
    op_type: "Constant"
    attribute {
      name: "value"
      t {
        dims: 1
        data_type: INT64
        raw_data: "\003\000\000\000\000\000\000\000"
      }
    }
  }
  node {
    input: "29"
    input: "137"
    input: "138"
    input: "139"
    output: "140"
    op_type: "Slice"
  }
  node {
    input: "140"
    output: "141"
    op_type: "Squeeze"
    attribute {
      name: "axes"
      ints: 0
    }
  }
  node {
    input: "5"
    output: "142"
    op_type: "Transpose"
    attribute {
      name: "perm"
      ints: 1
      ints: 0
    }
  }
  node {
    input: "7"
    output: "144"
    op_type: "expand"
    attribute {
      name: "size"
      ints: 5
      ints: 20
    }
  }
  node {
    input: "141"
    input: "142"
    input: "144"
    output: "145"
    op_type: "Gemm"
    attribute {
      name: "alpha"
      f: 1
    }
    attribute {
      name: "beta"
      f: 1
    }
  }
  node {
    input: "6"
    output: "146"
    op_type: "Transpose"
    attribute {
      name: "perm"
      ints: 1
      ints: 0
    }
  }
  node {
    input: "8"
    output: "148"
    op_type: "expand"
    attribute {
      name: "size"
      ints: 5
      ints: 20
    }
  }
  node {
    input: "136"
    input: "146"
    input: "148"
    output: "149"
    op_type: "Gemm"
    attribute {
      name: "alpha"
      f: 1
    }
    attribute {
      name: "beta"
      f: 1
    }
  }
  node {
    input: "145"
    input: "149"
    output: "150"
    op_type: "Add"
  }
  node {
    input: "150"
    output: "152"
    output: "153"
    output: "154"
    output: "155"
    op_type: "Split"
    attribute {
      name: "axis"
      i: 1
    }
    attribute {
      name: "split"
      ints: 5
      ints: 5
      ints: 5
      ints: 5
    }
  }
  node {
    input: "152"
    output: "156"
    op_type: "Sigmoid"
  }
  node {
    input: "153"
    output: "157"
    op_type: "Sigmoid"
  }
  node {
    input: "154"
    output: "158"
    op_type: "Tanh"
  }
  node {
    input: "155"
    output: "159"
    op_type: "Sigmoid"
  }
  node {
    input: "157"
    input: "134"
    output: "160"
    op_type: "Mul"
  }
  node {
    input: "156"
    input: "158"
    output: "161"
    op_type: "Mul"
  }
  node {
    input: "160"
    input: "161"
    output: "162"
    op_type: "Add"
  }
  node {
    input: "162"
    output: "163"
    op_type: "Tanh"
  }
  node {
    input: "159"
    input: "163"
    output: "164"
    op_type: "Mul"
  }
  node {
    output: "165"
    op_type: "Constant"
    attribute {
      name: "value"
      t {
        dims: 1
        data_type: INT32
        raw_data: "\000\000\000\000"
      }
    }
  }
  node {
    output: "166"
    op_type: "Constant"
    attribute {
      name: "value"
      t {
        dims: 1
        data_type: INT64
        raw_data: "\003\000\000\000\000\000\000\000"
      }
    }
  }
  node {
    output: "167"
    op_type: "Constant"
    attribute {
      name: "value"
      t {
        dims: 1
        data_type: INT64
        raw_data: "\004\000\000\000\000\000\000\000"
      }
    }
  }
  node {
    input: "29"
    input: "165"
    input: "166"
    input: "167"
    output: "168"
    op_type: "Slice"
  }
  node {
    input: "168"
    output: "169"
    op_type: "Squeeze"
    attribute {
      name: "axes"
      ints: 0
    }
  }
  node {
    input: "5"
    output: "170"
    op_type: "Transpose"
    attribute {
      name: "perm"
      ints: 1
      ints: 0
    }
  }
  node {
    input: "7"
    output: "172"
    op_type: "expand"
    attribute {
      name: "size"
      ints: 5
      ints: 20
    }
  }
  node {
    input: "169"
    input: "170"
    input: "172"
    output: "173"
    op_type: "Gemm"
    attribute {
      name: "alpha"
      f: 1
    }
    attribute {
      name: "beta"
      f: 1
    }
  }
  node {
    input: "6"
    output: "174"
    op_type: "Transpose"
    attribute {
      name: "perm"
      ints: 1
      ints: 0
    }
  }
  node {
    input: "8"
    output: "176"
    op_type: "expand"
    attribute {
      name: "size"
      ints: 5
      ints: 20
    }
  }
  node {
    input: "164"
    input: "174"
    input: "176"
    output: "177"
    op_type: "Gemm"
    attribute {
      name: "alpha"
      f: 1
    }
    attribute {
      name: "beta"
      f: 1
    }
  }
  node {
    input: "173"
    input: "177"
    output: "178"
    op_type: "Add"
  }
  node {
    input: "178"
    output: "180"
    output: "181"
    output: "182"
    output: "183"
    op_type: "Split"
    attribute {
      name: "axis"
      i: 1
    }
    attribute {
      name: "split"
      ints: 5
      ints: 5
      ints: 5
      ints: 5
    }
  }
  node {
    input: "180"
    output: "184"
    op_type: "Sigmoid"
  }
  node {
    input: "181"
    output: "185"
    op_type: "Sigmoid"
  }
  node {
    input: "182"
    output: "186"
    op_type: "Tanh"
  }
  node {
    input: "183"
    output: "187"
    op_type: "Sigmoid"
  }
  node {
    input: "185"
    input: "162"
    output: "188"
    op_type: "Mul"
  }
  node {
    input: "184"
    input: "186"
    output: "189"
    op_type: "Mul"
  }
  node {
    input: "188"
    input: "189"
    output: "190"
    op_type: "Add"
  }
  node {
    input: "190"
    output: "191"
    op_type: "Tanh"
  }
  node {
    input: "187"
    input: "191"
    output: "192"
    op_type: "Mul"
  }
  node {
    output: "193"
    op_type: "Constant"
    attribute {
      name: "value"
      t {
        dims: 1
        data_type: INT32
        raw_data: "\000\000\000\000"
      }
    }
  }
  node {
    output: "194"
    op_type: "Constant"
    attribute {
      name: "value"
      t {
        dims: 1
        data_type: INT64
        raw_data: "\004\000\000\000\000\000\000\000"
      }
    }
  }
  node {
    output: "195"
    op_type: "Constant"
    attribute {
      name: "value"
      t {
        dims: 1
        data_type: INT64
        raw_data: "\005\000\000\000\000\000\000\000"
      }
    }
  }
  node {
    input: "29"
    input: "193"
    input: "194"
    input: "195"
    output: "196"
    op_type: "Slice"
  }
  node {
    input: "196"
    output: "197"
    op_type: "Squeeze"
    attribute {
      name: "axes"
      ints: 0
    }
  }
  node {
    input: "5"
    output: "198"
    op_type: "Transpose"
    attribute {
      name: "perm"
      ints: 1
      ints: 0
    }
  }
  node {
    input: "7"
    output: "200"
    op_type: "expand"
    attribute {
      name: "size"
      ints: 5
      ints: 20
    }
  }
  node {
    input: "197"
    input: "198"
    input: "200"
    output: "201"
    op_type: "Gemm"
    attribute {
      name: "alpha"
      f: 1
    }
    attribute {
      name: "beta"
      f: 1
    }
  }
  node {
    input: "6"
    output: "202"
    op_type: "Transpose"
    attribute {
      name: "perm"
      ints: 1
      ints: 0
    }
  }
  node {
    input: "8"
    output: "204"
    op_type: "expand"
    attribute {
      name: "size"
      ints: 5
      ints: 20
    }
  }
  node {
    input: "192"
    input: "202"
    input: "204"
    output: "205"
    op_type: "Gemm"
    attribute {
      name: "alpha"
      f: 1
    }
    attribute {
      name: "beta"
      f: 1
    }
  }
  node {
    input: "201"
    input: "205"
    output: "206"
    op_type: "Add"
  }
  node {
    input: "206"
    output: "208"
    output: "209"
    output: "210"
    output: "211"
    op_type: "Split"
    attribute {
      name: "axis"
      i: 1
    }
    attribute {
      name: "split"
      ints: 5
      ints: 5
      ints: 5
      ints: 5
    }
  }
  node {
    input: "208"
    output: "212"
    op_type: "Sigmoid"
  }
  node {
    input: "209"
    output: "213"
    op_type: "Sigmoid"
  }
  node {
    input: "210"
    output: "214"
    op_type: "Tanh"
  }
  node {
    input: "211"
    output: "215"
    op_type: "Sigmoid"
  }
  node {
    input: "213"
    input: "190"
    output: "216"
    op_type: "Mul"
  }
  node {
    input: "212"
    input: "214"
    output: "217"
    op_type: "Mul"
  }
  node {
    input: "216"
    input: "217"
    output: "218"
    op_type: "Add"
  }
  node {
    input: "218"
    output: "219"
    op_type: "Tanh"
  }
  node {
    input: "215"
    input: "219"
    output: "220"
    op_type: "Mul"
  }
  node {
    output: "221"
    op_type: "Constant"
    attribute {
      name: "value"
      t {
        dims: 1
        data_type: INT32
        raw_data: "\000\000\000\000"
      }
    }
  }
  node {
    output: "222"
    op_type: "Constant"
    attribute {
      name: "value"
      t {
        dims: 1
        data_type: INT64
        raw_data: "\005\000\000\000\000\000\000\000"
      }
    }
  }
  node {
    output: "223"
    op_type: "Constant"
    attribute {
      name: "value"
      t {
        dims: 1
        data_type: INT64
        raw_data: "\006\000\000\000\000\000\000\000"
      }
    }
  }
  node {
    input: "29"
    input: "221"
    input: "222"
    input: "223"
    output: "224"
    op_type: "Slice"
  }
  node {
    input: "224"
    output: "225"
    op_type: "Squeeze"
    attribute {
      name: "axes"
      ints: 0
    }
  }
  node {
    input: "5"
    output: "226"
    op_type: "Transpose"
    attribute {
      name: "perm"
      ints: 1
      ints: 0
    }
  }
  node {
    input: "7"
    output: "228"
    op_type: "expand"
    attribute {
      name: "size"
      ints: 5
      ints: 20
    }
  }
  node {
    input: "225"
    input: "226"
    input: "228"
    output: "229"
    op_type: "Gemm"
    attribute {
      name: "alpha"
      f: 1
    }
    attribute {
      name: "beta"
      f: 1
    }
  }
  node {
    input: "6"
    output: "230"
    op_type: "Transpose"
    attribute {
      name: "perm"
      ints: 1
      ints: 0
    }
  }
  node {
    input: "8"
    output: "232"
    op_type: "expand"
    attribute {
      name: "size"
      ints: 5
      ints: 20
    }
  }
  node {
    input: "220"
    input: "230"
    input: "232"
    output: "233"
    op_type: "Gemm"
    attribute {
      name: "alpha"
      f: 1
    }
    attribute {
      name: "beta"
      f: 1
    }
  }
  node {
    input: "229"
    input: "233"
    output: "234"
    op_type: "Add"
  }
  node {
    input: "234"
    output: "236"
    output: "237"
    output: "238"
    output: "239"
    op_type: "Split"
    attribute {
      name: "axis"
      i: 1
    }
    attribute {
      name: "split"
      ints: 5
      ints: 5
      ints: 5
      ints: 5
    }
  }
  node {
    input: "236"
    output: "240"
    op_type: "Sigmoid"
  }
  node {
    input: "237"
    output: "241"
    op_type: "Sigmoid"
  }
  node {
    input: "238"
    output: "242"
    op_type: "Tanh"
  }
  node {
    input: "239"
    output: "243"
    op_type: "Sigmoid"
  }
  node {
    input: "241"
    input: "218"
    output: "244"
    op_type: "Mul"
  }
  node {
    input: "240"
    input: "242"
    output: "245"
    op_type: "Mul"
  }
  node {
    input: "244"
    input: "245"
    output: "246"
    op_type: "Add"
  }
  node {
    input: "246"
    output: "247"
    op_type: "Tanh"
  }
  node {
    input: "243"
    input: "247"
    output: "248"
    op_type: "Mul"
  }
  node {
    output: "249"
    op_type: "Constant"
    attribute {
      name: "value"
      t {
        dims: 1
        data_type: INT32
        raw_data: "\000\000\000\000"
      }
    }
  }
  node {
    output: "250"
    op_type: "Constant"
    attribute {
      name: "value"
      t {
        dims: 1
        data_type: INT64
        raw_data: "\006\000\000\000\000\000\000\000"
      }
    }
  }
  node {
    output: "251"
    op_type: "Constant"
    attribute {
      name: "value"
      t {
        dims: 1
        data_type: INT64
        raw_data: "\007\000\000\000\000\000\000\000"
      }
    }
  }
  node {
    input: "29"
    input: "249"
    input: "250"
    input: "251"
    output: "252"
    op_type: "Slice"
  }
  node {
    input: "252"
    output: "253"
    op_type: "Squeeze"
    attribute {
      name: "axes"
      ints: 0
    }
  }
  node {
    input: "5"
    output: "254"
    op_type: "Transpose"
    attribute {
      name: "perm"
      ints: 1
      ints: 0
    }
  }
  node {
    input: "7"
    output: "256"
    op_type: "expand"
    attribute {
      name: "size"
      ints: 5
      ints: 20
    }
  }
  node {
    input: "253"
    input: "254"
    input: "256"
    output: "257"
    op_type: "Gemm"
    attribute {
      name: "alpha"
      f: 1
    }
    attribute {
      name: "beta"
      f: 1
    }
  }
  node {
    input: "6"
    output: "258"
    op_type: "Transpose"
    attribute {
      name: "perm"
      ints: 1
      ints: 0
    }
  }
  node {
    input: "8"
    output: "260"
    op_type: "expand"
    attribute {
      name: "size"
      ints: 5
      ints: 20
    }
  }
  node {
    input: "248"
    input: "258"
    input: "260"
    output: "261"
    op_type: "Gemm"
    attribute {
      name: "alpha"
      f: 1
    }
    attribute {
      name: "beta"
      f: 1
    }
  }
  node {
    input: "257"
    input: "261"
    output: "262"
    op_type: "Add"
  }
  node {
    input: "262"
    output: "264"
    output: "265"
    output: "266"
    output: "267"
    op_type: "Split"
    attribute {
      name: "axis"
      i: 1
    }
    attribute {
      name: "split"
      ints: 5
      ints: 5
      ints: 5
      ints: 5
    }
  }
  node {
    input: "264"
    output: "268"
    op_type: "Sigmoid"
  }
  node {
    input: "265"
    output: "269"
    op_type: "Sigmoid"
  }
  node {
    input: "266"
    output: "270"
    op_type: "Tanh"
  }
  node {
    input: "267"
    output: "271"
    op_type: "Sigmoid"
  }
  node {
    input: "269"
    input: "246"
    output: "272"
    op_type: "Mul"
  }
  node {
    input: "268"
    input: "270"
    output: "273"
    op_type: "Mul"
  }
  node {
    input: "272"
    input: "273"
    output: "274"
    op_type: "Add"
  }
  node {
    input: "274"
    output: "275"
    op_type: "Tanh"
  }
  node {
    input: "271"
    input: "275"
    output: "276"
    op_type: "Mul"
  }
  node {
    output: "277"
    op_type: "Constant"
    attribute {
      name: "value"
      t {
        dims: 1
        data_type: INT32
        raw_data: "\000\000\000\000"
      }
    }
  }
  node {
    output: "278"
    op_type: "Constant"
    attribute {
      name: "value"
      t {
        dims: 1
        data_type: INT64
        raw_data: "\007\000\000\000\000\000\000\000"
      }
    }
  }
  node {
    output: "279"
    op_type: "Constant"
    attribute {
      name: "value"
      t {
        dims: 1
        data_type: INT64
        raw_data: "\010\000\000\000\000\000\000\000"
      }
    }
  }
  node {
    input: "29"
    input: "277"
    input: "278"
    input: "279"
    output: "280"
    op_type: "Slice"
  }
  node {
    input: "280"
    output: "281"
    op_type: "Squeeze"
    attribute {
      name: "axes"
      ints: 0
    }
  }
  node {
    input: "5"
    output: "282"
    op_type: "Transpose"
    attribute {
      name: "perm"
      ints: 1
      ints: 0
    }
  }
  node {
    input: "7"
    output: "284"
    op_type: "expand"
    attribute {
      name: "size"
      ints: 5
      ints: 20
    }
  }
  node {
    input: "281"
    input: "282"
    input: "284"
    output: "285"
    op_type: "Gemm"
    attribute {
      name: "alpha"
      f: 1
    }
    attribute {
      name: "beta"
      f: 1
    }
  }
  node {
    input: "6"
    output: "286"
    op_type: "Transpose"
    attribute {
      name: "perm"
      ints: 1
      ints: 0
    }
  }
  node {
    input: "8"
    output: "288"
    op_type: "expand"
    attribute {
      name: "size"
      ints: 5
      ints: 20
    }
  }
  node {
    input: "276"
    input: "286"
    input: "288"
    output: "289"
    op_type: "Gemm"
    attribute {
      name: "alpha"
      f: 1
    }
    attribute {
      name: "beta"
      f: 1
    }
  }
  node {
    input: "285"
    input: "289"
    output: "290"
    op_type: "Add"
  }
  node {
    input: "290"
    output: "292"
    output: "293"
    output: "294"
    output: "295"
    op_type: "Split"
    attribute {
      name: "axis"
      i: 1
    }
    attribute {
      name: "split"
      ints: 5
      ints: 5
      ints: 5
      ints: 5
    }
  }
  node {
    input: "292"
    output: "296"
    op_type: "Sigmoid"
  }
  node {
    input: "293"
    output: "297"
    op_type: "Sigmoid"
  }
  node {
    input: "294"
    output: "298"
    op_type: "Tanh"
  }
  node {
    input: "295"
    output: "299"
    op_type: "Sigmoid"
  }
  node {
    input: "297"
    input: "274"
    output: "300"
    op_type: "Mul"
  }
  node {
    input: "296"
    input: "298"
    output: "301"
    op_type: "Mul"
  }
  node {
    input: "300"
    input: "301"
    output: "302"
    op_type: "Add"
  }
  node {
    input: "302"
    output: "303"
    op_type: "Tanh"
  }
  node {
    input: "299"
    input: "303"
    output: "304"
    op_type: "Mul"
  }
  node {
    output: "305"
    op_type: "Constant"
    attribute {
      name: "value"
      t {
        dims: 1
        data_type: INT32
        raw_data: "\000\000\000\000"
      }
    }
  }
  node {
    output: "306"
    op_type: "Constant"
    attribute {
      name: "value"
      t {
        dims: 1
        data_type: INT64
        raw_data: "\010\000\000\000\000\000\000\000"
      }
    }
  }
  node {
    output: "307"
    op_type: "Constant"
    attribute {
      name: "value"
      t {
        dims: 1
        data_type: INT64
        raw_data: "\t\000\000\000\000\000\000\000"
      }
    }
  }
  node {
    input: "29"
    input: "305"
    input: "306"
    input: "307"
    output: "308"
    op_type: "Slice"
  }
  node {
    input: "308"
    output: "309"
    op_type: "Squeeze"
    attribute {
      name: "axes"
      ints: 0
    }
  }
  node {
    input: "5"
    output: "310"
    op_type: "Transpose"
    attribute {
      name: "perm"
      ints: 1
      ints: 0
    }
  }
  node {
    input: "7"
    output: "312"
    op_type: "expand"
    attribute {
      name: "size"
      ints: 5
      ints: 20
    }
  }
  node {
    input: "309"
    input: "310"
    input: "312"
    output: "313"
    op_type: "Gemm"
    attribute {
      name: "alpha"
      f: 1
    }
    attribute {
      name: "beta"
      f: 1
    }
  }
  node {
    input: "6"
    output: "314"
    op_type: "Transpose"
    attribute {
      name: "perm"
      ints: 1
      ints: 0
    }
  }
  node {
    input: "8"
    output: "316"
    op_type: "expand"
    attribute {
      name: "size"
      ints: 5
      ints: 20
    }
  }
  node {
    input: "304"
    input: "314"
    input: "316"
    output: "317"
    op_type: "Gemm"
    attribute {
      name: "alpha"
      f: 1
    }
    attribute {
      name: "beta"
      f: 1
    }
  }
  node {
    input: "313"
    input: "317"
    output: "318"
    op_type: "Add"
  }
  node {
    input: "318"
    output: "320"
    output: "321"
    output: "322"
    output: "323"
    op_type: "Split"
    attribute {
      name: "axis"
      i: 1
    }
    attribute {
      name: "split"
      ints: 5
      ints: 5
      ints: 5
      ints: 5
    }
  }
  node {
    input: "320"
    output: "324"
    op_type: "Sigmoid"
  }
  node {
    input: "321"
    output: "325"
    op_type: "Sigmoid"
  }
  node {
    input: "322"
    output: "326"
    op_type: "Tanh"
  }
  node {
    input: "323"
    output: "327"
    op_type: "Sigmoid"
  }
  node {
    input: "325"
    input: "302"
    output: "328"
    op_type: "Mul"
  }
  node {
    input: "324"
    input: "326"
    output: "329"
    op_type: "Mul"
  }
  node {
    input: "328"
    input: "329"
    output: "330"
    op_type: "Add"
  }
  node {
    input: "330"
    output: "331"
    op_type: "Tanh"
  }
  node {
    input: "327"
    input: "331"
    output: "332"
    op_type: "Mul"
  }
  node {
    output: "333"
    op_type: "Constant"
    attribute {
      name: "value"
      t {
        dims: 1
        data_type: INT32
        raw_data: "\000\000\000\000"
      }
    }
  }
  node {
    output: "334"
    op_type: "Constant"
    attribute {
      name: "value"
      t {
        dims: 1
        data_type: INT64
        raw_data: "\t\000\000\000\000\000\000\000"
      }
    }
  }
  node {
    output: "335"
    op_type: "Constant"
    attribute {
      name: "value"
      t {
        dims: 1
        data_type: INT64
        raw_data: "\n\000\000\000\000\000\000\000"
      }
    }
  }
  node {
    input: "29"
    input: "333"
    input: "334"
    input: "335"
    output: "336"
    op_type: "Slice"
  }
  node {
    input: "336"
    output: "337"
    op_type: "Squeeze"
    attribute {
      name: "axes"
      ints: 0
    }
  }
  node {
    input: "5"
    output: "338"
    op_type: "Transpose"
    attribute {
      name: "perm"
      ints: 1
      ints: 0
    }
  }
  node {
    input: "7"
    output: "340"
    op_type: "expand"
    attribute {
      name: "size"
      ints: 5
      ints: 20
    }
  }
  node {
    input: "337"
    input: "338"
    input: "340"
    output: "341"
    op_type: "Gemm"
    attribute {
      name: "alpha"
      f: 1
    }
    attribute {
      name: "beta"
      f: 1
    }
  }
  node {
    input: "6"
    output: "342"
    op_type: "Transpose"
    attribute {
      name: "perm"
      ints: 1
      ints: 0
    }
  }
  node {
    input: "8"
    output: "344"
    op_type: "expand"
    attribute {
      name: "size"
      ints: 5
      ints: 20
    }
  }
  node {
    input: "332"
    input: "342"
    input: "344"
    output: "345"
    op_type: "Gemm"
    attribute {
      name: "alpha"
      f: 1
    }
    attribute {
      name: "beta"
      f: 1
    }
  }
  node {
    input: "341"
    input: "345"
    output: "346"
    op_type: "Add"
  }
  node {
    input: "346"
    output: "348"
    output: "349"
    output: "350"
    output: "351"
    op_type: "Split"
    attribute {
      name: "axis"
      i: 1
    }
    attribute {
      name: "split"
      ints: 5
      ints: 5
      ints: 5
      ints: 5
    }
  }
  node {
    input: "348"
    output: "352"
    op_type: "Sigmoid"
  }
  node {
    input: "349"
    output: "353"
    op_type: "Sigmoid"
  }
  node {
    input: "350"
    output: "354"
    op_type: "Tanh"
  }
  node {
    input: "351"
    output: "355"
    op_type: "Sigmoid"
  }
  node {
    input: "353"
    input: "330"
    output: "356"
    op_type: "Mul"
  }
  node {
    input: "352"
    input: "354"
    output: "357"
    op_type: "Mul"
  }
  node {
    input: "356"
    input: "357"
    output: "358"
    op_type: "Add"
  }
  node {
    input: "358"
    output: "359"
    op_type: "Tanh"
  }
  node {
    input: "355"
    input: "359"
    output: "360"
    op_type: "Mul"
  }
  node {
    input: "108"
    input: "136"
    input: "164"
    input: "192"
    input: "220"
    input: "248"
    input: "276"
    input: "304"
    input: "332"
    input: "360"
    output: "362"
    op_type: "cat"
    attribute {
      name: "dim"
      i: 0
    }
  }
  node {
    input: "362"
    output: "363"
    op_type: "Reshape"
    attribute {
      name: "shape"
      ints: 10
      ints: 5
      ints: 5
    }
  }
  node {
    input: "363"
    output: "365"
    op_type: "cat"
    attribute {
      name: "dim"
      i: 2
    }
  }
  node {
    input: "365"
    output: "367"
    output: "368"
    op_type: "Dropout"
    attribute {
      name: "ratio"
      f: 0.200000002980232
    }
    attribute {
      name: "is_test"
      i: 1
    }
  }
  node {
    output: "369"
    op_type: "Constant"
    attribute {
      name: "value"
      t {
        dims: 1
        data_type: INT32
        raw_data: "\000\000\000\000"
      }
    }
  }
  node {
    output: "370"
    op_type: "Constant"
    attribute {
      name: "value"
      t {
        dims: 1
        data_type: INT64
        raw_data: "\000\000\000\000\000\000\000\000"
      }
    }
  }
  node {
    output: "371"
    op_type: "Constant"
    attribute {
      name: "value"
      t {
        dims: 1
        data_type: INT64
        raw_data: "\001\000\000\000\000\000\000\000"
      }
    }
  }
  node {
    input: "367"
    input: "369"
    input: "370"
    input: "371"
    output: "372"
    op_type: "Slice"
  }
  node {
    input: "372"
    output: "373"
    op_type: "Squeeze"
    attribute {
      name: "axes"
      ints: 0
    }
  }
  node {
    input: "9"
    output: "374"
    op_type: "Transpose"
    attribute {
      name: "perm"
      ints: 1
      ints: 0
    }
  }
  node {
    input: "11"
    output: "376"
    op_type: "expand"
    attribute {
      name: "size"
      ints: 5
      ints: 20
    }
  }
  node {
    input: "373"
    input: "374"
    input: "376"
    output: "377"
    op_type: "Gemm"
    attribute {
      name: "alpha"
      f: 1
    }
    attribute {
      name: "beta"
      f: 1
    }
  }
  node {
    input: "10"
    output: "378"
    op_type: "Transpose"
    attribute {
      name: "perm"
      ints: 1
      ints: 0
    }
  }
  node {
    input: "12"
    output: "380"
    op_type: "expand"
    attribute {
      name: "size"
      ints: 5
      ints: 20
    }
  }
  node {
    input: "45"
    input: "378"
    input: "380"
    output: "381"
    op_type: "Gemm"
    attribute {
      name: "alpha"
      f: 1
    }
    attribute {
      name: "beta"
      f: 1
    }
  }
  node {
    input: "377"
    input: "381"
    output: "382"
    op_type: "Add"
  }
  node {
    input: "382"
    output: "384"
    output: "385"
    output: "386"
    output: "387"
    op_type: "Split"
    attribute {
      name: "axis"
      i: 1
    }
    attribute {
      name: "split"
      ints: 5
      ints: 5
      ints: 5
      ints: 5
    }
  }
  node {
    input: "384"
    output: "388"
    op_type: "Sigmoid"
  }
  node {
    input: "385"
    output: "389"
    op_type: "Sigmoid"
  }
  node {
    input: "386"
    output: "390"
    op_type: "Tanh"
  }
  node {
    input: "387"
    output: "391"
    op_type: "Sigmoid"
  }
  node {
    input: "389"
    input: "50"
    output: "392"
    op_type: "Mul"
  }
  node {
    input: "388"
    input: "390"
    output: "393"
    op_type: "Mul"
  }
  node {
    input: "392"
    input: "393"
    output: "394"
    op_type: "Add"
  }
  node {
    input: "394"
    output: "395"
    op_type: "Tanh"
  }
  node {
    input: "391"
    input: "395"
    output: "396"
    op_type: "Mul"
  }
  node {
    output: "397"
    op_type: "Constant"
    attribute {
      name: "value"
      t {
        dims: 1
        data_type: INT32
        raw_data: "\000\000\000\000"
      }
    }
  }
  node {
    output: "398"
    op_type: "Constant"
    attribute {
      name: "value"
      t {
        dims: 1
        data_type: INT64
        raw_data: "\001\000\000\000\000\000\000\000"
      }
    }
  }
  node {
    output: "399"
    op_type: "Constant"
    attribute {
      name: "value"
      t {
        dims: 1
        data_type: INT64
        raw_data: "\002\000\000\000\000\000\000\000"
      }
    }
  }
  node {
    input: "367"
    input: "397"
    input: "398"
    input: "399"
    output: "400"
    op_type: "Slice"
  }
  node {
    input: "400"
    output: "401"
    op_type: "Squeeze"
    attribute {
      name: "axes"
      ints: 0
    }
  }
  node {
    input: "9"
    output: "402"
    op_type: "Transpose"
    attribute {
      name: "perm"
      ints: 1
      ints: 0
    }
  }
  node {
    input: "11"
    output: "404"
    op_type: "expand"
    attribute {
      name: "size"
      ints: 5
      ints: 20
    }
  }
  node {
    input: "401"
    input: "402"
    input: "404"
    output: "405"
    op_type: "Gemm"
    attribute {
      name: "alpha"
      f: 1
    }
    attribute {
      name: "beta"
      f: 1
    }
  }
  node {
    input: "10"
    output: "406"
    op_type: "Transpose"
    attribute {
      name: "perm"
      ints: 1
      ints: 0
    }
  }
  node {
    input: "12"
    output: "408"
    op_type: "expand"
    attribute {
      name: "size"
      ints: 5
      ints: 20
    }
  }
  node {
    input: "396"
    input: "406"
    input: "408"
    output: "409"
    op_type: "Gemm"
    attribute {
      name: "alpha"
      f: 1
    }
    attribute {
      name: "beta"
      f: 1
    }
  }
  node {
    input: "405"
    input: "409"
    output: "410"
    op_type: "Add"
  }
  node {
    input: "410"
    output: "412"
    output: "413"
    output: "414"
    output: "415"
    op_type: "Split"
    attribute {
      name: "axis"
      i: 1
    }
    attribute {
      name: "split"
      ints: 5
      ints: 5
      ints: 5
      ints: 5
    }
  }
  node {
    input: "412"
    output: "416"
    op_type: "Sigmoid"
  }
  node {
    input: "413"
    output: "417"
    op_type: "Sigmoid"
  }
  node {
    input: "414"
    output: "418"
    op_type: "Tanh"
  }
  node {
    input: "415"
    output: "419"
    op_type: "Sigmoid"
  }
  node {
    input: "417"
    input: "394"
    output: "420"
    op_type: "Mul"
  }
  node {
    input: "416"
    input: "418"
    output: "421"
    op_type: "Mul"
  }
  node {
    input: "420"
    input: "421"
    output: "422"
    op_type: "Add"
  }
  node {
    input: "422"
    output: "423"
    op_type: "Tanh"
  }
  node {
    input: "419"
    input: "423"
    output: "424"
    op_type: "Mul"
  }
  node {
    output: "425"
    op_type: "Constant"
    attribute {
      name: "value"
      t {
        dims: 1
        data_type: INT32
        raw_data: "\000\000\000\000"
      }
    }
  }
  node {
    output: "426"
    op_type: "Constant"
    attribute {
      name: "value"
      t {
        dims: 1
        data_type: INT64
        raw_data: "\002\000\000\000\000\000\000\000"
      }
    }
  }
  node {
    output: "427"
    op_type: "Constant"
    attribute {
      name: "value"
      t {
        dims: 1
        data_type: INT64
        raw_data: "\003\000\000\000\000\000\000\000"
      }
    }
  }
  node {
    input: "367"
    input: "425"
    input: "426"
    input: "427"
    output: "428"
    op_type: "Slice"
  }
  node {
    input: "428"
    output: "429"
    op_type: "Squeeze"
    attribute {
      name: "axes"
      ints: 0
    }
  }
  node {
    input: "9"
    output: "430"
    op_type: "Transpose"
    attribute {
      name: "perm"
      ints: 1
      ints: 0
    }
  }
  node {
    input: "11"
    output: "432"
    op_type: "expand"
    attribute {
      name: "size"
      ints: 5
      ints: 20
    }
  }
  node {
    input: "429"
    input: "430"
    input: "432"
    output: "433"
    op_type: "Gemm"
    attribute {
      name: "alpha"
      f: 1
    }
    attribute {
      name: "beta"
      f: 1
    }
  }
  node {
    input: "10"
    output: "434"
    op_type: "Transpose"
    attribute {
      name: "perm"
      ints: 1
      ints: 0
    }
  }
  node {
    input: "12"
    output: "436"
    op_type: "expand"
    attribute {
      name: "size"
      ints: 5
      ints: 20
    }
  }
  node {
    input: "424"
    input: "434"
    input: "436"
    output: "437"
    op_type: "Gemm"
    attribute {
      name: "alpha"
      f: 1
    }
    attribute {
      name: "beta"
      f: 1
    }
  }
  node {
    input: "433"
    input: "437"
    output: "438"
    op_type: "Add"
  }
  node {
    input: "438"
    output: "440"
    output: "441"
    output: "442"
    output: "443"
    op_type: "Split"
    attribute {
      name: "axis"
      i: 1
    }
    attribute {
      name: "split"
      ints: 5
      ints: 5
      ints: 5
      ints: 5
    }
  }
  node {
    input: "440"
    output: "444"
    op_type: "Sigmoid"
  }
  node {
    input: "441"
    output: "445"
    op_type: "Sigmoid"
  }
  node {
    input: "442"
    output: "446"
    op_type: "Tanh"
  }
  node {
    input: "443"
    output: "447"
    op_type: "Sigmoid"
  }
  node {
    input: "445"
    input: "422"
    output: "448"
    op_type: "Mul"
  }
  node {
    input: "444"
    input: "446"
    output: "449"
    op_type: "Mul"
  }
  node {
    input: "448"
    input: "449"
    output: "450"
    op_type: "Add"
  }
  node {
    input: "450"
    output: "451"
    op_type: "Tanh"
  }
  node {
    input: "447"
    input: "451"
    output: "452"
    op_type: "Mul"
  }
  node {
    output: "453"
    op_type: "Constant"
    attribute {
      name: "value"
      t {
        dims: 1
        data_type: INT32
        raw_data: "\000\000\000\000"
      }
    }
  }
  node {
    output: "454"
    op_type: "Constant"
    attribute {
      name: "value"
      t {
        dims: 1
        data_type: INT64
        raw_data: "\003\000\000\000\000\000\000\000"
      }
    }
  }
  node {
    output: "455"
    op_type: "Constant"
    attribute {
      name: "value"
      t {
        dims: 1
        data_type: INT64
        raw_data: "\004\000\000\000\000\000\000\000"
      }
    }
  }
  node {
    input: "367"
    input: "453"
    input: "454"
    input: "455"
    output: "456"
    op_type: "Slice"
  }
  node {
    input: "456"
    output: "457"
    op_type: "Squeeze"
    attribute {
      name: "axes"
      ints: 0
    }
  }
  node {
    input: "9"
    output: "458"
    op_type: "Transpose"
    attribute {
      name: "perm"
      ints: 1
      ints: 0
    }
  }
  node {
    input: "11"
    output: "460"
    op_type: "expand"
    attribute {
      name: "size"
      ints: 5
      ints: 20
    }
  }
  node {
    input: "457"
    input: "458"
    input: "460"
    output: "461"
    op_type: "Gemm"
    attribute {
      name: "alpha"
      f: 1
    }
    attribute {
      name: "beta"
      f: 1
    }
  }
  node {
    input: "10"
    output: "462"
    op_type: "Transpose"
    attribute {
      name: "perm"
      ints: 1
      ints: 0
    }
  }
  node {
    input: "12"
    output: "464"
    op_type: "expand"
    attribute {
      name: "size"
      ints: 5
      ints: 20
    }
  }
  node {
    input: "452"
    input: "462"
    input: "464"
    output: "465"
    op_type: "Gemm"
    attribute {
      name: "alpha"
      f: 1
    }
    attribute {
      name: "beta"
      f: 1
    }
  }
  node {
    input: "461"
    input: "465"
    output: "466"
    op_type: "Add"
  }
  node {
    input: "466"
    output: "468"
    output: "469"
    output: "470"
    output: "471"
    op_type: "Split"
    attribute {
      name: "axis"
      i: 1
    }
    attribute {
      name: "split"
      ints: 5
      ints: 5
      ints: 5
      ints: 5
    }
  }
  node {
    input: "468"
    output: "472"
    op_type: "Sigmoid"
  }
  node {
    input: "469"
    output: "473"
    op_type: "Sigmoid"
  }
  node {
    input: "470"
    output: "474"
    op_type: "Tanh"
  }
  node {
    input: "471"
    output: "475"
    op_type: "Sigmoid"
  }
  node {
    input: "473"
    input: "450"
    output: "476"
    op_type: "Mul"
  }
  node {
    input: "472"
    input: "474"
    output: "477"
    op_type: "Mul"
  }
  node {
    input: "476"
    input: "477"
    output: "478"
    op_type: "Add"
  }
  node {
    input: "478"
    output: "479"
    op_type: "Tanh"
  }
  node {
    input: "475"
    input: "479"
    output: "480"
    op_type: "Mul"
  }
  node {
    output: "481"
    op_type: "Constant"
    attribute {
      name: "value"
      t {
        dims: 1
        data_type: INT32
        raw_data: "\000\000\000\000"
      }
    }
  }
  node {
    output: "482"
    op_type: "Constant"
    attribute {
      name: "value"
      t {
        dims: 1
        data_type: INT64
        raw_data: "\004\000\000\000\000\000\000\000"
      }
    }
  }
  node {
    output: "483"
    op_type: "Constant"
    attribute {
      name: "value"
      t {
        dims: 1
        data_type: INT64
        raw_data: "\005\000\000\000\000\000\000\000"
      }
    }
  }
  node {
    input: "367"
    input: "481"
    input: "482"
    input: "483"
    output: "484"
    op_type: "Slice"
  }
  node {
    input: "484"
    output: "485"
    op_type: "Squeeze"
    attribute {
      name: "axes"
      ints: 0
    }
  }
  node {
    input: "9"
    output: "486"
    op_type: "Transpose"
    attribute {
      name: "perm"
      ints: 1
      ints: 0
    }
  }
  node {
    input: "11"
    output: "488"
    op_type: "expand"
    attribute {
      name: "size"
      ints: 5
      ints: 20
    }
  }
  node {
    input: "485"
    input: "486"
    input: "488"
    output: "489"
    op_type: "Gemm"
    attribute {
      name: "alpha"
      f: 1
    }
    attribute {
      name: "beta"
      f: 1
    }
  }
  node {
    input: "10"
    output: "490"
    op_type: "Transpose"
    attribute {
      name: "perm"
      ints: 1
      ints: 0
    }
  }
  node {
    input: "12"
    output: "492"
    op_type: "expand"
    attribute {
      name: "size"
      ints: 5
      ints: 20
    }
  }
  node {
    input: "480"
    input: "490"
    input: "492"
    output: "493"
    op_type: "Gemm"
    attribute {
      name: "alpha"
      f: 1
    }
    attribute {
      name: "beta"
      f: 1
    }
  }
  node {
    input: "489"
    input: "493"
    output: "494"
    op_type: "Add"
  }
  node {
    input: "494"
    output: "496"
    output: "497"
    output: "498"
    output: "499"
    op_type: "Split"
    attribute {
      name: "axis"
      i: 1
    }
    attribute {
      name: "split"
      ints: 5
      ints: 5
      ints: 5
      ints: 5
    }
  }
  node {
    input: "496"
    output: "500"
    op_type: "Sigmoid"
  }
  node {
    input: "497"
    output: "501"
    op_type: "Sigmoid"
  }
  node {
    input: "498"
    output: "502"
    op_type: "Tanh"
  }
  node {
    input: "499"
    output: "503"
    op_type: "Sigmoid"
  }
  node {
    input: "501"
    input: "478"
    output: "504"
    op_type: "Mul"
  }
  node {
    input: "500"
    input: "502"
    output: "505"
    op_type: "Mul"
  }
  node {
    input: "504"
    input: "505"
    output: "506"
    op_type: "Add"
  }
  node {
    input: "506"
    output: "507"
    op_type: "Tanh"
  }
  node {
    input: "503"
    input: "507"
    output: "508"
    op_type: "Mul"
  }
  node {
    output: "509"
    op_type: "Constant"
    attribute {
      name: "value"
      t {
        dims: 1
        data_type: INT32
        raw_data: "\000\000\000\000"
      }
    }
  }
  node {
    output: "510"
    op_type: "Constant"
    attribute {
      name: "value"
      t {
        dims: 1
        data_type: INT64
        raw_data: "\005\000\000\000\000\000\000\000"
      }
    }
  }
  node {
    output: "511"
    op_type: "Constant"
    attribute {
      name: "value"
      t {
        dims: 1
        data_type: INT64
        raw_data: "\006\000\000\000\000\000\000\000"
      }
    }
  }
  node {
    input: "367"
    input: "509"
    input: "510"
    input: "511"
    output: "512"
    op_type: "Slice"
  }
  node {
    input: "512"
    output: "513"
    op_type: "Squeeze"
    attribute {
      name: "axes"
      ints: 0
    }
  }
  node {
    input: "9"
    output: "514"
    op_type: "Transpose"
    attribute {
      name: "perm"
      ints: 1
      ints: 0
    }
  }
  node {
    input: "11"
    output: "516"
    op_type: "expand"
    attribute {
      name: "size"
      ints: 5
      ints: 20
    }
  }
  node {
    input: "513"
    input: "514"
    input: "516"
    output: "517"
    op_type: "Gemm"
    attribute {
      name: "alpha"
      f: 1
    }
    attribute {
      name: "beta"
      f: 1
    }
  }
  node {
    input: "10"
    output: "518"
    op_type: "Transpose"
    attribute {
      name: "perm"
      ints: 1
      ints: 0
    }
  }
  node {
    input: "12"
    output: "520"
    op_type: "expand"
    attribute {
      name: "size"
      ints: 5
      ints: 20
    }
  }
  node {
    input: "508"
    input: "518"
    input: "520"
    output: "521"
    op_type: "Gemm"
    attribute {
      name: "alpha"
      f: 1
    }
    attribute {
      name: "beta"
      f: 1
    }
  }
  node {
    input: "517"
    input: "521"
    output: "522"
    op_type: "Add"
  }
  node {
    input: "522"
    output: "524"
    output: "525"
    output: "526"
    output: "527"
    op_type: "Split"
    attribute {
      name: "axis"
      i: 1
    }
    attribute {
      name: "split"
      ints: 5
      ints: 5
      ints: 5
      ints: 5
    }
  }
  node {
    input: "524"
    output: "528"
    op_type: "Sigmoid"
  }
  node {
    input: "525"
    output: "529"
    op_type: "Sigmoid"
  }
  node {
    input: "526"
    output: "530"
    op_type: "Tanh"
  }
  node {
    input: "527"
    output: "531"
    op_type: "Sigmoid"
  }
  node {
    input: "529"
    input: "506"
    output: "532"
    op_type: "Mul"
  }
  node {
    input: "528"
    input: "530"
    output: "533"
    op_type: "Mul"
  }
  node {
    input: "532"
    input: "533"
    output: "534"
    op_type: "Add"
  }
  node {
    input: "534"
    output: "535"
    op_type: "Tanh"
  }
  node {
    input: "531"
    input: "535"
    output: "536"
    op_type: "Mul"
  }
  node {
    output: "537"
    op_type: "Constant"
    attribute {
      name: "value"
      t {
        dims: 1
        data_type: INT32
        raw_data: "\000\000\000\000"
      }
    }
  }
  node {
    output: "538"
    op_type: "Constant"
    attribute {
      name: "value"
      t {
        dims: 1
        data_type: INT64
        raw_data: "\006\000\000\000\000\000\000\000"
      }
    }
  }
  node {
    output: "539"
    op_type: "Constant"
    attribute {
      name: "value"
      t {
        dims: 1
        data_type: INT64
        raw_data: "\007\000\000\000\000\000\000\000"
      }
    }
  }
  node {
    input: "367"
    input: "537"
    input: "538"
    input: "539"
    output: "540"
    op_type: "Slice"
  }
  node {
    input: "540"
    output: "541"
    op_type: "Squeeze"
    attribute {
      name: "axes"
      ints: 0
    }
  }
  node {
    input: "9"
    output: "542"
    op_type: "Transpose"
    attribute {
      name: "perm"
      ints: 1
      ints: 0
    }
  }
  node {
    input: "11"
    output: "544"
    op_type: "expand"
    attribute {
      name: "size"
      ints: 5
      ints: 20
    }
  }
  node {
    input: "541"
    input: "542"
    input: "544"
    output: "545"
    op_type: "Gemm"
    attribute {
      name: "alpha"
      f: 1
    }
    attribute {
      name: "beta"
      f: 1
    }
  }
  node {
    input: "10"
    output: "546"
    op_type: "Transpose"
    attribute {
      name: "perm"
      ints: 1
      ints: 0
    }
  }
  node {
    input: "12"
    output: "548"
    op_type: "expand"
    attribute {
      name: "size"
      ints: 5
      ints: 20
    }
  }
  node {
    input: "536"
    input: "546"
    input: "548"
    output: "549"
    op_type: "Gemm"
    attribute {
      name: "alpha"
      f: 1
    }
    attribute {
      name: "beta"
      f: 1
    }
  }
  node {
    input: "545"
    input: "549"
    output: "550"
    op_type: "Add"
  }
  node {
    input: "550"
    output: "552"
    output: "553"
    output: "554"
    output: "555"
    op_type: "Split"
    attribute {
      name: "axis"
      i: 1
    }
    attribute {
      name: "split"
      ints: 5
      ints: 5
      ints: 5
      ints: 5
    }
  }
  node {
    input: "552"
    output: "556"
    op_type: "Sigmoid"
  }
  node {
    input: "553"
    output: "557"
    op_type: "Sigmoid"
  }
  node {
    input: "554"
    output: "558"
    op_type: "Tanh"
  }
  node {
    input: "555"
    output: "559"
    op_type: "Sigmoid"
  }
  node {
    input: "557"
    input: "534"
    output: "560"
    op_type: "Mul"
  }
  node {
    input: "556"
    input: "558"
    output: "561"
    op_type: "Mul"
  }
  node {
    input: "560"
    input: "561"
    output: "562"
    op_type: "Add"
  }
  node {
    input: "562"
    output: "563"
    op_type: "Tanh"
  }
  node {
    input: "559"
    input: "563"
    output: "564"
    op_type: "Mul"
  }
  node {
    output: "565"
    op_type: "Constant"
    attribute {
      name: "value"
      t {
        dims: 1
        data_type: INT32
        raw_data: "\000\000\000\000"
      }
    }
  }
  node {
    output: "566"
    op_type: "Constant"
    attribute {
      name: "value"
      t {
        dims: 1
        data_type: INT64
        raw_data: "\007\000\000\000\000\000\000\000"
      }
    }
  }
  node {
    output: "567"
    op_type: "Constant"
    attribute {
      name: "value"
      t {
        dims: 1
        data_type: INT64
        raw_data: "\010\000\000\000\000\000\000\000"
      }
    }
  }
  node {
    input: "367"
    input: "565"
    input: "566"
    input: "567"
    output: "568"
    op_type: "Slice"
  }
  node {
    input: "568"
    output: "569"
    op_type: "Squeeze"
    attribute {
      name: "axes"
      ints: 0
    }
  }
  node {
    input: "9"
    output: "570"
    op_type: "Transpose"
    attribute {
      name: "perm"
      ints: 1
      ints: 0
    }
  }
  node {
    input: "11"
    output: "572"
    op_type: "expand"
    attribute {
      name: "size"
      ints: 5
      ints: 20
    }
  }
  node {
    input: "569"
    input: "570"
    input: "572"
    output: "573"
    op_type: "Gemm"
    attribute {
      name: "alpha"
      f: 1
    }
    attribute {
      name: "beta"
      f: 1
    }
  }
  node {
    input: "10"
    output: "574"
    op_type: "Transpose"
    attribute {
      name: "perm"
      ints: 1
      ints: 0
    }
  }
  node {
    input: "12"
    output: "576"
    op_type: "expand"
    attribute {
      name: "size"
      ints: 5
      ints: 20
    }
  }
  node {
    input: "564"
    input: "574"
    input: "576"
    output: "577"
    op_type: "Gemm"
    attribute {
      name: "alpha"
      f: 1
    }
    attribute {
      name: "beta"
      f: 1
    }
  }
  node {
    input: "573"
    input: "577"
    output: "578"
    op_type: "Add"
  }
  node {
    input: "578"
    output: "580"
    output: "581"
    output: "582"
    output: "583"
    op_type: "Split"
    attribute {
      name: "axis"
      i: 1
    }
    attribute {
      name: "split"
      ints: 5
      ints: 5
      ints: 5
      ints: 5
    }
  }
  node {
    input: "580"
    output: "584"
    op_type: "Sigmoid"
  }
  node {
    input: "581"
    output: "585"
    op_type: "Sigmoid"
  }
  node {
    input: "582"
    output: "586"
    op_type: "Tanh"
  }
  node {
    input: "583"
    output: "587"
    op_type: "Sigmoid"
  }
  node {
    input: "585"
    input: "562"
    output: "588"
    op_type: "Mul"
  }
  node {
    input: "584"
    input: "586"
    output: "589"
    op_type: "Mul"
  }
  node {
    input: "588"
    input: "589"
    output: "590"
    op_type: "Add"
  }
  node {
    input: "590"
    output: "591"
    op_type: "Tanh"
  }
  node {
    input: "587"
    input: "591"
    output: "592"
    op_type: "Mul"
  }
  node {
    output: "593"
    op_type: "Constant"
    attribute {
      name: "value"
      t {
        dims: 1
        data_type: INT32
        raw_data: "\000\000\000\000"
      }
    }
  }
  node {
    output: "594"
    op_type: "Constant"
    attribute {
      name: "value"
      t {
        dims: 1
        data_type: INT64
        raw_data: "\010\000\000\000\000\000\000\000"
      }
    }
  }
  node {
    output: "595"
    op_type: "Constant"
    attribute {
      name: "value"
      t {
        dims: 1
        data_type: INT64
        raw_data: "\t\000\000\000\000\000\000\000"
      }
    }
  }
  node {
    input: "367"
    input: "593"
    input: "594"
    input: "595"
    output: "596"
    op_type: "Slice"
  }
  node {
    input: "596"
    output: "597"
    op_type: "Squeeze"
    attribute {
      name: "axes"
      ints: 0
    }
  }
  node {
    input: "9"
    output: "598"
    op_type: "Transpose"
    attribute {
      name: "perm"
      ints: 1
      ints: 0
    }
  }
  node {
    input: "11"
    output: "600"
    op_type: "expand"
    attribute {
      name: "size"
      ints: 5
      ints: 20
    }
  }
  node {
    input: "597"
    input: "598"
    input: "600"
    output: "601"
    op_type: "Gemm"
    attribute {
      name: "alpha"
      f: 1
    }
    attribute {
      name: "beta"
      f: 1
    }
  }
  node {
    input: "10"
    output: "602"
    op_type: "Transpose"
    attribute {
      name: "perm"
      ints: 1
      ints: 0
    }
  }
  node {
    input: "12"
    output: "604"
    op_type: "expand"
    attribute {
      name: "size"
      ints: 5
      ints: 20
    }
  }
  node {
    input: "592"
    input: "602"
    input: "604"
    output: "605"
    op_type: "Gemm"
    attribute {
      name: "alpha"
      f: 1
    }
    attribute {
      name: "beta"
      f: 1
    }
  }
  node {
    input: "601"
    input: "605"
    output: "606"
    op_type: "Add"
  }
  node {
    input: "606"
    output: "608"
    output: "609"
    output: "610"
    output: "611"
    op_type: "Split"
    attribute {
      name: "axis"
      i: 1
    }
    attribute {
      name: "split"
      ints: 5
      ints: 5
      ints: 5
      ints: 5
    }
  }
  node {
    input: "608"
    output: "612"
    op_type: "Sigmoid"
  }
  node {
    input: "609"
    output: "613"
    op_type: "Sigmoid"
  }
  node {
    input: "610"
    output: "614"
    op_type: "Tanh"
  }
  node {
    input: "611"
    output: "615"
    op_type: "Sigmoid"
  }
  node {
    input: "613"
    input: "590"
    output: "616"
    op_type: "Mul"
  }
  node {
    input: "612"
    input: "614"
    output: "617"
    op_type: "Mul"
  }
  node {
    input: "616"
    input: "617"
    output: "618"
    op_type: "Add"
  }
  node {
    input: "618"
    output: "619"
    op_type: "Tanh"
  }
  node {
    input: "615"
    input: "619"
    output: "620"
    op_type: "Mul"
  }
  node {
    output: "621"
    op_type: "Constant"
    attribute {
      name: "value"
      t {
        dims: 1
        data_type: INT32
        raw_data: "\000\000\000\000"
      }
    }
  }
  node {
    output: "622"
    op_type: "Constant"
    attribute {
      name: "value"
      t {
        dims: 1
        data_type: INT64
        raw_data: "\t\000\000\000\000\000\000\000"
      }
    }
  }
  node {
    output: "623"
    op_type: "Constant"
    attribute {
      name: "value"
      t {
        dims: 1
        data_type: INT64
        raw_data: "\n\000\000\000\000\000\000\000"
      }
    }
  }
  node {
    input: "367"
    input: "621"
    input: "622"
    input: "623"
    output: "624"
    op_type: "Slice"
  }
  node {
    input: "624"
    output: "625"
    op_type: "Squeeze"
    attribute {
      name: "axes"
      ints: 0
    }
  }
  node {
    input: "9"
    output: "626"
    op_type: "Transpose"
    attribute {
      name: "perm"
      ints: 1
      ints: 0
    }
  }
  node {
    input: "11"
    output: "628"
    op_type: "expand"
    attribute {
      name: "size"
      ints: 5
      ints: 20
    }
  }
  node {
    input: "625"
    input: "626"
    input: "628"
    output: "629"
    op_type: "Gemm"
    attribute {
      name: "alpha"
      f: 1
    }
    attribute {
      name: "beta"
      f: 1
    }
  }
  node {
    input: "10"
    output: "630"
    op_type: "Transpose"
    attribute {
      name: "perm"
      ints: 1
      ints: 0
    }
  }
  node {
    input: "12"
    output: "632"
    op_type: "expand"
    attribute {
      name: "size"
      ints: 5
      ints: 20
    }
  }
  node {
    input: "620"
    input: "630"
    input: "632"
    output: "633"
    op_type: "Gemm"
    attribute {
      name: "alpha"
      f: 1
    }
    attribute {
      name: "beta"
      f: 1
    }
  }
  node {
    input: "629"
    input: "633"
    output: "634"
    op_type: "Add"
  }
  node {
    input: "634"
    output: "636"
    output: "637"
    output: "638"
    output: "639"
    op_type: "Split"
    attribute {
      name: "axis"
      i: 1
    }
    attribute {
      name: "split"
      ints: 5
      ints: 5
      ints: 5
      ints: 5
    }
  }
  node {
    input: "636"
    output: "640"
    op_type: "Sigmoid"
  }
  node {
    input: "637"
    output: "641"
    op_type: "Sigmoid"
  }
  node {
    input: "638"
    output: "642"
    op_type: "Tanh"
  }
  node {
    input: "639"
    output: "643"
    op_type: "Sigmoid"
  }
  node {
    input: "641"
    input: "618"
    output: "644"
    op_type: "Mul"
  }
  node {
    input: "640"
    input: "642"
    output: "645"
    op_type: "Mul"
  }
  node {
    input: "644"
    input: "645"
    output: "646"
    op_type: "Add"
  }
  node {
    input: "646"
    output: "647"
    op_type: "Tanh"
  }
  node {
    input: "643"
    input: "647"
    output: "648"
    op_type: "Mul"
  }
  node {
    input: "396"
    input: "424"
    input: "452"
    input: "480"
    input: "508"
    input: "536"
    input: "564"
    input: "592"
    input: "620"
    input: "648"
    output: "650"
    op_type: "cat"
    attribute {
      name: "dim"
      i: 0
    }
  }
  node {
    input: "650"
    output: "651"
    op_type: "Reshape"
    attribute {
      name: "shape"
      ints: 10
      ints: 5
      ints: 5
    }
  }
  node {
    input: "651"
    output: "653"
    op_type: "cat"
    attribute {
      name: "dim"
      i: 2
    }
  }
  node {
    input: "653"
    output: "655"
    output: "656"
    op_type: "Dropout"
    attribute {
      name: "ratio"
      f: 0.200000002980232
    }
    attribute {
      name: "is_test"
      i: 1
    }
  }
  node {
    output: "657"
    op_type: "Constant"
    attribute {
      name: "value"
      t {
        dims: 1
        data_type: INT32
        raw_data: "\000\000\000\000"
      }
    }
  }
  node {
    output: "658"
    op_type: "Constant"
    attribute {
      name: "value"
      t {
        dims: 1
        data_type: INT64
        raw_data: "\000\000\000\000\000\000\000\000"
      }
    }
  }
  node {
    output: "659"
    op_type: "Constant"
    attribute {
      name: "value"
      t {
        dims: 1
        data_type: INT64
        raw_data: "\001\000\000\000\000\000\000\000"
      }
    }
  }
  node {
    input: "655"
    input: "657"
    input: "658"
    input: "659"
    output: "660"
    op_type: "Slice"
  }
  node {
    input: "660"
    output: "661"
    op_type: "Squeeze"
    attribute {
      name: "axes"
      ints: 0
    }
  }
  node {
    input: "13"
    output: "662"
    op_type: "Transpose"
    attribute {
      name: "perm"
      ints: 1
      ints: 0
    }
  }
  node {
    input: "15"
    output: "664"
    op_type: "expand"
    attribute {
      name: "size"
      ints: 5
      ints: 20
    }
  }
  node {
    input: "661"
    input: "662"
    input: "664"
    output: "665"
    op_type: "Gemm"
    attribute {
      name: "alpha"
      f: 1
    }
    attribute {
      name: "beta"
      f: 1
    }
  }
  node {
    input: "14"
    output: "666"
    op_type: "Transpose"
    attribute {
      name: "perm"
      ints: 1
      ints: 0
    }
  }
  node {
    input: "16"
    output: "668"
    op_type: "expand"
    attribute {
      name: "size"
      ints: 5
      ints: 20
    }
  }
  node {
    input: "55"
    input: "666"
    input: "668"
    output: "669"
    op_type: "Gemm"
    attribute {
      name: "alpha"
      f: 1
    }
    attribute {
      name: "beta"
      f: 1
    }
  }
  node {
    input: "665"
    input: "669"
    output: "670"
    op_type: "Add"
  }
  node {
    input: "670"
    output: "672"
    output: "673"
    output: "674"
    output: "675"
    op_type: "Split"
    attribute {
      name: "axis"
      i: 1
    }
    attribute {
      name: "split"
      ints: 5
      ints: 5
      ints: 5
      ints: 5
    }
  }
  node {
    input: "672"
    output: "676"
    op_type: "Sigmoid"
  }
  node {
    input: "673"
    output: "677"
    op_type: "Sigmoid"
  }
  node {
    input: "674"
    output: "678"
    op_type: "Tanh"
  }
  node {
    input: "675"
    output: "679"
    op_type: "Sigmoid"
  }
  node {
    input: "677"
    input: "60"
    output: "680"
    op_type: "Mul"
  }
  node {
    input: "676"
    input: "678"
    output: "681"
    op_type: "Mul"
  }
  node {
    input: "680"
    input: "681"
    output: "682"
    op_type: "Add"
  }
  node {
    input: "682"
    output: "683"
    op_type: "Tanh"
  }
  node {
    input: "679"
    input: "683"
    output: "684"
    op_type: "Mul"
  }
  node {
    output: "685"
    op_type: "Constant"
    attribute {
      name: "value"
      t {
        dims: 1
        data_type: INT32
        raw_data: "\000\000\000\000"
      }
    }
  }
  node {
    output: "686"
    op_type: "Constant"
    attribute {
      name: "value"
      t {
        dims: 1
        data_type: INT64
        raw_data: "\001\000\000\000\000\000\000\000"
      }
    }
  }
  node {
    output: "687"
    op_type: "Constant"
    attribute {
      name: "value"
      t {
        dims: 1
        data_type: INT64
        raw_data: "\002\000\000\000\000\000\000\000"
      }
    }
  }
  node {
    input: "655"
    input: "685"
    input: "686"
    input: "687"
    output: "688"
    op_type: "Slice"
  }
  node {
    input: "688"
    output: "689"
    op_type: "Squeeze"
    attribute {
      name: "axes"
      ints: 0
    }
  }
  node {
    input: "13"
    output: "690"
    op_type: "Transpose"
    attribute {
      name: "perm"
      ints: 1
      ints: 0
    }
  }
  node {
    input: "15"
    output: "692"
    op_type: "expand"
    attribute {
      name: "size"
      ints: 5
      ints: 20
    }
  }
  node {
    input: "689"
    input: "690"
    input: "692"
    output: "693"
    op_type: "Gemm"
    attribute {
      name: "alpha"
      f: 1
    }
    attribute {
      name: "beta"
      f: 1
    }
  }
  node {
    input: "14"
    output: "694"
    op_type: "Transpose"
    attribute {
      name: "perm"
      ints: 1
      ints: 0
    }
  }
  node {
    input: "16"
    output: "696"
    op_type: "expand"
    attribute {
      name: "size"
      ints: 5
      ints: 20
    }
  }
  node {
    input: "684"
    input: "694"
    input: "696"
    output: "697"
    op_type: "Gemm"
    attribute {
      name: "alpha"
      f: 1
    }
    attribute {
      name: "beta"
      f: 1
    }
  }
  node {
    input: "693"
    input: "697"
    output: "698"
    op_type: "Add"
  }
  node {
    input: "698"
    output: "700"
    output: "701"
    output: "702"
    output: "703"
    op_type: "Split"
    attribute {
      name: "axis"
      i: 1
    }
    attribute {
      name: "split"
      ints: 5
      ints: 5
      ints: 5
      ints: 5
    }
  }
  node {
    input: "700"
    output: "704"
    op_type: "Sigmoid"
  }
  node {
    input: "701"
    output: "705"
    op_type: "Sigmoid"
  }
  node {
    input: "702"
    output: "706"
    op_type: "Tanh"
  }
  node {
    input: "703"
    output: "707"
    op_type: "Sigmoid"
  }
  node {
    input: "705"
    input: "682"
    output: "708"
    op_type: "Mul"
  }
  node {
    input: "704"
    input: "706"
    output: "709"
    op_type: "Mul"
  }
  node {
    input: "708"
    input: "709"
    output: "710"
    op_type: "Add"
  }
  node {
    input: "710"
    output: "711"
    op_type: "Tanh"
  }
  node {
    input: "707"
    input: "711"
    output: "712"
    op_type: "Mul"
  }
  node {
    output: "713"
    op_type: "Constant"
    attribute {
      name: "value"
      t {
        dims: 1
        data_type: INT32
        raw_data: "\000\000\000\000"
      }
    }
  }
  node {
    output: "714"
    op_type: "Constant"
    attribute {
      name: "value"
      t {
        dims: 1
        data_type: INT64
        raw_data: "\002\000\000\000\000\000\000\000"
      }
    }
  }
  node {
    output: "715"
    op_type: "Constant"
    attribute {
      name: "value"
      t {
        dims: 1
        data_type: INT64
        raw_data: "\003\000\000\000\000\000\000\000"
      }
    }
  }
  node {
    input: "655"
    input: "713"
    input: "714"
    input: "715"
    output: "716"
    op_type: "Slice"
  }
  node {
    input: "716"
    output: "717"
    op_type: "Squeeze"
    attribute {
      name: "axes"
      ints: 0
    }
  }
  node {
    input: "13"
    output: "718"
    op_type: "Transpose"
    attribute {
      name: "perm"
      ints: 1
      ints: 0
    }
  }
  node {
    input: "15"
    output: "720"
    op_type: "expand"
    attribute {
      name: "size"
      ints: 5
      ints: 20
    }
  }
  node {
    input: "717"
    input: "718"
    input: "720"
    output: "721"
    op_type: "Gemm"
    attribute {
      name: "alpha"
      f: 1
    }
    attribute {
      name: "beta"
      f: 1
    }
  }
  node {
    input: "14"
    output: "722"
    op_type: "Transpose"
    attribute {
      name: "perm"
      ints: 1
      ints: 0
    }
  }
  node {
    input: "16"
    output: "724"
    op_type: "expand"
    attribute {
      name: "size"
      ints: 5
      ints: 20
    }
  }
  node {
    input: "712"
    input: "722"
    input: "724"
    output: "725"
    op_type: "Gemm"
    attribute {
      name: "alpha"
      f: 1
    }
    attribute {
      name: "beta"
      f: 1
    }
  }
  node {
    input: "721"
    input: "725"
    output: "726"
    op_type: "Add"
  }
  node {
    input: "726"
    output: "728"
    output: "729"
    output: "730"
    output: "731"
    op_type: "Split"
    attribute {
      name: "axis"
      i: 1
    }
    attribute {
      name: "split"
      ints: 5
      ints: 5
      ints: 5
      ints: 5
    }
  }
  node {
    input: "728"
    output: "732"
    op_type: "Sigmoid"
  }
  node {
    input: "729"
    output: "733"
    op_type: "Sigmoid"
  }
  node {
    input: "730"
    output: "734"
    op_type: "Tanh"
  }
  node {
    input: "731"
    output: "735"
    op_type: "Sigmoid"
  }
  node {
    input: "733"
    input: "710"
    output: "736"
    op_type: "Mul"
  }
  node {
    input: "732"
    input: "734"
    output: "737"
    op_type: "Mul"
  }
  node {
    input: "736"
    input: "737"
    output: "738"
    op_type: "Add"
  }
  node {
    input: "738"
    output: "739"
    op_type: "Tanh"
  }
  node {
    input: "735"
    input: "739"
    output: "740"
    op_type: "Mul"
  }
  node {
    output: "741"
    op_type: "Constant"
    attribute {
      name: "value"
      t {
        dims: 1
        data_type: INT32
        raw_data: "\000\000\000\000"
      }
    }
  }
  node {
    output: "742"
    op_type: "Constant"
    attribute {
      name: "value"
      t {
        dims: 1
        data_type: INT64
        raw_data: "\003\000\000\000\000\000\000\000"
      }
    }
  }
  node {
    output: "743"
    op_type: "Constant"
    attribute {
      name: "value"
      t {
        dims: 1
        data_type: INT64
        raw_data: "\004\000\000\000\000\000\000\000"
      }
    }
  }
  node {
    input: "655"
    input: "741"
    input: "742"
    input: "743"
    output: "744"
    op_type: "Slice"
  }
  node {
    input: "744"
    output: "745"
    op_type: "Squeeze"
    attribute {
      name: "axes"
      ints: 0
    }
  }
  node {
    input: "13"
    output: "746"
    op_type: "Transpose"
    attribute {
      name: "perm"
      ints: 1
      ints: 0
    }
  }
  node {
    input: "15"
    output: "748"
    op_type: "expand"
    attribute {
      name: "size"
      ints: 5
      ints: 20
    }
  }
  node {
    input: "745"
    input: "746"
    input: "748"
    output: "749"
    op_type: "Gemm"
    attribute {
      name: "alpha"
      f: 1
    }
    attribute {
      name: "beta"
      f: 1
    }
  }
  node {
    input: "14"
    output: "750"
    op_type: "Transpose"
    attribute {
      name: "perm"
      ints: 1
      ints: 0
    }
  }
  node {
    input: "16"
    output: "752"
    op_type: "expand"
    attribute {
      name: "size"
      ints: 5
      ints: 20
    }
  }
  node {
    input: "740"
    input: "750"
    input: "752"
    output: "753"
    op_type: "Gemm"
    attribute {
      name: "alpha"
      f: 1
    }
    attribute {
      name: "beta"
      f: 1
    }
  }
  node {
    input: "749"
    input: "753"
    output: "754"
    op_type: "Add"
  }
  node {
    input: "754"
    output: "756"
    output: "757"
    output: "758"
    output: "759"
    op_type: "Split"
    attribute {
      name: "axis"
      i: 1
    }
    attribute {
      name: "split"
      ints: 5
      ints: 5
      ints: 5
      ints: 5
    }
  }
  node {
    input: "756"
    output: "760"
    op_type: "Sigmoid"
  }
  node {
    input: "757"
    output: "761"
    op_type: "Sigmoid"
  }
  node {
    input: "758"
    output: "762"
    op_type: "Tanh"
  }
  node {
    input: "759"
    output: "763"
    op_type: "Sigmoid"
  }
  node {
    input: "761"
    input: "738"
    output: "764"
    op_type: "Mul"
  }
  node {
    input: "760"
    input: "762"
    output: "765"
    op_type: "Mul"
  }
  node {
    input: "764"
    input: "765"
    output: "766"
    op_type: "Add"
  }
  node {
    input: "766"
    output: "767"
    op_type: "Tanh"
  }
  node {
    input: "763"
    input: "767"
    output: "768"
    op_type: "Mul"
  }
  node {
    output: "769"
    op_type: "Constant"
    attribute {
      name: "value"
      t {
        dims: 1
        data_type: INT32
        raw_data: "\000\000\000\000"
      }
    }
  }
  node {
    output: "770"
    op_type: "Constant"
    attribute {
      name: "value"
      t {
        dims: 1
        data_type: INT64
        raw_data: "\004\000\000\000\000\000\000\000"
      }
    }
  }
  node {
    output: "771"
    op_type: "Constant"
    attribute {
      name: "value"
      t {
        dims: 1
        data_type: INT64
        raw_data: "\005\000\000\000\000\000\000\000"
      }
    }
  }
  node {
    input: "655"
    input: "769"
    input: "770"
    input: "771"
    output: "772"
    op_type: "Slice"
  }
  node {
    input: "772"
    output: "773"
    op_type: "Squeeze"
    attribute {
      name: "axes"
      ints: 0
    }
  }
  node {
    input: "13"
    output: "774"
    op_type: "Transpose"
    attribute {
      name: "perm"
      ints: 1
      ints: 0
    }
  }
  node {
    input: "15"
    output: "776"
    op_type: "expand"
    attribute {
      name: "size"
      ints: 5
      ints: 20
    }
  }
  node {
    input: "773"
    input: "774"
    input: "776"
    output: "777"
    op_type: "Gemm"
    attribute {
      name: "alpha"
      f: 1
    }
    attribute {
      name: "beta"
      f: 1
    }
  }
  node {
    input: "14"
    output: "778"
    op_type: "Transpose"
    attribute {
      name: "perm"
      ints: 1
      ints: 0
    }
  }
  node {
    input: "16"
    output: "780"
    op_type: "expand"
    attribute {
      name: "size"
      ints: 5
      ints: 20
    }
  }
  node {
    input: "768"
    input: "778"
    input: "780"
    output: "781"
    op_type: "Gemm"
    attribute {
      name: "alpha"
      f: 1
    }
    attribute {
      name: "beta"
      f: 1
    }
  }
  node {
    input: "777"
    input: "781"
    output: "782"
    op_type: "Add"
  }
  node {
    input: "782"
    output: "784"
    output: "785"
    output: "786"
    output: "787"
    op_type: "Split"
    attribute {
      name: "axis"
      i: 1
    }
    attribute {
      name: "split"
      ints: 5
      ints: 5
      ints: 5
      ints: 5
    }
  }
  node {
    input: "784"
    output: "788"
    op_type: "Sigmoid"
  }
  node {
    input: "785"
    output: "789"
    op_type: "Sigmoid"
  }
  node {
    input: "786"
    output: "790"
    op_type: "Tanh"
  }
  node {
    input: "787"
    output: "791"
    op_type: "Sigmoid"
  }
  node {
    input: "789"
    input: "766"
    output: "792"
    op_type: "Mul"
  }
  node {
    input: "788"
    input: "790"
    output: "793"
    op_type: "Mul"
  }
  node {
    input: "792"
    input: "793"
    output: "794"
    op_type: "Add"
  }
  node {
    input: "794"
    output: "795"
    op_type: "Tanh"
  }
  node {
    input: "791"
    input: "795"
    output: "796"
    op_type: "Mul"
  }
  node {
    output: "797"
    op_type: "Constant"
    attribute {
      name: "value"
      t {
        dims: 1
        data_type: INT32
        raw_data: "\000\000\000\000"
      }
    }
  }
  node {
    output: "798"
    op_type: "Constant"
    attribute {
      name: "value"
      t {
        dims: 1
        data_type: INT64
        raw_data: "\005\000\000\000\000\000\000\000"
      }
    }
  }
  node {
    output: "799"
    op_type: "Constant"
    attribute {
      name: "value"
      t {
        dims: 1
        data_type: INT64
        raw_data: "\006\000\000\000\000\000\000\000"
      }
    }
  }
  node {
    input: "655"
    input: "797"
    input: "798"
    input: "799"
    output: "800"
    op_type: "Slice"
  }
  node {
    input: "800"
    output: "801"
    op_type: "Squeeze"
    attribute {
      name: "axes"
      ints: 0
    }
  }
  node {
    input: "13"
    output: "802"
    op_type: "Transpose"
    attribute {
      name: "perm"
      ints: 1
      ints: 0
    }
  }
  node {
    input: "15"
    output: "804"
    op_type: "expand"
    attribute {
      name: "size"
      ints: 5
      ints: 20
    }
  }
  node {
    input: "801"
    input: "802"
    input: "804"
    output: "805"
    op_type: "Gemm"
    attribute {
      name: "alpha"
      f: 1
    }
    attribute {
      name: "beta"
      f: 1
    }
  }
  node {
    input: "14"
    output: "806"
    op_type: "Transpose"
    attribute {
      name: "perm"
      ints: 1
      ints: 0
    }
  }
  node {
    input: "16"
    output: "808"
    op_type: "expand"
    attribute {
      name: "size"
      ints: 5
      ints: 20
    }
  }
  node {
    input: "796"
    input: "806"
    input: "808"
    output: "809"
    op_type: "Gemm"
    attribute {
      name: "alpha"
      f: 1
    }
    attribute {
      name: "beta"
      f: 1
    }
  }
  node {
    input: "805"
    input: "809"
    output: "810"
    op_type: "Add"
  }
  node {
    input: "810"
    output: "812"
    output: "813"
    output: "814"
    output: "815"
    op_type: "Split"
    attribute {
      name: "axis"
      i: 1
    }
    attribute {
      name: "split"
      ints: 5
      ints: 5
      ints: 5
      ints: 5
    }
  }
  node {
    input: "812"
    output: "816"
    op_type: "Sigmoid"
  }
  node {
    input: "813"
    output: "817"
    op_type: "Sigmoid"
  }
  node {
    input: "814"
    output: "818"
    op_type: "Tanh"
  }
  node {
    input: "815"
    output: "819"
    op_type: "Sigmoid"
  }
  node {
    input: "817"
    input: "794"
    output: "820"
    op_type: "Mul"
  }
  node {
    input: "816"
    input: "818"
    output: "821"
    op_type: "Mul"
  }
  node {
    input: "820"
    input: "821"
    output: "822"
    op_type: "Add"
  }
  node {
    input: "822"
    output: "823"
    op_type: "Tanh"
  }
  node {
    input: "819"
    input: "823"
    output: "824"
    op_type: "Mul"
  }
  node {
    output: "825"
    op_type: "Constant"
    attribute {
      name: "value"
      t {
        dims: 1
        data_type: INT32
        raw_data: "\000\000\000\000"
      }
    }
  }
  node {
    output: "826"
    op_type: "Constant"
    attribute {
      name: "value"
      t {
        dims: 1
        data_type: INT64
        raw_data: "\006\000\000\000\000\000\000\000"
      }
    }
  }
  node {
    output: "827"
    op_type: "Constant"
    attribute {
      name: "value"
      t {
        dims: 1
        data_type: INT64
        raw_data: "\007\000\000\000\000\000\000\000"
      }
    }
  }
  node {
    input: "655"
    input: "825"
    input: "826"
    input: "827"
    output: "828"
    op_type: "Slice"
  }
  node {
    input: "828"
    output: "829"
    op_type: "Squeeze"
    attribute {
      name: "axes"
      ints: 0
    }
  }
  node {
    input: "13"
    output: "830"
    op_type: "Transpose"
    attribute {
      name: "perm"
      ints: 1
      ints: 0
    }
  }
  node {
    input: "15"
    output: "832"
    op_type: "expand"
    attribute {
      name: "size"
      ints: 5
      ints: 20
    }
  }
  node {
    input: "829"
    input: "830"
    input: "832"
    output: "833"
    op_type: "Gemm"
    attribute {
      name: "alpha"
      f: 1
    }
    attribute {
      name: "beta"
      f: 1
    }
  }
  node {
    input: "14"
    output: "834"
    op_type: "Transpose"
    attribute {
      name: "perm"
      ints: 1
      ints: 0
    }
  }
  node {
    input: "16"
    output: "836"
    op_type: "expand"
    attribute {
      name: "size"
      ints: 5
      ints: 20
    }
  }
  node {
    input: "824"
    input: "834"
    input: "836"
    output: "837"
    op_type: "Gemm"
    attribute {
      name: "alpha"
      f: 1
    }
    attribute {
      name: "beta"
      f: 1
    }
  }
  node {
    input: "833"
    input: "837"
    output: "838"
    op_type: "Add"
  }
  node {
    input: "838"
    output: "840"
    output: "841"
    output: "842"
    output: "843"
    op_type: "Split"
    attribute {
      name: "axis"
      i: 1
    }
    attribute {
      name: "split"
      ints: 5
      ints: 5
      ints: 5
      ints: 5
    }
  }
  node {
    input: "840"
    output: "844"
    op_type: "Sigmoid"
  }
  node {
    input: "841"
    output: "845"
    op_type: "Sigmoid"
  }
  node {
    input: "842"
    output: "846"
    op_type: "Tanh"
  }
  node {
    input: "843"
    output: "847"
    op_type: "Sigmoid"
  }
  node {
    input: "845"
    input: "822"
    output: "848"
    op_type: "Mul"
  }
  node {
    input: "844"
    input: "846"
    output: "849"
    op_type: "Mul"
  }
  node {
    input: "848"
    input: "849"
    output: "850"
    op_type: "Add"
  }
  node {
    input: "850"
    output: "851"
    op_type: "Tanh"
  }
  node {
    input: "847"
    input: "851"
    output: "852"
    op_type: "Mul"
  }
  node {
    output: "853"
    op_type: "Constant"
    attribute {
      name: "value"
      t {
        dims: 1
        data_type: INT32
        raw_data: "\000\000\000\000"
      }
    }
  }
  node {
    output: "854"
    op_type: "Constant"
    attribute {
      name: "value"
      t {
        dims: 1
        data_type: INT64
        raw_data: "\007\000\000\000\000\000\000\000"
      }
    }
  }
  node {
    output: "855"
    op_type: "Constant"
    attribute {
      name: "value"
      t {
        dims: 1
        data_type: INT64
        raw_data: "\010\000\000\000\000\000\000\000"
      }
    }
  }
  node {
    input: "655"
    input: "853"
    input: "854"
    input: "855"
    output: "856"
    op_type: "Slice"
  }
  node {
    input: "856"
    output: "857"
    op_type: "Squeeze"
    attribute {
      name: "axes"
      ints: 0
    }
  }
  node {
    input: "13"
    output: "858"
    op_type: "Transpose"
    attribute {
      name: "perm"
      ints: 1
      ints: 0
    }
  }
  node {
    input: "15"
    output: "860"
    op_type: "expand"
    attribute {
      name: "size"
      ints: 5
      ints: 20
    }
  }
  node {
    input: "857"
    input: "858"
    input: "860"
    output: "861"
    op_type: "Gemm"
    attribute {
      name: "alpha"
      f: 1
    }
    attribute {
      name: "beta"
      f: 1
    }
  }
  node {
    input: "14"
    output: "862"
    op_type: "Transpose"
    attribute {
      name: "perm"
      ints: 1
      ints: 0
    }
  }
  node {
    input: "16"
    output: "864"
    op_type: "expand"
    attribute {
      name: "size"
      ints: 5
      ints: 20
    }
  }
  node {
    input: "852"
    input: "862"
    input: "864"
    output: "865"
    op_type: "Gemm"
    attribute {
      name: "alpha"
      f: 1
    }
    attribute {
      name: "beta"
      f: 1
    }
  }
  node {
    input: "861"
    input: "865"
    output: "866"
    op_type: "Add"
  }
  node {
    input: "866"
    output: "868"
    output: "869"
    output: "870"
    output: "871"
    op_type: "Split"
    attribute {
      name: "axis"
      i: 1
    }
    attribute {
      name: "split"
      ints: 5
      ints: 5
      ints: 5
      ints: 5
    }
  }
  node {
    input: "868"
    output: "872"
    op_type: "Sigmoid"
  }
  node {
    input: "869"
    output: "873"
    op_type: "Sigmoid"
  }
  node {
    input: "870"
    output: "874"
    op_type: "Tanh"
  }
  node {
    input: "871"
    output: "875"
    op_type: "Sigmoid"
  }
  node {
    input: "873"
    input: "850"
    output: "876"
    op_type: "Mul"
  }
  node {
    input: "872"
    input: "874"
    output: "877"
    op_type: "Mul"
  }
  node {
    input: "876"
    input: "877"
    output: "878"
    op_type: "Add"
  }
  node {
    input: "878"
    output: "879"
    op_type: "Tanh"
  }
  node {
    input: "875"
    input: "879"
    output: "880"
    op_type: "Mul"
  }
  node {
    output: "881"
    op_type: "Constant"
    attribute {
      name: "value"
      t {
        dims: 1
        data_type: INT32
        raw_data: "\000\000\000\000"
      }
    }
  }
  node {
    output: "882"
    op_type: "Constant"
    attribute {
      name: "value"
      t {
        dims: 1
        data_type: INT64
        raw_data: "\010\000\000\000\000\000\000\000"
      }
    }
  }
  node {
    output: "883"
    op_type: "Constant"
    attribute {
      name: "value"
      t {
        dims: 1
        data_type: INT64
        raw_data: "\t\000\000\000\000\000\000\000"
      }
    }
  }
  node {
    input: "655"
    input: "881"
    input: "882"
    input: "883"
    output: "884"
    op_type: "Slice"
  }
  node {
    input: "884"
    output: "885"
    op_type: "Squeeze"
    attribute {
      name: "axes"
      ints: 0
    }
  }
  node {
    input: "13"
    output: "886"
    op_type: "Transpose"
    attribute {
      name: "perm"
      ints: 1
      ints: 0
    }
  }
  node {
    input: "15"
    output: "888"
    op_type: "expand"
    attribute {
      name: "size"
      ints: 5
      ints: 20
    }
  }
  node {
    input: "885"
    input: "886"
    input: "888"
    output: "889"
    op_type: "Gemm"
    attribute {
      name: "alpha"
      f: 1
    }
    attribute {
      name: "beta"
      f: 1
    }
  }
  node {
    input: "14"
    output: "890"
    op_type: "Transpose"
    attribute {
      name: "perm"
      ints: 1
      ints: 0
    }
  }
  node {
    input: "16"
    output: "892"
    op_type: "expand"
    attribute {
      name: "size"
      ints: 5
      ints: 20
    }
  }
  node {
    input: "880"
    input: "890"
    input: "892"
    output: "893"
    op_type: "Gemm"
    attribute {
      name: "alpha"
      f: 1
    }
    attribute {
      name: "beta"
      f: 1
    }
  }
  node {
    input: "889"
    input: "893"
    output: "894"
    op_type: "Add"
  }
  node {
    input: "894"
    output: "896"
    output: "897"
    output: "898"
    output: "899"
    op_type: "Split"
    attribute {
      name: "axis"
      i: 1
    }
    attribute {
      name: "split"
      ints: 5
      ints: 5
      ints: 5
      ints: 5
    }
  }
  node {
    input: "896"
    output: "900"
    op_type: "Sigmoid"
  }
  node {
    input: "897"
    output: "901"
    op_type: "Sigmoid"
  }
  node {
    input: "898"
    output: "902"
    op_type: "Tanh"
  }
  node {
    input: "899"
    output: "903"
    op_type: "Sigmoid"
  }
  node {
    input: "901"
    input: "878"
    output: "904"
    op_type: "Mul"
  }
  node {
    input: "900"
    input: "902"
    output: "905"
    op_type: "Mul"
  }
  node {
    input: "904"
    input: "905"
    output: "906"
    op_type: "Add"
  }
  node {
    input: "906"
    output: "907"
    op_type: "Tanh"
  }
  node {
    input: "903"
    input: "907"
    output: "908"
    op_type: "Mul"
  }
  node {
    output: "909"
    op_type: "Constant"
    attribute {
      name: "value"
      t {
        dims: 1
        data_type: INT32
        raw_data: "\000\000\000\000"
      }
    }
  }
  node {
    output: "910"
    op_type: "Constant"
    attribute {
      name: "value"
      t {
        dims: 1
        data_type: INT64
        raw_data: "\t\000\000\000\000\000\000\000"
      }
    }
  }
  node {
    output: "911"
    op_type: "Constant"
    attribute {
      name: "value"
      t {
        dims: 1
        data_type: INT64
        raw_data: "\n\000\000\000\000\000\000\000"
      }
    }
  }
  node {
    input: "655"
    input: "909"
    input: "910"
    input: "911"
    output: "912"
    op_type: "Slice"
  }
  node {
    input: "912"
    output: "913"
    op_type: "Squeeze"
    attribute {
      name: "axes"
      ints: 0
    }
  }
  node {
    input: "13"
    output: "914"
    op_type: "Transpose"
    attribute {
      name: "perm"
      ints: 1
      ints: 0
    }
  }
  node {
    input: "15"
    output: "916"
    op_type: "expand"
    attribute {
      name: "size"
      ints: 5
      ints: 20
    }
  }
  node {
    input: "913"
    input: "914"
    input: "916"
    output: "917"
    op_type: "Gemm"
    attribute {
      name: "alpha"
      f: 1
    }
    attribute {
      name: "beta"
      f: 1
    }
  }
  node {
    input: "14"
    output: "918"
    op_type: "Transpose"
    attribute {
      name: "perm"
      ints: 1
      ints: 0
    }
  }
  node {
    input: "16"
    output: "920"
    op_type: "expand"
    attribute {
      name: "size"
      ints: 5
      ints: 20
    }
  }
  node {
    input: "908"
    input: "918"
    input: "920"
    output: "921"
    op_type: "Gemm"
    attribute {
      name: "alpha"
      f: 1
    }
    attribute {
      name: "beta"
      f: 1
    }
  }
  node {
    input: "917"
    input: "921"
    output: "922"
    op_type: "Add"
  }
  node {
    input: "922"
    output: "924"
    output: "925"
    output: "926"
    output: "927"
    op_type: "Split"
    attribute {
      name: "axis"
      i: 1
    }
    attribute {
      name: "split"
      ints: 5
      ints: 5
      ints: 5
      ints: 5
    }
  }
  node {
    input: "924"
    output: "928"
    op_type: "Sigmoid"
  }
  node {
    input: "925"
    output: "929"
    op_type: "Sigmoid"
  }
  node {
    input: "926"
    output: "930"
    op_type: "Tanh"
  }
  node {
    input: "927"
    output: "931"
    op_type: "Sigmoid"
  }
  node {
    input: "929"
    input: "906"
    output: "932"
    op_type: "Mul"
  }
  node {
    input: "928"
    input: "930"
    output: "933"
    op_type: "Mul"
  }
  node {
    input: "932"
    input: "933"
    output: "934"
    op_type: "Add"
  }
  node {
    input: "934"
    output: "935"
    op_type: "Tanh"
  }
  node {
    input: "931"
    input: "935"
    output: "936"
    op_type: "Mul"
  }
  node {
    input: "684"
    input: "712"
    input: "740"
    input: "768"
    input: "796"
    input: "824"
    input: "852"
    input: "880"
    input: "908"
    input: "936"
    output: "938"
    op_type: "cat"
    attribute {
      name: "dim"
      i: 0
    }
  }
  node {
    input: "938"
    output: "939"
    op_type: "Reshape"
    attribute {
      name: "shape"
      ints: 10
      ints: 5
      ints: 5
    }
  }
  node {
    input: "939"
    output: "941"
    op_type: "cat"
    attribute {
      name: "dim"
      i: 2
    }
  }
  node {
    input: "941"
    output: "943"
    output: "944"
    op_type: "Dropout"
    attribute {
      name: "ratio"
      f: 0.200000002980232
    }
    attribute {
      name: "is_test"
      i: 1
    }
  }
  node {
    output: "945"
    op_type: "Constant"
    attribute {
      name: "value"
      t {
        dims: 1
        data_type: INT32
        raw_data: "\000\000\000\000"
      }
    }
  }
  node {
    output: "946"
    op_type: "Constant"
    attribute {
      name: "value"
      t {
        dims: 1
        data_type: INT64
        raw_data: "\000\000\000\000\000\000\000\000"
      }
    }
  }
  node {
    output: "947"
    op_type: "Constant"
    attribute {
      name: "value"
      t {
        dims: 1
        data_type: INT64
        raw_data: "\001\000\000\000\000\000\000\000"
      }
    }
  }
  node {
    input: "943"
    input: "945"
    input: "946"
    input: "947"
    output: "948"
    op_type: "Slice"
  }
  node {
    input: "948"
    output: "949"
    op_type: "Squeeze"
    attribute {
      name: "axes"
      ints: 0
    }
  }
  node {
    input: "17"
    output: "950"
    op_type: "Transpose"
    attribute {
      name: "perm"
      ints: 1
      ints: 0
    }
  }
  node {
    input: "19"
    output: "952"
    op_type: "expand"
    attribute {
      name: "size"
      ints: 5
      ints: 20
    }
  }
  node {
    input: "949"
    input: "950"
    input: "952"
    output: "953"
    op_type: "Gemm"
    attribute {
      name: "alpha"
      f: 1
    }
    attribute {
      name: "beta"
      f: 1
    }
  }
  node {
    input: "18"
    output: "954"
    op_type: "Transpose"
    attribute {
      name: "perm"
      ints: 1
      ints: 0
    }
  }
  node {
    input: "20"
    output: "956"
    op_type: "expand"
    attribute {
      name: "size"
      ints: 5
      ints: 20
    }
  }
  node {
    input: "65"
    input: "954"
    input: "956"
    output: "957"
    op_type: "Gemm"
    attribute {
      name: "alpha"
      f: 1
    }
    attribute {
      name: "beta"
      f: 1
    }
  }
  node {
    input: "953"
    input: "957"
    output: "958"
    op_type: "Add"
  }
  node {
    input: "958"
    output: "960"
    output: "961"
    output: "962"
    output: "963"
    op_type: "Split"
    attribute {
      name: "axis"
      i: 1
    }
    attribute {
      name: "split"
      ints: 5
      ints: 5
      ints: 5
      ints: 5
    }
  }
  node {
    input: "960"
    output: "964"
    op_type: "Sigmoid"
  }
  node {
    input: "961"
    output: "965"
    op_type: "Sigmoid"
  }
  node {
    input: "962"
    output: "966"
    op_type: "Tanh"
  }
  node {
    input: "963"
    output: "967"
    op_type: "Sigmoid"
  }
  node {
    input: "965"
    input: "70"
    output: "968"
    op_type: "Mul"
  }
  node {
    input: "964"
    input: "966"
    output: "969"
    op_type: "Mul"
  }
  node {
    input: "968"
    input: "969"
    output: "970"
    op_type: "Add"
  }
  node {
    input: "970"
    output: "971"
    op_type: "Tanh"
  }
  node {
    input: "967"
    input: "971"
    output: "972"
    op_type: "Mul"
  }
  node {
    output: "973"
    op_type: "Constant"
    attribute {
      name: "value"
      t {
        dims: 1
        data_type: INT32
        raw_data: "\000\000\000\000"
      }
    }
  }
  node {
    output: "974"
    op_type: "Constant"
    attribute {
      name: "value"
      t {
        dims: 1
        data_type: INT64
        raw_data: "\001\000\000\000\000\000\000\000"
      }
    }
  }
  node {
    output: "975"
    op_type: "Constant"
    attribute {
      name: "value"
      t {
        dims: 1
        data_type: INT64
        raw_data: "\002\000\000\000\000\000\000\000"
      }
    }
  }
  node {
    input: "943"
    input: "973"
    input: "974"
    input: "975"
    output: "976"
    op_type: "Slice"
  }
  node {
    input: "976"
    output: "977"
    op_type: "Squeeze"
    attribute {
      name: "axes"
      ints: 0
    }
  }
  node {
    input: "17"
    output: "978"
    op_type: "Transpose"
    attribute {
      name: "perm"
      ints: 1
      ints: 0
    }
  }
  node {
    input: "19"
    output: "980"
    op_type: "expand"
    attribute {
      name: "size"
      ints: 5
      ints: 20
    }
  }
  node {
    input: "977"
    input: "978"
    input: "980"
    output: "981"
    op_type: "Gemm"
    attribute {
      name: "alpha"
      f: 1
    }
    attribute {
      name: "beta"
      f: 1
    }
  }
  node {
    input: "18"
    output: "982"
    op_type: "Transpose"
    attribute {
      name: "perm"
      ints: 1
      ints: 0
    }
  }
  node {
    input: "20"
    output: "984"
    op_type: "expand"
    attribute {
      name: "size"
      ints: 5
      ints: 20
    }
  }
  node {
    input: "972"
    input: "982"
    input: "984"
    output: "985"
    op_type: "Gemm"
    attribute {
      name: "alpha"
      f: 1
    }
    attribute {
      name: "beta"
      f: 1
    }
  }
  node {
    input: "981"
    input: "985"
    output: "986"
    op_type: "Add"
  }
  node {
    input: "986"
    output: "988"
    output: "989"
    output: "990"
    output: "991"
    op_type: "Split"
    attribute {
      name: "axis"
      i: 1
    }
    attribute {
      name: "split"
      ints: 5
      ints: 5
      ints: 5
      ints: 5
    }
  }
  node {
    input: "988"
    output: "992"
    op_type: "Sigmoid"
  }
  node {
    input: "989"
    output: "993"
    op_type: "Sigmoid"
  }
  node {
    input: "990"
    output: "994"
    op_type: "Tanh"
  }
  node {
    input: "991"
    output: "995"
    op_type: "Sigmoid"
  }
  node {
    input: "993"
    input: "970"
    output: "996"
    op_type: "Mul"
  }
  node {
    input: "992"
    input: "994"
    output: "997"
    op_type: "Mul"
  }
  node {
    input: "996"
    input: "997"
    output: "998"
    op_type: "Add"
  }
  node {
    input: "998"
    output: "999"
    op_type: "Tanh"
  }
  node {
    input: "995"
    input: "999"
    output: "1000"
    op_type: "Mul"
  }
  node {
    output: "1001"
    op_type: "Constant"
    attribute {
      name: "value"
      t {
        dims: 1
        data_type: INT32
        raw_data: "\000\000\000\000"
      }
    }
  }
  node {
    output: "1002"
    op_type: "Constant"
    attribute {
      name: "value"
      t {
        dims: 1
        data_type: INT64
        raw_data: "\002\000\000\000\000\000\000\000"
      }
    }
  }
  node {
    output: "1003"
    op_type: "Constant"
    attribute {
      name: "value"
      t {
        dims: 1
        data_type: INT64
        raw_data: "\003\000\000\000\000\000\000\000"
      }
    }
  }
  node {
    input: "943"
    input: "1001"
    input: "1002"
    input: "1003"
    output: "1004"
    op_type: "Slice"
  }
  node {
    input: "1004"
    output: "1005"
    op_type: "Squeeze"
    attribute {
      name: "axes"
      ints: 0
    }
  }
  node {
    input: "17"
    output: "1006"
    op_type: "Transpose"
    attribute {
      name: "perm"
      ints: 1
      ints: 0
    }
  }
  node {
    input: "19"
    output: "1008"
    op_type: "expand"
    attribute {
      name: "size"
      ints: 5
      ints: 20
    }
  }
  node {
    input: "1005"
    input: "1006"
    input: "1008"
    output: "1009"
    op_type: "Gemm"
    attribute {
      name: "alpha"
      f: 1
    }
    attribute {
      name: "beta"
      f: 1
    }
  }
  node {
    input: "18"
    output: "1010"
    op_type: "Transpose"
    attribute {
      name: "perm"
      ints: 1
      ints: 0
    }
  }
  node {
    input: "20"
    output: "1012"
    op_type: "expand"
    attribute {
      name: "size"
      ints: 5
      ints: 20
    }
  }
  node {
    input: "1000"
    input: "1010"
    input: "1012"
    output: "1013"
    op_type: "Gemm"
    attribute {
      name: "alpha"
      f: 1
    }
    attribute {
      name: "beta"
      f: 1
    }
  }
  node {
    input: "1009"
    input: "1013"
    output: "1014"
    op_type: "Add"
  }
  node {
    input: "1014"
    output: "1016"
    output: "1017"
    output: "1018"
    output: "1019"
    op_type: "Split"
    attribute {
      name: "axis"
      i: 1
    }
    attribute {
      name: "split"
      ints: 5
      ints: 5
      ints: 5
      ints: 5
    }
  }
  node {
    input: "1016"
    output: "1020"
    op_type: "Sigmoid"
  }
  node {
    input: "1017"
    output: "1021"
    op_type: "Sigmoid"
  }
  node {
    input: "1018"
    output: "1022"
    op_type: "Tanh"
  }
  node {
    input: "1019"
    output: "1023"
    op_type: "Sigmoid"
  }
  node {
    input: "1021"
    input: "998"
    output: "1024"
    op_type: "Mul"
  }
  node {
    input: "1020"
    input: "1022"
    output: "1025"
    op_type: "Mul"
  }
  node {
    input: "1024"
    input: "1025"
    output: "1026"
    op_type: "Add"
  }
  node {
    input: "1026"
    output: "1027"
    op_type: "Tanh"
  }
  node {
    input: "1023"
    input: "1027"
    output: "1028"
    op_type: "Mul"
  }
  node {
    output: "1029"
    op_type: "Constant"
    attribute {
      name: "value"
      t {
        dims: 1
        data_type: INT32
        raw_data: "\000\000\000\000"
      }
    }
  }
  node {
    output: "1030"
    op_type: "Constant"
    attribute {
      name: "value"
      t {
        dims: 1
        data_type: INT64
        raw_data: "\003\000\000\000\000\000\000\000"
      }
    }
  }
  node {
    output: "1031"
    op_type: "Constant"
    attribute {
      name: "value"
      t {
        dims: 1
        data_type: INT64
        raw_data: "\004\000\000\000\000\000\000\000"
      }
    }
  }
  node {
    input: "943"
    input: "1029"
    input: "1030"
    input: "1031"
    output: "1032"
    op_type: "Slice"
  }
  node {
    input: "1032"
    output: "1033"
    op_type: "Squeeze"
    attribute {
      name: "axes"
      ints: 0
    }
  }
  node {
    input: "17"
    output: "1034"
    op_type: "Transpose"
    attribute {
      name: "perm"
      ints: 1
      ints: 0
    }
  }
  node {
    input: "19"
    output: "1036"
    op_type: "expand"
    attribute {
      name: "size"
      ints: 5
      ints: 20
    }
  }
  node {
    input: "1033"
    input: "1034"
    input: "1036"
    output: "1037"
    op_type: "Gemm"
    attribute {
      name: "alpha"
      f: 1
    }
    attribute {
      name: "beta"
      f: 1
    }
  }
  node {
    input: "18"
    output: "1038"
    op_type: "Transpose"
    attribute {
      name: "perm"
      ints: 1
      ints: 0
    }
  }
  node {
    input: "20"
    output: "1040"
    op_type: "expand"
    attribute {
      name: "size"
      ints: 5
      ints: 20
    }
  }
  node {
    input: "1028"
    input: "1038"
    input: "1040"
    output: "1041"
    op_type: "Gemm"
    attribute {
      name: "alpha"
      f: 1
    }
    attribute {
      name: "beta"
      f: 1
    }
  }
  node {
    input: "1037"
    input: "1041"
    output: "1042"
    op_type: "Add"
  }
  node {
    input: "1042"
    output: "1044"
    output: "1045"
    output: "1046"
    output: "1047"
    op_type: "Split"
    attribute {
      name: "axis"
      i: 1
    }
    attribute {
      name: "split"
      ints: 5
      ints: 5
      ints: 5
      ints: 5
    }
  }
  node {
    input: "1044"
    output: "1048"
    op_type: "Sigmoid"
  }
  node {
    input: "1045"
    output: "1049"
    op_type: "Sigmoid"
  }
  node {
    input: "1046"
    output: "1050"
    op_type: "Tanh"
  }
  node {
    input: "1047"
    output: "1051"
    op_type: "Sigmoid"
  }
  node {
    input: "1049"
    input: "1026"
    output: "1052"
    op_type: "Mul"
  }
  node {
    input: "1048"
    input: "1050"
    output: "1053"
    op_type: "Mul"
  }
  node {
    input: "1052"
    input: "1053"
    output: "1054"
    op_type: "Add"
  }
  node {
    input: "1054"
    output: "1055"
    op_type: "Tanh"
  }
  node {
    input: "1051"
    input: "1055"
    output: "1056"
    op_type: "Mul"
  }
  node {
    output: "1057"
    op_type: "Constant"
    attribute {
      name: "value"
      t {
        dims: 1
        data_type: INT32
        raw_data: "\000\000\000\000"
      }
    }
  }
  node {
    output: "1058"
    op_type: "Constant"
    attribute {
      name: "value"
      t {
        dims: 1
        data_type: INT64
        raw_data: "\004\000\000\000\000\000\000\000"
      }
    }
  }
  node {
    output: "1059"
    op_type: "Constant"
    attribute {
      name: "value"
      t {
        dims: 1
        data_type: INT64
        raw_data: "\005\000\000\000\000\000\000\000"
      }
    }
  }
  node {
    input: "943"
    input: "1057"
    input: "1058"
    input: "1059"
    output: "1060"
    op_type: "Slice"
  }
  node {
    input: "1060"
    output: "1061"
    op_type: "Squeeze"
    attribute {
      name: "axes"
      ints: 0
    }
  }
  node {
    input: "17"
    output: "1062"
    op_type: "Transpose"
    attribute {
      name: "perm"
      ints: 1
      ints: 0
    }
  }
  node {
    input: "19"
    output: "1064"
    op_type: "expand"
    attribute {
      name: "size"
      ints: 5
      ints: 20
    }
  }
  node {
    input: "1061"
    input: "1062"
    input: "1064"
    output: "1065"
    op_type: "Gemm"
    attribute {
      name: "alpha"
      f: 1
    }
    attribute {
      name: "beta"
      f: 1
    }
  }
  node {
    input: "18"
    output: "1066"
    op_type: "Transpose"
    attribute {
      name: "perm"
      ints: 1
      ints: 0
    }
  }
  node {
    input: "20"
    output: "1068"
    op_type: "expand"
    attribute {
      name: "size"
      ints: 5
      ints: 20
    }
  }
  node {
    input: "1056"
    input: "1066"
    input: "1068"
    output: "1069"
    op_type: "Gemm"
    attribute {
      name: "alpha"
      f: 1
    }
    attribute {
      name: "beta"
      f: 1
    }
  }
  node {
    input: "1065"
    input: "1069"
    output: "1070"
    op_type: "Add"
  }
  node {
    input: "1070"
    output: "1072"
    output: "1073"
    output: "1074"
    output: "1075"
    op_type: "Split"
    attribute {
      name: "axis"
      i: 1
    }
    attribute {
      name: "split"
      ints: 5
      ints: 5
      ints: 5
      ints: 5
    }
  }
  node {
    input: "1072"
    output: "1076"
    op_type: "Sigmoid"
  }
  node {
    input: "1073"
    output: "1077"
    op_type: "Sigmoid"
  }
  node {
    input: "1074"
    output: "1078"
    op_type: "Tanh"
  }
  node {
    input: "1075"
    output: "1079"
    op_type: "Sigmoid"
  }
  node {
    input: "1077"
    input: "1054"
    output: "1080"
    op_type: "Mul"
  }
  node {
    input: "1076"
    input: "1078"
    output: "1081"
    op_type: "Mul"
  }
  node {
    input: "1080"
    input: "1081"
    output: "1082"
    op_type: "Add"
  }
  node {
    input: "1082"
    output: "1083"
    op_type: "Tanh"
  }
  node {
    input: "1079"
    input: "1083"
    output: "1084"
    op_type: "Mul"
  }
  node {
    output: "1085"
    op_type: "Constant"
    attribute {
      name: "value"
      t {
        dims: 1
        data_type: INT32
        raw_data: "\000\000\000\000"
      }
    }
  }
  node {
    output: "1086"
    op_type: "Constant"
    attribute {
      name: "value"
      t {
        dims: 1
        data_type: INT64
        raw_data: "\005\000\000\000\000\000\000\000"
      }
    }
  }
  node {
    output: "1087"
    op_type: "Constant"
    attribute {
      name: "value"
      t {
        dims: 1
        data_type: INT64
        raw_data: "\006\000\000\000\000\000\000\000"
      }
    }
  }
  node {
    input: "943"
    input: "1085"
    input: "1086"
    input: "1087"
    output: "1088"
    op_type: "Slice"
  }
  node {
    input: "1088"
    output: "1089"
    op_type: "Squeeze"
    attribute {
      name: "axes"
      ints: 0
    }
  }
  node {
    input: "17"
    output: "1090"
    op_type: "Transpose"
    attribute {
      name: "perm"
      ints: 1
      ints: 0
    }
  }
  node {
    input: "19"
    output: "1092"
    op_type: "expand"
    attribute {
      name: "size"
      ints: 5
      ints: 20
    }
  }
  node {
    input: "1089"
    input: "1090"
    input: "1092"
    output: "1093"
    op_type: "Gemm"
    attribute {
      name: "alpha"
      f: 1
    }
    attribute {
      name: "beta"
      f: 1
    }
  }
  node {
    input: "18"
    output: "1094"
    op_type: "Transpose"
    attribute {
      name: "perm"
      ints: 1
      ints: 0
    }
  }
  node {
    input: "20"
    output: "1096"
    op_type: "expand"
    attribute {
      name: "size"
      ints: 5
      ints: 20
    }
  }
  node {
    input: "1084"
    input: "1094"
    input: "1096"
    output: "1097"
    op_type: "Gemm"
    attribute {
      name: "alpha"
      f: 1
    }
    attribute {
      name: "beta"
      f: 1
    }
  }
  node {
    input: "1093"
    input: "1097"
    output: "1098"
    op_type: "Add"
  }
  node {
    input: "1098"
    output: "1100"
    output: "1101"
    output: "1102"
    output: "1103"
    op_type: "Split"
    attribute {
      name: "axis"
      i: 1
    }
    attribute {
      name: "split"
      ints: 5
      ints: 5
      ints: 5
      ints: 5
    }
  }
  node {
    input: "1100"
    output: "1104"
    op_type: "Sigmoid"
  }
  node {
    input: "1101"
    output: "1105"
    op_type: "Sigmoid"
  }
  node {
    input: "1102"
    output: "1106"
    op_type: "Tanh"
  }
  node {
    input: "1103"
    output: "1107"
    op_type: "Sigmoid"
  }
  node {
    input: "1105"
    input: "1082"
    output: "1108"
    op_type: "Mul"
  }
  node {
    input: "1104"
    input: "1106"
    output: "1109"
    op_type: "Mul"
  }
  node {
    input: "1108"
    input: "1109"
    output: "1110"
    op_type: "Add"
  }
  node {
    input: "1110"
    output: "1111"
    op_type: "Tanh"
  }
  node {
    input: "1107"
    input: "1111"
    output: "1112"
    op_type: "Mul"
  }
  node {
    output: "1113"
    op_type: "Constant"
    attribute {
      name: "value"
      t {
        dims: 1
        data_type: INT32
        raw_data: "\000\000\000\000"
      }
    }
  }
  node {
    output: "1114"
    op_type: "Constant"
    attribute {
      name: "value"
      t {
        dims: 1
        data_type: INT64
        raw_data: "\006\000\000\000\000\000\000\000"
      }
    }
  }
  node {
    output: "1115"
    op_type: "Constant"
    attribute {
      name: "value"
      t {
        dims: 1
        data_type: INT64
        raw_data: "\007\000\000\000\000\000\000\000"
      }
    }
  }
  node {
    input: "943"
    input: "1113"
    input: "1114"
    input: "1115"
    output: "1116"
    op_type: "Slice"
  }
  node {
    input: "1116"
    output: "1117"
    op_type: "Squeeze"
    attribute {
      name: "axes"
      ints: 0
    }
  }
  node {
    input: "17"
    output: "1118"
    op_type: "Transpose"
    attribute {
      name: "perm"
      ints: 1
      ints: 0
    }
  }
  node {
    input: "19"
    output: "1120"
    op_type: "expand"
    attribute {
      name: "size"
      ints: 5
      ints: 20
    }
  }
  node {
    input: "1117"
    input: "1118"
    input: "1120"
    output: "1121"
    op_type: "Gemm"
    attribute {
      name: "alpha"
      f: 1
    }
    attribute {
      name: "beta"
      f: 1
    }
  }
  node {
    input: "18"
    output: "1122"
    op_type: "Transpose"
    attribute {
      name: "perm"
      ints: 1
      ints: 0
    }
  }
  node {
    input: "20"
    output: "1124"
    op_type: "expand"
    attribute {
      name: "size"
      ints: 5
      ints: 20
    }
  }
  node {
    input: "1112"
    input: "1122"
    input: "1124"
    output: "1125"
    op_type: "Gemm"
    attribute {
      name: "alpha"
      f: 1
    }
    attribute {
      name: "beta"
      f: 1
    }
  }
  node {
    input: "1121"
    input: "1125"
    output: "1126"
    op_type: "Add"
  }
  node {
    input: "1126"
    output: "1128"
    output: "1129"
    output: "1130"
    output: "1131"
    op_type: "Split"
    attribute {
      name: "axis"
      i: 1
    }
    attribute {
      name: "split"
      ints: 5
      ints: 5
      ints: 5
      ints: 5
    }
  }
  node {
    input: "1128"
    output: "1132"
    op_type: "Sigmoid"
  }
  node {
    input: "1129"
    output: "1133"
    op_type: "Sigmoid"
  }
  node {
    input: "1130"
    output: "1134"
    op_type: "Tanh"
  }
  node {
    input: "1131"
    output: "1135"
    op_type: "Sigmoid"
  }
  node {
    input: "1133"
    input: "1110"
    output: "1136"
    op_type: "Mul"
  }
  node {
    input: "1132"
    input: "1134"
    output: "1137"
    op_type: "Mul"
  }
  node {
    input: "1136"
    input: "1137"
    output: "1138"
    op_type: "Add"
  }
  node {
    input: "1138"
    output: "1139"
    op_type: "Tanh"
  }
  node {
    input: "1135"
    input: "1139"
    output: "1140"
    op_type: "Mul"
  }
  node {
    output: "1141"
    op_type: "Constant"
    attribute {
      name: "value"
      t {
        dims: 1
        data_type: INT32
        raw_data: "\000\000\000\000"
      }
    }
  }
  node {
    output: "1142"
    op_type: "Constant"
    attribute {
      name: "value"
      t {
        dims: 1
        data_type: INT64
        raw_data: "\007\000\000\000\000\000\000\000"
      }
    }
  }
  node {
    output: "1143"
    op_type: "Constant"
    attribute {
      name: "value"
      t {
        dims: 1
        data_type: INT64
        raw_data: "\010\000\000\000\000\000\000\000"
      }
    }
  }
  node {
    input: "943"
    input: "1141"
    input: "1142"
    input: "1143"
    output: "1144"
    op_type: "Slice"
  }
  node {
    input: "1144"
    output: "1145"
    op_type: "Squeeze"
    attribute {
      name: "axes"
      ints: 0
    }
  }
  node {
    input: "17"
    output: "1146"
    op_type: "Transpose"
    attribute {
      name: "perm"
      ints: 1
      ints: 0
    }
  }
  node {
    input: "19"
    output: "1148"
    op_type: "expand"
    attribute {
      name: "size"
      ints: 5
      ints: 20
    }
  }
  node {
    input: "1145"
    input: "1146"
    input: "1148"
    output: "1149"
    op_type: "Gemm"
    attribute {
      name: "alpha"
      f: 1
    }
    attribute {
      name: "beta"
      f: 1
    }
  }
  node {
    input: "18"
    output: "1150"
    op_type: "Transpose"
    attribute {
      name: "perm"
      ints: 1
      ints: 0
    }
  }
  node {
    input: "20"
    output: "1152"
    op_type: "expand"
    attribute {
      name: "size"
      ints: 5
      ints: 20
    }
  }
  node {
    input: "1140"
    input: "1150"
    input: "1152"
    output: "1153"
    op_type: "Gemm"
    attribute {
      name: "alpha"
      f: 1
    }
    attribute {
      name: "beta"
      f: 1
    }
  }
  node {
    input: "1149"
    input: "1153"
    output: "1154"
    op_type: "Add"
  }
  node {
    input: "1154"
    output: "1156"
    output: "1157"
    output: "1158"
    output: "1159"
    op_type: "Split"
    attribute {
      name: "axis"
      i: 1
    }
    attribute {
      name: "split"
      ints: 5
      ints: 5
      ints: 5
      ints: 5
    }
  }
  node {
    input: "1156"
    output: "1160"
    op_type: "Sigmoid"
  }
  node {
    input: "1157"
    output: "1161"
    op_type: "Sigmoid"
  }
  node {
    input: "1158"
    output: "1162"
    op_type: "Tanh"
  }
  node {
    input: "1159"
    output: "1163"
    op_type: "Sigmoid"
  }
  node {
    input: "1161"
    input: "1138"
    output: "1164"
    op_type: "Mul"
  }
  node {
    input: "1160"
    input: "1162"
    output: "1165"
    op_type: "Mul"
  }
  node {
    input: "1164"
    input: "1165"
    output: "1166"
    op_type: "Add"
  }
  node {
    input: "1166"
    output: "1167"
    op_type: "Tanh"
  }
  node {
    input: "1163"
    input: "1167"
    output: "1168"
    op_type: "Mul"
  }
  node {
    output: "1169"
    op_type: "Constant"
    attribute {
      name: "value"
      t {
        dims: 1
        data_type: INT32
        raw_data: "\000\000\000\000"
      }
    }
  }
  node {
    output: "1170"
    op_type: "Constant"
    attribute {
      name: "value"
      t {
        dims: 1
        data_type: INT64
        raw_data: "\010\000\000\000\000\000\000\000"
      }
    }
  }
  node {
    output: "1171"
    op_type: "Constant"
    attribute {
      name: "value"
      t {
        dims: 1
        data_type: INT64
        raw_data: "\t\000\000\000\000\000\000\000"
      }
    }
  }
  node {
    input: "943"
    input: "1169"
    input: "1170"
    input: "1171"
    output: "1172"
    op_type: "Slice"
  }
  node {
    input: "1172"
    output: "1173"
    op_type: "Squeeze"
    attribute {
      name: "axes"
      ints: 0
    }
  }
  node {
    input: "17"
    output: "1174"
    op_type: "Transpose"
    attribute {
      name: "perm"
      ints: 1
      ints: 0
    }
  }
  node {
    input: "19"
    output: "1176"
    op_type: "expand"
    attribute {
      name: "size"
      ints: 5
      ints: 20
    }
  }
  node {
    input: "1173"
    input: "1174"
    input: "1176"
    output: "1177"
    op_type: "Gemm"
    attribute {
      name: "alpha"
      f: 1
    }
    attribute {
      name: "beta"
      f: 1
    }
  }
  node {
    input: "18"
    output: "1178"
    op_type: "Transpose"
    attribute {
      name: "perm"
      ints: 1
      ints: 0
    }
  }
  node {
    input: "20"
    output: "1180"
    op_type: "expand"
    attribute {
      name: "size"
      ints: 5
      ints: 20
    }
  }
  node {
    input: "1168"
    input: "1178"
    input: "1180"
    output: "1181"
    op_type: "Gemm"
    attribute {
      name: "alpha"
      f: 1
    }
    attribute {
      name: "beta"
      f: 1
    }
  }
  node {
    input: "1177"
    input: "1181"
    output: "1182"
    op_type: "Add"
  }
  node {
    input: "1182"
    output: "1184"
    output: "1185"
    output: "1186"
    output: "1187"
    op_type: "Split"
    attribute {
      name: "axis"
      i: 1
    }
    attribute {
      name: "split"
      ints: 5
      ints: 5
      ints: 5
      ints: 5
    }
  }
  node {
    input: "1184"
    output: "1188"
    op_type: "Sigmoid"
  }
  node {
    input: "1185"
    output: "1189"
    op_type: "Sigmoid"
  }
  node {
    input: "1186"
    output: "1190"
    op_type: "Tanh"
  }
  node {
    input: "1187"
    output: "1191"
    op_type: "Sigmoid"
  }
  node {
    input: "1189"
    input: "1166"
    output: "1192"
    op_type: "Mul"
  }
  node {
    input: "1188"
    input: "1190"
    output: "1193"
    op_type: "Mul"
  }
  node {
    input: "1192"
    input: "1193"
    output: "1194"
    op_type: "Add"
  }
  node {
    input: "1194"
    output: "1195"
    op_type: "Tanh"
  }
  node {
    input: "1191"
    input: "1195"
    output: "1196"
    op_type: "Mul"
  }
  node {
    output: "1197"
    op_type: "Constant"
    attribute {
      name: "value"
      t {
        dims: 1
        data_type: INT32
        raw_data: "\000\000\000\000"
      }
    }
  }
  node {
    output: "1198"
    op_type: "Constant"
    attribute {
      name: "value"
      t {
        dims: 1
        data_type: INT64
        raw_data: "\t\000\000\000\000\000\000\000"
      }
    }
  }
  node {
    output: "1199"
    op_type: "Constant"
    attribute {
      name: "value"
      t {
        dims: 1
        data_type: INT64
        raw_data: "\n\000\000\000\000\000\000\000"
      }
    }
  }
  node {
    input: "943"
    input: "1197"
    input: "1198"
    input: "1199"
    output: "1200"
    op_type: "Slice"
  }
  node {
    input: "1200"
    output: "1201"
    op_type: "Squeeze"
    attribute {
      name: "axes"
      ints: 0
    }
  }
  node {
    input: "17"
    output: "1202"
    op_type: "Transpose"
    attribute {
      name: "perm"
      ints: 1
      ints: 0
    }
  }
  node {
    input: "19"
    output: "1204"
    op_type: "expand"
    attribute {
      name: "size"
      ints: 5
      ints: 20
    }
  }
  node {
    input: "1201"
    input: "1202"
    input: "1204"
    output: "1205"
    op_type: "Gemm"
    attribute {
      name: "alpha"
      f: 1
    }
    attribute {
      name: "beta"
      f: 1
    }
  }
  node {
    input: "18"
    output: "1206"
    op_type: "Transpose"
    attribute {
      name: "perm"
      ints: 1
      ints: 0
    }
  }
  node {
    input: "20"
    output: "1208"
    op_type: "expand"
    attribute {
      name: "size"
      ints: 5
      ints: 20
    }
  }
  node {
    input: "1196"
    input: "1206"
    input: "1208"
    output: "1209"
    op_type: "Gemm"
    attribute {
      name: "alpha"
      f: 1
    }
    attribute {
      name: "beta"
      f: 1
    }
  }
  node {
    input: "1205"
    input: "1209"
    output: "1210"
    op_type: "Add"
  }
  node {
    input: "1210"
    output: "1212"
    output: "1213"
    output: "1214"
    output: "1215"
    op_type: "Split"
    attribute {
      name: "axis"
      i: 1
    }
    attribute {
      name: "split"
      ints: 5
      ints: 5
      ints: 5
      ints: 5
    }
  }
  node {
    input: "1212"
    output: "1216"
    op_type: "Sigmoid"
  }
  node {
    input: "1213"
    output: "1217"
    op_type: "Sigmoid"
  }
  node {
    input: "1214"
    output: "1218"
    op_type: "Tanh"
  }
  node {
    input: "1215"
    output: "1219"
    op_type: "Sigmoid"
  }
  node {
    input: "1217"
    input: "1194"
    output: "1220"
    op_type: "Mul"
  }
  node {
    input: "1216"
    input: "1218"
    output: "1221"
    op_type: "Mul"
  }
  node {
    input: "1220"
    input: "1221"
    output: "1222"
    op_type: "Add"
  }
  node {
    input: "1222"
    output: "1223"
    op_type: "Tanh"
  }
  node {
    input: "1219"
    input: "1223"
    output: "1224"
    op_type: "Mul"
  }
  node {
    input: "972"
    input: "1000"
    input: "1028"
    input: "1056"
    input: "1084"
    input: "1112"
    input: "1140"
    input: "1168"
    input: "1196"
    input: "1224"
    output: "1226"
    op_type: "cat"
    attribute {
      name: "dim"
      i: 0
    }
  }
  node {
    input: "1226"
    output: "1227"
    op_type: "Reshape"
    attribute {
      name: "shape"
      ints: 10
      ints: 5
      ints: 5
    }
  }
  node {
    input: "1227"
    output: "1229"
    op_type: "cat"
    attribute {
      name: "dim"
      i: 2
    }
  }
  node {
    input: "1229"
    output: "1231"
    output: "1232"
    op_type: "Dropout"
    attribute {
      name: "ratio"
      f: 0.200000002980232
    }
    attribute {
      name: "is_test"
      i: 1
    }
  }
  node {
    output: "1233"
    op_type: "Constant"
    attribute {
      name: "value"
      t {
        dims: 1
        data_type: INT32
        raw_data: "\000\000\000\000"
      }
    }
  }
  node {
    output: "1234"
    op_type: "Constant"
    attribute {
      name: "value"
      t {
        dims: 1
        data_type: INT64
        raw_data: "\000\000\000\000\000\000\000\000"
      }
    }
  }
  node {
    output: "1235"
    op_type: "Constant"
    attribute {
      name: "value"
      t {
        dims: 1
        data_type: INT64
        raw_data: "\001\000\000\000\000\000\000\000"
      }
    }
  }
  node {
    input: "1231"
    input: "1233"
    input: "1234"
    input: "1235"
    output: "1236"
    op_type: "Slice"
  }
  node {
    input: "1236"
    output: "1237"
    op_type: "Squeeze"
    attribute {
      name: "axes"
      ints: 0
    }
  }
  node {
    input: "21"
    output: "1238"
    op_type: "Transpose"
    attribute {
      name: "perm"
      ints: 1
      ints: 0
    }
  }
  node {
    input: "23"
    output: "1240"
    op_type: "expand"
    attribute {
      name: "size"
      ints: 5
      ints: 20
    }
  }
  node {
    input: "1237"
    input: "1238"
    input: "1240"
    output: "1241"
    op_type: "Gemm"
    attribute {
      name: "alpha"
      f: 1
    }
    attribute {
      name: "beta"
      f: 1
    }
  }
  node {
    input: "22"
    output: "1242"
    op_type: "Transpose"
    attribute {
      name: "perm"
      ints: 1
      ints: 0
    }
  }
  node {
    input: "24"
    output: "1244"
    op_type: "expand"
    attribute {
      name: "size"
      ints: 5
      ints: 20
    }
  }
  node {
    input: "75"
    input: "1242"
    input: "1244"
    output: "1245"
    op_type: "Gemm"
    attribute {
      name: "alpha"
      f: 1
    }
    attribute {
      name: "beta"
      f: 1
    }
  }
  node {
    input: "1241"
    input: "1245"
    output: "1246"
    op_type: "Add"
  }
  node {
    input: "1246"
    output: "1248"
    output: "1249"
    output: "1250"
    output: "1251"
    op_type: "Split"
    attribute {
      name: "axis"
      i: 1
    }
    attribute {
      name: "split"
      ints: 5
      ints: 5
      ints: 5
      ints: 5
    }
  }
  node {
    input: "1248"
    output: "1252"
    op_type: "Sigmoid"
  }
  node {
    input: "1249"
    output: "1253"
    op_type: "Sigmoid"
  }
  node {
    input: "1250"
    output: "1254"
    op_type: "Tanh"
  }
  node {
    input: "1251"
    output: "1255"
    op_type: "Sigmoid"
  }
  node {
    input: "1253"
    input: "80"
    output: "1256"
    op_type: "Mul"
  }
  node {
    input: "1252"
    input: "1254"
    output: "1257"
    op_type: "Mul"
  }
  node {
    input: "1256"
    input: "1257"
    output: "1258"
    op_type: "Add"
  }
  node {
    input: "1258"
    output: "1259"
    op_type: "Tanh"
  }
  node {
    input: "1255"
    input: "1259"
    output: "1260"
    op_type: "Mul"
  }
  node {
    output: "1261"
    op_type: "Constant"
    attribute {
      name: "value"
      t {
        dims: 1
        data_type: INT32
        raw_data: "\000\000\000\000"
      }
    }
  }
  node {
    output: "1262"
    op_type: "Constant"
    attribute {
      name: "value"
      t {
        dims: 1
        data_type: INT64
        raw_data: "\001\000\000\000\000\000\000\000"
      }
    }
  }
  node {
    output: "1263"
    op_type: "Constant"
    attribute {
      name: "value"
      t {
        dims: 1
        data_type: INT64
        raw_data: "\002\000\000\000\000\000\000\000"
      }
    }
  }
  node {
    input: "1231"
    input: "1261"
    input: "1262"
    input: "1263"
    output: "1264"
    op_type: "Slice"
  }
  node {
    input: "1264"
    output: "1265"
    op_type: "Squeeze"
    attribute {
      name: "axes"
      ints: 0
    }
  }
  node {
    input: "21"
    output: "1266"
    op_type: "Transpose"
    attribute {
      name: "perm"
      ints: 1
      ints: 0
    }
  }
  node {
    input: "23"
    output: "1268"
    op_type: "expand"
    attribute {
      name: "size"
      ints: 5
      ints: 20
    }
  }
  node {
    input: "1265"
    input: "1266"
    input: "1268"
    output: "1269"
    op_type: "Gemm"
    attribute {
      name: "alpha"
      f: 1
    }
    attribute {
      name: "beta"
      f: 1
    }
  }
  node {
    input: "22"
    output: "1270"
    op_type: "Transpose"
    attribute {
      name: "perm"
      ints: 1
      ints: 0
    }
  }
  node {
    input: "24"
    output: "1272"
    op_type: "expand"
    attribute {
      name: "size"
      ints: 5
      ints: 20
    }
  }
  node {
    input: "1260"
    input: "1270"
    input: "1272"
    output: "1273"
    op_type: "Gemm"
    attribute {
      name: "alpha"
      f: 1
    }
    attribute {
      name: "beta"
      f: 1
    }
  }
  node {
    input: "1269"
    input: "1273"
    output: "1274"
    op_type: "Add"
  }
  node {
    input: "1274"
    output: "1276"
    output: "1277"
    output: "1278"
    output: "1279"
    op_type: "Split"
    attribute {
      name: "axis"
      i: 1
    }
    attribute {
      name: "split"
      ints: 5
      ints: 5
      ints: 5
      ints: 5
    }
  }
  node {
    input: "1276"
    output: "1280"
    op_type: "Sigmoid"
  }
  node {
    input: "1277"
    output: "1281"
    op_type: "Sigmoid"
  }
  node {
    input: "1278"
    output: "1282"
    op_type: "Tanh"
  }
  node {
    input: "1279"
    output: "1283"
    op_type: "Sigmoid"
  }
  node {
    input: "1281"
    input: "1258"
    output: "1284"
    op_type: "Mul"
  }
  node {
    input: "1280"
    input: "1282"
    output: "1285"
    op_type: "Mul"
  }
  node {
    input: "1284"
    input: "1285"
    output: "1286"
    op_type: "Add"
  }
  node {
    input: "1286"
    output: "1287"
    op_type: "Tanh"
  }
  node {
    input: "1283"
    input: "1287"
    output: "1288"
    op_type: "Mul"
  }
  node {
    output: "1289"
    op_type: "Constant"
    attribute {
      name: "value"
      t {
        dims: 1
        data_type: INT32
        raw_data: "\000\000\000\000"
      }
    }
  }
  node {
    output: "1290"
    op_type: "Constant"
    attribute {
      name: "value"
      t {
        dims: 1
        data_type: INT64
        raw_data: "\002\000\000\000\000\000\000\000"
      }
    }
  }
  node {
    output: "1291"
    op_type: "Constant"
    attribute {
      name: "value"
      t {
        dims: 1
        data_type: INT64
        raw_data: "\003\000\000\000\000\000\000\000"
      }
    }
  }
  node {
    input: "1231"
    input: "1289"
    input: "1290"
    input: "1291"
    output: "1292"
    op_type: "Slice"
  }
  node {
    input: "1292"
    output: "1293"
    op_type: "Squeeze"
    attribute {
      name: "axes"
      ints: 0
    }
  }
  node {
    input: "21"
    output: "1294"
    op_type: "Transpose"
    attribute {
      name: "perm"
      ints: 1
      ints: 0
    }
  }
  node {
    input: "23"
    output: "1296"
    op_type: "expand"
    attribute {
      name: "size"
      ints: 5
      ints: 20
    }
  }
  node {
    input: "1293"
    input: "1294"
    input: "1296"
    output: "1297"
    op_type: "Gemm"
    attribute {
      name: "alpha"
      f: 1
    }
    attribute {
      name: "beta"
      f: 1
    }
  }
  node {
    input: "22"
    output: "1298"
    op_type: "Transpose"
    attribute {
      name: "perm"
      ints: 1
      ints: 0
    }
  }
  node {
    input: "24"
    output: "1300"
    op_type: "expand"
    attribute {
      name: "size"
      ints: 5
      ints: 20
    }
  }
  node {
    input: "1288"
    input: "1298"
    input: "1300"
    output: "1301"
    op_type: "Gemm"
    attribute {
      name: "alpha"
      f: 1
    }
    attribute {
      name: "beta"
      f: 1
    }
  }
  node {
    input: "1297"
    input: "1301"
    output: "1302"
    op_type: "Add"
  }
  node {
    input: "1302"
    output: "1304"
    output: "1305"
    output: "1306"
    output: "1307"
    op_type: "Split"
    attribute {
      name: "axis"
      i: 1
    }
    attribute {
      name: "split"
      ints: 5
      ints: 5
      ints: 5
      ints: 5
    }
  }
  node {
    input: "1304"
    output: "1308"
    op_type: "Sigmoid"
  }
  node {
    input: "1305"
    output: "1309"
    op_type: "Sigmoid"
  }
  node {
    input: "1306"
    output: "1310"
    op_type: "Tanh"
  }
  node {
    input: "1307"
    output: "1311"
    op_type: "Sigmoid"
  }
  node {
    input: "1309"
    input: "1286"
    output: "1312"
    op_type: "Mul"
  }
  node {
    input: "1308"
    input: "1310"
    output: "1313"
    op_type: "Mul"
  }
  node {
    input: "1312"
    input: "1313"
    output: "1314"
    op_type: "Add"
  }
  node {
    input: "1314"
    output: "1315"
    op_type: "Tanh"
  }
  node {
    input: "1311"
    input: "1315"
    output: "1316"
    op_type: "Mul"
  }
  node {
    output: "1317"
    op_type: "Constant"
    attribute {
      name: "value"
      t {
        dims: 1
        data_type: INT32
        raw_data: "\000\000\000\000"
      }
    }
  }
  node {
    output: "1318"
    op_type: "Constant"
    attribute {
      name: "value"
      t {
        dims: 1
        data_type: INT64
        raw_data: "\003\000\000\000\000\000\000\000"
      }
    }
  }
  node {
    output: "1319"
    op_type: "Constant"
    attribute {
      name: "value"
      t {
        dims: 1
        data_type: INT64
        raw_data: "\004\000\000\000\000\000\000\000"
      }
    }
  }
  node {
    input: "1231"
    input: "1317"
    input: "1318"
    input: "1319"
    output: "1320"
    op_type: "Slice"
  }
  node {
    input: "1320"
    output: "1321"
    op_type: "Squeeze"
    attribute {
      name: "axes"
      ints: 0
    }
  }
  node {
    input: "21"
    output: "1322"
    op_type: "Transpose"
    attribute {
      name: "perm"
      ints: 1
      ints: 0
    }
  }
  node {
    input: "23"
    output: "1324"
    op_type: "expand"
    attribute {
      name: "size"
      ints: 5
      ints: 20
    }
  }
  node {
    input: "1321"
    input: "1322"
    input: "1324"
    output: "1325"
    op_type: "Gemm"
    attribute {
      name: "alpha"
      f: 1
    }
    attribute {
      name: "beta"
      f: 1
    }
  }
  node {
    input: "22"
    output: "1326"
    op_type: "Transpose"
    attribute {
      name: "perm"
      ints: 1
      ints: 0
    }
  }
  node {
    input: "24"
    output: "1328"
    op_type: "expand"
    attribute {
      name: "size"
      ints: 5
      ints: 20
    }
  }
  node {
    input: "1316"
    input: "1326"
    input: "1328"
    output: "1329"
    op_type: "Gemm"
    attribute {
      name: "alpha"
      f: 1
    }
    attribute {
      name: "beta"
      f: 1
    }
  }
  node {
    input: "1325"
    input: "1329"
    output: "1330"
    op_type: "Add"
  }
  node {
    input: "1330"
    output: "1332"
    output: "1333"
    output: "1334"
    output: "1335"
    op_type: "Split"
    attribute {
      name: "axis"
      i: 1
    }
    attribute {
      name: "split"
      ints: 5
      ints: 5
      ints: 5
      ints: 5
    }
  }
  node {
    input: "1332"
    output: "1336"
    op_type: "Sigmoid"
  }
  node {
    input: "1333"
    output: "1337"
    op_type: "Sigmoid"
  }
  node {
    input: "1334"
    output: "1338"
    op_type: "Tanh"
  }
  node {
    input: "1335"
    output: "1339"
    op_type: "Sigmoid"
  }
  node {
    input: "1337"
    input: "1314"
    output: "1340"
    op_type: "Mul"
  }
  node {
    input: "1336"
    input: "1338"
    output: "1341"
    op_type: "Mul"
  }
  node {
    input: "1340"
    input: "1341"
    output: "1342"
    op_type: "Add"
  }
  node {
    input: "1342"
    output: "1343"
    op_type: "Tanh"
  }
  node {
    input: "1339"
    input: "1343"
    output: "1344"
    op_type: "Mul"
  }
  node {
    output: "1345"
    op_type: "Constant"
    attribute {
      name: "value"
      t {
        dims: 1
        data_type: INT32
        raw_data: "\000\000\000\000"
      }
    }
  }
  node {
    output: "1346"
    op_type: "Constant"
    attribute {
      name: "value"
      t {
        dims: 1
        data_type: INT64
        raw_data: "\004\000\000\000\000\000\000\000"
      }
    }
  }
  node {
    output: "1347"
    op_type: "Constant"
    attribute {
      name: "value"
      t {
        dims: 1
        data_type: INT64
        raw_data: "\005\000\000\000\000\000\000\000"
      }
    }
  }
  node {
    input: "1231"
    input: "1345"
    input: "1346"
    input: "1347"
    output: "1348"
    op_type: "Slice"
  }
  node {
    input: "1348"
    output: "1349"
    op_type: "Squeeze"
    attribute {
      name: "axes"
      ints: 0
    }
  }
  node {
    input: "21"
    output: "1350"
    op_type: "Transpose"
    attribute {
      name: "perm"
      ints: 1
      ints: 0
    }
  }
  node {
    input: "23"
    output: "1352"
    op_type: "expand"
    attribute {
      name: "size"
      ints: 5
      ints: 20
    }
  }
  node {
    input: "1349"
    input: "1350"
    input: "1352"
    output: "1353"
    op_type: "Gemm"
    attribute {
      name: "alpha"
      f: 1
    }
    attribute {
      name: "beta"
      f: 1
    }
  }
  node {
    input: "22"
    output: "1354"
    op_type: "Transpose"
    attribute {
      name: "perm"
      ints: 1
      ints: 0
    }
  }
  node {
    input: "24"
    output: "1356"
    op_type: "expand"
    attribute {
      name: "size"
      ints: 5
      ints: 20
    }
  }
  node {
    input: "1344"
    input: "1354"
    input: "1356"
    output: "1357"
    op_type: "Gemm"
    attribute {
      name: "alpha"
      f: 1
    }
    attribute {
      name: "beta"
      f: 1
    }
  }
  node {
    input: "1353"
    input: "1357"
    output: "1358"
    op_type: "Add"
  }
  node {
    input: "1358"
    output: "1360"
    output: "1361"
    output: "1362"
    output: "1363"
    op_type: "Split"
    attribute {
      name: "axis"
      i: 1
    }
    attribute {
      name: "split"
      ints: 5
      ints: 5
      ints: 5
      ints: 5
    }
  }
  node {
    input: "1360"
    output: "1364"
    op_type: "Sigmoid"
  }
  node {
    input: "1361"
    output: "1365"
    op_type: "Sigmoid"
  }
  node {
    input: "1362"
    output: "1366"
    op_type: "Tanh"
  }
  node {
    input: "1363"
    output: "1367"
    op_type: "Sigmoid"
  }
  node {
    input: "1365"
    input: "1342"
    output: "1368"
    op_type: "Mul"
  }
  node {
    input: "1364"
    input: "1366"
    output: "1369"
    op_type: "Mul"
  }
  node {
    input: "1368"
    input: "1369"
    output: "1370"
    op_type: "Add"
  }
  node {
    input: "1370"
    output: "1371"
    op_type: "Tanh"
  }
  node {
    input: "1367"
    input: "1371"
    output: "1372"
    op_type: "Mul"
  }
  node {
    output: "1373"
    op_type: "Constant"
    attribute {
      name: "value"
      t {
        dims: 1
        data_type: INT32
        raw_data: "\000\000\000\000"
      }
    }
  }
  node {
    output: "1374"
    op_type: "Constant"
    attribute {
      name: "value"
      t {
        dims: 1
        data_type: INT64
        raw_data: "\005\000\000\000\000\000\000\000"
      }
    }
  }
  node {
    output: "1375"
    op_type: "Constant"
    attribute {
      name: "value"
      t {
        dims: 1
        data_type: INT64
        raw_data: "\006\000\000\000\000\000\000\000"
      }
    }
  }
  node {
    input: "1231"
    input: "1373"
    input: "1374"
    input: "1375"
    output: "1376"
    op_type: "Slice"
  }
  node {
    input: "1376"
    output: "1377"
    op_type: "Squeeze"
    attribute {
      name: "axes"
      ints: 0
    }
  }
  node {
    input: "21"
    output: "1378"
    op_type: "Transpose"
    attribute {
      name: "perm"
      ints: 1
      ints: 0
    }
  }
  node {
    input: "23"
    output: "1380"
    op_type: "expand"
    attribute {
      name: "size"
      ints: 5
      ints: 20
    }
  }
  node {
    input: "1377"
    input: "1378"
    input: "1380"
    output: "1381"
    op_type: "Gemm"
    attribute {
      name: "alpha"
      f: 1
    }
    attribute {
      name: "beta"
      f: 1
    }
  }
  node {
    input: "22"
    output: "1382"
    op_type: "Transpose"
    attribute {
      name: "perm"
      ints: 1
      ints: 0
    }
  }
  node {
    input: "24"
    output: "1384"
    op_type: "expand"
    attribute {
      name: "size"
      ints: 5
      ints: 20
    }
  }
  node {
    input: "1372"
    input: "1382"
    input: "1384"
    output: "1385"
    op_type: "Gemm"
    attribute {
      name: "alpha"
      f: 1
    }
    attribute {
      name: "beta"
      f: 1
    }
  }
  node {
    input: "1381"
    input: "1385"
    output: "1386"
    op_type: "Add"
  }
  node {
    input: "1386"
    output: "1388"
    output: "1389"
    output: "1390"
    output: "1391"
    op_type: "Split"
    attribute {
      name: "axis"
      i: 1
    }
    attribute {
      name: "split"
      ints: 5
      ints: 5
      ints: 5
      ints: 5
    }
  }
  node {
    input: "1388"
    output: "1392"
    op_type: "Sigmoid"
  }
  node {
    input: "1389"
    output: "1393"
    op_type: "Sigmoid"
  }
  node {
    input: "1390"
    output: "1394"
    op_type: "Tanh"
  }
  node {
    input: "1391"
    output: "1395"
    op_type: "Sigmoid"
  }
  node {
    input: "1393"
    input: "1370"
    output: "1396"
    op_type: "Mul"
  }
  node {
    input: "1392"
    input: "1394"
    output: "1397"
    op_type: "Mul"
  }
  node {
    input: "1396"
    input: "1397"
    output: "1398"
    op_type: "Add"
  }
  node {
    input: "1398"
    output: "1399"
    op_type: "Tanh"
  }
  node {
    input: "1395"
    input: "1399"
    output: "1400"
    op_type: "Mul"
  }
  node {
    output: "1401"
    op_type: "Constant"
    attribute {
      name: "value"
      t {
        dims: 1
        data_type: INT32
        raw_data: "\000\000\000\000"
      }
    }
  }
  node {
    output: "1402"
    op_type: "Constant"
    attribute {
      name: "value"
      t {
        dims: 1
        data_type: INT64
        raw_data: "\006\000\000\000\000\000\000\000"
      }
    }
  }
  node {
    output: "1403"
    op_type: "Constant"
    attribute {
      name: "value"
      t {
        dims: 1
        data_type: INT64
        raw_data: "\007\000\000\000\000\000\000\000"
      }
    }
  }
  node {
    input: "1231"
    input: "1401"
    input: "1402"
    input: "1403"
    output: "1404"
    op_type: "Slice"
  }
  node {
    input: "1404"
    output: "1405"
    op_type: "Squeeze"
    attribute {
      name: "axes"
      ints: 0
    }
  }
  node {
    input: "21"
    output: "1406"
    op_type: "Transpose"
    attribute {
      name: "perm"
      ints: 1
      ints: 0
    }
  }
  node {
    input: "23"
    output: "1408"
    op_type: "expand"
    attribute {
      name: "size"
      ints: 5
      ints: 20
    }
  }
  node {
    input: "1405"
    input: "1406"
    input: "1408"
    output: "1409"
    op_type: "Gemm"
    attribute {
      name: "alpha"
      f: 1
    }
    attribute {
      name: "beta"
      f: 1
    }
  }
  node {
    input: "22"
    output: "1410"
    op_type: "Transpose"
    attribute {
      name: "perm"
      ints: 1
      ints: 0
    }
  }
  node {
    input: "24"
    output: "1412"
    op_type: "expand"
    attribute {
      name: "size"
      ints: 5
      ints: 20
    }
  }
  node {
    input: "1400"
    input: "1410"
    input: "1412"
    output: "1413"
    op_type: "Gemm"
    attribute {
      name: "alpha"
      f: 1
    }
    attribute {
      name: "beta"
      f: 1
    }
  }
  node {
    input: "1409"
    input: "1413"
    output: "1414"
    op_type: "Add"
  }
  node {
    input: "1414"
    output: "1416"
    output: "1417"
    output: "1418"
    output: "1419"
    op_type: "Split"
    attribute {
      name: "axis"
      i: 1
    }
    attribute {
      name: "split"
      ints: 5
      ints: 5
      ints: 5
      ints: 5
    }
  }
  node {
    input: "1416"
    output: "1420"
    op_type: "Sigmoid"
  }
  node {
    input: "1417"
    output: "1421"
    op_type: "Sigmoid"
  }
  node {
    input: "1418"
    output: "1422"
    op_type: "Tanh"
  }
  node {
    input: "1419"
    output: "1423"
    op_type: "Sigmoid"
  }
  node {
    input: "1421"
    input: "1398"
    output: "1424"
    op_type: "Mul"
  }
  node {
    input: "1420"
    input: "1422"
    output: "1425"
    op_type: "Mul"
  }
  node {
    input: "1424"
    input: "1425"
    output: "1426"
    op_type: "Add"
  }
  node {
    input: "1426"
    output: "1427"
    op_type: "Tanh"
  }
  node {
    input: "1423"
    input: "1427"
    output: "1428"
    op_type: "Mul"
  }
  node {
    output: "1429"
    op_type: "Constant"
    attribute {
      name: "value"
      t {
        dims: 1
        data_type: INT32
        raw_data: "\000\000\000\000"
      }
    }
  }
  node {
    output: "1430"
    op_type: "Constant"
    attribute {
      name: "value"
      t {
        dims: 1
        data_type: INT64
        raw_data: "\007\000\000\000\000\000\000\000"
      }
    }
  }
  node {
    output: "1431"
    op_type: "Constant"
    attribute {
      name: "value"
      t {
        dims: 1
        data_type: INT64
        raw_data: "\010\000\000\000\000\000\000\000"
      }
    }
  }
  node {
    input: "1231"
    input: "1429"
    input: "1430"
    input: "1431"
    output: "1432"
    op_type: "Slice"
  }
  node {
    input: "1432"
    output: "1433"
    op_type: "Squeeze"
    attribute {
      name: "axes"
      ints: 0
    }
  }
  node {
    input: "21"
    output: "1434"
    op_type: "Transpose"
    attribute {
      name: "perm"
      ints: 1
      ints: 0
    }
  }
  node {
    input: "23"
    output: "1436"
    op_type: "expand"
    attribute {
      name: "size"
      ints: 5
      ints: 20
    }
  }
  node {
    input: "1433"
    input: "1434"
    input: "1436"
    output: "1437"
    op_type: "Gemm"
    attribute {
      name: "alpha"
      f: 1
    }
    attribute {
      name: "beta"
      f: 1
    }
  }
  node {
    input: "22"
    output: "1438"
    op_type: "Transpose"
    attribute {
      name: "perm"
      ints: 1
      ints: 0
    }
  }
  node {
    input: "24"
    output: "1440"
    op_type: "expand"
    attribute {
      name: "size"
      ints: 5
      ints: 20
    }
  }
  node {
    input: "1428"
    input: "1438"
    input: "1440"
    output: "1441"
    op_type: "Gemm"
    attribute {
      name: "alpha"
      f: 1
    }
    attribute {
      name: "beta"
      f: 1
    }
  }
  node {
    input: "1437"
    input: "1441"
    output: "1442"
    op_type: "Add"
  }
  node {
    input: "1442"
    output: "1444"
    output: "1445"
    output: "1446"
    output: "1447"
    op_type: "Split"
    attribute {
      name: "axis"
      i: 1
    }
    attribute {
      name: "split"
      ints: 5
      ints: 5
      ints: 5
      ints: 5
    }
  }
  node {
    input: "1444"
    output: "1448"
    op_type: "Sigmoid"
  }
  node {
    input: "1445"
    output: "1449"
    op_type: "Sigmoid"
  }
  node {
    input: "1446"
    output: "1450"
    op_type: "Tanh"
  }
  node {
    input: "1447"
    output: "1451"
    op_type: "Sigmoid"
  }
  node {
    input: "1449"
    input: "1426"
    output: "1452"
    op_type: "Mul"
  }
  node {
    input: "1448"
    input: "1450"
    output: "1453"
    op_type: "Mul"
  }
  node {
    input: "1452"
    input: "1453"
    output: "1454"
    op_type: "Add"
  }
  node {
    input: "1454"
    output: "1455"
    op_type: "Tanh"
  }
  node {
    input: "1451"
    input: "1455"
    output: "1456"
    op_type: "Mul"
  }
  node {
    output: "1457"
    op_type: "Constant"
    attribute {
      name: "value"
      t {
        dims: 1
        data_type: INT32
        raw_data: "\000\000\000\000"
      }
    }
  }
  node {
    output: "1458"
    op_type: "Constant"
    attribute {
      name: "value"
      t {
        dims: 1
        data_type: INT64
        raw_data: "\010\000\000\000\000\000\000\000"
      }
    }
  }
  node {
    output: "1459"
    op_type: "Constant"
    attribute {
      name: "value"
      t {
        dims: 1
        data_type: INT64
        raw_data: "\t\000\000\000\000\000\000\000"
      }
    }
  }
  node {
    input: "1231"
    input: "1457"
    input: "1458"
    input: "1459"
    output: "1460"
    op_type: "Slice"
  }
  node {
    input: "1460"
    output: "1461"
    op_type: "Squeeze"
    attribute {
      name: "axes"
      ints: 0
    }
  }
  node {
    input: "21"
    output: "1462"
    op_type: "Transpose"
    attribute {
      name: "perm"
      ints: 1
      ints: 0
    }
  }
  node {
    input: "23"
    output: "1464"
    op_type: "expand"
    attribute {
      name: "size"
      ints: 5
      ints: 20
    }
  }
  node {
    input: "1461"
    input: "1462"
    input: "1464"
    output: "1465"
    op_type: "Gemm"
    attribute {
      name: "alpha"
      f: 1
    }
    attribute {
      name: "beta"
      f: 1
    }
  }
  node {
    input: "22"
    output: "1466"
    op_type: "Transpose"
    attribute {
      name: "perm"
      ints: 1
      ints: 0
    }
  }
  node {
    input: "24"
    output: "1468"
    op_type: "expand"
    attribute {
      name: "size"
      ints: 5
      ints: 20
    }
  }
  node {
    input: "1456"
    input: "1466"
    input: "1468"
    output: "1469"
    op_type: "Gemm"
    attribute {
      name: "alpha"
      f: 1
    }
    attribute {
      name: "beta"
      f: 1
    }
  }
  node {
    input: "1465"
    input: "1469"
    output: "1470"
    op_type: "Add"
  }
  node {
    input: "1470"
    output: "1472"
    output: "1473"
    output: "1474"
    output: "1475"
    op_type: "Split"
    attribute {
      name: "axis"
      i: 1
    }
    attribute {
      name: "split"
      ints: 5
      ints: 5
      ints: 5
      ints: 5
    }
  }
  node {
    input: "1472"
    output: "1476"
    op_type: "Sigmoid"
  }
  node {
    input: "1473"
    output: "1477"
    op_type: "Sigmoid"
  }
  node {
    input: "1474"
    output: "1478"
    op_type: "Tanh"
  }
  node {
    input: "1475"
    output: "1479"
    op_type: "Sigmoid"
  }
  node {
    input: "1477"
    input: "1454"
    output: "1480"
    op_type: "Mul"
  }
  node {
    input: "1476"
    input: "1478"
    output: "1481"
    op_type: "Mul"
  }
  node {
    input: "1480"
    input: "1481"
    output: "1482"
    op_type: "Add"
  }
  node {
    input: "1482"
    output: "1483"
    op_type: "Tanh"
  }
  node {
    input: "1479"
    input: "1483"
    output: "1484"
    op_type: "Mul"
  }
  node {
    output: "1485"
    op_type: "Constant"
    attribute {
      name: "value"
      t {
        dims: 1
        data_type: INT32
        raw_data: "\000\000\000\000"
      }
    }
  }
  node {
    output: "1486"
    op_type: "Constant"
    attribute {
      name: "value"
      t {
        dims: 1
        data_type: INT64
        raw_data: "\t\000\000\000\000\000\000\000"
      }
    }
  }
  node {
    output: "1487"
    op_type: "Constant"
    attribute {
      name: "value"
      t {
        dims: 1
        data_type: INT64
        raw_data: "\n\000\000\000\000\000\000\000"
      }
    }
  }
  node {
    input: "1231"
    input: "1485"
    input: "1486"
    input: "1487"
    output: "1488"
    op_type: "Slice"
  }
  node {
    input: "1488"
    output: "1489"
    op_type: "Squeeze"
    attribute {
      name: "axes"
      ints: 0
    }
  }
  node {
    input: "21"
    output: "1490"
    op_type: "Transpose"
    attribute {
      name: "perm"
      ints: 1
      ints: 0
    }
  }
  node {
    input: "23"
    output: "1492"
    op_type: "expand"
    attribute {
      name: "size"
      ints: 5
      ints: 20
    }
  }
  node {
    input: "1489"
    input: "1490"
    input: "1492"
    output: "1493"
    op_type: "Gemm"
    attribute {
      name: "alpha"
      f: 1
    }
    attribute {
      name: "beta"
      f: 1
    }
  }
  node {
    input: "22"
    output: "1494"
    op_type: "Transpose"
    attribute {
      name: "perm"
      ints: 1
      ints: 0
    }
  }
  node {
    input: "24"
    output: "1496"
    op_type: "expand"
    attribute {
      name: "size"
      ints: 5
      ints: 20
    }
  }
  node {
    input: "1484"
    input: "1494"
    input: "1496"
    output: "1497"
    op_type: "Gemm"
    attribute {
      name: "alpha"
      f: 1
    }
    attribute {
      name: "beta"
      f: 1
    }
  }
  node {
    input: "1493"
    input: "1497"
    output: "1498"
    op_type: "Add"
  }
  node {
    input: "1498"
    output: "1500"
    output: "1501"
    output: "1502"
    output: "1503"
    op_type: "Split"
    attribute {
      name: "axis"
      i: 1
    }
    attribute {
      name: "split"
      ints: 5
      ints: 5
      ints: 5
      ints: 5
    }
  }
  node {
    input: "1500"
    output: "1504"
    op_type: "Sigmoid"
  }
  node {
    input: "1501"
    output: "1505"
    op_type: "Sigmoid"
  }
  node {
    input: "1502"
    output: "1506"
    op_type: "Tanh"
  }
  node {
    input: "1503"
    output: "1507"
    op_type: "Sigmoid"
  }
  node {
    input: "1505"
    input: "1482"
    output: "1508"
    op_type: "Mul"
  }
  node {
    input: "1504"
    input: "1506"
    output: "1509"
    op_type: "Mul"
  }
  node {
    input: "1508"
    input: "1509"
    output: "1510"
    op_type: "Add"
  }
  node {
    input: "1510"
    output: "1511"
    op_type: "Tanh"
  }
  node {
    input: "1507"
    input: "1511"
    output: "1512"
    op_type: "Mul"
  }
  node {
    input: "1260"
    input: "1288"
    input: "1316"
    input: "1344"
    input: "1372"
    input: "1400"
    input: "1428"
    input: "1456"
    input: "1484"
    input: "1512"
    output: "1514"
    op_type: "cat"
    attribute {
      name: "dim"
      i: 0
    }
  }
  node {
    input: "1514"
    output: "1515"
    op_type: "Reshape"
    attribute {
      name: "shape"
      ints: 10
      ints: 5
      ints: 5
    }
  }
  node {
    input: "1515"
    output: "1517"
    op_type: "cat"
    attribute {
      name: "dim"
      i: 2
    }
  }
  node {
    input: "360"
    input: "648"
    input: "936"
    input: "1224"
    input: "1512"
    output: "1519"
    op_type: "cat"
    attribute {
      name: "dim"
      i: 0
    }
  }
  node {
    input: "1519"
    output: "1520"
    op_type: "Reshape"
    attribute {
      name: "shape"
      ints: 5
      ints: 5
      ints: 5
    }
  }
  node {
    input: "358"
    input: "646"
    input: "934"
    input: "1222"
    input: "1510"
    output: "1522"
    op_type: "cat"
    attribute {
      name: "dim"
      i: 0
    }
  }
  node {
    input: "1522"
    output: "1523"
    op_type: "Reshape"
    attribute {
      name: "shape"
      ints: 5
      ints: 5
      ints: 5
    }
  }
  node {
    input: "1517"
    output: "1525"
    output: "1526"
    op_type: "Dropout"
    attribute {
      name: "ratio"
      f: 0.200000002980232
    }
    attribute {
      name: "is_test"
      i: 1
    }
  }
  node {
    input: "1525"
    output: "1527"
    op_type: "Reshape"
    attribute {
      name: "shape"
      ints: 50
      ints: 5
    }
  }
  node {
    input: "25"
    output: "1528"
    op_type: "Transpose"
    attribute {
      name: "perm"
      ints: 1
      ints: 0
    }
  }
  node {
    input: "26"
    output: "1530"
    op_type: "expand"
    attribute {
      name: "size"
      ints: 50
      ints: 10
    }
  }
  node {
    input: "1527"
    input: "1528"
    input: "1530"
    output: "1531"
    op_type: "Gemm"
    attribute {
      name: "alpha"
      f: 1
    }
    attribute {
      name: "beta"
      f: 1
    }
  }
  node {
    input: "1531"
    output: "1532"
    op_type: "Reshape"
    attribute {
      name: "shape"
      ints: 10
      ints: 5
      ints: 10
    }
  }
  name: "torch-jit-export"
  input {
    name: "1"
    type {
      tensor_type {
        elem_type: INT64
        shape {
          dim {
            dim_value: 10
          }
          dim {
            dim_value: 5
          }
        }
      }
    }
  }
  input {
    name: "2"
    type {
      tensor_type {
        elem_type: FLOAT
        shape {
          dim {
            dim_value: 5
          }
          dim {
            dim_value: 5
          }
          dim {
            dim_value: 5
          }
        }
      }
    }
  }
  input {
    name: "3"
    type {
      tensor_type {
        elem_type: FLOAT
        shape {
          dim {
            dim_value: 5
          }
          dim {
            dim_value: 5
          }
          dim {
            dim_value: 5
          }
        }
      }
    }
  }
  input {
    name: "4"
    type {
      tensor_type {
        elem_type: FLOAT
        shape {
          dim {
            dim_value: 10
          }
          dim {
            dim_value: 5
          }
        }
      }
    }
  }
  input {
    name: "5"
    type {
      tensor_type {
        elem_type: FLOAT
        shape {
          dim {
            dim_value: 20
          }
          dim {
            dim_value: 5
          }
        }
      }
    }
  }
  input {
    name: "6"
    type {
      tensor_type {
        elem_type: FLOAT
        shape {
          dim {
            dim_value: 20
          }
          dim {
            dim_value: 5
          }
        }
      }
    }
  }
  input {
    name: "7"
    type {
      tensor_type {
        elem_type: FLOAT
        shape {
          dim {
            dim_value: 20
          }
        }
      }
    }
  }
  input {
    name: "8"
    type {
      tensor_type {
        elem_type: FLOAT
        shape {
          dim {
            dim_value: 20
          }
        }
      }
    }
  }
  input {
    name: "9"
    type {
      tensor_type {
        elem_type: FLOAT
        shape {
          dim {
            dim_value: 20
          }
          dim {
            dim_value: 5
          }
        }
      }
    }
  }
  input {
    name: "10"
    type {
      tensor_type {
        elem_type: FLOAT
        shape {
          dim {
            dim_value: 20
          }
          dim {
            dim_value: 5
          }
        }
      }
    }
  }
  input {
    name: "11"
    type {
      tensor_type {
        elem_type: FLOAT
        shape {
          dim {
            dim_value: 20
          }
        }
      }
    }
  }
  input {
    name: "12"
    type {
      tensor_type {
        elem_type: FLOAT
        shape {
          dim {
            dim_value: 20
          }
        }
      }
    }
  }
  input {
    name: "13"
    type {
      tensor_type {
        elem_type: FLOAT
        shape {
          dim {
            dim_value: 20
          }
          dim {
            dim_value: 5
          }
        }
      }
    }
  }
  input {
    name: "14"
    type {
      tensor_type {
        elem_type: FLOAT
        shape {
          dim {
            dim_value: 20
          }
          dim {
            dim_value: 5
          }
        }
      }
    }
  }
  input {
    name: "15"
    type {
      tensor_type {
        elem_type: FLOAT
        shape {
          dim {
            dim_value: 20
          }
        }
      }
    }
  }
  input {
    name: "16"
    type {
      tensor_type {
        elem_type: FLOAT
        shape {
          dim {
            dim_value: 20
          }
        }
      }
    }
  }
  input {
    name: "17"
    type {
      tensor_type {
        elem_type: FLOAT
        shape {
          dim {
            dim_value: 20
          }
          dim {
            dim_value: 5
          }
        }
      }
    }
  }
  input {
    name: "18"
    type {
      tensor_type {
        elem_type: FLOAT
        shape {
          dim {
            dim_value: 20
          }
          dim {
            dim_value: 5
          }
        }
      }
    }
  }
  input {
    name: "19"
    type {
      tensor_type {
        elem_type: FLOAT
        shape {
          dim {
            dim_value: 20
          }
        }
      }
    }
  }
  input {
    name: "20"
    type {
      tensor_type {
        elem_type: FLOAT
        shape {
          dim {
            dim_value: 20
          }
        }
      }
    }
  }
  input {
    name: "21"
    type {
      tensor_type {
        elem_type: FLOAT
        shape {
          dim {
            dim_value: 20
          }
          dim {
            dim_value: 5
          }
        }
      }
    }
  }
  input {
    name: "22"
    type {
      tensor_type {
        elem_type: FLOAT
        shape {
          dim {
            dim_value: 20
          }
          dim {
            dim_value: 5
          }
        }
      }
    }
  }
  input {
    name: "23"
    type {
      tensor_type {
        elem_type: FLOAT
        shape {
          dim {
            dim_value: 20
          }
        }
      }
    }
  }
  input {
    name: "24"
    type {
      tensor_type {
        elem_type: FLOAT
        shape {
          dim {
            dim_value: 20
          }
        }
      }
    }
  }
  input {
    name: "25"
    type {
      tensor_type {
        elem_type: FLOAT
        shape {
          dim {
            dim_value: 10
          }
          dim {
            dim_value: 5
          }
        }
      }
    }
  }
  input {
    name: "26"
    type {
      tensor_type {
        elem_type: FLOAT
        shape {
          dim {
            dim_value: 10
          }
        }
      }
    }
  }
  output {
    name: "1532"
    type {
      tensor_type {
        elem_type: FLOAT
        shape {
          dim {
            dim_value: 10
          }
          dim {
            dim_value: 5
          }
          dim {
            dim_value: 10
          }
        }
      }
    }
  }
}
