ir_version: 1
producer_name: "pytorch"
producer_version: "0.2"
domain: "com.facebook"
graph {
  node {
    input: "1"
    output: "6"
    op_type: "LeakyRelu"
    attribute {
      name: "alpha"
      f: 0.0199999995529652
    }
  }
  node {
    input: "6"
    input: "2"
    input: "3"
    input: "4"
    input: "5"
    output: "8"
    op_type: "SpatialBN"
    attribute {
      name: "is_test"
      i: 1
    }
    attribute {
      name: "epsilon"
      f: 9.99999974737875e-06
    }
    attribute {
      name: "momentum"
      f: 0.899999976158142
    }
    attribute {
      name: "consumed_inputs"
      ints: 0
      ints: 0
      ints: 0
      ints: 1
      ints: 1
    }
  }
  node {
    input: "8"
    output: "9"
    op_type: "AveragePool"
    attribute {
      name: "kernel_shape"
      ints: 3
      ints: 3
    }
    attribute {
      name: "pads"
      ints: 1
      ints: 1
    }
    attribute {
      name: "strides"
      ints: 2
      ints: 2
    }
  }
  node {
    input: "9"
    output: "10"
    op_type: "Reshape"
    attribute {
      name: "shape"
      ints: -1
      ints: 1
    }
  }
  node {
    input: "10"
    output: "11"
    op_type: "Squeeze"
    attribute {
      name: "axes"
      ints: 1
    }
  }
  name: "torch-jit-export"
  input {
    name: "1"
    type {
      tensor_type {
        elem_type: FLOAT
        shape {
          dim {
            dim_value: 2
          }
          dim {
            dim_value: 3
          }
          dim {
            dim_value: 224
          }
          dim {
            dim_value: 224
          }
        }
      }
    }
  }
  input {
    name: "2"
    type {
      tensor_type {
        elem_type: FLOAT
        shape {
          dim {
            dim_value: 3
          }
        }
      }
    }
  }
  input {
    name: "3"
    type {
      tensor_type {
        elem_type: FLOAT
        shape {
          dim {
            dim_value: 3
          }
        }
      }
    }
  }
  input {
    name: "4"
    type {
      tensor_type {
        elem_type: FLOAT
        shape {
          dim {
            dim_value: 3
          }
        }
      }
    }
  }
  input {
    name: "5"
    type {
      tensor_type {
        elem_type: FLOAT
        shape {
          dim {
            dim_value: 3
          }
        }
      }
    }
  }
  output {
    name: "1"
    type {
      tensor_type {
        elem_type: FLOAT
        shape {
          dim {
            dim_value: 2
          }
          dim {
            dim_value: 3
          }
          dim {
            dim_value: 224
          }
          dim {
            dim_value: 224
          }
        }
      }
    }
  }
}
