graph torch-jit-export (
  %0[FLOAT, 2x3x224x224]
  %1[FLOAT, 64x3x7x7]
  %2[FLOAT, 64]
  %3[FLOAT, 64]
  %4[FLOAT, 64]
  %5[FLOAT, 64]
  %6[FLOAT, 64]
  %7[FLOAT, 64]
  %8[FLOAT, 64]
  %9[FLOAT, 64]
  %10[FLOAT, 128x64x1x1]
  %11[FLOAT, 128]
  %12[FLOAT, 128]
  %13[FLOAT, 128]
  %14[FLOAT, 128]
  %15[FLOAT, 32x128x3x3]
  %16[FLOAT, 96]
  %17[FLOAT, 96]
  %18[FLOAT, 96]
  %19[FLOAT, 96]
  %20[FLOAT, 128x96x1x1]
  %21[FLOAT, 128]
  %22[FLOAT, 128]
  %23[FLOAT, 128]
  %24[FLOAT, 128]
  %25[FLOAT, 32x128x3x3]
  %26[FLOAT, 128]
  %27[FLOAT, 128]
  %28[FLOAT, 128]
  %29[FLOAT, 128]
  %30[FLOAT, 128x128x1x1]
  %31[FLOAT, 128]
  %32[FLOAT, 128]
  %33[FLOAT, 128]
  %34[FLOAT, 128]
  %35[FLOAT, 32x128x3x3]
  %36[FLOAT, 160]
  %37[FLOAT, 160]
  %38[FLOAT, 160]
  %39[FLOAT, 160]
  %40[FLOAT, 128x160x1x1]
  %41[FLOAT, 128]
  %42[FLOAT, 128]
  %43[FLOAT, 128]
  %44[FLOAT, 128]
  %45[FLOAT, 32x128x3x3]
  %46[FLOAT, 192]
  %47[FLOAT, 192]
  %48[FLOAT, 192]
  %49[FLOAT, 192]
  %50[FLOAT, 128x192x1x1]
  %51[FLOAT, 128]
  %52[FLOAT, 128]
  %53[FLOAT, 128]
  %54[FLOAT, 128]
  %55[FLOAT, 32x128x3x3]
  %56[FLOAT, 224]
  %57[FLOAT, 224]
  %58[FLOAT, 224]
  %59[FLOAT, 224]
  %60[FLOAT, 128x224x1x1]
  %61[FLOAT, 128]
  %62[FLOAT, 128]
  %63[FLOAT, 128]
  %64[FLOAT, 128]
  %65[FLOAT, 32x128x3x3]
  %66[FLOAT, 256]
  %67[FLOAT, 256]
  %68[FLOAT, 256]
  %69[FLOAT, 256]
  %70[FLOAT, 128x256x1x1]
  %71[FLOAT, 128]
  %72[FLOAT, 128]
  %73[FLOAT, 128]
  %74[FLOAT, 128]
  %75[FLOAT, 128x128x1x1]
  %76[FLOAT, 128]
  %77[FLOAT, 128]
  %78[FLOAT, 128]
  %79[FLOAT, 128]
  %80[FLOAT, 32x128x3x3]
  %81[FLOAT, 160]
  %82[FLOAT, 160]
  %83[FLOAT, 160]
  %84[FLOAT, 160]
  %85[FLOAT, 128x160x1x1]
  %86[FLOAT, 128]
  %87[FLOAT, 128]
  %88[FLOAT, 128]
  %89[FLOAT, 128]
  %90[FLOAT, 32x128x3x3]
  %91[FLOAT, 192]
  %92[FLOAT, 192]
  %93[FLOAT, 192]
  %94[FLOAT, 192]
  %95[FLOAT, 128x192x1x1]
  %96[FLOAT, 128]
  %97[FLOAT, 128]
  %98[FLOAT, 128]
  %99[FLOAT, 128]
  %100[FLOAT, 32x128x3x3]
  %101[FLOAT, 224]
  %102[FLOAT, 224]
  %103[FLOAT, 224]
  %104[FLOAT, 224]
  %105[FLOAT, 128x224x1x1]
  %106[FLOAT, 128]
  %107[FLOAT, 128]
  %108[FLOAT, 128]
  %109[FLOAT, 128]
  %110[FLOAT, 32x128x3x3]
  %111[FLOAT, 256]
  %112[FLOAT, 256]
  %113[FLOAT, 256]
  %114[FLOAT, 256]
  %115[FLOAT, 128x256x1x1]
  %116[FLOAT, 128]
  %117[FLOAT, 128]
  %118[FLOAT, 128]
  %119[FLOAT, 128]
  %120[FLOAT, 32x128x3x3]
  %121[FLOAT, 288]
  %122[FLOAT, 288]
  %123[FLOAT, 288]
  %124[FLOAT, 288]
  %125[FLOAT, 128x288x1x1]
  %126[FLOAT, 128]
  %127[FLOAT, 128]
  %128[FLOAT, 128]
  %129[FLOAT, 128]
  %130[FLOAT, 32x128x3x3]
  %131[FLOAT, 320]
  %132[FLOAT, 320]
  %133[FLOAT, 320]
  %134[FLOAT, 320]
  %135[FLOAT, 128x320x1x1]
  %136[FLOAT, 128]
  %137[FLOAT, 128]
  %138[FLOAT, 128]
  %139[FLOAT, 128]
  %140[FLOAT, 32x128x3x3]
  %141[FLOAT, 352]
  %142[FLOAT, 352]
  %143[FLOAT, 352]
  %144[FLOAT, 352]
  %145[FLOAT, 128x352x1x1]
  %146[FLOAT, 128]
  %147[FLOAT, 128]
  %148[FLOAT, 128]
  %149[FLOAT, 128]
  %150[FLOAT, 32x128x3x3]
  %151[FLOAT, 384]
  %152[FLOAT, 384]
  %153[FLOAT, 384]
  %154[FLOAT, 384]
  %155[FLOAT, 128x384x1x1]
  %156[FLOAT, 128]
  %157[FLOAT, 128]
  %158[FLOAT, 128]
  %159[FLOAT, 128]
  %160[FLOAT, 32x128x3x3]
  %161[FLOAT, 416]
  %162[FLOAT, 416]
  %163[FLOAT, 416]
  %164[FLOAT, 416]
  %165[FLOAT, 128x416x1x1]
  %166[FLOAT, 128]
  %167[FLOAT, 128]
  %168[FLOAT, 128]
  %169[FLOAT, 128]
  %170[FLOAT, 32x128x3x3]
  %171[FLOAT, 448]
  %172[FLOAT, 448]
  %173[FLOAT, 448]
  %174[FLOAT, 448]
  %175[FLOAT, 128x448x1x1]
  %176[FLOAT, 128]
  %177[FLOAT, 128]
  %178[FLOAT, 128]
  %179[FLOAT, 128]
  %180[FLOAT, 32x128x3x3]
  %181[FLOAT, 480]
  %182[FLOAT, 480]
  %183[FLOAT, 480]
  %184[FLOAT, 480]
  %185[FLOAT, 128x480x1x1]
  %186[FLOAT, 128]
  %187[FLOAT, 128]
  %188[FLOAT, 128]
  %189[FLOAT, 128]
  %190[FLOAT, 32x128x3x3]
  %191[FLOAT, 512]
  %192[FLOAT, 512]
  %193[FLOAT, 512]
  %194[FLOAT, 512]
  %195[FLOAT, 256x512x1x1]
  %196[FLOAT, 256]
  %197[FLOAT, 256]
  %198[FLOAT, 256]
  %199[FLOAT, 256]
  %200[FLOAT, 128x256x1x1]
  %201[FLOAT, 128]
  %202[FLOAT, 128]
  %203[FLOAT, 128]
  %204[FLOAT, 128]
  %205[FLOAT, 32x128x3x3]
  %206[FLOAT, 288]
  %207[FLOAT, 288]
  %208[FLOAT, 288]
  %209[FLOAT, 288]
  %210[FLOAT, 128x288x1x1]
  %211[FLOAT, 128]
  %212[FLOAT, 128]
  %213[FLOAT, 128]
  %214[FLOAT, 128]
  %215[FLOAT, 32x128x3x3]
  %216[FLOAT, 320]
  %217[FLOAT, 320]
  %218[FLOAT, 320]
  %219[FLOAT, 320]
  %220[FLOAT, 128x320x1x1]
  %221[FLOAT, 128]
  %222[FLOAT, 128]
  %223[FLOAT, 128]
  %224[FLOAT, 128]
  %225[FLOAT, 32x128x3x3]
  %226[FLOAT, 352]
  %227[FLOAT, 352]
  %228[FLOAT, 352]
  %229[FLOAT, 352]
  %230[FLOAT, 128x352x1x1]
  %231[FLOAT, 128]
  %232[FLOAT, 128]
  %233[FLOAT, 128]
  %234[FLOAT, 128]
  %235[FLOAT, 32x128x3x3]
  %236[FLOAT, 384]
  %237[FLOAT, 384]
  %238[FLOAT, 384]
  %239[FLOAT, 384]
  %240[FLOAT, 128x384x1x1]
  %241[FLOAT, 128]
  %242[FLOAT, 128]
  %243[FLOAT, 128]
  %244[FLOAT, 128]
  %245[FLOAT, 32x128x3x3]
  %246[FLOAT, 416]
  %247[FLOAT, 416]
  %248[FLOAT, 416]
  %249[FLOAT, 416]
  %250[FLOAT, 128x416x1x1]
  %251[FLOAT, 128]
  %252[FLOAT, 128]
  %253[FLOAT, 128]
  %254[FLOAT, 128]
  %255[FLOAT, 32x128x3x3]
  %256[FLOAT, 448]
  %257[FLOAT, 448]
  %258[FLOAT, 448]
  %259[FLOAT, 448]
  %260[FLOAT, 128x448x1x1]
  %261[FLOAT, 128]
  %262[FLOAT, 128]
  %263[FLOAT, 128]
  %264[FLOAT, 128]
  %265[FLOAT, 32x128x3x3]
  %266[FLOAT, 480]
  %267[FLOAT, 480]
  %268[FLOAT, 480]
  %269[FLOAT, 480]
  %270[FLOAT, 128x480x1x1]
  %271[FLOAT, 128]
  %272[FLOAT, 128]
  %273[FLOAT, 128]
  %274[FLOAT, 128]
  %275[FLOAT, 32x128x3x3]
  %276[FLOAT, 512]
  %277[FLOAT, 512]
  %278[FLOAT, 512]
  %279[FLOAT, 512]
  %280[FLOAT, 128x512x1x1]
  %281[FLOAT, 128]
  %282[FLOAT, 128]
  %283[FLOAT, 128]
  %284[FLOAT, 128]
  %285[FLOAT, 32x128x3x3]
  %286[FLOAT, 544]
  %287[FLOAT, 544]
  %288[FLOAT, 544]
  %289[FLOAT, 544]
  %290[FLOAT, 128x544x1x1]
  %291[FLOAT, 128]
  %292[FLOAT, 128]
  %293[FLOAT, 128]
  %294[FLOAT, 128]
  %295[FLOAT, 32x128x3x3]
  %296[FLOAT, 576]
  %297[FLOAT, 576]
  %298[FLOAT, 576]
  %299[FLOAT, 576]
  %300[FLOAT, 128x576x1x1]
  %301[FLOAT, 128]
  %302[FLOAT, 128]
  %303[FLOAT, 128]
  %304[FLOAT, 128]
  %305[FLOAT, 32x128x3x3]
  %306[FLOAT, 608]
  %307[FLOAT, 608]
  %308[FLOAT, 608]
  %309[FLOAT, 608]
  %310[FLOAT, 128x608x1x1]
  %311[FLOAT, 128]
  %312[FLOAT, 128]
  %313[FLOAT, 128]
  %314[FLOAT, 128]
  %315[FLOAT, 32x128x3x3]
  %316[FLOAT, 640]
  %317[FLOAT, 640]
  %318[FLOAT, 640]
  %319[FLOAT, 640]
  %320[FLOAT, 128x640x1x1]
  %321[FLOAT, 128]
  %322[FLOAT, 128]
  %323[FLOAT, 128]
  %324[FLOAT, 128]
  %325[FLOAT, 32x128x3x3]
  %326[FLOAT, 672]
  %327[FLOAT, 672]
  %328[FLOAT, 672]
  %329[FLOAT, 672]
  %330[FLOAT, 128x672x1x1]
  %331[FLOAT, 128]
  %332[FLOAT, 128]
  %333[FLOAT, 128]
  %334[FLOAT, 128]
  %335[FLOAT, 32x128x3x3]
  %336[FLOAT, 704]
  %337[FLOAT, 704]
  %338[FLOAT, 704]
  %339[FLOAT, 704]
  %340[FLOAT, 128x704x1x1]
  %341[FLOAT, 128]
  %342[FLOAT, 128]
  %343[FLOAT, 128]
  %344[FLOAT, 128]
  %345[FLOAT, 32x128x3x3]
  %346[FLOAT, 736]
  %347[FLOAT, 736]
  %348[FLOAT, 736]
  %349[FLOAT, 736]
  %350[FLOAT, 128x736x1x1]
  %351[FLOAT, 128]
  %352[FLOAT, 128]
  %353[FLOAT, 128]
  %354[FLOAT, 128]
  %355[FLOAT, 32x128x3x3]
  %356[FLOAT, 768]
  %357[FLOAT, 768]
  %358[FLOAT, 768]
  %359[FLOAT, 768]
  %360[FLOAT, 128x768x1x1]
  %361[FLOAT, 128]
  %362[FLOAT, 128]
  %363[FLOAT, 128]
  %364[FLOAT, 128]
  %365[FLOAT, 32x128x3x3]
  %366[FLOAT, 800]
  %367[FLOAT, 800]
  %368[FLOAT, 800]
  %369[FLOAT, 800]
  %370[FLOAT, 128x800x1x1]
  %371[FLOAT, 128]
  %372[FLOAT, 128]
  %373[FLOAT, 128]
  %374[FLOAT, 128]
  %375[FLOAT, 32x128x3x3]
  %376[FLOAT, 832]
  %377[FLOAT, 832]
  %378[FLOAT, 832]
  %379[FLOAT, 832]
  %380[FLOAT, 128x832x1x1]
  %381[FLOAT, 128]
  %382[FLOAT, 128]
  %383[FLOAT, 128]
  %384[FLOAT, 128]
  %385[FLOAT, 32x128x3x3]
  %386[FLOAT, 864]
  %387[FLOAT, 864]
  %388[FLOAT, 864]
  %389[FLOAT, 864]
  %390[FLOAT, 128x864x1x1]
  %391[FLOAT, 128]
  %392[FLOAT, 128]
  %393[FLOAT, 128]
  %394[FLOAT, 128]
  %395[FLOAT, 32x128x3x3]
  %396[FLOAT, 896]
  %397[FLOAT, 896]
  %398[FLOAT, 896]
  %399[FLOAT, 896]
  %400[FLOAT, 128x896x1x1]
  %401[FLOAT, 128]
  %402[FLOAT, 128]
  %403[FLOAT, 128]
  %404[FLOAT, 128]
  %405[FLOAT, 32x128x3x3]
  %406[FLOAT, 928]
  %407[FLOAT, 928]
  %408[FLOAT, 928]
  %409[FLOAT, 928]
  %410[FLOAT, 128x928x1x1]
  %411[FLOAT, 128]
  %412[FLOAT, 128]
  %413[FLOAT, 128]
  %414[FLOAT, 128]
  %415[FLOAT, 32x128x3x3]
  %416[FLOAT, 960]
  %417[FLOAT, 960]
  %418[FLOAT, 960]
  %419[FLOAT, 960]
  %420[FLOAT, 128x960x1x1]
  %421[FLOAT, 128]
  %422[FLOAT, 128]
  %423[FLOAT, 128]
  %424[FLOAT, 128]
  %425[FLOAT, 32x128x3x3]
  %426[FLOAT, 992]
  %427[FLOAT, 992]
  %428[FLOAT, 992]
  %429[FLOAT, 992]
  %430[FLOAT, 128x992x1x1]
  %431[FLOAT, 128]
  %432[FLOAT, 128]
  %433[FLOAT, 128]
  %434[FLOAT, 128]
  %435[FLOAT, 32x128x3x3]
  %436[FLOAT, 1024]
  %437[FLOAT, 1024]
  %438[FLOAT, 1024]
  %439[FLOAT, 1024]
  %440[FLOAT, 512x1024x1x1]
  %441[FLOAT, 512]
  %442[FLOAT, 512]
  %443[FLOAT, 512]
  %444[FLOAT, 512]
  %445[FLOAT, 128x512x1x1]
  %446[FLOAT, 128]
  %447[FLOAT, 128]
  %448[FLOAT, 128]
  %449[FLOAT, 128]
  %450[FLOAT, 32x128x3x3]
  %451[FLOAT, 544]
  %452[FLOAT, 544]
  %453[FLOAT, 544]
  %454[FLOAT, 544]
  %455[FLOAT, 128x544x1x1]
  %456[FLOAT, 128]
  %457[FLOAT, 128]
  %458[FLOAT, 128]
  %459[FLOAT, 128]
  %460[FLOAT, 32x128x3x3]
  %461[FLOAT, 576]
  %462[FLOAT, 576]
  %463[FLOAT, 576]
  %464[FLOAT, 576]
  %465[FLOAT, 128x576x1x1]
  %466[FLOAT, 128]
  %467[FLOAT, 128]
  %468[FLOAT, 128]
  %469[FLOAT, 128]
  %470[FLOAT, 32x128x3x3]
  %471[FLOAT, 608]
  %472[FLOAT, 608]
  %473[FLOAT, 608]
  %474[FLOAT, 608]
  %475[FLOAT, 128x608x1x1]
  %476[FLOAT, 128]
  %477[FLOAT, 128]
  %478[FLOAT, 128]
  %479[FLOAT, 128]
  %480[FLOAT, 32x128x3x3]
  %481[FLOAT, 640]
  %482[FLOAT, 640]
  %483[FLOAT, 640]
  %484[FLOAT, 640]
  %485[FLOAT, 128x640x1x1]
  %486[FLOAT, 128]
  %487[FLOAT, 128]
  %488[FLOAT, 128]
  %489[FLOAT, 128]
  %490[FLOAT, 32x128x3x3]
  %491[FLOAT, 672]
  %492[FLOAT, 672]
  %493[FLOAT, 672]
  %494[FLOAT, 672]
  %495[FLOAT, 128x672x1x1]
  %496[FLOAT, 128]
  %497[FLOAT, 128]
  %498[FLOAT, 128]
  %499[FLOAT, 128]
  %500[FLOAT, 32x128x3x3]
  %501[FLOAT, 704]
  %502[FLOAT, 704]
  %503[FLOAT, 704]
  %504[FLOAT, 704]
  %505[FLOAT, 128x704x1x1]
  %506[FLOAT, 128]
  %507[FLOAT, 128]
  %508[FLOAT, 128]
  %509[FLOAT, 128]
  %510[FLOAT, 32x128x3x3]
  %511[FLOAT, 736]
  %512[FLOAT, 736]
  %513[FLOAT, 736]
  %514[FLOAT, 736]
  %515[FLOAT, 128x736x1x1]
  %516[FLOAT, 128]
  %517[FLOAT, 128]
  %518[FLOAT, 128]
  %519[FLOAT, 128]
  %520[FLOAT, 32x128x3x3]
  %521[FLOAT, 768]
  %522[FLOAT, 768]
  %523[FLOAT, 768]
  %524[FLOAT, 768]
  %525[FLOAT, 128x768x1x1]
  %526[FLOAT, 128]
  %527[FLOAT, 128]
  %528[FLOAT, 128]
  %529[FLOAT, 128]
  %530[FLOAT, 32x128x3x3]
  %531[FLOAT, 800]
  %532[FLOAT, 800]
  %533[FLOAT, 800]
  %534[FLOAT, 800]
  %535[FLOAT, 128x800x1x1]
  %536[FLOAT, 128]
  %537[FLOAT, 128]
  %538[FLOAT, 128]
  %539[FLOAT, 128]
  %540[FLOAT, 32x128x3x3]
  %541[FLOAT, 832]
  %542[FLOAT, 832]
  %543[FLOAT, 832]
  %544[FLOAT, 832]
  %545[FLOAT, 128x832x1x1]
  %546[FLOAT, 128]
  %547[FLOAT, 128]
  %548[FLOAT, 128]
  %549[FLOAT, 128]
  %550[FLOAT, 32x128x3x3]
  %551[FLOAT, 864]
  %552[FLOAT, 864]
  %553[FLOAT, 864]
  %554[FLOAT, 864]
  %555[FLOAT, 128x864x1x1]
  %556[FLOAT, 128]
  %557[FLOAT, 128]
  %558[FLOAT, 128]
  %559[FLOAT, 128]
  %560[FLOAT, 32x128x3x3]
  %561[FLOAT, 896]
  %562[FLOAT, 896]
  %563[FLOAT, 896]
  %564[FLOAT, 896]
  %565[FLOAT, 128x896x1x1]
  %566[FLOAT, 128]
  %567[FLOAT, 128]
  %568[FLOAT, 128]
  %569[FLOAT, 128]
  %570[FLOAT, 32x128x3x3]
  %571[FLOAT, 928]
  %572[FLOAT, 928]
  %573[FLOAT, 928]
  %574[FLOAT, 928]
  %575[FLOAT, 128x928x1x1]
  %576[FLOAT, 128]
  %577[FLOAT, 128]
  %578[FLOAT, 128]
  %579[FLOAT, 128]
  %580[FLOAT, 32x128x3x3]
  %581[FLOAT, 960]
  %582[FLOAT, 960]
  %583[FLOAT, 960]
  %584[FLOAT, 960]
  %585[FLOAT, 128x960x1x1]
  %586[FLOAT, 128]
  %587[FLOAT, 128]
  %588[FLOAT, 128]
  %589[FLOAT, 128]
  %590[FLOAT, 32x128x3x3]
  %591[FLOAT, 992]
  %592[FLOAT, 992]
  %593[FLOAT, 992]
  %594[FLOAT, 992]
  %595[FLOAT, 128x992x1x1]
  %596[FLOAT, 128]
  %597[FLOAT, 128]
  %598[FLOAT, 128]
  %599[FLOAT, 128]
  %600[FLOAT, 32x128x3x3]
  %601[FLOAT, 1024]
  %602[FLOAT, 1024]
  %603[FLOAT, 1024]
  %604[FLOAT, 1024]
  %605[FLOAT, 1000x1024]
  %606[FLOAT, 1000]
) {
  %608 = Conv[dilations = [1, 1], group = 1, kernel_shape = [7, 7], pads = [3, 3, 3, 3], strides = [2, 2]](%0, %1)
  %609 = BatchNormalization[consumed_inputs = [0, 0, 0, 1, 1], epsilon = 9.99999974737875e-06, is_test = 1, momentum = 0.899999976158142](%608, %2, %3, %4, %5)
  %610 = Relu(%609)
  %611 = MaxPool[kernel_shape = [3, 3], pads = [1, 1], strides = [2, 2]](%610)
  %612 = BatchNormalization[consumed_inputs = [0, 0, 0, 1, 1], epsilon = 9.99999974737875e-06, is_test = 1, momentum = 0.899999976158142](%611, %6, %7, %8, %9)
  %613 = Relu(%612)
  %615 = Conv[dilations = [1, 1], group = 1, kernel_shape = [1, 1], pads = [0, 0, 0, 0], strides = [1, 1]](%613, %10)
  %616 = BatchNormalization[consumed_inputs = [0, 0, 0, 1, 1], epsilon = 9.99999974737875e-06, is_test = 1, momentum = 0.899999976158142](%615, %11, %12, %13, %14)
  %617 = Relu(%616)
  %619 = Conv[dilations = [1, 1], group = 1, kernel_shape = [3, 3], pads = [1, 1, 1, 1], strides = [1, 1]](%617, %15)
  %620 = Concat[axis = 1](%611, %619)
  %621 = BatchNormalization[consumed_inputs = [0, 0, 0, 1, 1], epsilon = 9.99999974737875e-06, is_test = 1, momentum = 0.899999976158142](%620, %16, %17, %18, %19)
  %622 = Relu(%621)
  %624 = Conv[dilations = [1, 1], group = 1, kernel_shape = [1, 1], pads = [0, 0, 0, 0], strides = [1, 1]](%622, %20)
  %625 = BatchNormalization[consumed_inputs = [0, 0, 0, 1, 1], epsilon = 9.99999974737875e-06, is_test = 1, momentum = 0.899999976158142](%624, %21, %22, %23, %24)
  %626 = Relu(%625)
  %628 = Conv[dilations = [1, 1], group = 1, kernel_shape = [3, 3], pads = [1, 1, 1, 1], strides = [1, 1]](%626, %25)
  %629 = Concat[axis = 1](%620, %628)
  %630 = BatchNormalization[consumed_inputs = [0, 0, 0, 1, 1], epsilon = 9.99999974737875e-06, is_test = 1, momentum = 0.899999976158142](%629, %26, %27, %28, %29)
  %631 = Relu(%630)
  %633 = Conv[dilations = [1, 1], group = 1, kernel_shape = [1, 1], pads = [0, 0, 0, 0], strides = [1, 1]](%631, %30)
  %634 = BatchNormalization[consumed_inputs = [0, 0, 0, 1, 1], epsilon = 9.99999974737875e-06, is_test = 1, momentum = 0.899999976158142](%633, %31, %32, %33, %34)
  %635 = Relu(%634)
  %637 = Conv[dilations = [1, 1], group = 1, kernel_shape = [3, 3], pads = [1, 1, 1, 1], strides = [1, 1]](%635, %35)
  %638 = Concat[axis = 1](%629, %637)
  %639 = BatchNormalization[consumed_inputs = [0, 0, 0, 1, 1], epsilon = 9.99999974737875e-06, is_test = 1, momentum = 0.899999976158142](%638, %36, %37, %38, %39)
  %640 = Relu(%639)
  %642 = Conv[dilations = [1, 1], group = 1, kernel_shape = [1, 1], pads = [0, 0, 0, 0], strides = [1, 1]](%640, %40)
  %643 = BatchNormalization[consumed_inputs = [0, 0, 0, 1, 1], epsilon = 9.99999974737875e-06, is_test = 1, momentum = 0.899999976158142](%642, %41, %42, %43, %44)
  %644 = Relu(%643)
  %646 = Conv[dilations = [1, 1], group = 1, kernel_shape = [3, 3], pads = [1, 1, 1, 1], strides = [1, 1]](%644, %45)
  %647 = Concat[axis = 1](%638, %646)
  %648 = BatchNormalization[consumed_inputs = [0, 0, 0, 1, 1], epsilon = 9.99999974737875e-06, is_test = 1, momentum = 0.899999976158142](%647, %46, %47, %48, %49)
  %649 = Relu(%648)
  %651 = Conv[dilations = [1, 1], group = 1, kernel_shape = [1, 1], pads = [0, 0, 0, 0], strides = [1, 1]](%649, %50)
  %652 = BatchNormalization[consumed_inputs = [0, 0, 0, 1, 1], epsilon = 9.99999974737875e-06, is_test = 1, momentum = 0.899999976158142](%651, %51, %52, %53, %54)
  %653 = Relu(%652)
  %655 = Conv[dilations = [1, 1], group = 1, kernel_shape = [3, 3], pads = [1, 1, 1, 1], strides = [1, 1]](%653, %55)
  %656 = Concat[axis = 1](%647, %655)
  %657 = BatchNormalization[consumed_inputs = [0, 0, 0, 1, 1], epsilon = 9.99999974737875e-06, is_test = 1, momentum = 0.899999976158142](%656, %56, %57, %58, %59)
  %658 = Relu(%657)
  %660 = Conv[dilations = [1, 1], group = 1, kernel_shape = [1, 1], pads = [0, 0, 0, 0], strides = [1, 1]](%658, %60)
  %661 = BatchNormalization[consumed_inputs = [0, 0, 0, 1, 1], epsilon = 9.99999974737875e-06, is_test = 1, momentum = 0.899999976158142](%660, %61, %62, %63, %64)
  %662 = Relu(%661)
  %664 = Conv[dilations = [1, 1], group = 1, kernel_shape = [3, 3], pads = [1, 1, 1, 1], strides = [1, 1]](%662, %65)
  %665 = Concat[axis = 1](%656, %664)
  %666 = BatchNormalization[consumed_inputs = [0, 0, 0, 1, 1], epsilon = 9.99999974737875e-06, is_test = 1, momentum = 0.899999976158142](%665, %66, %67, %68, %69)
  %667 = Relu(%666)
  %669 = Conv[dilations = [1, 1], group = 1, kernel_shape = [1, 1], pads = [0, 0, 0, 0], strides = [1, 1]](%667, %70)
  %670 = AveragePool[kernel_shape = [2, 2], pads = [0, 0], strides = [2, 2]](%669)
  %671 = BatchNormalization[consumed_inputs = [0, 0, 0, 1, 1], epsilon = 9.99999974737875e-06, is_test = 1, momentum = 0.899999976158142](%670, %71, %72, %73, %74)
  %672 = Relu(%671)
  %674 = Conv[dilations = [1, 1], group = 1, kernel_shape = [1, 1], pads = [0, 0, 0, 0], strides = [1, 1]](%672, %75)
  %675 = BatchNormalization[consumed_inputs = [0, 0, 0, 1, 1], epsilon = 9.99999974737875e-06, is_test = 1, momentum = 0.899999976158142](%674, %76, %77, %78, %79)
  %676 = Relu(%675)
  %678 = Conv[dilations = [1, 1], group = 1, kernel_shape = [3, 3], pads = [1, 1, 1, 1], strides = [1, 1]](%676, %80)
  %679 = Concat[axis = 1](%670, %678)
  %680 = BatchNormalization[consumed_inputs = [0, 0, 0, 1, 1], epsilon = 9.99999974737875e-06, is_test = 1, momentum = 0.899999976158142](%679, %81, %82, %83, %84)
  %681 = Relu(%680)
  %683 = Conv[dilations = [1, 1], group = 1, kernel_shape = [1, 1], pads = [0, 0, 0, 0], strides = [1, 1]](%681, %85)
  %684 = BatchNormalization[consumed_inputs = [0, 0, 0, 1, 1], epsilon = 9.99999974737875e-06, is_test = 1, momentum = 0.899999976158142](%683, %86, %87, %88, %89)
  %685 = Relu(%684)
  %687 = Conv[dilations = [1, 1], group = 1, kernel_shape = [3, 3], pads = [1, 1, 1, 1], strides = [1, 1]](%685, %90)
  %688 = Concat[axis = 1](%679, %687)
  %689 = BatchNormalization[consumed_inputs = [0, 0, 0, 1, 1], epsilon = 9.99999974737875e-06, is_test = 1, momentum = 0.899999976158142](%688, %91, %92, %93, %94)
  %690 = Relu(%689)
  %692 = Conv[dilations = [1, 1], group = 1, kernel_shape = [1, 1], pads = [0, 0, 0, 0], strides = [1, 1]](%690, %95)
  %693 = BatchNormalization[consumed_inputs = [0, 0, 0, 1, 1], epsilon = 9.99999974737875e-06, is_test = 1, momentum = 0.899999976158142](%692, %96, %97, %98, %99)
  %694 = Relu(%693)
  %696 = Conv[dilations = [1, 1], group = 1, kernel_shape = [3, 3], pads = [1, 1, 1, 1], strides = [1, 1]](%694, %100)
  %697 = Concat[axis = 1](%688, %696)
  %698 = BatchNormalization[consumed_inputs = [0, 0, 0, 1, 1], epsilon = 9.99999974737875e-06, is_test = 1, momentum = 0.899999976158142](%697, %101, %102, %103, %104)
  %699 = Relu(%698)
  %701 = Conv[dilations = [1, 1], group = 1, kernel_shape = [1, 1], pads = [0, 0, 0, 0], strides = [1, 1]](%699, %105)
  %702 = BatchNormalization[consumed_inputs = [0, 0, 0, 1, 1], epsilon = 9.99999974737875e-06, is_test = 1, momentum = 0.899999976158142](%701, %106, %107, %108, %109)
  %703 = Relu(%702)
  %705 = Conv[dilations = [1, 1], group = 1, kernel_shape = [3, 3], pads = [1, 1, 1, 1], strides = [1, 1]](%703, %110)
  %706 = Concat[axis = 1](%697, %705)
  %707 = BatchNormalization[consumed_inputs = [0, 0, 0, 1, 1], epsilon = 9.99999974737875e-06, is_test = 1, momentum = 0.899999976158142](%706, %111, %112, %113, %114)
  %708 = Relu(%707)
  %710 = Conv[dilations = [1, 1], group = 1, kernel_shape = [1, 1], pads = [0, 0, 0, 0], strides = [1, 1]](%708, %115)
  %711 = BatchNormalization[consumed_inputs = [0, 0, 0, 1, 1], epsilon = 9.99999974737875e-06, is_test = 1, momentum = 0.899999976158142](%710, %116, %117, %118, %119)
  %712 = Relu(%711)
  %714 = Conv[dilations = [1, 1], group = 1, kernel_shape = [3, 3], pads = [1, 1, 1, 1], strides = [1, 1]](%712, %120)
  %715 = Concat[axis = 1](%706, %714)
  %716 = BatchNormalization[consumed_inputs = [0, 0, 0, 1, 1], epsilon = 9.99999974737875e-06, is_test = 1, momentum = 0.899999976158142](%715, %121, %122, %123, %124)
  %717 = Relu(%716)
  %719 = Conv[dilations = [1, 1], group = 1, kernel_shape = [1, 1], pads = [0, 0, 0, 0], strides = [1, 1]](%717, %125)
  %720 = BatchNormalization[consumed_inputs = [0, 0, 0, 1, 1], epsilon = 9.99999974737875e-06, is_test = 1, momentum = 0.899999976158142](%719, %126, %127, %128, %129)
  %721 = Relu(%720)
  %723 = Conv[dilations = [1, 1], group = 1, kernel_shape = [3, 3], pads = [1, 1, 1, 1], strides = [1, 1]](%721, %130)
  %724 = Concat[axis = 1](%715, %723)
  %725 = BatchNormalization[consumed_inputs = [0, 0, 0, 1, 1], epsilon = 9.99999974737875e-06, is_test = 1, momentum = 0.899999976158142](%724, %131, %132, %133, %134)
  %726 = Relu(%725)
  %728 = Conv[dilations = [1, 1], group = 1, kernel_shape = [1, 1], pads = [0, 0, 0, 0], strides = [1, 1]](%726, %135)
  %729 = BatchNormalization[consumed_inputs = [0, 0, 0, 1, 1], epsilon = 9.99999974737875e-06, is_test = 1, momentum = 0.899999976158142](%728, %136, %137, %138, %139)
  %730 = Relu(%729)
  %732 = Conv[dilations = [1, 1], group = 1, kernel_shape = [3, 3], pads = [1, 1, 1, 1], strides = [1, 1]](%730, %140)
  %733 = Concat[axis = 1](%724, %732)
  %734 = BatchNormalization[consumed_inputs = [0, 0, 0, 1, 1], epsilon = 9.99999974737875e-06, is_test = 1, momentum = 0.899999976158142](%733, %141, %142, %143, %144)
  %735 = Relu(%734)
  %737 = Conv[dilations = [1, 1], group = 1, kernel_shape = [1, 1], pads = [0, 0, 0, 0], strides = [1, 1]](%735, %145)
  %738 = BatchNormalization[consumed_inputs = [0, 0, 0, 1, 1], epsilon = 9.99999974737875e-06, is_test = 1, momentum = 0.899999976158142](%737, %146, %147, %148, %149)
  %739 = Relu(%738)
  %741 = Conv[dilations = [1, 1], group = 1, kernel_shape = [3, 3], pads = [1, 1, 1, 1], strides = [1, 1]](%739, %150)
  %742 = Concat[axis = 1](%733, %741)
  %743 = BatchNormalization[consumed_inputs = [0, 0, 0, 1, 1], epsilon = 9.99999974737875e-06, is_test = 1, momentum = 0.899999976158142](%742, %151, %152, %153, %154)
  %744 = Relu(%743)
  %746 = Conv[dilations = [1, 1], group = 1, kernel_shape = [1, 1], pads = [0, 0, 0, 0], strides = [1, 1]](%744, %155)
  %747 = BatchNormalization[consumed_inputs = [0, 0, 0, 1, 1], epsilon = 9.99999974737875e-06, is_test = 1, momentum = 0.899999976158142](%746, %156, %157, %158, %159)
  %748 = Relu(%747)
  %750 = Conv[dilations = [1, 1], group = 1, kernel_shape = [3, 3], pads = [1, 1, 1, 1], strides = [1, 1]](%748, %160)
  %751 = Concat[axis = 1](%742, %750)
  %752 = BatchNormalization[consumed_inputs = [0, 0, 0, 1, 1], epsilon = 9.99999974737875e-06, is_test = 1, momentum = 0.899999976158142](%751, %161, %162, %163, %164)
  %753 = Relu(%752)
  %755 = Conv[dilations = [1, 1], group = 1, kernel_shape = [1, 1], pads = [0, 0, 0, 0], strides = [1, 1]](%753, %165)
  %756 = BatchNormalization[consumed_inputs = [0, 0, 0, 1, 1], epsilon = 9.99999974737875e-06, is_test = 1, momentum = 0.899999976158142](%755, %166, %167, %168, %169)
  %757 = Relu(%756)
  %759 = Conv[dilations = [1, 1], group = 1, kernel_shape = [3, 3], pads = [1, 1, 1, 1], strides = [1, 1]](%757, %170)
  %760 = Concat[axis = 1](%751, %759)
  %761 = BatchNormalization[consumed_inputs = [0, 0, 0, 1, 1], epsilon = 9.99999974737875e-06, is_test = 1, momentum = 0.899999976158142](%760, %171, %172, %173, %174)
  %762 = Relu(%761)
  %764 = Conv[dilations = [1, 1], group = 1, kernel_shape = [1, 1], pads = [0, 0, 0, 0], strides = [1, 1]](%762, %175)
  %765 = BatchNormalization[consumed_inputs = [0, 0, 0, 1, 1], epsilon = 9.99999974737875e-06, is_test = 1, momentum = 0.899999976158142](%764, %176, %177, %178, %179)
  %766 = Relu(%765)
  %768 = Conv[dilations = [1, 1], group = 1, kernel_shape = [3, 3], pads = [1, 1, 1, 1], strides = [1, 1]](%766, %180)
  %769 = Concat[axis = 1](%760, %768)
  %770 = BatchNormalization[consumed_inputs = [0, 0, 0, 1, 1], epsilon = 9.99999974737875e-06, is_test = 1, momentum = 0.899999976158142](%769, %181, %182, %183, %184)
  %771 = Relu(%770)
  %773 = Conv[dilations = [1, 1], group = 1, kernel_shape = [1, 1], pads = [0, 0, 0, 0], strides = [1, 1]](%771, %185)
  %774 = BatchNormalization[consumed_inputs = [0, 0, 0, 1, 1], epsilon = 9.99999974737875e-06, is_test = 1, momentum = 0.899999976158142](%773, %186, %187, %188, %189)
  %775 = Relu(%774)
  %777 = Conv[dilations = [1, 1], group = 1, kernel_shape = [3, 3], pads = [1, 1, 1, 1], strides = [1, 1]](%775, %190)
  %778 = Concat[axis = 1](%769, %777)
  %779 = BatchNormalization[consumed_inputs = [0, 0, 0, 1, 1], epsilon = 9.99999974737875e-06, is_test = 1, momentum = 0.899999976158142](%778, %191, %192, %193, %194)
  %780 = Relu(%779)
  %782 = Conv[dilations = [1, 1], group = 1, kernel_shape = [1, 1], pads = [0, 0, 0, 0], strides = [1, 1]](%780, %195)
  %783 = AveragePool[kernel_shape = [2, 2], pads = [0, 0], strides = [2, 2]](%782)
  %784 = BatchNormalization[consumed_inputs = [0, 0, 0, 1, 1], epsilon = 9.99999974737875e-06, is_test = 1, momentum = 0.899999976158142](%783, %196, %197, %198, %199)
  %785 = Relu(%784)
  %787 = Conv[dilations = [1, 1], group = 1, kernel_shape = [1, 1], pads = [0, 0, 0, 0], strides = [1, 1]](%785, %200)
  %788 = BatchNormalization[consumed_inputs = [0, 0, 0, 1, 1], epsilon = 9.99999974737875e-06, is_test = 1, momentum = 0.899999976158142](%787, %201, %202, %203, %204)
  %789 = Relu(%788)
  %791 = Conv[dilations = [1, 1], group = 1, kernel_shape = [3, 3], pads = [1, 1, 1, 1], strides = [1, 1]](%789, %205)
  %792 = Concat[axis = 1](%783, %791)
  %793 = BatchNormalization[consumed_inputs = [0, 0, 0, 1, 1], epsilon = 9.99999974737875e-06, is_test = 1, momentum = 0.899999976158142](%792, %206, %207, %208, %209)
  %794 = Relu(%793)
  %796 = Conv[dilations = [1, 1], group = 1, kernel_shape = [1, 1], pads = [0, 0, 0, 0], strides = [1, 1]](%794, %210)
  %797 = BatchNormalization[consumed_inputs = [0, 0, 0, 1, 1], epsilon = 9.99999974737875e-06, is_test = 1, momentum = 0.899999976158142](%796, %211, %212, %213, %214)
  %798 = Relu(%797)
  %800 = Conv[dilations = [1, 1], group = 1, kernel_shape = [3, 3], pads = [1, 1, 1, 1], strides = [1, 1]](%798, %215)
  %801 = Concat[axis = 1](%792, %800)
  %802 = BatchNormalization[consumed_inputs = [0, 0, 0, 1, 1], epsilon = 9.99999974737875e-06, is_test = 1, momentum = 0.899999976158142](%801, %216, %217, %218, %219)
  %803 = Relu(%802)
  %805 = Conv[dilations = [1, 1], group = 1, kernel_shape = [1, 1], pads = [0, 0, 0, 0], strides = [1, 1]](%803, %220)
  %806 = BatchNormalization[consumed_inputs = [0, 0, 0, 1, 1], epsilon = 9.99999974737875e-06, is_test = 1, momentum = 0.899999976158142](%805, %221, %222, %223, %224)
  %807 = Relu(%806)
  %809 = Conv[dilations = [1, 1], group = 1, kernel_shape = [3, 3], pads = [1, 1, 1, 1], strides = [1, 1]](%807, %225)
  %810 = Concat[axis = 1](%801, %809)
  %811 = BatchNormalization[consumed_inputs = [0, 0, 0, 1, 1], epsilon = 9.99999974737875e-06, is_test = 1, momentum = 0.899999976158142](%810, %226, %227, %228, %229)
  %812 = Relu(%811)
  %814 = Conv[dilations = [1, 1], group = 1, kernel_shape = [1, 1], pads = [0, 0, 0, 0], strides = [1, 1]](%812, %230)
  %815 = BatchNormalization[consumed_inputs = [0, 0, 0, 1, 1], epsilon = 9.99999974737875e-06, is_test = 1, momentum = 0.899999976158142](%814, %231, %232, %233, %234)
  %816 = Relu(%815)
  %818 = Conv[dilations = [1, 1], group = 1, kernel_shape = [3, 3], pads = [1, 1, 1, 1], strides = [1, 1]](%816, %235)
  %819 = Concat[axis = 1](%810, %818)
  %820 = BatchNormalization[consumed_inputs = [0, 0, 0, 1, 1], epsilon = 9.99999974737875e-06, is_test = 1, momentum = 0.899999976158142](%819, %236, %237, %238, %239)
  %821 = Relu(%820)
  %823 = Conv[dilations = [1, 1], group = 1, kernel_shape = [1, 1], pads = [0, 0, 0, 0], strides = [1, 1]](%821, %240)
  %824 = BatchNormalization[consumed_inputs = [0, 0, 0, 1, 1], epsilon = 9.99999974737875e-06, is_test = 1, momentum = 0.899999976158142](%823, %241, %242, %243, %244)
  %825 = Relu(%824)
  %827 = Conv[dilations = [1, 1], group = 1, kernel_shape = [3, 3], pads = [1, 1, 1, 1], strides = [1, 1]](%825, %245)
  %828 = Concat[axis = 1](%819, %827)
  %829 = BatchNormalization[consumed_inputs = [0, 0, 0, 1, 1], epsilon = 9.99999974737875e-06, is_test = 1, momentum = 0.899999976158142](%828, %246, %247, %248, %249)
  %830 = Relu(%829)
  %832 = Conv[dilations = [1, 1], group = 1, kernel_shape = [1, 1], pads = [0, 0, 0, 0], strides = [1, 1]](%830, %250)
  %833 = BatchNormalization[consumed_inputs = [0, 0, 0, 1, 1], epsilon = 9.99999974737875e-06, is_test = 1, momentum = 0.899999976158142](%832, %251, %252, %253, %254)
  %834 = Relu(%833)
  %836 = Conv[dilations = [1, 1], group = 1, kernel_shape = [3, 3], pads = [1, 1, 1, 1], strides = [1, 1]](%834, %255)
  %837 = Concat[axis = 1](%828, %836)
  %838 = BatchNormalization[consumed_inputs = [0, 0, 0, 1, 1], epsilon = 9.99999974737875e-06, is_test = 1, momentum = 0.899999976158142](%837, %256, %257, %258, %259)
  %839 = Relu(%838)
  %841 = Conv[dilations = [1, 1], group = 1, kernel_shape = [1, 1], pads = [0, 0, 0, 0], strides = [1, 1]](%839, %260)
  %842 = BatchNormalization[consumed_inputs = [0, 0, 0, 1, 1], epsilon = 9.99999974737875e-06, is_test = 1, momentum = 0.899999976158142](%841, %261, %262, %263, %264)
  %843 = Relu(%842)
  %845 = Conv[dilations = [1, 1], group = 1, kernel_shape = [3, 3], pads = [1, 1, 1, 1], strides = [1, 1]](%843, %265)
  %846 = Concat[axis = 1](%837, %845)
  %847 = BatchNormalization[consumed_inputs = [0, 0, 0, 1, 1], epsilon = 9.99999974737875e-06, is_test = 1, momentum = 0.899999976158142](%846, %266, %267, %268, %269)
  %848 = Relu(%847)
  %850 = Conv[dilations = [1, 1], group = 1, kernel_shape = [1, 1], pads = [0, 0, 0, 0], strides = [1, 1]](%848, %270)
  %851 = BatchNormalization[consumed_inputs = [0, 0, 0, 1, 1], epsilon = 9.99999974737875e-06, is_test = 1, momentum = 0.899999976158142](%850, %271, %272, %273, %274)
  %852 = Relu(%851)
  %854 = Conv[dilations = [1, 1], group = 1, kernel_shape = [3, 3], pads = [1, 1, 1, 1], strides = [1, 1]](%852, %275)
  %855 = Concat[axis = 1](%846, %854)
  %856 = BatchNormalization[consumed_inputs = [0, 0, 0, 1, 1], epsilon = 9.99999974737875e-06, is_test = 1, momentum = 0.899999976158142](%855, %276, %277, %278, %279)
  %857 = Relu(%856)
  %859 = Conv[dilations = [1, 1], group = 1, kernel_shape = [1, 1], pads = [0, 0, 0, 0], strides = [1, 1]](%857, %280)
  %860 = BatchNormalization[consumed_inputs = [0, 0, 0, 1, 1], epsilon = 9.99999974737875e-06, is_test = 1, momentum = 0.899999976158142](%859, %281, %282, %283, %284)
  %861 = Relu(%860)
  %863 = Conv[dilations = [1, 1], group = 1, kernel_shape = [3, 3], pads = [1, 1, 1, 1], strides = [1, 1]](%861, %285)
  %864 = Concat[axis = 1](%855, %863)
  %865 = BatchNormalization[consumed_inputs = [0, 0, 0, 1, 1], epsilon = 9.99999974737875e-06, is_test = 1, momentum = 0.899999976158142](%864, %286, %287, %288, %289)
  %866 = Relu(%865)
  %868 = Conv[dilations = [1, 1], group = 1, kernel_shape = [1, 1], pads = [0, 0, 0, 0], strides = [1, 1]](%866, %290)
  %869 = BatchNormalization[consumed_inputs = [0, 0, 0, 1, 1], epsilon = 9.99999974737875e-06, is_test = 1, momentum = 0.899999976158142](%868, %291, %292, %293, %294)
  %870 = Relu(%869)
  %872 = Conv[dilations = [1, 1], group = 1, kernel_shape = [3, 3], pads = [1, 1, 1, 1], strides = [1, 1]](%870, %295)
  %873 = Concat[axis = 1](%864, %872)
  %874 = BatchNormalization[consumed_inputs = [0, 0, 0, 1, 1], epsilon = 9.99999974737875e-06, is_test = 1, momentum = 0.899999976158142](%873, %296, %297, %298, %299)
  %875 = Relu(%874)
  %877 = Conv[dilations = [1, 1], group = 1, kernel_shape = [1, 1], pads = [0, 0, 0, 0], strides = [1, 1]](%875, %300)
  %878 = BatchNormalization[consumed_inputs = [0, 0, 0, 1, 1], epsilon = 9.99999974737875e-06, is_test = 1, momentum = 0.899999976158142](%877, %301, %302, %303, %304)
  %879 = Relu(%878)
  %881 = Conv[dilations = [1, 1], group = 1, kernel_shape = [3, 3], pads = [1, 1, 1, 1], strides = [1, 1]](%879, %305)
  %882 = Concat[axis = 1](%873, %881)
  %883 = BatchNormalization[consumed_inputs = [0, 0, 0, 1, 1], epsilon = 9.99999974737875e-06, is_test = 1, momentum = 0.899999976158142](%882, %306, %307, %308, %309)
  %884 = Relu(%883)
  %886 = Conv[dilations = [1, 1], group = 1, kernel_shape = [1, 1], pads = [0, 0, 0, 0], strides = [1, 1]](%884, %310)
  %887 = BatchNormalization[consumed_inputs = [0, 0, 0, 1, 1], epsilon = 9.99999974737875e-06, is_test = 1, momentum = 0.899999976158142](%886, %311, %312, %313, %314)
  %888 = Relu(%887)
  %890 = Conv[dilations = [1, 1], group = 1, kernel_shape = [3, 3], pads = [1, 1, 1, 1], strides = [1, 1]](%888, %315)
  %891 = Concat[axis = 1](%882, %890)
  %892 = BatchNormalization[consumed_inputs = [0, 0, 0, 1, 1], epsilon = 9.99999974737875e-06, is_test = 1, momentum = 0.899999976158142](%891, %316, %317, %318, %319)
  %893 = Relu(%892)
  %895 = Conv[dilations = [1, 1], group = 1, kernel_shape = [1, 1], pads = [0, 0, 0, 0], strides = [1, 1]](%893, %320)
  %896 = BatchNormalization[consumed_inputs = [0, 0, 0, 1, 1], epsilon = 9.99999974737875e-06, is_test = 1, momentum = 0.899999976158142](%895, %321, %322, %323, %324)
  %897 = Relu(%896)
  %899 = Conv[dilations = [1, 1], group = 1, kernel_shape = [3, 3], pads = [1, 1, 1, 1], strides = [1, 1]](%897, %325)
  %900 = Concat[axis = 1](%891, %899)
  %901 = BatchNormalization[consumed_inputs = [0, 0, 0, 1, 1], epsilon = 9.99999974737875e-06, is_test = 1, momentum = 0.899999976158142](%900, %326, %327, %328, %329)
  %902 = Relu(%901)
  %904 = Conv[dilations = [1, 1], group = 1, kernel_shape = [1, 1], pads = [0, 0, 0, 0], strides = [1, 1]](%902, %330)
  %905 = BatchNormalization[consumed_inputs = [0, 0, 0, 1, 1], epsilon = 9.99999974737875e-06, is_test = 1, momentum = 0.899999976158142](%904, %331, %332, %333, %334)
  %906 = Relu(%905)
  %908 = Conv[dilations = [1, 1], group = 1, kernel_shape = [3, 3], pads = [1, 1, 1, 1], strides = [1, 1]](%906, %335)
  %909 = Concat[axis = 1](%900, %908)
  %910 = BatchNormalization[consumed_inputs = [0, 0, 0, 1, 1], epsilon = 9.99999974737875e-06, is_test = 1, momentum = 0.899999976158142](%909, %336, %337, %338, %339)
  %911 = Relu(%910)
  %913 = Conv[dilations = [1, 1], group = 1, kernel_shape = [1, 1], pads = [0, 0, 0, 0], strides = [1, 1]](%911, %340)
  %914 = BatchNormalization[consumed_inputs = [0, 0, 0, 1, 1], epsilon = 9.99999974737875e-06, is_test = 1, momentum = 0.899999976158142](%913, %341, %342, %343, %344)
  %915 = Relu(%914)
  %917 = Conv[dilations = [1, 1], group = 1, kernel_shape = [3, 3], pads = [1, 1, 1, 1], strides = [1, 1]](%915, %345)
  %918 = Concat[axis = 1](%909, %917)
  %919 = BatchNormalization[consumed_inputs = [0, 0, 0, 1, 1], epsilon = 9.99999974737875e-06, is_test = 1, momentum = 0.899999976158142](%918, %346, %347, %348, %349)
  %920 = Relu(%919)
  %922 = Conv[dilations = [1, 1], group = 1, kernel_shape = [1, 1], pads = [0, 0, 0, 0], strides = [1, 1]](%920, %350)
  %923 = BatchNormalization[consumed_inputs = [0, 0, 0, 1, 1], epsilon = 9.99999974737875e-06, is_test = 1, momentum = 0.899999976158142](%922, %351, %352, %353, %354)
  %924 = Relu(%923)
  %926 = Conv[dilations = [1, 1], group = 1, kernel_shape = [3, 3], pads = [1, 1, 1, 1], strides = [1, 1]](%924, %355)
  %927 = Concat[axis = 1](%918, %926)
  %928 = BatchNormalization[consumed_inputs = [0, 0, 0, 1, 1], epsilon = 9.99999974737875e-06, is_test = 1, momentum = 0.899999976158142](%927, %356, %357, %358, %359)
  %929 = Relu(%928)
  %931 = Conv[dilations = [1, 1], group = 1, kernel_shape = [1, 1], pads = [0, 0, 0, 0], strides = [1, 1]](%929, %360)
  %932 = BatchNormalization[consumed_inputs = [0, 0, 0, 1, 1], epsilon = 9.99999974737875e-06, is_test = 1, momentum = 0.899999976158142](%931, %361, %362, %363, %364)
  %933 = Relu(%932)
  %935 = Conv[dilations = [1, 1], group = 1, kernel_shape = [3, 3], pads = [1, 1, 1, 1], strides = [1, 1]](%933, %365)
  %936 = Concat[axis = 1](%927, %935)
  %937 = BatchNormalization[consumed_inputs = [0, 0, 0, 1, 1], epsilon = 9.99999974737875e-06, is_test = 1, momentum = 0.899999976158142](%936, %366, %367, %368, %369)
  %938 = Relu(%937)
  %940 = Conv[dilations = [1, 1], group = 1, kernel_shape = [1, 1], pads = [0, 0, 0, 0], strides = [1, 1]](%938, %370)
  %941 = BatchNormalization[consumed_inputs = [0, 0, 0, 1, 1], epsilon = 9.99999974737875e-06, is_test = 1, momentum = 0.899999976158142](%940, %371, %372, %373, %374)
  %942 = Relu(%941)
  %944 = Conv[dilations = [1, 1], group = 1, kernel_shape = [3, 3], pads = [1, 1, 1, 1], strides = [1, 1]](%942, %375)
  %945 = Concat[axis = 1](%936, %944)
  %946 = BatchNormalization[consumed_inputs = [0, 0, 0, 1, 1], epsilon = 9.99999974737875e-06, is_test = 1, momentum = 0.899999976158142](%945, %376, %377, %378, %379)
  %947 = Relu(%946)
  %949 = Conv[dilations = [1, 1], group = 1, kernel_shape = [1, 1], pads = [0, 0, 0, 0], strides = [1, 1]](%947, %380)
  %950 = BatchNormalization[consumed_inputs = [0, 0, 0, 1, 1], epsilon = 9.99999974737875e-06, is_test = 1, momentum = 0.899999976158142](%949, %381, %382, %383, %384)
  %951 = Relu(%950)
  %953 = Conv[dilations = [1, 1], group = 1, kernel_shape = [3, 3], pads = [1, 1, 1, 1], strides = [1, 1]](%951, %385)
  %954 = Concat[axis = 1](%945, %953)
  %955 = BatchNormalization[consumed_inputs = [0, 0, 0, 1, 1], epsilon = 9.99999974737875e-06, is_test = 1, momentum = 0.899999976158142](%954, %386, %387, %388, %389)
  %956 = Relu(%955)
  %958 = Conv[dilations = [1, 1], group = 1, kernel_shape = [1, 1], pads = [0, 0, 0, 0], strides = [1, 1]](%956, %390)
  %959 = BatchNormalization[consumed_inputs = [0, 0, 0, 1, 1], epsilon = 9.99999974737875e-06, is_test = 1, momentum = 0.899999976158142](%958, %391, %392, %393, %394)
  %960 = Relu(%959)
  %962 = Conv[dilations = [1, 1], group = 1, kernel_shape = [3, 3], pads = [1, 1, 1, 1], strides = [1, 1]](%960, %395)
  %963 = Concat[axis = 1](%954, %962)
  %964 = BatchNormalization[consumed_inputs = [0, 0, 0, 1, 1], epsilon = 9.99999974737875e-06, is_test = 1, momentum = 0.899999976158142](%963, %396, %397, %398, %399)
  %965 = Relu(%964)
  %967 = Conv[dilations = [1, 1], group = 1, kernel_shape = [1, 1], pads = [0, 0, 0, 0], strides = [1, 1]](%965, %400)
  %968 = BatchNormalization[consumed_inputs = [0, 0, 0, 1, 1], epsilon = 9.99999974737875e-06, is_test = 1, momentum = 0.899999976158142](%967, %401, %402, %403, %404)
  %969 = Relu(%968)
  %971 = Conv[dilations = [1, 1], group = 1, kernel_shape = [3, 3], pads = [1, 1, 1, 1], strides = [1, 1]](%969, %405)
  %972 = Concat[axis = 1](%963, %971)
  %973 = BatchNormalization[consumed_inputs = [0, 0, 0, 1, 1], epsilon = 9.99999974737875e-06, is_test = 1, momentum = 0.899999976158142](%972, %406, %407, %408, %409)
  %974 = Relu(%973)
  %976 = Conv[dilations = [1, 1], group = 1, kernel_shape = [1, 1], pads = [0, 0, 0, 0], strides = [1, 1]](%974, %410)
  %977 = BatchNormalization[consumed_inputs = [0, 0, 0, 1, 1], epsilon = 9.99999974737875e-06, is_test = 1, momentum = 0.899999976158142](%976, %411, %412, %413, %414)
  %978 = Relu(%977)
  %980 = Conv[dilations = [1, 1], group = 1, kernel_shape = [3, 3], pads = [1, 1, 1, 1], strides = [1, 1]](%978, %415)
  %981 = Concat[axis = 1](%972, %980)
  %982 = BatchNormalization[consumed_inputs = [0, 0, 0, 1, 1], epsilon = 9.99999974737875e-06, is_test = 1, momentum = 0.899999976158142](%981, %416, %417, %418, %419)
  %983 = Relu(%982)
  %985 = Conv[dilations = [1, 1], group = 1, kernel_shape = [1, 1], pads = [0, 0, 0, 0], strides = [1, 1]](%983, %420)
  %986 = BatchNormalization[consumed_inputs = [0, 0, 0, 1, 1], epsilon = 9.99999974737875e-06, is_test = 1, momentum = 0.899999976158142](%985, %421, %422, %423, %424)
  %987 = Relu(%986)
  %989 = Conv[dilations = [1, 1], group = 1, kernel_shape = [3, 3], pads = [1, 1, 1, 1], strides = [1, 1]](%987, %425)
  %990 = Concat[axis = 1](%981, %989)
  %991 = BatchNormalization[consumed_inputs = [0, 0, 0, 1, 1], epsilon = 9.99999974737875e-06, is_test = 1, momentum = 0.899999976158142](%990, %426, %427, %428, %429)
  %992 = Relu(%991)
  %994 = Conv[dilations = [1, 1], group = 1, kernel_shape = [1, 1], pads = [0, 0, 0, 0], strides = [1, 1]](%992, %430)
  %995 = BatchNormalization[consumed_inputs = [0, 0, 0, 1, 1], epsilon = 9.99999974737875e-06, is_test = 1, momentum = 0.899999976158142](%994, %431, %432, %433, %434)
  %996 = Relu(%995)
  %998 = Conv[dilations = [1, 1], group = 1, kernel_shape = [3, 3], pads = [1, 1, 1, 1], strides = [1, 1]](%996, %435)
  %999 = Concat[axis = 1](%990, %998)
  %1000 = BatchNormalization[consumed_inputs = [0, 0, 0, 1, 1], epsilon = 9.99999974737875e-06, is_test = 1, momentum = 0.899999976158142](%999, %436, %437, %438, %439)
  %1001 = Relu(%1000)
  %1003 = Conv[dilations = [1, 1], group = 1, kernel_shape = [1, 1], pads = [0, 0, 0, 0], strides = [1, 1]](%1001, %440)
  %1004 = AveragePool[kernel_shape = [2, 2], pads = [0, 0], strides = [2, 2]](%1003)
  %1005 = BatchNormalization[consumed_inputs = [0, 0, 0, 1, 1], epsilon = 9.99999974737875e-06, is_test = 1, momentum = 0.899999976158142](%1004, %441, %442, %443, %444)
  %1006 = Relu(%1005)
  %1008 = Conv[dilations = [1, 1], group = 1, kernel_shape = [1, 1], pads = [0, 0, 0, 0], strides = [1, 1]](%1006, %445)
  %1009 = BatchNormalization[consumed_inputs = [0, 0, 0, 1, 1], epsilon = 9.99999974737875e-06, is_test = 1, momentum = 0.899999976158142](%1008, %446, %447, %448, %449)
  %1010 = Relu(%1009)
  %1012 = Conv[dilations = [1, 1], group = 1, kernel_shape = [3, 3], pads = [1, 1, 1, 1], strides = [1, 1]](%1010, %450)
  %1013 = Concat[axis = 1](%1004, %1012)
  %1014 = BatchNormalization[consumed_inputs = [0, 0, 0, 1, 1], epsilon = 9.99999974737875e-06, is_test = 1, momentum = 0.899999976158142](%1013, %451, %452, %453, %454)
  %1015 = Relu(%1014)
  %1017 = Conv[dilations = [1, 1], group = 1, kernel_shape = [1, 1], pads = [0, 0, 0, 0], strides = [1, 1]](%1015, %455)
  %1018 = BatchNormalization[consumed_inputs = [0, 0, 0, 1, 1], epsilon = 9.99999974737875e-06, is_test = 1, momentum = 0.899999976158142](%1017, %456, %457, %458, %459)
  %1019 = Relu(%1018)
  %1021 = Conv[dilations = [1, 1], group = 1, kernel_shape = [3, 3], pads = [1, 1, 1, 1], strides = [1, 1]](%1019, %460)
  %1022 = Concat[axis = 1](%1013, %1021)
  %1023 = BatchNormalization[consumed_inputs = [0, 0, 0, 1, 1], epsilon = 9.99999974737875e-06, is_test = 1, momentum = 0.899999976158142](%1022, %461, %462, %463, %464)
  %1024 = Relu(%1023)
  %1026 = Conv[dilations = [1, 1], group = 1, kernel_shape = [1, 1], pads = [0, 0, 0, 0], strides = [1, 1]](%1024, %465)
  %1027 = BatchNormalization[consumed_inputs = [0, 0, 0, 1, 1], epsilon = 9.99999974737875e-06, is_test = 1, momentum = 0.899999976158142](%1026, %466, %467, %468, %469)
  %1028 = Relu(%1027)
  %1030 = Conv[dilations = [1, 1], group = 1, kernel_shape = [3, 3], pads = [1, 1, 1, 1], strides = [1, 1]](%1028, %470)
  %1031 = Concat[axis = 1](%1022, %1030)
  %1032 = BatchNormalization[consumed_inputs = [0, 0, 0, 1, 1], epsilon = 9.99999974737875e-06, is_test = 1, momentum = 0.899999976158142](%1031, %471, %472, %473, %474)
  %1033 = Relu(%1032)
  %1035 = Conv[dilations = [1, 1], group = 1, kernel_shape = [1, 1], pads = [0, 0, 0, 0], strides = [1, 1]](%1033, %475)
  %1036 = BatchNormalization[consumed_inputs = [0, 0, 0, 1, 1], epsilon = 9.99999974737875e-06, is_test = 1, momentum = 0.899999976158142](%1035, %476, %477, %478, %479)
  %1037 = Relu(%1036)
  %1039 = Conv[dilations = [1, 1], group = 1, kernel_shape = [3, 3], pads = [1, 1, 1, 1], strides = [1, 1]](%1037, %480)
  %1040 = Concat[axis = 1](%1031, %1039)
  %1041 = BatchNormalization[consumed_inputs = [0, 0, 0, 1, 1], epsilon = 9.99999974737875e-06, is_test = 1, momentum = 0.899999976158142](%1040, %481, %482, %483, %484)
  %1042 = Relu(%1041)
  %1044 = Conv[dilations = [1, 1], group = 1, kernel_shape = [1, 1], pads = [0, 0, 0, 0], strides = [1, 1]](%1042, %485)
  %1045 = BatchNormalization[consumed_inputs = [0, 0, 0, 1, 1], epsilon = 9.99999974737875e-06, is_test = 1, momentum = 0.899999976158142](%1044, %486, %487, %488, %489)
  %1046 = Relu(%1045)
  %1048 = Conv[dilations = [1, 1], group = 1, kernel_shape = [3, 3], pads = [1, 1, 1, 1], strides = [1, 1]](%1046, %490)
  %1049 = Concat[axis = 1](%1040, %1048)
  %1050 = BatchNormalization[consumed_inputs = [0, 0, 0, 1, 1], epsilon = 9.99999974737875e-06, is_test = 1, momentum = 0.899999976158142](%1049, %491, %492, %493, %494)
  %1051 = Relu(%1050)
  %1053 = Conv[dilations = [1, 1], group = 1, kernel_shape = [1, 1], pads = [0, 0, 0, 0], strides = [1, 1]](%1051, %495)
  %1054 = BatchNormalization[consumed_inputs = [0, 0, 0, 1, 1], epsilon = 9.99999974737875e-06, is_test = 1, momentum = 0.899999976158142](%1053, %496, %497, %498, %499)
  %1055 = Relu(%1054)
  %1057 = Conv[dilations = [1, 1], group = 1, kernel_shape = [3, 3], pads = [1, 1, 1, 1], strides = [1, 1]](%1055, %500)
  %1058 = Concat[axis = 1](%1049, %1057)
  %1059 = BatchNormalization[consumed_inputs = [0, 0, 0, 1, 1], epsilon = 9.99999974737875e-06, is_test = 1, momentum = 0.899999976158142](%1058, %501, %502, %503, %504)
  %1060 = Relu(%1059)
  %1062 = Conv[dilations = [1, 1], group = 1, kernel_shape = [1, 1], pads = [0, 0, 0, 0], strides = [1, 1]](%1060, %505)
  %1063 = BatchNormalization[consumed_inputs = [0, 0, 0, 1, 1], epsilon = 9.99999974737875e-06, is_test = 1, momentum = 0.899999976158142](%1062, %506, %507, %508, %509)
  %1064 = Relu(%1063)
  %1066 = Conv[dilations = [1, 1], group = 1, kernel_shape = [3, 3], pads = [1, 1, 1, 1], strides = [1, 1]](%1064, %510)
  %1067 = Concat[axis = 1](%1058, %1066)
  %1068 = BatchNormalization[consumed_inputs = [0, 0, 0, 1, 1], epsilon = 9.99999974737875e-06, is_test = 1, momentum = 0.899999976158142](%1067, %511, %512, %513, %514)
  %1069 = Relu(%1068)
  %1071 = Conv[dilations = [1, 1], group = 1, kernel_shape = [1, 1], pads = [0, 0, 0, 0], strides = [1, 1]](%1069, %515)
  %1072 = BatchNormalization[consumed_inputs = [0, 0, 0, 1, 1], epsilon = 9.99999974737875e-06, is_test = 1, momentum = 0.899999976158142](%1071, %516, %517, %518, %519)
  %1073 = Relu(%1072)
  %1075 = Conv[dilations = [1, 1], group = 1, kernel_shape = [3, 3], pads = [1, 1, 1, 1], strides = [1, 1]](%1073, %520)
  %1076 = Concat[axis = 1](%1067, %1075)
  %1077 = BatchNormalization[consumed_inputs = [0, 0, 0, 1, 1], epsilon = 9.99999974737875e-06, is_test = 1, momentum = 0.899999976158142](%1076, %521, %522, %523, %524)
  %1078 = Relu(%1077)
  %1080 = Conv[dilations = [1, 1], group = 1, kernel_shape = [1, 1], pads = [0, 0, 0, 0], strides = [1, 1]](%1078, %525)
  %1081 = BatchNormalization[consumed_inputs = [0, 0, 0, 1, 1], epsilon = 9.99999974737875e-06, is_test = 1, momentum = 0.899999976158142](%1080, %526, %527, %528, %529)
  %1082 = Relu(%1081)
  %1084 = Conv[dilations = [1, 1], group = 1, kernel_shape = [3, 3], pads = [1, 1, 1, 1], strides = [1, 1]](%1082, %530)
  %1085 = Concat[axis = 1](%1076, %1084)
  %1086 = BatchNormalization[consumed_inputs = [0, 0, 0, 1, 1], epsilon = 9.99999974737875e-06, is_test = 1, momentum = 0.899999976158142](%1085, %531, %532, %533, %534)
  %1087 = Relu(%1086)
  %1089 = Conv[dilations = [1, 1], group = 1, kernel_shape = [1, 1], pads = [0, 0, 0, 0], strides = [1, 1]](%1087, %535)
  %1090 = BatchNormalization[consumed_inputs = [0, 0, 0, 1, 1], epsilon = 9.99999974737875e-06, is_test = 1, momentum = 0.899999976158142](%1089, %536, %537, %538, %539)
  %1091 = Relu(%1090)
  %1093 = Conv[dilations = [1, 1], group = 1, kernel_shape = [3, 3], pads = [1, 1, 1, 1], strides = [1, 1]](%1091, %540)
  %1094 = Concat[axis = 1](%1085, %1093)
  %1095 = BatchNormalization[consumed_inputs = [0, 0, 0, 1, 1], epsilon = 9.99999974737875e-06, is_test = 1, momentum = 0.899999976158142](%1094, %541, %542, %543, %544)
  %1096 = Relu(%1095)
  %1098 = Conv[dilations = [1, 1], group = 1, kernel_shape = [1, 1], pads = [0, 0, 0, 0], strides = [1, 1]](%1096, %545)
  %1099 = BatchNormalization[consumed_inputs = [0, 0, 0, 1, 1], epsilon = 9.99999974737875e-06, is_test = 1, momentum = 0.899999976158142](%1098, %546, %547, %548, %549)
  %1100 = Relu(%1099)
  %1102 = Conv[dilations = [1, 1], group = 1, kernel_shape = [3, 3], pads = [1, 1, 1, 1], strides = [1, 1]](%1100, %550)
  %1103 = Concat[axis = 1](%1094, %1102)
  %1104 = BatchNormalization[consumed_inputs = [0, 0, 0, 1, 1], epsilon = 9.99999974737875e-06, is_test = 1, momentum = 0.899999976158142](%1103, %551, %552, %553, %554)
  %1105 = Relu(%1104)
  %1107 = Conv[dilations = [1, 1], group = 1, kernel_shape = [1, 1], pads = [0, 0, 0, 0], strides = [1, 1]](%1105, %555)
  %1108 = BatchNormalization[consumed_inputs = [0, 0, 0, 1, 1], epsilon = 9.99999974737875e-06, is_test = 1, momentum = 0.899999976158142](%1107, %556, %557, %558, %559)
  %1109 = Relu(%1108)
  %1111 = Conv[dilations = [1, 1], group = 1, kernel_shape = [3, 3], pads = [1, 1, 1, 1], strides = [1, 1]](%1109, %560)
  %1112 = Concat[axis = 1](%1103, %1111)
  %1113 = BatchNormalization[consumed_inputs = [0, 0, 0, 1, 1], epsilon = 9.99999974737875e-06, is_test = 1, momentum = 0.899999976158142](%1112, %561, %562, %563, %564)
  %1114 = Relu(%1113)
  %1116 = Conv[dilations = [1, 1], group = 1, kernel_shape = [1, 1], pads = [0, 0, 0, 0], strides = [1, 1]](%1114, %565)
  %1117 = BatchNormalization[consumed_inputs = [0, 0, 0, 1, 1], epsilon = 9.99999974737875e-06, is_test = 1, momentum = 0.899999976158142](%1116, %566, %567, %568, %569)
  %1118 = Relu(%1117)
  %1120 = Conv[dilations = [1, 1], group = 1, kernel_shape = [3, 3], pads = [1, 1, 1, 1], strides = [1, 1]](%1118, %570)
  %1121 = Concat[axis = 1](%1112, %1120)
  %1122 = BatchNormalization[consumed_inputs = [0, 0, 0, 1, 1], epsilon = 9.99999974737875e-06, is_test = 1, momentum = 0.899999976158142](%1121, %571, %572, %573, %574)
  %1123 = Relu(%1122)
  %1125 = Conv[dilations = [1, 1], group = 1, kernel_shape = [1, 1], pads = [0, 0, 0, 0], strides = [1, 1]](%1123, %575)
  %1126 = BatchNormalization[consumed_inputs = [0, 0, 0, 1, 1], epsilon = 9.99999974737875e-06, is_test = 1, momentum = 0.899999976158142](%1125, %576, %577, %578, %579)
  %1127 = Relu(%1126)
  %1129 = Conv[dilations = [1, 1], group = 1, kernel_shape = [3, 3], pads = [1, 1, 1, 1], strides = [1, 1]](%1127, %580)
  %1130 = Concat[axis = 1](%1121, %1129)
  %1131 = BatchNormalization[consumed_inputs = [0, 0, 0, 1, 1], epsilon = 9.99999974737875e-06, is_test = 1, momentum = 0.899999976158142](%1130, %581, %582, %583, %584)
  %1132 = Relu(%1131)
  %1134 = Conv[dilations = [1, 1], group = 1, kernel_shape = [1, 1], pads = [0, 0, 0, 0], strides = [1, 1]](%1132, %585)
  %1135 = BatchNormalization[consumed_inputs = [0, 0, 0, 1, 1], epsilon = 9.99999974737875e-06, is_test = 1, momentum = 0.899999976158142](%1134, %586, %587, %588, %589)
  %1136 = Relu(%1135)
  %1138 = Conv[dilations = [1, 1], group = 1, kernel_shape = [3, 3], pads = [1, 1, 1, 1], strides = [1, 1]](%1136, %590)
  %1139 = Concat[axis = 1](%1130, %1138)
  %1140 = BatchNormalization[consumed_inputs = [0, 0, 0, 1, 1], epsilon = 9.99999974737875e-06, is_test = 1, momentum = 0.899999976158142](%1139, %591, %592, %593, %594)
  %1141 = Relu(%1140)
  %1143 = Conv[dilations = [1, 1], group = 1, kernel_shape = [1, 1], pads = [0, 0, 0, 0], strides = [1, 1]](%1141, %595)
  %1144 = BatchNormalization[consumed_inputs = [0, 0, 0, 1, 1], epsilon = 9.99999974737875e-06, is_test = 1, momentum = 0.899999976158142](%1143, %596, %597, %598, %599)
  %1145 = Relu(%1144)
  %1147 = Conv[dilations = [1, 1], group = 1, kernel_shape = [3, 3], pads = [1, 1, 1, 1], strides = [1, 1]](%1145, %600)
  %1148 = Concat[axis = 1](%1139, %1147)
  %1149 = BatchNormalization[consumed_inputs = [0, 0, 0, 1, 1], epsilon = 9.99999974737875e-06, is_test = 1, momentum = 0.899999976158142](%1148, %601, %602, %603, %604)
  %1150 = Relu(%1149)
  %1151 = AveragePool[kernel_shape = [7, 7], pads = [0, 0], strides = [7, 7]](%1150)
  %1152 = Reshape[shape = [2, -1]](%1151)
  %1155 = Gemm[alpha = 1, beta = 1, broadcast = 1, transB = 1](%1152, %605, %606)
  return %1155
}