ir_version: 1
producer_name: "pytorch"
producer_version: "0.2"
domain: "com.facebook"
graph {
  node {
    input: "0"
    input: "1"
    output: "608"
    op_type: "Conv"
    attribute {
      name: "kernel_shape"
      ints: 7
      ints: 7
      type: INTS
    }
    attribute {
      name: "strides"
      ints: 2
      ints: 2
      type: INTS
    }
    attribute {
      name: "pads"
      ints: 3
      ints: 3
      ints: 3
      ints: 3
      type: INTS
    }
    attribute {
      name: "dilations"
      ints: 1
      ints: 1
      type: INTS
    }
    attribute {
      name: "group"
      i: 1
      type: INT
    }
  }
  node {
    input: "608"
    input: "2"
    input: "3"
    input: "4"
    input: "5"
    output: "609"
    op_type: "BatchNormalization"
    attribute {
      name: "is_test"
      i: 1
      type: INT
    }
    attribute {
      name: "epsilon"
      f: 9.99999974737875e-06
      type: FLOAT
    }
    attribute {
      name: "momentum"
      f: 0.899999976158142
      type: FLOAT
    }
    attribute {
      name: "consumed_inputs"
      ints: 0
      ints: 0
      ints: 0
      ints: 1
      ints: 1
      type: INTS
    }
  }
  node {
    input: "609"
    output: "610"
    op_type: "Relu"
  }
  node {
    input: "610"
    output: "611"
    op_type: "MaxPool"
    attribute {
      name: "kernel_shape"
      ints: 3
      ints: 3
      type: INTS
    }
    attribute {
      name: "pads"
      ints: 1
      ints: 1
      type: INTS
    }
    attribute {
      name: "strides"
      ints: 2
      ints: 2
      type: INTS
    }
  }
  node {
    input: "611"
    input: "6"
    input: "7"
    input: "8"
    input: "9"
    output: "612"
    op_type: "BatchNormalization"
    attribute {
      name: "is_test"
      i: 1
      type: INT
    }
    attribute {
      name: "epsilon"
      f: 9.99999974737875e-06
      type: FLOAT
    }
    attribute {
      name: "momentum"
      f: 0.899999976158142
      type: FLOAT
    }
    attribute {
      name: "consumed_inputs"
      ints: 0
      ints: 0
      ints: 0
      ints: 1
      ints: 1
      type: INTS
    }
  }
  node {
    input: "612"
    output: "613"
    op_type: "Relu"
  }
  node {
    input: "613"
    input: "10"
    output: "615"
    op_type: "Conv"
    attribute {
      name: "kernel_shape"
      ints: 1
      ints: 1
      type: INTS
    }
    attribute {
      name: "strides"
      ints: 1
      ints: 1
      type: INTS
    }
    attribute {
      name: "pads"
      ints: 0
      ints: 0
      ints: 0
      ints: 0
      type: INTS
    }
    attribute {
      name: "dilations"
      ints: 1
      ints: 1
      type: INTS
    }
    attribute {
      name: "group"
      i: 1
      type: INT
    }
  }
  node {
    input: "615"
    input: "11"
    input: "12"
    input: "13"
    input: "14"
    output: "616"
    op_type: "BatchNormalization"
    attribute {
      name: "is_test"
      i: 1
      type: INT
    }
    attribute {
      name: "epsilon"
      f: 9.99999974737875e-06
      type: FLOAT
    }
    attribute {
      name: "momentum"
      f: 0.899999976158142
      type: FLOAT
    }
    attribute {
      name: "consumed_inputs"
      ints: 0
      ints: 0
      ints: 0
      ints: 1
      ints: 1
      type: INTS
    }
  }
  node {
    input: "616"
    output: "617"
    op_type: "Relu"
  }
  node {
    input: "617"
    input: "15"
    output: "619"
    op_type: "Conv"
    attribute {
      name: "kernel_shape"
      ints: 3
      ints: 3
      type: INTS
    }
    attribute {
      name: "strides"
      ints: 1
      ints: 1
      type: INTS
    }
    attribute {
      name: "pads"
      ints: 1
      ints: 1
      ints: 1
      ints: 1
      type: INTS
    }
    attribute {
      name: "dilations"
      ints: 1
      ints: 1
      type: INTS
    }
    attribute {
      name: "group"
      i: 1
      type: INT
    }
  }
  node {
    input: "611"
    input: "619"
    output: "620"
    op_type: "Concat"
    attribute {
      name: "axis"
      i: 1
      type: INT
    }
  }
  node {
    input: "620"
    input: "16"
    input: "17"
    input: "18"
    input: "19"
    output: "621"
    op_type: "BatchNormalization"
    attribute {
      name: "is_test"
      i: 1
      type: INT
    }
    attribute {
      name: "epsilon"
      f: 9.99999974737875e-06
      type: FLOAT
    }
    attribute {
      name: "momentum"
      f: 0.899999976158142
      type: FLOAT
    }
    attribute {
      name: "consumed_inputs"
      ints: 0
      ints: 0
      ints: 0
      ints: 1
      ints: 1
      type: INTS
    }
  }
  node {
    input: "621"
    output: "622"
    op_type: "Relu"
  }
  node {
    input: "622"
    input: "20"
    output: "624"
    op_type: "Conv"
    attribute {
      name: "kernel_shape"
      ints: 1
      ints: 1
      type: INTS
    }
    attribute {
      name: "strides"
      ints: 1
      ints: 1
      type: INTS
    }
    attribute {
      name: "pads"
      ints: 0
      ints: 0
      ints: 0
      ints: 0
      type: INTS
    }
    attribute {
      name: "dilations"
      ints: 1
      ints: 1
      type: INTS
    }
    attribute {
      name: "group"
      i: 1
      type: INT
    }
  }
  node {
    input: "624"
    input: "21"
    input: "22"
    input: "23"
    input: "24"
    output: "625"
    op_type: "BatchNormalization"
    attribute {
      name: "is_test"
      i: 1
      type: INT
    }
    attribute {
      name: "epsilon"
      f: 9.99999974737875e-06
      type: FLOAT
    }
    attribute {
      name: "momentum"
      f: 0.899999976158142
      type: FLOAT
    }
    attribute {
      name: "consumed_inputs"
      ints: 0
      ints: 0
      ints: 0
      ints: 1
      ints: 1
      type: INTS
    }
  }
  node {
    input: "625"
    output: "626"
    op_type: "Relu"
  }
  node {
    input: "626"
    input: "25"
    output: "628"
    op_type: "Conv"
    attribute {
      name: "kernel_shape"
      ints: 3
      ints: 3
      type: INTS
    }
    attribute {
      name: "strides"
      ints: 1
      ints: 1
      type: INTS
    }
    attribute {
      name: "pads"
      ints: 1
      ints: 1
      ints: 1
      ints: 1
      type: INTS
    }
    attribute {
      name: "dilations"
      ints: 1
      ints: 1
      type: INTS
    }
    attribute {
      name: "group"
      i: 1
      type: INT
    }
  }
  node {
    input: "620"
    input: "628"
    output: "629"
    op_type: "Concat"
    attribute {
      name: "axis"
      i: 1
      type: INT
    }
  }
  node {
    input: "629"
    input: "26"
    input: "27"
    input: "28"
    input: "29"
    output: "630"
    op_type: "BatchNormalization"
    attribute {
      name: "is_test"
      i: 1
      type: INT
    }
    attribute {
      name: "epsilon"
      f: 9.99999974737875e-06
      type: FLOAT
    }
    attribute {
      name: "momentum"
      f: 0.899999976158142
      type: FLOAT
    }
    attribute {
      name: "consumed_inputs"
      ints: 0
      ints: 0
      ints: 0
      ints: 1
      ints: 1
      type: INTS
    }
  }
  node {
    input: "630"
    output: "631"
    op_type: "Relu"
  }
  node {
    input: "631"
    input: "30"
    output: "633"
    op_type: "Conv"
    attribute {
      name: "kernel_shape"
      ints: 1
      ints: 1
      type: INTS
    }
    attribute {
      name: "strides"
      ints: 1
      ints: 1
      type: INTS
    }
    attribute {
      name: "pads"
      ints: 0
      ints: 0
      ints: 0
      ints: 0
      type: INTS
    }
    attribute {
      name: "dilations"
      ints: 1
      ints: 1
      type: INTS
    }
    attribute {
      name: "group"
      i: 1
      type: INT
    }
  }
  node {
    input: "633"
    input: "31"
    input: "32"
    input: "33"
    input: "34"
    output: "634"
    op_type: "BatchNormalization"
    attribute {
      name: "is_test"
      i: 1
      type: INT
    }
    attribute {
      name: "epsilon"
      f: 9.99999974737875e-06
      type: FLOAT
    }
    attribute {
      name: "momentum"
      f: 0.899999976158142
      type: FLOAT
    }
    attribute {
      name: "consumed_inputs"
      ints: 0
      ints: 0
      ints: 0
      ints: 1
      ints: 1
      type: INTS
    }
  }
  node {
    input: "634"
    output: "635"
    op_type: "Relu"
  }
  node {
    input: "635"
    input: "35"
    output: "637"
    op_type: "Conv"
    attribute {
      name: "kernel_shape"
      ints: 3
      ints: 3
      type: INTS
    }
    attribute {
      name: "strides"
      ints: 1
      ints: 1
      type: INTS
    }
    attribute {
      name: "pads"
      ints: 1
      ints: 1
      ints: 1
      ints: 1
      type: INTS
    }
    attribute {
      name: "dilations"
      ints: 1
      ints: 1
      type: INTS
    }
    attribute {
      name: "group"
      i: 1
      type: INT
    }
  }
  node {
    input: "629"
    input: "637"
    output: "638"
    op_type: "Concat"
    attribute {
      name: "axis"
      i: 1
      type: INT
    }
  }
  node {
    input: "638"
    input: "36"
    input: "37"
    input: "38"
    input: "39"
    output: "639"
    op_type: "BatchNormalization"
    attribute {
      name: "is_test"
      i: 1
      type: INT
    }
    attribute {
      name: "epsilon"
      f: 9.99999974737875e-06
      type: FLOAT
    }
    attribute {
      name: "momentum"
      f: 0.899999976158142
      type: FLOAT
    }
    attribute {
      name: "consumed_inputs"
      ints: 0
      ints: 0
      ints: 0
      ints: 1
      ints: 1
      type: INTS
    }
  }
  node {
    input: "639"
    output: "640"
    op_type: "Relu"
  }
  node {
    input: "640"
    input: "40"
    output: "642"
    op_type: "Conv"
    attribute {
      name: "kernel_shape"
      ints: 1
      ints: 1
      type: INTS
    }
    attribute {
      name: "strides"
      ints: 1
      ints: 1
      type: INTS
    }
    attribute {
      name: "pads"
      ints: 0
      ints: 0
      ints: 0
      ints: 0
      type: INTS
    }
    attribute {
      name: "dilations"
      ints: 1
      ints: 1
      type: INTS
    }
    attribute {
      name: "group"
      i: 1
      type: INT
    }
  }
  node {
    input: "642"
    input: "41"
    input: "42"
    input: "43"
    input: "44"
    output: "643"
    op_type: "BatchNormalization"
    attribute {
      name: "is_test"
      i: 1
      type: INT
    }
    attribute {
      name: "epsilon"
      f: 9.99999974737875e-06
      type: FLOAT
    }
    attribute {
      name: "momentum"
      f: 0.899999976158142
      type: FLOAT
    }
    attribute {
      name: "consumed_inputs"
      ints: 0
      ints: 0
      ints: 0
      ints: 1
      ints: 1
      type: INTS
    }
  }
  node {
    input: "643"
    output: "644"
    op_type: "Relu"
  }
  node {
    input: "644"
    input: "45"
    output: "646"
    op_type: "Conv"
    attribute {
      name: "kernel_shape"
      ints: 3
      ints: 3
      type: INTS
    }
    attribute {
      name: "strides"
      ints: 1
      ints: 1
      type: INTS
    }
    attribute {
      name: "pads"
      ints: 1
      ints: 1
      ints: 1
      ints: 1
      type: INTS
    }
    attribute {
      name: "dilations"
      ints: 1
      ints: 1
      type: INTS
    }
    attribute {
      name: "group"
      i: 1
      type: INT
    }
  }
  node {
    input: "638"
    input: "646"
    output: "647"
    op_type: "Concat"
    attribute {
      name: "axis"
      i: 1
      type: INT
    }
  }
  node {
    input: "647"
    input: "46"
    input: "47"
    input: "48"
    input: "49"
    output: "648"
    op_type: "BatchNormalization"
    attribute {
      name: "is_test"
      i: 1
      type: INT
    }
    attribute {
      name: "epsilon"
      f: 9.99999974737875e-06
      type: FLOAT
    }
    attribute {
      name: "momentum"
      f: 0.899999976158142
      type: FLOAT
    }
    attribute {
      name: "consumed_inputs"
      ints: 0
      ints: 0
      ints: 0
      ints: 1
      ints: 1
      type: INTS
    }
  }
  node {
    input: "648"
    output: "649"
    op_type: "Relu"
  }
  node {
    input: "649"
    input: "50"
    output: "651"
    op_type: "Conv"
    attribute {
      name: "kernel_shape"
      ints: 1
      ints: 1
      type: INTS
    }
    attribute {
      name: "strides"
      ints: 1
      ints: 1
      type: INTS
    }
    attribute {
      name: "pads"
      ints: 0
      ints: 0
      ints: 0
      ints: 0
      type: INTS
    }
    attribute {
      name: "dilations"
      ints: 1
      ints: 1
      type: INTS
    }
    attribute {
      name: "group"
      i: 1
      type: INT
    }
  }
  node {
    input: "651"
    input: "51"
    input: "52"
    input: "53"
    input: "54"
    output: "652"
    op_type: "BatchNormalization"
    attribute {
      name: "is_test"
      i: 1
      type: INT
    }
    attribute {
      name: "epsilon"
      f: 9.99999974737875e-06
      type: FLOAT
    }
    attribute {
      name: "momentum"
      f: 0.899999976158142
      type: FLOAT
    }
    attribute {
      name: "consumed_inputs"
      ints: 0
      ints: 0
      ints: 0
      ints: 1
      ints: 1
      type: INTS
    }
  }
  node {
    input: "652"
    output: "653"
    op_type: "Relu"
  }
  node {
    input: "653"
    input: "55"
    output: "655"
    op_type: "Conv"
    attribute {
      name: "kernel_shape"
      ints: 3
      ints: 3
      type: INTS
    }
    attribute {
      name: "strides"
      ints: 1
      ints: 1
      type: INTS
    }
    attribute {
      name: "pads"
      ints: 1
      ints: 1
      ints: 1
      ints: 1
      type: INTS
    }
    attribute {
      name: "dilations"
      ints: 1
      ints: 1
      type: INTS
    }
    attribute {
      name: "group"
      i: 1
      type: INT
    }
  }
  node {
    input: "647"
    input: "655"
    output: "656"
    op_type: "Concat"
    attribute {
      name: "axis"
      i: 1
      type: INT
    }
  }
  node {
    input: "656"
    input: "56"
    input: "57"
    input: "58"
    input: "59"
    output: "657"
    op_type: "BatchNormalization"
    attribute {
      name: "is_test"
      i: 1
      type: INT
    }
    attribute {
      name: "epsilon"
      f: 9.99999974737875e-06
      type: FLOAT
    }
    attribute {
      name: "momentum"
      f: 0.899999976158142
      type: FLOAT
    }
    attribute {
      name: "consumed_inputs"
      ints: 0
      ints: 0
      ints: 0
      ints: 1
      ints: 1
      type: INTS
    }
  }
  node {
    input: "657"
    output: "658"
    op_type: "Relu"
  }
  node {
    input: "658"
    input: "60"
    output: "660"
    op_type: "Conv"
    attribute {
      name: "kernel_shape"
      ints: 1
      ints: 1
      type: INTS
    }
    attribute {
      name: "strides"
      ints: 1
      ints: 1
      type: INTS
    }
    attribute {
      name: "pads"
      ints: 0
      ints: 0
      ints: 0
      ints: 0
      type: INTS
    }
    attribute {
      name: "dilations"
      ints: 1
      ints: 1
      type: INTS
    }
    attribute {
      name: "group"
      i: 1
      type: INT
    }
  }
  node {
    input: "660"
    input: "61"
    input: "62"
    input: "63"
    input: "64"
    output: "661"
    op_type: "BatchNormalization"
    attribute {
      name: "is_test"
      i: 1
      type: INT
    }
    attribute {
      name: "epsilon"
      f: 9.99999974737875e-06
      type: FLOAT
    }
    attribute {
      name: "momentum"
      f: 0.899999976158142
      type: FLOAT
    }
    attribute {
      name: "consumed_inputs"
      ints: 0
      ints: 0
      ints: 0
      ints: 1
      ints: 1
      type: INTS
    }
  }
  node {
    input: "661"
    output: "662"
    op_type: "Relu"
  }
  node {
    input: "662"
    input: "65"
    output: "664"
    op_type: "Conv"
    attribute {
      name: "kernel_shape"
      ints: 3
      ints: 3
      type: INTS
    }
    attribute {
      name: "strides"
      ints: 1
      ints: 1
      type: INTS
    }
    attribute {
      name: "pads"
      ints: 1
      ints: 1
      ints: 1
      ints: 1
      type: INTS
    }
    attribute {
      name: "dilations"
      ints: 1
      ints: 1
      type: INTS
    }
    attribute {
      name: "group"
      i: 1
      type: INT
    }
  }
  node {
    input: "656"
    input: "664"
    output: "665"
    op_type: "Concat"
    attribute {
      name: "axis"
      i: 1
      type: INT
    }
  }
  node {
    input: "665"
    input: "66"
    input: "67"
    input: "68"
    input: "69"
    output: "666"
    op_type: "BatchNormalization"
    attribute {
      name: "is_test"
      i: 1
      type: INT
    }
    attribute {
      name: "epsilon"
      f: 9.99999974737875e-06
      type: FLOAT
    }
    attribute {
      name: "momentum"
      f: 0.899999976158142
      type: FLOAT
    }
    attribute {
      name: "consumed_inputs"
      ints: 0
      ints: 0
      ints: 0
      ints: 1
      ints: 1
      type: INTS
    }
  }
  node {
    input: "666"
    output: "667"
    op_type: "Relu"
  }
  node {
    input: "667"
    input: "70"
    output: "669"
    op_type: "Conv"
    attribute {
      name: "kernel_shape"
      ints: 1
      ints: 1
      type: INTS
    }
    attribute {
      name: "strides"
      ints: 1
      ints: 1
      type: INTS
    }
    attribute {
      name: "pads"
      ints: 0
      ints: 0
      ints: 0
      ints: 0
      type: INTS
    }
    attribute {
      name: "dilations"
      ints: 1
      ints: 1
      type: INTS
    }
    attribute {
      name: "group"
      i: 1
      type: INT
    }
  }
  node {
    input: "669"
    output: "670"
    op_type: "AveragePool"
    attribute {
      name: "kernel_shape"
      ints: 2
      ints: 2
      type: INTS
    }
    attribute {
      name: "pads"
      ints: 0
      ints: 0
      type: INTS
    }
    attribute {
      name: "strides"
      ints: 2
      ints: 2
      type: INTS
    }
  }
  node {
    input: "670"
    input: "71"
    input: "72"
    input: "73"
    input: "74"
    output: "671"
    op_type: "BatchNormalization"
    attribute {
      name: "is_test"
      i: 1
      type: INT
    }
    attribute {
      name: "epsilon"
      f: 9.99999974737875e-06
      type: FLOAT
    }
    attribute {
      name: "momentum"
      f: 0.899999976158142
      type: FLOAT
    }
    attribute {
      name: "consumed_inputs"
      ints: 0
      ints: 0
      ints: 0
      ints: 1
      ints: 1
      type: INTS
    }
  }
  node {
    input: "671"
    output: "672"
    op_type: "Relu"
  }
  node {
    input: "672"
    input: "75"
    output: "674"
    op_type: "Conv"
    attribute {
      name: "kernel_shape"
      ints: 1
      ints: 1
      type: INTS
    }
    attribute {
      name: "strides"
      ints: 1
      ints: 1
      type: INTS
    }
    attribute {
      name: "pads"
      ints: 0
      ints: 0
      ints: 0
      ints: 0
      type: INTS
    }
    attribute {
      name: "dilations"
      ints: 1
      ints: 1
      type: INTS
    }
    attribute {
      name: "group"
      i: 1
      type: INT
    }
  }
  node {
    input: "674"
    input: "76"
    input: "77"
    input: "78"
    input: "79"
    output: "675"
    op_type: "BatchNormalization"
    attribute {
      name: "is_test"
      i: 1
      type: INT
    }
    attribute {
      name: "epsilon"
      f: 9.99999974737875e-06
      type: FLOAT
    }
    attribute {
      name: "momentum"
      f: 0.899999976158142
      type: FLOAT
    }
    attribute {
      name: "consumed_inputs"
      ints: 0
      ints: 0
      ints: 0
      ints: 1
      ints: 1
      type: INTS
    }
  }
  node {
    input: "675"
    output: "676"
    op_type: "Relu"
  }
  node {
    input: "676"
    input: "80"
    output: "678"
    op_type: "Conv"
    attribute {
      name: "kernel_shape"
      ints: 3
      ints: 3
      type: INTS
    }
    attribute {
      name: "strides"
      ints: 1
      ints: 1
      type: INTS
    }
    attribute {
      name: "pads"
      ints: 1
      ints: 1
      ints: 1
      ints: 1
      type: INTS
    }
    attribute {
      name: "dilations"
      ints: 1
      ints: 1
      type: INTS
    }
    attribute {
      name: "group"
      i: 1
      type: INT
    }
  }
  node {
    input: "670"
    input: "678"
    output: "679"
    op_type: "Concat"
    attribute {
      name: "axis"
      i: 1
      type: INT
    }
  }
  node {
    input: "679"
    input: "81"
    input: "82"
    input: "83"
    input: "84"
    output: "680"
    op_type: "BatchNormalization"
    attribute {
      name: "is_test"
      i: 1
      type: INT
    }
    attribute {
      name: "epsilon"
      f: 9.99999974737875e-06
      type: FLOAT
    }
    attribute {
      name: "momentum"
      f: 0.899999976158142
      type: FLOAT
    }
    attribute {
      name: "consumed_inputs"
      ints: 0
      ints: 0
      ints: 0
      ints: 1
      ints: 1
      type: INTS
    }
  }
  node {
    input: "680"
    output: "681"
    op_type: "Relu"
  }
  node {
    input: "681"
    input: "85"
    output: "683"
    op_type: "Conv"
    attribute {
      name: "kernel_shape"
      ints: 1
      ints: 1
      type: INTS
    }
    attribute {
      name: "strides"
      ints: 1
      ints: 1
      type: INTS
    }
    attribute {
      name: "pads"
      ints: 0
      ints: 0
      ints: 0
      ints: 0
      type: INTS
    }
    attribute {
      name: "dilations"
      ints: 1
      ints: 1
      type: INTS
    }
    attribute {
      name: "group"
      i: 1
      type: INT
    }
  }
  node {
    input: "683"
    input: "86"
    input: "87"
    input: "88"
    input: "89"
    output: "684"
    op_type: "BatchNormalization"
    attribute {
      name: "is_test"
      i: 1
      type: INT
    }
    attribute {
      name: "epsilon"
      f: 9.99999974737875e-06
      type: FLOAT
    }
    attribute {
      name: "momentum"
      f: 0.899999976158142
      type: FLOAT
    }
    attribute {
      name: "consumed_inputs"
      ints: 0
      ints: 0
      ints: 0
      ints: 1
      ints: 1
      type: INTS
    }
  }
  node {
    input: "684"
    output: "685"
    op_type: "Relu"
  }
  node {
    input: "685"
    input: "90"
    output: "687"
    op_type: "Conv"
    attribute {
      name: "kernel_shape"
      ints: 3
      ints: 3
      type: INTS
    }
    attribute {
      name: "strides"
      ints: 1
      ints: 1
      type: INTS
    }
    attribute {
      name: "pads"
      ints: 1
      ints: 1
      ints: 1
      ints: 1
      type: INTS
    }
    attribute {
      name: "dilations"
      ints: 1
      ints: 1
      type: INTS
    }
    attribute {
      name: "group"
      i: 1
      type: INT
    }
  }
  node {
    input: "679"
    input: "687"
    output: "688"
    op_type: "Concat"
    attribute {
      name: "axis"
      i: 1
      type: INT
    }
  }
  node {
    input: "688"
    input: "91"
    input: "92"
    input: "93"
    input: "94"
    output: "689"
    op_type: "BatchNormalization"
    attribute {
      name: "is_test"
      i: 1
      type: INT
    }
    attribute {
      name: "epsilon"
      f: 9.99999974737875e-06
      type: FLOAT
    }
    attribute {
      name: "momentum"
      f: 0.899999976158142
      type: FLOAT
    }
    attribute {
      name: "consumed_inputs"
      ints: 0
      ints: 0
      ints: 0
      ints: 1
      ints: 1
      type: INTS
    }
  }
  node {
    input: "689"
    output: "690"
    op_type: "Relu"
  }
  node {
    input: "690"
    input: "95"
    output: "692"
    op_type: "Conv"
    attribute {
      name: "kernel_shape"
      ints: 1
      ints: 1
      type: INTS
    }
    attribute {
      name: "strides"
      ints: 1
      ints: 1
      type: INTS
    }
    attribute {
      name: "pads"
      ints: 0
      ints: 0
      ints: 0
      ints: 0
      type: INTS
    }
    attribute {
      name: "dilations"
      ints: 1
      ints: 1
      type: INTS
    }
    attribute {
      name: "group"
      i: 1
      type: INT
    }
  }
  node {
    input: "692"
    input: "96"
    input: "97"
    input: "98"
    input: "99"
    output: "693"
    op_type: "BatchNormalization"
    attribute {
      name: "is_test"
      i: 1
      type: INT
    }
    attribute {
      name: "epsilon"
      f: 9.99999974737875e-06
      type: FLOAT
    }
    attribute {
      name: "momentum"
      f: 0.899999976158142
      type: FLOAT
    }
    attribute {
      name: "consumed_inputs"
      ints: 0
      ints: 0
      ints: 0
      ints: 1
      ints: 1
      type: INTS
    }
  }
  node {
    input: "693"
    output: "694"
    op_type: "Relu"
  }
  node {
    input: "694"
    input: "100"
    output: "696"
    op_type: "Conv"
    attribute {
      name: "kernel_shape"
      ints: 3
      ints: 3
      type: INTS
    }
    attribute {
      name: "strides"
      ints: 1
      ints: 1
      type: INTS
    }
    attribute {
      name: "pads"
      ints: 1
      ints: 1
      ints: 1
      ints: 1
      type: INTS
    }
    attribute {
      name: "dilations"
      ints: 1
      ints: 1
      type: INTS
    }
    attribute {
      name: "group"
      i: 1
      type: INT
    }
  }
  node {
    input: "688"
    input: "696"
    output: "697"
    op_type: "Concat"
    attribute {
      name: "axis"
      i: 1
      type: INT
    }
  }
  node {
    input: "697"
    input: "101"
    input: "102"
    input: "103"
    input: "104"
    output: "698"
    op_type: "BatchNormalization"
    attribute {
      name: "is_test"
      i: 1
      type: INT
    }
    attribute {
      name: "epsilon"
      f: 9.99999974737875e-06
      type: FLOAT
    }
    attribute {
      name: "momentum"
      f: 0.899999976158142
      type: FLOAT
    }
    attribute {
      name: "consumed_inputs"
      ints: 0
      ints: 0
      ints: 0
      ints: 1
      ints: 1
      type: INTS
    }
  }
  node {
    input: "698"
    output: "699"
    op_type: "Relu"
  }
  node {
    input: "699"
    input: "105"
    output: "701"
    op_type: "Conv"
    attribute {
      name: "kernel_shape"
      ints: 1
      ints: 1
      type: INTS
    }
    attribute {
      name: "strides"
      ints: 1
      ints: 1
      type: INTS
    }
    attribute {
      name: "pads"
      ints: 0
      ints: 0
      ints: 0
      ints: 0
      type: INTS
    }
    attribute {
      name: "dilations"
      ints: 1
      ints: 1
      type: INTS
    }
    attribute {
      name: "group"
      i: 1
      type: INT
    }
  }
  node {
    input: "701"
    input: "106"
    input: "107"
    input: "108"
    input: "109"
    output: "702"
    op_type: "BatchNormalization"
    attribute {
      name: "is_test"
      i: 1
      type: INT
    }
    attribute {
      name: "epsilon"
      f: 9.99999974737875e-06
      type: FLOAT
    }
    attribute {
      name: "momentum"
      f: 0.899999976158142
      type: FLOAT
    }
    attribute {
      name: "consumed_inputs"
      ints: 0
      ints: 0
      ints: 0
      ints: 1
      ints: 1
      type: INTS
    }
  }
  node {
    input: "702"
    output: "703"
    op_type: "Relu"
  }
  node {
    input: "703"
    input: "110"
    output: "705"
    op_type: "Conv"
    attribute {
      name: "kernel_shape"
      ints: 3
      ints: 3
      type: INTS
    }
    attribute {
      name: "strides"
      ints: 1
      ints: 1
      type: INTS
    }
    attribute {
      name: "pads"
      ints: 1
      ints: 1
      ints: 1
      ints: 1
      type: INTS
    }
    attribute {
      name: "dilations"
      ints: 1
      ints: 1
      type: INTS
    }
    attribute {
      name: "group"
      i: 1
      type: INT
    }
  }
  node {
    input: "697"
    input: "705"
    output: "706"
    op_type: "Concat"
    attribute {
      name: "axis"
      i: 1
      type: INT
    }
  }
  node {
    input: "706"
    input: "111"
    input: "112"
    input: "113"
    input: "114"
    output: "707"
    op_type: "BatchNormalization"
    attribute {
      name: "is_test"
      i: 1
      type: INT
    }
    attribute {
      name: "epsilon"
      f: 9.99999974737875e-06
      type: FLOAT
    }
    attribute {
      name: "momentum"
      f: 0.899999976158142
      type: FLOAT
    }
    attribute {
      name: "consumed_inputs"
      ints: 0
      ints: 0
      ints: 0
      ints: 1
      ints: 1
      type: INTS
    }
  }
  node {
    input: "707"
    output: "708"
    op_type: "Relu"
  }
  node {
    input: "708"
    input: "115"
    output: "710"
    op_type: "Conv"
    attribute {
      name: "kernel_shape"
      ints: 1
      ints: 1
      type: INTS
    }
    attribute {
      name: "strides"
      ints: 1
      ints: 1
      type: INTS
    }
    attribute {
      name: "pads"
      ints: 0
      ints: 0
      ints: 0
      ints: 0
      type: INTS
    }
    attribute {
      name: "dilations"
      ints: 1
      ints: 1
      type: INTS
    }
    attribute {
      name: "group"
      i: 1
      type: INT
    }
  }
  node {
    input: "710"
    input: "116"
    input: "117"
    input: "118"
    input: "119"
    output: "711"
    op_type: "BatchNormalization"
    attribute {
      name: "is_test"
      i: 1
      type: INT
    }
    attribute {
      name: "epsilon"
      f: 9.99999974737875e-06
      type: FLOAT
    }
    attribute {
      name: "momentum"
      f: 0.899999976158142
      type: FLOAT
    }
    attribute {
      name: "consumed_inputs"
      ints: 0
      ints: 0
      ints: 0
      ints: 1
      ints: 1
      type: INTS
    }
  }
  node {
    input: "711"
    output: "712"
    op_type: "Relu"
  }
  node {
    input: "712"
    input: "120"
    output: "714"
    op_type: "Conv"
    attribute {
      name: "kernel_shape"
      ints: 3
      ints: 3
      type: INTS
    }
    attribute {
      name: "strides"
      ints: 1
      ints: 1
      type: INTS
    }
    attribute {
      name: "pads"
      ints: 1
      ints: 1
      ints: 1
      ints: 1
      type: INTS
    }
    attribute {
      name: "dilations"
      ints: 1
      ints: 1
      type: INTS
    }
    attribute {
      name: "group"
      i: 1
      type: INT
    }
  }
  node {
    input: "706"
    input: "714"
    output: "715"
    op_type: "Concat"
    attribute {
      name: "axis"
      i: 1
      type: INT
    }
  }
  node {
    input: "715"
    input: "121"
    input: "122"
    input: "123"
    input: "124"
    output: "716"
    op_type: "BatchNormalization"
    attribute {
      name: "is_test"
      i: 1
      type: INT
    }
    attribute {
      name: "epsilon"
      f: 9.99999974737875e-06
      type: FLOAT
    }
    attribute {
      name: "momentum"
      f: 0.899999976158142
      type: FLOAT
    }
    attribute {
      name: "consumed_inputs"
      ints: 0
      ints: 0
      ints: 0
      ints: 1
      ints: 1
      type: INTS
    }
  }
  node {
    input: "716"
    output: "717"
    op_type: "Relu"
  }
  node {
    input: "717"
    input: "125"
    output: "719"
    op_type: "Conv"
    attribute {
      name: "kernel_shape"
      ints: 1
      ints: 1
      type: INTS
    }
    attribute {
      name: "strides"
      ints: 1
      ints: 1
      type: INTS
    }
    attribute {
      name: "pads"
      ints: 0
      ints: 0
      ints: 0
      ints: 0
      type: INTS
    }
    attribute {
      name: "dilations"
      ints: 1
      ints: 1
      type: INTS
    }
    attribute {
      name: "group"
      i: 1
      type: INT
    }
  }
  node {
    input: "719"
    input: "126"
    input: "127"
    input: "128"
    input: "129"
    output: "720"
    op_type: "BatchNormalization"
    attribute {
      name: "is_test"
      i: 1
      type: INT
    }
    attribute {
      name: "epsilon"
      f: 9.99999974737875e-06
      type: FLOAT
    }
    attribute {
      name: "momentum"
      f: 0.899999976158142
      type: FLOAT
    }
    attribute {
      name: "consumed_inputs"
      ints: 0
      ints: 0
      ints: 0
      ints: 1
      ints: 1
      type: INTS
    }
  }
  node {
    input: "720"
    output: "721"
    op_type: "Relu"
  }
  node {
    input: "721"
    input: "130"
    output: "723"
    op_type: "Conv"
    attribute {
      name: "kernel_shape"
      ints: 3
      ints: 3
      type: INTS
    }
    attribute {
      name: "strides"
      ints: 1
      ints: 1
      type: INTS
    }
    attribute {
      name: "pads"
      ints: 1
      ints: 1
      ints: 1
      ints: 1
      type: INTS
    }
    attribute {
      name: "dilations"
      ints: 1
      ints: 1
      type: INTS
    }
    attribute {
      name: "group"
      i: 1
      type: INT
    }
  }
  node {
    input: "715"
    input: "723"
    output: "724"
    op_type: "Concat"
    attribute {
      name: "axis"
      i: 1
      type: INT
    }
  }
  node {
    input: "724"
    input: "131"
    input: "132"
    input: "133"
    input: "134"
    output: "725"
    op_type: "BatchNormalization"
    attribute {
      name: "is_test"
      i: 1
      type: INT
    }
    attribute {
      name: "epsilon"
      f: 9.99999974737875e-06
      type: FLOAT
    }
    attribute {
      name: "momentum"
      f: 0.899999976158142
      type: FLOAT
    }
    attribute {
      name: "consumed_inputs"
      ints: 0
      ints: 0
      ints: 0
      ints: 1
      ints: 1
      type: INTS
    }
  }
  node {
    input: "725"
    output: "726"
    op_type: "Relu"
  }
  node {
    input: "726"
    input: "135"
    output: "728"
    op_type: "Conv"
    attribute {
      name: "kernel_shape"
      ints: 1
      ints: 1
      type: INTS
    }
    attribute {
      name: "strides"
      ints: 1
      ints: 1
      type: INTS
    }
    attribute {
      name: "pads"
      ints: 0
      ints: 0
      ints: 0
      ints: 0
      type: INTS
    }
    attribute {
      name: "dilations"
      ints: 1
      ints: 1
      type: INTS
    }
    attribute {
      name: "group"
      i: 1
      type: INT
    }
  }
  node {
    input: "728"
    input: "136"
    input: "137"
    input: "138"
    input: "139"
    output: "729"
    op_type: "BatchNormalization"
    attribute {
      name: "is_test"
      i: 1
      type: INT
    }
    attribute {
      name: "epsilon"
      f: 9.99999974737875e-06
      type: FLOAT
    }
    attribute {
      name: "momentum"
      f: 0.899999976158142
      type: FLOAT
    }
    attribute {
      name: "consumed_inputs"
      ints: 0
      ints: 0
      ints: 0
      ints: 1
      ints: 1
      type: INTS
    }
  }
  node {
    input: "729"
    output: "730"
    op_type: "Relu"
  }
  node {
    input: "730"
    input: "140"
    output: "732"
    op_type: "Conv"
    attribute {
      name: "kernel_shape"
      ints: 3
      ints: 3
      type: INTS
    }
    attribute {
      name: "strides"
      ints: 1
      ints: 1
      type: INTS
    }
    attribute {
      name: "pads"
      ints: 1
      ints: 1
      ints: 1
      ints: 1
      type: INTS
    }
    attribute {
      name: "dilations"
      ints: 1
      ints: 1
      type: INTS
    }
    attribute {
      name: "group"
      i: 1
      type: INT
    }
  }
  node {
    input: "724"
    input: "732"
    output: "733"
    op_type: "Concat"
    attribute {
      name: "axis"
      i: 1
      type: INT
    }
  }
  node {
    input: "733"
    input: "141"
    input: "142"
    input: "143"
    input: "144"
    output: "734"
    op_type: "BatchNormalization"
    attribute {
      name: "is_test"
      i: 1
      type: INT
    }
    attribute {
      name: "epsilon"
      f: 9.99999974737875e-06
      type: FLOAT
    }
    attribute {
      name: "momentum"
      f: 0.899999976158142
      type: FLOAT
    }
    attribute {
      name: "consumed_inputs"
      ints: 0
      ints: 0
      ints: 0
      ints: 1
      ints: 1
      type: INTS
    }
  }
  node {
    input: "734"
    output: "735"
    op_type: "Relu"
  }
  node {
    input: "735"
    input: "145"
    output: "737"
    op_type: "Conv"
    attribute {
      name: "kernel_shape"
      ints: 1
      ints: 1
      type: INTS
    }
    attribute {
      name: "strides"
      ints: 1
      ints: 1
      type: INTS
    }
    attribute {
      name: "pads"
      ints: 0
      ints: 0
      ints: 0
      ints: 0
      type: INTS
    }
    attribute {
      name: "dilations"
      ints: 1
      ints: 1
      type: INTS
    }
    attribute {
      name: "group"
      i: 1
      type: INT
    }
  }
  node {
    input: "737"
    input: "146"
    input: "147"
    input: "148"
    input: "149"
    output: "738"
    op_type: "BatchNormalization"
    attribute {
      name: "is_test"
      i: 1
      type: INT
    }
    attribute {
      name: "epsilon"
      f: 9.99999974737875e-06
      type: FLOAT
    }
    attribute {
      name: "momentum"
      f: 0.899999976158142
      type: FLOAT
    }
    attribute {
      name: "consumed_inputs"
      ints: 0
      ints: 0
      ints: 0
      ints: 1
      ints: 1
      type: INTS
    }
  }
  node {
    input: "738"
    output: "739"
    op_type: "Relu"
  }
  node {
    input: "739"
    input: "150"
    output: "741"
    op_type: "Conv"
    attribute {
      name: "kernel_shape"
      ints: 3
      ints: 3
      type: INTS
    }
    attribute {
      name: "strides"
      ints: 1
      ints: 1
      type: INTS
    }
    attribute {
      name: "pads"
      ints: 1
      ints: 1
      ints: 1
      ints: 1
      type: INTS
    }
    attribute {
      name: "dilations"
      ints: 1
      ints: 1
      type: INTS
    }
    attribute {
      name: "group"
      i: 1
      type: INT
    }
  }
  node {
    input: "733"
    input: "741"
    output: "742"
    op_type: "Concat"
    attribute {
      name: "axis"
      i: 1
      type: INT
    }
  }
  node {
    input: "742"
    input: "151"
    input: "152"
    input: "153"
    input: "154"
    output: "743"
    op_type: "BatchNormalization"
    attribute {
      name: "is_test"
      i: 1
      type: INT
    }
    attribute {
      name: "epsilon"
      f: 9.99999974737875e-06
      type: FLOAT
    }
    attribute {
      name: "momentum"
      f: 0.899999976158142
      type: FLOAT
    }
    attribute {
      name: "consumed_inputs"
      ints: 0
      ints: 0
      ints: 0
      ints: 1
      ints: 1
      type: INTS
    }
  }
  node {
    input: "743"
    output: "744"
    op_type: "Relu"
  }
  node {
    input: "744"
    input: "155"
    output: "746"
    op_type: "Conv"
    attribute {
      name: "kernel_shape"
      ints: 1
      ints: 1
      type: INTS
    }
    attribute {
      name: "strides"
      ints: 1
      ints: 1
      type: INTS
    }
    attribute {
      name: "pads"
      ints: 0
      ints: 0
      ints: 0
      ints: 0
      type: INTS
    }
    attribute {
      name: "dilations"
      ints: 1
      ints: 1
      type: INTS
    }
    attribute {
      name: "group"
      i: 1
      type: INT
    }
  }
  node {
    input: "746"
    input: "156"
    input: "157"
    input: "158"
    input: "159"
    output: "747"
    op_type: "BatchNormalization"
    attribute {
      name: "is_test"
      i: 1
      type: INT
    }
    attribute {
      name: "epsilon"
      f: 9.99999974737875e-06
      type: FLOAT
    }
    attribute {
      name: "momentum"
      f: 0.899999976158142
      type: FLOAT
    }
    attribute {
      name: "consumed_inputs"
      ints: 0
      ints: 0
      ints: 0
      ints: 1
      ints: 1
      type: INTS
    }
  }
  node {
    input: "747"
    output: "748"
    op_type: "Relu"
  }
  node {
    input: "748"
    input: "160"
    output: "750"
    op_type: "Conv"
    attribute {
      name: "kernel_shape"
      ints: 3
      ints: 3
      type: INTS
    }
    attribute {
      name: "strides"
      ints: 1
      ints: 1
      type: INTS
    }
    attribute {
      name: "pads"
      ints: 1
      ints: 1
      ints: 1
      ints: 1
      type: INTS
    }
    attribute {
      name: "dilations"
      ints: 1
      ints: 1
      type: INTS
    }
    attribute {
      name: "group"
      i: 1
      type: INT
    }
  }
  node {
    input: "742"
    input: "750"
    output: "751"
    op_type: "Concat"
    attribute {
      name: "axis"
      i: 1
      type: INT
    }
  }
  node {
    input: "751"
    input: "161"
    input: "162"
    input: "163"
    input: "164"
    output: "752"
    op_type: "BatchNormalization"
    attribute {
      name: "is_test"
      i: 1
      type: INT
    }
    attribute {
      name: "epsilon"
      f: 9.99999974737875e-06
      type: FLOAT
    }
    attribute {
      name: "momentum"
      f: 0.899999976158142
      type: FLOAT
    }
    attribute {
      name: "consumed_inputs"
      ints: 0
      ints: 0
      ints: 0
      ints: 1
      ints: 1
      type: INTS
    }
  }
  node {
    input: "752"
    output: "753"
    op_type: "Relu"
  }
  node {
    input: "753"
    input: "165"
    output: "755"
    op_type: "Conv"
    attribute {
      name: "kernel_shape"
      ints: 1
      ints: 1
      type: INTS
    }
    attribute {
      name: "strides"
      ints: 1
      ints: 1
      type: INTS
    }
    attribute {
      name: "pads"
      ints: 0
      ints: 0
      ints: 0
      ints: 0
      type: INTS
    }
    attribute {
      name: "dilations"
      ints: 1
      ints: 1
      type: INTS
    }
    attribute {
      name: "group"
      i: 1
      type: INT
    }
  }
  node {
    input: "755"
    input: "166"
    input: "167"
    input: "168"
    input: "169"
    output: "756"
    op_type: "BatchNormalization"
    attribute {
      name: "is_test"
      i: 1
      type: INT
    }
    attribute {
      name: "epsilon"
      f: 9.99999974737875e-06
      type: FLOAT
    }
    attribute {
      name: "momentum"
      f: 0.899999976158142
      type: FLOAT
    }
    attribute {
      name: "consumed_inputs"
      ints: 0
      ints: 0
      ints: 0
      ints: 1
      ints: 1
      type: INTS
    }
  }
  node {
    input: "756"
    output: "757"
    op_type: "Relu"
  }
  node {
    input: "757"
    input: "170"
    output: "759"
    op_type: "Conv"
    attribute {
      name: "kernel_shape"
      ints: 3
      ints: 3
      type: INTS
    }
    attribute {
      name: "strides"
      ints: 1
      ints: 1
      type: INTS
    }
    attribute {
      name: "pads"
      ints: 1
      ints: 1
      ints: 1
      ints: 1
      type: INTS
    }
    attribute {
      name: "dilations"
      ints: 1
      ints: 1
      type: INTS
    }
    attribute {
      name: "group"
      i: 1
      type: INT
    }
  }
  node {
    input: "751"
    input: "759"
    output: "760"
    op_type: "Concat"
    attribute {
      name: "axis"
      i: 1
      type: INT
    }
  }
  node {
    input: "760"
    input: "171"
    input: "172"
    input: "173"
    input: "174"
    output: "761"
    op_type: "BatchNormalization"
    attribute {
      name: "is_test"
      i: 1
      type: INT
    }
    attribute {
      name: "epsilon"
      f: 9.99999974737875e-06
      type: FLOAT
    }
    attribute {
      name: "momentum"
      f: 0.899999976158142
      type: FLOAT
    }
    attribute {
      name: "consumed_inputs"
      ints: 0
      ints: 0
      ints: 0
      ints: 1
      ints: 1
      type: INTS
    }
  }
  node {
    input: "761"
    output: "762"
    op_type: "Relu"
  }
  node {
    input: "762"
    input: "175"
    output: "764"
    op_type: "Conv"
    attribute {
      name: "kernel_shape"
      ints: 1
      ints: 1
      type: INTS
    }
    attribute {
      name: "strides"
      ints: 1
      ints: 1
      type: INTS
    }
    attribute {
      name: "pads"
      ints: 0
      ints: 0
      ints: 0
      ints: 0
      type: INTS
    }
    attribute {
      name: "dilations"
      ints: 1
      ints: 1
      type: INTS
    }
    attribute {
      name: "group"
      i: 1
      type: INT
    }
  }
  node {
    input: "764"
    input: "176"
    input: "177"
    input: "178"
    input: "179"
    output: "765"
    op_type: "BatchNormalization"
    attribute {
      name: "is_test"
      i: 1
      type: INT
    }
    attribute {
      name: "epsilon"
      f: 9.99999974737875e-06
      type: FLOAT
    }
    attribute {
      name: "momentum"
      f: 0.899999976158142
      type: FLOAT
    }
    attribute {
      name: "consumed_inputs"
      ints: 0
      ints: 0
      ints: 0
      ints: 1
      ints: 1
      type: INTS
    }
  }
  node {
    input: "765"
    output: "766"
    op_type: "Relu"
  }
  node {
    input: "766"
    input: "180"
    output: "768"
    op_type: "Conv"
    attribute {
      name: "kernel_shape"
      ints: 3
      ints: 3
      type: INTS
    }
    attribute {
      name: "strides"
      ints: 1
      ints: 1
      type: INTS
    }
    attribute {
      name: "pads"
      ints: 1
      ints: 1
      ints: 1
      ints: 1
      type: INTS
    }
    attribute {
      name: "dilations"
      ints: 1
      ints: 1
      type: INTS
    }
    attribute {
      name: "group"
      i: 1
      type: INT
    }
  }
  node {
    input: "760"
    input: "768"
    output: "769"
    op_type: "Concat"
    attribute {
      name: "axis"
      i: 1
      type: INT
    }
  }
  node {
    input: "769"
    input: "181"
    input: "182"
    input: "183"
    input: "184"
    output: "770"
    op_type: "BatchNormalization"
    attribute {
      name: "is_test"
      i: 1
      type: INT
    }
    attribute {
      name: "epsilon"
      f: 9.99999974737875e-06
      type: FLOAT
    }
    attribute {
      name: "momentum"
      f: 0.899999976158142
      type: FLOAT
    }
    attribute {
      name: "consumed_inputs"
      ints: 0
      ints: 0
      ints: 0
      ints: 1
      ints: 1
      type: INTS
    }
  }
  node {
    input: "770"
    output: "771"
    op_type: "Relu"
  }
  node {
    input: "771"
    input: "185"
    output: "773"
    op_type: "Conv"
    attribute {
      name: "kernel_shape"
      ints: 1
      ints: 1
      type: INTS
    }
    attribute {
      name: "strides"
      ints: 1
      ints: 1
      type: INTS
    }
    attribute {
      name: "pads"
      ints: 0
      ints: 0
      ints: 0
      ints: 0
      type: INTS
    }
    attribute {
      name: "dilations"
      ints: 1
      ints: 1
      type: INTS
    }
    attribute {
      name: "group"
      i: 1
      type: INT
    }
  }
  node {
    input: "773"
    input: "186"
    input: "187"
    input: "188"
    input: "189"
    output: "774"
    op_type: "BatchNormalization"
    attribute {
      name: "is_test"
      i: 1
      type: INT
    }
    attribute {
      name: "epsilon"
      f: 9.99999974737875e-06
      type: FLOAT
    }
    attribute {
      name: "momentum"
      f: 0.899999976158142
      type: FLOAT
    }
    attribute {
      name: "consumed_inputs"
      ints: 0
      ints: 0
      ints: 0
      ints: 1
      ints: 1
      type: INTS
    }
  }
  node {
    input: "774"
    output: "775"
    op_type: "Relu"
  }
  node {
    input: "775"
    input: "190"
    output: "777"
    op_type: "Conv"
    attribute {
      name: "kernel_shape"
      ints: 3
      ints: 3
      type: INTS
    }
    attribute {
      name: "strides"
      ints: 1
      ints: 1
      type: INTS
    }
    attribute {
      name: "pads"
      ints: 1
      ints: 1
      ints: 1
      ints: 1
      type: INTS
    }
    attribute {
      name: "dilations"
      ints: 1
      ints: 1
      type: INTS
    }
    attribute {
      name: "group"
      i: 1
      type: INT
    }
  }
  node {
    input: "769"
    input: "777"
    output: "778"
    op_type: "Concat"
    attribute {
      name: "axis"
      i: 1
      type: INT
    }
  }
  node {
    input: "778"
    input: "191"
    input: "192"
    input: "193"
    input: "194"
    output: "779"
    op_type: "BatchNormalization"
    attribute {
      name: "is_test"
      i: 1
      type: INT
    }
    attribute {
      name: "epsilon"
      f: 9.99999974737875e-06
      type: FLOAT
    }
    attribute {
      name: "momentum"
      f: 0.899999976158142
      type: FLOAT
    }
    attribute {
      name: "consumed_inputs"
      ints: 0
      ints: 0
      ints: 0
      ints: 1
      ints: 1
      type: INTS
    }
  }
  node {
    input: "779"
    output: "780"
    op_type: "Relu"
  }
  node {
    input: "780"
    input: "195"
    output: "782"
    op_type: "Conv"
    attribute {
      name: "kernel_shape"
      ints: 1
      ints: 1
      type: INTS
    }
    attribute {
      name: "strides"
      ints: 1
      ints: 1
      type: INTS
    }
    attribute {
      name: "pads"
      ints: 0
      ints: 0
      ints: 0
      ints: 0
      type: INTS
    }
    attribute {
      name: "dilations"
      ints: 1
      ints: 1
      type: INTS
    }
    attribute {
      name: "group"
      i: 1
      type: INT
    }
  }
  node {
    input: "782"
    output: "783"
    op_type: "AveragePool"
    attribute {
      name: "kernel_shape"
      ints: 2
      ints: 2
      type: INTS
    }
    attribute {
      name: "pads"
      ints: 0
      ints: 0
      type: INTS
    }
    attribute {
      name: "strides"
      ints: 2
      ints: 2
      type: INTS
    }
  }
  node {
    input: "783"
    input: "196"
    input: "197"
    input: "198"
    input: "199"
    output: "784"
    op_type: "BatchNormalization"
    attribute {
      name: "is_test"
      i: 1
      type: INT
    }
    attribute {
      name: "epsilon"
      f: 9.99999974737875e-06
      type: FLOAT
    }
    attribute {
      name: "momentum"
      f: 0.899999976158142
      type: FLOAT
    }
    attribute {
      name: "consumed_inputs"
      ints: 0
      ints: 0
      ints: 0
      ints: 1
      ints: 1
      type: INTS
    }
  }
  node {
    input: "784"
    output: "785"
    op_type: "Relu"
  }
  node {
    input: "785"
    input: "200"
    output: "787"
    op_type: "Conv"
    attribute {
      name: "kernel_shape"
      ints: 1
      ints: 1
      type: INTS
    }
    attribute {
      name: "strides"
      ints: 1
      ints: 1
      type: INTS
    }
    attribute {
      name: "pads"
      ints: 0
      ints: 0
      ints: 0
      ints: 0
      type: INTS
    }
    attribute {
      name: "dilations"
      ints: 1
      ints: 1
      type: INTS
    }
    attribute {
      name: "group"
      i: 1
      type: INT
    }
  }
  node {
    input: "787"
    input: "201"
    input: "202"
    input: "203"
    input: "204"
    output: "788"
    op_type: "BatchNormalization"
    attribute {
      name: "is_test"
      i: 1
      type: INT
    }
    attribute {
      name: "epsilon"
      f: 9.99999974737875e-06
      type: FLOAT
    }
    attribute {
      name: "momentum"
      f: 0.899999976158142
      type: FLOAT
    }
    attribute {
      name: "consumed_inputs"
      ints: 0
      ints: 0
      ints: 0
      ints: 1
      ints: 1
      type: INTS
    }
  }
  node {
    input: "788"
    output: "789"
    op_type: "Relu"
  }
  node {
    input: "789"
    input: "205"
    output: "791"
    op_type: "Conv"
    attribute {
      name: "kernel_shape"
      ints: 3
      ints: 3
      type: INTS
    }
    attribute {
      name: "strides"
      ints: 1
      ints: 1
      type: INTS
    }
    attribute {
      name: "pads"
      ints: 1
      ints: 1
      ints: 1
      ints: 1
      type: INTS
    }
    attribute {
      name: "dilations"
      ints: 1
      ints: 1
      type: INTS
    }
    attribute {
      name: "group"
      i: 1
      type: INT
    }
  }
  node {
    input: "783"
    input: "791"
    output: "792"
    op_type: "Concat"
    attribute {
      name: "axis"
      i: 1
      type: INT
    }
  }
  node {
    input: "792"
    input: "206"
    input: "207"
    input: "208"
    input: "209"
    output: "793"
    op_type: "BatchNormalization"
    attribute {
      name: "is_test"
      i: 1
      type: INT
    }
    attribute {
      name: "epsilon"
      f: 9.99999974737875e-06
      type: FLOAT
    }
    attribute {
      name: "momentum"
      f: 0.899999976158142
      type: FLOAT
    }
    attribute {
      name: "consumed_inputs"
      ints: 0
      ints: 0
      ints: 0
      ints: 1
      ints: 1
      type: INTS
    }
  }
  node {
    input: "793"
    output: "794"
    op_type: "Relu"
  }
  node {
    input: "794"
    input: "210"
    output: "796"
    op_type: "Conv"
    attribute {
      name: "kernel_shape"
      ints: 1
      ints: 1
      type: INTS
    }
    attribute {
      name: "strides"
      ints: 1
      ints: 1
      type: INTS
    }
    attribute {
      name: "pads"
      ints: 0
      ints: 0
      ints: 0
      ints: 0
      type: INTS
    }
    attribute {
      name: "dilations"
      ints: 1
      ints: 1
      type: INTS
    }
    attribute {
      name: "group"
      i: 1
      type: INT
    }
  }
  node {
    input: "796"
    input: "211"
    input: "212"
    input: "213"
    input: "214"
    output: "797"
    op_type: "BatchNormalization"
    attribute {
      name: "is_test"
      i: 1
      type: INT
    }
    attribute {
      name: "epsilon"
      f: 9.99999974737875e-06
      type: FLOAT
    }
    attribute {
      name: "momentum"
      f: 0.899999976158142
      type: FLOAT
    }
    attribute {
      name: "consumed_inputs"
      ints: 0
      ints: 0
      ints: 0
      ints: 1
      ints: 1
      type: INTS
    }
  }
  node {
    input: "797"
    output: "798"
    op_type: "Relu"
  }
  node {
    input: "798"
    input: "215"
    output: "800"
    op_type: "Conv"
    attribute {
      name: "kernel_shape"
      ints: 3
      ints: 3
      type: INTS
    }
    attribute {
      name: "strides"
      ints: 1
      ints: 1
      type: INTS
    }
    attribute {
      name: "pads"
      ints: 1
      ints: 1
      ints: 1
      ints: 1
      type: INTS
    }
    attribute {
      name: "dilations"
      ints: 1
      ints: 1
      type: INTS
    }
    attribute {
      name: "group"
      i: 1
      type: INT
    }
  }
  node {
    input: "792"
    input: "800"
    output: "801"
    op_type: "Concat"
    attribute {
      name: "axis"
      i: 1
      type: INT
    }
  }
  node {
    input: "801"
    input: "216"
    input: "217"
    input: "218"
    input: "219"
    output: "802"
    op_type: "BatchNormalization"
    attribute {
      name: "is_test"
      i: 1
      type: INT
    }
    attribute {
      name: "epsilon"
      f: 9.99999974737875e-06
      type: FLOAT
    }
    attribute {
      name: "momentum"
      f: 0.899999976158142
      type: FLOAT
    }
    attribute {
      name: "consumed_inputs"
      ints: 0
      ints: 0
      ints: 0
      ints: 1
      ints: 1
      type: INTS
    }
  }
  node {
    input: "802"
    output: "803"
    op_type: "Relu"
  }
  node {
    input: "803"
    input: "220"
    output: "805"
    op_type: "Conv"
    attribute {
      name: "kernel_shape"
      ints: 1
      ints: 1
      type: INTS
    }
    attribute {
      name: "strides"
      ints: 1
      ints: 1
      type: INTS
    }
    attribute {
      name: "pads"
      ints: 0
      ints: 0
      ints: 0
      ints: 0
      type: INTS
    }
    attribute {
      name: "dilations"
      ints: 1
      ints: 1
      type: INTS
    }
    attribute {
      name: "group"
      i: 1
      type: INT
    }
  }
  node {
    input: "805"
    input: "221"
    input: "222"
    input: "223"
    input: "224"
    output: "806"
    op_type: "BatchNormalization"
    attribute {
      name: "is_test"
      i: 1
      type: INT
    }
    attribute {
      name: "epsilon"
      f: 9.99999974737875e-06
      type: FLOAT
    }
    attribute {
      name: "momentum"
      f: 0.899999976158142
      type: FLOAT
    }
    attribute {
      name: "consumed_inputs"
      ints: 0
      ints: 0
      ints: 0
      ints: 1
      ints: 1
      type: INTS
    }
  }
  node {
    input: "806"
    output: "807"
    op_type: "Relu"
  }
  node {
    input: "807"
    input: "225"
    output: "809"
    op_type: "Conv"
    attribute {
      name: "kernel_shape"
      ints: 3
      ints: 3
      type: INTS
    }
    attribute {
      name: "strides"
      ints: 1
      ints: 1
      type: INTS
    }
    attribute {
      name: "pads"
      ints: 1
      ints: 1
      ints: 1
      ints: 1
      type: INTS
    }
    attribute {
      name: "dilations"
      ints: 1
      ints: 1
      type: INTS
    }
    attribute {
      name: "group"
      i: 1
      type: INT
    }
  }
  node {
    input: "801"
    input: "809"
    output: "810"
    op_type: "Concat"
    attribute {
      name: "axis"
      i: 1
      type: INT
    }
  }
  node {
    input: "810"
    input: "226"
    input: "227"
    input: "228"
    input: "229"
    output: "811"
    op_type: "BatchNormalization"
    attribute {
      name: "is_test"
      i: 1
      type: INT
    }
    attribute {
      name: "epsilon"
      f: 9.99999974737875e-06
      type: FLOAT
    }
    attribute {
      name: "momentum"
      f: 0.899999976158142
      type: FLOAT
    }
    attribute {
      name: "consumed_inputs"
      ints: 0
      ints: 0
      ints: 0
      ints: 1
      ints: 1
      type: INTS
    }
  }
  node {
    input: "811"
    output: "812"
    op_type: "Relu"
  }
  node {
    input: "812"
    input: "230"
    output: "814"
    op_type: "Conv"
    attribute {
      name: "kernel_shape"
      ints: 1
      ints: 1
      type: INTS
    }
    attribute {
      name: "strides"
      ints: 1
      ints: 1
      type: INTS
    }
    attribute {
      name: "pads"
      ints: 0
      ints: 0
      ints: 0
      ints: 0
      type: INTS
    }
    attribute {
      name: "dilations"
      ints: 1
      ints: 1
      type: INTS
    }
    attribute {
      name: "group"
      i: 1
      type: INT
    }
  }
  node {
    input: "814"
    input: "231"
    input: "232"
    input: "233"
    input: "234"
    output: "815"
    op_type: "BatchNormalization"
    attribute {
      name: "is_test"
      i: 1
      type: INT
    }
    attribute {
      name: "epsilon"
      f: 9.99999974737875e-06
      type: FLOAT
    }
    attribute {
      name: "momentum"
      f: 0.899999976158142
      type: FLOAT
    }
    attribute {
      name: "consumed_inputs"
      ints: 0
      ints: 0
      ints: 0
      ints: 1
      ints: 1
      type: INTS
    }
  }
  node {
    input: "815"
    output: "816"
    op_type: "Relu"
  }
  node {
    input: "816"
    input: "235"
    output: "818"
    op_type: "Conv"
    attribute {
      name: "kernel_shape"
      ints: 3
      ints: 3
      type: INTS
    }
    attribute {
      name: "strides"
      ints: 1
      ints: 1
      type: INTS
    }
    attribute {
      name: "pads"
      ints: 1
      ints: 1
      ints: 1
      ints: 1
      type: INTS
    }
    attribute {
      name: "dilations"
      ints: 1
      ints: 1
      type: INTS
    }
    attribute {
      name: "group"
      i: 1
      type: INT
    }
  }
  node {
    input: "810"
    input: "818"
    output: "819"
    op_type: "Concat"
    attribute {
      name: "axis"
      i: 1
      type: INT
    }
  }
  node {
    input: "819"
    input: "236"
    input: "237"
    input: "238"
    input: "239"
    output: "820"
    op_type: "BatchNormalization"
    attribute {
      name: "is_test"
      i: 1
      type: INT
    }
    attribute {
      name: "epsilon"
      f: 9.99999974737875e-06
      type: FLOAT
    }
    attribute {
      name: "momentum"
      f: 0.899999976158142
      type: FLOAT
    }
    attribute {
      name: "consumed_inputs"
      ints: 0
      ints: 0
      ints: 0
      ints: 1
      ints: 1
      type: INTS
    }
  }
  node {
    input: "820"
    output: "821"
    op_type: "Relu"
  }
  node {
    input: "821"
    input: "240"
    output: "823"
    op_type: "Conv"
    attribute {
      name: "kernel_shape"
      ints: 1
      ints: 1
      type: INTS
    }
    attribute {
      name: "strides"
      ints: 1
      ints: 1
      type: INTS
    }
    attribute {
      name: "pads"
      ints: 0
      ints: 0
      ints: 0
      ints: 0
      type: INTS
    }
    attribute {
      name: "dilations"
      ints: 1
      ints: 1
      type: INTS
    }
    attribute {
      name: "group"
      i: 1
      type: INT
    }
  }
  node {
    input: "823"
    input: "241"
    input: "242"
    input: "243"
    input: "244"
    output: "824"
    op_type: "BatchNormalization"
    attribute {
      name: "is_test"
      i: 1
      type: INT
    }
    attribute {
      name: "epsilon"
      f: 9.99999974737875e-06
      type: FLOAT
    }
    attribute {
      name: "momentum"
      f: 0.899999976158142
      type: FLOAT
    }
    attribute {
      name: "consumed_inputs"
      ints: 0
      ints: 0
      ints: 0
      ints: 1
      ints: 1
      type: INTS
    }
  }
  node {
    input: "824"
    output: "825"
    op_type: "Relu"
  }
  node {
    input: "825"
    input: "245"
    output: "827"
    op_type: "Conv"
    attribute {
      name: "kernel_shape"
      ints: 3
      ints: 3
      type: INTS
    }
    attribute {
      name: "strides"
      ints: 1
      ints: 1
      type: INTS
    }
    attribute {
      name: "pads"
      ints: 1
      ints: 1
      ints: 1
      ints: 1
      type: INTS
    }
    attribute {
      name: "dilations"
      ints: 1
      ints: 1
      type: INTS
    }
    attribute {
      name: "group"
      i: 1
      type: INT
    }
  }
  node {
    input: "819"
    input: "827"
    output: "828"
    op_type: "Concat"
    attribute {
      name: "axis"
      i: 1
      type: INT
    }
  }
  node {
    input: "828"
    input: "246"
    input: "247"
    input: "248"
    input: "249"
    output: "829"
    op_type: "BatchNormalization"
    attribute {
      name: "is_test"
      i: 1
      type: INT
    }
    attribute {
      name: "epsilon"
      f: 9.99999974737875e-06
      type: FLOAT
    }
    attribute {
      name: "momentum"
      f: 0.899999976158142
      type: FLOAT
    }
    attribute {
      name: "consumed_inputs"
      ints: 0
      ints: 0
      ints: 0
      ints: 1
      ints: 1
      type: INTS
    }
  }
  node {
    input: "829"
    output: "830"
    op_type: "Relu"
  }
  node {
    input: "830"
    input: "250"
    output: "832"
    op_type: "Conv"
    attribute {
      name: "kernel_shape"
      ints: 1
      ints: 1
      type: INTS
    }
    attribute {
      name: "strides"
      ints: 1
      ints: 1
      type: INTS
    }
    attribute {
      name: "pads"
      ints: 0
      ints: 0
      ints: 0
      ints: 0
      type: INTS
    }
    attribute {
      name: "dilations"
      ints: 1
      ints: 1
      type: INTS
    }
    attribute {
      name: "group"
      i: 1
      type: INT
    }
  }
  node {
    input: "832"
    input: "251"
    input: "252"
    input: "253"
    input: "254"
    output: "833"
    op_type: "BatchNormalization"
    attribute {
      name: "is_test"
      i: 1
      type: INT
    }
    attribute {
      name: "epsilon"
      f: 9.99999974737875e-06
      type: FLOAT
    }
    attribute {
      name: "momentum"
      f: 0.899999976158142
      type: FLOAT
    }
    attribute {
      name: "consumed_inputs"
      ints: 0
      ints: 0
      ints: 0
      ints: 1
      ints: 1
      type: INTS
    }
  }
  node {
    input: "833"
    output: "834"
    op_type: "Relu"
  }
  node {
    input: "834"
    input: "255"
    output: "836"
    op_type: "Conv"
    attribute {
      name: "kernel_shape"
      ints: 3
      ints: 3
      type: INTS
    }
    attribute {
      name: "strides"
      ints: 1
      ints: 1
      type: INTS
    }
    attribute {
      name: "pads"
      ints: 1
      ints: 1
      ints: 1
      ints: 1
      type: INTS
    }
    attribute {
      name: "dilations"
      ints: 1
      ints: 1
      type: INTS
    }
    attribute {
      name: "group"
      i: 1
      type: INT
    }
  }
  node {
    input: "828"
    input: "836"
    output: "837"
    op_type: "Concat"
    attribute {
      name: "axis"
      i: 1
      type: INT
    }
  }
  node {
    input: "837"
    input: "256"
    input: "257"
    input: "258"
    input: "259"
    output: "838"
    op_type: "BatchNormalization"
    attribute {
      name: "is_test"
      i: 1
      type: INT
    }
    attribute {
      name: "epsilon"
      f: 9.99999974737875e-06
      type: FLOAT
    }
    attribute {
      name: "momentum"
      f: 0.899999976158142
      type: FLOAT
    }
    attribute {
      name: "consumed_inputs"
      ints: 0
      ints: 0
      ints: 0
      ints: 1
      ints: 1
      type: INTS
    }
  }
  node {
    input: "838"
    output: "839"
    op_type: "Relu"
  }
  node {
    input: "839"
    input: "260"
    output: "841"
    op_type: "Conv"
    attribute {
      name: "kernel_shape"
      ints: 1
      ints: 1
      type: INTS
    }
    attribute {
      name: "strides"
      ints: 1
      ints: 1
      type: INTS
    }
    attribute {
      name: "pads"
      ints: 0
      ints: 0
      ints: 0
      ints: 0
      type: INTS
    }
    attribute {
      name: "dilations"
      ints: 1
      ints: 1
      type: INTS
    }
    attribute {
      name: "group"
      i: 1
      type: INT
    }
  }
  node {
    input: "841"
    input: "261"
    input: "262"
    input: "263"
    input: "264"
    output: "842"
    op_type: "BatchNormalization"
    attribute {
      name: "is_test"
      i: 1
      type: INT
    }
    attribute {
      name: "epsilon"
      f: 9.99999974737875e-06
      type: FLOAT
    }
    attribute {
      name: "momentum"
      f: 0.899999976158142
      type: FLOAT
    }
    attribute {
      name: "consumed_inputs"
      ints: 0
      ints: 0
      ints: 0
      ints: 1
      ints: 1
      type: INTS
    }
  }
  node {
    input: "842"
    output: "843"
    op_type: "Relu"
  }
  node {
    input: "843"
    input: "265"
    output: "845"
    op_type: "Conv"
    attribute {
      name: "kernel_shape"
      ints: 3
      ints: 3
      type: INTS
    }
    attribute {
      name: "strides"
      ints: 1
      ints: 1
      type: INTS
    }
    attribute {
      name: "pads"
      ints: 1
      ints: 1
      ints: 1
      ints: 1
      type: INTS
    }
    attribute {
      name: "dilations"
      ints: 1
      ints: 1
      type: INTS
    }
    attribute {
      name: "group"
      i: 1
      type: INT
    }
  }
  node {
    input: "837"
    input: "845"
    output: "846"
    op_type: "Concat"
    attribute {
      name: "axis"
      i: 1
      type: INT
    }
  }
  node {
    input: "846"
    input: "266"
    input: "267"
    input: "268"
    input: "269"
    output: "847"
    op_type: "BatchNormalization"
    attribute {
      name: "is_test"
      i: 1
      type: INT
    }
    attribute {
      name: "epsilon"
      f: 9.99999974737875e-06
      type: FLOAT
    }
    attribute {
      name: "momentum"
      f: 0.899999976158142
      type: FLOAT
    }
    attribute {
      name: "consumed_inputs"
      ints: 0
      ints: 0
      ints: 0
      ints: 1
      ints: 1
      type: INTS
    }
  }
  node {
    input: "847"
    output: "848"
    op_type: "Relu"
  }
  node {
    input: "848"
    input: "270"
    output: "850"
    op_type: "Conv"
    attribute {
      name: "kernel_shape"
      ints: 1
      ints: 1
      type: INTS
    }
    attribute {
      name: "strides"
      ints: 1
      ints: 1
      type: INTS
    }
    attribute {
      name: "pads"
      ints: 0
      ints: 0
      ints: 0
      ints: 0
      type: INTS
    }
    attribute {
      name: "dilations"
      ints: 1
      ints: 1
      type: INTS
    }
    attribute {
      name: "group"
      i: 1
      type: INT
    }
  }
  node {
    input: "850"
    input: "271"
    input: "272"
    input: "273"
    input: "274"
    output: "851"
    op_type: "BatchNormalization"
    attribute {
      name: "is_test"
      i: 1
      type: INT
    }
    attribute {
      name: "epsilon"
      f: 9.99999974737875e-06
      type: FLOAT
    }
    attribute {
      name: "momentum"
      f: 0.899999976158142
      type: FLOAT
    }
    attribute {
      name: "consumed_inputs"
      ints: 0
      ints: 0
      ints: 0
      ints: 1
      ints: 1
      type: INTS
    }
  }
  node {
    input: "851"
    output: "852"
    op_type: "Relu"
  }
  node {
    input: "852"
    input: "275"
    output: "854"
    op_type: "Conv"
    attribute {
      name: "kernel_shape"
      ints: 3
      ints: 3
      type: INTS
    }
    attribute {
      name: "strides"
      ints: 1
      ints: 1
      type: INTS
    }
    attribute {
      name: "pads"
      ints: 1
      ints: 1
      ints: 1
      ints: 1
      type: INTS
    }
    attribute {
      name: "dilations"
      ints: 1
      ints: 1
      type: INTS
    }
    attribute {
      name: "group"
      i: 1
      type: INT
    }
  }
  node {
    input: "846"
    input: "854"
    output: "855"
    op_type: "Concat"
    attribute {
      name: "axis"
      i: 1
      type: INT
    }
  }
  node {
    input: "855"
    input: "276"
    input: "277"
    input: "278"
    input: "279"
    output: "856"
    op_type: "BatchNormalization"
    attribute {
      name: "is_test"
      i: 1
      type: INT
    }
    attribute {
      name: "epsilon"
      f: 9.99999974737875e-06
      type: FLOAT
    }
    attribute {
      name: "momentum"
      f: 0.899999976158142
      type: FLOAT
    }
    attribute {
      name: "consumed_inputs"
      ints: 0
      ints: 0
      ints: 0
      ints: 1
      ints: 1
      type: INTS
    }
  }
  node {
    input: "856"
    output: "857"
    op_type: "Relu"
  }
  node {
    input: "857"
    input: "280"
    output: "859"
    op_type: "Conv"
    attribute {
      name: "kernel_shape"
      ints: 1
      ints: 1
      type: INTS
    }
    attribute {
      name: "strides"
      ints: 1
      ints: 1
      type: INTS
    }
    attribute {
      name: "pads"
      ints: 0
      ints: 0
      ints: 0
      ints: 0
      type: INTS
    }
    attribute {
      name: "dilations"
      ints: 1
      ints: 1
      type: INTS
    }
    attribute {
      name: "group"
      i: 1
      type: INT
    }
  }
  node {
    input: "859"
    input: "281"
    input: "282"
    input: "283"
    input: "284"
    output: "860"
    op_type: "BatchNormalization"
    attribute {
      name: "is_test"
      i: 1
      type: INT
    }
    attribute {
      name: "epsilon"
      f: 9.99999974737875e-06
      type: FLOAT
    }
    attribute {
      name: "momentum"
      f: 0.899999976158142
      type: FLOAT
    }
    attribute {
      name: "consumed_inputs"
      ints: 0
      ints: 0
      ints: 0
      ints: 1
      ints: 1
      type: INTS
    }
  }
  node {
    input: "860"
    output: "861"
    op_type: "Relu"
  }
  node {
    input: "861"
    input: "285"
    output: "863"
    op_type: "Conv"
    attribute {
      name: "kernel_shape"
      ints: 3
      ints: 3
      type: INTS
    }
    attribute {
      name: "strides"
      ints: 1
      ints: 1
      type: INTS
    }
    attribute {
      name: "pads"
      ints: 1
      ints: 1
      ints: 1
      ints: 1
      type: INTS
    }
    attribute {
      name: "dilations"
      ints: 1
      ints: 1
      type: INTS
    }
    attribute {
      name: "group"
      i: 1
      type: INT
    }
  }
  node {
    input: "855"
    input: "863"
    output: "864"
    op_type: "Concat"
    attribute {
      name: "axis"
      i: 1
      type: INT
    }
  }
  node {
    input: "864"
    input: "286"
    input: "287"
    input: "288"
    input: "289"
    output: "865"
    op_type: "BatchNormalization"
    attribute {
      name: "is_test"
      i: 1
      type: INT
    }
    attribute {
      name: "epsilon"
      f: 9.99999974737875e-06
      type: FLOAT
    }
    attribute {
      name: "momentum"
      f: 0.899999976158142
      type: FLOAT
    }
    attribute {
      name: "consumed_inputs"
      ints: 0
      ints: 0
      ints: 0
      ints: 1
      ints: 1
      type: INTS
    }
  }
  node {
    input: "865"
    output: "866"
    op_type: "Relu"
  }
  node {
    input: "866"
    input: "290"
    output: "868"
    op_type: "Conv"
    attribute {
      name: "kernel_shape"
      ints: 1
      ints: 1
      type: INTS
    }
    attribute {
      name: "strides"
      ints: 1
      ints: 1
      type: INTS
    }
    attribute {
      name: "pads"
      ints: 0
      ints: 0
      ints: 0
      ints: 0
      type: INTS
    }
    attribute {
      name: "dilations"
      ints: 1
      ints: 1
      type: INTS
    }
    attribute {
      name: "group"
      i: 1
      type: INT
    }
  }
  node {
    input: "868"
    input: "291"
    input: "292"
    input: "293"
    input: "294"
    output: "869"
    op_type: "BatchNormalization"
    attribute {
      name: "is_test"
      i: 1
      type: INT
    }
    attribute {
      name: "epsilon"
      f: 9.99999974737875e-06
      type: FLOAT
    }
    attribute {
      name: "momentum"
      f: 0.899999976158142
      type: FLOAT
    }
    attribute {
      name: "consumed_inputs"
      ints: 0
      ints: 0
      ints: 0
      ints: 1
      ints: 1
      type: INTS
    }
  }
  node {
    input: "869"
    output: "870"
    op_type: "Relu"
  }
  node {
    input: "870"
    input: "295"
    output: "872"
    op_type: "Conv"
    attribute {
      name: "kernel_shape"
      ints: 3
      ints: 3
      type: INTS
    }
    attribute {
      name: "strides"
      ints: 1
      ints: 1
      type: INTS
    }
    attribute {
      name: "pads"
      ints: 1
      ints: 1
      ints: 1
      ints: 1
      type: INTS
    }
    attribute {
      name: "dilations"
      ints: 1
      ints: 1
      type: INTS
    }
    attribute {
      name: "group"
      i: 1
      type: INT
    }
  }
  node {
    input: "864"
    input: "872"
    output: "873"
    op_type: "Concat"
    attribute {
      name: "axis"
      i: 1
      type: INT
    }
  }
  node {
    input: "873"
    input: "296"
    input: "297"
    input: "298"
    input: "299"
    output: "874"
    op_type: "BatchNormalization"
    attribute {
      name: "is_test"
      i: 1
      type: INT
    }
    attribute {
      name: "epsilon"
      f: 9.99999974737875e-06
      type: FLOAT
    }
    attribute {
      name: "momentum"
      f: 0.899999976158142
      type: FLOAT
    }
    attribute {
      name: "consumed_inputs"
      ints: 0
      ints: 0
      ints: 0
      ints: 1
      ints: 1
      type: INTS
    }
  }
  node {
    input: "874"
    output: "875"
    op_type: "Relu"
  }
  node {
    input: "875"
    input: "300"
    output: "877"
    op_type: "Conv"
    attribute {
      name: "kernel_shape"
      ints: 1
      ints: 1
      type: INTS
    }
    attribute {
      name: "strides"
      ints: 1
      ints: 1
      type: INTS
    }
    attribute {
      name: "pads"
      ints: 0
      ints: 0
      ints: 0
      ints: 0
      type: INTS
    }
    attribute {
      name: "dilations"
      ints: 1
      ints: 1
      type: INTS
    }
    attribute {
      name: "group"
      i: 1
      type: INT
    }
  }
  node {
    input: "877"
    input: "301"
    input: "302"
    input: "303"
    input: "304"
    output: "878"
    op_type: "BatchNormalization"
    attribute {
      name: "is_test"
      i: 1
      type: INT
    }
    attribute {
      name: "epsilon"
      f: 9.99999974737875e-06
      type: FLOAT
    }
    attribute {
      name: "momentum"
      f: 0.899999976158142
      type: FLOAT
    }
    attribute {
      name: "consumed_inputs"
      ints: 0
      ints: 0
      ints: 0
      ints: 1
      ints: 1
      type: INTS
    }
  }
  node {
    input: "878"
    output: "879"
    op_type: "Relu"
  }
  node {
    input: "879"
    input: "305"
    output: "881"
    op_type: "Conv"
    attribute {
      name: "kernel_shape"
      ints: 3
      ints: 3
      type: INTS
    }
    attribute {
      name: "strides"
      ints: 1
      ints: 1
      type: INTS
    }
    attribute {
      name: "pads"
      ints: 1
      ints: 1
      ints: 1
      ints: 1
      type: INTS
    }
    attribute {
      name: "dilations"
      ints: 1
      ints: 1
      type: INTS
    }
    attribute {
      name: "group"
      i: 1
      type: INT
    }
  }
  node {
    input: "873"
    input: "881"
    output: "882"
    op_type: "Concat"
    attribute {
      name: "axis"
      i: 1
      type: INT
    }
  }
  node {
    input: "882"
    input: "306"
    input: "307"
    input: "308"
    input: "309"
    output: "883"
    op_type: "BatchNormalization"
    attribute {
      name: "is_test"
      i: 1
      type: INT
    }
    attribute {
      name: "epsilon"
      f: 9.99999974737875e-06
      type: FLOAT
    }
    attribute {
      name: "momentum"
      f: 0.899999976158142
      type: FLOAT
    }
    attribute {
      name: "consumed_inputs"
      ints: 0
      ints: 0
      ints: 0
      ints: 1
      ints: 1
      type: INTS
    }
  }
  node {
    input: "883"
    output: "884"
    op_type: "Relu"
  }
  node {
    input: "884"
    input: "310"
    output: "886"
    op_type: "Conv"
    attribute {
      name: "kernel_shape"
      ints: 1
      ints: 1
      type: INTS
    }
    attribute {
      name: "strides"
      ints: 1
      ints: 1
      type: INTS
    }
    attribute {
      name: "pads"
      ints: 0
      ints: 0
      ints: 0
      ints: 0
      type: INTS
    }
    attribute {
      name: "dilations"
      ints: 1
      ints: 1
      type: INTS
    }
    attribute {
      name: "group"
      i: 1
      type: INT
    }
  }
  node {
    input: "886"
    input: "311"
    input: "312"
    input: "313"
    input: "314"
    output: "887"
    op_type: "BatchNormalization"
    attribute {
      name: "is_test"
      i: 1
      type: INT
    }
    attribute {
      name: "epsilon"
      f: 9.99999974737875e-06
      type: FLOAT
    }
    attribute {
      name: "momentum"
      f: 0.899999976158142
      type: FLOAT
    }
    attribute {
      name: "consumed_inputs"
      ints: 0
      ints: 0
      ints: 0
      ints: 1
      ints: 1
      type: INTS
    }
  }
  node {
    input: "887"
    output: "888"
    op_type: "Relu"
  }
  node {
    input: "888"
    input: "315"
    output: "890"
    op_type: "Conv"
    attribute {
      name: "kernel_shape"
      ints: 3
      ints: 3
      type: INTS
    }
    attribute {
      name: "strides"
      ints: 1
      ints: 1
      type: INTS
    }
    attribute {
      name: "pads"
      ints: 1
      ints: 1
      ints: 1
      ints: 1
      type: INTS
    }
    attribute {
      name: "dilations"
      ints: 1
      ints: 1
      type: INTS
    }
    attribute {
      name: "group"
      i: 1
      type: INT
    }
  }
  node {
    input: "882"
    input: "890"
    output: "891"
    op_type: "Concat"
    attribute {
      name: "axis"
      i: 1
      type: INT
    }
  }
  node {
    input: "891"
    input: "316"
    input: "317"
    input: "318"
    input: "319"
    output: "892"
    op_type: "BatchNormalization"
    attribute {
      name: "is_test"
      i: 1
      type: INT
    }
    attribute {
      name: "epsilon"
      f: 9.99999974737875e-06
      type: FLOAT
    }
    attribute {
      name: "momentum"
      f: 0.899999976158142
      type: FLOAT
    }
    attribute {
      name: "consumed_inputs"
      ints: 0
      ints: 0
      ints: 0
      ints: 1
      ints: 1
      type: INTS
    }
  }
  node {
    input: "892"
    output: "893"
    op_type: "Relu"
  }
  node {
    input: "893"
    input: "320"
    output: "895"
    op_type: "Conv"
    attribute {
      name: "kernel_shape"
      ints: 1
      ints: 1
      type: INTS
    }
    attribute {
      name: "strides"
      ints: 1
      ints: 1
      type: INTS
    }
    attribute {
      name: "pads"
      ints: 0
      ints: 0
      ints: 0
      ints: 0
      type: INTS
    }
    attribute {
      name: "dilations"
      ints: 1
      ints: 1
      type: INTS
    }
    attribute {
      name: "group"
      i: 1
      type: INT
    }
  }
  node {
    input: "895"
    input: "321"
    input: "322"
    input: "323"
    input: "324"
    output: "896"
    op_type: "BatchNormalization"
    attribute {
      name: "is_test"
      i: 1
      type: INT
    }
    attribute {
      name: "epsilon"
      f: 9.99999974737875e-06
      type: FLOAT
    }
    attribute {
      name: "momentum"
      f: 0.899999976158142
      type: FLOAT
    }
    attribute {
      name: "consumed_inputs"
      ints: 0
      ints: 0
      ints: 0
      ints: 1
      ints: 1
      type: INTS
    }
  }
  node {
    input: "896"
    output: "897"
    op_type: "Relu"
  }
  node {
    input: "897"
    input: "325"
    output: "899"
    op_type: "Conv"
    attribute {
      name: "kernel_shape"
      ints: 3
      ints: 3
      type: INTS
    }
    attribute {
      name: "strides"
      ints: 1
      ints: 1
      type: INTS
    }
    attribute {
      name: "pads"
      ints: 1
      ints: 1
      ints: 1
      ints: 1
      type: INTS
    }
    attribute {
      name: "dilations"
      ints: 1
      ints: 1
      type: INTS
    }
    attribute {
      name: "group"
      i: 1
      type: INT
    }
  }
  node {
    input: "891"
    input: "899"
    output: "900"
    op_type: "Concat"
    attribute {
      name: "axis"
      i: 1
      type: INT
    }
  }
  node {
    input: "900"
    input: "326"
    input: "327"
    input: "328"
    input: "329"
    output: "901"
    op_type: "BatchNormalization"
    attribute {
      name: "is_test"
      i: 1
      type: INT
    }
    attribute {
      name: "epsilon"
      f: 9.99999974737875e-06
      type: FLOAT
    }
    attribute {
      name: "momentum"
      f: 0.899999976158142
      type: FLOAT
    }
    attribute {
      name: "consumed_inputs"
      ints: 0
      ints: 0
      ints: 0
      ints: 1
      ints: 1
      type: INTS
    }
  }
  node {
    input: "901"
    output: "902"
    op_type: "Relu"
  }
  node {
    input: "902"
    input: "330"
    output: "904"
    op_type: "Conv"
    attribute {
      name: "kernel_shape"
      ints: 1
      ints: 1
      type: INTS
    }
    attribute {
      name: "strides"
      ints: 1
      ints: 1
      type: INTS
    }
    attribute {
      name: "pads"
      ints: 0
      ints: 0
      ints: 0
      ints: 0
      type: INTS
    }
    attribute {
      name: "dilations"
      ints: 1
      ints: 1
      type: INTS
    }
    attribute {
      name: "group"
      i: 1
      type: INT
    }
  }
  node {
    input: "904"
    input: "331"
    input: "332"
    input: "333"
    input: "334"
    output: "905"
    op_type: "BatchNormalization"
    attribute {
      name: "is_test"
      i: 1
      type: INT
    }
    attribute {
      name: "epsilon"
      f: 9.99999974737875e-06
      type: FLOAT
    }
    attribute {
      name: "momentum"
      f: 0.899999976158142
      type: FLOAT
    }
    attribute {
      name: "consumed_inputs"
      ints: 0
      ints: 0
      ints: 0
      ints: 1
      ints: 1
      type: INTS
    }
  }
  node {
    input: "905"
    output: "906"
    op_type: "Relu"
  }
  node {
    input: "906"
    input: "335"
    output: "908"
    op_type: "Conv"
    attribute {
      name: "kernel_shape"
      ints: 3
      ints: 3
      type: INTS
    }
    attribute {
      name: "strides"
      ints: 1
      ints: 1
      type: INTS
    }
    attribute {
      name: "pads"
      ints: 1
      ints: 1
      ints: 1
      ints: 1
      type: INTS
    }
    attribute {
      name: "dilations"
      ints: 1
      ints: 1
      type: INTS
    }
    attribute {
      name: "group"
      i: 1
      type: INT
    }
  }
  node {
    input: "900"
    input: "908"
    output: "909"
    op_type: "Concat"
    attribute {
      name: "axis"
      i: 1
      type: INT
    }
  }
  node {
    input: "909"
    input: "336"
    input: "337"
    input: "338"
    input: "339"
    output: "910"
    op_type: "BatchNormalization"
    attribute {
      name: "is_test"
      i: 1
      type: INT
    }
    attribute {
      name: "epsilon"
      f: 9.99999974737875e-06
      type: FLOAT
    }
    attribute {
      name: "momentum"
      f: 0.899999976158142
      type: FLOAT
    }
    attribute {
      name: "consumed_inputs"
      ints: 0
      ints: 0
      ints: 0
      ints: 1
      ints: 1
      type: INTS
    }
  }
  node {
    input: "910"
    output: "911"
    op_type: "Relu"
  }
  node {
    input: "911"
    input: "340"
    output: "913"
    op_type: "Conv"
    attribute {
      name: "kernel_shape"
      ints: 1
      ints: 1
      type: INTS
    }
    attribute {
      name: "strides"
      ints: 1
      ints: 1
      type: INTS
    }
    attribute {
      name: "pads"
      ints: 0
      ints: 0
      ints: 0
      ints: 0
      type: INTS
    }
    attribute {
      name: "dilations"
      ints: 1
      ints: 1
      type: INTS
    }
    attribute {
      name: "group"
      i: 1
      type: INT
    }
  }
  node {
    input: "913"
    input: "341"
    input: "342"
    input: "343"
    input: "344"
    output: "914"
    op_type: "BatchNormalization"
    attribute {
      name: "is_test"
      i: 1
      type: INT
    }
    attribute {
      name: "epsilon"
      f: 9.99999974737875e-06
      type: FLOAT
    }
    attribute {
      name: "momentum"
      f: 0.899999976158142
      type: FLOAT
    }
    attribute {
      name: "consumed_inputs"
      ints: 0
      ints: 0
      ints: 0
      ints: 1
      ints: 1
      type: INTS
    }
  }
  node {
    input: "914"
    output: "915"
    op_type: "Relu"
  }
  node {
    input: "915"
    input: "345"
    output: "917"
    op_type: "Conv"
    attribute {
      name: "kernel_shape"
      ints: 3
      ints: 3
      type: INTS
    }
    attribute {
      name: "strides"
      ints: 1
      ints: 1
      type: INTS
    }
    attribute {
      name: "pads"
      ints: 1
      ints: 1
      ints: 1
      ints: 1
      type: INTS
    }
    attribute {
      name: "dilations"
      ints: 1
      ints: 1
      type: INTS
    }
    attribute {
      name: "group"
      i: 1
      type: INT
    }
  }
  node {
    input: "909"
    input: "917"
    output: "918"
    op_type: "Concat"
    attribute {
      name: "axis"
      i: 1
      type: INT
    }
  }
  node {
    input: "918"
    input: "346"
    input: "347"
    input: "348"
    input: "349"
    output: "919"
    op_type: "BatchNormalization"
    attribute {
      name: "is_test"
      i: 1
      type: INT
    }
    attribute {
      name: "epsilon"
      f: 9.99999974737875e-06
      type: FLOAT
    }
    attribute {
      name: "momentum"
      f: 0.899999976158142
      type: FLOAT
    }
    attribute {
      name: "consumed_inputs"
      ints: 0
      ints: 0
      ints: 0
      ints: 1
      ints: 1
      type: INTS
    }
  }
  node {
    input: "919"
    output: "920"
    op_type: "Relu"
  }
  node {
    input: "920"
    input: "350"
    output: "922"
    op_type: "Conv"
    attribute {
      name: "kernel_shape"
      ints: 1
      ints: 1
      type: INTS
    }
    attribute {
      name: "strides"
      ints: 1
      ints: 1
      type: INTS
    }
    attribute {
      name: "pads"
      ints: 0
      ints: 0
      ints: 0
      ints: 0
      type: INTS
    }
    attribute {
      name: "dilations"
      ints: 1
      ints: 1
      type: INTS
    }
    attribute {
      name: "group"
      i: 1
      type: INT
    }
  }
  node {
    input: "922"
    input: "351"
    input: "352"
    input: "353"
    input: "354"
    output: "923"
    op_type: "BatchNormalization"
    attribute {
      name: "is_test"
      i: 1
      type: INT
    }
    attribute {
      name: "epsilon"
      f: 9.99999974737875e-06
      type: FLOAT
    }
    attribute {
      name: "momentum"
      f: 0.899999976158142
      type: FLOAT
    }
    attribute {
      name: "consumed_inputs"
      ints: 0
      ints: 0
      ints: 0
      ints: 1
      ints: 1
      type: INTS
    }
  }
  node {
    input: "923"
    output: "924"
    op_type: "Relu"
  }
  node {
    input: "924"
    input: "355"
    output: "926"
    op_type: "Conv"
    attribute {
      name: "kernel_shape"
      ints: 3
      ints: 3
      type: INTS
    }
    attribute {
      name: "strides"
      ints: 1
      ints: 1
      type: INTS
    }
    attribute {
      name: "pads"
      ints: 1
      ints: 1
      ints: 1
      ints: 1
      type: INTS
    }
    attribute {
      name: "dilations"
      ints: 1
      ints: 1
      type: INTS
    }
    attribute {
      name: "group"
      i: 1
      type: INT
    }
  }
  node {
    input: "918"
    input: "926"
    output: "927"
    op_type: "Concat"
    attribute {
      name: "axis"
      i: 1
      type: INT
    }
  }
  node {
    input: "927"
    input: "356"
    input: "357"
    input: "358"
    input: "359"
    output: "928"
    op_type: "BatchNormalization"
    attribute {
      name: "is_test"
      i: 1
      type: INT
    }
    attribute {
      name: "epsilon"
      f: 9.99999974737875e-06
      type: FLOAT
    }
    attribute {
      name: "momentum"
      f: 0.899999976158142
      type: FLOAT
    }
    attribute {
      name: "consumed_inputs"
      ints: 0
      ints: 0
      ints: 0
      ints: 1
      ints: 1
      type: INTS
    }
  }
  node {
    input: "928"
    output: "929"
    op_type: "Relu"
  }
  node {
    input: "929"
    input: "360"
    output: "931"
    op_type: "Conv"
    attribute {
      name: "kernel_shape"
      ints: 1
      ints: 1
      type: INTS
    }
    attribute {
      name: "strides"
      ints: 1
      ints: 1
      type: INTS
    }
    attribute {
      name: "pads"
      ints: 0
      ints: 0
      ints: 0
      ints: 0
      type: INTS
    }
    attribute {
      name: "dilations"
      ints: 1
      ints: 1
      type: INTS
    }
    attribute {
      name: "group"
      i: 1
      type: INT
    }
  }
  node {
    input: "931"
    input: "361"
    input: "362"
    input: "363"
    input: "364"
    output: "932"
    op_type: "BatchNormalization"
    attribute {
      name: "is_test"
      i: 1
      type: INT
    }
    attribute {
      name: "epsilon"
      f: 9.99999974737875e-06
      type: FLOAT
    }
    attribute {
      name: "momentum"
      f: 0.899999976158142
      type: FLOAT
    }
    attribute {
      name: "consumed_inputs"
      ints: 0
      ints: 0
      ints: 0
      ints: 1
      ints: 1
      type: INTS
    }
  }
  node {
    input: "932"
    output: "933"
    op_type: "Relu"
  }
  node {
    input: "933"
    input: "365"
    output: "935"
    op_type: "Conv"
    attribute {
      name: "kernel_shape"
      ints: 3
      ints: 3
      type: INTS
    }
    attribute {
      name: "strides"
      ints: 1
      ints: 1
      type: INTS
    }
    attribute {
      name: "pads"
      ints: 1
      ints: 1
      ints: 1
      ints: 1
      type: INTS
    }
    attribute {
      name: "dilations"
      ints: 1
      ints: 1
      type: INTS
    }
    attribute {
      name: "group"
      i: 1
      type: INT
    }
  }
  node {
    input: "927"
    input: "935"
    output: "936"
    op_type: "Concat"
    attribute {
      name: "axis"
      i: 1
      type: INT
    }
  }
  node {
    input: "936"
    input: "366"
    input: "367"
    input: "368"
    input: "369"
    output: "937"
    op_type: "BatchNormalization"
    attribute {
      name: "is_test"
      i: 1
      type: INT
    }
    attribute {
      name: "epsilon"
      f: 9.99999974737875e-06
      type: FLOAT
    }
    attribute {
      name: "momentum"
      f: 0.899999976158142
      type: FLOAT
    }
    attribute {
      name: "consumed_inputs"
      ints: 0
      ints: 0
      ints: 0
      ints: 1
      ints: 1
      type: INTS
    }
  }
  node {
    input: "937"
    output: "938"
    op_type: "Relu"
  }
  node {
    input: "938"
    input: "370"
    output: "940"
    op_type: "Conv"
    attribute {
      name: "kernel_shape"
      ints: 1
      ints: 1
      type: INTS
    }
    attribute {
      name: "strides"
      ints: 1
      ints: 1
      type: INTS
    }
    attribute {
      name: "pads"
      ints: 0
      ints: 0
      ints: 0
      ints: 0
      type: INTS
    }
    attribute {
      name: "dilations"
      ints: 1
      ints: 1
      type: INTS
    }
    attribute {
      name: "group"
      i: 1
      type: INT
    }
  }
  node {
    input: "940"
    input: "371"
    input: "372"
    input: "373"
    input: "374"
    output: "941"
    op_type: "BatchNormalization"
    attribute {
      name: "is_test"
      i: 1
      type: INT
    }
    attribute {
      name: "epsilon"
      f: 9.99999974737875e-06
      type: FLOAT
    }
    attribute {
      name: "momentum"
      f: 0.899999976158142
      type: FLOAT
    }
    attribute {
      name: "consumed_inputs"
      ints: 0
      ints: 0
      ints: 0
      ints: 1
      ints: 1
      type: INTS
    }
  }
  node {
    input: "941"
    output: "942"
    op_type: "Relu"
  }
  node {
    input: "942"
    input: "375"
    output: "944"
    op_type: "Conv"
    attribute {
      name: "kernel_shape"
      ints: 3
      ints: 3
      type: INTS
    }
    attribute {
      name: "strides"
      ints: 1
      ints: 1
      type: INTS
    }
    attribute {
      name: "pads"
      ints: 1
      ints: 1
      ints: 1
      ints: 1
      type: INTS
    }
    attribute {
      name: "dilations"
      ints: 1
      ints: 1
      type: INTS
    }
    attribute {
      name: "group"
      i: 1
      type: INT
    }
  }
  node {
    input: "936"
    input: "944"
    output: "945"
    op_type: "Concat"
    attribute {
      name: "axis"
      i: 1
      type: INT
    }
  }
  node {
    input: "945"
    input: "376"
    input: "377"
    input: "378"
    input: "379"
    output: "946"
    op_type: "BatchNormalization"
    attribute {
      name: "is_test"
      i: 1
      type: INT
    }
    attribute {
      name: "epsilon"
      f: 9.99999974737875e-06
      type: FLOAT
    }
    attribute {
      name: "momentum"
      f: 0.899999976158142
      type: FLOAT
    }
    attribute {
      name: "consumed_inputs"
      ints: 0
      ints: 0
      ints: 0
      ints: 1
      ints: 1
      type: INTS
    }
  }
  node {
    input: "946"
    output: "947"
    op_type: "Relu"
  }
  node {
    input: "947"
    input: "380"
    output: "949"
    op_type: "Conv"
    attribute {
      name: "kernel_shape"
      ints: 1
      ints: 1
      type: INTS
    }
    attribute {
      name: "strides"
      ints: 1
      ints: 1
      type: INTS
    }
    attribute {
      name: "pads"
      ints: 0
      ints: 0
      ints: 0
      ints: 0
      type: INTS
    }
    attribute {
      name: "dilations"
      ints: 1
      ints: 1
      type: INTS
    }
    attribute {
      name: "group"
      i: 1
      type: INT
    }
  }
  node {
    input: "949"
    input: "381"
    input: "382"
    input: "383"
    input: "384"
    output: "950"
    op_type: "BatchNormalization"
    attribute {
      name: "is_test"
      i: 1
      type: INT
    }
    attribute {
      name: "epsilon"
      f: 9.99999974737875e-06
      type: FLOAT
    }
    attribute {
      name: "momentum"
      f: 0.899999976158142
      type: FLOAT
    }
    attribute {
      name: "consumed_inputs"
      ints: 0
      ints: 0
      ints: 0
      ints: 1
      ints: 1
      type: INTS
    }
  }
  node {
    input: "950"
    output: "951"
    op_type: "Relu"
  }
  node {
    input: "951"
    input: "385"
    output: "953"
    op_type: "Conv"
    attribute {
      name: "kernel_shape"
      ints: 3
      ints: 3
      type: INTS
    }
    attribute {
      name: "strides"
      ints: 1
      ints: 1
      type: INTS
    }
    attribute {
      name: "pads"
      ints: 1
      ints: 1
      ints: 1
      ints: 1
      type: INTS
    }
    attribute {
      name: "dilations"
      ints: 1
      ints: 1
      type: INTS
    }
    attribute {
      name: "group"
      i: 1
      type: INT
    }
  }
  node {
    input: "945"
    input: "953"
    output: "954"
    op_type: "Concat"
    attribute {
      name: "axis"
      i: 1
      type: INT
    }
  }
  node {
    input: "954"
    input: "386"
    input: "387"
    input: "388"
    input: "389"
    output: "955"
    op_type: "BatchNormalization"
    attribute {
      name: "is_test"
      i: 1
      type: INT
    }
    attribute {
      name: "epsilon"
      f: 9.99999974737875e-06
      type: FLOAT
    }
    attribute {
      name: "momentum"
      f: 0.899999976158142
      type: FLOAT
    }
    attribute {
      name: "consumed_inputs"
      ints: 0
      ints: 0
      ints: 0
      ints: 1
      ints: 1
      type: INTS
    }
  }
  node {
    input: "955"
    output: "956"
    op_type: "Relu"
  }
  node {
    input: "956"
    input: "390"
    output: "958"
    op_type: "Conv"
    attribute {
      name: "kernel_shape"
      ints: 1
      ints: 1
      type: INTS
    }
    attribute {
      name: "strides"
      ints: 1
      ints: 1
      type: INTS
    }
    attribute {
      name: "pads"
      ints: 0
      ints: 0
      ints: 0
      ints: 0
      type: INTS
    }
    attribute {
      name: "dilations"
      ints: 1
      ints: 1
      type: INTS
    }
    attribute {
      name: "group"
      i: 1
      type: INT
    }
  }
  node {
    input: "958"
    input: "391"
    input: "392"
    input: "393"
    input: "394"
    output: "959"
    op_type: "BatchNormalization"
    attribute {
      name: "is_test"
      i: 1
      type: INT
    }
    attribute {
      name: "epsilon"
      f: 9.99999974737875e-06
      type: FLOAT
    }
    attribute {
      name: "momentum"
      f: 0.899999976158142
      type: FLOAT
    }
    attribute {
      name: "consumed_inputs"
      ints: 0
      ints: 0
      ints: 0
      ints: 1
      ints: 1
      type: INTS
    }
  }
  node {
    input: "959"
    output: "960"
    op_type: "Relu"
  }
  node {
    input: "960"
    input: "395"
    output: "962"
    op_type: "Conv"
    attribute {
      name: "kernel_shape"
      ints: 3
      ints: 3
      type: INTS
    }
    attribute {
      name: "strides"
      ints: 1
      ints: 1
      type: INTS
    }
    attribute {
      name: "pads"
      ints: 1
      ints: 1
      ints: 1
      ints: 1
      type: INTS
    }
    attribute {
      name: "dilations"
      ints: 1
      ints: 1
      type: INTS
    }
    attribute {
      name: "group"
      i: 1
      type: INT
    }
  }
  node {
    input: "954"
    input: "962"
    output: "963"
    op_type: "Concat"
    attribute {
      name: "axis"
      i: 1
      type: INT
    }
  }
  node {
    input: "963"
    input: "396"
    input: "397"
    input: "398"
    input: "399"
    output: "964"
    op_type: "BatchNormalization"
    attribute {
      name: "is_test"
      i: 1
      type: INT
    }
    attribute {
      name: "epsilon"
      f: 9.99999974737875e-06
      type: FLOAT
    }
    attribute {
      name: "momentum"
      f: 0.899999976158142
      type: FLOAT
    }
    attribute {
      name: "consumed_inputs"
      ints: 0
      ints: 0
      ints: 0
      ints: 1
      ints: 1
      type: INTS
    }
  }
  node {
    input: "964"
    output: "965"
    op_type: "Relu"
  }
  node {
    input: "965"
    input: "400"
    output: "967"
    op_type: "Conv"
    attribute {
      name: "kernel_shape"
      ints: 1
      ints: 1
      type: INTS
    }
    attribute {
      name: "strides"
      ints: 1
      ints: 1
      type: INTS
    }
    attribute {
      name: "pads"
      ints: 0
      ints: 0
      ints: 0
      ints: 0
      type: INTS
    }
    attribute {
      name: "dilations"
      ints: 1
      ints: 1
      type: INTS
    }
    attribute {
      name: "group"
      i: 1
      type: INT
    }
  }
  node {
    input: "967"
    input: "401"
    input: "402"
    input: "403"
    input: "404"
    output: "968"
    op_type: "BatchNormalization"
    attribute {
      name: "is_test"
      i: 1
      type: INT
    }
    attribute {
      name: "epsilon"
      f: 9.99999974737875e-06
      type: FLOAT
    }
    attribute {
      name: "momentum"
      f: 0.899999976158142
      type: FLOAT
    }
    attribute {
      name: "consumed_inputs"
      ints: 0
      ints: 0
      ints: 0
      ints: 1
      ints: 1
      type: INTS
    }
  }
  node {
    input: "968"
    output: "969"
    op_type: "Relu"
  }
  node {
    input: "969"
    input: "405"
    output: "971"
    op_type: "Conv"
    attribute {
      name: "kernel_shape"
      ints: 3
      ints: 3
      type: INTS
    }
    attribute {
      name: "strides"
      ints: 1
      ints: 1
      type: INTS
    }
    attribute {
      name: "pads"
      ints: 1
      ints: 1
      ints: 1
      ints: 1
      type: INTS
    }
    attribute {
      name: "dilations"
      ints: 1
      ints: 1
      type: INTS
    }
    attribute {
      name: "group"
      i: 1
      type: INT
    }
  }
  node {
    input: "963"
    input: "971"
    output: "972"
    op_type: "Concat"
    attribute {
      name: "axis"
      i: 1
      type: INT
    }
  }
  node {
    input: "972"
    input: "406"
    input: "407"
    input: "408"
    input: "409"
    output: "973"
    op_type: "BatchNormalization"
    attribute {
      name: "is_test"
      i: 1
      type: INT
    }
    attribute {
      name: "epsilon"
      f: 9.99999974737875e-06
      type: FLOAT
    }
    attribute {
      name: "momentum"
      f: 0.899999976158142
      type: FLOAT
    }
    attribute {
      name: "consumed_inputs"
      ints: 0
      ints: 0
      ints: 0
      ints: 1
      ints: 1
      type: INTS
    }
  }
  node {
    input: "973"
    output: "974"
    op_type: "Relu"
  }
  node {
    input: "974"
    input: "410"
    output: "976"
    op_type: "Conv"
    attribute {
      name: "kernel_shape"
      ints: 1
      ints: 1
      type: INTS
    }
    attribute {
      name: "strides"
      ints: 1
      ints: 1
      type: INTS
    }
    attribute {
      name: "pads"
      ints: 0
      ints: 0
      ints: 0
      ints: 0
      type: INTS
    }
    attribute {
      name: "dilations"
      ints: 1
      ints: 1
      type: INTS
    }
    attribute {
      name: "group"
      i: 1
      type: INT
    }
  }
  node {
    input: "976"
    input: "411"
    input: "412"
    input: "413"
    input: "414"
    output: "977"
    op_type: "BatchNormalization"
    attribute {
      name: "is_test"
      i: 1
      type: INT
    }
    attribute {
      name: "epsilon"
      f: 9.99999974737875e-06
      type: FLOAT
    }
    attribute {
      name: "momentum"
      f: 0.899999976158142
      type: FLOAT
    }
    attribute {
      name: "consumed_inputs"
      ints: 0
      ints: 0
      ints: 0
      ints: 1
      ints: 1
      type: INTS
    }
  }
  node {
    input: "977"
    output: "978"
    op_type: "Relu"
  }
  node {
    input: "978"
    input: "415"
    output: "980"
    op_type: "Conv"
    attribute {
      name: "kernel_shape"
      ints: 3
      ints: 3
      type: INTS
    }
    attribute {
      name: "strides"
      ints: 1
      ints: 1
      type: INTS
    }
    attribute {
      name: "pads"
      ints: 1
      ints: 1
      ints: 1
      ints: 1
      type: INTS
    }
    attribute {
      name: "dilations"
      ints: 1
      ints: 1
      type: INTS
    }
    attribute {
      name: "group"
      i: 1
      type: INT
    }
  }
  node {
    input: "972"
    input: "980"
    output: "981"
    op_type: "Concat"
    attribute {
      name: "axis"
      i: 1
      type: INT
    }
  }
  node {
    input: "981"
    input: "416"
    input: "417"
    input: "418"
    input: "419"
    output: "982"
    op_type: "BatchNormalization"
    attribute {
      name: "is_test"
      i: 1
      type: INT
    }
    attribute {
      name: "epsilon"
      f: 9.99999974737875e-06
      type: FLOAT
    }
    attribute {
      name: "momentum"
      f: 0.899999976158142
      type: FLOAT
    }
    attribute {
      name: "consumed_inputs"
      ints: 0
      ints: 0
      ints: 0
      ints: 1
      ints: 1
      type: INTS
    }
  }
  node {
    input: "982"
    output: "983"
    op_type: "Relu"
  }
  node {
    input: "983"
    input: "420"
    output: "985"
    op_type: "Conv"
    attribute {
      name: "kernel_shape"
      ints: 1
      ints: 1
      type: INTS
    }
    attribute {
      name: "strides"
      ints: 1
      ints: 1
      type: INTS
    }
    attribute {
      name: "pads"
      ints: 0
      ints: 0
      ints: 0
      ints: 0
      type: INTS
    }
    attribute {
      name: "dilations"
      ints: 1
      ints: 1
      type: INTS
    }
    attribute {
      name: "group"
      i: 1
      type: INT
    }
  }
  node {
    input: "985"
    input: "421"
    input: "422"
    input: "423"
    input: "424"
    output: "986"
    op_type: "BatchNormalization"
    attribute {
      name: "is_test"
      i: 1
      type: INT
    }
    attribute {
      name: "epsilon"
      f: 9.99999974737875e-06
      type: FLOAT
    }
    attribute {
      name: "momentum"
      f: 0.899999976158142
      type: FLOAT
    }
    attribute {
      name: "consumed_inputs"
      ints: 0
      ints: 0
      ints: 0
      ints: 1
      ints: 1
      type: INTS
    }
  }
  node {
    input: "986"
    output: "987"
    op_type: "Relu"
  }
  node {
    input: "987"
    input: "425"
    output: "989"
    op_type: "Conv"
    attribute {
      name: "kernel_shape"
      ints: 3
      ints: 3
      type: INTS
    }
    attribute {
      name: "strides"
      ints: 1
      ints: 1
      type: INTS
    }
    attribute {
      name: "pads"
      ints: 1
      ints: 1
      ints: 1
      ints: 1
      type: INTS
    }
    attribute {
      name: "dilations"
      ints: 1
      ints: 1
      type: INTS
    }
    attribute {
      name: "group"
      i: 1
      type: INT
    }
  }
  node {
    input: "981"
    input: "989"
    output: "990"
    op_type: "Concat"
    attribute {
      name: "axis"
      i: 1
      type: INT
    }
  }
  node {
    input: "990"
    input: "426"
    input: "427"
    input: "428"
    input: "429"
    output: "991"
    op_type: "BatchNormalization"
    attribute {
      name: "is_test"
      i: 1
      type: INT
    }
    attribute {
      name: "epsilon"
      f: 9.99999974737875e-06
      type: FLOAT
    }
    attribute {
      name: "momentum"
      f: 0.899999976158142
      type: FLOAT
    }
    attribute {
      name: "consumed_inputs"
      ints: 0
      ints: 0
      ints: 0
      ints: 1
      ints: 1
      type: INTS
    }
  }
  node {
    input: "991"
    output: "992"
    op_type: "Relu"
  }
  node {
    input: "992"
    input: "430"
    output: "994"
    op_type: "Conv"
    attribute {
      name: "kernel_shape"
      ints: 1
      ints: 1
      type: INTS
    }
    attribute {
      name: "strides"
      ints: 1
      ints: 1
      type: INTS
    }
    attribute {
      name: "pads"
      ints: 0
      ints: 0
      ints: 0
      ints: 0
      type: INTS
    }
    attribute {
      name: "dilations"
      ints: 1
      ints: 1
      type: INTS
    }
    attribute {
      name: "group"
      i: 1
      type: INT
    }
  }
  node {
    input: "994"
    input: "431"
    input: "432"
    input: "433"
    input: "434"
    output: "995"
    op_type: "BatchNormalization"
    attribute {
      name: "is_test"
      i: 1
      type: INT
    }
    attribute {
      name: "epsilon"
      f: 9.99999974737875e-06
      type: FLOAT
    }
    attribute {
      name: "momentum"
      f: 0.899999976158142
      type: FLOAT
    }
    attribute {
      name: "consumed_inputs"
      ints: 0
      ints: 0
      ints: 0
      ints: 1
      ints: 1
      type: INTS
    }
  }
  node {
    input: "995"
    output: "996"
    op_type: "Relu"
  }
  node {
    input: "996"
    input: "435"
    output: "998"
    op_type: "Conv"
    attribute {
      name: "kernel_shape"
      ints: 3
      ints: 3
      type: INTS
    }
    attribute {
      name: "strides"
      ints: 1
      ints: 1
      type: INTS
    }
    attribute {
      name: "pads"
      ints: 1
      ints: 1
      ints: 1
      ints: 1
      type: INTS
    }
    attribute {
      name: "dilations"
      ints: 1
      ints: 1
      type: INTS
    }
    attribute {
      name: "group"
      i: 1
      type: INT
    }
  }
  node {
    input: "990"
    input: "998"
    output: "999"
    op_type: "Concat"
    attribute {
      name: "axis"
      i: 1
      type: INT
    }
  }
  node {
    input: "999"
    input: "436"
    input: "437"
    input: "438"
    input: "439"
    output: "1000"
    op_type: "BatchNormalization"
    attribute {
      name: "is_test"
      i: 1
      type: INT
    }
    attribute {
      name: "epsilon"
      f: 9.99999974737875e-06
      type: FLOAT
    }
    attribute {
      name: "momentum"
      f: 0.899999976158142
      type: FLOAT
    }
    attribute {
      name: "consumed_inputs"
      ints: 0
      ints: 0
      ints: 0
      ints: 1
      ints: 1
      type: INTS
    }
  }
  node {
    input: "1000"
    output: "1001"
    op_type: "Relu"
  }
  node {
    input: "1001"
    input: "440"
    output: "1003"
    op_type: "Conv"
    attribute {
      name: "kernel_shape"
      ints: 1
      ints: 1
      type: INTS
    }
    attribute {
      name: "strides"
      ints: 1
      ints: 1
      type: INTS
    }
    attribute {
      name: "pads"
      ints: 0
      ints: 0
      ints: 0
      ints: 0
      type: INTS
    }
    attribute {
      name: "dilations"
      ints: 1
      ints: 1
      type: INTS
    }
    attribute {
      name: "group"
      i: 1
      type: INT
    }
  }
  node {
    input: "1003"
    output: "1004"
    op_type: "AveragePool"
    attribute {
      name: "kernel_shape"
      ints: 2
      ints: 2
      type: INTS
    }
    attribute {
      name: "pads"
      ints: 0
      ints: 0
      type: INTS
    }
    attribute {
      name: "strides"
      ints: 2
      ints: 2
      type: INTS
    }
  }
  node {
    input: "1004"
    input: "441"
    input: "442"
    input: "443"
    input: "444"
    output: "1005"
    op_type: "BatchNormalization"
    attribute {
      name: "is_test"
      i: 1
      type: INT
    }
    attribute {
      name: "epsilon"
      f: 9.99999974737875e-06
      type: FLOAT
    }
    attribute {
      name: "momentum"
      f: 0.899999976158142
      type: FLOAT
    }
    attribute {
      name: "consumed_inputs"
      ints: 0
      ints: 0
      ints: 0
      ints: 1
      ints: 1
      type: INTS
    }
  }
  node {
    input: "1005"
    output: "1006"
    op_type: "Relu"
  }
  node {
    input: "1006"
    input: "445"
    output: "1008"
    op_type: "Conv"
    attribute {
      name: "kernel_shape"
      ints: 1
      ints: 1
      type: INTS
    }
    attribute {
      name: "strides"
      ints: 1
      ints: 1
      type: INTS
    }
    attribute {
      name: "pads"
      ints: 0
      ints: 0
      ints: 0
      ints: 0
      type: INTS
    }
    attribute {
      name: "dilations"
      ints: 1
      ints: 1
      type: INTS
    }
    attribute {
      name: "group"
      i: 1
      type: INT
    }
  }
  node {
    input: "1008"
    input: "446"
    input: "447"
    input: "448"
    input: "449"
    output: "1009"
    op_type: "BatchNormalization"
    attribute {
      name: "is_test"
      i: 1
      type: INT
    }
    attribute {
      name: "epsilon"
      f: 9.99999974737875e-06
      type: FLOAT
    }
    attribute {
      name: "momentum"
      f: 0.899999976158142
      type: FLOAT
    }
    attribute {
      name: "consumed_inputs"
      ints: 0
      ints: 0
      ints: 0
      ints: 1
      ints: 1
      type: INTS
    }
  }
  node {
    input: "1009"
    output: "1010"
    op_type: "Relu"
  }
  node {
    input: "1010"
    input: "450"
    output: "1012"
    op_type: "Conv"
    attribute {
      name: "kernel_shape"
      ints: 3
      ints: 3
      type: INTS
    }
    attribute {
      name: "strides"
      ints: 1
      ints: 1
      type: INTS
    }
    attribute {
      name: "pads"
      ints: 1
      ints: 1
      ints: 1
      ints: 1
      type: INTS
    }
    attribute {
      name: "dilations"
      ints: 1
      ints: 1
      type: INTS
    }
    attribute {
      name: "group"
      i: 1
      type: INT
    }
  }
  node {
    input: "1004"
    input: "1012"
    output: "1013"
    op_type: "Concat"
    attribute {
      name: "axis"
      i: 1
      type: INT
    }
  }
  node {
    input: "1013"
    input: "451"
    input: "452"
    input: "453"
    input: "454"
    output: "1014"
    op_type: "BatchNormalization"
    attribute {
      name: "is_test"
      i: 1
      type: INT
    }
    attribute {
      name: "epsilon"
      f: 9.99999974737875e-06
      type: FLOAT
    }
    attribute {
      name: "momentum"
      f: 0.899999976158142
      type: FLOAT
    }
    attribute {
      name: "consumed_inputs"
      ints: 0
      ints: 0
      ints: 0
      ints: 1
      ints: 1
      type: INTS
    }
  }
  node {
    input: "1014"
    output: "1015"
    op_type: "Relu"
  }
  node {
    input: "1015"
    input: "455"
    output: "1017"
    op_type: "Conv"
    attribute {
      name: "kernel_shape"
      ints: 1
      ints: 1
      type: INTS
    }
    attribute {
      name: "strides"
      ints: 1
      ints: 1
      type: INTS
    }
    attribute {
      name: "pads"
      ints: 0
      ints: 0
      ints: 0
      ints: 0
      type: INTS
    }
    attribute {
      name: "dilations"
      ints: 1
      ints: 1
      type: INTS
    }
    attribute {
      name: "group"
      i: 1
      type: INT
    }
  }
  node {
    input: "1017"
    input: "456"
    input: "457"
    input: "458"
    input: "459"
    output: "1018"
    op_type: "BatchNormalization"
    attribute {
      name: "is_test"
      i: 1
      type: INT
    }
    attribute {
      name: "epsilon"
      f: 9.99999974737875e-06
      type: FLOAT
    }
    attribute {
      name: "momentum"
      f: 0.899999976158142
      type: FLOAT
    }
    attribute {
      name: "consumed_inputs"
      ints: 0
      ints: 0
      ints: 0
      ints: 1
      ints: 1
      type: INTS
    }
  }
  node {
    input: "1018"
    output: "1019"
    op_type: "Relu"
  }
  node {
    input: "1019"
    input: "460"
    output: "1021"
    op_type: "Conv"
    attribute {
      name: "kernel_shape"
      ints: 3
      ints: 3
      type: INTS
    }
    attribute {
      name: "strides"
      ints: 1
      ints: 1
      type: INTS
    }
    attribute {
      name: "pads"
      ints: 1
      ints: 1
      ints: 1
      ints: 1
      type: INTS
    }
    attribute {
      name: "dilations"
      ints: 1
      ints: 1
      type: INTS
    }
    attribute {
      name: "group"
      i: 1
      type: INT
    }
  }
  node {
    input: "1013"
    input: "1021"
    output: "1022"
    op_type: "Concat"
    attribute {
      name: "axis"
      i: 1
      type: INT
    }
  }
  node {
    input: "1022"
    input: "461"
    input: "462"
    input: "463"
    input: "464"
    output: "1023"
    op_type: "BatchNormalization"
    attribute {
      name: "is_test"
      i: 1
      type: INT
    }
    attribute {
      name: "epsilon"
      f: 9.99999974737875e-06
      type: FLOAT
    }
    attribute {
      name: "momentum"
      f: 0.899999976158142
      type: FLOAT
    }
    attribute {
      name: "consumed_inputs"
      ints: 0
      ints: 0
      ints: 0
      ints: 1
      ints: 1
      type: INTS
    }
  }
  node {
    input: "1023"
    output: "1024"
    op_type: "Relu"
  }
  node {
    input: "1024"
    input: "465"
    output: "1026"
    op_type: "Conv"
    attribute {
      name: "kernel_shape"
      ints: 1
      ints: 1
      type: INTS
    }
    attribute {
      name: "strides"
      ints: 1
      ints: 1
      type: INTS
    }
    attribute {
      name: "pads"
      ints: 0
      ints: 0
      ints: 0
      ints: 0
      type: INTS
    }
    attribute {
      name: "dilations"
      ints: 1
      ints: 1
      type: INTS
    }
    attribute {
      name: "group"
      i: 1
      type: INT
    }
  }
  node {
    input: "1026"
    input: "466"
    input: "467"
    input: "468"
    input: "469"
    output: "1027"
    op_type: "BatchNormalization"
    attribute {
      name: "is_test"
      i: 1
      type: INT
    }
    attribute {
      name: "epsilon"
      f: 9.99999974737875e-06
      type: FLOAT
    }
    attribute {
      name: "momentum"
      f: 0.899999976158142
      type: FLOAT
    }
    attribute {
      name: "consumed_inputs"
      ints: 0
      ints: 0
      ints: 0
      ints: 1
      ints: 1
      type: INTS
    }
  }
  node {
    input: "1027"
    output: "1028"
    op_type: "Relu"
  }
  node {
    input: "1028"
    input: "470"
    output: "1030"
    op_type: "Conv"
    attribute {
      name: "kernel_shape"
      ints: 3
      ints: 3
      type: INTS
    }
    attribute {
      name: "strides"
      ints: 1
      ints: 1
      type: INTS
    }
    attribute {
      name: "pads"
      ints: 1
      ints: 1
      ints: 1
      ints: 1
      type: INTS
    }
    attribute {
      name: "dilations"
      ints: 1
      ints: 1
      type: INTS
    }
    attribute {
      name: "group"
      i: 1
      type: INT
    }
  }
  node {
    input: "1022"
    input: "1030"
    output: "1031"
    op_type: "Concat"
    attribute {
      name: "axis"
      i: 1
      type: INT
    }
  }
  node {
    input: "1031"
    input: "471"
    input: "472"
    input: "473"
    input: "474"
    output: "1032"
    op_type: "BatchNormalization"
    attribute {
      name: "is_test"
      i: 1
      type: INT
    }
    attribute {
      name: "epsilon"
      f: 9.99999974737875e-06
      type: FLOAT
    }
    attribute {
      name: "momentum"
      f: 0.899999976158142
      type: FLOAT
    }
    attribute {
      name: "consumed_inputs"
      ints: 0
      ints: 0
      ints: 0
      ints: 1
      ints: 1
      type: INTS
    }
  }
  node {
    input: "1032"
    output: "1033"
    op_type: "Relu"
  }
  node {
    input: "1033"
    input: "475"
    output: "1035"
    op_type: "Conv"
    attribute {
      name: "kernel_shape"
      ints: 1
      ints: 1
      type: INTS
    }
    attribute {
      name: "strides"
      ints: 1
      ints: 1
      type: INTS
    }
    attribute {
      name: "pads"
      ints: 0
      ints: 0
      ints: 0
      ints: 0
      type: INTS
    }
    attribute {
      name: "dilations"
      ints: 1
      ints: 1
      type: INTS
    }
    attribute {
      name: "group"
      i: 1
      type: INT
    }
  }
  node {
    input: "1035"
    input: "476"
    input: "477"
    input: "478"
    input: "479"
    output: "1036"
    op_type: "BatchNormalization"
    attribute {
      name: "is_test"
      i: 1
      type: INT
    }
    attribute {
      name: "epsilon"
      f: 9.99999974737875e-06
      type: FLOAT
    }
    attribute {
      name: "momentum"
      f: 0.899999976158142
      type: FLOAT
    }
    attribute {
      name: "consumed_inputs"
      ints: 0
      ints: 0
      ints: 0
      ints: 1
      ints: 1
      type: INTS
    }
  }
  node {
    input: "1036"
    output: "1037"
    op_type: "Relu"
  }
  node {
    input: "1037"
    input: "480"
    output: "1039"
    op_type: "Conv"
    attribute {
      name: "kernel_shape"
      ints: 3
      ints: 3
      type: INTS
    }
    attribute {
      name: "strides"
      ints: 1
      ints: 1
      type: INTS
    }
    attribute {
      name: "pads"
      ints: 1
      ints: 1
      ints: 1
      ints: 1
      type: INTS
    }
    attribute {
      name: "dilations"
      ints: 1
      ints: 1
      type: INTS
    }
    attribute {
      name: "group"
      i: 1
      type: INT
    }
  }
  node {
    input: "1031"
    input: "1039"
    output: "1040"
    op_type: "Concat"
    attribute {
      name: "axis"
      i: 1
      type: INT
    }
  }
  node {
    input: "1040"
    input: "481"
    input: "482"
    input: "483"
    input: "484"
    output: "1041"
    op_type: "BatchNormalization"
    attribute {
      name: "is_test"
      i: 1
      type: INT
    }
    attribute {
      name: "epsilon"
      f: 9.99999974737875e-06
      type: FLOAT
    }
    attribute {
      name: "momentum"
      f: 0.899999976158142
      type: FLOAT
    }
    attribute {
      name: "consumed_inputs"
      ints: 0
      ints: 0
      ints: 0
      ints: 1
      ints: 1
      type: INTS
    }
  }
  node {
    input: "1041"
    output: "1042"
    op_type: "Relu"
  }
  node {
    input: "1042"
    input: "485"
    output: "1044"
    op_type: "Conv"
    attribute {
      name: "kernel_shape"
      ints: 1
      ints: 1
      type: INTS
    }
    attribute {
      name: "strides"
      ints: 1
      ints: 1
      type: INTS
    }
    attribute {
      name: "pads"
      ints: 0
      ints: 0
      ints: 0
      ints: 0
      type: INTS
    }
    attribute {
      name: "dilations"
      ints: 1
      ints: 1
      type: INTS
    }
    attribute {
      name: "group"
      i: 1
      type: INT
    }
  }
  node {
    input: "1044"
    input: "486"
    input: "487"
    input: "488"
    input: "489"
    output: "1045"
    op_type: "BatchNormalization"
    attribute {
      name: "is_test"
      i: 1
      type: INT
    }
    attribute {
      name: "epsilon"
      f: 9.99999974737875e-06
      type: FLOAT
    }
    attribute {
      name: "momentum"
      f: 0.899999976158142
      type: FLOAT
    }
    attribute {
      name: "consumed_inputs"
      ints: 0
      ints: 0
      ints: 0
      ints: 1
      ints: 1
      type: INTS
    }
  }
  node {
    input: "1045"
    output: "1046"
    op_type: "Relu"
  }
  node {
    input: "1046"
    input: "490"
    output: "1048"
    op_type: "Conv"
    attribute {
      name: "kernel_shape"
      ints: 3
      ints: 3
      type: INTS
    }
    attribute {
      name: "strides"
      ints: 1
      ints: 1
      type: INTS
    }
    attribute {
      name: "pads"
      ints: 1
      ints: 1
      ints: 1
      ints: 1
      type: INTS
    }
    attribute {
      name: "dilations"
      ints: 1
      ints: 1
      type: INTS
    }
    attribute {
      name: "group"
      i: 1
      type: INT
    }
  }
  node {
    input: "1040"
    input: "1048"
    output: "1049"
    op_type: "Concat"
    attribute {
      name: "axis"
      i: 1
      type: INT
    }
  }
  node {
    input: "1049"
    input: "491"
    input: "492"
    input: "493"
    input: "494"
    output: "1050"
    op_type: "BatchNormalization"
    attribute {
      name: "is_test"
      i: 1
      type: INT
    }
    attribute {
      name: "epsilon"
      f: 9.99999974737875e-06
      type: FLOAT
    }
    attribute {
      name: "momentum"
      f: 0.899999976158142
      type: FLOAT
    }
    attribute {
      name: "consumed_inputs"
      ints: 0
      ints: 0
      ints: 0
      ints: 1
      ints: 1
      type: INTS
    }
  }
  node {
    input: "1050"
    output: "1051"
    op_type: "Relu"
  }
  node {
    input: "1051"
    input: "495"
    output: "1053"
    op_type: "Conv"
    attribute {
      name: "kernel_shape"
      ints: 1
      ints: 1
      type: INTS
    }
    attribute {
      name: "strides"
      ints: 1
      ints: 1
      type: INTS
    }
    attribute {
      name: "pads"
      ints: 0
      ints: 0
      ints: 0
      ints: 0
      type: INTS
    }
    attribute {
      name: "dilations"
      ints: 1
      ints: 1
      type: INTS
    }
    attribute {
      name: "group"
      i: 1
      type: INT
    }
  }
  node {
    input: "1053"
    input: "496"
    input: "497"
    input: "498"
    input: "499"
    output: "1054"
    op_type: "BatchNormalization"
    attribute {
      name: "is_test"
      i: 1
      type: INT
    }
    attribute {
      name: "epsilon"
      f: 9.99999974737875e-06
      type: FLOAT
    }
    attribute {
      name: "momentum"
      f: 0.899999976158142
      type: FLOAT
    }
    attribute {
      name: "consumed_inputs"
      ints: 0
      ints: 0
      ints: 0
      ints: 1
      ints: 1
      type: INTS
    }
  }
  node {
    input: "1054"
    output: "1055"
    op_type: "Relu"
  }
  node {
    input: "1055"
    input: "500"
    output: "1057"
    op_type: "Conv"
    attribute {
      name: "kernel_shape"
      ints: 3
      ints: 3
      type: INTS
    }
    attribute {
      name: "strides"
      ints: 1
      ints: 1
      type: INTS
    }
    attribute {
      name: "pads"
      ints: 1
      ints: 1
      ints: 1
      ints: 1
      type: INTS
    }
    attribute {
      name: "dilations"
      ints: 1
      ints: 1
      type: INTS
    }
    attribute {
      name: "group"
      i: 1
      type: INT
    }
  }
  node {
    input: "1049"
    input: "1057"
    output: "1058"
    op_type: "Concat"
    attribute {
      name: "axis"
      i: 1
      type: INT
    }
  }
  node {
    input: "1058"
    input: "501"
    input: "502"
    input: "503"
    input: "504"
    output: "1059"
    op_type: "BatchNormalization"
    attribute {
      name: "is_test"
      i: 1
      type: INT
    }
    attribute {
      name: "epsilon"
      f: 9.99999974737875e-06
      type: FLOAT
    }
    attribute {
      name: "momentum"
      f: 0.899999976158142
      type: FLOAT
    }
    attribute {
      name: "consumed_inputs"
      ints: 0
      ints: 0
      ints: 0
      ints: 1
      ints: 1
      type: INTS
    }
  }
  node {
    input: "1059"
    output: "1060"
    op_type: "Relu"
  }
  node {
    input: "1060"
    input: "505"
    output: "1062"
    op_type: "Conv"
    attribute {
      name: "kernel_shape"
      ints: 1
      ints: 1
      type: INTS
    }
    attribute {
      name: "strides"
      ints: 1
      ints: 1
      type: INTS
    }
    attribute {
      name: "pads"
      ints: 0
      ints: 0
      ints: 0
      ints: 0
      type: INTS
    }
    attribute {
      name: "dilations"
      ints: 1
      ints: 1
      type: INTS
    }
    attribute {
      name: "group"
      i: 1
      type: INT
    }
  }
  node {
    input: "1062"
    input: "506"
    input: "507"
    input: "508"
    input: "509"
    output: "1063"
    op_type: "BatchNormalization"
    attribute {
      name: "is_test"
      i: 1
      type: INT
    }
    attribute {
      name: "epsilon"
      f: 9.99999974737875e-06
      type: FLOAT
    }
    attribute {
      name: "momentum"
      f: 0.899999976158142
      type: FLOAT
    }
    attribute {
      name: "consumed_inputs"
      ints: 0
      ints: 0
      ints: 0
      ints: 1
      ints: 1
      type: INTS
    }
  }
  node {
    input: "1063"
    output: "1064"
    op_type: "Relu"
  }
  node {
    input: "1064"
    input: "510"
    output: "1066"
    op_type: "Conv"
    attribute {
      name: "kernel_shape"
      ints: 3
      ints: 3
      type: INTS
    }
    attribute {
      name: "strides"
      ints: 1
      ints: 1
      type: INTS
    }
    attribute {
      name: "pads"
      ints: 1
      ints: 1
      ints: 1
      ints: 1
      type: INTS
    }
    attribute {
      name: "dilations"
      ints: 1
      ints: 1
      type: INTS
    }
    attribute {
      name: "group"
      i: 1
      type: INT
    }
  }
  node {
    input: "1058"
    input: "1066"
    output: "1067"
    op_type: "Concat"
    attribute {
      name: "axis"
      i: 1
      type: INT
    }
  }
  node {
    input: "1067"
    input: "511"
    input: "512"
    input: "513"
    input: "514"
    output: "1068"
    op_type: "BatchNormalization"
    attribute {
      name: "is_test"
      i: 1
      type: INT
    }
    attribute {
      name: "epsilon"
      f: 9.99999974737875e-06
      type: FLOAT
    }
    attribute {
      name: "momentum"
      f: 0.899999976158142
      type: FLOAT
    }
    attribute {
      name: "consumed_inputs"
      ints: 0
      ints: 0
      ints: 0
      ints: 1
      ints: 1
      type: INTS
    }
  }
  node {
    input: "1068"
    output: "1069"
    op_type: "Relu"
  }
  node {
    input: "1069"
    input: "515"
    output: "1071"
    op_type: "Conv"
    attribute {
      name: "kernel_shape"
      ints: 1
      ints: 1
      type: INTS
    }
    attribute {
      name: "strides"
      ints: 1
      ints: 1
      type: INTS
    }
    attribute {
      name: "pads"
      ints: 0
      ints: 0
      ints: 0
      ints: 0
      type: INTS
    }
    attribute {
      name: "dilations"
      ints: 1
      ints: 1
      type: INTS
    }
    attribute {
      name: "group"
      i: 1
      type: INT
    }
  }
  node {
    input: "1071"
    input: "516"
    input: "517"
    input: "518"
    input: "519"
    output: "1072"
    op_type: "BatchNormalization"
    attribute {
      name: "is_test"
      i: 1
      type: INT
    }
    attribute {
      name: "epsilon"
      f: 9.99999974737875e-06
      type: FLOAT
    }
    attribute {
      name: "momentum"
      f: 0.899999976158142
      type: FLOAT
    }
    attribute {
      name: "consumed_inputs"
      ints: 0
      ints: 0
      ints: 0
      ints: 1
      ints: 1
      type: INTS
    }
  }
  node {
    input: "1072"
    output: "1073"
    op_type: "Relu"
  }
  node {
    input: "1073"
    input: "520"
    output: "1075"
    op_type: "Conv"
    attribute {
      name: "kernel_shape"
      ints: 3
      ints: 3
      type: INTS
    }
    attribute {
      name: "strides"
      ints: 1
      ints: 1
      type: INTS
    }
    attribute {
      name: "pads"
      ints: 1
      ints: 1
      ints: 1
      ints: 1
      type: INTS
    }
    attribute {
      name: "dilations"
      ints: 1
      ints: 1
      type: INTS
    }
    attribute {
      name: "group"
      i: 1
      type: INT
    }
  }
  node {
    input: "1067"
    input: "1075"
    output: "1076"
    op_type: "Concat"
    attribute {
      name: "axis"
      i: 1
      type: INT
    }
  }
  node {
    input: "1076"
    input: "521"
    input: "522"
    input: "523"
    input: "524"
    output: "1077"
    op_type: "BatchNormalization"
    attribute {
      name: "is_test"
      i: 1
      type: INT
    }
    attribute {
      name: "epsilon"
      f: 9.99999974737875e-06
      type: FLOAT
    }
    attribute {
      name: "momentum"
      f: 0.899999976158142
      type: FLOAT
    }
    attribute {
      name: "consumed_inputs"
      ints: 0
      ints: 0
      ints: 0
      ints: 1
      ints: 1
      type: INTS
    }
  }
  node {
    input: "1077"
    output: "1078"
    op_type: "Relu"
  }
  node {
    input: "1078"
    input: "525"
    output: "1080"
    op_type: "Conv"
    attribute {
      name: "kernel_shape"
      ints: 1
      ints: 1
      type: INTS
    }
    attribute {
      name: "strides"
      ints: 1
      ints: 1
      type: INTS
    }
    attribute {
      name: "pads"
      ints: 0
      ints: 0
      ints: 0
      ints: 0
      type: INTS
    }
    attribute {
      name: "dilations"
      ints: 1
      ints: 1
      type: INTS
    }
    attribute {
      name: "group"
      i: 1
      type: INT
    }
  }
  node {
    input: "1080"
    input: "526"
    input: "527"
    input: "528"
    input: "529"
    output: "1081"
    op_type: "BatchNormalization"
    attribute {
      name: "is_test"
      i: 1
      type: INT
    }
    attribute {
      name: "epsilon"
      f: 9.99999974737875e-06
      type: FLOAT
    }
    attribute {
      name: "momentum"
      f: 0.899999976158142
      type: FLOAT
    }
    attribute {
      name: "consumed_inputs"
      ints: 0
      ints: 0
      ints: 0
      ints: 1
      ints: 1
      type: INTS
    }
  }
  node {
    input: "1081"
    output: "1082"
    op_type: "Relu"
  }
  node {
    input: "1082"
    input: "530"
    output: "1084"
    op_type: "Conv"
    attribute {
      name: "kernel_shape"
      ints: 3
      ints: 3
      type: INTS
    }
    attribute {
      name: "strides"
      ints: 1
      ints: 1
      type: INTS
    }
    attribute {
      name: "pads"
      ints: 1
      ints: 1
      ints: 1
      ints: 1
      type: INTS
    }
    attribute {
      name: "dilations"
      ints: 1
      ints: 1
      type: INTS
    }
    attribute {
      name: "group"
      i: 1
      type: INT
    }
  }
  node {
    input: "1076"
    input: "1084"
    output: "1085"
    op_type: "Concat"
    attribute {
      name: "axis"
      i: 1
      type: INT
    }
  }
  node {
    input: "1085"
    input: "531"
    input: "532"
    input: "533"
    input: "534"
    output: "1086"
    op_type: "BatchNormalization"
    attribute {
      name: "is_test"
      i: 1
      type: INT
    }
    attribute {
      name: "epsilon"
      f: 9.99999974737875e-06
      type: FLOAT
    }
    attribute {
      name: "momentum"
      f: 0.899999976158142
      type: FLOAT
    }
    attribute {
      name: "consumed_inputs"
      ints: 0
      ints: 0
      ints: 0
      ints: 1
      ints: 1
      type: INTS
    }
  }
  node {
    input: "1086"
    output: "1087"
    op_type: "Relu"
  }
  node {
    input: "1087"
    input: "535"
    output: "1089"
    op_type: "Conv"
    attribute {
      name: "kernel_shape"
      ints: 1
      ints: 1
      type: INTS
    }
    attribute {
      name: "strides"
      ints: 1
      ints: 1
      type: INTS
    }
    attribute {
      name: "pads"
      ints: 0
      ints: 0
      ints: 0
      ints: 0
      type: INTS
    }
    attribute {
      name: "dilations"
      ints: 1
      ints: 1
      type: INTS
    }
    attribute {
      name: "group"
      i: 1
      type: INT
    }
  }
  node {
    input: "1089"
    input: "536"
    input: "537"
    input: "538"
    input: "539"
    output: "1090"
    op_type: "BatchNormalization"
    attribute {
      name: "is_test"
      i: 1
      type: INT
    }
    attribute {
      name: "epsilon"
      f: 9.99999974737875e-06
      type: FLOAT
    }
    attribute {
      name: "momentum"
      f: 0.899999976158142
      type: FLOAT
    }
    attribute {
      name: "consumed_inputs"
      ints: 0
      ints: 0
      ints: 0
      ints: 1
      ints: 1
      type: INTS
    }
  }
  node {
    input: "1090"
    output: "1091"
    op_type: "Relu"
  }
  node {
    input: "1091"
    input: "540"
    output: "1093"
    op_type: "Conv"
    attribute {
      name: "kernel_shape"
      ints: 3
      ints: 3
      type: INTS
    }
    attribute {
      name: "strides"
      ints: 1
      ints: 1
      type: INTS
    }
    attribute {
      name: "pads"
      ints: 1
      ints: 1
      ints: 1
      ints: 1
      type: INTS
    }
    attribute {
      name: "dilations"
      ints: 1
      ints: 1
      type: INTS
    }
    attribute {
      name: "group"
      i: 1
      type: INT
    }
  }
  node {
    input: "1085"
    input: "1093"
    output: "1094"
    op_type: "Concat"
    attribute {
      name: "axis"
      i: 1
      type: INT
    }
  }
  node {
    input: "1094"
    input: "541"
    input: "542"
    input: "543"
    input: "544"
    output: "1095"
    op_type: "BatchNormalization"
    attribute {
      name: "is_test"
      i: 1
      type: INT
    }
    attribute {
      name: "epsilon"
      f: 9.99999974737875e-06
      type: FLOAT
    }
    attribute {
      name: "momentum"
      f: 0.899999976158142
      type: FLOAT
    }
    attribute {
      name: "consumed_inputs"
      ints: 0
      ints: 0
      ints: 0
      ints: 1
      ints: 1
      type: INTS
    }
  }
  node {
    input: "1095"
    output: "1096"
    op_type: "Relu"
  }
  node {
    input: "1096"
    input: "545"
    output: "1098"
    op_type: "Conv"
    attribute {
      name: "kernel_shape"
      ints: 1
      ints: 1
      type: INTS
    }
    attribute {
      name: "strides"
      ints: 1
      ints: 1
      type: INTS
    }
    attribute {
      name: "pads"
      ints: 0
      ints: 0
      ints: 0
      ints: 0
      type: INTS
    }
    attribute {
      name: "dilations"
      ints: 1
      ints: 1
      type: INTS
    }
    attribute {
      name: "group"
      i: 1
      type: INT
    }
  }
  node {
    input: "1098"
    input: "546"
    input: "547"
    input: "548"
    input: "549"
    output: "1099"
    op_type: "BatchNormalization"
    attribute {
      name: "is_test"
      i: 1
      type: INT
    }
    attribute {
      name: "epsilon"
      f: 9.99999974737875e-06
      type: FLOAT
    }
    attribute {
      name: "momentum"
      f: 0.899999976158142
      type: FLOAT
    }
    attribute {
      name: "consumed_inputs"
      ints: 0
      ints: 0
      ints: 0
      ints: 1
      ints: 1
      type: INTS
    }
  }
  node {
    input: "1099"
    output: "1100"
    op_type: "Relu"
  }
  node {
    input: "1100"
    input: "550"
    output: "1102"
    op_type: "Conv"
    attribute {
      name: "kernel_shape"
      ints: 3
      ints: 3
      type: INTS
    }
    attribute {
      name: "strides"
      ints: 1
      ints: 1
      type: INTS
    }
    attribute {
      name: "pads"
      ints: 1
      ints: 1
      ints: 1
      ints: 1
      type: INTS
    }
    attribute {
      name: "dilations"
      ints: 1
      ints: 1
      type: INTS
    }
    attribute {
      name: "group"
      i: 1
      type: INT
    }
  }
  node {
    input: "1094"
    input: "1102"
    output: "1103"
    op_type: "Concat"
    attribute {
      name: "axis"
      i: 1
      type: INT
    }
  }
  node {
    input: "1103"
    input: "551"
    input: "552"
    input: "553"
    input: "554"
    output: "1104"
    op_type: "BatchNormalization"
    attribute {
      name: "is_test"
      i: 1
      type: INT
    }
    attribute {
      name: "epsilon"
      f: 9.99999974737875e-06
      type: FLOAT
    }
    attribute {
      name: "momentum"
      f: 0.899999976158142
      type: FLOAT
    }
    attribute {
      name: "consumed_inputs"
      ints: 0
      ints: 0
      ints: 0
      ints: 1
      ints: 1
      type: INTS
    }
  }
  node {
    input: "1104"
    output: "1105"
    op_type: "Relu"
  }
  node {
    input: "1105"
    input: "555"
    output: "1107"
    op_type: "Conv"
    attribute {
      name: "kernel_shape"
      ints: 1
      ints: 1
      type: INTS
    }
    attribute {
      name: "strides"
      ints: 1
      ints: 1
      type: INTS
    }
    attribute {
      name: "pads"
      ints: 0
      ints: 0
      ints: 0
      ints: 0
      type: INTS
    }
    attribute {
      name: "dilations"
      ints: 1
      ints: 1
      type: INTS
    }
    attribute {
      name: "group"
      i: 1
      type: INT
    }
  }
  node {
    input: "1107"
    input: "556"
    input: "557"
    input: "558"
    input: "559"
    output: "1108"
    op_type: "BatchNormalization"
    attribute {
      name: "is_test"
      i: 1
      type: INT
    }
    attribute {
      name: "epsilon"
      f: 9.99999974737875e-06
      type: FLOAT
    }
    attribute {
      name: "momentum"
      f: 0.899999976158142
      type: FLOAT
    }
    attribute {
      name: "consumed_inputs"
      ints: 0
      ints: 0
      ints: 0
      ints: 1
      ints: 1
      type: INTS
    }
  }
  node {
    input: "1108"
    output: "1109"
    op_type: "Relu"
  }
  node {
    input: "1109"
    input: "560"
    output: "1111"
    op_type: "Conv"
    attribute {
      name: "kernel_shape"
      ints: 3
      ints: 3
      type: INTS
    }
    attribute {
      name: "strides"
      ints: 1
      ints: 1
      type: INTS
    }
    attribute {
      name: "pads"
      ints: 1
      ints: 1
      ints: 1
      ints: 1
      type: INTS
    }
    attribute {
      name: "dilations"
      ints: 1
      ints: 1
      type: INTS
    }
    attribute {
      name: "group"
      i: 1
      type: INT
    }
  }
  node {
    input: "1103"
    input: "1111"
    output: "1112"
    op_type: "Concat"
    attribute {
      name: "axis"
      i: 1
      type: INT
    }
  }
  node {
    input: "1112"
    input: "561"
    input: "562"
    input: "563"
    input: "564"
    output: "1113"
    op_type: "BatchNormalization"
    attribute {
      name: "is_test"
      i: 1
      type: INT
    }
    attribute {
      name: "epsilon"
      f: 9.99999974737875e-06
      type: FLOAT
    }
    attribute {
      name: "momentum"
      f: 0.899999976158142
      type: FLOAT
    }
    attribute {
      name: "consumed_inputs"
      ints: 0
      ints: 0
      ints: 0
      ints: 1
      ints: 1
      type: INTS
    }
  }
  node {
    input: "1113"
    output: "1114"
    op_type: "Relu"
  }
  node {
    input: "1114"
    input: "565"
    output: "1116"
    op_type: "Conv"
    attribute {
      name: "kernel_shape"
      ints: 1
      ints: 1
      type: INTS
    }
    attribute {
      name: "strides"
      ints: 1
      ints: 1
      type: INTS
    }
    attribute {
      name: "pads"
      ints: 0
      ints: 0
      ints: 0
      ints: 0
      type: INTS
    }
    attribute {
      name: "dilations"
      ints: 1
      ints: 1
      type: INTS
    }
    attribute {
      name: "group"
      i: 1
      type: INT
    }
  }
  node {
    input: "1116"
    input: "566"
    input: "567"
    input: "568"
    input: "569"
    output: "1117"
    op_type: "BatchNormalization"
    attribute {
      name: "is_test"
      i: 1
      type: INT
    }
    attribute {
      name: "epsilon"
      f: 9.99999974737875e-06
      type: FLOAT
    }
    attribute {
      name: "momentum"
      f: 0.899999976158142
      type: FLOAT
    }
    attribute {
      name: "consumed_inputs"
      ints: 0
      ints: 0
      ints: 0
      ints: 1
      ints: 1
      type: INTS
    }
  }
  node {
    input: "1117"
    output: "1118"
    op_type: "Relu"
  }
  node {
    input: "1118"
    input: "570"
    output: "1120"
    op_type: "Conv"
    attribute {
      name: "kernel_shape"
      ints: 3
      ints: 3
      type: INTS
    }
    attribute {
      name: "strides"
      ints: 1
      ints: 1
      type: INTS
    }
    attribute {
      name: "pads"
      ints: 1
      ints: 1
      ints: 1
      ints: 1
      type: INTS
    }
    attribute {
      name: "dilations"
      ints: 1
      ints: 1
      type: INTS
    }
    attribute {
      name: "group"
      i: 1
      type: INT
    }
  }
  node {
    input: "1112"
    input: "1120"
    output: "1121"
    op_type: "Concat"
    attribute {
      name: "axis"
      i: 1
      type: INT
    }
  }
  node {
    input: "1121"
    input: "571"
    input: "572"
    input: "573"
    input: "574"
    output: "1122"
    op_type: "BatchNormalization"
    attribute {
      name: "is_test"
      i: 1
      type: INT
    }
    attribute {
      name: "epsilon"
      f: 9.99999974737875e-06
      type: FLOAT
    }
    attribute {
      name: "momentum"
      f: 0.899999976158142
      type: FLOAT
    }
    attribute {
      name: "consumed_inputs"
      ints: 0
      ints: 0
      ints: 0
      ints: 1
      ints: 1
      type: INTS
    }
  }
  node {
    input: "1122"
    output: "1123"
    op_type: "Relu"
  }
  node {
    input: "1123"
    input: "575"
    output: "1125"
    op_type: "Conv"
    attribute {
      name: "kernel_shape"
      ints: 1
      ints: 1
      type: INTS
    }
    attribute {
      name: "strides"
      ints: 1
      ints: 1
      type: INTS
    }
    attribute {
      name: "pads"
      ints: 0
      ints: 0
      ints: 0
      ints: 0
      type: INTS
    }
    attribute {
      name: "dilations"
      ints: 1
      ints: 1
      type: INTS
    }
    attribute {
      name: "group"
      i: 1
      type: INT
    }
  }
  node {
    input: "1125"
    input: "576"
    input: "577"
    input: "578"
    input: "579"
    output: "1126"
    op_type: "BatchNormalization"
    attribute {
      name: "is_test"
      i: 1
      type: INT
    }
    attribute {
      name: "epsilon"
      f: 9.99999974737875e-06
      type: FLOAT
    }
    attribute {
      name: "momentum"
      f: 0.899999976158142
      type: FLOAT
    }
    attribute {
      name: "consumed_inputs"
      ints: 0
      ints: 0
      ints: 0
      ints: 1
      ints: 1
      type: INTS
    }
  }
  node {
    input: "1126"
    output: "1127"
    op_type: "Relu"
  }
  node {
    input: "1127"
    input: "580"
    output: "1129"
    op_type: "Conv"
    attribute {
      name: "kernel_shape"
      ints: 3
      ints: 3
      type: INTS
    }
    attribute {
      name: "strides"
      ints: 1
      ints: 1
      type: INTS
    }
    attribute {
      name: "pads"
      ints: 1
      ints: 1
      ints: 1
      ints: 1
      type: INTS
    }
    attribute {
      name: "dilations"
      ints: 1
      ints: 1
      type: INTS
    }
    attribute {
      name: "group"
      i: 1
      type: INT
    }
  }
  node {
    input: "1121"
    input: "1129"
    output: "1130"
    op_type: "Concat"
    attribute {
      name: "axis"
      i: 1
      type: INT
    }
  }
  node {
    input: "1130"
    input: "581"
    input: "582"
    input: "583"
    input: "584"
    output: "1131"
    op_type: "BatchNormalization"
    attribute {
      name: "is_test"
      i: 1
      type: INT
    }
    attribute {
      name: "epsilon"
      f: 9.99999974737875e-06
      type: FLOAT
    }
    attribute {
      name: "momentum"
      f: 0.899999976158142
      type: FLOAT
    }
    attribute {
      name: "consumed_inputs"
      ints: 0
      ints: 0
      ints: 0
      ints: 1
      ints: 1
      type: INTS
    }
  }
  node {
    input: "1131"
    output: "1132"
    op_type: "Relu"
  }
  node {
    input: "1132"
    input: "585"
    output: "1134"
    op_type: "Conv"
    attribute {
      name: "kernel_shape"
      ints: 1
      ints: 1
      type: INTS
    }
    attribute {
      name: "strides"
      ints: 1
      ints: 1
      type: INTS
    }
    attribute {
      name: "pads"
      ints: 0
      ints: 0
      ints: 0
      ints: 0
      type: INTS
    }
    attribute {
      name: "dilations"
      ints: 1
      ints: 1
      type: INTS
    }
    attribute {
      name: "group"
      i: 1
      type: INT
    }
  }
  node {
    input: "1134"
    input: "586"
    input: "587"
    input: "588"
    input: "589"
    output: "1135"
    op_type: "BatchNormalization"
    attribute {
      name: "is_test"
      i: 1
      type: INT
    }
    attribute {
      name: "epsilon"
      f: 9.99999974737875e-06
      type: FLOAT
    }
    attribute {
      name: "momentum"
      f: 0.899999976158142
      type: FLOAT
    }
    attribute {
      name: "consumed_inputs"
      ints: 0
      ints: 0
      ints: 0
      ints: 1
      ints: 1
      type: INTS
    }
  }
  node {
    input: "1135"
    output: "1136"
    op_type: "Relu"
  }
  node {
    input: "1136"
    input: "590"
    output: "1138"
    op_type: "Conv"
    attribute {
      name: "kernel_shape"
      ints: 3
      ints: 3
      type: INTS
    }
    attribute {
      name: "strides"
      ints: 1
      ints: 1
      type: INTS
    }
    attribute {
      name: "pads"
      ints: 1
      ints: 1
      ints: 1
      ints: 1
      type: INTS
    }
    attribute {
      name: "dilations"
      ints: 1
      ints: 1
      type: INTS
    }
    attribute {
      name: "group"
      i: 1
      type: INT
    }
  }
  node {
    input: "1130"
    input: "1138"
    output: "1139"
    op_type: "Concat"
    attribute {
      name: "axis"
      i: 1
      type: INT
    }
  }
  node {
    input: "1139"
    input: "591"
    input: "592"
    input: "593"
    input: "594"
    output: "1140"
    op_type: "BatchNormalization"
    attribute {
      name: "is_test"
      i: 1
      type: INT
    }
    attribute {
      name: "epsilon"
      f: 9.99999974737875e-06
      type: FLOAT
    }
    attribute {
      name: "momentum"
      f: 0.899999976158142
      type: FLOAT
    }
    attribute {
      name: "consumed_inputs"
      ints: 0
      ints: 0
      ints: 0
      ints: 1
      ints: 1
      type: INTS
    }
  }
  node {
    input: "1140"
    output: "1141"
    op_type: "Relu"
  }
  node {
    input: "1141"
    input: "595"
    output: "1143"
    op_type: "Conv"
    attribute {
      name: "kernel_shape"
      ints: 1
      ints: 1
      type: INTS
    }
    attribute {
      name: "strides"
      ints: 1
      ints: 1
      type: INTS
    }
    attribute {
      name: "pads"
      ints: 0
      ints: 0
      ints: 0
      ints: 0
      type: INTS
    }
    attribute {
      name: "dilations"
      ints: 1
      ints: 1
      type: INTS
    }
    attribute {
      name: "group"
      i: 1
      type: INT
    }
  }
  node {
    input: "1143"
    input: "596"
    input: "597"
    input: "598"
    input: "599"
    output: "1144"
    op_type: "BatchNormalization"
    attribute {
      name: "is_test"
      i: 1
      type: INT
    }
    attribute {
      name: "epsilon"
      f: 9.99999974737875e-06
      type: FLOAT
    }
    attribute {
      name: "momentum"
      f: 0.899999976158142
      type: FLOAT
    }
    attribute {
      name: "consumed_inputs"
      ints: 0
      ints: 0
      ints: 0
      ints: 1
      ints: 1
      type: INTS
    }
  }
  node {
    input: "1144"
    output: "1145"
    op_type: "Relu"
  }
  node {
    input: "1145"
    input: "600"
    output: "1147"
    op_type: "Conv"
    attribute {
      name: "kernel_shape"
      ints: 3
      ints: 3
      type: INTS
    }
    attribute {
      name: "strides"
      ints: 1
      ints: 1
      type: INTS
    }
    attribute {
      name: "pads"
      ints: 1
      ints: 1
      ints: 1
      ints: 1
      type: INTS
    }
    attribute {
      name: "dilations"
      ints: 1
      ints: 1
      type: INTS
    }
    attribute {
      name: "group"
      i: 1
      type: INT
    }
  }
  node {
    input: "1139"
    input: "1147"
    output: "1148"
    op_type: "Concat"
    attribute {
      name: "axis"
      i: 1
      type: INT
    }
  }
  node {
    input: "1148"
    input: "601"
    input: "602"
    input: "603"
    input: "604"
    output: "1149"
    op_type: "BatchNormalization"
    attribute {
      name: "is_test"
      i: 1
      type: INT
    }
    attribute {
      name: "epsilon"
      f: 9.99999974737875e-06
      type: FLOAT
    }
    attribute {
      name: "momentum"
      f: 0.899999976158142
      type: FLOAT
    }
    attribute {
      name: "consumed_inputs"
      ints: 0
      ints: 0
      ints: 0
      ints: 1
      ints: 1
      type: INTS
    }
  }
  node {
    input: "1149"
    output: "1150"
    op_type: "Relu"
  }
  node {
    input: "1150"
    output: "1151"
    op_type: "AveragePool"
    attribute {
      name: "kernel_shape"
      ints: 7
      ints: 7
      type: INTS
    }
    attribute {
      name: "pads"
      ints: 0
      ints: 0
      type: INTS
    }
    attribute {
      name: "strides"
      ints: 7
      ints: 7
      type: INTS
    }
  }
  node {
    input: "1151"
    output: "1152"
    op_type: "Reshape"
    attribute {
      name: "shape"
      ints: 2
      ints: -1
      type: INTS
    }
  }
  node {
    input: "1152"
    input: "605"
…
      tensor_type {
        elem_type: FLOAT
        shape {
          dim {
            dim_value: 128
          }
        }
      }
    }
  }
  input {
    name: "374"
    type {
      tensor_type {
        elem_type: FLOAT
        shape {
          dim {
            dim_value: 128
          }
        }
      }
    }
  }
  input {
    name: "375"
    type {
      tensor_type {
        elem_type: FLOAT
        shape {
          dim {
            dim_value: 32
          }
          dim {
            dim_value: 128
          }
          dim {
            dim_value: 3
          }
          dim {
            dim_value: 3
          }
        }
      }
    }
  }
  input {
    name: "376"
    type {
      tensor_type {
        elem_type: FLOAT
        shape {
          dim {
            dim_value: 832
          }
        }
      }
    }
  }
  input {
    name: "377"
    type {
      tensor_type {
        elem_type: FLOAT
        shape {
          dim {
            dim_value: 832
          }
        }
      }
    }
  }
  input {
    name: "378"
    type {
      tensor_type {
        elem_type: FLOAT
        shape {
          dim {
            dim_value: 832
          }
        }
      }
    }
  }
  input {
    name: "379"
    type {
      tensor_type {
        elem_type: FLOAT
        shape {
          dim {
            dim_value: 832
          }
        }
      }
    }
  }
  input {
    name: "380"
    type {
      tensor_type {
        elem_type: FLOAT
        shape {
          dim {
            dim_value: 128
          }
          dim {
            dim_value: 832
          }
          dim {
            dim_value: 1
          }
          dim {
            dim_value: 1
          }
        }
      }
    }
  }
  input {
    name: "381"
    type {
      tensor_type {
        elem_type: FLOAT
        shape {
          dim {
            dim_value: 128
          }
        }
      }
    }
  }
  input {
    name: "382"
    type {
      tensor_type {
        elem_type: FLOAT
        shape {
          dim {
            dim_value: 128
          }
        }
      }
    }
  }
  input {
    name: "383"
    type {
      tensor_type {
        elem_type: FLOAT
        shape {
          dim {
            dim_value: 128
          }
        }
      }
    }
  }
  input {
    name: "384"
    type {
      tensor_type {
        elem_type: FLOAT
        shape {
          dim {
            dim_value: 128
          }
        }
      }
    }
  }
  input {
    name: "385"
    type {
      tensor_type {
        elem_type: FLOAT
        shape {
          dim {
            dim_value: 32
          }
          dim {
            dim_value: 128
          }
          dim {
            dim_value: 3
          }
          dim {
            dim_value: 3
          }
        }
      }
    }
  }
  input {
    name: "386"
    type {
      tensor_type {
        elem_type: FLOAT
        shape {
          dim {
            dim_value: 864
          }
        }
      }
    }
  }
  input {
    name: "387"
    type {
      tensor_type {
        elem_type: FLOAT
        shape {
          dim {
            dim_value: 864
          }
        }
      }
    }
  }
  input {
    name: "388"
    type {
      tensor_type {
        elem_type: FLOAT
        shape {
          dim {
            dim_value: 864
          }
        }
      }
    }
  }
  input {
    name: "389"
    type {
      tensor_type {
        elem_type: FLOAT
        shape {
          dim {
            dim_value: 864
          }
        }
      }
    }
  }
  input {
    name: "390"
    type {
      tensor_type {
        elem_type: FLOAT
        shape {
          dim {
            dim_value: 128
          }
          dim {
            dim_value: 864
          }
          dim {
            dim_value: 1
          }
          dim {
            dim_value: 1
          }
        }
      }
    }
  }
  input {
    name: "391"
    type {
      tensor_type {
        elem_type: FLOAT
        shape {
          dim {
            dim_value: 128
          }
        }
      }
    }
  }
  input {
    name: "392"
    type {
      tensor_type {
        elem_type: FLOAT
        shape {
          dim {
            dim_value: 128
          }
        }
      }
    }
  }
  input {
    name: "393"
    type {
      tensor_type {
        elem_type: FLOAT
        shape {
          dim {
            dim_value: 128
          }
        }
      }
    }
  }
  input {
    name: "394"
    type {
      tensor_type {
        elem_type: FLOAT
        shape {
          dim {
            dim_value: 128
          }
        }
      }
    }
  }
  input {
    name: "395"
    type {
      tensor_type {
        elem_type: FLOAT
        shape {
          dim {
            dim_value: 32
          }
          dim {
            dim_value: 128
          }
          dim {
            dim_value: 3
          }
          dim {
            dim_value: 3
          }
        }
      }
    }
  }
  input {
    name: "396"
    type {
      tensor_type {
        elem_type: FLOAT
        shape {
          dim {
            dim_value: 896
          }
        }
      }
    }
  }
  input {
    name: "397"
    type {
      tensor_type {
        elem_type: FLOAT
        shape {
          dim {
            dim_value: 896
          }
        }
      }
    }
  }
  input {
    name: "398"
    type {
      tensor_type {
        elem_type: FLOAT
        shape {
          dim {
            dim_value: 896
          }
        }
      }
    }
  }
  input {
    name: "399"
    type {
      tensor_type {
        elem_type: FLOAT
        shape {
          dim {
            dim_value: 896
          }
        }
      }
    }
  }
  input {
    name: "400"
    type {
      tensor_type {
        elem_type: FLOAT
        shape {
          dim {
            dim_value: 128
          }
          dim {
            dim_value: 896
          }
          dim {
            dim_value: 1
          }
          dim {
            dim_value: 1
          }
        }
      }
    }
  }
  input {
    name: "401"
    type {
      tensor_type {
        elem_type: FLOAT
        shape {
          dim {
            dim_value: 128
          }
        }
      }
    }
  }
  input {
    name: "402"
    type {
      tensor_type {
        elem_type: FLOAT
        shape {
          dim {
            dim_value: 128
          }
        }
      }
    }
  }
  input {
    name: "403"
    type {
      tensor_type {
        elem_type: FLOAT
        shape {
          dim {
            dim_value: 128
          }
        }
      }
    }
  }
  input {
    name: "404"
    type {
      tensor_type {
        elem_type: FLOAT
        shape {
          dim {
            dim_value: 128
          }
        }
      }
    }
  }
  input {
    name: "405"
    type {
      tensor_type {
        elem_type: FLOAT
        shape {
          dim {
            dim_value: 32
          }
          dim {
            dim_value: 128
          }
          dim {
            dim_value: 3
          }
          dim {
            dim_value: 3
          }
        }
      }
    }
  }
  input {
    name: "406"
    type {
      tensor_type {
        elem_type: FLOAT
        shape {
          dim {
            dim_value: 928
          }
        }
      }
    }
  }
  input {
    name: "407"
    type {
      tensor_type {
        elem_type: FLOAT
        shape {
          dim {
            dim_value: 928
          }
        }
      }
    }
  }
  input {
    name: "408"
    type {
      tensor_type {
        elem_type: FLOAT
        shape {
          dim {
            dim_value: 928
          }
        }
      }
    }
  }
  input {
    name: "409"
    type {
      tensor_type {
        elem_type: FLOAT
        shape {
          dim {
            dim_value: 928
          }
        }
      }
    }
  }
  input {
    name: "410"
    type {
      tensor_type {
        elem_type: FLOAT
        shape {
          dim {
            dim_value: 128
          }
          dim {
            dim_value: 928
          }
          dim {
            dim_value: 1
          }
          dim {
            dim_value: 1
          }
        }
      }
    }
  }
  input {
    name: "411"
    type {
      tensor_type {
        elem_type: FLOAT
        shape {
          dim {
            dim_value: 128
          }
        }
      }
    }
  }
  input {
    name: "412"
    type {
      tensor_type {
        elem_type: FLOAT
        shape {
          dim {
            dim_value: 128
          }
        }
      }
    }
  }
  input {
    name: "413"
    type {
      tensor_type {
        elem_type: FLOAT
        shape {
          dim {
            dim_value: 128
          }
        }
      }
    }
  }
  input {
    name: "414"
    type {
      tensor_type {
        elem_type: FLOAT
        shape {
          dim {
            dim_value: 128
          }
        }
      }
    }
  }
  input {
    name: "415"
    type {
      tensor_type {
        elem_type: FLOAT
        shape {
          dim {
            dim_value: 32
          }
          dim {
            dim_value: 128
          }
          dim {
            dim_value: 3
          }
          dim {
            dim_value: 3
          }
        }
      }
    }
  }
  input {
    name: "416"
    type {
      tensor_type {
        elem_type: FLOAT
        shape {
          dim {
            dim_value: 960
          }
        }
      }
    }
  }
  input {
    name: "417"
    type {
      tensor_type {
        elem_type: FLOAT
        shape {
          dim {
            dim_value: 960
          }
        }
      }
    }
  }
  input {
    name: "418"
    type {
      tensor_type {
        elem_type: FLOAT
        shape {
          dim {
            dim_value: 960
          }
        }
      }
    }
  }
  input {
    name: "419"
    type {
      tensor_type {
        elem_type: FLOAT
        shape {
          dim {
            dim_value: 960
          }
        }
      }
    }
  }
  input {
    name: "420"
    type {
      tensor_type {
        elem_type: FLOAT
        shape {
          dim {
            dim_value: 128
          }
          dim {
            dim_value: 960
          }
          dim {
            dim_value: 1
          }
          dim {
            dim_value: 1
          }
        }
      }
    }
  }
  input {
    name: "421"
    type {
      tensor_type {
        elem_type: FLOAT
        shape {
          dim {
            dim_value: 128
          }
        }
      }
    }
  }
  input {
    name: "422"
    type {
      tensor_type {
        elem_type: FLOAT
        shape {
          dim {
            dim_value: 128
          }
        }
      }
    }
  }
  input {
    name: "423"
    type {
      tensor_type {
        elem_type: FLOAT
        shape {
          dim {
            dim_value: 128
          }
        }
      }
    }
  }
  input {
    name: "424"
    type {
      tensor_type {
        elem_type: FLOAT
        shape {
          dim {
            dim_value: 128
          }
        }
      }
    }
  }
  input {
    name: "425"
    type {
      tensor_type {
        elem_type: FLOAT
        shape {
          dim {
            dim_value: 32
          }
          dim {
            dim_value: 128
          }
          dim {
            dim_value: 3
          }
          dim {
            dim_value: 3
          }
        }
      }
    }
  }
  input {
    name: "426"
    type {
      tensor_type {
        elem_type: FLOAT
        shape {
          dim {
            dim_value: 992
          }
        }
      }
    }
  }
  input {
    name: "427"
    type {
      tensor_type {
        elem_type: FLOAT
        shape {
          dim {
            dim_value: 992
          }
        }
      }
    }
  }
  input {
    name: "428"
    type {
      tensor_type {
        elem_type: FLOAT
        shape {
          dim {
            dim_value: 992
          }
        }
      }
    }
  }
  input {
    name: "429"
    type {
      tensor_type {
        elem_type: FLOAT
        shape {
          dim {
            dim_value: 992
          }
        }
      }
    }
  }
  input {
    name: "430"
    type {
      tensor_type {
        elem_type: FLOAT
        shape {
          dim {
            dim_value: 128
          }
          dim {
            dim_value: 992
          }
          dim {
            dim_value: 1
          }
          dim {
            dim_value: 1
          }
        }
      }
    }
  }
  input {
    name: "431"
    type {
      tensor_type {
        elem_type: FLOAT
        shape {
          dim {
            dim_value: 128
          }
        }
      }
    }
  }
  input {
    name: "432"
    type {
      tensor_type {
        elem_type: FLOAT
        shape {
          dim {
            dim_value: 128
          }
        }
      }
    }
  }
  input {
    name: "433"
    type {
      tensor_type {
        elem_type: FLOAT
        shape {
          dim {
            dim_value: 128
          }
        }
      }
    }
  }
  input {
    name: "434"
    type {
      tensor_type {
        elem_type: FLOAT
        shape {
          dim {
            dim_value: 128
          }
        }
      }
    }
  }
  input {
    name: "435"
    type {
      tensor_type {
        elem_type: FLOAT
        shape {
          dim {
            dim_value: 32
          }
          dim {
            dim_value: 128
          }
          dim {
            dim_value: 3
          }
          dim {
            dim_value: 3
          }
        }
      }
    }
  }
  input {
    name: "436"
    type {
      tensor_type {
        elem_type: FLOAT
        shape {
          dim {
            dim_value: 1024
          }
        }
      }
    }
  }
  input {
    name: "437"
    type {
      tensor_type {
        elem_type: FLOAT
        shape {
          dim {
            dim_value: 1024
          }
        }
      }
    }
  }
  input {
    name: "438"
    type {
      tensor_type {
        elem_type: FLOAT
        shape {
          dim {
            dim_value: 1024
          }
        }
      }
    }
  }
  input {
    name: "439"
    type {
      tensor_type {
        elem_type: FLOAT
        shape {
          dim {
            dim_value: 1024
          }
        }
      }
    }
  }
  input {
    name: "440"
    type {
      tensor_type {
        elem_type: FLOAT
        shape {
          dim {
            dim_value: 512
          }
          dim {
            dim_value: 1024
          }
          dim {
            dim_value: 1
          }
          dim {
            dim_value: 1
          }
        }
      }
    }
  }
  input {
    name: "441"
    type {
      tensor_type {
        elem_type: FLOAT
        shape {
          dim {
            dim_value: 512
          }
        }
      }
    }
  }
  input {
    name: "442"
    type {
      tensor_type {
        elem_type: FLOAT
        shape {
          dim {
            dim_value: 512
          }
        }
      }
    }
  }
  input {
    name: "443"
    type {
      tensor_type {
        elem_type: FLOAT
        shape {
          dim {
            dim_value: 512
          }
        }
      }
    }
  }
  input {
    name: "444"
    type {
      tensor_type {
        elem_type: FLOAT
        shape {
          dim {
            dim_value: 512
          }
        }
      }
    }
  }
  input {
    name: "445"
    type {
      tensor_type {
        elem_type: FLOAT
        shape {
          dim {
            dim_value: 128
          }
          dim {
            dim_value: 512
          }
          dim {
            dim_value: 1
          }
          dim {
            dim_value: 1
          }
        }
      }
    }
  }
  input {
    name: "446"
    type {
      tensor_type {
        elem_type: FLOAT
        shape {
          dim {
            dim_value: 128
          }
        }
      }
    }
  }
  input {
    name: "447"
    type {
      tensor_type {
        elem_type: FLOAT
        shape {
          dim {
            dim_value: 128
          }
        }
      }
    }
  }
  input {
    name: "448"
    type {
      tensor_type {
        elem_type: FLOAT
        shape {
          dim {
            dim_value: 128
          }
        }
      }
    }
  }
  input {
    name: "449"
    type {
      tensor_type {
        elem_type: FLOAT
        shape {
          dim {
            dim_value: 128
          }
        }
      }
    }
  }
  input {
    name: "450"
    type {
      tensor_type {
        elem_type: FLOAT
        shape {
          dim {
            dim_value: 32
          }
          dim {
            dim_value: 128
          }
          dim {
            dim_value: 3
          }
          dim {
            dim_value: 3
          }
        }
      }
    }
  }
  input {
    name: "451"
    type {
      tensor_type {
        elem_type: FLOAT
        shape {
          dim {
            dim_value: 544
          }
        }
      }
    }
  }
  input {
    name: "452"
    type {
      tensor_type {
        elem_type: FLOAT
        shape {
          dim {
            dim_value: 544
          }
        }
      }
    }
  }
  input {
    name: "453"
    type {
      tensor_type {
        elem_type: FLOAT
        shape {
          dim {
            dim_value: 544
          }
        }
      }
    }
  }
  input {
    name: "454"
    type {
      tensor_type {
        elem_type: FLOAT
        shape {
          dim {
            dim_value: 544
          }
        }
      }
    }
  }
  input {
    name: "455"
    type {
      tensor_type {
        elem_type: FLOAT
        shape {
          dim {
            dim_value: 128
          }
          dim {
            dim_value: 544
          }
          dim {
            dim_value: 1
          }
          dim {
            dim_value: 1
          }
        }
      }
    }
  }
  input {
    name: "456"
    type {
      tensor_type {
        elem_type: FLOAT
        shape {
          dim {
            dim_value: 128
          }
        }
      }
    }
  }
  input {
    name: "457"
    type {
      tensor_type {
        elem_type: FLOAT
        shape {
          dim {
            dim_value: 128
          }
        }
      }
    }
  }
  input {
    name: "458"
    type {
      tensor_type {
        elem_type: FLOAT
        shape {
          dim {
            dim_value: 128
          }
        }
      }
    }
  }
  input {
    name: "459"
    type {
      tensor_type {
        elem_type: FLOAT
        shape {
          dim {
            dim_value: 128
          }
        }
      }
    }
  }
  input {
    name: "460"
    type {
      tensor_type {
        elem_type: FLOAT
        shape {
          dim {
            dim_value: 32
          }
          dim {
            dim_value: 128
          }
          dim {
            dim_value: 3
          }
          dim {
            dim_value: 3
          }
        }
      }
    }
  }
  input {
    name: "461"
    type {
      tensor_type {
        elem_type: FLOAT
        shape {
          dim {
            dim_value: 576
          }
        }
      }
    }
  }
  input {
    name: "462"
    type {
      tensor_type {
        elem_type: FLOAT
        shape {
          dim {
            dim_value: 576
          }
        }
      }
    }
  }
  input {
    name: "463"
    type {
      tensor_type {
        elem_type: FLOAT
        shape {
          dim {
            dim_value: 576
          }
        }
      }
    }
  }
  input {
    name: "464"
    type {
      tensor_type {
        elem_type: FLOAT
        shape {
          dim {
            dim_value: 576
          }
        }
      }
    }
  }
  input {
    name: "465"
    type {
      tensor_type {
        elem_type: FLOAT
        shape {
          dim {
            dim_value: 128
          }
          dim {
            dim_value: 576
          }
          dim {
            dim_value: 1
          }
          dim {
            dim_value: 1
          }
        }
      }
    }
  }
  input {
    name: "466"
    type {
      tensor_type {
        elem_type: FLOAT
        shape {
          dim {
            dim_value: 128
          }
        }
      }
    }
  }
  input {
    name: "467"
    type {
      tensor_type {
        elem_type: FLOAT
        shape {
          dim {
            dim_value: 128
          }
        }
      }
    }
  }
  input {
    name: "468"
    type {
      tensor_type {
        elem_type: FLOAT
        shape {
          dim {
            dim_value: 128
          }
        }
      }
    }
  }
  input {
    name: "469"
    type {
      tensor_type {
        elem_type: FLOAT
        shape {
          dim {
            dim_value: 128
          }
        }
      }
    }
  }
  input {
    name: "470"
    type {
      tensor_type {
        elem_type: FLOAT
        shape {
          dim {
            dim_value: 32
          }
          dim {
            dim_value: 128
          }
          dim {
            dim_value: 3
          }
          dim {
            dim_value: 3
          }
        }
      }
    }
  }
  input {
    name: "471"
    type {
      tensor_type {
        elem_type: FLOAT
        shape {
          dim {
            dim_value: 608
          }
        }
      }
    }
  }
  input {
    name: "472"
    type {
      tensor_type {
        elem_type: FLOAT
        shape {
          dim {
            dim_value: 608
          }
        }
      }
    }
  }
  input {
    name: "473"
    type {
      tensor_type {
        elem_type: FLOAT
        shape {
          dim {
            dim_value: 608
          }
        }
      }
    }
  }
  input {
    name: "474"
    type {
      tensor_type {
        elem_type: FLOAT
        shape {
          dim {
            dim_value: 608
          }
        }
      }
    }
  }
  input {
    name: "475"
    type {
      tensor_type {
        elem_type: FLOAT
        shape {
          dim {
            dim_value: 128
          }
          dim {
            dim_value: 608
          }
          dim {
            dim_value: 1
          }
          dim {
            dim_value: 1
          }
        }
      }
    }
  }
  input {
    name: "476"
    type {
      tensor_type {
        elem_type: FLOAT
        shape {
          dim {
            dim_value: 128
          }
        }
      }
    }
  }
  input {
    name: "477"
    type {
      tensor_type {
        elem_type: FLOAT
        shape {
          dim {
            dim_value: 128
          }
        }
      }
    }
  }
  input {
    name: "478"
    type {
      tensor_type {
        elem_type: FLOAT
        shape {
          dim {
            dim_value: 128
          }
        }
      }
    }
  }
  input {
    name: "479"
    type {
      tensor_type {
        elem_type: FLOAT
        shape {
          dim {
            dim_value: 128
          }
        }
      }
    }
  }
  input {
    name: "480"
    type {
      tensor_type {
        elem_type: FLOAT
        shape {
          dim {
            dim_value: 32
          }
          dim {
            dim_value: 128
          }
          dim {
            dim_value: 3
          }
          dim {
            dim_value: 3
          }
        }
      }
    }
  }
  input {
    name: "481"
    type {
      tensor_type {
        elem_type: FLOAT
        shape {
          dim {
            dim_value: 640
          }
        }
      }
    }
  }
  input {
    name: "482"
    type {
      tensor_type {
        elem_type: FLOAT
        shape {
          dim {
            dim_value: 640
          }
        }
      }
    }
  }
  input {
    name: "483"
    type {
      tensor_type {
        elem_type: FLOAT
        shape {
          dim {
            dim_value: 640
          }
        }
      }
    }
  }
  input {
    name: "484"
    type {
      tensor_type {
        elem_type: FLOAT
        shape {
          dim {
            dim_value: 640
          }
        }
      }
    }
  }
  input {
    name: "485"
    type {
      tensor_type {
        elem_type: FLOAT
        shape {
          dim {
            dim_value: 128
          }
          dim {
            dim_value: 640
          }
          dim {
            dim_value: 1
          }
          dim {
            dim_value: 1
          }
        }
      }
    }
  }
  input {
    name: "486"
    type {
      tensor_type {
        elem_type: FLOAT
        shape {
          dim {
            dim_value: 128
          }
        }
      }
    }
  }
  input {
    name: "487"
    type {
      tensor_type {
        elem_type: FLOAT
        shape {
          dim {
            dim_value: 128
          }
        }
      }
    }
  }
  input {
    name: "488"
    type {
      tensor_type {
        elem_type: FLOAT
        shape {
          dim {
            dim_value: 128
          }
        }
      }
    }
  }
  input {
    name: "489"
    type {
      tensor_type {
        elem_type: FLOAT
        shape {
          dim {
            dim_value: 128
          }
        }
      }
    }
  }
  input {
    name: "490"
    type {
      tensor_type {
        elem_type: FLOAT
        shape {
          dim {
            dim_value: 32
          }
          dim {
            dim_value: 128
          }
          dim {
            dim_value: 3
          }
          dim {
            dim_value: 3
          }
        }
      }
    }
  }
  input {
    name: "491"
    type {
      tensor_type {
        elem_type: FLOAT
        shape {
          dim {
            dim_value: 672
          }
        }
      }
    }
  }
  input {
    name: "492"
    type {
      tensor_type {
        elem_type: FLOAT
        shape {
          dim {
            dim_value: 672
          }
        }
      }
    }
  }
  input {
    name: "493"
    type {
      tensor_type {
        elem_type: FLOAT
        shape {
          dim {
            dim_value: 672
          }
        }
      }
    }
  }
  input {
    name: "494"
    type {
      tensor_type {
        elem_type: FLOAT
        shape {
          dim {
            dim_value: 672
          }
        }
      }
    }
  }
  input {
    name: "495"
    type {
      tensor_type {
        elem_type: FLOAT
        shape {
          dim {
            dim_value: 128
          }
          dim {
            dim_value: 672
          }
          dim {
            dim_value: 1
          }
          dim {
            dim_value: 1
          }
        }
      }
    }
  }
  input {
    name: "496"
    type {
      tensor_type {
        elem_type: FLOAT
        shape {
          dim {
            dim_value: 128
          }
        }
      }
    }
  }
  input {
    name: "497"
    type {
      tensor_type {
        elem_type: FLOAT
        shape {
          dim {
            dim_value: 128
          }
        }
      }
    }
  }
  input {
    name: "498"
    type {
      tensor_type {
        elem_type: FLOAT
        shape {
          dim {
            dim_value: 128
          }
        }
      }
    }
  }
  input {
    name: "499"
    type {
      tensor_type {
        elem_type: FLOAT
        shape {
          dim {
            dim_value: 128
          }
        }
      }
    }
  }
  input {
    name: "500"
    type {
      tensor_type {
        elem_type: FLOAT
        shape {
          dim {
            dim_value: 32
          }
          dim {
            dim_value: 128
          }
          dim {
            dim_value: 3
          }
          dim {
            dim_value: 3
          }
        }
      }
    }
  }
  input {
    name: "501"
    type {
      tensor_type {
        elem_type: FLOAT
        shape {
          dim {
            dim_value: 704
          }
        }
      }
    }
  }
  input {
    name: "502"
    type {
      tensor_type {
        elem_type: FLOAT
        shape {
          dim {
            dim_value: 704
          }
        }
      }
    }
  }
  input {
    name: "503"
    type {
      tensor_type {
        elem_type: FLOAT
        shape {
          dim {
            dim_value: 704
          }
        }
      }
    }
  }
  input {
    name: "504"
    type {
      tensor_type {
        elem_type: FLOAT
        shape {
          dim {
            dim_value: 704
          }
        }
      }
    }
  }
  input {
    name: "505"
    type {
      tensor_type {
        elem_type: FLOAT
        shape {
          dim {
            dim_value: 128
          }
          dim {
            dim_value: 704
          }
          dim {
            dim_value: 1
          }
          dim {
            dim_value: 1
          }
        }
      }
    }
  }
  input {
    name: "506"
    type {
      tensor_type {
        elem_type: FLOAT
        shape {
          dim {
            dim_value: 128
          }
        }
      }
    }
  }
  input {
    name: "507"
    type {
      tensor_type {
        elem_type: FLOAT
        shape {
          dim {
            dim_value: 128
          }
        }
      }
    }
  }
  input {
    name: "508"
    type {
      tensor_type {
        elem_type: FLOAT
        shape {
          dim {
            dim_value: 128
          }
        }
      }
    }
  }
  input {
    name: "509"
    type {
      tensor_type {
        elem_type: FLOAT
        shape {
          dim {
            dim_value: 128
          }
        }
      }
    }
  }
  input {
    name: "510"
    type {
      tensor_type {
        elem_type: FLOAT
        shape {
          dim {
            dim_value: 32
          }
          dim {
            dim_value: 128
          }
          dim {
            dim_value: 3
          }
          dim {
            dim_value: 3
          }
        }
      }
    }
  }
  input {
    name: "511"
    type {
      tensor_type {
        elem_type: FLOAT
        shape {
          dim {
            dim_value: 736
          }
        }
      }
    }
  }
  input {
    name: "512"
    type {
      tensor_type {
        elem_type: FLOAT
        shape {
          dim {
            dim_value: 736
          }
        }
      }
    }
  }
  input {
    name: "513"
    type {
      tensor_type {
        elem_type: FLOAT
        shape {
          dim {
            dim_value: 736
          }
        }
      }
    }
  }
  input {
    name: "514"
    type {
      tensor_type {
        elem_type: FLOAT
        shape {
          dim {
            dim_value: 736
          }
        }
      }
    }
  }
  input {
    name: "515"
    type {
      tensor_type {
        elem_type: FLOAT
        shape {
          dim {
            dim_value: 128
          }
          dim {
            dim_value: 736
          }
          dim {
            dim_value: 1
          }
          dim {
            dim_value: 1
          }
        }
      }
    }
  }
  input {
    name: "516"
    type {
      tensor_type {
        elem_type: FLOAT
        shape {
          dim {
            dim_value: 128
          }
        }
      }
    }
  }
  input {
    name: "517"
    type {
      tensor_type {
        elem_type: FLOAT
        shape {
          dim {
            dim_value: 128
          }
        }
      }
    }
  }
  input {
    name: "518"
    type {
      tensor_type {
        elem_type: FLOAT
        shape {
          dim {
            dim_value: 128
          }
        }
      }
    }
  }
  input {
    name: "519"
    type {
      tensor_type {
        elem_type: FLOAT
        shape {
          dim {
            dim_value: 128
          }
        }
      }
    }
  }
  input {
    name: "520"
    type {
      tensor_type {
        elem_type: FLOAT
        shape {
          dim {
            dim_value: 32
          }
          dim {
            dim_value: 128
          }
          dim {
            dim_value: 3
          }
          dim {
            dim_value: 3
          }
        }
      }
    }
  }
  input {
    name: "521"
    type {
      tensor_type {
        elem_type: FLOAT
        shape {
          dim {
            dim_value: 768
          }
        }
      }
    }
  }
  input {
    name: "522"
    type {
      tensor_type {
        elem_type: FLOAT
        shape {
          dim {
            dim_value: 768
          }
        }
      }
    }
  }
  input {
    name: "523"
    type {
      tensor_type {
        elem_type: FLOAT
        shape {
          dim {
            dim_value: 768
          }
        }
      }
    }
  }
  input {
    name: "524"
    type {
      tensor_type {
        elem_type: FLOAT
        shape {
          dim {
            dim_value: 768
          }
        }
      }
    }
  }
  input {
    name: "525"
    type {
      tensor_type {
        elem_type: FLOAT
        shape {
          dim {
            dim_value: 128
          }
          dim {
            dim_value: 768
          }
          dim {
            dim_value: 1
          }
          dim {
            dim_value: 1
          }
        }
      }
    }
  }
  input {
    name: "526"
    type {
      tensor_type {
        elem_type: FLOAT
        shape {
          dim {
            dim_value: 128
          }
        }
      }
    }
  }
  input {
    name: "527"
    type {
      tensor_type {
        elem_type: FLOAT
        shape {
          dim {
            dim_value: 128
          }
        }
      }
    }
  }
  input {
    name: "528"
    type {
      tensor_type {
        elem_type: FLOAT
        shape {
          dim {
            dim_value: 128
          }
        }
      }
    }
  }
  input {
    name: "529"
    type {
      tensor_type {
        elem_type: FLOAT
        shape {
          dim {
            dim_value: 128
          }
        }
      }
    }
  }
  input {
    name: "530"
    type {
      tensor_type {
        elem_type: FLOAT
        shape {
          dim {
            dim_value: 32
          }
          dim {
            dim_value: 128
          }
          dim {
            dim_value: 3
          }
          dim {
            dim_value: 3
          }
        }
      }
    }
  }
  input {
    name: "531"
    type {
      tensor_type {
        elem_type: FLOAT
        shape {
          dim {
            dim_value: 800
          }
        }
      }
    }
  }
  input {
    name: "532"
    type {
      tensor_type {
        elem_type: FLOAT
        shape {
          dim {
            dim_value: 800
          }
        }
      }
    }
  }
  input {
    name: "533"
    type {
      tensor_type {
        elem_type: FLOAT
        shape {
          dim {
            dim_value: 800
          }
        }
      }
    }
  }
  input {
    name: "534"
    type {
      tensor_type {
        elem_type: FLOAT
        shape {
          dim {
            dim_value: 800
          }
        }
      }
    }
  }
  input {
    name: "535"
    type {
      tensor_type {
        elem_type: FLOAT
        shape {
          dim {
            dim_value: 128
          }
          dim {
            dim_value: 800
          }
          dim {
            dim_value: 1
          }
          dim {
            dim_value: 1
          }
        }
      }
    }
  }
  input {
    name: "536"
    type {
      tensor_type {
        elem_type: FLOAT
        shape {
          dim {
            dim_value: 128
          }
        }
      }
    }
  }
  input {
    name: "537"
    type {
      tensor_type {
        elem_type: FLOAT
        shape {
          dim {
            dim_value: 128
          }
        }
      }
    }
  }
  input {
    name: "538"
    type {
      tensor_type {
        elem_type: FLOAT
        shape {
          dim {
            dim_value: 128
          }
        }
      }
    }
  }
  input {
    name: "539"
    type {
      tensor_type {
        elem_type: FLOAT
        shape {
          dim {
            dim_value: 128
          }
        }
      }
    }
  }
  input {
    name: "540"
    type {
      tensor_type {
        elem_type: FLOAT
        shape {
          dim {
            dim_value: 32
          }
          dim {
            dim_value: 128
          }
          dim {
            dim_value: 3
          }
          dim {
            dim_value: 3
          }
        }
      }
    }
  }
  input {
    name: "541"
    type {
      tensor_type {
        elem_type: FLOAT
        shape {
          dim {
            dim_value: 832
          }
        }
      }
    }
  }
  input {
    name: "542"
    type {
      tensor_type {
        elem_type: FLOAT
        shape {
          dim {
            dim_value: 832
          }
        }
      }
    }
  }
  input {
    name: "543"
    type {
      tensor_type {
        elem_type: FLOAT
        shape {
          dim {
            dim_value: 832
          }
        }
      }
    }
  }
  input {
    name: "544"
    type {
      tensor_type {
        elem_type: FLOAT
        shape {
          dim {
            dim_value: 832
          }
        }
      }
    }
  }
  input {
    name: "545"
    type {
      tensor_type {
        elem_type: FLOAT
        shape {
          dim {
            dim_value: 128
          }
          dim {
            dim_value: 832
          }
          dim {
            dim_value: 1
          }
          dim {
            dim_value: 1
          }
        }
      }
    }
  }
  input {
    name: "546"
    type {
      tensor_type {
        elem_type: FLOAT
        shape {
          dim {
            dim_value: 128
          }
        }
      }
    }
  }
  input {
    name: "547"
    type {
      tensor_type {
        elem_type: FLOAT
        shape {
          dim {
            dim_value: 128
          }
        }
      }
    }
  }
  input {
    name: "548"
    type {
      tensor_type {
        elem_type: FLOAT
        shape {
          dim {
            dim_value: 128
          }
        }
      }
    }
  }
  input {
    name: "549"
    type {
      tensor_type {
        elem_type: FLOAT
        shape {
          dim {
            dim_value: 128
          }
        }
      }
    }
  }
  input {
    name: "550"
    type {
      tensor_type {
        elem_type: FLOAT
        shape {
          dim {
            dim_value: 32
          }
          dim {
            dim_value: 128
          }
          dim {
            dim_value: 3
          }
          dim {
            dim_value: 3
          }
        }
      }
    }
  }
  input {
    name: "551"
    type {
      tensor_type {
        elem_type: FLOAT
        shape {
          dim {
            dim_value: 864
          }
        }
      }
    }
  }
  input {
    name: "552"
    type {
      tensor_type {
        elem_type: FLOAT
        shape {
          dim {
            dim_value: 864
          }
        }
      }
    }
  }
  input {
    name: "553"
    type {
      tensor_type {
        elem_type: FLOAT
        shape {
          dim {
            dim_value: 864
          }
        }
      }
    }
  }
  input {
    name: "554"
    type {
      tensor_type {
        elem_type: FLOAT
        shape {
          dim {
            dim_value: 864
          }
        }
      }
    }
  }
  input {
    name: "555"
    type {
      tensor_type {
        elem_type: FLOAT
        shape {
          dim {
            dim_value: 128
          }
          dim {
            dim_value: 864
          }
          dim {
            dim_value: 1
          }
          dim {
            dim_value: 1
          }
        }
      }
    }
  }
  input {
    name: "556"
    type {
      tensor_type {
        elem_type: FLOAT
        shape {
          dim {
            dim_value: 128
          }
        }
      }
    }
  }
  input {
    name: "557"
    type {
      tensor_type {
        elem_type: FLOAT
        shape {
          dim {
            dim_value: 128
          }
        }
      }
    }
  }
  input {
    name: "558"
    type {
      tensor_type {
        elem_type: FLOAT
        shape {
          dim {
            dim_value: 128
          }
        }
      }
    }
  }
  input {
    name: "559"
    type {
      tensor_type {
        elem_type: FLOAT
        shape {
          dim {
            dim_value: 128
          }
        }
      }
    }
  }
  input {
    name: "560"
    type {
      tensor_type {
        elem_type: FLOAT
        shape {
          dim {
            dim_value: 32
          }
          dim {
            dim_value: 128
          }
          dim {
            dim_value: 3
          }
          dim {
            dim_value: 3
          }
        }
      }
    }
  }
  input {
    name: "561"
    type {
      tensor_type {
        elem_type: FLOAT
        shape {
          dim {
            dim_value: 896
          }
        }
      }
    }
  }
  input {
    name: "562"
    type {
      tensor_type {
        elem_type: FLOAT
        shape {
          dim {
            dim_value: 896
          }
        }
      }
    }
  }
  input {
    name: "563"
    type {
      tensor_type {
        elem_type: FLOAT
        shape {
          dim {
            dim_value: 896
          }
        }
      }
    }
  }
  input {
    name: "564"
    type {
      tensor_type {
        elem_type: FLOAT
        shape {
          dim {
            dim_value: 896
          }
        }
      }
    }
  }
  input {
    name: "565"
    type {
      tensor_type {
        elem_type: FLOAT
        shape {
          dim {
            dim_value: 128
          }
          dim {
            dim_value: 896
          }
          dim {
            dim_value: 1
          }
          dim {
            dim_value: 1
          }
        }
      }
    }
  }
  input {
    name: "566"
    type {
      tensor_type {
        elem_type: FLOAT
        shape {
          dim {
            dim_value: 128
          }
        }
      }
    }
  }
  input {
    name: "567"
    type {
      tensor_type {
        elem_type: FLOAT
        shape {
          dim {
            dim_value: 128
          }
        }
      }
    }
  }
  input {
    name: "568"
    type {
      tensor_type {
        elem_type: FLOAT
        shape {
          dim {
            dim_value: 128
          }
        }
      }
    }
  }
  input {
    name: "569"
    type {
      tensor_type {
        elem_type: FLOAT
        shape {
          dim {
            dim_value: 128
          }
        }
      }
    }
  }
  input {
    name: "570"
    type {
      tensor_type {
        elem_type: FLOAT
        shape {
          dim {
            dim_value: 32
          }
          dim {
            dim_value: 128
          }
          dim {
            dim_value: 3
          }
          dim {
            dim_value: 3
          }
        }
      }
    }
  }
  input {
    name: "571"
    type {
      tensor_type {
        elem_type: FLOAT
        shape {
          dim {
            dim_value: 928
          }
        }
      }
    }
  }
  input {
    name: "572"
    type {
      tensor_type {
        elem_type: FLOAT
        shape {
          dim {
            dim_value: 928
          }
        }
      }
    }
  }
  input {
    name: "573"
    type {
      tensor_type {
        elem_type: FLOAT
        shape {
          dim {
            dim_value: 928
          }
        }
      }
    }
  }
  input {
    name: "574"
    type {
      tensor_type {
        elem_type: FLOAT
        shape {
          dim {
            dim_value: 928
          }
        }
      }
    }
  }
  input {
    name: "575"
    type {
      tensor_type {
        elem_type: FLOAT
        shape {
          dim {
            dim_value: 128
          }
          dim {
            dim_value: 928
          }
          dim {
            dim_value: 1
          }
          dim {
            dim_value: 1
          }
        }
      }
    }
  }
  input {
    name: "576"
    type {
      tensor_type {
        elem_type: FLOAT
        shape {
          dim {
            dim_value: 128
          }
        }
      }
    }
  }
  input {
    name: "577"
    type {
      tensor_type {
        elem_type: FLOAT
        shape {
          dim {
            dim_value: 128
          }
        }
      }
    }
  }
  input {
    name: "578"
    type {
      tensor_type {
        elem_type: FLOAT
        shape {
          dim {
            dim_value: 128
          }
        }
      }
    }
  }
  input {
    name: "579"
    type {
      tensor_type {
        elem_type: FLOAT
        shape {
          dim {
            dim_value: 128
          }
        }
      }
    }
  }
  input {
    name: "580"
    type {
      tensor_type {
        elem_type: FLOAT
        shape {
          dim {
            dim_value: 32
          }
          dim {
            dim_value: 128
          }
          dim {
            dim_value: 3
          }
          dim {
            dim_value: 3
          }
        }
      }
    }
  }
  input {
    name: "581"
    type {
      tensor_type {
        elem_type: FLOAT
        shape {
          dim {
            dim_value: 960
          }
        }
      }
    }
  }
  input {
    name: "582"
    type {
      tensor_type {
        elem_type: FLOAT
        shape {
          dim {
            dim_value: 960
          }
        }
      }
    }
  }
  input {
    name: "583"
    type {
      tensor_type {
        elem_type: FLOAT
        shape {
          dim {
            dim_value: 960
          }
        }
      }
    }
  }
  input {
    name: "584"
    type {
      tensor_type {
        elem_type: FLOAT
        shape {
          dim {
            dim_value: 960
          }
        }
      }
    }
  }
  input {
    name: "585"
    type {
      tensor_type {
        elem_type: FLOAT
        shape {
          dim {
            dim_value: 128
          }
          dim {
            dim_value: 960
          }
          dim {
            dim_value: 1
          }
          dim {
            dim_value: 1
          }
        }
      }
    }
  }
  input {
    name: "586"
    type {
      tensor_type {
        elem_type: FLOAT
        shape {
          dim {
            dim_value: 128
          }
        }
      }
    }
  }
  input {
    name: "587"
    type {
      tensor_type {
        elem_type: FLOAT
        shape {
          dim {
            dim_value: 128
          }
        }
      }
    }
  }
  input {
    name: "588"
    type {
      tensor_type {
        elem_type: FLOAT
        shape {
          dim {
            dim_value: 128
          }
        }
      }
    }
  }
  input {
    name: "589"
    type {
      tensor_type {
        elem_type: FLOAT
        shape {
          dim {
            dim_value: 128
          }
        }
      }
    }
  }
  input {
    name: "590"
    type {
      tensor_type {
        elem_type: FLOAT
        shape {
          dim {
            dim_value: 32
          }
          dim {
            dim_value: 128
          }
          dim {
            dim_value: 3
          }
          dim {
            dim_value: 3
          }
        }
      }
    }
  }
  input {
    name: "591"
    type {
      tensor_type {
        elem_type: FLOAT
        shape {
          dim {
            dim_value: 992
          }
        }
      }
    }
  }
  input {
    name: "592"
    type {
      tensor_type {
        elem_type: FLOAT
        shape {
          dim {
            dim_value: 992
          }
        }
      }
    }
  }
  input {
    name: "593"
    type {
      tensor_type {
        elem_type: FLOAT
        shape {
          dim {
            dim_value: 992
          }
        }
      }
    }
  }
  input {
    name: "594"
    type {
      tensor_type {
        elem_type: FLOAT
        shape {
          dim {
            dim_value: 992
          }
        }
      }
    }
  }
  input {
    name: "595"
    type {
      tensor_type {
        elem_type: FLOAT
        shape {
          dim {
            dim_value: 128
          }
          dim {
            dim_value: 992
          }
          dim {
            dim_value: 1
          }
          dim {
            dim_value: 1
          }
        }
      }
    }
  }
  input {
    name: "596"
    type {
      tensor_type {
        elem_type: FLOAT
        shape {
          dim {
            dim_value: 128
          }
        }
      }
    }
  }
  input {
    name: "597"
    type {
      tensor_type {
        elem_type: FLOAT
        shape {
          dim {
            dim_value: 128
          }
        }
      }
    }
  }
  input {
    name: "598"
    type {
      tensor_type {
        elem_type: FLOAT
        shape {
          dim {
            dim_value: 128
          }
        }
      }
    }
  }
  input {
    name: "599"
    type {
      tensor_type {
        elem_type: FLOAT
        shape {
          dim {
            dim_value: 128
          }
        }
      }
    }
  }
  input {
    name: "600"
    type {
      tensor_type {
        elem_type: FLOAT
        shape {
          dim {
            dim_value: 32
          }
          dim {
            dim_value: 128
          }
          dim {
            dim_value: 3
          }
          dim {
            dim_value: 3
          }
        }
      }
    }
  }
  input {
    name: "601"
    type {
      tensor_type {
        elem_type: FLOAT
        shape {
          dim {
            dim_value: 1024
          }
        }
      }
    }
  }
  input {
    name: "602"
    type {
      tensor_type {
        elem_type: FLOAT
        shape {
          dim {
            dim_value: 1024
          }
        }
      }
    }
  }
  input {
    name: "603"
    type {
      tensor_type {
        elem_type: FLOAT
        shape {
          dim {
            dim_value: 1024
          }
        }
      }
    }
  }
  input {
    name: "604"
    type {
      tensor_type {
        elem_type: FLOAT
        shape {
          dim {
            dim_value: 1024
          }
        }
      }
    }
  }
  input {
    name: "605"
    type {
      tensor_type {
        elem_type: FLOAT
        shape {
          dim {
            dim_value: 1000
          }
          dim {
            dim_value: 1024
          }
        }
      }
    }
  }
  input {
    name: "606"
    type {
      tensor_type {
        elem_type: FLOAT
        shape {
          dim {
            dim_value: 1000
          }
        }
      }
    }
  }
  output {
    name: "1155"
    type {
      tensor_type {
        elem_type: FLOAT
        shape {
          dim {
            dim_value: 2
          }
          dim {
            dim_value: 1000
          }
        }
      }
    }
  }
}
