graph torch-jit-export (
  %0[FLOAT, 2x3x224x224]
  %1[FLOAT, 64x3x11x11]
  %2[FLOAT, 64]
  %3[FLOAT, 192x64x5x5]
  %4[FLOAT, 192]
  %5[FLOAT, 384x192x3x3]
  %6[FLOAT, 384]
  %7[FLOAT, 256x384x3x3]
  %8[FLOAT, 256]
  %9[FLOAT, 256x256x3x3]
  %10[FLOAT, 256]
  %11[FLOAT, 4096x9216]
  %12[FLOAT, 4096]
  %13[FLOAT, 4096x4096]
  %14[FLOAT, 4096]
  %15[FLOAT, 1000x4096]
  %16[FLOAT, 1000]
) {
  %17 = Conv[dilations = [1, 1], group = 1, kernel_shape = [11, 11], pads = [2, 2, 2, 2], strides = [4, 4]](%0, %1)
  %18 = Add[axis = 1, broadcast = 1](%17, %2)
  %19 = Relu(%18)
  %20 = MaxPool[kernel_shape = [3, 3], pads = [0, 0], strides = [2, 2]](%19)
  %21 = Conv[dilations = [1, 1], group = 1, kernel_shape = [5, 5], pads = [2, 2, 2, 2], strides = [1, 1]](%20, %3)
  %22 = Add[axis = 1, broadcast = 1](%21, %4)
  %23 = Relu(%22)
  %24 = MaxPool[kernel_shape = [3, 3], pads = [0, 0], strides = [2, 2]](%23)
  %25 = Conv[dilations = [1, 1], group = 1, kernel_shape = [3, 3], pads = [1, 1, 1, 1], strides = [1, 1]](%24, %5)
  %26 = Add[axis = 1, broadcast = 1](%25, %6)
  %27 = Relu(%26)
  %28 = Conv[dilations = [1, 1], group = 1, kernel_shape = [3, 3], pads = [1, 1, 1, 1], strides = [1, 1]](%27, %7)
  %29 = Add[axis = 1, broadcast = 1](%28, %8)
  %30 = Relu(%29)
  %31 = Conv[dilations = [1, 1], group = 1, kernel_shape = [3, 3], pads = [1, 1, 1, 1], strides = [1, 1]](%30, %9)
  %32 = Add[axis = 1, broadcast = 1](%31, %10)
  %33 = Relu(%32)
  %34 = MaxPool[kernel_shape = [3, 3], pads = [0, 0], strides = [2, 2]](%33)
  %35 = Reshape[shape = [2, 9216]](%34)
  %36, %37 = Dropout[is_test = 1, ratio = 0.5](%35)
  %40 = Gemm[alpha = 1, beta = 1, broadcast = 1, transB = 1](%36, %11, %12)
  %41 = Relu(%40)
  %42, %43 = Dropout[is_test = 1, ratio = 0.5](%41)
  %46 = Gemm[alpha = 1, beta = 1, broadcast = 1, transB = 1](%42, %13, %14)
  %47 = Relu(%46)
  %50 = Gemm[alpha = 1, beta = 1, broadcast = 1, transB = 1](%47, %15, %16)
  return %50
}