ir_version: 1
producer_name: "pytorch"
producer_version: "0.2"
domain: "com.facebook"
graph {
  node {
    input: "3"
    input: "1"
    output: "26"
    op_type: "Gather"
  }
  node {
    input: "26"
    output: "28"
    output: "29"
    op_type: "Dropout"
    attribute {
      name: "ratio"
      f: 0.200000002980232
    }
    attribute {
      name: "is_test"
      i: 1
    }
  }
  node {
    output: "30"
    op_type: "Constant"
    attribute {
      name: "value"
      t {
        dims: 1
        data_type: INT32
        raw_data: "\000\000\000\000"
      }
    }
  }
  node {
    output: "31"
    op_type: "Constant"
    attribute {
      name: "value"
      t {
        dims: 1
        data_type: INT64
        raw_data: "\000\000\000\000\000\000\000\000"
      }
    }
  }
  node {
    output: "32"
    op_type: "Constant"
    attribute {
      name: "value"
      t {
        dims: 1
        data_type: INT64
        raw_data: "\001\000\000\000\000\000\000\000"
      }
    }
  }
  node {
    input: "2"
    input: "30"
    input: "31"
    input: "32"
    output: "33"
    op_type: "Slice"
  }
  node {
    input: "33"
    output: "34"
    op_type: "Squeeze"
    attribute {
      name: "axes"
      ints: 0
    }
  }
  node {
    output: "35"
    op_type: "Constant"
    attribute {
      name: "value"
      t {
        dims: 1
        data_type: INT32
        raw_data: "\000\000\000\000"
      }
    }
  }
  node {
    output: "36"
    op_type: "Constant"
    attribute {
      name: "value"
      t {
        dims: 1
        data_type: INT64
        raw_data: "\000\000\000\000\000\000\000\000"
      }
    }
  }
  node {
    output: "37"
    op_type: "Constant"
    attribute {
      name: "value"
      t {
        dims: 1
        data_type: INT64
        raw_data: "\001\000\000\000\000\000\000\000"
      }
    }
  }
  node {
    input: "28"
    input: "35"
    input: "36"
    input: "37"
    output: "38"
    op_type: "Slice"
  }
  node {
    input: "38"
    output: "39"
    op_type: "Squeeze"
    attribute {
      name: "axes"
      ints: 0
    }
  }
  node {
    input: "4"
    output: "40"
    op_type: "Transpose"
    attribute {
      name: "perm"
      ints: 1
      ints: 0
    }
  }
  node {
    input: "39"
    input: "40"
    input: "6"
    output: "41"
    op_type: "Gemm"
    attribute {
      name: "alpha"
      f: 1
    }
    attribute {
      name: "beta"
      f: 1
    }
    attribute {
      name: "broadcast"
      i: 1
    }
  }
  node {
    input: "5"
    output: "42"
    op_type: "Transpose"
    attribute {
      name: "perm"
      ints: 1
      ints: 0
    }
  }
  node {
    input: "34"
    input: "42"
    input: "7"
    output: "43"
    op_type: "Gemm"
    attribute {
      name: "alpha"
      f: 1
    }
    attribute {
      name: "beta"
      f: 1
    }
    attribute {
      name: "broadcast"
      i: 1
    }
  }
  node {
    input: "41"
    input: "43"
    output: "44"
    op_type: "Add"
  }
  node {
    input: "44"
    output: "45"
    op_type: "Tanh"
  }
  node {
    output: "46"
    op_type: "Constant"
    attribute {
      name: "value"
      t {
        dims: 1
        data_type: INT32
        raw_data: "\000\000\000\000"
      }
    }
  }
  node {
    output: "47"
    op_type: "Constant"
    attribute {
      name: "value"
      t {
        dims: 1
        data_type: INT64
        raw_data: "\001\000\000\000\000\000\000\000"
      }
    }
  }
  node {
    output: "48"
    op_type: "Constant"
    attribute {
      name: "value"
      t {
        dims: 1
        data_type: INT64
        raw_data: "\002\000\000\000\000\000\000\000"
      }
    }
  }
  node {
    input: "28"
    input: "46"
    input: "47"
    input: "48"
    output: "49"
    op_type: "Slice"
  }
  node {
    input: "49"
    output: "50"
    op_type: "Squeeze"
    attribute {
      name: "axes"
      ints: 0
    }
  }
  node {
    input: "4"
    output: "51"
    op_type: "Transpose"
    attribute {
      name: "perm"
      ints: 1
      ints: 0
    }
  }
  node {
    input: "50"
    input: "51"
    input: "6"
    output: "52"
    op_type: "Gemm"
    attribute {
      name: "alpha"
      f: 1
    }
    attribute {
      name: "beta"
      f: 1
    }
    attribute {
      name: "broadcast"
      i: 1
    }
  }
  node {
    input: "5"
    output: "53"
    op_type: "Transpose"
    attribute {
      name: "perm"
      ints: 1
      ints: 0
    }
  }
  node {
    input: "45"
    input: "53"
    input: "7"
    output: "54"
    op_type: "Gemm"
    attribute {
      name: "alpha"
      f: 1
    }
    attribute {
      name: "beta"
      f: 1
    }
    attribute {
      name: "broadcast"
      i: 1
    }
  }
  node {
    input: "52"
    input: "54"
    output: "55"
    op_type: "Add"
  }
  node {
    input: "55"
    output: "56"
    op_type: "Tanh"
  }
  node {
    output: "57"
    op_type: "Constant"
    attribute {
      name: "value"
      t {
        dims: 1
        data_type: INT32
        raw_data: "\000\000\000\000"
      }
    }
  }
  node {
    output: "58"
    op_type: "Constant"
    attribute {
      name: "value"
      t {
        dims: 1
        data_type: INT64
        raw_data: "\002\000\000\000\000\000\000\000"
      }
    }
  }
  node {
    output: "59"
    op_type: "Constant"
    attribute {
      name: "value"
      t {
        dims: 1
        data_type: INT64
        raw_data: "\003\000\000\000\000\000\000\000"
      }
    }
  }
  node {
    input: "28"
    input: "57"
    input: "58"
    input: "59"
    output: "60"
    op_type: "Slice"
  }
  node {
    input: "60"
    output: "61"
    op_type: "Squeeze"
    attribute {
      name: "axes"
      ints: 0
    }
  }
  node {
    input: "4"
    output: "62"
    op_type: "Transpose"
    attribute {
      name: "perm"
      ints: 1
      ints: 0
    }
  }
  node {
    input: "61"
    input: "62"
    input: "6"
    output: "63"
    op_type: "Gemm"
    attribute {
      name: "alpha"
      f: 1
    }
    attribute {
      name: "beta"
      f: 1
    }
    attribute {
      name: "broadcast"
      i: 1
    }
  }
  node {
    input: "5"
    output: "64"
    op_type: "Transpose"
    attribute {
      name: "perm"
      ints: 1
      ints: 0
    }
  }
  node {
    input: "56"
    input: "64"
    input: "7"
    output: "65"
    op_type: "Gemm"
    attribute {
      name: "alpha"
      f: 1
    }
    attribute {
      name: "beta"
      f: 1
    }
    attribute {
      name: "broadcast"
      i: 1
    }
  }
  node {
    input: "63"
    input: "65"
    output: "66"
    op_type: "Add"
  }
  node {
    input: "66"
    output: "67"
    op_type: "Tanh"
  }
  node {
    output: "68"
    op_type: "Constant"
    attribute {
      name: "value"
      t {
        dims: 1
        data_type: INT32
        raw_data: "\000\000\000\000"
      }
    }
  }
  node {
    output: "69"
    op_type: "Constant"
    attribute {
      name: "value"
      t {
        dims: 1
        data_type: INT64
        raw_data: "\003\000\000\000\000\000\000\000"
      }
    }
  }
  node {
    output: "70"
    op_type: "Constant"
    attribute {
      name: "value"
      t {
        dims: 1
        data_type: INT64
        raw_data: "\004\000\000\000\000\000\000\000"
      }
    }
  }
  node {
    input: "28"
    input: "68"
    input: "69"
    input: "70"
    output: "71"
    op_type: "Slice"
  }
  node {
    input: "71"
    output: "72"
    op_type: "Squeeze"
    attribute {
      name: "axes"
      ints: 0
    }
  }
  node {
    input: "4"
    output: "73"
    op_type: "Transpose"
    attribute {
      name: "perm"
      ints: 1
      ints: 0
    }
  }
  node {
    input: "72"
    input: "73"
    input: "6"
    output: "74"
    op_type: "Gemm"
    attribute {
      name: "alpha"
      f: 1
    }
    attribute {
      name: "beta"
      f: 1
    }
    attribute {
      name: "broadcast"
      i: 1
    }
  }
  node {
    input: "5"
    output: "75"
    op_type: "Transpose"
    attribute {
      name: "perm"
      ints: 1
      ints: 0
    }
  }
  node {
    input: "67"
    input: "75"
    input: "7"
    output: "76"
    op_type: "Gemm"
    attribute {
      name: "alpha"
      f: 1
    }
    attribute {
      name: "beta"
      f: 1
    }
    attribute {
      name: "broadcast"
      i: 1
    }
  }
  node {
    input: "74"
    input: "76"
    output: "77"
    op_type: "Add"
  }
  node {
    input: "77"
    output: "78"
    op_type: "Tanh"
  }
  node {
    output: "79"
    op_type: "Constant"
    attribute {
      name: "value"
      t {
        dims: 1
        data_type: INT32
        raw_data: "\000\000\000\000"
      }
    }
  }
  node {
    output: "80"
    op_type: "Constant"
    attribute {
      name: "value"
      t {
        dims: 1
        data_type: INT64
        raw_data: "\004\000\000\000\000\000\000\000"
      }
    }
  }
  node {
    output: "81"
    op_type: "Constant"
    attribute {
      name: "value"
      t {
        dims: 1
        data_type: INT64
        raw_data: "\005\000\000\000\000\000\000\000"
      }
    }
  }
  node {
    input: "28"
    input: "79"
    input: "80"
    input: "81"
    output: "82"
    op_type: "Slice"
  }
  node {
    input: "82"
    output: "83"
    op_type: "Squeeze"
    attribute {
      name: "axes"
      ints: 0
    }
  }
  node {
    input: "4"
    output: "84"
    op_type: "Transpose"
    attribute {
      name: "perm"
      ints: 1
      ints: 0
    }
  }
  node {
    input: "83"
    input: "84"
    input: "6"
    output: "85"
    op_type: "Gemm"
    attribute {
      name: "alpha"
      f: 1
    }
    attribute {
      name: "beta"
      f: 1
    }
    attribute {
      name: "broadcast"
      i: 1
    }
  }
  node {
    input: "5"
    output: "86"
    op_type: "Transpose"
    attribute {
      name: "perm"
      ints: 1
      ints: 0
    }
  }
  node {
    input: "78"
    input: "86"
    input: "7"
    output: "87"
    op_type: "Gemm"
    attribute {
      name: "alpha"
      f: 1
    }
    attribute {
      name: "beta"
      f: 1
    }
    attribute {
      name: "broadcast"
      i: 1
    }
  }
  node {
    input: "85"
    input: "87"
    output: "88"
    op_type: "Add"
  }
  node {
    input: "88"
    output: "89"
    op_type: "Tanh"
  }
  node {
    output: "90"
    op_type: "Constant"
    attribute {
      name: "value"
      t {
        dims: 1
        data_type: INT32
        raw_data: "\000\000\000\000"
      }
    }
  }
  node {
    output: "91"
    op_type: "Constant"
    attribute {
      name: "value"
      t {
        dims: 1
        data_type: INT64
        raw_data: "\005\000\000\000\000\000\000\000"
      }
    }
  }
  node {
    output: "92"
    op_type: "Constant"
    attribute {
      name: "value"
      t {
        dims: 1
        data_type: INT64
        raw_data: "\006\000\000\000\000\000\000\000"
      }
    }
  }
  node {
    input: "28"
    input: "90"
    input: "91"
    input: "92"
    output: "93"
    op_type: "Slice"
  }
  node {
    input: "93"
    output: "94"
    op_type: "Squeeze"
    attribute {
      name: "axes"
      ints: 0
    }
  }
  node {
    input: "4"
    output: "95"
    op_type: "Transpose"
    attribute {
      name: "perm"
      ints: 1
      ints: 0
    }
  }
  node {
    input: "94"
    input: "95"
    input: "6"
    output: "96"
    op_type: "Gemm"
    attribute {
      name: "alpha"
      f: 1
    }
    attribute {
      name: "beta"
      f: 1
    }
    attribute {
      name: "broadcast"
      i: 1
    }
  }
  node {
    input: "5"
    output: "97"
    op_type: "Transpose"
    attribute {
      name: "perm"
      ints: 1
      ints: 0
    }
  }
  node {
    input: "89"
    input: "97"
    input: "7"
    output: "98"
    op_type: "Gemm"
    attribute {
      name: "alpha"
      f: 1
    }
    attribute {
      name: "beta"
      f: 1
    }
    attribute {
      name: "broadcast"
      i: 1
    }
  }
  node {
    input: "96"
    input: "98"
    output: "99"
    op_type: "Add"
  }
  node {
    input: "99"
    output: "100"
    op_type: "Tanh"
  }
  node {
    output: "101"
    op_type: "Constant"
    attribute {
      name: "value"
      t {
        dims: 1
        data_type: INT32
        raw_data: "\000\000\000\000"
      }
    }
  }
  node {
    output: "102"
    op_type: "Constant"
    attribute {
      name: "value"
      t {
        dims: 1
        data_type: INT64
        raw_data: "\006\000\000\000\000\000\000\000"
      }
    }
  }
  node {
    output: "103"
    op_type: "Constant"
    attribute {
      name: "value"
      t {
        dims: 1
        data_type: INT64
        raw_data: "\007\000\000\000\000\000\000\000"
      }
    }
  }
  node {
    input: "28"
    input: "101"
    input: "102"
    input: "103"
    output: "104"
    op_type: "Slice"
  }
  node {
    input: "104"
    output: "105"
    op_type: "Squeeze"
    attribute {
      name: "axes"
      ints: 0
    }
  }
  node {
    input: "4"
    output: "106"
    op_type: "Transpose"
    attribute {
      name: "perm"
      ints: 1
      ints: 0
    }
  }
  node {
    input: "105"
    input: "106"
    input: "6"
    output: "107"
    op_type: "Gemm"
    attribute {
      name: "alpha"
      f: 1
    }
    attribute {
      name: "beta"
      f: 1
    }
    attribute {
      name: "broadcast"
      i: 1
    }
  }
  node {
    input: "5"
    output: "108"
    op_type: "Transpose"
    attribute {
      name: "perm"
      ints: 1
      ints: 0
    }
  }
  node {
    input: "100"
    input: "108"
    input: "7"
    output: "109"
    op_type: "Gemm"
    attribute {
      name: "alpha"
      f: 1
    }
    attribute {
      name: "beta"
      f: 1
    }
    attribute {
      name: "broadcast"
      i: 1
    }
  }
  node {
    input: "107"
    input: "109"
    output: "110"
    op_type: "Add"
  }
  node {
    input: "110"
    output: "111"
    op_type: "Tanh"
  }
  node {
    output: "112"
    op_type: "Constant"
    attribute {
      name: "value"
      t {
        dims: 1
        data_type: INT32
        raw_data: "\000\000\000\000"
      }
    }
  }
  node {
    output: "113"
    op_type: "Constant"
    attribute {
      name: "value"
      t {
        dims: 1
        data_type: INT64
        raw_data: "\007\000\000\000\000\000\000\000"
      }
    }
  }
  node {
    output: "114"
    op_type: "Constant"
    attribute {
      name: "value"
      t {
        dims: 1
        data_type: INT64
        raw_data: "\010\000\000\000\000\000\000\000"
      }
    }
  }
  node {
    input: "28"
    input: "112"
    input: "113"
    input: "114"
    output: "115"
    op_type: "Slice"
  }
  node {
    input: "115"
    output: "116"
    op_type: "Squeeze"
    attribute {
      name: "axes"
      ints: 0
    }
  }
  node {
    input: "4"
    output: "117"
    op_type: "Transpose"
    attribute {
      name: "perm"
      ints: 1
      ints: 0
    }
  }
  node {
    input: "116"
    input: "117"
    input: "6"
    output: "118"
    op_type: "Gemm"
    attribute {
      name: "alpha"
      f: 1
    }
    attribute {
      name: "beta"
      f: 1
    }
    attribute {
      name: "broadcast"
      i: 1
    }
  }
  node {
    input: "5"
    output: "119"
    op_type: "Transpose"
    attribute {
      name: "perm"
      ints: 1
      ints: 0
    }
  }
  node {
    input: "111"
    input: "119"
    input: "7"
    output: "120"
    op_type: "Gemm"
    attribute {
      name: "alpha"
      f: 1
    }
    attribute {
      name: "beta"
      f: 1
    }
    attribute {
      name: "broadcast"
      i: 1
    }
  }
  node {
    input: "118"
    input: "120"
    output: "121"
    op_type: "Add"
  }
  node {
    input: "121"
    output: "122"
    op_type: "Tanh"
  }
  node {
    output: "123"
    op_type: "Constant"
    attribute {
      name: "value"
      t {
        dims: 1
        data_type: INT32
        raw_data: "\000\000\000\000"
      }
    }
  }
  node {
    output: "124"
    op_type: "Constant"
    attribute {
      name: "value"
      t {
        dims: 1
        data_type: INT64
        raw_data: "\010\000\000\000\000\000\000\000"
      }
    }
  }
  node {
    output: "125"
    op_type: "Constant"
    attribute {
      name: "value"
      t {
        dims: 1
        data_type: INT64
        raw_data: "\t\000\000\000\000\000\000\000"
      }
    }
  }
  node {
    input: "28"
    input: "123"
    input: "124"
    input: "125"
    output: "126"
    op_type: "Slice"
  }
  node {
    input: "126"
    output: "127"
    op_type: "Squeeze"
    attribute {
      name: "axes"
      ints: 0
    }
  }
  node {
    input: "4"
    output: "128"
    op_type: "Transpose"
    attribute {
      name: "perm"
      ints: 1
      ints: 0
    }
  }
  node {
    input: "127"
    input: "128"
    input: "6"
    output: "129"
    op_type: "Gemm"
    attribute {
      name: "alpha"
      f: 1
    }
    attribute {
      name: "beta"
      f: 1
    }
    attribute {
      name: "broadcast"
      i: 1
    }
  }
  node {
    input: "5"
    output: "130"
    op_type: "Transpose"
    attribute {
      name: "perm"
      ints: 1
      ints: 0
    }
  }
  node {
    input: "122"
    input: "130"
    input: "7"
    output: "131"
    op_type: "Gemm"
    attribute {
      name: "alpha"
      f: 1
    }
    attribute {
      name: "beta"
      f: 1
    }
    attribute {
      name: "broadcast"
      i: 1
    }
  }
  node {
    input: "129"
    input: "131"
    output: "132"
    op_type: "Add"
  }
  node {
    input: "132"
    output: "133"
    op_type: "Tanh"
  }
  node {
    output: "134"
    op_type: "Constant"
    attribute {
      name: "value"
      t {
        dims: 1
        data_type: INT32
        raw_data: "\000\000\000\000"
      }
    }
  }
  node {
    output: "135"
    op_type: "Constant"
    attribute {
      name: "value"
      t {
        dims: 1
        data_type: INT64
        raw_data: "\t\000\000\000\000\000\000\000"
      }
    }
  }
  node {
    output: "136"
    op_type: "Constant"
    attribute {
      name: "value"
      t {
        dims: 1
        data_type: INT64
        raw_data: "\n\000\000\000\000\000\000\000"
      }
    }
  }
  node {
    input: "28"
    input: "134"
    input: "135"
    input: "136"
    output: "137"
    op_type: "Slice"
  }
  node {
    input: "137"
    output: "138"
    op_type: "Squeeze"
    attribute {
      name: "axes"
      ints: 0
    }
  }
  node {
    input: "4"
    output: "139"
    op_type: "Transpose"
    attribute {
      name: "perm"
      ints: 1
      ints: 0
    }
  }
  node {
    input: "138"
    input: "139"
    input: "6"
    output: "140"
    op_type: "Gemm"
    attribute {
      name: "alpha"
      f: 1
    }
    attribute {
      name: "beta"
      f: 1
    }
    attribute {
      name: "broadcast"
      i: 1
    }
  }
  node {
    input: "5"
    output: "141"
    op_type: "Transpose"
    attribute {
      name: "perm"
      ints: 1
      ints: 0
    }
  }
  node {
    input: "133"
    input: "141"
    input: "7"
    output: "142"
    op_type: "Gemm"
    attribute {
      name: "alpha"
      f: 1
    }
    attribute {
      name: "beta"
      f: 1
    }
    attribute {
      name: "broadcast"
      i: 1
    }
  }
  node {
    input: "140"
    input: "142"
    output: "143"
    op_type: "Add"
  }
  node {
    input: "143"
    output: "144"
    op_type: "Tanh"
  }
  node {
    input: "45"
    input: "56"
    input: "67"
    input: "78"
    input: "89"
    input: "100"
    input: "111"
    input: "122"
    input: "133"
    input: "144"
    output: "145"
    op_type: "Concat"
    attribute {
      name: "axis"
      i: 0
    }
  }
  node {
    input: "145"
    output: "146"
    op_type: "Reshape"
    attribute {
      name: "shape"
      ints: 10
      ints: 5
      ints: 5
    }
  }
  node {
    input: "146"
    output: "147"
    op_type: "Concat"
    attribute {
      name: "axis"
      i: 2
    }
  }
  node {
    input: "147"
    output: "149"
    output: "150"
    op_type: "Dropout"
    attribute {
      name: "ratio"
      f: 0.200000002980232
    }
    attribute {
      name: "is_test"
      i: 1
    }
  }
  node {
    output: "151"
    op_type: "Constant"
    attribute {
      name: "value"
      t {
        dims: 1
        data_type: INT32
        raw_data: "\000\000\000\000"
      }
    }
  }
  node {
    output: "152"
    op_type: "Constant"
    attribute {
      name: "value"
      t {
        dims: 1
        data_type: INT64
        raw_data: "\001\000\000\000\000\000\000\000"
      }
    }
  }
  node {
    output: "153"
    op_type: "Constant"
    attribute {
      name: "value"
      t {
        dims: 1
        data_type: INT64
        raw_data: "\002\000\000\000\000\000\000\000"
      }
    }
  }
  node {
    input: "2"
    input: "151"
    input: "152"
    input: "153"
    output: "154"
    op_type: "Slice"
  }
  node {
    input: "154"
    output: "155"
    op_type: "Squeeze"
    attribute {
      name: "axes"
      ints: 0
    }
  }
  node {
    output: "156"
    op_type: "Constant"
    attribute {
      name: "value"
      t {
        dims: 1
        data_type: INT32
        raw_data: "\000\000\000\000"
      }
    }
  }
  node {
    output: "157"
    op_type: "Constant"
    attribute {
      name: "value"
      t {
        dims: 1
        data_type: INT64
        raw_data: "\000\000\000\000\000\000\000\000"
      }
    }
  }
  node {
    output: "158"
    op_type: "Constant"
    attribute {
      name: "value"
      t {
        dims: 1
        data_type: INT64
        raw_data: "\001\000\000\000\000\000\000\000"
      }
    }
  }
  node {
    input: "149"
    input: "156"
    input: "157"
    input: "158"
    output: "159"
    op_type: "Slice"
  }
  node {
    input: "159"
    output: "160"
    op_type: "Squeeze"
    attribute {
      name: "axes"
      ints: 0
    }
  }
  node {
    input: "8"
    output: "161"
    op_type: "Transpose"
    attribute {
      name: "perm"
      ints: 1
      ints: 0
    }
  }
  node {
    input: "160"
    input: "161"
    input: "10"
    output: "162"
    op_type: "Gemm"
    attribute {
      name: "alpha"
      f: 1
    }
    attribute {
      name: "beta"
      f: 1
    }
    attribute {
      name: "broadcast"
      i: 1
    }
  }
  node {
    input: "9"
    output: "163"
    op_type: "Transpose"
    attribute {
      name: "perm"
      ints: 1
      ints: 0
    }
  }
  node {
    input: "155"
    input: "163"
    input: "11"
    output: "164"
    op_type: "Gemm"
    attribute {
      name: "alpha"
      f: 1
    }
    attribute {
      name: "beta"
      f: 1
    }
    attribute {
      name: "broadcast"
      i: 1
    }
  }
  node {
    input: "162"
    input: "164"
    output: "165"
    op_type: "Add"
  }
  node {
    input: "165"
    output: "166"
    op_type: "Tanh"
  }
  node {
    output: "167"
    op_type: "Constant"
    attribute {
      name: "value"
      t {
        dims: 1
        data_type: INT32
        raw_data: "\000\000\000\000"
      }
    }
  }
  node {
    output: "168"
    op_type: "Constant"
    attribute {
      name: "value"
      t {
        dims: 1
        data_type: INT64
        raw_data: "\001\000\000\000\000\000\000\000"
      }
    }
  }
  node {
    output: "169"
    op_type: "Constant"
    attribute {
      name: "value"
      t {
        dims: 1
        data_type: INT64
        raw_data: "\002\000\000\000\000\000\000\000"
      }
    }
  }
  node {
    input: "149"
    input: "167"
    input: "168"
    input: "169"
    output: "170"
    op_type: "Slice"
  }
  node {
    input: "170"
    output: "171"
    op_type: "Squeeze"
    attribute {
      name: "axes"
      ints: 0
    }
  }
  node {
    input: "8"
    output: "172"
    op_type: "Transpose"
    attribute {
      name: "perm"
      ints: 1
      ints: 0
    }
  }
  node {
    input: "171"
    input: "172"
    input: "10"
    output: "173"
    op_type: "Gemm"
    attribute {
      name: "alpha"
      f: 1
    }
    attribute {
      name: "beta"
      f: 1
    }
    attribute {
      name: "broadcast"
      i: 1
    }
  }
  node {
    input: "9"
    output: "174"
    op_type: "Transpose"
    attribute {
      name: "perm"
      ints: 1
      ints: 0
    }
  }
  node {
    input: "166"
    input: "174"
    input: "11"
    output: "175"
    op_type: "Gemm"
    attribute {
      name: "alpha"
      f: 1
    }
    attribute {
      name: "beta"
      f: 1
    }
    attribute {
      name: "broadcast"
      i: 1
    }
  }
  node {
    input: "173"
    input: "175"
    output: "176"
    op_type: "Add"
  }
  node {
    input: "176"
    output: "177"
    op_type: "Tanh"
  }
  node {
    output: "178"
    op_type: "Constant"
    attribute {
      name: "value"
      t {
        dims: 1
        data_type: INT32
        raw_data: "\000\000\000\000"
      }
    }
  }
  node {
    output: "179"
    op_type: "Constant"
    attribute {
      name: "value"
      t {
        dims: 1
        data_type: INT64
        raw_data: "\002\000\000\000\000\000\000\000"
      }
    }
  }
  node {
    output: "180"
    op_type: "Constant"
    attribute {
      name: "value"
      t {
        dims: 1
        data_type: INT64
        raw_data: "\003\000\000\000\000\000\000\000"
      }
    }
  }
  node {
    input: "149"
    input: "178"
    input: "179"
    input: "180"
    output: "181"
    op_type: "Slice"
  }
  node {
    input: "181"
    output: "182"
    op_type: "Squeeze"
    attribute {
      name: "axes"
      ints: 0
    }
  }
  node {
    input: "8"
    output: "183"
    op_type: "Transpose"
    attribute {
      name: "perm"
      ints: 1
      ints: 0
    }
  }
  node {
    input: "182"
    input: "183"
    input: "10"
    output: "184"
    op_type: "Gemm"
    attribute {
      name: "alpha"
      f: 1
    }
    attribute {
      name: "beta"
      f: 1
    }
    attribute {
      name: "broadcast"
      i: 1
    }
  }
  node {
    input: "9"
    output: "185"
    op_type: "Transpose"
    attribute {
      name: "perm"
      ints: 1
      ints: 0
    }
  }
  node {
    input: "177"
    input: "185"
    input: "11"
    output: "186"
    op_type: "Gemm"
    attribute {
      name: "alpha"
      f: 1
    }
    attribute {
      name: "beta"
      f: 1
    }
    attribute {
      name: "broadcast"
      i: 1
    }
  }
  node {
    input: "184"
    input: "186"
    output: "187"
    op_type: "Add"
  }
  node {
    input: "187"
    output: "188"
    op_type: "Tanh"
  }
  node {
    output: "189"
    op_type: "Constant"
    attribute {
      name: "value"
      t {
        dims: 1
        data_type: INT32
        raw_data: "\000\000\000\000"
      }
    }
  }
  node {
    output: "190"
    op_type: "Constant"
    attribute {
      name: "value"
      t {
        dims: 1
        data_type: INT64
        raw_data: "\003\000\000\000\000\000\000\000"
      }
    }
  }
  node {
    output: "191"
    op_type: "Constant"
    attribute {
      name: "value"
      t {
        dims: 1
        data_type: INT64
        raw_data: "\004\000\000\000\000\000\000\000"
      }
    }
  }
  node {
    input: "149"
    input: "189"
    input: "190"
    input: "191"
    output: "192"
    op_type: "Slice"
  }
  node {
    input: "192"
    output: "193"
    op_type: "Squeeze"
    attribute {
      name: "axes"
      ints: 0
    }
  }
  node {
    input: "8"
    output: "194"
    op_type: "Transpose"
    attribute {
      name: "perm"
      ints: 1
      ints: 0
    }
  }
  node {
    input: "193"
    input: "194"
    input: "10"
    output: "195"
    op_type: "Gemm"
    attribute {
      name: "alpha"
      f: 1
    }
    attribute {
      name: "beta"
      f: 1
    }
    attribute {
      name: "broadcast"
      i: 1
    }
  }
  node {
    input: "9"
    output: "196"
    op_type: "Transpose"
    attribute {
      name: "perm"
      ints: 1
      ints: 0
    }
  }
  node {
    input: "188"
    input: "196"
    input: "11"
    output: "197"
    op_type: "Gemm"
    attribute {
      name: "alpha"
      f: 1
    }
    attribute {
      name: "beta"
      f: 1
    }
    attribute {
      name: "broadcast"
      i: 1
    }
  }
  node {
    input: "195"
    input: "197"
    output: "198"
    op_type: "Add"
  }
  node {
    input: "198"
    output: "199"
    op_type: "Tanh"
  }
  node {
    output: "200"
    op_type: "Constant"
    attribute {
      name: "value"
      t {
        dims: 1
        data_type: INT32
        raw_data: "\000\000\000\000"
      }
    }
  }
  node {
    output: "201"
    op_type: "Constant"
    attribute {
      name: "value"
      t {
        dims: 1
        data_type: INT64
        raw_data: "\004\000\000\000\000\000\000\000"
      }
    }
  }
  node {
    output: "202"
    op_type: "Constant"
    attribute {
      name: "value"
      t {
        dims: 1
        data_type: INT64
        raw_data: "\005\000\000\000\000\000\000\000"
      }
    }
  }
  node {
    input: "149"
    input: "200"
    input: "201"
    input: "202"
    output: "203"
    op_type: "Slice"
  }
  node {
    input: "203"
    output: "204"
    op_type: "Squeeze"
    attribute {
      name: "axes"
      ints: 0
    }
  }
  node {
    input: "8"
    output: "205"
    op_type: "Transpose"
    attribute {
      name: "perm"
      ints: 1
      ints: 0
    }
  }
  node {
    input: "204"
    input: "205"
    input: "10"
    output: "206"
    op_type: "Gemm"
    attribute {
      name: "alpha"
      f: 1
    }
    attribute {
      name: "beta"
      f: 1
    }
    attribute {
      name: "broadcast"
      i: 1
    }
  }
  node {
    input: "9"
    output: "207"
    op_type: "Transpose"
    attribute {
      name: "perm"
      ints: 1
      ints: 0
    }
  }
  node {
    input: "199"
    input: "207"
    input: "11"
    output: "208"
    op_type: "Gemm"
    attribute {
      name: "alpha"
      f: 1
    }
    attribute {
      name: "beta"
      f: 1
    }
    attribute {
      name: "broadcast"
      i: 1
    }
  }
  node {
    input: "206"
    input: "208"
    output: "209"
    op_type: "Add"
  }
  node {
    input: "209"
    output: "210"
    op_type: "Tanh"
  }
  node {
    output: "211"
    op_type: "Constant"
    attribute {
      name: "value"
      t {
        dims: 1
        data_type: INT32
        raw_data: "\000\000\000\000"
      }
    }
  }
  node {
    output: "212"
    op_type: "Constant"
    attribute {
      name: "value"
      t {
        dims: 1
        data_type: INT64
        raw_data: "\005\000\000\000\000\000\000\000"
      }
    }
  }
  node {
    output: "213"
    op_type: "Constant"
    attribute {
      name: "value"
      t {
        dims: 1
        data_type: INT64
        raw_data: "\006\000\000\000\000\000\000\000"
      }
    }
  }
  node {
    input: "149"
    input: "211"
    input: "212"
    input: "213"
    output: "214"
    op_type: "Slice"
  }
  node {
    input: "214"
    output: "215"
    op_type: "Squeeze"
    attribute {
      name: "axes"
      ints: 0
    }
  }
  node {
    input: "8"
    output: "216"
    op_type: "Transpose"
    attribute {
      name: "perm"
      ints: 1
      ints: 0
    }
  }
  node {
    input: "215"
    input: "216"
    input: "10"
    output: "217"
    op_type: "Gemm"
    attribute {
      name: "alpha"
      f: 1
    }
    attribute {
      name: "beta"
      f: 1
    }
    attribute {
      name: "broadcast"
      i: 1
    }
  }
  node {
    input: "9"
    output: "218"
    op_type: "Transpose"
    attribute {
      name: "perm"
      ints: 1
      ints: 0
    }
  }
  node {
    input: "210"
    input: "218"
    input: "11"
    output: "219"
    op_type: "Gemm"
    attribute {
      name: "alpha"
      f: 1
    }
    attribute {
      name: "beta"
      f: 1
    }
    attribute {
      name: "broadcast"
      i: 1
    }
  }
  node {
    input: "217"
    input: "219"
    output: "220"
    op_type: "Add"
  }
  node {
    input: "220"
    output: "221"
    op_type: "Tanh"
  }
  node {
    output: "222"
    op_type: "Constant"
    attribute {
      name: "value"
      t {
        dims: 1
        data_type: INT32
        raw_data: "\000\000\000\000"
      }
    }
  }
  node {
    output: "223"
    op_type: "Constant"
    attribute {
      name: "value"
      t {
        dims: 1
        data_type: INT64
        raw_data: "\006\000\000\000\000\000\000\000"
      }
    }
  }
  node {
    output: "224"
    op_type: "Constant"
    attribute {
      name: "value"
      t {
        dims: 1
        data_type: INT64
        raw_data: "\007\000\000\000\000\000\000\000"
      }
    }
  }
  node {
    input: "149"
    input: "222"
    input: "223"
    input: "224"
    output: "225"
    op_type: "Slice"
  }
  node {
    input: "225"
    output: "226"
    op_type: "Squeeze"
    attribute {
      name: "axes"
      ints: 0
    }
  }
  node {
    input: "8"
    output: "227"
    op_type: "Transpose"
    attribute {
      name: "perm"
      ints: 1
      ints: 0
    }
  }
  node {
    input: "226"
    input: "227"
    input: "10"
    output: "228"
    op_type: "Gemm"
    attribute {
      name: "alpha"
      f: 1
    }
    attribute {
      name: "beta"
      f: 1
    }
    attribute {
      name: "broadcast"
      i: 1
    }
  }
  node {
    input: "9"
    output: "229"
    op_type: "Transpose"
    attribute {
      name: "perm"
      ints: 1
      ints: 0
    }
  }
  node {
    input: "221"
    input: "229"
    input: "11"
    output: "230"
    op_type: "Gemm"
    attribute {
      name: "alpha"
      f: 1
    }
    attribute {
      name: "beta"
      f: 1
    }
    attribute {
      name: "broadcast"
      i: 1
    }
  }
  node {
    input: "228"
    input: "230"
    output: "231"
    op_type: "Add"
  }
  node {
    input: "231"
    output: "232"
    op_type: "Tanh"
  }
  node {
    output: "233"
    op_type: "Constant"
    attribute {
      name: "value"
      t {
        dims: 1
        data_type: INT32
        raw_data: "\000\000\000\000"
      }
    }
  }
  node {
    output: "234"
    op_type: "Constant"
    attribute {
      name: "value"
      t {
        dims: 1
        data_type: INT64
        raw_data: "\007\000\000\000\000\000\000\000"
      }
    }
  }
  node {
    output: "235"
    op_type: "Constant"
    attribute {
      name: "value"
      t {
        dims: 1
        data_type: INT64
        raw_data: "\010\000\000\000\000\000\000\000"
      }
    }
  }
  node {
    input: "149"
    input: "233"
    input: "234"
    input: "235"
    output: "236"
    op_type: "Slice"
  }
  node {
    input: "236"
    output: "237"
    op_type: "Squeeze"
    attribute {
      name: "axes"
      ints: 0
    }
  }
  node {
    input: "8"
    output: "238"
    op_type: "Transpose"
    attribute {
      name: "perm"
      ints: 1
      ints: 0
    }
  }
  node {
    input: "237"
    input: "238"
    input: "10"
    output: "239"
    op_type: "Gemm"
    attribute {
      name: "alpha"
      f: 1
    }
    attribute {
      name: "beta"
      f: 1
    }
    attribute {
      name: "broadcast"
      i: 1
    }
  }
  node {
    input: "9"
    output: "240"
    op_type: "Transpose"
    attribute {
      name: "perm"
      ints: 1
      ints: 0
    }
  }
  node {
    input: "232"
    input: "240"
    input: "11"
    output: "241"
    op_type: "Gemm"
    attribute {
      name: "alpha"
      f: 1
    }
    attribute {
      name: "beta"
      f: 1
    }
    attribute {
      name: "broadcast"
      i: 1
    }
  }
  node {
    input: "239"
    input: "241"
    output: "242"
    op_type: "Add"
  }
  node {
    input: "242"
    output: "243"
    op_type: "Tanh"
  }
  node {
    output: "244"
    op_type: "Constant"
    attribute {
      name: "value"
      t {
        dims: 1
        data_type: INT32
        raw_data: "\000\000\000\000"
      }
    }
  }
  node {
    output: "245"
    op_type: "Constant"
    attribute {
      name: "value"
      t {
        dims: 1
        data_type: INT64
        raw_data: "\010\000\000\000\000\000\000\000"
      }
    }
  }
  node {
    output: "246"
    op_type: "Constant"
    attribute {
      name: "value"
      t {
        dims: 1
        data_type: INT64
        raw_data: "\t\000\000\000\000\000\000\000"
      }
    }
  }
  node {
    input: "149"
    input: "244"
    input: "245"
    input: "246"
    output: "247"
    op_type: "Slice"
  }
  node {
    input: "247"
    output: "248"
    op_type: "Squeeze"
    attribute {
      name: "axes"
      ints: 0
    }
  }
  node {
    input: "8"
    output: "249"
    op_type: "Transpose"
    attribute {
      name: "perm"
      ints: 1
      ints: 0
    }
  }
  node {
    input: "248"
    input: "249"
    input: "10"
    output: "250"
    op_type: "Gemm"
    attribute {
      name: "alpha"
      f: 1
    }
    attribute {
      name: "beta"
      f: 1
    }
    attribute {
      name: "broadcast"
      i: 1
    }
  }
  node {
    input: "9"
    output: "251"
    op_type: "Transpose"
    attribute {
      name: "perm"
      ints: 1
      ints: 0
    }
  }
  node {
    input: "243"
    input: "251"
    input: "11"
    output: "252"
    op_type: "Gemm"
    attribute {
      name: "alpha"
      f: 1
    }
    attribute {
      name: "beta"
      f: 1
    }
    attribute {
      name: "broadcast"
      i: 1
    }
  }
  node {
    input: "250"
    input: "252"
    output: "253"
    op_type: "Add"
  }
  node {
    input: "253"
    output: "254"
    op_type: "Tanh"
  }
  node {
    output: "255"
    op_type: "Constant"
    attribute {
      name: "value"
      t {
        dims: 1
        data_type: INT32
        raw_data: "\000\000\000\000"
      }
    }
  }
  node {
    output: "256"
    op_type: "Constant"
    attribute {
      name: "value"
      t {
        dims: 1
        data_type: INT64
        raw_data: "\t\000\000\000\000\000\000\000"
      }
    }
  }
  node {
    output: "257"
    op_type: "Constant"
    attribute {
      name: "value"
      t {
        dims: 1
        data_type: INT64
        raw_data: "\n\000\000\000\000\000\000\000"
      }
    }
  }
  node {
    input: "149"
    input: "255"
    input: "256"
    input: "257"
    output: "258"
    op_type: "Slice"
  }
  node {
    input: "258"
    output: "259"
    op_type: "Squeeze"
    attribute {
      name: "axes"
      ints: 0
    }
  }
  node {
    input: "8"
    output: "260"
    op_type: "Transpose"
    attribute {
      name: "perm"
      ints: 1
      ints: 0
    }
  }
  node {
    input: "259"
    input: "260"
    input: "10"
    output: "261"
    op_type: "Gemm"
    attribute {
      name: "alpha"
      f: 1
    }
    attribute {
      name: "beta"
      f: 1
    }
    attribute {
      name: "broadcast"
      i: 1
    }
  }
  node {
    input: "9"
    output: "262"
    op_type: "Transpose"
    attribute {
      name: "perm"
      ints: 1
      ints: 0
    }
  }
  node {
    input: "254"
    input: "262"
    input: "11"
    output: "263"
    op_type: "Gemm"
    attribute {
      name: "alpha"
      f: 1
    }
    attribute {
      name: "beta"
      f: 1
    }
    attribute {
      name: "broadcast"
      i: 1
    }
  }
  node {
    input: "261"
    input: "263"
    output: "264"
    op_type: "Add"
  }
  node {
    input: "264"
    output: "265"
    op_type: "Tanh"
  }
  node {
    input: "166"
    input: "177"
    input: "188"
    input: "199"
    input: "210"
    input: "221"
    input: "232"
    input: "243"
    input: "254"
    input: "265"
    output: "266"
    op_type: "Concat"
    attribute {
      name: "axis"
      i: 0
    }
  }
  node {
    input: "266"
    output: "267"
    op_type: "Reshape"
    attribute {
      name: "shape"
      ints: 10
      ints: 5
      ints: 5
    }
  }
  node {
    input: "267"
    output: "268"
    op_type: "Concat"
    attribute {
      name: "axis"
      i: 2
    }
  }
  node {
    input: "268"
    output: "270"
    output: "271"
    op_type: "Dropout"
    attribute {
      name: "ratio"
      f: 0.200000002980232
    }
    attribute {
      name: "is_test"
      i: 1
    }
  }
  node {
    output: "272"
    op_type: "Constant"
    attribute {
      name: "value"
      t {
        dims: 1
        data_type: INT32
        raw_data: "\000\000\000\000"
      }
    }
  }
  node {
    output: "273"
    op_type: "Constant"
    attribute {
      name: "value"
      t {
        dims: 1
        data_type: INT64
        raw_data: "\002\000\000\000\000\000\000\000"
      }
    }
  }
  node {
    output: "274"
    op_type: "Constant"
    attribute {
      name: "value"
      t {
        dims: 1
        data_type: INT64
        raw_data: "\003\000\000\000\000\000\000\000"
      }
    }
  }
  node {
    input: "2"
    input: "272"
    input: "273"
    input: "274"
    output: "275"
    op_type: "Slice"
  }
  node {
    input: "275"
    output: "276"
    op_type: "Squeeze"
    attribute {
      name: "axes"
      ints: 0
    }
  }
  node {
    output: "277"
    op_type: "Constant"
    attribute {
      name: "value"
      t {
        dims: 1
        data_type: INT32
        raw_data: "\000\000\000\000"
      }
    }
  }
  node {
    output: "278"
    op_type: "Constant"
    attribute {
      name: "value"
      t {
        dims: 1
        data_type: INT64
        raw_data: "\000\000\000\000\000\000\000\000"
      }
    }
  }
  node {
    output: "279"
    op_type: "Constant"
    attribute {
      name: "value"
      t {
        dims: 1
        data_type: INT64
        raw_data: "\001\000\000\000\000\000\000\000"
      }
    }
  }
  node {
    input: "270"
    input: "277"
    input: "278"
    input: "279"
    output: "280"
    op_type: "Slice"
  }
  node {
    input: "280"
    output: "281"
    op_type: "Squeeze"
    attribute {
      name: "axes"
      ints: 0
    }
  }
  node {
    input: "12"
    output: "282"
    op_type: "Transpose"
    attribute {
      name: "perm"
      ints: 1
      ints: 0
    }
  }
  node {
    input: "281"
    input: "282"
    input: "14"
    output: "283"
    op_type: "Gemm"
    attribute {
      name: "alpha"
      f: 1
    }
    attribute {
      name: "beta"
      f: 1
    }
    attribute {
      name: "broadcast"
      i: 1
    }
  }
  node {
    input: "13"
    output: "284"
    op_type: "Transpose"
    attribute {
      name: "perm"
      ints: 1
      ints: 0
    }
  }
  node {
    input: "276"
    input: "284"
    input: "15"
    output: "285"
    op_type: "Gemm"
    attribute {
      name: "alpha"
      f: 1
    }
    attribute {
      name: "beta"
      f: 1
    }
    attribute {
      name: "broadcast"
      i: 1
    }
  }
  node {
    input: "283"
    input: "285"
    output: "286"
    op_type: "Add"
  }
  node {
    input: "286"
    output: "287"
    op_type: "Tanh"
  }
  node {
    output: "288"
    op_type: "Constant"
    attribute {
      name: "value"
      t {
        dims: 1
        data_type: INT32
        raw_data: "\000\000\000\000"
      }
    }
  }
  node {
    output: "289"
    op_type: "Constant"
    attribute {
      name: "value"
      t {
        dims: 1
        data_type: INT64
        raw_data: "\001\000\000\000\000\000\000\000"
      }
    }
  }
  node {
    output: "290"
    op_type: "Constant"
    attribute {
      name: "value"
      t {
        dims: 1
        data_type: INT64
        raw_data: "\002\000\000\000\000\000\000\000"
      }
    }
  }
  node {
    input: "270"
    input: "288"
    input: "289"
    input: "290"
    output: "291"
    op_type: "Slice"
  }
  node {
    input: "291"
    output: "292"
    op_type: "Squeeze"
    attribute {
      name: "axes"
      ints: 0
    }
  }
  node {
    input: "12"
    output: "293"
    op_type: "Transpose"
    attribute {
      name: "perm"
      ints: 1
      ints: 0
    }
  }
  node {
    input: "292"
    input: "293"
    input: "14"
    output: "294"
    op_type: "Gemm"
    attribute {
      name: "alpha"
      f: 1
    }
    attribute {
      name: "beta"
      f: 1
    }
    attribute {
      name: "broadcast"
      i: 1
    }
  }
  node {
    input: "13"
    output: "295"
    op_type: "Transpose"
    attribute {
      name: "perm"
      ints: 1
      ints: 0
    }
  }
  node {
    input: "287"
    input: "295"
    input: "15"
    output: "296"
    op_type: "Gemm"
    attribute {
      name: "alpha"
      f: 1
    }
    attribute {
      name: "beta"
      f: 1
    }
    attribute {
      name: "broadcast"
      i: 1
    }
  }
  node {
    input: "294"
    input: "296"
    output: "297"
    op_type: "Add"
  }
  node {
    input: "297"
    output: "298"
    op_type: "Tanh"
  }
  node {
    output: "299"
    op_type: "Constant"
    attribute {
      name: "value"
      t {
        dims: 1
        data_type: INT32
        raw_data: "\000\000\000\000"
      }
    }
  }
  node {
    output: "300"
    op_type: "Constant"
    attribute {
      name: "value"
      t {
        dims: 1
        data_type: INT64
        raw_data: "\002\000\000\000\000\000\000\000"
      }
    }
  }
  node {
    output: "301"
    op_type: "Constant"
    attribute {
      name: "value"
      t {
        dims: 1
        data_type: INT64
        raw_data: "\003\000\000\000\000\000\000\000"
      }
    }
  }
  node {
    input: "270"
    input: "299"
    input: "300"
    input: "301"
    output: "302"
    op_type: "Slice"
  }
  node {
    input: "302"
    output: "303"
    op_type: "Squeeze"
    attribute {
      name: "axes"
      ints: 0
    }
  }
  node {
    input: "12"
    output: "304"
    op_type: "Transpose"
    attribute {
      name: "perm"
      ints: 1
      ints: 0
    }
  }
  node {
    input: "303"
    input: "304"
    input: "14"
    output: "305"
    op_type: "Gemm"
    attribute {
      name: "alpha"
      f: 1
    }
    attribute {
      name: "beta"
      f: 1
    }
    attribute {
      name: "broadcast"
      i: 1
    }
  }
  node {
    input: "13"
    output: "306"
    op_type: "Transpose"
    attribute {
      name: "perm"
      ints: 1
      ints: 0
    }
  }
  node {
    input: "298"
    input: "306"
    input: "15"
    output: "307"
    op_type: "Gemm"
    attribute {
      name: "alpha"
      f: 1
    }
    attribute {
      name: "beta"
      f: 1
    }
    attribute {
      name: "broadcast"
      i: 1
    }
  }
  node {
    input: "305"
    input: "307"
    output: "308"
    op_type: "Add"
  }
  node {
    input: "308"
    output: "309"
    op_type: "Tanh"
  }
  node {
    output: "310"
    op_type: "Constant"
    attribute {
      name: "value"
      t {
        dims: 1
        data_type: INT32
        raw_data: "\000\000\000\000"
      }
    }
  }
  node {
    output: "311"
    op_type: "Constant"
    attribute {
      name: "value"
      t {
        dims: 1
        data_type: INT64
        raw_data: "\003\000\000\000\000\000\000\000"
      }
    }
  }
  node {
    output: "312"
    op_type: "Constant"
    attribute {
      name: "value"
      t {
        dims: 1
        data_type: INT64
        raw_data: "\004\000\000\000\000\000\000\000"
      }
    }
  }
  node {
    input: "270"
    input: "310"
    input: "311"
    input: "312"
    output: "313"
    op_type: "Slice"
  }
  node {
    input: "313"
    output: "314"
    op_type: "Squeeze"
    attribute {
      name: "axes"
      ints: 0
    }
  }
  node {
    input: "12"
    output: "315"
    op_type: "Transpose"
    attribute {
      name: "perm"
      ints: 1
      ints: 0
    }
  }
  node {
    input: "314"
    input: "315"
    input: "14"
    output: "316"
    op_type: "Gemm"
    attribute {
      name: "alpha"
      f: 1
    }
    attribute {
      name: "beta"
      f: 1
    }
    attribute {
      name: "broadcast"
      i: 1
    }
  }
  node {
    input: "13"
    output: "317"
    op_type: "Transpose"
    attribute {
      name: "perm"
      ints: 1
      ints: 0
    }
  }
  node {
    input: "309"
    input: "317"
    input: "15"
    output: "318"
    op_type: "Gemm"
    attribute {
      name: "alpha"
      f: 1
    }
    attribute {
      name: "beta"
      f: 1
    }
    attribute {
      name: "broadcast"
      i: 1
    }
  }
  node {
    input: "316"
    input: "318"
    output: "319"
    op_type: "Add"
  }
  node {
    input: "319"
    output: "320"
    op_type: "Tanh"
  }
  node {
    output: "321"
    op_type: "Constant"
    attribute {
      name: "value"
      t {
        dims: 1
        data_type: INT32
        raw_data: "\000\000\000\000"
      }
    }
  }
  node {
    output: "322"
    op_type: "Constant"
    attribute {
      name: "value"
      t {
        dims: 1
        data_type: INT64
        raw_data: "\004\000\000\000\000\000\000\000"
      }
    }
  }
  node {
    output: "323"
    op_type: "Constant"
    attribute {
      name: "value"
      t {
        dims: 1
        data_type: INT64
        raw_data: "\005\000\000\000\000\000\000\000"
      }
    }
  }
  node {
    input: "270"
    input: "321"
    input: "322"
    input: "323"
    output: "324"
    op_type: "Slice"
  }
  node {
    input: "324"
    output: "325"
    op_type: "Squeeze"
    attribute {
      name: "axes"
      ints: 0
    }
  }
  node {
    input: "12"
    output: "326"
    op_type: "Transpose"
    attribute {
      name: "perm"
      ints: 1
      ints: 0
    }
  }
  node {
    input: "325"
    input: "326"
    input: "14"
    output: "327"
    op_type: "Gemm"
    attribute {
      name: "alpha"
      f: 1
    }
    attribute {
      name: "beta"
      f: 1
    }
    attribute {
      name: "broadcast"
      i: 1
    }
  }
  node {
    input: "13"
    output: "328"
    op_type: "Transpose"
    attribute {
      name: "perm"
      ints: 1
      ints: 0
    }
  }
  node {
    input: "320"
    input: "328"
    input: "15"
    output: "329"
    op_type: "Gemm"
    attribute {
      name: "alpha"
      f: 1
    }
    attribute {
      name: "beta"
      f: 1
    }
    attribute {
      name: "broadcast"
      i: 1
    }
  }
  node {
    input: "327"
    input: "329"
    output: "330"
    op_type: "Add"
  }
  node {
    input: "330"
    output: "331"
    op_type: "Tanh"
  }
  node {
    output: "332"
    op_type: "Constant"
    attribute {
      name: "value"
      t {
        dims: 1
        data_type: INT32
        raw_data: "\000\000\000\000"
      }
    }
  }
  node {
    output: "333"
    op_type: "Constant"
    attribute {
      name: "value"
      t {
        dims: 1
        data_type: INT64
        raw_data: "\005\000\000\000\000\000\000\000"
      }
    }
  }
  node {
    output: "334"
    op_type: "Constant"
    attribute {
      name: "value"
      t {
        dims: 1
        data_type: INT64
        raw_data: "\006\000\000\000\000\000\000\000"
      }
    }
  }
  node {
    input: "270"
    input: "332"
    input: "333"
    input: "334"
    output: "335"
    op_type: "Slice"
  }
  node {
    input: "335"
    output: "336"
    op_type: "Squeeze"
    attribute {
      name: "axes"
      ints: 0
    }
  }
  node {
    input: "12"
    output: "337"
    op_type: "Transpose"
    attribute {
      name: "perm"
      ints: 1
      ints: 0
    }
  }
  node {
    input: "336"
    input: "337"
    input: "14"
    output: "338"
    op_type: "Gemm"
    attribute {
      name: "alpha"
      f: 1
    }
    attribute {
      name: "beta"
      f: 1
    }
    attribute {
      name: "broadcast"
      i: 1
    }
  }
  node {
    input: "13"
    output: "339"
    op_type: "Transpose"
    attribute {
      name: "perm"
      ints: 1
      ints: 0
    }
  }
  node {
    input: "331"
    input: "339"
    input: "15"
    output: "340"
    op_type: "Gemm"
    attribute {
      name: "alpha"
      f: 1
    }
    attribute {
      name: "beta"
      f: 1
    }
    attribute {
      name: "broadcast"
      i: 1
    }
  }
  node {
    input: "338"
    input: "340"
    output: "341"
    op_type: "Add"
  }
  node {
    input: "341"
    output: "342"
    op_type: "Tanh"
  }
  node {
    output: "343"
    op_type: "Constant"
    attribute {
      name: "value"
      t {
        dims: 1
        data_type: INT32
        raw_data: "\000\000\000\000"
      }
    }
  }
  node {
    output: "344"
    op_type: "Constant"
    attribute {
      name: "value"
      t {
        dims: 1
        data_type: INT64
        raw_data: "\006\000\000\000\000\000\000\000"
      }
    }
  }
  node {
    output: "345"
    op_type: "Constant"
    attribute {
      name: "value"
      t {
        dims: 1
        data_type: INT64
        raw_data: "\007\000\000\000\000\000\000\000"
      }
    }
  }
  node {
    input: "270"
    input: "343"
    input: "344"
    input: "345"
    output: "346"
    op_type: "Slice"
  }
  node {
    input: "346"
    output: "347"
    op_type: "Squeeze"
    attribute {
      name: "axes"
      ints: 0
    }
  }
  node {
    input: "12"
    output: "348"
    op_type: "Transpose"
    attribute {
      name: "perm"
      ints: 1
      ints: 0
    }
  }
  node {
    input: "347"
    input: "348"
    input: "14"
    output: "349"
    op_type: "Gemm"
    attribute {
      name: "alpha"
      f: 1
    }
    attribute {
      name: "beta"
      f: 1
    }
    attribute {
      name: "broadcast"
      i: 1
    }
  }
  node {
    input: "13"
    output: "350"
    op_type: "Transpose"
    attribute {
      name: "perm"
      ints: 1
      ints: 0
    }
  }
  node {
    input: "342"
    input: "350"
    input: "15"
    output: "351"
    op_type: "Gemm"
    attribute {
      name: "alpha"
      f: 1
    }
    attribute {
      name: "beta"
      f: 1
    }
    attribute {
      name: "broadcast"
      i: 1
    }
  }
  node {
    input: "349"
    input: "351"
    output: "352"
    op_type: "Add"
  }
  node {
    input: "352"
    output: "353"
    op_type: "Tanh"
  }
  node {
    output: "354"
    op_type: "Constant"
    attribute {
      name: "value"
      t {
        dims: 1
        data_type: INT32
        raw_data: "\000\000\000\000"
      }
    }
  }
  node {
    output: "355"
    op_type: "Constant"
    attribute {
      name: "value"
      t {
        dims: 1
        data_type: INT64
        raw_data: "\007\000\000\000\000\000\000\000"
      }
    }
  }
  node {
    output: "356"
    op_type: "Constant"
    attribute {
      name: "value"
      t {
        dims: 1
        data_type: INT64
        raw_data: "\010\000\000\000\000\000\000\000"
      }
    }
  }
  node {
    input: "270"
    input: "354"
    input: "355"
    input: "356"
    output: "357"
    op_type: "Slice"
  }
  node {
    input: "357"
    output: "358"
    op_type: "Squeeze"
    attribute {
      name: "axes"
      ints: 0
    }
  }
  node {
    input: "12"
    output: "359"
    op_type: "Transpose"
    attribute {
      name: "perm"
      ints: 1
      ints: 0
    }
  }
  node {
    input: "358"
    input: "359"
    input: "14"
    output: "360"
    op_type: "Gemm"
    attribute {
      name: "alpha"
      f: 1
    }
    attribute {
      name: "beta"
      f: 1
    }
    attribute {
      name: "broadcast"
      i: 1
    }
  }
  node {
    input: "13"
    output: "361"
    op_type: "Transpose"
    attribute {
      name: "perm"
      ints: 1
      ints: 0
    }
  }
  node {
    input: "353"
    input: "361"
    input: "15"
    output: "362"
    op_type: "Gemm"
    attribute {
      name: "alpha"
      f: 1
    }
    attribute {
      name: "beta"
      f: 1
    }
    attribute {
      name: "broadcast"
      i: 1
    }
  }
  node {
    input: "360"
    input: "362"
    output: "363"
    op_type: "Add"
  }
  node {
    input: "363"
    output: "364"
    op_type: "Tanh"
  }
  node {
    output: "365"
    op_type: "Constant"
    attribute {
      name: "value"
      t {
        dims: 1
        data_type: INT32
        raw_data: "\000\000\000\000"
      }
    }
  }
  node {
    output: "366"
    op_type: "Constant"
    attribute {
      name: "value"
      t {
        dims: 1
        data_type: INT64
        raw_data: "\010\000\000\000\000\000\000\000"
      }
    }
  }
  node {
    output: "367"
    op_type: "Constant"
    attribute {
      name: "value"
      t {
        dims: 1
        data_type: INT64
        raw_data: "\t\000\000\000\000\000\000\000"
      }
    }
  }
  node {
    input: "270"
    input: "365"
    input: "366"
    input: "367"
    output: "368"
    op_type: "Slice"
  }
  node {
    input: "368"
    output: "369"
    op_type: "Squeeze"
    attribute {
      name: "axes"
      ints: 0
    }
  }
  node {
    input: "12"
    output: "370"
    op_type: "Transpose"
    attribute {
      name: "perm"
      ints: 1
      ints: 0
    }
  }
  node {
    input: "369"
    input: "370"
    input: "14"
    output: "371"
    op_type: "Gemm"
    attribute {
      name: "alpha"
      f: 1
    }
    attribute {
      name: "beta"
      f: 1
    }
    attribute {
      name: "broadcast"
      i: 1
    }
  }
  node {
    input: "13"
    output: "372"
    op_type: "Transpose"
    attribute {
      name: "perm"
      ints: 1
      ints: 0
    }
  }
  node {
    input: "364"
    input: "372"
    input: "15"
    output: "373"
    op_type: "Gemm"
    attribute {
      name: "alpha"
      f: 1
    }
    attribute {
      name: "beta"
      f: 1
    }
    attribute {
      name: "broadcast"
      i: 1
    }
  }
  node {
    input: "371"
    input: "373"
    output: "374"
    op_type: "Add"
  }
  node {
    input: "374"
    output: "375"
    op_type: "Tanh"
  }
  node {
    output: "376"
    op_type: "Constant"
    attribute {
      name: "value"
      t {
        dims: 1
        data_type: INT32
        raw_data: "\000\000\000\000"
      }
    }
  }
  node {
    output: "377"
    op_type: "Constant"
    attribute {
      name: "value"
      t {
        dims: 1
        data_type: INT64
        raw_data: "\t\000\000\000\000\000\000\000"
      }
    }
  }
  node {
    output: "378"
    op_type: "Constant"
    attribute {
      name: "value"
      t {
        dims: 1
        data_type: INT64
        raw_data: "\n\000\000\000\000\000\000\000"
      }
    }
  }
  node {
    input: "270"
    input: "376"
    input: "377"
    input: "378"
    output: "379"
    op_type: "Slice"
  }
  node {
    input: "379"
    output: "380"
    op_type: "Squeeze"
    attribute {
      name: "axes"
      ints: 0
    }
  }
  node {
    input: "12"
    output: "381"
    op_type: "Transpose"
    attribute {
      name: "perm"
      ints: 1
      ints: 0
    }
  }
  node {
    input: "380"
    input: "381"
    input: "14"
    output: "382"
    op_type: "Gemm"
    attribute {
      name: "alpha"
      f: 1
    }
    attribute {
      name: "beta"
      f: 1
    }
    attribute {
      name: "broadcast"
      i: 1
    }
  }
  node {
    input: "13"
    output: "383"
    op_type: "Transpose"
    attribute {
      name: "perm"
      ints: 1
      ints: 0
    }
  }
  node {
    input: "375"
    input: "383"
    input: "15"
    output: "384"
    op_type: "Gemm"
    attribute {
      name: "alpha"
      f: 1
    }
    attribute {
      name: "beta"
      f: 1
    }
    attribute {
      name: "broadcast"
      i: 1
    }
  }
  node {
    input: "382"
    input: "384"
    output: "385"
    op_type: "Add"
  }
  node {
    input: "385"
    output: "386"
    op_type: "Tanh"
  }
  node {
    input: "287"
    input: "298"
    input: "309"
    input: "320"
    input: "331"
    input: "342"
    input: "353"
    input: "364"
    input: "375"
    input: "386"
    output: "387"
    op_type: "Concat"
    attribute {
      name: "axis"
      i: 0
    }
  }
  node {
    input: "387"
    output: "388"
    op_type: "Reshape"
    attribute {
      name: "shape"
      ints: 10
      ints: 5
      ints: 5
    }
  }
  node {
    input: "388"
    output: "389"
    op_type: "Concat"
    attribute {
      name: "axis"
      i: 2
    }
  }
  node {
    input: "389"
    output: "391"
    output: "392"
    op_type: "Dropout"
    attribute {
      name: "ratio"
      f: 0.200000002980232
    }
    attribute {
      name: "is_test"
      i: 1
    }
  }
  node {
    output: "393"
    op_type: "Constant"
    attribute {
      name: "value"
      t {
        dims: 1
        data_type: INT32
        raw_data: "\000\000\000\000"
      }
    }
  }
  node {
    output: "394"
    op_type: "Constant"
    attribute {
      name: "value"
      t {
        dims: 1
        data_type: INT64
        raw_data: "\003\000\000\000\000\000\000\000"
      }
    }
  }
  node {
    output: "395"
    op_type: "Constant"
    attribute {
      name: "value"
      t {
        dims: 1
        data_type: INT64
        raw_data: "\004\000\000\000\000\000\000\000"
      }
    }
  }
  node {
    input: "2"
    input: "393"
    input: "394"
    input: "395"
    output: "396"
    op_type: "Slice"
  }
  node {
    input: "396"
    output: "397"
    op_type: "Squeeze"
    attribute {
      name: "axes"
      ints: 0
    }
  }
  node {
    output: "398"
    op_type: "Constant"
    attribute {
      name: "value"
      t {
        dims: 1
        data_type: INT32
        raw_data: "\000\000\000\000"
      }
    }
  }
  node {
    output: "399"
    op_type: "Constant"
    attribute {
      name: "value"
      t {
        dims: 1
        data_type: INT64
        raw_data: "\000\000\000\000\000\000\000\000"
      }
    }
  }
  node {
    output: "400"
    op_type: "Constant"
    attribute {
      name: "value"
      t {
        dims: 1
        data_type: INT64
        raw_data: "\001\000\000\000\000\000\000\000"
      }
    }
  }
  node {
    input: "391"
    input: "398"
    input: "399"
    input: "400"
    output: "401"
    op_type: "Slice"
  }
  node {
    input: "401"
    output: "402"
    op_type: "Squeeze"
    attribute {
      name: "axes"
      ints: 0
    }
  }
  node {
    input: "16"
    output: "403"
    op_type: "Transpose"
    attribute {
      name: "perm"
      ints: 1
      ints: 0
    }
  }
  node {
    input: "402"
    input: "403"
    input: "18"
    output: "404"
    op_type: "Gemm"
    attribute {
      name: "alpha"
      f: 1
    }
    attribute {
      name: "beta"
      f: 1
    }
    attribute {
      name: "broadcast"
      i: 1
    }
  }
  node {
    input: "17"
    output: "405"
    op_type: "Transpose"
    attribute {
      name: "perm"
      ints: 1
      ints: 0
    }
  }
  node {
    input: "397"
    input: "405"
    input: "19"
    output: "406"
    op_type: "Gemm"
    attribute {
      name: "alpha"
      f: 1
    }
    attribute {
      name: "beta"
      f: 1
    }
    attribute {
      name: "broadcast"
      i: 1
    }
  }
  node {
    input: "404"
    input: "406"
    output: "407"
    op_type: "Add"
  }
  node {
    input: "407"
    output: "408"
    op_type: "Tanh"
  }
  node {
    output: "409"
    op_type: "Constant"
    attribute {
      name: "value"
      t {
        dims: 1
        data_type: INT32
        raw_data: "\000\000\000\000"
      }
    }
  }
  node {
    output: "410"
    op_type: "Constant"
    attribute {
      name: "value"
      t {
        dims: 1
        data_type: INT64
        raw_data: "\001\000\000\000\000\000\000\000"
      }
    }
  }
  node {
    output: "411"
    op_type: "Constant"
    attribute {
      name: "value"
      t {
        dims: 1
        data_type: INT64
        raw_data: "\002\000\000\000\000\000\000\000"
      }
    }
  }
  node {
    input: "391"
    input: "409"
    input: "410"
    input: "411"
    output: "412"
    op_type: "Slice"
  }
  node {
    input: "412"
    output: "413"
    op_type: "Squeeze"
    attribute {
      name: "axes"
      ints: 0
    }
  }
  node {
    input: "16"
    output: "414"
    op_type: "Transpose"
    attribute {
      name: "perm"
      ints: 1
      ints: 0
    }
  }
  node {
    input: "413"
    input: "414"
    input: "18"
    output: "415"
    op_type: "Gemm"
    attribute {
      name: "alpha"
      f: 1
    }
    attribute {
      name: "beta"
      f: 1
    }
    attribute {
      name: "broadcast"
      i: 1
    }
  }
  node {
    input: "17"
    output: "416"
    op_type: "Transpose"
    attribute {
      name: "perm"
      ints: 1
      ints: 0
    }
  }
  node {
    input: "408"
    input: "416"
    input: "19"
    output: "417"
    op_type: "Gemm"
    attribute {
      name: "alpha"
      f: 1
    }
    attribute {
      name: "beta"
      f: 1
    }
    attribute {
      name: "broadcast"
      i: 1
    }
  }
  node {
    input: "415"
    input: "417"
    output: "418"
    op_type: "Add"
  }
  node {
    input: "418"
    output: "419"
    op_type: "Tanh"
  }
  node {
    output: "420"
    op_type: "Constant"
    attribute {
      name: "value"
      t {
        dims: 1
        data_type: INT32
        raw_data: "\000\000\000\000"
      }
    }
  }
  node {
    output: "421"
    op_type: "Constant"
    attribute {
      name: "value"
      t {
        dims: 1
        data_type: INT64
        raw_data: "\002\000\000\000\000\000\000\000"
      }
    }
  }
  node {
    output: "422"
    op_type: "Constant"
    attribute {
      name: "value"
      t {
        dims: 1
        data_type: INT64
        raw_data: "\003\000\000\000\000\000\000\000"
      }
    }
  }
  node {
    input: "391"
    input: "420"
    input: "421"
    input: "422"
    output: "423"
    op_type: "Slice"
  }
  node {
    input: "423"
    output: "424"
    op_type: "Squeeze"
    attribute {
      name: "axes"
      ints: 0
    }
  }
  node {
    input: "16"
    output: "425"
    op_type: "Transpose"
    attribute {
      name: "perm"
      ints: 1
      ints: 0
    }
  }
  node {
    input: "424"
    input: "425"
    input: "18"
    output: "426"
    op_type: "Gemm"
    attribute {
      name: "alpha"
      f: 1
    }
    attribute {
      name: "beta"
      f: 1
    }
    attribute {
      name: "broadcast"
      i: 1
    }
  }
  node {
    input: "17"
    output: "427"
    op_type: "Transpose"
    attribute {
      name: "perm"
      ints: 1
      ints: 0
    }
  }
  node {
    input: "419"
    input: "427"
    input: "19"
    output: "428"
    op_type: "Gemm"
    attribute {
      name: "alpha"
      f: 1
    }
    attribute {
      name: "beta"
      f: 1
    }
    attribute {
      name: "broadcast"
      i: 1
    }
  }
  node {
    input: "426"
    input: "428"
    output: "429"
    op_type: "Add"
  }
  node {
    input: "429"
    output: "430"
    op_type: "Tanh"
  }
  node {
    output: "431"
    op_type: "Constant"
    attribute {
      name: "value"
      t {
        dims: 1
        data_type: INT32
        raw_data: "\000\000\000\000"
      }
    }
  }
  node {
    output: "432"
    op_type: "Constant"
    attribute {
      name: "value"
      t {
        dims: 1
        data_type: INT64
        raw_data: "\003\000\000\000\000\000\000\000"
      }
    }
  }
  node {
    output: "433"
    op_type: "Constant"
    attribute {
      name: "value"
      t {
        dims: 1
        data_type: INT64
        raw_data: "\004\000\000\000\000\000\000\000"
      }
    }
  }
  node {
    input: "391"
    input: "431"
    input: "432"
    input: "433"
    output: "434"
    op_type: "Slice"
  }
  node {
    input: "434"
    output: "435"
    op_type: "Squeeze"
    attribute {
      name: "axes"
      ints: 0
    }
  }
  node {
    input: "16"
    output: "436"
    op_type: "Transpose"
    attribute {
      name: "perm"
      ints: 1
      ints: 0
    }
  }
  node {
    input: "435"
    input: "436"
    input: "18"
    output: "437"
    op_type: "Gemm"
    attribute {
      name: "alpha"
      f: 1
    }
    attribute {
      name: "beta"
      f: 1
    }
    attribute {
      name: "broadcast"
      i: 1
    }
  }
  node {
    input: "17"
    output: "438"
    op_type: "Transpose"
    attribute {
      name: "perm"
      ints: 1
      ints: 0
    }
  }
  node {
    input: "430"
    input: "438"
    input: "19"
    output: "439"
    op_type: "Gemm"
    attribute {
      name: "alpha"
      f: 1
    }
    attribute {
      name: "beta"
      f: 1
    }
    attribute {
      name: "broadcast"
      i: 1
    }
  }
  node {
    input: "437"
    input: "439"
    output: "440"
    op_type: "Add"
  }
  node {
    input: "440"
    output: "441"
    op_type: "Tanh"
  }
  node {
    output: "442"
    op_type: "Constant"
    attribute {
      name: "value"
      t {
        dims: 1
        data_type: INT32
        raw_data: "\000\000\000\000"
      }
    }
  }
  node {
    output: "443"
    op_type: "Constant"
    attribute {
      name: "value"
      t {
        dims: 1
        data_type: INT64
        raw_data: "\004\000\000\000\000\000\000\000"
      }
    }
  }
  node {
    output: "444"
    op_type: "Constant"
    attribute {
      name: "value"
      t {
        dims: 1
        data_type: INT64
        raw_data: "\005\000\000\000\000\000\000\000"
      }
    }
  }
  node {
    input: "391"
    input: "442"
    input: "443"
    input: "444"
    output: "445"
    op_type: "Slice"
  }
  node {
    input: "445"
    output: "446"
    op_type: "Squeeze"
    attribute {
      name: "axes"
      ints: 0
    }
  }
  node {
    input: "16"
    output: "447"
    op_type: "Transpose"
    attribute {
      name: "perm"
      ints: 1
      ints: 0
    }
  }
  node {
    input: "446"
    input: "447"
    input: "18"
    output: "448"
    op_type: "Gemm"
    attribute {
      name: "alpha"
      f: 1
    }
    attribute {
      name: "beta"
      f: 1
    }
    attribute {
      name: "broadcast"
      i: 1
    }
  }
  node {
    input: "17"
    output: "449"
    op_type: "Transpose"
    attribute {
      name: "perm"
      ints: 1
      ints: 0
    }
  }
  node {
    input: "441"
    input: "449"
    input: "19"
    output: "450"
    op_type: "Gemm"
    attribute {
      name: "alpha"
      f: 1
    }
    attribute {
      name: "beta"
      f: 1
    }
    attribute {
      name: "broadcast"
      i: 1
    }
  }
  node {
    input: "448"
    input: "450"
    output: "451"
    op_type: "Add"
  }
  node {
    input: "451"
    output: "452"
    op_type: "Tanh"
  }
  node {
    output: "453"
    op_type: "Constant"
    attribute {
      name: "value"
      t {
        dims: 1
        data_type: INT32
        raw_data: "\000\000\000\000"
      }
    }
  }
  node {
    output: "454"
    op_type: "Constant"
    attribute {
      name: "value"
      t {
        dims: 1
        data_type: INT64
        raw_data: "\005\000\000\000\000\000\000\000"
      }
    }
  }
  node {
    output: "455"
    op_type: "Constant"
    attribute {
      name: "value"
      t {
        dims: 1
        data_type: INT64
        raw_data: "\006\000\000\000\000\000\000\000"
      }
    }
  }
  node {
    input: "391"
    input: "453"
    input: "454"
    input: "455"
    output: "456"
    op_type: "Slice"
  }
  node {
    input: "456"
    output: "457"
    op_type: "Squeeze"
    attribute {
      name: "axes"
      ints: 0
    }
  }
  node {
    input: "16"
    output: "458"
    op_type: "Transpose"
    attribute {
      name: "perm"
      ints: 1
      ints: 0
    }
  }
  node {
    input: "457"
    input: "458"
    input: "18"
    output: "459"
    op_type: "Gemm"
    attribute {
      name: "alpha"
      f: 1
    }
    attribute {
      name: "beta"
      f: 1
    }
    attribute {
      name: "broadcast"
      i: 1
    }
  }
  node {
    input: "17"
    output: "460"
    op_type: "Transpose"
    attribute {
      name: "perm"
      ints: 1
      ints: 0
    }
  }
  node {
    input: "452"
    input: "460"
    input: "19"
    output: "461"
    op_type: "Gemm"
    attribute {
      name: "alpha"
      f: 1
    }
    attribute {
      name: "beta"
      f: 1
    }
    attribute {
      name: "broadcast"
      i: 1
    }
  }
  node {
    input: "459"
    input: "461"
    output: "462"
    op_type: "Add"
  }
  node {
    input: "462"
    output: "463"
    op_type: "Tanh"
  }
  node {
    output: "464"
    op_type: "Constant"
    attribute {
      name: "value"
      t {
        dims: 1
        data_type: INT32
        raw_data: "\000\000\000\000"
      }
    }
  }
  node {
    output: "465"
    op_type: "Constant"
    attribute {
      name: "value"
      t {
        dims: 1
        data_type: INT64
        raw_data: "\006\000\000\000\000\000\000\000"
      }
    }
  }
  node {
    output: "466"
    op_type: "Constant"
    attribute {
      name: "value"
      t {
        dims: 1
        data_type: INT64
        raw_data: "\007\000\000\000\000\000\000\000"
      }
    }
  }
  node {
    input: "391"
    input: "464"
    input: "465"
    input: "466"
    output: "467"
    op_type: "Slice"
  }
  node {
    input: "467"
    output: "468"
    op_type: "Squeeze"
    attribute {
      name: "axes"
      ints: 0
    }
  }
  node {
    input: "16"
    output: "469"
    op_type: "Transpose"
    attribute {
      name: "perm"
      ints: 1
      ints: 0
    }
  }
  node {
    input: "468"
    input: "469"
    input: "18"
    output: "470"
    op_type: "Gemm"
    attribute {
      name: "alpha"
      f: 1
    }
    attribute {
      name: "beta"
      f: 1
    }
    attribute {
      name: "broadcast"
      i: 1
    }
  }
  node {
    input: "17"
    output: "471"
    op_type: "Transpose"
    attribute {
      name: "perm"
      ints: 1
      ints: 0
    }
  }
  node {
    input: "463"
    input: "471"
    input: "19"
    output: "472"
    op_type: "Gemm"
    attribute {
      name: "alpha"
      f: 1
    }
    attribute {
      name: "beta"
      f: 1
    }
    attribute {
      name: "broadcast"
      i: 1
    }
  }
  node {
    input: "470"
    input: "472"
    output: "473"
    op_type: "Add"
  }
  node {
    input: "473"
    output: "474"
    op_type: "Tanh"
  }
  node {
    output: "475"
    op_type: "Constant"
    attribute {
      name: "value"
      t {
        dims: 1
        data_type: INT32
        raw_data: "\000\000\000\000"
      }
    }
  }
  node {
    output: "476"
    op_type: "Constant"
    attribute {
      name: "value"
      t {
        dims: 1
        data_type: INT64
        raw_data: "\007\000\000\000\000\000\000\000"
      }
    }
  }
  node {
    output: "477"
    op_type: "Constant"
    attribute {
      name: "value"
      t {
        dims: 1
        data_type: INT64
        raw_data: "\010\000\000\000\000\000\000\000"
      }
    }
  }
  node {
    input: "391"
    input: "475"
    input: "476"
    input: "477"
    output: "478"
    op_type: "Slice"
  }
  node {
    input: "478"
    output: "479"
    op_type: "Squeeze"
    attribute {
      name: "axes"
      ints: 0
    }
  }
  node {
    input: "16"
    output: "480"
    op_type: "Transpose"
    attribute {
      name: "perm"
      ints: 1
      ints: 0
    }
  }
  node {
    input: "479"
    input: "480"
    input: "18"
    output: "481"
    op_type: "Gemm"
    attribute {
      name: "alpha"
      f: 1
    }
    attribute {
      name: "beta"
      f: 1
    }
    attribute {
      name: "broadcast"
      i: 1
    }
  }
  node {
    input: "17"
    output: "482"
    op_type: "Transpose"
    attribute {
      name: "perm"
      ints: 1
      ints: 0
    }
  }
  node {
    input: "474"
    input: "482"
    input: "19"
    output: "483"
    op_type: "Gemm"
    attribute {
      name: "alpha"
      f: 1
    }
    attribute {
      name: "beta"
      f: 1
    }
    attribute {
      name: "broadcast"
      i: 1
    }
  }
  node {
    input: "481"
    input: "483"
    output: "484"
    op_type: "Add"
  }
  node {
    input: "484"
    output: "485"
    op_type: "Tanh"
  }
  node {
    output: "486"
    op_type: "Constant"
    attribute {
      name: "value"
      t {
        dims: 1
        data_type: INT32
        raw_data: "\000\000\000\000"
      }
    }
  }
  node {
    output: "487"
    op_type: "Constant"
    attribute {
      name: "value"
      t {
        dims: 1
        data_type: INT64
        raw_data: "\010\000\000\000\000\000\000\000"
      }
    }
  }
  node {
    output: "488"
    op_type: "Constant"
    attribute {
      name: "value"
      t {
        dims: 1
        data_type: INT64
        raw_data: "\t\000\000\000\000\000\000\000"
      }
    }
  }
  node {
    input: "391"
    input: "486"
    input: "487"
    input: "488"
    output: "489"
    op_type: "Slice"
  }
  node {
    input: "489"
    output: "490"
    op_type: "Squeeze"
    attribute {
      name: "axes"
      ints: 0
    }
  }
  node {
    input: "16"
    output: "491"
    op_type: "Transpose"
    attribute {
      name: "perm"
      ints: 1
      ints: 0
    }
  }
  node {
    input: "490"
    input: "491"
    input: "18"
    output: "492"
    op_type: "Gemm"
    attribute {
      name: "alpha"
      f: 1
    }
    attribute {
      name: "beta"
      f: 1
    }
    attribute {
      name: "broadcast"
      i: 1
    }
  }
  node {
    input: "17"
    output: "493"
    op_type: "Transpose"
    attribute {
      name: "perm"
      ints: 1
      ints: 0
    }
  }
  node {
    input: "485"
    input: "493"
    input: "19"
    output: "494"
    op_type: "Gemm"
    attribute {
      name: "alpha"
      f: 1
    }
    attribute {
      name: "beta"
      f: 1
    }
    attribute {
      name: "broadcast"
      i: 1
    }
  }
  node {
    input: "492"
    input: "494"
    output: "495"
    op_type: "Add"
  }
  node {
    input: "495"
    output: "496"
    op_type: "Tanh"
  }
  node {
    output: "497"
    op_type: "Constant"
    attribute {
      name: "value"
      t {
        dims: 1
        data_type: INT32
        raw_data: "\000\000\000\000"
      }
    }
  }
  node {
    output: "498"
    op_type: "Constant"
    attribute {
      name: "value"
      t {
        dims: 1
        data_type: INT64
        raw_data: "\t\000\000\000\000\000\000\000"
      }
    }
  }
  node {
    output: "499"
    op_type: "Constant"
    attribute {
      name: "value"
      t {
        dims: 1
        data_type: INT64
        raw_data: "\n\000\000\000\000\000\000\000"
      }
    }
  }
  node {
    input: "391"
    input: "497"
    input: "498"
    input: "499"
    output: "500"
    op_type: "Slice"
  }
  node {
    input: "500"
    output: "501"
    op_type: "Squeeze"
    attribute {
      name: "axes"
      ints: 0
    }
  }
  node {
    input: "16"
    output: "502"
    op_type: "Transpose"
    attribute {
      name: "perm"
      ints: 1
      ints: 0
    }
  }
  node {
    input: "501"
    input: "502"
    input: "18"
    output: "503"
    op_type: "Gemm"
    attribute {
      name: "alpha"
      f: 1
    }
    attribute {
      name: "beta"
      f: 1
    }
    attribute {
      name: "broadcast"
      i: 1
    }
  }
  node {
    input: "17"
    output: "504"
    op_type: "Transpose"
    attribute {
      name: "perm"
      ints: 1
      ints: 0
    }
  }
  node {
    input: "496"
    input: "504"
    input: "19"
    output: "505"
    op_type: "Gemm"
    attribute {
      name: "alpha"
      f: 1
    }
    attribute {
      name: "beta"
      f: 1
    }
    attribute {
      name: "broadcast"
      i: 1
    }
  }
  node {
    input: "503"
    input: "505"
    output: "506"
    op_type: "Add"
  }
  node {
    input: "506"
    output: "507"
    op_type: "Tanh"
  }
  node {
    input: "408"
    input: "419"
    input: "430"
    input: "441"
    input: "452"
    input: "463"
    input: "474"
    input: "485"
    input: "496"
    input: "507"
    output: "508"
    op_type: "Concat"
    attribute {
      name: "axis"
      i: 0
    }
  }
  node {
    input: "508"
    output: "509"
    op_type: "Reshape"
    attribute {
      name: "shape"
      ints: 10
      ints: 5
      ints: 5
    }
  }
  node {
    input: "509"
    output: "510"
    op_type: "Concat"
    attribute {
      name: "axis"
      i: 2
    }
  }
  node {
    input: "510"
    output: "512"
    output: "513"
    op_type: "Dropout"
    attribute {
      name: "ratio"
      f: 0.200000002980232
    }
    attribute {
      name: "is_test"
      i: 1
    }
  }
  node {
    output: "514"
    op_type: "Constant"
    attribute {
      name: "value"
      t {
        dims: 1
        data_type: INT32
        raw_data: "\000\000\000\000"
      }
    }
  }
  node {
    output: "515"
    op_type: "Constant"
    attribute {
      name: "value"
      t {
        dims: 1
        data_type: INT64
        raw_data: "\004\000\000\000\000\000\000\000"
      }
    }
  }
  node {
    output: "516"
    op_type: "Constant"
    attribute {
      name: "value"
      t {
        dims: 1
        data_type: INT64
        raw_data: "\005\000\000\000\000\000\000\000"
      }
    }
  }
  node {
    input: "2"
    input: "514"
    input: "515"
    input: "516"
    output: "517"
    op_type: "Slice"
  }
  node {
    input: "517"
    output: "518"
    op_type: "Squeeze"
    attribute {
      name: "axes"
      ints: 0
    }
  }
  node {
    output: "519"
    op_type: "Constant"
    attribute {
      name: "value"
      t {
        dims: 1
        data_type: INT32
        raw_data: "\000\000\000\000"
      }
    }
  }
  node {
    output: "520"
    op_type: "Constant"
    attribute {
      name: "value"
      t {
        dims: 1
        data_type: INT64
        raw_data: "\000\000\000\000\000\000\000\000"
      }
    }
  }
  node {
    output: "521"
    op_type: "Constant"
    attribute {
      name: "value"
      t {
        dims: 1
        data_type: INT64
        raw_data: "\001\000\000\000\000\000\000\000"
      }
    }
  }
  node {
    input: "512"
    input: "519"
    input: "520"
    input: "521"
    output: "522"
    op_type: "Slice"
  }
  node {
    input: "522"
    output: "523"
    op_type: "Squeeze"
    attribute {
      name: "axes"
      ints: 0
    }
  }
  node {
    input: "20"
    output: "524"
    op_type: "Transpose"
    attribute {
      name: "perm"
      ints: 1
      ints: 0
    }
  }
  node {
    input: "523"
    input: "524"
    input: "22"
    output: "525"
    op_type: "Gemm"
    attribute {
      name: "alpha"
      f: 1
    }
    attribute {
      name: "beta"
      f: 1
    }
    attribute {
      name: "broadcast"
      i: 1
    }
  }
  node {
    input: "21"
    output: "526"
    op_type: "Transpose"
    attribute {
      name: "perm"
      ints: 1
      ints: 0
    }
  }
  node {
    input: "518"
    input: "526"
    input: "23"
    output: "527"
    op_type: "Gemm"
    attribute {
      name: "alpha"
      f: 1
    }
    attribute {
      name: "beta"
      f: 1
    }
    attribute {
      name: "broadcast"
      i: 1
    }
  }
  node {
    input: "525"
    input: "527"
    output: "528"
    op_type: "Add"
  }
  node {
    input: "528"
    output: "529"
    op_type: "Tanh"
  }
  node {
    output: "530"
    op_type: "Constant"
    attribute {
      name: "value"
      t {
        dims: 1
        data_type: INT32
        raw_data: "\000\000\000\000"
      }
    }
  }
  node {
    output: "531"
    op_type: "Constant"
    attribute {
      name: "value"
      t {
        dims: 1
        data_type: INT64
        raw_data: "\001\000\000\000\000\000\000\000"
      }
    }
  }
  node {
    output: "532"
    op_type: "Constant"
    attribute {
      name: "value"
      t {
        dims: 1
        data_type: INT64
        raw_data: "\002\000\000\000\000\000\000\000"
      }
    }
  }
  node {
    input: "512"
    input: "530"
    input: "531"
    input: "532"
    output: "533"
    op_type: "Slice"
  }
  node {
    input: "533"
    output: "534"
    op_type: "Squeeze"
    attribute {
      name: "axes"
      ints: 0
    }
  }
  node {
    input: "20"
    output: "535"
    op_type: "Transpose"
    attribute {
      name: "perm"
      ints: 1
      ints: 0
    }
  }
  node {
    input: "534"
    input: "535"
    input: "22"
    output: "536"
    op_type: "Gemm"
    attribute {
      name: "alpha"
      f: 1
    }
    attribute {
      name: "beta"
      f: 1
    }
    attribute {
      name: "broadcast"
      i: 1
    }
  }
  node {
    input: "21"
    output: "537"
    op_type: "Transpose"
    attribute {
      name: "perm"
      ints: 1
      ints: 0
    }
  }
  node {
    input: "529"
    input: "537"
    input: "23"
    output: "538"
    op_type: "Gemm"
    attribute {
      name: "alpha"
      f: 1
    }
    attribute {
      name: "beta"
      f: 1
    }
    attribute {
      name: "broadcast"
      i: 1
    }
  }
  node {
    input: "536"
    input: "538"
    output: "539"
    op_type: "Add"
  }
  node {
    input: "539"
    output: "540"
    op_type: "Tanh"
  }
  node {
    output: "541"
    op_type: "Constant"
    attribute {
      name: "value"
      t {
        dims: 1
        data_type: INT32
        raw_data: "\000\000\000\000"
      }
    }
  }
  node {
    output: "542"
    op_type: "Constant"
    attribute {
      name: "value"
      t {
        dims: 1
        data_type: INT64
        raw_data: "\002\000\000\000\000\000\000\000"
      }
    }
  }
  node {
    output: "543"
    op_type: "Constant"
    attribute {
      name: "value"
      t {
        dims: 1
        data_type: INT64
        raw_data: "\003\000\000\000\000\000\000\000"
      }
    }
  }
  node {
    input: "512"
    input: "541"
    input: "542"
    input: "543"
    output: "544"
    op_type: "Slice"
  }
  node {
    input: "544"
    output: "545"
    op_type: "Squeeze"
    attribute {
      name: "axes"
      ints: 0
    }
  }
  node {
    input: "20"
    output: "546"
    op_type: "Transpose"
    attribute {
      name: "perm"
      ints: 1
      ints: 0
    }
  }
  node {
    input: "545"
    input: "546"
    input: "22"
    output: "547"
    op_type: "Gemm"
    attribute {
      name: "alpha"
      f: 1
    }
    attribute {
      name: "beta"
      f: 1
    }
    attribute {
      name: "broadcast"
      i: 1
    }
  }
  node {
    input: "21"
    output: "548"
    op_type: "Transpose"
    attribute {
      name: "perm"
      ints: 1
      ints: 0
    }
  }
  node {
    input: "540"
    input: "548"
    input: "23"
    output: "549"
    op_type: "Gemm"
    attribute {
      name: "alpha"
      f: 1
    }
    attribute {
      name: "beta"
      f: 1
    }
    attribute {
      name: "broadcast"
      i: 1
    }
  }
  node {
    input: "547"
    input: "549"
    output: "550"
    op_type: "Add"
  }
  node {
    input: "550"
    output: "551"
    op_type: "Tanh"
  }
  node {
    output: "552"
    op_type: "Constant"
    attribute {
      name: "value"
      t {
        dims: 1
        data_type: INT32
        raw_data: "\000\000\000\000"
      }
    }
  }
  node {
    output: "553"
    op_type: "Constant"
    attribute {
      name: "value"
      t {
        dims: 1
        data_type: INT64
        raw_data: "\003\000\000\000\000\000\000\000"
      }
    }
  }
  node {
    output: "554"
    op_type: "Constant"
    attribute {
      name: "value"
      t {
        dims: 1
        data_type: INT64
        raw_data: "\004\000\000\000\000\000\000\000"
      }
    }
  }
  node {
    input: "512"
    input: "552"
    input: "553"
    input: "554"
    output: "555"
    op_type: "Slice"
  }
  node {
    input: "555"
    output: "556"
    op_type: "Squeeze"
    attribute {
      name: "axes"
      ints: 0
    }
  }
  node {
    input: "20"
    output: "557"
    op_type: "Transpose"
    attribute {
      name: "perm"
      ints: 1
      ints: 0
    }
  }
  node {
    input: "556"
    input: "557"
    input: "22"
    output: "558"
    op_type: "Gemm"
    attribute {
      name: "alpha"
      f: 1
    }
    attribute {
      name: "beta"
      f: 1
    }
    attribute {
      name: "broadcast"
      i: 1
    }
  }
  node {
    input: "21"
    output: "559"
    op_type: "Transpose"
    attribute {
      name: "perm"
      ints: 1
      ints: 0
    }
  }
  node {
    input: "551"
    input: "559"
    input: "23"
    output: "560"
    op_type: "Gemm"
    attribute {
      name: "alpha"
      f: 1
    }
    attribute {
      name: "beta"
      f: 1
    }
    attribute {
      name: "broadcast"
      i: 1
    }
  }
  node {
    input: "558"
    input: "560"
    output: "561"
    op_type: "Add"
  }
  node {
    input: "561"
    output: "562"
    op_type: "Tanh"
  }
  node {
    output: "563"
    op_type: "Constant"
    attribute {
      name: "value"
      t {
        dims: 1
        data_type: INT32
        raw_data: "\000\000\000\000"
      }
    }
  }
  node {
    output: "564"
    op_type: "Constant"
    attribute {
      name: "value"
      t {
        dims: 1
        data_type: INT64
        raw_data: "\004\000\000\000\000\000\000\000"
      }
    }
  }
  node {
    output: "565"
    op_type: "Constant"
    attribute {
      name: "value"
      t {
        dims: 1
        data_type: INT64
        raw_data: "\005\000\000\000\000\000\000\000"
      }
    }
  }
  node {
    input: "512"
    input: "563"
    input: "564"
    input: "565"
    output: "566"
    op_type: "Slice"
  }
  node {
    input: "566"
    output: "567"
    op_type: "Squeeze"
    attribute {
      name: "axes"
      ints: 0
    }
  }
  node {
    input: "20"
    output: "568"
    op_type: "Transpose"
    attribute {
      name: "perm"
      ints: 1
      ints: 0
    }
  }
  node {
    input: "567"
    input: "568"
    input: "22"
    output: "569"
    op_type: "Gemm"
    attribute {
      name: "alpha"
      f: 1
    }
    attribute {
      name: "beta"
      f: 1
    }
    attribute {
      name: "broadcast"
      i: 1
    }
  }
  node {
    input: "21"
    output: "570"
    op_type: "Transpose"
    attribute {
      name: "perm"
      ints: 1
      ints: 0
    }
  }
  node {
    input: "562"
    input: "570"
    input: "23"
    output: "571"
    op_type: "Gemm"
    attribute {
      name: "alpha"
      f: 1
    }
    attribute {
      name: "beta"
      f: 1
    }
    attribute {
      name: "broadcast"
      i: 1
    }
  }
  node {
    input: "569"
    input: "571"
    output: "572"
    op_type: "Add"
  }
  node {
    input: "572"
    output: "573"
    op_type: "Tanh"
  }
  node {
    output: "574"
    op_type: "Constant"
    attribute {
      name: "value"
      t {
        dims: 1
        data_type: INT32
        raw_data: "\000\000\000\000"
      }
    }
  }
  node {
    output: "575"
    op_type: "Constant"
    attribute {
      name: "value"
      t {
        dims: 1
        data_type: INT64
        raw_data: "\005\000\000\000\000\000\000\000"
      }
    }
  }
  node {
    output: "576"
    op_type: "Constant"
    attribute {
      name: "value"
      t {
        dims: 1
        data_type: INT64
        raw_data: "\006\000\000\000\000\000\000\000"
      }
    }
  }
  node {
    input: "512"
    input: "574"
    input: "575"
    input: "576"
    output: "577"
    op_type: "Slice"
  }
  node {
    input: "577"
    output: "578"
    op_type: "Squeeze"
    attribute {
      name: "axes"
      ints: 0
    }
  }
  node {
    input: "20"
    output: "579"
    op_type: "Transpose"
    attribute {
      name: "perm"
      ints: 1
      ints: 0
    }
  }
  node {
    input: "578"
    input: "579"
    input: "22"
    output: "580"
    op_type: "Gemm"
    attribute {
      name: "alpha"
      f: 1
    }
    attribute {
      name: "beta"
      f: 1
    }
    attribute {
      name: "broadcast"
      i: 1
    }
  }
  node {
    input: "21"
    output: "581"
    op_type: "Transpose"
    attribute {
      name: "perm"
      ints: 1
      ints: 0
    }
  }
  node {
    input: "573"
    input: "581"
    input: "23"
    output: "582"
    op_type: "Gemm"
    attribute {
      name: "alpha"
      f: 1
    }
    attribute {
      name: "beta"
      f: 1
    }
    attribute {
      name: "broadcast"
      i: 1
    }
  }
  node {
    input: "580"
    input: "582"
    output: "583"
    op_type: "Add"
  }
  node {
    input: "583"
    output: "584"
    op_type: "Tanh"
  }
  node {
    output: "585"
    op_type: "Constant"
    attribute {
      name: "value"
      t {
        dims: 1
        data_type: INT32
        raw_data: "\000\000\000\000"
      }
    }
  }
  node {
    output: "586"
    op_type: "Constant"
    attribute {
      name: "value"
      t {
        dims: 1
        data_type: INT64
        raw_data: "\006\000\000\000\000\000\000\000"
      }
    }
  }
  node {
    output: "587"
    op_type: "Constant"
    attribute {
      name: "value"
      t {
        dims: 1
        data_type: INT64
        raw_data: "\007\000\000\000\000\000\000\000"
      }
    }
  }
  node {
    input: "512"
    input: "585"
    input: "586"
    input: "587"
    output: "588"
    op_type: "Slice"
  }
  node {
    input: "588"
    output: "589"
    op_type: "Squeeze"
    attribute {
      name: "axes"
      ints: 0
    }
  }
  node {
    input: "20"
    output: "590"
    op_type: "Transpose"
    attribute {
      name: "perm"
      ints: 1
      ints: 0
    }
  }
  node {
    input: "589"
    input: "590"
    input: "22"
    output: "591"
    op_type: "Gemm"
    attribute {
      name: "alpha"
      f: 1
    }
    attribute {
      name: "beta"
      f: 1
    }
    attribute {
      name: "broadcast"
      i: 1
    }
  }
  node {
    input: "21"
    output: "592"
    op_type: "Transpose"
    attribute {
      name: "perm"
      ints: 1
      ints: 0
    }
  }
  node {
    input: "584"
    input: "592"
    input: "23"
    output: "593"
    op_type: "Gemm"
    attribute {
      name: "alpha"
      f: 1
    }
    attribute {
      name: "beta"
      f: 1
    }
    attribute {
      name: "broadcast"
      i: 1
    }
  }
  node {
    input: "591"
    input: "593"
    output: "594"
    op_type: "Add"
  }
  node {
    input: "594"
    output: "595"
    op_type: "Tanh"
  }
  node {
    output: "596"
    op_type: "Constant"
    attribute {
      name: "value"
      t {
        dims: 1
        data_type: INT32
        raw_data: "\000\000\000\000"
      }
    }
  }
  node {
    output: "597"
    op_type: "Constant"
    attribute {
      name: "value"
      t {
        dims: 1
        data_type: INT64
        raw_data: "\007\000\000\000\000\000\000\000"
      }
    }
  }
  node {
    output: "598"
    op_type: "Constant"
    attribute {
      name: "value"
      t {
        dims: 1
        data_type: INT64
        raw_data: "\010\000\000\000\000\000\000\000"
      }
    }
  }
  node {
    input: "512"
    input: "596"
    input: "597"
    input: "598"
    output: "599"
    op_type: "Slice"
  }
  node {
    input: "599"
    output: "600"
    op_type: "Squeeze"
    attribute {
      name: "axes"
      ints: 0
    }
  }
  node {
    input: "20"
    output: "601"
    op_type: "Transpose"
    attribute {
      name: "perm"
      ints: 1
      ints: 0
    }
  }
  node {
    input: "600"
    input: "601"
    input: "22"
    output: "602"
    op_type: "Gemm"
    attribute {
      name: "alpha"
      f: 1
    }
    attribute {
      name: "beta"
      f: 1
    }
    attribute {
      name: "broadcast"
      i: 1
    }
  }
  node {
    input: "21"
    output: "603"
    op_type: "Transpose"
    attribute {
      name: "perm"
      ints: 1
      ints: 0
    }
  }
  node {
    input: "595"
    input: "603"
    input: "23"
    output: "604"
    op_type: "Gemm"
    attribute {
      name: "alpha"
      f: 1
    }
    attribute {
      name: "beta"
      f: 1
    }
    attribute {
      name: "broadcast"
      i: 1
    }
  }
  node {
    input: "602"
    input: "604"
    output: "605"
    op_type: "Add"
  }
  node {
    input: "605"
    output: "606"
    op_type: "Tanh"
  }
  node {
    output: "607"
    op_type: "Constant"
    attribute {
      name: "value"
      t {
        dims: 1
        data_type: INT32
        raw_data: "\000\000\000\000"
      }
    }
  }
  node {
    output: "608"
    op_type: "Constant"
    attribute {
      name: "value"
      t {
        dims: 1
        data_type: INT64
        raw_data: "\010\000\000\000\000\000\000\000"
      }
    }
  }
  node {
    output: "609"
    op_type: "Constant"
    attribute {
      name: "value"
      t {
        dims: 1
        data_type: INT64
        raw_data: "\t\000\000\000\000\000\000\000"
      }
    }
  }
  node {
    input: "512"
    input: "607"
    input: "608"
    input: "609"
    output: "610"
    op_type: "Slice"
  }
  node {
    input: "610"
    output: "611"
    op_type: "Squeeze"
    attribute {
      name: "axes"
      ints: 0
    }
  }
  node {
    input: "20"
    output: "612"
    op_type: "Transpose"
    attribute {
      name: "perm"
      ints: 1
      ints: 0
    }
  }
  node {
    input: "611"
    input: "612"
    input: "22"
    output: "613"
    op_type: "Gemm"
    attribute {
      name: "alpha"
      f: 1
    }
    attribute {
      name: "beta"
      f: 1
    }
    attribute {
      name: "broadcast"
      i: 1
    }
  }
  node {
    input: "21"
    output: "614"
    op_type: "Transpose"
    attribute {
      name: "perm"
      ints: 1
      ints: 0
    }
  }
  node {
    input: "606"
    input: "614"
    input: "23"
    output: "615"
    op_type: "Gemm"
    attribute {
      name: "alpha"
      f: 1
    }
    attribute {
      name: "beta"
      f: 1
    }
    attribute {
      name: "broadcast"
      i: 1
    }
  }
  node {
    input: "613"
    input: "615"
    output: "616"
    op_type: "Add"
  }
  node {
    input: "616"
    output: "617"
    op_type: "Tanh"
  }
  node {
    output: "618"
    op_type: "Constant"
    attribute {
      name: "value"
      t {
        dims: 1
        data_type: INT32
        raw_data: "\000\000\000\000"
      }
    }
  }
  node {
    output: "619"
    op_type: "Constant"
    attribute {
      name: "value"
      t {
        dims: 1
        data_type: INT64
        raw_data: "\t\000\000\000\000\000\000\000"
      }
    }
  }
  node {
    output: "620"
    op_type: "Constant"
    attribute {
      name: "value"
      t {
        dims: 1
        data_type: INT64
        raw_data: "\n\000\000\000\000\000\000\000"
      }
    }
  }
  node {
    input: "512"
    input: "618"
    input: "619"
    input: "620"
    output: "621"
    op_type: "Slice"
  }
  node {
    input: "621"
    output: "622"
    op_type: "Squeeze"
    attribute {
      name: "axes"
      ints: 0
    }
  }
  node {
    input: "20"
    output: "623"
    op_type: "Transpose"
    attribute {
      name: "perm"
      ints: 1
      ints: 0
    }
  }
  node {
    input: "622"
    input: "623"
    input: "22"
    output: "624"
    op_type: "Gemm"
    attribute {
      name: "alpha"
      f: 1
    }
    attribute {
      name: "beta"
      f: 1
    }
    attribute {
      name: "broadcast"
      i: 1
    }
  }
  node {
    input: "21"
    output: "625"
    op_type: "Transpose"
    attribute {
      name: "perm"
      ints: 1
      ints: 0
    }
  }
  node {
    input: "617"
    input: "625"
    input: "23"
    output: "626"
    op_type: "Gemm"
    attribute {
      name: "alpha"
      f: 1
    }
    attribute {
      name: "beta"
      f: 1
    }
    attribute {
      name: "broadcast"
      i: 1
    }
  }
  node {
    input: "624"
    input: "626"
    output: "627"
    op_type: "Add"
  }
  node {
    input: "627"
    output: "628"
    op_type: "Tanh"
  }
  node {
    input: "529"
    input: "540"
    input: "551"
    input: "562"
    input: "573"
    input: "584"
    input: "595"
    input: "606"
    input: "617"
    input: "628"
    output: "629"
    op_type: "Concat"
    attribute {
      name: "axis"
      i: 0
    }
  }
  node {
    input: "629"
    output: "630"
    op_type: "Reshape"
    attribute {
      name: "shape"
      ints: 10
      ints: 5
      ints: 5
    }
  }
  node {
    input: "630"
    output: "631"
    op_type: "Concat"
    attribute {
      name: "axis"
      i: 2
    }
  }
  node {
    input: "144"
    input: "265"
    input: "386"
    input: "507"
    input: "628"
    output: "632"
    op_type: "Concat"
    attribute {
      name: "axis"
      i: 0
    }
  }
  node {
    input: "632"
    output: "633"
    op_type: "Reshape"
    attribute {
      name: "shape"
      ints: 5
      ints: 5
      ints: 5
    }
  }
  node {
    input: "631"
    output: "635"
    output: "636"
    op_type: "Dropout"
    attribute {
      name: "ratio"
      f: 0.200000002980232
    }
    attribute {
      name: "is_test"
      i: 1
    }
  }
  node {
    input: "635"
    output: "637"
    op_type: "Reshape"
    attribute {
      name: "shape"
      ints: 50
      ints: 5
    }
  }
  node {
    input: "24"
    output: "638"
    op_type: "Transpose"
    attribute {
      name: "perm"
      ints: 1
      ints: 0
    }
  }
  node {
    input: "637"
    input: "638"
    input: "25"
    output: "639"
    op_type: "Gemm"
    attribute {
      name: "alpha"
      f: 1
    }
    attribute {
      name: "beta"
      f: 1
    }
    attribute {
      name: "broadcast"
      i: 1
    }
  }
  node {
    input: "639"
    output: "640"
    op_type: "Reshape"
    attribute {
      name: "shape"
      ints: 10
      ints: 5
      ints: 10
    }
  }
  name: "torch-jit-export"
  input {
    name: "1"
    type {
      tensor_type {
        elem_type: INT64
        shape {
          dim {
            dim_value: 10
          }
          dim {
            dim_value: 5
          }
        }
      }
    }
  }
  input {
    name: "2"
    type {
      tensor_type {
        elem_type: FLOAT
        shape {
          dim {
            dim_value: 5
          }
          dim {
            dim_value: 5
          }
          dim {
            dim_value: 5
          }
        }
      }
    }
  }
  input {
    name: "3"
    type {
      tensor_type {
        elem_type: FLOAT
        shape {
          dim {
            dim_value: 10
          }
          dim {
            dim_value: 5
          }
        }
      }
    }
  }
  input {
    name: "4"
    type {
      tensor_type {
        elem_type: FLOAT
        shape {
          dim {
            dim_value: 5
          }
          dim {
            dim_value: 5
          }
        }
      }
    }
  }
  input {
    name: "5"
    type {
      tensor_type {
        elem_type: FLOAT
        shape {
          dim {
            dim_value: 5
          }
          dim {
            dim_value: 5
          }
        }
      }
    }
  }
  input {
    name: "6"
    type {
      tensor_type {
        elem_type: FLOAT
        shape {
          dim {
            dim_value: 5
          }
        }
      }
    }
  }
  input {
    name: "7"
    type {
      tensor_type {
        elem_type: FLOAT
        shape {
          dim {
            dim_value: 5
          }
        }
      }
    }
  }
  input {
    name: "8"
    type {
      tensor_type {
        elem_type: FLOAT
        shape {
          dim {
            dim_value: 5
          }
          dim {
            dim_value: 5
          }
        }
      }
    }
  }
  input {
    name: "9"
    type {
      tensor_type {
        elem_type: FLOAT
        shape {
          dim {
            dim_value: 5
          }
          dim {
            dim_value: 5
          }
        }
      }
    }
  }
  input {
    name: "10"
    type {
      tensor_type {
        elem_type: FLOAT
        shape {
          dim {
            dim_value: 5
          }
        }
      }
    }
  }
  input {
    name: "11"
    type {
      tensor_type {
        elem_type: FLOAT
        shape {
          dim {
            dim_value: 5
          }
        }
      }
    }
  }
  input {
    name: "12"
    type {
      tensor_type {
        elem_type: FLOAT
        shape {
          dim {
            dim_value: 5
          }
          dim {
            dim_value: 5
          }
        }
      }
    }
  }
  input {
    name: "13"
    type {
      tensor_type {
        elem_type: FLOAT
        shape {
          dim {
            dim_value: 5
          }
          dim {
            dim_value: 5
          }
        }
      }
    }
  }
  input {
    name: "14"
    type {
      tensor_type {
        elem_type: FLOAT
        shape {
          dim {
            dim_value: 5
          }
        }
      }
    }
  }
  input {
    name: "15"
    type {
      tensor_type {
        elem_type: FLOAT
        shape {
          dim {
            dim_value: 5
          }
        }
      }
    }
  }
  input {
    name: "16"
    type {
      tensor_type {
        elem_type: FLOAT
        shape {
          dim {
            dim_value: 5
          }
          dim {
            dim_value: 5
          }
        }
      }
    }
  }
  input {
    name: "17"
    type {
      tensor_type {
        elem_type: FLOAT
        shape {
          dim {
            dim_value: 5
          }
          dim {
            dim_value: 5
          }
        }
      }
    }
  }
  input {
    name: "18"
    type {
      tensor_type {
        elem_type: FLOAT
        shape {
          dim {
            dim_value: 5
          }
        }
      }
    }
  }
  input {
    name: "19"
    type {
      tensor_type {
        elem_type: FLOAT
        shape {
          dim {
            dim_value: 5
          }
        }
      }
    }
  }
  input {
    name: "20"
    type {
      tensor_type {
        elem_type: FLOAT
        shape {
          dim {
            dim_value: 5
          }
          dim {
            dim_value: 5
          }
        }
      }
    }
  }
  input {
    name: "21"
    type {
      tensor_type {
        elem_type: FLOAT
        shape {
          dim {
            dim_value: 5
          }
          dim {
            dim_value: 5
          }
        }
      }
    }
  }
  input {
    name: "22"
    type {
      tensor_type {
        elem_type: FLOAT
        shape {
          dim {
            dim_value: 5
          }
        }
      }
    }
  }
  input {
    name: "23"
    type {
      tensor_type {
        elem_type: FLOAT
        shape {
          dim {
            dim_value: 5
          }
        }
      }
    }
  }
  input {
    name: "24"
    type {
      tensor_type {
        elem_type: FLOAT
        shape {
          dim {
            dim_value: 10
          }
          dim {
            dim_value: 5
          }
        }
      }
    }
  }
  input {
    name: "25"
    type {
      tensor_type {
        elem_type: FLOAT
        shape {
          dim {
            dim_value: 10
          }
        }
      }
    }
  }
  output {
    name: "640"
    type {
      tensor_type {
        elem_type: FLOAT
        shape {
          dim {
            dim_value: 10
          }
          dim {
            dim_value: 5
          }
          dim {
            dim_value: 10
          }
        }
      }
    }
  }
}
