ir_version: 2
producer_name: "pytorch"
producer_version: "0.2"
graph {
  node {
    input: "1"
    input: "2"
    output: "3"
    op_type: "Add"
  }
  node {
    input: "1"
    input: "3"
    output: "4"
    op_type: "Mul"
  }
  node {
    input: "4"
    output: "5"
    op_type: "Tanh"
  }
  node {
    input: "5"
    output: "6"
    op_type: "Sigmoid"
  }
  node {
    input: "6"
    output: "7"
    op_type: "Neg"
  }
  name: "torch-jit-export"
  input {
    name: "1"
    type {
      tensor_type {
        elem_type: FLOAT
        shape {
          dim {
            dim_value: 1
          }
        }
      }
    }
  }
  input {
    name: "2"
    type {
      tensor_type {
        elem_type: FLOAT
        shape {
          dim {
            dim_value: 1
          }
        }
      }
    }
  }
  output {
    name: "7"
    type {
      tensor_type {
        elem_type: FLOAT
        shape {
          dim {
            dim_value: 1
          }
        }
      }
    }
  }
}
opset_import {
  version: 1
}
