ir_version: 1
producer_name: "pytorch"
producer_version: "0.2"
domain: "com.facebook"
graph {
  node {
    input: "3"
    input: "1"
    output: "26"
    op_type: "Gather"
  }
  node {
    input: "26"
    output: "28"
    output: "29"
    op_type: "Dropout"
    attribute {
      name: "ratio"
      f: 0.200000002980232
    }
    attribute {
      name: "is_test"
      i: 1
    }
  }
  node {
    output: "30"
    op_type: "Constant"
    attribute {
      name: "value"
      t {
        dims: 1
        data_type: INT32
        raw_data: "\000\000\000\000"
      }
    }
  }
  node {
    output: "31"
    op_type: "Constant"
    attribute {
      name: "value"
      t {
        dims: 1
        data_type: INT64
        raw_data: "\000\000\000\000\000\000\000\000"
      }
    }
  }
  node {
    output: "32"
    op_type: "Constant"
    attribute {
      name: "value"
      t {
        dims: 1
        data_type: INT64
        raw_data: "\001\000\000\000\000\000\000\000"
      }
    }
  }
  node {
    input: "2"
    input: "30"
    input: "31"
    input: "32"
    output: "33"
    op_type: "Slice"
  }
  node {
    input: "33"
    output: "34"
    op_type: "Squeeze"
    attribute {
      name: "axes"
      ints: 0
    }
  }
  node {
    output: "35"
    op_type: "Constant"
    attribute {
      name: "value"
      t {
        dims: 1
        data_type: INT32
        raw_data: "\000\000\000\000"
      }
    }
  }
  node {
    output: "36"
    op_type: "Constant"
    attribute {
      name: "value"
      t {
        dims: 1
        data_type: INT64
        raw_data: "\000\000\000\000\000\000\000\000"
      }
    }
  }
  node {
    output: "37"
    op_type: "Constant"
    attribute {
      name: "value"
      t {
        dims: 1
        data_type: INT64
        raw_data: "\001\000\000\000\000\000\000\000"
      }
    }
  }
  node {
    input: "28"
    input: "35"
    input: "36"
    input: "37"
    output: "38"
    op_type: "Slice"
  }
  node {
    input: "38"
    output: "39"
    op_type: "Squeeze"
    attribute {
      name: "axes"
      ints: 0
    }
  }
  node {
    input: "4"
    output: "40"
    op_type: "Transpose"
    attribute {
      name: "perm"
      ints: 1
      ints: 0
    }
  }
  node {
    input: "6"
    output: "42"
    op_type: "expand"
    attribute {
      name: "size"
      ints: 5
      ints: 15
    }
  }
  node {
    input: "39"
    input: "40"
    input: "42"
    output: "43"
    op_type: "Gemm"
    attribute {
      name: "alpha"
      f: 1
    }
    attribute {
      name: "beta"
      f: 1
    }
  }
  node {
    input: "5"
    output: "44"
    op_type: "Transpose"
    attribute {
      name: "perm"
      ints: 1
      ints: 0
    }
  }
  node {
    input: "7"
    output: "46"
    op_type: "expand"
    attribute {
      name: "size"
      ints: 5
      ints: 15
    }
  }
  node {
    input: "34"
    input: "44"
    input: "46"
    output: "47"
    op_type: "Gemm"
    attribute {
      name: "alpha"
      f: 1
    }
    attribute {
      name: "beta"
      f: 1
    }
  }
  node {
    input: "43"
    output: "49"
    output: "50"
    output: "51"
    op_type: "Split"
    attribute {
      name: "axis"
      i: 1
    }
    attribute {
      name: "split"
      ints: 5
      ints: 5
      ints: 5
    }
  }
  node {
    input: "47"
    output: "53"
    output: "54"
    output: "55"
    op_type: "Split"
    attribute {
      name: "axis"
      i: 1
    }
    attribute {
      name: "split"
      ints: 5
      ints: 5
      ints: 5
    }
  }
  node {
    input: "49"
    input: "53"
    output: "56"
    op_type: "Add"
  }
  node {
    input: "56"
    output: "57"
    op_type: "Sigmoid"
  }
  node {
    input: "50"
    input: "54"
    output: "58"
    op_type: "Add"
  }
  node {
    input: "58"
    output: "59"
    op_type: "Sigmoid"
  }
  node {
    input: "57"
    input: "55"
    output: "60"
    op_type: "Mul"
  }
  node {
    input: "51"
    input: "60"
    output: "61"
    op_type: "Add"
  }
  node {
    input: "61"
    output: "62"
    op_type: "Tanh"
  }
  node {
    input: "34"
    input: "62"
    output: "63"
    op_type: "Sub"
  }
  node {
    input: "59"
    input: "63"
    output: "64"
    op_type: "Mul"
  }
  node {
    input: "62"
    input: "64"
    output: "65"
    op_type: "Add"
  }
  node {
    output: "66"
    op_type: "Constant"
    attribute {
      name: "value"
      t {
        dims: 1
        data_type: INT32
        raw_data: "\000\000\000\000"
      }
    }
  }
  node {
    output: "67"
    op_type: "Constant"
    attribute {
      name: "value"
      t {
        dims: 1
        data_type: INT64
        raw_data: "\001\000\000\000\000\000\000\000"
      }
    }
  }
  node {
    output: "68"
    op_type: "Constant"
    attribute {
      name: "value"
      t {
        dims: 1
        data_type: INT64
        raw_data: "\002\000\000\000\000\000\000\000"
      }
    }
  }
  node {
    input: "28"
    input: "66"
    input: "67"
    input: "68"
    output: "69"
    op_type: "Slice"
  }
  node {
    input: "69"
    output: "70"
    op_type: "Squeeze"
    attribute {
      name: "axes"
      ints: 0
    }
  }
  node {
    input: "4"
    output: "71"
    op_type: "Transpose"
    attribute {
      name: "perm"
      ints: 1
      ints: 0
    }
  }
  node {
    input: "6"
    output: "73"
    op_type: "expand"
    attribute {
      name: "size"
      ints: 5
      ints: 15
    }
  }
  node {
    input: "70"
    input: "71"
    input: "73"
    output: "74"
    op_type: "Gemm"
    attribute {
      name: "alpha"
      f: 1
    }
    attribute {
      name: "beta"
      f: 1
    }
  }
  node {
    input: "5"
    output: "75"
    op_type: "Transpose"
    attribute {
      name: "perm"
      ints: 1
      ints: 0
    }
  }
  node {
    input: "7"
    output: "77"
    op_type: "expand"
    attribute {
      name: "size"
      ints: 5
      ints: 15
    }
  }
  node {
    input: "65"
    input: "75"
    input: "77"
    output: "78"
    op_type: "Gemm"
    attribute {
      name: "alpha"
      f: 1
    }
    attribute {
      name: "beta"
      f: 1
    }
  }
  node {
    input: "74"
    output: "80"
    output: "81"
    output: "82"
    op_type: "Split"
    attribute {
      name: "axis"
      i: 1
    }
    attribute {
      name: "split"
      ints: 5
      ints: 5
      ints: 5
    }
  }
  node {
    input: "78"
    output: "84"
    output: "85"
    output: "86"
    op_type: "Split"
    attribute {
      name: "axis"
      i: 1
    }
    attribute {
      name: "split"
      ints: 5
      ints: 5
      ints: 5
    }
  }
  node {
    input: "80"
    input: "84"
    output: "87"
    op_type: "Add"
  }
  node {
    input: "87"
    output: "88"
    op_type: "Sigmoid"
  }
  node {
    input: "81"
    input: "85"
    output: "89"
    op_type: "Add"
  }
  node {
    input: "89"
    output: "90"
    op_type: "Sigmoid"
  }
  node {
    input: "88"
    input: "86"
    output: "91"
    op_type: "Mul"
  }
  node {
    input: "82"
    input: "91"
    output: "92"
    op_type: "Add"
  }
  node {
    input: "92"
    output: "93"
    op_type: "Tanh"
  }
  node {
    input: "65"
    input: "93"
    output: "94"
    op_type: "Sub"
  }
  node {
    input: "90"
    input: "94"
    output: "95"
    op_type: "Mul"
  }
  node {
    input: "93"
    input: "95"
    output: "96"
    op_type: "Add"
  }
  node {
    output: "97"
    op_type: "Constant"
    attribute {
      name: "value"
      t {
        dims: 1
        data_type: INT32
        raw_data: "\000\000\000\000"
      }
    }
  }
  node {
    output: "98"
    op_type: "Constant"
    attribute {
      name: "value"
      t {
        dims: 1
        data_type: INT64
        raw_data: "\002\000\000\000\000\000\000\000"
      }
    }
  }
  node {
    output: "99"
    op_type: "Constant"
    attribute {
      name: "value"
      t {
        dims: 1
        data_type: INT64
        raw_data: "\003\000\000\000\000\000\000\000"
      }
    }
  }
  node {
    input: "28"
    input: "97"
    input: "98"
    input: "99"
    output: "100"
    op_type: "Slice"
  }
  node {
    input: "100"
    output: "101"
    op_type: "Squeeze"
    attribute {
      name: "axes"
      ints: 0
    }
  }
  node {
    input: "4"
    output: "102"
    op_type: "Transpose"
    attribute {
      name: "perm"
      ints: 1
      ints: 0
    }
  }
  node {
    input: "6"
    output: "104"
    op_type: "expand"
    attribute {
      name: "size"
      ints: 5
      ints: 15
    }
  }
  node {
    input: "101"
    input: "102"
    input: "104"
    output: "105"
    op_type: "Gemm"
    attribute {
      name: "alpha"
      f: 1
    }
    attribute {
      name: "beta"
      f: 1
    }
  }
  node {
    input: "5"
    output: "106"
    op_type: "Transpose"
    attribute {
      name: "perm"
      ints: 1
      ints: 0
    }
  }
  node {
    input: "7"
    output: "108"
    op_type: "expand"
    attribute {
      name: "size"
      ints: 5
      ints: 15
    }
  }
  node {
    input: "96"
    input: "106"
    input: "108"
    output: "109"
    op_type: "Gemm"
    attribute {
      name: "alpha"
      f: 1
    }
    attribute {
      name: "beta"
      f: 1
    }
  }
  node {
    input: "105"
    output: "111"
    output: "112"
    output: "113"
    op_type: "Split"
    attribute {
      name: "axis"
      i: 1
    }
    attribute {
      name: "split"
      ints: 5
      ints: 5
      ints: 5
    }
  }
  node {
    input: "109"
    output: "115"
    output: "116"
    output: "117"
    op_type: "Split"
    attribute {
      name: "axis"
      i: 1
    }
    attribute {
      name: "split"
      ints: 5
      ints: 5
      ints: 5
    }
  }
  node {
    input: "111"
    input: "115"
    output: "118"
    op_type: "Add"
  }
  node {
    input: "118"
    output: "119"
    op_type: "Sigmoid"
  }
  node {
    input: "112"
    input: "116"
    output: "120"
    op_type: "Add"
  }
  node {
    input: "120"
    output: "121"
    op_type: "Sigmoid"
  }
  node {
    input: "119"
    input: "117"
    output: "122"
    op_type: "Mul"
  }
  node {
    input: "113"
    input: "122"
    output: "123"
    op_type: "Add"
  }
  node {
    input: "123"
    output: "124"
    op_type: "Tanh"
  }
  node {
    input: "96"
    input: "124"
    output: "125"
    op_type: "Sub"
  }
  node {
    input: "121"
    input: "125"
    output: "126"
    op_type: "Mul"
  }
  node {
    input: "124"
    input: "126"
    output: "127"
    op_type: "Add"
  }
  node {
    output: "128"
    op_type: "Constant"
    attribute {
      name: "value"
      t {
        dims: 1
        data_type: INT32
        raw_data: "\000\000\000\000"
      }
    }
  }
  node {
    output: "129"
    op_type: "Constant"
    attribute {
      name: "value"
      t {
        dims: 1
        data_type: INT64
        raw_data: "\003\000\000\000\000\000\000\000"
      }
    }
  }
  node {
    output: "130"
    op_type: "Constant"
    attribute {
      name: "value"
      t {
        dims: 1
        data_type: INT64
        raw_data: "\004\000\000\000\000\000\000\000"
      }
    }
  }
  node {
    input: "28"
    input: "128"
    input: "129"
    input: "130"
    output: "131"
    op_type: "Slice"
  }
  node {
    input: "131"
    output: "132"
    op_type: "Squeeze"
    attribute {
      name: "axes"
      ints: 0
    }
  }
  node {
    input: "4"
    output: "133"
    op_type: "Transpose"
    attribute {
      name: "perm"
      ints: 1
      ints: 0
    }
  }
  node {
    input: "6"
    output: "135"
    op_type: "expand"
    attribute {
      name: "size"
      ints: 5
      ints: 15
    }
  }
  node {
    input: "132"
    input: "133"
    input: "135"
    output: "136"
    op_type: "Gemm"
    attribute {
      name: "alpha"
      f: 1
    }
    attribute {
      name: "beta"
      f: 1
    }
  }
  node {
    input: "5"
    output: "137"
    op_type: "Transpose"
    attribute {
      name: "perm"
      ints: 1
      ints: 0
    }
  }
  node {
    input: "7"
    output: "139"
    op_type: "expand"
    attribute {
      name: "size"
      ints: 5
      ints: 15
    }
  }
  node {
    input: "127"
    input: "137"
    input: "139"
    output: "140"
    op_type: "Gemm"
    attribute {
      name: "alpha"
      f: 1
    }
    attribute {
      name: "beta"
      f: 1
    }
  }
  node {
    input: "136"
    output: "142"
    output: "143"
    output: "144"
    op_type: "Split"
    attribute {
      name: "axis"
      i: 1
    }
    attribute {
      name: "split"
      ints: 5
      ints: 5
      ints: 5
    }
  }
  node {
    input: "140"
    output: "146"
    output: "147"
    output: "148"
    op_type: "Split"
    attribute {
      name: "axis"
      i: 1
    }
    attribute {
      name: "split"
      ints: 5
      ints: 5
      ints: 5
    }
  }
  node {
    input: "142"
    input: "146"
    output: "149"
    op_type: "Add"
  }
  node {
    input: "149"
    output: "150"
    op_type: "Sigmoid"
  }
  node {
    input: "143"
    input: "147"
    output: "151"
    op_type: "Add"
  }
  node {
    input: "151"
    output: "152"
    op_type: "Sigmoid"
  }
  node {
    input: "150"
    input: "148"
    output: "153"
    op_type: "Mul"
  }
  node {
    input: "144"
    input: "153"
    output: "154"
    op_type: "Add"
  }
  node {
    input: "154"
    output: "155"
    op_type: "Tanh"
  }
  node {
    input: "127"
    input: "155"
    output: "156"
    op_type: "Sub"
  }
  node {
    input: "152"
    input: "156"
    output: "157"
    op_type: "Mul"
  }
  node {
    input: "155"
    input: "157"
    output: "158"
    op_type: "Add"
  }
  node {
    output: "159"
    op_type: "Constant"
    attribute {
      name: "value"
      t {
        dims: 1
        data_type: INT32
        raw_data: "\000\000\000\000"
      }
    }
  }
  node {
    output: "160"
    op_type: "Constant"
    attribute {
      name: "value"
      t {
        dims: 1
        data_type: INT64
        raw_data: "\004\000\000\000\000\000\000\000"
      }
    }
  }
  node {
    output: "161"
    op_type: "Constant"
    attribute {
      name: "value"
      t {
        dims: 1
        data_type: INT64
        raw_data: "\005\000\000\000\000\000\000\000"
      }
    }
  }
  node {
    input: "28"
    input: "159"
    input: "160"
    input: "161"
    output: "162"
    op_type: "Slice"
  }
  node {
    input: "162"
    output: "163"
    op_type: "Squeeze"
    attribute {
      name: "axes"
      ints: 0
    }
  }
  node {
    input: "4"
    output: "164"
    op_type: "Transpose"
    attribute {
      name: "perm"
      ints: 1
      ints: 0
    }
  }
  node {
    input: "6"
    output: "166"
    op_type: "expand"
    attribute {
      name: "size"
      ints: 5
      ints: 15
    }
  }
  node {
    input: "163"
    input: "164"
    input: "166"
    output: "167"
    op_type: "Gemm"
    attribute {
      name: "alpha"
      f: 1
    }
    attribute {
      name: "beta"
      f: 1
    }
  }
  node {
    input: "5"
    output: "168"
    op_type: "Transpose"
    attribute {
      name: "perm"
      ints: 1
      ints: 0
    }
  }
  node {
    input: "7"
    output: "170"
    op_type: "expand"
    attribute {
      name: "size"
      ints: 5
      ints: 15
    }
  }
  node {
    input: "158"
    input: "168"
    input: "170"
    output: "171"
    op_type: "Gemm"
    attribute {
      name: "alpha"
      f: 1
    }
    attribute {
      name: "beta"
      f: 1
    }
  }
  node {
    input: "167"
    output: "173"
    output: "174"
    output: "175"
    op_type: "Split"
    attribute {
      name: "axis"
      i: 1
    }
    attribute {
      name: "split"
      ints: 5
      ints: 5
      ints: 5
    }
  }
  node {
    input: "171"
    output: "177"
    output: "178"
    output: "179"
    op_type: "Split"
    attribute {
      name: "axis"
      i: 1
    }
    attribute {
      name: "split"
      ints: 5
      ints: 5
      ints: 5
    }
  }
  node {
    input: "173"
    input: "177"
    output: "180"
    op_type: "Add"
  }
  node {
    input: "180"
    output: "181"
    op_type: "Sigmoid"
  }
  node {
    input: "174"
    input: "178"
    output: "182"
    op_type: "Add"
  }
  node {
    input: "182"
    output: "183"
    op_type: "Sigmoid"
  }
  node {
    input: "181"
    input: "179"
    output: "184"
    op_type: "Mul"
  }
  node {
    input: "175"
    input: "184"
    output: "185"
    op_type: "Add"
  }
  node {
    input: "185"
    output: "186"
    op_type: "Tanh"
  }
  node {
    input: "158"
    input: "186"
    output: "187"
    op_type: "Sub"
  }
  node {
    input: "183"
    input: "187"
    output: "188"
    op_type: "Mul"
  }
  node {
    input: "186"
    input: "188"
    output: "189"
    op_type: "Add"
  }
  node {
    output: "190"
    op_type: "Constant"
    attribute {
      name: "value"
      t {
        dims: 1
        data_type: INT32
        raw_data: "\000\000\000\000"
      }
    }
  }
  node {
    output: "191"
    op_type: "Constant"
    attribute {
      name: "value"
      t {
        dims: 1
        data_type: INT64
        raw_data: "\005\000\000\000\000\000\000\000"
      }
    }
  }
  node {
    output: "192"
    op_type: "Constant"
    attribute {
      name: "value"
      t {
        dims: 1
        data_type: INT64
        raw_data: "\006\000\000\000\000\000\000\000"
      }
    }
  }
  node {
    input: "28"
    input: "190"
    input: "191"
    input: "192"
    output: "193"
    op_type: "Slice"
  }
  node {
    input: "193"
    output: "194"
    op_type: "Squeeze"
    attribute {
      name: "axes"
      ints: 0
    }
  }
  node {
    input: "4"
    output: "195"
    op_type: "Transpose"
    attribute {
      name: "perm"
      ints: 1
      ints: 0
    }
  }
  node {
    input: "6"
    output: "197"
    op_type: "expand"
    attribute {
      name: "size"
      ints: 5
      ints: 15
    }
  }
  node {
    input: "194"
    input: "195"
    input: "197"
    output: "198"
    op_type: "Gemm"
    attribute {
      name: "alpha"
      f: 1
    }
    attribute {
      name: "beta"
      f: 1
    }
  }
  node {
    input: "5"
    output: "199"
    op_type: "Transpose"
    attribute {
      name: "perm"
      ints: 1
      ints: 0
    }
  }
  node {
    input: "7"
    output: "201"
    op_type: "expand"
    attribute {
      name: "size"
      ints: 5
      ints: 15
    }
  }
  node {
    input: "189"
    input: "199"
    input: "201"
    output: "202"
    op_type: "Gemm"
    attribute {
      name: "alpha"
      f: 1
    }
    attribute {
      name: "beta"
      f: 1
    }
  }
  node {
    input: "198"
    output: "204"
    output: "205"
    output: "206"
    op_type: "Split"
    attribute {
      name: "axis"
      i: 1
    }
    attribute {
      name: "split"
      ints: 5
      ints: 5
      ints: 5
    }
  }
  node {
    input: "202"
    output: "208"
    output: "209"
    output: "210"
    op_type: "Split"
    attribute {
      name: "axis"
      i: 1
    }
    attribute {
      name: "split"
      ints: 5
      ints: 5
      ints: 5
    }
  }
  node {
    input: "204"
    input: "208"
    output: "211"
    op_type: "Add"
  }
  node {
    input: "211"
    output: "212"
    op_type: "Sigmoid"
  }
  node {
    input: "205"
    input: "209"
    output: "213"
    op_type: "Add"
  }
  node {
    input: "213"
    output: "214"
    op_type: "Sigmoid"
  }
  node {
    input: "212"
    input: "210"
    output: "215"
    op_type: "Mul"
  }
  node {
    input: "206"
    input: "215"
    output: "216"
    op_type: "Add"
  }
  node {
    input: "216"
    output: "217"
    op_type: "Tanh"
  }
  node {
    input: "189"
    input: "217"
    output: "218"
    op_type: "Sub"
  }
  node {
    input: "214"
    input: "218"
    output: "219"
    op_type: "Mul"
  }
  node {
    input: "217"
    input: "219"
    output: "220"
    op_type: "Add"
  }
  node {
    output: "221"
    op_type: "Constant"
    attribute {
      name: "value"
      t {
        dims: 1
        data_type: INT32
        raw_data: "\000\000\000\000"
      }
    }
  }
  node {
    output: "222"
    op_type: "Constant"
    attribute {
      name: "value"
      t {
        dims: 1
        data_type: INT64
        raw_data: "\006\000\000\000\000\000\000\000"
      }
    }
  }
  node {
    output: "223"
    op_type: "Constant"
    attribute {
      name: "value"
      t {
        dims: 1
        data_type: INT64
        raw_data: "\007\000\000\000\000\000\000\000"
      }
    }
  }
  node {
    input: "28"
    input: "221"
    input: "222"
    input: "223"
    output: "224"
    op_type: "Slice"
  }
  node {
    input: "224"
    output: "225"
    op_type: "Squeeze"
    attribute {
      name: "axes"
      ints: 0
    }
  }
  node {
    input: "4"
    output: "226"
    op_type: "Transpose"
    attribute {
      name: "perm"
      ints: 1
      ints: 0
    }
  }
  node {
    input: "6"
    output: "228"
    op_type: "expand"
    attribute {
      name: "size"
      ints: 5
      ints: 15
    }
  }
  node {
    input: "225"
    input: "226"
    input: "228"
    output: "229"
    op_type: "Gemm"
    attribute {
      name: "alpha"
      f: 1
    }
    attribute {
      name: "beta"
      f: 1
    }
  }
  node {
    input: "5"
    output: "230"
    op_type: "Transpose"
    attribute {
      name: "perm"
      ints: 1
      ints: 0
    }
  }
  node {
    input: "7"
    output: "232"
    op_type: "expand"
    attribute {
      name: "size"
      ints: 5
      ints: 15
    }
  }
  node {
    input: "220"
    input: "230"
    input: "232"
    output: "233"
    op_type: "Gemm"
    attribute {
      name: "alpha"
      f: 1
    }
    attribute {
      name: "beta"
      f: 1
    }
  }
  node {
    input: "229"
    output: "235"
    output: "236"
    output: "237"
    op_type: "Split"
    attribute {
      name: "axis"
      i: 1
    }
    attribute {
      name: "split"
      ints: 5
      ints: 5
      ints: 5
    }
  }
  node {
    input: "233"
    output: "239"
    output: "240"
    output: "241"
    op_type: "Split"
    attribute {
      name: "axis"
      i: 1
    }
    attribute {
      name: "split"
      ints: 5
      ints: 5
      ints: 5
    }
  }
  node {
    input: "235"
    input: "239"
    output: "242"
    op_type: "Add"
  }
  node {
    input: "242"
    output: "243"
    op_type: "Sigmoid"
  }
  node {
    input: "236"
    input: "240"
    output: "244"
    op_type: "Add"
  }
  node {
    input: "244"
    output: "245"
    op_type: "Sigmoid"
  }
  node {
    input: "243"
    input: "241"
    output: "246"
    op_type: "Mul"
  }
  node {
    input: "237"
    input: "246"
    output: "247"
    op_type: "Add"
  }
  node {
    input: "247"
    output: "248"
    op_type: "Tanh"
  }
  node {
    input: "220"
    input: "248"
    output: "249"
    op_type: "Sub"
  }
  node {
    input: "245"
    input: "249"
    output: "250"
    op_type: "Mul"
  }
  node {
    input: "248"
    input: "250"
    output: "251"
    op_type: "Add"
  }
  node {
    output: "252"
    op_type: "Constant"
    attribute {
      name: "value"
      t {
        dims: 1
        data_type: INT32
        raw_data: "\000\000\000\000"
      }
    }
  }
  node {
    output: "253"
    op_type: "Constant"
    attribute {
      name: "value"
      t {
        dims: 1
        data_type: INT64
        raw_data: "\007\000\000\000\000\000\000\000"
      }
    }
  }
  node {
    output: "254"
    op_type: "Constant"
    attribute {
      name: "value"
      t {
        dims: 1
        data_type: INT64
        raw_data: "\010\000\000\000\000\000\000\000"
      }
    }
  }
  node {
    input: "28"
    input: "252"
    input: "253"
    input: "254"
    output: "255"
    op_type: "Slice"
  }
  node {
    input: "255"
    output: "256"
    op_type: "Squeeze"
    attribute {
      name: "axes"
      ints: 0
    }
  }
  node {
    input: "4"
    output: "257"
    op_type: "Transpose"
    attribute {
      name: "perm"
      ints: 1
      ints: 0
    }
  }
  node {
    input: "6"
    output: "259"
    op_type: "expand"
    attribute {
      name: "size"
      ints: 5
      ints: 15
    }
  }
  node {
    input: "256"
    input: "257"
    input: "259"
    output: "260"
    op_type: "Gemm"
    attribute {
      name: "alpha"
      f: 1
    }
    attribute {
      name: "beta"
      f: 1
    }
  }
  node {
    input: "5"
    output: "261"
    op_type: "Transpose"
    attribute {
      name: "perm"
      ints: 1
      ints: 0
    }
  }
  node {
    input: "7"
    output: "263"
    op_type: "expand"
    attribute {
      name: "size"
      ints: 5
      ints: 15
    }
  }
  node {
    input: "251"
    input: "261"
    input: "263"
    output: "264"
    op_type: "Gemm"
    attribute {
      name: "alpha"
      f: 1
    }
    attribute {
      name: "beta"
      f: 1
    }
  }
  node {
    input: "260"
    output: "266"
    output: "267"
    output: "268"
    op_type: "Split"
    attribute {
      name: "axis"
      i: 1
    }
    attribute {
      name: "split"
      ints: 5
      ints: 5
      ints: 5
    }
  }
  node {
    input: "264"
    output: "270"
    output: "271"
    output: "272"
    op_type: "Split"
    attribute {
      name: "axis"
      i: 1
    }
    attribute {
      name: "split"
      ints: 5
      ints: 5
      ints: 5
    }
  }
  node {
    input: "266"
    input: "270"
    output: "273"
    op_type: "Add"
  }
  node {
    input: "273"
    output: "274"
    op_type: "Sigmoid"
  }
  node {
    input: "267"
    input: "271"
    output: "275"
    op_type: "Add"
  }
  node {
    input: "275"
    output: "276"
    op_type: "Sigmoid"
  }
  node {
    input: "274"
    input: "272"
    output: "277"
    op_type: "Mul"
  }
  node {
    input: "268"
    input: "277"
    output: "278"
    op_type: "Add"
  }
  node {
    input: "278"
    output: "279"
    op_type: "Tanh"
  }
  node {
    input: "251"
    input: "279"
    output: "280"
    op_type: "Sub"
  }
  node {
    input: "276"
    input: "280"
    output: "281"
    op_type: "Mul"
  }
  node {
    input: "279"
    input: "281"
    output: "282"
    op_type: "Add"
  }
  node {
    output: "283"
    op_type: "Constant"
    attribute {
      name: "value"
      t {
        dims: 1
        data_type: INT32
        raw_data: "\000\000\000\000"
      }
    }
  }
  node {
    output: "284"
    op_type: "Constant"
    attribute {
      name: "value"
      t {
        dims: 1
        data_type: INT64
        raw_data: "\010\000\000\000\000\000\000\000"
      }
    }
  }
  node {
    output: "285"
    op_type: "Constant"
    attribute {
      name: "value"
      t {
        dims: 1
        data_type: INT64
        raw_data: "\t\000\000\000\000\000\000\000"
      }
    }
  }
  node {
    input: "28"
    input: "283"
    input: "284"
    input: "285"
    output: "286"
    op_type: "Slice"
  }
  node {
    input: "286"
    output: "287"
    op_type: "Squeeze"
    attribute {
      name: "axes"
      ints: 0
    }
  }
  node {
    input: "4"
    output: "288"
    op_type: "Transpose"
    attribute {
      name: "perm"
      ints: 1
      ints: 0
    }
  }
  node {
    input: "6"
    output: "290"
    op_type: "expand"
    attribute {
      name: "size"
      ints: 5
      ints: 15
    }
  }
  node {
    input: "287"
    input: "288"
    input: "290"
    output: "291"
    op_type: "Gemm"
    attribute {
      name: "alpha"
      f: 1
    }
    attribute {
      name: "beta"
      f: 1
    }
  }
  node {
    input: "5"
    output: "292"
    op_type: "Transpose"
    attribute {
      name: "perm"
      ints: 1
      ints: 0
    }
  }
  node {
    input: "7"
    output: "294"
    op_type: "expand"
    attribute {
      name: "size"
      ints: 5
      ints: 15
    }
  }
  node {
    input: "282"
    input: "292"
    input: "294"
    output: "295"
    op_type: "Gemm"
    attribute {
      name: "alpha"
      f: 1
    }
    attribute {
      name: "beta"
      f: 1
    }
  }
  node {
    input: "291"
    output: "297"
    output: "298"
    output: "299"
    op_type: "Split"
    attribute {
      name: "axis"
      i: 1
    }
    attribute {
      name: "split"
      ints: 5
      ints: 5
      ints: 5
    }
  }
  node {
    input: "295"
    output: "301"
    output: "302"
    output: "303"
    op_type: "Split"
    attribute {
      name: "axis"
      i: 1
    }
    attribute {
      name: "split"
      ints: 5
      ints: 5
      ints: 5
    }
  }
  node {
    input: "297"
    input: "301"
    output: "304"
    op_type: "Add"
  }
  node {
    input: "304"
    output: "305"
    op_type: "Sigmoid"
  }
  node {
    input: "298"
    input: "302"
    output: "306"
    op_type: "Add"
  }
  node {
    input: "306"
    output: "307"
    op_type: "Sigmoid"
  }
  node {
    input: "305"
    input: "303"
    output: "308"
    op_type: "Mul"
  }
  node {
    input: "299"
    input: "308"
    output: "309"
    op_type: "Add"
  }
  node {
    input: "309"
    output: "310"
    op_type: "Tanh"
  }
  node {
    input: "282"
    input: "310"
    output: "311"
    op_type: "Sub"
  }
  node {
    input: "307"
    input: "311"
    output: "312"
    op_type: "Mul"
  }
  node {
    input: "310"
    input: "312"
    output: "313"
    op_type: "Add"
  }
  node {
    output: "314"
    op_type: "Constant"
    attribute {
      name: "value"
      t {
        dims: 1
        data_type: INT32
        raw_data: "\000\000\000\000"
      }
    }
  }
  node {
    output: "315"
    op_type: "Constant"
    attribute {
      name: "value"
      t {
        dims: 1
        data_type: INT64
        raw_data: "\t\000\000\000\000\000\000\000"
      }
    }
  }
  node {
    output: "316"
    op_type: "Constant"
    attribute {
      name: "value"
      t {
        dims: 1
        data_type: INT64
        raw_data: "\n\000\000\000\000\000\000\000"
      }
    }
  }
  node {
    input: "28"
    input: "314"
    input: "315"
    input: "316"
    output: "317"
    op_type: "Slice"
  }
  node {
    input: "317"
    output: "318"
    op_type: "Squeeze"
    attribute {
      name: "axes"
      ints: 0
    }
  }
  node {
    input: "4"
    output: "319"
    op_type: "Transpose"
    attribute {
      name: "perm"
      ints: 1
      ints: 0
    }
  }
  node {
    input: "6"
    output: "321"
    op_type: "expand"
    attribute {
      name: "size"
      ints: 5
      ints: 15
    }
  }
  node {
    input: "318"
    input: "319"
    input: "321"
    output: "322"
    op_type: "Gemm"
    attribute {
      name: "alpha"
      f: 1
    }
    attribute {
      name: "beta"
      f: 1
    }
  }
  node {
    input: "5"
    output: "323"
    op_type: "Transpose"
    attribute {
      name: "perm"
      ints: 1
      ints: 0
    }
  }
  node {
    input: "7"
    output: "325"
    op_type: "expand"
    attribute {
      name: "size"
      ints: 5
      ints: 15
    }
  }
  node {
    input: "313"
    input: "323"
    input: "325"
    output: "326"
    op_type: "Gemm"
    attribute {
      name: "alpha"
      f: 1
    }
    attribute {
      name: "beta"
      f: 1
    }
  }
  node {
    input: "322"
    output: "328"
    output: "329"
    output: "330"
    op_type: "Split"
    attribute {
      name: "axis"
      i: 1
    }
    attribute {
      name: "split"
      ints: 5
      ints: 5
      ints: 5
    }
  }
  node {
    input: "326"
    output: "332"
    output: "333"
    output: "334"
    op_type: "Split"
    attribute {
      name: "axis"
      i: 1
    }
    attribute {
      name: "split"
      ints: 5
      ints: 5
      ints: 5
    }
  }
  node {
    input: "328"
    input: "332"
    output: "335"
    op_type: "Add"
  }
  node {
    input: "335"
    output: "336"
    op_type: "Sigmoid"
  }
  node {
    input: "329"
    input: "333"
    output: "337"
    op_type: "Add"
  }
  node {
    input: "337"
    output: "338"
    op_type: "Sigmoid"
  }
  node {
    input: "336"
    input: "334"
    output: "339"
    op_type: "Mul"
  }
  node {
    input: "330"
    input: "339"
    output: "340"
    op_type: "Add"
  }
  node {
    input: "340"
    output: "341"
    op_type: "Tanh"
  }
  node {
    input: "313"
    input: "341"
    output: "342"
    op_type: "Sub"
  }
  node {
    input: "338"
    input: "342"
    output: "343"
    op_type: "Mul"
  }
  node {
    input: "341"
    input: "343"
    output: "344"
    op_type: "Add"
  }
  node {
    input: "65"
    input: "96"
    input: "127"
    input: "158"
    input: "189"
    input: "220"
    input: "251"
    input: "282"
    input: "313"
    input: "344"
    output: "346"
    op_type: "cat"
    attribute {
      name: "dim"
      i: 0
    }
  }
  node {
    input: "346"
    output: "347"
    op_type: "Reshape"
    attribute {
      name: "shape"
      ints: 10
      ints: 5
      ints: 5
    }
  }
  node {
    input: "347"
    output: "349"
    op_type: "cat"
    attribute {
      name: "dim"
      i: 2
    }
  }
  node {
    input: "349"
    output: "351"
    output: "352"
    op_type: "Dropout"
    attribute {
      name: "ratio"
      f: 0.200000002980232
    }
    attribute {
      name: "is_test"
      i: 1
    }
  }
  node {
    output: "353"
    op_type: "Constant"
    attribute {
      name: "value"
      t {
        dims: 1
        data_type: INT32
        raw_data: "\000\000\000\000"
      }
    }
  }
  node {
    output: "354"
    op_type: "Constant"
    attribute {
      name: "value"
      t {
        dims: 1
        data_type: INT64
        raw_data: "\001\000\000\000\000\000\000\000"
      }
    }
  }
  node {
    output: "355"
    op_type: "Constant"
    attribute {
      name: "value"
      t {
        dims: 1
        data_type: INT64
        raw_data: "\002\000\000\000\000\000\000\000"
      }
    }
  }
  node {
    input: "2"
    input: "353"
    input: "354"
    input: "355"
    output: "356"
    op_type: "Slice"
  }
  node {
    input: "356"
    output: "357"
    op_type: "Squeeze"
    attribute {
      name: "axes"
      ints: 0
    }
  }
  node {
    output: "358"
    op_type: "Constant"
    attribute {
      name: "value"
      t {
        dims: 1
        data_type: INT32
        raw_data: "\000\000\000\000"
      }
    }
  }
  node {
    output: "359"
    op_type: "Constant"
    attribute {
      name: "value"
      t {
        dims: 1
        data_type: INT64
        raw_data: "\000\000\000\000\000\000\000\000"
      }
    }
  }
  node {
    output: "360"
    op_type: "Constant"
    attribute {
      name: "value"
      t {
        dims: 1
        data_type: INT64
        raw_data: "\001\000\000\000\000\000\000\000"
      }
    }
  }
  node {
    input: "351"
    input: "358"
    input: "359"
    input: "360"
    output: "361"
    op_type: "Slice"
  }
  node {
    input: "361"
    output: "362"
    op_type: "Squeeze"
    attribute {
      name: "axes"
      ints: 0
    }
  }
  node {
    input: "8"
    output: "363"
    op_type: "Transpose"
    attribute {
      name: "perm"
      ints: 1
      ints: 0
    }
  }
  node {
    input: "10"
    output: "365"
    op_type: "expand"
    attribute {
      name: "size"
      ints: 5
      ints: 15
    }
  }
  node {
    input: "362"
    input: "363"
    input: "365"
    output: "366"
    op_type: "Gemm"
    attribute {
      name: "alpha"
      f: 1
    }
    attribute {
      name: "beta"
      f: 1
    }
  }
  node {
    input: "9"
    output: "367"
    op_type: "Transpose"
    attribute {
      name: "perm"
      ints: 1
      ints: 0
    }
  }
  node {
    input: "11"
    output: "369"
    op_type: "expand"
    attribute {
      name: "size"
      ints: 5
      ints: 15
    }
  }
  node {
    input: "357"
    input: "367"
    input: "369"
    output: "370"
    op_type: "Gemm"
    attribute {
      name: "alpha"
      f: 1
    }
    attribute {
      name: "beta"
      f: 1
    }
  }
  node {
    input: "366"
    output: "372"
    output: "373"
    output: "374"
    op_type: "Split"
    attribute {
      name: "axis"
      i: 1
    }
    attribute {
      name: "split"
      ints: 5
      ints: 5
      ints: 5
    }
  }
  node {
    input: "370"
    output: "376"
    output: "377"
    output: "378"
    op_type: "Split"
    attribute {
      name: "axis"
      i: 1
    }
    attribute {
      name: "split"
      ints: 5
      ints: 5
      ints: 5
    }
  }
  node {
    input: "372"
    input: "376"
    output: "379"
    op_type: "Add"
  }
  node {
    input: "379"
    output: "380"
    op_type: "Sigmoid"
  }
  node {
    input: "373"
    input: "377"
    output: "381"
    op_type: "Add"
  }
  node {
    input: "381"
    output: "382"
    op_type: "Sigmoid"
  }
  node {
    input: "380"
    input: "378"
    output: "383"
    op_type: "Mul"
  }
  node {
    input: "374"
    input: "383"
    output: "384"
    op_type: "Add"
  }
  node {
    input: "384"
    output: "385"
    op_type: "Tanh"
  }
  node {
    input: "357"
    input: "385"
    output: "386"
    op_type: "Sub"
  }
  node {
    input: "382"
    input: "386"
    output: "387"
    op_type: "Mul"
  }
  node {
    input: "385"
    input: "387"
    output: "388"
    op_type: "Add"
  }
  node {
    output: "389"
    op_type: "Constant"
    attribute {
      name: "value"
      t {
        dims: 1
        data_type: INT32
        raw_data: "\000\000\000\000"
      }
    }
  }
  node {
    output: "390"
    op_type: "Constant"
    attribute {
      name: "value"
      t {
        dims: 1
        data_type: INT64
        raw_data: "\001\000\000\000\000\000\000\000"
      }
    }
  }
  node {
    output: "391"
    op_type: "Constant"
    attribute {
      name: "value"
      t {
        dims: 1
        data_type: INT64
        raw_data: "\002\000\000\000\000\000\000\000"
      }
    }
  }
  node {
    input: "351"
    input: "389"
    input: "390"
    input: "391"
    output: "392"
    op_type: "Slice"
  }
  node {
    input: "392"
    output: "393"
    op_type: "Squeeze"
    attribute {
      name: "axes"
      ints: 0
    }
  }
  node {
    input: "8"
    output: "394"
    op_type: "Transpose"
    attribute {
      name: "perm"
      ints: 1
      ints: 0
    }
  }
  node {
    input: "10"
    output: "396"
    op_type: "expand"
    attribute {
      name: "size"
      ints: 5
      ints: 15
    }
  }
  node {
    input: "393"
    input: "394"
    input: "396"
    output: "397"
    op_type: "Gemm"
    attribute {
      name: "alpha"
      f: 1
    }
    attribute {
      name: "beta"
      f: 1
    }
  }
  node {
    input: "9"
    output: "398"
    op_type: "Transpose"
    attribute {
      name: "perm"
      ints: 1
      ints: 0
    }
  }
  node {
    input: "11"
    output: "400"
    op_type: "expand"
    attribute {
      name: "size"
      ints: 5
      ints: 15
    }
  }
  node {
    input: "388"
    input: "398"
    input: "400"
    output: "401"
    op_type: "Gemm"
    attribute {
      name: "alpha"
      f: 1
    }
    attribute {
      name: "beta"
      f: 1
    }
  }
  node {
    input: "397"
    output: "403"
    output: "404"
    output: "405"
    op_type: "Split"
    attribute {
      name: "axis"
      i: 1
    }
    attribute {
      name: "split"
      ints: 5
      ints: 5
      ints: 5
    }
  }
  node {
    input: "401"
    output: "407"
    output: "408"
    output: "409"
    op_type: "Split"
    attribute {
      name: "axis"
      i: 1
    }
    attribute {
      name: "split"
      ints: 5
      ints: 5
      ints: 5
    }
  }
  node {
    input: "403"
    input: "407"
    output: "410"
    op_type: "Add"
  }
  node {
    input: "410"
    output: "411"
    op_type: "Sigmoid"
  }
  node {
    input: "404"
    input: "408"
    output: "412"
    op_type: "Add"
  }
  node {
    input: "412"
    output: "413"
    op_type: "Sigmoid"
  }
  node {
    input: "411"
    input: "409"
    output: "414"
    op_type: "Mul"
  }
  node {
    input: "405"
    input: "414"
    output: "415"
    op_type: "Add"
  }
  node {
    input: "415"
    output: "416"
    op_type: "Tanh"
  }
  node {
    input: "388"
    input: "416"
    output: "417"
    op_type: "Sub"
  }
  node {
    input: "413"
    input: "417"
    output: "418"
    op_type: "Mul"
  }
  node {
    input: "416"
    input: "418"
    output: "419"
    op_type: "Add"
  }
  node {
    output: "420"
    op_type: "Constant"
    attribute {
      name: "value"
      t {
        dims: 1
        data_type: INT32
        raw_data: "\000\000\000\000"
      }
    }
  }
  node {
    output: "421"
    op_type: "Constant"
    attribute {
      name: "value"
      t {
        dims: 1
        data_type: INT64
        raw_data: "\002\000\000\000\000\000\000\000"
      }
    }
  }
  node {
    output: "422"
    op_type: "Constant"
    attribute {
      name: "value"
      t {
        dims: 1
        data_type: INT64
        raw_data: "\003\000\000\000\000\000\000\000"
      }
    }
  }
  node {
    input: "351"
    input: "420"
    input: "421"
    input: "422"
    output: "423"
    op_type: "Slice"
  }
  node {
    input: "423"
    output: "424"
    op_type: "Squeeze"
    attribute {
      name: "axes"
      ints: 0
    }
  }
  node {
    input: "8"
    output: "425"
    op_type: "Transpose"
    attribute {
      name: "perm"
      ints: 1
      ints: 0
    }
  }
  node {
    input: "10"
    output: "427"
    op_type: "expand"
    attribute {
      name: "size"
      ints: 5
      ints: 15
    }
  }
  node {
    input: "424"
    input: "425"
    input: "427"
    output: "428"
    op_type: "Gemm"
    attribute {
      name: "alpha"
      f: 1
    }
    attribute {
      name: "beta"
      f: 1
    }
  }
  node {
    input: "9"
    output: "429"
    op_type: "Transpose"
    attribute {
      name: "perm"
      ints: 1
      ints: 0
    }
  }
  node {
    input: "11"
    output: "431"
    op_type: "expand"
    attribute {
      name: "size"
      ints: 5
      ints: 15
    }
  }
  node {
    input: "419"
    input: "429"
    input: "431"
    output: "432"
    op_type: "Gemm"
    attribute {
      name: "alpha"
      f: 1
    }
    attribute {
      name: "beta"
      f: 1
    }
  }
  node {
    input: "428"
    output: "434"
    output: "435"
    output: "436"
    op_type: "Split"
    attribute {
      name: "axis"
      i: 1
    }
    attribute {
      name: "split"
      ints: 5
      ints: 5
      ints: 5
    }
  }
  node {
    input: "432"
    output: "438"
    output: "439"
    output: "440"
    op_type: "Split"
    attribute {
      name: "axis"
      i: 1
    }
    attribute {
      name: "split"
      ints: 5
      ints: 5
      ints: 5
    }
  }
  node {
    input: "434"
    input: "438"
    output: "441"
    op_type: "Add"
  }
  node {
    input: "441"
    output: "442"
    op_type: "Sigmoid"
  }
  node {
    input: "435"
    input: "439"
    output: "443"
    op_type: "Add"
  }
  node {
    input: "443"
    output: "444"
    op_type: "Sigmoid"
  }
  node {
    input: "442"
    input: "440"
    output: "445"
    op_type: "Mul"
  }
  node {
    input: "436"
    input: "445"
    output: "446"
    op_type: "Add"
  }
  node {
    input: "446"
    output: "447"
    op_type: "Tanh"
  }
  node {
    input: "419"
    input: "447"
    output: "448"
    op_type: "Sub"
  }
  node {
    input: "444"
    input: "448"
    output: "449"
    op_type: "Mul"
  }
  node {
    input: "447"
    input: "449"
    output: "450"
    op_type: "Add"
  }
  node {
    output: "451"
    op_type: "Constant"
    attribute {
      name: "value"
      t {
        dims: 1
        data_type: INT32
        raw_data: "\000\000\000\000"
      }
    }
  }
  node {
    output: "452"
    op_type: "Constant"
    attribute {
      name: "value"
      t {
        dims: 1
        data_type: INT64
        raw_data: "\003\000\000\000\000\000\000\000"
      }
    }
  }
  node {
    output: "453"
    op_type: "Constant"
    attribute {
      name: "value"
      t {
        dims: 1
        data_type: INT64
        raw_data: "\004\000\000\000\000\000\000\000"
      }
    }
  }
  node {
    input: "351"
    input: "451"
    input: "452"
    input: "453"
    output: "454"
    op_type: "Slice"
  }
  node {
    input: "454"
    output: "455"
    op_type: "Squeeze"
    attribute {
      name: "axes"
      ints: 0
    }
  }
  node {
    input: "8"
    output: "456"
    op_type: "Transpose"
    attribute {
      name: "perm"
      ints: 1
      ints: 0
    }
  }
  node {
    input: "10"
    output: "458"
    op_type: "expand"
    attribute {
      name: "size"
      ints: 5
      ints: 15
    }
  }
  node {
    input: "455"
    input: "456"
    input: "458"
    output: "459"
    op_type: "Gemm"
    attribute {
      name: "alpha"
      f: 1
    }
    attribute {
      name: "beta"
      f: 1
    }
  }
  node {
    input: "9"
    output: "460"
    op_type: "Transpose"
    attribute {
      name: "perm"
      ints: 1
      ints: 0
    }
  }
  node {
    input: "11"
    output: "462"
    op_type: "expand"
    attribute {
      name: "size"
      ints: 5
      ints: 15
    }
  }
  node {
    input: "450"
    input: "460"
    input: "462"
    output: "463"
    op_type: "Gemm"
    attribute {
      name: "alpha"
      f: 1
    }
    attribute {
      name: "beta"
      f: 1
    }
  }
  node {
    input: "459"
    output: "465"
    output: "466"
    output: "467"
    op_type: "Split"
    attribute {
      name: "axis"
      i: 1
    }
    attribute {
      name: "split"
      ints: 5
      ints: 5
      ints: 5
    }
  }
  node {
    input: "463"
    output: "469"
    output: "470"
    output: "471"
    op_type: "Split"
    attribute {
      name: "axis"
      i: 1
    }
    attribute {
      name: "split"
      ints: 5
      ints: 5
      ints: 5
    }
  }
  node {
    input: "465"
    input: "469"
    output: "472"
    op_type: "Add"
  }
  node {
    input: "472"
    output: "473"
    op_type: "Sigmoid"
  }
  node {
    input: "466"
    input: "470"
    output: "474"
    op_type: "Add"
  }
  node {
    input: "474"
    output: "475"
    op_type: "Sigmoid"
  }
  node {
    input: "473"
    input: "471"
    output: "476"
    op_type: "Mul"
  }
  node {
    input: "467"
    input: "476"
    output: "477"
    op_type: "Add"
  }
  node {
    input: "477"
    output: "478"
    op_type: "Tanh"
  }
  node {
    input: "450"
    input: "478"
    output: "479"
    op_type: "Sub"
  }
  node {
    input: "475"
    input: "479"
    output: "480"
    op_type: "Mul"
  }
  node {
    input: "478"
    input: "480"
    output: "481"
    op_type: "Add"
  }
  node {
    output: "482"
    op_type: "Constant"
    attribute {
      name: "value"
      t {
        dims: 1
        data_type: INT32
        raw_data: "\000\000\000\000"
      }
    }
  }
  node {
    output: "483"
    op_type: "Constant"
    attribute {
      name: "value"
      t {
        dims: 1
        data_type: INT64
        raw_data: "\004\000\000\000\000\000\000\000"
      }
    }
  }
  node {
    output: "484"
    op_type: "Constant"
    attribute {
      name: "value"
      t {
        dims: 1
        data_type: INT64
        raw_data: "\005\000\000\000\000\000\000\000"
      }
    }
  }
  node {
    input: "351"
    input: "482"
    input: "483"
    input: "484"
    output: "485"
    op_type: "Slice"
  }
  node {
    input: "485"
    output: "486"
    op_type: "Squeeze"
    attribute {
      name: "axes"
      ints: 0
    }
  }
  node {
    input: "8"
    output: "487"
    op_type: "Transpose"
    attribute {
      name: "perm"
      ints: 1
      ints: 0
    }
  }
  node {
    input: "10"
    output: "489"
    op_type: "expand"
    attribute {
      name: "size"
      ints: 5
      ints: 15
    }
  }
  node {
    input: "486"
    input: "487"
    input: "489"
    output: "490"
    op_type: "Gemm"
    attribute {
      name: "alpha"
      f: 1
    }
    attribute {
      name: "beta"
      f: 1
    }
  }
  node {
    input: "9"
    output: "491"
    op_type: "Transpose"
    attribute {
      name: "perm"
      ints: 1
      ints: 0
    }
  }
  node {
    input: "11"
    output: "493"
    op_type: "expand"
    attribute {
      name: "size"
      ints: 5
      ints: 15
    }
  }
  node {
    input: "481"
    input: "491"
    input: "493"
    output: "494"
    op_type: "Gemm"
    attribute {
      name: "alpha"
      f: 1
    }
    attribute {
      name: "beta"
      f: 1
    }
  }
  node {
    input: "490"
    output: "496"
    output: "497"
    output: "498"
    op_type: "Split"
    attribute {
      name: "axis"
      i: 1
    }
    attribute {
      name: "split"
      ints: 5
      ints: 5
      ints: 5
    }
  }
  node {
    input: "494"
    output: "500"
    output: "501"
    output: "502"
    op_type: "Split"
    attribute {
      name: "axis"
      i: 1
    }
    attribute {
      name: "split"
      ints: 5
      ints: 5
      ints: 5
    }
  }
  node {
    input: "496"
    input: "500"
    output: "503"
    op_type: "Add"
  }
  node {
    input: "503"
    output: "504"
    op_type: "Sigmoid"
  }
  node {
    input: "497"
    input: "501"
    output: "505"
    op_type: "Add"
  }
  node {
    input: "505"
    output: "506"
    op_type: "Sigmoid"
  }
  node {
    input: "504"
    input: "502"
    output: "507"
    op_type: "Mul"
  }
  node {
    input: "498"
    input: "507"
    output: "508"
    op_type: "Add"
  }
  node {
    input: "508"
    output: "509"
    op_type: "Tanh"
  }
  node {
    input: "481"
    input: "509"
    output: "510"
    op_type: "Sub"
  }
  node {
    input: "506"
    input: "510"
    output: "511"
    op_type: "Mul"
  }
  node {
    input: "509"
    input: "511"
    output: "512"
    op_type: "Add"
  }
  node {
    output: "513"
    op_type: "Constant"
    attribute {
      name: "value"
      t {
        dims: 1
        data_type: INT32
        raw_data: "\000\000\000\000"
      }
    }
  }
  node {
    output: "514"
    op_type: "Constant"
    attribute {
      name: "value"
      t {
        dims: 1
        data_type: INT64
        raw_data: "\005\000\000\000\000\000\000\000"
      }
    }
  }
  node {
    output: "515"
    op_type: "Constant"
    attribute {
      name: "value"
      t {
        dims: 1
        data_type: INT64
        raw_data: "\006\000\000\000\000\000\000\000"
      }
    }
  }
  node {
    input: "351"
    input: "513"
    input: "514"
    input: "515"
    output: "516"
    op_type: "Slice"
  }
  node {
    input: "516"
    output: "517"
    op_type: "Squeeze"
    attribute {
      name: "axes"
      ints: 0
    }
  }
  node {
    input: "8"
    output: "518"
    op_type: "Transpose"
    attribute {
      name: "perm"
      ints: 1
      ints: 0
    }
  }
  node {
    input: "10"
    output: "520"
    op_type: "expand"
    attribute {
      name: "size"
      ints: 5
      ints: 15
    }
  }
  node {
    input: "517"
    input: "518"
    input: "520"
    output: "521"
    op_type: "Gemm"
    attribute {
      name: "alpha"
      f: 1
    }
    attribute {
      name: "beta"
      f: 1
    }
  }
  node {
    input: "9"
    output: "522"
    op_type: "Transpose"
    attribute {
      name: "perm"
      ints: 1
      ints: 0
    }
  }
  node {
    input: "11"
    output: "524"
    op_type: "expand"
    attribute {
      name: "size"
      ints: 5
      ints: 15
    }
  }
  node {
    input: "512"
    input: "522"
    input: "524"
    output: "525"
    op_type: "Gemm"
    attribute {
      name: "alpha"
      f: 1
    }
    attribute {
      name: "beta"
      f: 1
    }
  }
  node {
    input: "521"
    output: "527"
    output: "528"
    output: "529"
    op_type: "Split"
    attribute {
      name: "axis"
      i: 1
    }
    attribute {
      name: "split"
      ints: 5
      ints: 5
      ints: 5
    }
  }
  node {
    input: "525"
    output: "531"
    output: "532"
    output: "533"
    op_type: "Split"
    attribute {
      name: "axis"
      i: 1
    }
    attribute {
      name: "split"
      ints: 5
      ints: 5
      ints: 5
    }
  }
  node {
    input: "527"
    input: "531"
    output: "534"
    op_type: "Add"
  }
  node {
    input: "534"
    output: "535"
    op_type: "Sigmoid"
  }
  node {
    input: "528"
    input: "532"
    output: "536"
    op_type: "Add"
  }
  node {
    input: "536"
    output: "537"
    op_type: "Sigmoid"
  }
  node {
    input: "535"
    input: "533"
    output: "538"
    op_type: "Mul"
  }
  node {
    input: "529"
    input: "538"
    output: "539"
    op_type: "Add"
  }
  node {
    input: "539"
    output: "540"
    op_type: "Tanh"
  }
  node {
    input: "512"
    input: "540"
    output: "541"
    op_type: "Sub"
  }
  node {
    input: "537"
    input: "541"
    output: "542"
    op_type: "Mul"
  }
  node {
    input: "540"
    input: "542"
    output: "543"
    op_type: "Add"
  }
  node {
    output: "544"
    op_type: "Constant"
    attribute {
      name: "value"
      t {
        dims: 1
        data_type: INT32
        raw_data: "\000\000\000\000"
      }
    }
  }
  node {
    output: "545"
    op_type: "Constant"
    attribute {
      name: "value"
      t {
        dims: 1
        data_type: INT64
        raw_data: "\006\000\000\000\000\000\000\000"
      }
    }
  }
  node {
    output: "546"
    op_type: "Constant"
    attribute {
      name: "value"
      t {
        dims: 1
        data_type: INT64
        raw_data: "\007\000\000\000\000\000\000\000"
      }
    }
  }
  node {
    input: "351"
    input: "544"
    input: "545"
    input: "546"
    output: "547"
    op_type: "Slice"
  }
  node {
    input: "547"
    output: "548"
    op_type: "Squeeze"
    attribute {
      name: "axes"
      ints: 0
    }
  }
  node {
    input: "8"
    output: "549"
    op_type: "Transpose"
    attribute {
      name: "perm"
      ints: 1
      ints: 0
    }
  }
  node {
    input: "10"
    output: "551"
    op_type: "expand"
    attribute {
      name: "size"
      ints: 5
      ints: 15
    }
  }
  node {
    input: "548"
    input: "549"
    input: "551"
    output: "552"
    op_type: "Gemm"
    attribute {
      name: "alpha"
      f: 1
    }
    attribute {
      name: "beta"
      f: 1
    }
  }
  node {
    input: "9"
    output: "553"
    op_type: "Transpose"
    attribute {
      name: "perm"
      ints: 1
      ints: 0
    }
  }
  node {
    input: "11"
    output: "555"
    op_type: "expand"
    attribute {
      name: "size"
      ints: 5
      ints: 15
    }
  }
  node {
    input: "543"
    input: "553"
    input: "555"
    output: "556"
    op_type: "Gemm"
    attribute {
      name: "alpha"
      f: 1
    }
    attribute {
      name: "beta"
      f: 1
    }
  }
  node {
    input: "552"
    output: "558"
    output: "559"
    output: "560"
    op_type: "Split"
    attribute {
      name: "axis"
      i: 1
    }
    attribute {
      name: "split"
      ints: 5
      ints: 5
      ints: 5
    }
  }
  node {
    input: "556"
    output: "562"
    output: "563"
    output: "564"
    op_type: "Split"
    attribute {
      name: "axis"
      i: 1
    }
    attribute {
      name: "split"
      ints: 5
      ints: 5
      ints: 5
    }
  }
  node {
    input: "558"
    input: "562"
    output: "565"
    op_type: "Add"
  }
  node {
    input: "565"
    output: "566"
    op_type: "Sigmoid"
  }
  node {
    input: "559"
    input: "563"
    output: "567"
    op_type: "Add"
  }
  node {
    input: "567"
    output: "568"
    op_type: "Sigmoid"
  }
  node {
    input: "566"
    input: "564"
    output: "569"
    op_type: "Mul"
  }
  node {
    input: "560"
    input: "569"
    output: "570"
    op_type: "Add"
  }
  node {
    input: "570"
    output: "571"
    op_type: "Tanh"
  }
  node {
    input: "543"
    input: "571"
    output: "572"
    op_type: "Sub"
  }
  node {
    input: "568"
    input: "572"
    output: "573"
    op_type: "Mul"
  }
  node {
    input: "571"
    input: "573"
    output: "574"
    op_type: "Add"
  }
  node {
    output: "575"
    op_type: "Constant"
    attribute {
      name: "value"
      t {
        dims: 1
        data_type: INT32
        raw_data: "\000\000\000\000"
      }
    }
  }
  node {
    output: "576"
    op_type: "Constant"
    attribute {
      name: "value"
      t {
        dims: 1
        data_type: INT64
        raw_data: "\007\000\000\000\000\000\000\000"
      }
    }
  }
  node {
    output: "577"
    op_type: "Constant"
    attribute {
      name: "value"
      t {
        dims: 1
        data_type: INT64
        raw_data: "\010\000\000\000\000\000\000\000"
      }
    }
  }
  node {
    input: "351"
    input: "575"
    input: "576"
    input: "577"
    output: "578"
    op_type: "Slice"
  }
  node {
    input: "578"
    output: "579"
    op_type: "Squeeze"
    attribute {
      name: "axes"
      ints: 0
    }
  }
  node {
    input: "8"
    output: "580"
    op_type: "Transpose"
    attribute {
      name: "perm"
      ints: 1
      ints: 0
    }
  }
  node {
    input: "10"
    output: "582"
    op_type: "expand"
    attribute {
      name: "size"
      ints: 5
      ints: 15
    }
  }
  node {
    input: "579"
    input: "580"
    input: "582"
    output: "583"
    op_type: "Gemm"
    attribute {
      name: "alpha"
      f: 1
    }
    attribute {
      name: "beta"
      f: 1
    }
  }
  node {
    input: "9"
    output: "584"
    op_type: "Transpose"
    attribute {
      name: "perm"
      ints: 1
      ints: 0
    }
  }
  node {
    input: "11"
    output: "586"
    op_type: "expand"
    attribute {
      name: "size"
      ints: 5
      ints: 15
    }
  }
  node {
    input: "574"
    input: "584"
    input: "586"
    output: "587"
    op_type: "Gemm"
    attribute {
      name: "alpha"
      f: 1
    }
    attribute {
      name: "beta"
      f: 1
    }
  }
  node {
    input: "583"
    output: "589"
    output: "590"
    output: "591"
    op_type: "Split"
    attribute {
      name: "axis"
      i: 1
    }
    attribute {
      name: "split"
      ints: 5
      ints: 5
      ints: 5
    }
  }
  node {
    input: "587"
    output: "593"
    output: "594"
    output: "595"
    op_type: "Split"
    attribute {
      name: "axis"
      i: 1
    }
    attribute {
      name: "split"
      ints: 5
      ints: 5
      ints: 5
    }
  }
  node {
    input: "589"
    input: "593"
    output: "596"
    op_type: "Add"
  }
  node {
    input: "596"
    output: "597"
    op_type: "Sigmoid"
  }
  node {
    input: "590"
    input: "594"
    output: "598"
    op_type: "Add"
  }
  node {
    input: "598"
    output: "599"
    op_type: "Sigmoid"
  }
  node {
    input: "597"
    input: "595"
    output: "600"
    op_type: "Mul"
  }
  node {
    input: "591"
    input: "600"
    output: "601"
    op_type: "Add"
  }
  node {
    input: "601"
    output: "602"
    op_type: "Tanh"
  }
  node {
    input: "574"
    input: "602"
    output: "603"
    op_type: "Sub"
  }
  node {
    input: "599"
    input: "603"
    output: "604"
    op_type: "Mul"
  }
  node {
    input: "602"
    input: "604"
    output: "605"
    op_type: "Add"
  }
  node {
    output: "606"
    op_type: "Constant"
    attribute {
      name: "value"
      t {
        dims: 1
        data_type: INT32
        raw_data: "\000\000\000\000"
      }
    }
  }
  node {
    output: "607"
    op_type: "Constant"
    attribute {
      name: "value"
      t {
        dims: 1
        data_type: INT64
        raw_data: "\010\000\000\000\000\000\000\000"
      }
    }
  }
  node {
    output: "608"
    op_type: "Constant"
    attribute {
      name: "value"
      t {
        dims: 1
        data_type: INT64
        raw_data: "\t\000\000\000\000\000\000\000"
      }
    }
  }
  node {
    input: "351"
    input: "606"
    input: "607"
    input: "608"
    output: "609"
    op_type: "Slice"
  }
  node {
    input: "609"
    output: "610"
    op_type: "Squeeze"
    attribute {
      name: "axes"
      ints: 0
    }
  }
  node {
    input: "8"
    output: "611"
    op_type: "Transpose"
    attribute {
      name: "perm"
      ints: 1
      ints: 0
    }
  }
  node {
    input: "10"
    output: "613"
    op_type: "expand"
    attribute {
      name: "size"
      ints: 5
      ints: 15
    }
  }
  node {
    input: "610"
    input: "611"
    input: "613"
    output: "614"
    op_type: "Gemm"
    attribute {
      name: "alpha"
      f: 1
    }
    attribute {
      name: "beta"
      f: 1
    }
  }
  node {
    input: "9"
    output: "615"
    op_type: "Transpose"
    attribute {
      name: "perm"
      ints: 1
      ints: 0
    }
  }
  node {
    input: "11"
    output: "617"
    op_type: "expand"
    attribute {
      name: "size"
      ints: 5
      ints: 15
    }
  }
  node {
    input: "605"
    input: "615"
    input: "617"
    output: "618"
    op_type: "Gemm"
    attribute {
      name: "alpha"
      f: 1
    }
    attribute {
      name: "beta"
      f: 1
    }
  }
  node {
    input: "614"
    output: "620"
    output: "621"
    output: "622"
    op_type: "Split"
    attribute {
      name: "axis"
      i: 1
    }
    attribute {
      name: "split"
      ints: 5
      ints: 5
      ints: 5
    }
  }
  node {
    input: "618"
    output: "624"
    output: "625"
    output: "626"
    op_type: "Split"
    attribute {
      name: "axis"
      i: 1
    }
    attribute {
      name: "split"
      ints: 5
      ints: 5
      ints: 5
    }
  }
  node {
    input: "620"
    input: "624"
    output: "627"
    op_type: "Add"
  }
  node {
    input: "627"
    output: "628"
    op_type: "Sigmoid"
  }
  node {
    input: "621"
    input: "625"
    output: "629"
    op_type: "Add"
  }
  node {
    input: "629"
    output: "630"
    op_type: "Sigmoid"
  }
  node {
    input: "628"
    input: "626"
    output: "631"
    op_type: "Mul"
  }
  node {
    input: "622"
    input: "631"
    output: "632"
    op_type: "Add"
  }
  node {
    input: "632"
    output: "633"
    op_type: "Tanh"
  }
  node {
    input: "605"
    input: "633"
    output: "634"
    op_type: "Sub"
  }
  node {
    input: "630"
    input: "634"
    output: "635"
    op_type: "Mul"
  }
  node {
    input: "633"
    input: "635"
    output: "636"
    op_type: "Add"
  }
  node {
    output: "637"
    op_type: "Constant"
    attribute {
      name: "value"
      t {
        dims: 1
        data_type: INT32
        raw_data: "\000\000\000\000"
      }
    }
  }
  node {
    output: "638"
    op_type: "Constant"
    attribute {
      name: "value"
      t {
        dims: 1
        data_type: INT64
        raw_data: "\t\000\000\000\000\000\000\000"
      }
    }
  }
  node {
    output: "639"
    op_type: "Constant"
    attribute {
      name: "value"
      t {
        dims: 1
        data_type: INT64
        raw_data: "\n\000\000\000\000\000\000\000"
      }
    }
  }
  node {
    input: "351"
    input: "637"
    input: "638"
    input: "639"
    output: "640"
    op_type: "Slice"
  }
  node {
    input: "640"
    output: "641"
    op_type: "Squeeze"
    attribute {
      name: "axes"
      ints: 0
    }
  }
  node {
    input: "8"
    output: "642"
    op_type: "Transpose"
    attribute {
      name: "perm"
      ints: 1
      ints: 0
    }
  }
  node {
    input: "10"
    output: "644"
    op_type: "expand"
    attribute {
      name: "size"
      ints: 5
      ints: 15
    }
  }
  node {
    input: "641"
    input: "642"
    input: "644"
    output: "645"
    op_type: "Gemm"
    attribute {
      name: "alpha"
      f: 1
    }
    attribute {
      name: "beta"
      f: 1
    }
  }
  node {
    input: "9"
    output: "646"
    op_type: "Transpose"
    attribute {
      name: "perm"
      ints: 1
      ints: 0
    }
  }
  node {
    input: "11"
    output: "648"
    op_type: "expand"
    attribute {
      name: "size"
      ints: 5
      ints: 15
    }
  }
  node {
    input: "636"
    input: "646"
    input: "648"
    output: "649"
    op_type: "Gemm"
    attribute {
      name: "alpha"
      f: 1
    }
    attribute {
      name: "beta"
      f: 1
    }
  }
  node {
    input: "645"
    output: "651"
    output: "652"
    output: "653"
    op_type: "Split"
    attribute {
      name: "axis"
      i: 1
    }
    attribute {
      name: "split"
      ints: 5
      ints: 5
      ints: 5
    }
  }
  node {
    input: "649"
    output: "655"
    output: "656"
    output: "657"
    op_type: "Split"
    attribute {
      name: "axis"
      i: 1
    }
    attribute {
      name: "split"
      ints: 5
      ints: 5
      ints: 5
    }
  }
  node {
    input: "651"
    input: "655"
    output: "658"
    op_type: "Add"
  }
  node {
    input: "658"
    output: "659"
    op_type: "Sigmoid"
  }
  node {
    input: "652"
    input: "656"
    output: "660"
    op_type: "Add"
  }
  node {
    input: "660"
    output: "661"
    op_type: "Sigmoid"
  }
  node {
    input: "659"
    input: "657"
    output: "662"
    op_type: "Mul"
  }
  node {
    input: "653"
    input: "662"
    output: "663"
    op_type: "Add"
  }
  node {
    input: "663"
    output: "664"
    op_type: "Tanh"
  }
  node {
    input: "636"
    input: "664"
    output: "665"
    op_type: "Sub"
  }
  node {
    input: "661"
    input: "665"
    output: "666"
    op_type: "Mul"
  }
  node {
    input: "664"
    input: "666"
    output: "667"
    op_type: "Add"
  }
  node {
    input: "388"
    input: "419"
    input: "450"
    input: "481"
    input: "512"
    input: "543"
    input: "574"
    input: "605"
    input: "636"
    input: "667"
    output: "669"
    op_type: "cat"
    attribute {
      name: "dim"
      i: 0
    }
  }
  node {
    input: "669"
    output: "670"
    op_type: "Reshape"
    attribute {
      name: "shape"
      ints: 10
      ints: 5
      ints: 5
    }
  }
  node {
    input: "670"
    output: "672"
    op_type: "cat"
    attribute {
      name: "dim"
      i: 2
    }
  }
  node {
    input: "672"
    output: "674"
    output: "675"
    op_type: "Dropout"
    attribute {
      name: "ratio"
      f: 0.200000002980232
    }
    attribute {
      name: "is_test"
      i: 1
    }
  }
  node {
    output: "676"
    op_type: "Constant"
    attribute {
      name: "value"
      t {
        dims: 1
        data_type: INT32
        raw_data: "\000\000\000\000"
      }
    }
  }
  node {
    output: "677"
    op_type: "Constant"
    attribute {
      name: "value"
      t {
        dims: 1
        data_type: INT64
        raw_data: "\002\000\000\000\000\000\000\000"
      }
    }
  }
  node {
    output: "678"
    op_type: "Constant"
    attribute {
      name: "value"
      t {
        dims: 1
        data_type: INT64
        raw_data: "\003\000\000\000\000\000\000\000"
      }
    }
  }
  node {
    input: "2"
    input: "676"
    input: "677"
    input: "678"
    output: "679"
    op_type: "Slice"
  }
  node {
    input: "679"
    output: "680"
    op_type: "Squeeze"
    attribute {
      name: "axes"
      ints: 0
    }
  }
  node {
    output: "681"
    op_type: "Constant"
    attribute {
      name: "value"
      t {
        dims: 1
        data_type: INT32
        raw_data: "\000\000\000\000"
      }
    }
  }
  node {
    output: "682"
    op_type: "Constant"
    attribute {
      name: "value"
      t {
        dims: 1
        data_type: INT64
        raw_data: "\000\000\000\000\000\000\000\000"
      }
    }
  }
  node {
    output: "683"
    op_type: "Constant"
    attribute {
      name: "value"
      t {
        dims: 1
        data_type: INT64
        raw_data: "\001\000\000\000\000\000\000\000"
      }
    }
  }
  node {
    input: "674"
    input: "681"
    input: "682"
    input: "683"
    output: "684"
    op_type: "Slice"
  }
  node {
    input: "684"
    output: "685"
    op_type: "Squeeze"
    attribute {
      name: "axes"
      ints: 0
    }
  }
  node {
    input: "12"
    output: "686"
    op_type: "Transpose"
    attribute {
      name: "perm"
      ints: 1
      ints: 0
    }
  }
  node {
    input: "14"
    output: "688"
    op_type: "expand"
    attribute {
      name: "size"
      ints: 5
      ints: 15
    }
  }
  node {
    input: "685"
    input: "686"
    input: "688"
    output: "689"
    op_type: "Gemm"
    attribute {
      name: "alpha"
      f: 1
    }
    attribute {
      name: "beta"
      f: 1
    }
  }
  node {
    input: "13"
    output: "690"
    op_type: "Transpose"
    attribute {
      name: "perm"
      ints: 1
      ints: 0
    }
  }
  node {
    input: "15"
    output: "692"
    op_type: "expand"
    attribute {
      name: "size"
      ints: 5
      ints: 15
    }
  }
  node {
    input: "680"
    input: "690"
    input: "692"
    output: "693"
    op_type: "Gemm"
    attribute {
      name: "alpha"
      f: 1
    }
    attribute {
      name: "beta"
      f: 1
    }
  }
  node {
    input: "689"
    output: "695"
    output: "696"
    output: "697"
    op_type: "Split"
    attribute {
      name: "axis"
      i: 1
    }
    attribute {
      name: "split"
      ints: 5
      ints: 5
      ints: 5
    }
  }
  node {
    input: "693"
    output: "699"
    output: "700"
    output: "701"
    op_type: "Split"
    attribute {
      name: "axis"
      i: 1
    }
    attribute {
      name: "split"
      ints: 5
      ints: 5
      ints: 5
    }
  }
  node {
    input: "695"
    input: "699"
    output: "702"
    op_type: "Add"
  }
  node {
    input: "702"
    output: "703"
    op_type: "Sigmoid"
  }
  node {
    input: "696"
    input: "700"
    output: "704"
    op_type: "Add"
  }
  node {
    input: "704"
    output: "705"
    op_type: "Sigmoid"
  }
  node {
    input: "703"
    input: "701"
    output: "706"
    op_type: "Mul"
  }
  node {
    input: "697"
    input: "706"
    output: "707"
    op_type: "Add"
  }
  node {
    input: "707"
    output: "708"
    op_type: "Tanh"
  }
  node {
    input: "680"
    input: "708"
    output: "709"
    op_type: "Sub"
  }
  node {
    input: "705"
    input: "709"
    output: "710"
    op_type: "Mul"
  }
  node {
    input: "708"
    input: "710"
    output: "711"
    op_type: "Add"
  }
  node {
    output: "712"
    op_type: "Constant"
    attribute {
      name: "value"
      t {
        dims: 1
        data_type: INT32
        raw_data: "\000\000\000\000"
      }
    }
  }
  node {
    output: "713"
    op_type: "Constant"
    attribute {
      name: "value"
      t {
        dims: 1
        data_type: INT64
        raw_data: "\001\000\000\000\000\000\000\000"
      }
    }
  }
  node {
    output: "714"
    op_type: "Constant"
    attribute {
      name: "value"
      t {
        dims: 1
        data_type: INT64
        raw_data: "\002\000\000\000\000\000\000\000"
      }
    }
  }
  node {
    input: "674"
    input: "712"
    input: "713"
    input: "714"
    output: "715"
    op_type: "Slice"
  }
  node {
    input: "715"
    output: "716"
    op_type: "Squeeze"
    attribute {
      name: "axes"
      ints: 0
    }
  }
  node {
    input: "12"
    output: "717"
    op_type: "Transpose"
    attribute {
      name: "perm"
      ints: 1
      ints: 0
    }
  }
  node {
    input: "14"
    output: "719"
    op_type: "expand"
    attribute {
      name: "size"
      ints: 5
      ints: 15
    }
  }
  node {
    input: "716"
    input: "717"
    input: "719"
    output: "720"
    op_type: "Gemm"
    attribute {
      name: "alpha"
      f: 1
    }
    attribute {
      name: "beta"
      f: 1
    }
  }
  node {
    input: "13"
    output: "721"
    op_type: "Transpose"
    attribute {
      name: "perm"
      ints: 1
      ints: 0
    }
  }
  node {
    input: "15"
    output: "723"
    op_type: "expand"
    attribute {
      name: "size"
      ints: 5
      ints: 15
    }
  }
  node {
    input: "711"
    input: "721"
    input: "723"
    output: "724"
    op_type: "Gemm"
    attribute {
      name: "alpha"
      f: 1
    }
    attribute {
      name: "beta"
      f: 1
    }
  }
  node {
    input: "720"
    output: "726"
    output: "727"
    output: "728"
    op_type: "Split"
    attribute {
      name: "axis"
      i: 1
    }
    attribute {
      name: "split"
      ints: 5
      ints: 5
      ints: 5
    }
  }
  node {
    input: "724"
    output: "730"
    output: "731"
    output: "732"
    op_type: "Split"
    attribute {
      name: "axis"
      i: 1
    }
    attribute {
      name: "split"
      ints: 5
      ints: 5
      ints: 5
    }
  }
  node {
    input: "726"
    input: "730"
    output: "733"
    op_type: "Add"
  }
  node {
    input: "733"
    output: "734"
    op_type: "Sigmoid"
  }
  node {
    input: "727"
    input: "731"
    output: "735"
    op_type: "Add"
  }
  node {
    input: "735"
    output: "736"
    op_type: "Sigmoid"
  }
  node {
    input: "734"
    input: "732"
    output: "737"
    op_type: "Mul"
  }
  node {
    input: "728"
    input: "737"
    output: "738"
    op_type: "Add"
  }
  node {
    input: "738"
    output: "739"
    op_type: "Tanh"
  }
  node {
    input: "711"
    input: "739"
    output: "740"
    op_type: "Sub"
  }
  node {
    input: "736"
    input: "740"
    output: "741"
    op_type: "Mul"
  }
  node {
    input: "739"
    input: "741"
    output: "742"
    op_type: "Add"
  }
  node {
    output: "743"
    op_type: "Constant"
    attribute {
      name: "value"
      t {
        dims: 1
        data_type: INT32
        raw_data: "\000\000\000\000"
      }
    }
  }
  node {
    output: "744"
    op_type: "Constant"
    attribute {
      name: "value"
      t {
        dims: 1
        data_type: INT64
        raw_data: "\002\000\000\000\000\000\000\000"
      }
    }
  }
  node {
    output: "745"
    op_type: "Constant"
    attribute {
      name: "value"
      t {
        dims: 1
        data_type: INT64
        raw_data: "\003\000\000\000\000\000\000\000"
      }
    }
  }
  node {
    input: "674"
    input: "743"
    input: "744"
    input: "745"
    output: "746"
    op_type: "Slice"
  }
  node {
    input: "746"
    output: "747"
    op_type: "Squeeze"
    attribute {
      name: "axes"
      ints: 0
    }
  }
  node {
    input: "12"
    output: "748"
    op_type: "Transpose"
    attribute {
      name: "perm"
      ints: 1
      ints: 0
    }
  }
  node {
    input: "14"
    output: "750"
    op_type: "expand"
    attribute {
      name: "size"
      ints: 5
      ints: 15
    }
  }
  node {
    input: "747"
    input: "748"
    input: "750"
    output: "751"
    op_type: "Gemm"
    attribute {
      name: "alpha"
      f: 1
    }
    attribute {
      name: "beta"
      f: 1
    }
  }
  node {
    input: "13"
    output: "752"
    op_type: "Transpose"
    attribute {
      name: "perm"
      ints: 1
      ints: 0
    }
  }
  node {
    input: "15"
    output: "754"
    op_type: "expand"
    attribute {
      name: "size"
      ints: 5
      ints: 15
    }
  }
  node {
    input: "742"
    input: "752"
    input: "754"
    output: "755"
    op_type: "Gemm"
    attribute {
      name: "alpha"
      f: 1
    }
    attribute {
      name: "beta"
      f: 1
    }
  }
  node {
    input: "751"
    output: "757"
    output: "758"
    output: "759"
    op_type: "Split"
    attribute {
      name: "axis"
      i: 1
    }
    attribute {
      name: "split"
      ints: 5
      ints: 5
      ints: 5
    }
  }
  node {
    input: "755"
    output: "761"
    output: "762"
    output: "763"
    op_type: "Split"
    attribute {
      name: "axis"
      i: 1
    }
    attribute {
      name: "split"
      ints: 5
      ints: 5
      ints: 5
    }
  }
  node {
    input: "757"
    input: "761"
    output: "764"
    op_type: "Add"
  }
  node {
    input: "764"
    output: "765"
    op_type: "Sigmoid"
  }
  node {
    input: "758"
    input: "762"
    output: "766"
    op_type: "Add"
  }
  node {
    input: "766"
    output: "767"
    op_type: "Sigmoid"
  }
  node {
    input: "765"
    input: "763"
    output: "768"
    op_type: "Mul"
  }
  node {
    input: "759"
    input: "768"
    output: "769"
    op_type: "Add"
  }
  node {
    input: "769"
    output: "770"
    op_type: "Tanh"
  }
  node {
    input: "742"
    input: "770"
    output: "771"
    op_type: "Sub"
  }
  node {
    input: "767"
    input: "771"
    output: "772"
    op_type: "Mul"
  }
  node {
    input: "770"
    input: "772"
    output: "773"
    op_type: "Add"
  }
  node {
    output: "774"
    op_type: "Constant"
    attribute {
      name: "value"
      t {
        dims: 1
        data_type: INT32
        raw_data: "\000\000\000\000"
      }
    }
  }
  node {
    output: "775"
    op_type: "Constant"
    attribute {
      name: "value"
      t {
        dims: 1
        data_type: INT64
        raw_data: "\003\000\000\000\000\000\000\000"
      }
    }
  }
  node {
    output: "776"
    op_type: "Constant"
    attribute {
      name: "value"
      t {
        dims: 1
        data_type: INT64
        raw_data: "\004\000\000\000\000\000\000\000"
      }
    }
  }
  node {
    input: "674"
    input: "774"
    input: "775"
    input: "776"
    output: "777"
    op_type: "Slice"
  }
  node {
    input: "777"
    output: "778"
    op_type: "Squeeze"
    attribute {
      name: "axes"
      ints: 0
    }
  }
  node {
    input: "12"
    output: "779"
    op_type: "Transpose"
    attribute {
      name: "perm"
      ints: 1
      ints: 0
    }
  }
  node {
    input: "14"
    output: "781"
    op_type: "expand"
    attribute {
      name: "size"
      ints: 5
      ints: 15
    }
  }
  node {
    input: "778"
    input: "779"
    input: "781"
    output: "782"
    op_type: "Gemm"
    attribute {
      name: "alpha"
      f: 1
    }
    attribute {
      name: "beta"
      f: 1
    }
  }
  node {
    input: "13"
    output: "783"
    op_type: "Transpose"
    attribute {
      name: "perm"
      ints: 1
      ints: 0
    }
  }
  node {
    input: "15"
    output: "785"
    op_type: "expand"
    attribute {
      name: "size"
      ints: 5
      ints: 15
    }
  }
  node {
    input: "773"
    input: "783"
    input: "785"
    output: "786"
    op_type: "Gemm"
    attribute {
      name: "alpha"
      f: 1
    }
    attribute {
      name: "beta"
      f: 1
    }
  }
  node {
    input: "782"
    output: "788"
    output: "789"
    output: "790"
    op_type: "Split"
    attribute {
      name: "axis"
      i: 1
    }
    attribute {
      name: "split"
      ints: 5
      ints: 5
      ints: 5
    }
  }
  node {
    input: "786"
    output: "792"
    output: "793"
    output: "794"
    op_type: "Split"
    attribute {
      name: "axis"
      i: 1
    }
    attribute {
      name: "split"
      ints: 5
      ints: 5
      ints: 5
    }
  }
  node {
    input: "788"
    input: "792"
    output: "795"
    op_type: "Add"
  }
  node {
    input: "795"
    output: "796"
    op_type: "Sigmoid"
  }
  node {
    input: "789"
    input: "793"
    output: "797"
    op_type: "Add"
  }
  node {
    input: "797"
    output: "798"
    op_type: "Sigmoid"
  }
  node {
    input: "796"
    input: "794"
    output: "799"
    op_type: "Mul"
  }
  node {
    input: "790"
    input: "799"
    output: "800"
    op_type: "Add"
  }
  node {
    input: "800"
    output: "801"
    op_type: "Tanh"
  }
  node {
    input: "773"
    input: "801"
    output: "802"
    op_type: "Sub"
  }
  node {
    input: "798"
    input: "802"
    output: "803"
    op_type: "Mul"
  }
  node {
    input: "801"
    input: "803"
    output: "804"
    op_type: "Add"
  }
  node {
    output: "805"
    op_type: "Constant"
    attribute {
      name: "value"
      t {
        dims: 1
        data_type: INT32
        raw_data: "\000\000\000\000"
      }
    }
  }
  node {
    output: "806"
    op_type: "Constant"
    attribute {
      name: "value"
      t {
        dims: 1
        data_type: INT64
        raw_data: "\004\000\000\000\000\000\000\000"
      }
    }
  }
  node {
    output: "807"
    op_type: "Constant"
    attribute {
      name: "value"
      t {
        dims: 1
        data_type: INT64
        raw_data: "\005\000\000\000\000\000\000\000"
      }
    }
  }
  node {
    input: "674"
    input: "805"
    input: "806"
    input: "807"
    output: "808"
    op_type: "Slice"
  }
  node {
    input: "808"
    output: "809"
    op_type: "Squeeze"
    attribute {
      name: "axes"
      ints: 0
    }
  }
  node {
    input: "12"
    output: "810"
    op_type: "Transpose"
    attribute {
      name: "perm"
      ints: 1
      ints: 0
    }
  }
  node {
    input: "14"
    output: "812"
    op_type: "expand"
    attribute {
      name: "size"
      ints: 5
      ints: 15
    }
  }
  node {
    input: "809"
    input: "810"
    input: "812"
    output: "813"
    op_type: "Gemm"
    attribute {
      name: "alpha"
      f: 1
    }
    attribute {
      name: "beta"
      f: 1
    }
  }
  node {
    input: "13"
    output: "814"
    op_type: "Transpose"
    attribute {
      name: "perm"
      ints: 1
      ints: 0
    }
  }
  node {
    input: "15"
    output: "816"
    op_type: "expand"
    attribute {
      name: "size"
      ints: 5
      ints: 15
    }
  }
  node {
    input: "804"
    input: "814"
    input: "816"
    output: "817"
    op_type: "Gemm"
    attribute {
      name: "alpha"
      f: 1
    }
    attribute {
      name: "beta"
      f: 1
    }
  }
  node {
    input: "813"
    output: "819"
    output: "820"
    output: "821"
    op_type: "Split"
    attribute {
      name: "axis"
      i: 1
    }
    attribute {
      name: "split"
      ints: 5
      ints: 5
      ints: 5
    }
  }
  node {
    input: "817"
    output: "823"
    output: "824"
    output: "825"
    op_type: "Split"
    attribute {
      name: "axis"
      i: 1
    }
    attribute {
      name: "split"
      ints: 5
      ints: 5
      ints: 5
    }
  }
  node {
    input: "819"
    input: "823"
    output: "826"
    op_type: "Add"
  }
  node {
    input: "826"
    output: "827"
    op_type: "Sigmoid"
  }
  node {
    input: "820"
    input: "824"
    output: "828"
    op_type: "Add"
  }
  node {
    input: "828"
    output: "829"
    op_type: "Sigmoid"
  }
  node {
    input: "827"
    input: "825"
    output: "830"
    op_type: "Mul"
  }
  node {
    input: "821"
    input: "830"
    output: "831"
    op_type: "Add"
  }
  node {
    input: "831"
    output: "832"
    op_type: "Tanh"
  }
  node {
    input: "804"
    input: "832"
    output: "833"
    op_type: "Sub"
  }
  node {
    input: "829"
    input: "833"
    output: "834"
    op_type: "Mul"
  }
  node {
    input: "832"
    input: "834"
    output: "835"
    op_type: "Add"
  }
  node {
    output: "836"
    op_type: "Constant"
    attribute {
      name: "value"
      t {
        dims: 1
        data_type: INT32
        raw_data: "\000\000\000\000"
      }
    }
  }
  node {
    output: "837"
    op_type: "Constant"
    attribute {
      name: "value"
      t {
        dims: 1
        data_type: INT64
        raw_data: "\005\000\000\000\000\000\000\000"
      }
    }
  }
  node {
    output: "838"
    op_type: "Constant"
    attribute {
      name: "value"
      t {
        dims: 1
        data_type: INT64
        raw_data: "\006\000\000\000\000\000\000\000"
      }
    }
  }
  node {
    input: "674"
    input: "836"
    input: "837"
    input: "838"
    output: "839"
    op_type: "Slice"
  }
  node {
    input: "839"
    output: "840"
    op_type: "Squeeze"
    attribute {
      name: "axes"
      ints: 0
    }
  }
  node {
    input: "12"
    output: "841"
    op_type: "Transpose"
    attribute {
      name: "perm"
      ints: 1
      ints: 0
    }
  }
  node {
    input: "14"
    output: "843"
    op_type: "expand"
    attribute {
      name: "size"
      ints: 5
      ints: 15
    }
  }
  node {
    input: "840"
    input: "841"
    input: "843"
    output: "844"
    op_type: "Gemm"
    attribute {
      name: "alpha"
      f: 1
    }
    attribute {
      name: "beta"
      f: 1
    }
  }
  node {
    input: "13"
    output: "845"
    op_type: "Transpose"
    attribute {
      name: "perm"
      ints: 1
      ints: 0
    }
  }
  node {
    input: "15"
    output: "847"
    op_type: "expand"
    attribute {
      name: "size"
      ints: 5
      ints: 15
    }
  }
  node {
    input: "835"
    input: "845"
    input: "847"
    output: "848"
    op_type: "Gemm"
    attribute {
      name: "alpha"
      f: 1
    }
    attribute {
      name: "beta"
      f: 1
    }
  }
  node {
    input: "844"
    output: "850"
    output: "851"
    output: "852"
    op_type: "Split"
    attribute {
      name: "axis"
      i: 1
    }
    attribute {
      name: "split"
      ints: 5
      ints: 5
      ints: 5
    }
  }
  node {
    input: "848"
    output: "854"
    output: "855"
    output: "856"
    op_type: "Split"
    attribute {
      name: "axis"
      i: 1
    }
    attribute {
      name: "split"
      ints: 5
      ints: 5
      ints: 5
    }
  }
  node {
    input: "850"
    input: "854"
    output: "857"
    op_type: "Add"
  }
  node {
    input: "857"
    output: "858"
    op_type: "Sigmoid"
  }
  node {
    input: "851"
    input: "855"
    output: "859"
    op_type: "Add"
  }
  node {
    input: "859"
    output: "860"
    op_type: "Sigmoid"
  }
  node {
    input: "858"
    input: "856"
    output: "861"
    op_type: "Mul"
  }
  node {
    input: "852"
    input: "861"
    output: "862"
    op_type: "Add"
  }
  node {
    input: "862"
    output: "863"
    op_type: "Tanh"
  }
  node {
    input: "835"
    input: "863"
    output: "864"
    op_type: "Sub"
  }
  node {
    input: "860"
    input: "864"
    output: "865"
    op_type: "Mul"
  }
  node {
    input: "863"
    input: "865"
    output: "866"
    op_type: "Add"
  }
  node {
    output: "867"
    op_type: "Constant"
    attribute {
      name: "value"
      t {
        dims: 1
        data_type: INT32
        raw_data: "\000\000\000\000"
      }
    }
  }
  node {
    output: "868"
    op_type: "Constant"
    attribute {
      name: "value"
      t {
        dims: 1
        data_type: INT64
        raw_data: "\006\000\000\000\000\000\000\000"
      }
    }
  }
  node {
    output: "869"
    op_type: "Constant"
    attribute {
      name: "value"
      t {
        dims: 1
        data_type: INT64
        raw_data: "\007\000\000\000\000\000\000\000"
      }
    }
  }
  node {
    input: "674"
    input: "867"
    input: "868"
    input: "869"
    output: "870"
    op_type: "Slice"
  }
  node {
    input: "870"
    output: "871"
    op_type: "Squeeze"
    attribute {
      name: "axes"
      ints: 0
    }
  }
  node {
    input: "12"
    output: "872"
    op_type: "Transpose"
    attribute {
      name: "perm"
      ints: 1
      ints: 0
    }
  }
  node {
    input: "14"
    output: "874"
    op_type: "expand"
    attribute {
      name: "size"
      ints: 5
      ints: 15
    }
  }
  node {
    input: "871"
    input: "872"
    input: "874"
    output: "875"
    op_type: "Gemm"
    attribute {
      name: "alpha"
      f: 1
    }
    attribute {
      name: "beta"
      f: 1
    }
  }
  node {
    input: "13"
    output: "876"
    op_type: "Transpose"
    attribute {
      name: "perm"
      ints: 1
      ints: 0
    }
  }
  node {
    input: "15"
    output: "878"
    op_type: "expand"
    attribute {
      name: "size"
      ints: 5
      ints: 15
    }
  }
  node {
    input: "866"
    input: "876"
    input: "878"
    output: "879"
    op_type: "Gemm"
    attribute {
      name: "alpha"
      f: 1
    }
    attribute {
      name: "beta"
      f: 1
    }
  }
  node {
    input: "875"
    output: "881"
    output: "882"
    output: "883"
    op_type: "Split"
    attribute {
      name: "axis"
      i: 1
    }
    attribute {
      name: "split"
      ints: 5
      ints: 5
      ints: 5
    }
  }
  node {
    input: "879"
    output: "885"
    output: "886"
    output: "887"
    op_type: "Split"
    attribute {
      name: "axis"
      i: 1
    }
    attribute {
      name: "split"
      ints: 5
      ints: 5
      ints: 5
    }
  }
  node {
    input: "881"
    input: "885"
    output: "888"
    op_type: "Add"
  }
  node {
    input: "888"
    output: "889"
    op_type: "Sigmoid"
  }
  node {
    input: "882"
    input: "886"
    output: "890"
    op_type: "Add"
  }
  node {
    input: "890"
    output: "891"
    op_type: "Sigmoid"
  }
  node {
    input: "889"
    input: "887"
    output: "892"
    op_type: "Mul"
  }
  node {
    input: "883"
    input: "892"
    output: "893"
    op_type: "Add"
  }
  node {
    input: "893"
    output: "894"
    op_type: "Tanh"
  }
  node {
    input: "866"
    input: "894"
    output: "895"
    op_type: "Sub"
  }
  node {
    input: "891"
    input: "895"
    output: "896"
    op_type: "Mul"
  }
  node {
    input: "894"
    input: "896"
    output: "897"
    op_type: "Add"
  }
  node {
    output: "898"
    op_type: "Constant"
    attribute {
      name: "value"
      t {
        dims: 1
        data_type: INT32
        raw_data: "\000\000\000\000"
      }
    }
  }
  node {
    output: "899"
    op_type: "Constant"
    attribute {
      name: "value"
      t {
        dims: 1
        data_type: INT64
        raw_data: "\007\000\000\000\000\000\000\000"
      }
    }
  }
  node {
    output: "900"
    op_type: "Constant"
    attribute {
      name: "value"
      t {
        dims: 1
        data_type: INT64
        raw_data: "\010\000\000\000\000\000\000\000"
      }
    }
  }
  node {
    input: "674"
    input: "898"
    input: "899"
    input: "900"
    output: "901"
    op_type: "Slice"
  }
  node {
    input: "901"
    output: "902"
    op_type: "Squeeze"
    attribute {
      name: "axes"
      ints: 0
    }
  }
  node {
    input: "12"
    output: "903"
    op_type: "Transpose"
    attribute {
      name: "perm"
      ints: 1
      ints: 0
    }
  }
  node {
    input: "14"
    output: "905"
    op_type: "expand"
    attribute {
      name: "size"
      ints: 5
      ints: 15
    }
  }
  node {
    input: "902"
    input: "903"
    input: "905"
    output: "906"
    op_type: "Gemm"
    attribute {
      name: "alpha"
      f: 1
    }
    attribute {
      name: "beta"
      f: 1
    }
  }
  node {
    input: "13"
    output: "907"
    op_type: "Transpose"
    attribute {
      name: "perm"
      ints: 1
      ints: 0
    }
  }
  node {
    input: "15"
    output: "909"
    op_type: "expand"
    attribute {
      name: "size"
      ints: 5
      ints: 15
    }
  }
  node {
    input: "897"
    input: "907"
    input: "909"
    output: "910"
    op_type: "Gemm"
    attribute {
      name: "alpha"
      f: 1
    }
    attribute {
      name: "beta"
      f: 1
    }
  }
  node {
    input: "906"
    output: "912"
    output: "913"
    output: "914"
    op_type: "Split"
    attribute {
      name: "axis"
      i: 1
    }
    attribute {
      name: "split"
      ints: 5
      ints: 5
      ints: 5
    }
  }
  node {
    input: "910"
    output: "916"
    output: "917"
    output: "918"
    op_type: "Split"
    attribute {
      name: "axis"
      i: 1
    }
    attribute {
      name: "split"
      ints: 5
      ints: 5
      ints: 5
    }
  }
  node {
    input: "912"
    input: "916"
    output: "919"
    op_type: "Add"
  }
  node {
    input: "919"
    output: "920"
    op_type: "Sigmoid"
  }
  node {
    input: "913"
    input: "917"
    output: "921"
    op_type: "Add"
  }
  node {
    input: "921"
    output: "922"
    op_type: "Sigmoid"
  }
  node {
    input: "920"
    input: "918"
    output: "923"
    op_type: "Mul"
  }
  node {
    input: "914"
    input: "923"
    output: "924"
    op_type: "Add"
  }
  node {
    input: "924"
    output: "925"
    op_type: "Tanh"
  }
  node {
    input: "897"
    input: "925"
    output: "926"
    op_type: "Sub"
  }
  node {
    input: "922"
    input: "926"
    output: "927"
    op_type: "Mul"
  }
  node {
    input: "925"
    input: "927"
    output: "928"
    op_type: "Add"
  }
  node {
    output: "929"
    op_type: "Constant"
    attribute {
      name: "value"
      t {
        dims: 1
        data_type: INT32
        raw_data: "\000\000\000\000"
      }
    }
  }
  node {
    output: "930"
    op_type: "Constant"
    attribute {
      name: "value"
      t {
        dims: 1
        data_type: INT64
        raw_data: "\010\000\000\000\000\000\000\000"
      }
    }
  }
  node {
    output: "931"
    op_type: "Constant"
    attribute {
      name: "value"
      t {
        dims: 1
        data_type: INT64
        raw_data: "\t\000\000\000\000\000\000\000"
      }
    }
  }
  node {
    input: "674"
    input: "929"
    input: "930"
    input: "931"
    output: "932"
    op_type: "Slice"
  }
  node {
    input: "932"
    output: "933"
    op_type: "Squeeze"
    attribute {
      name: "axes"
      ints: 0
    }
  }
  node {
    input: "12"
    output: "934"
    op_type: "Transpose"
    attribute {
      name: "perm"
      ints: 1
      ints: 0
    }
  }
  node {
    input: "14"
    output: "936"
    op_type: "expand"
    attribute {
      name: "size"
      ints: 5
      ints: 15
    }
  }
  node {
    input: "933"
    input: "934"
    input: "936"
    output: "937"
    op_type: "Gemm"
    attribute {
      name: "alpha"
      f: 1
    }
    attribute {
      name: "beta"
      f: 1
    }
  }
  node {
    input: "13"
    output: "938"
    op_type: "Transpose"
    attribute {
      name: "perm"
      ints: 1
      ints: 0
    }
  }
  node {
    input: "15"
    output: "940"
    op_type: "expand"
    attribute {
      name: "size"
      ints: 5
      ints: 15
    }
  }
  node {
    input: "928"
    input: "938"
    input: "940"
    output: "941"
    op_type: "Gemm"
    attribute {
      name: "alpha"
      f: 1
    }
    attribute {
      name: "beta"
      f: 1
    }
  }
  node {
    input: "937"
    output: "943"
    output: "944"
    output: "945"
    op_type: "Split"
    attribute {
      name: "axis"
      i: 1
    }
    attribute {
      name: "split"
      ints: 5
      ints: 5
      ints: 5
    }
  }
  node {
    input: "941"
    output: "947"
    output: "948"
    output: "949"
    op_type: "Split"
    attribute {
      name: "axis"
      i: 1
    }
    attribute {
      name: "split"
      ints: 5
      ints: 5
      ints: 5
    }
  }
  node {
    input: "943"
    input: "947"
    output: "950"
    op_type: "Add"
  }
  node {
    input: "950"
    output: "951"
    op_type: "Sigmoid"
  }
  node {
    input: "944"
    input: "948"
    output: "952"
    op_type: "Add"
  }
  node {
    input: "952"
    output: "953"
    op_type: "Sigmoid"
  }
  node {
    input: "951"
    input: "949"
    output: "954"
    op_type: "Mul"
  }
  node {
    input: "945"
    input: "954"
    output: "955"
    op_type: "Add"
  }
  node {
    input: "955"
    output: "956"
    op_type: "Tanh"
  }
  node {
    input: "928"
    input: "956"
    output: "957"
    op_type: "Sub"
  }
  node {
    input: "953"
    input: "957"
    output: "958"
    op_type: "Mul"
  }
  node {
    input: "956"
    input: "958"
    output: "959"
    op_type: "Add"
  }
  node {
    output: "960"
    op_type: "Constant"
    attribute {
      name: "value"
      t {
        dims: 1
        data_type: INT32
        raw_data: "\000\000\000\000"
      }
    }
  }
  node {
    output: "961"
    op_type: "Constant"
    attribute {
      name: "value"
      t {
        dims: 1
        data_type: INT64
        raw_data: "\t\000\000\000\000\000\000\000"
      }
    }
  }
  node {
    output: "962"
    op_type: "Constant"
    attribute {
      name: "value"
      t {
        dims: 1
        data_type: INT64
        raw_data: "\n\000\000\000\000\000\000\000"
      }
    }
  }
  node {
    input: "674"
    input: "960"
    input: "961"
    input: "962"
    output: "963"
    op_type: "Slice"
  }
  node {
    input: "963"
    output: "964"
    op_type: "Squeeze"
    attribute {
      name: "axes"
      ints: 0
    }
  }
  node {
    input: "12"
    output: "965"
    op_type: "Transpose"
    attribute {
      name: "perm"
      ints: 1
      ints: 0
    }
  }
  node {
    input: "14"
    output: "967"
    op_type: "expand"
    attribute {
      name: "size"
      ints: 5
      ints: 15
    }
  }
  node {
    input: "964"
    input: "965"
    input: "967"
    output: "968"
    op_type: "Gemm"
    attribute {
      name: "alpha"
      f: 1
    }
    attribute {
      name: "beta"
      f: 1
    }
  }
  node {
    input: "13"
    output: "969"
    op_type: "Transpose"
    attribute {
      name: "perm"
      ints: 1
      ints: 0
    }
  }
  node {
    input: "15"
    output: "971"
    op_type: "expand"
    attribute {
      name: "size"
      ints: 5
      ints: 15
    }
  }
  node {
    input: "959"
    input: "969"
    input: "971"
    output: "972"
    op_type: "Gemm"
    attribute {
      name: "alpha"
      f: 1
    }
    attribute {
      name: "beta"
      f: 1
    }
  }
  node {
    input: "968"
    output: "974"
    output: "975"
    output: "976"
    op_type: "Split"
    attribute {
      name: "axis"
      i: 1
    }
    attribute {
      name: "split"
      ints: 5
      ints: 5
      ints: 5
    }
  }
  node {
    input: "972"
    output: "978"
    output: "979"
    output: "980"
    op_type: "Split"
    attribute {
      name: "axis"
      i: 1
    }
    attribute {
      name: "split"
      ints: 5
      ints: 5
      ints: 5
    }
  }
  node {
    input: "974"
    input: "978"
    output: "981"
    op_type: "Add"
  }
  node {
    input: "981"
    output: "982"
    op_type: "Sigmoid"
  }
  node {
    input: "975"
    input: "979"
    output: "983"
    op_type: "Add"
  }
  node {
    input: "983"
    output: "984"
    op_type: "Sigmoid"
  }
  node {
    input: "982"
    input: "980"
    output: "985"
    op_type: "Mul"
  }
  node {
    input: "976"
    input: "985"
    output: "986"
    op_type: "Add"
  }
  node {
    input: "986"
    output: "987"
    op_type: "Tanh"
  }
  node {
    input: "959"
    input: "987"
    output: "988"
    op_type: "Sub"
  }
  node {
    input: "984"
    input: "988"
    output: "989"
    op_type: "Mul"
  }
  node {
    input: "987"
    input: "989"
    output: "990"
    op_type: "Add"
  }
  node {
    input: "711"
    input: "742"
    input: "773"
    input: "804"
    input: "835"
    input: "866"
    input: "897"
    input: "928"
    input: "959"
    input: "990"
    output: "992"
    op_type: "cat"
    attribute {
      name: "dim"
      i: 0
    }
  }
  node {
    input: "992"
    output: "993"
    op_type: "Reshape"
    attribute {
      name: "shape"
      ints: 10
      ints: 5
      ints: 5
    }
  }
  node {
    input: "993"
    output: "995"
    op_type: "cat"
    attribute {
      name: "dim"
      i: 2
    }
  }
  node {
    input: "995"
    output: "997"
    output: "998"
    op_type: "Dropout"
    attribute {
      name: "ratio"
      f: 0.200000002980232
    }
    attribute {
      name: "is_test"
      i: 1
    }
  }
  node {
    output: "999"
    op_type: "Constant"
    attribute {
      name: "value"
      t {
        dims: 1
        data_type: INT32
        raw_data: "\000\000\000\000"
      }
    }
  }
  node {
    output: "1000"
    op_type: "Constant"
    attribute {
      name: "value"
      t {
        dims: 1
        data_type: INT64
        raw_data: "\003\000\000\000\000\000\000\000"
      }
    }
  }
  node {
    output: "1001"
    op_type: "Constant"
    attribute {
      name: "value"
      t {
        dims: 1
        data_type: INT64
        raw_data: "\004\000\000\000\000\000\000\000"
      }
    }
  }
  node {
    input: "2"
    input: "999"
    input: "1000"
    input: "1001"
    output: "1002"
    op_type: "Slice"
  }
  node {
    input: "1002"
    output: "1003"
    op_type: "Squeeze"
    attribute {
      name: "axes"
      ints: 0
    }
  }
  node {
    output: "1004"
    op_type: "Constant"
    attribute {
      name: "value"
      t {
        dims: 1
        data_type: INT32
        raw_data: "\000\000\000\000"
      }
    }
  }
  node {
    output: "1005"
    op_type: "Constant"
    attribute {
      name: "value"
      t {
        dims: 1
        data_type: INT64
        raw_data: "\000\000\000\000\000\000\000\000"
      }
    }
  }
  node {
    output: "1006"
    op_type: "Constant"
    attribute {
      name: "value"
      t {
        dims: 1
        data_type: INT64
        raw_data: "\001\000\000\000\000\000\000\000"
      }
    }
  }
  node {
    input: "997"
    input: "1004"
    input: "1005"
    input: "1006"
    output: "1007"
    op_type: "Slice"
  }
  node {
    input: "1007"
    output: "1008"
    op_type: "Squeeze"
    attribute {
      name: "axes"
      ints: 0
    }
  }
  node {
    input: "16"
    output: "1009"
    op_type: "Transpose"
    attribute {
      name: "perm"
      ints: 1
      ints: 0
    }
  }
  node {
    input: "18"
    output: "1011"
    op_type: "expand"
    attribute {
      name: "size"
      ints: 5
      ints: 15
    }
  }
  node {
    input: "1008"
    input: "1009"
    input: "1011"
    output: "1012"
    op_type: "Gemm"
    attribute {
      name: "alpha"
      f: 1
    }
    attribute {
      name: "beta"
      f: 1
    }
  }
  node {
    input: "17"
    output: "1013"
    op_type: "Transpose"
    attribute {
      name: "perm"
      ints: 1
      ints: 0
    }
  }
  node {
    input: "19"
    output: "1015"
    op_type: "expand"
    attribute {
      name: "size"
      ints: 5
      ints: 15
    }
  }
  node {
    input: "1003"
    input: "1013"
    input: "1015"
    output: "1016"
    op_type: "Gemm"
    attribute {
      name: "alpha"
      f: 1
    }
    attribute {
      name: "beta"
      f: 1
    }
  }
  node {
    input: "1012"
    output: "1018"
    output: "1019"
    output: "1020"
    op_type: "Split"
    attribute {
      name: "axis"
      i: 1
    }
    attribute {
      name: "split"
      ints: 5
      ints: 5
      ints: 5
    }
  }
  node {
    input: "1016"
    output: "1022"
    output: "1023"
    output: "1024"
    op_type: "Split"
    attribute {
      name: "axis"
      i: 1
    }
    attribute {
      name: "split"
      ints: 5
      ints: 5
      ints: 5
    }
  }
  node {
    input: "1018"
    input: "1022"
    output: "1025"
    op_type: "Add"
  }
  node {
    input: "1025"
    output: "1026"
    op_type: "Sigmoid"
  }
  node {
    input: "1019"
    input: "1023"
    output: "1027"
    op_type: "Add"
  }
  node {
    input: "1027"
    output: "1028"
    op_type: "Sigmoid"
  }
  node {
    input: "1026"
    input: "1024"
    output: "1029"
    op_type: "Mul"
  }
  node {
    input: "1020"
    input: "1029"
    output: "1030"
    op_type: "Add"
  }
  node {
    input: "1030"
    output: "1031"
    op_type: "Tanh"
  }
  node {
    input: "1003"
    input: "1031"
    output: "1032"
    op_type: "Sub"
  }
  node {
    input: "1028"
    input: "1032"
    output: "1033"
    op_type: "Mul"
  }
  node {
    input: "1031"
    input: "1033"
    output: "1034"
    op_type: "Add"
  }
  node {
    output: "1035"
    op_type: "Constant"
    attribute {
      name: "value"
      t {
        dims: 1
        data_type: INT32
        raw_data: "\000\000\000\000"
      }
    }
  }
  node {
    output: "1036"
    op_type: "Constant"
    attribute {
      name: "value"
      t {
        dims: 1
        data_type: INT64
        raw_data: "\001\000\000\000\000\000\000\000"
      }
    }
  }
  node {
    output: "1037"
    op_type: "Constant"
    attribute {
      name: "value"
      t {
        dims: 1
        data_type: INT64
        raw_data: "\002\000\000\000\000\000\000\000"
      }
    }
  }
  node {
    input: "997"
    input: "1035"
    input: "1036"
    input: "1037"
    output: "1038"
    op_type: "Slice"
  }
  node {
    input: "1038"
    output: "1039"
    op_type: "Squeeze"
    attribute {
      name: "axes"
      ints: 0
    }
  }
  node {
    input: "16"
    output: "1040"
    op_type: "Transpose"
    attribute {
      name: "perm"
      ints: 1
      ints: 0
    }
  }
  node {
    input: "18"
    output: "1042"
    op_type: "expand"
    attribute {
      name: "size"
      ints: 5
      ints: 15
    }
  }
  node {
    input: "1039"
    input: "1040"
    input: "1042"
    output: "1043"
    op_type: "Gemm"
    attribute {
      name: "alpha"
      f: 1
    }
    attribute {
      name: "beta"
      f: 1
    }
  }
  node {
    input: "17"
    output: "1044"
    op_type: "Transpose"
    attribute {
      name: "perm"
      ints: 1
      ints: 0
    }
  }
  node {
    input: "19"
    output: "1046"
    op_type: "expand"
    attribute {
      name: "size"
      ints: 5
      ints: 15
    }
  }
  node {
    input: "1034"
    input: "1044"
    input: "1046"
    output: "1047"
    op_type: "Gemm"
    attribute {
      name: "alpha"
      f: 1
    }
    attribute {
      name: "beta"
      f: 1
    }
  }
  node {
    input: "1043"
    output: "1049"
    output: "1050"
    output: "1051"
    op_type: "Split"
    attribute {
      name: "axis"
      i: 1
    }
    attribute {
      name: "split"
      ints: 5
      ints: 5
      ints: 5
    }
  }
  node {
    input: "1047"
    output: "1053"
    output: "1054"
    output: "1055"
    op_type: "Split"
    attribute {
      name: "axis"
      i: 1
    }
    attribute {
      name: "split"
      ints: 5
      ints: 5
      ints: 5
    }
  }
  node {
    input: "1049"
    input: "1053"
    output: "1056"
    op_type: "Add"
  }
  node {
    input: "1056"
    output: "1057"
    op_type: "Sigmoid"
  }
  node {
    input: "1050"
    input: "1054"
    output: "1058"
    op_type: "Add"
  }
  node {
    input: "1058"
    output: "1059"
    op_type: "Sigmoid"
  }
  node {
    input: "1057"
    input: "1055"
    output: "1060"
    op_type: "Mul"
  }
  node {
    input: "1051"
    input: "1060"
    output: "1061"
    op_type: "Add"
  }
  node {
    input: "1061"
    output: "1062"
    op_type: "Tanh"
  }
  node {
    input: "1034"
    input: "1062"
    output: "1063"
    op_type: "Sub"
  }
  node {
    input: "1059"
    input: "1063"
    output: "1064"
    op_type: "Mul"
  }
  node {
    input: "1062"
    input: "1064"
    output: "1065"
    op_type: "Add"
  }
  node {
    output: "1066"
    op_type: "Constant"
    attribute {
      name: "value"
      t {
        dims: 1
        data_type: INT32
        raw_data: "\000\000\000\000"
      }
    }
  }
  node {
    output: "1067"
    op_type: "Constant"
    attribute {
      name: "value"
      t {
        dims: 1
        data_type: INT64
        raw_data: "\002\000\000\000\000\000\000\000"
      }
    }
  }
  node {
    output: "1068"
    op_type: "Constant"
    attribute {
      name: "value"
      t {
        dims: 1
        data_type: INT64
        raw_data: "\003\000\000\000\000\000\000\000"
      }
    }
  }
  node {
    input: "997"
    input: "1066"
    input: "1067"
    input: "1068"
    output: "1069"
    op_type: "Slice"
  }
  node {
    input: "1069"
    output: "1070"
    op_type: "Squeeze"
    attribute {
      name: "axes"
      ints: 0
    }
  }
  node {
    input: "16"
    output: "1071"
    op_type: "Transpose"
    attribute {
      name: "perm"
      ints: 1
      ints: 0
    }
  }
  node {
    input: "18"
    output: "1073"
    op_type: "expand"
    attribute {
      name: "size"
      ints: 5
      ints: 15
    }
  }
  node {
    input: "1070"
    input: "1071"
    input: "1073"
    output: "1074"
    op_type: "Gemm"
    attribute {
      name: "alpha"
      f: 1
    }
    attribute {
      name: "beta"
      f: 1
    }
  }
  node {
    input: "17"
    output: "1075"
    op_type: "Transpose"
    attribute {
      name: "perm"
      ints: 1
      ints: 0
    }
  }
  node {
    input: "19"
    output: "1077"
    op_type: "expand"
    attribute {
      name: "size"
      ints: 5
      ints: 15
    }
  }
  node {
    input: "1065"
    input: "1075"
    input: "1077"
    output: "1078"
    op_type: "Gemm"
    attribute {
      name: "alpha"
      f: 1
    }
    attribute {
      name: "beta"
      f: 1
    }
  }
  node {
    input: "1074"
    output: "1080"
    output: "1081"
    output: "1082"
    op_type: "Split"
    attribute {
      name: "axis"
      i: 1
    }
    attribute {
      name: "split"
      ints: 5
      ints: 5
      ints: 5
    }
  }
  node {
    input: "1078"
    output: "1084"
    output: "1085"
    output: "1086"
    op_type: "Split"
    attribute {
      name: "axis"
      i: 1
    }
    attribute {
      name: "split"
      ints: 5
      ints: 5
      ints: 5
    }
  }
  node {
    input: "1080"
    input: "1084"
    output: "1087"
    op_type: "Add"
  }
  node {
    input: "1087"
    output: "1088"
    op_type: "Sigmoid"
  }
  node {
    input: "1081"
    input: "1085"
    output: "1089"
    op_type: "Add"
  }
  node {
    input: "1089"
    output: "1090"
    op_type: "Sigmoid"
  }
  node {
    input: "1088"
    input: "1086"
    output: "1091"
    op_type: "Mul"
  }
  node {
    input: "1082"
    input: "1091"
    output: "1092"
    op_type: "Add"
  }
  node {
    input: "1092"
    output: "1093"
    op_type: "Tanh"
  }
  node {
    input: "1065"
    input: "1093"
    output: "1094"
    op_type: "Sub"
  }
  node {
    input: "1090"
    input: "1094"
    output: "1095"
    op_type: "Mul"
  }
  node {
    input: "1093"
    input: "1095"
    output: "1096"
    op_type: "Add"
  }
  node {
    output: "1097"
    op_type: "Constant"
    attribute {
      name: "value"
      t {
        dims: 1
        data_type: INT32
        raw_data: "\000\000\000\000"
      }
    }
  }
  node {
    output: "1098"
    op_type: "Constant"
    attribute {
      name: "value"
      t {
        dims: 1
        data_type: INT64
        raw_data: "\003\000\000\000\000\000\000\000"
      }
    }
  }
  node {
    output: "1099"
    op_type: "Constant"
    attribute {
      name: "value"
      t {
        dims: 1
        data_type: INT64
        raw_data: "\004\000\000\000\000\000\000\000"
      }
    }
  }
  node {
    input: "997"
    input: "1097"
    input: "1098"
    input: "1099"
    output: "1100"
    op_type: "Slice"
  }
  node {
    input: "1100"
    output: "1101"
    op_type: "Squeeze"
    attribute {
      name: "axes"
      ints: 0
    }
  }
  node {
    input: "16"
    output: "1102"
    op_type: "Transpose"
    attribute {
      name: "perm"
      ints: 1
      ints: 0
    }
  }
  node {
    input: "18"
    output: "1104"
    op_type: "expand"
    attribute {
      name: "size"
      ints: 5
      ints: 15
    }
  }
  node {
    input: "1101"
    input: "1102"
    input: "1104"
    output: "1105"
    op_type: "Gemm"
    attribute {
      name: "alpha"
      f: 1
    }
    attribute {
      name: "beta"
      f: 1
    }
  }
  node {
    input: "17"
    output: "1106"
    op_type: "Transpose"
    attribute {
      name: "perm"
      ints: 1
      ints: 0
    }
  }
  node {
    input: "19"
    output: "1108"
    op_type: "expand"
    attribute {
      name: "size"
      ints: 5
      ints: 15
    }
  }
  node {
    input: "1096"
    input: "1106"
    input: "1108"
    output: "1109"
    op_type: "Gemm"
    attribute {
      name: "alpha"
      f: 1
    }
    attribute {
      name: "beta"
      f: 1
    }
  }
  node {
    input: "1105"
    output: "1111"
    output: "1112"
    output: "1113"
    op_type: "Split"
    attribute {
      name: "axis"
      i: 1
    }
    attribute {
      name: "split"
      ints: 5
      ints: 5
      ints: 5
    }
  }
  node {
    input: "1109"
    output: "1115"
    output: "1116"
    output: "1117"
    op_type: "Split"
    attribute {
      name: "axis"
      i: 1
    }
    attribute {
      name: "split"
      ints: 5
      ints: 5
      ints: 5
    }
  }
  node {
    input: "1111"
    input: "1115"
    output: "1118"
    op_type: "Add"
  }
  node {
    input: "1118"
    output: "1119"
    op_type: "Sigmoid"
  }
  node {
    input: "1112"
    input: "1116"
    output: "1120"
    op_type: "Add"
  }
  node {
    input: "1120"
    output: "1121"
    op_type: "Sigmoid"
  }
  node {
    input: "1119"
    input: "1117"
    output: "1122"
    op_type: "Mul"
  }
  node {
    input: "1113"
    input: "1122"
    output: "1123"
    op_type: "Add"
  }
  node {
    input: "1123"
    output: "1124"
    op_type: "Tanh"
  }
  node {
    input: "1096"
    input: "1124"
    output: "1125"
    op_type: "Sub"
  }
  node {
    input: "1121"
    input: "1125"
    output: "1126"
    op_type: "Mul"
  }
  node {
    input: "1124"
    input: "1126"
    output: "1127"
    op_type: "Add"
  }
  node {
    output: "1128"
    op_type: "Constant"
    attribute {
      name: "value"
      t {
        dims: 1
        data_type: INT32
        raw_data: "\000\000\000\000"
      }
    }
  }
  node {
    output: "1129"
    op_type: "Constant"
    attribute {
      name: "value"
      t {
        dims: 1
        data_type: INT64
        raw_data: "\004\000\000\000\000\000\000\000"
      }
    }
  }
  node {
    output: "1130"
    op_type: "Constant"
    attribute {
      name: "value"
      t {
        dims: 1
        data_type: INT64
        raw_data: "\005\000\000\000\000\000\000\000"
      }
    }
  }
  node {
    input: "997"
    input: "1128"
    input: "1129"
    input: "1130"
    output: "1131"
    op_type: "Slice"
  }
  node {
    input: "1131"
    output: "1132"
    op_type: "Squeeze"
    attribute {
      name: "axes"
      ints: 0
    }
  }
  node {
    input: "16"
    output: "1133"
    op_type: "Transpose"
    attribute {
      name: "perm"
      ints: 1
      ints: 0
    }
  }
  node {
    input: "18"
    output: "1135"
    op_type: "expand"
    attribute {
      name: "size"
      ints: 5
      ints: 15
    }
  }
  node {
    input: "1132"
    input: "1133"
    input: "1135"
    output: "1136"
    op_type: "Gemm"
    attribute {
      name: "alpha"
      f: 1
    }
    attribute {
      name: "beta"
      f: 1
    }
  }
  node {
    input: "17"
    output: "1137"
    op_type: "Transpose"
    attribute {
      name: "perm"
      ints: 1
      ints: 0
    }
  }
  node {
    input: "19"
    output: "1139"
    op_type: "expand"
    attribute {
      name: "size"
      ints: 5
      ints: 15
    }
  }
  node {
    input: "1127"
    input: "1137"
    input: "1139"
    output: "1140"
    op_type: "Gemm"
    attribute {
      name: "alpha"
      f: 1
    }
    attribute {
      name: "beta"
      f: 1
    }
  }
  node {
    input: "1136"
    output: "1142"
    output: "1143"
    output: "1144"
    op_type: "Split"
    attribute {
      name: "axis"
      i: 1
    }
    attribute {
      name: "split"
      ints: 5
      ints: 5
      ints: 5
    }
  }
  node {
    input: "1140"
    output: "1146"
    output: "1147"
    output: "1148"
    op_type: "Split"
    attribute {
      name: "axis"
      i: 1
    }
    attribute {
      name: "split"
      ints: 5
      ints: 5
      ints: 5
    }
  }
  node {
    input: "1142"
    input: "1146"
    output: "1149"
    op_type: "Add"
  }
  node {
    input: "1149"
    output: "1150"
    op_type: "Sigmoid"
  }
  node {
    input: "1143"
    input: "1147"
    output: "1151"
    op_type: "Add"
  }
  node {
    input: "1151"
    output: "1152"
    op_type: "Sigmoid"
  }
  node {
    input: "1150"
    input: "1148"
    output: "1153"
    op_type: "Mul"
  }
  node {
    input: "1144"
    input: "1153"
    output: "1154"
    op_type: "Add"
  }
  node {
    input: "1154"
    output: "1155"
    op_type: "Tanh"
  }
  node {
    input: "1127"
    input: "1155"
    output: "1156"
    op_type: "Sub"
  }
  node {
    input: "1152"
    input: "1156"
    output: "1157"
    op_type: "Mul"
  }
  node {
    input: "1155"
    input: "1157"
    output: "1158"
    op_type: "Add"
  }
  node {
    output: "1159"
    op_type: "Constant"
    attribute {
      name: "value"
      t {
        dims: 1
        data_type: INT32
        raw_data: "\000\000\000\000"
      }
    }
  }
  node {
    output: "1160"
    op_type: "Constant"
    attribute {
      name: "value"
      t {
        dims: 1
        data_type: INT64
        raw_data: "\005\000\000\000\000\000\000\000"
      }
    }
  }
  node {
    output: "1161"
    op_type: "Constant"
    attribute {
      name: "value"
      t {
        dims: 1
        data_type: INT64
        raw_data: "\006\000\000\000\000\000\000\000"
      }
    }
  }
  node {
    input: "997"
    input: "1159"
    input: "1160"
    input: "1161"
    output: "1162"
    op_type: "Slice"
  }
  node {
    input: "1162"
    output: "1163"
    op_type: "Squeeze"
    attribute {
      name: "axes"
      ints: 0
    }
  }
  node {
    input: "16"
    output: "1164"
    op_type: "Transpose"
    attribute {
      name: "perm"
      ints: 1
      ints: 0
    }
  }
  node {
    input: "18"
    output: "1166"
    op_type: "expand"
    attribute {
      name: "size"
      ints: 5
      ints: 15
    }
  }
  node {
    input: "1163"
    input: "1164"
    input: "1166"
    output: "1167"
    op_type: "Gemm"
    attribute {
      name: "alpha"
      f: 1
    }
    attribute {
      name: "beta"
      f: 1
    }
  }
  node {
    input: "17"
    output: "1168"
    op_type: "Transpose"
    attribute {
      name: "perm"
      ints: 1
      ints: 0
    }
  }
  node {
    input: "19"
    output: "1170"
    op_type: "expand"
    attribute {
      name: "size"
      ints: 5
      ints: 15
    }
  }
  node {
    input: "1158"
    input: "1168"
    input: "1170"
    output: "1171"
    op_type: "Gemm"
    attribute {
      name: "alpha"
      f: 1
    }
    attribute {
      name: "beta"
      f: 1
    }
  }
  node {
    input: "1167"
    output: "1173"
    output: "1174"
    output: "1175"
    op_type: "Split"
    attribute {
      name: "axis"
      i: 1
    }
    attribute {
      name: "split"
      ints: 5
      ints: 5
      ints: 5
    }
  }
  node {
    input: "1171"
    output: "1177"
    output: "1178"
    output: "1179"
    op_type: "Split"
    attribute {
      name: "axis"
      i: 1
    }
    attribute {
      name: "split"
      ints: 5
      ints: 5
      ints: 5
    }
  }
  node {
    input: "1173"
    input: "1177"
    output: "1180"
    op_type: "Add"
  }
  node {
    input: "1180"
    output: "1181"
    op_type: "Sigmoid"
  }
  node {
    input: "1174"
    input: "1178"
    output: "1182"
    op_type: "Add"
  }
  node {
    input: "1182"
    output: "1183"
    op_type: "Sigmoid"
  }
  node {
    input: "1181"
    input: "1179"
    output: "1184"
    op_type: "Mul"
  }
  node {
    input: "1175"
    input: "1184"
    output: "1185"
    op_type: "Add"
  }
  node {
    input: "1185"
    output: "1186"
    op_type: "Tanh"
  }
  node {
    input: "1158"
    input: "1186"
    output: "1187"
    op_type: "Sub"
  }
  node {
    input: "1183"
    input: "1187"
    output: "1188"
    op_type: "Mul"
  }
  node {
    input: "1186"
    input: "1188"
    output: "1189"
    op_type: "Add"
  }
  node {
    output: "1190"
    op_type: "Constant"
    attribute {
      name: "value"
      t {
        dims: 1
        data_type: INT32
        raw_data: "\000\000\000\000"
      }
    }
  }
  node {
    output: "1191"
    op_type: "Constant"
    attribute {
      name: "value"
      t {
        dims: 1
        data_type: INT64
        raw_data: "\006\000\000\000\000\000\000\000"
      }
    }
  }
  node {
    output: "1192"
    op_type: "Constant"
    attribute {
      name: "value"
      t {
        dims: 1
        data_type: INT64
        raw_data: "\007\000\000\000\000\000\000\000"
      }
    }
  }
  node {
    input: "997"
    input: "1190"
    input: "1191"
    input: "1192"
    output: "1193"
    op_type: "Slice"
  }
  node {
    input: "1193"
    output: "1194"
    op_type: "Squeeze"
    attribute {
      name: "axes"
      ints: 0
    }
  }
  node {
    input: "16"
    output: "1195"
    op_type: "Transpose"
    attribute {
      name: "perm"
      ints: 1
      ints: 0
    }
  }
  node {
    input: "18"
    output: "1197"
    op_type: "expand"
    attribute {
      name: "size"
      ints: 5
      ints: 15
    }
  }
  node {
    input: "1194"
    input: "1195"
    input: "1197"
    output: "1198"
    op_type: "Gemm"
    attribute {
      name: "alpha"
      f: 1
    }
    attribute {
      name: "beta"
      f: 1
    }
  }
  node {
    input: "17"
    output: "1199"
    op_type: "Transpose"
    attribute {
      name: "perm"
      ints: 1
      ints: 0
    }
  }
  node {
    input: "19"
    output: "1201"
    op_type: "expand"
    attribute {
      name: "size"
      ints: 5
      ints: 15
    }
  }
  node {
    input: "1189"
    input: "1199"
    input: "1201"
    output: "1202"
    op_type: "Gemm"
    attribute {
      name: "alpha"
      f: 1
    }
    attribute {
      name: "beta"
      f: 1
    }
  }
  node {
    input: "1198"
    output: "1204"
    output: "1205"
    output: "1206"
    op_type: "Split"
    attribute {
      name: "axis"
      i: 1
    }
    attribute {
      name: "split"
      ints: 5
      ints: 5
      ints: 5
    }
  }
  node {
    input: "1202"
    output: "1208"
    output: "1209"
    output: "1210"
    op_type: "Split"
    attribute {
      name: "axis"
      i: 1
    }
    attribute {
      name: "split"
      ints: 5
      ints: 5
      ints: 5
    }
  }
  node {
    input: "1204"
    input: "1208"
    output: "1211"
    op_type: "Add"
  }
  node {
    input: "1211"
    output: "1212"
    op_type: "Sigmoid"
  }
  node {
    input: "1205"
    input: "1209"
    output: "1213"
    op_type: "Add"
  }
  node {
    input: "1213"
    output: "1214"
    op_type: "Sigmoid"
  }
  node {
    input: "1212"
    input: "1210"
    output: "1215"
    op_type: "Mul"
  }
  node {
    input: "1206"
    input: "1215"
    output: "1216"
    op_type: "Add"
  }
  node {
    input: "1216"
    output: "1217"
    op_type: "Tanh"
  }
  node {
    input: "1189"
    input: "1217"
    output: "1218"
    op_type: "Sub"
  }
  node {
    input: "1214"
    input: "1218"
    output: "1219"
    op_type: "Mul"
  }
  node {
    input: "1217"
    input: "1219"
    output: "1220"
    op_type: "Add"
  }
  node {
    output: "1221"
    op_type: "Constant"
    attribute {
      name: "value"
      t {
        dims: 1
        data_type: INT32
        raw_data: "\000\000\000\000"
      }
    }
  }
  node {
    output: "1222"
    op_type: "Constant"
    attribute {
      name: "value"
      t {
        dims: 1
        data_type: INT64
        raw_data: "\007\000\000\000\000\000\000\000"
      }
    }
  }
  node {
    output: "1223"
    op_type: "Constant"
    attribute {
      name: "value"
      t {
        dims: 1
        data_type: INT64
        raw_data: "\010\000\000\000\000\000\000\000"
      }
    }
  }
  node {
    input: "997"
    input: "1221"
    input: "1222"
    input: "1223"
    output: "1224"
    op_type: "Slice"
  }
  node {
    input: "1224"
    output: "1225"
    op_type: "Squeeze"
    attribute {
      name: "axes"
      ints: 0
    }
  }
  node {
    input: "16"
    output: "1226"
    op_type: "Transpose"
    attribute {
      name: "perm"
      ints: 1
      ints: 0
    }
  }
  node {
    input: "18"
    output: "1228"
    op_type: "expand"
    attribute {
      name: "size"
      ints: 5
      ints: 15
    }
  }
  node {
    input: "1225"
    input: "1226"
    input: "1228"
    output: "1229"
    op_type: "Gemm"
    attribute {
      name: "alpha"
      f: 1
    }
    attribute {
      name: "beta"
      f: 1
    }
  }
  node {
    input: "17"
    output: "1230"
    op_type: "Transpose"
    attribute {
      name: "perm"
      ints: 1
      ints: 0
    }
  }
  node {
    input: "19"
    output: "1232"
    op_type: "expand"
    attribute {
      name: "size"
      ints: 5
      ints: 15
    }
  }
  node {
    input: "1220"
    input: "1230"
    input: "1232"
    output: "1233"
    op_type: "Gemm"
    attribute {
      name: "alpha"
      f: 1
    }
    attribute {
      name: "beta"
      f: 1
    }
  }
  node {
    input: "1229"
    output: "1235"
    output: "1236"
    output: "1237"
    op_type: "Split"
    attribute {
      name: "axis"
      i: 1
    }
    attribute {
      name: "split"
      ints: 5
      ints: 5
      ints: 5
    }
  }
  node {
    input: "1233"
    output: "1239"
    output: "1240"
    output: "1241"
    op_type: "Split"
    attribute {
      name: "axis"
      i: 1
    }
    attribute {
      name: "split"
      ints: 5
      ints: 5
      ints: 5
    }
  }
  node {
    input: "1235"
    input: "1239"
    output: "1242"
    op_type: "Add"
  }
  node {
    input: "1242"
    output: "1243"
    op_type: "Sigmoid"
  }
  node {
    input: "1236"
    input: "1240"
    output: "1244"
    op_type: "Add"
  }
  node {
    input: "1244"
    output: "1245"
    op_type: "Sigmoid"
  }
  node {
    input: "1243"
    input: "1241"
    output: "1246"
    op_type: "Mul"
  }
  node {
    input: "1237"
    input: "1246"
    output: "1247"
    op_type: "Add"
  }
  node {
    input: "1247"
    output: "1248"
    op_type: "Tanh"
  }
  node {
    input: "1220"
    input: "1248"
    output: "1249"
    op_type: "Sub"
  }
  node {
    input: "1245"
    input: "1249"
    output: "1250"
    op_type: "Mul"
  }
  node {
    input: "1248"
    input: "1250"
    output: "1251"
    op_type: "Add"
  }
  node {
    output: "1252"
    op_type: "Constant"
    attribute {
      name: "value"
      t {
        dims: 1
        data_type: INT32
        raw_data: "\000\000\000\000"
      }
    }
  }
  node {
    output: "1253"
    op_type: "Constant"
    attribute {
      name: "value"
      t {
        dims: 1
        data_type: INT64
        raw_data: "\010\000\000\000\000\000\000\000"
      }
    }
  }
  node {
    output: "1254"
    op_type: "Constant"
    attribute {
      name: "value"
      t {
        dims: 1
        data_type: INT64
        raw_data: "\t\000\000\000\000\000\000\000"
      }
    }
  }
  node {
    input: "997"
    input: "1252"
    input: "1253"
    input: "1254"
    output: "1255"
    op_type: "Slice"
  }
  node {
    input: "1255"
    output: "1256"
    op_type: "Squeeze"
    attribute {
      name: "axes"
      ints: 0
    }
  }
  node {
    input: "16"
    output: "1257"
    op_type: "Transpose"
    attribute {
      name: "perm"
      ints: 1
      ints: 0
    }
  }
  node {
    input: "18"
    output: "1259"
    op_type: "expand"
    attribute {
      name: "size"
      ints: 5
      ints: 15
    }
  }
  node {
    input: "1256"
    input: "1257"
    input: "1259"
    output: "1260"
    op_type: "Gemm"
    attribute {
      name: "alpha"
      f: 1
    }
    attribute {
      name: "beta"
      f: 1
    }
  }
  node {
    input: "17"
    output: "1261"
    op_type: "Transpose"
    attribute {
      name: "perm"
      ints: 1
      ints: 0
    }
  }
  node {
    input: "19"
    output: "1263"
    op_type: "expand"
    attribute {
      name: "size"
      ints: 5
      ints: 15
    }
  }
  node {
    input: "1251"
    input: "1261"
    input: "1263"
    output: "1264"
    op_type: "Gemm"
    attribute {
      name: "alpha"
      f: 1
    }
    attribute {
      name: "beta"
      f: 1
    }
  }
  node {
    input: "1260"
    output: "1266"
    output: "1267"
    output: "1268"
    op_type: "Split"
    attribute {
      name: "axis"
      i: 1
    }
    attribute {
      name: "split"
      ints: 5
      ints: 5
      ints: 5
    }
  }
  node {
    input: "1264"
    output: "1270"
    output: "1271"
    output: "1272"
    op_type: "Split"
    attribute {
      name: "axis"
      i: 1
    }
    attribute {
      name: "split"
      ints: 5
      ints: 5
      ints: 5
    }
  }
  node {
    input: "1266"
    input: "1270"
    output: "1273"
    op_type: "Add"
  }
  node {
    input: "1273"
    output: "1274"
    op_type: "Sigmoid"
  }
  node {
    input: "1267"
    input: "1271"
    output: "1275"
    op_type: "Add"
  }
  node {
    input: "1275"
    output: "1276"
    op_type: "Sigmoid"
  }
  node {
    input: "1274"
    input: "1272"
    output: "1277"
    op_type: "Mul"
  }
  node {
    input: "1268"
    input: "1277"
    output: "1278"
    op_type: "Add"
  }
  node {
    input: "1278"
    output: "1279"
    op_type: "Tanh"
  }
  node {
    input: "1251"
    input: "1279"
    output: "1280"
    op_type: "Sub"
  }
  node {
    input: "1276"
    input: "1280"
    output: "1281"
    op_type: "Mul"
  }
  node {
    input: "1279"
    input: "1281"
    output: "1282"
    op_type: "Add"
  }
  node {
    output: "1283"
    op_type: "Constant"
    attribute {
      name: "value"
      t {
        dims: 1
        data_type: INT32
        raw_data: "\000\000\000\000"
      }
    }
  }
  node {
    output: "1284"
    op_type: "Constant"
    attribute {
      name: "value"
      t {
        dims: 1
        data_type: INT64
        raw_data: "\t\000\000\000\000\000\000\000"
      }
    }
  }
  node {
    output: "1285"
    op_type: "Constant"
    attribute {
      name: "value"
      t {
        dims: 1
        data_type: INT64
        raw_data: "\n\000\000\000\000\000\000\000"
      }
    }
  }
  node {
    input: "997"
    input: "1283"
    input: "1284"
    input: "1285"
    output: "1286"
    op_type: "Slice"
  }
  node {
    input: "1286"
    output: "1287"
    op_type: "Squeeze"
    attribute {
      name: "axes"
      ints: 0
    }
  }
  node {
    input: "16"
    output: "1288"
    op_type: "Transpose"
    attribute {
      name: "perm"
      ints: 1
      ints: 0
    }
  }
  node {
    input: "18"
    output: "1290"
    op_type: "expand"
    attribute {
      name: "size"
      ints: 5
      ints: 15
    }
  }
  node {
    input: "1287"
    input: "1288"
    input: "1290"
    output: "1291"
    op_type: "Gemm"
    attribute {
      name: "alpha"
      f: 1
    }
    attribute {
      name: "beta"
      f: 1
    }
  }
  node {
    input: "17"
    output: "1292"
    op_type: "Transpose"
    attribute {
      name: "perm"
      ints: 1
      ints: 0
    }
  }
  node {
    input: "19"
    output: "1294"
    op_type: "expand"
    attribute {
      name: "size"
      ints: 5
      ints: 15
    }
  }
  node {
    input: "1282"
    input: "1292"
    input: "1294"
    output: "1295"
    op_type: "Gemm"
    attribute {
      name: "alpha"
      f: 1
    }
    attribute {
      name: "beta"
      f: 1
    }
  }
  node {
    input: "1291"
    output: "1297"
    output: "1298"
    output: "1299"
    op_type: "Split"
    attribute {
      name: "axis"
      i: 1
    }
    attribute {
      name: "split"
      ints: 5
      ints: 5
      ints: 5
    }
  }
  node {
    input: "1295"
    output: "1301"
    output: "1302"
    output: "1303"
    op_type: "Split"
    attribute {
      name: "axis"
      i: 1
    }
    attribute {
      name: "split"
      ints: 5
      ints: 5
      ints: 5
    }
  }
  node {
    input: "1297"
    input: "1301"
    output: "1304"
    op_type: "Add"
  }
  node {
    input: "1304"
    output: "1305"
    op_type: "Sigmoid"
  }
  node {
    input: "1298"
    input: "1302"
    output: "1306"
    op_type: "Add"
  }
  node {
    input: "1306"
    output: "1307"
    op_type: "Sigmoid"
  }
  node {
    input: "1305"
    input: "1303"
    output: "1308"
    op_type: "Mul"
  }
  node {
    input: "1299"
    input: "1308"
    output: "1309"
    op_type: "Add"
  }
  node {
    input: "1309"
    output: "1310"
    op_type: "Tanh"
  }
  node {
    input: "1282"
    input: "1310"
    output: "1311"
    op_type: "Sub"
  }
  node {
    input: "1307"
    input: "1311"
    output: "1312"
    op_type: "Mul"
  }
  node {
    input: "1310"
    input: "1312"
    output: "1313"
    op_type: "Add"
  }
  node {
    input: "1034"
    input: "1065"
    input: "1096"
    input: "1127"
    input: "1158"
    input: "1189"
    input: "1220"
    input: "1251"
    input: "1282"
    input: "1313"
    output: "1315"
    op_type: "cat"
    attribute {
      name: "dim"
      i: 0
    }
  }
  node {
    input: "1315"
    output: "1316"
    op_type: "Reshape"
    attribute {
      name: "shape"
      ints: 10
      ints: 5
      ints: 5
    }
  }
  node {
    input: "1316"
    output: "1318"
    op_type: "cat"
    attribute {
      name: "dim"
      i: 2
    }
  }
  node {
    input: "1318"
    output: "1320"
    output: "1321"
    op_type: "Dropout"
    attribute {
      name: "ratio"
      f: 0.200000002980232
    }
    attribute {
      name: "is_test"
      i: 1
    }
  }
  node {
    output: "1322"
    op_type: "Constant"
    attribute {
      name: "value"
      t {
        dims: 1
        data_type: INT32
        raw_data: "\000\000\000\000"
      }
    }
  }
  node {
    output: "1323"
    op_type: "Constant"
    attribute {
      name: "value"
      t {
        dims: 1
        data_type: INT64
        raw_data: "\004\000\000\000\000\000\000\000"
      }
    }
  }
  node {
    output: "1324"
    op_type: "Constant"
    attribute {
      name: "value"
      t {
        dims: 1
        data_type: INT64
        raw_data: "\005\000\000\000\000\000\000\000"
      }
    }
  }
  node {
    input: "2"
    input: "1322"
    input: "1323"
    input: "1324"
    output: "1325"
    op_type: "Slice"
  }
  node {
    input: "1325"
    output: "1326"
    op_type: "Squeeze"
    attribute {
      name: "axes"
      ints: 0
    }
  }
  node {
    output: "1327"
    op_type: "Constant"
    attribute {
      name: "value"
      t {
        dims: 1
        data_type: INT32
        raw_data: "\000\000\000\000"
      }
    }
  }
  node {
    output: "1328"
    op_type: "Constant"
    attribute {
      name: "value"
      t {
        dims: 1
        data_type: INT64
        raw_data: "\000\000\000\000\000\000\000\000"
      }
    }
  }
  node {
    output: "1329"
    op_type: "Constant"
    attribute {
      name: "value"
      t {
        dims: 1
        data_type: INT64
        raw_data: "\001\000\000\000\000\000\000\000"
      }
    }
  }
  node {
    input: "1320"
    input: "1327"
    input: "1328"
    input: "1329"
    output: "1330"
    op_type: "Slice"
  }
  node {
    input: "1330"
    output: "1331"
    op_type: "Squeeze"
    attribute {
      name: "axes"
      ints: 0
    }
  }
  node {
    input: "20"
    output: "1332"
    op_type: "Transpose"
    attribute {
      name: "perm"
      ints: 1
      ints: 0
    }
  }
  node {
    input: "22"
    output: "1334"
    op_type: "expand"
    attribute {
      name: "size"
      ints: 5
      ints: 15
    }
  }
  node {
    input: "1331"
    input: "1332"
    input: "1334"
    output: "1335"
    op_type: "Gemm"
    attribute {
      name: "alpha"
      f: 1
    }
    attribute {
      name: "beta"
      f: 1
    }
  }
  node {
    input: "21"
    output: "1336"
    op_type: "Transpose"
    attribute {
      name: "perm"
      ints: 1
      ints: 0
    }
  }
  node {
    input: "23"
    output: "1338"
    op_type: "expand"
    attribute {
      name: "size"
      ints: 5
      ints: 15
    }
  }
  node {
    input: "1326"
    input: "1336"
    input: "1338"
    output: "1339"
    op_type: "Gemm"
    attribute {
      name: "alpha"
      f: 1
    }
    attribute {
      name: "beta"
      f: 1
    }
  }
  node {
    input: "1335"
    output: "1341"
    output: "1342"
    output: "1343"
    op_type: "Split"
    attribute {
      name: "axis"
      i: 1
    }
    attribute {
      name: "split"
      ints: 5
      ints: 5
      ints: 5
    }
  }
  node {
    input: "1339"
    output: "1345"
    output: "1346"
    output: "1347"
    op_type: "Split"
    attribute {
      name: "axis"
      i: 1
    }
    attribute {
      name: "split"
      ints: 5
      ints: 5
      ints: 5
    }
  }
  node {
    input: "1341"
    input: "1345"
    output: "1348"
    op_type: "Add"
  }
  node {
    input: "1348"
    output: "1349"
    op_type: "Sigmoid"
  }
  node {
    input: "1342"
    input: "1346"
    output: "1350"
    op_type: "Add"
  }
  node {
    input: "1350"
    output: "1351"
    op_type: "Sigmoid"
  }
  node {
    input: "1349"
    input: "1347"
    output: "1352"
    op_type: "Mul"
  }
  node {
    input: "1343"
    input: "1352"
    output: "1353"
    op_type: "Add"
  }
  node {
    input: "1353"
    output: "1354"
    op_type: "Tanh"
  }
  node {
    input: "1326"
    input: "1354"
    output: "1355"
    op_type: "Sub"
  }
  node {
    input: "1351"
    input: "1355"
    output: "1356"
    op_type: "Mul"
  }
  node {
    input: "1354"
    input: "1356"
    output: "1357"
    op_type: "Add"
  }
  node {
    output: "1358"
    op_type: "Constant"
    attribute {
      name: "value"
      t {
        dims: 1
        data_type: INT32
        raw_data: "\000\000\000\000"
      }
    }
  }
  node {
    output: "1359"
    op_type: "Constant"
    attribute {
      name: "value"
      t {
        dims: 1
        data_type: INT64
        raw_data: "\001\000\000\000\000\000\000\000"
      }
    }
  }
  node {
    output: "1360"
    op_type: "Constant"
    attribute {
      name: "value"
      t {
        dims: 1
        data_type: INT64
        raw_data: "\002\000\000\000\000\000\000\000"
      }
    }
  }
  node {
    input: "1320"
    input: "1358"
    input: "1359"
    input: "1360"
    output: "1361"
    op_type: "Slice"
  }
  node {
    input: "1361"
    output: "1362"
    op_type: "Squeeze"
    attribute {
      name: "axes"
      ints: 0
    }
  }
  node {
    input: "20"
    output: "1363"
    op_type: "Transpose"
    attribute {
      name: "perm"
      ints: 1
      ints: 0
    }
  }
  node {
    input: "22"
    output: "1365"
    op_type: "expand"
    attribute {
      name: "size"
      ints: 5
      ints: 15
    }
  }
  node {
    input: "1362"
    input: "1363"
    input: "1365"
    output: "1366"
    op_type: "Gemm"
    attribute {
      name: "alpha"
      f: 1
    }
    attribute {
      name: "beta"
      f: 1
    }
  }
  node {
    input: "21"
    output: "1367"
    op_type: "Transpose"
    attribute {
      name: "perm"
      ints: 1
      ints: 0
    }
  }
  node {
    input: "23"
    output: "1369"
    op_type: "expand"
    attribute {
      name: "size"
      ints: 5
      ints: 15
    }
  }
  node {
    input: "1357"
    input: "1367"
    input: "1369"
    output: "1370"
    op_type: "Gemm"
    attribute {
      name: "alpha"
      f: 1
    }
    attribute {
      name: "beta"
      f: 1
    }
  }
  node {
    input: "1366"
    output: "1372"
    output: "1373"
    output: "1374"
    op_type: "Split"
    attribute {
      name: "axis"
      i: 1
    }
    attribute {
      name: "split"
      ints: 5
      ints: 5
      ints: 5
    }
  }
  node {
    input: "1370"
    output: "1376"
    output: "1377"
    output: "1378"
    op_type: "Split"
    attribute {
      name: "axis"
      i: 1
    }
    attribute {
      name: "split"
      ints: 5
      ints: 5
      ints: 5
    }
  }
  node {
    input: "1372"
    input: "1376"
    output: "1379"
    op_type: "Add"
  }
  node {
    input: "1379"
    output: "1380"
    op_type: "Sigmoid"
  }
  node {
    input: "1373"
    input: "1377"
    output: "1381"
    op_type: "Add"
  }
  node {
    input: "1381"
    output: "1382"
    op_type: "Sigmoid"
  }
  node {
    input: "1380"
    input: "1378"
    output: "1383"
    op_type: "Mul"
  }
  node {
    input: "1374"
    input: "1383"
    output: "1384"
    op_type: "Add"
  }
  node {
    input: "1384"
    output: "1385"
    op_type: "Tanh"
  }
  node {
    input: "1357"
    input: "1385"
    output: "1386"
    op_type: "Sub"
  }
  node {
    input: "1382"
    input: "1386"
    output: "1387"
    op_type: "Mul"
  }
  node {
    input: "1385"
    input: "1387"
    output: "1388"
    op_type: "Add"
  }
  node {
    output: "1389"
    op_type: "Constant"
    attribute {
      name: "value"
      t {
        dims: 1
        data_type: INT32
        raw_data: "\000\000\000\000"
      }
    }
  }
  node {
    output: "1390"
    op_type: "Constant"
    attribute {
      name: "value"
      t {
        dims: 1
        data_type: INT64
        raw_data: "\002\000\000\000\000\000\000\000"
      }
    }
  }
  node {
    output: "1391"
    op_type: "Constant"
    attribute {
      name: "value"
      t {
        dims: 1
        data_type: INT64
        raw_data: "\003\000\000\000\000\000\000\000"
      }
    }
  }
  node {
    input: "1320"
    input: "1389"
    input: "1390"
    input: "1391"
    output: "1392"
    op_type: "Slice"
  }
  node {
    input: "1392"
    output: "1393"
    op_type: "Squeeze"
    attribute {
      name: "axes"
      ints: 0
    }
  }
  node {
    input: "20"
    output: "1394"
    op_type: "Transpose"
    attribute {
      name: "perm"
      ints: 1
      ints: 0
    }
  }
  node {
    input: "22"
    output: "1396"
    op_type: "expand"
    attribute {
      name: "size"
      ints: 5
      ints: 15
    }
  }
  node {
    input: "1393"
    input: "1394"
    input: "1396"
    output: "1397"
    op_type: "Gemm"
    attribute {
      name: "alpha"
      f: 1
    }
    attribute {
      name: "beta"
      f: 1
    }
  }
  node {
    input: "21"
    output: "1398"
    op_type: "Transpose"
    attribute {
      name: "perm"
      ints: 1
      ints: 0
    }
  }
  node {
    input: "23"
    output: "1400"
    op_type: "expand"
    attribute {
      name: "size"
      ints: 5
      ints: 15
    }
  }
  node {
    input: "1388"
    input: "1398"
    input: "1400"
    output: "1401"
    op_type: "Gemm"
    attribute {
      name: "alpha"
      f: 1
    }
    attribute {
      name: "beta"
      f: 1
    }
  }
  node {
    input: "1397"
    output: "1403"
    output: "1404"
    output: "1405"
    op_type: "Split"
    attribute {
      name: "axis"
      i: 1
    }
    attribute {
      name: "split"
      ints: 5
      ints: 5
      ints: 5
    }
  }
  node {
    input: "1401"
    output: "1407"
    output: "1408"
    output: "1409"
    op_type: "Split"
    attribute {
      name: "axis"
      i: 1
    }
    attribute {
      name: "split"
      ints: 5
      ints: 5
      ints: 5
    }
  }
  node {
    input: "1403"
    input: "1407"
    output: "1410"
    op_type: "Add"
  }
  node {
    input: "1410"
    output: "1411"
    op_type: "Sigmoid"
  }
  node {
    input: "1404"
    input: "1408"
    output: "1412"
    op_type: "Add"
  }
  node {
    input: "1412"
    output: "1413"
    op_type: "Sigmoid"
  }
  node {
    input: "1411"
    input: "1409"
    output: "1414"
    op_type: "Mul"
  }
  node {
    input: "1405"
    input: "1414"
    output: "1415"
    op_type: "Add"
  }
  node {
    input: "1415"
    output: "1416"
    op_type: "Tanh"
  }
  node {
    input: "1388"
    input: "1416"
    output: "1417"
    op_type: "Sub"
  }
  node {
    input: "1413"
    input: "1417"
    output: "1418"
    op_type: "Mul"
  }
  node {
    input: "1416"
    input: "1418"
    output: "1419"
    op_type: "Add"
  }
  node {
    output: "1420"
    op_type: "Constant"
    attribute {
      name: "value"
      t {
        dims: 1
        data_type: INT32
        raw_data: "\000\000\000\000"
      }
    }
  }
  node {
    output: "1421"
    op_type: "Constant"
    attribute {
      name: "value"
      t {
        dims: 1
        data_type: INT64
        raw_data: "\003\000\000\000\000\000\000\000"
      }
    }
  }
  node {
    output: "1422"
    op_type: "Constant"
    attribute {
      name: "value"
      t {
        dims: 1
        data_type: INT64
        raw_data: "\004\000\000\000\000\000\000\000"
      }
    }
  }
  node {
    input: "1320"
    input: "1420"
    input: "1421"
    input: "1422"
    output: "1423"
    op_type: "Slice"
  }
  node {
    input: "1423"
    output: "1424"
    op_type: "Squeeze"
    attribute {
      name: "axes"
      ints: 0
    }
  }
  node {
    input: "20"
    output: "1425"
    op_type: "Transpose"
    attribute {
      name: "perm"
      ints: 1
      ints: 0
    }
  }
  node {
    input: "22"
    output: "1427"
    op_type: "expand"
    attribute {
      name: "size"
      ints: 5
      ints: 15
    }
  }
  node {
    input: "1424"
    input: "1425"
    input: "1427"
    output: "1428"
    op_type: "Gemm"
    attribute {
      name: "alpha"
      f: 1
    }
    attribute {
      name: "beta"
      f: 1
    }
  }
  node {
    input: "21"
    output: "1429"
    op_type: "Transpose"
    attribute {
      name: "perm"
      ints: 1
      ints: 0
    }
  }
  node {
    input: "23"
    output: "1431"
    op_type: "expand"
    attribute {
      name: "size"
      ints: 5
      ints: 15
    }
  }
  node {
    input: "1419"
    input: "1429"
    input: "1431"
    output: "1432"
    op_type: "Gemm"
    attribute {
      name: "alpha"
      f: 1
    }
    attribute {
      name: "beta"
      f: 1
    }
  }
  node {
    input: "1428"
    output: "1434"
    output: "1435"
    output: "1436"
    op_type: "Split"
    attribute {
      name: "axis"
      i: 1
    }
    attribute {
      name: "split"
      ints: 5
      ints: 5
      ints: 5
    }
  }
  node {
    input: "1432"
    output: "1438"
    output: "1439"
    output: "1440"
    op_type: "Split"
    attribute {
      name: "axis"
      i: 1
    }
    attribute {
      name: "split"
      ints: 5
      ints: 5
      ints: 5
    }
  }
  node {
    input: "1434"
    input: "1438"
    output: "1441"
    op_type: "Add"
  }
  node {
    input: "1441"
    output: "1442"
    op_type: "Sigmoid"
  }
  node {
    input: "1435"
    input: "1439"
    output: "1443"
    op_type: "Add"
  }
  node {
    input: "1443"
    output: "1444"
    op_type: "Sigmoid"
  }
  node {
    input: "1442"
    input: "1440"
    output: "1445"
    op_type: "Mul"
  }
  node {
    input: "1436"
    input: "1445"
    output: "1446"
    op_type: "Add"
  }
  node {
    input: "1446"
    output: "1447"
    op_type: "Tanh"
  }
  node {
    input: "1419"
    input: "1447"
    output: "1448"
    op_type: "Sub"
  }
  node {
    input: "1444"
    input: "1448"
    output: "1449"
    op_type: "Mul"
  }
  node {
    input: "1447"
    input: "1449"
    output: "1450"
    op_type: "Add"
  }
  node {
    output: "1451"
    op_type: "Constant"
    attribute {
      name: "value"
      t {
        dims: 1
        data_type: INT32
        raw_data: "\000\000\000\000"
      }
    }
  }
  node {
    output: "1452"
    op_type: "Constant"
    attribute {
      name: "value"
      t {
        dims: 1
        data_type: INT64
        raw_data: "\004\000\000\000\000\000\000\000"
      }
    }
  }
  node {
    output: "1453"
    op_type: "Constant"
    attribute {
      name: "value"
      t {
        dims: 1
        data_type: INT64
        raw_data: "\005\000\000\000\000\000\000\000"
      }
    }
  }
  node {
    input: "1320"
    input: "1451"
    input: "1452"
    input: "1453"
    output: "1454"
    op_type: "Slice"
  }
  node {
    input: "1454"
    output: "1455"
    op_type: "Squeeze"
    attribute {
      name: "axes"
      ints: 0
    }
  }
  node {
    input: "20"
    output: "1456"
    op_type: "Transpose"
    attribute {
      name: "perm"
      ints: 1
      ints: 0
    }
  }
  node {
    input: "22"
    output: "1458"
    op_type: "expand"
    attribute {
      name: "size"
      ints: 5
      ints: 15
    }
  }
  node {
    input: "1455"
    input: "1456"
    input: "1458"
    output: "1459"
    op_type: "Gemm"
    attribute {
      name: "alpha"
      f: 1
    }
    attribute {
      name: "beta"
      f: 1
    }
  }
  node {
    input: "21"
    output: "1460"
    op_type: "Transpose"
    attribute {
      name: "perm"
      ints: 1
      ints: 0
    }
  }
  node {
    input: "23"
    output: "1462"
    op_type: "expand"
    attribute {
      name: "size"
      ints: 5
      ints: 15
    }
  }
  node {
    input: "1450"
    input: "1460"
    input: "1462"
    output: "1463"
    op_type: "Gemm"
    attribute {
      name: "alpha"
      f: 1
    }
    attribute {
      name: "beta"
      f: 1
    }
  }
  node {
    input: "1459"
    output: "1465"
    output: "1466"
    output: "1467"
    op_type: "Split"
    attribute {
      name: "axis"
      i: 1
    }
    attribute {
      name: "split"
      ints: 5
      ints: 5
      ints: 5
    }
  }
  node {
    input: "1463"
    output: "1469"
    output: "1470"
    output: "1471"
    op_type: "Split"
    attribute {
      name: "axis"
      i: 1
    }
    attribute {
      name: "split"
      ints: 5
      ints: 5
      ints: 5
    }
  }
  node {
    input: "1465"
    input: "1469"
    output: "1472"
    op_type: "Add"
  }
  node {
    input: "1472"
    output: "1473"
    op_type: "Sigmoid"
  }
  node {
    input: "1466"
    input: "1470"
    output: "1474"
    op_type: "Add"
  }
  node {
    input: "1474"
    output: "1475"
    op_type: "Sigmoid"
  }
  node {
    input: "1473"
    input: "1471"
    output: "1476"
    op_type: "Mul"
  }
  node {
    input: "1467"
    input: "1476"
    output: "1477"
    op_type: "Add"
  }
  node {
    input: "1477"
    output: "1478"
    op_type: "Tanh"
  }
  node {
    input: "1450"
    input: "1478"
    output: "1479"
    op_type: "Sub"
  }
  node {
    input: "1475"
    input: "1479"
    output: "1480"
    op_type: "Mul"
  }
  node {
    input: "1478"
    input: "1480"
    output: "1481"
    op_type: "Add"
  }
  node {
    output: "1482"
    op_type: "Constant"
    attribute {
      name: "value"
      t {
        dims: 1
        data_type: INT32
        raw_data: "\000\000\000\000"
      }
    }
  }
  node {
    output: "1483"
    op_type: "Constant"
    attribute {
      name: "value"
      t {
        dims: 1
        data_type: INT64
        raw_data: "\005\000\000\000\000\000\000\000"
      }
    }
  }
  node {
    output: "1484"
    op_type: "Constant"
    attribute {
      name: "value"
      t {
        dims: 1
        data_type: INT64
        raw_data: "\006\000\000\000\000\000\000\000"
      }
    }
  }
  node {
    input: "1320"
    input: "1482"
    input: "1483"
    input: "1484"
    output: "1485"
    op_type: "Slice"
  }
  node {
    input: "1485"
    output: "1486"
    op_type: "Squeeze"
    attribute {
      name: "axes"
      ints: 0
    }
  }
  node {
    input: "20"
    output: "1487"
    op_type: "Transpose"
    attribute {
      name: "perm"
      ints: 1
      ints: 0
    }
  }
  node {
    input: "22"
    output: "1489"
    op_type: "expand"
    attribute {
      name: "size"
      ints: 5
      ints: 15
    }
  }
  node {
    input: "1486"
    input: "1487"
    input: "1489"
    output: "1490"
    op_type: "Gemm"
    attribute {
      name: "alpha"
      f: 1
    }
    attribute {
      name: "beta"
      f: 1
    }
  }
  node {
    input: "21"
    output: "1491"
    op_type: "Transpose"
    attribute {
      name: "perm"
      ints: 1
      ints: 0
    }
  }
  node {
    input: "23"
    output: "1493"
    op_type: "expand"
    attribute {
      name: "size"
      ints: 5
      ints: 15
    }
  }
  node {
    input: "1481"
    input: "1491"
    input: "1493"
    output: "1494"
    op_type: "Gemm"
    attribute {
      name: "alpha"
      f: 1
    }
    attribute {
      name: "beta"
      f: 1
    }
  }
  node {
    input: "1490"
    output: "1496"
    output: "1497"
    output: "1498"
    op_type: "Split"
    attribute {
      name: "axis"
      i: 1
    }
    attribute {
      name: "split"
      ints: 5
      ints: 5
      ints: 5
    }
  }
  node {
    input: "1494"
    output: "1500"
    output: "1501"
    output: "1502"
    op_type: "Split"
    attribute {
      name: "axis"
      i: 1
    }
    attribute {
      name: "split"
      ints: 5
      ints: 5
      ints: 5
    }
  }
  node {
    input: "1496"
    input: "1500"
    output: "1503"
    op_type: "Add"
  }
  node {
    input: "1503"
    output: "1504"
    op_type: "Sigmoid"
  }
  node {
    input: "1497"
    input: "1501"
    output: "1505"
    op_type: "Add"
  }
  node {
    input: "1505"
    output: "1506"
    op_type: "Sigmoid"
  }
  node {
    input: "1504"
    input: "1502"
    output: "1507"
    op_type: "Mul"
  }
  node {
    input: "1498"
    input: "1507"
    output: "1508"
    op_type: "Add"
  }
  node {
    input: "1508"
    output: "1509"
    op_type: "Tanh"
  }
  node {
    input: "1481"
    input: "1509"
    output: "1510"
    op_type: "Sub"
  }
  node {
    input: "1506"
    input: "1510"
    output: "1511"
    op_type: "Mul"
  }
  node {
    input: "1509"
    input: "1511"
    output: "1512"
    op_type: "Add"
  }
  node {
    output: "1513"
    op_type: "Constant"
    attribute {
      name: "value"
      t {
        dims: 1
        data_type: INT32
        raw_data: "\000\000\000\000"
      }
    }
  }
  node {
    output: "1514"
    op_type: "Constant"
    attribute {
      name: "value"
      t {
        dims: 1
        data_type: INT64
        raw_data: "\006\000\000\000\000\000\000\000"
      }
    }
  }
  node {
    output: "1515"
    op_type: "Constant"
    attribute {
      name: "value"
      t {
        dims: 1
        data_type: INT64
        raw_data: "\007\000\000\000\000\000\000\000"
      }
    }
  }
  node {
    input: "1320"
    input: "1513"
    input: "1514"
    input: "1515"
    output: "1516"
    op_type: "Slice"
  }
  node {
    input: "1516"
    output: "1517"
    op_type: "Squeeze"
    attribute {
      name: "axes"
      ints: 0
    }
  }
  node {
    input: "20"
    output: "1518"
    op_type: "Transpose"
    attribute {
      name: "perm"
      ints: 1
      ints: 0
    }
  }
  node {
    input: "22"
    output: "1520"
    op_type: "expand"
    attribute {
      name: "size"
      ints: 5
      ints: 15
    }
  }
  node {
    input: "1517"
    input: "1518"
    input: "1520"
    output: "1521"
    op_type: "Gemm"
    attribute {
      name: "alpha"
      f: 1
    }
    attribute {
      name: "beta"
      f: 1
    }
  }
  node {
    input: "21"
    output: "1522"
    op_type: "Transpose"
    attribute {
      name: "perm"
      ints: 1
      ints: 0
    }
  }
  node {
    input: "23"
    output: "1524"
    op_type: "expand"
    attribute {
      name: "size"
      ints: 5
      ints: 15
    }
  }
  node {
    input: "1512"
    input: "1522"
    input: "1524"
    output: "1525"
    op_type: "Gemm"
    attribute {
      name: "alpha"
      f: 1
    }
    attribute {
      name: "beta"
      f: 1
    }
  }
  node {
    input: "1521"
    output: "1527"
    output: "1528"
    output: "1529"
    op_type: "Split"
    attribute {
      name: "axis"
      i: 1
    }
    attribute {
      name: "split"
      ints: 5
      ints: 5
      ints: 5
    }
  }
  node {
    input: "1525"
    output: "1531"
    output: "1532"
    output: "1533"
    op_type: "Split"
    attribute {
      name: "axis"
      i: 1
    }
    attribute {
      name: "split"
      ints: 5
      ints: 5
      ints: 5
    }
  }
  node {
    input: "1527"
    input: "1531"
    output: "1534"
    op_type: "Add"
  }
  node {
    input: "1534"
    output: "1535"
    op_type: "Sigmoid"
  }
  node {
    input: "1528"
    input: "1532"
    output: "1536"
    op_type: "Add"
  }
  node {
    input: "1536"
    output: "1537"
    op_type: "Sigmoid"
  }
  node {
    input: "1535"
    input: "1533"
    output: "1538"
    op_type: "Mul"
  }
  node {
    input: "1529"
    input: "1538"
    output: "1539"
    op_type: "Add"
  }
  node {
    input: "1539"
    output: "1540"
    op_type: "Tanh"
  }
  node {
    input: "1512"
    input: "1540"
    output: "1541"
    op_type: "Sub"
  }
  node {
    input: "1537"
    input: "1541"
    output: "1542"
    op_type: "Mul"
  }
  node {
    input: "1540"
    input: "1542"
    output: "1543"
    op_type: "Add"
  }
  node {
    output: "1544"
    op_type: "Constant"
    attribute {
      name: "value"
      t {
        dims: 1
        data_type: INT32
        raw_data: "\000\000\000\000"
      }
    }
  }
  node {
    output: "1545"
    op_type: "Constant"
    attribute {
      name: "value"
      t {
        dims: 1
        data_type: INT64
        raw_data: "\007\000\000\000\000\000\000\000"
      }
    }
  }
  node {
    output: "1546"
    op_type: "Constant"
    attribute {
      name: "value"
      t {
        dims: 1
        data_type: INT64
        raw_data: "\010\000\000\000\000\000\000\000"
      }
    }
  }
  node {
    input: "1320"
    input: "1544"
    input: "1545"
    input: "1546"
    output: "1547"
    op_type: "Slice"
  }
  node {
    input: "1547"
    output: "1548"
    op_type: "Squeeze"
    attribute {
      name: "axes"
      ints: 0
    }
  }
  node {
    input: "20"
    output: "1549"
    op_type: "Transpose"
    attribute {
      name: "perm"
      ints: 1
      ints: 0
    }
  }
  node {
    input: "22"
    output: "1551"
    op_type: "expand"
    attribute {
      name: "size"
      ints: 5
      ints: 15
    }
  }
  node {
    input: "1548"
    input: "1549"
    input: "1551"
    output: "1552"
    op_type: "Gemm"
    attribute {
      name: "alpha"
      f: 1
    }
    attribute {
      name: "beta"
      f: 1
    }
  }
  node {
    input: "21"
    output: "1553"
    op_type: "Transpose"
    attribute {
      name: "perm"
      ints: 1
      ints: 0
    }
  }
  node {
    input: "23"
    output: "1555"
    op_type: "expand"
    attribute {
      name: "size"
      ints: 5
      ints: 15
    }
  }
  node {
    input: "1543"
    input: "1553"
    input: "1555"
    output: "1556"
    op_type: "Gemm"
    attribute {
      name: "alpha"
      f: 1
    }
    attribute {
      name: "beta"
      f: 1
    }
  }
  node {
    input: "1552"
    output: "1558"
    output: "1559"
    output: "1560"
    op_type: "Split"
    attribute {
      name: "axis"
      i: 1
    }
    attribute {
      name: "split"
      ints: 5
      ints: 5
      ints: 5
    }
  }
  node {
    input: "1556"
    output: "1562"
    output: "1563"
    output: "1564"
    op_type: "Split"
    attribute {
      name: "axis"
      i: 1
    }
    attribute {
      name: "split"
      ints: 5
      ints: 5
      ints: 5
    }
  }
  node {
    input: "1558"
    input: "1562"
    output: "1565"
    op_type: "Add"
  }
  node {
    input: "1565"
    output: "1566"
    op_type: "Sigmoid"
  }
  node {
    input: "1559"
    input: "1563"
    output: "1567"
    op_type: "Add"
  }
  node {
    input: "1567"
    output: "1568"
    op_type: "Sigmoid"
  }
  node {
    input: "1566"
    input: "1564"
    output: "1569"
    op_type: "Mul"
  }
  node {
    input: "1560"
    input: "1569"
    output: "1570"
    op_type: "Add"
  }
  node {
    input: "1570"
    output: "1571"
    op_type: "Tanh"
  }
  node {
    input: "1543"
    input: "1571"
    output: "1572"
    op_type: "Sub"
  }
  node {
    input: "1568"
    input: "1572"
    output: "1573"
    op_type: "Mul"
  }
  node {
    input: "1571"
    input: "1573"
    output: "1574"
    op_type: "Add"
  }
  node {
    output: "1575"
    op_type: "Constant"
    attribute {
      name: "value"
      t {
        dims: 1
        data_type: INT32
        raw_data: "\000\000\000\000"
      }
    }
  }
  node {
    output: "1576"
    op_type: "Constant"
    attribute {
      name: "value"
      t {
        dims: 1
        data_type: INT64
        raw_data: "\010\000\000\000\000\000\000\000"
      }
    }
  }
  node {
    output: "1577"
    op_type: "Constant"
    attribute {
      name: "value"
      t {
        dims: 1
        data_type: INT64
        raw_data: "\t\000\000\000\000\000\000\000"
      }
    }
  }
  node {
    input: "1320"
    input: "1575"
    input: "1576"
    input: "1577"
    output: "1578"
    op_type: "Slice"
  }
  node {
    input: "1578"
    output: "1579"
    op_type: "Squeeze"
    attribute {
      name: "axes"
      ints: 0
    }
  }
  node {
    input: "20"
    output: "1580"
    op_type: "Transpose"
    attribute {
      name: "perm"
      ints: 1
      ints: 0
    }
  }
  node {
    input: "22"
    output: "1582"
    op_type: "expand"
    attribute {
      name: "size"
      ints: 5
      ints: 15
    }
  }
  node {
    input: "1579"
    input: "1580"
    input: "1582"
    output: "1583"
    op_type: "Gemm"
    attribute {
      name: "alpha"
      f: 1
    }
    attribute {
      name: "beta"
      f: 1
    }
  }
  node {
    input: "21"
    output: "1584"
    op_type: "Transpose"
    attribute {
      name: "perm"
      ints: 1
      ints: 0
    }
  }
  node {
    input: "23"
    output: "1586"
    op_type: "expand"
    attribute {
      name: "size"
      ints: 5
      ints: 15
    }
  }
  node {
    input: "1574"
    input: "1584"
    input: "1586"
    output: "1587"
    op_type: "Gemm"
    attribute {
      name: "alpha"
      f: 1
    }
    attribute {
      name: "beta"
      f: 1
    }
  }
  node {
    input: "1583"
    output: "1589"
    output: "1590"
    output: "1591"
    op_type: "Split"
    attribute {
      name: "axis"
      i: 1
    }
    attribute {
      name: "split"
      ints: 5
      ints: 5
      ints: 5
    }
  }
  node {
    input: "1587"
    output: "1593"
    output: "1594"
    output: "1595"
    op_type: "Split"
    attribute {
      name: "axis"
      i: 1
    }
    attribute {
      name: "split"
      ints: 5
      ints: 5
      ints: 5
    }
  }
  node {
    input: "1589"
    input: "1593"
    output: "1596"
    op_type: "Add"
  }
  node {
    input: "1596"
    output: "1597"
    op_type: "Sigmoid"
  }
  node {
    input: "1590"
    input: "1594"
    output: "1598"
    op_type: "Add"
  }
  node {
    input: "1598"
    output: "1599"
    op_type: "Sigmoid"
  }
  node {
    input: "1597"
    input: "1595"
    output: "1600"
    op_type: "Mul"
  }
  node {
    input: "1591"
    input: "1600"
    output: "1601"
    op_type: "Add"
  }
  node {
    input: "1601"
    output: "1602"
    op_type: "Tanh"
  }
  node {
    input: "1574"
    input: "1602"
    output: "1603"
    op_type: "Sub"
  }
  node {
    input: "1599"
    input: "1603"
    output: "1604"
    op_type: "Mul"
  }
  node {
    input: "1602"
    input: "1604"
    output: "1605"
    op_type: "Add"
  }
  node {
    output: "1606"
    op_type: "Constant"
    attribute {
      name: "value"
      t {
        dims: 1
        data_type: INT32
        raw_data: "\000\000\000\000"
      }
    }
  }
  node {
    output: "1607"
    op_type: "Constant"
    attribute {
      name: "value"
      t {
        dims: 1
        data_type: INT64
        raw_data: "\t\000\000\000\000\000\000\000"
      }
    }
  }
  node {
    output: "1608"
    op_type: "Constant"
    attribute {
      name: "value"
      t {
        dims: 1
        data_type: INT64
        raw_data: "\n\000\000\000\000\000\000\000"
      }
    }
  }
  node {
    input: "1320"
    input: "1606"
    input: "1607"
    input: "1608"
    output: "1609"
    op_type: "Slice"
  }
  node {
    input: "1609"
    output: "1610"
    op_type: "Squeeze"
    attribute {
      name: "axes"
      ints: 0
    }
  }
  node {
    input: "20"
    output: "1611"
    op_type: "Transpose"
    attribute {
      name: "perm"
      ints: 1
      ints: 0
    }
  }
  node {
    input: "22"
    output: "1613"
    op_type: "expand"
    attribute {
      name: "size"
      ints: 5
      ints: 15
    }
  }
  node {
    input: "1610"
    input: "1611"
    input: "1613"
    output: "1614"
    op_type: "Gemm"
    attribute {
      name: "alpha"
      f: 1
    }
    attribute {
      name: "beta"
      f: 1
    }
  }
  node {
    input: "21"
    output: "1615"
    op_type: "Transpose"
    attribute {
      name: "perm"
      ints: 1
      ints: 0
    }
  }
  node {
    input: "23"
    output: "1617"
    op_type: "expand"
    attribute {
      name: "size"
      ints: 5
      ints: 15
    }
  }
  node {
    input: "1605"
    input: "1615"
    input: "1617"
    output: "1618"
    op_type: "Gemm"
    attribute {
      name: "alpha"
      f: 1
    }
    attribute {
      name: "beta"
      f: 1
    }
  }
  node {
    input: "1614"
    output: "1620"
    output: "1621"
    output: "1622"
    op_type: "Split"
    attribute {
      name: "axis"
      i: 1
    }
    attribute {
      name: "split"
      ints: 5
      ints: 5
      ints: 5
    }
  }
  node {
    input: "1618"
    output: "1624"
    output: "1625"
    output: "1626"
    op_type: "Split"
    attribute {
      name: "axis"
      i: 1
    }
    attribute {
      name: "split"
      ints: 5
      ints: 5
      ints: 5
    }
  }
  node {
    input: "1620"
    input: "1624"
    output: "1627"
    op_type: "Add"
  }
  node {
    input: "1627"
    output: "1628"
    op_type: "Sigmoid"
  }
  node {
    input: "1621"
    input: "1625"
    output: "1629"
    op_type: "Add"
  }
  node {
    input: "1629"
    output: "1630"
    op_type: "Sigmoid"
  }
  node {
    input: "1628"
    input: "1626"
    output: "1631"
    op_type: "Mul"
  }
  node {
    input: "1622"
    input: "1631"
    output: "1632"
    op_type: "Add"
  }
  node {
    input: "1632"
    output: "1633"
    op_type: "Tanh"
  }
  node {
    input: "1605"
    input: "1633"
    output: "1634"
    op_type: "Sub"
  }
  node {
    input: "1630"
    input: "1634"
    output: "1635"
    op_type: "Mul"
  }
  node {
    input: "1633"
    input: "1635"
    output: "1636"
    op_type: "Add"
  }
  node {
    input: "1357"
    input: "1388"
    input: "1419"
    input: "1450"
    input: "1481"
    input: "1512"
    input: "1543"
    input: "1574"
    input: "1605"
    input: "1636"
    output: "1638"
    op_type: "cat"
    attribute {
      name: "dim"
      i: 0
    }
  }
  node {
    input: "1638"
    output: "1639"
    op_type: "Reshape"
    attribute {
      name: "shape"
      ints: 10
      ints: 5
      ints: 5
    }
  }
  node {
    input: "1639"
    output: "1641"
    op_type: "cat"
    attribute {
      name: "dim"
      i: 2
    }
  }
  node {
    input: "344"
    input: "667"
    input: "990"
    input: "1313"
    input: "1636"
    output: "1643"
    op_type: "cat"
    attribute {
      name: "dim"
      i: 0
    }
  }
  node {
    input: "1643"
    output: "1644"
    op_type: "Reshape"
    attribute {
      name: "shape"
      ints: 5
      ints: 5
      ints: 5
    }
  }
  node {
    input: "1641"
    output: "1646"
    output: "1647"
    op_type: "Dropout"
    attribute {
      name: "ratio"
      f: 0.200000002980232
    }
    attribute {
      name: "is_test"
      i: 1
    }
  }
  node {
    input: "1646"
    output: "1648"
    op_type: "Reshape"
    attribute {
      name: "shape"
      ints: 50
      ints: 5
    }
  }
  node {
    input: "24"
    output: "1649"
    op_type: "Transpose"
    attribute {
      name: "perm"
      ints: 1
      ints: 0
    }
  }
  node {
    input: "25"
    output: "1651"
    op_type: "expand"
    attribute {
      name: "size"
      ints: 50
      ints: 10
    }
  }
  node {
    input: "1648"
    input: "1649"
    input: "1651"
    output: "1652"
    op_type: "Gemm"
    attribute {
      name: "alpha"
      f: 1
    }
    attribute {
      name: "beta"
      f: 1
    }
  }
  node {
    input: "1652"
    output: "1653"
    op_type: "Reshape"
    attribute {
      name: "shape"
      ints: 10
      ints: 5
      ints: 10
    }
  }
  name: "torch-jit-export"
  input {
    name: "1"
    type {
      tensor_type {
        elem_type: INT64
        shape {
          dim {
            dim_value: 10
          }
          dim {
            dim_value: 5
          }
        }
      }
    }
  }
  input {
    name: "2"
    type {
      tensor_type {
        elem_type: FLOAT
        shape {
          dim {
            dim_value: 5
          }
          dim {
            dim_value: 5
          }
          dim {
            dim_value: 5
          }
        }
      }
    }
  }
  input {
    name: "3"
    type {
      tensor_type {
        elem_type: FLOAT
        shape {
          dim {
            dim_value: 10
          }
          dim {
            dim_value: 5
          }
        }
      }
    }
  }
  input {
    name: "4"
    type {
      tensor_type {
        elem_type: FLOAT
        shape {
          dim {
            dim_value: 15
          }
          dim {
            dim_value: 5
          }
        }
      }
    }
  }
  input {
    name: "5"
    type {
      tensor_type {
        elem_type: FLOAT
        shape {
          dim {
            dim_value: 15
          }
          dim {
            dim_value: 5
          }
        }
      }
    }
  }
  input {
    name: "6"
    type {
      tensor_type {
        elem_type: FLOAT
        shape {
          dim {
            dim_value: 15
          }
        }
      }
    }
  }
  input {
    name: "7"
    type {
      tensor_type {
        elem_type: FLOAT
        shape {
          dim {
            dim_value: 15
          }
        }
      }
    }
  }
  input {
    name: "8"
    type {
      tensor_type {
        elem_type: FLOAT
        shape {
          dim {
            dim_value: 15
          }
          dim {
            dim_value: 5
          }
        }
      }
    }
  }
  input {
    name: "9"
    type {
      tensor_type {
        elem_type: FLOAT
        shape {
          dim {
            dim_value: 15
          }
          dim {
            dim_value: 5
          }
        }
      }
    }
  }
  input {
    name: "10"
    type {
      tensor_type {
        elem_type: FLOAT
        shape {
          dim {
            dim_value: 15
          }
        }
      }
    }
  }
  input {
    name: "11"
    type {
      tensor_type {
        elem_type: FLOAT
        shape {
          dim {
            dim_value: 15
          }
        }
      }
    }
  }
  input {
    name: "12"
    type {
      tensor_type {
        elem_type: FLOAT
        shape {
          dim {
            dim_value: 15
          }
          dim {
            dim_value: 5
          }
        }
      }
    }
  }
  input {
    name: "13"
    type {
      tensor_type {
        elem_type: FLOAT
        shape {
          dim {
            dim_value: 15
          }
          dim {
            dim_value: 5
          }
        }
      }
    }
  }
  input {
    name: "14"
    type {
      tensor_type {
        elem_type: FLOAT
        shape {
          dim {
            dim_value: 15
          }
        }
      }
    }
  }
  input {
    name: "15"
    type {
      tensor_type {
        elem_type: FLOAT
        shape {
          dim {
            dim_value: 15
          }
        }
      }
    }
  }
  input {
    name: "16"
    type {
      tensor_type {
        elem_type: FLOAT
        shape {
          dim {
            dim_value: 15
          }
          dim {
            dim_value: 5
          }
        }
      }
    }
  }
  input {
    name: "17"
    type {
      tensor_type {
        elem_type: FLOAT
        shape {
          dim {
            dim_value: 15
          }
          dim {
            dim_value: 5
          }
        }
      }
    }
  }
  input {
    name: "18"
    type {
      tensor_type {
        elem_type: FLOAT
        shape {
          dim {
            dim_value: 15
          }
        }
      }
    }
  }
  input {
    name: "19"
    type {
      tensor_type {
        elem_type: FLOAT
        shape {
          dim {
            dim_value: 15
          }
        }
      }
    }
  }
  input {
    name: "20"
    type {
      tensor_type {
        elem_type: FLOAT
        shape {
          dim {
            dim_value: 15
          }
          dim {
            dim_value: 5
          }
        }
      }
    }
  }
  input {
    name: "21"
    type {
      tensor_type {
        elem_type: FLOAT
        shape {
          dim {
            dim_value: 15
          }
          dim {
            dim_value: 5
          }
        }
      }
    }
  }
  input {
    name: "22"
    type {
      tensor_type {
        elem_type: FLOAT
        shape {
          dim {
            dim_value: 15
          }
        }
      }
    }
  }
  input {
    name: "23"
    type {
      tensor_type {
        elem_type: FLOAT
        shape {
          dim {
            dim_value: 15
          }
        }
      }
    }
  }
  input {
    name: "24"
    type {
      tensor_type {
        elem_type: FLOAT
        shape {
          dim {
            dim_value: 10
          }
          dim {
            dim_value: 5
          }
        }
      }
    }
  }
  input {
    name: "25"
    type {
      tensor_type {
        elem_type: FLOAT
        shape {
          dim {
            dim_value: 10
          }
        }
      }
    }
  }
  output {
    name: "1653"
    type {
      tensor_type {
        elem_type: FLOAT
        shape {
          dim {
            dim_value: 10
          }
          dim {
            dim_value: 5
          }
          dim {
            dim_value: 10
          }
        }
      }
    }
  }
}
