graph torch-jit-export (
  %0[FLOAT, 2x1x224x224]
  %1[FLOAT, 64x1x5x5]
  %2[FLOAT, 64]
  %3[FLOAT, 64x64x3x3]
  %4[FLOAT, 64]
  %5[FLOAT, 32x64x3x3]
  %6[FLOAT, 32]
  %7[FLOAT, 9x32x3x3]
  %8[FLOAT, 9]
) {
  %9 = Conv[dilations = [1, 1], group = 1, kernel_shape = [5, 5], pads = [2, 2, 2, 2], strides = [1, 1]](%0, %1)
  %10 = Add[axis = 1, broadcast = 1](%9, %2)
  %11 = Relu(%10)
  %12 = Conv[dilations = [1, 1], group = 1, kernel_shape = [3, 3], pads = [1, 1, 1, 1], strides = [1, 1]](%11, %3)
  %13 = Add[axis = 1, broadcast = 1](%12, %4)
  %14 = Relu(%13)
  %15 = Conv[dilations = [1, 1], group = 1, kernel_shape = [3, 3], pads = [1, 1, 1, 1], strides = [1, 1]](%14, %5)
  %16 = Add[axis = 1, broadcast = 1](%15, %6)
  %17 = Relu(%16)
  %18 = Conv[dilations = [1, 1], group = 1, kernel_shape = [3, 3], pads = [1, 1, 1, 1], strides = [1, 1]](%17, %7)
  %19 = Add[axis = 1, broadcast = 1](%18, %8)
  %20 = Reshape[shape = [2, 1, 3, 3, 224, 224]](%19)
  %21 = Transpose[perm = [0, 1, 4, 2, 5, 3]](%20)
  %22 = Reshape[shape = [2, 1, 672, 672]](%21)
  return %22
}