ir_version: 1
producer_name: "pytorch"
producer_version: "0.2"
domain: "com.facebook"
graph {
  node {
    input: "1"
    input: "2"
    output: "270"
    op_type: "Conv"
    attribute {
      name: "kernel_shape"
      ints: 7
      ints: 7
    }
    attribute {
      name: "strides"
      ints: 2
      ints: 2
    }
    attribute {
      name: "pads"
      ints: 3
      ints: 3
      ints: 3
      ints: 3
    }
    attribute {
      name: "dilations"
      ints: 1
      ints: 1
    }
    attribute {
      name: "group"
      i: 1
    }
  }
  node {
    input: "270"
    input: "3"
    input: "4"
    input: "5"
    input: "6"
    output: "272"
    op_type: "SpatialBN"
    attribute {
      name: "is_test"
      i: 1
    }
    attribute {
      name: "epsilon"
      f: 9.99999974737875e-06
    }
    attribute {
      name: "momentum"
      f: 0.899999976158142
    }
    attribute {
      name: "consumed_inputs"
      ints: 0
      ints: 0
      ints: 0
      ints: 1
      ints: 1
    }
  }
  node {
    input: "272"
    output: "273"
    op_type: "Relu"
  }
  node {
    input: "273"
    output: "274"
    op_type: "MaxPool"
    attribute {
      name: "kernel_shape"
      ints: 3
      ints: 3
    }
    attribute {
      name: "pads"
      ints: 1
      ints: 1
    }
    attribute {
      name: "dilations"
      ints: 1
      ints: 1
    }
    attribute {
      name: "strides"
      ints: 2
      ints: 2
    }
  }
  node {
    input: "274"
    input: "7"
    output: "276"
    op_type: "Conv"
    attribute {
      name: "kernel_shape"
      ints: 1
      ints: 1
    }
    attribute {
      name: "strides"
      ints: 1
      ints: 1
    }
    attribute {
      name: "pads"
      ints: 0
      ints: 0
      ints: 0
      ints: 0
    }
    attribute {
      name: "dilations"
      ints: 1
      ints: 1
    }
    attribute {
      name: "group"
      i: 1
    }
  }
  node {
    input: "276"
    input: "8"
    input: "9"
    input: "10"
    input: "11"
    output: "278"
    op_type: "SpatialBN"
    attribute {
      name: "is_test"
      i: 1
    }
    attribute {
      name: "epsilon"
      f: 9.99999974737875e-06
    }
    attribute {
      name: "momentum"
      f: 0.899999976158142
    }
    attribute {
      name: "consumed_inputs"
      ints: 0
      ints: 0
      ints: 0
      ints: 1
      ints: 1
    }
  }
  node {
    input: "278"
    output: "279"
    op_type: "Relu"
  }
  node {
    input: "279"
    input: "12"
    output: "281"
    op_type: "Conv"
    attribute {
      name: "kernel_shape"
      ints: 3
      ints: 3
    }
    attribute {
      name: "strides"
      ints: 1
      ints: 1
    }
    attribute {
      name: "pads"
      ints: 1
      ints: 1
      ints: 1
      ints: 1
    }
    attribute {
      name: "dilations"
      ints: 1
      ints: 1
    }
    attribute {
      name: "group"
      i: 1
    }
  }
  node {
    input: "281"
    input: "13"
    input: "14"
    input: "15"
    input: "16"
    output: "283"
    op_type: "SpatialBN"
    attribute {
      name: "is_test"
      i: 1
    }
    attribute {
      name: "epsilon"
      f: 9.99999974737875e-06
    }
    attribute {
      name: "momentum"
      f: 0.899999976158142
    }
    attribute {
      name: "consumed_inputs"
      ints: 0
      ints: 0
      ints: 0
      ints: 1
      ints: 1
    }
  }
  node {
    input: "283"
    output: "284"
    op_type: "Relu"
  }
  node {
    input: "284"
    input: "17"
    output: "286"
    op_type: "Conv"
    attribute {
      name: "kernel_shape"
      ints: 1
      ints: 1
    }
    attribute {
      name: "strides"
      ints: 1
      ints: 1
    }
    attribute {
      name: "pads"
      ints: 0
      ints: 0
      ints: 0
      ints: 0
    }
    attribute {
      name: "dilations"
      ints: 1
      ints: 1
    }
    attribute {
      name: "group"
      i: 1
    }
  }
  node {
    input: "286"
    input: "18"
    input: "19"
    input: "20"
    input: "21"
    output: "288"
    op_type: "SpatialBN"
    attribute {
      name: "is_test"
      i: 1
    }
    attribute {
      name: "epsilon"
      f: 9.99999974737875e-06
    }
    attribute {
      name: "momentum"
      f: 0.899999976158142
    }
    attribute {
      name: "consumed_inputs"
      ints: 0
      ints: 0
      ints: 0
      ints: 1
      ints: 1
    }
  }
  node {
    input: "274"
    input: "22"
    output: "290"
    op_type: "Conv"
    attribute {
      name: "kernel_shape"
      ints: 1
      ints: 1
    }
    attribute {
      name: "strides"
      ints: 1
      ints: 1
    }
    attribute {
      name: "pads"
      ints: 0
      ints: 0
      ints: 0
      ints: 0
    }
    attribute {
      name: "dilations"
      ints: 1
      ints: 1
    }
    attribute {
      name: "group"
      i: 1
    }
  }
  node {
    input: "290"
    input: "23"
    input: "24"
    input: "25"
    input: "26"
    output: "292"
    op_type: "SpatialBN"
    attribute {
      name: "is_test"
      i: 1
    }
    attribute {
      name: "epsilon"
      f: 9.99999974737875e-06
    }
    attribute {
      name: "momentum"
      f: 0.899999976158142
    }
    attribute {
      name: "consumed_inputs"
      ints: 0
      ints: 0
      ints: 0
      ints: 1
      ints: 1
    }
  }
  node {
    input: "288"
    input: "292"
    output: "293"
    op_type: "Add"
  }
  node {
    input: "293"
    output: "294"
    op_type: "Relu"
  }
  node {
    input: "294"
    input: "27"
    output: "296"
    op_type: "Conv"
    attribute {
      name: "kernel_shape"
      ints: 1
      ints: 1
    }
    attribute {
      name: "strides"
      ints: 1
      ints: 1
    }
    attribute {
      name: "pads"
      ints: 0
      ints: 0
      ints: 0
      ints: 0
    }
    attribute {
      name: "dilations"
      ints: 1
      ints: 1
    }
    attribute {
      name: "group"
      i: 1
    }
  }
  node {
    input: "296"
    input: "28"
    input: "29"
    input: "30"
    input: "31"
    output: "298"
    op_type: "SpatialBN"
    attribute {
      name: "is_test"
      i: 1
    }
    attribute {
      name: "epsilon"
      f: 9.99999974737875e-06
    }
    attribute {
      name: "momentum"
      f: 0.899999976158142
    }
    attribute {
      name: "consumed_inputs"
      ints: 0
      ints: 0
      ints: 0
      ints: 1
      ints: 1
    }
  }
  node {
    input: "298"
    output: "299"
    op_type: "Relu"
  }
  node {
    input: "299"
    input: "32"
    output: "301"
    op_type: "Conv"
    attribute {
      name: "kernel_shape"
      ints: 3
      ints: 3
    }
    attribute {
      name: "strides"
      ints: 1
      ints: 1
    }
    attribute {
      name: "pads"
      ints: 1
      ints: 1
      ints: 1
      ints: 1
    }
    attribute {
      name: "dilations"
      ints: 1
      ints: 1
    }
    attribute {
      name: "group"
      i: 1
    }
  }
  node {
    input: "301"
    input: "33"
    input: "34"
    input: "35"
    input: "36"
    output: "303"
    op_type: "SpatialBN"
    attribute {
      name: "is_test"
      i: 1
    }
    attribute {
      name: "epsilon"
      f: 9.99999974737875e-06
    }
    attribute {
      name: "momentum"
      f: 0.899999976158142
    }
    attribute {
      name: "consumed_inputs"
      ints: 0
      ints: 0
      ints: 0
      ints: 1
      ints: 1
    }
  }
  node {
    input: "303"
    output: "304"
    op_type: "Relu"
  }
  node {
    input: "304"
    input: "37"
    output: "306"
    op_type: "Conv"
    attribute {
      name: "kernel_shape"
      ints: 1
      ints: 1
    }
    attribute {
      name: "strides"
      ints: 1
      ints: 1
    }
    attribute {
      name: "pads"
      ints: 0
      ints: 0
      ints: 0
      ints: 0
    }
    attribute {
      name: "dilations"
      ints: 1
      ints: 1
    }
    attribute {
      name: "group"
      i: 1
    }
  }
  node {
    input: "306"
    input: "38"
    input: "39"
    input: "40"
    input: "41"
    output: "308"
    op_type: "SpatialBN"
    attribute {
      name: "is_test"
      i: 1
    }
    attribute {
      name: "epsilon"
      f: 9.99999974737875e-06
    }
    attribute {
      name: "momentum"
      f: 0.899999976158142
    }
    attribute {
      name: "consumed_inputs"
      ints: 0
      ints: 0
      ints: 0
      ints: 1
      ints: 1
    }
  }
  node {
    input: "308"
    input: "294"
    output: "309"
    op_type: "Add"
  }
  node {
    input: "309"
    output: "310"
    op_type: "Relu"
  }
  node {
    input: "310"
    input: "42"
    output: "312"
    op_type: "Conv"
    attribute {
      name: "kernel_shape"
      ints: 1
      ints: 1
    }
    attribute {
      name: "strides"
      ints: 1
      ints: 1
    }
    attribute {
      name: "pads"
      ints: 0
      ints: 0
      ints: 0
      ints: 0
    }
    attribute {
      name: "dilations"
      ints: 1
      ints: 1
    }
    attribute {
      name: "group"
      i: 1
    }
  }
  node {
    input: "312"
    input: "43"
    input: "44"
    input: "45"
    input: "46"
    output: "314"
    op_type: "SpatialBN"
    attribute {
      name: "is_test"
      i: 1
    }
    attribute {
      name: "epsilon"
      f: 9.99999974737875e-06
    }
    attribute {
      name: "momentum"
      f: 0.899999976158142
    }
    attribute {
      name: "consumed_inputs"
      ints: 0
      ints: 0
      ints: 0
      ints: 1
      ints: 1
    }
  }
  node {
    input: "314"
    output: "315"
    op_type: "Relu"
  }
  node {
    input: "315"
    input: "47"
    output: "317"
    op_type: "Conv"
    attribute {
      name: "kernel_shape"
      ints: 3
      ints: 3
    }
    attribute {
      name: "strides"
      ints: 1
      ints: 1
    }
    attribute {
      name: "pads"
      ints: 1
      ints: 1
      ints: 1
      ints: 1
    }
    attribute {
      name: "dilations"
      ints: 1
      ints: 1
    }
    attribute {
      name: "group"
      i: 1
    }
  }
  node {
    input: "317"
    input: "48"
    input: "49"
    input: "50"
    input: "51"
    output: "319"
    op_type: "SpatialBN"
    attribute {
      name: "is_test"
      i: 1
    }
    attribute {
      name: "epsilon"
      f: 9.99999974737875e-06
    }
    attribute {
      name: "momentum"
      f: 0.899999976158142
    }
    attribute {
      name: "consumed_inputs"
      ints: 0
      ints: 0
      ints: 0
      ints: 1
      ints: 1
    }
  }
  node {
    input: "319"
    output: "320"
    op_type: "Relu"
  }
  node {
    input: "320"
    input: "52"
    output: "322"
    op_type: "Conv"
    attribute {
      name: "kernel_shape"
      ints: 1
      ints: 1
    }
    attribute {
      name: "strides"
      ints: 1
      ints: 1
    }
    attribute {
      name: "pads"
      ints: 0
      ints: 0
      ints: 0
      ints: 0
    }
    attribute {
      name: "dilations"
      ints: 1
      ints: 1
    }
    attribute {
      name: "group"
      i: 1
    }
  }
  node {
    input: "322"
    input: "53"
    input: "54"
    input: "55"
    input: "56"
    output: "324"
    op_type: "SpatialBN"
    attribute {
      name: "is_test"
      i: 1
    }
    attribute {
      name: "epsilon"
      f: 9.99999974737875e-06
    }
    attribute {
      name: "momentum"
      f: 0.899999976158142
    }
    attribute {
      name: "consumed_inputs"
      ints: 0
      ints: 0
      ints: 0
      ints: 1
      ints: 1
    }
  }
  node {
    input: "324"
    input: "310"
    output: "325"
    op_type: "Add"
  }
  node {
    input: "325"
    output: "326"
    op_type: "Relu"
  }
  node {
    input: "326"
    input: "57"
    output: "328"
    op_type: "Conv"
    attribute {
      name: "kernel_shape"
      ints: 1
      ints: 1
    }
    attribute {
      name: "strides"
      ints: 1
      ints: 1
    }
    attribute {
      name: "pads"
      ints: 0
      ints: 0
      ints: 0
      ints: 0
    }
    attribute {
      name: "dilations"
      ints: 1
      ints: 1
    }
    attribute {
      name: "group"
      i: 1
    }
  }
  node {
    input: "328"
    input: "58"
    input: "59"
    input: "60"
    input: "61"
    output: "330"
    op_type: "SpatialBN"
    attribute {
      name: "is_test"
      i: 1
    }
    attribute {
      name: "epsilon"
      f: 9.99999974737875e-06
    }
    attribute {
      name: "momentum"
      f: 0.899999976158142
    }
    attribute {
      name: "consumed_inputs"
      ints: 0
      ints: 0
      ints: 0
      ints: 1
      ints: 1
    }
  }
  node {
    input: "330"
    output: "331"
    op_type: "Relu"
  }
  node {
    input: "331"
    input: "62"
    output: "333"
    op_type: "Conv"
    attribute {
      name: "kernel_shape"
      ints: 3
      ints: 3
    }
    attribute {
      name: "strides"
      ints: 2
      ints: 2
    }
    attribute {
      name: "pads"
      ints: 1
      ints: 1
      ints: 1
      ints: 1
    }
    attribute {
      name: "dilations"
      ints: 1
      ints: 1
    }
    attribute {
      name: "group"
      i: 1
    }
  }
  node {
    input: "333"
    input: "63"
    input: "64"
    input: "65"
    input: "66"
    output: "335"
    op_type: "SpatialBN"
    attribute {
      name: "is_test"
      i: 1
    }
    attribute {
      name: "epsilon"
      f: 9.99999974737875e-06
    }
    attribute {
      name: "momentum"
      f: 0.899999976158142
    }
    attribute {
      name: "consumed_inputs"
      ints: 0
      ints: 0
      ints: 0
      ints: 1
      ints: 1
    }
  }
  node {
    input: "335"
    output: "336"
    op_type: "Relu"
  }
  node {
    input: "336"
    input: "67"
    output: "338"
    op_type: "Conv"
    attribute {
      name: "kernel_shape"
      ints: 1
      ints: 1
    }
    attribute {
      name: "strides"
      ints: 1
      ints: 1
    }
    attribute {
      name: "pads"
      ints: 0
      ints: 0
      ints: 0
      ints: 0
    }
    attribute {
      name: "dilations"
      ints: 1
      ints: 1
    }
    attribute {
      name: "group"
      i: 1
    }
  }
  node {
    input: "338"
    input: "68"
    input: "69"
    input: "70"
    input: "71"
    output: "340"
    op_type: "SpatialBN"
    attribute {
      name: "is_test"
      i: 1
    }
    attribute {
      name: "epsilon"
      f: 9.99999974737875e-06
    }
    attribute {
      name: "momentum"
      f: 0.899999976158142
    }
    attribute {
      name: "consumed_inputs"
      ints: 0
      ints: 0
      ints: 0
      ints: 1
      ints: 1
    }
  }
  node {
    input: "326"
    input: "72"
    output: "342"
    op_type: "Conv"
    attribute {
      name: "kernel_shape"
      ints: 1
      ints: 1
    }
    attribute {
      name: "strides"
      ints: 2
      ints: 2
    }
    attribute {
      name: "pads"
      ints: 0
      ints: 0
      ints: 0
      ints: 0
    }
    attribute {
      name: "dilations"
      ints: 1
      ints: 1
    }
    attribute {
      name: "group"
      i: 1
    }
  }
  node {
    input: "342"
    input: "73"
    input: "74"
    input: "75"
    input: "76"
    output: "344"
    op_type: "SpatialBN"
    attribute {
      name: "is_test"
      i: 1
    }
    attribute {
      name: "epsilon"
      f: 9.99999974737875e-06
    }
    attribute {
      name: "momentum"
      f: 0.899999976158142
    }
    attribute {
      name: "consumed_inputs"
      ints: 0
      ints: 0
      ints: 0
      ints: 1
      ints: 1
    }
  }
  node {
    input: "340"
    input: "344"
    output: "345"
    op_type: "Add"
  }
  node {
    input: "345"
    output: "346"
    op_type: "Relu"
  }
  node {
    input: "346"
    input: "77"
    output: "348"
    op_type: "Conv"
    attribute {
      name: "kernel_shape"
      ints: 1
      ints: 1
    }
    attribute {
      name: "strides"
      ints: 1
      ints: 1
    }
    attribute {
      name: "pads"
      ints: 0
      ints: 0
      ints: 0
      ints: 0
    }
    attribute {
      name: "dilations"
      ints: 1
      ints: 1
    }
    attribute {
      name: "group"
      i: 1
    }
  }
  node {
    input: "348"
    input: "78"
    input: "79"
    input: "80"
    input: "81"
    output: "350"
    op_type: "SpatialBN"
    attribute {
      name: "is_test"
      i: 1
    }
    attribute {
      name: "epsilon"
      f: 9.99999974737875e-06
    }
    attribute {
      name: "momentum"
      f: 0.899999976158142
    }
    attribute {
      name: "consumed_inputs"
      ints: 0
      ints: 0
      ints: 0
      ints: 1
      ints: 1
    }
  }
  node {
    input: "350"
    output: "351"
    op_type: "Relu"
  }
  node {
    input: "351"
    input: "82"
    output: "353"
    op_type: "Conv"
    attribute {
      name: "kernel_shape"
      ints: 3
      ints: 3
    }
    attribute {
      name: "strides"
      ints: 1
      ints: 1
    }
    attribute {
      name: "pads"
      ints: 1
      ints: 1
      ints: 1
      ints: 1
    }
    attribute {
      name: "dilations"
      ints: 1
      ints: 1
    }
    attribute {
      name: "group"
      i: 1
    }
  }
  node {
    input: "353"
    input: "83"
    input: "84"
    input: "85"
    input: "86"
    output: "355"
    op_type: "SpatialBN"
    attribute {
      name: "is_test"
      i: 1
    }
    attribute {
      name: "epsilon"
      f: 9.99999974737875e-06
    }
    attribute {
      name: "momentum"
      f: 0.899999976158142
    }
    attribute {
      name: "consumed_inputs"
      ints: 0
      ints: 0
      ints: 0
      ints: 1
      ints: 1
    }
  }
  node {
    input: "355"
    output: "356"
    op_type: "Relu"
  }
  node {
    input: "356"
    input: "87"
    output: "358"
    op_type: "Conv"
    attribute {
      name: "kernel_shape"
      ints: 1
      ints: 1
    }
    attribute {
      name: "strides"
      ints: 1
      ints: 1
    }
    attribute {
      name: "pads"
      ints: 0
      ints: 0
      ints: 0
      ints: 0
    }
    attribute {
      name: "dilations"
      ints: 1
      ints: 1
    }
    attribute {
      name: "group"
      i: 1
    }
  }
  node {
    input: "358"
    input: "88"
    input: "89"
    input: "90"
    input: "91"
    output: "360"
    op_type: "SpatialBN"
    attribute {
      name: "is_test"
      i: 1
    }
    attribute {
      name: "epsilon"
      f: 9.99999974737875e-06
    }
    attribute {
      name: "momentum"
      f: 0.899999976158142
    }
    attribute {
      name: "consumed_inputs"
      ints: 0
      ints: 0
      ints: 0
      ints: 1
      ints: 1
    }
  }
  node {
    input: "360"
    input: "346"
    output: "361"
    op_type: "Add"
  }
  node {
    input: "361"
    output: "362"
    op_type: "Relu"
  }
  node {
    input: "362"
    input: "92"
    output: "364"
    op_type: "Conv"
    attribute {
      name: "kernel_shape"
      ints: 1
      ints: 1
    }
    attribute {
      name: "strides"
      ints: 1
      ints: 1
    }
    attribute {
      name: "pads"
      ints: 0
      ints: 0
      ints: 0
      ints: 0
    }
    attribute {
      name: "dilations"
      ints: 1
      ints: 1
    }
    attribute {
      name: "group"
      i: 1
    }
  }
  node {
    input: "364"
    input: "93"
    input: "94"
    input: "95"
    input: "96"
    output: "366"
    op_type: "SpatialBN"
    attribute {
      name: "is_test"
      i: 1
    }
    attribute {
      name: "epsilon"
      f: 9.99999974737875e-06
    }
    attribute {
      name: "momentum"
      f: 0.899999976158142
    }
    attribute {
      name: "consumed_inputs"
      ints: 0
      ints: 0
      ints: 0
      ints: 1
      ints: 1
    }
  }
  node {
    input: "366"
    output: "367"
    op_type: "Relu"
  }
  node {
    input: "367"
    input: "97"
    output: "369"
    op_type: "Conv"
    attribute {
      name: "kernel_shape"
      ints: 3
      ints: 3
    }
    attribute {
      name: "strides"
      ints: 1
      ints: 1
    }
    attribute {
      name: "pads"
      ints: 1
      ints: 1
      ints: 1
      ints: 1
    }
    attribute {
      name: "dilations"
      ints: 1
      ints: 1
    }
    attribute {
      name: "group"
      i: 1
    }
  }
  node {
    input: "369"
    input: "98"
    input: "99"
    input: "100"
    input: "101"
    output: "371"
    op_type: "SpatialBN"
    attribute {
      name: "is_test"
      i: 1
    }
    attribute {
      name: "epsilon"
      f: 9.99999974737875e-06
    }
    attribute {
      name: "momentum"
      f: 0.899999976158142
    }
    attribute {
      name: "consumed_inputs"
      ints: 0
      ints: 0
      ints: 0
      ints: 1
      ints: 1
    }
  }
  node {
    input: "371"
    output: "372"
    op_type: "Relu"
  }
  node {
    input: "372"
    input: "102"
    output: "374"
    op_type: "Conv"
    attribute {
      name: "kernel_shape"
      ints: 1
      ints: 1
    }
    attribute {
      name: "strides"
      ints: 1
      ints: 1
    }
    attribute {
      name: "pads"
      ints: 0
      ints: 0
      ints: 0
      ints: 0
    }
    attribute {
      name: "dilations"
      ints: 1
      ints: 1
    }
    attribute {
      name: "group"
      i: 1
    }
  }
  node {
    input: "374"
    input: "103"
    input: "104"
    input: "105"
    input: "106"
    output: "376"
    op_type: "SpatialBN"
    attribute {
      name: "is_test"
      i: 1
    }
    attribute {
      name: "epsilon"
      f: 9.99999974737875e-06
    }
    attribute {
      name: "momentum"
      f: 0.899999976158142
    }
    attribute {
      name: "consumed_inputs"
      ints: 0
      ints: 0
      ints: 0
      ints: 1
      ints: 1
    }
  }
  node {
    input: "376"
    input: "362"
    output: "377"
    op_type: "Add"
  }
  node {
    input: "377"
    output: "378"
    op_type: "Relu"
  }
  node {
    input: "378"
    input: "107"
    output: "380"
    op_type: "Conv"
    attribute {
      name: "kernel_shape"
      ints: 1
      ints: 1
    }
    attribute {
      name: "strides"
      ints: 1
      ints: 1
    }
    attribute {
      name: "pads"
      ints: 0
      ints: 0
      ints: 0
      ints: 0
    }
    attribute {
      name: "dilations"
      ints: 1
      ints: 1
    }
    attribute {
      name: "group"
      i: 1
    }
  }
  node {
    input: "380"
    input: "108"
    input: "109"
    input: "110"
    input: "111"
    output: "382"
    op_type: "SpatialBN"
    attribute {
      name: "is_test"
      i: 1
    }
    attribute {
      name: "epsilon"
      f: 9.99999974737875e-06
    }
    attribute {
      name: "momentum"
      f: 0.899999976158142
    }
    attribute {
      name: "consumed_inputs"
      ints: 0
      ints: 0
      ints: 0
      ints: 1
      ints: 1
    }
  }
  node {
    input: "382"
    output: "383"
    op_type: "Relu"
  }
  node {
    input: "383"
    input: "112"
    output: "385"
    op_type: "Conv"
    attribute {
      name: "kernel_shape"
      ints: 3
      ints: 3
    }
    attribute {
      name: "strides"
      ints: 1
      ints: 1
    }
    attribute {
      name: "pads"
      ints: 1
      ints: 1
      ints: 1
      ints: 1
    }
    attribute {
      name: "dilations"
      ints: 1
      ints: 1
    }
    attribute {
      name: "group"
      i: 1
    }
  }
  node {
    input: "385"
    input: "113"
    input: "114"
    input: "115"
    input: "116"
    output: "387"
    op_type: "SpatialBN"
    attribute {
      name: "is_test"
      i: 1
    }
    attribute {
      name: "epsilon"
      f: 9.99999974737875e-06
    }
    attribute {
      name: "momentum"
      f: 0.899999976158142
    }
    attribute {
      name: "consumed_inputs"
      ints: 0
      ints: 0
      ints: 0
      ints: 1
      ints: 1
    }
  }
  node {
    input: "387"
    output: "388"
    op_type: "Relu"
  }
  node {
    input: "388"
    input: "117"
    output: "390"
    op_type: "Conv"
    attribute {
      name: "kernel_shape"
      ints: 1
      ints: 1
    }
    attribute {
      name: "strides"
      ints: 1
      ints: 1
    }
    attribute {
      name: "pads"
      ints: 0
      ints: 0
      ints: 0
      ints: 0
    }
    attribute {
      name: "dilations"
      ints: 1
      ints: 1
    }
    attribute {
      name: "group"
      i: 1
    }
  }
  node {
    input: "390"
    input: "118"
    input: "119"
    input: "120"
    input: "121"
    output: "392"
    op_type: "SpatialBN"
    attribute {
      name: "is_test"
      i: 1
    }
    attribute {
      name: "epsilon"
      f: 9.99999974737875e-06
    }
    attribute {
      name: "momentum"
      f: 0.899999976158142
    }
    attribute {
      name: "consumed_inputs"
      ints: 0
      ints: 0
      ints: 0
      ints: 1
      ints: 1
    }
  }
  node {
    input: "392"
    input: "378"
    output: "393"
    op_type: "Add"
  }
  node {
    input: "393"
    output: "394"
    op_type: "Relu"
  }
  node {
    input: "394"
    input: "122"
    output: "396"
    op_type: "Conv"
    attribute {
      name: "kernel_shape"
      ints: 1
      ints: 1
    }
    attribute {
      name: "strides"
      ints: 1
      ints: 1
    }
    attribute {
      name: "pads"
      ints: 0
      ints: 0
      ints: 0
      ints: 0
    }
    attribute {
      name: "dilations"
      ints: 1
      ints: 1
    }
    attribute {
      name: "group"
      i: 1
    }
  }
  node {
    input: "396"
    input: "123"
    input: "124"
    input: "125"
    input: "126"
    output: "398"
    op_type: "SpatialBN"
    attribute {
      name: "is_test"
      i: 1
    }
    attribute {
      name: "epsilon"
      f: 9.99999974737875e-06
    }
    attribute {
      name: "momentum"
      f: 0.899999976158142
    }
    attribute {
      name: "consumed_inputs"
      ints: 0
      ints: 0
      ints: 0
      ints: 1
      ints: 1
    }
  }
  node {
    input: "398"
    output: "399"
    op_type: "Relu"
  }
  node {
    input: "399"
    input: "127"
    output: "401"
    op_type: "Conv"
    attribute {
      name: "kernel_shape"
      ints: 3
      ints: 3
    }
    attribute {
      name: "strides"
      ints: 2
      ints: 2
    }
    attribute {
      name: "pads"
      ints: 1
      ints: 1
      ints: 1
      ints: 1
    }
    attribute {
      name: "dilations"
      ints: 1
      ints: 1
    }
    attribute {
      name: "group"
      i: 1
    }
  }
  node {
    input: "401"
    input: "128"
    input: "129"
    input: "130"
    input: "131"
    output: "403"
    op_type: "SpatialBN"
    attribute {
      name: "is_test"
      i: 1
    }
    attribute {
      name: "epsilon"
      f: 9.99999974737875e-06
    }
    attribute {
      name: "momentum"
      f: 0.899999976158142
    }
    attribute {
      name: "consumed_inputs"
      ints: 0
      ints: 0
      ints: 0
      ints: 1
      ints: 1
    }
  }
  node {
    input: "403"
    output: "404"
    op_type: "Relu"
  }
  node {
    input: "404"
    input: "132"
    output: "406"
    op_type: "Conv"
    attribute {
      name: "kernel_shape"
      ints: 1
      ints: 1
    }
    attribute {
      name: "strides"
      ints: 1
      ints: 1
    }
    attribute {
      name: "pads"
      ints: 0
      ints: 0
      ints: 0
      ints: 0
    }
    attribute {
      name: "dilations"
      ints: 1
      ints: 1
    }
    attribute {
      name: "group"
      i: 1
    }
  }
  node {
    input: "406"
    input: "133"
    input: "134"
    input: "135"
    input: "136"
    output: "408"
    op_type: "SpatialBN"
    attribute {
      name: "is_test"
      i: 1
    }
    attribute {
      name: "epsilon"
      f: 9.99999974737875e-06
    }
    attribute {
      name: "momentum"
      f: 0.899999976158142
    }
    attribute {
      name: "consumed_inputs"
      ints: 0
      ints: 0
      ints: 0
      ints: 1
      ints: 1
    }
  }
  node {
    input: "394"
    input: "137"
    output: "410"
    op_type: "Conv"
    attribute {
      name: "kernel_shape"
      ints: 1
      ints: 1
    }
    attribute {
      name: "strides"
      ints: 2
      ints: 2
    }
    attribute {
      name: "pads"
      ints: 0
      ints: 0
      ints: 0
      ints: 0
    }
    attribute {
      name: "dilations"
      ints: 1
      ints: 1
    }
    attribute {
      name: "group"
      i: 1
    }
  }
  node {
    input: "410"
    input: "138"
    input: "139"
    input: "140"
    input: "141"
    output: "412"
    op_type: "SpatialBN"
    attribute {
      name: "is_test"
      i: 1
    }
    attribute {
      name: "epsilon"
      f: 9.99999974737875e-06
    }
    attribute {
      name: "momentum"
      f: 0.899999976158142
    }
    attribute {
      name: "consumed_inputs"
      ints: 0
      ints: 0
      ints: 0
      ints: 1
      ints: 1
    }
  }
  node {
    input: "408"
    input: "412"
    output: "413"
    op_type: "Add"
  }
  node {
    input: "413"
    output: "414"
    op_type: "Relu"
  }
  node {
    input: "414"
    input: "142"
    output: "416"
    op_type: "Conv"
    attribute {
      name: "kernel_shape"
      ints: 1
      ints: 1
    }
    attribute {
      name: "strides"
      ints: 1
      ints: 1
    }
    attribute {
      name: "pads"
      ints: 0
      ints: 0
      ints: 0
      ints: 0
    }
    attribute {
      name: "dilations"
      ints: 1
      ints: 1
    }
    attribute {
      name: "group"
      i: 1
    }
  }
  node {
    input: "416"
    input: "143"
    input: "144"
    input: "145"
    input: "146"
    output: "418"
    op_type: "SpatialBN"
    attribute {
      name: "is_test"
      i: 1
    }
    attribute {
      name: "epsilon"
      f: 9.99999974737875e-06
    }
    attribute {
      name: "momentum"
      f: 0.899999976158142
    }
    attribute {
      name: "consumed_inputs"
      ints: 0
      ints: 0
      ints: 0
      ints: 1
      ints: 1
    }
  }
  node {
    input: "418"
    output: "419"
    op_type: "Relu"
  }
  node {
    input: "419"
    input: "147"
    output: "421"
    op_type: "Conv"
    attribute {
      name: "kernel_shape"
      ints: 3
      ints: 3
    }
    attribute {
      name: "strides"
      ints: 1
      ints: 1
    }
    attribute {
      name: "pads"
      ints: 1
      ints: 1
      ints: 1
      ints: 1
    }
    attribute {
      name: "dilations"
      ints: 1
      ints: 1
    }
    attribute {
      name: "group"
      i: 1
    }
  }
  node {
    input: "421"
    input: "148"
    input: "149"
    input: "150"
    input: "151"
    output: "423"
    op_type: "SpatialBN"
    attribute {
      name: "is_test"
      i: 1
    }
    attribute {
      name: "epsilon"
      f: 9.99999974737875e-06
    }
    attribute {
      name: "momentum"
      f: 0.899999976158142
    }
    attribute {
      name: "consumed_inputs"
      ints: 0
      ints: 0
      ints: 0
      ints: 1
      ints: 1
    }
  }
  node {
    input: "423"
    output: "424"
    op_type: "Relu"
  }
  node {
    input: "424"
    input: "152"
    output: "426"
    op_type: "Conv"
    attribute {
      name: "kernel_shape"
      ints: 1
      ints: 1
    }
    attribute {
      name: "strides"
      ints: 1
      ints: 1
    }
    attribute {
      name: "pads"
      ints: 0
      ints: 0
      ints: 0
      ints: 0
    }
    attribute {
      name: "dilations"
      ints: 1
      ints: 1
    }
    attribute {
      name: "group"
      i: 1
    }
  }
  node {
    input: "426"
    input: "153"
    input: "154"
    input: "155"
    input: "156"
    output: "428"
    op_type: "SpatialBN"
    attribute {
      name: "is_test"
      i: 1
    }
    attribute {
      name: "epsilon"
      f: 9.99999974737875e-06
    }
    attribute {
      name: "momentum"
      f: 0.899999976158142
    }
    attribute {
      name: "consumed_inputs"
      ints: 0
      ints: 0
      ints: 0
      ints: 1
      ints: 1
    }
  }
  node {
    input: "428"
    input: "414"
    output: "429"
    op_type: "Add"
  }
  node {
    input: "429"
    output: "430"
    op_type: "Relu"
  }
  node {
    input: "430"
    input: "157"
    output: "432"
    op_type: "Conv"
    attribute {
      name: "kernel_shape"
      ints: 1
      ints: 1
    }
    attribute {
      name: "strides"
      ints: 1
      ints: 1
    }
    attribute {
      name: "pads"
      ints: 0
      ints: 0
      ints: 0
      ints: 0
    }
    attribute {
      name: "dilations"
      ints: 1
      ints: 1
    }
    attribute {
      name: "group"
      i: 1
    }
  }
  node {
    input: "432"
    input: "158"
    input: "159"
    input: "160"
    input: "161"
    output: "434"
    op_type: "SpatialBN"
    attribute {
      name: "is_test"
      i: 1
    }
    attribute {
      name: "epsilon"
      f: 9.99999974737875e-06
    }
    attribute {
      name: "momentum"
      f: 0.899999976158142
    }
    attribute {
      name: "consumed_inputs"
      ints: 0
      ints: 0
      ints: 0
      ints: 1
      ints: 1
    }
  }
  node {
    input: "434"
    output: "435"
    op_type: "Relu"
  }
  node {
    input: "435"
    input: "162"
    output: "437"
    op_type: "Conv"
    attribute {
      name: "kernel_shape"
      ints: 3
      ints: 3
    }
    attribute {
      name: "strides"
      ints: 1
      ints: 1
    }
    attribute {
      name: "pads"
      ints: 1
      ints: 1
      ints: 1
      ints: 1
    }
    attribute {
      name: "dilations"
      ints: 1
      ints: 1
    }
    attribute {
      name: "group"
      i: 1
    }
  }
  node {
    input: "437"
    input: "163"
    input: "164"
    input: "165"
    input: "166"
    output: "439"
    op_type: "SpatialBN"
    attribute {
      name: "is_test"
      i: 1
    }
    attribute {
      name: "epsilon"
      f: 9.99999974737875e-06
    }
    attribute {
      name: "momentum"
      f: 0.899999976158142
    }
    attribute {
      name: "consumed_inputs"
      ints: 0
      ints: 0
      ints: 0
      ints: 1
      ints: 1
    }
  }
  node {
    input: "439"
    output: "440"
    op_type: "Relu"
  }
  node {
    input: "440"
    input: "167"
    output: "442"
    op_type: "Conv"
    attribute {
      name: "kernel_shape"
      ints: 1
      ints: 1
    }
    attribute {
      name: "strides"
      ints: 1
      ints: 1
    }
    attribute {
      name: "pads"
      ints: 0
      ints: 0
      ints: 0
      ints: 0
    }
    attribute {
      name: "dilations"
      ints: 1
      ints: 1
    }
    attribute {
      name: "group"
      i: 1
    }
  }
  node {
    input: "442"
    input: "168"
    input: "169"
    input: "170"
    input: "171"
    output: "444"
    op_type: "SpatialBN"
    attribute {
      name: "is_test"
      i: 1
    }
    attribute {
      name: "epsilon"
      f: 9.99999974737875e-06
    }
    attribute {
      name: "momentum"
      f: 0.899999976158142
    }
    attribute {
      name: "consumed_inputs"
      ints: 0
      ints: 0
      ints: 0
      ints: 1
      ints: 1
    }
  }
  node {
    input: "444"
    input: "430"
    output: "445"
    op_type: "Add"
  }
  node {
    input: "445"
    output: "446"
    op_type: "Relu"
  }
  node {
    input: "446"
    input: "172"
    output: "448"
    op_type: "Conv"
    attribute {
      name: "kernel_shape"
      ints: 1
      ints: 1
    }
    attribute {
      name: "strides"
      ints: 1
      ints: 1
    }
    attribute {
      name: "pads"
      ints: 0
      ints: 0
      ints: 0
      ints: 0
    }
    attribute {
      name: "dilations"
      ints: 1
      ints: 1
    }
    attribute {
      name: "group"
      i: 1
    }
  }
  node {
    input: "448"
    input: "173"
    input: "174"
    input: "175"
    input: "176"
    output: "450"
    op_type: "SpatialBN"
    attribute {
      name: "is_test"
      i: 1
    }
    attribute {
      name: "epsilon"
      f: 9.99999974737875e-06
    }
    attribute {
      name: "momentum"
      f: 0.899999976158142
    }
    attribute {
      name: "consumed_inputs"
      ints: 0
      ints: 0
      ints: 0
      ints: 1
      ints: 1
    }
  }
  node {
    input: "450"
    output: "451"
    op_type: "Relu"
  }
  node {
    input: "451"
    input: "177"
    output: "453"
    op_type: "Conv"
    attribute {
      name: "kernel_shape"
      ints: 3
      ints: 3
    }
    attribute {
      name: "strides"
      ints: 1
      ints: 1
    }
    attribute {
      name: "pads"
      ints: 1
      ints: 1
      ints: 1
      ints: 1
    }
    attribute {
      name: "dilations"
      ints: 1
      ints: 1
    }
    attribute {
      name: "group"
      i: 1
    }
  }
  node {
    input: "453"
    input: "178"
    input: "179"
    input: "180"
    input: "181"
    output: "455"
    op_type: "SpatialBN"
    attribute {
      name: "is_test"
      i: 1
    }
    attribute {
      name: "epsilon"
      f: 9.99999974737875e-06
    }
    attribute {
      name: "momentum"
      f: 0.899999976158142
    }
    attribute {
      name: "consumed_inputs"
      ints: 0
      ints: 0
      ints: 0
      ints: 1
      ints: 1
    }
  }
  node {
    input: "455"
    output: "456"
    op_type: "Relu"
  }
  node {
    input: "456"
    input: "182"
    output: "458"
    op_type: "Conv"
    attribute {
      name: "kernel_shape"
      ints: 1
      ints: 1
    }
    attribute {
      name: "strides"
      ints: 1
      ints: 1
    }
    attribute {
      name: "pads"
      ints: 0
      ints: 0
      ints: 0
      ints: 0
    }
    attribute {
      name: "dilations"
      ints: 1
      ints: 1
    }
    attribute {
      name: "group"
      i: 1
    }
  }
  node {
    input: "458"
    input: "183"
    input: "184"
    input: "185"
    input: "186"
    output: "460"
    op_type: "SpatialBN"
    attribute {
      name: "is_test"
      i: 1
    }
    attribute {
      name: "epsilon"
      f: 9.99999974737875e-06
    }
    attribute {
      name: "momentum"
      f: 0.899999976158142
    }
    attribute {
      name: "consumed_inputs"
      ints: 0
      ints: 0
      ints: 0
      ints: 1
      ints: 1
    }
  }
  node {
    input: "460"
    input: "446"
    output: "461"
    op_type: "Add"
  }
  node {
    input: "461"
    output: "462"
    op_type: "Relu"
  }
  node {
    input: "462"
    input: "187"
    output: "464"
    op_type: "Conv"
    attribute {
      name: "kernel_shape"
      ints: 1
      ints: 1
    }
    attribute {
      name: "strides"
      ints: 1
      ints: 1
    }
    attribute {
      name: "pads"
      ints: 0
      ints: 0
      ints: 0
      ints: 0
    }
    attribute {
      name: "dilations"
      ints: 1
      ints: 1
    }
    attribute {
      name: "group"
      i: 1
    }
  }
  node {
    input: "464"
    input: "188"
    input: "189"
    input: "190"
    input: "191"
    output: "466"
    op_type: "SpatialBN"
    attribute {
      name: "is_test"
      i: 1
    }
    attribute {
      name: "epsilon"
      f: 9.99999974737875e-06
    }
    attribute {
      name: "momentum"
      f: 0.899999976158142
    }
    attribute {
      name: "consumed_inputs"
      ints: 0
      ints: 0
      ints: 0
      ints: 1
      ints: 1
    }
  }
  node {
    input: "466"
    output: "467"
    op_type: "Relu"
  }
  node {
    input: "467"
    input: "192"
    output: "469"
    op_type: "Conv"
    attribute {
      name: "kernel_shape"
      ints: 3
      ints: 3
    }
    attribute {
      name: "strides"
      ints: 1
      ints: 1
    }
    attribute {
      name: "pads"
      ints: 1
      ints: 1
      ints: 1
      ints: 1
    }
    attribute {
      name: "dilations"
      ints: 1
      ints: 1
    }
    attribute {
      name: "group"
      i: 1
    }
  }
  node {
    input: "469"
    input: "193"
    input: "194"
    input: "195"
    input: "196"
    output: "471"
    op_type: "SpatialBN"
    attribute {
      name: "is_test"
      i: 1
    }
    attribute {
      name: "epsilon"
      f: 9.99999974737875e-06
    }
    attribute {
      name: "momentum"
      f: 0.899999976158142
    }
    attribute {
      name: "consumed_inputs"
      ints: 0
      ints: 0
      ints: 0
      ints: 1
      ints: 1
    }
  }
  node {
    input: "471"
    output: "472"
    op_type: "Relu"
  }
  node {
    input: "472"
    input: "197"
    output: "474"
    op_type: "Conv"
    attribute {
      name: "kernel_shape"
      ints: 1
      ints: 1
    }
    attribute {
      name: "strides"
      ints: 1
      ints: 1
    }
    attribute {
      name: "pads"
      ints: 0
      ints: 0
      ints: 0
      ints: 0
    }
    attribute {
      name: "dilations"
      ints: 1
      ints: 1
    }
    attribute {
      name: "group"
      i: 1
    }
  }
  node {
    input: "474"
    input: "198"
    input: "199"
    input: "200"
    input: "201"
    output: "476"
    op_type: "SpatialBN"
    attribute {
      name: "is_test"
      i: 1
    }
    attribute {
      name: "epsilon"
      f: 9.99999974737875e-06
    }
    attribute {
      name: "momentum"
      f: 0.899999976158142
    }
    attribute {
      name: "consumed_inputs"
      ints: 0
      ints: 0
      ints: 0
      ints: 1
      ints: 1
    }
  }
  node {
    input: "476"
    input: "462"
    output: "477"
    op_type: "Add"
  }
  node {
    input: "477"
    output: "478"
    op_type: "Relu"
  }
  node {
    input: "478"
    input: "202"
    output: "480"
    op_type: "Conv"
    attribute {
      name: "kernel_shape"
      ints: 1
      ints: 1
    }
    attribute {
      name: "strides"
      ints: 1
      ints: 1
    }
    attribute {
      name: "pads"
      ints: 0
      ints: 0
      ints: 0
      ints: 0
    }
    attribute {
      name: "dilations"
      ints: 1
      ints: 1
    }
    attribute {
      name: "group"
      i: 1
    }
  }
  node {
    input: "480"
    input: "203"
    input: "204"
    input: "205"
    input: "206"
    output: "482"
    op_type: "SpatialBN"
    attribute {
      name: "is_test"
      i: 1
    }
    attribute {
      name: "epsilon"
      f: 9.99999974737875e-06
    }
    attribute {
      name: "momentum"
      f: 0.899999976158142
    }
    attribute {
      name: "consumed_inputs"
      ints: 0
      ints: 0
      ints: 0
      ints: 1
      ints: 1
    }
  }
  node {
    input: "482"
    output: "483"
    op_type: "Relu"
  }
  node {
    input: "483"
    input: "207"
    output: "485"
    op_type: "Conv"
    attribute {
      name: "kernel_shape"
      ints: 3
      ints: 3
    }
    attribute {
      name: "strides"
      ints: 1
      ints: 1
    }
    attribute {
      name: "pads"
      ints: 1
      ints: 1
      ints: 1
      ints: 1
    }
    attribute {
      name: "dilations"
      ints: 1
      ints: 1
    }
    attribute {
      name: "group"
      i: 1
    }
  }
  node {
    input: "485"
    input: "208"
    input: "209"
    input: "210"
    input: "211"
    output: "487"
    op_type: "SpatialBN"
    attribute {
      name: "is_test"
      i: 1
    }
    attribute {
      name: "epsilon"
      f: 9.99999974737875e-06
    }
    attribute {
      name: "momentum"
      f: 0.899999976158142
    }
    attribute {
      name: "consumed_inputs"
      ints: 0
      ints: 0
      ints: 0
      ints: 1
      ints: 1
    }
  }
  node {
    input: "487"
    output: "488"
    op_type: "Relu"
  }
  node {
    input: "488"
    input: "212"
    output: "490"
    op_type: "Conv"
    attribute {
      name: "kernel_shape"
      ints: 1
      ints: 1
    }
    attribute {
      name: "strides"
      ints: 1
      ints: 1
    }
    attribute {
      name: "pads"
      ints: 0
      ints: 0
      ints: 0
      ints: 0
    }
    attribute {
      name: "dilations"
      ints: 1
      ints: 1
    }
    attribute {
      name: "group"
      i: 1
    }
  }
  node {
    input: "490"
    input: "213"
    input: "214"
    input: "215"
    input: "216"
    output: "492"
    op_type: "SpatialBN"
    attribute {
      name: "is_test"
      i: 1
    }
    attribute {
      name: "epsilon"
      f: 9.99999974737875e-06
    }
    attribute {
      name: "momentum"
      f: 0.899999976158142
    }
    attribute {
      name: "consumed_inputs"
      ints: 0
      ints: 0
      ints: 0
      ints: 1
      ints: 1
    }
  }
  node {
    input: "492"
    input: "478"
    output: "493"
    op_type: "Add"
  }
  node {
    input: "493"
    output: "494"
    op_type: "Relu"
  }
  node {
    input: "494"
    input: "217"
    output: "496"
    op_type: "Conv"
    attribute {
      name: "kernel_shape"
      ints: 1
      ints: 1
    }
    attribute {
      name: "strides"
      ints: 1
      ints: 1
    }
    attribute {
      name: "pads"
      ints: 0
      ints: 0
      ints: 0
      ints: 0
    }
    attribute {
      name: "dilations"
      ints: 1
      ints: 1
    }
    attribute {
      name: "group"
      i: 1
    }
  }
  node {
    input: "496"
    input: "218"
    input: "219"
    input: "220"
    input: "221"
    output: "498"
    op_type: "SpatialBN"
    attribute {
      name: "is_test"
      i: 1
    }
    attribute {
      name: "epsilon"
      f: 9.99999974737875e-06
    }
    attribute {
      name: "momentum"
      f: 0.899999976158142
    }
    attribute {
      name: "consumed_inputs"
      ints: 0
      ints: 0
      ints: 0
      ints: 1
      ints: 1
    }
  }
  node {
    input: "498"
    output: "499"
    op_type: "Relu"
  }
  node {
    input: "499"
    input: "222"
    output: "501"
    op_type: "Conv"
    attribute {
      name: "kernel_shape"
      ints: 3
      ints: 3
    }
    attribute {
      name: "strides"
      ints: 2
      ints: 2
    }
    attribute {
      name: "pads"
      ints: 1
      ints: 1
      ints: 1
      ints: 1
    }
    attribute {
      name: "dilations"
      ints: 1
      ints: 1
    }
    attribute {
      name: "group"
      i: 1
    }
  }
  node {
    input: "501"
    input: "223"
    input: "224"
    input: "225"
    input: "226"
    output: "503"
    op_type: "SpatialBN"
    attribute {
      name: "is_test"
      i: 1
    }
    attribute {
      name: "epsilon"
      f: 9.99999974737875e-06
    }
    attribute {
      name: "momentum"
      f: 0.899999976158142
    }
    attribute {
      name: "consumed_inputs"
      ints: 0
      ints: 0
      ints: 0
      ints: 1
      ints: 1
    }
  }
  node {
    input: "503"
    output: "504"
    op_type: "Relu"
  }
  node {
    input: "504"
    input: "227"
    output: "506"
    op_type: "Conv"
    attribute {
      name: "kernel_shape"
      ints: 1
      ints: 1
    }
    attribute {
      name: "strides"
      ints: 1
      ints: 1
    }
    attribute {
      name: "pads"
      ints: 0
      ints: 0
      ints: 0
      ints: 0
    }
    attribute {
      name: "dilations"
      ints: 1
      ints: 1
    }
    attribute {
      name: "group"
      i: 1
    }
  }
  node {
    input: "506"
    input: "228"
    input: "229"
    input: "230"
    input: "231"
    output: "508"
    op_type: "SpatialBN"
    attribute {
      name: "is_test"
      i: 1
    }
    attribute {
      name: "epsilon"
      f: 9.99999974737875e-06
    }
    attribute {
      name: "momentum"
      f: 0.899999976158142
    }
    attribute {
      name: "consumed_inputs"
      ints: 0
      ints: 0
      ints: 0
      ints: 1
      ints: 1
    }
  }
  node {
    input: "494"
    input: "232"
    output: "510"
    op_type: "Conv"
    attribute {
      name: "kernel_shape"
      ints: 1
      ints: 1
    }
    attribute {
      name: "strides"
      ints: 2
      ints: 2
    }
    attribute {
      name: "pads"
      ints: 0
      ints: 0
      ints: 0
      ints: 0
    }
    attribute {
      name: "dilations"
      ints: 1
      ints: 1
    }
    attribute {
      name: "group"
      i: 1
    }
  }
  node {
    input: "510"
    input: "233"
    input: "234"
    input: "235"
    input: "236"
    output: "512"
    op_type: "SpatialBN"
    attribute {
      name: "is_test"
      i: 1
    }
    attribute {
      name: "epsilon"
      f: 9.99999974737875e-06
    }
    attribute {
      name: "momentum"
      f: 0.899999976158142
    }
    attribute {
      name: "consumed_inputs"
      ints: 0
      ints: 0
      ints: 0
      ints: 1
      ints: 1
    }
  }
  node {
    input: "508"
    input: "512"
    output: "513"
    op_type: "Add"
  }
  node {
    input: "513"
    output: "514"
    op_type: "Relu"
  }
  node {
    input: "514"
    input: "237"
    output: "516"
    op_type: "Conv"
    attribute {
      name: "kernel_shape"
      ints: 1
      ints: 1
    }
    attribute {
      name: "strides"
      ints: 1
      ints: 1
    }
    attribute {
      name: "pads"
      ints: 0
      ints: 0
      ints: 0
      ints: 0
    }
    attribute {
      name: "dilations"
      ints: 1
      ints: 1
    }
    attribute {
      name: "group"
      i: 1
    }
  }
  node {
    input: "516"
    input: "238"
    input: "239"
    input: "240"
    input: "241"
    output: "518"
    op_type: "SpatialBN"
    attribute {
      name: "is_test"
      i: 1
    }
    attribute {
      name: "epsilon"
      f: 9.99999974737875e-06
    }
    attribute {
      name: "momentum"
      f: 0.899999976158142
    }
    attribute {
      name: "consumed_inputs"
      ints: 0
      ints: 0
      ints: 0
      ints: 1
      ints: 1
    }
  }
  node {
    input: "518"
    output: "519"
    op_type: "Relu"
  }
  node {
    input: "519"
    input: "242"
    output: "521"
    op_type: "Conv"
    attribute {
      name: "kernel_shape"
      ints: 3
      ints: 3
    }
    attribute {
      name: "strides"
      ints: 1
      ints: 1
    }
    attribute {
      name: "pads"
      ints: 1
      ints: 1
      ints: 1
      ints: 1
    }
    attribute {
      name: "dilations"
      ints: 1
      ints: 1
    }
    attribute {
      name: "group"
      i: 1
    }
  }
  node {
    input: "521"
    input: "243"
    input: "244"
    input: "245"
    input: "246"
    output: "523"
    op_type: "SpatialBN"
    attribute {
      name: "is_test"
      i: 1
    }
    attribute {
      name: "epsilon"
      f: 9.99999974737875e-06
    }
    attribute {
      name: "momentum"
      f: 0.899999976158142
    }
    attribute {
      name: "consumed_inputs"
      ints: 0
      ints: 0
      ints: 0
      ints: 1
      ints: 1
    }
  }
  node {
    input: "523"
    output: "524"
    op_type: "Relu"
  }
  node {
    input: "524"
    input: "247"
    output: "526"
    op_type: "Conv"
    attribute {
      name: "kernel_shape"
      ints: 1
      ints: 1
    }
    attribute {
      name: "strides"
      ints: 1
      ints: 1
    }
    attribute {
      name: "pads"
      ints: 0
      ints: 0
      ints: 0
      ints: 0
    }
    attribute {
      name: "dilations"
      ints: 1
      ints: 1
    }
    attribute {
      name: "group"
      i: 1
    }
  }
  node {
    input: "526"
    input: "248"
    input: "249"
    input: "250"
    input: "251"
    output: "528"
    op_type: "SpatialBN"
    attribute {
      name: "is_test"
      i: 1
    }
    attribute {
      name: "epsilon"
      f: 9.99999974737875e-06
    }
    attribute {
      name: "momentum"
      f: 0.899999976158142
    }
    attribute {
      name: "consumed_inputs"
      ints: 0
      ints: 0
      ints: 0
      ints: 1
      ints: 1
    }
  }
  node {
    input: "528"
    input: "514"
    output: "529"
    op_type: "Add"
  }
  node {
    input: "529"
    output: "530"
    op_type: "Relu"
  }
  node {
    input: "530"
    input: "252"
    output: "532"
    op_type: "Conv"
    attribute {
      name: "kernel_shape"
      ints: 1
      ints: 1
    }
    attribute {
      name: "strides"
      ints: 1
      ints: 1
    }
    attribute {
      name: "pads"
      ints: 0
      ints: 0
      ints: 0
      ints: 0
    }
    attribute {
      name: "dilations"
      ints: 1
      ints: 1
    }
    attribute {
      name: "group"
      i: 1
    }
  }
  node {
    input: "532"
    input: "253"
    input: "254"
    input: "255"
    input: "256"
    output: "534"
    op_type: "SpatialBN"
    attribute {
      name: "is_test"
      i: 1
    }
    attribute {
      name: "epsilon"
      f: 9.99999974737875e-06
    }
    attribute {
      name: "momentum"
      f: 0.899999976158142
    }
    attribute {
      name: "consumed_inputs"
      ints: 0
      ints: 0
      ints: 0
      ints: 1
      ints: 1
    }
  }
  node {
    input: "534"
    output: "535"
    op_type: "Relu"
  }
  node {
    input: "535"
    input: "257"
    output: "537"
    op_type: "Conv"
    attribute {
      name: "kernel_shape"
      ints: 3
      ints: 3
    }
    attribute {
      name: "strides"
      ints: 1
      ints: 1
    }
    attribute {
      name: "pads"
      ints: 1
      ints: 1
      ints: 1
      ints: 1
    }
    attribute {
      name: "dilations"
      ints: 1
      ints: 1
    }
    attribute {
      name: "group"
      i: 1
    }
  }
  node {
    input: "537"
    input: "258"
    input: "259"
    input: "260"
    input: "261"
    output: "539"
    op_type: "SpatialBN"
    attribute {
      name: "is_test"
      i: 1
    }
    attribute {
      name: "epsilon"
      f: 9.99999974737875e-06
    }
    attribute {
      name: "momentum"
      f: 0.899999976158142
    }
    attribute {
      name: "consumed_inputs"
      ints: 0
      ints: 0
      ints: 0
      ints: 1
      ints: 1
    }
  }
  node {
    input: "539"
    output: "540"
    op_type: "Relu"
  }
  node {
    input: "540"
    input: "262"
    output: "542"
    op_type: "Conv"
    attribute {
      name: "kernel_shape"
      ints: 1
      ints: 1
    }
    attribute {
      name: "strides"
      ints: 1
      ints: 1
    }
    attribute {
      name: "pads"
      ints: 0
      ints: 0
      ints: 0
      ints: 0
    }
    attribute {
      name: "dilations"
      ints: 1
      ints: 1
    }
    attribute {
      name: "group"
      i: 1
    }
  }
  node {
    input: "542"
    input: "263"
    input: "264"
    input: "265"
    input: "266"
    output: "544"
    op_type: "SpatialBN"
    attribute {
      name: "is_test"
      i: 1
    }
    attribute {
      name: "epsilon"
      f: 9.99999974737875e-06
    }
    attribute {
      name: "momentum"
      f: 0.899999976158142
    }
    attribute {
      name: "consumed_inputs"
      ints: 0
      ints: 0
      ints: 0
      ints: 1
      ints: 1
    }
  }
  node {
    input: "544"
    input: "530"
    output: "545"
    op_type: "Add"
  }
  node {
    input: "545"
    output: "546"
    op_type: "Relu"
  }
  node {
    input: "546"
    output: "547"
    op_type: "AveragePool"
    attribute {
      name: "kernel_shape"
      ints: 7
      ints: 7
    }
    attribute {
      name: "strides"
      ints: 7
      ints: 7
    }
    attribute {
      name: "pads"
      ints: 0
      ints: 0
    }
  }
  node {
    input: "547"
    output: "548"
    op_type: "Reshape"
    attribute {
      name: "shape"
      ints: 2
      ints: -1
    }
  }
  node {
    input: "267"
    output: "549"
    op_type: "Transpose"
    attribute {
      name: "perm"
      ints: 1
      ints: 0
    }
  }
  node {
    input: "548"
    input: "549"
    input: "268"
    output: "550"
    op_type: "Gemm"
    attribute {
      name: "alpha"
      f: 1
    }
    attribute {
      name: "beta"
      f: 1
    }
    attribute {
      name: "broadcast"
      i: 1
    }
  }
  name: "torch-jit-export"
  input {
    name: "1"
    type {
      tensor_type {
        elem_type: FLOAT
        shape {
          dim {
            dim_value: 2
          }
          dim {
            dim_value: 3
          }
          dim {
            dim_value: 224
          }
          dim {
            dim_value: 224
          }
        }
      }
    }
  }
  input {
    name: "2"
    type {
      tensor_type {
        elem_type: FLOAT
        shape {
          dim {
            dim_value: 64
          }
          dim {
            dim_value: 3
          }
          dim {
            dim_value: 7
          }
          dim {
            dim_value: 7
          }
        }
      }
    }
  }
  input {
    name: "3"
    type {
      tensor_type {
        elem_type: FLOAT
        shape {
          dim {
            dim_value: 64
          }
        }
      }
    }
  }
  input {
    name: "4"
    type {
      tensor_type {
        elem_type: FLOAT
        shape {
          dim {
            dim_value: 64
          }
        }
      }
    }
  }
  input {
    name: "5"
    type {
      tensor_type {
        elem_type: FLOAT
        shape {
          dim {
            dim_value: 64
          }
        }
      }
    }
  }
  input {
    name: "6"
    type {
      tensor_type {
        elem_type: FLOAT
        shape {
          dim {
            dim_value: 64
          }
        }
      }
    }
  }
  input {
    name: "7"
    type {
      tensor_type {
        elem_type: FLOAT
        shape {
          dim {
            dim_value: 64
          }
          dim {
            dim_value: 64
          }
          dim {
            dim_value: 1
          }
          dim {
            dim_value: 1
          }
        }
      }
    }
  }
  input {
    name: "8"
    type {
      tensor_type {
        elem_type: FLOAT
        shape {
          dim {
            dim_value: 64
          }
        }
      }
    }
  }
  input {
    name: "9"
    type {
      tensor_type {
        elem_type: FLOAT
        shape {
          dim {
            dim_value: 64
          }
        }
      }
    }
  }
  input {
    name: "10"
    type {
      tensor_type {
        elem_type: FLOAT
        shape {
          dim {
            dim_value: 64
          }
        }
      }
    }
  }
  input {
    name: "11"
    type {
      tensor_type {
        elem_type: FLOAT
        shape {
          dim {
            dim_value: 64
          }
        }
      }
    }
  }
  input {
    name: "12"
    type {
      tensor_type {
        elem_type: FLOAT
        shape {
          dim {
            dim_value: 64
          }
          dim {
            dim_value: 64
          }
          dim {
            dim_value: 3
          }
          dim {
            dim_value: 3
          }
        }
      }
    }
  }
  input {
    name: "13"
    type {
      tensor_type {
        elem_type: FLOAT
        shape {
          dim {
            dim_value: 64
          }
        }
      }
    }
  }
  input {
    name: "14"
    type {
      tensor_type {
        elem_type: FLOAT
        shape {
          dim {
            dim_value: 64
          }
        }
      }
    }
  }
  input {
    name: "15"
    type {
      tensor_type {
        elem_type: FLOAT
        shape {
          dim {
            dim_value: 64
          }
        }
      }
    }
  }
  input {
    name: "16"
    type {
      tensor_type {
        elem_type: FLOAT
        shape {
          dim {
            dim_value: 64
          }
        }
      }
    }
  }
  input {
    name: "17"
    type {
      tensor_type {
        elem_type: FLOAT
        shape {
          dim {
            dim_value: 256
          }
          dim {
            dim_value: 64
          }
          dim {
            dim_value: 1
          }
          dim {
            dim_value: 1
          }
        }
      }
    }
  }
  input {
    name: "18"
    type {
      tensor_type {
        elem_type: FLOAT
        shape {
          dim {
            dim_value: 256
          }
        }
      }
    }
  }
  input {
    name: "19"
    type {
      tensor_type {
        elem_type: FLOAT
        shape {
          dim {
            dim_value: 256
          }
        }
      }
    }
  }
  input {
    name: "20"
    type {
      tensor_type {
        elem_type: FLOAT
        shape {
          dim {
            dim_value: 256
          }
        }
      }
    }
  }
  input {
    name: "21"
    type {
      tensor_type {
        elem_type: FLOAT
        shape {
          dim {
            dim_value: 256
          }
        }
      }
    }
  }
  input {
    name: "22"
    type {
      tensor_type {
        elem_type: FLOAT
        shape {
          dim {
            dim_value: 256
          }
          dim {
            dim_value: 64
          }
          dim {
            dim_value: 1
          }
          dim {
            dim_value: 1
          }
        }
      }
    }
  }
  input {
    name: "23"
    type {
      tensor_type {
        elem_type: FLOAT
        shape {
          dim {
            dim_value: 256
          }
        }
      }
    }
  }
  input {
    name: "24"
    type {
      tensor_type {
        elem_type: FLOAT
        shape {
          dim {
            dim_value: 256
          }
        }
      }
    }
  }
  input {
    name: "25"
    type {
      tensor_type {
        elem_type: FLOAT
        shape {
          dim {
            dim_value: 256
          }
        }
      }
    }
  }
  input {
    name: "26"
    type {
      tensor_type {
        elem_type: FLOAT
        shape {
          dim {
            dim_value: 256
          }
        }
      }
    }
  }
  input {
    name: "27"
    type {
      tensor_type {
        elem_type: FLOAT
        shape {
          dim {
            dim_value: 64
          }
          dim {
            dim_value: 256
          }
          dim {
            dim_value: 1
          }
          dim {
            dim_value: 1
          }
        }
      }
    }
  }
  input {
    name: "28"
    type {
      tensor_type {
        elem_type: FLOAT
        shape {
          dim {
            dim_value: 64
          }
        }
      }
    }
  }
  input {
    name: "29"
    type {
      tensor_type {
        elem_type: FLOAT
        shape {
          dim {
            dim_value: 64
          }
        }
      }
    }
  }
  input {
    name: "30"
    type {
      tensor_type {
        elem_type: FLOAT
        shape {
          dim {
            dim_value: 64
          }
        }
      }
    }
  }
  input {
    name: "31"
    type {
      tensor_type {
        elem_type: FLOAT
        shape {
          dim {
            dim_value: 64
          }
        }
      }
    }
  }
  input {
    name: "32"
    type {
      tensor_type {
        elem_type: FLOAT
        shape {
          dim {
            dim_value: 64
          }
          dim {
            dim_value: 64
          }
          dim {
            dim_value: 3
          }
          dim {
            dim_value: 3
          }
        }
      }
    }
  }
  input {
    name: "33"
    type {
      tensor_type {
        elem_type: FLOAT
        shape {
          dim {
            dim_value: 64
          }
        }
      }
    }
  }
  input {
    name: "34"
    type {
      tensor_type {
        elem_type: FLOAT
        shape {
          dim {
            dim_value: 64
          }
        }
      }
    }
  }
  input {
    name: "35"
    type {
      tensor_type {
        elem_type: FLOAT
        shape {
          dim {
            dim_value: 64
          }
        }
      }
    }
  }
  input {
    name: "36"
    type {
      tensor_type {
        elem_type: FLOAT
        shape {
          dim {
            dim_value: 64
          }
        }
      }
    }
  }
  input {
    name: "37"
    type {
      tensor_type {
        elem_type: FLOAT
        shape {
          dim {
            dim_value: 256
          }
          dim {
            dim_value: 64
          }
          dim {
            dim_value: 1
          }
          dim {
            dim_value: 1
          }
        }
      }
    }
  }
  input {
    name: "38"
    type {
      tensor_type {
        elem_type: FLOAT
        shape {
          dim {
            dim_value: 256
          }
        }
      }
    }
  }
  input {
    name: "39"
    type {
      tensor_type {
        elem_type: FLOAT
        shape {
          dim {
            dim_value: 256
          }
        }
      }
    }
  }
  input {
    name: "40"
    type {
      tensor_type {
        elem_type: FLOAT
        shape {
          dim {
            dim_value: 256
          }
        }
      }
    }
  }
  input {
    name: "41"
    type {
      tensor_type {
        elem_type: FLOAT
        shape {
          dim {
            dim_value: 256
          }
        }
      }
    }
  }
  input {
    name: "42"
    type {
      tensor_type {
        elem_type: FLOAT
        shape {
          dim {
            dim_value: 64
          }
          dim {
            dim_value: 256
          }
          dim {
            dim_value: 1
          }
          dim {
            dim_value: 1
          }
        }
      }
    }
  }
  input {
    name: "43"
    type {
      tensor_type {
        elem_type: FLOAT
        shape {
          dim {
            dim_value: 64
          }
        }
      }
    }
  }
  input {
    name: "44"
    type {
      tensor_type {
        elem_type: FLOAT
        shape {
          dim {
            dim_value: 64
          }
        }
      }
    }
  }
  input {
    name: "45"
    type {
      tensor_type {
        elem_type: FLOAT
        shape {
          dim {
            dim_value: 64
          }
        }
      }
    }
  }
  input {
    name: "46"
    type {
      tensor_type {
        elem_type: FLOAT
        shape {
          dim {
            dim_value: 64
          }
        }
      }
    }
  }
  input {
    name: "47"
    type {
      tensor_type {
        elem_type: FLOAT
        shape {
          dim {
            dim_value: 64
          }
          dim {
            dim_value: 64
          }
          dim {
            dim_value: 3
          }
          dim {
            dim_value: 3
          }
        }
      }
    }
  }
  input {
    name: "48"
    type {
      tensor_type {
        elem_type: FLOAT
        shape {
          dim {
            dim_value: 64
          }
        }
      }
    }
  }
  input {
    name: "49"
    type {
      tensor_type {
        elem_type: FLOAT
        shape {
          dim {
            dim_value: 64
          }
        }
      }
    }
  }
  input {
    name: "50"
    type {
      tensor_type {
        elem_type: FLOAT
        shape {
          dim {
            dim_value: 64
          }
        }
      }
    }
  }
  input {
    name: "51"
    type {
      tensor_type {
        elem_type: FLOAT
        shape {
          dim {
            dim_value: 64
          }
        }
      }
    }
  }
  input {
    name: "52"
    type {
      tensor_type {
        elem_type: FLOAT
        shape {
          dim {
            dim_value: 256
          }
          dim {
            dim_value: 64
          }
          dim {
            dim_value: 1
          }
          dim {
            dim_value: 1
          }
        }
      }
    }
  }
  input {
    name: "53"
    type {
      tensor_type {
        elem_type: FLOAT
        shape {
          dim {
            dim_value: 256
          }
        }
      }
    }
  }
  input {
    name: "54"
    type {
      tensor_type {
        elem_type: FLOAT
        shape {
          dim {
            dim_value: 256
          }
        }
      }
    }
  }
  input {
    name: "55"
    type {
      tensor_type {
        elem_type: FLOAT
        shape {
          dim {
            dim_value: 256
          }
        }
      }
    }
  }
  input {
    name: "56"
    type {
      tensor_type {
        elem_type: FLOAT
        shape {
          dim {
            dim_value: 256
          }
        }
      }
    }
  }
  input {
    name: "57"
    type {
      tensor_type {
        elem_type: FLOAT
        shape {
          dim {
            dim_value: 128
          }
          dim {
            dim_value: 256
          }
          dim {
            dim_value: 1
          }
          dim {
            dim_value: 1
          }
        }
      }
    }
  }
  input {
    name: "58"
    type {
      tensor_type {
        elem_type: FLOAT
        shape {
          dim {
            dim_value: 128
          }
        }
      }
    }
  }
  input {
    name: "59"
    type {
      tensor_type {
        elem_type: FLOAT
        shape {
          dim {
            dim_value: 128
          }
        }
      }
    }
  }
  input {
    name: "60"
    type {
      tensor_type {
        elem_type: FLOAT
        shape {
          dim {
            dim_value: 128
          }
        }
      }
    }
  }
  input {
    name: "61"
    type {
      tensor_type {
        elem_type: FLOAT
        shape {
          dim {
            dim_value: 128
          }
        }
      }
    }
  }
  input {
    name: "62"
    type {
      tensor_type {
        elem_type: FLOAT
        shape {
          dim {
            dim_value: 128
          }
          dim {
            dim_value: 128
          }
          dim {
            dim_value: 3
          }
          dim {
            dim_value: 3
          }
        }
      }
    }
  }
  input {
    name: "63"
    type {
      tensor_type {
        elem_type: FLOAT
        shape {
          dim {
            dim_value: 128
          }
        }
      }
    }
  }
  input {
    name: "64"
    type {
      tensor_type {
        elem_type: FLOAT
        shape {
          dim {
            dim_value: 128
          }
        }
      }
    }
  }
  input {
    name: "65"
    type {
      tensor_type {
        elem_type: FLOAT
        shape {
          dim {
            dim_value: 128
          }
        }
      }
    }
  }
  input {
    name: "66"
    type {
      tensor_type {
        elem_type: FLOAT
        shape {
          dim {
            dim_value: 128
          }
        }
      }
    }
  }
  input {
    name: "67"
    type {
      tensor_type {
        elem_type: FLOAT
        shape {
          dim {
            dim_value: 512
          }
          dim {
            dim_value: 128
          }
          dim {
            dim_value: 1
          }
          dim {
            dim_value: 1
          }
        }
      }
    }
  }
  input {
    name: "68"
    type {
      tensor_type {
        elem_type: FLOAT
        shape {
          dim {
            dim_value: 512
          }
        }
      }
    }
  }
  input {
    name: "69"
    type {
      tensor_type {
        elem_type: FLOAT
        shape {
          dim {
            dim_value: 512
          }
        }
      }
    }
  }
  input {
    name: "70"
    type {
      tensor_type {
        elem_type: FLOAT
        shape {
          dim {
            dim_value: 512
          }
        }
      }
    }
  }
  input {
    name: "71"
    type {
      tensor_type {
        elem_type: FLOAT
        shape {
          dim {
            dim_value: 512
          }
        }
      }
    }
  }
  input {
    name: "72"
    type {
      tensor_type {
        elem_type: FLOAT
        shape {
          dim {
            dim_value: 512
          }
          dim {
            dim_value: 256
          }
          dim {
            dim_value: 1
          }
          dim {
            dim_value: 1
          }
        }
      }
    }
  }
  input {
    name: "73"
    type {
      tensor_type {
        elem_type: FLOAT
        shape {
          dim {
            dim_value: 512
          }
        }
      }
    }
  }
  input {
    name: "74"
    type {
      tensor_type {
        elem_type: FLOAT
        shape {
          dim {
            dim_value: 512
          }
        }
      }
    }
  }
  input {
    name: "75"
    type {
      tensor_type {
        elem_type: FLOAT
        shape {
          dim {
            dim_value: 512
          }
        }
      }
    }
  }
  input {
    name: "76"
    type {
      tensor_type {
        elem_type: FLOAT
        shape {
          dim {
            dim_value: 512
          }
        }
      }
    }
  }
  input {
    name: "77"
    type {
      tensor_type {
        elem_type: FLOAT
        shape {
          dim {
            dim_value: 128
          }
          dim {
            dim_value: 512
          }
          dim {
            dim_value: 1
          }
          dim {
            dim_value: 1
          }
        }
      }
    }
  }
  input {
    name: "78"
    type {
      tensor_type {
        elem_type: FLOAT
        shape {
          dim {
            dim_value: 128
          }
        }
      }
    }
  }
  input {
    name: "79"
    type {
      tensor_type {
        elem_type: FLOAT
        shape {
          dim {
            dim_value: 128
          }
        }
      }
    }
  }
  input {
    name: "80"
    type {
      tensor_type {
        elem_type: FLOAT
        shape {
          dim {
            dim_value: 128
          }
        }
      }
    }
  }
  input {
    name: "81"
    type {
      tensor_type {
        elem_type: FLOAT
        shape {
          dim {
            dim_value: 128
          }
        }
      }
    }
  }
  input {
    name: "82"
    type {
      tensor_type {
        elem_type: FLOAT
        shape {
          dim {
            dim_value: 128
          }
          dim {
            dim_value: 128
          }
          dim {
            dim_value: 3
          }
          dim {
            dim_value: 3
          }
        }
      }
    }
  }
  input {
    name: "83"
    type {
      tensor_type {
        elem_type: FLOAT
        shape {
          dim {
            dim_value: 128
          }
        }
      }
    }
  }
  input {
    name: "84"
    type {
      tensor_type {
        elem_type: FLOAT
        shape {
          dim {
            dim_value: 128
          }
        }
      }
    }
  }
  input {
    name: "85"
    type {
      tensor_type {
        elem_type: FLOAT
        shape {
          dim {
            dim_value: 128
          }
        }
      }
    }
  }
  input {
    name: "86"
    type {
      tensor_type {
        elem_type: FLOAT
        shape {
          dim {
            dim_value: 128
          }
        }
      }
    }
  }
  input {
    name: "87"
    type {
      tensor_type {
        elem_type: FLOAT
        shape {
          dim {
            dim_value: 512
          }
          dim {
            dim_value: 128
          }
          dim {
            dim_value: 1
          }
          dim {
            dim_value: 1
          }
        }
      }
    }
  }
  input {
    name: "88"
    type {
      tensor_type {
        elem_type: FLOAT
        shape {
          dim {
            dim_value: 512
          }
        }
      }
    }
  }
  input {
    name: "89"
    type {
      tensor_type {
        elem_type: FLOAT
        shape {
          dim {
            dim_value: 512
          }
        }
      }
    }
  }
  input {
    name: "90"
    type {
      tensor_type {
        elem_type: FLOAT
        shape {
          dim {
            dim_value: 512
          }
        }
      }
    }
  }
  input {
    name: "91"
    type {
      tensor_type {
        elem_type: FLOAT
        shape {
          dim {
            dim_value: 512
          }
        }
      }
    }
  }
  input {
    name: "92"
    type {
      tensor_type {
        elem_type: FLOAT
        shape {
          dim {
            dim_value: 128
          }
          dim {
            dim_value: 512
          }
          dim {
            dim_value: 1
          }
          dim {
            dim_value: 1
          }
        }
      }
    }
  }
  input {
    name: "93"
    type {
      tensor_type {
        elem_type: FLOAT
        shape {
          dim {
            dim_value: 128
          }
        }
      }
    }
  }
  input {
    name: "94"
    type {
      tensor_type {
        elem_type: FLOAT
        shape {
          dim {
            dim_value: 128
          }
        }
      }
    }
  }
  input {
    name: "95"
    type {
      tensor_type {
        elem_type: FLOAT
        shape {
          dim {
            dim_value: 128
          }
        }
      }
    }
  }
  input {
    name: "96"
    type {
      tensor_type {
        elem_type: FLOAT
        shape {
          dim {
            dim_value: 128
          }
        }
      }
    }
  }
  input {
    name: "97"
    type {
      tensor_type {
        elem_type: FLOAT
        shape {
          dim {
            dim_value: 128
          }
          dim {
            dim_value: 128
          }
          dim {
            dim_value: 3
          }
          dim {
            dim_value: 3
          }
        }
      }
    }
  }
  input {
    name: "98"
    type {
      tensor_type {
        elem_type: FLOAT
        shape {
          dim {
            dim_value: 128
          }
        }
      }
    }
  }
  input {
    name: "99"
    type {
      tensor_type {
        elem_type: FLOAT
        shape {
          dim {
            dim_value: 128
          }
        }
      }
    }
  }
  input {
    name: "100"
    type {
      tensor_type {
        elem_type: FLOAT
        shape {
          dim {
            dim_value: 128
          }
        }
      }
    }
  }
  input {
    name: "101"
    type {
      tensor_type {
        elem_type: FLOAT
        shape {
          dim {
            dim_value: 128
          }
        }
      }
    }
  }
  input {
    name: "102"
    type {
      tensor_type {
        elem_type: FLOAT
        shape {
          dim {
            dim_value: 512
          }
          dim {
            dim_value: 128
          }
          dim {
            dim_value: 1
          }
          dim {
            dim_value: 1
          }
        }
      }
    }
  }
  input {
    name: "103"
    type {
      tensor_type {
        elem_type: FLOAT
        shape {
          dim {
            dim_value: 512
          }
        }
      }
    }
  }
  input {
    name: "104"
    type {
      tensor_type {
        elem_type: FLOAT
        shape {
          dim {
            dim_value: 512
          }
        }
      }
    }
  }
  input {
    name: "105"
    type {
      tensor_type {
        elem_type: FLOAT
        shape {
          dim {
            dim_value: 512
          }
        }
      }
    }
  }
  input {
    name: "106"
    type {
      tensor_type {
        elem_type: FLOAT
        shape {
          dim {
            dim_value: 512
          }
        }
      }
    }
  }
  input {
    name: "107"
    type {
      tensor_type {
        elem_type: FLOAT
        shape {
          dim {
            dim_value: 128
          }
          dim {
            dim_value: 512
          }
          dim {
            dim_value: 1
          }
          dim {
            dim_value: 1
          }
        }
      }
    }
  }
  input {
    name: "108"
    type {
      tensor_type {
        elem_type: FLOAT
        shape {
          dim {
            dim_value: 128
          }
        }
      }
    }
  }
  input {
    name: "109"
    type {
      tensor_type {
        elem_type: FLOAT
        shape {
          dim {
            dim_value: 128
          }
        }
      }
    }
  }
  input {
    name: "110"
    type {
      tensor_type {
        elem_type: FLOAT
        shape {
          dim {
            dim_value: 128
          }
        }
      }
    }
  }
  input {
    name: "111"
    type {
      tensor_type {
        elem_type: FLOAT
        shape {
          dim {
            dim_value: 128
          }
        }
      }
    }
  }
  input {
    name: "112"
    type {
      tensor_type {
        elem_type: FLOAT
        shape {
          dim {
            dim_value: 128
          }
          dim {
            dim_value: 128
          }
          dim {
            dim_value: 3
          }
          dim {
            dim_value: 3
          }
        }
      }
    }
  }
  input {
    name: "113"
    type {
      tensor_type {
        elem_type: FLOAT
        shape {
          dim {
            dim_value: 128
          }
        }
      }
    }
  }
  input {
    name: "114"
    type {
      tensor_type {
        elem_type: FLOAT
        shape {
          dim {
            dim_value: 128
          }
        }
      }
    }
  }
  input {
    name: "115"
    type {
      tensor_type {
        elem_type: FLOAT
        shape {
          dim {
            dim_value: 128
          }
        }
      }
    }
  }
  input {
    name: "116"
    type {
      tensor_type {
        elem_type: FLOAT
        shape {
          dim {
            dim_value: 128
          }
        }
      }
    }
  }
  input {
    name: "117"
    type {
      tensor_type {
        elem_type: FLOAT
        shape {
          dim {
            dim_value: 512
          }
          dim {
            dim_value: 128
          }
          dim {
            dim_value: 1
          }
          dim {
            dim_value: 1
          }
        }
      }
    }
  }
  input {
    name: "118"
    type {
      tensor_type {
        elem_type: FLOAT
        shape {
          dim {
            dim_value: 512
          }
        }
      }
    }
  }
  input {
    name: "119"
    type {
      tensor_type {
        elem_type: FLOAT
        shape {
          dim {
            dim_value: 512
          }
        }
      }
    }
  }
  input {
    name: "120"
    type {
      tensor_type {
        elem_type: FLOAT
        shape {
          dim {
            dim_value: 512
          }
        }
      }
    }
  }
  input {
    name: "121"
    type {
      tensor_type {
        elem_type: FLOAT
        shape {
          dim {
            dim_value: 512
          }
        }
      }
    }
  }
  input {
    name: "122"
    type {
      tensor_type {
        elem_type: FLOAT
        shape {
          dim {
            dim_value: 256
          }
          dim {
            dim_value: 512
          }
          dim {
            dim_value: 1
          }
          dim {
            dim_value: 1
          }
        }
      }
    }
  }
  input {
    name: "123"
    type {
      tensor_type {
        elem_type: FLOAT
        shape {
          dim {
            dim_value: 256
          }
        }
      }
    }
  }
  input {
    name: "124"
    type {
      tensor_type {
        elem_type: FLOAT
        shape {
          dim {
            dim_value: 256
          }
        }
      }
    }
  }
  input {
    name: "125"
    type {
      tensor_type {
        elem_type: FLOAT
        shape {
          dim {
            dim_value: 256
          }
        }
      }
    }
  }
  input {
    name: "126"
    type {
      tensor_type {
        elem_type: FLOAT
        shape {
          dim {
            dim_value: 256
          }
        }
      }
    }
  }
  input {
    name: "127"
    type {
      tensor_type {
        elem_type: FLOAT
        shape {
          dim {
            dim_value: 256
          }
          dim {
            dim_value: 256
          }
          dim {
            dim_value: 3
          }
          dim {
            dim_value: 3
          }
        }
      }
    }
  }
  input {
    name: "128"
    type {
      tensor_type {
        elem_type: FLOAT
        shape {
          dim {
            dim_value: 256
          }
        }
      }
    }
  }
  input {
    name: "129"
    type {
      tensor_type {
        elem_type: FLOAT
        shape {
          dim {
            dim_value: 256
          }
        }
      }
    }
  }
  input {
    name: "130"
    type {
      tensor_type {
        elem_type: FLOAT
        shape {
          dim {
            dim_value: 256
          }
        }
      }
    }
  }
  input {
    name: "131"
    type {
      tensor_type {
        elem_type: FLOAT
        shape {
          dim {
            dim_value: 256
          }
        }
      }
    }
  }
  input {
    name: "132"
    type {
      tensor_type {
        elem_type: FLOAT
        shape {
          dim {
            dim_value: 1024
          }
          dim {
            dim_value: 256
          }
          dim {
            dim_value: 1
          }
          dim {
            dim_value: 1
          }
        }
      }
    }
  }
  input {
    name: "133"
    type {
      tensor_type {
        elem_type: FLOAT
        shape {
          dim {
            dim_value: 1024
          }
        }
      }
    }
  }
  input {
    name: "134"
    type {
      tensor_type {
        elem_type: FLOAT
        shape {
          dim {
            dim_value: 1024
          }
        }
      }
    }
  }
  input {
    name: "135"
    type {
      tensor_type {
        elem_type: FLOAT
        shape {
          dim {
            dim_value: 1024
          }
        }
      }
    }
  }
  input {
    name: "136"
    type {
      tensor_type {
        elem_type: FLOAT
        shape {
          dim {
            dim_value: 1024
          }
        }
      }
    }
  }
  input {
    name: "137"
    type {
      tensor_type {
        elem_type: FLOAT
        shape {
          dim {
            dim_value: 1024
          }
          dim {
            dim_value: 512
          }
          dim {
            dim_value: 1
          }
          dim {
            dim_value: 1
          }
        }
      }
    }
  }
  input {
    name: "138"
    type {
      tensor_type {
        elem_type: FLOAT
        shape {
          dim {
            dim_value: 1024
          }
        }
      }
    }
  }
  input {
    name: "139"
    type {
      tensor_type {
        elem_type: FLOAT
        shape {
          dim {
            dim_value: 1024
          }
        }
      }
    }
  }
  input {
    name: "140"
    type {
      tensor_type {
        elem_type: FLOAT
        shape {
          dim {
            dim_value: 1024
          }
        }
      }
    }
  }
  input {
    name: "141"
    type {
      tensor_type {
        elem_type: FLOAT
        shape {
          dim {
            dim_value: 1024
          }
        }
      }
    }
  }
  input {
    name: "142"
    type {
      tensor_type {
        elem_type: FLOAT
        shape {
          dim {
            dim_value: 256
          }
          dim {
            dim_value: 1024
          }
          dim {
            dim_value: 1
          }
          dim {
            dim_value: 1
          }
        }
      }
    }
  }
  input {
    name: "143"
    type {
      tensor_type {
        elem_type: FLOAT
        shape {
          dim {
            dim_value: 256
          }
        }
      }
    }
  }
  input {
    name: "144"
    type {
      tensor_type {
        elem_type: FLOAT
        shape {
          dim {
            dim_value: 256
          }
        }
      }
    }
  }
  input {
    name: "145"
    type {
      tensor_type {
        elem_type: FLOAT
        shape {
          dim {
            dim_value: 256
          }
        }
      }
    }
  }
  input {
    name: "146"
    type {
      tensor_type {
        elem_type: FLOAT
        shape {
          dim {
            dim_value: 256
          }
        }
      }
    }
  }
  input {
    name: "147"
    type {
      tensor_type {
        elem_type: FLOAT
        shape {
          dim {
            dim_value: 256
          }
          dim {
            dim_value: 256
          }
          dim {
            dim_value: 3
          }
          dim {
            dim_value: 3
          }
        }
      }
    }
  }
  input {
    name: "148"
    type {
      tensor_type {
        elem_type: FLOAT
        shape {
          dim {
            dim_value: 256
          }
        }
      }
    }
  }
  input {
    name: "149"
    type {
      tensor_type {
        elem_type: FLOAT
        shape {
          dim {
            dim_value: 256
          }
        }
      }
    }
  }
  input {
    name: "150"
    type {
      tensor_type {
        elem_type: FLOAT
        shape {
          dim {
            dim_value: 256
          }
        }
      }
    }
  }
  input {
    name: "151"
    type {
      tensor_type {
        elem_type: FLOAT
        shape {
          dim {
            dim_value: 256
          }
        }
      }
    }
  }
  input {
    name: "152"
    type {
      tensor_type {
        elem_type: FLOAT
        shape {
          dim {
            dim_value: 1024
          }
          dim {
            dim_value: 256
          }
          dim {
            dim_value: 1
          }
          dim {
            dim_value: 1
          }
        }
      }
    }
  }
  input {
    name: "153"
    type {
      tensor_type {
        elem_type: FLOAT
        shape {
          dim {
            dim_value: 1024
          }
        }
      }
    }
  }
  input {
    name: "154"
    type {
      tensor_type {
        elem_type: FLOAT
        shape {
          dim {
            dim_value: 1024
          }
        }
      }
    }
  }
  input {
    name: "155"
    type {
      tensor_type {
        elem_type: FLOAT
        shape {
          dim {
            dim_value: 1024
          }
        }
      }
    }
  }
  input {
    name: "156"
    type {
      tensor_type {
        elem_type: FLOAT
        shape {
          dim {
            dim_value: 1024
          }
        }
      }
    }
  }
  input {
    name: "157"
    type {
      tensor_type {
        elem_type: FLOAT
        shape {
          dim {
            dim_value: 256
          }
          dim {
            dim_value: 1024
          }
          dim {
            dim_value: 1
          }
          dim {
            dim_value: 1
          }
        }
      }
    }
  }
  input {
    name: "158"
    type {
      tensor_type {
        elem_type: FLOAT
        shape {
          dim {
            dim_value: 256
          }
        }
      }
    }
  }
  input {
    name: "159"
    type {
      tensor_type {
        elem_type: FLOAT
        shape {
          dim {
            dim_value: 256
          }
        }
      }
    }
  }
  input {
    name: "160"
    type {
      tensor_type {
        elem_type: FLOAT
        shape {
          dim {
            dim_value: 256
          }
        }
      }
    }
  }
  input {
    name: "161"
    type {
      tensor_type {
        elem_type: FLOAT
        shape {
          dim {
            dim_value: 256
          }
        }
      }
    }
  }
  input {
    name: "162"
    type {
      tensor_type {
        elem_type: FLOAT
        shape {
          dim {
            dim_value: 256
          }
          dim {
            dim_value: 256
          }
          dim {
            dim_value: 3
          }
          dim {
            dim_value: 3
          }
        }
      }
    }
  }
  input {
    name: "163"
    type {
      tensor_type {
        elem_type: FLOAT
        shape {
          dim {
            dim_value: 256
          }
        }
      }
    }
  }
  input {
    name: "164"
    type {
      tensor_type {
        elem_type: FLOAT
        shape {
          dim {
            dim_value: 256
          }
        }
      }
    }
  }
  input {
    name: "165"
    type {
      tensor_type {
        elem_type: FLOAT
        shape {
          dim {
            dim_value: 256
          }
        }
      }
    }
  }
  input {
    name: "166"
    type {
      tensor_type {
        elem_type: FLOAT
        shape {
          dim {
            dim_value: 256
          }
        }
      }
    }
  }
  input {
    name: "167"
    type {
      tensor_type {
        elem_type: FLOAT
        shape {
          dim {
            dim_value: 1024
          }
          dim {
            dim_value: 256
          }
          dim {
            dim_value: 1
          }
          dim {
            dim_value: 1
          }
        }
      }
    }
  }
  input {
    name: "168"
    type {
      tensor_type {
        elem_type: FLOAT
        shape {
          dim {
            dim_value: 1024
          }
        }
      }
    }
  }
  input {
    name: "169"
    type {
      tensor_type {
        elem_type: FLOAT
        shape {
          dim {
            dim_value: 1024
          }
        }
      }
    }
  }
  input {
    name: "170"
    type {
      tensor_type {
        elem_type: FLOAT
        shape {
          dim {
            dim_value: 1024
          }
        }
      }
    }
  }
  input {
    name: "171"
    type {
      tensor_type {
        elem_type: FLOAT
        shape {
          dim {
            dim_value: 1024
          }
        }
      }
    }
  }
  input {
    name: "172"
    type {
      tensor_type {
        elem_type: FLOAT
        shape {
          dim {
            dim_value: 256
          }
          dim {
            dim_value: 1024
          }
          dim {
            dim_value: 1
          }
          dim {
            dim_value: 1
          }
        }
      }
    }
  }
  input {
    name: "173"
    type {
      tensor_type {
        elem_type: FLOAT
        shape {
          dim {
            dim_value: 256
          }
        }
      }
    }
  }
  input {
    name: "174"
    type {
      tensor_type {
        elem_type: FLOAT
        shape {
          dim {
            dim_value: 256
          }
        }
      }
    }
  }
  input {
    name: "175"
    type {
      tensor_type {
        elem_type: FLOAT
        shape {
          dim {
            dim_value: 256
          }
        }
      }
    }
  }
  input {
    name: "176"
    type {
      tensor_type {
        elem_type: FLOAT
        shape {
          dim {
            dim_value: 256
          }
        }
      }
    }
  }
  input {
    name: "177"
    type {
      tensor_type {
        elem_type: FLOAT
        shape {
          dim {
            dim_value: 256
          }
          dim {
            dim_value: 256
          }
          dim {
            dim_value: 3
          }
          dim {
            dim_value: 3
          }
        }
      }
    }
  }
  input {
    name: "178"
    type {
      tensor_type {
        elem_type: FLOAT
        shape {
          dim {
            dim_value: 256
          }
        }
      }
    }
  }
  input {
    name: "179"
    type {
      tensor_type {
        elem_type: FLOAT
        shape {
          dim {
            dim_value: 256
          }
        }
      }
    }
  }
  input {
    name: "180"
    type {
      tensor_type {
        elem_type: FLOAT
        shape {
          dim {
            dim_value: 256
          }
        }
      }
    }
  }
  input {
    name: "181"
    type {
      tensor_type {
        elem_type: FLOAT
        shape {
          dim {
            dim_value: 256
          }
        }
      }
    }
  }
  input {
    name: "182"
    type {
      tensor_type {
        elem_type: FLOAT
        shape {
          dim {
            dim_value: 1024
          }
          dim {
            dim_value: 256
          }
          dim {
            dim_value: 1
          }
          dim {
            dim_value: 1
          }
        }
      }
    }
  }
  input {
    name: "183"
    type {
      tensor_type {
        elem_type: FLOAT
        shape {
          dim {
            dim_value: 1024
          }
        }
      }
    }
  }
  input {
    name: "184"
    type {
      tensor_type {
        elem_type: FLOAT
        shape {
          dim {
            dim_value: 1024
          }
        }
      }
    }
  }
  input {
    name: "185"
    type {
      tensor_type {
        elem_type: FLOAT
        shape {
          dim {
            dim_value: 1024
          }
        }
      }
    }
  }
  input {
    name: "186"
    type {
      tensor_type {
        elem_type: FLOAT
        shape {
          dim {
            dim_value: 1024
          }
        }
      }
    }
  }
  input {
    name: "187"
    type {
      tensor_type {
        elem_type: FLOAT
        shape {
          dim {
            dim_value: 256
          }
          dim {
            dim_value: 1024
          }
          dim {
            dim_value: 1
          }
          dim {
            dim_value: 1
          }
        }
      }
    }
  }
  input {
    name: "188"
    type {
      tensor_type {
        elem_type: FLOAT
        shape {
          dim {
            dim_value: 256
          }
        }
      }
    }
  }
  input {
    name: "189"
    type {
      tensor_type {
        elem_type: FLOAT
        shape {
          dim {
            dim_value: 256
          }
        }
      }
    }
  }
  input {
    name: "190"
    type {
      tensor_type {
        elem_type: FLOAT
        shape {
          dim {
            dim_value: 256
          }
        }
      }
    }
  }
  input {
    name: "191"
    type {
      tensor_type {
        elem_type: FLOAT
        shape {
          dim {
            dim_value: 256
          }
        }
      }
    }
  }
  input {
    name: "192"
    type {
      tensor_type {
        elem_type: FLOAT
        shape {
          dim {
            dim_value: 256
          }
          dim {
            dim_value: 256
          }
          dim {
            dim_value: 3
          }
          dim {
            dim_value: 3
          }
        }
      }
    }
  }
  input {
    name: "193"
    type {
      tensor_type {
        elem_type: FLOAT
        shape {
          dim {
            dim_value: 256
          }
        }
      }
    }
  }
  input {
    name: "194"
    type {
      tensor_type {
        elem_type: FLOAT
        shape {
          dim {
            dim_value: 256
          }
        }
      }
    }
  }
  input {
    name: "195"
    type {
      tensor_type {
        elem_type: FLOAT
        shape {
          dim {
            dim_value: 256
          }
        }
      }
    }
  }
  input {
    name: "196"
    type {
      tensor_type {
        elem_type: FLOAT
        shape {
          dim {
            dim_value: 256
          }
        }
      }
    }
  }
  input {
    name: "197"
    type {
      tensor_type {
        elem_type: FLOAT
        shape {
          dim {
            dim_value: 1024
          }
          dim {
            dim_value: 256
          }
          dim {
            dim_value: 1
          }
          dim {
            dim_value: 1
          }
        }
      }
    }
  }
  input {
    name: "198"
    type {
      tensor_type {
        elem_type: FLOAT
        shape {
          dim {
            dim_value: 1024
          }
        }
      }
    }
  }
  input {
    name: "199"
    type {
      tensor_type {
        elem_type: FLOAT
        shape {
          dim {
            dim_value: 1024
          }
        }
      }
    }
  }
  input {
    name: "200"
    type {
      tensor_type {
        elem_type: FLOAT
        shape {
          dim {
            dim_value: 1024
          }
        }
      }
    }
  }
  input {
    name: "201"
    type {
      tensor_type {
        elem_type: FLOAT
        shape {
          dim {
            dim_value: 1024
          }
        }
      }
    }
  }
  input {
    name: "202"
    type {
      tensor_type {
        elem_type: FLOAT
        shape {
          dim {
            dim_value: 256
          }
          dim {
            dim_value: 1024
          }
          dim {
            dim_value: 1
          }
          dim {
            dim_value: 1
          }
        }
      }
    }
  }
  input {
    name: "203"
    type {
      tensor_type {
        elem_type: FLOAT
        shape {
          dim {
            dim_value: 256
          }
        }
      }
    }
  }
  input {
    name: "204"
    type {
      tensor_type {
        elem_type: FLOAT
        shape {
          dim {
            dim_value: 256
          }
        }
      }
    }
  }
  input {
    name: "205"
    type {
      tensor_type {
        elem_type: FLOAT
        shape {
          dim {
            dim_value: 256
          }
        }
      }
    }
  }
  input {
    name: "206"
    type {
      tensor_type {
        elem_type: FLOAT
        shape {
          dim {
            dim_value: 256
          }
        }
      }
    }
  }
  input {
    name: "207"
    type {
      tensor_type {
        elem_type: FLOAT
        shape {
          dim {
            dim_value: 256
          }
          dim {
            dim_value: 256
          }
          dim {
            dim_value: 3
          }
          dim {
            dim_value: 3
          }
        }
      }
    }
  }
  input {
    name: "208"
    type {
      tensor_type {
        elem_type: FLOAT
        shape {
          dim {
            dim_value: 256
          }
        }
      }
    }
  }
  input {
    name: "209"
    type {
      tensor_type {
        elem_type: FLOAT
        shape {
          dim {
            dim_value: 256
          }
        }
      }
    }
  }
  input {
    name: "210"
    type {
      tensor_type {
        elem_type: FLOAT
        shape {
          dim {
            dim_value: 256
          }
        }
      }
    }
  }
  input {
    name: "211"
    type {
      tensor_type {
        elem_type: FLOAT
        shape {
          dim {
            dim_value: 256
          }
        }
      }
    }
  }
  input {
    name: "212"
    type {
      tensor_type {
        elem_type: FLOAT
        shape {
          dim {
            dim_value: 1024
          }
          dim {
            dim_value: 256
          }
          dim {
            dim_value: 1
          }
          dim {
            dim_value: 1
          }
        }
      }
    }
  }
  input {
    name: "213"
    type {
      tensor_type {
        elem_type: FLOAT
        shape {
          dim {
            dim_value: 1024
          }
        }
      }
    }
  }
  input {
    name: "214"
    type {
      tensor_type {
        elem_type: FLOAT
        shape {
          dim {
            dim_value: 1024
          }
        }
      }
    }
  }
  input {
    name: "215"
    type {
      tensor_type {
        elem_type: FLOAT
        shape {
          dim {
            dim_value: 1024
          }
        }
      }
    }
  }
  input {
    name: "216"
    type {
      tensor_type {
        elem_type: FLOAT
        shape {
          dim {
            dim_value: 1024
          }
        }
      }
    }
  }
  input {
    name: "217"
    type {
      tensor_type {
        elem_type: FLOAT
        shape {
          dim {
            dim_value: 512
          }
          dim {
            dim_value: 1024
          }
          dim {
            dim_value: 1
          }
          dim {
            dim_value: 1
          }
        }
      }
    }
  }
  input {
    name: "218"
    type {
      tensor_type {
        elem_type: FLOAT
        shape {
          dim {
            dim_value: 512
          }
        }
      }
    }
  }
  input {
    name: "219"
    type {
      tensor_type {
        elem_type: FLOAT
        shape {
          dim {
            dim_value: 512
          }
        }
      }
    }
  }
  input {
    name: "220"
    type {
      tensor_type {
        elem_type: FLOAT
        shape {
          dim {
            dim_value: 512
          }
        }
      }
    }
  }
  input {
    name: "221"
    type {
      tensor_type {
        elem_type: FLOAT
        shape {
          dim {
            dim_value: 512
          }
        }
      }
    }
  }
  input {
    name: "222"
    type {
      tensor_type {
        elem_type: FLOAT
        shape {
          dim {
            dim_value: 512
          }
          dim {
            dim_value: 512
          }
          dim {
            dim_value: 3
          }
          dim {
            dim_value: 3
          }
        }
      }
    }
  }
  input {
    name: "223"
    type {
      tensor_type {
        elem_type: FLOAT
        shape {
          dim {
            dim_value: 512
          }
        }
      }
    }
  }
  input {
    name: "224"
    type {
      tensor_type {
        elem_type: FLOAT
        shape {
          dim {
            dim_value: 512
          }
        }
      }
    }
  }
  input {
    name: "225"
    type {
      tensor_type {
        elem_type: FLOAT
        shape {
          dim {
            dim_value: 512
          }
        }
      }
    }
  }
  input {
    name: "226"
    type {
      tensor_type {
        elem_type: FLOAT
        shape {
          dim {
            dim_value: 512
          }
        }
      }
    }
  }
  input {
    name: "227"
    type {
      tensor_type {
        elem_type: FLOAT
        shape {
          dim {
            dim_value: 2048
          }
          dim {
            dim_value: 512
          }
          dim {
            dim_value: 1
          }
          dim {
            dim_value: 1
          }
        }
      }
    }
  }
  input {
    name: "228"
    type {
      tensor_type {
        elem_type: FLOAT
        shape {
          dim {
            dim_value: 2048
          }
        }
      }
    }
  }
  input {
    name: "229"
    type {
      tensor_type {
        elem_type: FLOAT
        shape {
          dim {
            dim_value: 2048
          }
        }
      }
    }
  }
  input {
    name: "230"
    type {
      tensor_type {
        elem_type: FLOAT
        shape {
          dim {
            dim_value: 2048
          }
        }
      }
    }
  }
  input {
    name: "231"
    type {
      tensor_type {
        elem_type: FLOAT
        shape {
          dim {
            dim_value: 2048
          }
        }
      }
    }
  }
  input {
    name: "232"
    type {
      tensor_type {
        elem_type: FLOAT
        shape {
          dim {
            dim_value: 2048
          }
          dim {
            dim_value: 1024
          }
          dim {
            dim_value: 1
          }
          dim {
            dim_value: 1
          }
        }
      }
    }
  }
  input {
    name: "233"
    type {
      tensor_type {
        elem_type: FLOAT
        shape {
          dim {
            dim_value: 2048
          }
        }
      }
    }
  }
  input {
    name: "234"
    type {
      tensor_type {
        elem_type: FLOAT
        shape {
          dim {
            dim_value: 2048
          }
        }
      }
    }
  }
  input {
    name: "235"
    type {
      tensor_type {
        elem_type: FLOAT
        shape {
          dim {
            dim_value: 2048
          }
        }
      }
    }
  }
  input {
    name: "236"
    type {
      tensor_type {
        elem_type: FLOAT
        shape {
          dim {
            dim_value: 2048
          }
        }
      }
    }
  }
  input {
    name: "237"
    type {
      tensor_type {
        elem_type: FLOAT
        shape {
          dim {
            dim_value: 512
          }
          dim {
            dim_value: 2048
          }
          dim {
            dim_value: 1
          }
          dim {
            dim_value: 1
          }
        }
      }
    }
  }
  input {
    name: "238"
    type {
      tensor_type {
        elem_type: FLOAT
        shape {
          dim {
            dim_value: 512
          }
        }
      }
    }
  }
  input {
    name: "239"
    type {
      tensor_type {
        elem_type: FLOAT
        shape {
          dim {
            dim_value: 512
          }
        }
      }
    }
  }
  input {
    name: "240"
    type {
      tensor_type {
        elem_type: FLOAT
        shape {
          dim {
            dim_value: 512
          }
        }
      }
    }
  }
  input {
    name: "241"
    type {
      tensor_type {
        elem_type: FLOAT
        shape {
          dim {
            dim_value: 512
          }
        }
      }
    }
  }
  input {
    name: "242"
    type {
      tensor_type {
        elem_type: FLOAT
        shape {
          dim {
            dim_value: 512
          }
          dim {
            dim_value: 512
          }
          dim {
            dim_value: 3
          }
          dim {
            dim_value: 3
          }
        }
      }
    }
  }
  input {
    name: "243"
    type {
      tensor_type {
        elem_type: FLOAT
        shape {
          dim {
            dim_value: 512
          }
        }
      }
    }
  }
  input {
    name: "244"
    type {
      tensor_type {
        elem_type: FLOAT
        shape {
          dim {
            dim_value: 512
          }
        }
      }
    }
  }
  input {
    name: "245"
    type {
      tensor_type {
        elem_type: FLOAT
        shape {
          dim {
            dim_value: 512
          }
        }
      }
    }
  }
  input {
    name: "246"
    type {
      tensor_type {
        elem_type: FLOAT
        shape {
          dim {
            dim_value: 512
          }
        }
      }
    }
  }
  input {
    name: "247"
    type {
      tensor_type {
        elem_type: FLOAT
        shape {
          dim {
            dim_value: 2048
          }
          dim {
            dim_value: 512
          }
          dim {
            dim_value: 1
          }
          dim {
            dim_value: 1
          }
        }
      }
    }
  }
  input {
    name: "248"
    type {
      tensor_type {
        elem_type: FLOAT
        shape {
          dim {
            dim_value: 2048
          }
        }
      }
    }
  }
  input {
    name: "249"
    type {
      tensor_type {
        elem_type: FLOAT
        shape {
          dim {
            dim_value: 2048
          }
        }
      }
    }
  }
  input {
    name: "250"
    type {
      tensor_type {
        elem_type: FLOAT
        shape {
          dim {
            dim_value: 2048
          }
        }
      }
    }
  }
  input {
    name: "251"
    type {
      tensor_type {
        elem_type: FLOAT
        shape {
          dim {
            dim_value: 2048
          }
        }
      }
    }
  }
  input {
    name: "252"
    type {
      tensor_type {
        elem_type: FLOAT
        shape {
          dim {
            dim_value: 512
          }
          dim {
            dim_value: 2048
          }
          dim {
            dim_value: 1
          }
          dim {
            dim_value: 1
          }
        }
      }
    }
  }
  input {
    name: "253"
    type {
      tensor_type {
        elem_type: FLOAT
        shape {
          dim {
            dim_value: 512
          }
        }
      }
    }
  }
  input {
    name: "254"
    type {
      tensor_type {
        elem_type: FLOAT
        shape {
          dim {
            dim_value: 512
          }
        }
      }
    }
  }
  input {
    name: "255"
    type {
      tensor_type {
        elem_type: FLOAT
        shape {
          dim {
            dim_value: 512
          }
        }
      }
    }
  }
  input {
    name: "256"
    type {
      tensor_type {
        elem_type: FLOAT
        shape {
          dim {
            dim_value: 512
          }
        }
      }
    }
  }
  input {
    name: "257"
    type {
      tensor_type {
        elem_type: FLOAT
        shape {
          dim {
            dim_value: 512
          }
          dim {
            dim_value: 512
          }
          dim {
            dim_value: 3
          }
          dim {
            dim_value: 3
          }
        }
      }
    }
  }
  input {
    name: "258"
    type {
      tensor_type {
        elem_type: FLOAT
        shape {
          dim {
            dim_value: 512
          }
        }
      }
    }
  }
  input {
    name: "259"
    type {
      tensor_type {
        elem_type: FLOAT
        shape {
          dim {
            dim_value: 512
          }
        }
      }
    }
  }
  input {
    name: "260"
    type {
      tensor_type {
        elem_type: FLOAT
        shape {
          dim {
            dim_value: 512
          }
        }
      }
    }
  }
  input {
    name: "261"
    type {
      tensor_type {
        elem_type: FLOAT
        shape {
          dim {
            dim_value: 512
          }
        }
      }
    }
  }
  input {
    name: "262"
    type {
      tensor_type {
        elem_type: FLOAT
        shape {
          dim {
            dim_value: 2048
          }
          dim {
            dim_value: 512
          }
          dim {
            dim_value: 1
          }
          dim {
            dim_value: 1
          }
        }
      }
    }
  }
  input {
    name: "263"
    type {
      tensor_type {
        elem_type: FLOAT
        shape {
          dim {
            dim_value: 2048
          }
        }
      }
    }
  }
  input {
    name: "264"
    type {
      tensor_type {
        elem_type: FLOAT
        shape {
          dim {
            dim_value: 2048
          }
        }
      }
    }
  }
  input {
    name: "265"
    type {
      tensor_type {
        elem_type: FLOAT
        shape {
          dim {
            dim_value: 2048
          }
        }
      }
    }
  }
  input {
    name: "266"
    type {
      tensor_type {
        elem_type: FLOAT
        shape {
          dim {
            dim_value: 2048
          }
        }
      }
    }
  }
  input {
    name: "267"
    type {
      tensor_type {
        elem_type: FLOAT
        shape {
          dim {
            dim_value: 1000
          }
          dim {
            dim_value: 2048
          }
        }
      }
    }
  }
  input {
    name: "268"
    type {
      tensor_type {
        elem_type: FLOAT
        shape {
          dim {
            dim_value: 1000
          }
        }
      }
    }
  }
  output {
    name: "550"
    type {
      tensor_type {
        elem_type: FLOAT
        shape {
          dim {
            dim_value: 2
          }
          dim {
            dim_value: 1000
          }
        }
      }
    }
  }
}
